models/102.pth (torch, 501905 bytes, 80 tensors)

conv0.conv.weight f4 [32, 17, 3, 3]
000000 9b b0 02 be 19 ad 46 3e 92 81 ef bd 74 9c 10 3e
       -0.12762682 0.19401969 -0.116946355 0.14122182
000010 bb bd 3c be ba d0 4d 3e 1a 3a b1 bd 02 d5 f5 3d
       -0.18431751 0.20099154 -0.0865366 0.12003519
000020 45 57 df 3c 5d e4 75 3d ee 69 60 bd 94 47 7a 3d
       0.027263293 0.060032237 -0.054788522 0.06110342
000030 df 68 01 bc ac b3 f0 bd 4d 58 ef 3d e8 25 ad 3d
       -0.007898538 -0.1175302 0.11686764 0.08454496
000040 6a 40 36 bc 47 b8 d0 3c c7 33 a2 3d f3 1f cc bd
       -0.011123756 0.025478495 0.07920032 -0.09967031
000050 43 d6 73 3d 24 93 e0 3c 01 e4 ca 3c fc 04 af 3d
       0.059530508 0.027413912 0.024766924 0.085458726
000060 32 23 14 3d 28 de 3d bd 92 0d 1d 3d 52 2d be 3c
       0.036166377 -0.046354443 0.03834302 0.02321497
000070 55 ea 3d bd 48 1c e7 bc f0 97 54 3d 84 db 1d bb
       -0.046366055 -0.028211728 0.05190271 -0.002408714
000080 1e 5b 1b bc 34 d8 b7 bc 7c a7 5d bd bb 22 4e 3c
       -0.009482173 -0.02244196 -0.054114804 0.012581523
000090 b3 ff ab 3d 20 85 9a 3d 70 aa 12 3e b9 1a 76 3c
       0.0839838 0.07544923 0.14322829 0.01502102
0000a0 bf 11 a3 be 66 05 73 3e b6 5f f5 3d 62 ea 66 3e
       -0.31849477 0.23732528 0.11981146 0.22550347
0000b0 8e 73 cb 3d 22 87 82 3c c6 d9 7b 3d 32 37 e9 3d
       0.0993415 0.015933577 0.06148698 0.11387481
0000c0 75 e0 ea 3d c1 93 b3 bd 47 23 fd 3d d0 b3 64 3e
       0.11468593 -0.08768416 0.12360244 0.22334218
0000d0 41 11 b9 3d ef 30 27 3d fa 1b b3 3d 53 b7 fe 3d
       0.09036494 0.04081815 0.087455705 0.1243731
0000e0 18 9c ee 3d 4f 4f 7d 3e 5b 4e 02 be a0 2c bf 3d
       0.11650866 0.24737285 -0.12725203 0.093346834
0000f0 a8 91 18 3e 3f 62 66 3d 8d 86 ca 3d 35 15 a3 3d
       0.14899313 0.05624604 0.09888945 0.07963029
000100 f1 81 e8 3d f6 f9 c5 3d 26 1b 82 3d fa 12 af bc
       0.11352909 0.09666817 0.063528344 -0.021371353
000110 f0 56 48 3e de 09 0e 3e 97 f5 53 3d 52 4d 59 3d
       0.19564414 0.13870952 0.051747885 0.053052254
000120 94 c2 15 3d f6 b6 b7 3d 39 a1 51 bd 04 6a 39 3d
       0.036562517 0.08970444 -0.051179145 0.04526712
000130 d1 09 4f 3e c3 a6 23 3d 06 f7 82 bd 42 7f e2 3d
       0.20218588 0.03995396 -0.06394772 0.11059429
000140 e8 ae 82 bc 17 19 be bd 0e ff 01 3d 6c 94 35 bd
       -0.015952542 -0.09282129 0.03173738 -0.044331
000150 ea bf ab bc 49 58 c3 3e c5 14 8f 3d 15 b0 19 bd
       -0.020965535 0.38153294 0.06986383 -0.03752144
000160 4f 31 92 3d 9e 69 0f 3d c4 80 cd 3b 53 cd 39 3d
       0.07138311 0.035012834 0.0062714536 0.045361828
000170 3e 00 c4 bc 4e 50 31 3d 49 c3 8a 3e 0a 06 e2 39
       -0.023925897 0.043289475 0.27102116 0.0004311058
000180 d8 d3 f4 bc f0 dc c2 3d cd 6c 77 bc 73 ee 87 bc
       -0.029886171 0.09514797 -0.015101624 -0.016593194
000190 dd 60 57 3d 02 77 5d bd 68 e3 71 3d 59 cf 8d 3e
       0.05258261 -0.054068573 0.059054762 0.27697256
0001a0 d2 e0 56 3d 85 29 a5 bd 51 08 d0 3d 65 b6 fe 3b
       0.0524605 -0.0806456 0.10157836 0.007773208
0001b0 6e 04 33 bc 5e 57 aa bd 71 25 9d 3d 6e 29 a3 bd
       -0.010926349 -0.08317445 0.07673157 -0.079668865
0001c0 cb cd e3 bd 56 84 0b be 5f 56 01 3d f3 16 ea bd
       -0.11123236 -0.13624701 0.03157651 -0.114301585
0001d0 e3 90 9a 3d 49 cb 64 bd eb 8b a0 3c f5 26 ba 3d
       0.07547166 -0.05585793 0.019597968 0.09089462
0001e0 32 8d 51 bd d4 2e f9 3d f8 b8 ea bc a1 45 47 3c
       -0.051160045 0.12167135 -0.028652653 0.012162597
0001f0 5f 58 8b 3d fb c2 e5 3d d2 c8 bc bc fc 35 4b 3d
       0.06803965 0.1121883 -0.023044977 0.04961203
000200 1b 37 8d 3d 90 cc c3 bc 87 ab ea 3d 66 8a 49 3d
       0.06895276 -0.023901254 0.114584975 0.049204253
000210 9a 13 8c ba 7b 6a a4 3c 1b a3 07 3b ac 95 51 3c
       -0.0010686994 0.020070305 0.0020696584 0.012792032
000220 c8 2c 86 3d 7f 0c 81 3c 23 4b ce 3c 92 ff ac 3c
       0.0655151 0.015753029 0.025182312 0.02111796
000230 1c 5f f0 bc 0a 0f 58 3d 02 3c ac bd ab 0c cc 3d
       -0.029342227 0.052748717 -0.08409883 0.09963354
000240 d5 d6 88 3d 24 af 6d 3d 13 d8 8b bd f9 ed be 3d
       0.06681601 0.058028355 -0.06828322 0.093227334
000250 92 0d bd 3c 52 15 f0 3d ba 53 b3 3b e2 a4 8c 3c
       0.02307776 0.117228165 0.0054726275 0.017168466
000260 57 70 19 3b 12 74 1a 3e c5 33 d5 3d 3d e8 0d bc
       0.0023412907 0.1508334 0.10410265 -0.008661327
000270 ec 79 54 bd 5a 04 a4 be cb 19 e8 3d 4c 96 fd 3b
       -0.051874086 -0.3203457 0.113330446 0.007738864
000280 bd 16 1b bd f1 0e 10 be 72 6e 17 bd 06 f1 93 3d
       -0.03786348 -0.140682 -0.036970563 0.07223706
000290 40 b0 2e be 53 86 bd bd 28 d9 57 be 03 b1 4d be
       -0.17059422 -0.09254136 -0.21078932 -0.20087056
0002a0 9d f8 51 bb fd 8f 0b be 72 fa 20 bd 1d df ee bd
       -0.0032039054 -0.13629146 -0.039301343 -0.11663649
0002b0 cd 42 73 3d bf 7e 5f be 33 19 9b bd 9a 15 e8 3d
       0.059389878 -0.21825694 -0.07573166 0.11332245
0002c0 88 5d dd bd a7 59 44 3d 7e 61 65 be c4 c0 d0 bd
       -0.10808855 0.04793706 -0.22400472 -0.10193017
0002d0 5d ed cc bd b3 2f 95 3d 46 2a c1 bd bb a3 e3 bd
       -0.10006211 0.072844885 -0.09431891 -0.111152135
0002e0 62 d1 cd 3c 3b a8 68 be 5d e9 7b 3c 21 a8 f1 bd
       0.025124256 -0.22720425 0.015375462 -0.11799646
0002f0 41 f8 a1 bd f7 ed 5e 3d f0 22 d9 bd 5b 0b ec bd
       -0.07908679 0.05442616 -0.10602367 -0.115256034
000300 41 ba 65 3d b3 43 2e be 06 b4 2b be 82 b6 6a 3d
       0.05608583 -0.17018013 -0.16767892 0.05730296
000310 88 fe 46 3d 3c f6 17 be 54 da 0c be 81 1c 1c bd
       0.048582584 -0.14840025 -0.1375516 -0.03811312
000320 7c 6b 24 be 38 86 22 be 9e 87 5e bd 37 53 2d be
       -0.16056627 -0.15871513 -0.054328553 -0.16926275
000330 97 19 86 be c7 2c 39 bd 1f 90 5c be 09 e2 24 be
       -0.26191399 -0.04520872 -0.21539353 -0.1610185
000340 8b 6a 08 be e5 1c a1 be 37 e0 b9 bd b2 74 82 bd
       -0.13321893 -0.31467357 -0.09075969 -0.06369914
000350 2b 04 31 be 80 74 41 be 2c 55 8c be 3b 8a 8d be
       -0.17286746 -0.18892097 -0.2740873 -0.27644524
000360 73 75 1c be 96 29 69 be bc 92 71 be 16 75 b0 bd
       -0.15279178 -0.2276977 -0.23591131 -0.08616082
000370 d8 78 86 be e8 98 5a be fc 1e 2e be 7f 51 c0 bd
       -0.2626407 -0.21347392 -0.17004007 -0.09390544
000380 09 88 85 be f1 96 3e bd 0e ea c6 3b c6 d9 30 3d
       -0.2608035 -0.046530668 0.006070382 0.043176435
000390 a8 62 b3 3b 13 81 43 be cb 4c b8 3d 9f 2e 13 bd
       0.005474407 -0.19092207 0.08999022 -0.035933133
0003a0 8e 03 0c bc a1 72 0c 3e 9b 2e 0a bd 12 40 b0 3d
       -0.008545769 0.13715602 -0.033735853 0.086059704
0003b0 40 aa ba 3d cd bd 47 3d 91 b8 7c 3d dc fd 1c 3e
       0.09114504 0.048764993 0.061699454 0.15331215
0003c0 7b d7 58 3d 7a f6 8c 3d 3f 9e 43 3c c1 ae ca 3c
       0.052939873 0.06882949 0.011939584 0.024741532
0003d0 ec 1f 72 3d b1 08 c5 3d 96 99 66 3d 1c f9 4f 3d
       0.059112474 0.096207984 0.056298815 0.05077468
0003e0 9c 9a b1 3c d4 9c 40 3d b7 f8 bc 3d a9 9b 59 3d
       0.021680169 0.047024563 0.09227126 0.053126965
0003f0 5d 79 d9 3c c4 b8 d2 3d 8a a3 ec 3d c3 de 48 3d
       0.026547128 0.102891475 0.1155463 0.049040567

conv0.conv.bias f4 [32]
000000 cc 8b 0a 3b c7 a1 31 bb d0 f3 3e 3c b4 17 c2 3a
       0.0021140454 -0.0027104483 0.011654809 0.001480809
000010 1c a4 00 3b 11 c0 b0 bc f7 1f 09 ba 1b 98 cd 39
       0.0019629067 -0.02157596 -0.00052308984 0.00039213974
000020 95 46 1b bc d2 80 b4 3c 26 ed 2d 38 39 e8 31 3b
       -0.009477277 0.022034083 4.1467276e-05 0.0027146472
000030 e9 fc b9 b9 e8 ca 71 3c 4a 7e d6 bb 38 38 ac ba
       -0.00035474382 0.014757849 -0.0065458165 -0.0013139313
000040 85 da 03 b9 91 83 a8 bb f7 77 3b bc a2 c8 eb 3b
       -0.00012574538 -0.005142637 -0.011442176 0.007195548
000050 de bd 8b ba 88 4f 74 bc 5d 6c 94 ba 9d 51 9e 3a
       -0.0010661443 -0.01491154 -0.0011323799 0.0012078766
000060 f9 63 91 ba 4c ab 70 bc 95 d0 7f 3a 0d 2d 24 bc
       -0.0011092416 -0.014689278 0.0009758559 -0.010020507
000070 48 d9 cc 3b 56 00 18 bc bc 52 97 3c c0 2b 7a 3b
       0.006251488 -0.009277424 0.018472068 0.003817305

conv0.bn.weight f4 [32]
000000 c6 04 67 3f 4f b1 5a 3f 90 92 3e 3f 30 1c 62 3f
       0.9024166 0.854268 0.74442387 0.8832426
000010 6d 4a 4e 3f 54 13 59 3f 33 f4 4f 3f 22 0d 5f 3f
       0.80582315 0.8479512 0.81231993 0.87129414
000020 45 af 6a 3f 77 dd 65 3f e3 97 48 3f 1d d9 46 3f
       0.9167369 0.89791054 0.7835676 0.7767504
000030 69 6f 4f 3f ed 5f 68 3f 01 db 45 3f 5a 86 7f 3f
       0.81029373 0.9077137 0.772873 0.9981438
000040 4f 47 4b 3f a5 85 9b 3f e6 73 5b 3f b7 c4 48 3f
       0.79405683 1.215016 0.8572372 0.78425163
000050 c3 eb 44 3f f3 2c 6d 3f 24 a6 66 3f 60 3c 51 3f
       0.76922244 0.9264671 0.9009726 0.8173275
000060 f9 bd 76 3f 40 34 5a 3f 06 7d 64 3f f8 8d 61 3f
       0.96383625 0.8523598 0.8925327 0.8810725
000070 b8 74 78 3f ef ac 48 3f 15 b2 55 3f 20 95 4c 3f
       0.970531 0.78388876 0.83474857 0.79915047

conv0.bn.bias f4 [32]
000000 9a ee e7 be b9 de d8 bd 9c 04 0a be bd 59 b4 be
       -0.45299226 -0.10589356 -0.13478321 -0.35224715
000010 5c f5 25 be 2c 5b 79 bd d6 6b 6a bd 0f ac 89 be
       -0.16206878 -0.060877964 -0.057231747 -0.26889083
000020 6d 30 63 be bb 57 71 be fe e5 02 bd e4 05 0a 3d
       -0.22186442 -0.23568623 -0.03195762 0.033697024
000030 f0 fa 0b be 13 8a 07 be 3f 73 98 be 10 32 08 be
       -0.13669944 -0.13236265 -0.29775426 -0.13300347
000040 49 c5 bc bd 64 5f d6 3b 0e 40 ec bd e9 87 54 be
       -0.09217317 0.006542133 -0.11535655 -0.2075497
000050 61 8a e6 bd 93 8c f4 3c 9b 6b 45 be fc 04 13 be
       -0.112568624 0.029852187 -0.1927933 -0.1435737
000060 91 c5 93 bd a1 79 e9 bd d7 cd 62 be cf c9 12 bd
       -0.07215417 -0.11400152 -0.22148834 -0.03583699
000070 9d 06 30 be a9 ab db 3d cb 2e 71 bd 12 1b b9 bb
       -0.17190023 0.10726101 -0.058882516 -0.005648979

conv0.bn.running_mean f4 [32]
000000 96 27 31 3e 92 3e 52 3d 45 cd 11 bd 8f 19 64 bd
       0.17300257 0.051329203 -0.03559615 -0.055688437
000010 ee bf 34 3d 6e e3 1f bd a7 af 28 be aa 85 2e 3e
       0.04412835 -0.039035253 -0.16473256 0.17043176
000020 03 27 a6 bd 87 2c e5 bc c6 08 ec 3c 77 7f 50 3d
       -0.0811291 -0.027975334 0.028812777 0.05090281
000030 c3 e7 82 bc 1c be 62 bc db c7 87 3d 4d 8f 0c 3e
       -0.015979653 -0.013839271 0.06629916 0.1372654
000040 92 37 ca 3d 36 d7 e1 bd e9 7a 26 be 57 1b 0b bd
       0.098738804 -0.11027376 -0.16257824 -0.03396162
000050 b6 56 7e 3c 24 c2 1b bd e9 a7 ad bd cd 8a 84 3d
       0.015523603 -0.038026944 -0.08479292 0.06471787
000060 ba af 66 bd b6 cb 8c bd e4 1f 95 bb 86 2b 6a bd
       -0.05631993 -0.06874792 -0.004550921 -0.057170413
000070 e9 89 3c 3e 36 a3 c4 3d 30 29 90 bd 4c 79 9c 3d
       0.18411984 0.096014425 -0.07039106 0.07640323

conv0.bn.running_var f4 [32]
000000 c8 24 2e 3d 76 ce 04 3d 3c c8 30 3d 37 9e 05 3d
       0.042515546 0.03242346 0.04315971 0.03262159
000010 23 76 04 3d 7e 18 18 3d 5a 0d 9c 3d d5 05 17 3d
       0.032339226 0.037132733 0.07619734 0.036870796
000020 eb 48 27 3d e4 77 26 3d e9 d3 1a 3d a0 83 33 3d
       0.040841024 0.04064168 0.03779975 0.0438267
000030 0b 4a 29 3d 7b e1 db 3c 17 b5 21 3d ad ca 0a 3d
       0.04133038 0.026840916 0.03947934 0.033884693
000040 78 d5 df 3c 67 9a 5d 3d 29 b2 58 3d 7c 11 04 3d
       0.02732347 0.054102328 0.05290428 0.032243237
000050 02 ad 78 3d 02 ba 22 3d 19 9b 03 3d 3f 5a f8 3c
       0.060711868 0.039728172 0.032130335 0.03031647
000060 13 2d 08 3d 1a 4c 2b 3d da 65 0f 3d 33 bb 0d 3d
       0.03324611 0.041820623 0.035009243 0.034602355
000070 7a 86 4c 3d 17 a4 1f 3d f7 11 2d 3d a1 03 30 3d
       0.049932934 0.038974848 0.04225346 0.04297221

blocks.0.conv.weight f4 [32, 32, 3, 3]
000000 29 43 ef 3d 77 9c 5f bd bb a4 cc 3d d5 89 17 be
       0.11682732 -0.054592576 0.09992357 -0.14798672
000010 68 6e e9 3d da ff 26 be 9f 5f c1 3d db ad 01 be
       0.113980114 -0.16308537 0.094420664 -0.12663977
000020 88 9c 82 3d 74 5e 3a 3e e3 7d 8a bc 61 83 6f bc
       0.06377512 0.18200094 -0.01690573 -0.0146187255
000030 2d d8 b1 bd f3 17 c8 bd 1d d2 40 3b c5 37 0b 3e
       -0.086838104 -0.09770193 0.0029422112 0.13595493
000040 65 61 4e bd 30 89 60 bd dc c7 e3 3d 6f 25 eb bc
       -0.05038585 -0.054818332 0.111221045 -0.028704373
000050 fa 4e 59 3d 92 de e3 bd a0 d9 90 bc a6 5f 86 bd
       0.053053834 -0.11126436 -0.017681897 -0.06561212
000060 ba c0 9e 3d 96 20 8d bd 03 fe 9f 3c 83 a9 46 3d
       0.077516034 -0.06890981 0.019530302 0.048501503
000070 fd 5d d0 3d 4c 03 84 3d 1c ec 9c bd f6 9a 27 bd
       0.10174177 0.06445941 -0.07662222 -0.040919267
000080 05 9e 99 3c 9e 97 64 bd 3b f9 ad bd 8a 39 67 3c
       0.018752107 -0.055808656 -0.084948026 0.0141128395
000090 eb 87 46 3c 03 60 4e 3e 03 48 c8 bc d9 6a 89 3c
       0.012117366 0.20153813 -0.0244484 0.016774582
0000a0 2e 58 ce bb ba a6 fe 3d d0 31 7d bd 4f 41 15 be
       -0.006297133 0.12434144 -0.061815083 -0.14575695
0000b0 20 62 4b 3c 26 56 c7 3c ef d8 6f bd 99 94 0b 3d
       0.012413532 0.024333071 -0.058556493 0.03407726
0000c0 aa 1a 79 bd 60 26 e4 3c 78 80 d3 3c 99 d9 6c bc
       -0.060816444 0.02785033 0.025818095 -0.014456176
0000d0 9f 9e 6d 3d da 55 44 3e be ce 41 3c 55 8a c7 bd
       0.0580126 0.19173375 0.011829076 -0.097431816
0000e0 a6 0d 47 3d 8d e1 89 3d 5b 36 70 3d 88 90 e2 bd
       0.048597 0.067324735 0.058645587 -0.110627234
0000f0 6e 39 a1 3d 19 91 d6 3c a5 5e d6 3c fd 06 10 3e
       0.07872282 0.026192235 0.026168177 0.14065166
000100 28 a7 5a 3d b0 31 29 3e 60 6f cd 3d f9 bf 4f 3e
       0.05338207 0.1652286 0.10031009 0.20288076
000110 da 2a 53 bd c8 f8 f2 3d 76 ee 8f bc e3 3d 48 bd
       -0.05155454 0.118638575 -0.017569762 -0.048887145
000120 93 8f 2a 3d e7 19 a0 be 7b 35 50 3b 17 15 6a bd
       0.04164083 -0.31269762 0.0031770158 -0.05714902
000130 a9 55 41 3d e9 19 82 bc 64 f6 15 bd c6 cf 5d 3e
       0.047200833 -0.015881496 -0.03661193 0.2166129
000140 9c ca 7e bd 00 dd d8 bd 9c b1 ab bb 51 5c 26 3d
       -0.062204942 -0.105890274 -0.0052396785 0.040615384
000150 f9 b7 24 3c 28 39 41 3e eb c2 9b 3d 96 16 2d 3d
       0.010053628 0.1886946 0.07605537 0.042257868
000160 67 c9 7d 3c d0 ea 3b bd f6 3d 3c 3d 41 26 f7 bd
       0.015489913 -0.04587823 0.045957528 -0.12067843
000170 96 a6 0e 3e 86 65 37 3d d3 ba ec 3d 47 45 56 bd
       0.13930735 0.044774555 0.115590714 -0.05231216
000180 52 96 81 3d b1 89 8e ba e5 75 cc bc 71 6e 4d 3d
       0.063274994 -0.0010874775 -0.02495856 0.050154153
000190 4d 60 49 3d 1b 1a 7d 3e 29 59 f1 bc e3 16 52 3d
       0.049164105 0.2471699 -0.02946146 0.051291358
0001a0 e9 cc b5 bb af f7 b9 3d b9 79 04 3d f8 60 cd 3b
       -0.005548109 0.09080445 0.032342646 0.006267663
0001b0 92 07 44 be f6 25 d6 bb d2 9e 8c 3d 1b 69 09 3e
       -0.19143513 -0.006535287 0.0686623 0.13419001
0001c0 96 58 ff 3d a9 9d bc bc 12 b1 c8 bc 53 04 bd 3d
       0.12468068 -0.023024397 -0.024498496 0.092293404
0001d0 e5 44 8b bd f7 41 a6 bd 7f c5 ad bd 5d e0 40 be
       -0.0680025 -0.081180505 -0.08484935 -0.18835588
0001e0 4c 23 9f bd f8 ac 8b bd b0 db 8c bd 0f 80 72 bc
       -0.07770404 -0.068201005 -0.068778396 -0.014801039
0001f0 95 f5 c0 3c 2b b8 75 3d 05 c1 08 be 2d fe 19 3e
       0.023554603 0.05999009 -0.13354881 0.15038367
000200 40 b7 d5 bd 0f e5 96 3c 04 8a fa bc 08 99 51 bd
       -0.10435343 0.01841977 -0.03058339 -0.051171333
000210 46 fa 6d 3d 83 d5 c5 bd 7f 34 30 bd 4d 33 84 3d
       0.058100007 -0.09659865 -0.043018814 0.06455097
000220 72 b3 93 3d 4a 29 5f 3d a0 15 37 3e 4b de cf bc
       0.07211961 0.054482736 0.17879343 -0.025374552
000230 b6 9c a7 bd f2 f2 1d 3d 95 05 12 3e a9 68 80 3b
       -0.08184187 0.03856177 0.14259942 0.0039187265
000240 13 83 a1 3d 02 18 6d 3d 27 ff c8 3d 89 29 b1 3d
       0.078863285 0.057884224 0.098142914 0.086505
000250 34 38 cb bd 18 59 c0 b9 4c 87 ec 3c 08 eb 16 3e
       -0.09922829 -0.00036687474 0.028873108 0.14738095
000260 d0 89 c7 bc 77 4c 6a 3d 06 d3 e7 3c b9 43 b2 bd
       -0.024357706 0.05720183 0.028298866 -0.08704323
000270 08 7f 16 bc c6 c1 1d bf 31 21 c0 3d 4f 1c a4 3d
       -0.00918556 -0.616238 0.09381331 0.08013212
000280 64 c3 04 3c 8a 59 d5 3d 52 a3 1b bd 0e 55 81 3d
       0.008103225 0.10417469 -0.03799755 0.06315051
000290 4e ec 0b 3e 38 00 5d 3e d7 66 42 bd d8 10 a8 bd
       0.13664362 0.21582115 -0.047461357 -0.08206338
0002a0 e5 4f 30 be 09 9e 58 3d ce 55 42 3d 0c b4 bb bd
       -0.17217977 0.05288509 0.04744511 -0.091652006
0002b0 de 7c 05 3d e5 e0 4f 3d 1e 37 39 be 40 e3 d2 3d
       0.032589786 0.050751586 -0.18087432 0.10297251
0002c0 85 19 65 bd 77 96 6e 3c 73 c4 d0 3d e9 54 79 bd
       -0.05593254 0.014562241 0.1019372 -0.060871992
0002d0 e5 71 0b be e2 e9 50 bd c8 b5 8f 3d dd 17 4e 3c
       -0.13617666 -0.051004298 0.07017094 0.012578932
0002e0 71 b1 f1 bd 07 14 fc bd ea 92 9a 3d 79 39 15 bb
       -0.118014224 -0.123085074 0.07547553 -0.0022769852
0002f0 2b 66 9d bd ab c7 b3 3d 0f d9 9d 3c fd de 95 3d
       -0.076855026 0.08778318 0.01926854 0.07317922
000300 4b eb fd 3c 73 fa d0 bd 06 26 21 3d 4c d4 b4 3d
       0.030995985 -0.102040194 0.039342903 0.08829555
000310 22 fe 91 3d d2 bf 1f 3e 08 45 8c 3d da 9a 56 3c
       0.0712855 0.15600517 0.06849104 0.013098443
000320 1d eb a0 3c 16 06 15 be 2a 0b 3d 3e c1 26 3a 3c
       0.01964336 -0.14553103 0.1846129 0.011361779
000330 c0 45 9a 3d 71 4c 33 be cb 67 a4 3c 7d ef 3c bd
       0.07532835 -0.17509629 0.020069024 -0.04612683
000340 16 ee 41 3c 13 c1 51 3d 2f 01 99 3d ce 57 b4 3d
       0.011836549 0.05120952 0.07470929 0.0880581
000350 c4 af ef 3d 58 23 1d be 58 92 58 3d 6c ed 22 3e
       0.117034465 -0.15345514 0.05287394 0.15910882
000360 b0 5a 24 3d 22 9d 0f 3e d9 b1 b1 bd 62 39 e1 3d
       0.04012555 0.14024785 -0.086765 0.10997273
000370 11 ec b5 3c ba 00 7b bc a8 a6 fe bc 53 ad 56 3c
       0.022207292 -0.015319997 -0.031085327 0.013102847
000380 90 9d 4c bd 54 35 ea bc f1 09 aa bd 71 0e 40 bb
       -0.04995495 -0.028589882 -0.083026774 -0.0029305483
000390 f0 79 d0 3b c8 8f 8b 3d 00 e2 2d be f9 4f e2 bc
       0.0063621923 0.068145335 -0.16980743 -0.027626025
0003a0 0d c1 32 3b c6 4e 6c bb 37 5d c1 3c 5a 74 83 3c
       0.0027275712 -0.0036057695 0.023604019 0.016046692
0003b0 e1 94 72 bd 40 09 c9 bd 26 82 1f be d7 2b ae bc
       -0.059224013 -0.098162174 -0.15576991 -0.021261139
0003c0 c0 9e 88 bc e2 60 f8 3c d6 81 e1 bc 38 0d 5c bb
       -0.01667726 0.030319635 -0.02752773 -0.0033577215
0003d0 b2 1d 22 bd 30 06 10 bd 2b c0 30 bd 5a 71 8d bd
       -0.0395791 -0.03516215 -0.043152016 -0.06906386
0003e0 30 a9 dc bc 57 e2 84 3d 6d 15 9d 3c 93 04 b4 bc
       -0.026936144 0.064884834 0.019175256 -0.021974837
0003f0 80 95 f9 3d 83 66 75 bd 6c 60 0d 3e d7 62 be 3c
       0.12186718 -0.059912216 0.13806313 0.02324049

blocks.0.conv.bias f4 [32]
000000 a4 3d 58 38 95 f2 0a 3c bc 0b 2a b9 ae 34 2b 3a
       5.155582e-05 0.008480688 -0.00016216835 0.0006530982
000010 87 9a b6 bb af 1b 55 bb be c2 a8 3b 08 b2 30 3b
       -0.0055726203 -0.0032517721 0.005150168 0.0026961584
000020 f9 4b 6c ba 33 d6 5e 3a 10 90 8c ba 98 98 dd 3b
       -0.00090140064 0.0008500546 -0.0010724086 0.0067625754
000030 ca 46 ca ba 26 a0 b6 3a 20 2f 8f 39 91 65 43 b9
       -0.0015432474 0.0013933226 0.00027310196 -0.00018634486
000040 b0 cf 8b bb f7 8c 2d bb 5b 3f 7e b9 4e 2e c1 38
       -0.0042667016 -0.0026481727 -0.0002424693 9.211582e-05
000050 b7 b3 08 39 d2 57 0c bc c5 7b 5e b9 dd a0 80 ba
       0.0001303692 -0.00856586 -0.00021217678 -0.0009813566
000060 ad 49 90 b9 93 b5 d7 bb b8 40 7c b9 de 11 19 bb
       -0.00027520713 -0.0065829246 -0.00024056702 -0.0023356597
000070 69 53 8a bb e4 09 d2 b9 1a 40 b1 3a b8 d4 30 ba
       -0.004221369 -0.0004006169 0.0013523132 -0.0006745565

blocks.0.bn.weight f4 [32]
000000 02 f8 63 3f 8b 4d 69 3f 22 7f 57 3f b0 84 74 3f
       0.89050305 0.91133946 0.84178364 0.95514965
000010 5f 8a 88 3f 73 71 6c 3f b0 ff 6f 3f d5 0b 5d 3f
       1.0667228 0.9236061 0.93749523 0.8634618
000020 ac 4c 68 3f d4 2d 7c 3f 8d 2f 73 3f 45 68 79 3f
       0.9074199 0.9850743 0.9499443 0.9742473
000030 85 c3 69 3f 9c 47 65 3f 73 4c 61 3f 41 37 5f 3f
       0.91313964 0.8956239 0.8800728 0.87193686
000040 e7 89 81 3f 22 e3 81 3f 1a 40 61 3f e5 22 78 3f
       1.012021 1.014744 0.87988436 0.96928245
000050 64 60 6f 3f 95 9c 5c 3f c9 e2 61 3f c3 71 64 3f
       0.93506455 0.86176425 0.8823667 0.89236087
000060 ec 4b 60 3f b3 81 76 3f f2 5d 84 3f e2 3b 90 3f
       0.8761585 0.96291655 1.034117 1.1268275
000070 a7 3a 5c 3f 5e af 58 3f 3c 3c 52 3f a8 a1 81 3f
       0.86026996 0.8464259 0.8212316 1.0127459

blocks.0.bn.bias f4 [32]
000000 1d a0 c1 be d1 09 8c be 0b ae 18 be c8 69 46 be
       -0.3781747 -0.2735124 -0.14910142 -0.1937629
000010 44 17 3a be a0 d6 05 bc 04 01 d5 bd 05 56 5d be
       -0.18172938 -0.008168846 -0.10400584 -0.21614845
000020 af 5e 47 be 16 6e 94 be dd f7 68 be 15 c8 a6 be
       -0.19469713 -0.2899024 -0.22750802 -0.32574525
000030 0f 5b a6 be f8 ef d3 be 93 d3 64 be dd de 70 be
       -0.32491347 -0.4139402 -0.22346334 -0.23522516
000040 47 5a d4 be 8a a2 6a be 77 d9 b6 bd a7 e7 de be
       -0.41475126 -0.22913566 -0.08928197 -0.43536112
000050 99 91 ac be c9 50 3b be a0 7f ce be a4 cd a2 be
       -0.33704832 -0.18292536 -0.40331745 -0.31797516
000060 18 e0 5c be 72 64 aa be ab fb 85 be 75 e6 8f be
       -0.2156986 -0.3327976 -0.2616857 -0.28105512
000070 35 fc cc be e7 5a 60 be 65 79 1f 3d ec 2a 97 be
       -0.4003617 -0.21909676 0.03893413 -0.29524934

blocks.0.bn.running_mean f4 [32]
000000 37 c3 29 3f 45 c1 7a bf 75 cc 35 3f 50 57 ac be
       0.663135 -0.97951156 0.710151 -0.33660364
000010 dd 59 e4 be c1 db 51 bf fb c1 92 bf 14 44 c5 bf
       -0.4459981 -0.8197594 -1.1465448 -1.5411401
000020 3b f3 03 bf 3e b2 16 bf 89 d6 b1 be ea 43 6f bf
       -0.51543015 -0.58865726 -0.3473399 -0.93463004
000030 b0 20 91 bf a1 ce 5a 3f d8 a8 cc 3f 6b 50 2f 3c
       -1.13381 0.8547154 1.5989027 0.0107003255
000040 49 ff 24 bf 17 46 0f bf d1 d6 32 3f 96 77 c4 be
       -0.64452034 -0.55966324 0.69859034 -0.38372487
000050 77 db 0d bf c3 c2 a9 bf 25 02 86 bf c1 34 d4 3c
       -0.55413 -1.3262562 -1.0469404 0.025904061
000060 6f ff 4a bf d8 e5 c5 bf de cb c5 3c 0f e7 5c bf
       -0.7929601 -1.5460768 0.024145063 -0.8629007
000070 05 d0 f7 bf 25 48 a0 3e b5 45 17 3f 16 5e 01 c0
       -1.9360358 0.31305042 0.5909074 -2.0213675

blocks.0.bn.running_var f4 [32]
000000 b1 04 93 3f 32 68 7e 3f d1 9d 00 40 8d 95 a3 3f
       1.1485807 0.9937774 2.0096323 1.2780014
000010 2b 25 55 40 85 50 c3 3f 30 67 b3 3f 95 cf 97 3f
       3.3303936 1.5258948 1.4015865 1.1860224
000020 d4 51 98 3f c9 6e 50 3f fc 9b 71 3f 29 92 91 3f
       1.1899972 0.81419045 0.9437864 1.137273
000030 c5 6e 96 3f b4 3c 91 3f 34 b2 c4 3f 9d f5 8d 3f
       1.1752554 1.134665 1.5366883 1.109058
000040 4d 1d 85 3f 57 36 09 40 50 ae 9f 3f fa 93 6c 3f
       1.0399567 2.1439416 1.2475071 0.92413294
000050 4b f4 3e 3f 7b 21 cd 3f 4d 98 93 3f a6 57 87 3f
       0.7459151 1.6025842 1.1530854 1.0573623
000060 5e 2e 4b 40 e9 13 a4 3f e5 a2 8d 3f 20 24 8b 3f
       3.174705 1.2818576 1.1065336 1.08704
000070 d0 15 ad 3f 8a 00 49 3f 88 68 cf 3f 71 cd ed 3f
       1.3522282 0.7851645 1.6203775 1.8578321

blocks.1.conv.weight f4 [32, 32, 3, 3]
000000 57 97 ac ba ab e1 40 bd 7d 6d ab bc a9 8b 04 be
       -0.0013167661 -0.047090214 -0.020926232 -0.12943901
000010 01 3e de 3d 6a 47 f0 bd 18 63 7f 3d d9 28 8c be
       0.1085167 -0.11732371 0.062350363 -0.27374914
000020 57 f6 5e 3c ea b0 05 3d 5d 05 05 bd b3 71 04 be
       0.013608537 0.03263942 -0.032475818 -0.12933998
000030 d8 f7 17 be 80 65 f0 3b 63 00 05 be 91 e5 14 bd
       -0.14840639 0.0073363185 -0.12988429 -0.036351744
000040 8a 0b b9 3a 53 e1 60 be 2c 77 7b 3d 15 bc 79 bd
       0.0014117819 -0.21960954 0.061392948 -0.060970385
000050 29 19 08 3d 34 3d 2d be c3 bb 6c be 30 db d0 bd
       0.03322712 -0.16917878 -0.231185 -0.10198057
000060 6d 91 a9 bc ea 18 a6 3d 89 2d 80 3c 1d 9a 42 3e
       -0.020699227 0.08110221 0.015646713 0.19004102
000070 83 f9 f9 3c e6 4c 55 3d d9 fd 00 be ae e6 d8 3d
       0.030514484 0.05207529 -0.12596835 0.10590874
000080 cc 6e 78 3c d1 ce ee 3d 98 5e 44 be 52 98 1b bd
       0.015163135 0.11660541 -0.1917671 -0.03798706
000090 b7 ad 20 3e d2 56 c0 3d 27 b2 71 bd 02 76 b0 3d
       0.15691267 0.0939156 -0.05900779 0.08616258
0000a0 0e e3 9e 3c 6e 7a 14 3d 1b d2 f1 3d b2 e6 9a 3c
       0.019395377 0.03624957 0.118076526 0.018908832
0000b0 c6 0e fb bc b0 7a 00 be 21 27 3c 3b 0e 02 f6 3d
       -0.030646693 -0.12546802 0.0028709846 0.12012111
0000c0 09 e2 79 3d c4 f5 34 bb 7c ad 66 bd 37 9f e8 bc
       0.06100658 -0.0027612308 -0.05631779 -0.028396232
0000d0 e0 63 ca 3c ed 83 88 3d 36 cd ff bd ad 07 b5 bd
       0.024705827 0.06665788 -0.12490313 -0.08839355
0000e0 eb 2e 0e 3d ce dc 73 bd 75 70 47 bd 02 b6 b7 bd
       0.034712713 -0.059536748 -0.04869123 -0.08970262
0000f0 d0 50 9f bd b0 c2 94 bd ee 40 34 bd 8f ae fb 3d
       -0.07779086 -0.07263696 -0.044007234 0.12289154
000100 93 f8 35 be bf a9 b6 3d b7 19 84 3d 02 5b f8 3d
       -0.17770605 0.08919095 0.06450217 0.12126733
000110 ef db 26 be 17 07 89 3d 6c c9 da 3d 73 20 52 3d
       -0.16294836 0.066908054 0.106829494 0.051300477
000120 c6 e1 72 3d 79 94 7f bc 2f bf 08 3c 5a 9a 28 be
       0.059297346 -0.0155993635 0.008346363 -0.1646513
000130 3f 4b a7 bc e5 46 b3 3c 6a 9b a6 bd 54 a3 fa bc
       -0.020421622 0.021884391 -0.08135112 -0.030595459
000140 66 67 07 3d 55 ae b3 3c c8 80 2b 3d 00 4f c2 bd
       0.033057593 0.021933714 0.041870862 -0.09487724
000150 de 0e 6a 3d f5 3b 84 3c 90 07 a1 bd cd d8 05 3e
       0.057143085 0.016141871 -0.078627706 0.13070984
000160 58 d8 e2 3d ab c3 33 be a0 10 47 3e 47 c0 76 bd
       0.110764205 -0.1755511 0.19439936 -0.060241964
000170 ad 96 69 3b dc b8 ad 3b c7 2b 26 bd 86 bb ca 3d
       0.0035642788 0.005301578 -0.040569093 0.098990485
000180 d7 4c e6 3b ac c1 5c bd 01 e1 c0 3d dd 26 0c 3d
       0.007028203 -0.053895637 0.09417916 0.03421675
000190 16 b6 2b 3d 4e 61 aa bb f3 c5 11 3d d1 b3 5c bc
       0.041921698 -0.005199588 0.03558917 -0.013470606
0001a0 6d 3c 7d bd 2b 90 83 bd 83 84 fe bd c0 84 39 be
       -0.061825205 -0.06423982 -0.12427618 -0.18117046
0001b0 47 af 1f 3d 86 7f 6c 3e 07 68 18 be cf 9d e7 3d
       0.038985517 0.23095521 -0.14883433 0.113093965
0001c0 de a7 1b 3e 69 a2 49 3e b5 c1 5f 3d a1 39 c4 3d
       0.15200755 0.19690861 0.054628093 0.09581304
0001d0 19 87 4b 3e 9c e1 a7 be 83 fd 61 be c8 c1 eb bd
       0.19875754 -0.32789314 -0.22069363 -0.1151157
0001e0 ad 79 f0 bd a9 37 43 be 78 26 98 3d 99 a4 5d bc
       -0.11741958 -0.19064201 0.07429212 -0.013528013
0001f0 54 a7 88 bd c0 e9 92 bd 2e aa 38 3e 4e 15 24 3d
       -0.0667254 -0.071734905 0.18033668 0.04005938
000200 8a 72 ec bd 2e d6 84 3d e9 d6 f2 bc 94 c2 10 3e
       -0.11545284 0.06486164 -0.029643493 0.14136726
000210 c1 cf 20 3d 38 32 23 bd 28 9e e2 bd bc 4f b9 bd
       0.03926063 -0.039842814 -0.11065322 -0.09048411
000220 de 8b 84 3c 94 0d 51 bd b2 d7 a7 bd 02 ca ac bd
       0.016179975 -0.05103834 -0.081954375 -0.084369674
000230 01 c9 db bd b8 aa 09 bd 6a 84 98 bd d7 aa 86 bd
       -0.10731698 -0.033610076 -0.07447131 -0.06575554
000240 b0 56 3b 3d 40 e5 a8 bd ed b7 6d bd a3 78 09 bd
       0.04573697 -0.08246851 -0.058036733 -0.033562314
000250 09 d1 ba bd 6e 6a 55 3d db 4c f1 3b 64 bf 86 bd
       -0.091219015 0.052103452 0.007363898 -0.065794736
000260 c5 69 83 bd 22 8c 8a 3d 2c 61 de bc 22 c9 ac bd
       -0.06416658 0.067650095 -0.027145945 -0.084368005
000270 ef 5f 3a 3b 53 56 d8 be c4 90 dd 3c 75 89 28 bd
       0.0028438529 -0.4225336 0.027046569 -0.041146714
000280 06 ee 15 be 2a 4c 77 bc 76 91 dc 3b 96 1f 67 bb
       -0.1464158 -0.0150938425 0.0067312075 -0.003526663
000290 99 ba 88 bc 77 ae e3 3b 35 53 3e 3b 9a 19 90 3d
       -0.01669054 0.006948288 0.0029041294 0.07036133
0002a0 9e 17 ac 3c 29 84 3b 3e 1b 5f 94 bd 86 dc a1 bd
       0.021007355 0.18312134 -0.072447024 -0.0790339
0002b0 2a 98 f1 3d f4 ca 61 bd 7d 36 80 3d 81 d7 af bb
       0.11796601 -0.05512519 0.06260393 -0.0053662662
0002c0 e9 d3 c7 3d 2d f5 3e be e6 c2 2f be 65 25 1e be
       0.097572155 -0.18648215 -0.17164192 -0.15443952
0002d0 44 fc 08 be 89 91 c6 bc 4b 81 95 bc 5b a7 97 bc
       -0.13377482 -0.024239318 -0.018250128 -0.018512418
0002e0 6e e4 49 be 7e 25 e6 3d ac e8 3e bd 39 4e 9f bd
       -0.19716045 0.1123762 -0.046608612 -0.07778592
0002f0 2c 94 c4 bd ff ab 09 ba 9b 7b 50 bd a3 6f 5e be
       -0.09598574 -0.00052517647 -0.05089913 -0.21722274
000300 29 1d fb 3c 3c f1 aa bd e5 ff 88 bd dd 48 8a bb
       0.030653553 -0.08346793 -0.06689433 -0.0042201118
000310 30 74 a2 bc 70 12 dd bd 1a d4 e6 3d d3 58 06 3d
       -0.019830793 -0.10794532 0.11270924 0.032799553
000320 33 95 8a 3d 8b dc 63 be c6 b7 26 be ad 28 29 bd
       0.06766739 -0.22252099 -0.16281042 -0.041298557
000330 5b 1e 46 bd 69 56 95 bd 9e cf 07 3e f2 5e 1d 3c
       -0.048368793 -0.07291872 0.13262793 0.009605156
000340 56 f1 9a bc ac 9d 24 3e 9b 54 9a bd 40 fc 2c be
       -0.018913906 0.16075772 -0.075356685 -0.168931
000350 07 49 99 bd 10 4e d2 3c f1 45 2b be eb 99 ea bd
       -0.07484632 0.025671989 -0.167259 -0.11455139
000360 75 00 aa bd 83 08 82 3c 36 07 93 bd 52 1f 18 bd
       -0.083008684 0.0158732 -0.0717911 -0.037139244
000370 d4 ca fa bd a5 fd d3 bd 0b 81 02 be 15 a7 58 ba
       -0.12245718 -0.10351113 -0.12744538 -0.0008264643
000380 68 c9 38 3c 03 c4 76 3d b7 0d 95 3b b6 10 ee bb
       0.011278488 0.060245525 0.004548754 -0.0072651757
000390 65 f0 84 bd 8b ac e0 3c 9b cc e4 3c 36 76 95 bd
       -0.06491164 0.027426025 0.027929595 -0.072979376
0003a0 6e a1 37 3e 23 7c 1c bd 19 0f 8e bd 1e cf 88 bd
       0.17932674 -0.038204324 -0.069364734 -0.066801295
0003b0 63 9c e7 bc 54 a0 00 be 8a 3a e0 bb 52 61 a6 bd
       -0.028272813 -0.1256116 -0.006842916 -0.08124031
0003c0 ad 0b 66 bb 24 82 83 3d 5d a7 49 bd 8f fb 6d bc
       -0.0035102174 0.06421307 -0.049231876 -0.014525308
0003d0 93 2c 89 3d b8 92 3e 3c c5 67 43 3e fd 33 03 3d
       0.06697955 0.01163166 0.19082554 0.032032
0003e0 3d 3c b7 3d 25 3f a6 3c 16 03 f3 bc fa 11 ad bd
       0.089470364 0.020293782 -0.029664557 -0.084506944
0003f0 ea 04 b4 bc 77 64 a5 3c dd ea 16 3e c2 7a 16 be
       -0.021975 0.020189507 0.1473803 -0.14695266

blocks.1.conv.bias f4 [32]
000000 c1 46 6f 3b 5b 02 40 39 52 7a 2a 39 02 68 cb bb
       0.0036510678 0.00018311424 0.00016258031 -0.006207467
000010 75 00 b7 3b f5 67 a3 3b 5e fc 1b 3a 3c 11 c8 39
       0.0055847713 0.004986758 0.00059503864 0.00038159813
000020 58 25 cc bb d8 af 0b ba 41 70 34 ba ca d7 14 bb
       -0.0062300377 -0.0005328632 -0.0006883182 -0.0022711628
000030 7b 0d 8f bb a5 be 37 3a 30 fd 7f bb ea c0 46 bb
       -0.0043656207 0.0007009304 -0.0039060824 -0.0030327388
000040 45 3b 44 3b 1e 85 de 3a c4 45 85 ba ad 2b c5 3a
       0.0029942554 0.0016976928 -0.0010167887 0.0015042924
000050 86 45 33 ba cd ce 09 bb 31 f2 58 ba f8 cc ef b9
       -0.0006838668 -0.0021027804 -0.00082758354 -0.00045738346
000060 b3 f4 34 3b 92 a3 b5 3b e6 48 e2 b8 cc 7a 88 3b
       0.0027611672 0.0055431807 -0.00010790098 0.004165029
000070 5b 7e a2 b9 e6 3b 62 3a 4a bb 39 3a a6 2d 20 3a
       -0.0003099319 0.00086301414 0.0007085098 0.0006110318

blocks.1.bn.weight f4 [32]
000000 26 e9 56 3f 57 b6 6b 3f dd e4 69 3f 0e 79 80 3f
       0.83949506 0.92075104 0.9136484 1.0036943
000010 15 d8 82 3f b5 89 5a 3f 07 fd 56 3f 41 98 78 3f
       1.0222193 0.85366374 0.8397984 0.9710732
000020 bd 5a 87 3f 78 1a 62 3f ba db 70 3f d4 40 82 3f
       1.0574566 0.8832164 0.94085276 1.0176034
000030 64 ae 70 3f f2 51 81 3f dc 44 87 3f 22 58 77 3f
       0.940161 1.0103133 1.0567889 0.96618855
000040 c6 00 84 3f d0 ce 4e 3f 4c 5d 76 3f 15 be 6e 3f
       1.0312736 0.8078432 0.9623611 0.9325879
000050 c8 95 74 3f 65 b2 54 3f 61 5b 8e 3f 07 d8 90 3f
       0.9554105 0.8308471 1.1121637 1.1315926
000060 2b ba 91 3f ed f9 81 3f 99 df 6e 3f f8 ef 63 3f
       1.1384939 1.0154396 0.9330993 0.8903804
000070 4d 5c 73 3f 2c 98 69 3f 9d 5f 34 3f 63 66 81 3f
       0.95062715 0.9124782 0.70458394 1.0109371

blocks.1.bn.bias f4 [32]
000000 0e 8b 91 be c8 a7 9d be 07 f6 67 be 70 dc 11 be
       -0.28426403 -0.3079207 -0.22652446 -0.14244246
000010 82 9e 76 be 21 4c 80 bc 40 4e 72 be f6 9f 96 be
       -0.24083903 -0.015661301 -0.23662663 -0.29418916
000020 c8 a9 ad be 6c 31 a3 be 01 7c 47 be d7 9b ad be
       -0.33918595 -0.31873643 -0.19480897 -0.3390796
000030 ae 22 af be fe a0 ac be f8 60 bf be 72 f1 5c be
       -0.34206146 -0.33716577 -0.3737867 -0.21576479
000040 45 3e f9 be 5a c3 9e be 86 57 ac be 14 d9 9d be
       -0.4868032 -0.31008416 -0.33660525 -0.3082968
000050 c0 b9 c1 be a5 b9 c0 be 3c 4a b2 be 40 ce 69 be
       -0.37837029 -0.37641636 -0.3482226 -0.22832584
000060 50 8e ea be db dc 5a be c0 b6 31 be 7d dd 38 be
       -0.458117 -0.21373312 -0.1735487 -0.18053241
000070 d4 7e 99 be e0 0c ef be 99 b0 be ba 5c f1 98 be
       -0.29979575 -0.4668951 -0.001454848 -0.29871643

blocks.1.bn.running_mean f4 [32]
000000 6a 2b 28 c0 23 5f 80 bf dd 24 ad be 3f cb f0 bf
       -2.6276498 -1.0029033 -0.33817187 -1.8812026
000010 fc e1 f2 bf 59 22 45 be ee 7a d9 3f 81 53 ba bf
       -1.8975215 -0.19251384 1.699064 -1.4556733
000020 6d 28 b4 bf 33 29 76 3e 8a c9 71 3f 5f 58 3c bf
       -1.4074837 0.24039154 0.9444815 -0.73572344
000030 e5 35 84 be b1 4f 8b 3e ac b5 c6 bd 3e 58 d2 bf
       -0.25822368 0.27209237 -0.0970262 -1.6433179
000040 89 87 cf bf 9f a6 b1 be 87 06 1c c0 99 7d 85 bf
       -1.6213237 -0.34697434 -2.4378984 -1.0428954
000050 c7 f4 1c 3e c5 54 97 bf e8 a4 0f 3e 31 21 95 bf
       0.1532775 -1.1822745 0.1402775 -1.1650754
000060 92 75 89 be 4b f4 73 3e e7 c5 8b be c0 4a 43 bd
       -0.26847512 0.23823659 -0.27299425 -0.04767871
000070 7e b0 26 3f 8d 49 d2 3e de 93 6c 3f 93 f7 a1 bd
       0.65113056 0.4107174 0.9241313 -0.07908549

blocks.1.bn.running_var f4 [32]
000000 2b 57 08 40 77 be 15 40 bb b1 f8 3f 91 dc 67 40
       2.1303203 2.33975 1.9429239 3.6228373
000010 d6 7d db 40 29 c1 88 40 ab 43 14 40 09 34 20 40
       6.859111 4.273579 2.3166301 2.503176
000020 9f ed ff 3f da 9b 16 40 ac 1b 1f 40 91 12 3d 40
       1.9994391 2.3532624 2.486064 2.9542582
000030 ac d8 34 40 ba 0c 12 40 e4 d2 40 40 f1 35 8e 40
       2.8257246 2.2820268 3.0128717 4.4440846
000040 71 92 dc 3f 02 24 dd 3f dc 3f 13 40 7d ec 5b 40
       1.723219 1.7276614 2.3007727 3.436309
000050 6e 20 e1 3f 8f 1b 29 40 92 35 06 40 fc 3f 0c 40
       1.7588022 2.642307 2.0970197 2.1914053
000060 99 ec 1b 40 d1 f0 f8 3f 3f b6 c4 3f d8 f0 43 40
       2.4363158 1.9448491 1.5368117 3.061575
000070 4d 99 a2 40 bd 62 06 40 5e ec 8c 40 88 5f 00 40
       5.0812135 2.0997765 4.4038534 2.0058308

blocks.2.conv.weight f4 [32, 32, 3, 3]
000000 bd ea 94 3d 49 9f d0 bd ed 06 d8 bd f3 66 17 bd
       0.07271335 -0.10186631 -0.10548196 -0.036963414
000010 a1 40 98 bd 1f 72 e5 bd e6 9b 74 bd 75 bb 0a be
       -0.07434202 -0.112034075 -0.05971899 -0.13548072
000020 6f 72 71 bd 70 01 94 bd e3 05 5d bd 32 86 f4 bd
       -0.058947023 -0.07226837 -0.053960692 -0.11939658
000030 c1 d3 5a bd 3f 0b 42 bd 25 2e 4a bd bd 20 94 3d
       -0.0534246 -0.047374006 -0.049360413 0.07232807
000040 c2 e2 f2 bc 5f c4 05 be db 99 56 bd e7 63 bb 3d
       -0.029649142 -0.13063191 -0.05239282 0.09149914
000050 e8 09 87 3d d7 ec ed bd 2d e1 cd bd f0 48 63 bd
       0.06593686 -0.11617439 -0.100527145 -0.05548948
000060 09 08 ee 3b 08 16 d6 bc 17 88 a4 bb ed 64 bb 3d
       0.0072641415 -0.026133552 -0.005021106 0.091501094
000070 e7 49 09 bd d3 d0 a0 3d 97 0f fc bc f3 cc 52 3c
       -0.033517744 0.0785233 -0.030769153 0.0128662465
000080 93 7f ee 3d e0 57 a1 3d c4 86 c7 3d 4c 93 ee 3d
       0.116454266 0.07878089 0.097425014 0.116491884
000090 66 7a 36 3c 20 5c 99 bd a6 e0 40 3e 59 de 1d bd
       0.0111375805 -0.074882746 0.18835697 -0.038542125
0000a0 2c 30 48 3e 4f 0b c6 3d 2b e4 eb 3d f0 7b 01 bd
       0.19549626 0.09670126 0.11518129 -0.031612337
0000b0 cb b1 b3 3d 2e 79 cf bd 9e 63 95 3d 85 3f 81 3e
       0.08774146 -0.10130535 0.07294391 0.25243774
0000c0 bf 55 04 3e 0c d6 92 3d 97 08 0f 3e d0 5d ab bd
       0.12923335 0.071697325 0.1396812 -0.08367503
0000d0 6c ee 22 be f0 96 44 3d c9 84 a1 bd b9 c0 ab 3d
       -0.15911263 0.047995508 -0.07886655 0.08386368
0000e0 c6 4a 56 3d c5 f4 82 3c 4f 97 24 3d 1f 8b 42 bd
       0.052317403 0.015985856 0.04018336 -0.047495957
0000f0 ed fd 92 bb e1 f5 9e bd 7b b5 9e be 04 93 31 bd
       -0.0044858367 -0.077617414 -0.30997834 -0.043353096
000100 82 c6 19 bd c3 13 83 3d 97 75 84 bd 2b 10 db 3a
       -0.037542827 0.064002536 -0.06467741 0.0016713192
000110 9a eb e2 bd 5c 78 9d ba 9b fd 96 3d ea e6 8a 3d
       -0.11080094 -0.0012014019 0.0737259 0.067823246
000120 2a f7 3d 3d 32 ac 4f bd 61 58 15 3e f2 67 2f 3e
       0.046378292 -0.050701328 0.14584495 0.17129496
000130 30 81 7e bd 5d 63 13 3d 95 6a b3 3d 04 60 12 be
       -0.06213492 0.035983432 0.08760563 -0.1429444
000140 70 b9 2e 3d 06 4c 82 3d cc 7f 84 3d 9c 60 22 be
       0.042657316 0.063621566 0.06469688 -0.15857166
000150 f2 75 7d bc df 79 7c bd 6e d4 75 bd 51 09 fc 3a
       -0.015470015 -0.061639663 -0.06001704 0.0019228851
000160 74 35 35 bd 03 7a c2 bd 60 29 d8 bd a7 47 5a be
       -0.04424043 -0.09495928 -0.10554767 -0.21316396
000170 57 8d a5 bd e4 4b bb bd 62 a6 85 bd 1e 8f 52 bd
       -0.08083599 -0.09145334 -0.06525876 -0.05140602
000180 61 5f 04 bd 0e da 38 bc 42 5e 00 be 4e 96 2c 3e
       -0.032317523 -0.011282457 -0.12535957 0.16854212
000190 93 85 8e 3d bb 6d bc 3c c2 29 c2 3d b6 34 f2 3d
       0.06959071 0.023001542 0.09480621 0.1182646
0001a0 92 76 62 bd a6 bc 7a 3d 41 65 af bd 3d 8e e5 3d
       -0.05528886 0.061215065 -0.085642345 0.112087704
0001b0 93 b2 e1 3d aa ab ac 3d 31 68 03 3e fd 24 4f 3e
       0.110203885 0.0843118 0.12832715 0.20228954
0001c0 1a 45 da 3d cb 8c 25 3e df 63 14 bd 31 d1 c2 3d
       0.10657711 0.1616699 -0.036228057 0.09512556
0001d0 21 db a6 3d 3d 33 3d be 38 1c 77 be d3 5e 8f be
       0.08147264 -0.18476577 -0.24131858 -0.28002033
0001e0 0e 50 27 be f9 65 b5 bd 12 8b ae 3d 21 b7 a6 bd
       -0.16339132 -0.0885734 0.08522619 -0.08140398
0001f0 a3 e7 5a bc 53 6a d5 bd 48 a5 2c bd 03 86 f0 bd
       -0.013360891 -0.1042067 -0.042149812 -0.11744311
000200 4a 5f 9a be a2 51 29 be c3 f1 0d be f3 3b bd 3d
       -0.30150825 -0.16535047 -0.13861756 0.0923995
000210 8f 7e 3a be 13 ad 6b 3e f3 c8 95 bc cf ad 1c be
       -0.18212341 0.23015241 -0.018284297 -0.15300678
000220 70 70 f0 3c 5b 5c 18 be 8a 86 85 bd d2 d9 0c bd
       0.02935049 -0.14878981 -0.06519802 -0.034387417
000230 6d 97 f2 bd 46 24 77 3e 54 e4 80 bd 66 9a cb 3d
       -0.118452884 0.24134931 -0.0629355 0.099415585
000240 d7 c3 88 bd dc d1 a7 bd a4 01 c7 3c 70 57 40 bd
       -0.066779785 -0.081943244 0.024292774 -0.046958387
000250 47 8f 1c bd c7 51 89 3d c1 1b e6 3d aa 24 ae bd
       -0.038222577 0.06705051 0.112357624 -0.08503087
000260 23 58 8d 3c d2 f1 61 3c 1b 29 67 bd 6c 6b 86 bd
       0.01725394 0.013790565 -0.056435686 -0.06563458
000270 7d 33 03 3d 04 25 ea 3c df fc dc 3d 73 c6 0b be
       0.032031525 0.028582104 0.10790419 -0.13649921
000280 1e 51 22 be e2 48 a9 3d 76 5d b7 bd ad 80 8a 3c
       -0.15851256 0.082658544 -0.08953373 0.01690706
000290 18 93 66 3d c8 da 78 3d f9 86 ce 3d 52 70 28 3d
       0.056292623 0.06075552 0.10084338 0.041122742
0002a0 aa 0a d6 3d 93 3b a3 3d fc ef 47 bd 28 3c 46 3c
       0.10451253 0.07970347 -0.04881285 0.012099303
0002b0 cc f5 80 3d b4 19 88 3d 0a 67 cd bc 8f b8 fa bc
       0.06296882 0.066455275 -0.025073547 -0.030605583
0002c0 7a 5b d3 3d 26 3d f7 bd a6 c5 e1 3d f4 77 90 bc
       0.10320182 -0.1207221 0.110240266 -0.017635323
0002d0 43 7b e1 bd 6a 20 24 3c 47 6c 13 3e ff 80 c9 3c
       -0.110098384 0.010017494 0.14396773 0.024597643
0002e0 22 17 c6 3d ef a5 c6 3d 31 fd 4a bc 72 1e ec 3d
       0.09672381 0.09699618 -0.012389467 0.115292445
0002f0 a6 b3 55 bd 03 ae 76 3c e2 f4 9e bd 67 3e 67 bc
       -0.05217328 0.015056136 -0.077615514 -0.014113999
000300 98 18 e2 3d 5f dd 40 3d ba e0 30 bd fc 91 e8 3b
       0.11039847 0.047086116 -0.043183066 0.007097481
000310 bf fc f1 3d 99 c1 57 3d 5d 83 87 3c 61 12 23 bd
       0.118157856 0.052674863 0.016542131 -0.03981245
000320 75 2d 78 bd 0a 35 29 be c2 e4 16 bd 42 d3 98 3c
       -0.060590226 -0.16524139 -0.036839254 0.018655423
000330 07 ff 32 be 48 f0 cf bd 48 dd f3 bd 47 e2 21 be
       -0.17480098 -0.10153252 -0.119074404 -0.15808974
000340 d7 98 59 bc 8a e5 3e bd 94 b6 55 bd a4 15 a3 3c
       -0.013281069 -0.046605624 -0.052176073 0.01990778
000350 cf b1 1c be 5e 65 58 bd 3a be f4 bc 6e 3d 27 bd
       -0.15302204 -0.052831046 -0.029875863 -0.04083007
000360 b3 16 91 3d 73 3e 4a 3d 14 02 29 be f1 fa 64 bd
       0.07084408 0.049375962 -0.16504699 -0.05590338
000370 e9 5a 19 3e 7f c8 f2 3d 8d 4f 0a bd 11 6c a3 bd
       0.14976086 0.11854648 -0.03376727 -0.079795964
000380 7d 34 ce bc 60 5d 4c bd b6 f9 5e 3d 43 c0 aa bd
       -0.025171513 -0.049893737 0.05443736 -0.08337452
000390 5e 15 3f bd 74 82 2d 3d 3f 38 5c 3d 08 6c c6 bd
       -0.046651237 0.042360738 0.053764578 -0.09688574
0003a0 55 ae 36 3d 8c d9 3f bd 65 85 d5 bd 22 9e 5f bd
       0.04459985 -0.04683833 -0.104258336 -0.054594167
0003b0 d3 11 0e be d7 a2 ba bd 79 41 68 bc 09 9e d5 3b
       -0.13873987 -0.091130905 -0.014175766 0.0065190834
0003c0 b3 a4 e8 3d fb cc 49 3c 80 86 03 bc b3 09 0e be
       0.11359539 0.012316938 -0.008027673 -0.13870887
0003d0 45 b2 9e bd ea ea 9a bc 00 f2 46 bd cc 41 22 be
       -0.07748846 -0.018910844 -0.048570633 -0.15845412
0003e0 43 ca e8 3c c7 dd 14 be 2d 67 87 3d cf 0d 89 bd
       0.028416758 -0.14537726 0.06611476 -0.06692087
0003f0 4e c8 61 3c 37 ef 8b 3b 3f db d7 3c 20 12 2c 3d
       0.0137806665 0.00427046 0.026349662 0.042009473

blocks.2.conv.bias f4 [32]
000000 76 db 4f ba ae 02 d8 b9 f4 88 ec 39 b7 5a a9 39
       -0.00079291256 -0.00041200727 0.00045115466 0.0003230178
000010 62 be 55 3b bf 12 f6 bb 9f 75 98 b7 d0 6c 27 bb
       0.0032614698 -0.007509559 -1.8174584e-05 -0.0025547035
000020 fe eb 26 bb 60 70 db 3a 6b b8 c2 ba f4 02 65 bb
       -0.0025470252 0.0016741864 -0.0014855986 -0.0034944387
000030 1c ef 40 39 f3 de e1 ba 0d a4 d6 bb fd d2 6b 3b
       0.00018399622 -0.0017232582 -0.006550318 0.0035983913
000040 df 40 2f bb 33 74 84 3b 6a 90 43 ba 5c bc ab 3b
       -0.0026741547 0.0040421723 -0.0007460179 0.00524096
000050 f5 61 b6 b9 de 81 22 3b 98 63 43 b9 b8 cb ae bb
       -0.0003478673 0.0024796645 -0.00018633751 -0.0053343438
000060 ad 37 fd bb b5 ee 18 bc f7 3d 73 b9 9a 31 74 b7
       -0.0077275843 -0.009334256 -0.0002319737 -1.4555082e-05
000070 d8 c3 d7 ba 7d b5 01 3a 02 ce ef b8 51 b6 d0 ba
       -0.0016461564 0.00049480033 -0.0001143478 -0.0015923475

blocks.2.bn.weight f4 [32]
000000 d3 14 86 3f 9e 25 66 3f 20 26 76 3f 97 05 55 3f
       1.0475105 0.8990115 0.96151924 0.83211654
000010 0b 27 64 3f b2 e5 4b 3f 3c 0e 80 3f 5f c2 83 3f
       0.89122075 0.7964736 1.0004344 1.0293692
000020 f3 f4 61 3f 8d 46 90 3f 56 a6 60 3f c2 57 72 3f
       0.8826439 1.127153 0.8775381 0.9466516
000030 17 11 73 3f c7 6f 73 3f 04 ca 69 3f ac 4c 71 3f
       0.9494795 0.95092434 0.91323876 0.94257617
000040 f0 12 80 3f 2e 58 7d 3f 9d 33 55 3f c4 92 75 3f
       1.0005779 0.98962677 0.8328188 0.9592707
000050 a7 f9 71 3f c4 e4 5c 3f f1 f7 60 3f 1f 4b 88 3f
       0.94521564 0.8628657 0.8787833 1.0647925
000060 f9 36 7a 3f d4 8b 83 3f 9a 58 84 3f 92 ea 59 3f
       0.9774013 1.0277047 1.0339539 0.8512355
000070 9c 96 6c 3f 19 66 83 3f 7f c0 2f 3f e2 13 73 3f
       0.9241731 1.0265533 0.686531 0.94952214

blocks.2.bn.bias f4 [32]
000000 2b 97 81 be d5 60 ce be 1e 76 f3 bc 4a 7a d0 bd
       -0.25310645 -0.40308252 -0.029719409 -0.10179575
000010 0a f1 bb be d1 9d 4e be d9 35 1d be df 96 d6 be
       -0.36707336 -0.2017739 -0.15352573 -0.4191198
000020 0b 77 d5 be 34 7a 33 be b7 6d 7d be 8f 9d 48 be
       -0.41692385 -0.17527086 -0.24748884 -0.19591354
000030 28 eb ac be 6d 8c 9d be 16 66 b9 be f8 17 ab be
       -0.3377316 -0.307712 -0.36210698 -0.33416724
000040 02 b1 88 be af dd d0 be b9 d8 87 be 0e bc 77 be
       -0.26697546 -0.4079413 -0.26532534 -0.24192831
000050 1c 3e c7 be 89 5e 0e bf b2 88 a6 be a2 8c 55 be
       -0.38914573 -0.55613 -0.32526165 -0.20854428
000060 fe 18 ba be 99 2f a5 be 4d 3d de be 05 e3 1d be
       -0.36347193 -0.32262877 -0.43406144 -0.15418632
000070 d8 ba 4b be 55 2e ac be ab 7c 0d 3e a9 57 d4 be
       -0.19895494 -0.336291 0.13817088 -0.4147313

blocks.2.bn.running_mean f4 [32]
000000 16 d9 f1 bf 24 b1 e1 bf 27 b4 76 bf c6 db 8b 3f
       -1.8894374 -1.7632184 -0.9636864 1.0926445
000010 b8 0c 0f c0 08 08 e0 3f 0d f7 01 bf 59 c6 fa bf
       -2.2351513 1.7502451 -0.50767595 -1.9591781
000020 ed 93 66 bf 44 6e 35 bf d0 3f e3 3e e3 ed 59 bf
       -0.90069467 -0.70871377 0.44384623 -0.8512861
000030 a0 d0 64 bf 53 13 95 bf 66 eb 96 bf 63 4d 45 be
       -0.89380836 -1.1646522 -1.1790588 -0.19267802
000040 69 17 58 bf 72 65 b8 be 6c b0 fb 3c 85 22 ce bd
       -0.8441072 -0.36014897 0.030723773 -0.10065178
000050 fc a2 94 3f 09 94 1a c0 07 8a 5f 3e f4 18 21 c0
       1.1612239 -2.4152853 0.21829997 -2.517148
000060 c6 da e0 bf a0 df ae bd c9 f5 f9 bf 4c 10 d0 3f
       -1.7566764 -0.08538747 -1.9528133 1.6254973
000070 c0 aa 35 3e cc 63 13 c0 8b 45 73 3f 61 2c d3 bf
       0.17740917 -2.302966 0.9502799 -1.6497918

blocks.2.bn.running_var f4 [32]
000000 3f cf 27 41 06 e6 7c 40 1d cb 94 40 25 e2 6f 40
       10.488097 3.9515395 4.649794 3.7481778
000010 00 07 59 40 2a a2 43 40 6c 29 9e 40 e7 a1 64 40
       3.3910522 3.0567727 4.9425564 3.5723817
000020 1f 7b 42 40 cb ce 23 40 e6 3d 17 40 15 fc 90 40
       3.0387647 2.5594966 2.363153 4.5307717
000030 db 88 2a 40 c8 1d 0d 41 34 6e 04 41 e6 51 1a 40
       2.664603 8.819771 8.276905 2.4112487
000040 7b 12 45 40 1b db 7c 40 d9 a3 4b 40 f5 9d 72 40
       3.079253 3.9508731 3.1818755 3.790891
000050 72 cc 05 40 5d af 43 40 55 52 3b 40 35 1f bf 40
       2.0906034 3.0575783 2.9269001 5.9725595
000060 ca d5 2f 40 16 dd 3f 40 58 4a 84 40 87 98 03 41
       2.7474236 2.997869 4.134075 8.224738
000070 5e 12 b4 40 b5 87 0b 41 fb 84 f3 40 9d 14 4c 40
       5.627242 8.720632 7.609983 3.1887581
