models/107.pth (torch, 501905 bytes, 80 tensors)

conv0.conv.weight f4 [32, 17, 3, 3]
000000 24 cc 0c be 38 b4 51 3e c3 0c e3 bd c0 01 16 3e
       -0.13749748 0.20478904 -0.110864185 0.14649105
000010 80 1f 5e be 1d 7c 54 3e 6b 21 ee bd 58 55 05 3e
       -0.21691704 0.2075047 -0.11627468 0.13020837
000020 3e 38 41 3d bd 78 e2 3d 55 60 52 bd 30 38 16 3d
       0.047172777 0.11058185 -0.0513614 0.03667468
000030 43 b8 33 3d 69 f6 1c be 16 2b 01 3e 45 0d b6 3d
       0.043876898 -0.15328373 0.12614092 0.0888925
000040 e8 d6 14 3c 6c 73 91 bc f0 9c bc 3d 2b f7 b9 bd
       0.009084441 -0.017755233 0.09209621 -0.09080347
000050 2f 03 ae 3d 26 7e e1 3c 40 7f 51 bc 39 cc d1 3d
       0.08496701 0.027525973 -0.012786686 0.102440305
000060 96 d5 ee 3c a9 b8 d7 bc 1d 9c 63 3d 40 eb 60 bc
       0.02915458 -0.02633317 0.055568803 -0.013727963
000070 20 e0 82 bc e4 ca 81 bd 3c 14 9a 3d 43 c2 84 3a
       -0.015976012 -0.063375264 0.07523391 0.0010128695
000080 ce 92 d9 bc 94 22 98 3c 4a 16 54 bd 9c aa ce 3c
       -0.02655926 0.018571176 -0.05177907 0.025227837
000090 5e dd d6 3d 6b bf 95 3d 0b 7c d9 3d 72 61 fa 3c
       0.10491441 0.07311901 0.106193624 0.030564044
0000a0 fb 24 ae be 07 a0 74 3e 07 53 18 3e a2 96 55 3e
       -0.3401259 0.2388917 0.14875422 0.20858243
0000b0 3b 76 df 3d f7 98 27 3d 2a 90 c0 3d fe fe e9 3d
       0.109112225 0.040917363 0.09402497 0.11425589
0000c0 58 82 0a 3e ba 29 58 bd c1 17 11 3e a7 21 5d 3e
       0.13526285 -0.05277417 0.14169218 0.21594869
0000d0 ad a1 ab 3d eb ca 19 3d d6 91 de 3d 7d 5d ff 3d
       0.083804466 0.037547033 0.1086766 0.12469003
0000e0 52 0a 70 3d 44 50 42 3e 0c 79 db bd 62 ed 00 3e
       0.058603592 0.18975931 -0.10716447 0.12590554
0000f0 75 a0 1a 3e 8c 9d d8 3d 79 11 8e 3d 85 f4 a1 3d
       0.15100272 0.10576925 0.069369264 0.079079665
000100 01 a8 ec 3d 7d 90 05 3e 81 4e 7c 3d 58 c5 fe bc
       0.11555482 0.13043399 0.061598305 -0.03109996
000110 b1 53 28 3e 09 b6 26 3e 4e cc 10 3d 8b e4 82 3d
       0.16438176 0.16280378 0.03535109 0.06391247
000120 a9 e9 62 3c 3a 5c ba 3d 5b c9 6b bd 39 5d 77 3d
       0.013849654 0.09099622 -0.057565074 0.06039164
000130 68 74 46 3e f4 29 09 3d fa fb 4a bd 38 22 d2 3d
       0.19380343 0.033487275 -0.04955671 0.10260433
000140 bc 39 43 3c 37 fb a1 bd f7 5f 3c 3d 4e 1e 76 bd
       0.01191562 -0.079092436 0.045989957 -0.060087495
000150 a8 7e f2 bc 1c 08 bd 3e 1c 1d 6d 3d da 7d 3c bd
       -0.02960141 0.3692025 0.05788909 -0.04601846
000160 23 92 95 3d 46 99 6b 3c e7 c3 39 ba 0c ab 8d 3d
       0.07303264 0.014379805 -0.00070863817 0.0691739
000170 3f 86 0a bc 32 17 0f 3d c2 1b 9d 3e 90 4b 18 3c
       -0.008454858 0.03493423 0.3068524 0.009295359
000180 c0 c8 a8 bc bb 5c fd 3d 1d dd 80 3c 9a ac f5 bb
       -0.020603538 0.123712026 0.015730435 -0.0074973824
000190 b5 fc d6 3c 69 e1 3f bd 67 0b 94 3d cb 81 91 3e
       0.026243547 -0.046845827 0.07228737 0.28419337
0001a0 d6 94 45 3d af 7d 94 bd f4 bd d9 3d b8 af c0 3c
       0.048237644 -0.07250535 0.10631934 0.02352129
0001b0 c8 bb e5 bb 13 78 cb bd 1d 4a 8f 3d 65 38 fd bd
       -0.0070109107 -0.09935012 0.06996558 -0.12364272
0001c0 85 f3 01 be e2 4d 26 be 5f 49 6c 3d 3d b4 f3 bd
       -0.12690552 -0.16240647 0.05768716 -0.11899612
0001d0 5e 86 cb 3d 71 7c 7c bd 78 91 99 ba 87 19 f4 3d
       0.09937738 -0.061642114 -0.0011716327 0.119189315
0001e0 f5 07 70 bd 0c f9 08 3e 2d 45 8c bd 46 5b d0 3c
       -0.05860134 0.13376254 -0.06849132 0.025434148
0001f0 85 e0 eb 3c 84 f1 fa 3d ae c5 67 bd 88 9d 50 3d
       0.028793583 0.12253097 -0.056585006 0.050931484
000200 90 4f db 3d d9 31 8c bc 0b c6 0a 3e ff 98 57 3d
       0.10708535 -0.017113613 0.1355211 0.052636143
000210 2d 9d 16 bd 6b a8 b6 3c 45 f3 53 3c cf 91 b0 3b
       -0.03677099 0.022297105 0.012936418 0.0053884755
000220 e8 76 3e bc 2a ae 78 3c c3 e7 7c 3d 85 9d 1a 3d
       -0.011625029 0.015178243 0.061744463 0.03774788
000230 53 c7 ee b9 90 97 90 3d 99 2f a0 bd 12 54 62 3d
       -0.00045543406 0.07060158 -0.078215785 0.055255957
000240 f0 a7 25 3d 2a 0a 4f 3d 7f dd ec bc d8 cc a1 3d
       0.04044336 0.050546803 -0.028914211 0.07900399
000250 50 1e 80 3d 4d 0b e4 3d 1c e5 4d bc a1 bb c4 3c
       0.06255782 0.11134968 -0.012566831 0.02401525
000260 da 96 17 3d 5e 32 e4 3d ef 46 b0 3d ea ec 2b 3c
       0.037009098 0.11142419 0.086072795 0.010493496
000270 f5 8c 84 bd f1 0b a2 be fa 16 ee 3d 11 eb 07 bc
       -0.06472198 -0.31649736 0.11625476 -0.00829579
000280 8d e5 f9 bc 79 96 09 be da 0e 1f bd 79 43 b7 3d
       -0.030504966 -0.13436307 -0.038832523 0.08948416
000290 c9 04 d3 bd 19 fd c1 bd 7f 9b 3b be 26 b8 6b be
       -0.10303647 -0.09472103 -0.18321036 -0.23019466
0002a0 d6 24 15 bb 12 1f 13 be 7d 93 5f bd 7c aa d9 bd
       -0.0022757552 -0.14367321 -0.054584015 -0.106282204
0002b0 5b 83 ab 3d 65 cc 6f be 9c 3b c9 bd d5 d5 14 3e
       0.083746634 -0.23417814 -0.09825823 0.14534695
0002c0 fc 52 0e be ce 17 b5 3d d1 c7 77 be 6a 43 01 be
       -0.13898844 0.08842431 -0.24197318 -0.12623373
0002d0 07 a4 c9 bd 06 b2 9a 3d c6 0a 0b be 00 78 dc bd
       -0.09845739 0.075534865 -0.13578328 -0.10765076
0002e0 fc 65 0f 3d 45 6f 8f be 5e e9 49 3c 06 7a a6 bd
       0.03500937 -0.2801458 0.0123237055 -0.08128743
0002f0 b9 be 01 be 4b 0c da 3c 1c e0 bd bd 07 1e bd bd
       -0.12670411 0.02661719 -0.09271261 -0.09234243
000300 a8 a5 3c 3d c4 43 40 be 72 66 33 be 74 bf 86 3d
       0.04605642 -0.1877585 -0.17519549 0.065794855
000310 f0 17 0b 3d 1a ce 22 be 75 f4 01 be b9 c2 88 bd
       0.033958375 -0.15898934 -0.12690909 -0.066777654
000320 c6 6c 13 be f8 23 14 be 51 71 7f bd b3 b0 26 be
       -0.14396963 -0.14466846 -0.062363926 -0.16278343
000330 24 21 93 be 2b 89 09 bd 6e b8 7a be 1e d9 1b be
       -0.28736222 -0.03357808 -0.24484417 -0.15219542
000340 12 b5 2b be 8d a7 99 be 0f 8e d7 bd 8a 3e a7 bd
       -0.16768292 -0.30010644 -0.105251424 -0.08166225
000350 b0 32 1e be 37 c6 5b be ba 0c a1 be e6 e8 aa be
       -0.15449023 -0.21462332 -0.31455022 -0.33380812
000360 8d df 3d be ee 79 78 be 3c f2 7c be 25 49 cc bd
       -0.18542309 -0.24265262 -0.2470178 -0.09974889
000370 64 be 89 be a2 34 3e be 2f b1 23 be 04 5d f9 bd
       -0.2690307 -0.18574765 -0.15985559 -0.121759444
000380 a1 7f 99 be 82 73 42 bd b3 1e 8f 3c f2 e9 9d 3d
       -0.29980186 -0.047473438 0.017470693 0.07710637
000390 60 e5 23 3d 87 cc 67 be 2a bb 83 3d 9e a7 10 bc
       0.04001367 -0.22636615 0.06432183 -0.008829026
0003a0 fa fd a1 3c 44 4a 1b 3e c5 c0 d0 bc a1 a4 64 3d
       0.019774426 0.15165049 -0.025482545 0.055821065
0003b0 22 3d b0 3d 15 bc a4 3d 12 47 91 3d a8 26 1a 3e
       0.0860541 0.08043686 0.07093634 0.15053809
0003c0 06 17 2b 3d dd f9 9b 3d 87 9a a3 bb bb c9 b7 3c
       0.041770004 0.07616017 -0.0049927863 0.02243506
0003d0 49 00 94 3d 58 58 b6 3d 71 5a fa 3c 39 7a fb 3c
       0.07226617 0.08903569 0.030560704 0.030697929
0003e0 64 f4 d8 3c 31 1a bb 3c 7f 93 c4 3d 46 de 9b 3d
       0.026483722 0.022839637 0.09598445 0.07610755
0003f0 57 33 72 ba 49 b8 00 3e ae 8a 06 3e bd dc 26 3d
       -0.00092392176 0.12570299 0.1313884 0.040737856

conv0.conv.bias f4 [32]
000000 cf 60 90 39 ec a0 0d 3a 95 69 ad 3b 7c 8e cf 3a
       0.00027537948 0.00054027024 0.0052921274 0.001583531
000010 8d 2e 66 3b f9 92 f1 ba 99 a4 c7 bb 35 a8 f1 3a
       0.0035122961 -0.0018430642 -0.0060926196 0.001843697
000020 6d 20 bf 3b b2 79 41 bc f6 f1 a2 ba 4a c7 41 bb
       0.005832723 -0.0118088 -0.0012431729 -0.0029568248
000030 31 92 7a 39 44 05 94 3c f5 f2 0f 3a 65 22 88 bb
       0.00023896318 0.018068917 0.00054912205 -0.004154491
000040 a8 3e d0 ba be a3 6d 3c 92 95 69 3b 88 eb a4 36
       -0.0015887814 0.014504371 0.003564213 4.9150003e-06
000050 45 d3 b1 3a 43 54 df 3c 88 4b a7 bb 5a 62 78 3a
       0.0013566992 0.027261859 -0.0051054396 0.0009475105
000060 3d 7c db 3b b2 2e 3d 3c 9a 49 54 ba ef 89 5f 3c
       0.00669816 0.011546778 -0.00080981257 0.013643726
000070 1b 4c 76 bb a6 9f 8a 3b 43 95 13 3c ae 0c bd ba
       -0.0037581983 0.0042304574 0.009007755 -0.0014423335

conv0.bn.weight f4 [32]
000000 f8 4c 62 3f 4d 05 5a 3f 1d bf 42 3f 48 d4 5d 3f
       0.88398695 0.8516434 0.76072866 0.8665204
000010 1c b4 45 3f e2 9a 57 3f 5f 53 4c 3f c8 6f 5b 3f
       0.7722795 0.8422071 0.79814714 0.8571744
000020 66 16 6a 3f d5 3a 63 3f 61 b2 4e 3f 0a 62 41 3f
       0.9144043 0.88761646 0.80740935 0.7554022
000030 c5 45 4f 3f d5 c7 62 3f 61 2c 4c 3f 77 60 82 3f
       0.80965835 0.8858617 0.79755217 1.0185689
000040 37 47 54 3f 45 ad 9b 3f 79 c8 5b 3f 42 ab 49 3f
       0.82921165 1.2162253 0.8585277 0.78776944
000050 97 fb 43 3f a8 74 6f 3f 0f 1c 64 3f 0d e9 4d 3f
       0.7655577 0.9353738 0.89105314 0.8043373
000060 a1 02 74 3f 7c 1b 58 3f 7f 9b 67 3f 00 a0 62 3f
       0.9531651 0.8441694 0.90471643 0.8852539
000070 81 ee 77 3f 3f ac 50 3f 6e 59 5d 3f e8 a6 48 3f
       0.96848303 0.81512827 0.86464584 0.7837968

conv0.bn.bias f4 [32]
000000 b9 7a f2 be 06 93 d6 bd 52 10 0c be df 54 bd be
       -0.47359255 -0.10477261 -0.136781 -0.36978814
000010 46 2c 41 be f3 4b 68 bd bd 0c 4a bd 6d c2 8b be
       -0.18864545 -0.056713056 -0.049328554 -0.27296773
000020 75 22 5a be 5e 9c 71 be 6a 7d f3 b9 ad f1 a1 3c
       -0.21302207 -0.23594806 -0.00046442013 0.01976856
000030 24 7e 14 be ed b4 2c be 83 83 8b be 7c dc 0d be
       -0.14501244 -0.16865893 -0.27248773 -0.1385364
000040 16 c0 a9 bd 4b 14 d8 bb 0b 20 a0 bd c9 30 48 be
       -0.082885906 -0.006594216 -0.07818612 -0.1954986
000050 3d 92 ec bd 19 25 53 3d 44 ab 40 be 84 a1 15 be
       -0.1155133 0.05154905 -0.18815333 -0.14612395
000060 49 d6 b7 bd f7 a8 d4 bd b0 cb 67 be 88 53 a1 bc
       -0.089764185 -0.1038379 -0.22636294 -0.019693151
000070 42 93 39 be b2 c4 f4 3d 1e 07 36 bd be af b8 bc
       -0.1812258 0.11951579 -0.04444038 -0.022544738

conv0.bn.running_mean f4 [32]
000000 fd 22 3d 3e 4b 70 63 3d c9 9e 48 bd fa f1 9a bd
       0.18470378 0.055527013 -0.048979554 -0.075656846
000010 34 d8 47 3d d6 a3 5c bc 31 99 26 be ae 24 3c 3e
       0.04879017 -0.013466796 -0.16269375 0.18373367
000020 d3 54 88 bd 48 97 b6 bd b5 fe e1 3c 8d d7 08 3d
       -0.06656804 -0.08915573 0.027587274 0.03340869
000030 a4 b5 a2 bc 38 55 b2 bc 26 af 94 3d 88 1e 13 3e
       -0.019862004 -0.021769151 0.072599694 0.14367115
000040 03 af bc 3d 6d e8 bd bd d6 68 12 be de 07 3d bd
       0.09213068 -0.09272847 -0.14297804 -0.04615008
000050 c3 fa 92 3c 30 20 ce 3b db 53 9c bd 1a 2d a1 3d
       0.017941838 0.006290458 -0.07633182 0.078699306
000060 b3 f5 23 bd f1 ea 43 bd e5 22 d8 bb 13 ca 30 bd
       -0.04002924 -0.04783148 -0.0065959566 -0.043161463
000070 7a 75 3f 3e 85 4d e0 3d ea 17 96 bd c3 c2 77 3d
       0.18697158 0.10952286 -0.0732878 0.060488474

conv0.bn.running_var f4 [32]
000000 be d7 3a 3d 4d 67 09 3d 18 d8 38 3d bd d5 1d 3d
       0.045615904 0.03354578 0.045127958 0.038533915
000010 cc 99 06 3d cb 12 0f 3d 28 fc ab 3d da 2c 22 3d
       0.032861516 0.03493003 0.08397704 0.039593555
000020 48 67 35 3d fe 41 48 3d c5 7d 20 3d 79 84 4a 3d
       0.04428795 0.04889106 0.039182443 0.049442742
000030 c5 06 2f 3d 98 9c e9 3c fc 1a 23 3d 74 aa 15 3d
       0.042731065 0.028517053 0.039820656 0.03653951
000040 70 8d ed 3c c7 b2 67 3d 5d 99 64 3d e3 22 10 3d
       0.028998107 0.05656698 0.05581032 0.03518952
000050 68 6b 86 3d 2e 66 27 3d 0b ef 12 3d 45 a6 0d 3d
       0.06563455 0.04086893 0.0358725 0.034582395
000060 db 94 0b 3d 0e 39 3b 3d 41 4b 10 3d e1 1d 18 3d
       0.034077507 0.04570871 0.035228018 0.03713787
000070 92 88 52 3d a7 a0 11 3d 6d f6 32 3d d3 b4 26 3d
       0.051399775 0.0355536 0.04369204 0.04069979

blocks.0.conv.weight f4 [32, 32, 3, 3]
000000 03 f7 07 3e c0 ee 94 bd d3 3a cc 3d 3a 93 48 be
       0.13277821 -0.072721004 0.09972157 -0.19587412
000010 a5 f5 9f 3d b4 50 23 be 01 9d 9f 3d 6e 4c 32 be
       0.07810525 -0.15948755 0.07793618 -0.17411968
000020 4f 49 91 3d 1c e5 1f 3e f6 3b a2 3c 99 d9 64 3c
       0.07094061 0.15614742 0.019803982 0.013967895
000030 ce 33 9f bd 38 de c1 bd 5d 51 b9 bb 30 c0 f0 3d
       -0.07773553 -0.09466213 -0.005655451 0.11755407
000040 96 02 74 bd 48 86 d2 bd 4b 5d c0 3d 9a 69 48 bd
       -0.05957278 -0.10279518 0.09392794 -0.048928834
000050 fa 3a 5f 3d 94 d7 d2 bd fc bc 16 bc 68 7d 54 bd
       0.054499604 -0.102950245 -0.009200331 -0.05187741
000060 16 e6 7d 3d 7d bf 04 bd b3 2c b9 3c a2 c4 c0 bc
       0.061987005 -0.03240918 0.022604322 -0.023531262
000070 7a b3 da 3d 74 48 5e 3d 41 7b bd bd d0 70 46 bd
       0.10678764 0.054268315 -0.092520244 -0.04844743
000080 30 7a ba 3c 10 98 72 bd 63 0e 4d bd 8b 83 c7 bc
       0.022763342 -0.05922705 -0.05006255 -0.024354717
000090 e8 f0 d6 bb fb 58 40 3e 94 59 d6 bc 41 cb ef 3c
       -0.00655948 0.18783943 -0.026165761 0.029271724
0000a0 3e f9 08 3d 1e d6 0e 3e d9 e4 c5 bd ad 6a 16 be
       0.03344082 0.13948867 -0.0966279 -0.14689131
0000b0 d4 7f bf 3c 88 8f 36 3d b1 1c 96 bd dc 8d e6 ba
       0.023376383 0.044570476 -0.07329691 -0.0017589885
0000c0 0e d6 34 bd 7a 74 1c 3b 05 9c 43 3d 36 0a 83 3c
       -0.04414945 0.0023873136 0.047756214 0.01599608
0000d0 ca 49 bf 3c c6 f3 43 3e ae 49 46 3d 71 3b ca bd
       0.023350615 0.19135961 0.04841011 -0.09874619
0000e0 9f 47 72 3d 49 c8 71 3d 18 8b b3 3d aa 39 c4 bd
       0.059150334 0.059028897 0.087667644 -0.09581311
0000f0 bd 02 a2 3d d6 8e 0b 3d 4e a4 07 3d b5 f8 23 3e
       0.079106785 0.034071766 0.033115678 0.16012843
000100 fc 68 83 3d 79 7c 15 3e c0 f4 c2 3d 70 47 34 3e
       0.064165086 0.14598264 0.095193386 0.17605376
000110 3d dc 8c bd d6 2c 17 3e 8d 9b e4 bc c4 96 44 bd
       -0.068779446 0.14763197 -0.027906204 -0.047995344
000120 e1 08 9e 3c 0a d3 a5 be 0f 13 98 3b 75 1a 45 bd
       0.019291343 -0.32387573 0.004640944 -0.048120935
000130 c9 60 87 3d e8 17 2c bc 7c cb 13 bd 68 4c 6f 3e
       0.06610257 -0.010503747 -0.03608273 0.2336899
000140 a6 b3 97 bd 24 18 cb bd fa 9d 6b 3c 24 4b ba 3c
       -0.07407312 -0.09916714 0.014380926 0.022740908
000150 6c 59 1c bc 1c 73 46 3e 22 43 bf 3c cc 76 5a 3d
       -0.009542804 0.19379848 0.023347441 0.05333595
000160 01 72 7b 3c 1d b8 a3 bd 79 c6 ec 3c 68 ed 30 be
       0.015347005 -0.07994101 0.028903233 -0.17278063
000170 e9 52 de 3d fd f1 84 3c 7a 56 02 3e b4 03 eb bd
       0.108556576 0.01622867 0.127283 -0.11475316
000180 b2 ca c3 3d 13 49 21 3c 84 6b 50 bd a4 52 74 3c
       0.095601454 0.009844082 -0.050883785 0.014912281
000190 ec e3 00 bc 91 5b 71 3e d5 6c 45 bc df 4d ac 3d
       -0.007866841 0.23570086 -0.012049873 0.0841329
0001a0 db 9a 4e bb 6c ed f4 3d 19 73 d3 3c 3a 26 00 bc
       -0.0031525407 0.11959347 0.025811719 -0.007821614
0001b0 32 c9 3f be 89 0f 42 bc 8a bf 6f 3d 20 64 2a 3e
       -0.18729094 -0.011844524 0.058532275 0.16639757
0001c0 bf ed f1 3d 8b 5c dc bc 3a 8f 01 bd 53 eb ad 3d
       0.118129246 -0.026899597 -0.031630732 0.0849215
0001d0 06 ff 7e bd 47 f1 99 bd 8e 93 c6 bd 27 ec 41 be
       -0.062254928 -0.07516723 -0.096961126 -0.18937741
0001e0 a5 57 93 bd 40 eb 88 bd 4c 6a c4 bd 79 98 75 bc
       -0.07194451 -0.066854954 -0.09590587 -0.014989966
0001f0 a9 d8 02 3d bf f0 eb 3d 00 0f 00 be f4 91 ea 3d
       0.031944904 0.11520528 -0.12505722 0.114536196
000200 bd c5 08 be 79 65 ff 3c 47 63 30 bd 37 28 80 bd
       -0.13356681 0.031176316 -0.04306343 -0.062576704
000210 51 3c 62 3d e1 28 0f be 10 c0 9d bc df ef 41 3d
       0.055233303 -0.13980438 -0.019256622 0.0473479
000220 6a 0a 90 3d 70 0a 83 3d fb 24 2a 3e d3 0c ef 3b
       0.07033236 0.06398475 0.1661567 0.00729523
000230 56 9e bd bd 2e 24 0e 3d c7 83 e8 3d f6 c2 47 3c
       -0.09258716 0.034702472 0.113532595 0.012192478
000240 29 ce 25 3d 0e 78 d1 3c 83 d0 91 3d 2e 3a 8d 3d
       0.040479813 0.025569942 0.071198486 0.068958625
000250 3e ab c2 bd 99 d7 f2 bc 33 70 48 3d e9 64 32 3e
       -0.09505318 -0.02964382 0.048935127 0.17421307
000260 db 45 36 3c 2f 4d 5c 3d e1 ae 0c 3d 70 eb a1 bd
       0.011125053 0.053784546 0.034346465 -0.07906234
000270 95 d6 8d 3c 0a 45 27 bf 18 98 d9 3d 3c 39 ce 3d
       0.017314235 -0.6533972 0.10624713 0.1006951
000280 d6 bf b5 3c 0a d6 dd 3d 76 98 43 bd 9a d8 8d 3c
       0.022186201 0.1083184 -0.04775282 0.017315198
000290 9d b0 cf 3d 50 af 86 3e b0 29 5e bd 5b ff 78 bd
       0.10141108 0.26305628 -0.054238975 -0.0607904
0002a0 57 da 2f be f7 e0 7d 3d ba d4 a2 3d 1c 9c df bd
       -0.17173134 0.06198212 0.079507306 -0.109184474
0002b0 69 ba 2a 3d 24 98 0f 3d 52 39 32 be 5d b6 be 3d
       0.04168168 0.035057202 -0.17404678 0.09312127
0002c0 92 0c 89 bc 68 03 b3 bc c5 af e5 3d 38 ad 1e bd
       -0.016729627 -0.02185221 0.11215166 -0.038739413
0002d0 e5 4e 05 be 56 cf a6 bd a1 fa 8c 3d e4 f5 18 3b
       -0.13018377 -0.08145015 0.06883741 0.0023339922
0002e0 6d 6f 01 be cb 83 f2 bd a0 0a 23 3d 12 a8 ae bc
       -0.12640162 -0.11841544 0.039805055 -0.021320377
0002f0 28 63 db bd ab 90 8b 3d 40 ef 45 3b c9 03 46 3d
       -0.10712272 0.068147026 0.0030202419 0.048343454
000300 07 df 1b 3d 18 11 e7 bd 3e 3f 76 3d 35 7d c4 3d
       0.038054492 -0.11282557 0.060118906 0.09594194
000310 ff c7 c5 3d 69 c1 02 3e bd 26 c0 3d a7 38 08 bd
       0.09657287 0.12769093 0.09382389 -0.033257153
000320 30 47 c4 3c 62 38 2f be e9 44 57 3e 00 32 c2 bc
       0.023959726 -0.17111352 0.21022381 -0.023705482
000330 14 5e b0 3d 01 c5 05 be b8 b1 ad 3c bd 00 06 bc
       0.08611694 -0.13063432 0.021202907 -0.008178887
000340 23 83 3a 3c 3e b3 71 3d a4 44 82 3d 63 4b bf 3d
       0.0113838045 0.05900883 0.063607484 0.09340551
000350 4f e4 cd 3d 62 6b 02 be a4 8f 78 3c ea 34 18 3e
       0.10053312 -0.12736276 0.015170965 0.14863935
000360 5d 79 a2 3c 7a ac 05 3e 7f 80 54 bd 4b f7 aa 3d
       0.019833261 0.13054076 -0.051880356 0.08347949
000370 3c 46 47 3d 05 a6 2f bd cd 6c b2 3b b6 39 b9 3c
       0.048650965 -0.042882938 0.005445099 0.022610527
000380 f4 49 8f bd f6 54 b1 bb a2 57 c2 bd 05 c8 d0 bc
       -0.06996527 -0.0054117395 -0.09489371 -0.025486002
000390 25 d0 0b bb 48 db 3d 3d fe 0f 2b be 94 5d 02 bd
       -0.002133378 0.0463517 -0.1670532 -0.031827524
0003a0 24 6a b4 bc 62 1e 8a bb 94 c6 11 3d 0a b9 06 bd
       -0.022023268 -0.0042150477 0.03558977 -0.03289131
0003b0 c5 3a 94 bd 32 c3 8d bd 5c 9a 35 be 40 30 7d bc
       -0.07237772 -0.06921996 -0.17734665 -0.015453398
0003c0 b2 79 8e bc 94 a8 61 3d d0 c6 0e bc 0f 37 44 3c
       -0.017392013 0.05509241 -0.008714393 0.011976018
0003d0 5b 67 70 bd 60 7c 2e bd c9 51 2d 3d 32 af b6 bd
       -0.058692317 -0.042599082 0.042314325 -0.089201346
0003e0 3c 9c 10 bc 35 c1 b0 3d ac 9c 09 3c a4 db 82 3b
       -0.008826312 0.08630601 0.00839917 0.0039934684
0003f0 b1 aa fc 3d 5c d1 26 bd 66 b2 37 3e 90 e6 dc bb
       0.12337244 -0.040727004 0.17939147 -0.0067413524

blocks.0.conv.bias f4 [32]
000000 4a 69 67 b9 52 52 70 3b 24 76 ab 36 7f 6f a1 b8
       -0.000220691 0.003667016 5.1099505e-06 -7.697846e-05
000010 b5 83 93 ba e6 57 83 3b 86 4d 0f bc 5a 70 ca 3b
       -0.0011254462 0.004008281 -0.00874651 0.006177944
000020 3c c2 2b bb a3 66 0f bc 89 9b 36 3a e9 48 52 39
       -0.0026208302 -0.008752498 0.00069659256 0.00020054322
000030 d9 14 df 39 f1 f0 54 3a 26 b5 e6 ba 45 5f 52 b9
       0.00042549407 0.0008123061 -0.0017601594 -0.00020062651
000040 c8 d3 1e bb df 6b a6 b9 22 80 f6 39 4d 98 ed 37
       -0.0024235118 -0.00031742358 0.00047016243 2.8323522e-05
000050 e7 79 01 b9 0c fe b5 ba ef 05 01 bb 4e a7 99 bb
       -0.00012347811 -0.0013884916 -0.0019687375 -0.0046891337
000060 0e cd 62 3a 7f 70 03 38 09 b9 dd 38 30 fa 39 bb
       0.00086517713 3.1337604e-05 0.00010572567 -0.0028377883
000070 5a 5f 8c bb 19 52 6a 39 c5 97 bc b9 bb ef 14 3b
       -0.0042838277 0.00022346563 -0.0003597123 0.0022725898

blocks.0.bn.weight f4 [32]
000000 b3 3c 6c 3f fc e3 6e 3f ba c8 5d 3f 7a 7a 6e 3f
       0.9228012 0.93316627 0.8663441 0.93155634
000010 cc 7b 89 3f a6 e3 66 3f a5 d5 6a 3f 41 b3 5d 3f
       1.0740905 0.90191114 0.91732246 0.86601645
000020 b4 49 68 3f 55 11 79 3f ec 40 79 3f b5 9c 70 3f
       0.9073746 0.9729207 0.9736469 0.93989116
000030 45 52 67 3f 57 4c 62 3f d2 fc 65 3f 20 09 5b 3f
       0.9035991 0.88397735 0.898389 0.855608
000040 5a 53 81 3f 55 dd 80 3f 4b 15 5f 3f 69 ba 6d 3f
       1.0103562 1.0067545 0.87141865 0.92862564
000050 02 8b 6b 3f fa d3 5d 3f 63 ed 62 3f 30 b2 6d 3f
       0.92008984 0.86651576 0.88643473 0.9285002
000060 53 30 62 3f c9 7c 77 3f ac c0 84 3f 69 8d 91 3f
       0.88354987 0.9667478 1.0371299 1.137128
000070 34 0f 57 3f d5 1d 57 3f 38 d6 48 3f 2a 7c 83 3f
       0.84007573 0.84029895 0.7845187 1.0272267

blocks.0.bn.bias f4 [32]
000000 6e ba cb be c4 66 85 be 13 0e dc bd 00 41 1e be
       -0.39790672 -0.26054966 -0.10744872 -0.15454483
000010 ee 38 34 be b8 b7 8d bc 86 11 d4 bd 86 0a 55 be
       -0.17599842 -0.017299518 -0.10354905 -0.20804796
000020 8b 5b 65 be cd e3 8e be 84 44 6b be 5c f5 b7 be
       -0.22398202 -0.27908173 -0.22975355 -0.35929382
000030 f4 ad a1 be 49 80 db be f6 2a 69 be 81 ce 68 be
       -0.31578028 -0.4287131 -0.22770295 -0.22735025
000040 7b 81 e2 be 9b ce 72 be 3f ba a4 bd a9 d3 e4 be
       -0.4423941 -0.23711626 -0.08043336 -0.44692734
000050 bd 60 b2 be 6d fe 2a be 1e 5c c5 be 3a 6e a9 be
       -0.3483943 -0.16698618 -0.38546842 -0.3309191
000060 39 be 65 be df e9 9e be 61 a4 6c be 51 99 8d be
       -0.22435845 -0.31037804 -0.2310958 -0.27656034
000070 81 7f d8 be a9 07 53 be a9 e4 23 3d 50 23 8d be
       -0.42284778 -0.20608391 0.04001299 -0.27566004

blocks.0.bn.running_mean f4 [32]
000000 87 6a e8 3e a5 f3 a3 bf 3b 39 73 3f f4 36 05 bf
       0.45393774 -1.280873 0.950092 -0.52036977
000010 1e bf ed be 12 f3 49 bf b7 25 92 bf 92 f2 bf bf
       -0.46434873 -0.7888652 -1.141776 -1.4995902
000020 51 e5 db be 47 e6 5b bf 83 3e 9c be a1 4a 50 bf
       -0.42948392 -0.8589825 -0.30516443 -0.81363875
000030 40 7a bb bf 54 78 72 3f ca 00 ca 3f 4b 80 1e be
       -1.4646683 0.94714856 1.5781491 -0.15478627
000040 cb 95 3d bf c9 1e 38 bf 2e ae 4c 3f a1 99 d2 be
       -0.7405669 -0.71921974 0.7995328 -0.41132835
000050 58 6f 03 bf 98 2f a1 bf 2b 68 72 bf ff 8c 10 be
       -0.5134177 -1.259265 -0.946902 -0.14116286
000060 a4 57 20 bf 4c e9 d2 bf 8f 34 9b bb cf 2d 38 bf
       -0.6263373 -1.6477447 -0.00473649 -0.719449
000070 df 43 ed bf 57 28 40 3e 02 19 37 3f bf 7b 06 c0
       -1.8536338 0.18765388 0.71522534 -2.1013029

blocks.0.bn.running_var f4 [32]
000000 94 88 77 3f dc ba 96 3f a1 a9 02 40 3c 95 a5 3f
       0.96692777 1.1775775 2.0416033 1.2936168
000010 7e 5e 67 40 db b4 d9 3f 48 9e c2 3f 3a f5 9f 3f
       3.6151423 1.7008318 1.5204554 1.2496712
000020 39 18 99 3f b8 c6 5c 3f f8 71 7e 3f 5a ee 87 3f
       1.1960517 0.8624072 0.9939265 1.0619614
000030 90 5d a4 3f 03 35 91 3f 2d 19 ce 3f a8 de a8 3f
       1.2841053 1.1344303 1.6101433 1.3192949
000040 77 f9 92 3f 65 ef 21 40 17 51 bf 3f 72 ad 81 3f
       1.1482381 2.5302365 1.4946622 1.0131056
000050 24 02 52 3f ec e7 cd 3f d9 19 a2 3f 83 e9 84 3f
       0.82034516 1.6086402 1.2664138 1.0383762
000060 df 22 50 40 b3 1c cd 3f 97 f8 7b 3f 26 f3 9e 3f
       3.2521284 1.6024383 0.98426193 1.2417953
000070 b5 26 ba 3f a6 65 5a 3f 06 dc e3 3f 7e b5 fc 3f
       1.4543062 0.85311353 1.7801521 1.9742887

blocks.1.conv.weight f4 [32, 32, 3, 3]
000000 28 eb 33 bc 1b 93 80 bd b4 ae e3 bc 60 da 28 be
       -0.010981359 -0.06278058 -0.027793266 -0.16489553
000010 cb af ec 3d 0a 96 b0 bd d9 fc b0 3d a5 b8 9e be
       0.11556967 -0.08622368 0.08641977 -0.31000248
000020 4a 5e eb 3c 33 cd ff 3c 97 dd 29 bc 37 31 d9 bd
       0.028731484 0.031225776 -0.010367773 -0.1060509
000030 c3 b6 1e be b8 b7 37 3d 8e 66 fd bd ea a8 3d bd
       -0.15499406 0.044852942 -0.123730764 -0.046303667
000040 da b4 98 3c 71 58 5f be 17 e5 09 3d 75 78 90 bd
       0.018640924 -0.21811081 0.033665743 -0.07054225
000050 ea ad 84 3d ed 18 42 be f4 df 6f be 0f 31 9d bd
       0.06478484 -0.18954821 -0.23425275 -0.07675373
000060 12 e9 a3 bc 98 84 dc 3d 6c 51 8b 3d 57 ed 1e 3e
       -0.020008598 0.10767478 0.06802639 0.15520225
000070 79 30 9a 3c 5f 4d a6 3c 5a 80 fc bd d4 8e dd 3d
       0.018821942 0.020300565 -0.123291686 0.10818258
000080 8b 46 10 3c cd a2 fd 3d 63 4d 28 be 4b 58 7e bd
       0.008805881 0.123845674 -0.1643577 -0.06209592
000090 6b 2f 16 3e 2a 5f 67 3d 69 31 4c bd 17 a8 09 3e
       0.14666526 0.05648724 -0.04985181 0.13443027
0000a0 e2 67 5b 3d 31 6f f5 3c 83 1a 0e 3e ad eb 11 3d
       0.053565867 0.029960247 0.13877301 0.03562515
0000b0 8c 64 ec bc 63 db fe bd 7a 6b 09 3b db 78 17 3e
       -0.028856538 -0.124441884 0.0020968602 0.14792196
0000c0 28 82 9b 3d d8 d7 9f 3c 66 c5 c2 bd e3 37 0b bd
       0.07593185 0.019512102 -0.09510307 -0.033988845
0000d0 6f 59 05 3c 5a b5 9d 3c 5e 30 ce bd 92 10 8b bd
       0.008138998 0.019251514 -0.10067819 -0.0679027
0000e0 aa 8c 22 3d 84 ae 03 bd b8 77 e3 bc ce 4c 9f bd
       0.03968493 -0.032148853 -0.027767047 -0.07778321
0000f0 8d b0 a4 bd b4 3b a4 bd bc ac 2f bd fe 8f dc 3d
       -0.08041487 -0.080192 -0.04288934 0.10769652
000100 d6 22 3c be e9 38 ac 3d 42 12 6b 3d 92 61 fa 3d
       -0.18372664 0.08409292 0.05739046 0.12225641
000110 7d 0a 38 be 56 52 c8 3d 4d e4 c9 3d 21 d5 24 3d
       -0.17972751 0.09781329 0.09857998 0.040242318
000120 b5 c3 1e 3d 58 02 b2 bc 24 3e 59 3d 10 65 37 be
       0.03876086 -0.021729633 0.053037778 -0.17909646
000130 8e 02 29 bc 2e f0 70 3c b6 ea 7e bd cc ee 31 bd
       -0.0103155505 0.014705701 -0.062235557 -0.043440625
000140 dd d4 0d 3d 6b d5 8d bb 42 b1 95 3b f4 99 e1 bd
       0.03462683 -0.00432842 0.00456825 -0.11015692
000150 3a 57 72 3d 6b 1e 88 ba 7b 12 c4 bd d4 40 4c 3e
       0.059165217 -0.0010385042 -0.09573837 0.19946605
000160 a2 84 05 3e 43 29 36 be c3 7a 3b 3e 1e d8 c8 bd
       0.13038877 -0.17789178 0.18308549 -0.09806846
000170 20 8c 4c bd 19 2f 4b 3c 3d 6b f0 ba 15 bf eb 3d
       -0.04993832 0.012401366 -0.0018342506 0.115110554
000180 6b 8c a7 3c a7 62 56 bd af c5 97 3d e8 44 0d 3d
       0.020452699 -0.052340176 0.07410752 0.034489542
000190 e2 ce ab 3d 99 ba 31 3c 75 0f 6f 3d eb e8 03 3c
       0.08389069 0.010847711 0.05836435 0.008051137
0001a0 93 a2 13 bd c4 9c 88 bd 2f 81 15 be 0e 84 2b be
       -0.036043715 -0.06670526 -0.14600061 -0.16749594
0001b0 06 b3 02 bc 86 d2 56 3e 7a b1 05 be ff 04 0a 3e
       -0.007977253 0.20978746 -0.13055983 0.13478468
0001c0 f6 e0 ff 3d 72 e4 69 3e 41 c6 78 3d 5b 31 fe 3d
       0.1249408 0.22841051 0.060735945 0.124117576
0001d0 3e 0d 6b 3e 75 fb a7 be 52 cc 1a be ca c9 dc bd
       0.2295427 -0.32809034 -0.15117005 -0.10780676
0001e0 ef 6d e1 bd 81 3b 2c be d7 f3 71 3d fc dc 0d bc
       -0.11007296 -0.16819574 0.059070434 -0.008658644
0001f0 11 99 84 bd 1e 1d df bb f0 00 33 3e ef 8c 23 3d
       -0.064745076 -0.006808891 0.17480826 0.039929327
000200 49 14 00 be f6 08 a3 3d f8 d6 e3 bc 40 95 20 3e
       -0.12507738 0.079606935 -0.027812466 0.15681934
000210 cd 70 78 3d f7 10 6e bd 6a 4b df bd ea fd dd bd
       0.06065445 -0.058121648 -0.10903056 -0.10839446
000220 3e 9a c5 3c f0 ea 2d bd 0e be aa bd 36 58 a2 bd
       0.0241214 -0.042460382 -0.08337031 -0.07926981
000230 c7 60 c9 bd 9e 70 4e bd fa a9 9a bd 7e 0a 55 bd
       -0.09832912 -0.05040037 -0.07551952 -0.05201196
000240 22 d2 45 3b 47 54 06 be ac ab 41 bd df 62 8f bd
       0.0030185063 -0.13118087 -0.04728286 -0.0700128
000250 a5 05 96 bd ff 04 80 3d 6e c1 75 3d 67 1f 12 bd
       -0.07325295 0.06250953 0.059998922 -0.03567448
000260 a1 3f ff bc f2 1b 5c 3d d1 62 81 3c ce 01 83 bd
       -0.03115827 0.05373759 0.01579419 -0.063968286
000270 6f 92 24 bc 02 d1 ed be 9c 66 f4 3b 8d 92 f1 bc
       -0.010044678 -0.46448523 0.007458521 -0.029488826
000280 0a 1b 03 be 5c e2 fc bc 47 13 12 3d 18 21 cb 3c
       -0.12803283 -0.030869655 0.035662916 0.024796054
000290 e6 2e f9 bc 81 64 77 3d a0 6a c2 bb fb e6 96 3d
       -0.03041787 0.060398582 -0.005933121 0.07368275
0002a0 21 ab a2 3d 47 92 3b 3e b0 2e 62 bd c7 39 99 bd
       0.079427965 0.18317519 -0.055220306 -0.07481723
0002b0 d1 42 b7 3d 79 91 47 bd 6e d9 db 3d 45 cd 81 bc
       0.08948291 -0.048722718 0.10734831 -0.01584495
0002c0 85 5e ad 3d c3 20 61 be 61 34 28 be 09 87 1b be
       0.08465294 -0.21985154 -0.16426231 -0.1518823
0002d0 2b a9 02 be 34 6c 5c bd 78 0c f5 bc 17 18 e2 bb
       -0.12759845 -0.053814128 -0.029913172 -0.0068998444
0002e0 e8 9f 62 be ad d6 ff 3d da d3 6d bd ad 6f a9 bd
       -0.22131312 0.12492118 -0.058063366 -0.082732536
0002f0 0b ff 8c bd b0 a4 ad 3b 5e 38 55 bd 67 23 3f be
       -0.06884583 0.0052991733 -0.05205571 -0.18665849
000300 76 c0 a1 3c d9 7f be bd 4a 51 3d bd 95 13 45 3d
       0.019745093 -0.09301729 -0.0462201 0.048114378
000310 65 81 1e 3d e5 21 d9 bd 13 a8 29 3e ba 38 a8 3c
       0.03869762 -0.10602168 0.16568021 0.020534862
000320 51 0b cb 3d 9e 7d 3a be fd 27 19 be b2 c9 5e bd
       0.09914268 -0.18211982 -0.1495666 -0.05439157
000330 aa 84 c4 bc 44 50 49 bd 47 39 0e 3e 38 4d 94 3c
       -0.02398904 -0.049148813 0.13889037 0.018103227
000340 45 23 1a bd 82 1b 11 3e 46 1e cd bd cd a8 15 be
       -0.037631292 0.1417065 -0.1001554 -0.14615174
000350 ab 98 b4 bd 3d 21 ee 3c 1e df 42 be 11 98 d6 bd
       -0.088181816 0.029068584 -0.19030425 -0.10478223
000360 cd 08 d6 bd 0d 52 80 3c c0 fe a3 bc 42 b8 17 bd
       -0.10450897 0.015664125 -0.020018935 -0.037040956
000370 05 85 ee bd bf 2a cd bd 7a 71 0b be a5 23 1e bc
       -0.11646465 -0.10017919 -0.13617507 -0.009652053
000380 66 a7 dc bb a5 58 a0 3d bf 08 7a 3c ae f1 9b bc
       -0.0067338226 0.078294076 0.015260874 -0.01903614
000390 60 3c 6a bd 1b 2e ec 3c be 02 10 3d 75 23 b3 bd
       -0.057186484 0.028830579 0.035158865 -0.08746997
0003a0 ae 87 1f 3e 23 a4 ed bc 26 ee 91 bd b6 bf 86 bd
       0.15579101 -0.02900893 -0.07125501 -0.06579535
0003b0 a7 f7 ed bc 3b 9b 0c be 45 a4 d6 bc d6 1c 7e bd
       -0.029048754 -0.1373109 -0.026201377 -0.06203922
0003c0 9f b8 3a bd 74 09 71 3d 9d ed 6f bd 81 26 68 bc
       -0.045586225 0.058846906 -0.058576215 -0.014169336
0003d0 b6 f0 9c 3d b7 14 5e 3c df 16 63 3e 9c 4b 29 3d
       0.076630995 0.0135547435 0.22176693 0.041331872
0003e0 22 14 d7 3d d4 40 ae 3c 80 7f 3e bd 64 39 ee bd
       0.10501887 0.021271147 -0.046508312 -0.1163204
0003f0 d2 73 c3 bc 77 71 39 3d c3 25 29 3e 63 a2 2c be
       -0.023858938 0.045274224 0.16518311 -0.1685882

blocks.1.conv.bias f4 [32]
000000 fd 78 83 bb bb 3d 05 b9 ed ad c2 b9 9b 2f d1 ba
       -0.0040122257 -0.00012706865 -0.00037132148 -0.0015959622
000010 ff bb 5f bb ac 49 a0 ba d3 a8 5f ba a3 f2 09 ba
       -0.0034139154 -0.0012228987 -0.00085319317 -0.0005262291
000020 b5 22 d5 3a 31 8e 3b ba 3b 8d 34 ba c2 2f dd bb
       0.0016260954 -0.0007154672 -0.00068875 -0.006750078
000030 ee 9d 3d 3b e4 c1 99 ba f8 aa 67 3b 86 2e 25 bb
       0.0028933245 -0.0011730758 0.0035349708 -0.0025204732
000040 46 c3 e8 38 61 b6 0c 3b ab 46 4f bb 2c 94 1b 3a
       0.000110989946 0.002147101 -0.0031627815 0.000593486
000050 6f bf e4 b9 3f c3 b7 ba 21 85 54 b9 a9 df 90 37
       -0.00043630178 -0.001401998 -0.0002026749 1.7270288e-05
000060 dc 95 d2 ba b2 0a 05 ba 9f c6 3f b9 7b 5b 21 3a
       -0.001606639 -0.0005075141 -0.00018289172 0.0006155294
000070 60 8f 74 b9 4f 73 23 ba f7 8e 13 b8 e7 06 52 b9
       -0.00023323065 -0.0006235139 -3.5180678e-05 -0.00020029732

blocks.1.bn.weight f4 [32]
000000 df bb 52 3f a1 54 6c 3f 19 38 65 3f ab f5 7f 3f
       0.8231792 0.92316633 0.89538723 0.99984235
000010 db ab 83 3f 80 07 57 3f f2 05 57 3f 1e 04 78 3f
       1.0286821 0.8399582 0.83993447 0.9688128
000020 63 9c 89 3f 71 5f 5d 3f 4c 47 6f 3f 30 16 86 3f
       1.075085 0.8647376 0.93468165 1.0475521
000030 dd af 74 3f 69 d0 7d 3f be b7 86 3f 5d c2 7a 3f
       0.95580846 0.99146134 1.0524824 0.97952825
000040 4a 51 82 3f c1 17 4f 3f 36 4f 71 3f 72 2a 71 3f
       1.0181057 0.8089562 0.9426149 0.9420539
000050 55 8c 7a 3f b4 86 53 3f 2d c7 8b 3f ee fb 8e 3f
       0.9787038 0.82627416 1.0920159 1.1170633
000060 1d cf 8c 3f 0c 4b 7f 3f 9d 4c 6b 3f 89 75 61 3f
       1.1000706 0.9972389 0.9191378 0.8806997
000070 01 f1 71 3f de 6b 67 3f 48 62 2e 3f d6 e5 85 3f
       0.9450837 0.9039897 0.68118715 1.0460765

blocks.1.bn.bias f4 [32]
000000 75 32 8d be 91 18 95 be fb ab 31 be 91 3f 15 be
       -0.27577558 -0.29120305 -0.17350762 -0.1457503
000010 b2 0e 76 be 7e 6c c5 bc 02 d0 8c be a3 ba a0 be
       -0.24029043 -0.024099585 -0.27502447 -0.31392393
000020 91 bf ad be 09 cd b1 be 4d 53 55 be 26 66 be be
       -0.33935216 -0.34726742 -0.20832558 -0.37187308
000030 9c d9 b3 be de 27 ae be d3 6e bf be 85 8d 50 be
       -0.3512696 -0.3401479 -0.3738924 -0.20366485
000040 19 43 00 bf d3 63 a1 be 43 73 a3 be f8 69 b4 be
       -0.5010238 -0.31521472 -0.31923875 -0.35237098
000050 96 94 c5 be d7 4f c9 be 73 31 b1 be c0 ad 5e be
       -0.38589925 -0.39318725 -0.3460804 -0.21745968
000060 54 2a f5 be 97 ef 49 be 11 73 20 be 39 c8 4c be
       -0.47883856 -0.19720303 -0.15668894 -0.19998254
000070 1d e6 9e be 3c f9 e6 be a5 22 fc bb 8f 5f 96 be
       -0.31034938 -0.45112026 -0.0076945596 -0.2936978

blocks.1.bn.running_mean f4 [32]
000000 3c f4 0f c0 59 46 3b bf 0d 6f 3b be 28 b0 fc bf
       -2.249282 -0.73154217 -0.18304081 -1.9741259
000010 d3 cb d5 bf b0 0a 9e be 7f 66 e6 3f 99 c0 cd bf
       -1.6702827 -0.3086753 1.8000029 -1.6074401
000020 ce 7b 90 bf 51 ba e9 3d aa cc 43 3f 61 fd b6 be
       -1.1287782 0.1141249 0.7648417 -0.35740188
000030 7e d9 42 39 b4 cd d3 bc c3 80 e9 be a5 e9 d4 bf
       0.00018582304 -0.025854923 -0.4560605 -1.6633803
000040 6d 23 c7 bf ad 01 a1 be 6e 92 27 c0 14 6b 55 bf
       -1.5557686 -0.3144659 -2.6183124 -0.83366513
000050 b1 d9 b3 3e ab bc 81 bf 78 2c 3b be a2 98 98 bf
       0.35127023 -1.0135702 -0.18278682 -1.192158
000060 30 02 ff be dd 87 7c bd 43 28 71 be a9 24 20 be
       -0.49806356 -0.061653007 -0.23550515 -0.15638985
000070 68 7a 60 3f 4c 10 37 3f 32 f5 7c 3f 5c f1 90 be
       0.8768678 0.7150924 0.9881164 -0.28309143

blocks.1.bn.running_var f4 [32]
000000 73 58 fe 3f 10 7a 2d 40 7d 43 0d 40 aa 8b 62 40
       1.9870743 2.710575 2.2072442 3.5397744
000010 67 48 af 40 02 cf 9a 40 c2 13 09 40 ee f1 26 40
       5.477588 4.8377695 2.141831 2.6085162
000020 0d d3 ee 3f ca 9e 25 40 2d 4d 1c 40 7f 9e 15 40
       1.8658158 2.5878167 2.4422104 2.3377988
000030 3a bf 02 40 a1 7a 1b 40 b9 72 82 40 2e f6 64 40
       2.0429215 2.4293597 4.076504 3.5775256
000040 2f 40 04 40 85 d7 de 3f ce 0c 10 40 e5 1c 26 40
       2.0664175 1.7409521 2.2507815 2.5955136
000050 7b d0 16 40 a9 3f 03 40 23 09 19 40 67 7f 1c 40
       2.3564746 2.0507605 2.3911827 2.445276
000060 1b 7d 09 40 ff 35 19 40 88 8f c0 3f ea cc 3b 40
       2.1482608 2.3939207 1.5043802 2.934382
000070 4e e3 af 40 ac d1 2f 40 67 51 a8 40 cd 79 fd 3f
       5.496497 2.7471724 5.259937 1.9802796

blocks.2.conv.weight f4 [32, 32, 3, 3]
000000 98 00 93 3d d4 08 b6 bd 70 86 0a be 39 41 a4 bd
       0.071778476 -0.088884026 -0.13527846 -0.08020253
000010 2d 6e 9b bd c2 1b b1 bd fb 6e 8f bd 4b e1 48 be
       -0.07589374 -0.086478725 -0.0700359 -0.19617192
000020 ff 7b 39 bd e8 08 a7 bd 64 9a fb bc 01 32 97 bd
       -0.045284268 -0.081559956 -0.030713268 -0.07382584
000030 1b d7 a3 bd f6 a2 48 bd 65 4a 14 bd b0 90 b2 3d
       -0.080000125 -0.048983537 -0.03620376 0.08719003
000040 57 e2 78 bd 13 27 f6 bd eb 91 c0 bd 83 ad 8d 3d
       -0.06076273 -0.120191716 -0.09402832 0.0691786
000050 df 69 a3 3d ec be 3b be 18 83 e6 bd 5e 41 ff bc
       0.07979178 -0.1833455 -0.11255473 -0.0311591
000060 af 9b 5a 3a d3 de a8 bc f0 1c 18 3d d8 d9 f2 3d
       0.00083392387 -0.020614063 0.037136972 0.11857957
000070 26 48 06 bd 60 7e 21 3d e4 ad 90 bd 03 96 e4 3b
       -0.03278365 0.03942716 -0.07064417 0.0069758906
000080 32 7c 05 3e c8 f4 25 3d 95 e1 b8 3d d4 f7 fd 3d
       0.13035658 0.040516645 0.09027401 0.12400785
000090 4a ca 42 3c 5e 8f fd bd 5c 26 45 3e f5 f2 32 bc
       0.01188905 -0.12380861 0.19252914 -0.010922183
0000a0 73 55 4c 3e 60 2d a9 3d 78 c7 2e 3e f6 c8 03 bd
       0.19954471 0.08260608 0.17068279 -0.032174073
0000b0 d3 13 88 3d 2d cb c0 bd 98 f6 6d 3d 05 68 6e 3e
       0.06644406 -0.09413753 0.0580965 0.23281868
0000c0 96 4a 10 3e 50 c4 b6 3d b9 fd b4 3d d4 c4 80 bd
       0.14090952 0.089241624 0.08837456 -0.06287542
0000d0 ac 2d 1b be 36 63 67 3d f6 ff 98 bd ec 16 9b 3d
       -0.15154141 0.0564911 -0.07470696 0.075727314
0000e0 4e 0b 8b 3d 03 10 d2 3c 75 f4 60 3d c7 0b 30 bd
       0.067892656 0.0256424 0.054920632 -0.04297998
0000f0 8d 66 fc ba 6d 6f dd bd 3f aa ad be 5b d9 ad bc
       -0.0019256637 -0.108122684 -0.3391895 -0.021221807
000100 8a 70 ea bc 95 c9 13 3d 75 72 9c bd 8e 3f 8d bc
       -0.028618116 0.036080915 -0.076390184 -0.01724222
000110 01 b7 e6 bd 5f a6 7b 3c 3e ef 43 3d 47 a9 96 3d
       -0.11265374 0.01535949 0.04783558 0.07356506
000120 13 65 05 3d 19 7f 86 bd 12 8b 54 3e e9 f5 3b 3e
       0.032567095 -0.06567211 0.20756176 0.18355526
000130 34 d5 61 3b 44 a7 36 3d fc 76 e9 3d 43 0c 0d be
       0.0034459354 0.04459311 0.113996476 -0.13774209
000140 7b 87 ff 3c 54 c0 67 3c 03 6f 7d 3c 4d d9 37 be
       0.031192532 0.014144976 0.015468362 -0.17953987
000150 c8 74 26 bc b8 8f 5c bd a6 87 ab bd cd 1f a0 3c
       -0.010159679 -0.053848 -0.08375482 0.019546414
000160 09 60 30 bd 1c 43 9e bd f7 10 02 be b0 0c 77 be
       -0.043060336 -0.07727644 -0.12701784 -0.24125934
000170 a6 74 00 be e9 d9 db bd 6d e9 84 bd 02 1c 64 bd
       -0.12544498 -0.107349224 -0.06489835 -0.055690773
000180 67 1f fc bc 33 5c 69 3b 68 d7 e9 bd 3d 42 20 3e
       -0.030776693 0.0035607934 -0.114180386 0.15650268
000190 9b 1b bb 3d a0 b3 41 3d 1f 44 a2 3d 22 3e 16 3e
       0.09136125 0.047290444 0.07923149 0.1467214
0001a0 a8 ed 80 bd a6 de 46 3c df 83 cc bd 30 05 f4 3d
       -0.06295329 0.012138044 -0.0998609 0.11915052
0001b0 16 39 97 3d a7 ce d7 3d a5 3e 4a 3e ad 16 4e 3e
       0.07383935 0.10537463 0.1975046 0.20125838
0001c0 24 ae 8a 3d a4 ac 41 3e c0 71 3e bc 88 48 c7 3d
       0.06771496 0.18913513 -0.0116238 0.09730631
0001d0 4b 5d b0 3d 9d 4e 04 be a7 bb 54 be 6e 10 85 be
       0.08611544 -0.12920614 -0.20774709 -0.25989097
0001e0 36 e6 1c be 4d 39 58 bd 71 ce 07 3e 5e 95 e6 bd
       -0.15322194 -0.05278902 0.13262345 -0.11258958
0001f0 63 de ad bc e5 2e 56 bd 9a 04 a8 bd 86 44 01 be
       -0.021224206 -0.052290816 -0.08204003 -0.12623796
000200 ab 30 ab be 25 4d 1f be a9 71 ff bd 99 f0 b5 3d
       -0.33435568 -0.15556772 -0.12472851 0.08883781
000210 11 49 36 be 52 98 7b 3e 1e 2c e2 bc 15 dc 1e be
       -0.1780131 0.24569824 -0.027608927 -0.15513642
000220 a2 85 44 3c 91 84 2f be d9 86 a2 bd 38 0b a8 bd
       0.011994751 -0.17140414 -0.079358764 -0.08205265
000230 6f ff d8 bd 3c 09 66 3e ae a5 b3 bd 63 e9 65 3d
       -0.10595595 0.2246446 -0.08771835 0.056130778
000240 dd ac 97 bd a8 50 b9 bd 9a bb 29 3d 5f 26 9e bd
       -0.07406018 -0.09048587 0.041438676 -0.077221625
000250 35 bf bf bc f0 fb 63 3d 0b 53 00 3e 78 3c b8 bd
       -0.023406604 0.05566019 0.12531678 -0.089959085
000260 51 8c 9d 3d 01 28 e8 bb 80 dc ba bc 3c c6 13 bd
       0.07692779 -0.007084847 -0.02281022 -0.036077723
000270 00 a5 ed 3c 73 bb 0c 3d 50 9f 08 3e e5 f7 00 be
       0.029009342 0.034358453 0.13342023 -0.12594564
000280 5f dc 20 be ee 9a 7c 3d 13 75 e2 bd d2 14 b9 3b
       -0.15709065 0.06167119 -0.110574864 0.005648234
000290 05 90 6b 3d 6b f9 8a 3d e2 d5 c5 3d 4a 0c ff 3c
       0.057510395 0.06785854 0.096599355 0.03113379
0002a0 ec 41 12 3e fb 5e 8a 3d 97 d2 a2 bd 73 8d d7 bb
       0.1428296 0.06756397 -0.07950323 -0.0065781414
0002b0 e6 cf 93 3c 2c 92 58 3c 68 65 07 bc df 16 80 bd
       0.01804347 0.013218444 -0.008263923 -0.06254362
0002c0 db 6b 83 3d 27 2f cb bd 40 4a 05 3e de 94 79 bd
       0.06417056 -0.09921103 0.13016605 -0.060932986
0002d0 19 86 12 be 71 ac bb bb 59 ad eb 3d 9b 73 3e 3d
       -0.14308967 -0.0057273437 0.11507673 0.04649697
0002e0 cb c6 a1 3d 09 ee 9e 3d 69 45 ac 3c 0d ff d5 3d
       0.07899245 0.07760245 0.021029191 0.10449038
0002f0 c1 04 8b bd eb c6 47 3d 99 17 82 bd 4e 8c ae 3b
       -0.06788016 0.048773687 -0.06352157 0.005326784
000300 7c 4f f2 3d 11 4a 78 3d 5a 32 04 bd 83 7d a2 3c
       0.11831567 0.06061751 -0.03227458 0.01983524
000310 07 b1 08 3e 77 e3 8d 3d ad 2d f6 3c 8a f0 62 bd
       0.1334878 0.06928151 0.030051077 -0.055405177
000320 f8 f5 9c bd f4 55 24 be 66 3d 09 bd 61 dc 99 3c
       -0.07664102 -0.16048414 -0.03350582 0.018781843
000330 bf f5 23 be 5f ee ec bd 31 60 f8 bd 4a 93 32 be
       -0.16011713 -0.11568903 -0.12127722 -0.17438999
000340 9e d3 24 bd 18 35 6f bd a8 55 87 bd 70 31 35 3a
       -0.040240876 -0.058400244 -0.066081345 0.0006911969
000350 15 0a ee bd 08 fa 86 bd 5d bd 38 bd 3e ff f0 bc
       -0.11623017 -0.065906584 -0.045102466 -0.029418584
000360 50 4c c1 3c ae b2 7f 3d 1b da 47 be 0f ff 22 bd
       0.023595959 0.06242626 -0.19516794 -0.039794024
000370 06 8b 1b 3e 14 e5 03 3e 0b 28 cf bc 67 de ac bd
       0.15189752 0.12880355 -0.025287649 -0.084408574
000380 f7 54 be bc 3d 81 9a bd a8 a9 99 3d b3 f3 c9 bd
       -0.023233874 -0.075441815 0.075030625 -0.09860935
000390 e9 7c d1 bc 36 e8 5a 3d 2f b7 6c 3d 10 42 21 bd
       -0.025572257 0.05344411 0.057791885 -0.039369643
0003a0 93 2a ed 3c 16 62 60 bd 5c d3 c2 bd 09 25 27 bd
       0.028950965 -0.054781042 -0.0951297 -0.040806804
0003b0 ca bf eb bd 33 d9 59 bd 50 e9 75 3c 2f 05 22 3c
       -0.1151119 -0.053185653 0.015009239 0.009888931
0003c0 5a 37 c5 3d b9 3a 2d 3d dd c8 83 3c bd 94 fa bd
       0.09629698 0.04229233 0.01608699 -0.12235401
0003d0 cb 0e 52 bd 75 d5 9c bd 00 67 18 bd 52 6a 2b be
       -0.05128364 -0.07657901 -0.037207603 -0.16739777
0003e0 28 d6 9f 3d 47 5c 33 be c5 3d 41 3d 72 bc a8 bd
       0.07804519 -0.1751567 0.04717805 -0.08239068
0003f0 c5 fb 78 3d 3c 8b 3b 3d c8 7d 46 3d f3 9f 0d 3d
       0.06078698 0.04578708 0.048459798 0.034576368

blocks.2.conv.bias f4 [32]
000000 30 c8 9e ba 1a c1 56 ba 28 8d 84 39 cf 6d 91 3a
       -0.0012114104 -0.00081922265 0.00025282172 0.0011095348
000010 7d 85 31 3b ed 03 d3 ba 92 28 49 bb 61 f3 e8 ba
       0.0027087622 -0.0016099192 -0.0030694348 -0.0017772728
000020 39 18 e9 3a 78 7a d8 ba e3 9c 8c bb f0 a4 93 b8
       0.0017783708 -0.0016515991 -0.0042911633 -7.040228e-05
000030 41 79 67 ba ad 42 b7 ba 13 5a 3e 3b 42 99 53 ba
       -0.0008830019 -0.0013981663 0.0029045388 -0.00080718484
000040 ba b1 d4 3a 64 f4 e9 38 96 04 27 3a ed bd 0c bb
       0.0016227283 0.00011155827 0.0006371228 -0.002147551
000050 de 66 73 b7 a7 5b 75 3b 5a ba 4c b9 98 0f 10 bb
       -1.4507879e-05 0.0037438662 -0.00019524377 -0.002198195
000060 89 ba 5d bb 4a 9e 81 bb 01 bf ad ba 97 6b ac 39
       -0.0033833107 -0.003955637 -0.0013255776 0.00032886557
000070 2e 5c 85 3a dc c7 70 bb 11 a2 2f 39 ce 58 b4 b9
       0.0010174566 -0.003674022 0.00016749675 -0.0003439844

blocks.2.bn.weight f4 [32]
000000 34 50 86 3f 73 2c 65 3f 34 03 79 3f c7 8c 52 3f
       1.0493226 0.8952095 0.9727051 0.8224606
000010 a7 7d 5e 3f 5a 92 4a 3f cb cf 80 3f ce 1a 80 3f
       0.8691048 0.79129565 1.0063413 1.000818
000020 86 16 5a 3f 5e 3b 93 3f 5a d0 5e 3f 2c ed 73 3f
       0.8519062 1.1502492 0.8703667 0.9528377
000030 c8 f9 71 3f 5c c3 77 3f 0b 73 69 3f 67 57 77 3f
       0.9452176 0.9678247 0.91191167 0.9661774
000040 69 f3 7b 3f 7f 49 7f 3f 7e 67 53 3f 52 5e 75 3f
       0.9841829 0.9972152 0.8257979 0.95847046
000050 de 3b 72 3f fa cc 5a 3f f8 af 59 3f b7 5b 88 3f
       0.946226 0.8546902 0.8503413 1.0652989
000060 f8 3f 7f 3f d1 d6 81 3f cf 40 83 3f 02 49 53 3f
       0.99706984 1.0143682 1.0254153 0.82533276
000070 ac 90 6a 3f 0d 27 84 3f a1 b1 28 3f 22 8b 70 3f
       0.91627 1.0324417 0.6589604 0.939623

blocks.2.bn.bias f4 [32]
000000 b2 03 59 be 96 39 c8 be 75 37 31 3c f7 d5 c5 bd
       -0.21192816 -0.39106435 0.010816445 -0.09659951
000010 4c f8 c6 be f8 e9 57 be 97 af 2c be 39 99 e4 be
       -0.3886131 -0.21085346 -0.16863857 -0.4464815
000020 0c 64 d2 be ee 53 4a be 91 9e 82 be 76 47 61 be
       -0.41091955 -0.19758579 -0.25511602 -0.21999916
000030 f8 60 b7 be b2 6d 96 be d8 5c c0 be 3c 92 9d be
       -0.3581617 -0.29380566 -0.37570834 -0.3077563
000040 1e a1 97 be 01 72 db be ba 7f 87 be 84 e0 7b be
       -0.2961511 -0.42860416 -0.26464635 -0.24597365
000050 1e 82 bd be 6c 69 13 bf 58 ee ac be 74 18 5e be
       -0.37013334 -0.57582736 -0.33775592 -0.21689016
000060 19 92 ca be c9 a5 a9 be 55 f3 ce be 50 33 3e be
       -0.3956459 -0.33134297 -0.40420023 -0.18574262
000070 93 73 51 be be d7 aa be c5 f2 0d 3e a2 1a d0 be
       -0.20454244 -0.33367723 0.1386214 -0.4064532

blocks.2.bn.running_mean f4 [32]
000000 55 28 f0 bf ec 47 ce bf e4 f9 88 bf ca d1 80 3f
       -1.8762308 -1.6115699 -1.070126 1.0064023
000010 27 68 11 c0 76 b1 03 40 83 e0 22 be 1a 97 d3 bf
       -2.271982 2.0577064 -0.15905957 -1.6530488
000020 5d ef 67 bf 40 86 16 bf 3d e9 db bd 5a 5e 3e bf
       -0.90599614 -0.587986 -0.10737846 -0.7436272
000030 67 f6 fb be e3 2a e0 bf 6c 93 91 bf 9a a5 be be
       -0.49211428 -1.7513088 -1.1373115 -0.3723572
000040 d5 19 70 bf 4c f7 08 bf 9b 12 94 bd 06 6e e9 be
       -0.93789417 -0.53502345 -0.07230111 -0.45591754
000050 05 0d c5 3f 26 41 0d c0 47 41 a0 be 07 fb 21 c0
       1.5394598 -2.2071013 -0.31299803 -2.5309465
000060 9f bc ea bf 98 35 5d be 93 f5 d8 bf c9 d0 e7 3f
       -1.8338813 -0.21602476 -1.6949943 1.8110591
000070 52 2c 27 3f 7b e5 fe bf cf cd 80 3f 1e 3c d1 bf
       0.65302 -1.9913782 1.0062808 -1.6346471

blocks.2.bn.running_var f4 [32]
000000 72 e5 08 41 cf c1 9a 40 02 cc 84 40 08 ba 59 40
       8.556017 4.8361583 4.1499033 3.4019794
000010 f1 1c 5b 40 f6 9d 5e 40 6f f3 9a 40 c8 af 52 40
       3.4236414 3.4783912 4.842216 3.2919788
000020 75 14 4d 40 54 72 2d 40 3c de 5b 40 9b 2a 7d 40
       3.2043736 2.710103 3.435439 3.9557254
000030 4e 28 28 40 5e 02 09 41 a5 47 e3 40 8a 57 2b 40
       2.62746 8.563078 7.1024957 2.677218
000040 02 62 88 40 8e 04 49 40 4a dd 55 40 8b a5 91 40
       4.261964 3.140903 3.3416314 4.551458
000050 3b c2 26 40 05 7b 36 40 60 24 40 40 03 79 a0 40
       2.605605 2.8512585 3.0022202 5.014772
000060 68 2a 12 40 0e 1d 45 40 d1 70 84 40 03 37 f8 40
       2.2838383 3.0798984 4.1387715 7.7567153
000070 b0 40 9d 40 c6 d5 04 41 c1 e0 f2 40 a5 6b 64 40
       4.9141464 8.302191 7.589936 3.56907
