models/137.pth (torch, 501905 bytes, 80 tensors)

conv0.conv.weight f4 [32, 17, 3, 3]
0	0xbe4994db	-0.1968569
1	0x3e702aeb	0.23453872
2	0xbcb438ea	-0.021999795
3	0x3e4ed17c	0.201971
4	0xbe1cbfc1	-0.15307523
5	0x3e965091	0.29358342
6	0xbca84d24	-0.020544596
7	0x3e2db33d	0.16962905
8	0xbc4c6c59	-0.012477004
9	0x3e107fe3	0.14111285
10	0x3cf356ec	0.029704534
11	0x3df918d9	0.121629424
12	0x3d64a6c2	0.055823095
13	0xbe07a393	-0.13245992
14	0x3da5224d	0.08063183
15	0x3de7dedc	0.11321804
16	0x38920fa3	6.964735e-05
17	0x3d1cd41f	0.038288232
18	0x3d1f5062	0.03889502
19	0xbd4eea6b	-0.050516527
20	0xbd60a6b6	-0.054846488
21	0xbda26024	-0.079284936
22	0xbc37c8fc	-0.011217352
23	0x3dccc6ae	0.09998833
24	0x3ce7f59d	0.02831536
25	0xbd848ae3	-0.06471803
26	0x3cbfb99f	0.02340394
27	0xbdc782c0	-0.097417355
28	0x3dea6be9	0.114463635
29	0xbde99e15	-0.11407105
30	0x3d63150c	0.055439994
31	0xbca9f128	-0.020744875
32	0x3d55a74b	0.052161496
33	0x3d377b9f	0.04479563
34	0xbe22cec3	-0.15899186
35	0xbb2eea77	-0.0026690045
36	0x3db01058	0.08596867
37	0x3e23c93d	0.15994735
38	0x3e01981e	0.12655684
39	0x3e28aa0a	0.16471115
40	0xbebd241a	-0.36941606
41	0x3e844697	0.25835106
42	0x3e37ba3c	0.17942137
43	0x3e8b2011	0.27172902
44	0x3e48eb42	0.19620994
45	0x3cdb4ace	0.026769068
46	0x3dcbd024	0.09951809
47	0x3e3b3b9c	0.18284458
48	0x3e76641d	0.24061628
49	0xbda2e4a3	-0.07953765
50	0x3e008e05	0.12554176
51	0x3e8dac68	0.27670598
52	0x3db71a79	0.08940596
53	0x3da46140	0.080263615
54	0x3d3c8dd8	0.04603371
55	0x3e3b7e87	0.18309985
56	0x3dc6cf25	0.097074784
57	0x3e558972	0.20853212
58	0xbddaef2a	-0.10690148
59	0x3e23d495	0.15999062
60	0x3e217a0e	0.15769216
61	0x3e0bc779	0.13650312
62	0x3ce41166	0.027840327
63	0xbcbd8aeb	-0.02313753
64	0x3e402cb4	0.18767053
65	0x3e08e2c1	0.1336775
66	0x3e0f403e	0.1398935
67	0xbd0df316	-0.034655653
68	0x3e6dca30	0.2322166
69	0x3e5c1140	0.21490955
70	0x3e2554c4	0.16145617
71	0x3e122de8	0.14275324
72	0x3cabb52c	0.020960413
73	0x3d8e9c5f	0.06963419
74	0x3cdb794d	0.02679124
75	0x3d424022	0.047424443
76	0x3e96f244	0.2948171
77	0x3db02f07	0.0860272
78	0xbc4c0307	-0.012451894
79	0x3de072d5	0.109594025
80	0x3c2166d0	0.009851173
81	0xbc967f04	-0.018371113
82	0x3d879a57	0.06621235
83	0xbd6a4b9a	-0.057201006
84	0x3d58ff62	0.052977927
85	0x3ee64de4	0.449813
86	0x3bce1845	0.0062895142
87	0xbbeb86f0	-0.0071877167
88	0x3dc037ac	0.093856186
89	0x3b0efcd5	0.002181818
90	0x3c5bf5a9	0.013425269
91	0x3da5c8bc	0.08094928
92	0x3ccb0569	0.024782853
93	0x3d9bcc4a	0.076073244
94	0x3ebd71cf	0.37000892
95	0x3cd0aa0b	0.025471708
96	0xbd884782	-0.06654264
97	0x3d900a11	0.0703317
98	0xbca6ac4a	-0.020345826
99	0xbd0b9da4	-0.034085885
100	0x3df08500	0.11744118
101	0x3cc8197f	0.02442622
102	0x3d95306e	0.07284628
103	0x3e9b411c	0.30323112
104	0x3cab887a	0.0209391
105	0xbd6696d1	-0.056296173
106	0x3de6bcd9	0.112664886
107	0x3d2a3ad8	0.041560024
108	0xbab181f0	-0.0013542753
109	0xbd9b3510	-0.0757848
110	0x3dc7ad45	0.097498454
111	0xbe21896f	-0.15775083
112	0xbe1e01f6	-0.15430436
113	0xbe63b689	-0.222376
114	0x3d58e3a2	0.052951463
115	0xbc416d2b	-0.011805813
116	0x3dbafd4b	0.09130343
117	0xbddb7fd0	-0.10717738
118	0x3c973087	0.018455757
119	0x3da780cc	0.08178863
120	0x3dd8840a	0.105720595
121	0x3e1f8e99	0.1558174
122	0xbd9be5a8	-0.07612163
123	0xbc4678da	-0.012113774
124	0x3dabe64f	0.08393537
125	0x3d871a35	0.065967955
126	0xbc172e88	-0.0092274025
127	0x3d60c5b0	0.05487603
128	0x3d5054b5	0.050862033
129	0x3c3a0d18	0.011355661
130	0x3e1c33f8	0.152542
131	0xbdbdc699	-0.09266395
132	0xbd922466	-0.07135849
133	0xbd04fd3a	-0.03246806
134	0xbd827fb9	-0.063720174
135	0x3a4a61f1	0.0007720283
136	0x3cd619eb	0.026135406
137	0x3e213d25	0.15745981
138	0x3d89436a	0.06702311
139	0x3c79243d	0.015206394
140	0xbd1c6602	-0.03818322
141	0xbd8424b1	-0.06452311
142	0xbdaf628a	-0.08563717
143	0x3bdea399	0.0067944047
144	0xbcdd69de	-0.02702802
145	0x3c0f7456	0.008755764
146	0xbbe0a010	-0.0068550184
147	0x3d8b2e6d	0.067959644
148	0xbb5841b7	-0.0032998153
149	0x3dc641f9	0.09680552
150	0x3ce2b878	0.027675852
151	0x3da58887	0.08082681
152	0xbcac29b2	-0.021015976
153	0x3d81764c	0.063213915
154	0x3d9bfe50	0.07616866
155	0x3d16880d	0.036750842
156	0xbdf3a2cc	-0.118962854
157	0xbeb5b1ea	-0.354873
158	0x3e404551	0.18776442
159	0x3c93f339	0.018060314
160	0xbdaee0a4	-0.085389405
161	0xbdda7749	-0.10667283
162	0xbdc73567	-0.097269826
163	0x3e12c308	0.14332211
164	0xbde5e8f2	-0.112260714
165	0xbda9223a	-0.08258481
166	0x3ca80434	0.020509817
167	0xbeba16a2	-0.36345392
168	0x3e0c5f52	0.13708237
169	0xbdae866d	-0.085217334
170	0xbe645fab	-0.2230212
171	0xbd61344d	-0.05498152
172	0x3e1b7823	0.15182547
173	0xbe72f3f8	-0.23725879
174	0xbd356f67	-0.044295695
175	0x3df12c37	0.117760114
176	0xbe35f2d6	-0.17768416
177	0x3cd93ecf	0.026519207
178	0xbea27f5a	-0.31737787
179	0xbdebada8	-0.11507732
180	0xbe29e33b	-0.16590588
181	0x3e32d794	0.17465049
182	0x3a62c8f1	0.00086511584
183	0x3d85476e	0.06507765
184	0x3dddaf4f	0.10824453
185	0xbef7f994	-0.484326
186	0x3d69d273	0.057085466
187	0xbe330acc	-0.17484587
188	0xbcd5bf81	-0.026092293
189	0xbe10504a	-0.14093128
190	0xbdcabc1f	-0.098991625
191	0xbddba389	-0.10724551
192	0x3cbb6017	0.022872968
193	0xbe976245	-0.2956716
194	0xbe7ca220	-0.24671221
195	0x3cad599f	0.021160899
196	0xbd803740	-0.06260538
197	0xbe51ee85	-0.20501144
198	0xbe0dc0b3	-0.1384304
199	0xbe33cc6f	-0.17558454
200	0xbe5d79de	-0.2162852
201	0xbdc843db	-0.097785674
202	0xbe13524f	-0.14386867
203	0xbe605df2	-0.21910837
204	0xbea4a305	-0.32155624
205	0xbdec2738	-0.11530918
206	0xbea896e6	-0.32927626
207	0xbe41828c	-0.18897456
208	0xbe8655d4	-0.26237357
209	0xbe9137b7	-0.2836282
210	0xbdf7b17f	-0.120944016
211	0xbe2349cb	-0.15946119
212	0xbda6721e	-0.08127235
213	0xbdb112b1	-0.08646143
214	0xbeae6aeb	-0.34065947
215	0xbf15b54c	-0.5847976
216	0xbdc41f09	-0.09576232
217	0xbe51d10f	-0.20489906
218	0xbe93dd26	-0.2887966
219	0xbe3c8bc4	-0.18412691
220	0xbe82cc89	-0.25546673
221	0xbe770e38	-0.24126518
222	0xbd86e65e	-0.06586908
223	0xbdfeb1e4	-0.12436274
224	0xbe9242e9	-0.28566673
225	0xbdaf4498	-0.08558005
226	0x3d3da1d5	0.046296913
227	0x3df0760c	0.11741266
228	0x3d7dc001	0.061950687
229	0xbec73696	-0.38908833
230	0x3dcbaddd	0.09945271
231	0xbd8765aa	-0.06611188
232	0xbd66e702	-0.05637265
233	0x3e013818	0.12619054
234	0xbd4f1659	-0.05055842
235	0x3db16284	0.086613685
236	0x3e070bba	0.13188067
237	0x3c973e68	0.018462375
238	0x3d7c5449	0.061603818
239	0x3e21209e	0.15735099
240	0xbc22d6d3	-0.009938913
241	0x3dced29a	0.10098763
242	0x3d208f6b	0.039199274
243	0x3cdc2413	0.02687267
244	0x3dba41a3	0.090945505
245	0x3c5a680a	0.013330469
246	0x3e059577	0.13045298
247	0x3ca43ce9	0.020048575
248	0x3d81c496	0.06336324
249	0x3d8ecb73	0.069723986
250	0x3de73901	0.112901695
251	0x3e075506	0.13216028
252	0x3c823e87	0.015898956
253	0x3dda56d5	0.10661093
254	0x3e314774	0.17312413
255	0x3aa738b0	0.0012757983

conv0.conv.bias f4 [32]
0	0xba0c28de	-0.0005346666
1	0x3b9a6eab	0.0047128997
2	0x39016036	0.0001233824
3	0x3b6c1772	0.0036024717
4	0x3ac49d9e	0.0015000587
5	0xba059b8b	-0.0005096725
6	0xbbe9b78b	-0.0071324757
7	0x3aaa9022	0.0013012926
8	0xbcbdbec3	-0.023162251
9	0xbc488f63	-0.012241217
10	0xba7ef6df	-0.0009726118
11	0xbcd87250	-0.026421696
12	0x3bce65ae	0.0062987423
13	0xbb25820a	-0.0025254511
14	0x3a53efd4	0.00080847484
15	0xbbad7453	-0.005293408
16	0x3afe7bea	0.0019415591
17	0x3d540e7b	0.051771622
18	0x3be0ba93	0.006858179
19	0xba9ac27f	-0.0011807232
20	0x3a840ae4	0.0010074046
21	0xbb52b34a	-0.0032150322
22	0x3c964874	0.018345095
23	0x3b225140	0.0024767667
24	0x3ac660a8	0.0015135007
25	0xbcafc048	-0.021453992
26	0xb7879e39	-1.6166932e-05
27	0x3b636ec0	0.0034703463
28	0xba3982ce	-0.00070766814
29	0xbad71451	-0.0016409253
30	0x3b049915	0.0020232846
31	0x3a63b10c	0.0008685745

conv0.bn.weight f4 [32]
0	0x3f59a746	0.85020864
1	0x3f4c8382	0.79888165
2	0x3f3d025d	0.7383173
3	0x3f643b60	0.891531
4	0x3f3697fd	0.71325666
5	0x3f4805db	0.78133935
6	0x3f4842fc	0.7822721
7	0x3f541db8	0.8285785
8	0x3f6b2b52	0.91862977
9	0x3f5162b5	0.8179124
10	0x3f425bb3	0.7592117
11	0x3f3235b7	0.6961321
12	0x3f497c5f	0.787054
13	0x3f69a92e	0.9127377
14	0x3f4a1f37	0.7895388
15	0x3f799ff0	0.9750967
16	0x3f4d5065	0.802008
17	0x3fa19df9	1.2626334
18	0x3f4e2abf	0.80533975
19	0x3f44e8b1	0.7691756
20	0x3f442849	0.7662397
21	0x3f72df67	0.94872135
22	0x3f50b94d	0.81532747
23	0x3f3fb1b9	0.7488056
24	0x3f6fde36	0.9369844
25	0x3f4b9b04	0.7953341
26	0x3f6e8461	0.93170744
27	0x3f576baf	0.8414869
28	0x3f74ed4c	0.95674586
29	0x3f4e07e1	0.8048077
30	0x3f4c874d	0.7989395
31	0x3f3e5f63	0.743643

conv0.bn.bias f4 [32]
0	0xbf08f209	-0.53494316
1	0xbe02db39	-0.1277894
2	0xbdfa116c	-0.12210354
3	0xbebc9964	-0.36835778
4	0xbe723719	-0.2365383
5	0xbd9619e8	-0.0732916
6	0xbd6979c9	-0.05700091
7	0xbeba1d9a	-0.3635071
8	0xbe24e70d	-0.16103764
9	0xbe988b8e	-0.29793972
10	0xbdcbc352	-0.09949364
11	0x3d915985	0.070971526
12	0xbe5cc35b	-0.21558897
13	0xbea2f9b6	-0.3183114
14	0xbe8591c6	-0.2608778
15	0xbe287b6c	-0.16453332
16	0xbe02322a	-0.12714449
17	0xbd4452cb	-0.04793052
18	0xbe15cfd5	-0.14630063
19	0xbe97f31f	-0.29677674
20	0xbe08575b	-0.13314573
21	0x3c294a4e	0.010332657
22	0xbe3670a7	-0.17816411
23	0xbe76d958	-0.24106348
24	0xbdc08810	-0.09400952
25	0xbe419b5e	-0.18906924
26	0xbe85bd5b	-0.2612103
27	0xbc72876c	-0.014802795
28	0xbe484f45	-0.19561489
29	0x3e556b7c	0.20841783
30	0xbe1abc0f	-0.15110801
31	0xbd156f7d	-0.036483277

conv0.bn.running_mean f4 [32]
0	0x3e79377e	0.24337575
1	0x3d5d580d	0.05403905
2	0xbd1a4528	-0.03766361
3	0xbd8ed125	-0.06973485
4	0xbc02a4ed	-0.007973892
5	0xbc6a2e83	-0.014293316
6	0xbe6f3798	-0.23361051
7	0x3e651004	0.2236939
8	0xbe074fe5	-0.13214071
9	0xbe0b1008	-0.13580334
10	0xbb7fcd0b	-0.0039032127
11	0xbd397960	-0.045281768
12	0xbd591d37	-0.053006377
13	0xbceefaaf	-0.02917227
14	0x3d9b88a4	0.075944215
15	0x3e375de7	0.17906915
16	0x3debd1bf	0.11514615
17	0xbd8e76dc	-0.069562644
18	0xbdf7cb5c	-0.120993346
19	0xbd6bce99	-0.057570074
20	0xbb0c4d82	-0.0021408503
21	0xbd0846d3	-0.03327067
22	0xbcc39108	-0.023872867
23	0x3db68fff	0.08914184
24	0xbd7650fb	-0.060135823
25	0xbde09584	-0.10966018
26	0xbc1d49bf	-0.009600102
27	0xbd3866f1	-0.045020048
28	0x3e457f73	0.192869
29	0x3d9562c4	0.07294229
30	0xbde1f6b1	-0.11033381
31	0x3dc15862	0.09440686

conv0.bn.running_var f4 [32]
0	0x3d911481	0.07083989
1	0x3d862585	0.06550125
2	0x3d9b46d8	0.07581872
3	0x3d64a1d7	0.055818405
4	0x3d657203	0.056016933
5	0x3d723e4c	0.059141442
6	0x3e07cfe2	0.13262895
7	0x3d608e93	0.05482347
8	0x3da95fc4	0.08270219
9	0x3db34130	0.08752668
10	0x3d425f87	0.047454383
11	0x3dadbbc2	0.084830776
12	0x3d8a3017	0.06747454
13	0x3d2b10ee	0.041764192
14	0x3d7c8b17	0.061656084
15	0x3d656d74	0.056012586
16	0x3d48fa8b	0.04906706
17	0x3da01d3b	0.07818075
18	0x3d99d96f	0.07512175
19	0x3d50e167	0.05099621
20	0x3dc4debe	0.09612797
21	0x3d79d24c	0.06099157
22	0x3d43351c	0.04765807
23	0x3d51e4ce	0.051243596
24	0x3d58aa92	0.052897044
25	0x3d87b773	0.06626787
26	0x3d41b9d6	0.047296368
27	0x3d56ba03	0.05242349
28	0x3d8d6327	0.069036774
29	0x3d646015	0.055755693
30	0x3d81d952	0.06340279
31	0x3d833982	0.06407453

blocks.0.conv.weight f4 [32, 32, 3, 3]
0	0x3e3eb3c0	0.18623257
1	0xbe11ae6f	-0.14226697
2	0x3d99a7b3	0.07502689
3	0xbe45a069	-0.19299473
4	0x3da6428f	0.08118164
5	0xbe265c5e	-0.16246173
6	0x3e186558	0.1488241
7	0xbe28c999	-0.16483153
8	0x3de86e55	0.11349169
9	0x3cc36888	0.023853555
10	0x3d330c33	0.043712806
11	0xbd894a14	-0.067035824
12	0xbd7f4571	-0.062322084
13	0xbdb0e762	-0.08637883
14	0xbd225aad	-0.039637256
15	0x3dcee30e	0.10101901
16	0xba21e818	-0.0006176247
17	0xbd89ac23	-0.067222856
18	0x3e18de4f	0.14928554
19	0xbcf4df59	-0.029891657
20	0xbd3cb949	-0.04607514
21	0xbca2ba7b	-0.019864311
22	0xbe12c4e1	-0.14332916
23	0x3c764f26	0.015033519
24	0xbc70b5c7	-0.014691777
25	0xbc8cdd9f	-0.01719552
26	0xbc96b3ef	-0.018396346
27	0x3d54708a	0.051865138
28	0x3d9ef31e	0.07761215
29	0x3da0ded6	0.078550026
30	0xbd1ece53	-0.038770985
31	0xbda890bd	-0.08230732
32	0x3d68379e	0.056693666
33	0xbd0ba646	-0.034094118
34	0xbd033247	-0.03203037
35	0x3c99aa97	0.018758101
36	0x3b6c6c78	0.0036075395
37	0x3e3bcd6c	0.18340081
38	0x3b21779f	0.002463795
39	0x3d291cae	0.041287117
40	0x3d2b5047	0.041824605
41	0x3e21c3ae	0.15797302
42	0xbe09b634	-0.13448411
43	0xbd1ac37b	-0.03778408
44	0x3c820dc1	0.015875699
45	0x3db6c46b	0.089241825
46	0xbd9e0a02	-0.077167526
47	0xbd2d0e01	-0.042249683
48	0xbb8e145a	-0.004335922
49	0xbd25bfe0	-0.04046619
50	0x3d856292	0.065129414
51	0x3df4f7ed	0.119613506
52	0x3ab2af4c	0.0013632565
53	0x3e673156	0.22577414
54	0x3d0a18a6	0.033714913
55	0xbe0aa2e7	-0.13538705
56	0xbe02680e	-0.12735006
57	0xbd9c4c4e	-0.076317415
58	0x3dbcafca	0.092132166
59	0xbe2284ca	-0.15870968
60	0xbc384ca9	-0.011248746
61	0x3d3cfaac	0.046137497
62	0xbdbaacc0	-0.09114981
63	0x3e48e60f	0.1961901
64	0x3e622287	0.22083484
65	0x3e7069e1	0.2347789
66	0x3e12ec5e	0.1434798
67	0x3e0c0f1a	0.13677636
68	0xbbdfc760	-0.0068291873
69	0x3d915917	0.07097071
70	0x3d083c99	0.033260915
71	0x3d77e0dd	0.06051718
72	0x3cdbde16	0.026839297
73	0xbec16d34	-0.37778628
74	0xbdc2d79d	-0.09513781
75	0xbdd0677e	-0.101759896
76	0x3e18b4bf	0.14912699
77	0xbcab1033	-0.020881748
78	0xbe0136f2	-0.12618616
79	0x3e71f8e6	0.23630103
80	0xbdd992b3	-0.10623684
81	0xbdc63aed	-0.09679208
82	0x3dba4f19	0.09097118
83	0x3c321e02	0.010871412
84	0xbd86f2de	-0.06589292
85	0x3e2aa3ec	0.16664094
86	0x3dd778ac	0.10521063
87	0x3e31eec1	0.17376234
88	0xbcea07ce	-0.028568175
89	0xbc4fc8a5	-0.012682115
90	0x3e143bc1	0.1447592
91	0xbdc48542	-0.095957294
92	0x3da91f9b	0.082579814
93	0x3d633a60	0.055475593
94	0x3e5ca0a0	0.21545649
95	0xbd11fc6f	-0.03564113
96	0x3e1076cf	0.14107822
97	0x3915319a	0.00014228225
98	0x3d437b85	0.04772522
99	0xbc164cf1	-0.009173618
100	0xbb009e90	-0.001962576
101	0x3e8abc4c	0.27096784
102	0xbd318eec	-0.04334919
103	0x3ddd175c	0.10795471
104	0x3d5b8d52	0.05360157
105	0x3e59d795	0.21273644
106	0xbdeb5254	-0.11490312
107	0x3ce48797	0.027896686
108	0xbeb29d8f	-0.34885833
109	0xbd7050dd	-0.058670867
110	0x3d33a144	0.043854967
111	0x3e367002	0.17816165
112	0x3d0ca54b	0.034337323
113	0xbd239250	-0.039934456
114	0xbcf627c8	-0.030048266
115	0x3e237027	0.15960751
116	0xbdf05269	-0.117344685
117	0xbd27d104	-0.040970817
118	0xbd929001	-0.07156373
119	0xbe404824	-0.1877752
120	0x3cf6992b	0.030102333
121	0xbe04853d	-0.12941451
122	0xbdc2e3ca	-0.095161036
123	0xbe01fd29	-0.12694229
124	0xbd06fb9e	-0.032954805
125	0x3d9c91b3	0.076449774
126	0xbdb7ded7	-0.0897805
127	0x3e0411bd	0.12897392
128	0xbe28c195	-0.16480096
129	0x3cfc9992	0.030834947
130	0xbd5d18ef	-0.053978857
131	0xbe10a1ec	-0.14124268
132	0xbcbe468d	-0.023227
133	0xbe4d48a8	-0.20047247
134	0xbd904e68	-0.07046205
135	0x3d2de91c	0.04245864
136	0x3d8f17fb	0.06986996
137	0x3db62b00	0.0889492
138	0x3e616bf1	0.22013833
139	0x3d81e4c2	0.0634246
140	0x3b00a7c7	0.0019631253
141	0x3ccb0ae5	0.024785468
142	0x3d272e7f	0.040815827
143	0x3da44c1c	0.08022329
144	0x3d833a08	0.06407553
145	0x3ca9ab0b	0.020711442
146	0x3d6b79de	0.05748927
147	0x3d99e700	0.07514763
148	0xbdf2e94e	-0.118609056
149	0xbcafe861	-0.021473112
150	0x3c9f7f44	0.019469865
151	0x3e529145	0.20563228
152	0x3dd4ab34	0.10384217
153	0x3d153df9	0.036436055
154	0x3e350a4e	0.17679712
155	0x3cca72f8	0.024713024
156	0x3ca22ec0	0.019797683
157	0xbf729ee9	-0.9477373
158	0x3dc1107d	0.09426973
159	0x3dcc77c4	0.09983781
160	0x3da18f98	0.078887165
161	0x3e340750	0.17580914
162	0xbd968fcf	-0.07351648
163	0xbe4d3efb	-0.20043556
164	0x3e1f6e4d	0.1556942
165	0x3e7175d7	0.23580109
166	0xbd9bd85a	-0.07609625
167	0x3d8e8d99	0.06960601
168	0xbe21d07f	-0.15802191
169	0x3c5cc60a	0.013474951
170	0xbbb68832	-0.005570435
171	0xbe025256	-0.12726721
172	0xbddccce5	-0.10781268
173	0xbe17f540	-0.14839649
174	0xbe5b1213	-0.21393614
175	0xbbdfd6d4	-0.0068310294
176	0xbd9d2e84	-0.07674888
177	0x3bce45d3	0.006294945
178	0x3d79fa18	0.061029524
179	0xbd4eef2c	-0.05052106
180	0xbdcd686b	-0.10029682
181	0xbda3ed1f	-0.08004212
182	0x3cf53a2f	0.02993497
183	0xbcb4fdc5	-0.022093663
184	0xbe54631f	-0.20740937
185	0xbde0c043	-0.10974171
186	0x3c872e8a	0.016501684
187	0xbd2f7274	-0.04283376
188	0xbdd39ddb	-0.10332843
189	0x3d4ecc6f	0.05048793
190	0x3dd8d122	0.10586764
191	0x3dcf9165	0.10135154
192	0x3c33a79a	0.010965252
193	0xbe1a7f04	-0.15087515
194	0x3da77de6	0.0817831
195	0x3de5b04c	0.112152666
196	0x3e241c77	0.16026483
197	0x3d866aa2	0.06563307
198	0x3da00a1a	0.07814427
199	0xbce0b1fa	-0.027428616
200	0x3d01c197	0.031678762
201	0xbe2bc092	-0.16772678
202	0x3e8dd2e3	0.27699956
203	0x3d11c7d8	0.035590976
204	0xbaa9ba3b	-0.0012949178
205	0xbe225b14	-0.15855056
206	0x3db030ab	0.08603033
207	0x3d732fc5	0.05937173
208	0x3d80c23e	0.06287049
209	0x3ddd2f85	0.10800079
210	0x3d03f966	0.032220267
211	0x3d7f299c	0.06229554
212	0x3dd6c96b	0.10487636
213	0xbd846836	-0.06465189
214	0x3d98ceca	0.07461317
215	0x3e1c77c3	0.1528006
216	0x3c89914f	0.016792921
217	0x3e183b73	0.14866428
218	0x3cadfa4e	0.021237519
219	0x3c4ac166	0.012375211
220	0x3d85e6af	0.0653814
221	0x3c8a9339	0.016915904
222	0x3db8924a	0.090122774
223	0x3c8e7d96	0.017393868
224	0x3dc1a7ea	0.09455855
225	0x3d56a166	0.052400015
226	0xbdcc05b3	-0.099620245
227	0xbe3707fd	-0.17874141
228	0x3e2b54d4	0.16731578
229	0x3cbb9f76	0.022903185
230	0xbe956285	-0.29176727
231	0xbc4fcc3f	-0.012682973
232	0xb55f6a35	-8.3228525e-07
233	0x3d41cad5	0.047312576
234	0x3db01763	0.08598211
235	0xbdc56a6f	-0.09639441
236	0x3cdc9f4c	0.026931427
237	0xbe484391	-0.19557025
238	0xbe4108ed	-0.18851061
239	0x3d130319	0.035891626
240	0x3c163c12	0.009169595
241	0x3dba4176	0.09094517
242	0x3b4ab0bb	0.0030928093
243	0x3df50444	0.11963704
244	0xbd7989ea	-0.06092254
245	0xbd77e044	-0.06051661
246	0x3d8a4193	0.067507885
247	0xbdadd6b0	-0.08488214
248	0xbcfa9c7f	-0.030592201
249	0x3dfa27b4	0.12214604
250	0x3ca76a4e	0.020436432
251	0x3dcd1f04	0.100156814
252	0x3d9f32b3	0.07773342
253	0xbdf1f1a2	-0.11813666
254	0x3d77f1aa	0.060533203
255	0xbd83b4be	-0.06430958

blocks.0.conv.bias f4 [32]
0	0xba3a76f1	-0.00071130606
1	0x3abeab47	0.0014546894
2	0xb8b23110	-8.49684e-05
3	0xba4c1fe4	-0.00077867345
4	0xbc4671c4	-0.012112085
5	0x3be2b3e6	0.006918418
6	0x3b7883a0	0.0037920251
7	0x3b98062b	0.004639407
8	0x3c4d8a2e	0.012545152
9	0xbb1344df	-0.002247147
10	0x3bad503c	0.0052891057
11	0x39154f41	0.00014239272
12	0xbb2bcb4b	-0.0026213701
13	0x3a8b40ad	0.0010624133
14	0x3a812df7	0.0009855618
15	0xb7757e36	-1.4632524e-05
16	0xb916c076	-0.00014376812
17	0x3aab7597	0.0013081309
18	0x3a52e284	0.0008044618
19	0xb848fc23	-4.7918536e-05
20	0xba99262d	-0.0011684351
21	0xbb869778	-0.004107412
22	0xb8db494f	-0.000104563886
23	0xb997339f	-0.00028839425
24	0x38d13d19	9.977277e-05
25	0xbb217cf9	-0.002464114
26	0xb9c84b4f	-0.00038203082
27	0x3c2ab87e	0.010419963
28	0x3bef4b60	0.0073026866
29	0x39a24d57	0.0003095667
30	0x3a54b5b7	0.0008114236
31	0xbba4c89c	-0.0050287973

blocks.0.bn.weight f4 [32]
0	0x3f63e441	0.8902016
1	0x3f5afb45	0.85539657
2	0x3f5f3e60	0.8720455
3	0x3f699d48	0.9125562
4	0x3f8f7be4	1.1209683
5	0x3f57530c	0.84111094
6	0x3f4d9a91	0.80313975
7	0x3f59112d	0.84791833
8	0x3f7571e8	0.9587693
9	0x3f7864e7	0.97028965
10	0x3f5cde2c	0.8627651
11	0x3f82a1e5	1.0205656
12	0x3f4c38e1	0.7977429
13	0x3f5b1dac	0.8559215
14	0x3f6708d6	0.9024786
15	0x3f50b9c1	0.8153344
16	0x3f87d0e7	1.0610627
17	0x3f7f4ceb	0.9972674
18	0x3f6218f4	0.88319325
19	0x3f5db3fe	0.8660277
20	0x3f7051d7	0.9387488
21	0x3f4b65b3	0.79452056
22	0x3f40f730	0.7537718
23	0x3f6b70c6	0.91968954
24	0x3f5f9271	0.87332827
25	0x3f8043c8	1.0020685
26	0x3f858b94	1.0433221
27	0x3f8fb5b9	1.1227332
28	0x3f4a8e7b	0.7912366
29	0x3f378a9d	0.7169588
30	0x3f49418e	0.78615654
31	0x3f8670ce	1.0503175

blocks.0.bn.bias f4 [32]
0	0xbeee9218	-0.46595836
1	0xbec1fe56	-0.37889355
2	0xbcedcf62	-0.029029552
3	0xbe214547	-0.15749083
4	0xbe7e1d45	-0.24815853
5	0xbe10448d	-0.1408865
6	0xbe15b598	-0.14620054
7	0xbe8614d5	-0.2618777
8	0xbe6f2172	-0.23352602
9	0xbe982ce0	-0.29721737
10	0xbebff67e	-0.37492746
11	0xbed3e6a2	-0.41386896
12	0xbeb7329d	-0.35780802
13	0xbf0bbab0	-0.5458174
14	0xbe4dd1f5	-0.20099624
15	0xbeab0346	-0.33400935
16	0xbf03ea8a	-0.51529753
17	0xbe939a6f	-0.2882876
18	0xbe338f6e	-0.17535183
19	0xbf132f30	-0.5749388
20	0xbe830fb8	-0.2559793
21	0xbda80e3d	-0.08205841
22	0xbef8d736	-0.48601693
23	0xbe9b54f6	-0.30338258
24	0xbe267bcd	-0.16258164
25	0xbe8962d0	-0.268332
26	0xbe9b0772	-0.30279118
27	0xbeaa5e1e	-0.3327493
28	0xbef31a8d	-0.47481194
29	0xbe570d8c	-0.21001261
30	0x3d1455ee	0.03621476
31	0xbef3c600	-0.47612

blocks.0.bn.running_mean f4 [32]
0	0x3ef01185	0.46888366
1	0xbfa97f47	-1.3241967
2	0x3f862607	1.0480355
3	0xbe8171b6	-0.25282067
4	0xbecb3d68	-0.39695287
5	0xc0012926	-2.0181365
6	0xbfd3d178	-1.65483
7	0xbfc90d26	-1.5707138
8	0x3cf3beb4	0.02975402
9	0xbf7b7c45	-0.98236495
10	0xbf9cfd1b	-1.2264742
11	0xbeb0a9d9	-0.34504583
12	0xbfbbd62f	-1.4674739
13	0x3f94e567	1.1632508
14	0x3fd9c3e6	1.7012908
15	0x3d888046	0.06665091
16	0xbecd86d9	-0.40141943
17	0xbf4d5b6a	-0.8021761
18	0x3ec1bac2	0.37837797
19	0xbf19c6d0	-0.6006899
20	0xbf53568f	-0.8255395
21	0xbfae5791	-1.3620473
22	0xbf8156d7	-1.0104626
23	0x3dd92078	0.10601896
24	0xbef81484	-0.48453152
25	0xbf8d31cf	-1.1030825
26	0xbe9fbbf8	-0.31198096
27	0xbf658b74	-0.89665914
28	0xc027b394	-2.6203356
29	0x3e0ced9c	0.13762516
30	0x3f38a62d	0.72128564
31	0xc01d22d0	-2.4552498

blocks.0.bn.running_var f4 [32]
0	0x3fc9a673	1.5753921
1	0x3fcaa9f4	1.5833116
2	0x404aa828	3.1665134
3	0x3fedb00a	1.8569348
4	0x40583dc7	3.3787706
5	0x403f6f65	2.991174
6	0x405bdc26	3.4353118
7	0x3fb1fc67	1.3905152
8	0x3fca636e	1.5811594
9	0x3f91699d	1.1360356
10	0x3fb8ddae	1.4442651
11	0x3fc7c4c3	1.5606922
12	0x3fd4ab1b	1.6614717
13	0x3fcbab2a	1.591161
14	0x402b400d	2.6757843
15	0x3fd3ff98	1.6562376
16	0x3fb6da02	1.4285281
17	0x40445c33	3.0681274
18	0x3f9eb4dd	1.2398945
19	0x3fb231f2	1.3921492
20	0x3fad5990	1.3542957
21	0x402a5772	2.6615872
22	0x3fc450fd	1.5337216
23	0x3fc0d2e6	1.5064361
24	0x40812972	4.0363092
25	0x3fbe2545	1.4855124
26	0x3fad1a26	1.3523605
27	0x3fde2bbf	1.73571
28	0x40483bce	3.1286502
29	0x3fa6932f	1.3013667
30	0x400f0127	2.2344453
31	0x403410f3	2.8135345

blocks.1.conv.weight f4 [32, 32, 3, 3]
0	0xbd58c132	-0.05291862
1	0xbdd967f8	-0.106155336
2	0x3db31a98	0.08745307
3	0xbe80cb51	-0.25155118
4	0x3de2d2ac	0.11075339
5	0xbe014bd6	-0.12626585
6	0x3e49827b	0.1967868
7	0xbe924416	-0.2856757
8	0x3e080bd1	0.13285758
9	0xbcfa70de	-0.030571397
10	0x3cfd7984	0.030941732
11	0xbde03a64	-0.10948637
12	0xbe45ea93	-0.19327764
13	0x3d670783	0.056403648
14	0xbdfc9545	-0.123331584
15	0xbe078030	-0.13232493
16	0x3dac3355	0.08408228
17	0xbddfb93d	-0.10924003
18	0x3c43565a	0.011922443
19	0xbe612cdd	-0.2198977
20	0x3ca07324	0.019586153
21	0xbe853439	-0.26016405
22	0xbeebcf24	-0.46056473
23	0xbd6e1b23	-0.05813135
24	0x3b98328e	0.0046446985
25	0x3e2c2b27	0.16813336
26	0x3d5067e1	0.050880317
27	0x3e8ad555	0.27115884
28	0x3d2f1a00	0.042749405
29	0x3de780aa	0.113038376
30	0xbdefbbdd	-0.11705754
31	0x3d05f80f	0.03270727
32	0x3d02c39a	0.03192482
33	0x3d8a2b77	0.067465715
34	0xbe89cd5f	-0.26914498
35	0xbdefbd4a	-0.11706026
36	0x3e09bb20	0.13450289
37	0xbc16b2c2	-0.009197893
38	0xbca3c1f4	-0.019989945
39	0x3e7a21b9	0.24426927
40	0x3c120cf1	0.008914218
41	0x3df41917	0.11918848
42	0x3e0bf518	0.13667715
43	0xbc82c2f8	-0.015962109
44	0x3d42d7c5	0.047569055
45	0xbe48de11	-0.19615962
46	0xbdc09a13	-0.09404387
47	0x3e1c4442	0.15260413
48	0x3d8531a0	0.06503606
49	0xbd7b0ee9	-0.061293516
50	0xbd915aff	-0.07097434
51	0xbd243bdb	-0.040096145
52	0xbd79d140	-0.060990572
53	0x3cc42ec9	0.02394809
54	0xbddfd534	-0.10929337
55	0xbc12e233	-0.008965063
56	0xbdc2967b	-0.09501358
57	0xbe0401c9	-0.12891306
58	0x3d4eaa33	0.050455283
59	0xbd8f08a7	-0.06984072
60	0xbdc1c111	-0.094606526
61	0x3d6180e6	0.055054568
62	0xbe1b1f5a	-0.15148678
63	0x3d919407	0.07108312
64	0xbe56e15e	-0.20984408
65	0x3d597ed7	0.05309948
66	0x3d83204b	0.06402644
67	0x3e1e9fd5	0.15490659
68	0xbe1dac01	-0.15397646
69	0x3e1107ee	0.14163181
70	0x3e3b7ddc	0.1830973
71	0x3d2d7df6	0.042356454
72	0x3dbb79e5	0.09154109
73	0xbca24744	-0.019809373
74	0x3d6ff817	0.058586206
75	0xbe44f593	-0.19234304
76	0xbcf10476	-0.029421072
77	0xbcfd3ff9	-0.030914294
78	0xbd45c212	-0.048280783
79	0xbde99c62	-0.11406781
80	0x3d630206	0.05542185
81	0x3e1bf48d	0.15230007
82	0x3e0f0d5b	0.13969938
83	0xbdaff8cc	-0.08592376
84	0x3e0d9c17	0.13829075
85	0x3c5373d2	0.012906032
86	0xbdca6395	-0.09882275
87	0x3ea41ce1	0.32053283
88	0x3d883392	0.06650461
89	0xbe0a18d3	-0.13486032
90	0x3ddf230b	0.10895356
91	0xbdb7bba4	-0.089713365
92	0xbb97902c	-0.004625341
93	0x3d106130	0.035248935
94	0xbd62b9ae	-0.05535286
95	0x3d9c5c7f	0.0763483
96	0xbd09008b	-0.033447783
97	0xbe56e590	-0.20986009
98	0x3dae5677	0.085125856
99	0x3e033775	0.12814124
100	0x3e1852ab	0.14875285
101	0x3d95ac95	0.07308308
102	0xbe0b7bf8	-0.13621509
103	0x3adbc045	0.0016765675
104	0xbc33130f	-0.010929837
105	0xbd03ecfb	-0.032208424
106	0xbea4aa06	-0.32160968
107	0xbe5996a4	-0.21248871
108	0xbcf24137	-0.029572112
109	0x3d4e52db	0.050371986
110	0xbe5cdc62	-0.21568444
111	0x3e6466fc	0.2230491
112	0x3d457617	0.048208322
113	0x3ce3ed20	0.027823031
114	0x3cc7c153	0.024384176
115	0x3df4260e	0.11921321
116	0x3e53942d	0.20661993
117	0xbe8ed9ca	-0.27900535
118	0xbe43221d	-0.19055982
119	0xbd953967	-0.07286339
120	0xbe1bb9ad	-0.15207548
121	0xbe949afa	-0.29024488
122	0xbd245f13	-0.040129732
123	0xbd8d9822	-0.06913783
124	0xbdc9a245	-0.098454036
125	0xbcc84514	-0.024447002
126	0x3e9f2782	0.3108483
127	0x3d27c524	0.040959492
128	0xbdc28ebd	-0.094998814
129	0x3d9d13ec	0.076698154
130	0xbe02de65	-0.1278015
131	0x3d9f7e1e	0.07787727
132	0x3e166e79	0.1469058
133	0xbdd0ef2d	-0.10201869
134	0xbdc1ac97	-0.09456747
135	0xbc8a1bf4	-0.016859032
136	0x3d43f32a	0.04783932
137	0xbd0a95c2	-0.033834226
138	0xbd89b8b6	-0.06724684
139	0xbd45faff	-0.04833507
140	0xbd0aae05	-0.033857364
141	0xbb8bd9b5	-0.004267896
142	0xbe1fcc09	-0.15605177
143	0x3cf70806	0.030155193
144	0x3e284f2e	0.16436455
145	0xbe3996ec	-0.18123978
146	0xbc7cb342	-0.015423598
147	0xbe19ab1c	-0.1500668
148	0xbe67a9d5	-0.2262338
149	0x3ada2ec6	0.001664602
150	0x3e304c82	0.17216685
151	0x3c7d4326	0.015457904
152	0xbdd0f660	-0.10203242
153	0x3e1a978f	0.15096878
154	0x3dc942da	0.09827204
155	0x3d67f943	0.0566342
156	0xbe03e065	-0.12878568
157	0xbf0b1048	-0.5432172
158	0xbb2027df	-0.0024437828
159	0xbd77829e	-0.0604273
160	0xbe7dae2e	-0.24773476
161	0xbe035ea0	-0.12829065
162	0x3dd85b59	0.10564298
163	0x3dac462b	0.08411821
164	0x3d78c37e	0.06073331
165	0x3d2ad8fa	0.04171083
166	0xbbc286d8	-0.005936485
167	0x3da1c145	0.07898191
168	0x3d42f5f1	0.04759783
169	0x3e62fae3	0.22166018
170	0xbdcd1e59	-0.10015554
171	0xbe33f138	-0.17572486
172	0x3d407fe7	0.046996977
173	0xbd3104e7	-0.043217566
174	0x3d9ed627	0.0775569
175	0xbe45d506	-0.19319543
176	0x3d8b3d03	0.067987464
177	0xbe41f307	-0.18940364
178	0xbe4a6c35	-0.1976784
179	0xbe621049	-0.22076525
180	0x3c0baa54	0.008524496
181	0xbc07503c	-0.008258875
182	0x3dbadbc1	0.09123946
183	0xbc92b792	-0.017909799
184	0xbea91269	-0.33021858
185	0xbd91ec51	-0.07125152
186	0xbce9091a	-0.028446723
187	0x3cceee39	0.025260078
188	0xbdea9236	-0.11453669
189	0xbd009bee	-0.031398706
190	0x3a646117	0.0008711977
191	0xbe2bd46b	-0.1678025
192	0x3d2d77bd	0.04235052
193	0xbdf5225f	-0.119694464
194	0xbc9b3ea2	-0.018950764
195	0x3da18f7c	0.078886956
196	0x3dc1254b	0.09430941
197	0xbd9ed350	-0.077551484
198	0x3e103eba	0.14086428
199	0xbcdcbec8	-0.02694644
200	0x3d713422	0.05888761
201	0xbc7dc0e3	-0.015487882
202	0xbe1cb29b	-0.15302508
203	0xbc8ad3cf	-0.016946701
204	0x3d724b27	0.059153702
205	0xbd9fc173	-0.078005694
206	0x3e055e84	0.13024336
207	0x3d0a20d9	0.033722732
208	0x3ccb24b6	0.024797779
209	0x3e2f140a	0.17097488
210	0xbd90c4b8	-0.07068771
211	0xbe543343	-0.2072268
212	0xbe269a84	-0.1626988
213	0x3c8307c5	0.015994916
214	0xbe4c7c9f	-0.19969414
215	0xbe94e84a	-0.29083472
216	0xbe27b61b	-0.16378061
217	0xbd57f317	-0.052722063
218	0xbd82cca0	-0.06386685
219	0xbdeb2d18	-0.1148321
220	0xbe43c783	-0.19119076
221	0xbe12eb8d	-0.14347668
222	0xbda93fe0	-0.08264136
223	0x3c4f0b34	0.012636948
224	0x3d1ebf8f	0.038756903
225	0x3db91f92	0.09039225
226	0x3b05d17e	0.0020419057
227	0xbdae6e25	-0.08517102
228	0xbcbc2f36	-0.02297173
229	0x3d15aa65	0.036539454
230	0x3c93b9a8	0.018032864
231	0xbe478ccc	-0.19487303
232	0x3de570c9	0.11203153
233	0xbcd22642	-0.025653008
234	0x3cbeaad6	0.02327482
235	0xbd755230	-0.059892833
236	0x3e0636ac	0.13106793
237	0xbdad6efe	-0.08468436
238	0xbd52659c	-0.051366434
239	0xbe0d6b17	-0.13810383
240	0xbe46c593	-0.19411306
241	0xbcb72e5c	-0.022360973
242	0xbe277051	-0.16351439
243	0xb992e6b3	-0.00028019174
244	0x3db5e6ce	0.08881913
245	0x3c8a4eaa	0.016883213
246	0x3e2ad3c4	0.16682345
247	0xbd895eda	-0.067075446
248	0xbb009bb7	-0.0019624063
249	0x3cd03175	0.025414208
250	0xbdc49d8f	-0.096003644
251	0xbd30d726	-0.04317393
252	0xbdbe3db4	-0.09289113
253	0xbce47b4d	-0.027890826
254	0x3da6db89	0.08147342
255	0xbe61c378	-0.22047222

blocks.1.conv.bias f4 [32]
0	0xbb9ec008	-0.0048446693
1	0x38d8428f	0.0001031208
2	0xb9baffc3	-0.00035667242
3	0x3b9fe598	0.0048796646
4	0xbc135725	-0.008992945
5	0xbc436415	-0.011925717
6	0x3c5c42d0	0.013443664
7	0x3a801f41	0.0009774939
8	0x3bb2d888	0.0054579414
9	0x3a2f9561	0.00066979794
10	0x3a4cd1c0	0.00078132376
11	0xb8f7ad93	-0.000118102085
12	0x3bed5d67	0.0072438004
13	0x3a83e078	0.0010061404
14	0xba25ee08	-0.000632972
15	0x3c0c9e46	0.008582657
16	0x3b02fc74	0.00199869
17	0x38a9786d	8.080979e-05
18	0xb99627e7	-0.0002863996
19	0x3b3addb7	0.00285135
20	0x3b0893cc	0.0020840047
21	0xbb344818	-0.0027508792
22	0xba074cb2	-0.000516127
23	0xba5e9917	-0.000849144
24	0x3c58b242	0.013226094
25	0xbb6aab60	-0.0035807714
26	0xbb3762c9	-0.0027982465
27	0x3bb120fb	0.005405543
28	0xb96d241c	-0.00022615533
29	0x39f9d160	0.00047648977
30	0xb7a9e1d9	-2.0251538e-05
31	0xb98744ca	-0.00025800458

blocks.1.bn.weight f4 [32]
0	0x3f4f8f25	0.81077796
1	0x3f61f1d1	0.8825961
2	0x3f606294	0.8765042
3	0x3f85ba45	1.044747
4	0x3f817a7d	1.0115505
5	0x3f5de775	0.866813
6	0x3f4f2140	0.8091011
7	0x3f7b1aee	0.98087966
8	0x3f841b0a	1.0320752
9	0x3f6c4858	0.9229789
10	0x3f6d591d	0.927141
11	0x3f801e71	1.000929
12	0x3f796509	0.9741979
13	0x3f7b59bd	0.98183805
14	0x3f8983ba	1.0743325
15	0x3f83ec61	1.0306512
16	0x3f863d1e	1.0487401
17	0x3f46ef52	0.77708924
18	0x3f706cac	0.9391582
19	0x3f786dfb	0.97042817
20	0x3f628c0a	0.8849493
21	0x3f379d30	0.71724224
22	0x3f8a7c1c	1.0819125
23	0x3f8fca13	1.1233543
24	0x3f817fda	1.0117142
25	0x3f728ec2	0.9474908
26	0x3f684fc8	0.90746737
27	0x3f619207	0.88113445
28	0x3f64ade5	0.8932784
29	0x3f5c9086	0.86158025
30	0x3f1a1214	0.60183835
31	0x3f8932df	1.071865

blocks.1.bn.bias f4 [32]
0	0xbe7a0a24	-0.24417931
1	0xbec194c4	-0.37808812
2	0xbda51591	-0.08060754
3	0xbe28cc59	-0.16484202
4	0xbe651a00	-0.223732
5	0xbd60c83d	-0.054878462
6	0xbecd615f	-0.4011335
7	0xbed99f8f	-0.42504546
8	0xbec1a8b7	-0.37824032
9	0xbea5ff30	-0.32421255
10	0xbeba0645	-0.36332908
11	0xbedcd669	-0.43132332
12	0xbef028ea	-0.46906215
13	0xbec84aff	-0.39119717
14	0xbe98af28	-0.29821134
15	0xbe8a25ec	-0.26982057
16	0xbf1b0e58	-0.6056876
17	0xbeedea0d	-0.4646763
18	0xbebbfaae	-0.3671469
19	0xbedd7173	-0.43250617
20	0xbee19977	-0.44062397
21	0xbed7fa9c	-0.42183387
22	0xbeed8593	-0.46390972
23	0xbe47ac41	-0.19499303
24	0xbf0ab917	-0.54188675
25	0xbe28b6af	-0.16475938
26	0xbe818836	-0.25299233
27	0xbe735039	-0.23761071
28	0xbeadeb53	-0.339686
29	0xbefa6763	-0.48907003
30	0x3d08c4fc	0.033390984
31	0xbec417dc	-0.38299453

blocks.1.bn.running_mean f4 [32]
0	0xc03fe403	-2.9982917
1	0xbfd7ca68	-1.6858644
2	0xbf849625	-1.035832
3	0xc00dc40f	-2.2150915
4	0xc02ccd76	-2.7000403
5	0xbfc4afd6	-1.5366161
6	0x3fdece85	1.7406775
7	0xc028ac19	-2.635504
8	0xc055ed97	-3.3426263
9	0x3d848f85	0.06472687
10	0xbf991119	-1.1958343
11	0x3ea0388f	0.3129315
12	0xbf4ca746	-0.7994274
13	0x3fc4fbdc	1.5389361
14	0xbf3f46b5	-0.74717265
15	0xc0000462	-2.0002675
16	0xbf8b265c	-1.0871081
17	0xbf552fc6	-0.8327602
18	0xbfd1f6cc	-1.6403441
19	0xbfd49809	-1.6608897
20	0xbf9c41a2	-1.220753
21	0xbff7e25b	-1.9365953
22	0xbe8cf015	-0.27526918
23	0xbf988a1d	-1.1917149
24	0xbfe13bd7	-1.7596387
25	0xbc9968d1	-0.018726738
26	0xbfbccdbf	-1.4750289
27	0xbf3b87ab	-0.7325389
28	0x3f2eb527	0.68245167
29	0x3e12ea8d	0.14347287
30	0x3fa0e12f	1.256872
31	0x3d9a54d7	0.07535713

blocks.1.bn.running_var f4 [32]
0	0x405f680d	3.4907258
1	0x404f630f	3.240421
2	0x404492e8	3.0714664
3	0x40deb6f2	6.959832
4	0x4131d01a	11.113306
5	0x40981834	4.7529545
6	0x40613024	3.5185633
7	0x407c9b65	3.9469845
8	0x40828f60	4.080002
9	0x40378fcc	2.8681517
10	0x406ac662	3.6683583
11	0x404ddb81	3.2165225
12	0x40846f1e	4.138564
13	0x40442073	3.0644805
14	0x40a89f61	5.2694554
15	0x404da91e	3.213447
16	0x405d62b3	3.4591491
17	0x4066e9a9	3.6080115
18	0x40303146	2.7530074
19	0x407d34f8	3.956358
20	0x406f31e3	3.7374198
21	0x4089b4be	4.3033133
22	0x402d086a	2.7036386
23	0x406fd37a	3.7472825
24	0x404ca87b	3.1977832
25	0x40b5e17a	5.683774
26	0x40947673	4.639459
27	0x40a0da37	5.0266376
28	0x4112e705	9.181401
29	0x4088e52c	4.277975
30	0x410c6761	8.775239
31	0x4056670a	3.350039

blocks.2.conv.weight f4 [32, 32, 3, 3]
0	0xbcf31255	-0.029671827
1	0xbe509cf4	-0.20372373
2	0xbded23ae	-0.11579071
3	0xbd018beb	-0.031627577
4	0xbd826ed2	-0.063687935
5	0xbdff626c	-0.12469944
6	0xbd9c9a75	-0.07646648
7	0xbe39bab2	-0.18137625
8	0x3d167194	0.03672941
9	0xbe7e8dc7	-0.24858771
10	0xbe417201	-0.18891145
11	0xbdd013e2	-0.10160042
12	0xbe99c4fb	-0.30033097
13	0xbd6ec81f	-0.05829632
14	0xbbea5cbd	-0.0071521685
15	0x3db6ac56	0.08919589
16	0xbdc2629b	-0.09491464
17	0x3dd0f338	0.1020264
18	0xbe07fad1	-0.13279273
19	0xbd01d52e	-0.031697445
20	0x3de9717d	0.11398599
21	0xbe49a66f	-0.19692396
22	0xbde0e13d	-0.10980461
23	0xbceda7bf	-0.029010652
24	0xbd0f1b9d	-0.034938443
25	0xbe1d998e	-0.15390608
26	0xbd318988	-0.04334405
27	0x3e2c7946	0.16843137
28	0xbd83532f	-0.064123504
29	0x3da0ed5b	0.07857772
30	0xbcd64dcc	-0.026160143
31	0xbdda1584	-0.10648635
32	0x3e0913e0	0.13386488
33	0x3e179561	0.14803077
34	0x3dede392	0.11615671
35	0x3dc91e7f	0.0982027
36	0x3d8fe932	0.070269
37	0xbc91ad00	-0.017782688
38	0x3e82bf50	0.25536585
39	0x3dd6ab19	0.10481853
40	0x3e8de06d	0.27710286
41	0x3dcf0f0f	0.10110294
42	0x3e457a76	0.19284996
43	0xbbc297b0	-0.0059384927
44	0x3dc25fdd	0.09490941
45	0xbe05168a	-0.12996879
46	0x3dae0dd0	0.08498728
47	0x3ea55240	0.32289314
48	0x3e342856	0.17593512
49	0x3da466f6	0.08027451
50	0x3e08caa9	0.13358559
51	0xbb92a72c	-0.004475495
52	0xbd68868c	-0.05676894
53	0xbd7121ca	-0.058870114
54	0xbd14394e	-0.036187463
55	0x3deac58f	0.114634626
56	0x3d18e6c6	0.037329458
57	0x3d1e5752	0.038657494
58	0x3e079009	0.13238539
59	0x3c9a00de	0.018799242
60	0xbdaa9f89	-0.0833121
61	0xbce012cd	-0.027352715
62	0xbed5c43d	-0.4175128
63	0xbdd0ebb9	-0.102012105
64	0xbe37ba58	-0.17942178
65	0x3dac2149	0.08404786
66	0xbdb2f613	-0.08738341
67	0xbd15992e	-0.036523037
68	0xbe2bebe0	-0.16789198
69	0xbd651688	-0.05592969
70	0xbd1bb9c6	-0.038018964
71	0x3d321c80	0.04348421
72	0xbcaab39b	-0.020837596
73	0xba835bec	-0.0010021902
74	0x3ea99689	0.33122662
75	0x3ea1d1a5	0.3160526
76	0x3d59bbfa	0.053157784
77	0x3dda752b	0.10666879
78	0x3e8dc85d	0.27691928
79	0xbe9a3153	-0.30115756
80	0x3d2de2d5	0.042452652
81	0xbd27400e	-0.04083257
82	0x3da6488d	0.08119307
83	0xbe81e9af	-0.253736
84	0xbe3b6eb5	-0.1830395
85	0xbd16c6ad	-0.036810566
86	0xbdb90284	-0.09033683
87	0x3d0ea8e9	0.034829054
88	0xbe45a4f7	-0.1930121
89	0x3a3fe535	0.0007320226
90	0xbe56fd13	-0.20994978
91	0xbea064de	-0.31326956
92	0xbdb738d2	-0.089463845
93	0xbdf00ba2	-0.11720969
94	0xbe0e04ba	-0.1386899
95	0xbdb26695	-0.08710972
96	0x3d3d41c2	0.04620529
97	0x3d0309fb	0.03199194
98	0xbe100222	-0.14063314
99	0x3dbcd0bb	0.092195
100	0x3dd00b3c	0.10158393
101	0xbd84b2c5	-0.0647941
102	0xbc3943e1	-0.0113076875
103	0x3e25d6cd	0.16195221
104	0xbe1f3631	-0.15548016
105	0xbcf72db8	-0.030173168
106	0xbe63eadd	-0.22257562
107	0x3e20d885	0.15707596
108	0x3d0ce5c1	0.034398798
109	0x3dc6b152	0.0970179
110	0x3e485868	0.19564974
111	0x3e2c2ed1	0.16814734
112	0x3c9c32bc	0.01906716
113	0x3db74a99	0.08949775
114	0x3c3d2012	0.011543291
115	0x3da897fd	0.082321145
116	0x3d7ca100	0.06167698
117	0xbd3bd312	-0.04585559
118	0xbea41b7f	-0.32052228
119	0xbdfb4a3e	-0.1227002
120	0xbe216b4c	-0.15763587
121	0x3c33e6e6	0.010980343
122	0x3e2cee71	0.16887833
123	0xbd9bbc7d	-0.07604311
124	0xbb2dee80	-0.0026539862
125	0xbd253180	-0.04033041
126	0xbdf02914	-0.11726585
127	0xbe3d2b4b	-0.18473546
128	0xbec42df5	-0.38316312
129	0xbe29a32c	-0.16566151
130	0xbe2399ad	-0.15976591
131	0x3d934a9c	0.07191965
132	0xbe78689a	-0.24258652
133	0x3ea3bead	0.31981412
134	0xbcc48bda	-0.023992468
135	0xbd994475	-0.0748376
136	0x3c51b375	0.012799134
137	0xbe643772	-0.22286776
138	0xbc7858bc	-0.015157875
139	0xbdd4fd12	-0.10399832
140	0xbe48a903	-0.19595723
141	0x3e8209c4	0.25398076
142	0xbe02f2a8	-0.12787879
143	0x3e135682	0.14388469
144	0xbaa071ec	-0.0012240983
145	0xbc87727a	-0.016534079
146	0x3dc56cb0	0.09639871
147	0xbd4845b0	-0.048894584
148	0xbd902165	-0.070376195
149	0x3dc0e310	0.09418309
150	0x3e2e0d92	0.16997364
151	0xbe3ce96f	-0.18448423
152	0x3d623d5d	0.0552343
153	0xbb63fbc7	-0.0034787522
154	0x3d0bf050	0.034164727
155	0xbd162e7d	-0.03666543
156	0x3b1e518e	0.0024157497
157	0x3c503bc0	0.012709558
158	0x3e361225	0.17780359
159	0xbe79f5a5	-0.24410112
160	0xbe57305b	-0.2101454
161	0xbc30145c	-0.010747042
162	0xbe024eb9	-0.12725343
163	0x3df8ef43	0.121550106
164	0xbd9c9496	-0.07645528
165	0xbd0dd1e9	-0.034624014
166	0x3d6c9116	0.057755552
167	0x3d91b1da	0.071140006
168	0x3e338673	0.17531757
169	0xbc2d23a4	-0.010567579
170	0xbde7f13b	-0.11325308
171	0x3cb1a589	0.021685379
172	0xbd7bd669	-0.061483774
173	0x3cbd6e75	0.02312396
174	0xbe1f2cb7	-0.15544401
175	0xbe2e93eb	-0.17048614
176	0xbdba1776	-0.09086506
177	0xbe08aee7	-0.1334797
178	0x3d231be1	0.03982151
179	0xbd348d92	-0.044080324
180	0xbd61bce8	-0.055111796
181	0x3b1a4fa0	0.0023545995
182	0x3e515d84	0.2044583
183	0x3df81103	0.1211262
184	0xbd7b2728	-0.06131664
185	0x3ce99ea4	0.028518029
186	0xbd29ccd1	-0.041455094
187	0x3dbc9ab6	0.09209196
188	0xbdc320fd	-0.095277764
189	0x3de360c4	0.11102441
190	0x3c9b4464	0.01895351
191	0x3da18312	0.07886328
192	0x3e32a6a4	0.17446381
193	0x3e200a8e	0.15629026
194	0x3d59886a	0.05310861
195	0x3cb8adcd	0.022543812
196	0x3e184975	0.14871772
197	0x3d4bcd41	0.049756292
198	0x3e176083	0.1478291
199	0xbdaeae8a	-0.085293844
200	0xbd5bb539	-0.053639624
201	0xbd226156	-0.039643608
202	0x3d959cc7	0.073052935
203	0x3c905330	0.017617792
204	0xbe4797b1	-0.1949146
205	0xbdf08c6c	-0.11745533
206	0xbe37be85	-0.17943771
207	0xbe92931b	-0.28627858
208	0xbdbd5eaa	-0.09246571
209	0x3d620721	0.05518258
210	0xbdbd38ec	-0.092393726
211	0xbe1c81e5	-0.15283926
212	0xbdde4737	-0.10853427
213	0xbdf42897	-0.119218044
214	0xbe18b0e0	-0.14911222
215	0xbba1696b	-0.004925897
216	0xbcfd20b1	-0.030899378
217	0x3ce18681	0.027529957
218	0xbe2dde8d	-0.16979428
219	0xbd431118	-0.047623724
220	0x3e5dc224	0.2165609
221	0x3db68456	0.0891196
222	0xbd32a1fc	-0.04361151
223	0xbde32093	-0.110901974
224	0xbd8fd5ea	-0.07023223
225	0x3cc6a900	0.024250507
226	0x3e09375e	0.13400027
227	0xbdefffe0	-0.11718726
228	0x3df69d76	0.12041752
229	0x3d856997	0.0651428
230	0x3e309ca4	0.17247254
231	0x3d628871	0.055305902
232	0xbcfbf907	-0.030758394
233	0xbd95b327	-0.07309561
234	0x3d3aa005	0.045562763
235	0x3d573461	0.052540187
236	0xbdb3f186	-0.08786301
237	0xbde33cd9	-0.1109559
238	0xbda82176	-0.08209507
239	0x3c9adbb9	0.0189036
240	0x3cd31115	0.025764981
241	0x3b9860e3	0.0046502217
242	0x3e021b06	0.12705621
243	0xbe1abee2	-0.15111879
244	0xbdce232f	-0.100653045
245	0xbd07abe9	-0.03312293
246	0xbdd4dc00	-0.10393524
247	0xbc94ec99	-0.018179225
248	0xbd3cb459	-0.04607043
249	0xbe06a177	-0.13147531
250	0x3e2e8fd0	0.17047048
251	0x3d5a0105	0.05322363
252	0x3d970d12	0.0737554
253	0x3ca16d5b	0.019705465
254	0xbe221557	-0.15828453
255	0x3cfd9dc2	0.030959014

blocks.2.conv.bias f4 [32]
0	0xba569bcb	-0.0008186667
1	0xbb6ad92b	-0.0035835009
2	0xba743b5a	-0.00093167054
3	0x3adf72e6	0.0017047792
4	0xbbcb62d8	-0.0062068515
5	0xbb50b7ca	-0.0031847828
6	0x3b999696	0.0046871407
7	0x3acf5854	0.001581917
8	0xbb45d22e	-0.0030185091
9	0xbb9acc9d	-0.004724099
10	0xbbe69ae4	-0.0070375074
11	0x378d41a8	1.6839083e-05
12	0xb980d6c6	-0.0002457408
13	0xba889259	-0.0010419592
14	0x38664bb4	5.4906777e-05
15	0xb99d27ed	-0.0002997512
16	0xbbeb90cc	-0.007188892
17	0xbbeb79af	-0.0071861367
18	0x3972b8cf	0.00023147765
19	0x3a9f06a2	0.0012132714
20	0x399f5515	0.00030390234
21	0xb829e98e	-4.0510255e-05
22	0xb947f14a	-0.00019068006
23	0x38c750f6	9.5041396e-05
24	0x3bdad66b	0.0066783926
25	0x3b9a25eb	0.004704227
26	0xba314538	-0.00067623286
27	0xbb8a640c	-0.0042233523
28	0xb7fa2677	-2.9820234e-05
29	0xbbaea059	-0.0053291735
30	0x388cf6bb	6.721677e-05
31	0x3c1f7f42	0.0097349305

blocks.2.bn.weight f4 [32]
0	0x3f81d10b	1.014192
1	0x3f6e0321	0.92973524
2	0x3f5a3163	0.8523161
3	0x3f440ff1	0.76586825
4	0x3f59296a	0.8482882
5	0x3f4b9c6c	0.79535556
6	0x3f86b144	1.0522847
7	0x3f804457	1.0020856
8	0x3f4f07ce	0.80871284
9	0x3f880b91	1.062853
10	0x3f564174	0.83693624
11	0x3f61476d	0.8799961
12	0x3f74c2e4	0.9560988
13	0x3f774416	0.96588266
14	0x3f6c50d0	0.9231081
15	0x3f86f3d6	1.0543163
16	0x3f894fea	1.0727513
17	0x3f78959f	0.97103304
18	0x3f64611e	0.8921069
19	0x3f659fff	0.8969726
20	0x3f63be79	0.88962513
21	0x3f71b648	0.94418764
22	0x3f57e5eb	0.843352
23	0x3f8c35b5	1.095389
24	0x3f874480	1.056778
25	0x3f7f4e21	0.9972859
26	0x3f80012b	1.0000356
27	0x3f4c7457	0.7986502
28	0x3f5c7919	0.8612228
29	0x3f847132	1.0347044
30	0x3f127e20	0.572237
31	0x3f63c66d	0.8897465

blocks.2.bn.bias f4 [32]
0	0xbe39c4f6	-0.18141541
1	0xbedd0ae5	-0.43172374
2	0xbdb24d6e	-0.08706175
3	0xbda3e976	-0.080035135
4	0xbedeb429	-0.43496826
5	0xbe6bd3ef	-0.23030065
6	0xbe3c2f87	-0.18377505
7	0xbefaeb4d	-0.49007645
8	0xbee5f0f7	-0.44910404
9	0xbe8fce52	-0.28087097
10	0xbeae3393	-0.34023723
11	0xbead6de4	-0.33872902
12	0xbef2e964	-0.47443688
13	0xbebb8187	-0.3662226
14	0xbed3cb44	-0.41366017
15	0xbeded82a	-0.43524295
16	0xbebc0292	-0.3672071
17	0xbf0f328a	-0.5593649
18	0xbe85bc67	-0.26120302
19	0xbe8ddbed	-0.27706853
20	0xbee45f91	-0.4460416
21	0xbf233797	-0.637567
22	0xbeb0bf2a	-0.34520847
23	0xbe9f7c2c	-0.31149423
24	0xbef176a8	-0.4716084
25	0xbea53ebd	-0.32274428
26	0xbedc7582	-0.430584
27	0xbe80aa21	-0.25129798
28	0xbdbdde1c	-0.092708796
29	0xbebfb8a8	-0.3744557
30	0x3e64d5ab	0.22347133
31	0xbede101f	-0.43371674

blocks.2.bn.running_mean f4 [32]
0	0xbfc761b3	-1.557669
1	0xc009383a	-2.1440568
2	0xbfa5e77c	-1.2961268
3	0x3f02a2d5	0.5102971
4	0xc04c5f1a	-3.1933045
5	0x3ec97e98	0.39354396
6	0xbf10430b	-0.563523
7	0xbfbcbfb2	-1.4746001
8	0xbf9523c6	-1.1651542
9	0xbdf02273	-0.11725321
10	0xbf43544b	-0.76300496
11	0xbde287ee	-0.11061083
12	0x3d420155	0.04736455
13	0xbf8d0480	-1.1016998
14	0xbfae3d74	-1.3612504
15	0xbf9cbd6f	-1.224531
16	0x3e054172	0.13013247
17	0xbf7ce6a5	-0.98789436
18	0x3e0d8271	0.1381929
19	0xbf1577a4	-0.5838568
20	0x3f2de39c	0.6792543
21	0xbfdc2a4e	-1.720041
22	0xbd97fcab	-0.074212395
23	0xc02ea02c	-2.728526
24	0xbfb643c1	-1.4239427
25	0xbf45435b	-0.770559
26	0xbfc3269b	-1.5246156
27	0x3e5d99e9	0.21640743
28	0xbeac8490	-0.33694887
29	0xbff5c507	-1.9200753
30	0x3f3139d7	0.6922888
31	0xbfeac06b	-1.8339971

blocks.2.bn.running_var f4 [32]
0	0x413e3a75	11.889272
1	0x41136f83	9.214725
2	0x410548e4	8.330296
3	0x40dc420c	6.8830624
4	0x408d20ea	4.410268
5	0x4073acbc	3.8074179
6	0x40fc72d7	7.8890185
7	0x405b2d93	3.4246566
8	0x408b2d6f	4.349296
9	0x40a8fd56	5.280925
10	0x40a5fde1	5.187241
11	0x40a28192	5.0783167
12	0x4086620b	4.199468
13	0x410a1119	8.629174
14	0x41185e26	9.522985
15	0x409266f8	4.5750694
16	0x4057349d	3.3625863
17	0x40d27cab	6.5777183
18	0x409b3811	4.850594
19	0x40d6262c	6.6921597
20	0x4035f889	2.8432944
21	0x40437f41	3.054642
22	0x4068135c	3.6261816
23	0x40cb41fe	6.3518057
24	0x4015160d	2.3294709
25	0x406f3cea	3.738093
26	0x4075a4a1	3.8381732
27	0x410ced9a	8.808008
28	0x40eca6c1	7.3953557
29	0x413bfb7b	11.748897
30	0x40f21781	7.565369
31	0x40bf1889	5.971745

blocks.3.conv.weight f4 [32, 32, 3, 3]
0	0xbe35b634	-0.17745286
1	0xbdffc90f	-0.12489521
2	0xbe8f3c9c	-0.2797593
3	0xbccb4dee	-0.024817433
4	0xbeb82938	-0.35968947
5	0xbe406e56	-0.1879209
6	0xbd9e15d2	-0.07719006
7	0xbe6780fe	-0.226078
8	0xbdefa954	-0.11702219
9	0xbd4d4e30	-0.050123394
10	0x3cc44c9c	0.023962311
11	0xbdb6c485	-0.08924202
12	0xbc0dae12	-0.008647459
13	0x3e16deab	0.14733379
14	0x3e15f1a9	0.14642967
15	0x3d993fd5	0.07482878
16	0x3e691810	0.22763085
17	0x3e919337	0.2843263
18	0xbd98e037	-0.074646406
19	0x3d023b99	0.031795118
20	0xbe15d649	-0.14632525
21	0xbe451451	-0.19246031
22	0x3d27e74a	0.04099206
23	0x3cd092a8	0.025460556
24	0xbd0959b3	-0.03353281
25	0xbe1e27ed	-0.15444918
26	0xbde2cada	-0.11073847
27	0xbdc74778	-0.097304285
28	0x3b97e896	0.0046358807
29	0x3b989a25	0.0046570473
30	0x3dcaa381	0.09894467
31	0xbe4b4341	-0.19849874
32	0xbd9788a0	-0.07399106
33	0x3b9a4d9e	0.0047089597
34	0x3d762bc4	0.060100332
35	0x3d0257b2	0.031821914
36	0xbe283819	-0.1642765
37	0xbc0bf4e0	-0.0085422695
38	0xbb191103	-0.0023356087
39	0xbe362e6d	-0.17791148
40	0x3e1cbd21	0.15306522
41	0xbe370b1d	-0.17875333
42	0x3da06b27	0.07832938
43	0x3d9f778b	0.07786473
44	0xbd24312b	-0.040085953
45	0x3dc8674c	0.09785327
46	0x3d35c7b8	0.04437992
47	0x3db69f1f	0.08917069
48	0xbe17f7de	-0.14840648
49	0x3dbf2cd1	0.0933472
50	0x3db8f8d8	0.09031838
51	0x3dd48f54	0.103789
52	0xbccbe901	-0.024891378
53	0x3d965c0a	0.07341774
54	0x3e791976	0.24326119
55	0x3d7d7905	0.06188299
56	0xbcda1304	-0.026620395
57	0x3e8f305b	0.2796658
58	0x3de0383b	0.10948225
59	0x3e0f2887	0.13980304
60	0x3e124aed	0.14286394
61	0xbcd68bd4	-0.026189722
62	0x3c753a45	0.014967506
63	0xbe41a12c	-0.18909138
64	0x3e529e49	0.20568193
65	0x3d2f6639	0.042822096
66	0x3e675eb6	0.22594723
67	0xbdc1fef6	-0.09472458
68	0x3d133637	0.035940375
69	0x3d81deab	0.06341299
70	0xbb0a7b45	-0.0021130603
71	0x3dd18a6c	0.1023148
72	0xbe279dee	-0.16368839
73	0xbdae762a	-0.08518632
74	0x3dcff4bd	0.10154102
75	0x3e3cbb1b	0.1843075
76	0xbd507007	-0.050888088
77	0x3e638805	0.22219856
78	0xbe43a22e	-0.19104835
79	0xbd75ee52	-0.060041733
80	0x3d91a537	0.0711159
81	0x398668af	0.00025636467
82	0xbd61f490	-0.055164874
83	0x3e952958	0.29133105
84	0xbd132ca7	-0.035931256
85	0xbcd862cb	-0.026414296
86	0x3e16ca8b	0.14725702
87	0xbceb06d3	-0.028689777
88	0x3d4c7583	0.049916755
89	0x3e42244c	0.18959159
90	0xbe477120	-0.19476748
91	0xbce3c699	-0.02780466
92	0x3e0d3280	0.13788795
93	0x3e18ce51	0.14922453
94	0xbcbefd62	-0.023314182
95	0xbd6f6daa	-0.058454193
96	0xbe19f068	-0.15033114
97	0x3ca0169e	0.019542035
98	0x3bc8d56f	0.006128959
99	0x3c2ec76c	0.010667663
100	0xbd102630	-0.03519267
101	0xbca3abee	-0.019979443
102	0xbd553b70	-0.052058637
103	0xbce82583	-0.0283382
104	0x3b22b333	0.002482605
105	0xbe85c3bb	-0.26125893
106	0xbe0b4d90	-0.13603806
107	0x3e178d95	0.14800103
108	0xbd96ec32	-0.073692694
109	0xbd83cbc8	-0.064353526
110	0xbde77d31	-0.11303175
111	0x3d9f4e6b	0.07778629
112	0xbb82954f	-0.003985084
113	0x3d9a64b4	0.07538739
114	0x3d282b73	0.04105706
115	0xbc6bf500	-0.014401674
116	0xbc90c22f	-0.017670719
117	0x3dbd8d80	0.092555046
118	0x3e295ebe	0.16540048
119	0x3bcdbf12	0.006278881
120	0x3d206869	0.039162073
121	0x3dd49ce3	0.10381486
122	0x3e15eafe	0.14640424
123	0x3c988c27	0.018621517
124	0xbe8d3b1f	-0.27584168
125	0xbdddc929	-0.10829384
126	0xbe92b8a2	-0.2865649
127	0xbd9f3f7a	-0.07775779
128	0xbdc3b8cc	-0.095567316
129	0xbe18cbd1	-0.149215
130	0x3c1a89cc	0.009432267
131	0xbd9be057	-0.07611149
132	0xbe2c2a45	-0.16813
133	0x3e5238a8	0.20529425
134	0xbd910c52	-0.07082428
135	0xbd775a99	-0.060389135
136	0xbe1d5397	-0.15363918
137	0xbe45a9ee	-0.19303104
138	0xbe0c0d48	-0.13676941
139	0xbd57a9ff	-0.052652355
140	0x3e73ac9e	0.23796317
141	0xbde9b823	-0.114120744
142	0xbcb9817c	-0.02264475
143	0x3e2bff4a	0.16796604
144	0x3d19bf3d	0.037535895
145	0xbe282a19	-0.16422309
146	0x3d8aade9	0.06771452
147	0x3d80f59f	0.062968485
148	0xbd793d7d	-0.060849655
149	0x3d816acf	0.063192
150	0x3e3e435f	0.18580388
151	0xbca2498b	-0.019810459
152	0xbe0fdfba	-0.14050189
153	0xbc785808	-0.015157707
154	0x3d8c25d5	0.068431534
155	0x3e3f136a	0.1865975
156	0x3c8c5251	0.017129095
157	0x3e070595	0.13185723
158	0x3e7acbae	0.2449176
159	0xbd1eb552	-0.03874714
160	0xbdace6e2	-0.08442475
161	0x3dcc53d8	0.099769294
162	0xbd7e4601	-0.06207848
163	0xbdb55a3a	-0.088551
164	0x3ddb2d8c	0.10702047
165	0x3c7c37bd	0.015394148
166	0x3dcbdb92	0.09953989
167	0x3db95622	0.09049632
168	0x3ce04812	0.027378116
169	0xbd915ae8	-0.07097417
170	0x3df4a67c	0.11945817
171	0x3db4e97f	0.08833598
172	0xbe819229	-0.25306824
173	0xbe099347	-0.13435088
174	0x3e0f00f5	0.13965209
175	0xbde18f27	-0.11013632
176	0x3c4205d2	0.011842208
177	0x3d4bf459	0.049793575
178	0xbe92451a	-0.28568345
179	0xbe1b081f	-0.15139817
180	0xbe1ab893	-0.15109472
181	0x3da5f1e9	0.08102781
182	0x3e12bdc5	0.14330204
183	0x3d4ecbbf	0.050487276
184	0xbdd9776f	-0.10618483
185	0xbdaae555	-0.08344523
186	0xbe3750cd	-0.17901917
187	0x3dcaa067	0.098938756
188	0xbcd72092	-0.026260648
189	0x3e16ee35	0.14739306
190	0x3cbddc3e	0.023176309
191	0x3d830e0b	0.06399163
192	0x3d3c5759	0.04598174
193	0x3e1cb1ec	0.15302247
194	0x3dc7edb5	0.09762136
195	0xb9734946	-0.00023201582
196	0x3de795d6	0.11307876
197	0x3d37bbb0	0.044856727
198	0xbe40215c	-0.18762726
199	0x3ccafad7	0.024777813
200	0xbd5dceec	-0.054152414
201	0xbd389b47	-0.04506996
202	0xbd80e4a6	-0.06293611
203	0xbe15ce62	-0.1462951
204	0xbd1953b1	-0.03743333
205	0x3dcd48fb	0.100236855
206	0xbe746e0c	-0.23870105
207	0xbe0b489d	-0.13601919
208	0x3c20dbab	0.009817998
209	0x3e5efd79	0.2177638
210	0xbd819df2	-0.06328954
211	0xbea34074	-0.3188511
212	0x3cede244	0.029038556
213	0x3e2ce1ab	0.1688296
214	0x3e1dc88a	0.15408531
215	0x3e0cbf33	0.13744812
216	0x3e173fb6	0.14770398
217	0x3d84f7a0	0.06492543
218	0xbc357cae	-0.011077089
219	0xbe07d689	-0.13265432
220	0x3dcb09d8	0.09913987
221	0xbe75906b	-0.23980872
222	0xbd0a4aee	-0.033762865
223	0xbd8c5bbd	-0.06853435
224	0xbe2b6041	-0.16735937
225	0x3e01d506	0.12678918
226	0xbd095bea	-0.03353492
227	0xbcca31e2	-0.02468199
228	0xbd513cae	-0.05108326
229	0xbdd82127	-0.10553198
230	0xbcc7a17f	-0.024369
231	0x3d82debe	0.06390141
232	0x3ca2ba9f	0.019864378
233	0xbe048554	-0.12941486
234	0x3e24ba9a	0.16086808
235	0xbe515601	-0.20442964
236	0xbe369618	-0.17830694
237	0xbd2f477e	-0.04279279
238	0xbde8ad9f	-0.113612406
239	0xbdc53f88	-0.09631258
240	0x3d8719d2	0.06596722
241	0xbd11faf0	-0.035639703
242	0xbcc4a42c	-0.024004065
243	0xbd858803	-0.06520083
244	0xbc510f29	-0.012759962
245	0x3e08f978	0.13376415
246	0xbde516cb	-0.11185988
247	0x3d75ea92	0.060038157
248	0xbdb7bdca	-0.08971746
249	0xbd0097af	-0.031394657
250	0x3d49bd5b	0.04925285
251	0x3e3b92f5	0.18317778
252	0xbddae790	-0.10688698
253	0x3e04a698	0.12954175
254	0xbe741045	-0.23834331
255	0xbe4e53b8	-0.20149124
