models/141.pth (torch, 501905 bytes, 80 tensors)

conv0.conv.weight f4 [32, 17, 3, 3]
0	0xbe106903	-0.14102559
1	0x3e5c343a	0.21504298
2	0xbac06bb2	-0.0014680533
3	0x3e5b0cf3	0.21391658
4	0xbe3a927d	-0.18219943
5	0x3e988097	0.29785606
6	0xbd0ab61a	-0.03386507
7	0x3e3e805d	0.18603654
8	0x3d03bc9f	0.032162305
9	0x3e178f31	0.14800717
10	0xbc823636	-0.01589499
11	0x3dc35595	0.09537808
12	0x3cfee583	0.0311153
13	0xbe00670f	-0.12539314
14	0x3da5f62c	0.08103594
15	0x3ded88af	0.11598336
16	0x3b850fcd	0.0040607215
17	0x3cf2c7fe	0.02963638
18	0x3cab5572	0.020914767
19	0xbd55a867	-0.052162554
20	0xbc9fa350	-0.019487053
21	0xbda06cd5	-0.07833258
22	0x3b60c0a4	0.003429451
23	0x3de39633	0.111126326
24	0x3d16f006	0.036849998
25	0xbd591634	-0.05299969
26	0xbcc15860	-0.02360171
27	0xbdeff6dd	-0.11717007
28	0x3dfe6df9	0.12423319
29	0xbe04ebe0	-0.12980604
30	0x3d200e3c	0.039076075
31	0xbd202db3	-0.039106082
32	0x3d9a1d75	0.0752515
33	0x3dab4bbe	0.08364056
34	0xbe2e3178	-0.17011058
35	0xbcb1bfdb	-0.02169793
36	0x3dc2343b	0.094826184
37	0x3e303bf9	0.17210378
38	0x3df615e5	0.12015895
39	0x3e6673ae	0.22505066
40	0xbec58dc4	-0.3858472
41	0x3e96d84f	0.29461905
42	0x3e1093c9	0.14118876
43	0x3e88ed60	0.26743603
44	0x3e64ebb7	0.22355543
45	0x3db88e1f	0.090114824
46	0x3e041cf9	0.12901677
47	0x3e1bfeeb	0.15233962
48	0x3e87a74b	0.26494822
49	0xbd1810e2	-0.037125476
50	0x3e05cca7	0.1306635
51	0x3e7dd93d	0.24789901
52	0x3dcd470e	0.10023318
53	0x3dd96c45	0.10616354
54	0x3cbba2d5	0.022904793
55	0x3e434ca2	0.19072202
56	0x3d401244	0.04689242
57	0x3e636781	0.22207452
58	0xbde804dc	-0.11329052
59	0x3e129658	0.14315164
60	0x3e3f640a	0.18690506
61	0x3e07b072	0.13250902
62	0x3d7102d2	0.05884058
63	0xbd24568a	-0.040121593
64	0x3e53577c	0.20638841
65	0x3dd869d6	0.105670616
66	0x3dddf102	0.10836984
67	0xbdc4a06e	-0.09600912
68	0x3e7ad92b	0.24496906
69	0x3e5304c5	0.20607288
70	0x3dfcd515	0.1234533
71	0x3e31cef5	0.17364104
72	0x3ae5f2a8	0.0017543631
73	0x3d856c8a	0.06514843
74	0x3cf3fab1	0.029782625
75	0x3d09ed06	0.03367331
76	0x3e97a488	0.29617715
77	0x3da6e870	0.08149803
78	0xbc2fe37e	-0.010735391
79	0x3dc2c7a2	0.09510733
80	0x3aef5d60	0.0018262081
81	0xbb426014	-0.0029659318
82	0x3d1f3146	0.03886535
83	0xbd8964ee	-0.06708704
84	0x3d0cef37	0.03440782
85	0x3ee767e7	0.4519646
86	0x3cd0b75c	0.025478058
87	0xbcaa4e4d	-0.02078929
88	0x3d964bbc	0.07338664
89	0x3c15ac10	0.009135261
90	0x3ca030a1	0.019554438
91	0x3ddf5480	0.10904789
92	0x3cecf8ac	0.02892717
93	0x3dd7be21	0.10534311
94	0x3ebf635d	0.37380496
95	0x3d03d7d0	0.032188237
96	0xbc0133d0	-0.007885888
97	0x3d98c714	0.07459846
98	0xbd66070b	-0.05615906
99	0xb9bf2a32	-0.00036461797
100	0x3e12e6ce	0.14345858
101	0x3d3e1ac2	0.046412237
102	0x3d38db41	0.04513097
103	0x3e9e6df1	0.30943254
104	0x3cc15291	0.023598941
105	0xbd67b03b	-0.05656455
106	0x3e057ec5	0.1303664
107	0x3da24464	0.07923201
108	0x3c857c24	0.016294546
109	0xbda0ae0e	-0.07845698
110	0x3deff69f	0.11716961
111	0xbe40a720	-0.18813753
112	0xbe32cef8	-0.17461765
113	0xbe21d996	-0.15805659
114	0x3d570e1e	0.052503698
115	0xbd03fbc6	-0.03222253
116	0x3d850850	0.06495726
117	0xbdd6c9d4	-0.104877144
118	0x3db06005	0.08612064
119	0x3d9275a7	0.07151347
120	0x3db5007e	0.088379845
121	0x3e01eb39	0.12687387
122	0xbd32b43b	-0.043628912
123	0xbd69836a	-0.05701009
124	0x3d974f29	0.073881455
125	0x3d7d3b5f	0.0618242
126	0xbcea2808	-0.028583542
127	0x3da2a533	0.079416655
128	0x3d290e5c	0.04127346
129	0x3d50fc45	0.051021833
130	0x3e2b7e84	0.1674748
131	0xbdb22b79	-0.08699698
132	0xbdee484a	-0.11634882
133	0xbd4275f6	-0.047475778
134	0xbdacfd69	-0.08446772
135	0x3bfbf245	0.007688793
136	0x3cf1a015	0.029495278
137	0x3e11c8e0	0.14236784
138	0x3c83a30b	0.016068956
139	0x3d704490	0.058659136
140	0xbdac2b3a	-0.08406682
141	0xbdd0b313	-0.10190406
142	0xbcbbea8a	-0.022938985
143	0x3d219bac	0.0394551
144	0xbce6c7f3	-0.028171515
145	0x3bcb077e	0.0061959615
146	0xbd6872ab	-0.05674998
147	0x3e15465d	0.14577623
148	0xbbb460dd	-0.005504711
149	0x3dc00f4d	0.093779184
150	0xbb657d45	-0.0035017293
151	0x3d921c43	0.07134297
152	0x3c4aa7fe	0.012369154
153	0x3d97b6fb	0.07407948
154	0x3c81a033	0.01582346
155	0x3c5b6577	0.01339089
156	0xbdd32c8b	-0.1031123
157	0xbec0bb8d	-0.3764309
158	0x3e43366d	0.1906373
159	0x3cccdac3	0.025006657
160	0xbd69bd60	-0.057065368
161	0xbda8cd10	-0.082422376
162	0xbdcae3a8	-0.09906703
163	0x3e28f259	0.16498698
164	0xbdc424e3	-0.09577348
165	0xbdb56645	-0.08857397
166	0x3b8aaa9f	0.0042317654
167	0xbec5a454	-0.38601935
168	0x3e4caf5e	0.19988772
169	0xbdc2815e	-0.09497331
170	0xbe6f81ac	-0.2338931
171	0xbd40ea3a	-0.047098376
172	0x3e333ad1	0.17502905
173	0xbe66ce76	-0.22539696
174	0xbd95fc53	-0.07323518
175	0x3de4f2a2	0.11179091
176	0xbe5dedab	-0.21672694
177	0x3cc46fd8	0.023979113
178	0xbe81ec06	-0.25375384
179	0xbe0ba892	-0.13638523
180	0xbe4c6c3d	-0.19963165
181	0x3e27b5b1	0.16377904
182	0x391e5cd4	0.00015102635
183	0x3d440051	0.047851864
184	0x3dd49866	0.1038063
185	0xbefd6890	-0.49493837
186	0x3dddfec0	0.10839605
187	0xbe4d8888	-0.20071614
188	0x3c82c246	0.015961777
189	0xbe2a0506	-0.16603479
190	0xbe0018db	-0.12509482
191	0xbdc27cee	-0.09496485
192	0xbc2b57bc	-0.010457929
193	0xbea8dc77	-0.329807
194	0xbe956131	-0.29175714
195	0x3a9c2ee0	0.0011915825
196	0xbd6b711e	-0.057480924
197	0xbe3d2139	-0.18469705
198	0xbe2222f7	-0.1583365
199	0xbe16c3e2	-0.14723161
200	0xbe5f85bc	-0.2182836
201	0xbd88a4e7	-0.066720776
202	0xbe4d4392	-0.20045307
203	0xbe927bbd	-0.2861003
204	0xbea0dd39	-0.3141878
205	0xbde51286	-0.11185174
206	0xbeb7eb2b	-0.35921606
207	0xbe706e45	-0.23479564
208	0xbe84547a	-0.258457
209	0xbe839da3	-0.25706205
210	0xbdd80155	-0.10547129
211	0xbe0f2ddf	-0.13982342
212	0xbda72f13	-0.081632756
213	0xbdf03e24	-0.117306024
214	0xbea11c64	-0.31466973
215	0xbf1bf483	-0.6091997
216	0xbe01cd35	-0.12675937
217	0xbe61121b	-0.21979563
218	0xbe7c532b	-0.24641101
219	0xbe5a987c	-0.2134723
220	0xbe41e1ef	-0.18933843
221	0xbe7d0c58	-0.2471174
222	0xbd3b69eb	-0.045755308
223	0xbe0a73f7	-0.135208
224	0xbe5c6532	-0.21522978
225	0xbd8ce376	-0.06879322
226	0x3d786c13	0.060649943
227	0x3dd45792	0.10368265
228	0x3ce9e6e4	0.02855248
229	0xbecf7893	-0.40521678
230	0x3db6ba9b	0.08922311
231	0xbd6190b8	-0.055069655
232	0xbc355f8b	-0.0110701425
233	0x3e0ce58f	0.13759445
234	0xbca843e9	-0.020540195
235	0x3ddc82aa	0.1076711
236	0x3e04b8a9	0.12961067
237	0x3cc65e24	0.024214812
238	0x3d4d3ccd	0.050106812
239	0x3e218b19	0.15775718
240	0xbc4e632b	-0.012596886
241	0x3dd5cf2d	0.10439906
242	0x3d1d3511	0.038380686
243	0x3cddc7c3	0.027072793
244	0x3e03d0e9	0.12872662
245	0x3d1f8944	0.038949266
246	0x3e010fdb	0.12603705
247	0x3d17083f	0.0368731
248	0x3d806cb1	0.06270731
249	0x3d812506	0.0630589
250	0x3e20baf1	0.15696312
251	0x3e147a38	0.14499748
252	0xbbc6eabe	-0.006070464
253	0x3dba7228	0.09103805
254	0x3e3671ea	0.17816892
255	0xbc4dd542	-0.012563052

conv0.conv.bias f4 [32]
0	0xba84104e	-0.001007566
1	0xbb3245d1	-0.0027202258
2	0xbd010053	-0.03149445
3	0xbae049fb	-0.0017111892
4	0xbb0877dc	-0.0020823395
5	0xba6d772a	-0.00090585893
6	0x3b3b77ec	0.0028605415
7	0x3b9dc913	0.0048152297
8	0xbbaeb1cb	-0.005331253
9	0xbc36515a	-0.011127794
10	0xbb724b37	-0.00369711
11	0xbc678e4e	-0.014133049
12	0x3a56cf4f	0.00081943435
13	0x3a16ada6	0.00057479215
14	0x3b2587a5	0.0025257852
15	0x3b4eca68	0.003155375
16	0xba62d4b7	-0.0008652913
17	0x3be36cd6	0.0069404645
18	0x3a701556	0.0009158453
19	0x3ab26d20	0.0013612844
20	0xb97b7f21	-0.00023984585
21	0x3cdbecef	0.026846377
22	0x3b41954b	0.0029538448
23	0x3ac26c43	0.001483329
24	0x3c79b0da	0.015239919
25	0xbcc71489	-0.024301784
26	0x3a0814c2	0.00051910814
27	0xbc16d2b1	-0.009205506
28	0xbb3fdff0	-0.0029277764
29	0xba30ac8a	-0.00067395775
30	0x3bd4c143	0.006492765
31	0xbb5efc33	-0.0034024834

conv0.bn.weight f4 [32]
0	0x3f5cbfea	0.8623034
1	0x3f46138b	0.7737357
2	0x3f3bbda0	0.7333622
3	0x3f594894	0.8487637
4	0x3f35fb8c	0.71086955
5	0x3f47166b	0.7776858
6	0x3f4b50b6	0.7942003
7	0x3f53d635	0.8274873
8	0x3f6e6727	0.9312615
9	0x3f51ee94	0.82004666
10	0x3f3ec007	0.7451176
11	0x3f361e1a	0.7113968
12	0x3f493ee7	0.78611606
13	0x3f682c73	0.90692824
14	0x3f41d4e9	0.757155
15	0x3f7d0457	0.9883475
16	0x3f4953e5	0.7864364
17	0x3fa22f35	1.2670656
18	0x3f508f12	0.8146831
19	0x3f437fb8	0.7636676
20	0x3f432df6	0.76242006
21	0x3f6d9775	0.9280923
22	0x3f4ec449	0.8076826
23	0x3f417498	0.7556853
24	0x3f71575a	0.9427391
25	0x3f4c98e3	0.79920787
26	0x3f651090	0.894784
27	0x3f531872	0.82459176
28	0x3f762513	0.9615032
29	0x3f4e1538	0.8050113
30	0x3f4d254a	0.80135024
31	0x3f34b724	0.7059195

conv0.bn.bias f4 [32]
0	0xbf0a4ee9	-0.5402666
1	0xbe094e1b	-0.13408701
2	0xbdc0a2fb	-0.09406086
3	0xbebd1b76	-0.36935014
4	0xbe765898	-0.24057233
5	0xbd8e8823	-0.0695956
6	0xbd2115a0	-0.039327264
7	0xbeb9c9ca	-0.36286765
8	0xbe17ede7	-0.14836846
9	0xbe907554	-0.28214514
10	0xbe06abd9	-0.13151492
11	0x3dad1a2d	0.08452258
12	0xbe3e3bc5	-0.18577488
13	0xbea4c37a	-0.32180387
14	0xbe9dfdea	-0.30857784
15	0xbe22113f	-0.15826891
16	0xbe0ec024	-0.13940483
17	0xbd7476ba	-0.05968354
18	0xbdfca2a3	-0.12335708
19	0xbe943fb9	-0.28954867
20	0xbe1e3bff	-0.15452574
21	0x3d287dba	0.041135527
22	0xbe354151	-0.17700697
23	0xbe780bf9	-0.24223317
24	0xbdcd10ea	-0.10012992
25	0xbe550ba6	-0.20805225
26	0xbe970c0d	-0.29501382
27	0xbcdc1ef3	-0.026870226
28	0xbe2b2fc5	-0.16717441
29	0x3e7416f0	0.23836875
30	0xbe1b2cbf	-0.15153788
31	0xbcb8def9	-0.02256726

conv0.bn.running_mean f4 [32]
0	0x3e80ad3d	0.2513217
1	0x3d76c6aa	0.060248055
2	0xbd5ece5a	-0.05439601
3	0xbdb1e3fd	-0.086860634
4	0xbcf3993b	-0.029736152
5	0xbbe1ea58	-0.006894391
6	0xbe58526d	-0.21125193
7	0x3e753650	0.239465
8	0xbe09b854	-0.13449222
9	0xbdf767d2	-0.12080349
10	0xbc4a362f	-0.01234202
11	0xbd7e011d	-0.06201278
12	0xbd3fa078	-0.046783894
13	0xbd4d60d2	-0.050141163
14	0x3db4aaec	0.08821663
15	0x3e45c71e	0.19314238
16	0x3de05e1f	0.10955452
17	0xbdeb9cc5	-0.11504511
18	0xbe07683d	-0.13223357
19	0xbd438d4e	-0.04774218
20	0x3bc5170e	0.006014711
21	0xbd02e247	-0.031954076
22	0xbd0d9ce2	-0.034573443
23	0x3de23950	0.11046088
24	0xbd7bdcef	-0.061489996
25	0xbe052806	-0.13003549
26	0xbcf52915	-0.029926816
27	0xbd87d313	-0.06632056
28	0x3e4eaf0f	0.20183967
29	0x3db31b91	0.08745492
30	0xbdfb290a	-0.12263687
31	0x3dea9e86	0.11456017

conv0.bn.running_var f4 [32]
0	0x3d9bd9e3	0.07609918
1	0x3d8fc4ff	0.07019996
2	0x3da6c67d	0.081433274
3	0x3d828fe1	0.06375099
4	0x3d83c095	0.064332165
5	0x3d81e2bf	0.063420765
6	0x3df902de	0.1215875
7	0x3d754e28	0.05988899
8	0x3dbb4109	0.09143264
9	0x3dbda514	0.09260002
10	0x3d5a58e5	0.053307433
11	0x3dacb9e7	0.084338956
12	0x3d90dfd7	0.07073944
13	0x3d3b4385	0.04571869
14	0x3d80ad2a	0.062830284
15	0x3d736220	0.05941975
16	0x3d5749e3	0.0525607
17	0x3daaa28b	0.08331784
18	0x3daae570	0.08344543
19	0x3d6a9859	0.057274196
20	0x3dc9d901	0.09855843
21	0x3d93afbb	0.07211252
22	0x3d60176a	0.05470983
23	0x3d654e94	0.05598314
24	0x3d6dd2ad	0.058062244
25	0x3d9e7b02	0.07738306
26	0x3d5d8d63	0.054089915
27	0x3d548f84	0.05189468
28	0x3d97ff12	0.07421698
29	0x3d68a989	0.056802306
30	0x3d834c53	0.06411042
31	0x3d92fa5b	0.07176658

blocks.0.conv.weight f4 [32, 32, 3, 3]
0	0x3e41ec71	0.18937851
1	0xbdeb9aa3	-0.11504104
2	0x3de2244d	0.1104208
3	0xbe6e9c24	-0.2330175
4	0x3dbd5eea	0.09246619
5	0xbdd0a597	-0.10187834
6	0x3e394e88	0.18096364
7	0xbe12d950	-0.1434071
8	0x3db10c8d	0.08644972
9	0xbcd91d77	-0.026503308
10	0x3d2a2965	0.041543383
11	0xbd7cfebd	-0.061766375
12	0xbd79da0e	-0.06099897
13	0xbd9b1b88	-0.075736105
14	0xbd32e18d	-0.043672133
15	0x3d95bdde	0.07311605
16	0x3af984d2	0.0019036776
17	0xbdfbfffa	-0.12304683
18	0x3df2c5b0	0.11854112
19	0xbc8a2e07	-0.01686765
20	0xbd929d5b	-0.071589194
21	0xbd815fe9	-0.063171215
22	0xbe09274c	-0.13393897
23	0x3cca15eb	0.024668654
24	0xbcbe1345	-0.023202548
25	0xbce8c903	-0.028416162
26	0xbbf00c27	-0.0073256674
27	0x3d1bb862	0.038017638
28	0x3db812e3	0.08987977
29	0x3d9deb91	0.07710946
30	0x3cc59af3	0.024121737
31	0xbd7beba8	-0.061504036
32	0x3d71eabf	0.059061762
33	0xbcd9360d	-0.026515031
34	0xbddb5cdc	-0.10711071
35	0x3d0cd5f1	0.034383718
36	0x3a57b33a	0.0008228306
37	0x3e5fbc08	0.21849072
38	0x3d005ab6	0.03133651
39	0x3cec52e3	0.028848117
40	0x3dc02fa2	0.09384085
41	0x3e0385b8	0.12843978
42	0xbe0521ae	-0.13001129
43	0xbd3f29a7	-0.046670582
44	0x3c778aaf	0.015108748
45	0x3db7ca29	0.08974106
46	0xbe08411f	-0.13306092
47	0xbda103ec	-0.07862076
48	0xbd288c48	-0.041149408
49	0xbd6b36aa	-0.05742518
50	0x3ce8c173	0.028412556
51	0x3dfc80fd	0.1232929
52	0x3c816ead	0.015799845
53	0x3e567158	0.20941675
54	0x3d4cc059	0.049988125
55	0xbdf4c996	-0.11952512
56	0xbddf84d6	-0.10914008
57	0xbdabf6bc	-0.0839667
58	0x3df47609	0.11936576
59	0xbe3371e5	-0.17523916
60	0xbbb99815	-0.0056638815
61	0x3d500e39	0.050794814
62	0xbd97fdb0	-0.07421434
63	0x3e4335f0	0.19063544
64	0x3e517f3a	0.2045869
65	0x3e69c133	0.22827606
66	0x3df906de	0.12159513
67	0x3e05ba57	0.13059364
68	0x3d1040f7	0.035218205
69	0x3ddf651f	0.10907959
70	0x3cf7d5b2	0.030253265
71	0x3d91b7e2	0.07115151
72	0x3d17bade	0.037043445
73	0xbeb73d1f	-0.3578882
74	0xbdc73778	-0.09727377
75	0xbdee3774	-0.116316706
76	0x3e2bd2b5	0.16779597
77	0x3d5e5d46	0.05428817
78	0xbdfb49b5	-0.12269918
79	0x3e81d66b	0.253589
80	0xbe17dbd8	-0.14829957
81	0xbdf182ee	-0.11792551
82	0x3d89ec91	0.067345746
83	0xbc1b73d9	-0.009488069
84	0xbd288166	-0.04113903
85	0x3e10a6e9	0.14126171
86	0x3deb6524	0.114939004
87	0x3e215f7e	0.15759084
88	0xbcf583b1	-0.029970022
89	0xbcf5b42f	-0.029993145
90	0x3e0e5fe4	0.13903767
91	0xbdf5f40b	-0.12009438
92	0x3d39a516	0.045323454
93	0x3caa8e0a	0.020819683
94	0x3e5c9db8	0.2154454
95	0xbc916614	-0.01774887
96	0x3e0a8dea	0.13530698
97	0x3cbdcc82	0.023168806
98	0x3cba8aaa	0.022771198
99	0x3c0f2197	0.008736036
100	0xbc7912bc	-0.0152022205
101	0x3e7ec12a	0.24878374
102	0x3d0008e1	0.031258468
103	0x3dd1dca8	0.10247165
104	0x3d451f94	0.04812582
105	0x3e3d4a33	0.18485336
106	0xbde67358	-0.11252469
107	0x3c4ddd94	0.012565035
108	0xbec0c7d8	-0.3765247
109	0xbcf7eb18	-0.030263469
110	0x3d656c3c	0.056011423
111	0x3e38931f	0.18024872
112	0x3cf99413	0.030466115
113	0xbca371bb	-0.019951692
114	0xbc301c0c	-0.010748874
115	0x3e3797ad	0.17928953
116	0xbe246c25	-0.16056879
117	0xbd4f620c	-0.050630614
118	0xbd4fc8b7	-0.050728526
119	0xbe70b327	-0.23505841
120	0x3d026176	0.031831227
121	0xbe1a1bd6	-0.15049681
122	0xbdc1a489	-0.09455211
123	0xbdd22d3f	-0.10262536
124	0xbd94c6ee	-0.07264505
125	0x3e112c18	0.14176977
126	0xbde1f780	-0.11033535
127	0x3d987408	0.07444006
128	0xbe043911	-0.12912394
129	0x3d0451d8	0.032304615
130	0xbd3d27be	-0.04618048
131	0xbe30cbb4	-0.17265207
132	0x3cd01d5c	0.025404625
133	0xbe263249	-0.1623012
134	0xbd771370	-0.06032127
135	0xbc25d0d2	-0.010120587
136	0x3d7f0361	0.06225908
137	0x3dca6920	0.09883332
138	0x3e6b3909	0.22970976
139	0x3d3b4ee4	0.045729533
140	0x3c182502	0.009286167
141	0x3ccadfea	0.024764974
142	0x3d77b1c5	0.06047227
143	0x3d9b8c43	0.07595112
144	0x3da313df	0.079627745
145	0xbcd004f4	-0.025392987
146	0x3d3d4efb	0.0462179
147	0x3db66f70	0.08907974
148	0xbda82f70	-0.08212173
149	0x3c3643b4	0.01112454
150	0x3c4dfe0e	0.012572778
151	0x3e5fc27c	0.21851534
152	0x3ddee8d6	0.10884254
153	0x3c5237b4	0.0128306635
154	0x3e2fce44	0.17168528
155	0x3d9942c7	0.0748344
156	0x3b477ebd	0.0030440532
157	0xbf7ed784	-0.995476
158	0x3dc49016	0.09597795
159	0x3dbf11f2	0.09329595
160	0x3dbb5b05	0.0914822
161	0x3e459ffa	0.19299307
162	0xbd7d3f88	-0.061828166
163	0xbe322cb9	-0.17399873
164	0x3e501562	0.20320657
165	0x3e5d6292	0.21619633
166	0xbdd31032	-0.103058234
167	0x3d9e9aa2	0.077443376
168	0xbe20ec34	-0.15715104
169	0x3a3efaed	0.00072853157
170	0x3cc9742f	0.024591533
171	0xbe06cf15	-0.13164933
172	0xbdce2982	-0.10066511
173	0xbdcbbf52	-0.09948601
174	0xbe78eb3d	-0.24308486
175	0xbcc814b8	-0.024423942
176	0xbd9a2ef1	-0.075284846
177	0xbc4b7895	-0.012418886
178	0x3dc61375	0.0967168
179	0xbd7223a0	-0.059116006
180	0xbd9301e4	-0.07178095
181	0xbda12688	-0.078686774
182	0x3c797481	0.015225531
183	0xba4cd456	-0.0007813623
184	0xbe878670	-0.26469755
185	0xbe0058d8	-0.12533891
186	0xbcf5dc8b	-0.03001239
187	0xbd98c0d4	-0.07458654
188	0xbde10338	-0.10986942
189	0x3d3d2bc0	0.0461843
190	0x3ddb350e	0.10703479
191	0x3d9afba7	0.0756753
192	0x3d797cdd	0.060910095
193	0xbe18e8e0	-0.14932585
194	0x3da24497	0.07923239
195	0x3d9927cb	0.07478293
196	0x3e1dbd3a	0.15404215
197	0x3d4ed33d	0.05049442
198	0x3e06f1de	0.13178203
199	0xbd52dc39	-0.051479552
200	0x3d0c0561	0.034184817
201	0xbe6d75c6	-0.23189458
202	0x3e9dfdb2	0.30857617
203	0x3d4d923c	0.050188288
204	0x3cf664d2	0.030077372
205	0xbe0f2593	-0.13979177
206	0x3d8b3f74	0.06799212
207	0x3d89e848	0.06733757
208	0x3d2703b5	0.04077502
209	0x3e0f29d1	0.13980795
210	0x3d20b3a4	0.03923382
211	0x3d86d8ee	0.06584345
212	0x3dd10a2a	0.10207017
213	0xbd8f9870	-0.07011497
214	0x3de0b00c	0.10971078
215	0x3e20810d	0.15674229
216	0x3d9acbe6	0.07558422
217	0x3dd12c1d	0.10213492
218	0x3c102c12	0.00879957
219	0xbcb38d12	-0.021917854
220	0xbc2670fc	-0.0101587735
221	0x3d82e9cf	0.06392252
222	0x3d967298	0.07346076
223	0x3c977f3d	0.01849329
224	0x3dda0cfa	0.10647006
225	0x3d87ff2b	0.06640466
226	0xbdcc9bec	-0.09990677
227	0xbe1b2d7f	-0.15154074
228	0x3e345b1f	0.17612885
229	0x3b0a81c4	0.0021134475
230	0xbe912029	-0.2834485
231	0xbcbd751f	-0.023127137
232	0xbc175451	-0.009236411
233	0x3d870059	0.06591863
234	0x3de84b35	0.113424696
235	0xbde40478	-0.11133665
236	0xbcd20f73	-0.025642132
237	0xbe56fde6	-0.20995292
238	0xbe606883	-0.21914868
239	0x3d58551b	0.052815538
240	0x3b2e1c64	0.0026567215
241	0x3db897ca	0.090133265
242	0xbcd0caea	-0.025487382
243	0x3dcfaeba	0.10140748
244	0xbdcde795	-0.100539364
245	0xbd88ff6f	-0.06689345
246	0x3d6e13a7	0.05812421
247	0xbdd4f607	-0.103984885
248	0xbc99337a	-0.018701304
249	0x3da9833f	0.08276986
250	0x3caea9db	0.021321228
251	0x3ddb0ac5	0.106954135
252	0x3da11080	0.07864475
253	0xbe0d6d20	-0.13811159
254	0x3d04ba3b	0.032404166
255	0xbd94afc9	-0.07260091

blocks.0.conv.bias f4 [32]
0	0xba7873ff	-0.0009477734
1	0xb9838304	-0.0002508388
2	0x39a5f93a	0.0003165694
3	0xba56bed3	-0.0008191887
4	0xbb01ef16	-0.0019826344
5	0xbb31abaa	-0.0027110376
6	0xbb1d0f42	-0.0023965393
7	0x3a75181d	0.00093496015
8	0x3cbc22bf	0.022965787
9	0xb9cc680a	-0.00038987427
10	0x3a5c0249	0.00083926745
11	0x3a2e2030	0.00066423696
12	0x39402f42	0.00018328152
13	0x3aa7a994	0.0012791627
14	0x3a878906	0.0010340519
15	0x3b8bb7cd	0.004263854
16	0xb90629f3	-0.00012794863
17	0xbb890c32	-0.004182362
18	0xba84bd0e	-0.0010127143
19	0x37b48e71	2.1524002e-05
20	0xbb9e15b3	-0.004824364
21	0x3c1ff4b5	0.009762933
22	0xb89f90d0	-7.608684e-05
23	0xb7fcf016	-3.015254e-05
24	0xbc278e52	-0.010226803
25	0xbb8d0e99	-0.0043047187
26	0x3991edba	0.00027833675
27	0xb9543a4a	-0.0002023961
28	0x3a89474b	0.0010473517
29	0xb96b3111	-0.00022429625
30	0x3c9e53bb	0.019327035
31	0xbb30d211	-0.0026980678

blocks.0.bn.weight f4 [32]
0	0x3f651c53	0.89496344
1	0x3f59bebe	0.85056674
2	0x3f5b2754	0.85606885
3	0x3f657198	0.89626455
4	0x3f8dd185	1.1079565
5	0x3f558dba	0.8341938
6	0x3f4d2815	0.80139285
7	0x3f574d01	0.84101874
8	0x3f7a4273	0.97757643
9	0x3f7dfde9	0.9921556
10	0x3f63ed7e	0.8903426
11	0x3f829587	1.0201882
12	0x3f51cf0f	0.8195657
13	0x3f5790ca	0.84205306
14	0x3f6d6516	0.9273237
15	0x3f54c4ae	0.8311261
16	0x3f888a08	1.0667124
17	0x3f80045b	1.0001329
18	0x3f67861a	0.90439
19	0x3f5f6820	0.8726826
20	0x3f6ef65a	0.9334465
21	0x3f4b9f80	0.7954025
22	0x3f493ac4	0.78605294
23	0x3f696078	0.91162825
24	0x3f63fadc	0.89054656
25	0x3f7a3856	0.9774221
26	0x3f848e90	1.0356007
27	0x3f90797a	1.1287072
28	0x3f4bb68c	0.7957542
29	0x3f439c18	0.76410055
30	0x3f4185cd	0.7559479
31	0x3f8525c7	1.0402154

blocks.0.bn.bias f4 [32]
0	0xbf000f69	-0.50023514
1	0xbecfa8cc	-0.4055847
2	0xbcf6b59b	-0.030115893
3	0xbe22d2c1	-0.15900709
4	0xbe834a13	-0.25642452
5	0xbe144f25	-0.14483316
6	0xbe025cc7	-0.12730704
7	0xbe8dda5d	-0.2770566
8	0xbe5c13b6	-0.21491894
9	0xbe9f05a6	-0.31058997
10	0xbecba700	-0.39775848
11	0xbedd775f	-0.43255135
12	0xbeae778f	-0.3407559
13	0xbf0e022c	-0.55472064
14	0xbe322b5d	-0.17399354
15	0xbea4958c	-0.32145345
16	0xbf051c55	-0.51996356
17	0xbe96d08d	-0.29455987
18	0xbe1fab12	-0.15592602
19	0xbf1b3359	-0.60625225
20	0xbe7b60ac	-0.24548596
21	0xbdf260d1	-0.118348725
22	0xbefdc3ed	-0.49563542
23	0xbe99fcc4	-0.30075657
24	0xbe0d36ee	-0.13790485
25	0xbe925fdb	-0.28588757
26	0xbe9d5259	-0.3072689
27	0xbebfb12e	-0.37439865
28	0xbeeea286	-0.4660837
29	0xbe279886	-0.16366777
30	0x3d860cd2	0.06545414
31	0xbef6a570	-0.48173094

blocks.0.bn.running_mean f4 [32]
0	0x3ec924e3	0.39285955
1	0xbfa28098	-1.2695494
2	0x3fafaa5f	1.3723868
3	0xbeade9d6	-0.33967465
4	0xbf122a61	-0.57095915
5	0xc013b680	-2.308014
6	0xbfbb2f06	-1.4623725
7	0xbfe5ae9a	-1.7943909
8	0x3dcee1ed	0.10101686
9	0xbf8e5d46	-1.1122215
10	0xbf798e6b	-0.9748294
11	0xbf2bcb24	-0.67106843
12	0xbfb9e496	-1.4522884
13	0x3f84274c	1.0324492
14	0x3fd63ac6	1.6736686
15	0xbecb498d	-0.39704552
16	0xbee122d1	-0.43971875
17	0xbf7f0305	-0.9961398
18	0x3f0b2de5	0.54366904
19	0xbe26da0c	-0.16294116
20	0xbf914ec1	-1.1352159
21	0xbfc1998e	-1.5124986
22	0xbf663ef2	-0.89939797
23	0x3ec222e3	0.3791724
24	0xbf03b0bf	-0.5144157
25	0xbfd2c468	-1.6466188
26	0xbe5f3131	-0.21796109
27	0xbf78a252	-0.9712268
28	0xc01d1b62	-2.4547963
29	0x3e8487fb	0.25884995
30	0x3ed3e885	0.41388336
31	0xc0255577	-2.5833414

blocks.0.bn.running_var f4 [32]
0	0x3fb450ee	1.4087198
1	0x3fd5f040	1.6713943
2	0x405a6dcd	3.4129517
3	0x3ffd7c38	1.9803534
4	0x4063f9ca	3.562121
5	0x4052b652	3.292378
6	0x4042c423	3.0432212
7	0x3fa57133	1.2925171
8	0x3fd58aed	1.6683022
9	0x3f9fad1a	1.2474701
10	0x3fa6533c	1.2994151
11	0x3fbcf758	1.4762983
12	0x3fdb1754	1.7116494
13	0x3fd29189	1.6450664
14	0x4024b5d8	2.5735989
15	0x3fce32fb	1.6109308
16	0x3fc2b45b	1.521129
17	0x4059bdc4	3.4022074
18	0x3fb3f50a	1.4059155
19	0x3fbb2ccc	1.4623046
20	0x3fba8a18	1.4573393
21	0x40255390	2.5832253
22	0x3fb9f573	1.452803
23	0x3fe387d1	1.7775823
24	0x40837170	4.1075974
25	0x3fdf64b3	1.7452606
26	0x3fb61649	1.4225551
27	0x3ffeeda7	1.9916276
28	0x4035278d	2.830539
29	0x3fa6b9b8	1.3025427
30	0x400451d8	2.0674953
31	0x4027a14c	2.6192198

blocks.1.conv.weight f4 [32, 32, 3, 3]
0	0xbcebc11b	-0.028778603
1	0xbe101038	-0.14068687
2	0x3da84493	0.082162045
3	0xbe8dd4b7	-0.2770135
4	0x3e182e2c	0.14861363
5	0xbdd5e28a	-0.104435995
6	0x3e48aef8	0.19597995
7	0xbea93006	-0.3304445
8	0x3da1a1c2	0.07892181
9	0xbd51d25c	-0.051226005
10	0x3cd80ac6	0.026372325
11	0xbdbe8b11	-0.093038686
12	0xbe2bd3e9	-0.16780056
13	0x3cd4c6f9	0.025973784
14	0xbe1a796c	-0.15085381
15	0xbe25d953	-0.16196184
16	0x3dbc044e	0.091805086
17	0xbe35b142	-0.177434
18	0xbbfe18fb	-0.0077544427
19	0xbe6796dd	-0.22616144
20	0x3bfe8c59	0.0077681956
21	0xbe86a3b4	-0.2629677
22	0xbee850b8	-0.45374084
23	0xbd1a6b3b	-0.03769992
24	0x3cb26cce	0.021780398
25	0x3e301fcb	0.17199628
26	0x3bd96648	0.0066345073
27	0x3e989117	0.29798195
28	0x3bfa3d60	0.007636711
29	0x3d6e0565	0.058110613
30	0xbda7d45a	-0.081948
31	0x3bbdbb87	0.0057901773
32	0x3c905a83	0.017621284
33	0x3cf75ebc	0.03019654
34	0xbe9bd32f	-0.30434558
35	0xbe290433	-0.16505508
36	0x3de39c71	0.11113823
37	0x3b789bd3	0.0037934675
38	0xba39b938	-0.00070847897
39	0x3e8a831e	0.2705316
40	0x3c8e7911	0.017391713
41	0x3de82c92	0.11336626
42	0x3e0febef	0.14054845
43	0xbccc9c42	-0.024976853
44	0x3d890f34	0.06692353
45	0xbe353f2d	-0.17699881
46	0xbe14f97f	-0.145483
47	0x3e4a1e62	0.19738153
48	0x3d34e522	0.04416383
49	0xbd9aaff9	-0.07553095
50	0xbd613059	-0.05497775
51	0xbcd3388a	-0.025783796
52	0xbd1c6630	-0.03818339
53	0x3d32b091	0.043625418
54	0xbddb077c	-0.10694787
55	0x3d31cfa3	0.04341091
56	0xbdb93e05	-0.090450324
57	0xbdf8a77e	-0.121413216
58	0x3d96dc5f	0.07366251
59	0xbd95206c	-0.072815746
60	0xbd9833a6	-0.07431726
61	0x3da8a51e	0.082346186
62	0xbde170e8	-0.11007863
63	0x3e067bde	0.13133189
64	0xbe8b60fe	-0.27222437
65	0x3c6b449a	0.014359618
66	0x3d86b147	0.06576782
67	0x3e36a865	0.17837675
68	0xbe3ff8c8	-0.18747246
69	0x3e30e1b7	0.17273603
70	0x3e171534	0.14754182
71	0xbc6f16b3	-0.014592814
72	0x3d7378e5	0.059441466
73	0xbcbb566e	-0.022868361
74	0x3de4d59b	0.111735545
75	0xbe5caa1f	-0.21549271
76	0xbcd881f7	-0.02642916
77	0xbd11edb5	-0.035627086
78	0xbdae463a	-0.085094884
79	0xbe131e68	-0.14367068
80	0x3d43c397	0.04779395
81	0x3e1bdae2	0.15220216
82	0x3dcde942	0.10054256
83	0xbdae995d	-0.085253455
84	0x3e17128e	0.14753172
85	0xbd4d8160	-0.05017221
86	0xbe10e35f	-0.14149235
87	0x3e9697fc	0.2941283
88	0xbc1195af	-0.008885785
89	0xbe132d8b	-0.14372842
90	0x3dbcd3ad	0.092200615
91	0xbdb53b41	-0.088491924
92	0xbcd4f001	-0.025993349
93	0xbd080fec	-0.03321831
94	0x39ea32fd	0.00044669947
95	0x3d844228	0.06457931
96	0xbcc55366	-0.024087619
97	0xbe22aafd	-0.1588554
98	0x3d54c664	0.051947013
99	0x3d99f64a	0.07517679
100	0x3df18ba8	0.117942154
101	0x3dd08477	0.10181516
102	0xbe068fb6	-0.13140759
103	0xbd586966	-0.05283489
104	0x3c050666	0.008119201
105	0xbd2f999b	-0.0428711
106	0xbe84f7cf	-0.25970313
107	0xbe62363a	-0.22090998
108	0xbd5a8180	-0.053346157
109	0x3d28d41a	0.0412179
110	0xbe528313	-0.20557813
111	0x3e6605ba	0.22463122
112	0x3d959f7f	0.07305812
113	0x3caf4e09	0.021399515
114	0xbc44f4a1	-0.012021215
115	0x3e058797	0.13040005
116	0x3e60eb6b	0.21964805
117	0xbe8eb702	-0.27874
118	0xbe30b071	-0.17254807
119	0xbe0c6bb3	-0.13712959
120	0xbe3af7bf	-0.1825857
121	0xbeaba35e	-0.33523077
122	0xbd8a021a	-0.06738682
123	0xbd90bb07	-0.07066923
124	0xbdfb15b5	-0.1226
125	0xbab2ad04	-0.0013631885
126	0x3ea0a588	0.3137629
127	0x3c31baaf	0.0108477315
128	0xbdd58afd	-0.104269005
129	0x3db225e7	0.086986355
130	0xbe1cc6c5	-0.153102
131	0x3da52654	0.08063951
132	0x3e2eb502	0.17061237
133	0xbdf97a1b	-0.12181493
134	0xbddbc199	-0.10730285
135	0xbd9dbf1f	-0.07702469
136	0x3cb2ac16	0.021810573
137	0xbc571222	-0.013126882
138	0xbd9ef298	-0.07761115
139	0xbd578ee8	-0.05262652
140	0xbd3b5a5f	-0.04574048
141	0xbd105ce2	-0.03524483
142	0xbe357c3f	-0.17723177
143	0x3d0b58ec	0.03402035
144	0x3e35ffe4	0.17773396
145	0xbe654943	-0.22391228
146	0xbd119803	-0.03554536
147	0xbe3388ad	-0.17532606
148	0xbe422d39	-0.18962564
149	0xbaecf612	-0.0018078706
150	0x3e472d12	0.19450787
151	0x3da7593c	0.08171317
152	0xbe04768e	-0.1293585
153	0x3df89589	0.121378966
154	0x3d9828d2	0.07429661
155	0x3d92ed71	0.071741946
156	0xbe36fd91	-0.17870165
157	0xbf04976e	-0.51793563
158	0x3d143264	0.03618087
159	0xbc613a03	-0.013746741
160	0xbe4f3882	-0.202364
161	0xbd979ad5	-0.07402579
162	0x3dbcddb2	0.092219725
163	0x3d85ee96	0.06539647
164	0x3d0a4bd8	0.033763736
165	0x3d128686	0.035772823
166	0xbc46e202	-0.012138845
167	0x3d00b8c3	0.031426203
168	0x3cd7e051	0.02635208
169	0x3e466311	0.19373728
170	0xbe0c3a80	-0.13694191
171	0xbe5e1017	-0.21685825
172	0x3d3d31ef	0.0461902
173	0xbc924797	-0.017856402
174	0x3dcd7853	0.10032716
175	0xbe321096	-0.1738914
176	0x3d7994da	0.06093297
177	0xbe4b1803	-0.19833378
178	0xbe292e8f	-0.16521667
179	0xbe5512bb	-0.20807926
180	0x3d2c2289	0.042025123
181	0xbd2a68e1	-0.041603927
182	0x3d124f86	0.03572037
183	0xbdaef06c	-0.085419506
184	0xbec65653	-0.38737735
185	0xbd8c695e	-0.06856035
186	0xbda4dc32	-0.080498114
187	0xbbe856de	-0.0070904335
188	0xbe1ff470	-0.1562059
189	0xbd03c6b1	-0.03217191
190	0xbc0b65ac	-0.008508127
191	0xbe4ef765	-0.20211561
192	0x3d39b625	0.045339722
193	0xbdef54bd	-0.116860844
194	0xbd3996eb	-0.045309942
195	0x3dbce59a	0.092234805
196	0x3db09139	0.08621449
197	0xbd97e14a	-0.07416017
198	0x3e3ea3ae	0.18617126
199	0x3a9bb877	0.0011880536
200	0x3b479be2	0.0030457904
201	0xbd8a66c6	-0.06757884
202	0xbe123737	-0.14278875
203	0xbcfa7143	-0.030571586
204	0x3d7e78db	0.062126976
205	0xbd45c198	-0.04828033
206	0x3e1825e6	0.14858207
207	0x3b9b5e03	0.0047414317
208	0x3c26fb28	0.010191716
209	0x3e404e48	0.18779862
210	0xbe03162e	-0.1280143
211	0xbe6a5483	-0.22883801
212	0xbe1b161a	-0.1514515
213	0x3ca22dbb	0.019797197
214	0xbe14d59f	-0.14534615
215	0xbe92c303	-0.28664407
216	0xbe3ca97a	-0.18424025
217	0xbd8ffb73	-0.07030382
218	0xbd6fa2a8	-0.05850473
219	0xbe0533f2	-0.13008097
220	0xbe63f83b	-0.22262661
221	0xbdde8e01	-0.10866929
222	0xbde79493	-0.11307635
223	0x3cbeaa53	0.023274576
224	0x3d45cee6	0.048293017
225	0x3da3dc1b	0.08000966
226	0x3ce3d21f	0.027810154
227	0xbdd0aa51	-0.10188735
228	0xbc98b32e	-0.018640127
229	0x3d14d08c	0.0363317
230	0x3d0d3967	0.03447857
231	0xbe5a3ae8	-0.21311533
232	0x3e255cf6	0.16148743
233	0xbcca32ee	-0.024682488
234	0xbb490ab8	-0.0030676555
235	0xbd33236f	-0.043734964
236	0x3e255d9c	0.1614899
237	0xbe12df5b	-0.14343016
238	0xbd9a44ec	-0.07532677
239	0xbe400807	-0.18753062
240	0xbe5d0469	-0.21583714
241	0xbc66e5ac	-0.014092844
242	0xbe112197	-0.1417297
243	0xbc8fafe8	-0.017539933
244	0x3d9034d6	0.07041328
245	0x3ccb7ae8	0.02483888
246	0x3e2914c3	0.16511826
247	0xbdb0729f	-0.08615612
248	0xbcb2b07a	-0.021812666
249	0x3c10733d	0.008816537
250	0xbde1d7f2	-0.110275164
251	0xbdb9c4ac	-0.09070715
252	0xbdb8b257	-0.090183906
253	0xbd6de205	-0.058076877
254	0x3d7dac7b	0.06193207
255	0xbe671496	-0.22566447

blocks.1.conv.bias f4 [32]
0	0x3b6f8708	0.003654899
1	0x3a6fd781	0.0009149239
2	0xbab5913c	-0.0013852487
3	0x3af06d83	0.0018343184
4	0xbb9119a8	-0.0044281073
5	0x3bef25a7	0.0072981897
6	0xbbf1107d	-0.007356702
7	0xbb4cd7e6	-0.0031256615
8	0xb95719b4	-0.00020513573
9	0xba16f1dd	-0.00057580863
10	0x3a015dc7	0.00049349334
11	0x3b4e9653	0.0031522706
12	0x3b6042bc	0.0034219464
13	0xb92e1248	-0.00016600743
14	0xbbf1c6e3	-0.0073784455
15	0xbbb1d7d8	-0.005427342
16	0x3860671c	5.350179e-05
17	0xb8a0a031	-7.6592325e-05
18	0xb9186d6a	-0.0001453661
19	0x3a8568bf	0.0010178311
20	0xbbe63ed3	-0.007026532
21	0xbae533be	-0.0017486734
22	0x3a9f6073	0.0012159481
23	0xb9949967	-0.00028343053
24	0x3b1914dc	0.002335838
25	0x3c250a56	0.010073265
26	0x36b6ff37	5.4537336e-06
27	0xbbd52655	-0.0065048137
28	0xb931443f	-0.00016905459
29	0xbae27369	-0.0017276827
30	0x391f2f65	0.00015181077
31	0xba14b88c	-0.00056732516

blocks.1.bn.weight f4 [32]
0	0x3f41e2d0	0.75736713
1	0x3f6025ff	0.8755798
2	0x3f69c126	0.91310346
3	0x3f83feaf	1.0312098
4	0x3f8280b7	1.0195531
5	0x3f57200a	0.8403326
6	0x3f4e753e	0.8064765
7	0x3f798da1	0.97481734
8	0x3f82e7cf	1.0226992
9	0x3f6b62f4	0.91947865
10	0x3f6c4140	0.92287064
11	0x3f7cf051	0.98804194
12	0x3f8106c3	1.0080189
13	0x3f7a635d	0.97807866
14	0x3f878841	1.0588456
15	0x3f86a73e	1.0519788
16	0x3f878a3c	1.0589061
17	0x3f410a7b	0.75406617
18	0x3f66c20f	0.9013986
19	0x3f7b6f4f	0.9821672
20	0x3f5c7edb	0.86131066
21	0x3f39bee3	0.72556895
22	0x3f89e51d	1.0773045
23	0x3f95b8f6	1.1697071
24	0x3f806b68	1.0032778
25	0x3f7799e6	0.96719205
26	0x3f72c1b7	0.94826835
27	0x3f620e28	0.8830285
28	0x3f6ca651	0.9244128
29	0x3f5ea548	0.8697095
30	0x3f1b8568	0.60750437
31	0x3f891ad6	1.0711315

blocks.1.bn.bias f4 [32]
0	0xbe896354	-0.26833594
1	0xbec424c2	-0.38309294
2	0xbdb1e228	-0.08685714
3	0xbe302828	-0.17202818
4	0xbe7ff2af	-0.2499492
5	0xbda26aca	-0.07930525
6	0xbecbba9d	-0.39790812
7	0xbeddb8f1	-0.43305162
8	0xbeabe14c	-0.33570325
9	0xbea7430c	-0.3266834
10	0xbec562b1	-0.38551858
11	0xbee03355	-0.43789163
12	0xbeeb2eb9	-0.45934084
13	0xbec1a6dc	-0.37822616
14	0xbe923787	-0.2855799
15	0xbe74bccf	-0.2390015
16	0xbf1e9e5c	-0.6196039
17	0xbef41758	-0.4767406
18	0xbeaf0ab3	-0.3418785
19	0xbed413e7	-0.41421434
20	0xbef2b890	-0.47406435
21	0xbedb3523	-0.42813978
22	0xbeea181b	-0.45721516
23	0xbe380416	-0.17970309
24	0xbf0ad631	-0.5423308
25	0xbe19c1ba	-0.15015307
26	0xbe86ed2d	-0.26352826
27	0xbe6e8e69	-0.23296513
28	0xbea486e8	-0.32134175
29	0xbee6f434	-0.45108187
30	0x3c3f9a10	0.011694446
31	0xbea42bd0	-0.32064676

blocks.1.bn.running_mean f4 [32]
0	0xc0677596	-3.6165519
1	0xbfd2bbc3	-1.646355
2	0xbf9add48	-1.209878
3	0xc01adf91	-2.4198954
4	0xc01a819e	-2.4141612
5	0xbf959559	-1.1686202
6	0x3ff1a7c1	1.887932
7	0xc0312ebb	-2.7684772
8	0xc05ca81a	-3.44776
9	0xbcad06e0	-0.021121442
10	0xbf7d0942	-0.9884225
11	0x3ddfe151	0.109316476
12	0xbe84e5ea	-0.2595666
13	0x3fc8d3e5	1.5689665
14	0xbef8a71a	-0.48564988
15	0xbff962af	-1.9483241
16	0xbf8a51d0	-1.0806217
17	0xbf3c2d09	-0.7350622
18	0xbfe2f8bc	-1.7732158
19	0xbfa8641b	-1.315555
20	0xbfbbed1c	-1.4681735
21	0xc000c486	-2.0119948
22	0xbed9599b	-0.42451176
23	0xbf915d35	-1.135657
24	0xbfbc89f9	-1.4729606
25	0xbf1474e4	-0.5799086
26	0xbfd1c7b4	-1.638907
27	0xbf5c4e1c	-0.86056685
28	0x3f628263	0.88480204
29	0xbe9ab6c0	-0.30217552
30	0x3f8b982b	1.0905813
31	0x3d99e5c5	0.07514528

blocks.1.bn.running_var f4 [32]
0	0x408a7433	4.3266845
1	0x404b82eb	3.1798656
2	0x405acbbf	3.4186857
3	0x40e8637d	7.2621446
4	0x4125cd62	10.362642
5	0x408a5af2	4.3236017
6	0x40599caa	3.400187
7	0x408964be	4.2935476
8	0x40a28c72	5.079644
9	0x4045d552	3.091145
10	0x407ceb45	3.9518597
11	0x40926164	4.5743885
12	0x40720733	3.7816894
13	0x406ab113	3.6670578
14	0x40ac9df4	5.3942814
15	0x4038e410	2.8889198
16	0x403a2b1c	2.9088812
17	0x4074aae0	3.8229294
18	0x403b885f	2.9301984
19	0x40805f30	4.0116196
20	0x4096bd2d	4.7105927
21	0x40951aa1	4.6595006
22	0x4037ebbc	2.873763
23	0x404ca8a8	3.197794
24	0x404b367d	3.1752007
25	0x40e0f461	7.0298314
26	0x40a0b405	5.021975
27	0x40b57a18	5.671154
28	0x411f7015	9.964864
29	0x40a5fa57	5.186809
30	0x4132d0e7	11.176002
31	0x405736db	3.362723

blocks.2.conv.weight f4 [32, 32, 3, 3]
0	0x3d2d4a33	0.04230709
1	0xbe4d38a5	-0.2004114
2	0xbe065539	-0.13118447
3	0xbd770f34	-0.060317233
4	0xbd5cf56f	-0.053945
5	0xbe017b93	-0.12644796
6	0xbd2a120b	-0.041521113
7	0xbe2c1d4f	-0.16808055
8	0xbb4c858f	-0.0031207537
9	0xbe8e6b07	-0.2781603
10	0xbe377be1	-0.1791835
11	0xbdd56750	-0.10420096
12	0xbe853099	-0.2601364
13	0xbd78d415	-0.060749132
14	0xbd1c5a83	-0.038172256
15	0x3d1846cf	0.037176903
16	0xbdc4c0df	-0.096071
17	0x3d8abb0a	0.06773956
18	0xbe0b8dd7	-0.13628326
19	0xbd2c0a6e	-0.042002134
20	0x3e119e89	0.14220633
21	0xbe4da948	-0.20084107
22	0xbdafbb76	-0.08580677
23	0xbce6928d	-0.028146053
24	0xbd33995a	-0.04384742
25	0xbe0ef5f1	-0.13961007
26	0xbd34e22d	-0.04416101
27	0x3e34a3b4	0.17640573
28	0xbd9c6fb3	-0.076384924
29	0x3d92a83f	0.07160997
30	0x3d0436a8	0.032278687
31	0xbdd4f60c	-0.10398492
32	0x3ddf56f8	0.1090526
33	0x3e3de130	0.18542933
34	0x3dfab9df	0.12242483
35	0x3e01b2cf	0.12665866
36	0x3d1dcd3e	0.038525812
37	0x3c1fe08b	0.009758125
38	0x3e98adc0	0.2982006
39	0x3de7a052	0.113098755
40	0x3e956959	0.29181936
41	0x3dec677f	0.11543178
42	0x3e44bfed	0.19213839
43	0x3ce4503a	0.027870286
44	0x3e0d074c	0.13772315
45	0xbe12a662	-0.14321283
46	0x3d94e1ac	0.07269606
47	0x3ea40f67	0.32043
48	0x3e22905e	0.15875384
49	0x3d919578	0.07108587
50	0x3df789ea	0.12086852
51	0x3c4f2a0b	0.012644301
52	0xbdbf7b34	-0.09349671
53	0xbdaa64ae	-0.083199844
54	0xbcdb3050	-0.026756436
55	0x3dfa2af7	0.12215226
56	0x3d685cf3	0.05672927
57	0xb90558b4	-0.00012716913
58	0x3e1b01b2	0.15137365
59	0x3c82a09f	0.01594573
60	0xbdaa1098	-0.08303946
61	0xba7234c1	-0.00092394283
62	0xbed09a61	-0.40742782
63	0xbd5c3a7b	-0.05376671
64	0xbe8013e7	-0.25015184
65	0x3d9b5d05	0.075861014
66	0xbcc08563	-0.023501104
67	0xbcff0146	-0.031128537
68	0xbe2d6370	-0.16932464
69	0xbd84a935	-0.06477586
70	0xbd2b57be	-0.041831724
71	0x3d3675c7	0.044545915
72	0x3b3c665d	0.0028747537
73	0xbcb0e93e	-0.021595594
74	0x3ec8447d	0.39114752
75	0x3ea0f79e	0.31438917
76	0x3c5a53a0	0.013325602
77	0x3e00a8e2	0.12564424
78	0x3e708404	0.2348786
79	0xbeb3b581	-0.35099414
80	0x3d146a03	0.036233913
81	0xbcc0b68a	-0.023524541
82	0x3de08e42	0.109646335
83	0xbe8a0632	-0.26957852
84	0xbe49ef06	-0.19720086
85	0xbd7db21c	-0.061937436
86	0xbdc8e208	-0.09808737
87	0x3d310e3c	0.043226466
88	0xbe593275	-0.21210654
89	0xbcc83f5a	-0.02444427
90	0xbe352984	-0.17691618
91	0xbeb26f50	-0.3485055
92	0xbe0e2d8c	-0.13884562
93	0xbde653a7	-0.11246424
94	0xbdfcd88e	-0.12345992
95	0xbe0b7cbb	-0.136218
96	0x3d6c1694	0.05763872
97	0x3cdd096f	0.026982037
98	0xbe1a795c	-0.15085357
99	0x3d89ea0b	0.06734093
100	0x3db4f226	0.08835249
101	0xbda77258	-0.08176106
102	0xbc42d256	-0.011890968
103	0x3df995ed	0.12186799
104	0xbe1e961b	-0.15486948
105	0xbd1077cc	-0.035270497
106	0xbe548fa2	-0.20757917
107	0x3e3c98b3	0.18417625
108	0x3af23817	0.0018479851
109	0x3dd03d2c	0.101679176
110	0x3e728212	0.2368243
111	0x3e252205	0.16126259
112	0x3d03644c	0.032078072
113	0x3dac60b3	0.084168814
114	0x3d12028f	0.03564697
115	0x3dcef97b	0.101061784
116	0x3d670c62	0.056408294
117	0xbd9d5d85	-0.07683853
118	0xbea2ebf0	-0.3182063
119	0xbe0d1ca2	-0.13780454
120	0xbe33cb0e	-0.17557928
121	0xbd11dc72	-0.035610624
122	0x3e37e9b7	0.17960249
123	0xbdf380cb	-0.118898
124	0xbdb2d067	-0.08731156
125	0xbd4b3332	-0.04960937
126	0xbe2547ba	-0.16140643
127	0xbe301e81	-0.17199136
128	0xbecf1ed1	-0.404532
129	0xbe4ceedb	-0.20012991
130	0xbe133974	-0.14377385
131	0x3d4100f1	0.04712004
132	0xbe6e92e7	-0.23298226
133	0x3eb007b2	0.3438087
134	0xbc550885	-0.0130025195
135	0xbdc605e7	-0.096690945
136	0x3d0c9a1d	0.03432666
137	0xbe0c8732	-0.13723448
138	0xbcf8c913	-0.030369317
139	0xbdb8b785	-0.090193786
140	0xbe1b71b9	-0.151801
141	0x3e6ffc31	0.23436047
142	0xbe226dce	-0.158622
143	0x3e63d63a	0.2224969
144	0x3d367cb0	0.044552505
145	0xbd63605c	-0.055511817
146	0x3d915064	0.070954114
147	0xbd2e32e3	-0.042528998
148	0xbd58015d	-0.052735675
149	0x3dbd58ac	0.092454284
150	0x3e54f5d1	0.20796897
151	0xbe0ea0b8	-0.13928497
152	0x3d1f5f21	0.03890908
153	0xbca80617	-0.020510716
154	0x3d191a22	0.037378438
155	0x3c77ae3e	0.015117226
156	0xbc5bbfd2	-0.013412433
157	0x3d0cd653	0.034384083
158	0x3e498c20	0.1968236
159	0xbe50fb2b	-0.20408313
160	0xbe2c42b1	-0.16822316
161	0xbaa82215	-0.001282754
162	0xbe210756	-0.15725455
163	0x3d9a0d7f	0.075221054
164	0xbd8fd4a3	-0.07022979
165	0xb98789b1	-0.00025851795
166	0x3bd73310	0.0065673664
167	0x3d8f1b53	0.069876336
168	0x3e11024a	0.1416103
169	0x3c9d9bbe	0.019239303
170	0xbd8f4815	-0.069961704
171	0x3cb0d66e	0.021586623
172	0xbd3be1b7	-0.045869555
173	0x3d98fb16	0.07469766
174	0xbe147bc9	-0.14500345
175	0xbe2f59fb	-0.17124169
176	0xbda7b289	-0.0818835
177	0xbe3d50b8	-0.18487823
178	0x3c856d19	0.016287373
179	0xbd194c12	-0.037426062
180	0xbda0ffe8	-0.0786131
181	0x3a85e745	0.0010216018
182	0x3e514c6f	0.20439313
183	0x3df150c0	0.1178298
184	0xbd927218	-0.07150668
185	0x3cc8cf4a	0.024512906
186	0xbd1a8158	-0.037721008
187	0x3dddcbeb	0.1082991
188	0xbe0a563a	-0.13509455
189	0x3dd2a40d	0.102851965
190	0x3cf5734e	0.029962208
191	0x3d1f9de9	0.038968954
192	0x3e3010cf	0.17193912
193	0x3e023b1e	0.12717864
194	0x3ca0d78d	0.019634033
195	0xbb2b29db	-0.0026117477
196	0x3df68d97	0.12038725
197	0x3d650e40	0.055921793
198	0x3e2a8577	0.16652475
199	0xbd995210	-0.07486355
200	0xbd83814c	-0.06421146
201	0xbdf6ff36	-0.120603964
202	0x3da7f670	0.08201301
203	0xbd6f20f5	-0.05838104
204	0xbe693c92	-0.22777012
205	0xbe0635f9	-0.13106526
206	0xbe2772f8	-0.16352451
207	0xbe855318	-0.26039958
208	0xbdcbd52d	-0.099527694
209	0x3cf8171a	0.030284453
210	0xbd972fd6	-0.07382171
211	0xbe2cc584	-0.16872221
212	0xbe0c89bd	-0.13724418
213	0xbe1497a1	-0.14510967
214	0xbe187c9b	-0.14891283
215	0x3cf44366	0.029817294
216	0xbd576525	-0.052586693
217	0x3cac51fd	0.021035189
218	0xbe58dbb8	-0.21177566
219	0xbd99ee42	-0.07516147
220	0x3e3a1397	0.18171535
221	0x3db87a79	0.09007735
222	0xbd853005	-0.065032996
223	0xbe2e9056	-0.17047247
224	0xbd9295f9	-0.07157511
225	0x3c49d086	0.012317782
226	0x3df5c700	0.12000847
227	0xbe0ac627	-0.13552152
228	0x3df124ad	0.117745735
229	0x3d641480	0.055683613
230	0x3e2e91d2	0.17047814
231	0x3d532187	0.051545646
232	0xbcbb1103	-0.02283526
233	0xbc22c35a	-0.009934271
234	0xbb9455dc	-0.004526837
235	0x3cd8f929	0.026485996
236	0xbd6faef5	-0.05851646
237	0xbe0eeb9b	-0.13957064
238	0xbdabfe85	-0.08398155
239	0x3ca9ae9a	0.02071314
240	0x3cb2316a	0.021752078
241	0x3ca49dad	0.020094717
242	0x3de37c2c	0.11107668
243	0xbe1831b5	-0.14862712
244	0xbd85ca1f	-0.06532692
245	0xbc0dc0b6	-0.008651903
246	0xbe10b8cf	-0.14132999
247	0xbc075ba2	-0.008261593
248	0xbd8d75f9	-0.06907267
249	0xbe1b3b2b	-0.1515929
250	0x3e35616e	0.17712948
251	0x3c787186	0.015163785
252	0x3dd14195	0.10217587
253	0xbc9b302a	-0.018943865
254	0xbe2f8395	-0.17140038
255	0x3d235884	0.039879337

blocks.2.conv.bias f4 [32]
0	0x3bb17135	0.0054151067
1	0x3a837e35	0.001003212
2	0x39085ebc	0.00013005262
3	0xb9cb68d1	-0.00038797272
4	0x3b779728	0.0037779305
5	0x3c36905e	0.011142818
6	0x3c0deb9d	0.008662132
7	0x3c456bb1	0.012049601
8	0xbab8e1f0	-0.001410542
9	0xb94693d1	-0.00018937817
10	0x3b1aacd6	0.0023601553
11	0x3b96709d	0.0045910613
12	0x39862fe8	0.00025594165
13	0xba9e57ac	-0.0012080572
14	0xbb9cdb52	-0.004786887
15	0xb72b9e38	-1.0229232e-05
16	0x3b629b7b	0.0034577537
17	0x3ae47d46	0.0017432354
18	0x3b0b20cd	0.0021229268
19	0x3c09428b	0.0083776815
20	0x38ecfbc7	0.00011300254
21	0x3bb455bd	0.005503385
22	0xb9f86649	-0.00047378454
23	0x399e7f79	0.00030231083
24	0xbc4ab5d9	-0.012372457
25	0x3b83e6b1	0.0040253033
26	0xba12918f	-0.0005591148
27	0xba0e3f81	-0.0005426333
28	0xbaefed04	-0.0018304889
29	0xbb65b9a2	-0.0035053273
30	0xb81c77fa	-3.7305035e-05
31	0xb6d46afe	-6.330548e-06

blocks.2.bn.weight f4 [32]
0	0x3f813112	1.00931
1	0x3f66a423	0.900942
2	0x3f55d213	0.8352367
3	0x3f4e7172	0.80641854
4	0x3f536cd0	0.8258791
5	0x3f4f506f	0.80982107
6	0x3f84324f	1.0327853
7	0x3f83c524	1.0294538
8	0x3f4fd945	0.811909
9	0x3f88f91c	1.0701022
10	0x3f5d55fc	0.86459327
11	0x3f61e968	0.88246775
12	0x3f7528ce	0.9576539
13	0x3f70aaeb	0.940108
14	0x3f69a06f	0.9126043
15	0x3f876d1f	1.0580176
16	0x3f8b9bb8	1.0906897
17	0x3f80082e	1.0002496
18	0x3f617b65	0.8807891
19	0x3f662182	0.8989488
20	0x3f621917	0.88319534
21	0x3f74104a	0.95337355
22	0x3f5cd783	0.86266345
23	0x3f89d03c	1.0766673
24	0x3f86bf58	1.0527143
25	0x3f8095a7	1.004567
26	0x3f806569	1.0030948
27	0x3f4feedd	0.8122385
28	0x3f4ccbf7	0.79998726
29	0x3f851025	1.0395552
30	0x3f0c1f6c	0.54735446
31	0x3f63ff0a	0.89061034

blocks.2.bn.bias f4 [32]
0	0xbe4979d0	-0.19675374
1	0xbedff888	-0.43744302
2	0xbdb549b6	-0.0885195
3	0xbd9d41bb	-0.07678553
4	0xbee1a3e8	-0.44070363
5	0xbe62420a	-0.22095504
6	0xbe441919	-0.19150199
7	0xbefc798d	-0.49311486
8	0xbee200dd	-0.44141284
9	0xbe8b7c65	-0.27243343
10	0xbead348a	-0.33829147
11	0xbeb33c27	-0.3500683
12	0xbeec3ef2	-0.46141773
13	0xbec35e30	-0.38157797
14	0xbecd490b	-0.4009479
15	0xbec1dde6	-0.37864608
16	0xbeb28bc4	-0.34872258
17	0xbf105d0d	-0.56391984
18	0xbe790c8e	-0.24321195
19	0xbe89fc8e	-0.26950496
20	0xbee51b13	-0.44747218
21	0xbf2c907a	-0.67407954
22	0xbeade54f	-0.3396401
23	0xbe9c0724	-0.30474198
24	0xbeff5e5d	-0.4987668
25	0xbeab2f65	-0.33434597
26	0xbee4b6b0	-0.4467063
27	0xbe7f019f	-0.24902962
28	0xbdacc1c5	-0.08435396
29	0xbeb187bc	-0.3467387
30	0x3e587734	0.21139222
31	0xbee88083	-0.45410547

blocks.2.bn.running_mean f4 [32]
0	0xbfdf7c1d	-1.7459751
1	0xbfadb879	-1.3571922
2	0xbfa1c6d3	-1.2638801
3	0x3e59497e	0.21219441
4	0xc0500a9d	-3.2506478
5	0x3e04bd20	0.1296277
6	0xbf2c8b7b	-0.6740033
7	0xbfa54441	-1.2911454
8	0xbfa33a4c	-1.2752166
9	0xbe8d34e1	-0.27579406
10	0xbf509528	-0.81477594
11	0x3df85158	0.1212489
12	0x3e967a41	0.29390147
13	0xbfa32643	-1.2746052
14	0xbfce7815	-1.6130396
15	0xbfa518c2	-1.289818
16	0xbe071a40	-0.13193607
17	0xbf914f65	-1.1352354
18	0xbed9d891	-0.4254804
19	0xbf450ea2	-0.7697545
20	0x3f3f3f56	0.7470602
21	0xbf8923a1	-1.0713998
22	0xbf5053e8	-0.8137803
23	0xc01bb679	-2.4330122
24	0xbfbda78b	-1.4816755
25	0xbf94cb75	-1.162459
26	0xbfe32bf9	-1.7747794
27	0x3e32fc98	0.1747917
28	0xbec86a9b	-0.39143834
29	0xc0300d1b	-2.7508
30	0x3e873dba	0.2641428
31	0xbff36c93	-1.9017509

blocks.2.bn.running_var f4 [32]
0	0x41660935	14.377248
1	0x41033d66	8.20249
2	0x4112a2bf	9.164733
3	0x40dde8bd	6.9346604
4	0x409f88d0	4.9854507
5	0x40887885	4.264712
6	0x4132078a	11.126841
7	0x4083d90e	4.120246
8	0x4098cc22	4.7749186
9	0x40c80bcf	6.2514415
10	0x409888f2	4.766717
11	0x40a3fad2	5.1243677
12	0x40a2029d	5.062819
13	0x40faa1a1	7.83223
14	0x411f75ba	9.966242
15	0x40b2b5b5	5.584681
16	0x407d973a	3.9623551
17	0x40e12d86	7.036807
18	0x40a1c968	5.0558357
19	0x40ea6bb1	7.325646
20	0x403362e9	2.802912
21	0x4042c7be	3.0434413
22	0x405c2801	3.4399416
23	0x40ce9c15	6.456553
24	0x404056ad	3.0052903
25	0x405be9b4	3.436139
26	0x40a590f2	5.1739435
27	0x41290df1	10.565904
28	0x40fb444d	7.8520875
29	0x414b35e6	12.700659
30	0x4152f5ea	13.185038
31	0x40c203af	6.0629497

blocks.3.conv.weight f4 [32, 32, 3, 3]
0	0xbe0995fe	-0.13436124
1	0xbe066dd6	-0.13127837
2	0xbe7fc509	-0.24977507
3	0xbd86bcb2	-0.065789595
4	0xbeb05b13	-0.34444484
5	0xbe3f856b	-0.18703239
6	0xbd832d1b	-0.064050876
7	0xbe367cb8	-0.17821014
8	0xbdddd414	-0.10831466
9	0xbd485f3b	-0.048918944
10	0x3d417020	0.04722607
11	0xbdb7ad66	-0.0896862
12	0x3c2b6fa5	0.01046363
13	0x3e1ecdcb	0.15508191
14	0x3e385db9	0.18004502
15	0x3c5ed2a0	0.013600022
16	0x3e54786f	0.20749067
17	0x3e816ea1	0.25279716
18	0xbd992bff	-0.07479095
19	0x3cb35977	0.021893246
20	0xbe40ecaf	-0.18840288
21	0xbe5320d0	-0.20617986
22	0x3d2bcfc3	0.041946184
23	0xbcc2cd2d	-0.023779476
24	0xbd430a94	-0.04761751
25	0xbe1b7535	-0.1518143
26	0xbdc0b249	-0.09409005
27	0xbde496b0	-0.11161554
28	0xbb017f29	-0.0019759631
29	0x3ce260cc	0.027634047
30	0x3da59182	0.08084394
31	0xbe6251e9	-0.22101559
32	0xbdd670b4	-0.10470715
33	0x3ca54592	0.020174775
34	0x3d64b35b	0.05583511
35	0x3cffc311	0.031220945
36	0xbe21668f	-0.15761779
37	0x3d1a20af	0.037628826
38	0x3cffb9c5	0.031216512
39	0xbe373c66	-0.17894134
40	0x3e46fd1c	0.19432491
41	0xbe34a301	-0.17640306
42	0x3d84b3c0	0.06479597
43	0x3d941f4e	0.072325334
44	0xbd2a0a50	-0.04151374
45	0x3dcb2df9	0.09920878
46	0x3cb750dd	0.022377426
47	0x3db590e5	0.08865527
48	0xbe15a904	-0.14615256
49	0x3db8dbfb	0.09026333
50	0x3d975ef1	0.073911555
51	0x3e10676a	0.1410195
52	0xbcf760cf	-0.03019753
53	0x3dd7da97	0.105397396
54	0x3e805d5f	0.25071236
55	0x3d91c7c5	0.07118181
56	0xbd3d1470	-0.04616207
57	0x3e8d43b7	0.27590725
58	0x3e005593	0.12532644
59	0x3df8627e	0.12128161
60	0x3e2d0b16	0.1689876
61	0xbc1126ce	-0.008859349
62	0x3d01cbba	0.03168843
63	0xbe4eaea7	-0.20183812
64	0x3e6cb4bd	0.23115821
65	0x3c534beb	0.012896518
66	0x3e7305fd	0.23732753
67	0xbe0655c8	-0.1311866
68	0x3d051044	0.032486215
69	0x3d97e54a	0.0741678
70	0x3b61e3f2	0.0034468141
71	0x3df3072b	0.118666016
72	0xbe333c03	-0.17503361
73	0xbd5fed60	-0.054669738
74	0x3e1aab0b	0.1510431
75	0x3e6cb922	0.23117498
76	0xbd61af7a	-0.055098988
77	0x3e732fbc	0.23748678
78	0xbe6598ee	-0.2242162
79	0xbdc378ac	-0.09544501
80	0x3dcebb4b	0.10094317
81	0x3d61fc90	0.055172503
82	0xbd767ce2	-0.06017769
83	0x3e87e6da	0.26543313
84	0xbd059f37	-0.032622542
85	0xbd03daec	-0.032191202
86	0x3e0cb9d7	0.13742767
87	0xbd063583	-0.032765877
88	0x3da766b1	0.08173884
89	0x3e3c6e06	0.18401346
90	0xbe2a1606	-0.16609964
91	0xbc873205	-0.016503343
92	0x3e03e36f	0.12879728
93	0x3e180805	0.14846809
94	0xbca8b47d	-0.020593876
95	0xbdb02139	-0.08600087
96	0xbe29f92c	-0.16598958
97	0x3c5427fc	0.012948986
98	0x3bc3aca0	0.0059715062
99	0x3ce8b7ae	0.028407898
100	0xbd3f60ea	-0.046723284
101	0xbd0c9a0e	-0.034326605
102	0xbd8077ca	-0.06272848
103	0xbd76255f	-0.060094234
104	0xbb5c221f	-0.0033589674
105	0xbe97bae7	-0.29634783
106	0xbe29aac3	-0.16569047
107	0x3e508f7f	0.2036724
108	0xbdd0b413	-0.101905964
109	0xbd895301	-0.06705285
110	0xbdd3dcdb	-0.10344859
111	0x3da9cd55	0.08291117
112	0xba88f860	-0.0010449998
113	0x3d723064	0.05912818
114	0xbc56c16b	-0.013107638
115	0xbcae16a4	-0.02125103
116	0xbd192925	-0.037392754
117	0x3daec2e0	0.08533263
118	0x3e39ce40	0.18145084
119	0x3b0bc2de	0.0021325867
120	0x3d125d98	0.03573379
121	0x3d9a7b96	0.075431034
122	0x3e1d4e5e	0.15361926
123	0x3caed054	0.021339573
124	0xbe8ae5c2	-0.27128416
125	0xbdd80ee7	-0.105497174
126	0xbe993f09	-0.29930905
127	0xbd595e4d	-0.053068448
128	0xbda8183f	-0.082077496
129	0xbe3a6eef	-0.1820638
130	0x3d66284e	0.05619078
131	0xbd8b37c4	-0.06797746
132	0xbe2952f8	-0.16535556
133	0x3e4be8b0	0.19912982
134	0xbcf839ab	-0.030300936
135	0xbe063970	-0.13107848
136	0xbe32f387	-0.17475711
137	0xbe493dac	-0.19652432
138	0xbe0b9f89	-0.13635077
139	0xbdb47a96	-0.08812444
140	0x3e9763b8	0.29568267
141	0xbe3543f4	-0.17701703
142	0xbd06b6c2	-0.032889135
143	0x3e2bcc55	0.16777165
144	0x3d1a9249	0.037737165
145	0xbe6a4a36	-0.22879872
146	0x3d75a375	0.059970338
147	0x3d32cb40	0.043650866
148	0xbd454061	-0.0481571
149	0x3d90d1ce	0.07071267
150	0x3e4ae185	0.19812591
151	0xbc67259a	-0.014108086
152	0xbe1f444b	-0.15553395
153	0xbd09fe2f	-0.033689674
154	0x3d974b71	0.07387436
155	0x3e67990a	0.22616974
156	0xbd3bfd7d	-0.045896042
157	0x3e03e0ab	0.12878673
158	0x3e6d5cdf	0.23179959
159	0xbcf2fb0b	-0.029660722
160	0xbd79c633	-0.060980033
161	0x3de461e5	0.111514844
162	0xbd838424	-0.06421688
163	0xbe00caa1	-0.12577297
164	0x3dac9265	0.0842636
165	0x3c9ed500	0.019388676
166	0x3d961911	0.07329
167	0x3d70500b	0.058670085
168	0x3d21ec07	0.039531734
169	0xbdb0ff31	-0.08642424
170	0x3e05becd	0.13061066
171	0x3de4809a	0.11157341
172	0xbe707935	-0.23483737
173	0xbdbf0a0e	-0.0932809
174	0x3e330808	0.17483532
175	0xbda87979	-0.08226294
176	0x3ceccfda	0.028907705
177	0x3da061ca	0.07831152
178	0xbe8b023f	-0.2715015
179	0xbe333437	-0.17500387
180	0xbe0c755d	-0.13716646
181	0x3daa5bd7	0.08318298
182	0x3e1904f9	0.14943303
183	0x3d32655a	0.043553688
184	0xbdcea073	-0.10089197
185	0xbda861fa	-0.082218125
186	0xbdf53deb	-0.119747005
187	0x3df922c8	0.12164837
188	0xbc8d32fc	-0.017236225
189	0x3de551ec	0.11197266
190	0x3d86d883	0.06584265
191	0x3d1bf4d3	0.03807528
192	0x3d220123	0.039551865
193	0x3e204ad6	0.15653548
194	0x3df81767	0.12113839
195	0xbb89ba76	-0.004203136
196	0x3d917989	0.07103259
197	0x3c5ab999	0.013349914
198	0xbe2c3d3f	-0.16820239
199	0x3d2ae675	0.041723687
200	0xbd648f34	-0.05580063
201	0xbda896bf	-0.082318775
202	0xbd8b1383	-0.06790831
203	0xbe42767d	-0.18990512
204	0xbd2e6ebc	-0.042586073
205	0x3e06031d	0.13087125
206	0xbe54422d	-0.20728369
207	0xbe4359d3	-0.19077234
208	0x3cfbb72d	0.030726993
209	0x3e762dc4	0.24040896
210	0xbdcf93d4	-0.10135618
211	0xbeb300b3	-0.3496147
212	0x3d1003f4	0.03516002
213	0x3e3cef94	0.18450767
214	0x3e1e7d81	0.15477563
215	0x3e2237e2	0.1584163
216	0x3e354b2a	0.17704454
217	0x3c09be8e	0.008407248
218	0xbc8facf4	-0.017538525
219	0xbdde694a	-0.10859926
220	0x3dda9e5c	0.10674736
221	0xbe8d8d92	-0.27647072
222	0xb955e45f	-0.00020398338
223	0xbda1e758	-0.079054534
224	0xbe1336e2	-0.14376405
225	0x3dcd31a5	0.100192346
226	0xbbc57ec9	-0.006027077
227	0xbcd0262b	-0.025408825
228	0xbd0e7bc9	-0.03478602
229	0xbdb76a65	-0.0895584
230	0xbc9d0cbe	-0.019171115
231	0x3d1588d4	0.036507443
232	0x3d8cb570	0.06870544
233	0xbdc54696	-0.09632604
234	0x3e13a3dd	0.14417978
235	0xbe60f20d	-0.21967335
236	0xbe24cb1c	-0.16093105
237	0xbcc9a08a	-0.024612684
238	0xbdca4637	-0.09876674
239	0xbdce3bff	-0.10070037
240	0x3dd38842	0.103287235
241	0xbcfcad92	-0.030844484
242	0xbcc8cc27	-0.02451141
243	0xbd568a19	-0.052377794
244	0xbc594136	-0.013260176
245	0x3e038442	0.12843421
246	0xbde47c1b	-0.11156484
247	0x3dc394b8	0.0954985
248	0xbdd979e8	-0.10618955
249	0xbccf49a5	-0.025303671
250	0x3cd29cbc	0.025709502
251	0x3e36ae29	0.17839874
252	0xbd95c131	-0.07312239
253	0x3e0df93c	0.13864607
254	0xbe73125d	-0.23737474
255	0xbe4cc159	-0.19995631
