models/147.pth (torch, 501904 bytes, 80 tensors)

conv0.conv.weight f4 [32, 17, 3, 3]
00000000: 6847 0ebe 98a2 623e 8d0d 1ebb 9067 343e
00000010: f698 94be c2e9 a53e 99f6 763d d765 593e
00000020: c284 c73c c4aa c13d 8513 0a3d b16f 983c
00000030: e2e0 883b 66a0 02be 9eed 0d3e 9f02 553e
00000040: 6e2a 683c ec06 fc3c 8836 6a3d 167b e2bd
00000050: 4a3f a83b 9490 a0bd a833 fe3c daa0 d63d
00000060: b3b0 923c b77c a0bd 2d5f 17bd 298e 2abe
00000070: 094a 0c3e 787b dfbd 9ac4 983d 4c46 d5bc
00000080: 228e 753d 3eab 0e3e cba6 73be 3ee7 bbbd
00000090: 5484 b33d a9d2 1b3e dc36 ab3d 9a86 823e
000000a0: 4de7 bebe d686 ac3e ec5e 243e bcdb 8b3e
000000b0: b52e 3d3e bc4f 053d 3e3e 6f3d 9136 423e
000000c0: b0ce 9c3e e9d5 f3bd b241 dc3d 1936 683e
000000d0: 92c2 f43d 19a2 fa3d 9252 a53d abbd 643e
000000e0: 58bf 163d 581e 263e 8ffe 06be 6161 173e
000000f0: 5972 4b3e a393 ec3d c279 973d 480d 27bd
00000100: 5665 743e b396 cc3d f57d 5c3e 9e13 bcbd
00000110: 9162 933e 4353 0f3e 928f 0c3e 5ba1 223e
00000120: 06b7 cf3c 975e b83d 631e 873c 9b83 483d
00000130: 69dc 953e 7eb6 993d f3fb bb3c 0ead b93d
00000140: d2f4 ef3b 0a42 803c 2121 703d cca2 2ebd
00000150: 1e85 5e3d 5c23 e93e e301 193d d263 cc3c
00000160: b3fa 353d cf53 ce3c 5774 103d 6e9e c73d
00000170: 0b96 053c c4ad c83d 682a c53e 6209 293d
00000180: ea0f d33b 6b29 4e3d b77d e8bc 9169 4abb
00000190: 2649 e03d cd9f 9a3c 77e1 6c3d fc1c b83e
000001a0: f03a cb3d 7cc8 dabd 8c1d db3d 40e9 413d
000001b0: c6a2 3d3d 8fd9 04be 718d ad3d 2913 44be
000001c0: 199e 0bbe 502e e5bd 51e9 853d 8075 05bd
000001d0: 5e39 a63d bdd6 13be 0693 e83d f1de aa3d
000001e0: 3beb e53d 7870 3a3e d93c afbd 913c d7bd
000001f0: 511c 1e3e 0e44 af3d 3a79 813c 8160 a33d
00000200: 669f 513d 98ed 093d 22a5 fe3d 29a9 f4bd
00000210: 1eb9 c9bd e341 e83c 9ea1 0abe 6679 343d
00000220: db24 52bd c04b 313e be65 c5bb 53db dd3d
00000230: 6813 83bd e873 a2bc 5392 52bc 9437 773d
00000240: 9959 a33c fab2 c7bc df23 29bb 4f01 623e
00000250: 9a08 003e 0f64 413d f69e dcbd 1ca0 833d
00000260: 3d1b 233d 3ea5 ed3d 8ff1 d43c 8e30 2ebc
00000270: 114a 0bbe 2579 f0be f12d 1a3e b4ff 523b
00000280: 9b03 7a3d bf05 b6bd f6e0 e7bd 5bfd 4d3e
00000290: 8275 e8bd b654 98bd 29b6 153d 0ce2 babe
000002a0: c8e8 a63d c342 75bd 278e 99be 0565 0bbc
000002b0: cf01 043e 8517 7abe 6548 73bd 12fc ab3d
000002c0: e144 83be b241 fe3c 7439 75be 947c d9bd
000002d0: 3411 8ebe 2e0d 2a3e d800 a53d 978d e93c
000002e0: 207f 203e 8e1c 00bf 2338 6c3c 5d05 f3bd
000002f0: 5f19 853d 5fb9 42be 6aa8 3bbe ccf6 38bd
00000300: 911d d53c bbeb d7be 03a1 87be 17a8 f53b
00000310: 57c3 ebbc ca75 66be fc04 56be 1e0a 5bbe
00000320: e345 93be 2052 dcbd d1a1 61be 158e 90be
00000330: 2492 7ebe 002b ddbd 074f aabe cdb8 63be
00000340: 66aa 16be 276e a2be 42ee 39be 5142 2ebe
00000350: 51e4 c3bd 499d 22bd 5498 90be a65a 33bf
00000360: fcab 5abe 669f 73be 58a4 4bbe 5940 69be
00000370: bed5 e8bd 7427 97be e304 07bd d880 2ebe
00000380: d138 a4be b57e d5bd 9c49 853d a551 193e
00000390: 895e 253d 1461 f3be af3c cf3d cc38 08be
000003a0: 878d 2fbc 5b3c c03d 78f8 2fbd b845 a33d
000003b0: c396 0b3e fe2e e73c c652 593d e125 1c3e
000003c0: a056 5abc d619 043e ae31 fd3c c5e6 993d
000003d0: a363 243e 878e a73d cdb8 0c3e b0d3 1b3d
000003e0: bf9b c63d 4502 063d 14f3 2b3e 5f1e 113e
000003f0: c870 a1bc 3e14 6a3d 6b08 293e 1dc6 a7bd
-0.13894427 0.22132337 -0.0024116964 0.17617631 -0.2902295 0.32404906 0.060293768 0.21230255
0.024355296 0.09456399 0.03371002 0.018607946 0.0041771987 -0.127565 0.13860175 0.20801781
0.014170272 0.03076502 0.05718091 -0.11058633 0.005134498 -0.07840076 0.031030491 0.10479899
0.017906522 -0.078362875 -0.036956 -0.16655792 0.13700117 -0.10912222 0.07459374 -0.026034497
0.05995 0.13932511 -0.23794095 -0.09174965 0.08765474 0.15217079 0.08360073 0.25493318
-0.37285843 0.33696622 0.16051835 0.27316082 0.18474849 0.032546744 0.05840897 0.18966128
0.3062644 -0.119060345 0.10754718 0.22676887 0.11951174 0.12237949 0.0807239 0.22337978
0.036803573 0.16222513 -0.13183044 0.14783241 0.19867839 0.11551597 0.0739627 -0.04078415
0.23866782 0.09989681 0.21532424 -0.09183429 0.28786138 0.13996606 0.13726643 0.15881865
0.025355827 0.090024166 0.016493982 0.048953634 0.29269722 0.07505511 0.022947287 0.09066211
0.007322886 0.01565649 0.058625344 -0.042635724 0.05432617 0.4553479 0.037355315 0.024949942
0.04442854 0.025186447 0.0352672 0.09747015 0.008153449 0.09798768 0.38508916 0.041268714
0.006441106 0.050332468 -0.028380258 -0.0030885676 0.10951452 0.018875027 0.057832208 0.35959613
0.09923351 -0.106827706 0.10698995 0.047341585 0.04629781 -0.12973617 0.084742434 -0.19147934
-0.13634528 -0.11190474 0.06538642 -0.03258276 0.08116411 -0.14437385 0.113561675 0.08343304
0.11226507 0.18206966 -0.08556528 -0.10509599 0.1544049 0.08557902 0.015804876 0.07977391
0.051177405 0.033673853 0.1243384 -0.11946327 -0.098497614 0.02835173 -0.13538215 0.044061087
-0.05130468 0.17314053 -0.0060240915 0.108328484 -0.06400186 -0.019830659 -0.012852269 0.060355738
0.019940184 -0.024377335 -0.0025808734 0.22070812 0.12503281 0.047214564 -0.10772507 0.06427023
0.0398209 0.11603783 0.02599409 -0.0106316935 -0.13602473 -0.46967426 0.15056588 0.0032195868
0.061038595 -0.08887815 -0.11322205 0.20116179 -0.11350538 -0.07438032 0.036550675 -0.36500585
0.08149868 -0.059878122 -0.29991266 -0.008507972 0.12891315 -0.24423034 -0.059395213 0.08397688
-0.25638488 0.031037185 -0.23947698 -0.106194645 -0.277475 0.1660659 0.080568016 0.028509898
0.15673494 -0.5004357 0.014417681 -0.11866257 0.0649898 -0.19016026 -0.18325964 -0.04515724
0.026015075 -0.42172036 -0.2649003 0.0074968445 -0.028779669 -0.2250587 -0.20900339 -0.21390578
-0.28764257 -0.107578516 -0.22034384 -0.282334 -0.24860436 -0.10799217 -0.33263418 -0.22238465
-0.1471344 -0.31724665 -0.18157294 -0.17017485 -0.09565032 -0.03970078 -0.28241217 -0.70060194
-0.2135467 -0.23791274 -0.19886911 -0.22778453 -0.11368893 -0.29522288 -0.032963645 -0.17041337
-0.32074597 -0.10424558 0.065081805 0.14972551 0.04037336 -0.47535002 0.10118996 -0.13302916
-0.010714895 0.09386512 -0.042961568 0.07972282 0.1363173 0.02822065 0.053057455 0.15248825
-0.013326317 0.1290048 0.030907478 0.07514719 0.16053633 0.08181482 0.13742371 0.038043678
0.09697675 0.03271701 0.16791946 0.14171742 -0.019707099 0.05714821 0.16507117 -0.08192084

conv0.conv.bias f4 [32]
00000000: 7146 b53a ac2c 04bb 0d2c c9ba 9700 e5bb
00000010: e928 97bb 49d8 563b 26e9 edbc b3ee 27bc
00000020: 463e e83c 0ab3 22bb d1bb 0bbc f9a9 a63b
00000030: 0444 2bbc f29d b73b 7dca 533b 9833 06ba
00000040: 0df7 eebb e169 7b3d 96f6 aa3c fb4c 51ba
00000050: 1e53 0e3b fbbd d23c 2783 2ebb e05b e03b
00000060: 8195 15bd ee45 a43a ecea 1bba 9cbd d6bc
00000070: 452a c2bb d2ef e9bd f9c0 713d e2ab 343c
0.0013830197 -0.0020168228 -0.0015348211 -0.0069885957 -0.004613031 0.0032782725 -0.029041838 -0.010249781
0.028350007 -0.0024825954 -0.008528666 0.0050861803 -0.010453228 0.0056035453 0.0032316737 -0.00051193824
-0.0072926343 0.06138027 0.020869534 -0.0007984188 0.0021717022 0.025725355 -0.0026628466 0.00684689
-0.03651953 0.0012533048 -0.0005947787 -0.02621346 -0.005925449 -0.11422695 0.059021924 0.011027308

conv0.bn.weight f4 [32]
00000000: b26c 563f 2143 313f 546d 383f 4425 633f
00000010: bac4 383f d696 423f 4b63 4e3f e2bf 453f
00000020: 09b2 703f c40f 563f 34b6 3a3f ff21 343f
00000030: 42e0 473f 6d02 5f3f 3a57 3e3f 7cbd 693f
00000040: b234 413f 4659 a53f 7353 523f c5ee 503f
00000050: 597e 493f 8ff3 6e3f 4d26 5d3f c3f1 363f
00000060: 0076 723f fdd2 4b3f dbf2 633f f1dc 543f
00000070: bc21 703f 5e9f 483f 251e 473f 90d1 243f
0.83759606 0.69243056 0.7204182 0.8872874 0.7217518 0.7601141 0.8062026 0.77245915
0.9402166 0.83617806 0.7293427 0.70364374 0.78076565 0.87113076 0.7435185 0.91304755
0.7547103 1.2917869 0.82158583 0.81614333 0.78708416 0.9334039 0.8638657 0.7146265
0.94711304 0.7961882 0.89042443 0.8314963 0.93801475 0.78368175 0.7778037 0.64382267

conv0.bn.bias f4 [32]
00000000: 1777 0dbf 98f0 10be 06ac fbbd 28ef 93be
00000010: b7c5 60be 757b ccbd 129d aebc 12c5 d3be
00000020: 4e28 3fbe 2c77 95be e061 28be 3d28 fd3d
00000030: 0d52 26be 5ff9 b9be dcb1 c2be f3b5 69be
00000040: 7837 39be f185 eabc c58c ddbd 1085 9cbe
00000050: 200f f2bd 93ee ad3c 7d23 79be 3fde 6fbe
00000060: 8a4e d7bd 1212 6cbe 3293 9abe 9a9b f0bb
00000070: 1c00 31be 1741 923e 2095 0cbe f4a6 81bc
-0.5525984 -0.14154279 -0.1228867 -0.288934 -0.21950422 -0.09984485 -0.021315131 -0.4136129
-0.18667719 -0.29192483 -0.16443586 0.123611905 -0.16242237 -0.36323068 -0.3802632 -0.22823314
-0.18087566 -0.028628321 -0.10817865 -0.3057027 -0.11819291 0.021231925 -0.24329944 -0.23424624
-0.10513027 -0.23053768 -0.30190426 -0.007342768 -0.17285198 0.28565285 -0.13728762 -0.01582668

conv0.bn.running_mean f4 [32]
00000000: ffb1 ea3d c714 e63b d3e0 a4bc 162c 3cbd
00000010: 1526 dcbc ba96 373b 111c e6bd 2bc6 be3d
00000020: c590 21bd 6c1b 38bd 6a7f d3bb c790 a3bc
00000030: 0136 c1bc eda8 e1bc 4dc0 1d3d ea76 993d
00000040: 5770 133d 2a83 813c 2643 d2bc 037d 8ebc
00000050: c811 a7b9 4ede 533c 2c93 84bc b3c3 3c3d
00000060: 26d8 9bbd 7d3e 46bd 2a53 14bd bb26 21bd
00000070: 5fc0 9b3d 11dc 81bd edc7 0c3c 8ef4 833d
0.11459731 0.00702152 -0.020126736 -0.04594048 -0.026873628 0.0028013424 -0.11235822 0.09315141
-0.039444704 -0.044948027 -0.006454398 -0.019966496 -0.023585321 -0.02754637 0.03851347 0.07493384
0.035995807 0.015809614 -0.025666784 -0.017393595 -0.0003186597 0.01293142 -0.016183458 0.04608507
-0.076095864 -0.048399437 -0.036212124 -0.039343577 0.07605051 -0.063408025 0.008592588 0.064431295

conv0.bn.running_var f4 [32]
00000000: 6c75 553d 0e0d 1f3d f869 443d a8a5 0a3d
00000010: cf8b 1c3d 68d0 0b3d a958 7e3d cd6d 273d
00000020: 8984 673d a3bf 363d a21e 013d aa24 3d3d
00000030: eb23 143d bbb2 e23c 9c3f 053d ca4e 193d
00000040: c237 f33c 0e62 313d e976 353d 468a 023d
00000050: 9fe3 493d 470d 113d dbe8 db3c e043 033d
00000060: 0850 103d 37b9 183d de31 063d 895c de3c
00000070: 2067 333d 0e60 ff3c 4370 043d 1607 093d
0.052113935 0.03883081 0.047952622 0.03384939 0.03821927 0.0341343 0.06209627 0.0408762
0.05652288 0.044616353 0.031523354 0.046177544 0.036167067 0.027673116 0.032531366 0.037428655
0.029689673 0.043306403 0.044302855 0.03187015 0.049289342 0.035413053 0.026844433 0.032047153
0.035232574 0.03728601 0.0327624 0.027143734 0.04379952 0.031173732 0.032333624 0.033454023

blocks.0.conv.weight f4 [32, 32, 3, 3]
00000000: 768d 213e 78b4 29be f592 9b3d afd2 8abe
00000010: 55c9 6b3d da0a 01be 777c 2f3e 4214 31be
00000020: 8d71 c63d f3ce acbd 56cd 953c 77e1 8bbd
00000030: b745 81bd 3b40 18bd 96db a63c 170c 113d
00000040: 88f3 223d a692 e9bd a77a 1b3e f341 0a3c
00000050: 5820 53bd 5bb1 09bd 0843 53be 5341 483b
00000060: d400 a33c 245f 28bd 2753 c33c 405b 963d
00000070: 7c2b 1d3d 7a2a a13a 3316 b03c 26b2 cbbd
00000080: a038 1a3c 35a8 1bbe 31d4 24be 2d65 873d
00000090: 54f8 41bd 7eef 7c3e 4c2e c73c d6b7 20bd
000000a0: b123 2e3e 629c a73d 69da 36be 0f63 b33c
000000b0: a365 2c38 ef1e 8b3d 7dcd 56be 1c45 cdbd
000000c0: e3eb 9dbc 3a80 9dbd b1f9 343d 54d1 c83d
000000d0: f39e 1a3c abf5 293e 803c 7f3d b04f fbbd
000000e0: 2017 d7bd 8ea3 cbbd faad f83d b87c 64be
000000f0: cab8 90bc 2cef 1c3d dd5d 49bd d818 023e
00000100: 95d8 2a3e c4d6 2c3e a90f 023e e57f c53d
00000110: 93ef 143d bcf0 a63d d1d9 fbbc 1770 cebc
00000120: a6b7 10bc 2b7c ccbe 5798 33be c71b ebbd
00000130: 2563 d23d bcc5 f93c 5779 fcbd 303f 8a3e
00000140: 7b30 04be 5f32 5abd f8e1 6f3d 5fac 09bd
00000150: af7f 0abe ba47 873e 6a8f c83d d0be 7b3d
00000160: 3a75 0fbd be8e 5dbd 9410 103e 2151 86bd
00000170: 8461 8f3c 405e 92bc 8888 603e 38a2 08be
00000180: 3806 493e 3fba af3c a629 173e 44ec 383c
00000190: 23bd df3c 249d 5e3e 9556 a3bc f120 c03d
000001a0: d638 913d d6d1 343e 3fbc 8fbd de25 903d
000001b0: ee6b bdbe a23a 44bd 4b9e 223d 0c5a 0c3e
000001c0: a760 da3c 1c21 b9bc 7873 b43c f7cd 593e
000001d0: db0f 49be b315 e6bd 4016 e2bd a5a0 75be
000001e0: ff15 aa39 9739 81be 055d 32be dc9f 90bd
000001f0: 1977 b13c a2d5 023e 12c4 13be 5ab1 6d3d
00000200: 794e 48be 7167 493d 1558 3fbd 6a47 6ebe
00000210: fa61 eab9 ff2f 36be 4c79 d9bd 0109 88bd
00000220: 669d c43d 087c 033e e181 5f3e b5b8 323d
00000230: 0e1a 1d3d 7979 9abc ade3 7b3d 0ab8 303b
00000240: b033 fb3c bb95 b0bd 3d7f 6d3c e46c dc3d
00000250: 04bd 00be 53c2 2cbd 68ff 57ba 96b3 8b3e
00000260: fd58 d73c b404 813d c15f 2b3e 5da8 423d
00000270: 8c73 e73c d55e 8cbf a874 b63d 8e34 823d
00000280: 5afc 963d 27af 4e3e f710 4fbd a156 0fbe
00000290: 2e5d 433e 4de9 853e 71c2 ebbd 8987 d63d
000002a0: 46dd 3ebe f4ae 4e3d a414 953d 21e5 4dbe
000002b0: 0e41 79bd f5ac 44be 5a3a 82be 1610 cbbb
000002c0: 0d46 d9bd 1474 2c3d 1dba 5d3d 2563 94bd
000002d0: be19 86bd 6fdd c9bd 76a9 513c c8c7 9dbc
000002e0: 6371 88be f615 12be e9bd afbc d1e5 c9bc
000002f0: 6ec5 2abd a5bd 583d b2a3 1b3e 7849 d23d
00000300: 3d65 c03d 015e 12be ade1 173d 8feb 9a3c
00000310: 9285 b93d 7f77 9e3d 5a5f cb3d 1194 51bd
00000320: 05f8 8e3b 19ff 3ebe a5e2 993e c717 833d
00000330: e225 45bd 6ba3 44be 04e5 2ebd 0bff a23d
00000340: 4d46 7fbc b759 ec3d 0f10 b23d bb85 943c
00000350: a576 443d c99f 13be 2c3a 993d d714 243e
00000360: 3294 5c3e 8766 333e 9878 8c3c 0396 193c
00000370: 3029 0e3c 6c43 b93c 40a3 5b3e 2a57 a23d
00000380: 0bf5 1e3e dc65 453d b8e1 96bd 52be 32be
00000390: d57c 563e 5f72 003d 7982 95be b53a c0bd
000003a0: 624d e3bc 874a 943d 9f29 b93d f8f4 debd
000003b0: fdb0 bdbc de95 9abe 24c1 96be 0ffe 533d
000003c0: 13c2 ebbd 3d01 023e b74d 03bd fb5b a63d
000003d0: 8a07 23be 130d 93bd 41f9 8b3d d7b4 f0bd
000003e0: a490 3fbc 4687 1f3e 3b48 433d 9f68 013e
000003f0: df27 aa3d 9cab 0ebe b254 173d bdd4 b6bd
0.1577662 -0.1657275 0.07596389 -0.27113864 0.057565052 -0.12601796 0.17137323 -0.17292884
0.09689627 -0.0843791 0.018286388 -0.068301134 -0.06312125 -0.03717063 0.020368379 0.03541192
0.03978303 -0.11404924 0.15183507 0.008438575 -0.051544517 -0.033616405 -0.20631039 0.0030556514
0.019897856 -0.04110636 0.023843361 0.07341623 0.038371548 0.0012295984 0.02149496 -0.099460885
0.0094129145 -0.15200885 -0.1609657 0.066110946 -0.047355965 0.24700734 0.024314068 -0.03923782
0.17005803 0.081841245 -0.17856754 0.02189782 4.1102652e-05 0.067930095 -0.20976825 -0.10022947
-0.019277519 -0.07690473 0.044183437 0.09805551 0.0094373105 0.16597621 0.062313557 -0.122710586
-0.105024576 -0.09943305 0.121425584 -0.22313201 -0.01766624 0.03831403 -0.04916178 0.1270479
0.16684182 0.16878802 0.12701286 0.096435346 0.03636129 0.08151385 -0.030743511 -0.025199933
-0.008832848 -0.39938483 -0.17538582 -0.114799075 0.102728166 0.030489795 -0.12327831 0.27001333
-0.12909119 -0.053270694 0.05856511 -0.03361165 -0.1352527 0.2642191 0.09792979 0.06146127
-0.035023905 -0.054091208 0.14068824 -0.06558443 0.017502554 -0.017867208 0.21927083 -0.13343132
0.19631279 0.021451114 0.14761981 0.011286799 0.027311867 0.21739632 -0.019938746 0.09381283
0.07090919 0.17658171 -0.07018327 0.070384726 -0.36996406 -0.04790748 0.03970174 0.13706225
0.026657416 -0.022598796 0.022027716 0.21269976 -0.19634955 -0.112346075 -0.110394 -0.23987062
0.00032441315 -0.2523925 -0.17418297 -0.07061741 0.021663236 0.12776807 -0.14430264 0.058030464
-0.19561185 0.049170915 -0.04671486 -0.2326943 -0.00044704956 -0.17791747 -0.10618839 -0.06642342
0.09600334 0.12840283 0.21826889 0.04363318 0.038354926 -0.01885675 0.061496425 0.0026965165
0.030664295 -0.08622309 0.014495668 0.10762957 -0.12572104 -0.04217751 -0.00082396576 0.2728545
0.02628755 0.06299725 0.16735746 0.047523845 0.02825334 -1.096644 0.08908969 0.0635768
0.07372351 0.20184003 -0.05055329 -0.1399789 0.19078514 0.26154557 -0.11511696 0.1047507
-0.18639097 0.050459817 0.072793275 -0.20106937 -0.060853057 -0.19206603 -0.25435144 -0.006196986
-0.10609064 0.04210289 0.05413257 -0.07245473 -0.06547879 -0.09856688 0.01279675 -0.019260302
-0.26649007 -0.1426619 -0.02145286 -0.024645718 -0.04169219 0.052915234 0.15199164 0.10267919
0.0939431 -0.14293672 0.037080456 0.018911151 0.0905868 0.07737636 0.09930296 -0.051166598
0.0043630623 -0.18652 0.3005573 0.064010195 -0.04813183 -0.19202964 -0.042698875 0.07958802
-0.015580726 0.11540549 0.08694469 0.018130174 0.04796471 -0.14416422 0.074817985 0.16023575
0.21540907 0.1751958 0.017147347 0.0093741445 0.008676812 0.022615157 0.21448994 0.079267815
0.15523164 0.048192844 -0.07367271 -0.17455414 0.20946057 0.031359073 -0.29201105 -0.093861975
-0.02774686 0.072407775 0.09041142 -0.10886568 -0.023155684 -0.30192465 -0.2944423 0.05175596
-0.11511626 0.12695785 -0.032056537 0.08123013 -0.15920845 -0.07180228 0.06834651 -0.117532425
-0.0116922 0.15578946 0.047676306 0.12637566 0.08308386 -0.13932651 0.036946006 -0.08927295

blocks.0.conv.bias f4 [32]
00000000: fd62 67bb 2c12 09bc 2b98 39ba 554d 69ba
00000010: f6a5 073c 0359 22bc af2c 8c3b 89cd c2bb
00000020: 00de 98bb e949 ff3a 7c77 32bb dee9 22bb
00000030: 28c8 c1ba f0f2 91ba 1b00 cdba 61d1 00ba
00000040: 0479 eb3a 2756 0e3c 1a8d 873a f3f7 003a
00000050: a4e0 9abc 25ad 2ebb 2d75 96ba 8042 2abb
00000060: ff66 213d b5a7 32ba edec bf3a 9d2d d7b9
00000070: 6861 69bb 3ce7 763c 857f 35bc dc9d 313a
-0.0035306804 -0.008366149 -0.0007079865 -0.0008899768 0.008279314 -0.009908917 0.0042777876 -0.005944912
-0.0046651363 0.0019476983 -0.0027231863 -0.0024858634 -0.0014784383 -0.0011135023 -0.001564029 -0.00049140124
0.0017965143 0.0086875325 0.0010341734 0.000491976 -0.018905945 -0.0026653495 -0.0011479013 -0.0025979578
0.039404865 -0.00068151514 0.0014642753 -0.0004104198 -0.0035611037 0.015069779 -0.011077766 0.0006775537

blocks.0.bn.weight f4 [32]
00000000: 8cfe 643f 1e93 583f 3bfc 563f 817e 5f3f
00000010: f583 8c3f 4e90 593f ab12 4a3f 0c07 5b3f
00000020: a991 823f 53a7 853f d3e7 7b3f 46db 823f
00000030: 46ee 633f 87bd 4d3f c0a3 643f 4482 573f
00000040: 9aa9 843f fe39 7c3f 4051 5f3f d5a3 5e3f
00000050: 0993 843f e873 483f 0439 513f ebe1 683f
00000060: 3754 673f 32d1 743f 7c98 8b3f ebe8 8f3f
00000070: 560e 4b3f a9b1 413f 39bc 343f 514c 863f
0.8945091 0.84599483 0.83978623 0.87302405 1.097777 0.84985816 0.78934735 0.8555763
1.0200702 1.0441688 0.9840061 1.0223167 0.8903545 0.8036732 0.8931236 0.84183145
1.0364258 0.9852599 0.8723335 0.8696874 1.0357372 0.7830186 0.81727624 0.90969723
0.90362877 0.95631707 1.090591 1.1242956 0.7931875 0.7566171 0.70599705 1.049204

blocks.0.bn.bias f4 [32]
00000000: 8d83 04bf dfcc dfbe 90ff c0bd 530b 10be
00000010: ab5e 92be fe9a 35be afb8 d0bd cf10 63be
00000020: 57ab 5cbe 6204 a3be 2ddb bfbe e225 dabe
00000030: 3aff b2be 6adf 19bf 3232 4fbe 61d2 b1be
00000040: 16a7 06bf 6ea3 90be e104 19be 99ba 1cbf
00000050: 6b3f 66be 9113 1cbe 56c9 16bf b187 a7be
00000060: 90cd 8ebd e170 9ebe f8aa 9fbe c728 cebe
00000070: af21 03bf 2682 56be 6b26 2e3d e0a6 0bbf
-0.5176323 -0.43710992 -0.09423745 -0.1406682 -0.2858785 -0.17734906 -0.101914756 -0.2217438
-0.21549736 -0.3183928 -0.37471905 -0.42607027 -0.34960347 -0.6010653 -0.20233992 -0.3473082
-0.525987 -0.28249687 -0.14943267 -0.61222225 -0.2248513 -0.15241839 -0.58900964 -0.32720712
-0.06972802 -0.30945495 -0.31185126 -0.40265486 -0.5122327 -0.20948085 0.042517107 -0.54551506

blocks.0.bn.running_mean f4 [32]
00000000: d655 c2bc 42bc cfbf a7de 8c3f fc9d 49be
00000010: 5466 8f3d 83a9 65bf 1281 76bf 1530 c7bf
00000020: e97a 3ebe 2875 65bf 56db 8fbf a8fc 2abf
00000030: 8713 53bf b253 473f f8fb 903f 9608 d9be
00000040: e817 01be 68e7 22bf f08e 483f d9af 0b3d
00000050: 1f25 11bf f41f e6be 6e8d e0be ba03 153e
00000060: 32af 2e3d 54cb e9be ad10 afbd 4572 13bf
00000070: 939c f2bf 6499 20be d268 193e 880b debf
-0.02372257 -1.6229327 1.1005448 -0.19689173 0.070019394 -0.8971178 -0.96290696 -1.5561548
-0.18601574 -0.8963189 -1.1238811 -0.6679177 -0.8245167 0.77862084 1.1326895 -0.42389363
-0.12606776 -0.6363435 0.78343105 0.03410325 -0.5669727 -0.44946253 -0.43857902 0.14552203
0.042647548 -0.4566294 -0.085481025 -0.57596236 -1.8954033 -0.15683514 0.14981392 -1.7347269

blocks.0.bn.running_var f4 [32]
00000000: 968e ab3f 357c 3440 b8eb b040 3e7a 0740
00000010: 5f55 4c40 40a0 4e40 475d 8d40 7c55 4e40
00000020: bdb8 e83f 0df5 b13f 5c29 0540 f5ae 0240
00000030: f5b9 fc3f 38f5 dd3f a864 9940 e668 0940
00000040: 0f3b ee3f 02d0 9340 f2c0 f63f 1747 ba3f
00000050: 1462 ce3f 478d 2640 7a93 d73f 80b6 de3f
00000060: 7123 7740 efe1 e13f fd5a b23f 7d2c 4140
00000070: 7835 a040 1635 f53f 52e1 1940 86c1 8140
1.3402889 2.820081 5.5287743 2.116836 3.1927106 3.228531 4.4176364 3.2239676
1.8181378 1.3902909 2.0806494 2.0419285 1.974425 1.734046 4.793537 2.1470275
1.8611773 4.6191416 1.9277632 1.4552945 1.6123681 2.602373 1.6841881 1.7399445
3.8615382 1.7647074 1.3934017 3.0183403 5.006527 1.9156826 2.4043775 4.0548735

blocks.1.conv.weight f4 [32, 32, 3, 3]
00000000: e693 863c c376 c1bd e70b 8c3d 54cf a9be
00000010: e656 173e b7e9 e6bd 494f 553e a2cf a6be
00000020: 176f 4b3d fe79 f5bc a655 bc3c 64ab 8bbd
00000030: a90b 53be ca5f 873c 3b7c 95bd 1e64 23be
00000040: 440c 1a3e c4f1 41be 5995 183d 4cb3 6dbe
00000050: 1a66 febc 7669 47be 39ad f9be d78f 5cbd
00000060: c7eb ba3d 741d 183e cac2 c63c 7ed7 853e
00000070: d1ad 7ebd 80e0 ff3c 779c 83bd a18f f2bc
00000080: 83a6 79bd 37c3 4dbd e3da 7fbe f4a7 37be
00000090: cd27 ee3d b064 1c3d 43a1 c8bc a526 833e
000000a0: 3b8b 053e 4649 be3d 1cd2 073e e3f1 0bbd
000000b0: 91cc 9f3d c540 28be 76a8 40bd 6eff 5a3e
000000c0: f919 0f3e 0de0 a9bc 4731 9fb9 726b a5bd
000000d0: 21ae e63c 19be d33c 6153 dfbd 7788 973d
000000e0: b68b 28bd 50e4 c1bd 4192 b83d 5689 35bd
000000f0: d744 b0bd 252b ea3d f7d6 dabd 692c b33d
00000100: 2953 97be 6b01 27bd b569 de3c 0465 5d3e
00000110: 3a3f 49be c8fd 1b3e a068 1b3e 5cf8 edbc
00000120: 6516 743c 9253 5cbd e6dd 613d 535e 41be
00000130: 69dc c83c 74f1 9bbd 6643 d0bc efe2 01be
00000140: b678 443d 6dac 063e e397 a53d f56b 1fbe
00000150: 9c6b 153e 54b4 dc3c ae5a 48be db9d 943e
00000160: d19e 59bd 9802 50bd 629e 233d fe3c 06be
00000170: 98e4 2abe ff01 f8bb d023 493d 14cf 17bd
00000180: 0406 083c 11bb debd 62cf b43d c72e aa3d
00000190: 55a1 253e 4a8e df3d b49c 05be d7f4 54bd
000001a0: c42d e93c 862a 49bc 41b3 a4be 1b99 2cbe
000001b0: cf15 aebd 9126 e83d 4887 75be 286a 203e
000001c0: 3032 f03d 0b69 703d adae e3bc 561e 343e
000001d0: e2e3 633e e345 c2be 7684 84be 33fd 6abe
000001e0: f14d 4abe 8b73 bebe dcdf 9abd bab5 b1bb
000001f0: 23fc 69bd c46e bdbd ae90 993e 4779 2cbc
00000200: 043b eebd 606d 243e 9f54 4fbe 8ba3 f33d
00000210: 1558 f63d 8274 45be 8e8f 93bd 4fa8 98bd
00000220: 3ff7 9a3d baa1 a93c 1010 fabd e57c 74bd
00000230: e9f5 8abd 2a91 82bc f731 41be a8bf 783c
00000240: d0e8 153e 5605 84be f509 e3bd 9485 02be
00000250: d0bc a6be 5a61 9f3c 504a 193e ddf9 593a
00000260: 3c5e f5bd bff4 2d3e 6943 923d eda4 373d
00000270: d7e3 f7bd 778f 01bf 46e8 ff3b 20dd c2bb
00000280: 6205 69be c653 a7bd a90c c03c 750e 083b
00000290: 5efe d63c 6a8d 193d 377b 563d 9116 9a3c
000002a0: 6ca6 27bd 2e08 3b3e 42c6 02be f98c 2fbe
000002b0: a3e5 d7bc a778 3dbd b034 273e 08da fcbd
000002c0: eb91 4dbc 7a17 89bd bed1 a2bd 5850 43be
000002d0: 970f 5a3d dc53 96bd dda8 313d b119 053d
000002e0: 984e dbbe 3438 b03c 6e8c 7d3d c371 86bc
000002f0: ee06 e5bd 3389 58bb 7ffd e13c 29e5 33be
00000300: ba93 b83d f866 e7bd f4b0 ffbc 4b93 423e
00000310: 9210 d33d 1720 b1bc d16c 363e ad6e 863b
00000320: 5eb7 fd3c 4548 3bbd 355c 86be f45c fe3c
00000330: 3703 4a3d 3dfe b6bd 2fa5 853d 8834 e0bd
00000340: faf3 93bd f6f1 dd3d d145 debd f018 a1be
00000350: 8c96 20be 6e62 c63c 5dd3 5dbe 9714 b0be
00000360: 9621 55be edbe cdbd a4e9 bbbd b318 24be
00000370: 1061 6bbe 7600 08be 7bd2 f7bc 43d3 de3d
00000380: 9740 963b 5ef4 6a3d 4d95 3a3c 9406 93bd
00000390: 4982 5cbd 844f 96bc 5a20 db3b dcf7 85be
000003a0: 58ae 033e 8d8f d9bc 70c5 d0bc e517 a5b9
000003b0: e7c5 063e 184d 00be 7dfb ecbd 3d03 08be
000003c0: 6105 53be 7315 e03d 34d2 69be 4d75 f6ba
000003d0: 1271 c63b 975c 69bd 5615 ed3d 4cf1 44bd
000003e0: 8d65 d33a 1eb1 0bbc 1213 2dbe 8e35 debd
000003f0: 3ca2 79bd 6daf 5fbc 5450 d63d fc95 7fbe
0.016427945 -0.0944648 0.06838208 -0.3316599 0.14779243 -0.11275046 0.20831026 -0.32580286
0.04966649 -0.029965397 0.02299006 -0.068197995 -0.20609917 0.016525168 -0.07299086 -0.1595616
0.15043741 -0.18939883 0.037251804 -0.23212928 -0.031054545 -0.19473824 -0.4876497 -0.053848114
0.09127002 0.14854985 0.024262805 0.2614097 -0.062177483 0.03123498 -0.06426328 -0.029609503
-0.060949814 -0.050235 -0.24985842 -0.17935163 0.11628685 0.03818196 -0.024490958 0.2561542
0.13041393 0.092913195 0.13263744 -0.034166228 0.0780269 -0.16430958 -0.047035657 0.21386501
0.13974752 -0.020736719 -0.00030363558 -0.08077134 0.028159203 0.025847482 -0.10904575 0.073990755
-0.041148864 -0.09467375 0.09012271 -0.044320427 -0.0860688 0.114340104 -0.106855325 0.08748705
-0.29555634 -0.040772837 0.027150014 0.21620566 -0.19653025 0.15233529 0.1517663 -0.029049091
0.014897917 -0.053790636 0.05514326 -0.18883638 0.024519162 -0.07614413 -0.025422763 -0.12684225
0.04796668 0.13151713 0.08085611 -0.15568526 0.14591831 0.026941456 -0.19565842 0.29026684
-0.053129975 -0.050783724 0.039945967 -0.13109204 -0.16688764 -0.0075685973 0.04910642 -0.03706272
0.0083022155 -0.10875524 0.08828618 0.08309703 0.16174825 0.10915811 -0.13048059 -0.05199131
0.028464206 -0.012278205 -0.3216801 -0.1685528 -0.085002534 0.11335481 -0.23977387 0.15665495
0.117283225 0.058693927 -0.027793253 0.17589697 0.22254899 -0.37943944 -0.2588231 -0.2294815
-0.19756295 -0.37197527 -0.07562229 -0.005423275 -0.057125222 -0.092496425 0.29993194 -0.010526962
-0.1163235 0.16057348 -0.20247124 0.11896428 0.12028519 -0.19282725 -0.07205115 -0.07453977
0.0756669 0.020707 -0.12210095 -0.05968942 -0.06785185 -0.01593836 -0.18866716 0.015182413
0.14639592 -0.2578532 -0.110858835 -0.12746269 -0.32565928 0.0194556 0.14969754 0.00083151256
-0.119808644 0.16987894 0.07141764 0.04483502 -0.12104004 -0.50609535 0.0078096716 -0.0059467703
-0.2275596 -0.081702754 0.023443537 0.002076057 0.026244339 0.03748838 0.0523636 0.018809589
-0.040930197 0.18264839 -0.12770942 -0.1714362 -0.026354617 -0.04625764 0.16328692 -0.12346274
-0.012546997 -0.06693931 -0.079501614 -0.19073617 0.053237524 -0.07340214 0.04337393 0.032495204
-0.428334 0.021511175 0.061901502 -0.016411668 -0.11182962 -0.0033040761 0.027586697 -0.17567886
0.090125516 -0.112989366 -0.031212308 0.190015 0.10305895 -0.021621747 0.17814948 0.004102549
0.030971225 -0.04572322 -0.26242223 0.031050183 0.049319472 -0.08935211 0.06525647 -0.109475195
-0.07224269 0.10837166 -0.1085316 -0.31464338 -0.15682429 0.024216857 -0.2166266 -0.3439071
-0.20813593 -0.10046182 -0.09175423 -0.16025047 -0.22986245 -0.13281426 -0.030251732 0.10880139
0.0045853364 0.057361953 0.011388135 -0.07178989 -0.053835187 -0.018348463 0.006687206 -0.26165664
0.12859476 -0.026557708 -0.02548477 -0.00031489055 0.13161431 -0.12529409 -0.11571405 -0.13282485
-0.2060752 0.10941591 -0.22834092 -0.0018803269 0.0060559595 -0.056973066 0.11576335 -0.04808168
0.0016128287 -0.008526115 -0.16901806 -0.108500585 -0.060945734 -0.013652665 0.1046454 -0.24959558

blocks.1.conv.bias f4 [32]
00000000: e970 413c bcd1 00ba 6ab2 b9ba daa9 64bb
00000010: b6af 9abb e164 e7bc 9bb5 e53b f0b3 973a
00000020: 8ec0 2a3c a9a4 22ba 5ac4 9db9 ee18 4aba
00000030: 5903 ef3b 85d4 2d3b 8285 903a 9047 9f3c
00000040: c2ef 9f3a 834a e0b9 7965 f03b 7ef3 c1bc
00000050: cd0c 5e3a c31e 643b 0c92 023a ce4b 5abb
00000060: d75c b53b 3b9d b33c 4dd8 08bb 8866 00bd
00000070: 872f 8836 f658 05bb c2f6 39ba ef70 b2bb
0.011806705 -0.00049140654 -0.0014167551 -0.0034891278 -0.0047206534 -0.028246345 0.0070101744 0.0011574011
0.010421885 -0.0006204346 -0.00030091667 -0.0007709403 0.0072941002 0.0026524377 0.0011026117 0.019443303
0.0012202191 -0.00042780125 0.0073363152 -0.023675676 0.00084705354 0.0034808374 0.0004980869 -0.0033309343
0.005534749 0.02192556 -0.0020880878 -0.03134778 4.0586488e-06 -0.0020347214 -0.000709396 -0.0054455916

blocks.1.bn.weight f4 [32]
00000000: 2d72 483f 69cb 693f ad06 643f bf2d 823f
00000010: f0a2 823f 58f5 563f 1e0a 513f 603a 803f
00000020: a7bf 8a3f 8c29 6a3f f63d 763f eb34 7b3f
00000030: f666 8c3f f3a2 763f 29f2 8a3f aa1f 8a3f
00000040: e0bc 8d3f 6e99 433f 78aa 623f c52e 7c3f
00000050: 883b 5c3f 56e8 3f3f 933f 8a3f ff7e 943f
00000060: cc3d 793f 54d2 6e3f 031c 7c3f 8e7d 5b3f
00000070: ba2b 683f 287b 613f 1a38 123f eda1 893f
0.7829922 0.91326004 0.89072686 1.0170211 1.0205975 0.83968115 0.8165606 1.0017815
1.0839738 0.91469646 0.96188295 0.9812762 1.0968921 0.9634239 1.0855151 1.0790913
1.1073265 0.7640599 0.88541365 0.98508865 0.8602834 0.7496389 1.0800651 1.1601256
0.9735992 0.93289685 0.9848024 0.85738456 0.9069172 0.88078547 0.57116854 1.0752541

blocks.1.bn.bias f4 [32]
00000000: 250d 5ebe 9f62 bfbe 5736 0abe df19 58be
00000010: e71a 35be c6bc dabd 57fd aabe 59c6 b3be
00000020: 3347 93be 0dad afbe feab c6be 287a eabe
00000030: fc33 c9be 9a0f d9be 93b2 84be ff51 8dbe
00000040: 29b4 27bf f628 f8be 7c6a 9ebe b0ae cfbe
00000050: bc39 00bf 0185 edbe 1426 f5be 25cb 60be
00000060: d69f 0fbf 0645 60be ac9c 78be 5f76 64be
00000070: fca6 bfbe d8a5 e8be 5c54 1bbd 9f6f c9be
-0.21684702 -0.3737993 -0.13497292 -0.21103619 -0.17686044 -0.10680537 -0.33396408 -0.35112265
-0.28765258 -0.34311715 -0.38803095 -0.45796323 -0.39297473 -0.42394716 -0.2591749 -0.2760162
-0.6550928 -0.4846875 -0.30940616 -0.40562963 -0.50088096 -0.46390536 -0.47880614 -0.21952493
-0.56103265 -0.2190133 -0.24278516 -0.2231078 -0.37432086 -0.4543903 -0.03792225 -0.39342973

blocks.1.bn.running_mean f4 [32]
00000000: bc52 35c0 a164 a7bf 8a6a 0ebf eef2 d7bf
00000010: db9a 04c0 484a 30be bbcc 403f f41a 00c0
00000020: 11d3 f2bf e3a5 6fbf 4395 19bf d09c 83be
00000030: a721 76be 9e73 ca3f 9f1b 95be 949f dfbf
00000040: 1a67 43bf 05df e9be 888f f5bf 1e45 b5bf
00000050: 946f 53be db5f 94bf 6b85 1bbf f185 23bf
00000060: 57ec 6ebf cf69 8c3b 8127 a7bf 5011 3cbf
00000070: 20fd ff3e 4e77 1ebe 638b a93f 1d04 04bf
-2.8331747 -1.3077585 -0.55631316 -1.6871011 -2.0719516 -0.17215836 0.75312394 -2.001645
-1.8970662 -0.936125 -0.5999338 -0.25705576 -0.24036275 1.5816534 -0.29122636 -1.7470574
-0.76329195 -0.45677963 -1.9184427 -1.4161718 -0.20648032 -1.1591753 -0.60750455 -0.63876253
-0.93329376 0.0042850743 -1.3058931 -0.73463917 0.49997807 -0.15475199 1.3245662 -0.51568776

blocks.1.bn.running_var f4 [32]
00000000: cb59 3e41 4927 4a40 d2da 3440 739c da40
00000010: d95a 6841 141c 9140 a37e 1a40 81f6 9f40
00000020: 4816 8e40 b428 5b40 7ab5 8840 b767 5b40
00000030: d5f0 8940 3522 8b40 8a09 ac40 9412 da40
00000040: 2f26 2440 23d0 6b40 be99 9b40 8a46 aa40
00000050: 7658 5340 3e42 bb40 e4b9 5640 9201 6f40
00000060: a023 9040 b534 d640 e71c 8c40 7ab5 e640
00000070: 16a1 2c41 b561 8f40 e8d0 6341 5d9b 2740
11.896922 3.1586478 2.8258557 6.831598 14.52218 4.5346775 2.4139793 4.998841
4.44022 3.4243593 4.272153 3.4282053 4.3106484 4.3479257 5.3761644 6.814768
2.5648305 3.6845787 4.8625174 5.3211107 3.3022742 5.851836 3.3550959 3.7344708
4.5043488 6.693934 4.378528 7.209653 10.789328 4.480677 14.2385025 2.6188576

blocks.2.conv.weight f4 [32, 32, 3, 3]
00000000: 113c b93d bd7d 01be cfd7 18be b218 bfbd
00000010: 79a2 21bc 3672 20be b88d eebb 5af9 31be
00000020: 1cb1 12bd ca28 83be 0616 01be a529 d1bd
00000030: 3b11 8ebe ec3c e0bd 2415 04be 6089 db3c
00000040: 1033 1fbe 071a 97bc ce61 88bd 4e2c 53bd
00000050: 50fd 4c3e e0a2 96be 34d4 0bbd e4c0 e13b
00000060: 0006 50bd d040 2fbe a9d1 b8bd c567 103e
00000070: a61c ddbd 615b 153d bac6 8d3d 4062 debd
00000080: b913 373c f419 f93d b867 133e 4513 e53d
00000090: 163f 88bc 7bc2 023c 48cc a03e c691 0e3e
000000a0: 517b 973e 97df f53d 448a 4b3e e2de 873d
000000b0: 3312 fa3d 04fc 1bbe a0bd 9d3d 279a 943e
000000c0: d4e7 c53d d301 9b3d c9e5 1e3e fcae 863c
000000d0: eea6 75bd 828d 3cbe bedc 943c fac4 e63d
000000e0: 9465 853d 9f10 9abc 1006 193e 21a2 863d
000000f0: fdd7 c5bd 2b25 a43c 10a4 9cbe 8357 b5bc
00000100: 82bf 72be 8c6c a53d 0418 94bc d52f 993c
00000110: 081f 00be 41fc bbbd c5c5 bcbd 8c27 913c
00000120: 8c28 5e3d 7ba1 26bc 0cd2 a23e b165 8f3e
00000130: 73f0 9f3d 1808 813d 36ba 6b3e d269 97be
00000140: 9dd9 d6bd 5953 18bd fd2b 223e 9fde 9bbe
00000150: 1d60 5ebe 2fb4 37bc dd77 2abe 4cf6 1cbd
00000160: c1d5 8abe 0fbf 7bbd 4d10 34be 8e36 bfbe
00000170: 92ff 0bbe 46e2 d7bd aada 07be 0403 f6bd
00000180: aca9 ab3d f564 bdbb 54c5 0fbe eaf9 6b3d
00000190: c0b1 763d e221 56bd f4b8 c8bd 9cc7 d13d
000001a0: 3a27 36be 8a9c d9bd 4aab 84be f2d1 4f3e
000001b0: aab9 d33b 7b27 fd3d 014e 543e 1795 233e
000001c0: 6674 e4bb 7ec8 5a3c 0e58 ab3d 5161 e83d
000001d0: 2250 1e3e a184 85bd e861 a2be 8c00 ebbd
000001e0: b254 75be 4771 29bd 6c18 4c3e 9b5d 19be
000001f0: fadd 02be 4482 92bd c07b 5dbe 0bb9 10be
00000200: 71e6 abbe 8f70 06be 509c 26be f442 323d
00000210: 9fa6 b1be 81b9 c53e 6b21 1abd ef7a 92bd
00000220: c642 113d 61a2 e9bd 8a3c 29bd b46d c7bd
00000230: a5e0 08be 4aa9 803e 9c0f d6bd c0b2 3c3e
00000240: 1b4f 18bc 12fe 8cbd 9941 d73c 4922 99bd
00000250: 8eda f5bd 7d29 3e3e 25dd a53e b28e 2dbe
00000260: f8dd 033e 2992 94bb 2780 de3c 28dd 043d
00000270: aa75 ce3c 2a43 fb3d ebfa 2c3e af77 81be
00000280: 03a0 55be bab6 7fbd c900 0ebe 14b5 353c
00000290: d0d8 093b ddea eb3d b8aa 943d ddec ef3d
000002a0: 7e92 103e 6c14 c13d 903a 58bd 9563 1ebc
000002b0: d9c9 09bd 8481 833d f0ef 00be 8ba8 2abe
000002c0: 4546 d0bc c564 30be 5e6f 8e3c 47fa 67b8
000002d0: 9c3f f33c 467d a6bd 8440 6d3e b174 1a3e
000002e0: dd26 ae3c d5c8 823d 35a6 de3d 9eb2 093e
000002f0: 2929 3cbe 8db7 e23d f225 333d 07a7 4dbb
00000300: 9cbc 5b3e 3ddb d83d a1b7 39bd df4a 343c
00000310: a67b f93d 0778 7d3d 502d 423e ecd4 8ebd
00000320: 52b1 83bc ec00 d3bd 9688 103e ec08 febd
00000330: d44a 5cbe 13bb 17be da09 6bbe ba8c 96be
00000340: c989 cebd c3a7 c13d 34fb a0bd 31f7 8cbe
00000350: 318d 1bbe 2cbf 32be 928b 44be a869 5c3d
00000360: ced1 9ebd 572c 7dbd d1b1 91be a89d 3bbe
00000370: e62a 183e 9a13 1e3d 38f0 cdbd d1a8 f6bd
00000380: 763a f1bc aff7 b638 038e e03d 0a47 02be
00000390: 94c7 ca3d 6eec 233d ed02 123e 6fc4 e13d
000003a0: 8f47 ecbc 2b06 31bc 9540 38bd 5e83 b93d
000003b0: 06cc 11bd 4edb f8bd a557 f6bd 810a 403d
000003c0: cd52 123e 7205 f63d abf5 45bc 82a8 c0bd
000003d0: 77fc d8bd 9e92 cbba 01c4 d1bd f5b1 47b9
000003e0: af10 39bd 662e 57be f4ae 133e 514c 9b3c
000003f0: 4307 473e 77f7 b13c 79f9 eebd 7df0 c1bb
0.0904466 -0.12645622 -0.14926074 -0.09330882 -0.009865397 -0.15668568 -0.007280078 -0.17380276
-0.035813436 -0.25617057 -0.12606058 -0.10213021 -0.2774752 -0.1094912 -0.1289869 0.026798904
-0.15546823 -0.018445028 -0.0665928 -0.051555924 0.20018506 -0.2942114 -0.03413792 0.0068894494
-0.050786972 -0.17114568 -0.090243645 0.14102085 -0.1079648 0.0364641 0.0692267 -0.108585835
0.011174136 0.12163153 0.14395034 0.11185316 -0.016631644 0.007980938 0.31405854 0.13922796
0.2958627 0.12005537 0.19876963 0.066343084 0.122105025 -0.15232855 0.07702184 0.2902386
0.09663358 0.07568707 0.15517344 0.01644086 -0.05997365 -0.18413356 0.018171664 0.11268039
0.06513515 -0.018806754 0.14943719 0.065738924 -0.09660337 0.020037254 -0.3059392 -0.022136455
-0.23705867 0.08077344 -0.018077858 0.018699566 -0.12511837 -0.09178973 -0.09217409 0.017719053
0.054237887 -0.010170336 0.31800878 0.28007272 0.07809534 0.06300372 0.23020253 -0.29572922
-0.10490725 -0.03718886 0.15837093 -0.30443284 -0.21716352 -0.011212393 -0.16647287 -0.038320825
-0.27116206 -0.061461505 -0.17584343 -0.3734631 -0.13671711 -0.10541205 -0.13267007 -0.12012294
0.08381972 -0.0057798573 -0.14040118 0.057611383 0.06022811 -0.052278407 -0.09800902 0.102431506
-0.17788401 -0.106255606 -0.25911933 0.20294932 0.006461342 0.12361046 0.20732881 0.15974842
-0.0069718836 0.013353465 0.083664045 0.11346687 0.15460256 -0.065194376 -0.31715322 -0.11474714
-0.2395809 -0.041367795 0.19931191 -0.14977114 -0.1277999 -0.071537524 -0.21629238 -0.14133088
-0.3357425 -0.13128875 -0.16270566 0.043520883 -0.34697434 0.3861809 -0.037629526 -0.07152354
0.03546407 -0.114079244 -0.0413175 -0.09737721 -0.13366945 0.25129157 -0.10452196 0.18427563
-0.009296204 -0.068843976 0.026276397 -0.074772425 -0.120045766 0.18570514 0.32395282 -0.16948965
0.12877643 -0.004534025 0.027160717 0.032437474 0.025202591 0.1226867 0.16892593 -0.25286624
-0.20861821 -0.06243012 -0.13867487 0.011090536 0.0021033771 0.11519406 0.072591245 0.117151
0.14118382 0.09427723 -0.052790225 -0.009667297 -0.033639763 0.064211875 -0.12591529 -0.16665857
-0.025424132 -0.1722594 0.017387088 -5.530778e-05 0.029693417 -0.08129363 0.23169142 0.15083577
0.021258766 0.06385962 0.10871545 0.13447043 -0.18375076 0.11070166 0.04373736 -0.0031380074
0.21458668 0.105886914 -0.045341138 0.011004179 0.12181787 0.061882045 0.18962598 -0.069742054
-0.016075764 -0.1030291 0.14114603 -0.124040455 -0.2151292 -0.14817457 -0.22952977 -0.2940424
-0.10084874 0.09455826 -0.07860413 -0.27532342 -0.15190579 -0.17455739 -0.19193867 0.0538117
-0.07754861 -0.061809864 -0.28455976 -0.1832186 0.14860114 0.038592912 -0.10055584 -0.12043918
-0.029446822 8.724571e-05 0.109645866 -0.12722412 0.09901348 0.0400204 0.14258929 0.11023795
-0.028842716 -0.010804693 -0.044983465 0.090582594 -0.035594963 -0.12151204 -0.120284356 0.046885017
0.14289398 0.12012757 -0.012082498 -0.0940714 -0.10595029 -0.0015531366 -0.10242463 -0.00019044413
-0.045181926 -0.21013793 0.14422208 0.018957289 0.19436364 0.021724446 -0.11668677 -0.005918561

blocks.2.conv.bias f4 [32]
00000000: 286a 683b f6da 39bc bef5 e53a 4757 4239
00000010: cfeb 1e3b 7212 bf3b 9ad2 2f3c a5aa 093a
00000020: 0ed3 203c 24bb ed39 0341 dfbb e380 b73a
00000030: 555e df3a 2424 853c 7f3e 8aba 437e 25bc
00000040: 3be0 0f3a 7c80 b3b9 7fc9 62bc b4fb 7a3c
00000050: 4b91 9139 3dda 0c3a a34b f339 c980 353c
00000060: 419e 35b9 48b4 92bb b31f 85ba 7f48 b7b9
00000070: 667d 383c 72b8 cbba 9904 67ba 4eed 2cb9
0.0035463665 -0.011343708 0.001754455 0.00018533795 0.002424944 0.0058310563 0.010731364 0.0005251563
0.009815944 0.00045343593 -0.00681317 0.0014000203 0.0017041663 0.016252585 -0.001054719 -0.010100904
0.000548843 -0.0003423727 -0.013841986 0.0153188 0.00027764807 0.0005373096 0.00046404926 0.011078068
-0.0001732046 -0.0044770576 -0.0010156542 -0.00034958494 0.011260366 -0.001554264 -0.0008812636 -0.00016491601

blocks.2.bn.weight f4 [32]
00000000: 8236 843f ea3c 6d3f bb63 4d3f 5308 4c3f
00000010: 6934 613f 9c7d 423f edb7 863f 352b 873f
00000020: 454d 4e3f 0525 833f 9333 653f 6ce6 633f
00000030: caa0 6b3f 3fd2 703f cc7e 703f 7af2 8b3f
00000040: 652f 8c3f 92fd 813f 9c02 5d3f ed1c 6a3f
00000050: c17d 5d3f 9fe4 7c3f 4ea5 623f a7fa 8b3f
00000060: 59e4 883f e62e 853f c5b5 763f 1912 473f
00000070: 9b0f 3d3f ab92 843f 836c 103f feaa 643f
1.0329134 0.9267107 0.802303 0.797002 0.87970597 0.75972915 1.052488 1.0560061
0.80586654 1.0245672 0.8953182 0.8902347 0.9204222 0.9407081 0.93943477 1.0933373
1.0951964 1.0155509 0.86332107 0.9145039 0.8652001 0.9878635 0.88533485 1.0935868
1.0694686 1.0404937 0.9637111 0.7776199 0.7385194 1.035726 0.56415576 0.89323413

blocks.2.bn.bias f4 [32]
00000000: 03fa 1ebe eef3 b9be 6dde 1cbe 3ff6 bfbd
00000010: e80b b6be 0877 7abe fdc6 12be 4830 fbbe
00000020: 218d cbbe 8e77 9cbe dd49 a4be 861d b2be
00000030: 3834 05bf a5df b4be 4e06 ccbe 5585 debe
00000040: d2d6 b7be 7875 09bf e51d 69be 4580 76be
00000050: 483a f9be 1fa0 27bf 9aeb b1be 8c12 b7be
00000060: bfbe fbbe 5873 9bbe 96bb ebbe 2861 88be
00000070: e63d a7bd 0fcd abbe 6d5e f03d 58c4 00bf
-0.1552506 -0.36318916 -0.15319224 -0.093731396 -0.3555596 -0.2445947 -0.1433372 -0.49060273
-0.3975611 -0.30559963 -0.32087603 -0.3478815 -0.52032804 -0.35326877 -0.3984856 -0.434611
-0.35906082 -0.5369487 -0.2276531 -0.24072368 -0.48677278 -0.654787 -0.34750062 -0.35756338
-0.49168965 -0.30361438 -0.46041554 -0.26636624 -0.08166103 -0.33554885 0.1173676 -0.50299597

blocks.2.bn.running_mean f4 [32]
00000000: 0614 c9bf ba9f bdbf 9088 b7bf 342e 6f3e
00000010: f38c 03c0 7607 e63e 6a79 84bf d2ea 2abf
00000020: 8fe7 52bf 0c43 babd 2427 92bf 2a5c 0dbe
00000030: b985 d9be 5ee2 a0bf 0cee a5bf 6b86 80bf
00000040: eb13 b6be 196a 6dbf 8176 babf fb3d 56bf
00000050: b039 e1bc ebf3 8c3b 526f 27bf 3c54 cfbf
00000060: 35a8 29bf 9443 81bf 521e 93bf e768 e83e
00000070: 327f a03c 807b cebf 2650 813f 5914 b3bf
-1.5709236 -1.481437 -1.433855 0.23357469 -2.0554779 0.44927567 -1.0349553 -0.6676456
-0.8238458 -0.090948194 -1.1418195 -0.13804689 -0.42484835 -1.2569082 -1.2963271 -1.0041021
-0.3556207 -0.9274002 -1.4567415 -0.83688325 -0.027493328 0.004301538 -0.65404236 -1.6197581
-0.6627229 -1.0098748 -1.1493628 0.45392534 0.019591901 -1.6131439 1.0102584 -1.3990585

blocks.2.bn.running_var f4 [32]
00000000: bed3 4541 55ab 3741 15eb aa40 164e 9f40
00000010: 29c1 2941 d6b0 6f40 10ec e540 c46e 5440
00000020: a116 8e40 0ae7 dc40 c6d6 e840 1ca5 5a40
00000030: 2ef6 3640 e371 4041 4844 5841 322a 6840
00000040: a0b9 5940 88ce 8640 d2c6 a540 669e ba40
00000050: ef20 4440 fd1c 4e40 5813 4b40 c8f5 ef40
00000060: 4cc1 1340 014e 9740 2535 9540 7f3e bd40
00000070: dee8 0f41 17ed 6541 84d1 4a41 5a57 8640
12.364195 11.479329 5.3411965 4.978282 10.609658 3.7451682 7.185066 3.3192606
4.4402623 6.903203 7.2762175 3.4163275 2.8587756 12.027804 13.51667 3.6275754
3.4019547 4.2127113 5.18052 5.8318357 3.06451 3.2205193 3.1730556 7.4987526
2.308673 4.728272 4.6627374 5.913879 8.994352 14.370383 12.676151 4.198163

blocks.3.conv.weight f4 [32, 32, 3, 3]
00000000: 92ae 27be 2d5f 14be 9574 84be 201c 00be
00000010: 5b29 a3be f161 47be 609d fb3b 6e75 15be
00000020: 884d 20bd f21c 77bd 638e 4c3d 0643 afbd
00000030: de4f 153d 6341 283e 3b1e 0e3e 6c8c 483d
00000040: 68bd 4e3e d037 053e 3590 1dbd 9ac8 b43a
00000050: 4797 c9bd f446 63be 2358 9d3d 5a98 0c3d
00000060: 657a bbbd 82ef 40be fca5 f1bd bfd0 2fbe
00000070: d7a3 73bb 86d5 863c 1d05 ba3d b11b 23be
00000080: a017 02be 7985 e03d a987 ab3d 8aaf 083a
00000090: f921 36be b8fb eebc 8e20 9d3c 39e6 4abe
000000a0: d64d 2e3e 0e85 18be 71c3 d73d dfc6 9b3d
000000b0: 7de3 b9bd 3786 ca3d ad2a 983d 843b 163e
000000c0: b0ad 1abe 0475 b43d 45d2 173e e473 f13d
000000d0: 421e 0b3d 86f7 4f3c 6c87 903e 0470 a03d
000000e0: c529 7dbd bb22 703e ba36 ea3d d8a2 f23d
000000f0: 0a0e 103e 7345 e5bb 36a6 6d3d efc8 25be
00000100: f7fa 673e f1de 753c 8e36 943e 985e a1bd
00000110: 4a82 15bc 95d6 e53d e610 7cbc d52d 953d
00000120: ed04 31be 0cf0 ecbd 95a7 993d 7099 a93e
00000130: 1a43 3cbc 7a2d 883e 2444 4fbe c352 c8bc
00000140: 3009 853d 4e6e fc3c f9a2 70bb e897 a33e
00000150: 9448 7abd 2f7d 74bd 7852 013e d59e 83bd
00000160: 8645 563d 8c44 333e 1b27 12be fc05 edbd
00000170: 3187 023e 5ba1 f03d 4d84 cebc 2a6f a5bc
00000180: a904 dbbd b207 7cbd e437 0b3d ec07 debc
00000190: 9dc2 9ebd 7795 933d a146 e8bd 687f dfbd
000001a0: 0425 163d 3baa b1be d4c7 98bd 33fb 4f3e
000001b0: 3ab4 12be 9a1f 57bd 48e3 42bd 2cc0 163e
000001c0: 1f66 21bd 845d f83c dd31 2f3d 327b 60bd
000001d0: 262a 953d f320 083e 60b2 163e 4214 ccbb
000001e0: 396c ecbc 6f89 9d3d 20e8 1f3e 0664 f7bc
000001f0: 5ff8 babe b032 39be 394f a3be a5f3 64bc
00000200: 2fd9 69bd 5a09 7abe b1ab 3cbc 1652 f6bd
00000210: d5eb 2dbe d44d 403e 6a66 04be bc0b ecbd
00000220: aba0 d8bd 7ff3 5bbe 8026 82be 9a1d dbbd
00000230: cb2b 9f3e f38e 35be f3b4 91bd 2d20 eb3d
00000240: e5c5 dd3b 0e42 8cbe 532e b53c 3dea a1bc
00000250: 7465 7bba 29e6 d33d 0a6c 873e ada9 a2bb
00000260: d712 28be 3d71 f9bc 5d30 0e3e a818 803e
00000270: 3f79 f6bc bdb6 333e 2b46 7c3e 412b 99bd
00000280: 0851 fdbd e8bc 6e3d 6846 98bd 738e 37be
00000290: 32bf 1a3e 0eb8 ce3d c055 bb3c a834 563d
000002a0: 3083 783d 6642 6ebd ebf6 db3d ec69 ba3d
000002b0: 2ca0 33be 175f b8bd 7202 4c3e fda5 b1bd
000002c0: f578 783d 4a60 043e 941c a0be 6f1b 23be
000002d0: 5b71 5abd 4176 24bd 8fb8 ef3d 19e2 3c3d
000002e0: 59d7 f1bd 0d9b 84bd ff9d f1bd 6fa5 123e
000002f0: eae0 b4bc 8e29 213e 0db8 9d3d 9489 8e3d
00000300: 21df 7d3d 756a 2f3e 7e5f 183e 4847 c7bc
00000310: b1da b93d 67e7 343d c209 eebd 8ce7 d2bc
00000320: b72a 81bd 9284 e2bd c774 05be 6b3f 78be
00000330: 2ae5 2abd 135f 023e 2b89 9fbe e581 babd
00000340: 00a2 cf3c 35e2 4f3e ceeb a9bd 8f41 aabe
00000350: 5f9c 8a3c bd9b 143e 0eaf 783e 4ac1 473e
00000360: d0ee 2d3e f0ea 4c3d 0419 0c3c 8208 33be
00000370: e9e8 683d 3a6d acbe 4ab5 2abd 43d6 afbc
00000380: 5fd6 27bd de25 143e 4abc 163c 2d9d e7bd
00000390: c0a5 e7bd c2c2 16be 17de 293c 69d7 703d
000003a0: 38b6 fe3d d688 87bd 1a9f 403e 0268 50be
000003b0: d8c7 f1bd 56fb a73c 3d9a eabd a642 e0bd
000003c0: 8b31 333e e17c 3dbc 4eec adbd a206 31bd
000003d0: 1980 0ebd 6f62 033e 5b25 a8bd afd1 493d
000003e0: ef80 e3bd e236 28bd fb7b 84bc 0351 183e
000003f0: a6fa 8bbd 0b6e 233e 631c 34be ea8f 3abe
-0.16375187 -0.14489432 -0.25870195 -0.12510729 -0.3186749 -0.19470955 0.0076786727 -0.14595577
-0.03913644 -0.06033034 0.049940478 -0.085577056 0.03645312 0.16431193 0.1387872 0.04896204
0.2018944 0.13009572 -0.038467605 0.0013792694 -0.09843307 -0.22195035 0.07682826 0.03432498
-0.09154204 -0.18841365 -0.11799237 -0.17169474 -0.0037176514 0.016459238 0.090830065 -0.15928532
-0.12704325 0.10962958 0.083754845 0.00052141456 -0.17786397 -0.029172763 0.019180562 -0.19814385
0.1702188 -0.14894506 0.10535324 0.07606291 -0.09076593 0.09888881 0.07430015 0.14671141
-0.15105319 0.088113815 0.14826305 0.117896825 0.033964403 0.0126932915 0.2822832 0.07833865
-0.061807413 0.23450749 0.114362195 0.11847466 0.14067855 -0.0069968044 0.05801984 -0.16189931
0.22654329 0.015006767 0.28947872 -0.078793705 -0.009125302 0.11222569 -0.015384888 0.072841324
-0.17287035 -0.11569223 0.07502667 0.33124876 -0.011490608 0.26597196 -0.20240837 -0.024453526
0.06495893 0.030814316 -0.0036718233 0.31951833 -0.061104372 -0.059689697 0.12629116 -0.06426779
0.052312396 0.17506617 -0.1427273 -0.11573407 0.12746884 0.11749526 -0.02520957 -0.020194609
-0.10694248 -0.061530776 0.03398885 -0.027103387 -0.07751963 0.072062425 -0.113415964 -0.10912973
0.036656395 -0.34700188 -0.07459989 0.20310669 -0.14326563 -0.052520372 -0.047580034 0.14721745
-0.03940403 0.03031803 0.042772163 -0.05480499 0.0728343 0.13293819 0.14716482 -0.006228001
-0.028860198 0.07692229 0.15615892 -0.030199062 -0.36517617 -0.18085742 -0.3189638 -0.013974105
-0.057091888 -0.2441763 -0.011515544 -0.120273754 -0.16984494 0.18779689 -0.12929693 -0.11525676
-0.1057752 -0.21479605 -0.25419998 -0.106990054 0.310881 -0.17730312 -0.071145914 0.114807464
0.0067679756 -0.27394146 0.022116816 -0.019765014 -0.0009590008 0.10346634 0.26449615 -0.0049640746
-0.16413437 -0.030449504 0.13885637 0.2501881 -0.030087112 0.17550178 0.24636142 -0.07478953
-0.12368971 0.058285624 -0.07435304 -0.17925434 0.15111998 0.100936994 0.022868037 0.05229631
0.060671985 -0.05816879 0.10740455 0.09102234 -0.1754157 -0.09002512 0.19922808 -0.08674238
0.06066223 0.12927356 -0.31271803 -0.15928434 -0.05333076 -0.04015184 0.11705124 0.04611406
-0.118086524 -0.06474886 -0.117977135 0.1432092 -0.022079904 0.15738508 0.077011205 0.06959835
0.06198037 0.17130454 0.14880177 -0.024325982 0.09074915 0.044165995 -0.11622955 -0.025745176
-0.06306975 -0.11060442 -0.13032828 -0.24242942 -0.041722454 0.1273158 -0.31159338 -0.09106807
0.025345802 0.20301135 -0.08296929 -0.33253142 0.016920267 0.14512534 0.24285528 0.19507328
0.16985631 0.05002874 0.008550886 -0.17483714 0.056862745 -0.33677083 -0.041676797 -0.021464473
-0.040975925 0.1446757 0.009200165 -0.11309276 -0.11310911 -0.14722732 0.010367892 0.05879918
0.12437099 -0.06617896 0.18810692 -0.20352176 -0.11805695 0.020505589 -0.114552 -0.10950212
0.17499368 -0.011565418 -0.08492337 -0.043219216 -0.034790132 0.12830518 -0.0821025 0.049272235
-0.111085765 -0.041067965 -0.0161724 0.14874654 -0.06834917 0.15959947 -0.17588954 -0.18218961

blocks.3.conv.bias f4 [32]
00000000: eeae 5d3c 22fe 7dba db68 fdbb cce3 9b3c
00000010: 024d 52bb bf0a 02ba fec0 1ebc ca22 82ba
00000020: d79b 8cb9 dd55 1639 de88 55ba 54ce cc3a
00000030: ac12 93ba 8330 b3bb 2bb9 3b3a c52b 693b
00000040: 75ce 1f3a 10b2 f2b8 6470 2bbc 1e67 c93b
00000050: b886 133b 4ae2 5939 f201 04ba f3db 473b
00000060: 2603 57ba 14cf 1fba c396 d73b 52ca c3bb
00000070: a857 9bbb 1791 353c 1d1b 91b9 8746 5f39
0.013530476 -0.0009689053 -0.007733447 0.01902952 -0.0032089357 -0.0004960708 -0.009689568 -0.0009928581
-0.0002681899 0.00014337101 -0.00081457 0.0015625455 -0.0011220775 -0.0054684295 0.0007161076 0.0035579067
0.0006096133 -0.00011572626 -0.010463808 0.0061463257 0.0022510719 0.00020779032 -0.000503569 0.003049609
-0.0008202068 -0.00060962257 0.0065792515 -0.005975046 -0.004740674 0.011081955 -0.00027676756 0.00021293211

blocks.3.bn.weight f4 [32]
00000000: ef64 873f 51a1 653f b1d5 823f 345e 2a3f
00000010: c44d 843f e511 413f 2b29 6b3f 3840 693f
00000020: e578 843f 4e90 5b3f f7ec 453f 2176 743f
00000030: d660 633f 1738 7c3f 57c6 833f eac1 953f
00000040: f67f 8b3f 4951 7c3f e4a1 5d3f e645 6c3f
00000050: f866 893f 2064 a03f ab95 3f3f dd6c 763f
00000060: ff18 973f 2a2e 4e3f 3416 853f 4a77 453f
00000070: 093c 3e3f 66f4 693f cb57 1f3f e450 763f
1.0577677 0.89699274 1.0221463 0.6654999 1.0336232 0.7541793 0.9185969 0.91113615
1.0349394 0.85767066 0.77314705 0.9549275 0.88819635 0.98523086 1.0294904 1.1699803
1.0898426 0.9856153 0.8657515 0.92294157 1.0734549 1.2530556 0.7483775 0.9625986
1.1804503 0.8053919 1.0397401 0.77135146 0.74310356 0.9138855 0.62243336 0.9621718

blocks.3.bn.bias f4 [32]
00000000: b7e3 3abe 9ed5 b4be 751a 2fbe 0171 6abb
00000010: 988c b1be 141d 57bd 1ba9 15bf 6420 81be
00000020: 68ae 0dbf 6729 12bf fe98 9fbe 6d70 e1bd
00000030: e572 1abf 9633 c8be bb7d 12bf 0b8d 9cbe
00000040: 310a e2be 1402 25bf e0d9 82be d3ec 58be
00000050: 75bb a1be c516 01bf a97a 3fbf 2b67 cebe
00000060: d53b 0fbf 223a 24bf 5034 b1be bb2f 89be
00000070: bcc4 12be aa3c 8abe c861 e73d ed37 f4be
-0.18250929 -0.35319227 -0.17099936 -0.0035772922 -0.34677577 -0.052517965 -0.5846116 -0.25220025
-0.5534425 -0.57094425 -0.3117141 -0.11007772 -0.60331565 -0.39101857 -0.572231 -0.30576357
-0.441484 -0.64456296 -0.2555685 -0.21184091 -0.3158833 -0.5042537 -0.7479654 -0.40313086
-0.5595067 -0.64151204 -0.34610224 -0.26794228 -0.1433286 -0.26999408 0.11297947 -0.47698918

blocks.3.bn.running_mean f4 [32]
00000000: 0759 f5bf 94d4 18be 8722 7ebf 8e71 9fbf
00000010: 2007 a3bf 2140 02be dd75 8bbf 6be1 ccbe
00000020: 6b77 923e 2da1 07bf 3a95 c03f 6cf2 ab3d
00000030: 9d3b cb3f 770a d3bf 5ca8 08c0 0b10 71be
00000040: 8cd3 85bf 7667 283e 268e 87bf 07db 3bbe
00000050: 4944 babe dd3f 3ebf b6ab 1740 10b0 ebbf
00000060: dc4e c43f 2938 233e 9b04 28bf f050 ccbf
00000070: 9f23 a63f d7fc 04c0 f6b7 92bf 3d3d 80be
-1.9167794 -0.14924842 -0.99271435 -1.2456529 -1.2736549 -0.12719776 -1.0895344 -0.4001573
0.28606734 -0.5298031 1.504554 0.08395848 1.5877568 -1.6487569 -2.1352758 -0.23541276
-1.0455184 0.16445717 -1.0590255 -0.18345271 -0.36380222 -0.743162 2.3698554 -1.8413105
1.5336566 0.15939392 -0.6563203 -1.59622 1.2979621 -2.0779321 -1.146239 -0.2504672
