models/159.pth (torch, 501905 bytes, 80 tensors)

conv0.conv.weight f4 [32, 17, 3, 3]
0	0xbe1feec8	-0.15618432
1	0x3e88c605	0.26713577
2	0xbd0282c2	-0.03186298
3	0x3e5d8d40	0.21635914
4	0xbe71a57d	-0.23598285
5	0x3ed647c5	0.4185163
6	0x3d808c0b	0.06276711
7	0x3e8a56d1	0.2701936
8	0x3d543ae8	0.05181399
9	0x3dc62239	0.09674496
10	0x3ddc1329	0.10745842
11	0x3d12db15	0.035853464
12	0x3d0d1a2f	0.0344488
13	0xbe1ccc53	-0.15312319
14	0x3dac670b	0.084180914
15	0x3e0b4914	0.13602096
16	0x3d18b872	0.037285276
17	0x3d414a6f	0.047190126
18	0x3d2f3ff5	0.042785604
19	0xbda77fb1	-0.08178652
20	0x39d25aef	0.00040122072
21	0xbdaaeb45	-0.08345655
22	0xbbc3d371	-0.0059761335
23	0x3dcd136a	0.100134686
24	0xbd100438	-0.035160273
25	0xbc80e96a	-0.0157363
26	0xbcc8b391	-0.024499686
27	0xbe28d3d9	-0.16487063
28	0x3e10087f	0.14065741
29	0xbcde8371	-0.027162286
30	0x3dda57f5	0.10661308
31	0xbdad8823	-0.08473232
32	0xbd6347da	-0.055488445
33	0x3e23684f	0.1595776
34	0xbe67691f	-0.22598694
35	0xbd3bf80b	-0.04589085
36	0x3e2fddf2	0.17174509
37	0x3e549de5	0.20763357
38	0x3db82800	0.089920044
39	0x3e8044d4	0.25052512
40	0xbed6e218	-0.4196937
41	0x3ec1c20f	0.37843367
42	0x3e57c693	0.21071844
43	0x3ed3eb21	0.41390327
44	0x3e49398f	0.19650863
45	0x3ddb11da	0.10696764
46	0x3dd6a92d	0.104814865
47	0x3d56579a	0.052329637
48	0x3ebd8ec5	0.37022987
49	0xbe144cfe	-0.14482495
50	0x3e46216d	0.19348688
51	0x3e2a77a2	0.16647199
52	0x3e06e43b	0.13173
53	0x3e631fa4	0.22180039
54	0x3e16043b	0.14650051
55	0x3e6bd6f6	0.2303122
56	0x3e12b428	0.14326537
57	0x3e513262	0.20429376
58	0xbe2afc50	-0.16697812
59	0x3e65ece8	0.22453654
60	0x3e91f5ca	0.28507835
61	0x3e09345c	0.1339888
62	0x3d963959	0.07335157
63	0x3c40aec1	0.011760415
64	0x3e86e12d	0.2634367
65	0x3dcee978	0.101031244
66	0x3de20752	0.110365525
67	0xbd2eb617	-0.042654123
68	0x3e93af8f	0.28844878
69	0x3dff81e6	0.12475948
70	0x3e4031ce	0.18768999
71	0x3e8891c0	0.26673698
72	0x3c8806d0	0.016604811
73	0x3e0a5a35	0.13510974
74	0x3caae206	0.02085973
75	0x3d3fecb6	0.046856605
76	0x3ea63107	0.3245928
77	0x3d0f522c	0.034990475
78	0x3c5d5bee	0.013510687
79	0x3db43315	0.087988056
80	0xbba29d74	-0.0049626175
81	0xbc3e7001	-0.0116233835
82	0x3d8f0b8e	0.06984626
83	0xbcc8a23e	-0.024491426
84	0xbc937d41	-0.018004062
85	0x3ee1d797	0.44109794
86	0x3d4db515	0.05022152
87	0x3c971907	0.018444551
88	0x3d26b3ca	0.040698804
89	0x3d1c22b0	0.038119018
90	0xbc95ce98	-0.018286988
91	0x3d86fffd	0.06591795
92	0xbd69ff5d	-0.0571283
93	0x3db88c4e	0.09011136
94	0x3edda48f	0.4328961
95	0xb9991095	-0.0002919479
96	0xbdbec7f1	-0.093154795
97	0x3d8db00d	0.06918345
98	0xbd6060d1	-0.05477983
99	0xbd276a47	-0.04087284
100	0x3e00233a	0.12513438
101	0xbcbf501c	-0.023353629
102	0x3db8ed2d	0.09029613
103	0x3ecbab0c	0.39778936
104	0x3d580a94	0.052744463
105	0xbe0c3819	-0.13693275
106	0x3d82155f	0.063517325
107	0x3cf89b3a	0.030347455
108	0x3d99dce0	0.07512832
109	0xbe1a9a61	-0.15097953
110	0x3db0160b	0.08597954
111	0xbdcc8d49	-0.099878855
112	0xbe0a11e8	-0.13483393
113	0x3ae4c324	0.0017453176
114	0x3d62cc17	0.055370416
115	0xbdd74126	-0.10510473
116	0x3d9fd9ec	0.07805237
117	0xbd98b6b2	-0.07456721
118	0x3e06c645	0.13161571
119	0x3cf07b4c	0.029355668
120	0x3db591c0	0.0886569
121	0x3e3cf629	0.18453278
122	0xbc4145df	-0.011796444
123	0xbb9f4960	-0.004861042
124	0x3e12b9ab	0.14328639
125	0x3dcafbbd	0.099112965
126	0x3d7e283e	0.062050097
127	0x3b257a9f	0.002525009
128	0xbc660bed	-0.014040929
129	0x3d9eac82	0.07747747
130	0x3e322cb3	0.17399864
131	0xbdb98528	-0.09058601
132	0xbc403f9d	-0.011733917
133	0xbd20b1ec	-0.03923218
134	0xbdeaa49e	-0.114571795
135	0xbdbe112e	-0.092806205
136	0xbd10d50a	-0.03535942
137	0x3debbba6	0.115104005
138	0xbda28cd6	-0.079370186
139	0x3d1cfaa8	0.038324982
140	0x3da455da	0.080241874
141	0x3b970c6e	0.004609636
142	0xbae38f57	-0.0017361444
143	0x3dc5bfea	0.09655745
144	0x3d76dd9d	0.06026994
145	0x3d9e9bcc	0.0774456
146	0x3d316f86	0.043319248
147	0x3db57b25	0.088613786
148	0x3d1c058f	0.03809124
149	0x3ddcbb1d	0.107778765
150	0xbd7c74d1	-0.061634842
151	0x3dd414fa	0.103555635
152	0x3da4c386	0.08045106
153	0x3dfa03e9	0.12207777
154	0x3d203260	0.03911054
155	0x3ce657f4	0.028118111
156	0xbe872b9b	-0.26400456
157	0xbefebe29	-0.49754456
158	0x3e31f23b	0.1737756
159	0x39babf2c	0.0003561912
160	0x3dbccab6	0.092183515
161	0xbd036137	-0.032075133
162	0xbe845f3a	-0.25853902
163	0x3e65ee13	0.224541
164	0xbe48b8f7	-0.19601808
165	0xbdd4da82	-0.103932396
166	0xbb5e05f5	-0.0033878062
167	0xbeaae959	-0.33381155
168	0x3d967696	0.07346837
169	0xbde52d2d	-0.11190257
170	0xbe9596eb	-0.29216704
171	0xbcb32bbc	-0.02187144
172	0x3e50853d	0.20363326
173	0xbe94d6d4	-0.2907015
174	0xbe05718d	-0.13031597
175	0x3e168de7	0.14702569
176	0xbe1848ef	-0.14871572
177	0x3d29c2ef	0.04144567
178	0xbe9b7a47	-0.30366728
179	0xbda85099	-0.08218498
180	0xbe9cba9b	-0.3061112
181	0x3e5dcabd	0.2165937
182	0xbd8ae4ae	-0.067818984
183	0x3c463f8b	0.012100111
184	0x3e389d82	0.18028834
185	0xbeee3b6a	-0.46529704
186	0x3d9dadd7	0.07699173
187	0xbe272436	-0.16322407
188	0xb8a8d64e	-8.0507816e-05
189	0xbe156c1e	-0.14592025
190	0xbdf4dd2c	-0.11956248
191	0x3ac6f750	0.0015179906
192	0xbbd9b1a5	-0.0066434913
193	0xbedc495a	-0.43024713
194	0xbea82194	-0.32838118
195	0x3e117453	0.1420453
196	0xbe020797	-0.12698208
197	0xbe620803	-0.22073369
198	0xbe702ae8	-0.23453867
199	0xbea8b299	-0.3294876
200	0xbe7b33f4	-0.24531537
201	0xbdbc38b0	-0.091905
202	0xbe122917	-0.14273487
203	0xbe9b9caf	-0.30392978
204	0xbebff81c	-0.3749398
205	0xbdc7fbe8	-0.09764844
206	0xbeb14607	-0.3462374
207	0xbea51a82	-0.32246786
208	0xbeb0a7de	-0.34503073
209	0xbeda5bbd	-0.42648116
210	0xbe94f15f	-0.29090402
211	0xbe032d39	-0.1281022
212	0xbe6efa17	-0.23337589
213	0x3cfdfdbc	0.031004779
214	0xbea654f6	-0.32486695
215	0xbf45d60f	-0.7727975
216	0xbe8500fc	-0.25977314
217	0xbec361e7	-0.3816063
218	0xbe64c020	-0.22338915
219	0xbe8161d8	-0.2526996
220	0xbda3b32b	-0.07993158
221	0xbe93ffe3	-0.28906164
222	0xbe0defc5	-0.13860996
223	0xbe06e2b7	-0.13172422
224	0xbeb611ad	-0.3556036
225	0xbdff5071	-0.12466515
226	0x3dd04497	0.101693325
227	0x3e3cf65f	0.18453358
228	0x3c4d7825	0.012540852
229	0xbeeb9cc0	-0.46018028
230	0x3de22db0	0.110438704
231	0xbe3caaa8	-0.18424475
232	0x3b264aa2	0.0025374074
233	0x3d26463c	0.040594324
234	0xbd68960a	-0.056783713
235	0x3d4ed8b5	0.050499637
236	0x3e60bba4	0.21946579
237	0xbc19d1c9	-0.009388396
238	0x3cd0e4b8	0.025499687
239	0x3e316751	0.17324568
240	0xbd97edac	-0.07418379
241	0x3dfb8c48	0.12282616
242	0x3d2e8677	0.042608704
243	0x3dda1ab9	0.10649628
244	0x3e35aeb5	0.17742427
245	0x3d6cd41d	0.057819474
246	0x3de72b8f	0.11287605
247	0x3d439603	0.047750484
248	0x3cdb885e	0.026798423
249	0x3c2ce12c	0.010551732
250	0x3dd4bb1a	0.10387249
251	0x3ddfcebf	0.109281056
252	0x3ce2f07e	0.027702566
253	0x3d9227b0	0.07136476
254	0x3e4f8c17	0.20268284
255	0xbd9500e2	-0.07275559

conv0.conv.bias f4 [32]
0	0x3b250bf6	0.0025184131
1	0x3b2c3eb1	0.0026282484
2	0xbcf02aae	-0.029317226
3	0xba154c07	-0.0005695228
4	0x3b2baf4d	0.0026197017
5	0x3d4fa455	0.05069383
6	0xbc80e32f	-0.01573333
7	0x39203196	0.00015277261
8	0x3c62e7c2	0.013849201
9	0xba8e2412	-0.001084449
10	0x3a9970e7	0.0011706621
11	0xbbd97281	-0.0066359644
12	0x3a661a64	0.0008777736
13	0x3aaf26c9	0.0013362999
14	0x3bc48682	0.00599748
15	0x3b6ca10d	0.0036106736
16	0x3bd690f7	0.006548043
17	0x3cf463f6	0.029832821
18	0xbcf01b6c	-0.02930995
19	0xbb7c9b4e	-0.0038544717
20	0x3a37b724	0.0007008186
21	0xbd068a08	-0.03284648
22	0xbae9d02c	-0.0017838529
23	0xbb16ff75	-0.0023040448
24	0xbbe1bab9	-0.006888714
25	0xbc663aca	-0.014052102
26	0x3ab36be2	0.0013688768
27	0x3b869007	0.004106525
28	0x3ad4598b	0.0016201002
29	0xbcfa045e	-0.03051966
30	0xbbee8d58	-0.007280033
31	0xbaa7ed2e	-0.0012811774

conv0.bn.weight f4 [32]
0	0x3f5c5348	0.8606458
1	0x3f33fcc5	0.7030757
2	0x3f3072a1	0.6892491
3	0x3f5a9fc2	0.8540002
4	0x3f3b5f91	0.731927
5	0x3f3764b1	0.7163802
6	0x3f38d596	0.72200906
7	0x3f45679c	0.7711122
8	0x3f6db5cb	0.9285552
9	0x3f4f04ff	0.80867
10	0x3f30abf7	0.690124
11	0x3f2f4f0f	0.6848001
12	0x3f464ba7	0.77459186
13	0x3f69ea5b	0.91373223
14	0x3f47b355	0.78008014
15	0x3f6edd27	0.933062
16	0x3f3ead1a	0.7448288
17	0x3fa3fff4	1.2812486
18	0x3f4816ac	0.78159595
19	0x3f46e52d	0.77693444
20	0x3f48ff77	0.7851481
21	0x3f676e08	0.9040227
22	0x3f525c9b	0.82172555
23	0x3f35a08b	0.70948094
24	0x3f5ba822	0.85803425
25	0x3f4576ca	0.7713438
26	0x3f5d0b85	0.863457
27	0x3f4a5392	0.7903377
28	0x3f799b0d	0.97502214
29	0x3f43624e	0.76321876
30	0x3f3a823b	0.72854966
31	0x3f1abe53	0.6044666

conv0.bn.bias f4 [32]
0	0xbefb1dae	-0.4904608
1	0xbdd878e3	-0.10569932
2	0xbe2c890b	-0.16849153
3	0xbec5b794	-0.38616621
4	0xbe57d3eb	-0.21076934
5	0xbd7c8a6e	-0.061655454
6	0xbda2871a	-0.07935925
7	0xbea1806f	-0.315433
8	0xbe8ec93c	-0.27887905
9	0xbecdef0f	-0.4022145
10	0xbe5fbade	-0.21848628
11	0x3dc4a62c	0.09602007
12	0xbe2ba42a	-0.16761842
13	0xbec7a24f	-0.3899102
14	0xbe789c5d	-0.24278398
15	0xbde2d738	-0.11076206
16	0xbdafb57d	-0.08579538
17	0xbdf38316	-0.11890237
18	0xbe6da995	-0.23209222
19	0xbe74e681	-0.23916055
20	0xbe1b4aec	-0.15165299
21	0x3d0b82ac	0.034060165
22	0xbe97636a	-0.29568034
23	0xbe5749c0	-0.21024227
24	0xbe7cdcbc	-0.24693578
25	0xbe7f5320	-0.24934053
26	0xbea58aff	-0.32332608
27	0xbde1450b	-0.10999497
28	0xbe0daedd	-0.13836236
29	0x3ea225e9	0.31669548
30	0xbe31875e	-0.17336795
31	0xbd1ea161	-0.03872812

conv0.bn.running_mean f4 [32]
0	0x3e830163	0.25586995
1	0x3c1c0f01	0.009525062
2	0xbe0bbfb6	-0.1364735
3	0xbd9c9bcc	-0.076469034
4	0xbd93a271	-0.072087176
5	0x3cc5d716	0.024150413
6	0xbe86968e	-0.2628674
7	0x3e835d01	0.25656894
8	0xbe25be26	-0.16185817
9	0xbda26f1e	-0.0793135
10	0xbbcd0dff	-0.006257772
11	0xbd5d63de	-0.05405032
12	0xbd62b107	-0.055344608
13	0xbd3ac4c1	-0.045597795
14	0x3dd71b58	0.10503262
15	0x3e5942e5	0.21216924
16	0x3e010630	0.12600017
17	0xbdf41d95	-0.11919705
18	0xbe4f657f	-0.20253561
19	0xbcdb31e6	-0.026757192
20	0x3b1cbe19	0.0023917018
21	0xbdb79b42	-0.0896516
22	0xbd5450ab	-0.051834743
23	0x3d8ba510	0.068185925
24	0xbddca7ca	-0.10774191
25	0xbddb54bf	-0.107095234
26	0xbdc7269c	-0.09724161
27	0xbd95f9d9	-0.07323045
28	0x3e57ddd3	0.21080713
29	0x3d952433	0.07282295
30	0xbdc3651f	-0.09540772
31	0x3e0f1359	0.13972224

conv0.bn.running_var f4 [32]
0	0x3dacebca	0.08443411
1	0x3dbd615f	0.09247088
2	0x3df66e7e	0.120327935
3	0x3d93c9f6	0.07216255
4	0x3ddd1f77	0.10797017
5	0x3dd58d35	0.10427324
6	0x3e386010	0.18005395
7	0x3d9f91d7	0.077914886
8	0x3df191ba	0.11795373
9	0x3dc6ffb7	0.097167425
10	0x3dae3b74	0.085074335
11	0x3debdc8b	0.115166746
12	0x3dce5b7f	0.10076045
13	0x3d861447	0.06546836
14	0x3da85549	0.08219392
15	0x3da3e3cc	0.08002433
16	0x3d8caaeb	0.068685375
17	0x3ddf5a9f	0.109059565
18	0x3dd704be	0.104989514
19	0x3da0b378	0.07846731
20	0x3e01e15c	0.12683624
21	0x3dbd7488	0.09250742
22	0x3d8de4d1	0.06928409
23	0x3da32670	0.07966316
24	0x3d9c1e1f	0.07622933
25	0x3da9af94	0.08285442
26	0x3dadf03b	0.08493086
27	0x3d8f7ee0	0.07006621
28	0x3dc0144b	0.093788706
29	0x3d9805dc	0.074229926
30	0x3da80ce9	0.082055874
31	0x3d924e7a	0.071438745

blocks.0.conv.weight f4 [32, 32, 3, 3]
0	0x3d4abe46	0.049497865
1	0xbdfc8d0a	-0.123315886
2	0x3de68941	0.11256648
3	0xbeaa96ff	-0.33318326
4	0x3db10dbb	0.08645197
5	0xbdbf26df	-0.09333586
6	0x3e542079	0.20715512
7	0xbe58af20	-0.21160555
8	0x3dea4f1c	0.1144087
9	0xbdb64aac	-0.08900961
10	0xbd6a0dca	-0.057142057
11	0xbde6d0e6	-0.11270313
12	0xbdb9b8d9	-0.0906846
13	0xbe004ee0	-0.12530088
14	0x3e3189da	0.17337742
15	0xbd847611	-0.06467832
16	0xbd5aa5be	-0.05338072
17	0xbdba4421	-0.09095026
18	0x3e1e6b2a	0.15470567
19	0xbc919965	-0.01777334
20	0x3d2f486e	0.042793684
21	0xbd887656	-0.06663196
22	0xbe377ce2	-0.17918733
23	0x3cd884e3	0.026430553
24	0x3cf60980	0.030033827
25	0x3cb93d8d	0.022612358
26	0x3d58960d	0.052877475
27	0x3d8ba78d	0.06819067
28	0x3dd48f5a	0.10378905
29	0x3b8ca15b	0.004291696
30	0xbd0b5dbc	-0.03402494
31	0xbda4e868	-0.080521405
32	0xba595bb5	-0.00082915585
33	0xbdb282ef	-0.0871638
34	0xbe3aa7ba	-0.18228045
35	0x3dad7197	0.08468931
36	0xbd504590	-0.05084759
37	0x3e764ba3	0.2405229
38	0x3d5d9ae2	0.054102786
39	0x3c8188f8	0.015812382
40	0x3e14a334	0.14515382
41	0x3cff491f	0.031162797
42	0xbdddfd31	-0.10839308
43	0x3cb5a208	0.02217199
44	0xbd20e337	-0.03927919
45	0x3cb62969	0.022236543
46	0xbe88d72b	-0.2672666
47	0xbca7c775	-0.02048085
48	0xbc9b81a5	-0.018982718
49	0xbda42ddf	-0.08016562
50	0x3d290545	0.04126479
51	0x3e104dc2	0.14092162
52	0x3d9b73eb	0.07590469
53	0x3e223654	0.15841037
54	0x3e1570e3	0.14593844
55	0xbe1845c6	-0.14870366
56	0xbde4c15d	-0.111696936
57	0xbdcce90a	-0.10005386
58	0x3ba791db	0.005113823
59	0xbe87974c	-0.26482618
60	0xbd7dceb4	-0.061964706
61	0x3da4674f	0.08027517
62	0xbd9a9ef9	-0.07549853
63	0x3e1591b0	0.14606357
64	0x3e177582	0.1479092
65	0x3e38171c	0.17977566
66	0x3e069a86	0.13144884
67	0x3e11f3d2	0.14253166
68	0x3c88a5aa	0.016680557
69	0x3e31a139	0.17346658
70	0x3b8172ad	0.003950438
71	0x3c6b0fb6	0.0143470075
72	0xbd8f0bd2	-0.069846764
73	0xbf0903f2	-0.53521645
74	0xbe2534d3	-0.16133432
75	0xbdce8fc7	-0.10086017
76	0x3e47797c	0.19479936
77	0xbbb1c3c9	-0.0054249507
78	0xbdd066a2	-0.10175826
79	0x3ea09a98	0.31367946
80	0x3c0f7bd9	0.008757555
81	0x3be4e11d	0.0069848434
82	0x3d2fba14	0.042902067
83	0x3d1ba5bc	0.037999853
84	0xbd65291c	-0.055947408
85	0x3e56bddf	0.20970868
86	0x3e096c67	0.13420258
87	0x3cbe4424	0.023225851
88	0xbd8b4aea	-0.06801398
89	0x3d9c715b	0.07638808
90	0x3d2b79e8	0.041864306
91	0xbd7becc6	-0.0615051
92	0x3dabd29b	0.08389779
93	0xbd41a74f	-0.0472787
94	0x3e50ffe7	0.20410119
95	0xbe2124e4	-0.15736729
96	0x3e4192ab	0.18903606
97	0xbc89c093	-0.01681546
98	0x3e2fd722	0.1717191
99	0xbbc6474a	-0.006050979
100	0x3d5bd018	0.05366525
101	0x3e33b1c3	0.1754828
102	0xbd88e358	-0.066839874
103	0x3da1e9f3	0.079059504
104	0x3d2ae8cf	0.04172593
105	0x3e86d4ee	0.26334327
106	0xbe0f4a55	-0.13993199
107	0x3d8bba7f	0.06822681
108	0xbeeb891c	-0.46003044
109	0xbda3339b	-0.07968827
110	0x3d1e069d	0.038580526
111	0x3df5bb13	0.11998572
112	0x3b9f1a73	0.004855448
113	0x3cc0062d	0.023440445
114	0x3d4f632c	0.050631687
115	0x3e7f7dba	0.24950305
116	0xbdc6197e	-0.09672831
117	0xbdea291d	-0.11433623
118	0xbe14f3eb	-0.14546172
119	0xbe985652	-0.29753357
120	0xbd84a62c	-0.06477007
121	0xbeada772	-0.33916813
122	0xbe46bc81	-0.19407846
123	0xbdd4d93e	-0.10392998
124	0x3c101ddf	0.008796184
125	0x3d5d28d2	0.053994007
126	0xbe06915d	-0.13141389
127	0x3dde8057	0.10864323
128	0xbe44192e	-0.1915023
129	0x3c6a1890	0.014288083
130	0xbdc1e4ad	-0.094674446
131	0xbe16e1d2	-0.14734581
132	0x3b9ea890	0.0048418716
133	0xbe2c7113	-0.1684001
134	0xbdf12b85	-0.11775879
135	0xbc9eeef7	-0.019401057
136	0x3dd42d39	0.10360188
137	0x3da15744	0.07877973
138	0x3e244355	0.1604131
139	0x3b986555	0.0046507516
140	0x3dbd6cff	0.09249305
141	0xbb98ef47	-0.004667196
142	0x3de09fe0	0.10967994
143	0x3bfb79b7	0.0076744216
144	0x3d741189	0.059587035
145	0xbd6009c5	-0.054696817
146	0x3cdd108a	0.026985426
147	0x3da353c0	0.079749584
148	0xbdfa7c6f	-0.12230765
149	0xbc92ba0d	-0.017910982
150	0x3d9f30c2	0.07772972
151	0x3e96ae4f	0.29429862
152	0x3d9977d8	0.074935615
153	0x3d25d4d7	0.040486183
154	0x3e1c96c3	0.15291886
155	0x3d803960	0.062609434
156	0x3e1813e1	0.14851333
157	0xbf9b8e85	-1.2152869
158	0x3e240fb1	0.16021611
159	0x3e5b2b8c	0.2140333
160	0x3d3e253c	0.04642223
161	0x3e4bfcb9	0.19920625
162	0xbd966208	-0.07342917
163	0xbe5dcd29	-0.21660294
164	0x3e76fd53	0.24120073
165	0x3e932891	0.28741887
166	0xbe15c4a1	-0.14625789
167	0x3df61975	0.12016574
168	0xbe2d9da8	-0.16954672
169	0x3a5408b8	0.00080884574
170	0x3e018f8b	0.12652414
171	0xbdaeb7b7	-0.085311346
172	0xbe5c0ad2	-0.21488503
173	0xbe267c7d	-0.16258426
174	0xbe834218	-0.25636363
175	0xbcb730f9	-0.02236222
176	0xbceb8973	-0.028752064
177	0xbcfcb42f	-0.030847637
178	0x3ce88e9c	0.028388314
179	0xbd2425ac	-0.04007499
180	0xbdba5771	-0.090987094
181	0xbd969461	-0.0735252
182	0x3c8cdc3d	0.017194862
183	0x3d539691	0.051657263
184	0xbec7ac81	-0.38998798
185	0xbe167a23	-0.14695029
186	0xbaf8fac1	-0.0018995629
187	0xbd721f36	-0.059111796
188	0xbdb8454c	-0.08997592
189	0x3d551af0	0.052027643
190	0x3dfc2973	0.12312593
191	0x3da9ca05	0.08290485
192	0x3d36faf6	0.04467293
193	0xbe5d6c09	-0.21623243
194	0x3dc6d8cc	0.097093195
195	0x3e21c12f	0.1579635
196	0x3dd48434	0.10376778
197	0x3d9396f5	0.07206527
198	0x3da028dc	0.07820293
199	0xbbdbe741	-0.006710917
200	0x3d9e6193	0.077334546
201	0xbe3d8e52	-0.18511322
202	0x3e8b5df7	0.27220127
203	0x3db1b132	0.086763754
204	0xbd99d11d	-0.07510588
205	0xbe3fe65a	-0.18740216
206	0xbd83af91	-0.06429971
207	0x3e126bfd	0.14299007
208	0x3d1bc69f	0.038031217
209	0x3e280f55	0.16412099
210	0x3d89f619	0.067363925
211	0xbd0569fc	-0.032571778
212	0x3e004ec6	0.1253005
213	0xbe0539d0	-0.13010335
214	0x3dddda2e	0.1083263
215	0x3e8e355c	0.27775085
216	0x3e6ed640	0.23323917
217	0x3dca6cb9	0.098840185
218	0x3d948c4e	0.072533235
219	0xbd570507	-0.05249503
220	0xbd4497e7	-0.047996428
221	0xbd06acda	-0.032879688
222	0x3df2e5ee	0.11860262
223	0x3dd4a331	0.10382689
224	0x3e3af69c	0.18258137
225	0x3d0207ff	0.031745907
226	0xbcbf6223	-0.023362225
227	0xbe56a16e	-0.20960018
228	0x3e2b00c1	0.16699506
229	0x3db51b56	0.088431045
230	0xbe45fd05	-0.193348
231	0xbe1c6920	-0.15274477
232	0xbc932c13	-0.017965352
233	0xbb7fe89c	-0.0039048558
234	0x3e1eb8fd	0.15500255
235	0xbd08b30e	-0.033373885
236	0x3db11b30	0.08647764
237	0xbde200c1	-0.110353
238	0xbe51f64b	-0.2050411
239	0x3d052384	0.032504573
240	0xbcd68a1e	-0.026188906
241	0x3e8918d3	0.26776752
242	0xbdd0b6eb	-0.10191139
243	0x3ddc6582	0.107615486
244	0xbdffb0a4	-0.124848634
245	0xbd4a0de6	-0.04932966
246	0x3da3492e	0.07972942
247	0xbe1b836c	-0.15186852
248	0xbd261a7c	-0.0405526
249	0x3db2a03f	0.08721971
250	0x3e36f824	0.17868096
251	0x3de07226	0.10959272
252	0x3de08e0c	0.10964593
253	0xbe5d5e4c	-0.21618003
254	0x3d922808	0.071365416
255	0xbda6c67e	-0.08143328

blocks.0.conv.bias f4 [32]
0	0x3a139031	0.0005629091
1	0xbb744ac4	-0.003727601
2	0x3b165763	0.002294027
3	0x3a808655	0.0009805659
4	0x3aa97673	0.0012928977
5	0xba5767c1	-0.00082170597
6	0xbc098258	-0.008392893
7	0xbc6e6c87	-0.014552242
8	0x3c482da3	0.012217912
9	0x3a002d42	0.00048895564
10	0x3b95e25b	0.004574103
11	0x3bc7f3a2	0.0061020413
12	0xbbe1c2fe	-0.0068897
13	0xb94f54c9	-0.00019772643
14	0x38308653	4.208677e-05
15	0x3885e154	6.383905e-05
16	0x389be0f5	7.4328775e-05
17	0xbbdd3195	-0.0067502954
18	0xba185160	-0.00058104657
19	0xb913e086	-0.00014102654
20	0xb9cd4d19	-0.0003915809
21	0xba1164d1	-0.0005546334
22	0x3a38c578	0.0007048468
23	0x3a37c953	0.00070108956
24	0x3b65e649	0.0035079888
25	0xbb0c76ab	-0.0021433036
26	0xbacbc9bd	-0.0015547794
27	0x3b4728d7	0.0030389333
28	0x3a845ebc	0.0010099034
29	0x3b5ee3d8	0.0034010317
30	0xbb956dba	-0.0045601996
31	0x3c3eaddf	0.011638134

blocks.0.bn.weight f4 [32]
0	0x3f56b692	0.8387233
1	0x3f583576	0.84456575
2	0x3f5d6b7c	0.86492133
3	0x3f6d5b54	0.9271748
4	0x3f8977c1	1.0739671
5	0x3f496215	0.78665286
6	0x3f41ab2a	0.756518
7	0x3f4ad812	0.7923595
8	0x3f727164	0.9470427
9	0x3f870140	1.0547256
10	0x3f6de033	0.92920226
11	0x3f8463ad	1.0342919
12	0x3f605fdd	0.87646276
13	0x3f5814da	0.84406817
14	0x3f61c737	0.881946
15	0x3f523be2	0.82122624
16	0x3f8c08bf	1.0940169
17	0x3f750f3c	0.9572637
18	0x3f56595f	0.8373012
19	0x3f6a003a	0.91406596
20	0x3f7d4977	0.98940223
21	0x3f43ccee	0.7648457
22	0x3f618315	0.8809064
23	0x3f6bd5fd	0.92123395
24	0x3f5c2bb6	0.860042
25	0x3f7ddf19	0.99168545
26	0x3f890fa7	1.0707902
27	0x3f8fb49d	1.1226994
28	0x3f33a21c	0.70169234
29	0x3f4009a9	0.7501474
30	0x3f2f6ddb	0.68527
31	0x3f7ef693	0.9959499

blocks.0.bn.bias f4 [32]
0	0xbf0b25f5	-0.5435479
1	0xbedaf56a	-0.4276536
2	0x3b53fb2e	0.003234576
3	0xbe25c2dd	-0.16187616
4	0xbeb1f4cf	-0.34757087
5	0xbe5d21eb	-0.2159497
6	0xbe064cc7	-0.13115226
7	0xbe9c96eb	-0.3058389
8	0xbea0c507	-0.3140032
9	0xbedf3ae3	-0.43599615
10	0xbef8ef41	-0.48620036
11	0xbee9d416	-0.4566962
12	0xbee97dc0	-0.45603752
13	0xbeebc308	-0.46047235
14	0xbdcbe307	-0.099554114
15	0xbefc6a48	-0.49299836
16	0xbf10d001	-0.5656739
17	0xbeb1c16a	-0.34717876
18	0xbdf86479	-0.12128539
19	0xbf036ca5	-0.51337653
20	0xbea38c2b	-0.31942877
21	0xbe4ddcd0	-0.20103765
22	0xbf309847	-0.68982357
23	0xbe5fb9f0	-0.21848273
24	0xbe335c2f	-0.17515634
25	0xbee4e8c9	-0.4470885
26	0xbea94e83	-0.33067712
27	0xbef6db4b	-0.48214182
28	0xbf0d287b	-0.55139893
29	0xbe7481a0	-0.23877573
30	0x3d1427df	0.036170837
31	0xbf28148a	-0.6565634

blocks.0.bn.running_mean f4 [32]
0	0x3e180dfb	0.14849083
1	0xc029125f	-2.6417463
2	0x3ff24be0	1.8929405
3	0xbef3065c	-0.4746579
4	0xbee7bf40	-0.452631
5	0xbfe16a7c	-1.7610621
6	0xbfe30cd0	-1.7738285
7	0xbfd70b25	-1.6800276
8	0x3e3ad42b	0.18244998
9	0xbf940811	-1.1564962
10	0xbfae6b1e	-1.362644
11	0xbf8d3d1a	-1.1034272
12	0xbf91fd79	-1.1405479
13	0x3fad8763	1.3556942
14	0x3fbe92f8	1.4888601
15	0xbee8781e	-0.45404142
16	0xbeb0ca9d	-0.34529582
17	0xbf9ef6d4	-1.2419076
18	0x3f6e23e3	0.9302351
19	0xbf4815ac	-0.7815807
20	0xbee3f242	-0.44520766
21	0xbf5ccb74	-0.86247945
22	0xbf7c2b82	-0.9850389
23	0x3e4deaa2	0.20109037
24	0xbe8da23c	-0.27662838
25	0xbf966bb9	-1.1751624
26	0xbf0cab73	-0.5494911
27	0xbf7178f3	-0.9432518
28	0xc024638c	-2.5685759
29	0xbe9a0812	-0.30084282
30	0xbaa8d61f	-0.0012881196
31	0xc01bddc1	-2.4354098

blocks.0.bn.running_var f4 [32]
0	0x3fc8c515	1.5685145
1	0x401f5eaa	2.4901528
2	0x408ff319	4.498425
3	0x3ff28213	1.8945946
4	0x4081d913	4.0577483
5	0x4052c3d7	3.293203
6	0x40949cf8	4.644161
7	0x3fe4517e	1.783737
8	0x3fedbd14	1.8573327
9	0x3fb72cdb	1.4310564
10	0x3fe08695	1.7541071
11	0x401608d4	2.3442888
12	0x3fec4498	1.8458433
13	0x3fff461b	1.994327
14	0x4053ea9b	3.3111942
15	0x3fde7e29	1.7382251
16	0x3fe92ac3	1.8216175
17	0x408dee00	4.4353027
18	0x3fe693bf	1.8013839
19	0x3fdd007e	1.7265775
20	0x3fca4e9f	1.5805243
21	0x4023bacc	2.5582762
22	0x3fd18df2	1.6371443
23	0x3ff56a97	1.9173154
24	0x408854a7	4.2603335
25	0x3fe47818	1.784915
26	0x3fd0d70c	1.6315627
27	0x403c5a66	2.9430175
28	0x407898f3	3.8843353
29	0x3fd985e3	1.6993984
30	0x4017cd6d	2.3719132
31	0x402a91db	2.6651523

blocks.1.conv.weight f4 [32, 32, 3, 3]
0	0x3cda2e81	0.026633503
1	0xbbe79fc0	-0.007068604
2	0x3dcd3437	0.10019725
3	0xbe9a1217	-0.30091926
4	0x3e1bd1d3	0.1521676
5	0xbbe57f97	-0.0070037353
6	0x3dd849c6	0.10560946
7	0xbe87553e	-0.26432222
8	0x3dda9519	0.10672969
9	0xbd88ce39	-0.06679959
10	0xbd6a4c22	-0.057201512
11	0xbdf7d9e1	-0.12102104
12	0xbe368843	-0.17825417
13	0xbd6af88a	-0.05736593
14	0x3cded543	0.0272013
15	0xbd9bae28	-0.07601577
16	0x3c831344	0.016000398
17	0xbe0c24f8	-0.13685977
18	0xbd631f0f	-0.05544954
19	0xbe94f6eb	-0.29094633
20	0xbd086388	-0.033298045
21	0xbe81c4bb	-0.25345406
22	0xbf08df32	-0.5346557
23	0xbdda8484	-0.106698066
24	0x3e04bf7b	0.12963669
25	0x3e581fe0	0.2110591
26	0x3e1e0560	0.15431738
27	0x3e84976f	0.25896785
28	0xbddc2a41	-0.10750247
29	0x3d1f1933	0.03884239
30	0xbe046659	-0.12929668
31	0xbb369558	-0.0027860012
32	0xbdb97f99	-0.090575404
33	0xbd84f6d0	-0.06492388
34	0xbe88aac8	-0.26692796
35	0xbe83cbbc	-0.25741374
36	0x3dd5fa24	0.10448101
37	0x3d992864	0.07478407
38	0x3cc215d0	0.023692042
39	0x3e708236	0.23487172
40	0x3e358533	0.17726593
41	0x3da9a322	0.08283068
42	0x3d04bd40	0.032407045
43	0xbde4b57e	-0.111674294
44	0x3e5328d1	0.20621039
45	0xbe1821dc	-0.14856666
46	0xbe07a9e3	-0.132484
47	0x3e670341	0.22559835
48	0x3e45a63b	0.19301693
49	0xbdacdb16	-0.08440225
50	0x3b7366cf	0.0037140136
51	0x3cf6fabc	0.030148856
52	0x3cb21256	0.021737259
53	0x3c2557b4	0.010091711
54	0xbda9ad60	-0.08285022
55	0x3e1a1208	0.15045941
56	0xbd881041	-0.06643725
57	0xbdbedcce	-0.09319459
58	0x3d399a03	0.045312893
59	0xbd9adf10	-0.07562077
60	0xbe1fd184	-0.15607268
61	0x3dd3b658	0.10337514
62	0xbdafd78e	-0.08586036
63	0x3db2a6c4	0.08723214
64	0xbeefa2cc	-0.46803892
65	0x3ddcbb99	0.10777969
66	0x3d9f287c	0.07771394
67	0x3e4ddfa1	0.20104839
68	0xbeaa7ef6	-0.33299989
69	0x3e111146	0.14166746
70	0x3dff7b62	0.12474705
71	0xbcca69c5	-0.024708638
72	0x3dae6064	0.08514479
73	0xbdcbaa38	-0.09944576
74	0x3ca7fe7b	0.020507088
75	0xbe5bbaf4	-0.21458036
76	0x3da6e7ee	0.08149706
77	0xbdacb3e1	-0.08432747
78	0xbd242805	-0.040077228
79	0xbe54adf0	-0.20769477
80	0x3e5de7d7	0.21670471
81	0x3e1c5c0c	0.15269488
82	0x3d48ca1e	0.04902088
83	0xbe0f1196	-0.13971552
84	0x3dc62e58	0.09676808
85	0xbd85720e	-0.06515895
86	0xbe6d9b9c	-0.23203892
87	0x3e89cbcd	0.269133
88	0xbdef0b83	-0.116721176
89	0xbe063ee7	-0.13109933
90	0x3e020fa0	0.12701273
91	0xbdaae902	-0.08345224
92	0xbdce3df8	-0.10070413
93	0xbdaf83d2	-0.085700646
94	0xbc042581	-0.008065582
95	0xbcb6742e	-0.022272196
96	0xbd9c36ca	-0.07627638
97	0xbe02b6ca	-0.12765041
98	0x3e0b062c	0.13576573
99	0x3d939573	0.072062396
100	0x3e293931	0.16525723
101	0x3d384450	0.044987023
102	0xbde90372	-0.1137761
103	0xbe0a17ae	-0.13485596
104	0xbd40e432	-0.047092624
105	0xbd942215	-0.07233063
106	0xbea44154	-0.3208109
107	0xbe468742	-0.19387534
108	0xbde3de2d	-0.11126361
109	0x3e2046f8	0.15652072
110	0xbe8af87d	-0.27142707
111	0x3e07eecf	0.13274692
112	0x3e4c9c80	0.19981575
113	0xbd14cd2c	-0.03632848
114	0x3c8c8cbd	0.017156953
115	0x3e38a776	0.18032631
116	0x3e86beec	0.26317537
117	0xbebfc93b	-0.37458214
118	0xbec2fec9	-0.3808501
119	0xbeaf17d8	-0.3419788
120	0xbe9d72a5	-0.3075153
121	0xbeae77f2	-0.34075886
122	0xbe20f168	-0.15717089
123	0x3cc754e8	0.024332479
124	0xbb64f30f	-0.0034934913
125	0xbe1243fd	-0.14283748
126	0x3e8ad74b	0.2711738
127	0xbd1b0427	-0.037845757
128	0xbd401c65	-0.04690208
129	0x3ddfd844	0.10929921
130	0xbe0bdc9d	-0.13658376
131	0x3e5698b5	0.2095669
132	0x3d51a8e3	0.051186454
133	0xbe4d3b38	-0.20042121
134	0xbe00b309	-0.12568296
135	0xbd89d634	-0.06730309
136	0x3ca9bb07	0.020719064
137	0xbcae74e1	-0.021295967
138	0xbe342213	-0.17591123
139	0xbdba2d60	-0.09090686
140	0xbe5e7c5e	-0.2172713
141	0xba9c6f31	-0.0011934993
142	0xbe504c54	-0.20341617
143	0x3ce28a0e	0.02765372
144	0x3e015fd3	0.1263421
145	0xbe8c456e	-0.2739672
146	0xbdc70d0c	-0.09719285
147	0xbe407761	-0.1879554
148	0xbe8fb3bc	-0.28066814
149	0x3db83475	0.089943804
150	0x3e2cc2fb	0.16871254
151	0x3d7c74f8	0.061634988
152	0xbd9cacb1	-0.07650126
153	0x3da69cbe	0.08135365
154	0x3d9c8925	0.07643346
155	0x3da07e84	0.07836631
156	0xbe3cf34b	-0.18452184
157	0xbf1d4857	-0.61438507
158	0x3d95fb0e	0.073232755
159	0x3d0d351a	0.03447447
160	0xbe509e72	-0.20372942
161	0x3b749cbe	0.003732487
162	0x3dcc9357	0.0998904
163	0xbce6e122	-0.028183524
164	0x3ca4a84c	0.020099781
165	0x3d8dd6b4	0.06925717
166	0x3df040e0	0.11731124
167	0x3cc5c31f	0.024140893
168	0x3c940e77	0.018073304
169	0x3e35900d	0.17730732
170	0xbc546888	-0.012964375
171	0xbe2a695a	-0.16641751
172	0x3d0aa2a9	0.03384653
173	0xbd911d86	-0.07085709
174	0x3e7ea5e8	0.24867976
175	0xbd8282e1	-0.063726194
176	0x3df97824	0.12181118
177	0xbe4dffdc	-0.20117134
178	0xbe2bbed3	-0.16772012
179	0xbe1f33fc	-0.15547174
180	0x3dfa9292	0.12234987
181	0xbdb74b9b	-0.089499675
182	0x3c96c5e9	0.018404918
183	0x3d0e1c44	0.034694925
184	0xbe9de000	-0.3083496
185	0xbc3db491	-0.011578695
186	0x3d83e728	0.06440574
187	0xbd347c54	-0.04406388
188	0xbe04ad74	-0.12956792
189	0xbc99e4d4	-0.018785872
190	0x3d10be84	0.03533794
191	0xbe26cf1f	-0.16289948
192	0x3dfa6c61	0.12227703
193	0xbe0c4b04	-0.13700491
194	0x3b89ecdb	0.0042091436
195	0x3e4d0932	0.20023039
196	0x3de21a14	0.1104013
197	0xbdeb5856	-0.11491458
198	0x3e18949d	0.14900441
199	0xbd135e6f	-0.03597873
200	0x3d827b49	0.06371171
201	0xbe21d702	-0.15804675
202	0xbe76b615	-0.24092896
203	0xbd27e773	-0.04099221
204	0x3d1e985f	0.03871953
205	0xbe097f55	-0.1342748
206	0x3e0ea1d2	0.13928917
207	0xbe195d73	-0.14977054
208	0xbd9a4bb6	-0.07533972
209	0x3e3ecabc	0.18632025
210	0xbe0fc0c7	-0.14038382
211	0xbee695ec	-0.45036256
212	0xbdf0da9f	-0.11760449
213	0xbc918cef	-0.017767398
214	0xbe2f59b5	-0.17124064
215	0xbea815a9	-0.32829025
216	0xbdc00edd	-0.09377835
217	0xbdd6b418	-0.10483569
218	0xbe22ccb1	-0.15898396
219	0xbe3afeb8	-0.1826123
220	0xbe67a4c3	-0.22621445
221	0xbe55e828	-0.20889342
222	0xbcac4e3f	-0.021033404
223	0x3df6e0ab	0.12054571
224	0xbd2455f6	-0.04012104
225	0xbd50eb07	-0.05100539
226	0x3de5199f	0.111865275
227	0x3d6e26a7	0.05814233
228	0xbdde361b	-0.108501635
229	0x3be63cb1	0.007026278
230	0xbe1889fa	-0.14896384
231	0xbea1ff4d	-0.31640092
232	0x3db73d6e	0.08947264
233	0xbdac805d	-0.08422921
234	0xbceeea51	-0.029164465
235	0x3d2a60a5	0.041596074
236	0x3e646282	0.22303203
237	0xbd3d74cd	-0.046253968
238	0xbd999c8c	-0.07500562
239	0xbe1f89d1	-0.15579917
240	0xbe769963	-0.2408195
241	0x3df0e839	0.11763043
242	0xbe3ac6ad	-0.18239851
243	0x3d0a76dd	0.033804763
244	0xbd92a3ad	-0.07160125
245	0xbe23fc55	-0.16014226
246	0x3d9901cc	0.07471046
247	0xbda34a2f	-0.07973134
248	0x3c892068	0.016739085
249	0xbded694e	-0.11592351
250	0xbdeeb666	-0.116558835
251	0x385a95e1	5.2114836e-05
252	0xbc7818f1	-0.015142665
253	0xbd85899d	-0.06520388
254	0x3db3e8c5	0.08784632
255	0xbe617c5d	-0.22020097

blocks.1.conv.bias f4 [32]
0	0x3bd1bdb5	0.0064007887
1	0x39adbed0	0.00033139298
2	0x397e10d7	0.00024229601
3	0xbb225d5d	-0.0024774887
4	0xbac26253	-0.0014830328
5	0xbc11b7a3	-0.00889388
6	0xbc5b6193	-0.013389963
7	0x38b54709	8.643984e-05
8	0x3b59f4f1	0.0033257569
9	0x3ab4cc91	0.0013793876
10	0xbae02a94	-0.0017102533
11	0xbb4e4f15	-0.0031480242
12	0x3bc9bf41	0.0061568324
13	0xb9c21794	-0.0003702013
14	0xb9bc0dfc	-0.00035868573
15	0x3b54b51b	0.003245658
16	0x393a5c7b	0.00017772794
17	0x3984ca96	0.0002532794
18	0xba56b53d	-0.0008190459
19	0x3b93d9f5	0.0045120665
20	0x3a6da2ed	0.00090651104
21	0x39f58186	0.00046826544
22	0xba88d420	-0.0010439195
23	0xba5b18a3	-0.0008357858
24	0x3c31c66f	0.010850533
25	0xbb172305	-0.0023061645
26	0x3aad77e9	0.0013234589
27	0xbc224777	-0.009904734
28	0x3a11f0a7	0.0005567171
29	0x378e4524	1.6959915e-05
30	0x38186d0a	3.6341175e-05
31	0x380e6008	3.3944874e-05

blocks.1.bn.weight f4 [32]
0	0x3f29f71f	0.663927
1	0x3f73a1da	0.9516884
2	0x3f6592d0	0.89677143
3	0x3f573bfe	0.84075916
4	0x3f75a0e6	0.95948637
5	0x3f50419e	0.81350124
6	0x3f4493db	0.7678811
7	0x3f69ce30	0.9133024
8	0x3f85b468	1.0445681
9	0x3f81c51c	1.0138278
10	0x3f764b1e	0.9620837
11	0x3f7b900b	0.9826667
12	0x3f84f35c	1.0386767
13	0x3f6663d3	0.8999607
14	0x3f82f7b8	1.0231848
15	0x3f75914f	0.9592485
16	0x3f910819	1.1330596
17	0x3f501e8d	0.81296617
18	0x3f667c07	0.90033
19	0x3f59edda	0.8512856
20	0x3f644b20	0.8917713
21	0x3f3f189f	0.74646944
22	0x3f8baf6d	1.0912911
23	0x3f990180	1.1953583
24	0x3f675f84	0.9038012
25	0x3f705786	0.9388355
26	0x3f84922a	1.0357106
27	0x3f5807c9	0.8438688
28	0x3f6979d9	0.9120155
29	0x3f688351	0.9082537
30	0x3f192646	0.59824026
31	0x3f8810e2	1.0630152

blocks.1.bn.bias f4 [32]
0	0xbea78825	-0.32721058
1	0xbeb1ce67	-0.34727785
2	0xbd90df62	-0.07073857
3	0xbea6bc5b	-0.3256558
4	0xbe826d4b	-0.2547401
5	0xbe3d4c39	-0.18486108
6	0xbe9e232f	-0.30886218
7	0xbef1c841	-0.47223094
8	0xbed4716a	-0.41492778
9	0xbeac52ef	-0.33657023
10	0xbec9b249	-0.39393833
11	0xbf0cab31	-0.5494872
12	0xbed8eed0	-0.423697
13	0xbeb5c55c	-0.35502136
14	0xbe970312	-0.2949453
15	0xbed800d5	-0.42188135
16	0xbf303a18	-0.68838644
17	0xbf0922e7	-0.5356888
18	0xbec250a4	-0.3795215
19	0xbf10969e	-0.56479824
20	0xbf057198	-0.52126455
21	0xbef6bd72	-0.4819141
22	0xbf04aefd	-0.5182951
23	0xbe3f151e	-0.186604
24	0xbf39a409	-0.7251592
25	0xbe857bf8	-0.26071143
26	0xbeb7261e	-0.3577127
27	0xbe89fd2e	-0.26950973
28	0xbe99ab81	-0.3001366
29	0xbf0418e4	-0.5160048
30	0x3d1d9e55	0.038481075
31	0xbf070ef0	-0.5275717

blocks.1.bn.running_mean f4 [32]
0	0xc07991c0	-3.8995209
1	0xbfa8e047	-1.3193444
2	0xbefa4ed9	-0.4888828
3	0xc046d396	-3.1066642
4	0xc056fd14	-3.3591967
5	0xbef7039e	-0.48244947
6	0x3fa2026b	1.2656988
7	0xc004520f	-2.0675085
8	0xc044728e	-3.0694919
9	0xbf819c5f	-1.0125846
10	0x3b304dc0	0.0026901811
11	0xbebe000d	-0.37109414
12	0xbf299b15	-0.6625226
13	0x400a4a4b	2.1607845
14	0xbef88dab	-0.48545584
15	0xc01aef66	-2.4208617
16	0xbfa7a3a2	-1.3096812
17	0xbf6ae723	-0.91758937
18	0xc01abf03	-2.4179084
19	0xc0010c59	-2.0163786
20	0xbeff819a	-0.49903566
21	0xbfc5017b	-1.5391077
22	0xbf749a32	-0.95547783
23	0xbf941dfa	-1.1571648
24	0xbfde6d87	-1.7377175
25	0xbf1c2019	-0.6098648
26	0xbfb7a6e9	-1.4347812
27	0xbfdb43ef	-1.7130107
28	0x3f975472	1.1822646
29	0xbf1e9000	-0.61938477
30	0x3f83fabf	1.0310897
31	0xbf87f27e	-1.0620878

blocks.1.bn.running_var f4 [32]
0	0x40f84ecc	7.7596188
1	0x4090ff49	4.5311627
2	0x4087fd61	4.24968
3	0x40f13d3e	7.538726
4	0x413ecf1d	11.925565
5	0x409051bc	4.5099773
6	0x403f91a1	2.9932635
7	0x408b34ce	4.350196
8	0x40788812	3.883305
9	0x4060f7d1	3.5151255
10	0x4099c3ba	4.8051424
11	0x40764c0a	3.848391
12	0x40a8a1a9	5.269734
13	0x4086af3b	4.2088904
14	0x408982c5	4.297213
15	0x40754efc	3.8329458
16	0x403a93ae	2.9152637
17	0x406cb657	3.6986291
18	0x40788bae	3.8835254
19	0x40777191	3.8663065
20	0x4096131b	4.689832
21	0x40b503f1	5.656731
22	0x406b5b53	3.677449
23	0x40a3b0f9	5.115353
24	0x4051d4d4	3.278615
25	0x40e36f27	7.1073184
26	0x408d71bb	4.420133
27	0x40ba1936	5.8155775
28	0x417735d9	15.450646
29	0x4089b46e	4.303275
30	0x40e5bfb9	7.1796536
31	0x404ca869	3.197779

blocks.2.conv.weight f4 [32, 32, 3, 3]
0	0x3e1a18dd	0.15048547
1	0xbc497055	-0.012294848
2	0xbe2d24ee	-0.16908619
3	0xbdc93f50	-0.09826529
4	0xbd3742d3	-0.044741463
5	0xbd98e327	-0.07465201
6	0xbd04287f	-0.032265183
7	0xbdf052c8	-0.11734539
8	0xbd5a3c3d	-0.053280104
9	0xbe771b91	-0.2413161
10	0xbe4af5e7	-0.19820367
11	0xbe113d0f	-0.14183448
12	0xbe43611b	-0.19080012
13	0xbe68e0aa	-0.22741953
14	0xbd8e3fe6	-0.069457814
15	0x3d80047a	0.06250854
16	0xbda66031	-0.08123816
17	0xbc0ff3ec	-0.008786183
18	0xbd310f3a	-0.04322741
19	0xbdbafcd1	-0.09130252
20	0x3e23581e	0.15951583
21	0xbe1b209a	-0.15149155
22	0xbdeb6ae6	-0.11494999
23	0x3d06ba2d	0.032892395
24	0xbde35ef7	-0.111020975
25	0xbe1661fd	-0.14685817
26	0xbc18633d	-0.009301004
27	0x3df0c30e	0.11755954
28	0xbdfc1c71	-0.12310112
29	0xbd3ac7c7	-0.04560068
30	0x3c28a9f2	0.010294424
31	0xbe2fd3a2	-0.17170575
32	0x3d8df29a	0.06931038
33	0x3e19c67f	0.15017127
34	0x3e811e32	0.2521835
35	0x3df9784c	0.12181148
36	0x38cdbd43	9.8104145e-05
37	0xbc6993e5	-0.014256452
38	0x3ecceca8	0.40024304
39	0x3dd9611d	0.10614226
40	0x3ea088b4	0.31354296
41	0x3e27b17d	0.163763
42	0x3df06063	0.11737134
43	0x3e63ee6e	0.22258922
44	0x3ebdb423	0.37051496
45	0xbe26f983	-0.16306119
46	0x3d84f315	0.06491677
47	0x3e57ccfa	0.21074286
48	0x3e3793ba	0.17927447
49	0x3dd9904e	0.10623227
50	0x3e691dab	0.22765224
51	0x3dcc26f3	0.099683665
52	0xbd4de4d7	-0.050267067
53	0xbe48cb8e	-0.196089
54	0xbd830b80	-0.06398678
55	0x3e305c67	0.17222749
56	0x3e4d453d	0.20045944
57	0x3cfea8b6	0.031086307
58	0x3df4a943	0.119463466
59	0x3d848743	0.064711116
60	0xbddc8ddd	-0.10769246
61	0x3d93587f	0.07194614
62	0xbeb56764	-0.35430443
63	0x3cd53a1e	0.026028689
64	0xbe75a00b	-0.23986833
65	0x3e7b5bc0	0.24546719
66	0xbd4e543e	-0.05037331
67	0xbd09d9ca	-0.033654965
68	0xbe242f5e	-0.16033694
69	0xbe01c601	-0.12673189
70	0xbe0d63d5	-0.13807614
71	0x3db0192e	0.08598553
72	0xbc98e222	-0.018662516
73	0xbe07ead7	-0.13273178
74	0x3e3dc4d1	0.18532111
75	0x3e3732ea	0.17890516
76	0x3df9168d	0.12162504
77	0xbc9f3ee2	-0.019439165
78	0x3eb95642	0.36198622
79	0xbe60ad1f	-0.2194104
80	0xbdb61ff2	-0.08892812
81	0x3cacb1fe	0.021080967
82	0xbcfab5fd	-0.030604357
83	0xbe95b9c5	-0.29243293
84	0xbe7dee08	-0.24797833
85	0xbdbd34cd	-0.092385866
86	0xbe97758e	-0.29581875
87	0xbd58074a	-0.052741326
88	0xbe90b995	-0.28266588
89	0xbe2a37cf	-0.16622852
90	0xbc7c1625	-0.015386139
91	0xbe9958b6	-0.29950494
92	0xbd50e156	-0.050996147
93	0xbe4c3506	-0.19942102
94	0xbe268a9d	-0.16263814
95	0xbd2f57a1	-0.04280818
96	0x3c8498ce	0.016186144
97	0xbd5c0d30	-0.053723514
98	0xbdd65d0e	-0.104669675
99	0x3e0685e6	0.13137016
100	0xbdcf0265	-0.101078786
101	0xbdda85a3	-0.106700204
102	0xbd44abe7	-0.0480155
103	0x3daaf9b6	0.0834841
104	0xbe7e7bc3	-0.24851899
105	0xbd6119b1	-0.05495614
106	0xbeb90536	-0.36136788
107	0x3e4a49cc	0.19754714
108	0xbdc991dc	-0.098422736
109	0x3d06a366	0.032870673
110	0x3e0c3d28	0.13695204
111	0x3e2cbb30	0.16868281
112	0x3d2446db	0.040106636
113	0xbdac9be7	-0.084281735
114	0x3d3d9dee	0.04629319
115	0x3e633af0	0.22190452
116	0x3e7a948c	0.24470729
117	0xbd31125a	-0.043230392
118	0xbe8ae94e	-0.27131122
119	0xbe0348ea	-0.12820783
120	0xbe307a13	-0.17234068
121	0xbe12db31	-0.14341427
122	0x3db22af9	0.08699603
123	0xbe0692b6	-0.13141903
124	0xbe2469d1	-0.16055991
125	0xbe2c0894	-0.16800147
126	0xbe2daecf	-0.16961215
127	0xbe086930	-0.13321376
128	0xbeb5d6b9	-0.35515383
129	0xbe48a76c	-0.19595116
130	0xbe3c96b3	-0.18416862
131	0x3d424c4f	0.047436055
132	0xbe97ea59	-0.2967098
133	0x3eca186b	0.39471754
134	0xbdfb3f51	-0.12267936
135	0xbd8ca3e7	-0.068671994
136	0x3e17f892	0.14840916
137	0xbdad2c2c	-0.08455691
138	0xbd8aa867	-0.067704014
139	0xbda0c9b9	-0.078509755
140	0xbe098440	-0.13429356
141	0x3e926004	0.2858888
142	0xbe1b9ac6	-0.1519576
143	0x3e8af12e	0.2713713
144	0xbce4d342	-0.027932767
145	0xbe0209fc	-0.12699121
146	0xbdb5e5bb	-0.08881708
147	0xbe4f7830	-0.20260692
148	0xbd2992ae	-0.04139965
149	0x3e38aa46	0.18033704
150	0x3e8e358f	0.27775237
151	0xbe243943	-0.16037469
152	0x3e50832f	0.20362543
153	0xbdca9c00	-0.09893036
154	0x3d9d9ecc	0.07696304
155	0x3c03a11d	0.008034018
156	0x3cef20e8	0.029190496
157	0x3d95055c	0.07276413
158	0x3e84f470	0.2596774
159	0xbe5a1255	-0.21296056
160	0xbe40eee4	-0.1884113
161	0x3a7e49e6	0.0009700343
162	0xbe32878a	-0.17434517
163	0x3d37b4d2	0.044850178
164	0xbbf55202	-0.0074865827
165	0x3e115555	0.14192708
166	0x3e392720	0.18081331
167	0x3e09a1e1	0.13440658
168	0x3e437515	0.19087632
169	0x3d0a2927	0.033730652
170	0xbd2bec3d	-0.04197334
171	0xbd5eaf67	-0.054366495
172	0xbd3da8ec	-0.046303675
173	0x3daa4bbb	0.08315226
174	0xbd7baef5	-0.06144615
175	0xbd51f0bb	-0.05125497
176	0x3cc31ff6	0.023818951
177	0xbe85b43c	-0.2611407
178	0x3d2ba0e9	0.041901503
179	0x3b6fb181	0.0036574306
180	0xbb8e1d98	-0.004337024
181	0xbe17d895	-0.14828713
182	0x3e5438c4	0.2072478
183	0x3e5cf66a	0.21578375
184	0x3d9d3c75	0.07677547
185	0x3e31021c	0.17285961
186	0x3dcd2ea5	0.10018662
187	0x3e097e05	0.13426979
188	0xbe3485f1	-0.1762922
189	0x3dce2a2e	0.10066639
190	0x3de72b49	0.11287553
191	0x3d7b6a4e	0.061380677
192	0x3de42146	0.11139159
193	0x3dbae5fa	0.09125896
194	0xbcea717f	-0.028618572
195	0x3d2d26c4	0.042273298
196	0x3e2131da	0.15741673
197	0x3ded38a5	0.1158307
198	0x3e2a7b03	0.16648488
199	0xbd4fb677	-0.05071112
200	0xbd419b90	-0.047267497
201	0xbdf35386	-0.11881165
202	0x3e4c44ff	0.19948195
203	0xbe45584f	-0.19271968
204	0xbe5c8772	-0.21536043
205	0xbe0d7b83	-0.13816647
206	0xbe97cbf7	-0.296478
207	0xbeaa9aa2	-0.333211
208	0xbd64cab9	-0.055857394
209	0x3dc323dd	0.09528325
210	0xbe152202	-0.14563754
211	0xbec9262a	-0.3928693
212	0xbe1c2b8c	-0.15250987
213	0xbe53879b	-0.20657198
214	0xbe3424e0	-0.17592192
215	0x3c8d99c6	0.017285239
216	0x3d0b38cc	0.033989713
217	0xbdc9d843	-0.09855702
218	0xbedc4ee1	-0.4302893
219	0xbe71fb4b	-0.23631017
220	0x3e5e3d06	0.21702966
221	0x3d825738	0.06364292
222	0xbd18750b	-0.037220996
223	0xbdfb859f	-0.122813456
224	0x3cef9b44	0.029248841
225	0xbdcd1c64	-0.10015181
226	0x3d80e41c	0.062935084
227	0xbd286490	-0.04111153
228	0x3cd0da74	0.025494792
229	0x3d9752a3	0.073888086
230	0x3d1b9458	0.03798327
231	0x3e046268	0.12928164
232	0x3cd8c4ed	0.026461089
233	0xbca89cb7	-0.02058254
234	0xbda89108	-0.082307875
235	0xbd1b1f56	-0.03787168
236	0xbdcd5bec	-0.10027298
237	0xbb4b04a2	-0.0030978103
238	0xbe215327	-0.15754376
239	0x3cefa254	0.029252209
240	0x3e5ed3ce	0.21760485
241	0x3d9470f7	0.07248109
242	0x3d29eaa4	0.041483536
243	0xbb16a821	-0.0022988396
244	0xbdaeacaf	-0.085290305
245	0x3c59faad	0.013304395
246	0xbe2bb0ec	-0.16766709
247	0x3cce2415	0.02516369
248	0xbd2e0d05	-0.042492885
249	0xbe594509	-0.21217741
250	0x3d992548	0.07477814
251	0x3e601ca4	0.21885926
252	0x3e74b4dd	0.23897119
253	0x3dfc57a1	0.123214014
254	0xbd068edc	-0.032851085
255	0xbd22da76	-0.03975912

blocks.2.conv.bias f4 [32]
0	0x3b861462	0.0040917853
1	0x3bf22bc2	0.0073904702
2	0xb936da48	-0.00017438189
3	0xb916bfff	-0.00014376639
4	0xbbfc615e	-0.0077020368
5	0xbba366fe	-0.004986643
6	0x3bbf87e0	0.005845055
7	0x39d0cfb7	0.0003982761
8	0xbbab0a1f	-0.0052197124
9	0xbb8d18b5	-0.004305924
10	0xbb8e0a08	-0.004334692
11	0x3adb2454	0.0016719201
12	0xba8bfec9	-0.001068079
13	0xbb1601ef	-0.0022889336
14	0x3b59c0c8	0.003322648
15	0x37eb0b4f	2.8019449e-05
16	0xb98d6594	-0.00026969297
17	0xbc695097	-0.0142404055
18	0x38ac4750	8.214882e-05
19	0xb99d7daf	-0.00030039015
20	0xb9efd055	-0.00045740852
21	0x3a2c5389	0.0006573727
22	0x3a689c1e	0.0008873361
23	0x3c0578f2	0.008146511
24	0x3a160639	0.0005722973
25	0x3b12b2f7	0.0022384503
26	0x398072de	0.00024499645
27	0xba32e3b8	-0.0006824094
28	0x3aefb427	0.0018287943
29	0xbb053e82	-0.0020331447
30	0x3a9b42fb	0.0011845523
31	0x3a62ef23	0.000865685

blocks.2.bn.weight f4 [32]
0	0x3f69ba34	0.9129975
1	0x3f6ad56b	0.917319
2	0x3f3dbaa3	0.7411291
3	0x3f3f47fa	0.747192
4	0x3f48a0a2	0.78370106
5	0x3f48522e	0.78250396
6	0x3f869c3b	1.0516428
7	0x3f8954e6	1.0729034
8	0x3f48c939	0.7843204
9	0x3f7f859f	0.99813265
10	0x3f4f7877	0.8104319
11	0x3f726b5f	0.94695085
12	0x3f738f19	0.95140225
13	0x3f54ea56	0.8317007
14	0x3f5cdde1	0.8627606
15	0x3f859b58	1.0438032
16	0x3f8b2f54	1.0873818
17	0x3f807ff9	1.0039054
18	0x3f33a019	0.70166165
19	0x3f4ba2d6	0.7954534
20	0x3f62a003	0.8852541
21	0x3f810556	1.0079753
22	0x3f6c7697	0.92368454
23	0x3f892d00	1.0716858
24	0x3f97b14e	1.1850984
25	0x3f7ce723	0.98790187
26	0x3f6c60f7	0.92335457
27	0x3f4149d8	0.755033
28	0x3f1bad68	0.6081147
29	0x3f7b4c03	0.9816286
30	0x3f0094be	0.5022696
31	0x3f509ac0	0.8148613

blocks.2.bn.bias f4 [32]
0	0xbe817e88	-0.25291848
1	0xbee542a3	-0.44777402
2	0xbe1a73a7	-0.1508318
3	0xbe57122b	-0.21003024
4	0xbf094085	-0.53614074
5	0xbe80f1fb	-0.25184616
6	0xbe54bae7	-0.20774423
7	0xbf001a97	-0.5004057
8	0xbf0845a2	-0.5323125
9	0xbebd1f21	-0.36937812
10	0xbeee3ad2	-0.4652925
11	0xbecf56b2	-0.4049583
12	0xbf0edb22	-0.5580312
13	0xbed8c805	-0.42340103
14	0xbf028ff0	-0.5100088
15	0xbf106590	-0.5640497
16	0xbecaf59f	-0.3964052
17	0xbf05d308	-0.52275133
18	0xbeea1544	-0.4571935
19	0xbec69e65	-0.3879272
20	0xbf06a5ed	-0.5259693
21	0xbf376067	-0.71631473
22	0xbec496e0	-0.38396358
23	0xbed47012	-0.41491753
24	0xbefc38c4	-0.4926206
25	0xbedba4be	-0.42899126
26	0xbf11619f	-0.5678958
27	0xbe533bfd	-0.20628352
28	0xbd4f3d92	-0.050595827
29	0xbed3e5d0	-0.4138627
30	0x3e47bffb	0.19506828
31	0xbf351e71	-0.70749575

blocks.2.bn.running_mean f4 [32]
0	0xbfd077d2	-1.6286566
1	0xbff27e5e	-1.8944814
2	0xc0277f5a	-2.617148
3	0x3eea28df	0.45734307
4	0xc061a4c6	-3.525682
5	0x3f195dcc	0.5990875
6	0xbfc5eb42	-1.546242
7	0xbefa4420	-0.488801
8	0xbfec9a63	-1.8484615
9	0xbe95edc7	-0.29282972
10	0xbffeb1dd	-1.989803
11	0xbe7cc9d2	-0.24686363
12	0xbf323abc	-0.6962087
13	0xc002d3b1	-2.0441706
14	0xbf875066	-1.0571411
15	0xbf66eb5e	-0.9020289
16	0x3d75e93a	0.060036875
17	0xbfec6cde	-1.8470724
18	0xc000c1d5	-2.0118306
19	0xbfac97bb	-1.3483804
20	0xbf0177c6	-0.50573385
21	0x3e9f82f0	0.31154585
22	0xbf16c6d7	-0.58897156
23	0xc01c857d	-2.4456475
24	0xbf6a80a3	-0.91602534
25	0xbfc39d72	-1.5282423
26	0xbfbab310	-1.4585896
27	0x3f482689	0.781838
28	0xbf2d891d	-0.67787343
29	0xc00ec7e2	-2.2309499
30	0x3fb6a433	1.426886
31	0xbfb3609a	-1.4013855

blocks.2.bn.running_var f4 [32]
0	0x41782b72	15.510607
1	0x4102ed39	8.182916
2	0x411add9e	9.679106
3	0x40a4a243	5.1448073
4	0x40df2a63	6.973924
5	0x4081fcde	4.0621176
6	0x411708b1	9.439622
7	0x407383d2	3.8049207
8	0x40737d7b	3.8045337
9	0x40c0d125	6.0255303
10	0x40a520d6	5.1602583
11	0x40acd905	5.4014916
12	0x404255d0	3.0364876
13	0x414f44d7	12.954307
14	0x4155c51a	13.3606205
15	0x40947be4	4.6401234
16	0x4079742e	3.897716
17	0x40a3b528	5.115864
18	0x40a49960	5.1437225
19	0x40dcc4da	6.8990297
20	0x40737d3f	3.8045194
21	0x407afa69	3.9215338
22	0x407fb5b9	3.9954665
23	0x40f180a4	7.546953
24	0x40488f07	3.1337297
25	0x40806881	4.012757
26	0x40afd0cb	5.4942374
27	0x414f16db	12.94308
28	0x40ff232a	7.9730425
29	0x413bb43e	11.731504
30	0x414c981a	12.787134
31	0x40bee01b	5.9648566

blocks.3.conv.weight f4 [32, 32, 3, 3]
0	0xbe0ba353	-0.13636522
1	0xbe3078a8	-0.17233527
2	0xbe433b19	-0.19065513
3	0xbd8a4f38	-0.06753391
4	0xbee54145	-0.4477636
5	0xbe86d584	-0.26334774
6	0x3c097f6e	0.008392198
7	0xbdef1d7f	-0.11675548
8	0xbd5a6f9c	-0.053329095
9	0xbe205022	-0.15655568
10	0xbd882979	-0.06648535
11	0xbdad883d	-0.08473251
12	0x3d8192a8	0.063268006
13	0x3e91d1ff	0.28480527
14	0x3e2c967b	0.16854279
15	0x3e05fbaa	0.13084283
16	0x3e5430e8	0.20721781
17	0x3e29689e	0.16543815
18	0x3b88412b	0.0041581593
19	0xbc95c1e5	-0.018280933
20	0xbd04e87a	-0.03244827
21	0xbd5f18e4	-0.054467097
22	0x3e272ce1	0.16325714
23	0xbd8b238a	-0.06793888
24	0xbe26eb17	-0.16300617
25	0xbd92f809	-0.07176215
26	0xbc95e23f	-0.01829636
27	0xbe4dc64e	-0.20095178
28	0xbb2779de	-0.0025554816
29	0x3daa1f26	0.08306722
30	0x3d648b0b	0.055796664
31	0xbe5a829e	-0.21338889
32	0xbe189e24	-0.14904076
33	0x3db07879	0.08616728
34	0x3e014014	0.126221
35	0xbdab38db	-0.08360454
36	0xbddb78ad	-0.107163765
37	0xbdd0c91c	-0.101946086
38	0x3d4023b5	0.046909053
39	0xbe66abdb	-0.22526495
40	0x3ddc70eb	0.10763725
41	0xbe680659	-0.22658671
42	0x3da8121d	0.0820658
43	0x3e30a386	0.17249879
44	0xbdf00801	-0.117202766
45	0x3ddacf18	0.10684031
46	0xbb8c58ae	-0.0042830324
47	0x3d8393d5	0.06424681
48	0xbe639476	-0.22224602
49	0x3e06ef80	0.131773
50	0x3dafffe7	0.085937314
51	0x3e326070	0.174196
52	0x3b8fcb06	0.004388216
53	0x3d6a49c8	0.05719927
54	0x3e8f1cd8	0.27951694
55	0x3d3c70c8	0.046005994
56	0xbdbbd245	-0.09170965
57	0x3e5ec8ee	0.21756336
58	0x3e089d54	0.13341266
59	0x3e096023	0.1341558
60	0x3e29ae17	0.16570316
61	0xbd17eaab	-0.03708903
62	0x3c542545	0.012948339
63	0xbd7c599a	-0.06160889
64	0x3e469bbf	0.1939535
65	0x3cf15923	0.029461449
66	0x3e90d6e4	0.2828895
67	0xbd78a0e5	-0.060700316
68	0xbd50a3d0	-0.050937474
69	0x3dbda2be	0.09259556
70	0xbd2a49f6	-0.04157444
71	0xbd997696	-0.074933216
72	0xbd8a5110	-0.06753743
73	0xbe0ec343	-0.13941674
74	0x3e176b0a	0.14786926
75	0x3e76f915	0.24118455
76	0x3d6aeadb	0.057352882
77	0x3e4cb3de	0.19990489
78	0xbd14c70e	-0.036322646
79	0xbdad194d	-0.08452091
80	0xbd45c0c9	-0.048279557
81	0x3d8139bc	0.0630984
82	0xbd5ef041	-0.054428343
83	0x3ee970fa	0.45594007
84	0x3d26d1aa	0.040727295
85	0x3be86c34	0.007092977
86	0x3e573511	0.21016337
87	0xbcb5734e	-0.022149708
88	0x3e235cbf	0.15953349
89	0x3e670ea7	0.22564183
90	0xbe4ccf6f	-0.20001005
91	0xbcc24b6c	-0.023717605
92	0x3e5cb4be	0.21553323
93	0x3e5bba2c	0.21457738
94	0x3bb34d8c	0.005471891
95	0xbc7c5db2	-0.015403198
96	0xbddee0fb	-0.10882755
97	0x3c90c612	0.017672572
98	0x3dee72f8	0.11643022
99	0x3d41a2ba	0.04727433
100	0xbe159231	-0.14606549
101	0xbb6bb50b	-0.0035966064
102	0xbe3db59d	-0.18526311
103	0xbe2ba629	-0.16762604
104	0xbc5db21c	-0.013531234
105	0xbeaf197e	-0.34199136
106	0xbe1f782c	-0.15573186
107	0x3e632a72	0.2218416
108	0xbe3f8119	-0.1870159
109	0x3c75624a	0.014977047
110	0xbd7a967a	-0.061178662
111	0x3e058799	0.13040008
112	0x3ddd566b	0.108074985
113	0x3dc3c43f	0.09558915
114	0x3d73e013	0.059539866
115	0xbdb01e30	-0.08599508
116	0x3e05d802	0.13070682
117	0x3ded3415	0.115821995
118	0x3e41cb60	0.18925238
119	0x3dc3412f	0.09533917
120	0x3da903f8	0.0825271
121	0x3dca8bc4	0.098899394
122	0x3e764489	0.24049582
123	0xbd759ed4	-0.059965923
124	0xbe94b422	-0.2904368
125	0xbe24a9ef	-0.1608045
126	0xbe618d06	-0.22026452
127	0xbd49274f	-0.049109753
128	0xbe036c6e	-0.12834331
129	0xbe64aeaa	-0.22332254
130	0xbd3fa417	-0.046787348
131	0xbe3d6ad3	-0.18497781
132	0xbe12097c	-0.1426143
133	0x3e41a409	0.1891023
134	0xbe8ea152	-0.27857453
135	0xbe0d58c6	-0.13803396
136	0xbd5e2a16	-0.054239355
137	0xbe27bbd7	-0.16380249
138	0xbeacb326	-0.3373043
139	0xbd00c3af	-0.03143662
140	0x3ec080f7	0.37598392
141	0xbe43960b	-0.19100206
142	0xbda3da12	-0.08000578
143	0x3d98acd7	0.074548416
144	0x3ccc9f18	0.024978206
145	0xbe582fcf	-0.21111988
146	0x3d207ab8	0.039179534
147	0xbdd8d344	-0.10587171
148	0xbd872a7a	-0.06599899
149	0x3e3401fe	0.17578885
150	0x3e9a92f6	0.30190247
151	0x3deea7ee	0.11653124
152	0xbe341df8	-0.17589557
153	0xbde76249	-0.11298043
154	0x3e23d22d	0.15998144
155	0x3df55a27	0.11980086
156	0x3be1dced	0.0068927915
157	0x3e092b31	0.13395382
158	0x3e16d781	0.14730646
159	0xbcd35e0b	-0.02580168
160	0xbc825d49	-0.015913622
161	0x3d06ad18	0.03287992
162	0xbe0492b8	-0.12946594
163	0xbe894cc1	-0.2681637
164	0x3e099dc4	0.13439089
165	0xb9d2682f	-0.00040131944
166	0xbcad3175	-0.021141747
167	0xbd9c669e	-0.0763676
168	0x3da58f62	0.08083989
169	0xbcf6003b	-0.030029407
170	0x3e4ed6ba	0.20199099
171	0x3dcb25d9	0.09919328
172	0xbdcc980d	-0.09989939
173	0xbdfd30d7	-0.12362831
174	0x3e9868b7	0.2976739
175	0xbdb80ef1	-0.08987225
176	0xbc87858d	-0.016543174
177	0x3d0a1b1d	0.033717263
178	0xbe64b6b2	-0.22335318
179	0xbe4b0ee9	-0.19829907
180	0xbdd251d8	-0.10269517
181	0xbde6e64b	-0.11274394
182	0x3d92bcc0	0.071649075
183	0x3dc7b8bf	0.097520344
184	0xbe5bea70	-0.2147615
185	0x3d20c2ae	0.03924816
186	0xbd314b7f	-0.04328489
187	0x3c7dd197	0.015491865
188	0xbdbe7547	-0.09299713
189	0x3dc036dc	0.093854636
190	0x3b0a251d	0.002107925
191	0x3dd91514	0.105997235
192	0x3cba301e	0.022728022
193	0x3e1e2cba	0.1544675
194	0x3de4a88a	0.11164959
195	0x3bec8726	0.0072182594
196	0x3e4c919b	0.19977419
197	0x3df3e927	0.11909705
198	0xbdf2e3dc	-0.11859867
199	0xbc932a15	-0.017964402
200	0xbccd74fb	-0.025080195
201	0xbdafed67	-0.08590203
202	0x3b5d8b5a	0.0033804984
203	0xbe616219	-0.22010078
204	0xbd415f26	-0.04720988
205	0x3dc6034b	0.09668597
206	0xbea8be91	-0.3295789
207	0xbe08605b	-0.13318007
208	0xbca0f349	-0.019647257
209	0x3e84845d	0.25882235
210	0xbd90c14b	-0.07068118
211	0xbed6683a	-0.41876394
212	0xbc7e3b78	-0.015517108
213	0x3dd3e6f7	0.103467874
214	0x3e29fedf	0.16601132
215	0x3e3f12ed	0.18659563
216	0x3e8fc261	0.28077987
217	0x3e3b2196	0.18274531
218	0x3bda0a3f	0.0066540535
219	0xbdd55c14	-0.10417953
220	0x3e087d12	0.1332896
221	0xbf0181c9	-0.5058866
222	0xbb5c2106	-0.003358902
223	0xbdc5d7ea	-0.09660323
224	0xbe0c069d	-0.13674398
225	0x3e058066	0.13037261
226	0x3d370fa6	0.044692658
227	0xbd03450e	-0.032048278
228	0xbe3b98b4	-0.1831997
229	0xbe079b22	-0.13242772
230	0x3d74d2a5	0.0597712
231	0xbd7b70e7	-0.06138697
232	0x3e5b02f6	0.21387848
233	0xbd8f9f44	-0.070127994
234	0x3e4fef69	0.20306171
235	0xbe7c541f	-0.24641465
236	0xbe417fdc	-0.1889643
237	0xbd2f11eb	-0.042741697
238	0xbe3b0c85	-0.18266495
239	0xbe1225e7	-0.14272271
240	0x3e1c4704	0.15261465
241	0x3c94953e	0.01813757
242	0xbde1dc78	-0.11028379
243	0xbd8054c8	-0.06266171
244	0x3bc4b58c	0.0060030874
245	0x3e757d94	0.23973686
246	0xbe0e891c	-0.1391949
247	0x3d9ce5bf	0.07661008
248	0xbd8bd85e	-0.06828378
249	0x3c911620	0.017710745
250	0xbd82a866	-0.06379776
251	0x3e60d4a8	0.21956122
252	0xbd550e71	-0.052015726
253	0x3e685a8b	0.2269079
254	0xbe08b6d5	-0.13350995
255	0xbe5a24ad	-0.21303053
