models/169.pth (torch, 501904 bytes, 80 tensors)

conv0.conv.weight f4 [32, 17, 3, 3]
00000000: c683 36be 3fe7 a43e 8eb9 d83c 2e8d 8f3e
00000010: 79e5 a1be 6cf8 e33e 3485 4e3d be1b aa3e
00000020: 4406 da3d f251 26bc 9057 073e 4545 5abd
00000030: 5c2a 623d 9e66 4fbe 4283 8f3d 3ca7 363e
00000040: d5d7 dc3d 6832 00bd 31ce b3bb b14e a0bc
00000050: f941 40bd c1a2 1bbe 8b18 acbd 336f 0b3e
00000060: 9037 0abc aeb3 40bd 608d 163d 25c6 45bc
00000070: 5554 0d3e 3cfa 073b 4266 a63c c4c7 c1bd
00000080: 7393 1abd e81b 183e 2bc7 9dbd 9e11 413c
00000090: 73c0 413e afda 863e b186 063e 869a 623e
000000a0: 0f5e a7be 7a3a dd3e 87dc 823e a98c ce3e
000000b0: 9f83 6f3e 5d10 043e 49d9 f23d 0580 af3d
000000c0: 2c29 b33e 1f8d 86bd a7b7 a53d f80e f63d
000000d0: 7fb0 bb3d fc1f 853e a284 183e 5feb 553e
000000e0: a73b 373e a0f8 8b3e b25c 33be b715 483e
000000f0: 4f9c a33e 0d49 623e b202 e53d 18a7 13bd
00000100: 9fca 863e d976 c03d da24 763d bd45 4cbd
00000110: 2d4e ba3e b935 453e b7be 633e 58fc 8b3e
00000120: 5574 ef3c 811e 1c3e bcc1 3ebd 0686 603d
00000130: 919c b53e 6304 c8bb d93a 513c ae3c 483d
00000140: 54b6 863c 22d4 f8bb 294d d93d d0da 3d3d
00000150: 0c63 903c 5d96 fc3e 3665 cb3c e2b4 663c
00000160: 27ea d63d a2c9 c23d 83ae ddbb 1cbd 8c3d
00000170: 68c4 b8bd 79e9 443d 8b11 dd3e c931 d23c
00000180: a2d5 15bd 9c79 df3c fdc0 d9bc 9d67 e1bc
00000190: 7f10 ed3d 1499 ccbc 70a8 f03d 6813 cd3e
000001a0: e36b 053d 9e7f 05be fc7a 803d 16b0 093d
000001b0: cf2d 923d 4c0e 1bbe ddf7 9b3d b2fb 18be
000001c0: ea01 40be ef8c f23c ccb2 7e3d 2175 d2bd
000001d0: 2b69 3b3c 58c5 33bd 19b3 813d 7053 9cbd
000001e0: efc8 353d 2850 953e eac0 0fbe e2f3 7d3d
000001f0: 3da4 773d eec3 923d 4438 223e a01b 78bc
00000200: 8a23 42bd c45c d53c 6eb6 533e 9a8d 0fbd
00000210: 9e3e 283d 1ade 2bbe f3e4 bfbd 8b2c d8bd
00000220: 92e6 523c a9ee 813d 2120 f1bc b888 093b
00000230: f25f 933d 0bc8 d5bc 9916 aabc 2c56 403e
00000240: 3db4 293c 7372 d83d 1b5b 323d b909 c23d
00000250: d4ac b8bc f10a 0f3e 70e4 fb3c 7ec6 bb3d
00000260: 2bf9 433d dc67 033d 5c10 a5bc 433b 2bbc
00000270: 6aef 7fbe 1603 0dbf effb 5c3e 5e76 6dbc
00000280: a9e2 273e 3d45 7b3c da6d 1dbe f83d 813e
00000290: 48b0 4dbe 225a 3ebd 499e 8b3d a42f b7be
000002a0: c2fc 093e bc14 15be c648 70be 1fbb 0f3c
000002b0: 5d7f 573e 14e0 98be 5d54 ebbd 816f 5c3e
000002c0: 9a20 87be 4144 233c 884e 80be 1731 9e3d
000002d0: 5f91 72be 193f 7a3e 4f26 07be b494 bc3b
000002e0: 88fa 0d3e 4ee8 0abf a03a d13d 9b31 5dbe
000002f0: 16b2 4ebc 7e16 00be f58e 3dbe 6a3d 1e3d
00000300: 270c 74bd 3bdc f2be d850 85be 13d8 283e
00000310: e5d7 20be a881 6cbe c6d5 1fbe 7531 dbbe
00000320: 0458 2dbe 3de7 0cbe b132 55be 35a7 8ebe
00000330: edd9 d8be 0bc0 68bd 2f47 d3be 90da babe
00000340: fda3 f9be 6a4f 0fbf 58a0 d0be f0d2 ccbd
00000350: f3bb 8abe 0b8b 813d 97d2 5ebe 89bc 3fbf
00000360: a132 a9be 333b 46be 95fb 98be 7602 a4be
00000370: 8ba3 a2bd 36b0 e1be c2f7 35be dde2 6dbe
00000380: 4590 c4be f6cd 12be fbaf 023e bc2a 363e
00000390: 668d 303d a47a efbe e173 153e 3b2e 5abe
000003a0: bb98 f7bb 4db8 45bc ffc5 67bd dd48 8f3c
000003b0: dbf3 843e fca4 75ba 7eeb 7e3c cc6e 553e
000003c0: 9203 94bd 289f 043e 67c3 893c d54f ee3d
000003d0: df6b 1b3e f189 833d 32a6 043e a8b2 a13d
000003e0: 9c8f 893c 4873 473d 9460 d43d b835 b73d
000003f0: 8300 dabc 0663 b93d 4a36 7c3e 4b35 a2bd
-0.17823705 0.32207677 0.026455667 0.280374 -0.31620386 0.44525468 0.05042 0.3322429
0.10645726 -0.010151373 0.13216996 -0.053288717 0.05521618 -0.20253989 0.07007457 0.17837232
0.10783354 -0.03129807 -0.0054872264 -0.019568773 -0.046937916 -0.15198804 -0.08403119 0.13616638
-0.008436099 -0.047046356 0.03675592 -0.012071167 0.13801701 0.0020748517 0.020312432 -0.094619304
-0.037738275 0.14854395 -0.07704004 0.011783985 0.1892107 0.26338717 0.13137318 0.22129259
-0.3268895 0.43208677 0.25558874 0.4034169 0.23390053 0.12896867 0.1185785 0.0856934
0.3499235 -0.065698855 0.080916695 0.12014574 0.09164523 0.26000965 0.14894345 0.20890568
0.1789385 0.27338123 -0.17515829 0.19539534 0.31955191 0.22098179 0.11182155 -0.036048025
0.26326463 0.093976684 0.06009374 -0.049871195 0.36387768 0.19258775 0.2224072 0.2734096
0.029230276 0.15246011 -0.04657148 0.054815315 0.35471013 -0.0061040386 0.012770378 0.048885994
0.016444363 -0.0075936476 0.1061042 0.046351254 0.017625354 0.49333468 0.024828535 0.014081212
0.1049388 0.09511115 -0.006765188 0.06872007 -0.090218365 0.04807422 0.43177447 0.025658505
-0.03658069 0.027279668 -0.026581282 -0.027515227 0.11575412 -0.024975337 0.11750877 0.40053868
0.032573592 -0.13036963 0.062734574 0.033615194 0.071376435 -0.15142173 0.076156355 -0.14939764
-0.1875073 0.029608218 0.062182233 -0.10276247 0.011438648 -0.043889374 0.06332988 -0.07633102
0.04438108 0.29162717 -0.14038435 0.062000163 0.060459364 0.07166277 0.15841776 -0.015143305
-0.047397174 0.02604521 0.2067506 -0.03504715 0.04107534 -0.16783944 -0.093698405 -0.10555371
0.012872355 0.06344349 -0.029434266 0.0020986032 0.071960345 -0.026096364 -0.020762729 0.18782872
0.010357914 0.105687045 0.043543916 0.09474511 -0.022543348 0.13969018 0.030748576 0.09168719
0.047845047 0.03208147 -0.020149402 -0.010451141 -0.24993673 -0.55082834 0.2158048 -0.014493553
0.16395058 0.015336332 -0.15373936 0.2524259 -0.20086777 -0.046472676 0.068173 -0.35778534
0.13475326 -0.14558691 -0.23465261 0.0087726405 0.21044679 -0.29858458 -0.114907004 0.2152691
-0.2639206 0.0099650035 -0.25059915 0.07724207 -0.23688267 0.24438132 -0.13198207 0.0057550315
0.13865101 -0.5426072 0.1021626 -0.21600954 -0.012615701 -0.1250858 -0.18511565 0.038632788
-0.059581902 -0.47433648 -0.2603824 0.16488676 -0.15707357 -0.23096335 -0.15608892 -0.4281117
-0.16928107 -0.13760085 -0.20820118 -0.27861944 -0.42353764 -0.05682377 -0.41265246 -0.36494875
-0.48757926 -0.5598055 -0.40747333 -0.10001171 -0.2709652 0.063253485 -0.21760021 -0.74897057
-0.3304644 -0.1935852 -0.29879442 -0.32033128 -0.079413496 -0.4407975 -0.17770293 -0.23231073
-0.3839132 -0.1433638 0.12762444 0.1778974 0.043103598 -0.46773255 0.14594986 -0.21306698
-0.0075560487 -0.0120678665 -0.05658531 0.017490799 0.25967297 -0.0009370593 0.015559075 0.20843047
-0.072272435 0.12951338 0.016816808 0.116363205 0.15177868 0.064227946 0.12954023 0.07895404
0.016792111 0.048693925 0.10369983 0.08945793 -0.026611572 0.0905209 0.24630085 -0.07920321

conv0.conv.bias f4 [32]
00000000: 639d 4dbb 8bc9 aebb 478b afbb 0875 563a
00000010: 360c fbba fd72 933b 32d6 d23b 0e49 eb3b
00000020: f0f7 073c fea2 27bb fe3c 96bb 8f90 b73c
00000030: 2d87 b83a 550c 48ba b86d acba 8da7 e93b
00000040: 562d d138 d5c8 263c 519a 2bbc 425f 143b
00000050: 2bd3 9abb bb19 12bd 30ba 2cbb 6597 7e3b
00000060: 55e4 65ba 59b4 353b 5777 99ba 005b 833b
00000070: 88ec 003b 9db8 20bd 6d9b 17bc a6b0 5ebb
-0.0031374327 -0.0053340844 -0.0053571793 0.0008180891 -0.0019153419 0.0044997917 0.0064342255 0.0071803397
0.008298859 -0.0025579329 -0.0045849076 0.022407798 0.0014078371 -0.0007631232 -0.0013155257 0.0071305693
9.974341e-05 0.010179718 -0.010473804 0.0022639786 -0.00472488 -0.03566907 -0.0026356094 0.0038847562
-0.0008769681 0.0027725904 -0.001170854 0.004008651 0.0019672234 -0.03923856 -0.009253365 -0.0033979802

conv0.bn.weight f4 [32]
00000000: a493 5d3f df66 2a3f 428f 303f 86d1 4d3f
00000010: 0ff1 423f 6311 2e3f 9738 313f 6f25 463f
00000020: c255 6a3f b1d1 573f aa77 2e3f 9e8f 273f
00000030: 001f 373f 9b38 643f 0784 473f bcd0 663f
00000040: dd6e 403f d830 a63f 5dec 553f 5840 3a3f
00000050: 2014 4b3f e241 653f bba8 483f f519 3b3f
00000060: 24cc 573f b63e 473f 3128 583f 19bb 473f
00000070: 70ac 753f e940 3b3f aaa6 313f 12e5 1e3f
0.86553407 0.6656322 0.68968594 0.8039783 0.76149076 0.6799528 0.69226974 0.7740087
0.91537106 0.8430434 0.6815134 0.6545352 0.7153168 0.89148873 0.7793583 0.90162253
0.75169164 1.2983656 0.83563787 0.7275443 0.79327583 0.89553654 0.7838246 0.7308648
0.8429587 0.77830064 0.8443633 0.78019863 0.95966244 0.7314592 0.69394934 0.62068284

conv0.bn.bias f4 [32]
00000000: d401 0cbf 4a6a efbd 3d65 49be 1d29 e5be
00000010: 6c97 63be d49f 93bd 2c3f a5bd 66c9 a5be
00000020: b000 87be 8337 bbbe dcba 8fbe b686 a63d
00000030: 4284 38be 6a18 d2be 8611 61be e443 febd
00000040: 76c8 71bd e9e3 17be c78a 76be f53b 8cbe
00000050: 7ef0 26be 7652 73bc d43c adbe 6c6c 85be
00000060: f59c 6bbe 93ce 9bbe 8704 acbe 0859 b9bd
00000070: 33e9 0bbe 6a15 d63e 9d4e 45be 6d06 96bd
-0.5469029 -0.11690195 -0.19667526 -0.4475793 -0.22225732 -0.07208219 -0.0806869 -0.32380217
-0.26367712 -0.3656579 -0.2807225 0.08131163 -0.18019202 -0.4103425 -0.21979341 -0.12415293
-0.059029065 -0.14833035 -0.24076377 -0.27389494 -0.16302678 -0.014851203 -0.3383547 -0.26059282
-0.23009093 -0.3043104 -0.33597204 -0.090501845 -0.13663177 0.41813213 -0.1926827 -0.07325444

conv0.bn.running_mean f4 [32]
00000000: 50ca 903e 8d67 883c 7b19 2bbe 97b6 e9bd
00000010: e10a b3bd 110b 76bc 30e9 7dbe 9b28 933e
00000020: 8656 33be 0a7b e8bd 224c 8abd 74d5 ebbb
00000030: ae77 83bd 5156 6dbd 94d2 8e3d 31a5 7b3e
00000040: 9055 253e 921e 1fbe 4216 3dbe b021 85bd
00000050: 78c2 b03c 2067 c8bd 6019 9ebd da91 3d3d
00000060: e2a8 a5bd 244e d6bd 5a71 f0bd 34e0 83bd
00000070: 2a91 673e 4521 dc3d e9e8 a9bd b88b 1d3e
0.28279352 0.01665094 -0.16708939 -0.114117794 -0.08742309 -0.015017287 -0.24795985 0.28741917
-0.17513475 -0.11351593 -0.067528024 -0.0071970765 -0.064193115 -0.057943646 0.06973758 0.24574734
0.16145921 -0.15539005 -0.18465522 -0.06500566 0.021577105 -0.097852945 -0.07719684 0.046281673
-0.080888525 -0.10464123 -0.1174037 -0.06439248 0.2261397 0.10748533 -0.08296377 0.1538533

conv0.bn.running_var f4 [32]
00000000: bfb4 c73d ee91 e13d afeb 103e d259 c73d
00000010: 247f 103e 3e66 e13d cdd6 4f3e 13ae bf3d
00000020: e17f 183e 1b86 f33d 8404 d83d 29da 103e
00000030: d81d f03d cc37 a73d 176e c13d 546e cb3d
00000040: 41bb ac3d 6d61 fe3d f46a 053e dfeb ca3d
00000050: cc26 2b3e faba e73d 3118 b23d 3aed d53d
00000060: 2812 b73d a393 f43d d9e3 e23d c26d ae3d
00000070: 31e2 e43d 031b b53d f754 c43d 5ad3 bc3d
0.097512715 0.11014162 0.14152406 0.09733929 0.14111 0.11005829 0.20296784 0.09359374
0.14892532 0.11890813 0.10547736 0.14145721 0.11724442 0.08164939 0.09444826 0.09933153
0.08434153 0.12420926 0.1302908 0.0990827 0.16714019 0.1131496 0.086960204 0.10445638
0.0893901 0.11942222 0.11078615 0.085170284 0.11175955 0.08843043 0.09586518 0.092199996

blocks.0.conv.weight f4 [32, 32, 3, 3]
00000000: 52ad a33d 7977 1cbe 7236 d73d 2577 afbe
00000010: 52a2 093e 84dd ccbd 6ba2 6f3e ef1c 2dbe
00000020: e165 1e3e 991c 8abc 66a7 64bc 32c3 73be
00000030: b138 dabd c2d9 aabd 5308 883e ee0d 94bc
00000040: d6b0 c5bd 098e d4bd 1dbd 293e e594 f8bd
00000050: 7e43 ff3d 2a3a 66bd ad08 81be 31da 823c
00000060: 718a 53bb 3892 673d d8c6 043e a465 a73d
00000070: 43ed bc3d af23 b23d 69b5 003d e3b1 893d
00000080: 6f25 cc3c 775b 5cbc 4a07 77be 35f6 1c3e
00000090: dcf3 80bc e78a 6b3e 7627 a0bc 790d 873d
000000a0: 3996 ae3d eca9 693d 964b 2bbe ac37 e93c
000000b0: 645d dbbd cf7f b73d db9e 95be 40ac 3bbd
000000c0: 9449 88bd f3d6 eebd dea4 b23d 7e6e 4e3e
000000d0: cbee 1f3e 80fd 203e d19c c63d da8c 37be
000000e0: 2592 d4bc 1c64 a0bd ef59 173d 9f4c 93be
000000f0: 3fda e7bc 6818 a73d 5da2 fabd bad6 5d3e
00000100: 5741 2c3e 69df 813e ccbf bb3c a851 123e
00000110: f1de b73d 93e0 f63d 8013 803d 3bf4 963d
00000120: 6065 37bd 0213 0bbf b3be c3bd 5876 12be
00000130: 9538 533e 503a 563d 9e3a b4bd e69f aa3e
00000140: c8bc bb3d 5e62 403c 06f9 fb3b a97b 02bd
00000150: d670 7cbd a0d7 9a3e 2a79 9c3d 6754 db3d
00000160: 9bcf ddbd 4ed0 e53c 1dc5 bb3d 5057 99bd
00000170: 26f7 903d b81f 86bd 6224 3f3e 25dc 3fbe
00000180: 0b6d ee3d bc15 d03c b9b3 533e 8e4f 60bc
00000190: 9617 123d de92 253e b14d 2bbe b372 40bb
000001a0: bc9b 07bd 20d2 843e 45d1 20be d2d4 16bd
000001b0: 8909 eebe 45ef fcbc fb1f 373d 3cfc 383e
000001c0: 9988 6a3d 903a 573d d671 cf3c 430a 883e
000001d0: e0c5 bdbd 2faa afbd 1185 c4bd 1364 96be
000001e0: 03ec d63d 75dd b5be b272 83be fd44 0bbd
000001f0: 0321 23bd 3705 ee3d 22ca 19be 308b c93d
00000200: 20ff 9abe f472 88bb 6caa f7bd a7ad 26be
00000210: f03f 613d d899 06be 8a2c 5dbd c051 333d
00000220: c64b 283e 4ec9 aa3d 5909 133e 3ad4 ce3b
00000230: cfe3 e03d a152 fabc 16c7 d93d d9cd 783d
00000240: ff60 4c3d 85d4 013d 7614 223d 7d23 993d
00000250: 636f 83bd ede9 c23b 049e c53c 7359 703e
00000260: 39d6 7c3d 7e76 3e3c b8e0 703e a605 473d
00000270: 80a3 dd3d 31b5 a2bf 33f2 043e 4db5 343e
00000280: f772 653d edeb 3b3e eec3 ecbd ed2d adbe
00000290: c8fc 973e c141 963e 5ea9 6ebe 3c3c ef3d
000002a0: f7b2 61be dbaa d53d 0680 b23d ca33 913d
000002b0: a576 29be 9202 22be 29a2 32be 1c9d 27bd
000002c0: 742a 45bb 2d68 12bd 6cb3 143d 55bf 5dbd
000002d0: 71b0 3ebd 0176 c4bb f917 ccbb ea2c 8c3d
000002e0: 8a4c a7be 21d2 0ebe cbdb 903d faf5 27be
000002f0: 8862 13be e569 db3d 3750 2c3e 84cb 123d
00000300: 4c0c 233d fdad 46be dda2 123e b52a f33d
00000310: d121 343e 80bb 403e fb6d 4fbd 3dc7 fabd
00000320: 1262 903c d18b 38be b263 af3e 77d5 133e
00000330: 085c 45bd 3b25 36be ba24 1b3c 05b4 823c
00000340: d6c6 cf3d 1820 5a3e dd4b 5d3d d25a 7ebd
00000350: 2c78 343e adb1 f4bd e628 873d 19b4 9c3e
00000360: 1fd8 233e 439a 3a3d 78e4 4b3d 101f c4bc
00000370: f761 49bd 8b95 92bd 534b 963d f100 153e
00000380: d187 303e 5178 d63d 7a2d 043d 9b53 05be
00000390: 3ab6 0c3e 2bc1 8b3d cc09 72be c52f 97be
000003a0: 6777 93bd 7cbc fb3a 9100 f03d d58b 10ba
000003b0: 590b 3d3e 57c6 3cbe 0f99 9bbe a24c 74bc
000003c0: 8128 84bc b387 b43e e92c 78bd 47cd ed3d
000003d0: f65f 42be 5690 1ebd fa8c c53d 2228 f3bc
000003e0: 82cf 24be 02fc 593d 2145 5a3e 86fa b43d
000003f0: 5805 fd3d 484a 6bbe 5e08 bb3d 265e ddbd
0.079920426 -0.1527995 0.105084315 -0.34270588 0.13440827 -0.10003188 0.23401801 -0.16905569
0.15468551 -0.01685934 -0.0139559265 -0.2380493 -0.10655344 -0.08342315 0.2656885 -0.018073048
-0.096528694 -0.103786536 0.16576047 -0.121377744 0.12464045 -0.056207813 -0.25201932 0.015973182
-0.0032278562 0.05653593 0.12966478 0.08173683 0.092249416 0.08698212 0.031423006 0.06723382
0.024920193 -0.013449541 -0.24123874 0.15328296 -0.015741281 0.23002206 -0.019550066 0.065943666
0.085247464 0.057046816 -0.16728052 0.02846893 -0.10711172 0.089599244 -0.2922276 -0.045818567
-0.06654659 -0.11662092 0.08722852 0.20159337 0.15618436 0.15721703 0.09697879 -0.17924824
-0.025948593 -0.07831594 0.036951 -0.28769395 -0.02830231 0.08158952 -0.122379996 0.21663943
0.168218 0.2536576 0.022918604 0.14288962 0.089780696 0.12054553 0.06253719 0.07370802
-0.044774413 -0.5432588 -0.09557857 -0.14302957 0.20627053 0.052301705 -0.08800243 0.33325118
0.091668665 0.011742203 0.007689598 -0.031856213 -0.061631046 0.30242634 0.07640298 0.10709458
-0.10830613 0.028053429 0.09168456 -0.07487357 0.0707839 -0.065490186 0.18666223 -0.18736322
0.11641892 0.025400989 0.20674028 -0.013690842 0.035667025 0.16169307 -0.16728856 -0.002936524
-0.033107504 0.25941563 -0.1570483 -0.036824055 -0.4649165 -0.030875811 0.044708233 0.1806497
0.057259176 0.052546084 0.025322836 0.2657033 -0.09266257 -0.08577382 -0.09595693 -0.29373226
0.104942344 -0.3552052 -0.25673443 -0.03400134 -0.039826404 0.116220884 -0.15018514 0.09841001
-0.3027277 -0.004164094 -0.12093052 -0.1627718 0.054992616 -0.13144624 -0.053997554 0.043779135
0.16435155 0.08339177 0.14359035 0.0063119205 0.10980951 -0.030556979 0.10633676 0.060743187
0.04989719 0.031696815 0.039570294 0.07477472 -0.0641773 0.0059482963 0.0241232 0.23471622
0.061727736 0.01162493 0.23523223 0.04858937 0.10822201 -1.2711545 0.12983017 0.17647286
0.056017842 0.18351717 -0.11560808 -0.338241 0.29685044 0.2934704 -0.23306796 0.11681411
-0.22040926 0.10432979 0.08715825 0.07089956 -0.16549166 -0.15821293 -0.17444672 -0.040921316
-0.0030085118 -0.03574388 0.036303923 -0.054137547 -0.046554986 -0.0059955125 -0.0062284437 0.06844504
-0.32675582 -0.13947345 0.07073172 -0.16402426 -0.14393055 0.10713557 0.16827475 0.03583862
0.03980665 -0.19402309 0.1431994 0.1187338 0.17591025 0.18821526 -0.050641995 -0.12245033
0.017624889 -0.18022086 0.3425575 0.14436899 -0.04818347 -0.1778764 0.0094692055 0.01595498
0.10145347 0.21301305 0.054027427 -0.06209833 0.17623967 -0.119479515 0.06599598 0.30606154
0.16000412 0.04555727 0.04977843 -0.023940593 -0.049165692 -0.07157429 0.07338586 0.1455114
0.1723931 0.10472167 0.032269932 -0.13020174 0.13741389 0.06823953 -0.2363655 -0.29528633
-0.072005086 0.0019205953 0.11718858 -0.00055140007 0.1846136 -0.18435036 -0.30390212 -0.014910849
-0.016132595 0.3525978 -0.060589705 0.11611419 -0.18981919 -0.03871187 0.0964603 -0.029682223
-0.16094783 0.05321885 0.21315433 0.08836846 0.12354535 -0.22977555 0.09132455 -0.10808973

blocks.0.conv.bias f4 [32]
00000000: 3b2d e5ba d548 bd3b 20f0 aaba bcb5 9f3a
00000010: 52eb 80ba 8e7d 9cbc 0a32 063c a9e3 013c
00000020: d595 a6ba 36fc 18ba 0d73 863b 60a4 28ba
00000030: df2f a43b bf1f 273a 030c a239 0c43 8339
00000040: 3b6e 2d3b 8618 6dbb 402a a0ba 7209 023b
00000050: ec1f 92b9 49a7 65bb 2eb5 6eba 5fb3 23bb
00000060: e0c7 e8bb f991 193c fa20 d53a 4a61 bebc
00000070: 4c27 a3bb 48a2 54b9 7c35 b13b 60f9 8abc
-0.0017484793 0.0057765045 -0.0013041534 0.0012184898 -0.0009835756 -0.019102838 0.008190641 0.007927814
-0.0012709448 -0.0005835922 0.0041030706 -0.0006433185 0.0050105895 0.0006375275 0.00030907997 0.0002503622
0.0026463408 -0.0036177947 -0.0012219623 0.0019842056 -0.00027871074 -0.0035042337 -0.00091059774 -0.002497874
-0.007103905 0.0093731815 0.0016260438 -0.02323975 -0.00497905 -0.0002027835 0.005407987 -0.016964614

blocks.0.bn.weight f4 [32]
00000000: f630 543f b61d 573f 6170 5b3f 8239 813f
00000010: 0ca9 893f 466f 453f 0549 3e3f 1c56 373f
00000020: bb3f 743f f9c1 873f 81c7 663f 3d14 813f
00000030: 3c8a 6e3f 3ae5 543f 5444 703f 2629 483f
00000040: 9d71 8d3f 7d88 743f 0d96 503f 9719 6a3f
00000050: 88b6 723f f698 3a3f 9571 783f bca9 5f3f
00000060: ab5f 633f 1740 7c3f 0ec9 873f b658 933f
00000070: e14c 343f 19e0 363f f6d2 323f f093 803f
0.8288721 0.8402971 0.8571835 1.0095675 1.0754714 0.77122915 0.7433017 0.7161577
0.95409745 1.0606071 0.9014817 1.0084301 0.9317968 0.8316227 0.9385426 0.7818779
1.1050297 0.95520765 0.8147896 0.91445297 0.9480977 0.7288965 0.9704831 0.8736837
0.8881785 0.98535293 1.0608232 1.1511447 0.7042981 0.71435696 0.6985315 1.0045147

blocks.0.bn.bias f4 [32]
00000000: 6230 0ebf 6e86 ccbe 57cf e63c dc01 f4bd
00000010: a207 c6be be7c 52be 98c0 29be 9fed 92be
00000020: 252d afbe f28a bebe c202 05bf 16dc f2be
00000030: 54f9 01bf 2f27 fcbe af5d ccbd f558 00bf
00000040: f63e 0dbf c132 a2be bbc2 19be 01f8 04bf
00000050: 2263 a7be a50c 6ebe c52a 38bf 98fc 73be
00000060: 42f6 bbbd a1ac f1be ea4f d2be 3791 00bf
00000070: c419 0abf 9eb4 7cbe 425e 173c 26f2 2abf
-0.55542576 -0.39946312 0.02817504 -0.11914417 -0.38677698 -0.20555398 -0.16577375 -0.28696916
-0.3421413 -0.37215382 -0.51957333 -0.47433537 -0.5077107 -0.49248645 -0.09978806 -0.5013574
-0.55174196 -0.31679347 -0.1501569 -0.51940924 -0.3269282 -0.23247011 -0.7194026 -0.23826826
-0.09177829 -0.47202018 -0.41076595 -0.5022158 -0.53945565 -0.24678275 0.009238781 -0.6677574

blocks.0.bn.running_mean f4 [32]
00000000: 34ae cb3e ba89 43c0 7c72 f43f 8e9f 803c
00000010: 75ff 0abf e2ef 04c0 5372 eabf fcb5 debf
00000020: f824 ea3e 50e0 9ebf 5681 e8bf 4347 9dbf
00000030: c7c0 c2bf 542c c43f fa70 aa3f de59 24bf
00000040: 1a9d 35be b8ad 9fbf ff48 4a3f e0f1 3bbe
00000050: 8227 afbe f9a0 93bf 91e8 92bf 4b3a 403f
00000060: d999 74bf 7bee 6abf 63ee 80be cc66 86bf
00000070: a240 3bc0 f885 c5bd b0f0 bb3c 9ddf 1dc0
0.39781344 -3.0552812 1.9097438 0.015701082 -0.54296046 -2.0771413 -1.8316139 -1.7399287
0.4573133 -1.2412205 -1.816447 -1.2287372 -1.5215081 1.5326028 1.3315728 -0.64199626
-0.1773571 -1.247489 0.79017633 -0.18353987 -0.3420983 -1.15335 -1.1477224 0.7508895
-0.9554725 -0.9177014 -0.25181875 -1.0500121 -2.9258199 -0.09644693 0.022941917 -2.4667733

blocks.0.bn.running_var f4 [32]
00000000: 462f e53f 12b9 3540 33e9 8a40 59c6 0640
00000010: 43ab 9140 1786 6440 1e43 ad40 7109 0740
00000020: 9efa ed3f f005 c63f d98f 0440 bb6b 0e40
00000030: 0003 fa3f d749 0d40 e5de 6640 0fe8 e83f
00000040: a62b ef3f b33d 9340 95f3 e63f 3c47 df3f
00000050: a218 ce3f 3f52 4e40 da53 ee3f 268d 1d40
00000060: 4647 9f40 50ad 0040 cf95 c53f 95af 4d40
00000070: 306c 9040 e7b2 f83f efd0 1740 664d 3240
1.7905052 2.8394208 4.3409667 2.1058562 4.552156 3.5706842 5.414443 2.1099513
1.8592107 1.5470562 2.0712798 2.2253253 1.9532166 2.2076318 3.6073544 1.8195819
1.8685195 4.6012816 1.8043085 1.7443614 1.6101267 3.22377 1.861934 2.46174
4.9774504 2.0105782 1.5436343 3.2138417 4.5132065 1.9429597 2.3721273 2.785974

blocks.1.conv.weight f4 [32, 32, 3, 3]
00000000: e6ed 4c3d e8ba e6bc efb6 dc3d 0293 a7be
00000010: 424f 3a3e a88b 9fbd e6dd 193e 342c 67be
00000020: cf82 0c3e fa04 aa3a 0f05 803d c238 4ebe
00000030: 2f80 66be 46ee 013c 024b bb3d b116 a2bd
00000040: 16b9 5c3d 01aa 88bd 408a a9bc 32ab a7be
00000050: 9d94 433d 8c48 84be 8475 1cbf b0b9 25be
00000060: 8732 b13d 1655 6c3e 7463 c73d 5603 a93e
00000070: c1eb 89bd b533 bd3b 40b6 6cbe bc24 cb3d
00000080: ec4b 17be 5207 64bd 3838 c7be 6134 8bbe
00000090: e13d 063e bb99 e43d d4a5 debd d943 2c3e
000000a0: cbdd 303e 45f8 7a3c 9c67 b93a 8eab bebd
000000b0: bc19 503e 5530 18be b109 fcbd 790a 273e
000000c0: 70cc 043e 02cf afbc 6bb0 853d 2a2e 243e
000000d0: f1d9 473c ca9d 3b3d 2f2d dbbd f0f5 733d
000000e0: bdda e1bd cd07 d7bd 7425 053e 4606 f3bd
000000f0: cc51 9abd 45ae 1c3e 795a 80bd 61cd 483e
00000100: 33f7 0abf 106a 4a3e 9639 893d 517e a63d
00000110: 9913 c5be 33f2 ff3d f377 4f3d 9272 3abd
00000120: 3a6c 243e 4199 01be adf9 45be 961b 63be
00000130: 4529 d23c 812b 89bd 31ee 38be 943b 9abe
00000140: f38c 763e 9689 873d bbc7 01be 73e6 45be
00000150: e4a0 143e 2383 29be 6dac a5be 423c 603e
00000160: 2ad8 3cbe f06d 41be 7d44 d23d 6185 88be
00000170: 1eab 43be 6210 b9bd 8387 b8ba 4ab4 dc3d
00000180: 3769 1ebc 505b dbbb beee 5d3e 8e98 113e
00000190: ed50 123e 7d95 05bd b747 fabd c635 f4bd
000001a0: 3c8c cbbd ef33 3ebe 5a49 91be 9a3a 5dbe
000001b0: b8e8 90bd 98e5 223e 22e3 b5be 4a1f 393d
000001c0: a9b5 6d3e 6686 b23c e343 043d 00d3 ff3d
000001d0: d177 633e 8f59 a7be 1bf8 a3be b505 87be
000001e0: 9ab5 81be ccc4 babe 1d42 bfbc 78da 35bd
000001f0: a614 6b3c 0f0a 55bd eee2 7b3e a9ea c6bd
00000200: 4909 3abe 40c4 0f3e 90f1 2abe 74ae 493e
00000210: 7aa4 c43d 6083 e2bd c003 95bd 88e6 90bd
00000220: 3dd9 913d e67b 833d b6cd 39be 34c5 053d
00000230: dc63 6dbe d998 233d 662f 55be 36e5 b93d
00000240: 4a29 303e b988 91be d8f6 8abd 0817 12be
00000250: 72a1 49be 6319 3fbd bac0 3f3e 8be0 ae3a
00000260: a5af 4abd 4086 963d 0250 bc3d f714 2a3c
00000270: fc2d 8abe 72ca 22bf f827 1a3d f579 853d
00000280: a30c 66be 409e c63c c093 783d a956 283c
00000290: 76a1 e53d 609f 533d 1ee5 2abd 9c19 e8bc
000002a0: 4712 df3d f4b2 393e 043f 97bd 3810 28bd
000002b0: 385c 103d 269e b53c 9abc 313e 9735 e7bd
000002c0: 60fe 4e3e d657 98be 6f9b 27be 0830 9bbe
000002d0: bc71 923d bbe9 95be 4571 b03d bf8c 1abe
000002e0: 8b00 a4be 4305 cd3c 89f3 9abd 70bd 42bd
000002f0: 8b75 00be afd1 9d3c cfa0 963c 8769 98be
00000300: 372d e73d 67b2 4abe 3650 e63c 5fd9 fd3d
00000310: e8cf d93d d816 9ebd e9f4 063e 869a 3cbd
00000320: ac59 053e 9092 e4bd 5a6e 1dbe 4ae7 c6bc
00000330: 9585 01be 0b36 73be 4d96 953d e956 28be
00000340: 166a 18bd 618e 773e 57f0 3ebe a769 02bf
00000350: a3cf abbd 4dde f83d 14aa 50be b5c0 b8be
00000360: 31cc 66bd 9941 b6bd 52b8 b4bd abb3 0cbe
00000370: 1b76 83be 6127 67be 7f1c b2bc 600d ea3d
00000380: b09d 33bd e5ba 24bd 2837 8db9 9958 e1bc
00000390: aaa5 08be 6c83 a1bd 035c 19be 3b03 a4be
000003a0: db35 9e3d 9fc2 ebbc ca8a 9c3d 20a4 fe3c
000003b0: 4199 8d3e 4cc2 4dbe b21e 27be 2e90 1bbe
000003c0: fd9c 69be 294f 6f3d d992 52be 82c9 dd3d
000003d0: 54d1 16be 1ed7 39bd a52f 86ba a12e f9bd
000003e0: e976 873d 2c1f 5ebe ee91 54be 482b 3b3d
000003f0: 85e3 80bd a698 6fbd 877e 213e 751e 92be
0.050031565 -0.028165296 0.10777079 -0.32729346 0.18194297 -0.07790309 0.15026054 -0.22575456
0.13721775 0.0012971454 0.06250965 -0.20138839 -0.22509836 0.007930344 0.09145166 -0.07914484
0.05388745 -0.06673051 -0.020695806 -0.327478 0.04774915 -0.258366 -0.61116815 -0.16184115
0.086522155 0.23079333 0.09735766 0.33010358 -0.067344196 0.005773986 -0.23116398 0.09919116
-0.14775056 -0.055671044 -0.3891008 -0.271884 0.13109542 0.11162134 -0.10871473 0.16822757
0.17272107 0.015317981 0.0014145258 -0.09310065 0.20322317 -0.14862187 -0.12306536 0.16312589
0.12968612 -0.021461014 0.0652779 0.16033235 0.012197957 0.045804776 -0.107019775 0.059560716
-0.11028049 -0.10499535 0.13002568 -0.11866431 -0.07535133 0.15300854 -0.06267256 0.19609596
-0.54283446 0.19767022 0.06700437 0.08129562 -0.38491514 0.12497368 0.050651502 -0.04551942
0.1605691 -0.12656118 -0.19333525 -0.22178492 0.025654444 -0.06697751 -0.18059613 -0.3012358
0.24077205 0.06618039 -0.12673847 -0.1932619 0.145145 -0.16553931 -0.32358113 0.21897987
-0.18441835 -0.18889594 0.10266969 -0.2666426 -0.19108245 -0.09036328 -0.0014078472 0.10776575
-0.00966864 -0.006694235 0.21673104 0.14218351 0.14288683 -0.032613266 -0.1222071 -0.11924319
-0.09938857 -0.18574499 -0.28376275 -0.21604386 -0.070756376 0.15907896 -0.3552485 0.045195855
0.23213829 0.021792602 0.032291304 0.12491417 0.22213675 -0.32685515 -0.32025227 -0.26371542
-0.25333863 -0.3647827 -0.023346955 -0.0443978 0.014348185 -0.052011546 0.24598286 -0.097127266
-0.18167605 0.14039707 -0.16693711 0.19695455 0.09601684 -0.11060214 -0.07276106 -0.0707522
0.07121513 0.06420116 -0.18144879 0.03265877 -0.23182625 0.03994069 -0.20818862 0.09076922
0.1720325 -0.28424624 -0.06785363 -0.14266598 -0.19690493 -0.04665507 0.18725863 0.0013342066
-0.049483914 0.07349825 0.09194948 0.010380975 -0.26988208 -0.6359016 0.037635773 0.06517402
-0.22465758 0.024245381 0.06068778 0.010274568 0.11212437 0.051665664 -0.04172241 -0.028332524
0.10892158 0.18134671 -0.07385066 -0.041031092 0.035244197 0.022170138 0.17357102 -0.11289518
0.20214224 -0.29754514 -0.16367887 -0.30310082 0.07150599 -0.29279885 0.086153544 -0.15092753
-0.32031664 0.025026923 -0.07565982 -0.047543943 -0.12544839 0.019265024 0.018387226 -0.2976801
0.11287921 -0.19794618 0.02811442 0.12394976 0.10635358 -0.07719201 0.13179363 -0.046045803
0.13022488 -0.11160767 -0.15374127 -0.02428021 -0.12648614 -0.23751085 0.07304058 -0.16439404
-0.037210546 0.24175407 -0.1864637 -0.5094246 -0.08389213 0.121517755 -0.2037738 -0.36084524
-0.056347076 -0.088992305 -0.08824219 -0.13740413 -0.25676045 -0.22573616 -0.021742104 0.11428332
-0.043851554 -0.0402173 -0.0002693471 -0.027508067 -0.13344446 -0.07886395 -0.14976506 -0.32033715
0.07725116 -0.028779326 0.076436594 0.03108412 0.27655986 -0.2009365 -0.16320303 -0.15191719
-0.22813793 0.058425102 -0.2056383 0.1082945 -0.1472829 -0.045371167 -0.0010237588 -0.12167097
0.06614477 -0.21691579 -0.20758793 0.045695573 -0.06293396 -0.058495186 0.15770923 -0.28538862

blocks.1.conv.bias f4 [32]
00000000: 4028 ed3b 5681 8fba 2f88 e63a 6ded 023b
00000010: e31d 9c38 966c 6abb e1be 9fba 6ebc 313c
00000020: dc65 be3c 0349 923a ef03 c4ba 4923 2d3c
00000030: 76bb 0abc e98b 41b8 b27b 2f39 be12 27bc
00000040: d2a5 0bb7 37e1 b5b8 10b0 5c39 6325 f5bb
00000050: 16ec 9d3a e438 4bba 10f1 c939 06c6 593a
00000060: 5d8c 323c d6e4 1c3b 97c9 c03a 0396 f6bb
00000070: 41ff 24ba 36a0 cfb9 5d85 1aba ba67 38b9
0.007237464 -0.0010948579 0.0017588193 0.0019977943 7.4442265e-05 -0.0035770289 -0.0012187624 0.010848148
0.02324193 0.0011160675 -0.0014954786 0.010567495 -0.008467546 -4.6145087e-05 0.0001673538 -0.01019734
-8.323654e-06 -8.672702e-05 0.00021046423 -0.0074812635 0.0012048509 -0.0007752313 0.00038517313 0.0008307401
0.010897723 0.0023940108 0.0014708516 -0.007525207 -0.00062941393 -0.00039601483 -0.00058945065 -0.00017586249

blocks.1.bn.weight f4 [32]
00000000: c99a 273f 7cc0 723f bc27 593f 551b 4d3f
00000010: cc75 793f b7f8 473f cd7b 413f 66c3 6d3f
00000020: 7100 873f 4b1d 7e3f 3524 7b3f 7e6e 883f
00000030: 94c2 893f ea97 563f 0f88 7d3f 3a54 6c3f
00000040: 435d 913f abfe 3d3f 9fef 5b3f 7065 513f
00000050: b330 613f 128b 3e3f ae32 913f e1b8 963f
00000060: 5997 5f3f 84a9 793f 1d1e 893f 9bf1 5c3f
00000070: 7dc8 623f c10d 5e3f 8d12 133f f76f 923f
0.6547056 0.9482496 0.84826255 0.8011983 0.9744537 0.78113884 0.7557953 0.9287628
1.054701 0.9926345 0.9810212 1.065872 1.0762506 0.8382555 0.99035734 0.9231602
1.1356586 0.7421672 0.8591251 0.81795406 0.87964934 0.74430954 1.1343591 1.177517
0.87340313 0.97524285 1.0712315 0.8630616 0.8858717 0.86739737 0.5745018 1.1440419

blocks.1.bn.bias f4 [32]
00000000: 0915 b7be 7f86 b3be 4e70 acbd f402 b6be
00000010: 0fe5 86be 6215 45be c08d 9bbe 05bf e5be
00000020: 0fd4 c8be f25b b5be e7bb debe 370e 07bf
00000030: a3ff debe 42aa bbbe 6c03 b5be 02ea bcbe
00000040: 141e 26bf 1044 07bf aaf6 debe 0e78 11bf
00000050: 2059 01bf 7bc5 02bf cd4e 08bf ca34 4cbe
00000060: 5e7d 32bf 4d25 7cbe 03b0 dbbe 6f85 abbe
00000070: 4f06 8fbe d417 07bf f4c2 313c 5119 efbe
-0.35758236 -0.3506355 -0.08419858 -0.35549128 -0.26346633 -0.19246438 -0.30381584 -0.448723
-0.39224288 -0.3542171 -0.43502733 -0.52756065 -0.4355441 -0.36653334 -0.35354173 -0.36897284
-0.64889646 -0.5283823 -0.43547565 -0.56823814 -0.5052662 -0.5108258 -0.5324524 -0.19942012
-0.69722545 -0.24623604 -0.42907724 -0.3350024 -0.279345 -0.52770734 0.010849703 -0.46699002

blocks.1.bn.running_mean f4 [32]
00000000: 333c 90c0 735c d5bf c3c9 8cbe 25a3 64c0
00000010: 6f98 55c0 2ecc 2dbf d1a8 9b3f 3d21 e7bf
00000020: 1094 54c0 c606 4cbf b7cf 443e e5f3 d33d
00000030: 3223 7fbf 8da0 1640 4f15 81bf 18d8 2fc0
00000040: eede edbf b494 1ebf 04f7 39c0 3d47 3fc0
00000050: 73c8 58bf 2da3 09c0 f8bc 95bf d269 a6bf
00000060: f45d a8bf 0560 12bf a03c b3bf 0795 06c0
00000070: 0d92 a23e 7289 71bf d677 393f c003 b9bf
-4.5073485 -1.6668838 -0.27497682 -3.5724576 -3.3374288 -0.6788968 1.2160894 -1.8057019
-3.321537 -0.79697835 0.19219862 0.103492536 -0.9966308 2.3535492 -1.0084628 -2.7475643
-1.8583658 -0.6194565 -2.9057016 -2.988723 -0.8468086 -2.1505845 -1.1698294 -1.3001044
-1.3153672 -0.57177764 -1.4002876 -2.102846 0.31752053 -0.9435035 0.7244848 -1.445427

blocks.1.bn.running_var f4 [32]
00000000: 2329 0241 442d aa40 8a8e 8040 1d03 e240
00000010: b3b8 4b41 a9a2 c040 af42 6740 f6a5 9f40
00000020: 07e3 a340 499f 6c40 aa2e 9740 5a40 8540
00000030: 7253 af40 2ef5 9140 0ec8 b440 d2a1 b440
00000040: 11c7 5540 9322 9240 b925 7d40 4b27 a240
00000050: ff80 a040 ef31 e740 8bc6 8d40 ee3a a340
00000060: 3374 5640 9a95 df40 c042 8b40 3766 1441
00000070: 1cdf 5741 813b a340 0f1f 1941 6a03 4b40
8.135043 5.3180256 4.0174 7.06288 12.732593 6.019856 3.613445 4.989009
5.1214633 3.697222 4.7244463 4.1641054 5.478936 4.561179 5.6494207 5.6447535
3.340275 4.5667205 3.9554274 5.0672965 5.0157466 7.2248454 4.430486 5.1009436
3.3508422 6.987012 4.351898 9.274955 13.49197 5.1010137 9.570083 3.1720834

blocks.2.conv.weight f4 [32, 32, 3, 3]
00000000: baf9 1c3e 468f a33c 25e3 abbd 8377 2fbd
00000010: 5e9c 35bc bb5e 1fbe b727 a2bd 9f54 85bc
00000020: b035 71bd 91a9 24be 90d9 20be 669c 57be
00000030: 32b0 59be bf9a c8bd a96b 3dbe 8de9 0d3e
00000040: 0b75 3abd d7eb 9cbd f412 d3bd a399 8cbd
00000050: 2cf8 303e 99f8 85bd 1dff 03be a684 9c3c
00000060: 7720 83bd d9f8 87bd 2446 94bd 46a1 043e
00000070: 47c1 e4bd 6102 223c 8cce 893c 2cb8 3abe
00000080: c72c 493b fade 0e3e 8206 393e 59e1 8c3e
00000090: 1e29 733d b681 463d 4851 d13e fac5 253e
000000a0: 6655 b63e e43f 053e a07f 0b3e abdc 993e
000000b0: a88d ac3e 4a9e 43be e0ad cb3d 3c92 523e
000000c0: 46a2 323e 893f 573e c418 623e c73f 143d
000000d0: 3c71 ffbd 5da7 48be 9702 50bc c65d 143e
000000e0: 1d8c 6e3e ec67 823c 7f3e a13d 38d9 aa3d
000000f0: c790 97bd 0982 df3d 3c20 a0be bb6a 363d
00000100: c084 9abe 28f0 883e c231 88bd 6ac6 36be
00000110: d572 98be 5f1c 54be 07de 22be 7bc1 87bc
00000120: 9101 8a3d 3830 ccbd 6310 183e fd5b 153e
00000130: d8f3 3d3d 7ee9 95bd 4b78 993e a545 97be
00000140: 2595 1fbe e378 fabb 559f e7bd 15e2 98be
00000150: 3923 2bbe 6028 b6bd 70fd a9be 1323 8cbd
00000160: 28d6 41be 02ac 24be f247 6bbe f136 bdbe
00000170: acb4 87bd 0cc2 63be 1c73 ffbd 8bb0 d1bc
00000180: 2431 e83d dfea ae3d 6b1b d0bd ce87 133e
00000190: a44d e1bd f0f8 c0bd c265 ad3d cb9e 5d3e
000001a0: 9fc3 22be 642f 5cbd 0c7f acbe 57fc 7c3e
000001b0: d624 f9bd 788c 223c 99d3 49bd ed46 4d3e
000001c0: 5c9a 6c3d 1555 09be 66b5 553d 1fc5 2f3e
000001d0: 76d4 1e3e 2651 87bd 4065 c2be 43a7 21be
000001e0: 9b5b a0be dec6 fabd 76dc 0bbd 310e 0ebe
000001f0: e1c0 2fbe a8f1 2fbe 74ed 75be 8637 2dbe
00000200: 95c4 9fbe 0a6b 8bbe 6c3b 07be ae12 ca3d
00000210: 4288 90be 5c83 c13e f24b 58be ed06 123d
00000220: 4da8 f93d 3ce1 78bd 2992 16bd 1a9e 0abd
00000230: 2c3a 2abe 4591 b93e 5765 83be 6cf0 6b3e
00000240: e8e4 adbd 6c41 4dbd d336 35be 8a51 0bbe
00000250: ea60 dcbd 8c7c e73d 5e65 903e 3ac4 74be
00000260: 9699 7d3e 61d1 eebd 5420 263e d92e 4dbd
00000270: b9d5 093d 6d35 c33c 548f 553e 8cee 60be
00000280: d837 53be 661b d43d 150e 53be 9a65 6c3e
00000290: 1846 963b 6c71 603e ba9e d43d d8a6 253e
000002a0: 3466 0e3e 230b 323e 28a5 203c 3522 87bd
000002b0: 0b1a 47bc 41fc 973d 7c9a 3fbe 9d02 e6bd
000002c0: c550 763c 6241 46be 85b4 823d 6713 e3bd
000002d0: 330a dbbd e9a3 c3bd 7b58 5e3e a390 3b3e
000002e0: 3955 733c 1605 503e 21da 343e 0c01 303e
000002f0: e855 43be 23a9 db3d 30cf f93d aa2f 1cbc
00000300: 8228 563e ecef b13d 7efb 54bd c765 1f3d
00000310: acd5 a23d 638f 3e3d 4833 433e 9f4c 3a3d
00000320: 65a9 3ebd 704d 49be 0146 083e b1a2 7bbe
00000330: 2a07 c0be b32a 0abe 9812 c3be 6b90 8cbe
00000340: 1e3f 5e3d 342e 633e 1525 2ebe 28bc a7be
00000350: c469 1fbe eeb5 4ebe 185e 99be e8ab 6d3c
00000360: 7399 5c3d f70b fbbc b753 a1be 1425 6abe
00000370: 4c7b 9c3e d1f9 96bc 2b9c f1bb ba9b 0cbe
00000380: 8deb 143b 0c19 23bc 0568 113e bbfa 4fbd
00000390: 7814 993d 746b 1c3e 9103 8a3d 03d1 253e
000003a0: 5745 883c 0731 99bd b4db 98bd 850a 66bd
000003b0: 2748 39bd 21eb e9bd 29a8 4cbe 0cf1 0d3e
000003c0: 4a71 473e 58be c63d 75d0 973d 01a6 aabd
000003d0: 3d6f 1cbc 9242 dd3d 58e1 89bd 2e96 2b3d
000003e0: a6fa b1bd d7f5 8ebe f618 2ebd 46f2 7b3e
000003f0: c6d7 433e 8459 b83d 0606 a2bb fa61 f2bd
0.15329638 0.019965779 -0.08392934 -0.042838585 -0.011084644 -0.1556348 -0.07917731 -0.016275702
-0.05888909 -0.1608031 -0.15707994 -0.21055755 -0.2125862 -0.097951405 -0.184981 0.13858624
-0.045521777 -0.076621704 -0.103063494 -0.068652414 0.1728217 -0.06541557 -0.12890287 0.01910622
-0.064026766 -0.06639261 -0.07239941 0.12952146 -0.11169677 0.0098882625 0.016822122 -0.18234318
0.0030696855 0.13952246 0.18068889 0.27515677 0.059365384 0.048463546 0.40882325 0.16188803
0.3561203 0.13012654 0.13622904 0.3005117 0.33701825 -0.19103351 0.099452734 0.20563596
0.17444715 0.2102033 0.2207976 0.036193635 -0.124727696 -0.19595094 -0.01269593 0.14488897
0.23295636 0.015918694 0.07873248 0.083422124 -0.07400661 0.10913474 -0.31274593 0.04453538
-0.30179405 0.26745725 -0.066501155 -0.17849126 -0.2977511 -0.20713948 -0.15905009 -0.01657175
0.0673858 -0.099701345 0.14850001 0.14585872 0.046375126 -0.07319926 0.2997459 -0.29545322
-0.15584238 -0.0076438054 -0.11309687 -0.29859987 -0.16712655 -0.0889442 -0.3320117 -0.068426274
-0.1892935 -0.16081241 -0.22976664 -0.3695598 -0.06626257 -0.22241992 -0.12473127 -0.025596878
0.11337498 0.08540892 -0.101614796 0.14407274 -0.11001137 -0.09422481 0.084666744 0.21642606
-0.15894936 -0.053756133 -0.3369068 0.24705635 -0.12165229 0.009921186 -0.04927406 0.20046587
0.057764396 -0.13411362 0.05217495 0.1716504 0.15510735 -0.06607275 -0.37967873 -0.15786462
-0.3131989 -0.12244962 -0.034145795 -0.13872601 -0.17163421 -0.17182028 -0.24016362 -0.16915712
-0.31204668 -0.27230102 -0.13206261 0.09866844 -0.28228956 0.37795532 -0.21122721 0.035651136
0.12190304 -0.060761675 -0.036760483 -0.033842184 -0.16623753 0.36243644 -0.25663254 0.23040932
-0.08490926 -0.05011122 -0.17696695 -0.13605323 -0.107606724 0.11303052 0.28202337 -0.2390298
0.2476562 -0.116610296 0.1622327 -0.050093506 0.033651087 0.023829186 0.20855457 -0.21965998
-0.20626771 0.10356788 -0.2061084 0.23085633 0.0045859925 0.21918267 0.10381837 0.16176927
0.13906175 0.17387061 0.009805001 -0.06598321 -0.012152205 0.074211605 -0.18711275 -0.11230967
0.015033905 -0.19360879 0.063820876 -0.11087685 -0.10695305 -0.09552748 0.2171344 0.18316893
0.014851862 0.2031444 0.17661335 0.171879 -0.1907574 0.1072562 0.12197721 -0.009532848
0.2091389 0.086883396 -0.051997654 0.03891542 0.07950911 0.046523463 0.19062531 0.045483228
-0.046548266 -0.19658446 0.13307954 -0.2457378 -0.37505466 -0.13492851 -0.38100123 -0.27453932
0.054259412 0.22185594 -0.17006333 -0.3276074 -0.1556769 -0.20186588 -0.299546 0.014506318
0.053857278 -0.030645354 -0.31509182 -0.22865707 0.30562818 -0.018429669 -0.007373353 -0.1373128
0.0022723407 -0.009954702 0.14199837 -0.050776225 0.07474607 0.15275365 0.067389615 0.16193013
0.016634626 -0.07480054 -0.0746378 -0.056162376 -0.045234825 -0.114218004 -0.19986023 0.13861483
0.1947681 0.09704274 0.07412807 -0.08332444 -0.009548006 0.10803713 -0.06732434 0.04189127
-0.086903855 -0.27921936 -0.042504273 0.24604139 0.1912528 0.09001449 -0.0049445657 -0.11835094

blocks.2.conv.bias f4 [32]
00000000: 22d0 713b ff1c f5bb e8ad 91b9 3a84 4eba
00000010: c5b6 c339 3ecd 26b9 2788 26bc 8bb5 3e38
00000020: 7b9b ceb8 56e9 e63b 4653 a93b ffbb 2b3a
00000030: 5f1f 313a bdf4 a83b 7726 20bc cf9b d938
00000040: 9421 8c3c 8ed1 27bb 9de1 cbbb 6696 8b3b
00000050: 7df7 56bc 647b 74b8 9904 06b9 a84c 1ab9
00000060: b6ec 6e3a 8c82 64bb 9ce4 d0b9 6cd5 abbb
00000070: ec30 54bc 0441 f53a bf1f 06b8 3aba 3bb9
0.0036897738 -0.0074802632 -0.00027786125 -0.00078779797 0.00037329472 -0.00015907452 -0.010164297 4.5468605e-05
-9.851806e-05 0.007046859 0.0051673977 0.0006551146 0.0006756689 0.005156128 -0.009774796 0.00010376388
0.017105855 -0.0025607082 -0.0062219636 0.0042598723 -0.013120529 -5.828905e-05 -0.00012780949 -0.00014715141
0.0009114252 -0.003486785 -0.0003984318 -0.0052439477 -0.012951117 0.0018711393 -3.1977655e-05 -0.00017903085

blocks.2.bn.weight f4 [32]
00000000: 38a9 6d3f 1645 7a3f cc8e 303f 17c2 4c3f
00000010: f46a 433f 4b43 423f e2c9 833f 3e82 8b3f
00000020: 388a 413f 608d 803f 08bd 3c3f 5472 6f3f
00000030: 323f 793f 4ad7 573f 923c 6b3f f01c 943f
00000040: 50ad 8c3f 0792 853f 3984 3f3f 8676 543f
00000050: d972 6b3f 2c42 843f 4977 6b3f 8879 803f
00000060: 0e19 963f 8586 713f f43d 813f b6f4 333f
00000070: 2229 103f ea4b 7a3f e1cc ef3e a93d 513f
0.9283633 0.97761667 0.6896789 0.7998366 0.7633507 0.7588393 1.0295985 1.0899122
0.7560153 1.0043144 0.7372594 0.93533826 0.97362053 0.8431288 0.918893 1.1571331
1.0990391 1.0435189 0.7481113 0.8299335 0.9197212 1.0332694 0.9197889 1.0037088
1.1726396 0.94345886 1.0097032 0.70295274 0.56312764 0.97772086 0.46835998 0.8173471

blocks.2.bn.bias f4 [32]
00000000: 083e a8be 6e5c efbe 46fe 3dbe a79a 7abe
00000010: 7a8c 0ebf 0211 82be 486f 63be 6eae 10bf
00000020: 26f8 e5be 4b18 b9be e8b9 01bf 13dc b8be
00000030: bbc9 ebbe a794 cfbe 239b 00bf a458 15bf
00000040: 2bd6 c5be 0401 febe 4eae 03bf 3a6e cabe
00000050: 60b7 0ebf 49b7 3ebf 3e87 b1be af2c efbe
00000060: 490a 0fbf 1884 eebe b875 1abf d3e2 88be
00000070: 3a10 cabb 5788 cbbe d854 5d3e 510b 23bf
-0.32859826 -0.46750206 -0.18554029 -0.24473058 -0.556831 -0.254036 -0.22210419 -0.5651616
-0.44915885 -0.36151347 -0.50674295 -0.36105403 -0.46052346 -0.405431 -0.5023672 -0.5833838
-0.3863996 -0.4961015 -0.5143784 -0.3953722 -0.5574856 -0.7449842 -0.34673494 -0.46713778
-0.5587507 -0.46585155 -0.60335875 -0.26735553 -0.006166485 -0.39752457 0.21614397 -0.6368914

blocks.2.bn.running_mean f4 [32]
00000000: 5bfd adbf c85b 2ac0 5f3a 29c0 821d 08be
00000010: c739 51c0 9e27 3d3f 03a6 2abf abe1 3abf
00000020: eb95 82bf ea9f bcbe c60e 11c0 4c80 bebe
00000030: c1f7 a53d 9448 f7bf 4cf5 d4bf 4781 b6bf
00000040: 9f80 4fbe cbf5 eebf d92a e9bf d415 3abf
00000050: 6a1b cbbf 1ad1 813e 2eee 16bf 32d9 c4bf
00000060: dcdf 22bf 9473 9dbf 4890 91bf 9b8f 533f
00000070: b412 8abf c5f6 18c0 dbe9 103f 489a a8bf
-1.3592943 -2.661852 -2.6441877 -0.13292506 -3.2691514 0.73888576 -0.66659564 -0.7300059
-1.0202001 -0.36840755 -2.2665267 -0.37207258 0.08103896 -1.9319024 -1.6637359 -1.4258202
-0.20263909 -1.866876 -1.8216201 -0.7268956 -1.5867741 0.25354844 -0.58957183 -1.5378783
-0.6362283 -1.2300897 -1.1372156 0.82641 -1.0786958 -2.3900616 0.56606835 -1.3172083

blocks.2.bn.running_var f4 [32]
00000000: 629c 5941 d19f fe40 1b7e 1241 2e73 9b40
00000010: 1184 e040 0cfc 8640 f945 0a41 7948 8840
00000020: 1e52 7640 1d86 ea40 19b8 9d40 2a5e b140
00000030: 7ce5 6540 c121 5141 a3c5 4c41 f212 a940
00000040: 7069 8f40 8d2d 0241 55df b740 cbda a440
00000050: a7ed 9940 7eae 8d40 b687 9f40 e44f 0341
00000060: afe6 7440 1736 8540 c3a4 a740 f508 4541
00000070: 002f 0041 6184 4741 d1e3 4141 4baf a740
13.600679 7.957009 9.155787 4.85781 7.0161214 4.2182674 8.642083 4.2588468
3.848762 7.3288713 4.928723 5.5427446 3.5921316 13.070741 12.798251 5.2835627
4.481621 8.136121 5.746012 5.151708 4.8102603 4.4275503 4.9853163 8.207005
3.8265798 4.162853 5.2388625 12.314687 8.011475 12.469819 12.118119 5.240148

blocks.3.conv.weight f4 [32, 32, 3, 3]
00000000: 9fa1 41be ba16 45be 396d 51be c91c 5bbd
00000010: 4d8a dfbe 5d02 acbe 4aab b5bd 4705 3bbe
00000020: 501c aabd 1d59 6bbd 14e4 54bc 4520 13be
00000030: 9599 393e d405 833e d2bc 083e 45e2 493e
00000040: d944 6d3e c661 1c3e 0154 67bd f505 40bc
00000050: 8414 93bc 6f87 213d 1871 323e 121d 8ebc
00000060: 7575 2abe a09b 37bd d073 4abc 0676 32be
00000070: 3449 2dbd b6c3 84bc ca39 903d b770 bebe
00000080: 72a5 4dbe 4aec ab3d 294c 0d3e 74da 21be
00000090: cc66 f9bd 836f 59be f266 1d3d 70aa 91be
000000a0: 820d e13d b327 9bbe 3fc2 79bc d2e2 a03d
000000b0: 2a41 67be 0c9c 023e c1d3 9fbb 75ef f03d
000000c0: 7625 7cbe fa88 9e3d e97f b33d 3636 d43d
000000d0: 2ccf e53c d307 0e3d 3ea9 953e 0518 33bc
000000e0: 0313 17bd 79fa 883e baba b63d 7460 843d
000000f0: 5153 263e ba0e e1bd bb57 85bd 7b68 0abe
00000100: 4c94 203e dbb3 533e ac36 863e 5fc1 85bc
00000110: e50f 0cbb d769 6c3e 1877 fcbc 577f 53be
00000120: c3d9 e9bc f321 03be 9c4c 393e 06b3 413e
00000130: 58be 2a3d 27e3 9f3e abc7 fdbd 1348 13be
00000140: 5b56 20bd cf44 3b3c d67d 21bd f36b db3e
00000150: aedb b83d db6f 9f3d 25ca 263e c4a3 193c
00000160: 72ca 2f3e 0a7a 823e 763a 7cbe ac6e 4abd
00000170: 6c51 ef3d 17bd 1f3e 3e5d d4bc 6d24 4fbc
00000180: d410 7cbd 10a7 2b3d 8f1f 813e 7eda e03d
00000190: f4b1 ebbd bd34 5dbc e186 06bc d1da c8bd
000001a0: 2b4d 5dbd 2013 fcbe 4e88 13be 2a6c 273e
000001b0: 2288 70be 82c5 20bd ea95 62bd 1ba4 483d
000001c0: b485 043c d012 da3d 0291 3a3d 0d3c 93bd
000001d0: b0af ff3d 85de 993d 209b 373e 74af 1e3e
000001e0: 5666 e13d 71ed f43d 42d3 4d3e 4c4a 0cbd
000001f0: 18f7 a5be f8dd 57be 43ae 66be 33ac c9bd
00000200: f634 a6bc df17 b5be d9b4 3fbd 800f f2bd
00000210: fdb0 febd 73b6 103e 1439 e2be 458a abbd
00000220: 4442 723d d32b 86bd 109a c9be f179 8f3c
00000230: 36ca ab3e 8fbe 2cbe cb65 b2bd 1db1 0f3e
00000240: cb9d 12bd 9354 29be 68f1 b53d 311d 1dbe
00000250: 8cc7 b9bd f785 363e 7025 9b3e 037c d43d
00000260: 879a 92be 47ae a9bd 7cfa 953e b65c f23d
00000270: 3837 93bd 7812 b23d a29f 273e 1087 533d
00000280: b6c9 b139 7816 b63d 4b83 ffbd c8ef 68be
00000290: 61a2 1b3e 4f7a 93bc d7bc 6abc f9ae 57bd
000002a0: b9aa d23d 3d51 64bd 946a 0c3e 4e52 603d
000002b0: 7db1 b8bc e5a1 ddbd 6945 ad3e 4f8c 09be
000002c0: eeda 3dbd 81eb 023e 48c4 87be f77f 75be
000002d0: 1156 11be b4d9 083d e5ec 873d e12f 403d
000002e0: dc6e a3be 7d72 0e3d ee74 393e c3d1 033e
000002f0: 09dd f2bc 5cd9 8d3e 2ab3 d5bd ae8c d83d
00000300: bc22 933d db96 563e 512d 443e c2f1 debc
00000310: 3e17 143e f52f 983d f54e 19bc 63a0 103d
00000320: 6b73 44bc 0b83 52bd ccdd e33c b298 b0be
00000330: 46dd c3bd 55d7 c13d c366 a5be 940c c8bd
00000340: 3049 2dbd d308 873e 6a4a 1fbe bcb5 fbbe
00000350: 81e9 433d 3d0b 923d 7e6f ea3d 3b5e 743e
00000360: 1e4d 513e 3b43 733e 9f22 cebd 15d3 d4bd
00000370: e008 ee3d 4f35 c8be d2f8 b7bc 8252 04be
00000380: c751 e0bd 17b2 dc3d 16c1 583d d6be 13be
00000390: 3436 1fbe fa63 18be 5378 b93a 20a2 403d
000003a0: 0b6b 433e 2098 d9bd 97fb 6b3e 8e61 9abe
000003b0: ec3e 46be 337f 74bc ec56 78be 7189 18bd
000003c0: 270e 723e 8154 89bd 425b 27be c67b 7ebd
000003d0: 8e81 273d 2053 8d3e 964b 05bd 40aa 093e
000003e0: 8d7f 1dbc e635 dfbc 18b7 5fbd 209b 673e
000003f0: 0a3d 86bd 3cc8 563e 8054 6bbe 66af 5dbe
-0.1890931 -0.19246951 -0.20451821 -0.05349425 -0.43660203 -0.33595553 -0.088705614 -0.18263732
-0.083061814 -0.057458032 -0.012993831 -0.14367779 0.18124993 0.25590384 0.13353279 0.19715221
0.23170795 0.15271673 -0.056476597 -0.01172017 -0.017954119 0.0394358 0.17425954 -0.017347846
-0.16646369 -0.04482615 -0.012356713 -0.17427835 -0.04230614 -0.016206603 0.070422724 -0.3719537
-0.20082644 0.08394678 0.13798584 -0.1580599 -0.1217781 -0.21233945 0.038428254 -0.28450346
0.109889045 -0.30303726 -0.015244066 0.078557625 -0.22583452 0.1275484 -0.004877538 0.11764423
-0.24623665 0.0774097 0.08764631 0.103619024 0.028052889 0.03467543 0.29230684 -0.01093102
-0.036883365 0.26753595 0.08922334 0.064637095 0.1624272 -0.10989137 -0.06510874 -0.13516419
0.15681571 0.20674078 0.26213586 -0.016327558 -0.0021371779 0.2308725 -0.030818507 -0.20654045
-0.02854622 -0.1280592 0.1809563 0.18915948 0.041685432 0.3122799 -0.12391599 -0.14382963
-0.039144855 0.0114299795 -0.039426647 0.42855796 0.090262756 0.077850066 0.1628805 0.009377424
0.1716707 0.25483733 -0.24631676 -0.04942195 0.11685452 0.15599476 -0.025923368 -0.012642962
-0.061539486 0.04190737 0.2521939 0.10979174 -0.11508551 -0.013501343 -0.008210869 -0.09807361
-0.05402867 -0.4923334 -0.14407465 0.16349855 -0.2348943 -0.039250858 -0.05531875 0.04898463
0.008088518 0.106481194 0.045548446 -0.07189188 0.124846816 0.07513145 0.17930269 0.15496618
0.11005847 0.11959351 0.2010012 -0.034250543 -0.3241508 -0.21080768 -0.22527413 -0.098472975
-0.020288926 -0.35369775 -0.04680333 -0.11819363 -0.124361016 0.14132099 -0.44184172 -0.08375982
0.059145227 -0.065513276 -0.39375353 0.0175142 0.33552712 -0.16869567 -0.08710822 0.14032407
-0.035795014 -0.16536169 0.08883935 -0.15343167 -0.09071264 0.17824541 0.30302 0.10375216
-0.2863352 -0.08285194 0.29292667 0.118340895 -0.071882665 0.08694929 0.16369489 0.051642478
0.00033910357 0.08891004 -0.12476214 -0.2274772 0.15198661 -0.018002657 -0.0143272495 -0.0526571
0.10286469 -0.055741537 0.13712531 0.054765992 -0.02254557 -0.108218946 0.33842018 -0.1343243
-0.046351366 0.1278515 -0.26516938 -0.23974596 -0.14192988 0.033410743 0.06636981 0.04692066
-0.31920516 0.034777153 0.18111011 0.12872986 -0.029646413 0.27704895 -0.104345635 0.105737075
0.071843594 0.20955984 0.19157912 -0.027214888 0.14461991 0.07431022 -0.009357204 0.035309207
-0.011990408 -0.051394504 0.027815722 -0.34491497 -0.09563689 0.094648995 -0.32304963 -0.09768024
-0.042306125 0.2637392 -0.1555573 -0.4916209 0.04783011 0.0713105 0.11447047 0.23864071
0.20439574 0.23756115 -0.10065197 -0.10391823 0.116227865 -0.3910317 -0.022457514 -0.12922099
-0.10953098 0.107761554 0.052918516 -0.14428267 -0.1554802 -0.14881888 0.0014150239 0.047029614
0.19083802 -0.10624719 0.23045193 -0.30152553 -0.1935994 -0.014922905 -0.24251908 -0.03724045
0.23638211 -0.06705571 -0.16343406 -0.06212976 0.040895037 0.27602482 -0.032542787 0.13443851
-0.00961293 -0.02724738 -0.05461797 0.22617769 -0.06554611 0.20974821 -0.22981453 -0.2164894

blocks.3.conv.bias f4 [32]
00000000: 6ad8 b3ba 7b34 83b9 2f30 3ebc 74ef 19bb
00000010: 836d 43bb cd10 52b7 8b7f c53a 165a 1cb9
00000020: a51f 403a e36a 4639 fd2a 1c3a 48de 1139
00000030: 325f b3b9 90f5 3fbb c8de 03ba 9c99 bf3b
00000040: 21c8 d83b e767 053c 56bc eebb 1c57 85bb
00000050: 17f8 c43b aff0 ac39 9b40 ceb9 8925 e7b8
00000060: 590e 95bb 609a 5d39 2c07 5dba ef7f 7ab9
00000070: 482b fdbb 40a3 bf3b 359f b6ba 0dfd 133a
-0.0013721113 -0.00025025368 -0.011608168 -0.0023488672 -0.0029819913 -1.2520887e-05 0.0015067918 -0.00014910879
0.0007328934 0.0001892257 0.00059573335 0.00013911084 -0.00034212467 -0.0029290654 -0.00050304504 0.005847169
0.006615654 0.008142448 -0.007285635 -0.004069222 0.00601102 0.0003298572 -0.00039339517 -0.0001102193
-0.0045488295 0.00021133712 -0.00084315496 -0.00023889517 -0.007726107 0.0058483183 -0.0013932945 0.00056453125

blocks.3.bn.weight f4 [32]
00000000: 666c 723f 25f9 5e3f 9356 783f aaa2 1c3f
00000010: 5bac 6a3f ed5b 2d3f 825b 7d3f 2a23 5c3f
00000020: cb14 813f adc3 563f f2ee 463f f5b9 793f
00000030: ebfb 5c3f e614 663f dae1 843f 90ee 923f
00000040: 903d 923f 7385 7e3f a4f0 623f 2cbb 653f
00000050: d40d 743f 6af5 983f 354a 5e3f 7e4a 813f
00000060: 2c1a 943f a11f 733f b481 7a3f cf5e 323f
00000070: 2ec0 2f3f 3711 603f a0f9 0a3f 72da 763f
0.9469665 0.87098914 0.970071 0.61185706 0.91669244 0.6771839 0.98967755 0.85991156
1.008447 0.8389233 0.7770835 0.9754937 0.86321896 0.8987564 1.0381424 1.1479053
1.1425037 0.9942238 0.8864844 0.89738727 0.953336 1.1949894 0.8683198 1.0100858
1.1570487 0.94970137 0.9785416 0.69675916 0.6865262 0.8752627 0.5428715 0.9642707

blocks.3.bn.bias f4 [32]
00000000: 57ea a5be c400 c8be 2eb1 9ebe f33f 0fbe
00000010: 129d 08bf 388b 1fbc 24ca 3ebf 66fe b4be
00000020: bf62 f4be b959 2dbf fe14 c7be 68df b9bd
00000030: 0e21 14bf 979b ecbe 8b82 1bbf df9e cfbe
00000040: ac6b 0dbf 74f1 37bf 40f9 d7be 6316 c9be
00000050: c08e febe a2fb 2dbf 0e9b 2fbf d83d 12bf
00000060: e359 14bf be5f 1cbf b7b4 02bf 2877 95be
00000070: c6be 9cbd 0591 c6be db3b 4c3e 6fb1 eabe
-0.3240535 -0.39063084 -0.30994552 -0.13989238 -0.5336467 -0.009737782 -0.7452719 -0.3535034
-0.47731587 -0.6771503 -0.38883203 -0.090758145 -0.5786294 -0.46212456 -0.6074607 -0.40550897
-0.5524242 -0.71852803 -0.4218235 -0.39274892 -0.49718285 -0.67962086 -0.6859597 -0.57125616
-0.57949656 -0.6108359 -0.51057 -0.29192472 -0.07653575 -0.38782516 0.19944708 -0.45838496

blocks.3.bn.running_mean f4 [32]
00000000: edf0 febf b627 d8be ba25 2ac0 1303 9cbf
00000010: 8d7e 6bbe c4ab 133e ea7e 30bf 081b 61bf
00000020: ed70 823f e0d3 c0bf a6e9 de3f 29c2 0dbe
00000030: 2d7d f03f 957c 91bf ef53 15c0 1d6b 0dbf
00000040: 4585 07c0 e285 f23d 94b6 13c0 7a79 32bd
00000050: 4251 03c0 7f40 10be 4fb1 1140 d7bf 50c0
00000060: 6e6f 2b3f a138 10be e56b d6bf 77e7 74bd
00000070: 2c65 6240 71d6 52c0 8a1b 02c0 d81d e4bf
-1.9917275 -0.42217797 -2.6585526 -1.2188438 -0.22997494 0.14420992 -0.68943655 -0.8793187
1.0190712 -1.5064659 1.7415054 -0.13843597 1.8788201 -1.1366144 -2.333248 -0.55241567
-2.1175091 0.11841942 -2.3080187 -0.04357288 -2.0518346 -0.14087103 2.276447 -3.261709
0.66966903 -0.14084102 -1.6751677 -0.059791055 3.537425 -3.2943385 -2.0329309 -1.7821608

blocks.3.bn.running_var f4 [32]
00000000: 0e0a c140 3cea a440 2530 2841 8818 d140
00000010: 10e6 f340 2e69 5d41 c802 a740 b6d0 9c40
00000020: 4bd0 ef40 3112 c740 cb08 1741 cfaa 5b40
00000030: 0d8f c240 2695 9840 63da d740 5c5c 1041
00000040: cdcb a940 0576 b340 90fc d640 a23f 0141
00000050: 49e5 b540 64b7 5440 60f3 a840 c1ff c240
00000060: 87a8 9440 88b1 a240 b620 ed40 d352 e640
00000070: b57e 0341 bf78 2541 690a d040 baad 7740
6.0324774 5.153593 10.511754 6.5342445 7.621834 13.838179 5.2190895 4.9004774
7.4941764 6.2209706 9.439647 3.4323003 6.0799623 4.7682066 6.7454085 9.022549
5.306128 5.6081567 6.7183304 8.078035 5.684239 3.3236933 5.279709 6.09372
4.645572 5.0841713 7.410243 7.1976104 8.218434 10.341979 6.501271 3.8699784
