models/175.pth (torch, 501905 bytes, 80 tensors)

conv0.conv.weight f4 [32, 17, 3, 3]
-0.26936787 0.30075416 0.050505977 0.33139083 -0.3717504 0.48790717 0.042447068 0.35652372
0.1328438 -0.0017484728 0.077568434 -0.00249852 0.024085013 -0.22458309 0.07821315 0.1288214
0.20681782 -0.01076839 -0.004464508 0.0005929433 -0.033294182 -0.1405956 -0.08063705 0.06619654
0.012448926 0.073308885 0.036804136 -0.018257855 0.09369404 0.042439334 0.020292565 -0.10017951
-0.029134938 0.13450992 -0.10921023 -0.044186044 0.23425272 0.21825053 0.13532323 0.22922997
-0.4608477 0.38234356 0.26471433 0.40455577 0.2659706 0.2151102 0.16043979 0.12520085
0.34829643 -0.06285 0.09820837 0.12092768 0.07322346 0.2245155 0.20442846 0.2510518
0.20104563 0.2727401 -0.095929675 0.18599485 0.339171 0.22209543 0.1131526 0.020908384
0.26219356 0.14771904 0.035060853 -0.006115596 0.32941565 0.2539469 0.19979797 0.23932743
0.022592023 0.14861456 -0.06564788 0.07076177 0.37164137 0.041476928 0.0088900905 0.013490804
0.02192048 0.0015547698 0.107150264 0.0971576 0.007493077 0.49674845 0.014225326 -0.0382431
0.08819298 0.08397752 0.01228038 0.052552503 -0.12684806 0.10914541 0.48520395 0.042984102
-0.055223085 0.037603922 -0.0044969716 -0.022964304 0.10649679 0.022437355 0.10709619 0.40611792
0.053378724 -0.14822021 0.065963686 0.012661784 0.0531699 -0.19796672 0.050205287 -0.19334328
-0.2011029 0.06376353 0.096708745 -0.22974831 0.04361655 -0.07775556 0.0212778 -0.06589072
0.035319023 0.26375255 -0.108796544 0.06823188 0.12074475 0.09075694 0.2195868 0.009676472
-0.013043466 0.092127874 0.2036131 -0.048747294 -0.018026773 -0.19083126 -0.0035125008 -0.08047267
0.030816294 0.01622872 -0.04678139 -0.017757183 0.08339371 0.023040297 -0.0028705257 0.16867022
-0.01868886 0.037213072 0.06866304 0.16391322 0.016962942 0.13564296 -0.0039962167 0.10489158
0.029058736 -0.07148992 0.058308486 -0.014712999 -0.31227383 -0.5263748 0.22188194 -0.023253039
0.07299485 0.017769855 -0.14464402 0.32250613 -0.22808284 -0.0969062 0.11845823 -0.37757093
0.17167385 -0.10847635 -0.3664996 0.044808116 0.16024634 -0.31140906 -0.15198688 0.23301692
-0.37902042 0.06895052 -0.2627227 0.016066488 -0.23217238 0.22322543 -0.15100619 -0.0364338
0.079728164 -0.4737089 0.057172295 -0.17620815 0.0053118635 -0.16285504 -0.28017923 0.1339024
-0.04082361 -0.45299095 -0.22129624 0.21996179 -0.2706674 -0.22274718 -0.19207074 -0.4287865
-0.07708175 -0.17614414 -0.19793665 -0.29867643 -0.48682982 -0.15982991 -0.4302263 -0.39704224
-0.499117 -0.50951487 -0.43733862 -0.092819326 -0.2112553 0.08310185 -0.2769128 -0.71121067
-0.31578833 -0.08644082 -0.3796749 -0.27760705 -0.075430684 -0.3602634 -0.21751098 -0.2685987
-0.4096235 -0.14541747 0.110456266 0.16629553 0.087431565 -0.48432893 0.16563663 -0.21254615
-0.053665325 -0.024494255 -0.1290213 0.048631676 0.25339633 -0.0714278 -0.007248842 0.21918085
-0.0647694 0.13604566 0.025111146 0.1366283 0.13223669 0.07776054 0.17525803 0.12431762
0.04902631 0.085793674 0.035871226 0.023180507 -0.049453363 0.078396246 0.21993335 -0.065630235
00000000: 96ea 89be 73fc 993e 5bdf 4e3d 0fac a93e
00000010: 1256 bebe f8ce f93e fadc 2d3d 478a b63e
00000020: 3508 083e 032d e5ba 33dc 9e3d 36be 23bb
00000030: ef4d c53c 1cf9 65be 372e a03d c2e9 033e
00000040: 0dc8 533e e76d 30bc 024b 92bb c06f 1b3a
00000050: 7b5f 08bd 4bf8 0fbe 0a25 a5bd 0d92 873d
00000060: 95f6 4b3c f822 963d efbf 163d 7f91 95bc
00000070: a9e2 bf3d ded4 2d3d 983c a63c ea2a cdbd
00000080: 65ac eebc f8bc 093e 9da9 dfbd 6dfc 34bd
00000090: f2df 6f3e 117d 5f3e 2c92 0a3e 43bb 6a3e
000000a0: 3bf4 ebbe 89c2 c33e a388 873e ef21 cf3e
000000b0: 4c2d 883e d945 5c3e 544a 243e a734 003e
000000c0: e953 b23e 80b7 80bd 7821 c93d eea8 f73d
000000d0: 2ef6 953d 64e7 653e b255 513e dd89 803e
000000e0: e8de 4d3e 97a4 8b3e c776 c4bd 6f75 3e3e
000000f0: d2a7 ad3e fc6c 633e 8dbc e73d 0f48 ab3c
00000100: 3c3e 863e a943 173e f89b 0f3d 5665 c8bb
00000110: 2ba9 a83e 5405 823e d797 4c3e 4012 753e
00000120: e812 b93c 6a2e 183e 6572 86bd 8ceb 903d
00000130: c747 be3e b6e3 293d bea7 113c 8808 5d3c
00000140: 9492 b33c 6bc9 cb3a 9971 db3d 90fa c63d
00000150: 7c88 f53b d055 fe3e 5711 693c cca4 1cbd
00000160: 859e b43d 68fc ab3d a633 493c 4b41 573d
00000170: 75e4 01be a187 df3d a76c f83e 1910 303d
00000180: 9a31 62bd 9206 1a3d 555b 93bb a31f bcbc
00000190: fd1a da3d 8bce b73c 3f55 db3d b0ee cf3e
000001a0: a6a3 5a3d 0ac7 17be f817 873d 5f73 4f3c
000001b0: aec8 593d cab7 4abe 0fa4 4d3d c8fb 45be
000001c0: ebed 4dbe 7496 823d 3c0f c63d 2443 6bbe
000001d0: 44a7 323d 4f3e 9fbd c84e ae3c b7f1 86bd
000001e0: aeaa 103d 930a 873e b9d0 debd 28bd 8b3d
000001f0: 0649 f73d c6de b93d 5ddb 603e 118a 1e3c
00000200: 43b4 55bc 8aad bc3d f47f 503e 3eab 47bd
00000210: e2ac 93bc 4569 43be fc31 66bb dbce a4bd
00000220: 7472 fc3c 18f2 843c d89d 3fbd 8377 91bc
00000230: 52ca aa3d 01bf bc3c 6e1f 3cbb e3b7 2c3e
00000240: 6119 99bc bc6c 183d 359f 8c3d ded8 273e
00000250: def5 8a3c fde5 0a3e b2f2 82bb 66d1 d63d
00000260: 960c ee3c 4f69 92bd e1d4 6e3d ca0e 71bc
00000270: 5be2 9fbe 80c0 06bf 0535 633e 287d bebc
00000280: 537e 953d 1692 913c 901d 14be 861f a53e
00000290: 8c8e 69be c276 c6bd 3a9a f23d fa50 c1be
000002a0: 45cb 2f3e d928 debd d6a5 bbbe b788 373d
000002b0: 9e17 243e 0271 9fbe 73a2 1bbe fd9b 6e3e
000002c0: f70e c2be ee35 8d3d 9783 86be de9d 833c
000002d0: 99be 6dbe 3595 643e 5ea1 1abe 9c3b 15bd
000002e0: 8548 a33d f989 f2be 7f2d 6a3d e96f 34be
000002f0: 240f ae3b 79c3 26be a773 8fbe b61d 093e
00000300: a836 27bd 6eee e7be 7b9b 62be aa3d 613e
00000310: eb94 8abe d617 64be 31ae 44be e789 dbbe
00000320: 09dd 9dbd 215f 34be e8af 4abe 1eec 98be
00000330: c241 f9be 74aa 23be 9f46 dcbe 1f49 cbbe
00000340: 438c ffbe 916f 02bf d9ea dfbe 0f18 bebd
00000350: 4f53 58be 4d31 aa3d 84c7 8dbe e711 36bf
00000360: 02af a1be e207 b1bd c064 c2be 8322 8ebe
00000370: 677b 9abd 7274 b8be 33bb 5ebe c585 89be
00000380: 2cba d1be 51e8 14be e536 e23d 6049 2a3e
00000390: 520f b33d f6f9 f7be a69c 293e b3a5 59be
000003a0: 2cd0 5bbd 2da8 c8bc 291e 04be 0232 473d
000003b0: 2abd 813e bd48 92bd b287 edbb f270 603e
000003c0: d2a5 84bd 8e4f 0b3e e4b5 cd3c 4ae8 0b3e
000003d0: 0e69 073e eb40 9f3d d776 333e 3d9a fe3d
000003e0: d0cf 483d 98b4 af3d b5ed 123d 0ce5 bd3c
000003f0: 9c8f 4abd 368e a03d 3536 613e 2569 86bd

conv0.conv.bias f4 [32]
0.002553798 -0.0028214443 0.019928498 -0.0010490917 0.0027982986 -0.0015513126 0.012073322 -0.0032872541
-0.0037599632 -0.0009896901 -0.0031633633 -0.005725036 -0.0011497395 0.0047731944 -2.7028727e-05 0.003699606
-0.011394089 0.033937946 -0.008451503 -0.0031998856 0.00105906 -0.013248856 0.0035749287 0.00025845037
-0.002033129 0.0013060047 0.0005592424 -0.023549521 0.0020608653 -0.010717347 -0.0037521785 -0.0007694933
00000000: 9f5d 273b fbe7 38bb 1741 a33c ad81 89ba
00000010: a963 373b 6a55 cbba 2fcf 453c f96e 57bb
00000020: b769 76bb 7db8 81ba 6e50 4fbb 1599 bbbb
00000030: dbb2 96ba 7568 9c3b c0bb e2b7 1775 723b
00000040: 46ae 3abc 8402 0b3d 2c78 0abc 2cb5 51bb
00000050: 28d0 8a3a bb11 59bc 5a49 6a3b 9f80 8739
00000060: 3f3e 05bb 3f2e ab3a 1f9a 123a edea c0bc
00000070: 950f 073b d097 2fbc 1ce7 75bb d2b7 49ba

conv0.bn.weight f4 [32]
0.8349157 0.6700675 0.68252146 0.82561153 0.7440474 0.6379323 0.68536806 0.7476343
0.93102217 0.844233 0.64839655 0.6200468 0.7321031 0.90402716 0.7689037 0.88751066
0.744661 1.2929444 0.8125608 0.7019876 0.7926256 0.91133595 0.77159935 0.6967928
0.8808521 0.7684816 0.79506207 0.7412266 0.95302874 0.69525313 0.70032936 0.62701195
00000000: 09bd 553f 8b89 2b3f bab9 2e3f 475b 533f
00000010: e479 3e3f 884f 233f 4874 2f3f f664 3f3f
00000020: 7857 6e3f a71f 583f 51fd 253f 63bb 1e3f
00000030: 1c6b 3b3f 536e 673f dfd6 443f e633 633f
00000040: 1aa2 3e3f 347f a53f fc03 503f 76b5 333f
00000050: 83e9 4a3f 504d 693f 8987 453f 0361 323f
00000060: 867f 613f 36bb 443f 3089 4b3f 07c1 3d3f
00000070: b1f9 733f 1cfc 313f c948 333f db83 203f

conv0.bn.bias f4 [32]
-0.5838345 -0.12140545 -0.19729231 -0.4450418 -0.21846786 -0.07545983 -0.04419706 -0.31946608
-0.22173493 -0.37399566 -0.23786408 0.11388552 -0.19264285 -0.3481585 -0.25691256 -0.15617257
-0.055527665 -0.1679275 -0.23648518 -0.29538298 -0.15965512 0.0052720173 -0.3604561 -0.24815308
-0.22171004 -0.33833167 -0.36089295 -0.1266036 -0.13731149 0.46375415 -0.20826314 -0.07489372
00000000: 2e76 15bf 6ca3 f8bd ff06 4abe 85dc e3be
00000010: 0ab6 5fbe af8a 9abd fa07 35bd 0f91 a3be
00000020: 7b0e 63be 5c7c bfbe a492 73be d03c e93d
00000030: 2b44 45be d541 b2be 0b8a 83be b4eb 1fbe
00000040: fa70 63bd 30f5 2bbe 2c29 72be 703c 97be
00000050: a27c 23be e3c0 ac3b b48d b8be d71b 7ebe
00000060: f507 63be cf39 adbe f6c6 b8be 60a4 01be
00000070: 629b 0cbe 2f71 ed3e ef42 55be e161 99bd

conv0.bn.running_mean f4 [32]
0.2895131 0.003797588 -0.1452417 -0.105089515 -0.078423925 -0.031180765 -0.24716362 0.28649238
-0.18661758 -0.12188012 -0.03749294 -0.046069592 -0.07225907 -0.030341983 0.06570921 0.23664835
0.15330768 -0.13948789 -0.20676708 -0.07741428 0.027603569 -0.060728528 -0.100644715 0.049090143
-0.07588057 -0.11363495 -0.11707358 -0.06556805 0.24200028 0.12534046 -0.09472733 0.20408954
00000000: 103b 943e f4e0 783b 3dba 14be 2c39 d7bd
00000010: b99c a0bd ce6e ffbc 7618 7dbe 21af 923e
00000020: ae18 3fbe 499c f9bd 3292 19bd 78b3 3cbd
00000030: 90fc 93bd c08f f8bc 8d92 863d f253 723e
00000040: b0fc 1c3e ead5 0ebe c0ba 53be 618b 9ebd
00000050: e120 e23c 7abe 78bd d11e cebd bf12 493d
00000060: 4667 9bbd 71b9 e8bd 46c4 efbd 8b48 86bd
00000070: ecce 773e 4059 003e 6700 c2bd d9fc 503e

conv0.bn.running_var f4 [32]
0.10523366 0.12432822 0.1547675 0.10736006 0.15570278 0.12224717 0.22109674 0.10159442
0.16157478 0.12839988 0.101207465 0.15188593 0.118623294 0.08242156 0.102708235 0.105690904
0.09106509 0.13558501 0.15730597 0.10240675 0.19583169 0.124347724 0.09807047 0.11046863
0.094631135 0.12820876 0.115127556 0.09012171 0.12482251 0.0909378 0.112969585 0.118228294
00000000: bf84 d73d cb9f fe3d 5f7b 1e3e 97df db3d
00000010: 8d70 1f3e b95c fa3d 2f67 623e bc10 d03d
00000020: dc73 253e 427b 033e dc45 cf3d fc87 1b3e
00000030: c5f0 f23d a3cc a83d b258 d23d 7974 d83d
00000040: 5580 ba3d ccd6 0a3e d114 213e a1ba d13d
00000050: 1a88 483e 05aa fe3d 2cd9 c83d 613d e23d
00000060: f8cd c13d 2849 033e ffc7 eb3d bb91 b83d
00000070: f2a2 ff3d 993d ba3d 995c e73d ad21 f23d

blocks.0.conv.weight f4 [32, 32, 3, 3]
0.15385786 -0.09433317 0.08980523 -0.26206815 0.09572852 -0.09485984 0.23724826 -0.07219768
0.08124672 0.020084951 0.00010050868 -0.323105 -0.18924327 -0.05404538 0.20787463 0.011958113
0.0012861146 -0.10206293 0.11254343 -0.10960226 0.12098497 -0.0038195741 -0.2655532 0.019910375
0.0029425945 0.050418954 0.14993812 0.055302247 0.07081763 0.057744496 0.02347706 0.11261415
0.07545372 -0.07967572 -0.370247 0.2038397 0.026497865 0.2841953 -0.15862417 0.0304901
0.086260766 -0.037798528 -0.14567631 0.011238816 -0.10504116 0.068998806 -0.22929941 -0.008404563
-0.11538947 -0.09755187 0.1157218 0.13339421 0.15919933 0.1449796 0.05190849 -0.17536633
-0.011468415 -0.09646394 0.0014958114 -0.3021308 -0.021482607 0.06988429 -0.18846351 0.1973962
0.15997845 0.27536988 0.015152069 0.14819498 0.07324861 0.13761565 0.1584304 0.12114094
0.07705391 -0.5898525 -0.008481347 -0.13839039 0.21477306 0.046206344 -0.09986765 0.34165978
0.119474575 -0.06636577 -0.041725412 0.0054717828 -0.052629914 0.4033956 0.12768286 0.14748873
-0.06616054 0.092827536 -0.004650252 -0.103638425 0.00304292 -0.06982664 0.15778811 -0.18303074
0.116424605 0.05553359 0.23364028 0.00078509626 0.05235561 0.12154311 -0.21072762 0.010335499
0.031293243 0.25366914 -0.119314075 -0.022842182 -0.53811806 -0.06264994 0.11026895 0.21700339
0.06085523 0.005632684 0.083196945 0.30398625 -0.05676779 -0.070876256 -0.10437591 -0.2973589
0.14595875 -0.4046688 -0.28608534 -0.026353173 -0.0463241 0.18486993 -0.1379254 0.10817004
-0.31146914 0.024195526 -0.11196537 -0.1364203 0.071310185 -0.05151838 -0.030932484 0.10469518
0.16071321 0.07237012 0.102714606 -0.01997263 0.102831766 0.0011968386 0.11601797 0.09790952
0.023444448 0.027867893 0.032736916 0.15086532 -0.06743739 0.064234555 0.090299636 0.22192821
0.14295599 -0.086428866 0.20409879 0.016052315 0.13242972 -1.3388096 0.16294143 0.14690946
0.123815924 0.13599443 -0.0940932 -0.28318158 0.28419968 0.3371728 -0.30861413 0.10101366
-0.43747297 0.15081951 0.056479096 0.050739102 -0.17639649 -0.11864574 -0.15962166 -0.013797499
-0.06069541 -0.06531396 -0.012087886 -0.03715894 0.0013330588 -0.07358742 0.0024983014 0.06373843
-0.3449103 -0.175435 0.046533175 -0.14111617 -0.17447343 0.06629874 0.15281512 0.042360786
0.11233142 -0.21749277 0.14936712 0.18286377 0.25533402 0.11642693 0.0019243679 -0.14336035
0.1152406 -0.22606218 0.33083823 0.1471877 -0.05482863 -0.22365741 0.10507048 -0.038480923
0.13990372 0.21427092 0.06515624 -0.06701086 0.20228823 -0.15905881 0.04402433 0.27430937
0.22822817 0.03221678 0.09363565 -0.0642473 -0.14737633 -0.0734203 0.05677802 0.22335106
0.14743866 0.18685311 0.034643546 -0.10069853 0.13924077 0.119645774 -0.20417888 -0.2471837
-0.007774398 0.0056384336 0.07044513 0.013764498 0.11925157 -0.13118416 -0.24869917 -0.02527944
-0.08197365 0.2969464 -0.077075 0.21140513 -0.17951475 -0.046179235 0.13753839 -0.027701272
-0.10008779 0.051666453 0.13757691 0.1113816 0.13535945 -0.2039049 0.12300148 -0.12957706
00000000: ea8c 1d3e c031 c1bd ceeb b73d cc2d 86be
00000010: 500d c43d e045 c2bd 35f1 723e 61dc 93bd
00000020: ae64 a63d 3289 a43c 30c8 d238 056e a5be
00000030: fdc8 41be b05e 5dbd 16dd 543e f6eb 433c
00000040: d892 a83a 5f06 d1bd 2b7d e63d 2677 e0bd
00000050: f8c6 f73d d251 7abb 97f6 87be 151b a33c
00000060: 8bd8 403b 1b84 4e3d 6189 193e 9c84 623d
00000070: d508 913d 7e85 6c3d f752 c03c 3fa2 e63d
00000080: 7b87 9a3d 062d a3bd 0491 bdbe 5bbb 503e
00000090: 0d12 d93c 0c82 913e 606e 22be 60c6 f93c
000000a0: 7ca9 b03d a1d2 1abd 2c2c 15be 0323 383c
000000b0: d21f d7bd 3f4f 8d3d 77cd 6abe 4bb3 09bc
000000c0: 5051 ecbd 46c9 c7bd 8dff ec3d 7e98 083e
000000d0: 2605 233e 8875 143e ff9d 543d 3b93 33be
000000e0: 05e6 3bbc e38e c5bd 1a0f c43a e3b0 9abe
000000f0: 4bfc afbc 7f1f 8f3d 94fc 40be 3b22 4a3e
00000100: 64d1 233e 48fd 8c3e 6240 783c 6dc0 173e
00000110: 5e03 963d 1eeb 0c3e 943b 223e be18 f83d
00000120: 71ce 9d3d 9300 17bf 59f5 0abc 36b6 0dbe
00000130: 78ed 5b3e dd42 3d3d 6987 ccbd 08ee ae3e
00000140: 16af f43d c7ea 87bd 44e8 2abd a44c b33b
00000150: 7792 57bd de89 ce3e 4cbf 023e 4907 173e
00000160: 2d7f 87bd 5d1c be3d 2461 98bb 6240 d4bd
00000170: ba6b 473b 4501 8fbd 3593 213e 696c 3bbe
00000180: 0670 ee3d 3177 633d 663f 6f3e ebce 4d3a
00000190: d672 563d 98eb f83d fbc8 57be 3a56 293c
000001a0: 582d 003d ece0 813e f05a f4bd 871f bbbc
000001b0: 1bc2 09bf 9d4e 80bd b0d4 e13d 2336 5e3e
000001c0: 5543 793d 6192 b83b 2963 aa3d 16a4 9b3e
000001d0: 5885 68bd 9227 91bd 09c3 d5bd 6d3f 98be
000001e0: 3676 153e c030 cfbe c779 92be 9ce2 d7bc
000001f0: 57be 3dbd 8b4e 3d3e 513c 0dbe 4188 dd3d
00000200: e278 9fbe b235 c63c 1a4e e5bd c3b1 0bbe
00000210: 130b 923d f004 53bd 1f66 fdbc 6d6a d63d
00000220: 0192 243e c936 943d 095c d23d a49d a3bc
00000230: 7699 d23d 3ddf 9c3a d49a ed3d c984 c83d
00000240: 920e c03c 354b e43c 2517 063d 707c 1a3e
00000250: 9d1c 8abd 688d 833d 04ef b83d 2641 633e
00000260: 0e63 123e 9e01 b1bd 46ff 503e 2580 833c
00000270: a89b 073e 1d5e abbf 1eda 263e 6f6f 163e
00000280: 3493 fd3d 2042 0b3e f0b3 c0bd 2dfd 90be
00000290: 9f82 913e eaa1 ac3e ac02 9ebe 40e0 ce3d
000002a0: 75fc dfbe 6e70 1a3e a056 673d ced3 4f3d
000002b0: 48a1 34be 8afc f2bd dc73 23be e80e 62bc
000002c0: c09b 78bd 53c3 85bd 450c 46bc f933 18bd
000002d0: 08ba ae3a 00b5 96bd 8bba 233b 4b89 823d
000002e0: 1598 b0be 3ca5 33be 9299 3e3d c280 10be
000002f0: 2aa9 32be a2c7 873d 917b 1c3e 8182 2d3d
00000300: 040e e63d 6db6 5ebe b2f3 183e a440 3b3e
00000310: 24bb 823e 3e71 ee3d 123b fc3a 0ecd 12be
00000320: 4403 ec3d d87c 67be a163 a93e 5fb8 163e
00000330: fc93 60bd 7306 65be 312f d73d 2c9e 1dbd
00000340: ec42 0f3e d669 5b3e a270 853d fd3c 89bd
00000350: a524 4f3e 50e0 22be db52 343d 4772 8c3e
00000360: a5b4 693e bef5 033d 0cc4 bf3d 1794 83bd
00000370: d2e9 16be 625d 96bd 1290 683d 24b6 643e
00000380: 29fa 163e 6c56 3f3e 64e6 0d3d 083b cebd
00000390: 2295 0e3e d808 f53d 4514 51be b91d 7dbe
000003a0: 61c0 febb 9cc2 b83b 8945 903d 7d84 613c
000003b0: 2b3a f43d 2455 06be ffaa 7ebe d416 cfbc
000003c0: cde1 a7bd 5c09 983e 7fd9 9dbd 967a 583e
000003d0: b7d2 37be 7026 3dbd ddd6 0c3e c7ed e2bc
000003e0: d4fa ccbd 34a0 533d f6e0 0c3e 091c e43d
000003f0: ab9b 0a3e 72cc 50be 33e8 fb3d d9af 04be

blocks.0.conv.bias f4 [32]
0.0020940553 0.0051448396 -0.0013469458 0.0018018915 0.0026535033 0.003727478 0.0010726365 0.0105393175
0.00024676227 0.004254845 0.010509571 -5.7363548e-05 0.000109109176 -6.5162305e-05 0.00021327745 -0.001000953
0.0011387019 -0.00075666263 -0.0040309727 0.0022645332 -0.00021758692 0.0011749255 -0.0019435941 0.0021726594
0.0030969493 0.007002774 -0.00039936337 6.672823e-05 -0.00030074985 0.00074943405 0.012189004 0.030536294
00000000: 6b3c 093b 0b96 a83b 008c b0ba 722d ec3a
00000010: 66e6 2d3b b448 743b b597 8c3a 1aad 2c3c
00000020: df5f 8139 3a6c 8b3b 5630 2c3c a499 70b8
00000030: 8bd1 e438 bfa7 88b8 3ba3 5f39 6932 83ba
00000040: 7f40 953a c55a 46ba 4016 84bb 9068 143b
00000050: 0b28 64b9 f5ff 993a 32c0 feba 2d63 0e3b
00000060: 30f6 4a3b 8777 e53b a561 d1b9 72f0 8b38
00000070: f6ad 9db9 ab75 443a 63b4 473c 4027 fa3c

blocks.0.bn.weight f4 [32]
0.8150245 0.8456844 0.83856964 1.0107142 1.1002014 0.7482098 0.7802957 0.7888217
0.95749176 1.0493244 0.89180714 1.0181262 0.91435033 0.84955287 0.9095269 0.78242856
1.090522 0.995045 0.84167737 0.92192423 0.9421524 0.7106082 0.9904354 0.90382874
0.9003824 0.9662512 1.083548 1.1994314 0.6747513 0.7105451 0.68088955 1.0095388
00000000: 72a5 503f c67e 583f 80ac 563f 155f 813f
00000010: 66d3 8c3f ad8a 3f3f 76c1 473f 38f0 493f
00000020: 2e1e 753f 4350 863f 794d 643f f651 823f
00000030: dd12 6a3f 4c7c 593f c1d6 683f 3d4d 483f
00000040: 3a96 8b3f 45bb 7e3f 2b78 573f 3a03 6c3f
00000050: e630 713f 6bea 353f 2d8d 7d3f 5261 673f
00000060: 767f 663f 3d5c 773f b3b1 8a3f f886 993f
00000070: 80bc 2c3f 49e6 353f c74e 2e3f 9138 813f

blocks.0.bn.bias f4 [32]
-0.559653 -0.40173864 0.046113167 -0.14281565 -0.37751162 -0.21651141 -0.18475416 -0.3226048
-0.33921146 -0.3477507 -0.498663 -0.4571508 -0.5421407 -0.46117628 -0.13949521 -0.48512033
-0.48437434 -0.328783 -0.20338778 -0.5484233 -0.33075765 -0.27994215 -0.751555 -0.24374796
-0.08262082 -0.46593904 -0.40497434 -0.5275001 -0.56302184 -0.26928377 -0.013380032 -0.6894208
00000000: 6b45 0fbf b0b0 cdbe 29e1 3c3d 443e 12be
00000010: 3449 c1be 2bb5 5dbe 3230 3dbe 752c a5be
00000020: 20ad adbe 610c b2be c250 ffbe ab0f eabe
00000030: bcc9 0abf 4c1f ecbe d5d7 0ebe b161 f8be
00000040: eaff f7be 3f56 a8be e344 50be 7865 0cbf
00000050: 1159 a9be 9454 8fbe e965 40bf 1199 79be
00000060: 1b35 a9bd 908f eebe cc58 cfbe 3f0a 07bf
00000070: 3322 10bf 90df 89be ec37 5bbc e27d 30bf

blocks.0.bn.running_mean f4 [32]
0.5952444 -3.22172 2.1726902 -0.040810198 -0.6773946 -2.4285502 -2.011055 -1.6676834
0.40738606 -1.3173184 -1.315222 -1.2111567 -1.3240364 1.5822425 1.1699117 -0.59556687
-0.2804606 -1.3024664 1.1505893 -0.36308455 -0.4189588 -1.2667954 -1.331151 0.9065702
-1.5766945 -1.0154661 -0.4125928 -0.9937778 -2.6369326 -0.11070251 0.08914817 -2.5807827
00000000: f061 183f a930 4ec0 5b0d 0b40 9828 27bd
00000010: bc69 2dbf 5e6d 1bc0 20b5 00c0 a676 d5bf
00000020: e894 d03e e49d a8bf 3259 a8bf 2f07 9bbf
00000030: 067a a9bf ec86 ca3f abbf 953f 1277 18bf
00000040: 8898 8fbe 38b7 a6bf 8346 933f 38e6 b9be
00000050: c581 d6be 5a26 a2bf 2863 aabf fc14 683f
00000060: 20d1 c9bf cbfa 81bf 5d3f d3be 3968 7ebf
00000070: 81c3 28c0 ffb7 e2bd 5193 b63d 8b2b 25c0

blocks.0.bn.running_var f4 [32]
1.952329 3.270083 4.963498 2.2771502 5.2396235 4.4508915 6.0258584 2.452669
1.8749721 1.7547283 1.9418701 2.601636 2.0986378 2.4313824 3.9484465 1.9385656
2.1735463 4.461301 2.224721 1.9624467 1.8996161 3.6153672 2.3430912 2.6091454
6.756722 2.470884 2.105408 3.5722373 4.366517 2.0104244 2.5184596 2.98145
00000000: ebe5 f93f 0a49 5140 fad4 9e40 d4bc 1140
00000010: ffaa a740 b46d 8e40 d5d3 c040 87f8 1c40
00000020: 16ff ef3f f09a e03f 338f f83f 3481 2640
00000030: 1550 0640 c59b 1b40 59b3 7c40 eb22 f83f
00000040: 621b 0b40 fac2 8e40 d461 0e40 7431 fb3f
00000050: 9f26 f33f 2d62 6740 35f5 1540 3dfc 2640
00000060: 1137 d840 f722 1e40 01bf 0640 899f 6440
00000070: 82ba 8b40 cbaa 0040 712e 2140 14d0 3e40

blocks.1.conv.weight f4 [32, 32, 3, 3]
0.059114914 0.012409338 0.04930352 -0.35882705 0.17610504 -0.06353778 0.114573054 -0.28892902
0.07796659 -0.012015662 0.14385277 -0.2482677 -0.23387198 -0.03400808 0.10196995 -0.12846602
0.138761 -0.0808895 -0.03202489 -0.34531164 0.09162412 -0.25194815 -0.7266629 -0.16648631
0.06827591 0.22661074 0.15160313 0.33498704 -0.021192102 -0.046745762 -0.21213803 0.17407516
-0.1542682 -0.1876675 -0.53465617 -0.260818 0.13092095 0.24955718 -0.068183556 0.12702477
0.092898935 -0.033466194 0.034255873 -0.13978156 0.13199401 -0.12884197 -0.13926278 0.16220264
0.032297038 -0.005664368 0.101595394 0.076644436 0.09028096 0.13384317 -0.15506077 0.114059
-0.1166909 -0.20286225 0.048020955 -0.17953095 -0.060585026 0.11442631 -0.020514105 0.13586232
-0.58366024 0.12489978 -0.023456095 0.08788031 -0.37065876 0.059323475 -0.005834066 0.0050675534
0.10916068 -0.13806808 -0.14716108 -0.1759012 0.0722975 0.05724701 -0.1638073 -0.1941094
0.23449072 -0.037001725 -0.18840826 -0.19082436 0.26907787 -0.11176285 -0.38780862 0.23610845
-0.27818105 -0.14091377 0.0942803 -0.30825773 -0.15282127 -0.073485725 -0.026464365 0.08905937
0.06665838 0.024858423 0.18285884 0.10383914 0.13374895 -0.058877353 -0.2030116 -0.14276284
-0.0034130702 -0.05134572 -0.3005781 -0.11762691 -0.034679554 0.15073448 -0.3077986 0.103567734
0.28508872 0.057627585 -0.043480784 0.108847536 0.25647497 -0.36097276 -0.34652963 -0.21123856
-0.2068175 -0.30587745 0.011537635 -0.07211719 -0.01608097 -0.0011787269 0.3140554 -0.11602837
-0.13237356 0.17233822 -0.19488129 0.18509279 0.09016676 -0.12513381 -0.09255637 -0.10258516
0.04710342 0.04987388 -0.20212747 0.106394 -0.14345814 0.077892594 -0.10202175 0.12625888
0.30014005 -0.4127633 -0.011934999 -0.08350333 -0.23253123 -0.050464112 0.25023055 -0.024864191
0.0011115287 0.095134534 0.065494806 -0.013817573 -0.30049938 -0.7403866 -0.019355983 0.06221028
-0.21441795 -0.00022388155 -0.01387815 0.1015882 0.08656163 0.045338776 -0.017723529 0.00083936314
0.10981004 0.20573129 -0.07928358 -0.10015137 -0.011916234 -0.022616206 0.04664646 0.0009845956
0.16968778 -0.3839138 -0.114067316 -0.34720612 0.066929385 -0.3372921 0.11378451 -0.14985284
-0.37761208 0.100846335 -0.018015819 -0.045171462 -0.24021824 -0.0060401014 -0.009207293 -0.302935
0.094402894 -0.21279292 -0.038975537 0.08213114 0.16198397 -0.15921776 0.080436565 -0.20799373
0.1677573 -0.048034657 -0.11849558 0.0812703 -0.022063928 -0.25732958 0.11945334 -0.19522485
-0.048868626 0.24244052 -0.09090804 -0.5167669 -0.05301552 0.118550666 -0.17089741 -0.30244082
0.025846094 -0.034577932 -0.1224288 -0.10450704 -0.26470837 -0.24599896 0.0045957714 0.16293126
-0.11534175 -0.0129196085 0.038263626 -0.017457576 -0.13218668 -0.122006014 -0.10235778 -0.29851374
0.18367374 0.033811618 0.022295043 -0.008081258 0.31846753 -0.20112225 -0.2775759 -0.123051226
-0.2923199 0.06926337 -0.1879147 0.2208975 -0.0284006 -0.0071754255 -0.13033402 -0.08756585
0.15456884 -0.13084215 -0.24521044 0.05612582 -0.12060022 -0.061495233 0.13735113 -0.28839698
00000000: 7b22 723d 8950 4b3c 7df2 493d 2eb8 b7be
00000010: e154 343e 1820 82bd 47a5 ea3d 81ee 93be
00000020: f3ac 9f3d 57dd 44bc 244e 133e e339 7ebe
00000030: 237c 6fbe 0e4c 0bbd 9fd5 d03d 998c 03be
00000040: 5d17 0e3e 65a9 a5bd 882c 03bd b0cc b0be
00000050: 6da5 bb3d 59ff 80be 9406 3abf 637b 2abe
00000060: 3ed4 8b3d a50c 683e da3d 1b3e 6c83 ab3e
00000070: 0f9b adbc 7c78 3fbd b63a 59be c240 323e
00000080: 7cf8 1dbe e92b 40be 3adf 08bf f089 85be
00000090: 2410 063e eb8b 7f3e d2a3 8bbd c812 023e
000000a0: cc41 be3d d913 09bd e34f 0c3d e622 0fbe
000000b0: 7029 073e 26ef 03be e79a 0ebe 7318 263e
000000c0: e649 043d 2a9c b9bb 3f11 d03d c2f7 9c3d
000000d0: 39e5 b83d 2f0e 093e 40c8 1ebe c497 e93d
000000e0: a3fb eebd 1fbb 4fbe 9fb1 443d f6d6 37be
000000f0: 0128 78bd 5758 ea3d 320d a8bc 7e1f 0b3e
00000100: c26a 15bf 75cb ff3d ff26 c0bc 98fa b33d
00000110: fcc6 bdbe 2cfd 723d b12b bfbb b80d a63b
00000120: a28f df3d b861 0dbe 65b1 16be 721f 34be
00000130: b610 943d d77b 6a3d 1abd 27be 9dc4 46be
00000140: 561e 703e 1f8f 17bd 18ee 40be 7667 43be
00000150: 93c4 893e ece3 e4bd da8e c6be 6ac6 713e
00000160: bf6d 8ebe b34b 10be 0816 c13d f5d3 9dbe
00000170: 2e7d 1cbe af7f 96bd cccb d8bc c264 b63d
00000180: 3084 883d e4a3 cb3c 593f 3b3e 9da9 d43d
00000190: 7cf5 083e 6129 71bd 46e2 4fbe 6c30 12be
000001a0: d1ad 5fbb e44f 52bd 5fe5 99be 61e6 f0bd
000001b0: 260c 0ebd 245a 1a3e c797 9dbe 521b d43d
000001c0: 26f7 913e e70a 6c3d e818 32bd 75eb de3d
000001d0: b050 833e 6cd1 b8be 556c b1be ec4e 58be
000001e0: f7c7 53be f89b 9cbe 5908 3d3c 2db2 93bd
000001f0: 3dbc 83bc 837f 9aba dfcb a03e 48a0 edbd
00000200: ef8c 07be 6e79 303e f68e 47be f788 3d3e
00000210: 5aa9 b83d 1423 00be 328e bdbd 2b18 d2bd
00000220: 84ef 403d 8e48 4c3d 81fa 4ebe 19e5 d93d
00000230: b1e6 12be 2786 9f3d c7f0 d0bd 024a 013e
00000240: f5ab 993e b655 d3be 048b 43bc cb03 abbd
00000250: ab1c 6ebe 75b3 4ebd 381e 803e fdaf cbbc
00000260: b7b0 913a e5d5 c23d 2422 863d 1a63 62bc
00000270: 0edb 99be fa89 3dbf 7090 9ebc 35d0 7e3d
00000280: 6190 5bbe bfc1 6ab9 2e61 63bc 790d d03d
00000290: 3947 b13d 27b5 393d ef30 91bc b508 5c3a
000002a0: 16e4 e03d 39ab 523e 6e5f a2bd 291c cdbd
000002b0: 4f3c 43bc 9f45 b9bc 5c10 3f3d 8c0d 813a
000002c0: a2c2 2d3e 5990 c4be 209c e9bd 00c5 b1be
000002d0: 4612 893d 8db1 acbe da07 e93d 0673 19be
000002e0: 5f56 c1be 8688 ce3d e995 93bc b605 39bd
000002f0: c5fb 75be 0bec c5bb 30da 16bc 4c1a 9bbe
00000300: 4e56 c13d 63e6 59be d0a4 1fbd 5f34 a83d
00000310: 20df 253e fb09 23be edbb a43d 4ffc 54be
00000320: 92c8 2b3e fdbf 44bd d0ad f2bd 0b71 a63d
00000330: 69bf b4bc b4c0 83be f4a3 f43d 06e9 47be
00000340: 782a 48bd 5442 783e ff2d babd d64a 04bf
00000350: cd26 59bd b1ca f23d bbff 2ebe 86d9 9abe
00000360: 30bb d33c 97a1 0dbd f3bb fabd c907 d6bd
00000370: db87 87be 27e7 7bbe 2098 963b 74d7 263e
00000380: 4c38 ecbd c4ac 53bc 52ba 1c3d 3103 8fbc
00000390: f25b 07be 4ade f9bd f5a0 d1bd cbd6 98be
000003a0: f814 3c3e 0d7e 0a3d 18a4 b63c 4167 04bc
000003b0: 2d0e a33e fef2 4dbe 6e1e 8ebe 4802 fcbd
000003c0: f4aa 95be f4d9 8d3d b66c 40be f432 623e
000003d0: 60a8 e8bc d51f ebbb 4876 05be b955 b3bd
000003e0: 4b47 1e3e 7cfb 05be 7218 7bbe 30e4 653d
000003f0: 40fd f6bd 6de2 7bbd c6a5 0c3e c5a8 93be

blocks.1.conv.bias f4 [32]
0.00552025 -0.0016862359 0.0012500026 0.005743193 -0.008412208 0.0068035168 -0.0052920156 -0.0036579126
0.011977235 -0.0011945276 0.001450332 0.0072671585 0.0045799073 0.0021110263 -0.006820673 0.008011743
0.0002969689 0.0002696975 0.00021996001 0.0004030025 0.0045747585 0.0024825395 0.0009805228 0.00023278159
-0.010761815 -2.5328432e-05 -0.009804357 0.005123824 0.00016353541 0.00045849578 0.00054623594 -0.00027261357
00000000: 37e3 b43b b004 ddba 21d7 a33a 6531 bc3b
00000010: 5cd3 09bc 09f0 de3b a568 adbb 97b9 6fbb
00000020: 2a3c 443c b291 9cba 1119 be3a 5821 ee3b
00000030: 0c13 963b 2559 0a3b f47f dfbb b043 033c
00000040: 7eb2 9b39 3066 8d39 11a5 6639 144a d339
00000050: dbe7 953b 1ab2 223b e384 803a d516 7439
00000060: 5352 30bc 6578 d4b7 74a2 20bc c0e5 a73b
00000070: b47a 2b39 4362 f039 4631 0f3a 93ed 8eb9

blocks.1.bn.weight f4 [32]
0.71884716 0.93872935 0.76423603 0.81398714 0.9705866 0.8254551 0.77080256 0.8705092
1.0394768 0.91082984 0.99504095 1.0580909 1.1043206 0.8540672 0.98919636 0.95343274
1.1468389 0.77029264 0.82800764 0.8617775 0.8515354 0.74034375 1.1422243 1.1833346
0.8801376 1.0158076 1.0500803 0.87330115 0.87751794 0.8454657 0.562085 1.1619103
00000000: 5e06 383f 9150 703f f9a4 433f 7661 503f
00000010: 5d78 783f 0751 533f 5153 453f b1d9 5e3f
00000020: 930d 853f 252c 693f 01bb 7e3f 866f 873f
00000030: 615a 8d3f 26a4 5a3f f93b 7d3f 2b14 743f
00000040: 9ecb 923f e631 453f 4ff8 533f 739d 5c3f
00000050: 39fe 593f 2b87 3d3f 6834 923f 8277 973f
00000060: b350 613f fc05 823f 0869 863f aa90 5f3f
00000070: 04a5 603f 7170 583f cde4 0f3f 7ab9 943f

blocks.1.bn.bias f4 [32]
-0.2899584 -0.35378283 -0.08576473 -0.3782011 -0.24542381 -0.1534748 -0.32219028 -0.50063026
-0.35366812 -0.35927525 -0.43505728 -0.5236124 -0.46389592 -0.37016624 -0.3626265 -0.34377798
-0.6082026 -0.5375165 -0.5228964 -0.5926661 -0.5307747 -0.5891277 -0.596497 -0.15869509
-0.6624523 -0.18749455 -0.4026606 -0.3475518 -0.28395954 -0.5842132 -0.03328605 -0.41202527
00000000: 6d75 94be 0623 b5be 6ba5 afbd 93a3 c1be
00000010: 6150 7bbe 7f28 1dbe 20f6 a4be 4e29 00bf
00000020: fd13 b5be edf2 b7be d4bf debe 760b 06bf
00000030: c483 edbe 6e86 bdbe 2eaa b9be ab03 b0be
00000040: 2ab3 1bbf ae9a 09bf 8adc 05bf f7b8 17bf
00000050: dae0 07bf 13d1 16bf 07b4 18bf f780 22be
00000060: 7996 29bf 92fe 3fbe 8829 cebe 4ff2 b1be
00000070: 2563 91be ff8e 15bf f456 08bd faf4 d2be

blocks.1.bn.running_mean f4 [32]
-4.426617 -1.8623137 -0.65186685 -3.3730452 -3.1457756 -0.6097603 1.433751 -2.1196585
-3.788049 -0.8225356 -0.025171934 -0.12410299 -1.4122828 2.248052 -1.3227961 -2.4176385
-2.0405042 -0.27685747 -2.6442363 -3.2526553 -1.2175483 -2.4361522 -1.1376487 -1.5709877
-1.4268712 -0.6205358 -1.0759726 -1.786046 0.882845 -0.89379746 1.0608032 -1.1433527
00000000: d9a6 8dc0 4c60 eebf bfe0 26bf f9df 57c0
00000010: 6354 49c0 4019 1cbf 2785 b73f 7ca8 07c0
00000020: 656f 72c0 b191 52bf 5f35 cebc b529 febd
00000030: afc5 b4bf 15e0 0f40 6251 a9bf 97ba 1ac0
00000040: 9f97 02c0 43c0 8dbe 2b3b 29c0 812b 50c0
00000050: 9fd8 9bbf ebe9 1bc0 799e 91bf 2016 c9bf
00000060: b7a3 b6bf 6fdb 1ebf 78b9 89bf 289d e4bf
00000070: 2102 623f e9cf 64bf 66c8 873f 6259 92bf

blocks.1.bn.running_var f4 [32]
7.4920516 5.4752417 5.177507 6.3849483 14.593827 6.405573 4.6668143 4.679214
6.7392664 5.1764135 4.9153733 6.1711454 7.218332 5.8115077 5.820293 5.719556
3.8968852 5.2796626 4.9480767 6.46242 6.0701127 8.30832 5.219558 6.7085824
3.7409613 6.846172 4.838698 7.458194 14.05506 4.5883064 11.655572 3.7122452
00000000: e3be ef40 2e35 af40 23ae a540 7f51 cc40
00000010: 5180 6941 74fa cc40 8b56 9540 1fbc 9540
00000020: 12a8 d740 2ea5 a540 bd4a 9d40 067a c540
00000030: 93fc e640 dff7 b940 d73f ba40 9a06 b740
00000040: 9166 7940 fff2 a840 a556 9e40 25cc ce40
00000050: 5d3e c240 e1ee 0441 9e06 a740 b5ac d640
00000060: e96b 6f40 d713 db40 9dd6 9a40 86a9 ee40
00000070: 87e1 6041 68d3 9240 397d 3a41 6d95 6d40

blocks.2.conv.weight f4 [32, 32, 3, 3]
0.18959509 0.073252924 -0.11126323 -0.070933856 -0.0020013093 -0.14922048 -0.10639391 -0.08228495
-0.10779387 -0.20765449 -0.16154678 -0.2629946 -0.20308568 -0.09869713 -0.17647251 0.15815736
-0.05320649 0.013366997 -0.10681205 -0.020880941 0.19327158 0.058590297 -0.11951409 -0.049416926
0.08053393 -0.019773448 -0.11067702 0.10934596 -0.08079401 -0.027720327 0.09385129 -0.14789698
0.041745808 0.07887562 0.23983376 0.30884868 0.06484254 0.06228117 0.5035641 0.12993766
0.25649267 0.19547525 0.1294866 0.25318098 0.30299923 -0.103298895 0.122610405 0.27161095
0.16522795 0.26319724 0.22491705 -0.05625287 -0.07648252 -0.1749676 -0.059782177 0.1532326
0.21576749 -0.044355992 0.03738267 0.03955618 -0.19185148 0.13920204 -0.21474251 0.04457295
-0.28313124 0.18509164 -0.1352923 -0.14835306 -0.2505219 -0.2046901 -0.18205222 0.058535203
0.106465876 -0.03944777 0.18482806 0.1379174 0.06219145 -0.056792837 0.4066031 -0.33426642
-0.24640024 0.045573328 -0.020373685 -0.26478356 -0.13675454 -0.1505152 -0.32383022 -0.081918426
-0.25511533 -0.12846175 -0.3511838 -0.29150814 0.0051455353 -0.2254318 -0.097110264 -0.08356071
0.08441889 0.13083407 -0.19194998 0.10015855 -0.09005274 -0.012032208 0.08981282 0.19308618
-0.16015254 0.015502749 -0.32048663 0.2767038 -0.10050957 -0.04670731 -0.12832263 0.21251915
0.12401841 -0.1191342 0.034221318 0.1383076 0.1480825 -0.18868925 -0.35642552 -0.15475217
-0.29560757 -0.14743136 -0.014671349 -0.15746294 -0.22175093 -0.09784481 -0.26723891 -0.21868713
-0.29300657 -0.270226 -0.19479644 0.058157265 -0.20336922 0.39448133 -0.2329109 -0.065986216
0.059285246 -0.16085972 -0.07880164 -0.064843655 -0.18698736 0.28917146 -0.23377489 0.37366092
-0.22578682 -0.10543928 -0.16994087 -0.10275328 -0.17590763 0.123981416 0.34473005 -0.056921944
0.25961152 -0.05680398 0.26059988 -0.020115567 -0.002986562 -0.019706294 0.18632779 -0.2688095
-0.26792186 0.085730635 -0.21999632 0.26355156 0.036490563 0.1526003 0.12124753 0.16379943
0.1541634 0.16422318 -0.014441544 -0.0861857 -0.113438495 0.11533656 -0.103164054 -0.029224452
0.05464929 -0.27216777 0.07939363 -0.21945289 -0.010469233 -0.09930221 0.27403885 0.23858899
-0.054969653 0.15799436 0.325911 0.14867133 -0.3110344 0.06405787 0.02426872 -0.0040530567
0.2339076 0.07442477 -0.06325934 -0.009631355 0.07673355 0.08661643 0.18995237 -0.02145399
-0.22399756 -0.20871821 0.15549959 -0.25997776 -0.38552377 -0.14119498 -0.4894312 -0.2553672
0.12427423 0.2830219 -0.099740356 -0.2506615 -0.07730398 -0.2575476 -0.24869126 0.018559078
0.068641864 -0.0005215459 -0.36118448 -0.15632312 0.3577417 -0.0058656 -0.12187944 -0.084837824
0.10920479 -0.05117631 0.08150605 -0.09860786 0.13376391 0.06856382 0.023238203 0.19881424
0.042786088 -9.2587376e-05 -0.08476732 -0.036777627 -0.023161527 -0.15810168 -0.22799076 -0.0068372986
0.32499337 0.11596675 0.041534517 -0.07418482 -0.017221095 0.12542349 -0.1214556 0.05518867
-0.11974095 -0.27626407 -0.05928249 0.31516308 0.18893886 0.06813302 0.034152366 -0.11318962
00000000: 3725 423e a105 963d fadd e3bd c545 91bd
00000010: 6628 03bb 41cd 18be 0de5 d9bd 0385 a8bd
00000020: 08c3 dcbd 61a3 54be 856c 25be 3aa7 86be
00000030: b1f5 4fbe b921 cabd 36b5 34be 01f4 213e
00000040: 0cef 59bd 4001 5b3c 47c0 dabd 820e abbc
00000050: fce8 453e 61fc 6f3d cec3 f4bd 6769 4abd
00000060: f9ee a43d edfb a1bc a2aa e2bd c6f0 df3d
00000070: 5477 a5bd bd15 e3bc 1b35 c03d 4e72 17be
00000080: a7fd 2a3d 8b89 a13d fb96 753e 6a21 9e3e
00000090: 2acc 843d 8a1a 7f3d 94e9 003f 610e 053e
000000a0: 0253 833e aa2a 483e 2398 043e f0a0 813e
000000b0: b722 9b3e 5f8e d3bd 2a1b fb3d 9710 8b3e
000000c0: 8431 293e cac1 863e a850 663e 6969 66bd
000000d0: dea2 9cbd b52a 33be 28de 74bd 02e9 1c3e
000000e0: 27f2 5c3e a1ae 35bd 921e 193d a905 223d
000000f0: b774 44be fb8a 0e3e 76e5 5bbe 2092 363d
00000100: 94f6 90be aa88 3d3e 118a 0abe dde9 17be
00000110: 6844 80be 489a 51be e66b 3abe 9cc2 6f3d
00000120: c80a da3d fc93 21bd 9143 3d3e 383a 0d3e
00000130: 76bc 7e3d 9b9f 68bd 482e d03e f824 abbe
00000140: 5850 7cbe 19ab 3a3d b7e6 a6bc b691 87be
00000150: 6209 0cbe a820 1abe 13cd a5be d9c4 a7bd
00000160: 7a9e 82be 7a8b 03be 5dce b3be 8e40 95be
00000170: e19b a83b 98d7 66be bfe1 c6bd e121 abbd
00000180: d0e3 ac3d 5ef9 053e 898e 44be ed1f cd3d
00000190: 926d b8bd bd22 45bc c9ef b73d 62b8 453e
000001a0: 07ff 23be 3eff 7d3c d316 a4be 1fac 8d3e
000001b0: f6d7 cdbd 2a50 3fbd 0267 03be 9f9e 593e
000001c0: 5dfd fd3d a2fc f3bd a72b 0c3d 82a0 0d3e
000001d0: f0a2 173e c137 41be 687d b6be 5a77 1ebe
000001e0: e059 97be 3ff8 16be 1960 70bc f73d 21be
000001f0: ad12 63be dc62 c8bd 8ad3 88be 85ef 5fbe
00000200: f504 96be 105b 8abe b878 47be 5036 6e3d
00000210: 0540 50be 75f9 c93e 3280 6ebe c823 87bd
00000220: 16d5 723d 69b8 24be c162 a1bd c0cc 84bd
00000230: 9d79 3fbe 480e 943e af62 6fbe 7c50 bf3e
00000240: a934 67be 8df0 d7bd fb04 2ebe 5070 d2bd
00000250: 2121 34be f8e9 fd3d 7580 b03e fc26 69bd
00000260: cdeb 843e 4aab 68bd 596d 853e 67c9 a4bc
00000270: 32ba 43bb 186f a1bc b6cc 3e3e 66a1 89be
00000280: 0e2d 89be 8b93 af3d b746 61be 3bf0 863e
00000290: 2177 153d 4143 1c3e a050 f83d 0abb 273e
000002a0: 03dd 1d3e 1f2a 283e 3a9c 6cbc 2182 b0bd
000002b0: 7152 e8bd 9335 ec3d ad47 d3bd 1e68 efbc
000002c0: efd7 5f3d 9359 8bbe 2199 a23d 42b8 60be
000002d0: 2587 2bbc f55e cbbd d24e 8c3e ac50 743e
000002e0: dc27 61bd 46c9 213e cedd a63e 4c3d 183e
000002f0: e73f 9fbe c630 833d 32cf c63c 81cf 84bb
00000300: 7985 6f3e 046c 983d 1d8e 81bd d5cc 1dbc
00000310: 7b26 9d3d f463 b13d e082 423e 47c0 afbc
00000320: 9e5f 65be 3aba 55be 493b 1f3e ce1b 85be
00000330: 5f63 c5be 6b95 10be ba96 fabe 7dbf 82be
00000340: 7d83 fe3d 3fe8 903e ac44 ccbd b456 80be
00000350: 8d51 9ebd 47dd 83be eca8 7ebe 3509 983c
00000360: 1b94 8c3d 5ab8 08ba 2ced b8be 2b13 20be
00000370: ec29 b73e 3834 c0bb ee9b f9bd 74bf adbd
00000380: c3a6 df3d 409e 51bd a5ec a63d ebf2 c9bd
00000390: 68f9 083e 306b 8c3d 0b5e be3c f695 4b3e
000003a0: 7740 2f3d 782b c2b8 7d9a adbd 23a4 16bd
000003b0: 3ebd bdbc 68e5 21be 6976 69be 6b0b e0bb
000003c0: 8865 a63e fa7f ed3d 1920 2a3d 36ee 97bd
000003d0: 4113 8dbc 046f 003e b7bd f8bd 840d 623d
000003e0: be3a f5bd 7c72 8dbe 32d2 72bd 0e5d a13e
000003f0: 3079 413e 5389 8b3d 5ae3 0b3d f6cf e7bd

blocks.2.conv.bias f4 [32]
0.0034166719 -0.002554611 -0.00021750564 0.00019814563 -0.0064938413 0.001899347 -0.009714655 0.00065245427
-0.0003123859 0.0006050424 -0.00026186515 0.0004645385 0.0008916632 -0.00949987 0.0057025403 -0.00019357358
-0.0076291976 0.003113021 -0.006324713 -0.0064960783 1.1413876e-05 0.00029807218 -0.0004198305 -0.011091128
-0.00065951626 -0.007185199 0.0014506081 0.00026024613 -0.0040167915 -0.0028755926 0.00024895617 9.073662e-05
00000000: 3eea 5f3b 436b 27bb 3a12 64b9 50c5 4f39
00000010: 4aca d4bb 82f3 f83a 372a 1fbc 7709 2b3a
00000020: bac7 a3b9 b59b 1e3a f24a 89b9 4d8d f339
00000030: 81be 693a 58a5 1bbc 60dc ba3b 03fa 4ab9
00000040: 59fe f9bb d303 4c3b 8a3f cfbb 0edd d4bb
00000050: 397e 3f37 9246 9c39 b21c dcb9 90b7 35bc
00000060: 63e3 2cba d171 ebbb 5522 be3a a571 8839
00000070: 4a9f 83bb 7074 3cbb 5586 8239 da49 be38

blocks.2.bn.weight f4 [32]
0.9278794 0.9357986 0.7111574 0.7817637 0.7357959 0.7530084 1.0245428 1.0983615
0.73338735 0.9906648 0.7474788 0.9345869 0.9351376 0.8375294 0.9242133 1.1518897
1.1327586 0.97952014 0.7224661 0.86896324 0.98605096 1.0559272 0.940956 0.97963893
1.1525742 0.9642201 1.0118743 0.7193517 0.56225646 0.97497636 0.43943614 0.80394524
00000000: 8189 6d3f 7f90 6f3f 690e 363f aa21 483f
00000010: 1f5d 3c3f 29c5 403f 3824 833f 1c97 8c3f
00000020: 46bf 3b3f 359c 7d3f c55a 3f3f 1641 6f3f
00000030: 2e65 6f3f 5468 563f 3e99 6c3f 1f71 933f
00000040: 3cfe 903f d5c1 7a3f 8af3 383f 6074 5e3f
00000050: d66d 7c3f 9f28 873f 7ee2 703f 9ec9 7a3f
00000060: 8d87 933f 21d7 763f 1985 813f 6f27 383f
00000070: 0af0 0f3f 0d98 793f c6fd e03e 5bcf 4d3f

blocks.2.bn.bias f4 [32]
-0.31971276 -0.48005217 -0.17192654 -0.2592249 -0.54413426 -0.21094573 -0.2235339 -0.6008258
-0.4777273 -0.41361952 -0.53446776 -0.3705775 -0.5148179 -0.34992394 -0.4933755 -0.6076008
-0.41009474 -0.5631346 -0.48192963 -0.33707365 -0.5517589 -0.78722644 -0.3770497 -0.4641624
-0.5813447 -0.45738205 -0.593638 -0.25856507 0.001264679 -0.4016948 0.21789989 -0.66904587
00000000: 64b1 a3be 66c9 f5be 830d 30be 20b9 84be
00000010: 624c 0bbf 2802 58be 12e6 64be b8cf 19bf
00000020: ac98 f4be f0c5 d3be e1d2 08bf 56bc bdbe
00000030: 1bcb 03bf 3b29 b3be b79b fcbe ba8b 1bbf
00000040: f0f7 d1be 9729 10bf 7bbf f6be eb94 acbe
00000050: 1240 0dbf ac87 49bf a90c c1be b2a6 edbe
00000060: 02d3 14bf fb2d eabe a9f8 17bf a462 84be
00000070: 96c3 a53a f1aa cdbe 2621 5f3e 9746 2bbf

blocks.2.bn.running_mean f4 [32]
-1.1004484 -3.5601225 -2.7670226 -0.56603026 -3.9508588 1.0663803 -0.72170335 -0.96593904
-0.92552745 -0.76174897 -1.5683981 -0.3514148 0.5407934 -2.3223813 -1.9077258 -1.7312471
-0.3624092 -1.5978664 -1.5220287 -0.23140113 -0.837362 -0.03761281 -0.24175277 -1.3694142
-0.1080734 -0.9480108 -1.0153618 0.61718327 -1.2189142 -2.6229177 1.0419106 -1.6986277
00000000: 7edb 8cbf 0cd9 63c0 e616 31c0 5ce7 10bf
00000010: dfda 7cc0 267f 883f 8dc1 38bf c847 77bf
00000020: 5eef 6cbf fb01 43bf 45c1 c8bf a4ec b3be
00000030: 7071 0a3f e5a1 14c0 5c30 f4bf 8199 ddbf
00000040: b38d b9be e386 ccbf d6d1 c2bf 6bf4 6cbe
00000050: 5b5d 56bf e40f 1abd 0a8e 77be f748 afbf
00000060: 9655 ddbd d6b0 72bf 60f7 81bf b9ff 1d3f
00000070: 6105 9cbf e2dd 27c0 545d 853f a26c d9bf

blocks.2.bn.running_var f4 [32]
12.103793 9.509688 8.242782 5.0970883 8.541393 6.146696 11.201065 5.3210397
4.5152593 11.743398 5.5107074 6.5823946 4.1834216 12.738707 14.619161 6.235528
5.015027 9.639652 6.9350443 4.8179016 4.852177 5.276574 5.9507227 8.160247
4.191581 4.8982277 5.4307895 14.652621 10.05845 13.954713 14.910728 6.089549
00000000: 23a9 4141 af27 1841 6fe2 0341 591b a340
00000010: 8ca9 0841 bcb1 c440 9037 3341 f545 aa40
00000020: 017d 9040 f5e4 3b41 b757 b040 faa2 d240
00000030: 97de 8540 bed1 4b41 15e8 6941 7289 c740
00000040: 1a7b a040 043c 1a41 e2eb dd40 402c 9a40
00000050: 0945 9b40 b2d9 a840 526c be40 5f90 0241
00000060: 6e21 8640 48be 9c40 07c9 ad40 2371 6a41
00000070: 69ef 2041 8146 5f41 5892 6e41 96dd c240

blocks.3.conv.weight f4 [32, 32, 3, 3]
-0.18207835 -0.16445851 -0.15866502 -0.024089342 -0.50693494 -0.35825413 -0.12783709 -0.22864476
-0.13005902 -0.09644549 -0.008827321 -0.22643211 0.2008473 0.23511091 0.1325253 0.17268619
0.20572893 0.25982288 -0.06820667 -0.0024578634 0.017220365 0.078350894 0.14326489 -0.042169396
-0.19968335 -0.030574217 -0.007373302 -0.109300695 -0.043998785 0.051406167 0.051130626 -0.43324488
-0.21831779 0.05825358 0.051322218 -0.18931447 -0.18880284 -0.2276225 0.008277826 -0.26274264
0.101329185 -0.2734043 -0.06366553 0.0890393 -0.3440998 0.17175697 0.012588868 0.09742486
-0.32174048 0.09383354 0.0775331 0.108317785 0.056093868 0.101965636 0.33357793 -0.010064435
-0.083732545 0.2686539 0.10375063 0.030723894 0.17745633 -0.07881414 -0.047323268 -0.17448983
0.12692516 0.19477105 0.1749369 -0.060423523 8.861283e-06 0.2544773 -0.03824644 -0.2399725
-0.05562851 -0.030627543 0.19900627 0.18494943 0.082384564 0.3472274 -0.13065687 -0.064053915
-0.069640346 0.03479303 0.04818721 0.4327651 0.07749056 -0.02297582 0.16788937 -0.035860825
0.1567766 0.13646 -0.30308145 -0.07686565 0.15506555 0.27251276 -0.1710983 -0.09605368
-0.017836915 0.025006233 0.22675604 0.070746586 -0.08120741 0.008373495 -0.0014905507 -0.052363224
0.07297395 -0.48113003 -0.17034064 0.20903778 -0.19930476 -0.027808052 -0.025617942 0.04385343
0.055339687 0.08428253 0.11744245 -0.07237618 0.064516366 0.028987564 0.18555887 0.16285811
0.1046792 0.10759744 0.25427648 -0.09089578 -0.34127712 -0.23687555 -0.27292696 -0.14780664
-0.04654585 -0.30433962 -0.06774627 -0.078571185 -0.17258793 0.13304065 -0.49236327 -0.14050056
0.07055446 -0.10481626 -0.3754043 0.077230416 0.29187778 -0.18089508 -0.103685774 0.20741856
0.015931645 -0.14400569 0.02098253 -0.11570021 -0.05107148 0.17606114 0.32755384 0.06574524
-0.36318296 -0.016736522 0.24123047 0.1476386 -0.11034924 0.11072977 0.101600684 0.03399886
0.04002814 0.051058907 -0.1241779 -0.16931117 0.17074467 0.034862913 0.0030947793 -0.03791534
0.114018984 -0.09551837 0.17813247 -0.03931068 -0.129761 -0.11439086 0.39454904 -0.08745035
-0.09126447 0.13546078 -0.2533286 -0.2558049 -0.13357095 0.10452166 0.06717773 0.04890378
-0.3092047 0.081767716 0.25716624 0.030007722 -0.025797212 0.44053334 -0.120779835 0.09658135
0.06192221 0.19724719 0.1980833 -0.051983185 0.125691 0.011051849 0.054197922 0.04557343
-0.04187196 -0.06261794 0.06073089 -0.42089123 -0.17230022 0.012441681 -0.2517102 -0.09095124
0.024104686 0.28127483 -0.14370754 -0.48346806 -0.032361552 0.028024254 0.16836528 0.13680607
0.13749424 0.20319626 -0.08492316 -0.047410205 0.17911516 -0.45393875 0.058064796 -0.119027175
-0.12067522 0.13648961 0.016608575 -0.11893741 -0.082266055 -0.12220517 -0.03668226 0.023930335
0.16174595 -0.112183884 0.22985868 -0.32541305 -0.21730703 -0.046482317 -0.15639643 -0.017429082
0.32480514 0.0032716056 -0.20018469 -0.013334302 0.08330518 0.24811973 -0.0010837943 0.1325691
0.02836615 -0.009272771 -0.13559733 0.19645308 -0.065890595 0.14793296 -0.23253131 -0.22796163
00000000: bf72 3abe d067 28be 1579 22be 0357 c5bc
00000010: 7dc6 01bf 166d b7be bae7 02be da21 6abe
00000020: 312e 05be 3785 c5bd 78a0 10bc d2dd 67be
00000030: eaaa 4d3e eac0 703e b6b4 073e a6d4 303e
00000040: 9baa 523e 8107 853e f0af 8bbd 1b14 21bb
00000050: b911 8d3c 6f76 a03d 08b4 123e d1b9 2cbd
00000060: cb79 4cbe c876 fabc bd9b f1bb 0bd9 dfbd
00000070: 1238 34bd 468f 523d 596e 513d 46d2 ddbe
00000080: b38e 5fbe 4e9b 6e3d 3f37 523d a7db 41be
00000090: 8855 41be df15 69be b89f 073c 3486 86be
000000a0: ad85 cf3d a6fb 8bbe 1363 82bd 3d5a b63d
000000b0: d92d b0be 0fe1 2f3e 8a41 4e3c af86 c73d
000000c0: 2bbb a4be cd2b c03d adc9 9e3d b7d5 dd3d
000000d0: afc2 653d 5cd3 d03d baca aa3e 4de5 24bc
000000e0: f87b abbd 018d 893e 367b d43d adb0 fb3c
000000f0: 1db7 353e 4f69 a1bd 0bd6 41bd 76ad 32be
00000100: abf8 013e 1072 473e a922 333e a87e 77bd
00000110: ecaa 1437 d94a 823e 4da8 1cbd 5abb 75be
00000120: b8da 63bd 9de6 fabc 4dc8 4b3e 6263 3d3e
00000130: 3db9 a83d cac7 b13e eaca 05be b32e 83bd
00000140: 999f 8ebd 2383 0e3d f45f 453d 6393 dd3e
00000150: 5fb3 9e3d c937 bcbc 31eb 2b3e cde2 12bd
00000160: 0c8a 203e 2cbc 0b3e 7e2d 9bbe bd6b 9dbd
00000170: 81c9 1e3e cb86 8b3e 6534 2fbe cbb7 c4bd
00000180: b91e 92bc dfd9 cc3c bc32 683e 96e3 903d
00000190: 1250 a6bd fc30 093c 955e c3ba d27a 56bd
000001a0: 5e73 953d ad56 f6be c76d 2ebe 000e 563e
000001b0: 8c16 4cbe b6cd e3bc b8dc d1bc a79f 333d
000001c0: deab 623d 529c ac3d ab85 f03d f639 94bd
000001d0: 2821 843d 5477 ed3c 2503 3e3e 47c4 263e
000001e0: 0c62 d63d 0c5c dc3d 8730 823e 9127 babd
000001f0: e0bb aebe 818f 72be 15bd 8bbe a05a 17be
00000200: dca6 3ebd 67d2 9bbe 8ebe 8abd eee9 a0bd
00000210: e4ba 30be cf3b 083e 0a17 fcbe 61df 0fbe
00000220: db7e 903d e8a9 d6bd fe34 c0be fb2a 9e3d
00000230: 0171 953e 8f3c 39be 3559 d4bd 8865 543e
00000240: 1583 823c 3a76 13be 8ee3 ab3c 3bf4 ecbd
00000250: 5430 51bd 5f49 343e 23b5 a73e 71a5 863d
00000260: 1ef3 b9be 081b 89bc 1f05 773e 932e 173e
00000270: c8fe e1bd 4ac6 e23d 0514 d03d 6342 0b3d
00000280: 8cf4 233d 2523 513d fc50 febd e85f 2dbe
00000290: b1d7 2e3e 6acc 0e3d c8d1 4a3b 1e4d 1bbd
000002a0: c982 e93d 239f c3bd 5c68 363e 3c04 21bd
000002b0: 11e0 04be c145 eabd 5502 ca3e 2b19 b3bd
000002c0: dee8 babd 3bb6 0a3e 49b4 81be dcf8 82be
000002d0: d3c6 08be 740f d63d 7a94 893d 544f 483d
000002e0: 1450 9ebe d575 a73d 4bab 833e c1d2 f53c
000002f0: ad54 d3bc 968d e13e 6b5b f7bd 71cc c53d
00000300: 25a2 7d3d 2bfb 493e 59d6 4a3e 52ec 54bd
00000310: 24b5 003e d112 353c a4fe 5d3d 34ab 3a3d
00000320: ef81 2bbd d63d 80bd f4c0 783d 0e7f d7be
00000330: 786f 30be 31d8 4b3c 29e0 80be a544 babd
00000340: 3177 c53c 4103 903e 1228 13be 2089 f7be
00000350: 8c8d 04bd 1f93 e53c f367 2c3e e416 0c3e
00000360: 4acb 0c3e ae12 503e 32ec adbd 3431 42bd
00000370: f769 373e a96a e8be 5ad5 6d3d 85c4 f3bd
00000380: 9224 f7bd efc3 0b3e b50e 883c 7595 f3bd
00000390: 1b7b a8bd b446 fabd 2340 16bd 8d09 c43c
000003a0: bba0 253e aac0 e5bd 1360 6b3e 8a9c a6be
000003b0: bc85 5ebe 3e64 3ebd 6326 20be 6fc7 8ebc
000003c0: dc4c a63e 6f68 563b 37fd 4cbe 1e78 5abc
000003d0: e89b aa3d 1913 7e3e 1a0e 8eba 32c0 073e
000003e0: 2160 e83c d2ec 17bc 07da 0abe ff2a 493e
000003f0: a6f1 86bd bd7b 173e b01c 6ebe c66e 69be

blocks.3.conv.bias f4 [32]
-0.003726417 0.000324182 -0.0033419812 -0.008201188 -0.006333476 -9.4397044e-05 0.0015219728 -0.0005168663
-0.0019403509 -6.121136e-05 -0.00023296557 -0.00091123633 -0.00012442021 -0.0013146724 0.00033029466 -0.0012897619
-0.0020906192 0.0015504857 -0.008822825 0.0006481551 -0.0036057583 0.00066921115 0.00053815026 0.0002004695
-0.014105444 0.00021496252 -0.0034461303 -0.0029219002 -0.009480213 -0.004700577 0.008738238 0.00046857895
00000000: e736 74bb f9f6 a939 2405 5bbb 475e 06bc
00000010: 0c89 cfbb 07f7 c5b8 ef7c c73a 4f7e 07ba
00000020: 5f53 feba 995e 80b8 3848 74b9 09e0 6eba
00000030: cc76 02b9 1651 acba 662b ad39 3a0d a9ba
00000040: c502 09bb ab39 cb3a 9c8d 10bc f4e8 293a
00000050: 964e 6cbb 006e 2f3a a712 0d3a 1f35 5239
00000060: 851a 67bc 9067 6139 79d8 61bb 5a7d 3fbb
00000070: e552 1bbc 4c07 9abb d42a 0f3c 9aab f539

blocks.3.bn.weight f4 [32]
0.9644138 0.81941307 0.94783545 0.6298586 0.9206265 0.6555907 0.9568816 0.8534856
0.9906155 0.80395377 0.82061994 0.9695506 0.90037405 0.8839771 1.019789 1.1157225
1.1244303 0.9999194 0.8393916 0.85918176 0.9322658 1.1493597 0.85448146 1.0199354
1.111416 0.9569986 0.9641618 0.68102986 0.6983708 0.87809235 0.49658585 0.9798938
00000000: d3e3 763f 0ec5 513f 58a5 723f 6a3e 213f
00000010: 2eae 6b3f cbd4 273f 31f6 743f 087e 5a3f
00000020: fa98 7d3f eacf 4d3f 2614 523f 7834 783f
00000030: ea7e 663f 534c 623f 7288 823f ffcf 8e3f
00000040: 55ed 8f3f b8fa 7f3f 5ee2 563f 56f3 5b3f
00000050: f9a8 6e3f 381e 933f 4cbf 5a3f 3e8d 823f
00000060: e142 8e3f dcfd 743f 4fd3 763f f957 2e3f
00000070: 6ec8 323f a9ca 603f 8040 fe3e 52da 7a3f

blocks.3.bn.bias f4 [32]
-0.3684232 -0.401651 -0.3473029 -0.11127608 -0.52081156 -0.037869457 -0.7746984 -0.38490853
-0.50346196 -0.7157981 -0.36753678 -0.03984822 -0.54954654 -0.46216798 -0.6410684 -0.36545777
-0.55323035 -0.7542971 -0.38816434 -0.38498786 -0.4928625 -0.6731891 -0.68763214 -0.5894426
-0.553125 -0.6176291 -0.5365626 -0.2859323 -0.09784791 -0.35909063 0.24261965 -0.4929094
00000000: f7a1 bcbe 33a5 cdbe b0d1 b1be b7e4 e3bd
00000010: e853 05bf 011d 1bbd a252 46bf bb12 c5be
00000020: e2e2 00bf 8b3e 37bf c82d bcbe e337 23bd
00000030: 15af 0cbf 48a1 ecbe 0f1d 24bf 481d bbbe
00000040: 81a0 0dbf 9d19 41bf 7abd c6be 211d c5be
00000050: 7958 fcbe 1f56 2cbf a908 30bf b6e5 16bf
00000060: 9a99 0dbf f11c 1ebf 2b5c 09bf b865 92be
00000070: 7c64 c8bd bada b7be 4971 783e 9f5e fcbe

blocks.3.bn.running_mean f4 [32]
-2.3875778 -0.22367397 -2.8003643 -1.3371208 -0.650421 0.04104621 -0.9684302 -0.8768806
1.179092 -1.4945983 1.4091704 -0.2553809 1.6733354 -1.202717 -1.9458619 -0.81779283
-2.6440783 -1.1425803 -2.0249593 -0.6396696 -2.0233798 0.502411 1.0244957 -3.9888964
0.96071 1.0521297 -1.2200648 -0.41849697 3.3332763 -4.0121055 -1.7265979 -1.9994404
00000000: 13ce 18c0 ca0a 65be 2b39 33c0 c626 abbf
00000010: fe81 26bf 1220 283d 0beb 77bf 3f7b 60bf
00000020: 7dec 963f ff4e bfbf b25f b43f 49c1 82be
00000030: db2f d63f a1f2 99bf 0112 f9bf df5a 51bf
00000040: 9438 29c0 1240 92bf ef98 01c0 63c1 23bf
00000050: 0e7f 01c0 029e 003f ad22 833f 144a 7fc0
00000060: 17f1 753f 30ac 863f 152b 9cbf 3c45 d6be
00000070: 6654 5540 2b63 80c0 2901 ddbf aaed ffbf

blocks.3.bn.running_var f4 [32]
5.5492373 6.7600846 15.8304205 5.7850757 8.682864 12.308689 6.476057 6.26207
6.34635 5.9744577 12.360892 3.4548097 5.2548637 5.454761 8.247679 9.8209915
6.015476 6.2365394 4.9653435 8.928461 7.66837 3.440076 6.7268105 7.080189
5.7384825 5.253683 10.469306 8.040177 8.417935 11.242507 7.0895314 5.4213667
00000000: 5a93 b140 9d52 d840 6749 7d41 571f b940
00000010: 03ed 0a41 64f0 4441 dc3b cf40 e162 c840
00000020: 4d15 cb40 c22e bf40 37c6 4541 9a1b 5d40
00000030: d827 a840 678d ae40 7ef6 0341 c822 1d41
00000040: c87e c040 bb91 c740 18e4 9e40 fada 0e41
00000050: 4963 f540 352a 5c40 0842 d740 e990 e240
00000060: a6a1 b740 2c1e a840 4782 2741 91a4 0041
00000070: ddaf 0641 4fe1 3341 71dd e240 d67b ad40
