models/180.pth (torch, 501905 bytes, 80 tensors)

conv0.conv.weight f4 [32, 17, 3, 3]
-0.1937851 0.29585624 0.04943857 0.3667468 -0.43412516 0.52888876 -0.038972594 0.37534294
0.17894848 0.020923827 0.028297385 -0.0022345893 0.042258665 -0.19999988 0.10460975 0.15396
0.21731009 -0.06630645 0.0312519 0.061175074 -0.021260798 -0.14207654 -0.12880094 0.07076235
0.02518739 -0.00803746 0.041675426 -0.0028429467 0.08881188 0.038684394 -0.039275467 -0.14652577
0.07454499 0.12554309 -0.036227137 0.028658485 0.27770314 0.24719591 0.15467659 0.21912019
-0.53173596 0.4256749 0.29263863 0.42518854 0.278025 0.18940991 0.15705861 0.121881224
0.32275322 -0.08461712 0.06453126 0.16500606 0.08388002 0.16796885 0.24184316 0.25229537
0.1885271 0.24158159 -0.116783015 0.23295122 0.346977 0.2531414 0.1434906 0.004211708
0.3248243 0.09314803 0.14563647 -0.06878455 0.30134472 0.28498587 0.22911702 0.26553762
0.039302208 0.12223193 -0.052236073 0.072663635 0.37821144 0.04600837 -0.013743486 0.035537217
-0.016307395 0.008708399 0.10093351 0.066147655 0.025197929 0.5098734 0.022050967 -0.043952614
0.10452228 0.08575196 -0.023339199 0.08076471 -0.11100942 0.101371035 0.48441526 0.035676815
-0.07043242 0.06365942 -0.011893389 -0.019597163 0.14486176 0.009022799 0.097807474 0.37168357
0.058717728 -0.16993164 0.0695115 0.037699454 0.03769004 -0.15635045 0.116461925 -0.20994337
-0.20901321 0.020786244 0.08685959 -0.2441 0.07231567 -0.06768486 0.003026419 -0.09355069
0.038958725 0.24063782 -0.15017588 0.08404808 0.11502313 0.087944165 0.23211364 0.01274612
0.078824386 0.11134855 0.17546487 -0.058683623 -0.061243027 -0.23016775 -0.06585623 -0.147958
0.019027263 -0.06283245 -0.039581224 0.027605562 0.10977963 0.037803527 0.0073928214 0.20977592
-0.034811776 0.010005549 0.024499916 0.13758914 0.055856947 0.12340288 0.050639182 0.069143996
0.0352816 -0.0682925 0.0018778802 0.009770562 -0.32913473 -0.56610125 0.24246503 0.047312047
0.094328165 -0.021374151 -0.1997622 0.30089894 -0.17906867 -0.15014593 0.17500685 -0.43002775
0.14862092 -0.05714005 -0.32221842 0.049963996 0.24706367 -0.282745 -0.11509172 0.15910003
-0.46468055 0.090773456 -0.23968948 0.068676785 -0.21012813 0.19652082 -0.11171606 0.027163483
0.10427577 -0.51082695 0.13503638 -0.26434213 -0.016826015 -0.08718207 -0.2724059 0.06922369
-0.034396008 -0.48678106 -0.33576375 0.2293771 -0.3111539 -0.25841144 -0.20869336 -0.4479021
-0.09299666 -0.15668043 -0.11162542 -0.28112662 -0.5792174 -0.15027244 -0.40645266 -0.37726662
-0.54767317 -0.54527265 -0.42324993 -0.12790522 -0.24616608 0.119949155 -0.3084205 -0.6898656
-0.29448748 -0.11935843 -0.3259482 -0.28481913 -0.064415716 -0.2953258 -0.2527873 -0.23712038
-0.4614127 -0.08798447 0.12505965 0.19777068 0.056613464 -0.5084593 0.19629772 -0.24890107
-0.061886087 0.0071326904 -0.1394452 0.07829755 0.24928351 -0.041452397 0.055193048 0.17402367
-0.029489968 0.18008101 0.055720516 0.11903552 0.13986164 0.08218242 0.18137354 0.123241015
0.046775177 0.084585294 -0.026562909 0.022859184 -0.04220702 0.057519738 0.22298665 -0.0694906
00000000: 9a6f 46be 787a 973e 1980 4a3d 3dc6 bb3e
00000010: a745 debe 4165 073f baa1 1fbd f32c c03e
00000020: 453e 373e 7268 ab3c ebcf e73c 3072 12bb
00000030: 6c17 2d3d c5cc 4cbe a33d d63d b1a7 1d3e
00000040: 8986 5e3e adcb 87bd fe01 003d b792 7a3d
00000050: 202b aebc 837c 11be 65e4 03be daeb 903d
00000060: c955 ce3c 8daf 03bc dab3 2a3d bb50 3abb
00000070: 01e3 b53d 8773 1e3d 50df 20bd da0a 16be
00000080: 0bab 983d 5e8e 003e e862 14bd 33c5 ea3c
00000090: 1b2f 8e3e ed20 7d3e 8a63 1e3e 0b61 603e
000000a0: d91f 08bf 0ff2 d93e bbd4 953e 50b2 d93e
000000b0: 4b59 8e3e acf4 413e f9d3 203e dd9c f93d
000000c0: e93f a53e be4b adbd f728 843d 59f7 283e
000000d0: 4ac9 ab3d 0700 2c3e bca5 773e dc2c 813e
000000e0: 400d 413e 2a61 773e ef2b efbd c48a 6e3e
000000f0: f8a6 b13e c09b 813e 33ef 123e 5e02 8a3b
00000100: 5f4f a63e 65c4 be3d ba21 153e eade 8cbd
00000110: db49 9a3e abe9 913e a79d 6a3e 8cf4 873e
00000120: 5afb 203d bc54 fa3d 7ef5 55bd acd0 943d
00000130: eea4 c13e 4673 3c3d 5c2c 61bc 798f 113d
00000140: 1697 85bc acad 0e3c 3ab6 ce3d 6c78 873d
00000150: e36b ce3c 1087 023f 3ba4 b43c a807 34bd
00000160: c70f d63d b99e af3d d931 bfbc f867 a53d
00000170: e858 e3bd 9e9b cf3d 4705 f83e da21 123d
00000180: df3e 90bd df5f 823d 7ddc 42bc 3b8a a0bc
00000190: a456 143e 5dd4 133c 494f c83d 4f4d be3e
000001a0: 0082 703d 8f02 2ebe 0c5c 8e3d be6a 1a3d
000001b0: df60 1a3d 551a 20be 9783 ee3d 65fb 56be
000001c0: 8f07 56be ea47 aa3c 71e3 b13d 5af5 79be
000001d0: 3d1a 943d 5c9e 8abd e356 463b 8197 bfbd
000001e0: 2f93 1f3d c369 763e b5c7 19be 6621 ac3d
000001f0: 3f91 eb3d 121c b43d 33af 6d3e 1ad5 503c
00000200: ae6e a13d b50a e43d 10ad 333e 3d5e 70bd
00000210: f8d9 7abd 18b1 6bbe a2df 86bd 4d82 17be
00000220: 10df 9b3c 4dae 80bd ec1f 22bd 0f25 e23c
00000230: 25d4 e03d dfd7 1a3d 7b3f f23b 80cf 563e
00000240: cb96 0ebd 50ee 233c 0cb4 c83c 2be4 0c3e
00000250: 41ca 643d a6ba fc3d 086b 4f3d 5e9b 8d3d
00000260: 7083 103d f0dc 8bbd 3423 f63a b514 203c
00000270: 5984 a8be 03ec 10bf c148 783e 47ca 413d
00000280: 202f c13d d818 afbc 768e 4cbe 6d0f 9a3e
00000290: c75d 37be dbbf 19be ff34 333e 992c dcbe
000002a0: 1530 183e af0b 6abd d0f9 a4be 0ca7 4c3d
000002b0: 42fe 7c3e f4c3 90be 35b5 ebbd 1eeb 223e
000002c0: 9cea edbe 6fe7 b93d 2971 75be 6aa6 8c3d
000002d0: d42b 57be c13c 493e 64cb e4bd f485 de3c
000002e0: 898e d53d 8ec5 02bf fa46 0a3e da57 87be
000002f0: b6d6 89bc 838c b2bd c978 8bbe 26c5 8d3d
00000300: d4e2 0cbd 5e3b f9be 3ae9 abbe d5e1 6a3e
00000310: 904f 9fbe 814e 84be b6b3 55be 6d53 e5be
00000320: 0875 bebd d670 20be de9b e4bd d4ef 8fbe
00000330: 9747 14bf 05e1 19be 901a d0be 1729 c1be
00000340: 4f34 0cbf fd96 0bbf 37b4 d8be 96f9 02be
00000350: f612 7cbe e7a7 f53d 4be9 9dbe 089b 30bf
00000360: 10c7 96be 3172 f4bd afe2 a6be d0d3 91be
00000370: 63ec 83bd f134 97be 566d 81be afcf 72be
00000380: 493e ecbe 3431 b4bd a30f 003e 6684 4a3e
00000390: 85e3 673d 642a 02bf 4502 493e ecdf 7ebe
000003a0: 447c 7dbd 58b9 e93b b9ca 0ebe 775a a03d
000003b0: 2d44 7f3e fdc9 29bd 1b12 623d 4333 323e
000003c0: f294 f1bc 2867 383e 323b 643d e5c8 f33d
000003d0: e437 0f3e 424f a83d fcb9 393e c965 fc3d
000003e0: 5497 3f3d 0e3b ad3d 759a d9bc 2f43 bb3c
000003f0: 45e1 2cbd d199 6b3d 9d56 643e 1651 8ebd

conv0.conv.bias f4 [32]
0.0001595616 -0.00323736 -0.0075998944 -0.0010926728 -0.002262059 0.014527513 0.01882061 -0.00089013897
0.017707868 -0.0033791624 -0.008811338 0.021280456 -0.07333248 -0.0017876143 0.0020967366 0.016276129
-0.0009200826 0.045304537 0.0022888423 -0.0017686575 0.0003971478 0.0154131055 0.00092164095 0.0034158535
0.012195006 -0.0004208418 0.0006188696 0.055198915 0.02112335 0.0022386955 -0.0028555417 -0.0026281683
00000000: fe4f 2739 e329 54bb 8908 f9bb 0438 8fba
00000010: 0d3f 14bb ce04 6e3c ae2d 9a3c 3758 69ba
00000020: 1710 913c f074 5dbb 6e5d 10bc 5a54 ae3c
00000030: 572f 96bd 624e eaba 6769 093b 8455 853c
00000040: b331 71ba 4091 393d 6700 163b 4cd2 e7ba
00000050: 4738 d039 4087 7c3c 479a 713a 83dc 5f3b
00000060: 90cd 473c 6ea4 dcb9 a33b 223a 4218 623d
00000070: e00a ad3c 14b7 123b 0a24 3bbb 593d 2cbb

conv0.bn.weight f4 [32]
0.86097914 0.636383 0.68401057 0.79775906 0.72686374 0.63944554 0.67210764 0.75073797
0.9135178 0.85264206 0.69914544 0.6294076 0.7314417 0.9244882 0.71385235 0.9068248
0.73381484 1.313773 0.82532334 0.6882153 0.7400508 0.8873698 0.772653 0.6714505
0.8711436 0.77314454 0.78875977 0.7390228 0.94693536 0.6613677 0.7217374 0.646234
00000000: 2169 5c3f ffe9 223f 511b 2f3f f039 4c3f
00000010: be13 3a3f b4b2 233f 3f0f 2c3f 5d30 403f
00000020: 4ddc 693f c046 5a3f 32fb 323f db20 213f
00000030: c33f 3b3f 42ab 6c3f 07bf 363f ac25 683f
00000040: 4adb 3b3f b729 a83f 6448 533f e12e 303f
00000050: f873 3d3f ab2a 633f 96cc 453f 2ee4 2b3f
00000060: 4403 5f3f cdec 453f 29ec 493f 9930 3d3f
00000070: 5b6a 723f 654f 293f c8c3 383f 976f 253f

conv0.bn.bias f4 [32]
-0.60291135 -0.12001026 -0.20153064 -0.43545306 -0.23479088 -0.08753991 -0.035159416 -0.35266647
-0.23409352 -0.39075956 -0.229059 0.14919104 -0.16444327 -0.3277104 -0.26612914 -0.13066852
-0.03277086 -0.16228443 -0.25329918 -0.2804789 -0.17395076 -0.00055239943 -0.36786312 -0.2912264
-0.20760398 -0.35625046 -0.34676474 -0.15776007 -0.13824536 0.5299775 -0.21793588 -0.07873524
00000000: 6658 1abf f0c7 f5bd 0c5e 4ebe b4f3 debe
00000010: 056d 70be 2048 b3bd 5203 10bd b390 b4be
00000020: 36b6 6fbe a311 c8be 718e 6abe 89c5 183e
00000030: d163 28be a8c9 a7be 1442 88be f8cd 05be
00000040: bd3a 06bd e42d 26be 6eb0 81be ee9a 8fbe
00000050: 2620 32be e6ce 10ba 8e58 bcbe a01b 95be
00000060: 2396 54be 7666 b6be 268b b1be db8b 21be
00000070: 3190 0dbe 9bac 073f 952a 5fbe f13f a1bd

conv0.bn.running_mean f4 [32]
0.28968015 0.019884128 -0.16798316 -0.12336338 -0.08552331 -0.035865005 -0.2396984 0.29809374
-0.19170609 -0.15418151 -0.063349046 0.0042214626 -0.14771897 -0.023998572 0.06444603 0.26479986
0.1528331 -0.12975772 -0.21301313 -0.050134636 0.01718415 -0.037563752 -0.122209445 0.06959941
-0.078419566 -0.084010355 -0.11834142 -0.0012575656 0.28241548 0.13653196 -0.08619835 0.24485832
00000000: f550 943e 0ae4 a23c c703 2cbe f1a5 fcbd
00000010: d826 afbd 2fe7 12bd 7f73 75be be9f 983e
00000020: 9a4e 44be c2e1 1dbe 25bd 81bd 3254 8a3b
00000030: a443 17be a798 c4bc 48fc 833d d993 873e
00000040: 4880 1c3e 35df 04be 1d20 5abe fa59 4dbd
00000050: c6c5 8c3c 73dc 19bd f248 fabd 238a 8e3d
00000060: 709a a0bd 9f0d acbd fd5c f2bd e6d4 a4ba
00000070: c398 903e 09cf 0b3e c388 b0bd 24bc 7a3e

conv0.bn.running_var f4 [32]
0.109760314 0.1391173 0.16087982 0.11720789 0.16367519 0.1363333 0.23246719 0.109894976
0.18018425 0.14617345 0.116142854 0.14912651 0.12547906 0.08414416 0.11904053 0.11429704
0.09849539 0.14596538 0.16277921 0.11032095 0.22507773 0.1333356 0.108666375 0.11344144
0.10475372 0.13116443 0.1254278 0.09727431 0.14228857 0.09764393 0.11895394 0.13256127
00000000: 04ca e03d c474 0e3e aebd 243e b10a f03d
00000010: 789a 273e f59a 0b3e e10b 6e3e 9e10 e13d
00000020: 3882 383e 7eae 153e 4edc ed3d 9fb4 183e
00000030: 957d 003e c653 ac3d 85cb f33d 9114 ea3d
00000040: f3b7 c93d f377 153e 98af 263e f3ef e13d
00000050: c77a 663e 2189 083e 7a8c de3d fc53 e83d
00000060: 1e89 d63d f84f 063e 2570 003e c137 c73d
00000070: 18b4 113e 8af9 c73d 209e f33d 24be 073e

blocks.0.conv.weight f4 [32, 32, 3, 3]
0.16711542 -0.17301287 0.11215321 -0.30879998 0.12609622 -0.10418812 0.2702632 -0.05472687
0.09391052 0.045520946 -0.04978147 -0.31311572 -0.1768103 -0.02523938 0.145178 0.022517892
0.00960112 -0.060412202 0.14812072 -0.12166921 0.0712766 0.06562112 -0.2798566 0.025889572
0.05469419 0.03943392 0.10896393 0.011129649 0.051167082 0.10811677 -0.07726215 0.0997758
0.022870457 -0.03746576 -0.3015468 0.23392938 -0.042169362 0.22025886 -0.15831852 -0.011265341
0.037855644 -0.029274484 -0.18253641 0.08943976 -0.16986427 0.043229654 -0.22429906 0.115567975
-0.11972396 -0.09999031 0.18123585 0.12320144 0.1878217 0.15135998 0.06357633 -0.13684456
-0.016554652 -0.1212109 0.06434425 -0.32303157 -0.0063531166 0.030661577 -0.21042138 0.18135044
0.19479768 0.2977429 -0.008361789 0.22106066 0.116255455 0.14944465 0.122475356 0.12432656
0.04428995 -0.6437113 0.006609914 -0.15877359 0.1840122 0.044983767 -0.094488725 0.25240883
0.11256669 -0.091630064 -0.07563387 0.00551097 -0.0035090512 0.46424627 0.1004782 0.089095496
-0.1041177 0.11266097 -0.022248032 -0.048618026 -0.06066536 -0.02912891 0.14819476 -0.14644492
0.063115105 0.04706687 0.16482536 0.0136993425 0.10327408 0.18725629 -0.24370264 0.058435902
0.04485289 0.15851074 -0.17269163 -0.019064996 -0.48552936 0.0026334338 0.10256457 0.22406425
0.06942504 0.05940411 0.06642228 0.31045577 -0.034333043 -0.06742145 -0.049397673 -0.34487838
0.18586196 -0.4545445 -0.335654 0.03401428 -0.052338645 0.20314018 -0.18282183 0.08904344
-0.34274986 0.0051563075 -0.06951645 -0.13179328 0.08538859 -0.09559256 -0.051706146 0.17349774
0.14447042 0.015532525 0.1125913 0.019135099 0.09527598 -0.020334447 0.1327932 0.14775446
-0.005051124 0.06265253 -0.019314853 0.12100123 -0.11047406 0.09826691 0.11540189 0.2254557
0.15705965 -0.114735216 0.21012822 0.06439289 0.14760923 -1.4016004 0.17964245 0.18270326
0.078190796 0.16095982 -0.08084819 -0.33086583 0.28859732 0.28463456 -0.379718 0.05169642
-0.5240336 0.20287664 0.036188357 0.09628826 -0.17430998 -0.09159241 -0.11544728 -0.012484619
-0.043870725 -0.11041977 0.02540478 -0.07264052 0.005253054 -0.088124484 -0.039617334 0.07126872
-0.3255375 -0.17608747 0.06332804 -0.105054945 -0.18317302 0.0728122 0.06507407 0.040552005
0.10199085 -0.20994513 0.18002291 0.1464916 0.233665 0.05993916 -0.04225467 -0.16099241
0.08326389 -0.23216526 0.39053753 0.20642461 0.014474559 -0.3571735 0.05660762 0.004818089
0.11585758 0.23404202 0.06705469 -0.08578982 0.21291164 -0.118088655 0.075648926 0.33531034
0.22538032 0.06542285 0.1006706 -0.007940351 -0.11976268 -0.0279954 0.02148403 0.24002554
0.15278396 0.15431444 0.02915549 -0.08038851 0.13991237 0.09705186 -0.230163 -0.28949648
-0.02313308 0.03673036 0.072286025 0.04185485 0.069115594 -0.12314238 -0.22714165 0.041025378
-0.03738783 0.2675103 -0.098410234 0.20077597 -0.14105381 -0.050355375 0.122886054 -0.04675979
-0.12002535 0.07680196 0.14155023 0.12493519 0.16049127 -0.2288042 0.087614745 -0.12943487
00000000: 4e20 2b3e 492a 31be 95b0 e53d 081b 9ebe
00000010: 5e1f 013e 9560 d5bd f05f 8a3e 4829 60bd
00000020: 2954 c03d 2c74 3a3d a8e7 4bbd b450 a0be
00000030: c20d 35be d1c2 cebc 8ba9 143e 7177 b83c
00000040: 044e 1d3c c972 77bd f5ac 173e b52d f9bd
00000050: 77f9 913d 5e64 863d 5d49 8fbe 5e16 d43c
00000060: 0407 603d 7685 213d 7b28 df3d 2259 363c
00000070: 9394 513d 536c dd3d 9e3b 9ebd 4157 cc3d
00000080: d35a bb3c b275 19bd 5864 9abe 2f8b 6f3e
00000090: c8b9 2cbd 8a8b 613e 401e 22be 4492 38bc
000000a0: 850e 1b3d 0bd1 efbc d3ea 3abe 312c b73d
000000b0: e6f0 2dbe 9411 313d a7ae 65be e7ae ec3d
000000c0: d631 f5bd b8c7 ccbd e495 393e 0951 fc3d
000000d0: 5554 403e 1cfe 1a3e 4f34 823d fb20 0cbe
000000e0: 9f9d 87bc 6c3d f8bd ebc6 833d 6564 a5be
000000f0: ce2d d0bb fd2d fb3c b478 57be eeb3 393e
00000100: 0b79 473e c271 983e e3ff 08bc ba5d 623e
00000110: 5717 ee3d 0508 193e 5cd4 fa3d ec9e fe3d
00000120: 6169 353d 44ca 24bf fa97 d83b 8b95 22be
00000130: b26d 3c3e e640 383d 4e83 c1bd bb3b 813e
00000140: 5d89 e63d 8ba8 bbbd eee5 9abd 5e95 b43b
00000150: 1cf8 65bb b0b1 ed3e 84c7 cd3d b377 b63d
00000160: a93b d5bd cbba e63d 8141 b6bc b223 47bd
00000170: 3e7c 78bd c09f eebc 5ec0 173e a8f5 15be
00000180: 7e42 813d 31c9 403d fbc7 283e 3573 603c
00000190: 5c81 d33d 1dc0 3f3e 2f8d 79be 7c5a 6f3d
000001a0: aab7 373d a450 223e 13d6 30be 322e 9cbc
000001b0: 4e97 f8be b095 2c3b 600d d23d 1971 653e
000001c0: b72e 8e3d b951 733d 6808 883d 0ff4 9e3e
000001d0: cea0 0cbd 4214 8abd 3755 4abd e693 b0be
000001e0: 9952 3e3e 0fba e8be d7da abbe 8f52 0b3d
000001f0: 0c61 56bd fb03 503e a535 3bbe 685c b63d
00000200: e97c afbe 3ef6 a83b a45e 8ebd d1f4 06be
00000210: 37e0 ae3d 08c6 c3bd d3c9 53bd 64a9 313e
00000220: 0ef0 133e 227c 7e3c 4496 e63d 36c1 9c3c
00000230: 0e20 c33d 6d94 a6bc f1fa 073e f24c 173e
00000240: e683 a5bb f84f 803d 2f3a 9ebc 7ecf f73d
00000250: 3940 e2bd 2940 c93d d357 ec3d dcdd 663e
00000260: 3fd4 203e 4cfa eabd da2b 573e 6be0 833d
00000270: e026 173e a467 b3bf 31f4 373e 9016 3b3e
00000280: 7f22 a03d a7d2 243e bc93 a5bd 3f67 a9be
00000290: 07c3 933e 9fbb 913e 666a c2be a0bf 533d
000002a0: 1127 06bf e5be 4f3e 3e3a 143d c732 c53d
000002b0: 517e 32be cd94 bbbd a06f ecbd 4a8c 4cbc
000002c0: cab1 33bd c323 e2bd af1d d03c 8ec4 94bd
000002d0: d021 ac3b 9c7a b4bd c945 22bd 56f5 913d
000002e0: daac a6be 4650 34be 22b2 813d 0c27 d7bd
000002f0: b591 3bbe 901e 953d 8e45 853d dc19 263d
00000300: 94e0 d03d dbfb 56be ed57 383e e501 163e
00000310: e145 6f3e c482 753d 3c13 2dbd 32db 24be
00000320: 4286 aa3d bbbc 6dbe 89f4 c73e f960 533e
00000330: b326 6d3c 72df b6be 64dd 673d 0fe1 9d3b
00000340: bd46 ed3d b6a8 6f3e f853 893d 93b2 afbd
00000350: 8205 5a3e 77d8 f1bd d3ed 9a3d ccad ab3e
00000360: 19ca 663e 6afc 853d 632c ce3d 3f18 02bc
00000370: 2346 f5bd 9c56 e5bc 47ff af3c 41c9 753e
00000380: 6673 1c3e 9b04 1e3e 7fd7 ee3c bba2 a4bd
00000390: 3045 0f3e 20c3 c63d d9af 6bbe e238 94be
000003a0: 9681 bdbc 9372 163d b20a 943d fe6f 2b3d
000003b0: 7a8c 8d3d 1232 fcbd d297 68be 3a0a 283d
000003c0: fb23 19bd 1cf7 883e 4e8b c9bd 3798 4d3e
000003d0: 6970 10be 7041 4ebd afab fb3d 3287 3fbd
000003e0: dacf f5bd 594a 9d3d 8bf2 103e 05de ff3d
000003f0: d357 243e a64b 6abe 5c6f b33d 938a 04be

blocks.0.conv.bias f4 [32]
-0.00044094905 -0.0008953325 0.00059315894 -0.005294064 0.0076899678 0.003772532 -0.007949031 -0.020559115
-0.00027933044 -0.0069204406 0.0073966784 0.00014536834 -0.0055854414 0.0009398239 -0.00016978121 0.00040775974
0.0015978676 -0.005855578 0.0010464671 -0.0012515609 0.00023462706 0.035147145 -0.0006713974 0.00082231004
-0.017063824 7.431586e-06 -0.0032371986 -0.013394646 -0.0003060053 0.0006550981 -0.008734158 0.009431424
00000000: 2e2f e7b9 bfb4 6aba 397e 1b3a d479 adbb
00000010: 20fc fb3b 963c 773b a73c 02bc 976b a8bc
00000020: 1973 92b9 ddc4 e2bb d65f f23b 046e 1839
00000030: 1406 b7bb 845e 763a 4c07 32b9 96c8 d539
00000040: 8a6f d13a 26e0 bfbb 9c29 893a 6a0b a4ba
00000050: 3906 7639 74f6 0f3d b800 30ba 4b90 573a
00000060: 6fc9 8bbc d65c f936 2e27 54bb 3875 5bbc
00000070: 566f a0b9 e4ba 2b3a b719 0fbc 4286 1a3c

blocks.0.bn.weight f4 [32]
0.8339604 0.8694052 0.82009953 1.0203856 1.0775926 0.7522434 0.77402943 0.7962582
0.8932346 1.0706993 0.876169 0.9818433 0.9263301 0.82396775 0.84844923 0.7756867
1.1203092 1.0095254 0.84598154 0.9065353 0.9312698 0.72475195 1.020768 0.92333484
0.8732051 0.9190504 1.0969005 1.1856138 0.7153532 0.67036563 0.6442601 1.0043783
00000000: 6e7e 553f 5791 5e3f 0bf2 513f ff9b 823f
00000010: 8eee 893f 0693 403f cb26 463f 94d7 4b3f
00000020: 06ab 643f ad0c 893f 9d4c 603f 155a 7b3f
00000030: f823 6d3f 8def 523f f833 593f 6793 463f
00000040: 4b66 8f3f 2138 813f 3f92 583f b312 683f
00000050: b367 6e3f 5889 393f 87a8 823f ac5f 6c3f
00000060: 5f8a 5f3f e346 6b3f 3c67 8c3f 31c2 973f
00000070: 6321 373f 159d 2b3f 3bee 243f 788f 803f

blocks.0.bn.bias f4 [32]
-0.5344183 -0.42937273 0.032533288 -0.14211865 -0.42386582 -0.21821791 -0.18129256 -0.33620244
-0.3532859 -0.35790238 -0.48746923 -0.4638538 -0.5041136 -0.49255756 -0.20026748 -0.5715703
-0.46887353 -0.29307044 -0.2980178 -0.5379424 -0.3578229 -0.27266154 -0.7525683 -0.2673871
-0.072465755 -0.47024176 -0.40496907 -0.5751664 -0.5914774 -0.28444657 -0.03304343 -0.72975165
00000000: a3cf 08bf bed6 dbbe a041 053d 8d87 11be
00000010: f104 d9be 8474 5fbe c2a4 39be ba22 acbe
00000020: e4e1 b4be fb3e b7be 9195 f9be 3f7e edbe
00000030: 970d 01bf 8130 fcbe eb12 4dbe 6e52 12bf
00000040: 3110 f0be 540d 96be ca95 98be 98b6 09bf
00000050: 9034 b7be 4b9a 8bbe 51a8 40bf f6e6 88be
00000060: ed68 94bd 87c3 f0be 1b58 cfbe 1b3e 13bf
00000070: 106b 17bf fba2 91be 8c58 07bd 01d1 3abf

blocks.0.bn.running_mean f4 [32]
0.53688323 -2.881849 2.406559 -0.070337676 -0.9297059 -2.8339405 -2.286413 -1.552852
0.28957635 -1.3782362 -1.610347 -1.258399 -1.7272197 1.7297705 1.0409932 -0.44945714
-0.21330795 -1.5322211 1.2500935 -0.4621956 -0.2250518 -1.3364153 -1.3824272 0.9652579
-1.6601428 -1.0866704 -0.19237867 -1.1305035 -2.681818 -0.053885415 0.13939841 -2.765088
00000000: 2e71 093f 3770 38c0 1005 1a40 330d 90bd
00000010: 3501 6ebf 485f 35c0 9754 12c0 dbc3 c6bf
00000020: 5a43 943e 0b6a b0bf da1f cebf 3813 a1bf
00000030: 8915 ddbf 1f69 dd3f 443f 853f 3f1f e6be
00000040: 666d 5abe d21f c4bf 1003 a03f e7a4 ecbe
00000050: fb73 66be a80f abbf 60f3 b0bf 241b 773f
00000060: 8f7f d4bf 0418 8bbf eafe 44be 57b4 90bf
00000070: e8a2 2bc0 f4b6 5cbd 75be 0e3e 34f7 30c0

blocks.0.bn.running_var f4 [32]
2.0421305 2.9546313 5.2559814 2.1375182 5.463488 5.272824 6.722062 2.5188272
2.155248 1.8729823 2.3011434 2.6107178 2.714379 2.779401 3.926338 2.0544825
2.3872435 4.9389715 2.2399898 2.2047408 1.9564887 3.6409795 2.5096548 2.6267006
6.5745554 2.5633967 2.0504684 3.8890111 4.215818 2.1743934 2.631831 3.3434424
00000000: 44b2 0240 ae18 3d40 0031 a840 19cd 0840
00000010: e5d4 ae40 f9ba a840 221b d740 7734 2140
00000020: 95ef 0940 e2bd ef3f ef45 1340 0016 2740
00000030: 63b8 2d40 b5e1 3140 1f49 7b40 a47c 0340
00000040: 99c8 1840 0e0c 9e40 fe5b 0f40 791a 0d40
00000050: 396e fa3f cf05 6940 2f9e 2040 dd1b 2840
00000060: c262 d240 b10e 2440 e03a 0340 8fe5 7840
00000070: fbe7 8640 4329 0b40 eb6f 2840 f6fa 5540

blocks.1.conv.weight f4 [32, 32, 3, 3]
0.05161926 0.120358475 0.07843449 -0.41556063 0.18417728 -0.07924158 0.1122127 -0.34182188
0.09249255 -0.024207061 0.065562166 -0.2626714 -0.23459613 -0.013820599 -0.019503372 -0.12720886
0.09656655 -0.012458006 -0.04695755 -0.32786298 0.091246225 -0.30352703 -0.7703668 -0.19289698
-0.030349365 0.20653822 0.13570954 0.33019492 -0.047372457 -0.07944043 -0.25110865 0.14304806
-0.16785654 -0.23612125 -0.58155227 -0.2420937 0.07353122 0.17258114 -0.122954935 0.13224757
0.0072651105 0.061505582 0.072911635 -0.1542361 0.05104481 -0.11544187 -0.114336096 0.23753715
0.08173079 0.017717592 0.11004936 0.09710568 0.07217671 0.19461519 -0.1342047 0.15363052
-0.073293 -0.13500169 0.039817307 -0.18969697 -0.053261448 0.14203767 -0.008920521 0.09361843
-0.59932154 0.03201924 -0.072124004 0.10168177 -0.38267902 0.10379844 -0.029207312 0.036465
0.1178622 -0.19775306 -0.077434495 -0.15583889 0.10958624 0.033150587 -0.13929662 -0.1848519
0.30862263 -0.030858833 -0.22134636 -0.181323 0.30198112 -0.021204833 -0.3914052 0.16740392
-0.33954993 -0.131497 0.062699266 -0.31064078 -0.07999283 -0.01740079 -0.015870674 0.13352813
0.0915941 0.01895757 0.0793566 0.03698476 0.085332945 0.0071698264 -0.30801794 -0.11313833
0.101105474 -0.086513765 -0.4136842 -0.06612217 0.022492468 0.29113555 -0.29710296 0.08155655
0.38581288 0.10915326 0.0018214098 0.08737356 0.29656756 -0.35375077 -0.34321067 -0.16440283
-0.11051546 -0.27253702 -0.009095753 -0.09938911 0.003125365 -0.07246473 0.2734275 -0.19185467
-0.13412443 0.106616884 -0.12972873 0.21111661 0.049837876 -0.15609606 -0.077431165 -0.07398753
0.02050283 0.072171666 -0.19242941 0.15096162 -0.15172699 0.040341858 -0.106038965 0.1212688
0.3504697 -0.4647799 0.006044564 -0.11420679 -0.24886884 0.097479984 0.17284605 -0.05694776
-0.05223215 0.10399377 0.085441045 -0.00058141665 -0.30066365 -0.75126827 -0.009707694 0.13329136
-0.25102848 -0.03469022 0.069394 0.08421297 0.08630131 0.00679175 0.031466972 -0.005939033
0.08955683 0.2239442 -0.068877034 -0.12457523 -0.018838977 0.00034567484 0.011209394 0.036528032
0.18835033 -0.4607973 -0.12203688 -0.398949 0.041066952 -0.37695724 0.17144537 -0.1967377
-0.4007107 0.22286178 -0.041648854 -0.107385755 -0.17975779 0.036063816 -0.020972019 -0.31900796
0.038362753 -0.21912666 -0.059184887 -0.068098135 0.12414092 -0.21153177 0.060643516 -0.19415143
0.17799717 -0.07004839 -0.049298972 0.12153849 0.0075873653 -0.2561842 0.12359241 -0.18677704
-0.01831939 0.23256983 -0.19197963 -0.54256815 -0.022278443 0.08724064 -0.117064625 -0.22040336
0.026418628 -0.007937164 -0.15637185 -0.066228084 -0.21821186 -0.21301584 0.025816724 0.2371446
-0.15492907 0.005147838 0.04844089 0.0075337896 -0.05704922 -0.025119677 -0.11116137 -0.2971401
0.17963147 0.057475455 0.101126224 -0.022935297 0.36462468 -0.25499287 -0.20575075 -0.116376355
-0.29959458 -0.05409338 -0.2104683 0.18468581 -0.04951298 -0.008396591 -0.15045112 -0.04270662
0.23894602 -0.077345185 -0.2094336 0.054312322 -0.0759754 -0.023374312 0.1545603 -0.30406445
00000000: b86e 533d 817e f63d 43a2 a03d 5dc4 d4be
00000010: f898 3c3e 6949 a2bd c6cf e53d 4703 afbe
00000020: bc6c bd3d e34d c6bc 7545 863d de7c 86be
00000030: f839 70be cb6f 62bc 89c5 9fbc 0a43 02be
00000040: afc4 c53d aa1c 4cbc 8f56 40bd a8dd a7be
00000050: 4ddf ba3d e567 9bbe c236 45bf c986 45be
00000060: 3b9f f8bc c17e 533e 71f7 0a3e 4f0f a93e
00000070: 9f09 42bd aab1 a2bd 5091 80be 317b 123e
00000080: 96e2 2bbe c5c9 71be 9ce0 14bf 69e7 77be
00000090: 8997 963d 1cb9 303e cccf fbbd e86b 073e
000000a0: 2a10 ee3b 47ed 7b3d b252 953d 11f0 1dbe
000000b0: 5d14 513d ca6c ecbd 0b29 eabd f03c 733e
000000c0: 7962 a73d 7c24 913c 8f61 e13d 58df c63d
000000d0: 62d1 933d 3449 473e f56c 09be 5251 1d3e
000000e0: a41a 96bd e23d 0abe 7917 233d ec3f 42be
000000f0: ad28 5abd 5372 113e 6027 12bc 05bb bf3d
00000100: 236d 19bf 9b26 033d c0b5 93bd 883e d03d
00000110: 81ee c3be 4794 d43d 2c44 efbc 535c 153d
00000120: bd61 f13d c77f 4abe fa95 9ebd 3b94 1fbe
00000130: c06e e03d e9c8 073d c6a3 0ebe d149 3dbe
00000140: c903 9e3e aacb fcbc 9fa8 62be bdac 39be
00000150: 459d 9a3e c2b5 adbc 4366 c8be ef6b 2b3e
00000160: 7dd9 adbe 26a7 06be 7968 803d 4f0c 9fbe
00000170: 48d3 a3bd 1a8c 8ebc 3703 82bc 99bb 083e
00000180: b095 bb3d e84c 9b3c b785 a23d 557d 173d
00000190: 0ac3 ae3d ddf0 ea3b 87b4 9dbe 12b5 e7bd
000001a0: 6310 cf3d 212e b1bd 6ace d3be 0f6b 87bd
000001b0: 2042 b83c b80f 953e e11d 98be 1f07 a73d
000001c0: 4489 c53e bf8b df3d 5fbc ee3a e9f0 b23d
000001d0: b4d7 973e d21e b5be 4fb9 afbe 3759 28be
000001e0: ee55 e2bd f989 8bbe 5a06 15bc 858c cbbd
000001f0: ecd2 4c3b 6368 94bd b0fe 8b3e 8d75 44be
00000200: ea57 09be f459 da3d 9cd7 04be f42e 583e
00000210: cd22 4c3d a5d7 1fbe 3b94 9ebd c686 97bd
00000220: 8df5 a73c bdce 933d 370c 45be af95 1a3e
00000230: 525e 1bbe 813d 253d f52a d9bd c75b f83d
00000240: c470 b33e a2f7 edbe 7a11 c63b 40e5 e9bd
00000250: 79d7 7ebe 96a3 c73d 8efe 303e 0e42 69bd
00000260: 61f1 55bd b0fa d43d b7fb ae3d 366a 18ba
00000270: 96f0 99be 1e53 40bf 050d 1fbc 887d 083e
00000280: ce86 80be 5517 0ebd 711e 8e3d da77 ac3d
00000290: bebe b03d 548d de3b 83e3 003d 389c c2bb
000002a0: 9269 b73d a151 653e 670f 8dbd 4c21 ffbd
000002b0: 3354 9abc b13b b539 9ba7 373c 6b9e 153d
000002c0: e9de 403e a0ed ebbe 79ee f9bd 0b43 ccbe
000002d0: d235 283d 8a00 c1be 608f 2f3e 9c75 49be
000002e0: f429 cdbe e135 643e fd97 2abd 10ed dbbd
000002f0: 6d12 38be a7b7 133d 83cd abbc 0355 a3be
00000300: 4322 1d3d bd62 60be da6b 72bd 0977 8bbd
00000310: 983d fe3d c99b 58be 5665 783d a2cf 46be
00000320: e444 363e 8875 8fbd b8ed 49bd 2ce9 f83d
00000330: 6f9f f83b 932a 83be 041e fd3d 7b42 3fbe
00000340: 8c12 96bc c926 6e3e 4f96 44be bfe5 0abf
00000350: 4881 b6bc 38ab b23d 94bf efbd 6bb1 61be
00000360: e16b d83c e10a 02bc f11f 20be 97a2 87bd
00000370: ee72 5fbe d320 5abe 987d d33c 09d6 723e
00000380: baa5 1ebe 32af a83b f469 463d 02de f63b
00000390: 71ac 69bd c8c7 cdbc 93a8 e3bd bf22 98be
000003a0: 50f1 373e 626b 6b3d 441b cf3d cee2 bbbc
000003b0: 16b0 ba3e 6d8e 82be 53b0 52be ba56 eebd
000003c0: 7664 99be 0591 5dbd 0185 57be 471e 3d3e
000003d0: 1fce 4abd db91 09bc dc0f 1abe 23ed 2ebd
000003e0: 44ae 743e 2767 9ebd c375 56be 9976 5e3d
000003f0: fe98 9bbd 7c7b bfbc 0e45 1e3e 56ae 9bbe

blocks.1.conv.bias f4 [32]
0.0019774646 0.00093201606 -1.1089333e-05 0.0063372934 -0.005882174 0.025622964 0.006629947 5.430149e-05
0.0083620725 0.0006392282 0.0002983543 -0.0040777237 -0.0018014713 0.0012558666 5.514748e-05 0.0006001262
-0.0011880164 -0.00079464 -0.0004156312 -0.006844722 0.002521121 -0.0013590961 2.8097245e-05 -0.0010620073
0.006962582 0.015813906 -0.0124299275 -0.0058372547 0.00034447224 0.00018111852 -0.0009334376 -0.00063347764
00000000: 5a98 013b 8a52 743a 530c 3ab7 12a9 cf3b
00000010: 40bf c0bb 40e7 d13c 0740 d93b c8c1 6338
00000020: 1301 093c e191 273a 706c 9c39 6d9e 85bb
00000030: 591f ecba e49b a43a 284e 6738 ca51 1d3a
00000040: 37b7 9bba 634f 50ba 13e9 d9b9 b149 e0bb
00000050: 6439 253b b323 b2ba 60b2 eb37 0d33 8bba
00000060: 5f26 e43b 2a8c 813c e5a6 4bbc 7146 bfbb
00000070: 489a b439 a2ea 3d39 f0b1 74ba f70f 26ba

blocks.1.bn.weight f4 [32]
0.68495846 0.93789303 0.74977523 0.87742275 0.9676758 0.81293285 0.7583205 0.86236787
1.0133756 0.9418886 0.99849474 1.0270869 1.1625625 0.8540802 1.0384825 0.9399602
1.1630197 0.8138028 0.8735959 0.8788336 0.82742286 0.7580183 1.1457943 1.1442096
0.89349556 1.0285463 1.076135 0.8406029 0.83696353 0.82858133 0.5496254 1.1294836
00000000: 7059 2f3f c219 703f 45f1 3f3f c79e 603f
00000010: 9ab9 773f 5e1c 503f 4b21 423f 24c4 5c3f
00000020: 4bb6 813f 9c1f 713f 5a9d 7f3f 9577 833f
00000030: d9ce 943f 00a5 5a3f ffec 843f 3ba1 703f
00000040: d4dd 943f 6155 503f fba3 5f3f 3dfb 603f
00000050: fcd1 533f 7d0d 423f 63a9 923f 7675 923f
00000060: 20bc 643f 68a7 833f cbbe 893f c031 573f
00000070: 3e43 563f e81d 543f 40b4 0c3f eb92 903f

blocks.1.bn.bias f4 [32]
-0.24614848 -0.3408779 -0.09851124 -0.31887308 -0.2494561 -0.16256523 -0.2817165 -0.4839449
-0.40920457 -0.35215816 -0.455975 -0.5650675 -0.43513224 -0.37424082 -0.39227456 -0.34926546
-0.58523655 -0.4488363 -0.50817513 -0.57555354 -0.5891231 -0.5348149 -0.61461645 -0.1377691
-0.7094795 -0.18222584 -0.38311952 -0.3911835 -0.27340147 -0.64083683 -0.08816993 -0.4446666
00000000: 590e 7cbe 8c87 aebe 43c0 c9bd 5543 a3be
00000010: 6b71 7fbe 8077 26be 253d 90be a0c7 f7be
00000020: 4383 d1be 134e b4be 8e75 e9be 44a8 10bf
00000030: a7c9 debe 7e9c bfbe 36d8 c8be ecd2 b2be
00000040: 10d2 15bf dfcd e5be c417 02bf 7a57 13bf
00000050: c5d0 16bf a1e9 08bf 8157 1dbf 5813 0dbe
00000060: 73a0 35bf 6999 3abe 3e28 c4be 3449 c8be
00000070: 47fb 8bbe e20d 24bf 7092 b4bd 57ab e3be

blocks.1.bn.running_mean f4 [32]
-4.5318017 -1.4079396 -0.7602778 -2.947734 -3.254755 -0.59867513 1.6064166 -2.5259204
-3.6391435 -1.2251558 -0.19424699 0.02482119 -1.1572739 2.1833413 -0.75552404 -2.458777
-1.7573152 -0.8457842 -2.5834012 -2.7777598 -1.3128569 -1.7122476 -1.5053103 -1.4956243
-1.0334729 -0.24544291 -1.2439983 -1.8513348 0.6216821 -1.0983073 0.7639064 -1.3405383
00000000: 8504 91c0 5d37 b4bf 91a1 42bf ada7 3cc0
00000010: e84d 50c0 c642 19bf 0f9f cd3f aea8 21c0
00000020: bae7 68c0 e8d1 9cbf afe8 46be cf55 cb3c
00000030: 8d21 94bf ddbb 0b40 066a 41bf 9a5c 1dc0
00000040: b4ef e0bf 5085 58bf 7256 25c0 d1c6 31c0
00000050: b20b a8bf ee2a dbbf 02ae c0bf 9e70 bfbf
00000060: d748 84bf 6355 7bbe 563b 9fbf 8af8 ecbf
00000070: 8f26 1f3f 5595 8cbf 5f8f 433f c296 abbf

blocks.1.bn.running_var f4 [32]
9.447992 6.8518505 5.2168417 7.2326255 16.301487 6.490308 5.1649184 5.181369
7.5600533 5.768597 5.2761407 6.4059906 7.9156284 6.301968 6.209057 5.626596
4.351416 4.6349764 5.27395 6.2705173 7.0734496 7.827677 5.872512 7.811845
3.8482237 8.248164 5.173342 7.724383 16.871609 5.070595 10.693565 4.1380253
00000000: fa2a 1741 5c42 db40 5ef0 a640 ab71 e740
00000010: 7269 8241 9ab0 cf40 0347 a540 c6cd a540
00000020: f5eb f140 5998 b840 25d6 a840 e0fd cc40
00000030: d44c fd40 b9a9 c940 98b0 c640 130d b440
00000040: cd3e 8b40 ba51 9440 33c4 a840 14a8 c840
00000050: b359 e240 547c fa40 9eeb bb40 a2fa f940
00000060: 4c49 7640 7bf8 0341 058c a540 252e f740
00000070: 0ef9 8641 5042 a240 d818 2b41 b46a 8440

blocks.2.conv.weight f4 [32, 32, 3, 3]
0.17291722 0.08787553 -0.13299598 -0.04736259 0.017374879 -0.10535584 -0.15535712 -0.10845264
-0.04636755 -0.1935475 -0.1200276 -0.31699568 -0.256248 -0.13762957 -0.22972547 0.094125815
-0.08683635 -0.038079977 -0.1311779 -0.050814066 0.18253654 0.008210744 -0.16486341 -0.071358606
0.02478184 -0.04896275 -0.1942701 0.13691807 -0.13887854 0.020531192 0.1014606 -0.13223743
0.041162793 0.1049057 0.22355828 0.33159703 0.012589325 0.012295508 0.5477983 0.026281409
0.20783462 0.24302717 0.056179654 0.1490274 0.26837063 -0.13336183 0.098489866 0.38469616
0.1899425 0.2814871 0.15114948 -0.10230009 -0.10962599 -0.21307008 -0.06513201 0.1897378
0.21901773 -0.08042155 0.020123234 0.005894914 -0.1443681 0.12322244 -0.23157734 0.03022325
-0.31273925 0.12058351 -0.12683618 -0.10000684 -0.25013345 -0.22389157 -0.16731915 0.0721141
0.116925426 -0.06800166 0.26609316 0.16286907 0.11637138 -0.010397724 0.40909213 -0.37573498
-0.19604842 0.03526448 -0.04087362 -0.2999759 -0.16608565 -0.16040888 -0.340718 -0.18273625
-0.36612308 -0.117625095 -0.33984482 -0.38679838 0.01825466 -0.21693733 -0.04553302 -0.13113455
0.06489726 0.17785044 -0.23994254 0.052037094 -0.01696343 0.0559949 -0.004147458 0.18426004
-0.21661438 0.0041446057 -0.3818141 0.2873813 -0.07804167 -0.09738328 -0.11033587 0.18241894
0.16989858 -0.08918128 0.05830317 0.1551612 0.20545101 -0.12865321 -0.3302162 -0.11142685
-0.23462032 -0.13093853 -0.0032716333 -0.17898214 -0.2864176 -0.13625751 -0.2062075 -0.21404965
-0.3381964 -0.2848414 -0.1492042 0.02359421 -0.19292869 0.39108655 -0.26066008 -0.10309877
-0.022411153 -0.07809633 -0.12571475 -0.052423965 -0.18940419 0.23008358 -0.2720269 0.34594432
-0.16397034 -0.03989537 -0.18994676 -0.10064938 -0.19293718 0.115824424 0.33877155 -0.081259936
0.22158901 -0.052582983 0.22128315 -0.055901516 -0.031466834 -0.051559843 0.19893302 -0.19870187
-0.2940516 0.034948234 -0.26333305 0.25170955 0.050011937 0.16562824 0.14791271 0.13783771
0.1652315 0.14045867 -0.04510329 -0.049673196 -0.12369756 0.060040172 -0.12176423 -0.049020663
0.027052168 -0.27794224 0.022134762 -0.21562679 -0.027299378 -0.13458183 0.32915786 0.20160036
-0.05740306 0.1638031 0.36318064 0.121393025 -0.3176673 0.15373252 0.021669675 0.008940989
0.22885785 0.054746907 -0.11740455 -0.08732669 0.029670408 0.0485212 0.21444595 -0.04461924
-0.23215309 -0.20045659 0.1771328 -0.28577015 -0.4143387 -0.21691394 -0.4461119 -0.20832233
0.18629003 0.26459453 -0.15235361 -0.27515352 -0.041523654 -0.31752992 -0.2298752 0.001447077
0.025967449 -0.002095764 -0.36484662 -0.13440266 0.36281306 -0.106246084 -0.19386755 -0.15438929
0.07462409 -0.04758127 0.061807916 -0.11674523 0.15845825 0.1278011 0.013678821 0.20453972
0.0072077485 0.0015883788 -0.031235721 -0.0043607727 -0.021598378 -0.1375594 -0.14238644 -0.03635665
0.47154078 0.11847653 0.06927857 -0.08856595 0.01610424 0.11337312 -0.11555354 0.06788757
-0.12690637 -0.267651 -0.072283216 0.25304317 0.19457005 0.05573354 0.03598236 -0.12109212
00000000: 3611 313e 16f8 b33d 1930 08be 46ff 41bd
00000010: c355 8e3c cdc4 d7bd f015 1fbe 6b1c debd
00000020: e6eb 3dbd 5131 46be 08d1 f5bd 424d a2be
00000030: f032 83be c4ee 0cbe 273d 6bbe 09c5 c03d
00000040: 42d7 b1bd c0f9 1bbd 8053 06be 6922 50bd
00000050: dcea 3a3e 5b86 063c f4d1 28be 7624 92bd
00000060: 4903 cb3c 2a8d 48bd beee 46be 4034 0c3e
00000070: 2d36 0ebe 0831 a83c 93ca cf3d 4069 07be
00000080: 519a 283d cdd8 d63d 76ec 643e 16c7 a93e
00000090: 7543 4e3c 1973 493c 823c 0c3f 1c4c d73c
000000a0: 99d2 543e 1ddc 783e a31c 663d a49a 183e
000000b0: e067 893e 0190 08be 0eb5 c93d e5f6 c43e
000000c0: 4980 423e 141f 903e eec6 1a3e b682 d1bd
000000d0: 9783 e0bd 0b2f 5abe ee63 85bd a04a 423e
000000e0: 2f46 603e 0eb4 a4bd 7bd9 a43c 1f2a c13b
000000f0: 3bd5 13be 0c5c fc3d 9c22 6dbe c096 f73c
00000100: 5c1f a0be 7df4 f63d 58e1 01be 63d0 ccbd
00000110: 7e11 80be d543 65be b655 2bbe 8fb0 933d
00000120: 9976 ef3d 7444 8bbd 5d3d 883e 26c7 263e
00000130: 1e54 ee3d 375b 2abc 8674 d13e 5660 c0be
00000140: ebc0 48be 7d71 103d 196b 27bd 7196 99be
00000150: 5b12 2abe 3a42 24be 9772 aebe 361f 3bbe
00000160: 7c74 bbbe 6de5 f0bd 2400 aebe 700a c6be
00000170: cc8a 953c d224 5ebe d580 3abd 2348 06be
00000180: dbe8 843d 6d1e 363e 7fb3 75be d924 553d
00000190: e4f6 8abc e95a 653d 66e7 87bb aaae 3c3e
000001a0: 29d0 5dbe 79cf 873b 237d c3be a423 933e
000001b0: 50d4 9fbd e370 c7bd c6f7 e1bd 08cc 3a3e
000001c0: e5f9 2d3e ada4 b6bd 4ecf 6e3d 94e2 1e3e
000001d0: c061 523e abbd 03be 1912 a9be c333 e4bd
000001e0: 4f40 70be c014 06be e668 56bb 1847 37be
000001f0: 54a5 92be 1787 0bbe 0f28 53be d52f 5bbe
00000200: 1428 adbe bbd6 91be fcc8 18be a548 c13c
00000210: 198f 45be 7f3c c83e 3d75 85be 7325 d3bd
00000220: 9897 b7bc f8f0 9fbd 5ebb 00be 83ba 56bd
00000230: 2cf3 41be 089b 6b3e 1c47 8bbe 9d1f b13e
00000240: d7e7 27be 5469 23bd 6781 42be 4321 cebd
00000250: 5391 45be 5b35 ed3d 7773 ad3e 9c6b a6bd
00000260: 3be8 623e 4161 57bd 0d98 623e fdf8 64bd
00000270: 5ee3 00bd 6a30 53bd 19b5 4b3e 8178 4bbe
00000280: ee8d 96be e125 0f3d 97d3 86be 13e0 803e
00000290: 51d9 4c3d 739a 293e 6e76 173e 5425 0d3e
000002a0: 7232 293e 66d4 0f3e 3abe 38bd 1f76 4bbd
000002b0: 2555 fdbd afec 753d 865f f9bd e4c9 48bd
000002c0: 829c dd3c 724e 8ebe f653 b53c 45cd 5cbe
000002d0: f2a2 dfbc d2cf 09be 6187 a83e 5370 4e3e
000002e0: 791f 6bbd 00bc 273e d0f2 b93e e89c f83d
000002f0: 4aa5 a2be 0f6c 1d3e 9a84 b13c 3a7d 123c
00000300: b659 6a3e 4b3e 603d cc71 f0bd 56d8 b2bd
00000310: 5b0f f33c 2abe 463d b897 5b3e aac2 36bd
00000320: 8ab9 6dbe 7e44 4dbe 4d62 353e 7750 92be
00000330: 3424 d4be b01e 5ebe c768 e4be 7352 55be
00000340: d0c2 3e3e ef78 873e 9602 1cbe ece0 8cbe
00000350: b514 2abd 4893 a2be 6864 6bbe d9ab bd3a
00000360: b0b9 d43c 1659 09bb 2dcd babe daa0 09be
00000370: a2c2 b93e 8c97 d9bd 3785 46be 3a18 1ebe
00000380: 84d4 983d 94e4 42bd 4c2a 7d3d 2018 efbd
00000390: e142 223e 4bde 023e 221d 603c dc72 513e
000003a0: fa2e ec3b 2631 d03a 0ee2 ffbc d0e4 8ebb
000003b0: 15ef b0bc 5fdc 0cbe c0cd 11be b6ea 14bd
000003c0: cb6d f13e d3a3 f23d ece1 8d3d 1162 b5bd
000003d0: 0aed 833c 2b30 e83d 56a7 ecbd a308 8b3d
000003e0: bef3 01be 8d09 89be 3909 94bd e08e 813e
000003f0: 5f3d 473e da48 643d 3d62 133d 25ff f7bd

blocks.2.conv.bias f4 [32]
-0.01999522 -0.009485174 -0.0008944272 -0.015525097 0.0054035345 0.009737056 0.007846066 -0.00016497227
-0.00041870403 0.0036061872 0.000305899 -0.0024581796 0.0009311048 0.0026931602 -0.002594278 -0.0031005952
-0.004588006 -0.0026945418 -0.00870523 0.0012336152 0.00058409374 0.0013928993 -0.00092504336 0.0009880423
0.00031951742 -0.014712845 -0.0011906844 -0.00033131844 0.00074676145 0.00057511067 -0.0012210953 -0.00041332582
00000000: 04cd a3bc b467 1bbc fe77 6aba fa5c 7ebc
00000010: 2210 b13b 2c88 1f3c c98c 003c 68fc 2cb9
00000020: 8185 dbb9 c855 6c3b 1261 a039 6919 21bb
00000030: 6315 743a bb7f 303b c304 2abb 5b33 4bbb
00000040: fc56 96bb e996 30bb 62a0 0ebc 42b1 a13a
00000050: de1d 193a f291 b63a 9c7e 72ba 3381 813a
00000060: e784 a739 250e 71bc bd10 9cba cfb4 adb9
00000070: 50c2 433a 06c3 163a 290d a0ba a7b3 d8b9

blocks.2.bn.weight f4 [32]
0.8884624 0.91663694 0.68751746 0.76390994 0.756796 0.7833181 1.0695115 1.0993841
0.7161308 1.0518203 0.7557256 0.9375909 0.9298924 0.84899324 0.9322411 1.1396126
1.1541687 0.9844895 0.75156766 0.8556266 0.9739203 1.0217383 0.9182348 0.982522
1.1382579 0.9832814 1.0091103 0.7127997 0.60005355 0.9737595 0.42409685 0.8376871
00000000: 4672 633f b8a8 6a3f 2501 303f 9a8f 433f
00000010: 62bd 413f 8987 483f c1e5 883f 9eb8 8c3f
00000020: 5954 373f 0ca2 863f 3c77 413f f505 703f
00000030: 6e0d 6e3f 9f57 593f 5aa7 6e3f d3de 913f
00000040: cdbb 933f 8107 7c3f bd66 403f 580a 5b3f
00000050: d752 793f 52c8 823f 7011 6b3f 9086 7b3f
00000060: 6fb2 913f 54b8 7b3f 872a 813f 0b7a 363f
00000070: 1c9d 193f 4d48 793f 3923 d93e a972 563f

blocks.2.bn.bias f4 [32]
-0.28389418 -0.48122144 -0.16117547 -0.2959288 -0.5196896 -0.20571674 -0.176929 -0.5919636
-0.5254792 -0.38397285 -0.5430542 -0.42981565 -0.49261367 -0.3038587 -0.47444922 -0.6168575
-0.40750256 -0.604875 -0.41140413 -0.3014926 -0.5780637 -0.78183603 -0.37455028 -0.47699934
-0.61090183 -0.44000092 -0.5807628 -0.28006992 -0.012424029 -0.39520174 0.21880507 -0.65575707
00000000: 945a 91be a862 f6be 2f0b 25be fb83 97be
00000010: 610a 05bf 69a7 52be e02c 35be ed8a 17bf
00000020: ce85 06bf 1798 c4be 9a05 0bbf cc10 dcbe
00000030: dc37 fcbe 5e93 9bbe 02eb f2be 60ea 1dbf
00000040: 2da4 d0be 17d9 1abf 90a3 d2be 3d5d 9abe
00000050: fcfb 13bf 6826 48bf 0ec5 bfbe 4239 f4be
00000060: 1064 1cbf cd47 e1be dfac 14bf 5365 8fbe
00000070: 288e 4bbc e257 cabe 700e 603e b2df 27bf

blocks.2.bn.running_mean f4 [32]
-1.8914232 -3.7484663 -2.470262 -0.32458615 -4.0792565 1.208754 -0.86733663 -1.1603853
-0.6584856 -0.8257281 -1.569899 -1.0393134 0.7311667 -3.4436166 -2.1101842 -2.6745262
-1.1452831 -1.6490843 -1.9146252 -1.0210755 -1.078415 0.3332566 -0.2810374 -1.7597066
-0.11116001 -0.6531189 -1.5161982 0.40944117 -1.2242023 -2.668986 1.1918026 -1.0380379
00000000: 281a f2bf dfe6 6fc0 c618 1ec0 2830 a6be
00000010: 4589 82c0 73b8 9a3f c609 5ebf 8187 94bf
00000020: 8392 28bf eb62 53bf 73f2 c8bf 3908 85bf
00000030: be2d 3b3f 3764 5cc0 420d 07c0 702b 2bc0
00000040: a398 92bf 3215 d3bf 7012 f5bf 9ab2 82bf
00000050: 8109 8abf 9ca0 aa3e 22e4 8fbe 113e e1bf
00000060: dca7 e3bd cd32 27bf c812 c2bf 46a2 d13e
00000070: a9b2 9cbf abd0 2ac0 fd8c 983f 6dde 84bf

blocks.2.bn.running_var f4 [32]
14.380049 12.134721 8.891811 5.646644 9.6498375 6.249104 12.94347 7.0744777
5.081498 8.831356 4.8759723 7.6107044 4.199401 14.545067 15.285366 6.480908
4.8808584 10.63966 7.144002 6.0975523 5.1721954 6.404361 6.328798 10.069255
5.029126 5.108136 5.917111 17.726877 9.899604 14.512974 15.998032 6.708606
00000000: ae14 6641 d127 4241 dc44 0e41 4fb1 b440
00000010: bc65 1a41 a9f8 c740 7418 4f41 1f62 e240
00000020: a29b a240 3c4d 0d41 f707 9c40 e48a f340
00000030: 7e61 8640 98b8 6841 dc90 7441 9963 cf40
00000040: fe2f 9c40 0c3c 2a41 aa9b e440 261f c340
00000050: a082 a540 86f0 cc40 8385 ca40 ab1b 2141
00000060: 9aee a040 da75 a340 f958 bd40 a5d0 8d41
00000070: c764 1e41 2435 6841 f0f7 7f41 e6ac d640

blocks.3.conv.weight f4 [32, 32, 3, 3]
-0.1793546 -0.13540368 -0.14338784 -0.032059737 -0.51108676 -0.32618183 -0.16188014 -0.28173122
-0.14713864 -0.08290891 0.041737482 -0.26136455 0.13782471 0.2025573 0.12644757 0.19928557
0.12558475 0.24062823 -0.10446857 0.07090617 0.0258011 0.06836071 0.1364689 0.032177877
-0.2360137 0.012209872 -0.018507663 -0.13305335 -0.042146675 0.0646892 -0.027466 -0.49601766
-0.24516134 0.09979445 0.030820271 -0.17439678 -0.24422358 -0.17044836 -0.019432615 -0.27603653
0.082253106 -0.26945424 -0.08295258 0.030756062 -0.3491342 0.12784515 -0.024047345 0.15056671
-0.2924116 0.09467555 0.066412 0.13188769 0.00022734146 0.054291748 0.39977267 -0.014446423
-0.09306092 0.28911546 0.06892551 -0.0004695485 0.18320742 -0.08831081 -0.11348334 -0.15573941
0.1491204 0.20651804 0.22223121 0.0012647858 0.011170969 0.3132303 -0.081599 -0.3176922
-0.14332165 -0.082811706 0.18639155 0.24638227 0.10455758 0.40463927 -0.20709658 -0.047371943
-0.119447656 -0.024656415 0.08228623 0.4236649 0.105779216 0.02308326 0.066402264 -0.04019753
0.1370734 0.12238658 -0.26960894 -0.110528044 0.10747551 0.3616545 -0.20621826 -0.20502126
0.013944872 0.081757724 0.24461566 0.049241316 -0.043033957 0.06491523 -0.11331331 0.00933104
0.07186133 -0.5100734 -0.17626391 0.17471105 -0.21093914 -0.029468963 -0.022364417 -0.0034364536
0.017069308 0.050703917 0.11240197 -0.14461973 0.087678455 0.00922697 0.15572344 0.09225465
0.1299521 0.10944754 0.27095458 -0.060966495 -0.279365 -0.25007182 -0.26813588 -0.18995178
-0.15911208 -0.4031663 -0.08350631 -0.12290433 -0.15380785 0.11772277 -0.5004174 -0.20218383
0.054621123 -0.15849528 -0.38269854 0.03921574 0.20005701 -0.23602362 -0.16047208 0.27247196
-0.02964592 -0.22498439 -0.07098711 -0.100207485 -0.051689085 0.13652517 0.33735868 0.06934376
-0.3999545 0.03141949 0.15610091 0.14350434 -0.14708759 0.0871086 0.05432563 0.06303319
0.020666575 -0.0072318837 -0.12542206 -0.23217793 0.1408669 0.061632413 0.0002730714 -0.038946755
0.14871113 -0.10052043 0.16418703 -0.016458657 -0.076295175 -0.17392221 0.44021076 -0.06288032
-0.10913829 0.1651531 -0.22994111 -0.21227404 -0.11991555 0.16206172 0.016000329 0.09941855
-0.2431198 0.09439172 0.27654025 0.08367742 0.029218486 0.46051535 -0.04369535 0.16126573
0.0793361 0.25617132 0.20409554 -0.059611663 0.13787861 0.09173812 0.14621831 0.019107888
-0.06465939 -0.09433294 0.08495034 -0.43237406 -0.25956124 -0.02368471 -0.2381989 -0.028981632
0.014714935 0.3185755 -0.19713911 -0.4790081 -0.14362782 0.01784934 0.18531388 0.1370655
-0.0028797383 0.17734954 -0.06525216 -0.11969392 0.30925742 -0.3872222 0.029896954 -0.15113084
-0.11042515 0.1761974 -0.042159073 -0.13972734 -0.030092496 -0.11529988 -0.081743374 0.03257308
0.20615137 -0.035936847 0.13467583 -0.30371022 -0.16876335 -0.058181334 -0.14078413 -0.004733801
0.42755455 -0.028371392 -0.3098437 0.03432873 -0.0179173 0.2844549 -0.0079473285 0.115568504
-0.0447431 -0.0024235004 -0.12577865 0.20423365 -0.046418212 0.17692575 -0.16930236 -0.20767279
00000000: bba8 37be 43a7 0abe 43d4 12be 1251 03bd
00000010: 95d6 02bf 4e01 a7be e8c3 25be 133f 90be
00000020: 83ab 16be 26cc a9bd ecf4 2a3d 93d1 85be
00000030: ec21 0d3e 2e6b 4f3e 797b 013e 8411 4c3e
00000040: 4a99 003e 3f67 763e 9ef3 d5bd 4137 913d
00000050: d45c d33c b300 8c3d 81be 0b3e f3cc 033d
00000060: 93ad 71be ea0b 483c 629d 97bc 233f 08be
00000070: fea1 2cbd c57b 843d 6000 e1bc 07f6 fdbe
00000080: 930b 7bbe 0861 cc3d cb7a fc3c 1295 32be
00000090: bf15 7abe 048a 2ebe 2631 9fbc a954 8dbe
000000a0: 5174 a83d e8f5 89be 0be3 a9bd 23f4 fb3c
000000b0: b8c1 b2be d7e9 023e f0fe c4bc 292e 1a3e
000000c0: f9b6 95be 41e5 c13d 0403 883d 910d 073e
000000d0: 8262 6e39 0661 5e3d 01af cc3e b1b0 6cbc
000000e0: b996 bebd f106 943e d128 8d3d bc2d f6b9
000000f0: ba9a 3b3e 4cdc b4bd f469 e8bd 277a 1fbe
00000100: 05b3 183e 7779 533e 9490 633e 2bc7 a53a
00000110: 7106 373c b95f a03e 601d a7bd 8da8 a2be
00000120: e9c2 12be 2f99 a9bd 6ddd 3e3e a24b 7c3e
00000130: 4922 d63d e12c cf3e 2011 54be 1509 42bd
00000140: f9a0 f4bd 40fc c9bc af85 a83d 9bea d83e
00000150: c6a2 d83d 1b19 bd3c e9fd 873d 2aa6 24bd
00000160: f85c 0c3e d1a5 fa3d 2f0a 8abe 875c e2bd
00000170: 1f1c dc3d c72a b93e e12a 53be 18f1 51be
00000180: 0879 643c 9870 a73d 877c 7a3e 43b1 493d
00000190: 6044 30bd 47f2 843d cf10 e8bd 38e1 183c
000001a0: 082c 933d 2c94 02bf 877e 34be 74e7 323e
000001b0: 6e00 58be e568 f1bc 9535 b7bc 2036 61bb
000001c0: efd4 8b3c e9ae 4f3d 0133 e63d 3217 14be
000001d0: c390 b33d b82c 173c f775 1f3e 02f0 bc3d
000001e0: 2a12 053e 0826 e03d 8fba 8a3e 01b8 79bd
000001f0: ee08 8fbe 6a09 80be 1b49 89be b882 42be
00000200: 47ee 22be d06b cebe 5b05 abbd 44b5 fbbd
00000210: ce7f 1dbe a318 f13d 5b1b 00bf 4709 4fbe
00000220: 66ba 5f3d 964c 22be 10f1 c3be afa0 203d
00000230: bfdb 4c3e 2db0 71be cb52 24be 7281 8b3e
00000240: 00dc f2bc 4f62 66be b161 91bd 9539 cdbd
00000250: efb7 53bd 41cd 0b3e 47ba ac3e 1a04 8e3d
00000260: d6c6 ccbe b9b1 003d ebd8 1f3e cdf2 123e
00000270: 219e 16be fe65 b23d 8d84 5e3d 8c17 813d
00000280: f34c a93c 70f9 ecbb a46e 00be 0dc0 6dbe
00000290: 6a3f 103e 4572 7c3d 062b 8f39 a286 1fbd
000002a0: bb47 183e a8dd cdbd a520 283e 4ed4 86bc
000002b0: a540 9cbd aa18 32be 4e63 e13e 66c7 80bd
000002c0: e583 dfbd e51d 293e af75 6bbe 5e5e 59be
000002d0: 4996 f5bd 82f3 253e 1f13 833c f49b cb3d
000002e0: 66f4 78be 7250 c13d af96 8d3e 115f ab3d
000002f0: 9b5b ef3c abc8 eb3e e5f9 32bd d822 253e
00000300: f77a a23d e328 833e 6cfe 503e 5c2b 74bd
00000310: 0d30 0d3e 32e1 bb3d 41ba 153e 2588 9c3c
00000320: 246c 84bd a131 c1bd 72fa ad3d 2260 ddbe
00000330: 36e5 84be 7006 c2bc 6aea 73be e36a edbc
00000340: e916 713c 541c a33e d6de 49be 8d40 f5be
00000350: 2c13 13be c738 923c ecc2 3d3e e65a 0c3e
00000360: feb9 3cbb 1e9b 353e eda2 85bd 1622 f5bd
00000370: fd56 9e3e fd41 c6be 75ea f43c 0bc2 1abe
00000380: 9526 e2bd 176d 343e feae 2cbd af14 0fbe
00000390: 8a84 f6bc 5822 ecbd 1269 a7bd 5a6b 053d
000003a0: 5819 533e 8432 13bd 76e8 093e e87f 9bbe
000003b0: 4dd0 2cbe 8d4f 6ebd b729 10be 001e 9bbb
000003c0: 6ee8 da3e 1f6b e8bc d5a3 9ebe 489c 0c3d
000003d0: 4dc7 92bc 13a4 913e 8335 02bc 2eaf ec3d
000003e0: 8a44 37bd 97d3 1ebb 1ecc 00be a022 513e
000003f0: 0621 3ebd 062c 353e 995d 2dbe 2da8 54be

blocks.3.conv.bias f4 [32]
0.005678074 0.0011877049 0.004856872 0.0083874455 -0.006324979 -0.0002664592 0.016338278 -0.00032429164
-0.00062085484 -0.0008989031 -3.4546127e-05 -0.0027829136 -0.00024301282 -0.005468667 0.0014267756 -0.0066965646
0.01138665 -0.007518586 0.006174361 0.0056979014 -0.017304575 0.00050521083 0.0012475863 -6.097773e-05
-0.005719689 0.0106036 0.0015602353 -0.00034493906 0.0036973555 -0.0024349766 0.00058607047 -0.00053410785
00000000: 230f ba3b c3ac 9b3a 6526 9f3b 7f6b 093c
00000010: c541 cfbb 8cb3 8bb9 dad7 853c b005 aab9
00000020: ddc0 22ba 5ea4 6bba 9fe5 10b8 8b61 36bb
00000030: 42d1 7eb9 8132 b3bb a502 bb3a db6e dbbb
00000040: 128f 3a3c 785e f6bb 4b52 ca3b 76b5 ba3b
00000050: 53c2 8dbc 2070 043a 0d86 a33a 57c2 7fb8
00000060: 3b6c bbbb b9ba 2d3c cf80 cc3a f0d8 b4b9
00000070: 554f 723b 2194 1fbb 86a2 193a 5f03 0cba

blocks.3.bn.weight f4 [32]
0.97086424 0.84111476 0.9658737 0.67298514 0.9169752 0.6609184 0.9122446 0.82433933
0.9338159 0.7920051 0.820002 0.9371102 0.9385394 0.86025584 0.99323064 1.1299448
1.1299169 1.0481378 0.8312181 0.8661601 0.9678143 1.1869894 0.86417115 0.9600907
1.1246133 0.96247756 0.9724023 0.666296 0.6882894 0.87657064 0.47715884 0.9593083
00000000: 8f8a 783f 4c53 573f 8043 773f c148 2c3f
00000010: e3be 6a3f f331 293f dd88 693f e707 533f
00000020: 8f0e 6f3f d9c0 4a3f a7eb 513f 74e6 6f3f
00000030: 1e44 703f ba39 5c3f 5d44 7e3f 08a2 903f
00000040: 1ea1 903f 6129 863f b6ca 543f abbc 5d3f
00000050: aec2 773f 45ef 973f 523a 5d3f 81c8 753f
00000060: 54f3 8f3f ee64 763f 5bef 783f 6092 2a3f
00000070: bc33 303f ef66 603f 2a4e f43e 3b95 753f

blocks.3.bn.bias f4 [32]
-0.3870948 -0.3985216 -0.3022939 -0.12784316 -0.47668225 -0.028202426 -0.7851549 -0.44920656
-0.5168193 -0.655639 -0.4106676 -0.07843862 -0.52845937 -0.4702951 -0.66279584 -0.4100975
-0.6115252 -0.73534167 -0.39119205 -0.36222866 -0.48099557 -0.6946875 -0.679506 -0.6570592
-0.49688625 -0.6480836 -0.49873134 -0.28961316 -0.07713613 -0.3731523 0.23530807 -0.5191132
00000000: 4a31 c6be 060b ccbe 44c6 9abe 51e9 02be
00000010: b20f f4be c608 e7bc e9ff 48bf 67fe e5be
00000020: 454e 04bf f5d7 27bf 0643 d2be 6da4 a0bd
00000030: 1d49 07bf 85ca f0be fdac 29bf 4df8 d1be
00000040: ea8c 1cbf 5a3f 3cbf 534a c8be 0976 b9be
00000050: 0d45 f6be 0ad7 31bf 1bf4 2dbf 0835 28bf
00000060: e067 febe cfe8 25bf b759 ffbe 2d48 94be
00000070: 8cf9 9dbd d10d bfbe 99f4 703e 9ae4 04bf

blocks.3.bn.running_mean f4 [32]
-2.771626 -0.35190633 -2.7845352 -1.0110419 -1.2582937 0.02072294 -1.2154901 -1.0834526
1.1753774 -1.6813756 1.7544608 -0.24891426 1.0980579 -1.7435064 -1.4943641 -0.9693883
-2.4305174 -0.87106335 -2.8715134 -0.3256727 -2.0295234 0.8017022 0.78092283 -3.8417246
0.55712044 0.37521088 -1.2193723 -0.49748278 3.1216424 -3.895669 -1.672595 -1.1658205
00000000: 5262 31c0 112d b4be d335 32c0 d269 81bf
00000010: c50f a1bf 28c3 a93c 2e95 9bbf 93ae 8abf
00000020: c472 963f 5137 d7bf 2c92 e03f 61e3 7ebe
00000030: 298d 8c3f 382b dfbf 5347 bfbf d529 78bf
00000040: 998d 1bc0 02fe 5ebf e0c6 37c0 92be a6be
00000050: b6e3 01c0 5b3c 4d3f 8fea 473f d1de 75c0
00000060: 729f 0e3f a41b c03e 6414 9cbf 10b6 febe
00000070: fdc8 4740 a452 79c0 9817 d6bf 9b39 95bf

blocks.3.bn.running_var f4 [32]
6.0188174 6.542345 14.759719 5.578834 7.078265 11.6485 6.2714777 6.907703
7.5042887 5.669799 14.838679 3.969967 6.144933 5.666557 8.233623 11.310009
5.811674 5.715342 7.3064933 8.187785 6.478091 3.553181 7.437584 6.8519626
5.109936 6.2154 11.357269 8.672048 8.739389 10.945373 7.6523623 5.564444
00000000: 279a c040 e45a d140 cf27 6c41 cf85 b240
00000010: 2681 e240 4260 3a41 f2af c840 e70b dd40
00000020: 2223 f040 fe6e b540 3b6b 6d41 f013 7e40
00000030: 4ba3 c440 6f54 b540 ebbc 0341 ccf5 3441
00000040: 3cf9 b940 15e4 b640 cbce e940 2b01 0341
00000050: 854c cf40 5167 6340 b000 ee40 4743 db40
00000060: 9984 a340 8fe4 c640 60b7 3541 b5c0 0a41
00000070: 8ad4 0b41 3f20 2f41 27e0 f440 ed0f b240
