models/184.pth (torch, 501905 bytes, 80 tensors)

conv0.conv.weight f4 [32, 17, 3, 3]
0	0xbe663884	-0.22482497
1	0x3ea786f6	0.32720155
2	0x3d687bf3	0.056758832
3	0x3eb684d6	0.3564822
4	0xbed04f47	-0.40685484
5	0x3f0bac77	0.54560035
6	0xbd823c7b	-0.06359192
7	0x3ecf24cc	0.4045776
8	0x3e4ab319	0.19794883
9	0xbc318351	-0.010834531
10	0x3d1aa2f9	0.03775308
11	0x3c23d4e0	0.009999484
12	0x3d2a9aed	0.041651655
13	0xbe2498e8	-0.16073954
14	0x3d8a64b2	0.06757487
15	0x3e0dc1ad	0.13843413
16	0x3e66d243	0.22541146
17	0xbd2b9ae6	-0.04189577
18	0x3db5485e	0.088516936
19	0x3c0dbd92	0.008651154
20	0x3dcfa2d2	0.101384774
21	0xbe1ba4a6	-0.15199527
22	0xbe118c0f	-0.14213584
23	0x3d3f2f38	0.04667589
24	0xbc83fa27	-0.016110493
25	0x3c85507a	0.016273726
26	0x3d5a69a4	0.053323403
27	0xbc610fac	-0.013736647
28	0x3dc89ab8	0.09795135
29	0x3d15df39	0.036589835
30	0xbd5de930	-0.054177463
31	0xbe2126d6	-0.15737471
32	0x3cd18b55	0.025579134
33	0x3e0a1b1e	0.13486907
34	0x3c503e2c	0.012710135
35	0xbc7d3bb4	-0.015456129
36	0x3ea6d114	0.3258139
37	0x3e976d24	0.29575455
38	0x3e368417	0.17823826
39	0x3e61fd93	0.22069387
40	0xbf0bbc26	-0.54583967
41	0x3eda9b20	0.42696476
42	0x3ea9f20f	0.3319249
43	0x3ee5e626	0.44902152
44	0x3e817550	0.25284815
45	0x3e5504ba	0.20802584
46	0x3e53ad2f	0.20671533
47	0x3e0532a1	0.13007595
48	0x3e7ec5eb	0.24880187
49	0xbdb2315a	-0.08700819
50	0x3dbeb0a6	0.09311037
51	0x3e454e2f	0.19268106
52	0x3de4c0b5	0.111695684
53	0x3e2609ca	0.16214672
54	0x3e7ac9d2	0.24491051
55	0x3e8ec191	0.27882054
56	0x3e2ce2e0	0.16883421
57	0x3e7b37ef	0.24533056
58	0xbe02e0fd	-0.12781139
59	0x3e836695	0.256642
60	0x3ecfcd80	0.40586472
61	0x3e8ed52c	0.27897012
62	0x3e065215	0.1311725
63	0x3c3705b1	0.0111707905
64	0x3eb6492e	0.35602707
65	0x3d8e9459	0.06961889
66	0x3e4b1b2b	0.19834583
67	0xbd5c2021	-0.053741578
68	0x3eb22cad	0.3479971
69	0x3e802996	0.25031728
70	0x3e50696d	0.20352717
71	0x3e928a15	0.28620973
72	0x3d5cc957	0.05390295
73	0x3e05e0d3	0.13074045
74	0xbc132f3f	-0.008983432
75	0x3d81dc5d	0.06340859
76	0x3eb62bf5	0.35580412
77	0x3d4e1f20	0.050322652
78	0xbd3cf61c	-0.046133146
79	0x3ae9fed4	0.0017852434
80	0xbc8826c7	-0.016620053
81	0xbbd03410	-0.0063538626
82	0x3dc0f4b6	0.09421675
83	0x3d6c5a3a	0.057703234
84	0x3d007d0b	0.03136925
85	0x3f04181c	0.5159929
86	0x3b681ec8	0.0035418738
87	0xbd24933d	-0.04017948
88	0x3ddb950d	0.107217886
89	0x3dc4af78	0.096037805
90	0xbc824f36	-0.015906911
91	0x3ddf0ffe	0.10891722
92	0xbd5780e1	-0.052613143
93	0x3da50bab	0.08058866
94	0x3efb6c00	0.49105835
95	0x3c10ae7e	0.008830665
96	0xbd2a430b	-0.041567843
97	0x3d804bbe	0.06264447
98	0x3cb898ed	0.022533858
99	0xbd60bec4	-0.05486943
100	0x3e19c75d	0.15017457
101	0x3c4c4836	0.012468388
102	0x3df772aa	0.12082417
103	0x3ec376d0	0.38176584
104	0x3d025d2d	0.03182714
105	0xbe21b80d	-0.15792866
106	0x3dd1ee68	0.102505505
107	0x3d788476	0.0606732
108	0x3cfdc084	0.030975588
109	0xbe619b4a	-0.22031894
110	0x3df9fb01	0.12206078
111	0xbe660a16	-0.22464785
112	0xbe5e380e	-0.2170107
113	0x3c1fbaac	0.009749096
114	0x3d765c96	0.06014689
115	0xbe88efe1	-0.26745513
116	0x3db2d4ee	0.08732019
117	0xbcc8aa15	-0.024495164
118	0xbc7bfe26	-0.015380418
119	0xbd88d0fb	-0.06680485
120	0x3c434d65	0.011920308
121	0x3e6461e0	0.22302961
122	0xbe33689a	-0.17520371
123	0x3dd682bb	0.104741536
124	0x3e10efed	0.14154024
125	0x3d5f1068	0.054459006
126	0x3e3a8564	0.18214947
127	0x3c150475	0.009095301
128	0x3cbc9932	0.023022268
129	0x3de2a383	0.11066344
130	0x3e236aae	0.15958664
131	0xbda76d27	-0.08175116
132	0xbcd2caa1	-0.025731387
133	0xbe776cb4	-0.2416256
134	0xbd39afe9	-0.045333777
135	0xbdecc357	-0.115606956
136	0x3d4c6371	0.049899522
137	0xbd1f5bb8	-0.03890583
138	0x3c857a03	0.016293531
139	0x3ce773a3	0.028253382
140	0x3daf5969	0.085619755
141	0xbc5ff8ee	-0.013670189
142	0xbc952b97	-0.018209262
143	0x3e234fed	0.15948458
144	0xbc870fe0	-0.016487062
145	0x3ca32b03	0.01991797
146	0x3d0078bb	0.031365138
147	0x3e379acd	0.17930146
148	0x3d65129d	0.055925954
149	0x3df010f5	0.11721984
150	0x3d77e00b	0.0605164
151	0x3d8aef15	0.067838825
152	0x3d3b0b7c	0.04566525
153	0xbdde3919	-0.10850734
154	0x3d6eb5c4	0.058278814
155	0xbb18864c	-0.0023273407
156	0xbea2a923	-0.31769666
157	0xbf072bcb	-0.528012
158	0x3e98c431	0.29837182
159	0x39990fea	0.0002919429
160	0x3d5d6c88	0.05405858
161	0xbc07e790	-0.008294955
162	0xbe3ef889	-0.18649496
163	0x3e9a2da0	0.30112934
164	0xbe654dbf	-0.22392939
165	0xbe3704b2	-0.17872885
166	0x3e2707e9	0.16311611
167	0xbed30708	-0.41216302
168	0x3da045cc	0.07825813
169	0xbcdebb84	-0.027189024
170	0xbe7bd525	-0.24593027
171	0x3bbb6833	0.0057192086
172	0x3e859720	0.26091862
173	0xbe7763af	-0.2415912
174	0xbe2f9933	-0.17148285
175	0x3e25a45a	0.16175976
176	0xbec030db	-0.37537274
177	0x3dab9bc9	0.08379323
178	0xbe748839	-0.2388009
179	0x3d281f1b	0.04104529
180	0xbe54615a	-0.20740262
181	0x3e59b72d	0.21261282
182	0xbdd97bef	-0.106193416
183	0x3d46687f	0.0484395
184	0x3e27d84a	0.16391101
185	0xbf0ce085	-0.5503009
186	0x3e1c80cb	0.15283506
187	0xbe167452	-0.1469281
188	0xbd9c84e5	-0.07642535
189	0xbe210497	-0.15724407
190	0xbe889ada	-0.26680642
191	0x3e15b506	0.14619836
192	0xbd40c0c4	-0.047058836
193	0xbeea392b	-0.4574674
194	0xbecaa6f5	-0.39580503
195	0x3e5313d0	0.20613027
196	0xbe9c47ef	-0.3052363
197	0xbe7d9a18	-0.24765813
198	0xbe619a98	-0.22031629
199	0xbee7f135	-0.45301214
200	0xbdf73de5	-0.12072352
201	0xbe0434f6	-0.12910828
202	0xbe283425	-0.16426142
203	0xbe922ac9	-0.28548267
204	0xbf08847d	-0.5332716
205	0xbe51676f	-0.20449613
206	0xbeea5656	-0.45768994
207	0xbed6a72d	-0.4192442
208	0xbf092cce	-0.5358399
209	0xbf0b9b40	-0.5453377
210	0xbee68201	-0.4502106
211	0xbdfb4de3	-0.12270715
212	0xbe6bd4ac	-0.23030347
213	0x3e144e41	0.14482976
214	0xbea88788	-0.32915902
215	0xbf284c92	-0.6574184
216	0xbe9810f1	-0.29700425
217	0xbe38c5a8	-0.1804415
218	0xbe99bbc0	-0.30026054
219	0xbea45ee6	-0.32103652
220	0xbdb5aa98	-0.08870429
221	0xbe845c70	-0.25851774
222	0xbeab3503	-0.33438882
223	0xbe63b8dd	-0.22238488
224	0xbf076b8b	-0.5289847
225	0xbdd48133	-0.10376205
226	0x3e27c4e6	0.16383705
227	0x3e3bb34b	0.18330114
228	0x3d8de555	0.06928507
229	0xbf020158	-0.507833
230	0x3e2de6ee	0.16982624
231	0xbe902a3d	-0.28157225
232	0xbccff17e	-0.025383707
233	0xbc683b55	-0.014174302
234	0xbe104549	-0.1408893
235	0x3db877e3	0.090072416
236	0x3e83e17d	0.2575797
237	0xbd3d13ae	-0.046161346
238	0x3d3cb7f4	0.04607387
239	0x3e442782	0.19155696
240	0x3ca27166	0.019829463
241	0x3e4eda48	0.20200455
242	0x3de2a313	0.1106626
243	0x3d8bd8dc	0.06828472
244	0x3de62b46	0.112387225
245	0x3da20e3b	0.079128705
246	0x3e465b48	0.19370759
247	0x3e0f4f38	0.13995063
248	0x3dd7fd34	0.105463415
249	0x3d95b85c	0.073105544
250	0xbd10df7f	-0.035369392
251	0x3d8350f7	0.06411927
252	0xbcd4a21e	-0.02595621
253	0x3d6d0440	0.05786538
254	0x3e4bed8c	0.19914836
255	0xbd891cc1	-0.066949375

conv0.conv.bias f4 [32]
0	0xbb85397f	-0.004065692
1	0xbaf0f1fa	-0.0018382662
2	0x3c1de225	0.009636437
3	0x3a75a2b8	0.0009370255
4	0xba914b53	-0.001108507
5	0xbc85d60b	-0.016337415
6	0xbc59401b	-0.013259913
7	0x3b86e08f	0.004116125
8	0x3c7f7efa	0.015594238
9	0x3a70b743	0.00091825816
10	0xbb12fd37	-0.002242876
11	0x3d035b2a	0.032069363
12	0x3d4bddea	0.04977218
13	0x3aec82eb	0.0018044388
14	0x3ac4bfee	0.0015010813
15	0x3c6108e6	0.013735032
16	0x3abecaa5	0.0014556242
17	0x3d3a9007	0.04554751
18	0x3cb396bf	0.021922467
19	0xbb5b54d6	-0.0033467314
20	0xbb369106	-0.0027857437
21	0x3a162963	0.0005728213
22	0xb95d9652	-0.00021132201
23	0x399f7244	0.00030411978
24	0x3cb7763e	0.02239525
25	0xba8f811e	-0.0010948514
26	0xba0bc2a5	-0.00053314335
27	0x3d5f756d	0.054555345
28	0xbbdfd97d	-0.0068313465
29	0x3cf5e765	0.030017564
30	0xbadd163e	-0.0016867591
31	0xb9735d35	-0.00023209008

conv0.bn.weight f4 [32]
0	0x3f600de2	0.87521183
1	0x3f2608ff	0.64857477
2	0x3f2f525a	0.68485034
3	0x3f4b3a92	0.79386246
4	0x3f3d6163	0.73976725
5	0x3f211a28	0.62930536
6	0x3f2b3db2	0.66891015
7	0x3f3d43d8	0.73931646
8	0x3f640a11	0.8907786
9	0x3f59e9b0	0.85122204
10	0x3f29349e	0.6609591
11	0x3f1f4834	0.6221955
12	0x3f36d664	0.71420884
13	0x3f6cc88d	0.92493516
14	0x3f30ba6e	0.6903447
15	0x3f66b3d1	0.9011813
16	0x3f3eb0ca	0.7448851
17	0x3fa87d0f	1.3163165
18	0x3f4cdd24	0.80024934
19	0x3f31e4ab	0.69489545
20	0x3f3ab8a3	0.72937983
21	0x3f67c444	0.9053385
22	0x3f4ae1ba	0.7925068
23	0x3f28591f	0.6576099
24	0x3f5b49cd	0.85659486
25	0x3f484c0c	0.7824104
26	0x3f492f15	0.78587466
27	0x3f3e7ee4	0.7441237
28	0x3f767745	0.9627574
29	0x3f2085d5	0.6270421
30	0x3f3a7277	0.7283091
31	0x3f221dff	0.6332702

conv0.bn.bias f4 [32]
0	0xbf13cf8b	-0.5773856
1	0xbe107ef2	-0.14110926
2	0xbe45e083	-0.19323926
3	0xbec8f25b	-0.39247403
4	0xbe67ad25	-0.22624643
5	0xbd88a5a8	-0.066722214
6	0xbcaef006	-0.021354686
7	0xbeb8bfc7	-0.36083815
8	0xbe7741bd	-0.24146171
9	0xbed19b71	-0.40938905
10	0xbe8dc6bf	-0.27690694
11	0x3dff2fb0	0.124602675
12	0xbe4f9588	-0.20271885
13	0xbeabfc62	-0.3359099
14	0xbe9ac8b5	-0.30231252
15	0xbdf07379	-0.11740775
16	0xbc4d2f21	-0.012523443
17	0xbe01ca95	-0.12674935
18	0xbe95ec4f	-0.29281852
19	0xbe91a57e	-0.28446573
20	0xbe40f7e6	-0.18844566
21	0xbc9778d0	-0.018490225
22	0xbeada071	-0.3391147
23	0xbe9d3299	-0.30702665
24	0xbe5f6537	-0.21815954
25	0xbec165d9	-0.37773016
26	0xbea901c1	-0.3300915
27	0xbe08193c	-0.13290876
28	0xbe0c22f4	-0.13685209
29	0x3f05f7e4	0.52331376
30	0xbe6a0676	-0.22854027
31	0xbda4ab69	-0.080405064

conv0.bn.running_mean f4 [32]
0	0x3ea04f46	0.3131048
1	0x3cd36a37	0.025807483
2	0xbe1fad69	-0.15593494
3	0xbe0f3565	-0.13985212
4	0xbdd45afa	-0.10368915
5	0xbd938156	-0.07202403
6	0xbe9500e9	-0.29102257
7	0x3ea5cb93	0.32381877
8	0xbe5e4ad8	-0.21708238
9	0xbdfdaf8e	-0.12387
10	0xbd61a128	-0.05508533
11	0xbbe7b16e	-0.007070712
12	0xbd6aa832	-0.05728931
13	0xbd09f20d	-0.033678103
14	0x3d8cdc60	0.06877971
15	0x3e87cc27	0.26522943
16	0x3e3d8374	0.18507177
17	0xbe10207e	-0.14074895
18	0xbe446a2e	-0.1918113
19	0xbd8db0bb	-0.06918474
20	0x3ce8931b	0.028390458
21	0xbda61a59	-0.08110494
22	0xbdf3a12b	-0.11895975
23	0x3dbdab90	0.092612386
24	0xbd9bc114	-0.07605186
25	0xbddf5101	-0.10904122
26	0xbe0da7d6	-0.13833556
27	0xbc757904	-0.014982466
28	0x3e901f5a	0.2814892
29	0x3e18db8d	0.14927502
30	0xbd9fb5c8	-0.07798344
31	0x3e83efb3	0.25768813

conv0.bn.running_var f4 [32]
0	0x3def5187	0.11685472
1	0x3e12cc94	0.14335853
2	0x3e2da2ff	0.1695671
3	0x3e06ede2	0.13176683
4	0x3e39ae50	0.18132901
5	0x3e154792	0.14578083
6	0x3e82dada	0.25557595
7	0x3defe853	0.11714234
8	0x3e4734a2	0.19453672
9	0x3e106f3f	0.14104937
10	0x3dff8ea7	0.12478381
11	0x3e17cafd	0.14823528
12	0x3e0e6803	0.13906865
13	0x3db3e341	0.087835796
14	0x3e0541a6	0.13013324
15	0x3df62bf6	0.12020104
16	0x3dd65a24	0.10466412
17	0x3e2556df	0.1614642
18	0x3e31785e	0.17331073
19	0x3dfa8d64	0.12233999
20	0x3e77ad6c	0.24187249
21	0x3e0fa76e	0.14028713
22	0x3de30a21	0.11085916
23	0x3e03cd61	0.12871315
24	0x3de54fe3	0.11196878
25	0x3e0af50a	0.13570037
26	0x3e0dcf2d	0.13848563
27	0x3dd17175	0.10226718
28	0x3e1dccde	0.15410182
29	0x3dd8b857	0.10582035
30	0x3e07eba8	0.1327349
31	0x3e129ee7	0.14318429

blocks.0.conv.weight f4 [32, 32, 3, 3]
0	0x3e3dde39	0.18541802
1	0xbdda74cb	-0.10666808
2	0x3e455f4e	0.19274637
3	0xbeb51795	-0.35369554
4	0x3dc74377	0.09729665
5	0xbe0e5e27	-0.13903104
6	0x3e67fc37	0.22654806
7	0xbd5dbe5f	-0.05413663
8	0x3e1db075	0.15399344
9	0x3d51a2a4	0.051180497
10	0xbce37162	-0.027764026
11	0xbeae73b3	-0.34072646
12	0xbe25f6b6	-0.16207394
13	0x3bee9a30	0.007281564
14	0x3de9d8e9	0.114183255
15	0xbbdec6d6	-0.0067986054
16	0xbc80e0ec	-0.015732251
17	0xbd887e0d	-0.06664667
18	0x3de4fdd5	0.11181227
19	0xbe192075	-0.14953788
20	0x3d91ffed	0.07128892
21	0x3d559b82	0.052150257
22	0xbe6b8991	-0.23001696
23	0x3c1e3f38	0.009658627
24	0x3dcba020	0.09942651
25	0x3daea2c6	0.0852714
26	0x3da9cd49	0.08291108
27	0x3d4e40ea	0.050354876
28	0x3b886b98	0.004163217
29	0x3d9e88d4	0.07740942
30	0xbdfb7874	-0.12278834
31	0x3e10bc73	0.14134388
32	0x3b016d09	0.0019748828
33	0xbd01b995	-0.031671125
34	0xbe938817	-0.28814766
35	0x3e61bc52	0.22044495
36	0xbdb65fe8	-0.089050114
37	0x3e7bb6fb	0.2458152
38	0xbe73a5a0	-0.2379365
39	0xbd337791	-0.0438152
40	0xbc257e7d	-0.010100958
41	0xbd9a5f1a	-0.075376704
42	0xbe2ef147	-0.17084228
43	0x3ddc1c59	0.107475944
44	0xbe63de33	-0.22252731
45	0x3d2c2518	0.042027563
46	0xbe7503f4	-0.23927289
47	0x3e640120	0.22266054
48	0xbddcfd4b	-0.10790499
49	0xbddf9a53	-0.10918107
50	0x3e16f104	0.14740378
51	0x3de1086c	0.109879345
52	0x3e5d2077	0.21594416
53	0x3e4e9afa	0.20176306
54	0x3dc17574	0.094462305
55	0xbd950c8e	-0.07277785
56	0x3d798e24	0.06092657
57	0xbdbb35dc	-0.09141132
58	0x3d8723f9	0.06598658
59	0xbeb0142e	-0.34390396
60	0x3d22f2d6	0.039782368
61	0x3d9428d8	0.07234353
62	0xbe4c83fd	-0.19972225
63	0x3e3a0494	0.18165809
64	0x3e54f632	0.20797041
65	0x3eaa2f5e	0.33239263
66	0x3ca35545	0.01993812
67	0x3e5fed8c	0.2186796
68	0x3dac46a3	0.084119104
69	0x3e0e91b1	0.13922764
70	0x3dae20eb	0.08502372
71	0x3e2f5b07	0.17124568
72	0xba287182	-0.00064256054
73	0xbf15d31c	-0.5852525
74	0xbc6b29be	-0.014353214
75	0xbe10fdd0	-0.14159322
76	0x3e808d8d	0.25107995
77	0x3ce248c0	0.02762258
78	0xbd8b72b0	-0.06808984
79	0x3e6ce609	0.23134626
80	0x3dc5efec	0.09664902
81	0xbe0354f4	-0.12825376
82	0xbdec1829	-0.11528046
83	0xbc270d5d	-0.010196057
84	0xbc7888eb	-0.015169363
85	0x3f018765	0.5059722
86	0x3e0f114b	0.1397144
87	0x3d80690d	0.06270037
88	0xbc362696	-0.011117598
89	0x3d7f03e7	0.06225958
90	0xbd2cfd2e	-0.04223364
91	0xbd74a42a	-0.05972687
92	0xbd47a5dd	-0.048742164
93	0xbcf722ca	-0.030167956
94	0x3db81ba9	0.08989651
95	0xbdd14721	-0.10218645
96	0x3db82055	0.08990542
97	0x3d4acf05	0.049513835
98	0x3e3be426	0.1834875
99	0x3da60daa	0.08108075
100	0x3e1ac62f	0.15114664
101	0x3e58fe30	0.21190715
102	0xbe742823	-0.23843436
103	0x3d909f15	0.070615925
104	0x3cb4e7f8	0.022083268
105	0x3e47d702	0.19515613
106	0xbe7238f5	-0.2365454
107	0xbc320048	-0.010864325
108	0xbef7f406	-0.48428363
109	0xbc3ee9be	-0.011652408
110	0x3e172092	0.14758518
111	0x3e46286b	0.19351356
112	0x3da48af6	0.08034317
113	0x3d6a5c28	0.057216793
114	0x3c962e9c	0.018332772
115	0x3ea7564d	0.3268303
116	0xbc6fe5b3	-0.014642167
117	0xbe031748	-0.1280185
118	0xbd84d02b	-0.064850174
119	0xbebfd80b	-0.37469515
120	0x3e494251	0.19654204
121	0xbee78846	-0.45221156
122	0xbea22f73	-0.31676826
123	0x3cd23dfc	0.025664322
124	0xbdd6daec	-0.10490975
125	0x3e4af01b	0.19818155
126	0xbe425280	-0.18976784
127	0x3e0624dd	0.131
128	0xbec20581	-0.37894824
129	0x3d3934b4	0.045216277
130	0xbd2a5a4b	-0.041590016
131	0xbe1e3921	-0.1545148
132	0x3da02eaa	0.078214005
133	0xbe006369	-0.12537922
134	0xbd67b121	-0.056565408
135	0x3e2d359a	0.16914979
136	0x3e08dad2	0.13364723
137	0x3d61fb45	0.05517127
138	0x3e042262	0.12903741
139	0x3c1e97c8	0.009679742
140	0x3d5e2f14	0.054244116
141	0xbcbc08e1	-0.022953453
142	0x3daba660	0.08381343
143	0x3e04730e	0.12934515
144	0xbd000788	-0.031257182
145	0x3d91810c	0.07104692
146	0xbd834c71	-0.064110644
147	0x3e4f318a	0.20233741
148	0xbde0c195	-0.10974423
149	0x3d310090	0.043213427
150	0x3e22069b	0.15822832
151	0x3e45b29e	0.19306418
152	0x3e157a97	0.14597546
153	0xbe09173e	-0.13387772
154	0x3e2b51c6	0.16730413
155	0x3d651d42	0.055936106
156	0x3dee6cf6	0.116418764
157	0xbfb2e1ee	-1.3975198
158	0x3e7de807	0.24795543
159	0x3e6773a3	0.22602706
160	0x3d5dea70	0.054178655
161	0x3e28a9b6	0.1647099
162	0xbda86c14	-0.08223739
163	0xbe9f3de6	-0.31101912
164	0x3e8e0370	0.27736998
165	0x3e851d59	0.25998953
166	0xbecd3c39	-0.4008501
167	0x3d072172	0.03299088
168	0xbf0cb124	-0.54957795
169	0x3e7e9d2b	0.24864642
170	0x3d8fe33e	0.07025765
171	0x3de8d19d	0.113681056
172	0xbe487629	-0.19576325
173	0xbdc081fa	-0.09399791
174	0xbd9dd948	-0.07707459
175	0xbd5b15a0	-0.05348742
176	0xbd134604	-0.035955444
177	0xbe0f6794	-0.14004356
178	0xbcc60285	-0.024171123
179	0xbdababdf	-0.08382391
180	0x3cf15fdb	0.029464653
181	0xbdcef69e	-0.10105632
182	0xbd73d613	-0.05953033
183	0x3dd9417d	0.10608194
184	0xbe9e86c8	-0.30962205
185	0xbe5d925c	-0.21637863
186	0x3c7a451c	0.015275266
187	0xbe0f8e2b	-0.14019077
188	0xbe580250	-0.21094632
189	0x3d2b247c	0.04178284
190	0x3d82c0bb	0.06384417
191	0x3d4fa68a	0.050695933
192	0x3d837f80	0.06420803
193	0xbe620905	-0.22073753
194	0x3e86ce43	0.2632924
195	0x3e72dcf1	0.23717095
196	0x3e8462a1	0.25856498
197	0x3d97aaa4	0.07405594
198	0xbd8fdf95	-0.07025067
199	0xbe21e25a	-0.15809003
200	0x3d78e943	0.06076933
201	0xbe831959	-0.25605276
202	0x3ebceb8c	0.36898458
203	0x3e502675	0.2032717
204	0x3cbddb8c	0.023175977
205	0xbedf1672	-0.43571812
206	0x3d67f374	0.05662866
207	0x3d1e35dc	0.038625583
208	0x3dd2e3a3	0.102973245
209	0x3e41912b	0.18903033
210	0x3da15a40	0.07878542
211	0xbda8bd45	-0.08239225
212	0x3e48a0ce	0.19592592
213	0xbe039c0e	-0.12852499
214	0x3d2eaa73	0.04264302
215	0x3ea8f476	0.3299901
216	0x3e24a7f1	0.1607969
217	0xbc051687	-0.008123047
218	0x3ddf1cf1	0.10894192
219	0x3b483fcf	0.003055561
220	0xbda85515	-0.08219353
221	0xbd2aba27	-0.041681435
222	0x3cf4a878	0.029865488
223	0x3e5aa667	0.2135254
224	0x3e28c165	0.16480024
225	0x3e17de5b	0.14830916
226	0x3d1ed5d2	0.038778134
227	0xbc6886f6	-0.014192333
228	0x3dfe7232	0.12424125
229	0x3e13d496	0.14436564
230	0xbe4343d5	-0.19068845
231	0xbe8e371a	-0.27776414
232	0xbce695ec	-0.02814766
233	0x3cd05a0d	0.025433565
234	0x3c63d3a6	0.013905441
235	0xbd9497bc	-0.072555035
236	0x3ccf4eac	0.025306068
237	0xbdea83e8	-0.1145094
238	0xbe5d6dee	-0.21623966
239	0x3d8e4e79	0.06948561
240	0xbd009d06	-0.03139975
241	0x3eb1f39b	0.3475617
242	0xbdd4fb18	-0.10399455
243	0x3e1d1018	0.1533817
244	0xbe0a87e1	-0.13528396
245	0xbdc0aa9d	-0.09407542
246	0x3e02f0af	0.12787126
247	0xbd6a266e	-0.057165556
248	0xbe2f18ee	-0.17099354
249	0x3d63c7c1	0.055610422
250	0x3e29f039	0.16595544
251	0x3e19291f	0.14957093
252	0x3e2a20c7	0.16614066
253	0xbe5572ce	-0.20844576
254	0x3e0b888b	0.13626306
255	0xbe1c02d1	-0.1523545

blocks.0.conv.bias f4 [32]
0	0xba23f8a0	-0.00062550046
1	0x3be33330	0.0069335923
2	0xb97eab4d	-0.00024287142
3	0xbb911b96	-0.0044283373
4	0x3ca2007c	0.019775622
5	0x3b295077	0.0025835314
6	0x3b949da4	0.004535394
7	0xb9c42857	-0.0003741409
8	0x38e0593b	0.00010697773
9	0x3b209ab2	0.0024506268
10	0x3c01c09a	0.007919455
11	0x3aa6e40f	0.0012732762
12	0x39b3e9b4	0.00034315663
13	0xbaa2bae5	-0.0012415318
14	0xba597f4b	-0.0008296861
15	0xb9424719	-0.00018527768
16	0x3a80429e	0.0009785478
17	0xbbe85c48	-0.007091079
18	0x395a5de1	0.00020825073
19	0xba4e8d13	-0.0007879298
20	0xb9658e5a	-0.00021892172
21	0x3ba57227	0.0050490084
22	0x3b3dc4b8	0.0028956365
23	0x39f531f1	0.0004676725
24	0xbc16bfbe	-0.009200988
25	0xba2f39d0	-0.0006684335
26	0xb9664219	-0.00021959133
27	0xbbb53aef	-0.005530707
28	0x37dc033f	2.6227555e-05
29	0x392c9c60	0.00016461452
30	0xbba9ca10	-0.0051815584
31	0xbc044766	-0.008073663

blocks.0.bn.weight f4 [32]
0	0x3f58a2af	0.84623235
1	0x3f58b9e6	0.8465866
2	0x3f50fa72	0.8163215
3	0x3f806a26	1.0032394
4	0x3f8b0b10	1.0862751
5	0x3f393e2e	0.72360504
6	0x3f42768c	0.7596214
7	0x3f540200	0.8281555
8	0x3f616ffd	0.88061506
9	0x3f8a849d	1.082172
10	0x3f625fa1	0.8842717
11	0x3f74bb37	0.9559817
12	0x3f691d78	0.9106059
13	0x3f569020	0.8381367
14	0x3f5d580b	0.8646247
15	0x3f459ecf	0.7719545
16	0x3f93d2f2	1.154875
17	0x3f827753	1.0192665
18	0x3f56f235	0.8396333
19	0x3f76e6ee	0.9644612
20	0x3f69325b	0.9109246
21	0x3f40216a	0.75050986
22	0x3f841098	1.0317564
23	0x3f6d2a8f	0.92643064
24	0x3f5cbdaa	0.86226904
25	0x3f5be24c	0.85892177
26	0x3f8a6b7a	1.0814049
27	0x3f9b3bd7	1.2127637
28	0x3f375192	0.7160884
29	0x3f281426	0.65655744
30	0x3f1af5fb	0.60531586
31	0x3f7fd090	0.99927616

blocks.0.bn.bias f4 [32]
0	0xbf07b7b4	-0.53014684
1	0xbee4c4c3	-0.44681367
2	0x3cbeb193	0.023278033
3	0xbdc5ae9a	-0.09652443
4	0xbedad3e0	-0.42739773
5	0xbe8660a5	-0.2624561
6	0xbe49f4f3	-0.19722347
7	0xbea97ad8	-0.33101535
8	0xbec17395	-0.37783495
9	0xbebc8fad	-0.36828366
10	0xbefdd00e	-0.49572796
11	0xbf085b75	-0.5326455
12	0xbf046484	-0.51715875
13	0xbf04836e	-0.51763046
14	0xbe213624	-0.1574331
15	0xbf12bed7	-0.5732245
16	0xbef09fc6	-0.46996897
17	0xbe9c54bc	-0.30533397
18	0xbea0299f	-0.31281754
19	0xbf0fe57c	-0.5620954
20	0xbebd7f8f	-0.37011382
21	0xbe968988	-0.29401803
22	0xbf44305b	-0.76636285
23	0xbe8d5dca	-0.27610618
24	0xbc86c335	-0.016450504
25	0xbeec0662	-0.4609862
26	0xbed5f2e6	-0.4178688
27	0xbf115135	-0.5676454
28	0xbf12274a	-0.570912
29	0xbe8ea1bb	-0.27857766
30	0xbc95d9fd	-0.018292421
31	0xbf3f46c1	-0.74717337

blocks.0.bn.running_mean f4 [32]
0	0x3f15307e	0.5827712
1	0xc0429ba3	-3.0407493
2	0x400b6c41	2.1784823
3	0xbea52439	-0.32254198
4	0xbf7486de	-0.9551829
5	0xc02c5d45	-2.6931927
6	0xc012efac	-2.2958784
7	0xbfde1c10	-1.7352314
8	0x3f262b98	0.6491027
9	0xbfb2f120	-1.3979836
10	0xbfe48cc7	-1.7855462
11	0xbfbf1706	-1.4928901
12	0xbfde92c6	-1.7388542
13	0x3fcac8b7	1.5842503
14	0x3fa6bb6f	1.302595
15	0xbea0243e	-0.3127765
16	0xbd2b3e9b	-0.041807752
17	0xbfd30214	-1.6485009
18	0x3faa746f	1.3316783
19	0xbf0292e5	-0.51005393
20	0x3d1f6274	0.03891225
21	0xbfa9d6c7	-1.326867
22	0xbfc5e826	-1.5461471
23	0x3f876e12	1.0580466
24	0xbfc9ba66	-1.5760009
25	0xbf8ef431	-1.1168271
26	0xbdeb87a9	-0.115004845
27	0xbf8904e5	-1.0704619
28	0xc045d5f8	-3.0911846
29	0x3dd4c459	0.10389013
30	0x3e987d4e	0.297831
31	0xc0367d7b	-2.8514087

blocks.0.bn.running_var f4 [32]
0	0x4003bbde	2.0583415
1	0x40356975	2.8345616
2	0x40a77b9c	5.233839
3	0x401a7f20	2.414009
4	0x40bac1e8	5.83617
5	0x409366d2	4.6063013
6	0x40d611a2	6.6896524
7	0x4028415d	2.6289895
8	0x4004cc62	2.0749745
9	0x3ffec1fb	1.9902948
10	0x4015382e	2.331554
11	0x4026ef2e	2.6083484
12	0x4025559d	2.5833504
13	0x40313c70	2.7693138
14	0x4094c720	4.6493073
15	0x4003c39a	2.0588136
16	0x402ab2fa	2.6671739
17	0x40b7bb8b	5.7416434
18	0x40032478	2.0491009
19	0x400c0729	2.187937
20	0x4003928a	2.055819
21	0x407643db	3.8478916
22	0x4026da3e	2.6070704
23	0x402b46ec	2.6762037
24	0x40e02920	7.00502
25	0x4023116f	2.547939
26	0x400b34c1	2.1750948
27	0x4058ce8c	3.3876066
28	0x40a1ce7b	5.056455
29	0x40077101	2.1162722
30	0x4031c77e	2.777801
31	0x4046ba6c	3.1051283

blocks.1.conv.weight f4 [32, 32, 3, 3]
0	0x3d90b0d6	0.07064979
1	0x3e247759	0.16061153
2	0x3dbe1b88	0.09282595
3	0xbee92169	-0.45533302
4	0x3e34f3b3	0.17671089
5	0xbdf9506b	-0.12173542
6	0x3d737e88	0.05944684
7	0xbeae2547	-0.34012815
8	0x3e0ccab7	0.13749205
9	0x3ce6982c	0.028148733
10	0x3d95d565	0.073160924
11	0xbe851264	-0.25990593
12	0xbe696798	-0.22793424
13	0x3cb3be4b	0.021941325
14	0xbd3df090	-0.046371996
15	0xbe1a0325	-0.15040262
16	0x3deac830	0.11463964
17	0xbba6a82b	-0.005085965
18	0xbd066393	-0.032809805
19	0xbeb170c4	-0.34656346
20	0x3e1df5d2	0.15425804
21	0xbe8a4724	-0.270074
22	0xbf425e94	-0.75925565
23	0xbe782e90	-0.24236512
24	0xbcfb9cbc	-0.030714385
25	0x3e582bba	0.2111043
26	0x3dd3318e	0.10312186
27	0x3ecd882a	0.40142947
28	0xbd1ded1d	-0.038556207
29	0xbd0c567b	-0.03426216
30	0xbe77b0bc	-0.24188513
31	0x3dedf655	0.1161925
32	0xbe077a58	-0.13230264
33	0xbe4cc119	-0.19995536
34	0xbf10886f	-0.5645818
35	0xbe84e101	-0.25952914
36	0x3d2bd4aa	0.04195086
37	0x3dedb6c4	0.116071254
38	0xbe1164d4	-0.14198619
39	0x3e24dd33	0.16100006
40	0xbd75095d	-0.059823383
41	0x3da3bb85	0.07994751
42	0x3d7a274d	0.061072636
43	0xbe412bfb	-0.18864433
44	0x3d64f3f0	0.0558967
45	0xbde521b1	-0.11188067
46	0xbdbd48b8	-0.092423856
47	0x3e8ab569	0.2709153
48	0x3d3ae487	0.045628097
49	0x3cf3d3e6	0.029764127
50	0x3dee9af6	0.1165065
51	0x3d365650	0.044515908
52	0x3d9ebf0f	0.07751285
53	0x3e76abcd	0.24088974
54	0xbe25a5bb	-0.16176502
55	0x3e45d2bd	0.19318672
56	0xbda1ade0	-0.07894492
57	0xbe11dc66	-0.14244232
58	0x3d0536f5	0.032523114
59	0xbe48e988	-0.19620335
60	0xbd508845	-0.050911207
61	0x3e1ac97e	0.15115926
62	0x3c8ac683	0.01694036
63	0x3d23001c	0.039795026
64	0xbf201e81	-0.62546545
65	0x3cb38a18	0.021916434
66	0xbdc71691	-0.09721101
67	0x3dc6a4e5	0.0969942
68	0xbed0626d	-0.40700093
69	0x3d51ba4f	0.05120307
70	0xbd34b3e0	-0.044116855
71	0x3dc58917	0.096452884
72	0x3e5de059	0.21667613
73	0xbe924645	-0.28569236
74	0xbda432be	-0.08017491
75	0xbd21fd1f	-0.039548036
76	0x3df64758	0.120253265
77	0xbb56c584	-0.0032771537
78	0xbe626f78	-0.22112834
79	0xbe3543c8	-0.17701638
80	0x3ead2813	0.33819637
81	0xbb5bb884	-0.0033526728
82	0xbe087d59	-0.13329066
83	0xbe40a3b1	-0.18812443
84	0x3ead8d70	0.3389697
85	0x3c3cd122	0.0115244705
86	0xbeaf38bc	-0.34222972
87	0x3e2f35ec	0.17110413
88	0xbe94e987	-0.29084417
89	0xbdda3c04	-0.10655978
90	0x3dbc9390	0.09207833
91	0xbea5b8fe	-0.323677
92	0xbe12ed11	-0.14348246
93	0x3995b930	0.0002855747
94	0xbd99e3e5	-0.075141706
95	0x3e002143	0.12512688
96	0x3ded3964	0.11583212
97	0xbc781a70	-0.015143022
98	0x3d8a8383	0.06763365
99	0x3a7e8e4f	0.00097105367
100	0x3d0ffb68	0.03515187
101	0xbcac8c8c	-0.021063112
102	0xbe95971b	-0.29216847
103	0xbdb95f69	-0.09051401
104	0x3d9327e4	0.07185343
105	0xbd3b2b17	-0.04569539
106	0xbee7e27f	-0.4528999
107	0xbd787b97	-0.06066474
108	0x3d009043	0.03138758
109	0x3e75855d	0.23976655
110	0xbe8d1089	-0.27551678
111	0x3e09bab3	0.13450126
112	0x3ece696b	0.40314803
113	0x3dd56d03	0.10421183
114	0xbde1172f	-0.1099075
115	0xbb445965	-0.002996051
116	0x3e9dcd57	0.30820724
117	0xbeb247d1	-0.34820417
118	0xbe9c722c	-0.30555856
119	0xbe3ca08a	-0.18420616
120	0xbe01ec51	-0.12687804
121	0xbea105b6	-0.3144967
122	0x3d1493af	0.036273655
123	0xbdc3a49d	-0.09552882
124	0x3d2b06c5	0.041754503
125	0xbd8504d0	-0.064950585
126	0x3e9e24f4	0.30887568
127	0xbe430c59	-0.19047679
128	0xbe0c7dd9	-0.13719882
129	0x3e232ee8	0.15935862
130	0xbe0189be	-0.126502
131	0x3e64f193	0.22357778
132	0x3d51e279	0.05124137
133	0xbdf90df7	-0.12160867
134	0xbd1f360f	-0.038869914
135	0xbdfd613c	-0.123720616
136	0x3bba54b2	0.005686366
137	0x3d5d45dd	0.054021705
138	0xbe54a7cd	-0.20767136
139	0x3dce1346	0.1006227
140	0xbe107088	-0.14105427
141	0x3c5cb992	0.013471978
142	0xbdc58c26	-0.09645872
143	0x3dc1a6c9	0.0945564
144	0x3eca7686	0.3954355
145	0xbee392ef	-0.4444804
146	0x3da17179	0.07882971
147	0xbd138537	-0.036015715
148	0xbe659bca	-0.2242271
149	0x3ca61846	0.020275246
150	0x3e4e0d55	0.20122273
151	0xbdb371a1	-0.08761907
152	0xbde0d148	-0.10977417
153	0x3d7044e6	0.058659457
154	0xbc57f7f9	-0.01318168
155	0xbd0a96d5	-0.03383525
156	0xbe8a51b0	-0.27015448
157	0xbf484af6	-0.7823938
158	0x3c169770	0.009191379
159	0x3de7a5b5	0.11310903
160	0xbe9f991d	-0.31171504
161	0xbd685c04	-0.056728378
162	0x3db5aa40	0.08870363
163	0x3e18a11d	0.1490521
164	0x3dc99324	0.09842518
165	0x3c3475fd	0.011014459
166	0x3d3804fb	0.044926625
167	0x3ad04b89	0.0015891652
168	0x3d364a8c	0.044504687
169	0x3e8da05e	0.27661413
170	0xbd9a8efe	-0.07546805
171	0xbe35f528	-0.17769301
172	0xbd7dacde	-0.061932437
173	0x3d1fa660	0.038977027
174	0x3d2a58ee	0.041588716
175	0x3d40bd88	0.04705575
176	0x3e4420ba	0.19153109
177	0xbefead81	-0.49741748
178	0xbe2cd63d	-0.168786
179	0xbeee46aa	-0.46538287
180	0x3d196bc2	0.03745628
181	0xbead9c7a	-0.33908445
182	0x3e50b577	0.20381723
183	0xbe45b370	-0.19306731
184	0xbe98742e	-0.29776138
185	0x3e61f60d	0.22066517
186	0xbd0de892	-0.034645624
187	0xbda9075b	-0.08253356
188	0xbe0ffac2	-0.140605
189	0x3d4475d3	0.04796393
190	0x3cbd102f	0.023079006
191	0xbe9f27a2	-0.31084925
192	0x3d37902b	0.044815224
193	0xbe56f8e9	-0.20993389
194	0xbdbad4d9	-0.09122629
195	0xbd815738	-0.06315464
196	0x3de9dc12	0.11418928
197	0xbe5f5680	-0.21810341
198	0x3c033281	0.008007647
199	0xbe52b1a8	-0.20575583
200	0x3e60336c	0.21894616
201	0xbd07b8a2	-0.033135064
202	0xbd9e21fc	-0.07721326
203	0x3e353adf	0.17698239
204	0x3c5753ea	0.013142565
205	0xbe95f0dc	-0.29285324
206	0x3dbab997	0.0911743
207	0xbdff9c6b	-0.12481006
208	0xbd161eba	-0.036650397
209	0x3e5be90b	0.21475618
210	0xbe6d0048	-0.23144639
211	0xbf0878ee	-0.53309524
212	0xbd394eaf	-0.045241054
213	0x3d16b786	0.036796115
214	0xbdfc0c31	-0.12307013
215	0xbe865b11	-0.26241353
216	0xbb17b6f0	-0.002314981
217	0xbd2429d6	-0.04007896
218	0xbe44231e	-0.19154021
219	0xbcbeb756	-0.02328078
220	0xbe550a9d	-0.2080483
221	0xbe840aad	-0.25789395
222	0x3d5e33cf	0.054248627
223	0x3e7c12a9	0.24616493
224	0xbe22e1eb	-0.15906493
225	0xbcfdd9a1	-0.030987563
226	0x3d655554	0.05598958
227	0x3d05a610	0.032629073
228	0xbd98a19f	-0.07452702
229	0xbd88623d	-0.066593625
230	0xbdac2122	-0.08404757
231	0xbead78e2	-0.3388129
232	0x3e13f9ba	0.14450732
233	0xbd17036f	-0.03686851
234	0x3e02d5a6	0.12776813
235	0x3c9c962e	0.01911458
236	0x3eb40728	0.3516171
237	0xbe6345c2	-0.22194579
238	0xbe80eba7	-0.25179788
239	0xbddd49e1	-0.10805107
240	0xbea9f2df	-0.33193108
241	0xbdc9d201	-0.09854508
242	0xbe4c1a27	-0.19931851
243	0x3e2c5304	0.16828543
244	0xbd00166c	-0.031271383
245	0xbd3826e2	-0.044958957
246	0xbe1b2456	-0.1515058
247	0xbdff5446	-0.12467246
248	0x3e980587	0.29691717
249	0xbced5b34	-0.028974153
250	0xbe1757b2	-0.14779547
251	0xbcc47dd1	-0.023985775
252	0xbdf1a1ff	-0.117984764
253	0xbd2bbeae	-0.041929893
254	0x3e3da6f8	0.18520725
255	0xbeac74d3	-0.3368288

blocks.1.conv.bias f4 [32]
0	0x3bc66e86	0.006055656
1	0x39ac4b2f	0.00032862413
2	0xb991d84a	-0.00027817703
3	0x3bbed175	0.005823309
4	0xbb0b854a	-0.0021289163
5	0xba887588	-0.0010411004
6	0x3b70e1f9	0.0036755784
7	0xbb8162ea	-0.003948559
8	0xbc072de4	-0.008250687
9	0x3ad25353	0.0016046561
10	0x395cb2e5	0.00021047478
11	0x3c59a1dc	0.013283219
12	0xbb0da1a9	-0.002161125
13	0xb91c4472	-0.00014902817
14	0xbbaad883	-0.0052137985
15	0x3c1ad604	0.009450439
16	0xba787575	-0.00094779517
17	0x38513625	4.987991e-05
18	0xb99deb9a	-0.0003012091
19	0x3c10e722	0.008844169
20	0x39b63036	0.00034749665
21	0xbae4015e	-0.0017395427
22	0xba2daba9	-0.00066250056
23	0xb993d376	-0.00028195576
24	0x3b5058f1	0.0031791294
25	0x3c5254a8	0.012837566
26	0xbbb23f38	-0.005439665
27	0xbb8884ac	-0.0041662063
28	0xb90eb14a	-0.0001360822
29	0x3a0f5c93	0.0005468812
30	0xb9d88a05	-0.00041301563
31	0x3a4c7c53	0.0007800508

blocks.1.bn.weight f4 [32]
0	0x3f2eba1f	0.6825275
1	0x3f6c79d0	0.9237337
2	0x3f412d6f	0.7545995
3	0x3f61b51a	0.88166964
4	0x3f788ca8	0.97089624
5	0x3f4c7d45	0.79878646
6	0x3f421054	0.75806165
7	0x3f612c28	0.87958
8	0x3f8389e7	1.027646
9	0x3f79320b	0.97341985
10	0x3f746de7	0.954802
11	0x3f84ee18	1.038516
12	0x3f9739bf	1.1814498
13	0x3f56435e	0.83696544
14	0x3f89a558	1.0753584
15	0x3f6f1b55	0.9340108
16	0x3f9335bd	1.1500775
17	0x3f43c2e4	0.76469254
18	0x3f6acae5	0.9171584
19	0x3f604626	0.8760704
20	0x3f5830e6	0.84449613
21	0x3f46cd8c	0.7765739
22	0x3f92496f	1.142866
23	0x3f8e9702	1.1139834
24	0x3f6adce2	0.9174329
25	0x3f812df5	1.009215
26	0x3f8b8d20	1.0902443
27	0x3f51c4e8	0.8194108
28	0x3f54d2a2	0.831339
29	0x3f56e7ce	0.83947456
30	0x3f028f74	0.5100014
31	0x3f8d06af	1.1017665

blocks.1.bn.bias f4 [32]
0	0xbe611cd7	-0.21983658
1	0xbeb26490	-0.34842348
2	0xbdd631ce	-0.10458718
3	0xbea25bba	-0.31710607
4	0xbe5f418f	-0.21802352
5	0xbe3514fc	-0.17683786
6	0xbea22345	-0.31667534
7	0xbee52655	-0.44755808
8	0xbedcc8d3	-0.43121967
9	0xbec3dea7	-0.38255808
10	0xbefd4908	-0.4946978
11	0xbf10f229	-0.5661951
12	0xbeecf351	-0.46279386
13	0xbeb2aa0d	-0.34895363
14	0xbeca9152	-0.39563996
15	0xbeb8b38d	-0.36074486
16	0xbf121f5c	-0.570791
17	0xbee5c6b1	-0.44878152
18	0xbf077d8d	-0.5292595
19	0xbf0dad0a	-0.5534216
20	0xbf1a823d	-0.6035498
21	0xbf0d353e	-0.55159366
22	0xbf19d0d1	-0.60084254
23	0xbe074a14	-0.13211852
24	0xbf38a575	-0.7212747
25	0xbe1d3ed2	-0.15355995
26	0xbec23566	-0.37931365
27	0xbec121c1	-0.37721065
28	0xbe82af55	-0.25524393
29	0xbf25aa08	-0.6471257
30	0xbd5f9751	-0.054587666
31	0xbedb34a3	-0.42813596

blocks.1.bn.running_mean f4 [32]
0	0xc0948a03	-4.641847
1	0xbff50636	-1.914252
2	0xbf0d3c91	-0.5517054
3	0xc0421194	-3.032323
4	0xc0484e69	-3.1297858
5	0xbf61f228	-0.88260126
6	0x3ff0a476	1.880019
7	0xc026a10d	-2.6035798
8	0xc068c914	-3.6372728
9	0xbfb878b9	-1.4411842
10	0xbec44555	-0.38334146
11	0x3e0cb357	0.13740288
12	0xbf90c23c	-1.1309276
13	0x401131e5	2.2686703
14	0xbf5cb198	-0.86208487
15	0xc01d5726	-2.458444
16	0xc0086596	-2.1312003
17	0xbe379355	-0.17927296
18	0xc0271a86	-2.6109939
19	0xc0315331	-2.7707026
20	0xbfa32735	-1.274634
21	0xbfe90f92	-1.8207877
22	0xbfef53e5	-1.8697478
23	0xbfd62885	-1.6731116
24	0xbfc20b54	-1.5159707
25	0xbdedcf84	-0.11611846
26	0xbfc4e366	-1.5381896
27	0xbffe90bd	-1.9887921
28	0x3f800941	1.0002824
29	0xbfa2f1d6	-1.2730052
30	0x3f90ceff	1.131317
31	0xbfaba84a	-1.3410733

blocks.1.bn.running_var f4 [32]
0	0x41008b1b	8.033961
1	0x40aa3601	5.3190923
2	0x40aa6b3c	5.32559
3	0x410fb347	8.981269
4	0x41856261	16.673037
5	0x4113f29f	9.246734
6	0x40c1a09d	6.050856
7	0x409b97dd	4.862288
8	0x41072498	8.446434
9	0x40b98e8a	5.79865
10	0x40b7b074	5.7402897
11	0x40c76bbb	6.2319007
12	0x40f607ad	7.688437
13	0x40de772a	6.9520464
14	0x40d9ed16	6.810191
15	0x40dff386	6.998477
16	0x409c3076	4.8809156
17	0x40a9fd8f	5.312202
18	0x40aa98e4	5.3311634
19	0x40d6cc7d	6.712462
20	0x40cf0726	6.4696226
21	0x4118f800	9.560547
22	0x40c8b3a8	6.2719307
23	0x40f992e4	7.799181
24	0x40935dd1	4.605202
25	0x4101e119	8.1174555
26	0x40b3d669	5.619923
27	0x4108a6b7	8.540702
28	0x419f97da	19.949146
29	0x40af62ba	5.4808016
30	0x4141011b	12.06277
31	0x40910d13	4.532846

blocks.2.conv.weight f4 [32, 32, 3, 3]
0	0x3e16c213	0.14722471
1	0x3e32d64c	0.1746456
2	0xbde7884a	-0.11305292
3	0xbd730a01	-0.059335712
4	0xbcdc6f51	-0.026908549
5	0xbe426709	-0.18984617
6	0xbe66a0a3	-0.22522216
7	0xbdbaceb9	-0.091214605
8	0x3cc06381	0.023484947
9	0xbddda557	-0.10822552
10	0xbdcef2ed	-0.10104928
11	0xbeae459d	-0.34037486
12	0xbe62deb7	-0.22155271
13	0xbd81079e	-0.06300281
14	0xbe5bce56	-0.2146543
15	0x3d89bc29	0.06725342
16	0xbdf244e2	-0.118295446
17	0x3d10cc0f	0.035350855
18	0xbe176568	-0.14784777
19	0xbc933d65	-0.017973611
20	0x3e27b65c	0.16378158
21	0x3d9dab64	0.07698706
22	0xbe37c585	-0.17946441
23	0xbddb344d	-0.10703335
24	0x3d5f6c2d	0.054546524
25	0x3bd867e9	0.006604184
26	0xbe5ed84e	-0.21762201
27	0x3e4029be	0.18765923
28	0xbd93594d	-0.07194767
29	0x3dd94bbd	0.10610149
30	0x3dda12b4	0.106480986
31	0xbe35595d	-0.1770987
32	0xbcc72095	-0.024307529
33	0x3defca19	0.11708469
34	0x3e704e25	0.2346731
35	0x3ec4ec6f	0.38461635
36	0x3d5ef854	0.054436043
37	0xbd132532	-0.035924144
38	0x3f05976d	0.5218418
39	0x3d3e8172	0.046510167
40	0x3e4ed28b	0.20197503
41	0x3e91d876	0.2848546
42	0x3c9456dc	0.018107824
43	0x3e043f4f	0.12914775
44	0x3e99a7ce	0.30010837
45	0xbe1295e5	-0.14314993
46	0x3dc844f9	0.097787805
47	0x3eb9c1f2	0.3628078
48	0x3df2bbc0	0.11852217
49	0x3e97fcb6	0.2968499
50	0x3e396447	0.18104659
51	0xbdac0923	-0.0840018
52	0xbdfc769a	-0.12327309
53	0xbe39e1ef	-0.18152593
54	0xbdd40290	-0.10352051
55	0x3e37ae23	0.17937522
56	0x3e506b8d	0.20353527
57	0xbd94f9e4	-0.07274225
58	0xbcffc33c	-0.031221025
59	0x3c1042ef	0.008805021
60	0xbe1795aa	-0.14803186
61	0x3e0db557	0.13838707
62	0xbe37278d	-0.17886181
63	0xbca8d488	-0.020609155
64	0xbec146a3	-0.37749204
65	0x3e095098	0.1340965
66	0xbdb35bbb	-0.087577306
67	0xbe10a455	-0.14125188
68	0xbe7a1074	-0.24420339
69	0xbe816a5d	-0.2527646
70	0xbdbd85c5	-0.0925403
71	0x3da40eb0	0.08010614
72	0x3e07837c	0.13233751
73	0xbdd3bcde	-0.10338758
74	0x3e939f46	0.28832453
75	0x3e64e046	0.22351179
76	0x3e261f63	0.1622291
77	0x3d1cde5f	0.038298007
78	0x3ed3642e	0.4128737
79	0xbec967ad	-0.3933691
80	0xbe1cf5e2	-0.15328172
81	0x3da2b6a9	0.07944996
82	0x3dd6da35	0.104908384
83	0xbe974edc	-0.29552352
84	0xbe07c391	-0.13258196
85	0xbe06dc4e	-0.13169977
86	0xbeac6f0f	-0.3367848
87	0xbe270b85	-0.16312988
88	0xbe6a5000	-0.2288208
89	0xbd9e3684	-0.07725242
90	0xbebf9532	-0.37418514
91	0xbec497ca	-0.38397056
92	0x3dcb5312	0.09927954
93	0xbe511a8a	-0.2042028
94	0xbd9481d2	-0.07251324
95	0xbd96aa38	-0.073566854
96	0x3c23697a	0.009973878
97	0x3e0e42e0	0.13892698
98	0xbe0fb708	-0.14034665
99	0x3c58cf23	0.013232979
100	0xbc833e83	-0.016021019
101	0x3ddfc147	0.109255366
102	0x3cb35773	0.021892285
103	0x3e57cd67	0.21074449
104	0xbe5d51a6	-0.21613178
105	0xbca05d3f	-0.019575713
106	0xbebb7b1e	-0.36617368
107	0x3eacdc47	0.33761808
108	0xbbcc4f2b	-0.0062350235
109	0xbe0f7a0d	-0.14011402
110	0xbd8b0ce8	-0.06789571
111	0x3e81f84c	0.25384748
112	0x3e5eb04f	0.21746944
113	0xbdcf38c3	-0.10118248
114	0x3cd671ff	0.026177404
115	0x3db8825c	0.09009239
116	0x3e56233a	0.20911875
117	0xbe37329a	-0.17890397
118	0xbea19c35	-0.3156449
119	0xbe04ae0b	-0.12957017
120	0xbe82d532	-0.2555328
121	0xbddc086f	-0.10743796
122	0x3acc7dc2	0.0015601444
123	0xbe7cb8dd	-0.24679895
124	0xbe8df8ef	-0.27728984
125	0xbdb7214d	-0.089418985
126	0xbe539343	-0.20661645
127	0xbe5b380d	-0.214081
128	0xbee40569	-0.44535378
129	0xbe95c723	-0.29253492
130	0xbdcc4c05	-0.09975437
131	0xbcb2c56b	-0.021822652
132	0xbe81fa45	-0.25386253
133	0x3ec02abc	0.37532604
134	0xbe9350a3	-0.28772458
135	0xbe27105f	-0.16314839
136	0xbcd4fb4f	-0.02599874
137	0xbdaaeef1	-0.08346356
138	0xbdb34746	-0.08753829
139	0xbd0582ce	-0.03259545
140	0xbe1f3cfd	-0.15550609
141	0x3e5d41b2	0.21607092
142	0xbe554013	-0.20825224
143	0x3e9c4d33	0.30527648
144	0xbe0bf70a	-0.13668457
145	0x3d4f9458	0.05067858
146	0xbe01e806	-0.12686166
147	0xbdbf8bbd	-0.09352825
148	0xbe1686c7	-0.14699851
149	0x3c008673	0.007844555
150	0x3ebe046b	0.37112746
151	0xbd081539	-0.033223365
152	0x3e92990d	0.28632393
153	0xbd690936	-0.05689355
154	0x3e6c7566	0.23091659
155	0xbdb6d820	-0.08927941
156	0xbc0c8e09	-0.008578786
157	0xbbe5a573	-0.0070082485
158	0x3e838dbe	0.25694078
159	0xbe2eb29c	-0.17060322
160	0xbeaa6bbf	-0.3328533
161	0x3c9a746c	0.018854342
162	0xbe22a224	-0.15882164
163	0x3e927c25	0.2861034
164	0x3d14cf98	0.03633079
165	0x3e37ef56	0.17962393
166	0x3e80c55f	0.25150582
167	0x3dfd89bf	0.123797886
168	0x3dfac134	0.12243882
169	0x3e82946e	0.25503868
170	0xbcaaf7a5	-0.02087004
171	0xbe41f88d	-0.18942471
172	0xbe4b08af	-0.19827531
173	0x3d73892a	0.05945698
174	0xbe33c6a2	-0.17556241
175	0xbd79e740	-0.061011553
176	0x3d37c842	0.044868715
177	0xbe9bb284	-0.30409634
178	0xbce18f6f	-0.027534215
179	0xbe8ba711	-0.272759
180	0xbd16f635	-0.036855895
181	0xbd480197	-0.04882964
182	0x3ec7ad2a	0.389993
183	0x3e32aa66	0.17447814
184	0xbd069b45	-0.03286292
185	0x3e2d2392	0.169081
186	0x3ebcb85a	0.368594
187	0x3e2abc3b	0.16673367
188	0xbea1b931	-0.31586602
189	0x3e2d926f	0.16950391
190	0x3c6a4a0f	0.0142998835
191	0x3d91997a	0.071093515
192	0x3e5f194d	0.21786995
193	0x3d86db41	0.06584788
194	0xbe14baad	-0.14524336
195	0xbe36df64	-0.17858654
196	0x3d2f3d6a	0.04278318
197	0x3d584ec5	0.052809495
198	0x3e30dca4	0.17271668
199	0xbc909add	-0.01765197
200	0xbe73641d	-0.23768659
201	0xbe5977d6	-0.2123712
202	0x3e81c4e2	0.25345522
203	0xbeb84da6	-0.3599674
204	0xbec300d7	-0.38086578
205	0xbe28d883	-0.16488843
206	0xbefd079a	-0.49419862
207	0xbe029496	-0.12751994
208	0x3e7761b2	0.24158362
209	0x3e724d0e	0.23662207
210	0xbe7ca85e	-0.24673602
211	0xbe7a6d6c	-0.24455804
212	0xbd74f042	-0.05979944
213	0xbea574ef	-0.32315776
214	0xbe46b924	-0.19406563
215	0xbcd972e0	-0.026544034
216	0xbca78583	-0.020449406
217	0x3c4068a4	0.011743698
218	0xbea333fe	-0.31875604
219	0xbdb5d2f2	-0.08878125
220	0x3ec4b03d	0.3841571
221	0xbd76c1a2	-0.060243256
222	0xbe1852d1	-0.14875342
223	0xbe3335b8	-0.17500961
224	0x3be50af1	0.0069898297
225	0xbd558eec	-0.052138254
226	0x3cd686b3	0.026187276
227	0xbe75f988	-0.2402097
228	0x3e3e313f	0.18573473
229	0x3d92f3ff	0.07175445
230	0xbdc34fba	-0.09536691
231	0x3e606456	0.21913275
232	0xbd65c64e	-0.05609732
233	0xbdba419f	-0.090945475
234	0xbdb17e86	-0.086667106
235	0xbcfcff87	-0.030883564
236	0xbd403639	-0.04692671
237	0xbe266860	-0.16250753
238	0xbdf68412	-0.12036909
239	0xbd1f2c19	-0.038860414
240	0x3ef44a99	0.47713163
241	0x3d84a2af	0.06476342
242	0x3e01584a	0.12631336
243	0xbe0c4199	-0.13696899
244	0x3cc4540e	0.023965862
245	0x3e043449	0.1291057
246	0xbdcdef85	-0.1005545
247	0xbaab0c3a	-0.0013049908
248	0xbdff14d5	-0.12455145
249	0xbe4a6163	-0.19763713
250	0xbbf78eea	-0.0075548785
251	0x3e80d9cf	0.25166175
252	0x3e237233	0.15961532
253	0x3b74a2c8	0.003732847
254	0x3c734da4	0.014850054
255	0xbdf8d5f7	-0.121501856

blocks.2.conv.bias f4 [32]
0	0xbae9e07a	-0.0017843388
1	0x3b9fd055	0.00487713
2	0x388ae821	6.62359e-05
3	0x3b98e344	0.004665764
4	0xbb36e89d	-0.0027909644
5	0xb90cd906	-0.00013432288
6	0x3b111353	0.0022136762
7	0x3aaa7cbb	0.0013007143
8	0x38e7111a	0.00011018124
9	0x3c4a734b	0.01235659
10	0xb9211249	-0.00015360968
11	0x3c13e29a	0.009026194
12	0xba2c7c92	-0.0006579842
13	0xbaf803b8	-0.0018922007
14	0xbbc1ab50	-0.0059103146
15	0xbb4065d5	-0.0029357572
16	0xbc0a8903	-0.008455518
17	0xbb0e0aa8	-0.0021673832
18	0xbbb6b7a9	-0.005576093
19	0xbae599f6	-0.0017517197
20	0xb7ec3590	-2.8158334e-05
21	0x39d1ddba	0.00040028786
22	0xb7addda0	-2.072641e-05
23	0xbc430980	-0.01190412
24	0x398118c2	0.00024623243
25	0x3a08b645	0.00052151486
26	0xb9cb5adc	-0.00038786873
27	0xb9a72d08	-0.00031886273
28	0x3ad5588c	0.0016276999
29	0xb9fb7033	-0.00047958046
30	0xb9fbd94b	-0.00048036347
31	0x3b2c1b5f	0.0026261432

blocks.2.bn.weight f4 [32]
0	0x3f62a21b	0.88528603
1	0x3f690bb0	0.9103346
2	0x3f2bf9f4	0.67178273
3	0x3f49321b	0.7859208
4	0x3f471f6a	0.7778231
5	0x3f42564c	0.7591293
6	0x3f86e69d	1.0539128
7	0x3f90c155	1.1309
8	0x3f2c7562	0.6736661
9	0x3f866bdd	1.0501667
10	0x3f44b06e	0.7683171
11	0x3f7ada4a	0.9798933
12	0x3f62194d	0.88319856
13	0x3f5b4bd1	0.8566256
14	0x3f645f22	0.8920766
15	0x3f8f3985	1.1189429
16	0x3f98247b	1.1886133
17	0x3f81f8f2	1.0154097
18	0x3f3decd1	0.7418948
19	0x3f530aaf	0.82438177
20	0x3f74de2a	0.95651495
21	0x3f8244fb	1.0177301
22	0x3f690363	0.9102079
23	0x3f8209a9	1.0159198
24	0x3f9a4b84	1.2054296
25	0x3f82040a	1.0157483
26	0x3f7a953d	0.9788397
27	0x3f348655	0.70517474
28	0x3f09a0eb	0.53761166
29	0x3f70b98f	0.9403314
30	0x3edc627f	0.43043897
31	0x3f50240e	0.81305015

blocks.2.bn.bias f4 [32]
0	0xbe839fc0	-0.25707817
1	0xbf031555	-0.51204425
2	0xbe369115	-0.17828782
3	0xbe8c4198	-0.27393794
4	0xbf0af81d	-0.5428484
5	0xbe60d1dd	-0.21955056
6	0xbe6431f2	-0.22284678
7	0xbf10ca45	-0.5655864
8	0xbf0e3540	-0.55550003
9	0xbec281e1	-0.37989715
10	0xbf19d9df	-0.6009807
11	0xbec40834	-0.38287508
12	0xbefc5673	-0.49284706
13	0xbea33dc4	-0.3188306
14	0xbef30d94	-0.47471297
15	0xbf2035b6	-0.62581956
16	0xbecfadbd	-0.4056224
17	0xbf11fd87	-0.5702748
18	0xbed87281	-0.4227486
19	0xbe940a74	-0.28914225
20	0xbf17a9fb	-0.59243745
21	0xbf30c0d0	-0.6904421
22	0xbec41283	-0.38295373
23	0xbeec1a9e	-0.46114057
24	0xbf1f6615	-0.6226514
25	0xbedeb1f2	-0.43495136
26	0xbf0f4910	-0.5597086
27	0xbe84bce8	-0.25925374
28	0x3c2bf41c	0.010495212
29	0xbed254a1	-0.41080192
30	0x3e81c1bf	0.2534313
31	0xbf2b436d	-0.6689976

blocks.2.bn.running_mean f4 [32]
0	0xbfb85891	-1.4402028
1	0xc06d182d	-3.7046006
2	0xc01146bb	-2.269942
3	0xbd51235e	-0.05105912
4	0xc088c19b	-4.2736335
5	0x3f9817cf	1.1882266
6	0xbf20040e	-0.62506187
7	0xbf968803	-1.1760257
8	0xbf0befbb	-0.54662675
9	0xbf374632	-0.71591485
10	0xbf5f1dd0	-0.87154865
11	0xbfbd3515	-1.4781824
12	0x3f93a7fd	1.1535641
13	0xc05df682	-3.4681706
14	0xbffe8449	-1.988412
15	0xc03c2afe	-2.940124
16	0xbf872e9b	-1.0561098
17	0xbfb2f40a	-1.3980725
18	0xc00eb065	-2.2295163
19	0xbfc69ab2	-1.5515959
20	0xbfd8c61c	-1.6935458
21	0x3d20d1a6	0.039262436
22	0xbd4d2614	-0.050085142
23	0xbff8dc44	-1.944222
24	0xbec98b2e	-0.39363998
25	0xbef3c3ed	-0.47610417
26	0xbfd7ea6b	-1.6868414
27	0x3efd64dc	0.49491012
28	0xbfa6eddc	-1.3041339
29	0xc024dba5	-2.575906
30	0x3fb2d5de	1.3971517
31	0xbfb0c0a1	-1.3808786

blocks.2.bn.running_var f4 [32]
0	0x4138dcde	11.553923
1	0x412b8bd6	10.72164
2	0x41297e68	10.593361
3	0x40c7669a	6.2312746
4	0x412149dd	10.080533
5	0x40ed0549	7.406895
6	0x416a17f5	14.630849
7	0x4102eca8	8.182777
8	0x40b6c893	5.711984
9	0x411d5401	9.833009
10	0x40a13612	5.0378504
11	0x41030177	8.187858
12	0x408516cb	4.1590323
13	0x416b3e63	14.702731
14	0x418f7fd9	17.937426
15	0x40cc83c0	6.391083
16	0x409353c3	4.603975
17	0x41225bf1	10.147447
18	0x40e0a927	7.0206485
19	0x40d65fed	6.6992097
20	0x40b85b50	5.7611465
21	0x40cfeed9	6.497906
22	0x40c9a0ad	6.3008637
23	0x411f0e46	9.940985
24	0x40b0df0c	5.5272274
25	0x40aa0bea	5.3139544
26	0x40ba23da	5.8168764
27	0x4194c48d	18.595972
28	0x4134ad23	11.29227
29	0x4181fe39	16.249132
30	0x417241cf	15.141067
31	0x40ec3343	7.3812575

blocks.3.conv.weight f4 [32, 32, 3, 3]
0	0xbe476a49	-0.19474138
1	0xbda32197	-0.07965391
2	0xbe181f5c	-0.14855713
3	0xbd16401a	-0.036682226
4	0xbf112ecb	-0.56712025
5	0xbeaae05a	-0.33374292
6	0xbe55955f	-0.20857762
7	0xbe82ca02	-0.25544745
8	0xbdfb4518	-0.12269038
9	0xbd887e06	-0.06664662
10	0x3d5acd22	0.053418286
11	0xbe763987	-0.24045382
12	0x3e1e1608	0.15438092
13	0x3e3c454a	0.18385807
14	0x3d6397ad	0.05556457
15	0x3e26db2c	0.16294545
16	0x3dab195f	0.083544485
17	0x3e81fc67	0.2538788
18	0xbe09393f	-0.13400744
19	0x3dd78043	0.10522511
20	0x3cff1a70	0.031140536
21	0x3ddaff39	0.10693211
22	0x3e0e1f29	0.13879074
23	0x3d00afd8	0.031417698
24	0xbe88b9a3	-0.2670413
25	0x3cdbe87c	0.026844256
26	0xbd01e1be	-0.031709425
27	0xbe0283b8	-0.12745559
28	0xbd92c6d3	-0.07166829
29	0x3d703368	0.058642775
30	0xbda3e005	-0.08001713
31	0xbf120a46	-0.57046926
32	0xbe835005	-0.25646988
33	0x3e0d771d	0.1381497
34	0x3ce80e68	0.028327182
35	0xbe1382e4	-0.144054
36	0xbe46ccc9	-0.19414057
37	0xbe05a7f0	-0.13052344
38	0xbca32ac8	-0.01991786
39	0xbe707d6a	-0.23485342
40	0x3e005e0f	0.1253588
41	0xbe8b1e23	-0.2717143
42	0xbc3abe4a	-0.0113979075
43	0xbc26131d	-0.010136393
44	0xbea41930	-0.32050467
45	0x3dfc5a5f	0.123219244
46	0xbd9e24a4	-0.077218324
47	0x3e22610f	0.15857337
48	0xbe9f57f7	-0.311218
49	0x3d951d1d	0.072809435
50	0x3d875229	0.06607468
51	0x3e080d40	0.13286304
52	0xbce26f59	-0.027640985
53	0x3daba9ae	0.08381973
54	0x3ec7fc60	0.39059734
55	0xbcb06298	-0.021531388
56	0xbdac4853	-0.08412232
57	0x3e9ed731	0.31023553
58	0x3dc2698f	0.0949279
59	0x3caa93b9	0.020822393
60	0x3e33e842	0.17569068
61	0xbd86fb51	-0.065909036
62	0xbdb907eb	-0.09034713
63	0xbe197880	-0.14987373
64	0x3e2d5ece	0.16930696
65	0x3e3dd95f	0.18539952
66	0x3e8ec056	0.27881116
67	0x3d3cfc06	0.046138786
68	0x3bf91e75	0.0076025077
69	0x3eb563db	0.35427746
70	0xbc293a85	-0.010328894
71	0xbea2dd92	-0.3180967
72	0xbd8af8d1	-0.06785739
73	0xbdb9fc3e	-0.090813145
74	0x3e36d123	0.17853217
75	0x3e6e755f	0.23286961
76	0x3dd5e59c	0.10444185
77	0x3eb77124	0.35828507
78	0xbe52a45e	-0.20570514
79	0xbd880a76	-0.0664262
80	0xbd3d0b36	-0.04615327
81	0xbd004624	-0.03131689
82	0x3dfbf7e1	0.123031385
83	0x3eaa0ef4	0.33214533
84	0x3dae4a60	0.0851028
85	0x3d5c91fe	0.053850166
86	0x3d041435	0.032245833
87	0xbd3d647c	-0.046238407
88	0x3e3c5982	0.1839352
89	0x3e427ca4	0.18992859
90	0xbe96549e	-0.29361433
91	0xbe0a916f	-0.13532041
92	0x3dfc14d8	0.12308663
93	0x3eb5ef16	0.3553397
94	0xbe533a89	-0.20627798
95	0xbe558676	-0.20852074
96	0xbd93d91e	-0.07219146
97	0x3dad0403	0.08448031
98	0x3e59f6e0	0.21285582
99	0x3da4e372	0.08051194
100	0xbbd6e4b1	-0.006558024
101	0x3e1d0727	0.1533476
102	0xbde75dd4	-0.11297193
103	0x3d6e214e	0.05813723
104	0x3db2be7e	0.0872774
105	0xbf0a4326	-0.5400871
106	0xbe013e7f	-0.12621497
107	0x3e3fc987	0.1872922
108	0xbe4095ff	-0.18807219
109	0xbd43f03d	-0.04783653
110	0xbd7428cd	-0.059609223
111	0x3c930417	0.017946286
112	0x3c807038	0.01567851
113	0x3d366947	0.044533994
114	0x3d8b6090	0.06805527
115	0xbdf23ff1	-0.11828602
116	0x3e49476d	0.19656153
117	0xbd3a5bcf	-0.04549771
118	0x3e0a0438	0.13478172
119	0x3dacc718	0.084364116
120	0x3e15e7f0	0.14639258
121	0x3e0c1128	0.1367842
122	0x3e9f46b7	0.3110864
123	0xbd6c18f5	-0.05764099
124	0xbe7ad2cb	-0.24494474
125	0xbe5f18a3	-0.21786742
126	0xbe85eaac	-0.26155603
127	0xbe280206	-0.16407022
128	0xbe3d7a61	-0.18503715
129	0xbec2d14f	-0.38050315
130	0xbc043849	-0.00807006
131	0xbd36ca78	-0.044626683
132	0xbe4a1ed7	-0.19738327
133	0x3dcf5e65	0.10125426
134	0xbefd7612	-0.49504143
135	0xbe4127a9	-0.18862785
136	0x3d101ff5	0.035186727
137	0xbe0747f2	-0.13211039
138	0xbe9fbcea	-0.31198817
139	0x3d805b87	0.062674575
140	0x3e368d5c	0.17827362
141	0xbe6a4516	-0.22877917
142	0xbdfed5f3	-0.12443151
143	0x3e511f44	0.20422083
144	0xbd8fc802	-0.0702057
145	0xbe87335c	-0.26406372
146	0xbd91ce44	-0.0711942
147	0xbdab532a	-0.08365472
148	0xbd27968c	-0.040915057
149	0x3e1f5119	0.1555828
150	0x3ec274ef	0.37979838
151	0x3dd8f404	0.10593417
152	0xbed28408	-0.41116357
153	0xbbf46213	-0.0074579804
154	0x3e3127b8	0.17300308
155	0x3d3e4b68	0.04645863
156	0xbe1a89df	-0.15091656
157	0x3dc9d6a1	0.0985539
158	0x3da3a92d	0.07991252
159	0x3e01bfec	0.12670869
160	0x3d873c0e	0.066032514
161	0x3d0bb153	0.034104656
162	0xbd94911f	-0.07254242
163	0xbe6a1c86	-0.22862443
164	0x3e225130	0.15851283
165	0x3cac8ac4	0.021062262
166	0x3d47ff04	0.048827186
167	0xbd83ae3c	-0.06429717
168	0x3e295778	0.16537273
169	0xbd8730e5	-0.06601123
170	0x3e419169	0.18903126
171	0xbd81cc93	-0.063378476
172	0xbde77702	-0.11301996
173	0xbe4ed20e	-0.20197317
174	0x3ef3d9ce	0.4762711
175	0xbd28c65f	-0.041204806
176	0xbc8611bb	-0.016365876
177	0x3e354c86	0.17704973
178	0xbe7eee1f	-0.24895523
179	0xbe85022b	-0.25978217
180	0xbd8ac4bd	-0.06775806
181	0x3e3454bd	0.1761045
182	0x3c382b3d	0.011240778
183	0x3e34a855	0.17642339
184	0xbe83ceb8	-0.2574365
185	0x3cee089d	0.029056842
186	0x3eae43f9	0.34036234
187	0x3dc28a05	0.094989814
188	0x3d8ae2f4	0.06781569
189	0x3ee5f09f	0.44910142
190	0xbd8f9520	-0.07010865
191	0x3e359329	0.17731918
192	0x3c893e9e	0.016753491
193	0x3e57b902	0.21066669
194	0x3e3bbbbd	0.18333335
195	0xbdc076ce	-0.0939766
196	0x3e0ffb52	0.14060715
197	0x3dc2c48b	0.09510144
198	0x3e140718	0.14455831
199	0xbcfda886	-0.030964147
200	0xbdaffbb1	-0.08592928
201	0xbda59726	-0.0808547
202	0x3dbb3f4d	0.09142933
203	0xbeef9f2b	-0.46801123
204	0xbe85a7d4	-0.26104605
205	0xbdb4c2fe	-0.08826254
206	0xbe75ff1b	-0.24023096
207	0xbabf9bf4	-0.0014618621
208	0x3d2a2eeb	0.04154865
209	0x3eb26094	0.34839308
210	0xbe55d0d1	-0.20880438
211	0xbef4b6c8	-0.477957
212	0xbe2a0047	-0.16601668
213	0x3dbe88db	0.09303447
214	0x3e6d9c64	0.2320419
215	0x3e4979e9	0.19675411
216	0xbdcef98a	-0.101061895
217	0x3e51f5da	0.20503941
218	0xbd9ef8b4	-0.0776228
219	0xbdc21cab	-0.09478124
220	0x3e93daca	0.2887786
221	0xbebaa9ca	-0.36457664
222	0xbc77fb89	-0.015135654
223	0xbe438756	-0.19094595
224	0xbe2d9f3d	-0.16955276
225	0x3e3fddc0	0.18736935
226	0xba745765	-0.0009320884
227	0xbe239bdc	-0.15977424
228	0xbb9f3d44	-0.0048595984
229	0xbdc6137e	-0.096716866
230	0xbd7242b4	-0.059145644
231	0x3dc33a1b	0.09532567
232	0x3e637279	0.22211637
233	0xbd218739	-0.0394356
234	0x3dfa0ffa	0.122100785
235	0xbeb8158e	-0.35953945
236	0xbe194198	-0.14966428
237	0xbcbf806b	-0.023376664
238	0xbdf75fd8	-0.120788276
239	0x3ccd3333	0.025048828
240	0x3eb15e85	0.34642425
241	0xbcd8ce1e	-0.026465472
242	0xbeb109d9	-0.34577826
243	0x3d96a5cf	0.07355844
244	0xbb1274e3	-0.0022347502
245	0x3e9870fd	0.29773703
246	0xbc11b55d	-0.008893338
247	0x3de4b6f9	0.11167712
248	0xbc7be23f	-0.0153737655
249	0xbd1c899a	-0.038217165
250	0xbdfc5c51	-0.123222955
251	0x3e0e4ba5	0.13896044
252	0xbda94fce	-0.08267175
253	0x3e621cf2	0.22081354
254	0xbe395aad	-0.18100996
255	0xbe9156ac	-0.28386438
