models/185.pth (torch, 501905 bytes, 80 tensors)

conv0.conv.weight f4 [32, 17, 3, 3]
00000000: 7031 3bbe d281 ad3e 21f6 943d 1fd7 ba3e
00000010: edd0 ccbe 0cfd 0a3f a7a7 9abd 221d d43e
00000020: 8dd8 4e3e e607 a7bb f2ec f93c cf2b 033c
00000030: 76e8 0e3d 59ba 5fbe 8e04 713d 8e38 093e
00000040: 1ea1 703e 7c41 1cbd 006f cc3d 26a8 013c
00000050: 9396 f93d d13d ffbd 37d3 14be 32d2 fa3c
00000060: 643f 8a3b 3e09 0c3d e053 793d f663 14bd
00000070: fc10 b93d c0a9 813d e443 89bd c851 11be
00000080: 5fba 9b3d 1904 223e 2614 fd3c 0eb3 25bc
00000090: 4ef6 b33e 0aa6 a23e c914 2a3e a4f0 4c3e
000000a0: 52dc 0dbf c387 d83e facd b13e 6176 ca3e
000000b0: 65e3 863e ecc5 453e bb3b 483e 85ba 113e
000000c0: a030 733e 48d1 6cbd 5f55 ce3d 4f0f 603e
000000d0: 80b2 c23d 0297 4f3e fc12 853e ef19 893e
000000e0: f32e 4b3e a5f6 6c3e 1418 06be 534e 813e
000000f0: 835d ce3e b2f1 953e 5e53 f53d a4fd f03c
00000100: fd33 c33e d9d9 823d 5205 423e ead4 5abd
00000110: ff0f c23e 0041 883e b53b 4f3e 1f9f 923e
00000120: 75e4 693d 25ca 043e 898f 89bc af89 973d
00000130: baa6 b33e 4775 5d3d ed62 25bd 92c2 4cbb
00000140: 588b 3939 c092 c3bc 34d6 bb3d 362a 3e3d
00000150: fa89 123d a89e 023f 606c 193b 0eab d8bc
00000160: 758c da3d d294 ee3d 0cb1 d9bb ca07 f63d
00000170: 51fc 53bd 3eea a73d 8538 013f 6df0 de3b
00000180: 1a1c ebbc 3175 a33d 4683 a83c b1b5 54bd
00000190: 1f4a 113e ff36 c53c bcc0 e63d c8df c23e
000001a0: de0e 1e3d 5274 22be af43 db3d 37ea 3b3d
000001b0: 5acc 4fbc e4eb 6ebe 5429 e43d 8502 3abe
000001c0: d3e8 64be 3b26 ab3c 68f6 913d 25eb 90be
000001d0: 9aac e03d b2b9 58bc 260a 983a 2b7a 65bd
000001e0: 493d 893c 6ef6 533e 1f3f 3fbe df46 d63d
000001f0: c24c d73d 0ad0 863d 0891 473e b53c 0cbc
00000200: 0341 7eba abeb cf3d 099f 283e b0ac a4bd
00000210: d411 3cbd fa9c 60be 446a 71bc 24f1 bebd
00000220: d71d 343d 7a16 3fbd 7aa9 cc3c a8bd 193d
00000230: d260 bb3d d0eb 6f3c d5cb 4fbc 555b 2f3e
00000240: 034d 75ba 0961 a83c 7a37 cc3c a422 2c3e
00000250: d700 db3c 56d5 f43d e5d3 933d 5199 103d
00000260: 85a4 bbbb 43fb edbd 96b0 653d e256 5bbc
00000270: beca a3be be5a 04bf 2aef 8f3e 9439 1ebc
00000280: 7718 783d ddde 0abd 6d23 22be 4f29 973e
00000290: ef60 55be 476f 34be 4355 2b3e 9a14 c5be
000002a0: 1a66 243d 650e 50bd ea84 7fbe 0d03 343c
000002b0: 0a37 893e e437 89be 5aa2 09be e568 223e
000002c0: 9b4d bbbe 75dc aa3d e402 56be eac0 1c3d
000002d0: a200 5ebe b267 4d3e 5607 febd 6401 143d
000002e0: ef34 4f3e 6615 15bf 3a35 223e 4012 1dbe
000002f0: b9b3 c2bd 3d7d 48be 9acb 98be bde4 253e
00000300: 3465 7ebd 3eba e6be 29b7 bcbe 36e9 3d3e
00000310: 12f7 a7be c409 79be a28b 64be 1b25 dfbe
00000320: 40e1 14be 7dd8 0dbe f49e 18be b6e9 82be
00000330: 0c1f 0cbf 671d 42be e5c3 fcbe c3f3 d7be
00000340: 23e4 0cbf c8c4 0cbf 0947 fcbe 4844 e5bd
00000350: 5a17 82be ec08 123e 7274 a5be 5330 25bf
00000360: 8357 97be d305 50be 5ea3 a2be 6a97 afbe
00000370: 71f0 c0bd d56d 71be f53c adbe 1479 55be
00000380: 5896 04bf 3109 ecbd 450f 273e ea5d 3f3e
00000390: 15a4 5d3d 27e5 fabe eee3 2d3e ceaa 99be
000003a0: 5eaf 88bb a3ec d4ba 1102 efbd 421b e23d
000003b0: f63d 873e 483c 58bd dc2c 513d 4b42 3e3e
000003c0: 6022 783c ade6 5d3e 451a 053e 756c 7e3d
000003d0: bd2c ed3d a7fd 873d 6c19 403e 68d6 0a3e
000003e0: b90c b63d 9289 cb3d 807f 26bd 293f 763d
000003f0: 88c7 dcbb 485a 463d a608 4c3e 270d 69bd
-0.18280578 0.33888108 0.07273508 0.3649225 -0.40003148 0.5429237 -0.075515084 0.41428477
0.20199795 -0.005097377 0.030508492 0.00800605 0.03488966 -0.2184843 0.058842234 0.1340048
0.23498961 -0.03814839 0.09982109 0.007913625 0.12186923 -0.124629624 -0.14533697 0.030617807
0.0042189825 0.0341885 0.060871005 -0.036228143 0.09036443 0.06331205 -0.06702402 -0.14191353
0.07603907 0.15821876 0.030893397 -0.010113491 0.35148853 0.31767303 0.16609491 0.20013672
-0.5541431 0.42291078 0.3472746 0.3954344 0.26345363 0.19313782 0.19554035 0.14231308
0.23749018 -0.057816774 0.10074877 0.2188084 0.095067024 0.20272449 0.25991046 0.26777598
0.19842128 0.23140962 -0.13095123 0.2525507 0.4030572 0.2928596 0.11978792 0.02941782
0.381256 0.063892074 0.18947342 -0.053425707 0.3790283 0.2661209 0.2023762 0.28637025
0.05710264 0.12967737 -0.016792076 0.07399308 0.3508814 0.054066923 -0.040377546 -0.0031243903
0.00017694884 -0.023873687 0.091717154 0.046426974 0.035776116 0.5102334 0.0023410544 -0.026448753
0.10671321 0.11649479 -0.00664342 0.120132044 -0.0517543 0.08198975 0.50476867 0.0068035633
-0.028699923 0.07981337 0.020570409 -0.051931087 0.14188431 0.024074076 0.1126723 0.38061357
0.038588397 -0.15864685 0.10706269 0.04587766 -0.012682999 -0.23332173 0.11140695 -0.18165024
-0.2235444 0.020892253 0.071270764 -0.283044 0.10970421 -0.013227867 0.0011599704 -0.05602471
0.016752856 0.20699474 -0.18676423 0.10462736 0.10512687 0.06582649 0.19488919 -0.008559396
-0.00096990186 0.10152372 0.16466917 -0.0804075 -0.04591544 -0.21934882 -0.014734808 -0.09323338
0.04397377 -0.046652295 0.024983156 0.037534386 0.091493264 0.014643624 -0.012682875 0.17124684
-0.0009357484 0.020554082 0.024928797 0.1681009 0.026733799 0.11954753 0.0721815 0.035302464
-0.0057263994 -0.1162019 0.05607661 -0.013387414 -0.31990618 -0.5170096 0.28112155 -0.009657282
0.060570206 -0.033903945 -0.15833826 0.29523703 -0.20837758 -0.17620574 0.16731744 -0.3849228
0.040136434 -0.050794978 -0.24953046 0.0109870555 0.26799804 -0.26800454 -0.13440838 0.15860327
-0.36582646 0.0834283 -0.2089954 0.038269915 -0.21679929 0.20059088 -0.12403743 0.03613414
0.20235036 -0.58235776 0.15840617 -0.15338993 -0.095069356 -0.19579025 -0.29842836 0.16200538
-0.062108234 -0.45063967 -0.3685849 0.18545994 -0.32805687 -0.24320132 -0.2231889 -0.43582997
-0.14539051 -0.13852115 -0.14904386 -0.25568932 -0.54734874 -0.18956529 -0.49368206 -0.42178163
-0.5503561 -0.54987764 -0.49272946 -0.11194664 -0.2540844 0.14261216 -0.32315403 -0.6452686
-0.29558954 -0.20314722 -0.31765264 -0.34295207 -0.094208606 -0.23577054 -0.3383557 -0.20846969
-0.51791906 -0.115251906 0.16314419 0.18688169 0.05411156 -0.49002954 0.1698148 -0.30013126
-0.004171296 -0.001624484 -0.11670316 0.11040355 0.2641446 -0.052791864 0.05106817 0.18579976
0.015144914 0.21670027 0.12998302 0.06211515 0.11580799 0.06640177 0.18759698 0.13558352
0.088891454 0.09938349 -0.040648937 0.060118828 -0.006737653 0.048425943 0.19925174 -0.05689731

conv0.conv.bias f4 [32]
00000000: efc1 94ba 9c28 34bb acb6 123d b413 1dba
00000010: ddf8 4939 259d 493c 2212 adbc bf3f 0cbc
00000020: 376f 5c3c 8a02 afba cf90 beba 7291 223d
00000030: 0b4a 0dbb eb50 1b3c 40db 2b3b 0477 59bc
00000040: b88c 49bb 6309 6c3b ab31 463c 0f7b 093c
00000050: 7044 26bc 4f8d 92bc b04f d63a 935e 5f3b
00000060: 8dbc 2d3c 33e6 58ba 6cf2 b03a e383 533d
00000070: 95f1 8f3b 36fc c53c 6753 b7ba a335 833b
-0.0011349301 -0.0027490025 0.03581874 -0.00059920107 0.00019261563 0.012305533 -0.02112681 -0.00856012
0.01345425 -0.0013352197 -0.0014539006 0.03968949 -0.0021559026 0.009479742 0.0026223212 -0.013273004
-0.003075404 0.0036016337 0.012096803 0.008391156 -0.010148153 -0.017889647 0.0016350653 0.003408347
0.010604036 -0.00082740485 0.0013499982 0.05163945 0.0043928125 0.024168115 -0.0013986648 0.0040041967

conv0.bn.weight f4 [32]
00000000: 7fa4 5e3f 5355 283f 38b7 293f 35f3 493f
00000010: d7da 393f d615 1c3f e430 2c3f de5e 3e3f
00000020: e793 663f 4a8b 593f cf2e 293f a638 193f
00000030: ed9e 373f 1b76 6c3f 82a5 313f 861c 653f
00000040: 0d39 383f 3c01 a73f a57d 4a3f e0ed 383f
00000050: ae60 393f b6ad 683f ea2f 4f3f 6742 293f
00000060: 9a35 5e3f 0ab2 483f 12da 4a3f a3ca 3e3f
00000070: df79 763f d87a 1f3f 9bc7 393f ea5d 213f
0.8696975 0.65755194 0.66295195 0.7888673 0.7259955 0.6097082 0.672621 0.74363506
0.9006943 0.84978163 0.6608705 0.59852064 0.71726876 0.92367715 0.6939317 0.8949665
0.7196205 1.3047252 0.7909797 0.7223797 0.72413146 0.9089006 0.80932486 0.66116947
0.8680054 0.78396666 0.79239 0.7452795 0.9627971 0.6229682 0.725702 0.63033926

conv0.bn.bias f4 [32]
00000000: afc4 12bf fa12 06be 5e05 47be ea45 d2be
00000010: 7388 64be 3049 34bd 1d90 93bc d187 b0be
00000020: 5b0d 76be 5ab8 d3be a6da 88be ef45 e93d
00000030: a8c6 4ebe d1cf a8be a27d 9cbe b65c edbd
00000040: 30ce 843c c9c6 05be 9348 94be 0549 83be
00000050: e8f7 42be 0187 25bc fddc a4be 4587 9dbe
00000060: 3a97 58be fa51 c4be 9f17 a9be ea87 19be
00000070: eb6b 18be 77e7 023f eb11 6cbe 15f3 a1bd
-0.57331365 -0.13093176 -0.19435641 -0.41068965 -0.22317676 -0.04401511 -0.018013055 -0.3447862
-0.24028532 -0.41351587 -0.26729316 0.11390292 -0.20192969 -0.3297105 -0.305646 -0.11589949
0.0162116 -0.13064112 -0.2896162 -0.25641647 -0.19039881 -0.010102988 -0.3219985 -0.30767265
-0.21151438 -0.38343793 -0.33025834 -0.14993253 -0.14884917 0.5113444 -0.2305371 -0.07907692

conv0.bn.running_mean f4 [32]
00000000: 84ae a33e a723 003d 0cc1 1abe 3032 04be
00000010: 7f05 d0bd eb68 5dbd 6684 97be 56a8 9f3e
00000020: 4246 64be 6b6e 07be e16f 64bd 517f 4c3a
00000030: 3be5 d2bd 671d 22bd 12f3 7e3d 6be1 793e
00000040: 780a 383e 65ef 35be 3e3c 4bbe aee7 77bd
00000050: d1dc ed3c 782f d7bd b2b5 e8bd 96f9 d53d
00000060: f867 a7bd ff37 dabd 3d13 fdbd 3fbe a8bc
00000070: 82ce 8f3e 7ff7 193e b1ff 91bd 7725 803e
0.31969082 0.031284 -0.15112704 -0.1290977 -0.10157298 -0.054055136 -0.295932 0.31183118
-0.22292426 -0.13225715 -0.05577076 0.0007800954 -0.102976285 -0.03957882 0.06224353 0.24402396
0.17972744 -0.17767103 -0.198472 -0.06052368 0.029035958 -0.10507101 -0.11362781 0.10447995
-0.08174127 -0.10655212 -0.12357185 -0.020598529 0.2808724 0.15035819 -0.071288474 0.25028583

conv0.bn.running_var f4 [32]
00000000: 9ba3 f43d 93d3 153e b7d6 353e 2813 083e
00000010: 8ad8 3b3e af56 1e3e ae80 823e 50ba f03d
00000020: 1b29 473e 6651 163e c6a7 013e 9fef 183e
00000030: 65b7 0d3e cff1 b93d c299 063e 5165 f63d
00000040: 31cb da3d d4aa 273e 1741 353e 7c89 f43d
00000050: e059 763e bd58 133e 6bc2 e53d 1bb7 063e
00000060: 5be3 e03d df97 0c3e 2629 0c3e 2de1 d73d
00000070: 9f0b 1b3e c4ed e23d 8e10 093e 959f 133e
0.11945268 0.1463149 0.17757688 0.13288558 0.18344322 0.15462755 0.254888 0.11754286
0.19449274 0.14679489 0.12661657 0.14935158 0.1383949 0.090793245 0.13144591 0.12031043
0.10683287 0.1637376 0.17700611 0.119402856 0.24057722 0.1438932 0.11218723 0.13155787
0.109808646 0.13729809 0.13687572 0.10540996 0.15141152 0.110805064 0.13385221 0.14416344

blocks.0.conv.weight f4 [32, 32, 3, 3]
00000000: 282e 523e c491 bfbd d551 233e 141a b6be
00000010: bbd4 aa3d 8bfa 18be 130e 533e eecc 1ebd
00000020: 05e8 1f3e 61f2 923d 40ea 30bd 34cc a7be
00000030: a611 44be 00aa 7dbc 0e74 0e3e a82f 3dbc
00000040: b8a4 24bd 4c7b bcbd babf f53d 55b4 23be
00000050: c0c1 9e3d 78e7 353d 29cc 5cbe 88ff 293c
00000060: e1e0 d33d 13a1 a43d 67c0 803d 74b4 dd3d
00000070: 4023 ac3c ae19 d73c 5be6 b9bd 83c8 253e
00000080: 2d49 923b ceed f1bb 9959 99be d4f2 683e
00000090: 283c d9bd 6a17 793e 4f8b 76be 8672 93bc
000000a0: 594f 8ebb d5be 05bd b9ac 21be 9029 d63d
000000b0: 4ea3 5dbe a5af 583d 6b98 72be df02 623e
000000c0: 18b0 d4bd 3433 05be 56f2 f43d 5ad9 033e
000000d0: 6d62 6c3e 15f4 343e 78e7 a63d 7a0c bbbd
000000e0: 02bb e43c bebf d1bd de25 583d 2eae b4be
000000f0: e9ca 3f3d b392 7e3d e34f 51be 184d 433e
00000100: cf67 633e 43c1 bb3e 13e0 a53c 3cb4 693e
00000110: 250d b63d 16fd 093e 2525 d83d 2b7f 373e
00000120: 1119 483c 9ea2 0ebf d72e 8c3c 1d16 14be
00000130: a8a4 883e a470 ea3c f48b 34bd fb21 5f3e
00000140: 4cc6 c33d 2301 fcbd a4f5 afbd efb8 1dbc
00000150: 2e73 02bd 0c1b 063f 0333 193e 1c55 b13d
00000160: dafa b1bb 46d6 4b3d 809c debc 9e9c 14bd
00000170: 50f4 b1bc 5972 6ebd 59f1 9d3d 233b f8bd
00000180: 9ad7 fc3d 3153 a93d 699d 413e 64fe d63d
00000190: 4fba 093e d81e 623e eb40 85be e177 9b3d
000001a0: 9ae6 a53c aa94 4d3e 0f50 70be 064e bebb
000001b0: f023 f6be 61c3 a6bb c71e 093e 678a 233e
000001c0: c84d 803d 09f7 683d 7127 dab9 4759 b33e
000001d0: 140a 973b 0761 04be 8f27 c2bd e32e bdbe
000001e0: 5e8b 5a3e 9294 edbe ec05 93be 45dc 523d
000001f0: 610e f6bd 8eb4 453e 4faf 43be 72df 123e
00000200: 6f78 d2be 3064 623d f1b8 40bd ca22 02be
00000210: d114 c43d 627f 06be 019b fbbc 8b87 213e
00000220: fc86 023e 7510 903d a192 0b3e 9585 a83c
00000230: cd31 0e3d 2a1a 4bbc 430f b83d 9c02 153e
00000240: fac8 81bc dcfe ad3d 7e0d 3abd 9513 3d3e
00000250: 1e9b b2bd 4816 873d 12ea 173e 8cd2 573e
00000260: 3c61 0e3e 0de6 f0bd 3571 383e 7520 253d
00000270: 63e3 f93d e26f b2bf f367 7c3e 7c77 743e
00000280: f3d6 633d 1b0d 253e 07f9 c6bd b023 96be
00000290: 7a99 8e3e d4e5 883e 3fd8 b8be 1d21 3dbb
000002a0: 6ccd 0abf 9fc9 623e 4dd1 b43d bbb7 c73d
000002b0: f43f 31be 7030 cbbd 678d 99bd bf84 4bbd
000002c0: e250 3cbd dd2c 13be 0e1e cebc 9db0 adbd
000002d0: 4382 3d3d fe46 dbbd 4101 1ebd 42b6 ed3d
000002e0: 7e48 aabe a534 61be 0aee 753b 5bab 09be
000002f0: 750f 43be 520d 413d e91e 8b3d 6aa3 213d
00000300: 77ac 803d ec85 50be b62a 843e 9ca2 743e
00000310: 7133 733e 0e4e 8d3d 65b0 5fbd 9a09 29be
00000320: 181c 0a3d b76e 7dbe 0d23 bd3e 3584 633e
00000330: 5728 1d3d 613d e5be 2737 683d 0c0b ac3d
00000340: e5ae cb3d f4d2 283e a977 953d aec3 88bd
00000350: d057 2e3e 0811 1abe aa90 343d fb20 b23e
00000360: 0e26 273e 3174 e6bc 4698 df3d 8c94 333b
00000370: 3abf 9abd 858f 2abd 14d9 5a3c d54e 423e
00000380: ab92 373e 6106 353e 47e4 863d a8de db3c
00000390: 6972 ee3d d976 0e3e 2de4 64be 0acb 83be
000003a0: f49e 4dbd 78b7 083d e043 833c 019e 6abd
000003b0: 13b2 e43c 5622 f9bd 4611 6ebe f97f 813d
000003c0: 68da cfbc 4aa6 b53e 3e41 06be 1975 2e3e
000003d0: 6b8a 23be 2769 a4bd e8e2 0d3e 6375 67bd
000003e0: 03fb 1dbe fe26 253d 8ad3 2d3e a5c5 0c3e
000003f0: e624 293e 217b 55be 570e 0b3e ada3 21be
0.2052542 -0.093539745 0.15949185 -0.3556677 0.08341356 -0.14939325 0.20610838 -0.038769655
0.15615852 0.07175136 -0.04319215 -0.32772982 -0.19147357 -0.015482426 0.13911459 -0.011547007
-0.04019615 -0.092032045 0.119994596 -0.1598676 0.07751799 0.0444102 -0.21562256 0.010375865
0.103456266 0.08038535 0.06286698 0.10825434 0.021012902 0.026257362 -0.0907714 0.1618977
0.0044642896 -0.007383085 -0.2995117 0.22748882 -0.10607177 0.24325338 -0.2407658 -0.017998945
-0.004342955 -0.032652695 -0.15788545 0.10457146 -0.21644327 0.052901883 -0.23690955 0.22071408
-0.1038515 -0.13007814 0.119602844 0.12875882 0.23084421 0.17671235 0.08149618 -0.09133239
0.027921204 -0.1024165 0.052770488 -0.3528914 0.04682437 0.062151622 -0.2044063 0.19072378
0.22207569 0.36670884 0.020248448 0.2282266 0.08889226 0.13475451 0.1055396 0.17919604
0.012213008 -0.55716884 0.017112179 -0.1446156 0.26688123 0.028618164 -0.044078782 0.21790306
0.095593065 -0.12304904 -0.08591774 -0.009626611 -0.031848125 0.5238502 0.14960866 0.086588115
-0.005431515 0.049764894 -0.027174234 -0.036282174 -0.021722943 -0.05821452 0.07712049 -0.121206544
0.1234581 0.082678206 0.18907703 0.1049774 0.13449977 0.22082078 -0.2602609 0.075912245
0.020251561 0.20076242 -0.2346804 -0.005807641 -0.48074293 -0.005089209 0.13390647 0.15970765
0.062648356 0.056876216 -0.00041609586 0.3502905 0.0046093557 -0.12927638 -0.094802015 -0.36949834
0.21342227 -0.46402413 -0.28715456 0.051479597 -0.12014461 0.19307157 -0.19109844 0.1434305
-0.4110751 0.055271327 -0.047051374 -0.12708583 0.09574283 -0.1313453 -0.03071356 0.15774362
0.12746805 0.07034389 0.13630153 0.02057151 0.034715462 -0.012396375 0.08987286 0.14551777
-0.015842903 0.08495876 -0.045423023 0.18464501 -0.087209925 0.06596047 0.14835384 0.21076411
0.1390428 -0.11762629 0.18011935 0.040314157 0.12201574 -1.3940394 0.24649028 0.23873705
0.055624913 0.1611828 -0.09715467 -0.29324102 0.27851468 0.26737845 -0.36102483 -0.0028858848
-0.542197 0.22147225 0.088289835 0.09751841 -0.17309552 -0.09921348 -0.074976735 -0.049687143
-0.045975573 -0.14372583 -0.025160816 -0.08480952 0.046266805 -0.107069 -0.038575415 0.116070285
-0.33258432 -0.21992739 0.0037525916 -0.13444273 -0.19048865 0.047131844 0.06793005 0.039462484
0.06282895 -0.20363587 0.25813836 0.23890156 0.23750092 0.068996534 -0.054611582 -0.16507569
0.0337182 -0.24749266 0.36940804 0.22218402 0.03836855 -0.4477339 0.056693222 0.084005445
0.09945468 0.16486722 0.07298214 -0.06677948 0.17025685 -0.1504556 0.044083275 0.34790787
0.1632311 -0.028131576 0.10917716 0.0027401773 -0.07556005 -0.041640777 0.0133574195 0.18975385
0.17927043 0.17678215 0.06586509 0.02683957 0.11642916 0.13912524 -0.22352667 -0.25740844
-0.050200418 0.033378094 0.016023576 -0.05727959 0.027916944 -0.12164752 -0.23248777 0.06323237
-0.025372699 0.3547843 -0.13110825 0.17036857 -0.15970771 -0.08027869 0.13856089 -0.056508433
-0.15427785 0.04032039 0.16975227 0.1374727 0.16517982 -0.20847751 0.13579689 -0.15785094

blocks.0.conv.bias f4 [32]
00000000: fea9 bbba 8995 e73b 42ec 95b9 d925 153a
00000010: 5f49 5b3c a8f0 753a a7fe 87bb 39c7 5a3b
00000020: a7f2 e1b9 fa2f 9ebb 7386 d13b f0fc 31ba
00000030: 3d35 7039 7443 2eba db4f 0f3a bc71 0abb
00000040: 4a99 8939 3e22 f8bb b358 4c3a d98f 93ba
00000050: 4882 443a 8a16 bc3c d961 623a 5c4a 1c3b
00000060: 9fe7 5b3c 2f13 19b9 6096 b13a 3742 1139
00000070: 3c03 b5b9 981b 86b9 71a8 0b3c ceb3 62bb
-0.0014317629 0.0070673865 -0.0002859552 0.00056895387 0.013384192 0.0009381869 -0.00415023 0.0033382906
-0.00043096134 -0.0048274966 0.0063942014 -0.0006789705 0.00022908016 -0.00066476245 0.00054669165 -0.002112492
0.00026244886 -0.0075724414 0.00077951996 -0.001125808 0.000749622 0.022959966 0.0008635796 0.0023848033
0.013421922 -0.00014598363 0.0013548844 0.00013852945 -0.0003452542 -0.0002557903 0.008524046 -0.0034592035

blocks.0.bn.weight f4 [32]
00000000: 4e7c 573f 3b8a 5a3f 0f6f 4d3f d945 7e3f
00000010: f7d7 8c3f 9920 393f 8815 413f 3e43 553f
00000020: ef77 5e3f 3e02 8d3f 8ee8 613f e27b 753f
00000030: 541d 683f 9755 573f 28be 563f 8f5a 4a3f
00000040: e07e 943f e760 843f 758a 553f 9a10 753f
00000050: 5b3c 673f ccdf 413f 3a5b 833f dfa4 6a3f
00000060: 10c9 5e3f 5b47 583f c8bb 8c3f 207b 983f
00000070: fa2b 353f c3fe 2a3f 002b 193f e451 803f
0.8417405 0.8536717 0.80247587 0.9932533 1.1003407 0.72315365 0.7542348 0.8330573
0.86901754 1.1016309 0.88245475 0.95892155 0.9066975 0.84114975 0.83883905 0.7904443
1.1601219 1.0342072 0.83414394 0.95728457 0.9032647 0.7573211 1.0262215 0.91657823
0.8702555 0.8448388 1.0994806 1.1912575 0.7077023 0.66794986 0.5983124 1.0024991

blocks.0.bn.bias f4 [32]
00000000: f2de 08bf d17e dfbe f755 6e3c bdab d7bd
00000010: 96de cebe 0d71 81be 5818 57be 6171 a7be
00000020: d5d8 c4be eb02 b5be f367 ffbe e42d 10bf
00000030: 1d31 07bf e1b4 05bf d1eb 22be 189e 0cbf
00000040: fbe9 e4be 7c8f a1be 4009 9ebe 7f77 11bf
00000050: 693f c8be de36 91be 5473 48bf 6d08 90be
00000060: 8950 f1bb 9a7a e6be 0e84 cdbe 279c 13bf
00000070: 7a38 12bf 48d4 93be d8a5 a9bc a61d 3dbf
-0.5346519 -0.4365144 0.014546863 -0.10530803 -0.40404195 -0.25281563 -0.2100538 -0.3270369
-0.3844668 -0.3535379 -0.49883994 -0.56320024 -0.52809316 -0.52229124 -0.1591027 -0.5492873
-0.44709763 -0.31554782 -0.30866432 -0.5682296 -0.39110878 -0.28362173 -0.78300977 -0.28131428
-0.007364337 -0.45015413 -0.40139812 -0.57660145 -0.57117426 -0.28872895 -0.020708963 -0.73873365

blocks.0.bn.running_mean f4 [32]
00000000: 8938 3b3f 5a91 47c0 e5c7 0340 6fed f8be
00000010: 408f 75bf 56a2 30c0 252c 14c0 5af5 ddbf
00000020: 7eb5 253f 7926 b0bf 34cf f0bf dfab adbf
00000030: 93ce ecbf 9790 ba3f 5aed a43f 925d 44be
00000040: 35bf 43bc 8cf3 babf 0c72 b13f 2483 31bf
00000050: 5623 9fbc 2131 a5bf 5003 d5bf de89 873f
00000060: 6497 bdbf 2222 84bf 98e1 97bd f3eb 83bf
00000070: c7a9 43c0 7bea 203e e0fa fe3e cbe3 3ec0
0.7313314 -3.1182466 2.0590756 -0.48618647 -0.9592171 -2.7599082 -2.3151944 -1.73405
0.6473006 -1.3761741 -1.8813233 -1.3568076 -1.8500541 1.4575375 1.2884934 -0.19176319
-0.011947443 -1.4605575 1.3862929 -0.6934073 -0.01942603 -1.2905618 -1.6641636 1.0588949
-1.4811826 -1.0322917 -0.074160755 -1.0306381 -3.0572374 0.15714447 0.49800777 -2.9826534

blocks.0.bn.running_var f4 [32]
00000000: 0b0e 0940 77b5 3c40 3084 a840 c935 1e40
00000010: 44f0 b740 4d09 9640 4dc5 d640 1510 2740
00000020: 39bd 0a40 fe3e 0040 24b8 1a40 0800 2440
00000030: 680e 2c40 4e35 3540 0559 9a40 03c1 0140
00000040: 4bbb 2740 368b b240 acd4 0840 62a3 1340
00000050: fbaf ff3f 2629 7740 950f 3040 5f1c 3440
00000060: 6b63 dd40 9ad4 1d40 1cb4 0440 c0fd 5640
00000070: 17f2 a240 7f07 0840 4123 3440 0c17 5540
2.141482 2.9485757 5.266136 2.4720328 5.7480793 4.6886353 6.7115846 2.6103566
2.1677992 2.0038447 2.417489 2.562502 2.6883793 2.8313785 4.8233666 2.0274055
2.6208065 5.5794935 2.1379805 2.306847 1.997558 3.8618865 2.750951 2.8142316
6.918386 2.4661012 2.073493 3.3592377 5.092052 2.1254575 2.8146517 3.3295317

blocks.1.conv.weight f4 [32, 32, 3, 3]
00000000: 8f15 a13d 9ba0 1d3e 2466 d33d 820c e7be
00000010: 90c9 313e 9103 dbbd 29d2 973d aa19 bbbe
00000020: f615 f13d 722f 463d 89b1 b73d ba3b 96be
00000030: 8c3d 8dbe 2f2b 8c3c 79e5 62bd ce80 0abe
00000040: b84f 8e3d bd56 24bd 3c33 6bbc 8b1b aebe
00000050: 3412 373e f679 94be af25 3fbf edce 66be
00000060: dacb 81bd 6e83 583e a791 e83d a69d cb3e
00000070: 7ec5 17ba 614e fdbc 7152 64be b8c9 1f3e
00000080: c0d4 eebd bdf0 62be 01b9 09bf f169 86be
00000090: 7565 743d 236d 073e f5c6 28be 2706 483e
000000a0: 47a9 38bd 3355 8a3d 9884 523d 9313 56be
000000b0: d5bb 4b3d 9ed8 08be 4ae9 bcbd 1694 833e
000000c0: 4b8f 263c b150 d33c 47b9 c33d 5ffd 893d
000000d0: b54c c03d dc18 803e 4a13 40be a8a8 353e
000000e0: 0263 babd 68c2 1fbe cb11 783c e365 52be
000000f0: 6b5b 52bd 40d5 0c3e 3e48 083d 676a 2d3d
00000100: eace 1dbf 9e3a 653d fcfb b7bd 5a8d bc3d
00000110: e493 dabe 0b95 4a3b 49ee 81bd f8c6 c83d
00000120: b55a 5c3e 4629 8cbe a0a3 58bd 8655 7dbd
00000130: 08ff 073e 4be4 2f3a 1fcb 73be 3a0d 4bbe
00000140: 1496 b53e 0ced b0bc 93c5 dabd c760 4dbe
00000150: fb48 bc3e ae04 2f3d 751b b6be 9794 3e3e
00000160: bc16 97be 5245 b2bd a9d9 c63d 9262 a4be
00000170: 686c 13be 507a 9fbc a5f8 aabd eccf c63d
00000180: dfa4 033e bb3a 873a 7125 9a3d 1ccf 023d
00000190: 5ef4 313d 5944 a1bc debc 9bbe ddf1 9bbd
000001a0: 3711 923d 9d0a bbbc 8f1b f5be f6df 48bd
000001b0: 383e 003d a907 883e 6ef0 78be ea95 f23d
000001c0: 1e2d c93e 7889 dd3d 8174 01be 3118 bebc
000001d0: c816 8e3e c5c7 a9be 4940 8ebe 32ba 34be
000001e0: 7d1c 31be 3d61 a9be a897 983d b402 c3bd
000001f0: 52b2 633d e173 bfbd 8d6f 9a3e 4c39 33be
00000200: 92c4 0abe ce0c 413e f9ce e1bd 216d 863e
00000210: 7296 923d 8fb6 05be 8509 2dbc c3e9 05be
00000220: 5737 edbc 5940 683d c8fc 58be 3b62 bd3d
00000230: 82e9 18be 38e2 c1ba 9b96 d5bd c199 d23d
00000240: 2f54 ca3e 88c1 e6be 2b2e e33d 89db 2ebd
00000250: f87f 5abe 73c0 093d 8a7b 623e fbe9 88bd
00000260: 06cb b8bd 212b 883d 367a 02bd d59b 87bd
00000270: e637 84be be23 46bf ce46 c73b 36fc 013e
00000280: dbdd 99be ec5e 4dbd 033e d83d 1033 113e
00000290: 2e0a eb3d 14c9 153b c471 4d3d 2c8d 9bbc
000002a0: 1f07 123d 4628 863e 8444 6cbd 011e 36be
000002b0: 9b61 8dbd f65f c63c 8208 903c 48ee 763d
000002c0: cf93 563e 6da9 ffbe 2536 30be aba1 f1be
000002d0: 140e 9b3d f318 b8be d543 533e d4c3 60be
000002e0: 31d1 92be a9ff 573e 71ec 0fbd b5b2 b7bd
000002f0: 0d7e babd 973a fa3c 9994 8a3b 0ca1 acbe
00000300: 9d19 fe3c 10ff 2cbe d60d e7bd eb56 96bd
00000310: 3563 d83d cbe4 50be ec9c 9d3b 6da4 56be
00000320: 5b13 5b3e 85c7 68bb 26a4 afbd 507f 343e
00000330: eec1 8bbc 3a4e 8fbe bb4b 703d 8921 d1bd
00000340: 863e f7bc 99ed 333e d4bf 5dbe 20bc 06bf
00000350: efe8 9cbc 3f81 8d3d ce78 0dbe 9f07 91be
00000360: da4c 1a3d e86f 64bd 52b8 55be b49b 18bd
00000370: 5316 52be fb24 87be 3ecf fd3c 3ca8 7a3e
00000380: 1e16 21be d9f3 1bbd 2615 463d 521f 3a3d
00000390: c52c b9bd 5741 b0bd 429b f2bd 939d a4be
000003a0: 2631 0d3e e04b 1ebd ab0a 223e ee85 563d
000003b0: b5a2 b33e 04c7 49be 34b5 82be d6d8 a5bd
000003c0: 94bc b5be 6bfb 9dbd 360d 3cbe 1e54 4b3e
000003d0: d286 80bc 3788 cbbc 15b4 10be 5b27 debd
000003e0: 967a ab3e 4300 f5bc d0d6 fabd 31d3 2dbc
000003f0: b374 08be 0189 74bd 7058 3b3e 27ab b4be
0.0786544 0.15393297 0.10322216 -0.4512673 0.17362046 -0.106940396 0.07413132 -0.36543018
0.11771767 0.04838509 0.08969409 -0.29342443 -0.2758602 0.017110435 -0.055394623 -0.13525698
0.06948799 -0.040121783 -0.014355477 -0.3400539 0.17878038 -0.289993 -0.74666876 -0.22539873
-0.0633771 0.21143886 0.11355906 0.39768714 -0.00057896215 -0.030921163 -0.22297074 0.15604293
-0.116616726 -0.22162147 -0.5379792 -0.26252702 0.05966707 0.13225226 -0.16482146 0.19533597
-0.04508331 0.06754532 0.051395983 -0.20905904 0.049739677 -0.13363883 -0.09224184 0.25698918
0.010166 0.025795313 0.09556823 0.0673778 0.09389631 0.25018966 -0.18757358 0.17740119
-0.091009155 -0.15601504 0.015140961 -0.20546679 -0.051356714 0.13753223 0.03327202 0.0423378
-0.6164385 0.055964105 -0.08983609 0.09206648 -0.42690957 0.003091159 -0.063442774 0.09803575
0.21518977 -0.2737524 -0.05289042 -0.06184914 0.1328088 0.00067097385 -0.23807953 -0.19829264
0.35466063 -0.021597408 -0.106822155 -0.20056449 0.3677443 0.042729072 -0.35567823 0.1861137
-0.29509532 -0.08704628 0.09709484 -0.32106453 -0.14396822 -0.019467503 -0.083482064 0.09707627
0.12855862 0.0010317186 0.07526673 0.031935796 0.043445937 -0.019685911 -0.30417532 -0.07614491
0.0713219 -0.02283221 -0.47872588 -0.04904171 0.031309336 0.26568344 -0.24310467 0.11845
0.39292234 0.10817236 -0.12642099 -0.023204895 0.27751756 -0.33160225 -0.2778342 -0.17649153
-0.17296024 -0.33082 0.07450801 -0.09522 0.05558998 -0.09348274 0.30163231 -0.17502326
-0.13551548 0.18852541 -0.11025805 0.26255134 0.071576014 -0.13057922 -0.010561352 -0.13077454
-0.028957052 0.05670199 -0.21190178 0.092472516 -0.14932826 -0.001479215 -0.10429116 0.102832325
0.39517352 -0.45069528 0.1109279 -0.042689834 -0.21337879 0.0336308 0.22117439 -0.06685253
-0.09023099 0.06648851 -0.03185483 -0.066215195 -0.25823897 -0.7739829 0.0060814386 0.12693867
-0.30052075 -0.050139353 0.10558703 0.14179635 0.11476551 0.0022855448 0.050157323 -0.018988214
0.035651322 0.262026 -0.05768253 -0.17784883 -0.069033824 0.02421568 0.017582182 0.060285836
0.20954822 -0.4993395 -0.17208154 -0.47193655 0.075710446 -0.35956535 0.20631345 -0.21949703
-0.28675225 0.2109362 -0.035137597 -0.089696325 -0.091060735 0.030545516 0.00422914 -0.3371662
0.031018073 -0.16894174 -0.11281936 -0.07340797 0.10565797 -0.20399778 0.0048099663 -0.20961161
0.21394102 -0.0035519314 -0.08576231 0.17626691 -0.017060246 -0.2798937 0.058665972 -0.102114744
-0.03018118 0.17571105 -0.21655208 -0.52630806 -0.01915404 0.06909417 -0.13815615 -0.28326127
0.037670948 -0.055770785 -0.20871094 -0.037257865 -0.20516329 -0.263954 0.03098261 0.24478239
-0.15731093 -0.038074348 0.048360012 0.045440026 -0.09041742 -0.086062126 -0.11846019 -0.3215147
0.1378828 -0.03864658 0.15824382 0.05237382 0.35085073 -0.19704825 -0.25528872 -0.08097999
-0.35495436 -0.0771397 -0.18364415 0.19856307 -0.015689287 -0.024845226 -0.14131196 -0.1084735
0.33491963 -0.029907351 -0.122480035 -0.010609434 -0.13325767 -0.05970097 0.18295455 -0.3528683

blocks.1.conv.bias f4 [32]
00000000: 4d0c 3bbc b62a ad3a 819b ecba 9d45 02bc
00000010: f785 8eb9 3f6f 273b 5f1f d1b9 5afc 1ab7
00000020: 4b98 8aba 4689 283b 31d9 dbba a9e4 0bbc
00000030: 7cd1 5d3c c96b 143b 7c50 1d38 d5b9 87bb
00000040: 4994 b33a a432 3eba d534 84b9 6a1a 2fbc
00000050: a232 6fb9 cd43 48bc 3b9e 0eba 50f7 a7ba
00000060: d869 313c e24b ad3a 09a7 aebb c270 303c
00000070: ea04 85ba d4f2 ad3a 2ce8 85ba f7f5 1fba
-0.011416507 0.0013211581 -0.0018051715 -0.007951167 -0.00027184162 0.0025548486 -0.0003988696 -9.2378705e-06
-0.0010573951 0.0025716587 -0.0016773102 -0.008538404 0.0135387145 0.0022647253 3.7506674e-05 -0.004142026
0.0013700809 -0.0007255471 -0.00025216365 -0.01068745 -0.00022811678 -0.012223196 -0.00054404483 -0.0012814794
0.010828458 0.0013221467 -0.0053299707 0.010769071 -0.0010148559 0.0013271221 -0.0010216287 -0.000610202

blocks.1.bn.weight f4 [32]
00000000: c956 2d3f 762c 6c3f 5bb1 3e3f 5a0d 633f
00000010: 4be2 793f 0b60 4f3f 14ba 423f 4f41 5f3f
00000020: 6910 843f d9d4 743f e9f9 743f 9ba0 853f
00000030: fe3c 9a3f 3fc9 543f 8094 8a3f 833d 6d3f
00000040: 8c3b 953f 02f7 3c3f ac25 663f 6021 633f
00000050: 913e 5b3f ec17 4a3f 22a3 943f 5a27 8e3f
00000060: 1319 663f da36 833f 0fcf 8b3f b5f9 553f
00000070: 07d4 533f 1fa5 563f 2714 fd3e cf81 8c3f
0.6771055 0.9225534 0.7448937 0.8869225 0.9761092 0.81005925 0.7606518 0.8720903
1.0317508 0.9563728 0.9569383 1.0439638 1.2049863 0.8311958 1.0826569 0.92671984
1.1658797 0.73814404 0.8990123 0.887228 0.85642344 0.7894275 1.1612284 1.1105759
0.8988201 1.0251114 1.0922564 0.8358415 0.82745403 0.83845705 0.49429438 1.0977114

blocks.1.bn.bias f4 [32]
00000000: 78ae 6abe 9286 b3be efcb dcbd 9df0 a8be
00000010: 2af5 43be fce2 39be 2c54 a4be 624a dcbe
00000020: cda7 debe ad0e c4be 71e5 fabe 1eef 0fbf
00000030: bd58 e4be d5fc b4be 50f3 bcbe bb1c bbbe
00000040: fc07 12bf e9de e5be 9bc0 0abf cab0 0cbf
00000050: fd3a 19bf c526 07bf c213 14bf fd43 09be
00000060: 3ef0 37bf 24bc 10be 8f66 b6be b75c c5be
00000070: a047 81be 7831 26bf 4df0 61bd cd94 d8be
-0.22918117 -0.35063607 -0.10781085 -0.32996073 -0.19136491 -0.18152994 -0.32095468 -0.430255
-0.43487397 -0.38292447 -0.49003175 -0.5622424 -0.44598952 -0.35349146 -0.36904383 -0.36545357
-0.57043433 -0.4489663 -0.5420014 -0.5495726 -0.59855634 -0.5279353 -0.5784265 -0.13404842
-0.71850955 -0.1413427 -0.3562512 -0.38547298 -0.25249958 -0.64919233 -0.05516081 -0.42301026

blocks.1.bn.running_mean f4 [32]
00000000: e1ef 90c0 3cf8 e5bf ae44 02bf 525b 43c0
00000010: e157 37c0 e2db 17bf 6327 d83f a064 2dc0
00000020: 20e7 56c0 7149 c0bf b1c9 15bf 546a 063e
00000030: 50e3 4abf ca6e 0040 05f6 67bf 3e77 24c0
00000040: 39fa 0bc0 1a78 543e efa2 26c0 5193 27c0
00000050: ed25 b7bf 5d2b d0bf 8049 e6bf 1e9f e3bf
00000060: cde0 b5bf fbe3 76bd f7c0 c7bf 8ab3 02c0
00000070: 555f 8d3f 5830 a5bf 8849 9b3f 2de7 afbf
-4.529282 -1.796638 -0.50886047 -3.0524487 -2.8647387 -0.5931989 1.688702 -2.7092667
-3.3578568 -1.5022413 -0.5851088 0.13126498 -0.792531 2.006762 -0.9060977 -2.569778
-2.1871474 0.2074894 -2.6036947 -2.6183665 -1.4308449 -1.6263233 -1.799118 -1.7782934
-1.4209229 -0.060276013 -1.5605763 -2.0422082 1.1044718 -1.2905378 1.2131815 -1.3742424

blocks.1.bn.running_var f4 [32]
00000000: e4a8 e740 881a bc40 80dd b240 bb07 1041
00000010: dac5 6f41 60af 0041 359f c240 831d a640
00000020: de9c ee40 c95f b540 5205 c940 e1f5 b240
00000030: 5064 db40 29af e040 586b d640 3cb9 d140
00000040: 0761 9f40 2245 ba40 cdf0 ac40 3698 d740
00000050: 34e7 ca40 306b 0441 fade c440 22f7 0141
00000060: 221f 9640 2a9c 0541 e021 b340 0ce3 0541
00000070: e47b a441 5fff b040 b3a8 4041 a726 8f40
7.2393665 5.8782387 5.5895386 9.001887 14.985804 8.042816 6.0819345 5.1911025
7.456649 5.6679425 6.2818995 5.5925145 6.855995 7.021382 6.7006035 6.5538616
4.980594 5.820939 5.4043946 6.7373304 6.340723 8.276169 6.152219 8.122835
4.6913004 8.350626 5.597885 8.367931 20.560493 5.531173 12.041186 4.4734683

blocks.2.conv.weight f4 [32, 32, 3, 3]
00000000: 80ad 153e 1eff 333e e92c c6bd 8d74 7cbd
00000010: 4c99 f3bc b931 4dbe cc6d 63be 4a66 efbd
00000020: 0b0c 983c 7a9c aabd fac4 06be 597a b4be
00000030: 87d2 7abe 700a 9bbd 3905 64be 5c9c 353d
00000040: 199d f3bd 000c dc3c fde7 19be 512e 6bbc
00000050: bd4e 1d3e 3327 e83c f138 4ebe 0342 dbbd
00000060: dd9e 803b 0469 79bb ad7e 44be 05f0 543e
00000070: e600 83bd 59fe 0c3e 21f6 c53d 5d6e 3bbe
00000080: be00 83bd 3f86 f83d 55ed 503e 8d81 d03e
00000090: 4528 a43d 9041 97ba b6cd 073f fc66 903d
000000a0: 91f3 653e 9641 983e 4cc9 f93c 0364 153e
000000b0: f136 a73e f233 28be 494a ed3d d481 c03e
000000c0: f5a7 de3d 7f0d 993e 10ba 2d3e f003 49bd
000000d0: 190e cabd 482a 1cbe 005b e4bd 4226 1f3e
000000e0: ccc0 463e 8f97 a1bd 0041 2cbd 5c5a 6dbc
000000f0: 548a 0fbe bab7 043e 70e0 12be 63bd d1bc
00000100: ab5c cfbe 3fdb 153e 350c b7bd 0468 26be
00000110: 45ce 84be d9f8 8dbe c5a3 e1bd f155 b23d
00000120: 313b 083e e51d e4bd e2ec 7b3e 4c0f 5c3e
00000130: a399 313e db61 bd3c ec0a cf3e 09fe c5be
00000140: 02ec 29be af63 833c db4a f23d 24fb 8fbe
00000150: dca4 04be b351 24be a8e0 b2be 5c97 4cbe
00000160: 8963 64be 6fd1 aebd 47a8 c2be 53b0 bdbe
00000170: b965 d63d eda4 47be a7b5 99bd ab6f 58bd
00000180: e0a5 06bc c9b9 0d3e f072 fdbd fa07 503c
00000190: 3c70 19bd f04e de3d 144f 123d 0ad8 613e
000001a0: 605d 69be d6d0 62ba ec6f c9be 8d0d ab3e
000001b0: af05 c93c a2de 03be 2653 8cbd c995 813e
000001c0: 85f8 5a3e 0ef7 8abd a132 2d3d b9a9 f03d
000001d0: 8f15 583e 892a 16be e8bb abbe a164 01be
000001e0: e7fd 8ebe 8bde bcbd f1c3 b83c b18d 8abe
000001f0: ecbc a2be 7009 fcbd dc96 4fbe 8c30 5ebe
00000200: 610b eabe 5ea7 8ebe f1d0 c0bd 97c4 faba
00000210: 1497 88be 6153 ab3e 977a 98be e907 f6bd
00000220: b66f 07bd bd45 99bd d3bb 98bd d289 91bc
00000230: 97b0 11be a64f 3b3e 5a01 38be e39b a03e
00000240: 6063 19be a1b8 c53d a51d ccbd 24b2 0ebe
00000250: 8882 1bbe d688 aebc 918c bd3e eeed 3dbd
00000260: 4bdb 913e c4a5 89bd c091 413e 52e2 d1bd
00000270: dcd1 063c fc5b 2dbc 6f51 6c3e 3adc 1fbe
00000280: 589f a7be eb17 183d ca56 34be d2e9 833e
00000290: 335e 493d 36a8 1d3e cf18 663e d1a5 d63d
000002a0: da0b ec3d 0c76 823e 5da2 c9bc f84c 4dbe
000002b0: c8d4 3abe b402 883d 7870 2dbe 2202 5fbd
000002c0: 13eb a63d 27ed 8ebe 5a51 bdba 2ba6 82be
000002d0: c692 f8bc 0641 87bd d73a ca3e a7d8 283e
000002e0: dbe9 27bd 6db1 093e 3f17 ac3e ad03 2c3e
000002f0: cb62 99be ead3 263e 100b cfbc 200a 723d
00000300: a713 7e3e bd92 bd3d 35de 2fbe b4a3 12be
00000310: e5a6 443d a891 8d3d 1f4f 093e 17ec 123c
00000320: 7821 66be eee5 54be 1dcd 8e3e c0b9 bdbe
00000330: d3ae cfbe bc9f 4abe ba50 03bf d500 d5bd
00000340: af4b 823e ff48 6a3e 1c01 8abe 9f79 56be
00000350: 993e 01bd c106 b4be 9c47 6bbe 5613 54bd
00000360: 20d4 3e3c 5726 d53b 79c6 91be 9d91 90bd
00000370: e9f1 d33e de90 4ebd 6677 16be aec3 40be
00000380: f9d4 63bc 4ea6 8dbc b6a3 2c3d cb80 57be
00000390: c2fa 653e 7f2c a93d eba4 debd 74bd 8a3e
000003a0: f7fd 18bd b30d 49bd d491 b7bd c5e0 78bc
000003b0: 4d25 11bd d395 31be f3e8 01be 0c7a 0ebd
000003c0: 0860 f13e 1edb 803d bc18 ef3d 824c 21be
000003d0: f789 953c 6743 1a3e e9e6 d2bd abbc a0ba
000003e0: 15dd 08be 0f27 5fbe 1c74 fdba 134a 623e
000003f0: 8d2e 133e e5a9 9abc 725b 203c 6f7c 09be
0.14616966 0.17577788 -0.09676535 -0.06163459 -0.029736184 -0.20038499 -0.22209853 -0.11689432
0.01856043 -0.08330627 -0.13161078 -0.35249594 -0.24494372 -0.0757035 -0.22267617 0.04433857
-0.118951984 0.02686119 -0.15029903 -0.014354304 0.15362068 0.028339004 -0.20138909 -0.1070595
0.003925188 -0.003805698 -0.19188948 0.20794685 -0.06396656 0.13768901 0.09666086 -0.18303819
-0.06396626 0.121349804 0.20403035 0.4072384 0.08015493 -0.0011539925 0.53048265 0.07050893
0.22456194 0.29737538 0.030491494 0.14588933 0.32659104 -0.16426066 0.115864344 0.3759905
0.10871879 0.2989311 0.16965508 -0.04907602 -0.0986597 -0.15250504 -0.111501694 0.15541938
0.19409484 -0.07890236 -0.042054176 -0.014486875 -0.14017612 0.12960711 -0.14343429 -0.025603002
-0.40500388 0.14634417 -0.08937875 -0.16250616 -0.2593862 -0.27728918 -0.11017565 0.08707798
0.1330383 -0.111385144 0.24602082 0.2149021 0.17343764 0.02311795 0.4043802 -0.38670376
-0.16593936 0.016038744 0.11830684 -0.28121293 -0.12953514 -0.16046791 -0.34937024 -0.19979614
-0.22303595 -0.0853604 -0.3801901 -0.37048587 0.10468621 -0.19496508 -0.075053506 -0.05284087
-0.008218259 0.13840403 -0.12375438 0.012697214 -0.03746055 0.108549 0.035719946 0.22055069
-0.22789526 -0.0008652335 -0.39343202 0.33408776 0.024538843 -0.12877896 -0.06851797 0.2530959
0.21383865 -0.06785403 0.04228461 0.11751122 0.21101974 -0.14664663 -0.335418 -0.12636043
-0.27928087 -0.09222134 0.02255437 -0.27061227 -0.3178476 -0.123064876 -0.20272392 -0.21698207
-0.45711806 -0.27862066 -0.094148524 -0.0019132075 -0.26677763 0.3346205 -0.2978103 -0.120132275
-0.03306552 -0.07484005 -0.074576996 -0.017765913 -0.1422752 0.18292102 -0.17969266 0.31368932
-0.14979315 0.09654356 -0.09966592 -0.13935143 -0.15186512 -0.021305483 0.37021306 -0.046369486
0.2848762 -0.067210704 0.18903255 -0.10248245 0.008228745 -0.010581013 0.2307794 -0.15611354
-0.32738757 0.037132185 -0.17611232 0.25764328 0.0491621 0.15396199 0.22470401 0.10480846
0.11525698 0.25480688 -0.024613554 -0.20048892 -0.18245232 0.066411406 -0.16937435 -0.054445393
0.081503056 -0.27915308 -0.00144438 -0.255174 -0.030343425 -0.06604199 0.39498016 0.16488896
-0.040994506 0.13446589 0.33611485 0.16798277 -0.29958186 0.16291776 -0.02527383 0.059091687
0.24812184 0.09256504 -0.17174609 -0.1432026 0.048010726 0.06912547 0.13409089 0.008967421
-0.22473705 -0.20790836 0.27890864 -0.37055779 -0.40563068 -0.19787496 -0.51295054 -0.10400549
0.25448367 0.22879408 -0.2695397 -0.20944832 -0.03155384 -0.35161403 -0.22976536 -0.051776253
0.011647254 0.0065048146 -0.28471735 -0.070590235 0.413955 -0.050431125 -0.14693984 -0.18824646
-0.013905757 -0.017291214 0.042148314 -0.21045224 0.22458938 0.0826044 -0.10871299 0.27097666
-0.037351575 -0.04908533 -0.089633614 -0.015190308 -0.035435963 -0.1734231 -0.1268652 -0.03478436
0.4714358 0.06291793 0.116746396 -0.15751842 0.018254263 0.15064774 -0.10297949 -0.0012263259
-0.13365586 -0.21792243 -0.0019336971 0.2209857 0.14373226 -0.01887984 0.009787427 -0.13426374

blocks.2.conv.bias f4 [32]
00000000: 65eb 05bb f091 11bb 5524 00b7 fcac 32bb
00000010: 171c f5ba bc1a e7bb af77 90ba bc8b e0bb
00000020: d86d 98b8 320a 76bb eb48 8cb8 1e0d 043c
00000030: 93fe 22ba 850c cd3b 5ab1 53bb 84c0 d8ba
00000040: c355 15bb c8f4 853b df65 c9b7 2e67 16bc
00000050: 0553 d6b8 68cd 9b3a 7a55 afba 57ce 0139
00000060: 2025 0e3a 2a74 dcbc a399 893a c28a e4b8
00000070: 7c0d e93b 4079 783a e6c3 e139 e785 083c
-0.0020434496 -0.002221223 -7.637854e-06 -0.0027263751 -0.0018700388 -0.0070527475 -0.0011021997 -0.006852595
-7.268385e-05 -0.0037542698 -6.689302e-05 0.008059768 -0.0006217744 0.006257596 -0.0032301755 -0.0016536866
-0.0022786714 0.004088018 -2.4008505e-05 -0.009179873 -0.00010219779 0.0011886777 -0.0013376914 0.00012379266
0.0005422402 -0.02691086 0.0010498058 -0.00010897733 0.007112203 0.0009478517 0.000430613 0.008332706

blocks.2.bn.weight f4 [32]
00000000: 0c3f 5f3f 65b5 673f 81c5 313f 9909 433f
00000010: d10a 473f dc37 433f 119f 873f da74 913f
00000020: 2320 2a3f 48cf 853f 7829 483f c0a7 7d3f
00000030: fe76 653f ea4b 5c3f ef1f 653f dc41 8f3f
00000040: eec7 983f 9c6c 803f 344b 3d3f 28f5 593f
00000050: e767 793f 0bb4 853f d1e5 6b3f 0e0f 823f
00000060: 4a45 9a3f ef23 7d3f 522b 7c3f cad0 303f
00000070: 7edf 0d3f 0a56 753f 9467 da3e 58fc 4e3f
0.87205577 0.9051116 0.6944199 0.7618652 0.7775088 0.7625711 1.0595418 1.1363785
0.66455287 1.0453882 0.78188276 0.9908409 0.8963469 0.86053336 0.8950185 1.1191974
1.1936014 1.0033145 0.73942876 0.85139704 0.9742417 1.044557 0.92147547 1.0160844
1.2052395 0.98882955 0.985036 0.69068587 0.55419147 0.9583441 0.4265715 0.80853796

blocks.2.bn.bias f4 [32]
00000000: 0636 8ebe b69d ffbe 2cf7 46be 7c72 95be
00000010: c52e 09bf 2ec3 55be bcc3 62be b18e 0dbf
00000020: 6020 0fbf a293 cbbe 6839 13bf a8ba c4be
00000030: bd87 edbe cc3e a0be a0b7 eebe 3a73 1ebf
00000040: 30bf cfbe 3e22 0fbf 198b e5be b43d 8fbe
00000050: 7c51 15bf daa3 2fbf 267d c0be f194 ecbe
00000060: 6821 21bf 6c1a e3be c1e1 0ebf 5f19 8cbe
00000070: da6e ac3c e131 c9be 25d2 833e a2ba 29bf
-0.27775592 -0.4992501 -0.19430226 -0.29188907 -0.5358699 -0.20875236 -0.22144979 -0.55295855
-0.55908775 -0.39761072 -0.5750947 -0.38423657 -0.46392623 -0.3129791 -0.4662447 -0.6189457
-0.40575552 -0.55911624 -0.44832686 -0.27976763 -0.5832746 -0.6860939 -0.3759548 -0.46207383
-0.629416 -0.44356096 -0.55813223 -0.27363107 0.021048952 -0.39295867 0.25746265 -0.66300404

blocks.2.bn.running_mean f4 [32]
00000000: 111d c4bf 644c 6cc0 b83d 22c0 538f efbd
00000010: bd88 89c0 c11b 9a3f 7e62 05bf ebaf a5bf
00000020: 989f dcbe 8fea 51bf a122 67bf aa7d abbf
00000030: 265d 7f3f ff5e 5cc0 24f8 f2bf 331c 3fc0
00000040: 6cce 83bf 4a68 9fbf 2307 f4bf da7b cbbf
00000050: 9be8 e3bf a557 0b3d 30d5 34be bb2e 09c0
00000060: 55c0 20bf 3e7d dfbd e90e eebf 6eeb f83e
00000070: e941 47bf 885e 23c0 6008 923f 7c08 d0bf
-1.532137 -3.6921625 -2.535017 -0.11697259 -4.2979417 1.203972 -0.5210341 -1.2944311
-0.4309051 -0.81998533 -0.90287215 -1.3397725 0.9975151 -3.443298 -1.8981977 -2.9860961
-1.029737 -1.2453701 -1.9064678 -1.5897171 -1.780536 0.03401913 -0.1765945 -2.1434772
-0.62793475 -0.1091256 -1.85983 0.4861712 -0.77834946 -2.5526447 1.1408806 -1.6252589

blocks.2.bn.running_var f4 [32]
00000000: e199 5641 dc75 1f41 57d3 2541 8b1d d740
00000010: ddb5 1d41 c85d f440 c9a5 6a41 2547 0241
00000020: f610 c740 4ae8 1f41 75e6 a240 b222 0041
00000030: c803 9540 8292 5e41 5621 9441 6bc5 c840
00000040: 70f2 9f40 eb6f 2541 26e5 df40 2bc1 d240
00000050: 2fb9 b840 9819 dd40 c730 ca40 65ea 2741
00000060: 22d1 a840 0b54 ae40 4c1c aa40 d09c 8a41
00000070: e51b 2841 90c9 7d41 7ee4 5641 3ad6 0a41
13.412568 9.966274 10.364097 6.7223563 9.8569 7.636448 14.665475 8.142369
6.2208204 9.994211 5.090632 8.008471 4.6567116 13.9107685 18.516277 6.274099
4.9983444 10.339824 6.996722 6.58608 5.7726054 6.909374 6.3184543 10.494725
5.275529 5.447759 5.315954 17.326569 10.50681 15.86171 13.430784 8.677301

blocks.3.conv.weight f4 [32, 32, 3, 3]
00000000: e4bd 60be 01be 68bd 502a 09be 7282 0bbd
00000010: b047 14bf dfcf b0be ab30 53be 9745 7bbe
00000020: 8b94 fcbd e8e9 0cbd 4216 c93c 750b 87be
00000030: b015 293e 7bb9 4e3e f1b9 633d 9ff7 1f3e
00000040: 6434 cc3d 8d1c 823e 984d e1bd 1480 e13d
00000050: 9f0f 0f3c a258 f63d a8dc 023e f3de c53c
00000060: 0e5a 93be bdf8 fd3b eec0 45bd 881f 08be
00000070: 79c8 b4bd da86 8d3d 824b 9bbd 51e7 17bf
00000080: 2dcd 8dbe 86e9 433e 68bb 543d 6e87 16be
00000090: ce2e 55be cd18 16be 241e 1b3c f680 63be
000000a0: ebbb 043e 9520 95be a136 6cbc f02d aabb
000000b0: 25e9 9bbe 6be3 1d3e 8418 82bd 4e27 1d3e
000000c0: bf65 99be b7ad ad3d 4976 753d 2e73 1c3e
000000d0: aa23 1cbd 55e9 b33d a7ca c83e bb10 27bd
000000e0: e44a 4abd 0019 983e 6a9b d63d 83ca 393d
000000f0: 9f69 3f3e 7e2f 85bd 8114 58bd d33a 3bbe
00000100: 02d4 353e 603d 373e c1d9 8f3e 17e1 093d
00000110: a331 8a3c 6a62 b53e acb1 ff3b 2299 9dbe
00000120: b425 13bd 1566 a9bd eaf4 443e ef63 673e
00000130: 56de e63d 9c1d ab3e d409 4bbe 9921 91bd
00000140: 3bff 85bd 5c3d 9bbd b437 e73d 2a61 ae3e
00000150: 2b01 ba3d 743c 323d bec1 a73c 846a 88bd
00000160: cfd5 4c3e 35b3 593e 54cd 95be 2a1a c4bd
00000170: 33e8 fe3d b832 bb3e 3dd0 5ebe 0a46 55be
00000180: 64a8 abbd 12e8 dd3d 0b6c 4e3e 342b b33d
00000190: 3a73 e2bc 6ab5 223e ae0f 09be 75cb 703d
000001a0: 6ed1 6f3d 1054 0dbf 1904 1cbe 649e 633e
000001b0: 5abb 20be a956 89bd 223c 97bd 6757 8f3b
000001c0: 7cdc dd3b 1b56 393d f49a a93d 37f9 e8bd
000001d0: 60d3 343e 22a9 39bd 42a1 013e 175b 653d
000001e0: d286 263e c20f 183e e3ee 9a3e 691f 36bd
000001f0: f1db 59be d9ec 53be dd80 87be 62cc 27be
00000200: 3cfd 39be 3f1b babe 1328 34bc e053 32bd
00000210: cc22 3bbe d9d8 e73d e305 efbe 0c4d 1ebe
00000220: ad47 063d 7260 b9bd 006d a8be ce2b af3d
00000230: 7747 253e 8ce2 74be a7b1 dfbd ce94 443e
00000240: eac6 62bd 0bf0 59be dbcf adbd 0e65 82bd
00000250: 6e59 47bd 6752 273e bd29 ce3e 6c35 0a3e
00000260: bbb4 ddbe 2d6c ea3b f62a 233e 3e7f 273d
00000270: 222c 15be f95e c03d 10fd ae3d f057 f03d
00000280: 045a 9a3d 99da 933d 5a52 95bd f510 66be
00000290: c701 1d3e c885 313c 1418 523d efa9 cfbd
000002a0: cb91 1a3e 4202 4ebd e044 473e 95bc bfbd
000002b0: 77fd f8bd d4ee 3dbe 352f d33e 5d39 4abd
000002c0: 5388 b0bc b2dd 3a3e 7e06 7abe e453 79be
000002d0: 05c9 9dbd e69d 353e 1306 b63c 074a 3d3e
000002e0: 3a66 73be 4efc 823d 82ca af3e 6198 f23d
000002f0: 5c61 943d 0366 ea3e 957b a9bd 1823 5a3e
00000300: 3b79 ab3a 6a41 4f3e d85a 423e 0834 debd
00000310: 17ef 0d3e a7d9 013e 6418 283e c280 dd34
00000320: ac26 5abd 7e2e adbd d50d 073e 72dc f8be
00000330: a1b6 64be 19bb e6bd 2922 6bbe b19a a43b
00000340: 7323 313d 888f b43e 8cc8 87be 7708 f0be
00000350: 42ed 25be 540a ff3d 58d0 643e 89d1 423e
00000360: 33d7 a0bd a8c2 463e 712e bdbd 09f2 c9bd
00000370: dc37 833e f8d4 babe 485d b9bb ee67 58be
00000380: 3067 31be b1f3 603e 6e5e f83c 679c 06be
00000390: 7579 bcbc 267e a4bd 1a61 36bd 30fe fd3d
000003a0: 0b13 7d3e 032b 22bd 41a0 b83d c041 b1be
000003b0: 2334 2ebe d149 c2bc 8569 25be 38a9 283d
000003c0: f4db b33e ec17 e2bc 55b4 b8be f1b6 a73d
000003d0: 5955 5fbc 6e5a 913e 3052 2c3c ab8d de3d
000003e0: 3751 b0bc d7a0 21bd 2ada e9bd 406e 053e
000003f0: c4b9 c4bd a359 823e b99a 3fbe db8b 8abe
-0.21947438 -0.056821827 -0.13395047 -0.03405995 -0.57921886 -0.34533593 -0.20624034 -0.24538265
-0.1233302 -0.034402758 0.024546746 -0.2637593 0.1651218 0.20187943 0.05559725 0.15621804
0.0997093 0.25412408 -0.11001128 0.11010757 0.008731752 0.12028624 0.12779486 0.024154162
-0.28779644 0.007750599 -0.048279695 -0.13293278 -0.088272996 0.069104865 -0.07582761 -0.59337336
-0.276956 0.19132051 0.051936537 -0.147001 -0.20818636 -0.14657898 0.009467635 -0.22217163
0.1296231 -0.2912642 -0.014417321 -0.0051934645 -0.30451313 0.15418784 -0.06352332 0.15347025
-0.2996044 0.08480399 0.05992726 0.15278313 -0.03811995 0.08784739 0.3921711 -0.04078744
-0.049387828 0.29706573 0.10478862 0.045359146 0.18692635 -0.06503199 -0.05275393 -0.18284158
0.17756656 0.17894506 0.2809582 0.033661928 0.016869372 0.35426646 0.0078031626 -0.30780894
-0.03592463 -0.08271424 0.19234052 0.22596715 0.11272876 0.33421028 -0.19827968 -0.07086486
-0.06542822 -0.07580063 0.112899214 0.34058505 0.09082254 0.043514684 0.020478126 -0.06660941
0.20003437 0.21259768 -0.29258215 -0.09575303 0.12446632 0.36562133 -0.21759124 -0.20827499
-0.08381727 0.108352795 0.20158403 0.08748475 -0.027642835 0.15889516 -0.13384888 0.05878778
0.058549337 -0.55206394 -0.15235938 0.2222839 -0.15696469 -0.06705982 -0.07384516 0.004374433
0.0067706686 0.045248132 0.08281508 -0.11375659 0.17658758 -0.045327313 0.12659171 0.055995073
0.16262367 0.14849761 0.3026038 -0.04446355 -0.21275307 -0.20695819 -0.26465502 -0.1638656
-0.18163007 -0.36348912 -0.010995883 -0.04353702 -0.18274993 0.11320657 -0.4668418 -0.15459079
0.0327832 -0.090515986 -0.3289566 0.08553277 0.16140543 -0.23914546 -0.10922556 0.1919739
-0.05536548 -0.21282975 -0.08486911 -0.06366931 -0.04866927 0.16340028 0.4026622 0.13496941
-0.4330195 0.007154009 0.15934357 0.040892832 -0.14567617 0.093931146 0.085443616 0.11735523
0.075367 0.072194286 -0.07291098 -0.22467406 0.15332709 0.010835119 0.051292494 -0.10139834
0.15094678 -0.050295122 0.19459867 -0.09362141 -0.121577196 -0.18548137 0.41246954 -0.049371112
-0.02154938 0.18248633 -0.24416539 -0.24348408 -0.07704357 0.17736015 0.022219693 0.1848527
-0.23769465 0.063957796 0.3433419 0.1184547 0.07245132 0.45780954 -0.082755245 0.2130245
0.0013082394 0.20239797 0.18979967 -0.10849768 0.13860737 0.12680684 0.16415554 4.1258141e-07
-0.053259537 -0.08456133 0.1318887 -0.48605686 -0.22335292 -0.11266155 -0.2296225 0.0050233235
0.043246698 0.35265756 -0.26520193 -0.46881458 -0.16203788 0.12453142 0.22345102 0.19025244
-0.07853546 0.19410193 -0.092373736 -0.09860618 0.25628555 -0.36490607 -0.005656872 -0.21133396
-0.17324519 0.21967961 0.030318465 -0.131456 -0.023007134 -0.080318734 -0.044526197 0.12401998
0.24714296 -0.0395918 0.09014941 -0.34620476 -0.17012076 -0.023716839 -0.16153534 0.041177005
0.35128748 -0.027599297 -0.36075082 0.0818919 -0.013631188 0.28389305 0.010517642 0.10866865
-0.021523101 -0.03946003 -0.114185646 0.13030338 -0.096057445 0.25459012 -0.18711366 -0.27059826

blocks.3.conv.bias f4 [32]
00000000: 5daa 873c cf42 5d3a 3877 5639 db29 103c
00000010: 98e2 f5ba 1187 0d3a be2b a33b 5e20 47b8
00000020: f373 9cb9 e563 1b3a 1d57 103a e3c0 55b8
00000030: cd36 ebb9 6cda 75ba 4e6e 4cba a3de 0b3c
00000040: 508d eb3a 3c33 c9ba fdf1 503b 2494 c23b
00000050: 0a43 ff3b f2b6 933a 0c66 0739 b6fc 453c
00000060: e744 b138 3ed5 faba 820b d8bb cc21 3f39
00000070: 2015 7c3c 7968 b0bb a19c 80b9 1b36 4fb9
0.016560728 0.0008440436 0.00020453043 0.008799042 -0.0018759547 0.00053988496 0.0049795797 -4.747544e-05
-0.00029841028 0.0005927666 0.0005506145 -5.0962797e-05 -0.00044863523 -0.00093785557 -0.0007798419 0.008536967
0.0017971192 -0.0015350352 0.0031882518 0.00593807 0.007789974 0.0011269732 0.00012912619 0.012084177
8.452852e-05 -0.0019137037 -0.0065931687 0.0001822777 0.015385896 -0.005383548 -0.0002453076 -0.00019761214

blocks.3.bn.weight f4 [32]
00000000: 75a7 753f d42e 5f3f c42e 6e3f 4c91 273f
00000010: 5159 613f df9b 263f e52c 633f e6ef 593f
00000020: 50f2 663f eb91 533f 6802 4e3f 5aa0 6c3f
00000030: 7dd0 6a3f c900 5d3f 385f 7b3f 0c93 963f
00000040: 215c 8f3f e553 863f a840 5a3f ee12 5e3f
00000050: bb94 713f 2e7b 983f 2cf4 5b3f 3ab2 713f
00000060: 8a83 8d3f 1acd 7e3f 1ae6 793f 6d84 243f
00000070: 6c55 323f 9bc9 633f a751 ef3e c242 7e3f
0.95958644 0.8718083 0.9304011 0.6545608 0.8802691 0.6508159 0.8874038 0.8513168
0.9021349 0.8264453 0.8047242 0.9243218 0.9172438 0.86329323 0.9819217 1.1763625
1.119999 1.0494353 0.8525491 0.86747634 0.9436757 1.1912591 0.8591945 0.9441258
1.1055768 0.9953171 0.9761673 0.64264566 0.69661593 0.889795 0.46741983 0.99320614

blocks.3.bn.bias f4 [32]
00000000: db36 c5be 6870 cabe 5412 adbe 9f70 1cbe
00000010: 48c6 fdbe 1c91 1abd d7fe 4cbf 2497 e3be
00000020: c7c4 0ebf 61f1 21bf 5a44 d9be c6ef 80bd
00000030: 3dc9 0bbf 4bcc d4be 165b 2bbf 823a bdbe
00000040: b717 1ebf f242 34bf 6240 dcbe 1d43 b3be
00000050: baa5 f1be 23e0 35bf 8531 2fbf e021 22bf
00000060: 4962 03bf 28fb 28bf e48f 01bf a09b abbe
00000070: 3492 8bbd 3cda c1be c301 933e c4f4 f8be
-0.38518414 -0.39538884 -0.33803046 -0.15277337 -0.4956534 -0.037736043 -0.80076355 -0.4445125
-0.5576901 -0.6325894 -0.4243496 -0.06295733 -0.5460394 -0.41562113 -0.6693586 -0.369587
-0.61754936 -0.7041465 -0.4301787 -0.3501214 -0.47196752 -0.7104513 -0.68434936 -0.6333294
-0.51321846 -0.66008234 -0.50610185 -0.3351717 -0.068149954 -0.37861812 0.28712282 -0.4862424

blocks.3.bn.running_mean f4 [32]
00000000: 54cc 0fc0 9c25 60bf 3823 51c0 a2a6 3cbf
00000010: 7899 94bf c83c eebe e7d2 a2bf 9921 92bf
00000020: 90a3 853f 0ba4 26c0 02e6 df3f 3e23 db3e
00000030: 2349 0d3e d97c 10c0 eadf bebf 071a 9abf
00000040: 0fe9 2dc0 87a1 debf deb1 07c0 cc32 dabe
00000050: 4245 ffbf ef62 583f b018 503f eae0 8cc0
00000060: 71ab 3a3f e3b9 ec3e db79 e5bf 7348 54bf
00000070: cb78 7140 7399 56c0 f945 96bf f043 9ebf
-2.2468462 -0.8755739 -3.2677746 -0.7369176 -1.1609335 -0.46530747 -1.2720612 -1.1416503
1.044054 -2.6037624 1.7492068 0.42800325 0.1379743 -2.25762 -1.4912083 -1.2039193
-2.7173498 -1.7393044 -2.1202312 -0.4261688 -1.9943011 0.8452596 0.8128767 -4.4024553
0.7291785 0.4623557 -1.7927812 -0.8292305 3.7729976 -3.3531158 -1.1740104 -1.2364483

blocks.3.bn.running_var f4 [32]
00000000: c74b c940 292c f540 370d 8241 39c5 c740
00000010: 653e e540 f3a9 3741 b9e4 d640 16bd cc40
00000020: 1cf9 e140 5e4d b240 cf94 7f41 adcf 8240
00000030: 3942 b140 d662 b840 909f 0241 c2a5 3641
00000040: f306 c540 ef8f c340 de0d e440 c4a2 0041
00000050: 0411 db40 7688 6e40 a7fd dc40 f9b1 e240
00000060: 467d a140 b5d3 e040 67c5 2d41 80d2 1841
00000070: c20e 0d41 be48 2541 0b9f ee40 3e5a c640
6.2905 7.6616406 16.256453 6.242825 7.1638665 11.4789915 6.7154202 6.398082
7.061659 5.571944 15.97383 4.087851 5.539334 5.762065 8.163956 11.415468
6.1570983 6.11132 7.126693 8.039738 6.845827 3.727079 6.9059634 7.084225
5.046542 7.025843 10.860694 9.551392 8.816103 10.330259 7.4569144 6.198516
