models/197.pth (torch, 501905 bytes, 80 tensors)

conv0.conv.weight f4 [32, 17, 3, 3]
00000000: 36bf e7bd 923d ca3e 4642 dc3d 0828 c53e
00000010: 465f ebbe 0893 113f 39fd ae3d 4207 eb3e
00000020: d917 573e 30b3 eebc c275 44bb be84 dcbc
00000030: 060f 323d 3a55 42be 33e8 1b3b 21a3 c53d
00000040: 31ea 1c3e 6697 b2bd bd8e 9b3d b781 2dbd
00000050: b029 1c3e a28d 09be 31c0 73be 45cc 3d3d
00000060: 2bf4 833d 5243 3e3d 6166 b23d fb78 c73d
00000070: 350b 50bc 4317 b63d 97cf dabd 35cf 0bbe
00000080: 92ae 71bd 0556 8b3e 64ff 63bd d9d9 f0bc
00000090: aa99 903e 0a20 9d3e 968f 1c3e 26b1 7c3e
000000a0: 9347 1dbf 664c d93e b5ad cf3e 2eac d33e
000000b0: 559e 913e 6bb0 db3d 03ac 6e3e da6b 7b3e
000000c0: f870 623e 8e30 63bd 37b4 a33d 57f6 823e
000000d0: db4c 133e ea33 3d3e 894f b93e 796d 963e
000000e0: 79fb 353e fae9 9a3e d04e 2bbe 7bec 9d3e
000000f0: 5b88 b23e 0fe6 963e ceb0 563e f328 263e
00000100: 5c1b b83e 25f9 b83d 8743 543e d35e 23be
00000110: 4313 ca3e 29e2 b13e 5427 5b3e 567e c63e
00000120: 2ab5 a23d dc60 e33d 5287 99bd 161d 973d
00000130: bf5a bf3e 3564 223d 1c33 0bbd 621f 063d
00000140: 6545 7abd f1d1 62bd aabe 893d 4115 1a3d
00000150: fb4e ce3c 5731 053f 6157 26bc 8df5 c7bc
00000160: 1ff3 b23d 50f1 e83d 7e40 63bd 5614 e33d
00000170: 0ca8 2e3b a617 323d d2b2 003f e720 433d
00000180: 46f6 c2bd 6b48 053d 63f2 563d 6909 8dbd
00000190: d94b cd3d fe66 9a3c 1023 f53d 0f6a cf3e
000001a0: d110 0e3d 08b4 d3bd 9d39 da3d 1fe1 683d
000001b0: 3d2a 5a3b 55b6 56be 4baa f03d a55f 3dbe
000001c0: 3ee1 5cbe 3460 e2b9 e069 7a3c 00d2 8cbe
000001d0: 86ef 873d f509 3fbd 9367 08bb 3fd2 ebbd
000001e0: c962 4ebd 7325 333e b871 1dbd eb4d b6bb
000001f0: 9a83 0d3e 39c0 943d 47b7 5a3e 670e b8bc
00000200: 71c9 28bc cfc8 823d fcef 1e3e 405b bfbd
00000210: 4baf a13b 98f5 83bd 000c 59bc 3750 e7bd
00000220: 3a2f cc3b d9c9 1bbe 949c a43b 676b 983c
00000230: 93d3 043e a93b 053e efa2 68ba 20b7 ec3d
00000240: a71c 4fbd 5838 193d 8202 033d de13 5e3e
00000250: 3bb1 55bd e7ff 1d3e f953 273d eea1 073d
00000260: 7d5c 9cb8 194d dbbd 5683 d43d ff34 eb3c
00000270: 6a2b 94be b1fb 09bf 8481 a13e aba4 2abb
00000280: 745b a03b c923 a23b ab66 23be 73a3 853e
00000290: 0396 3fbe ea6b 21be b14c f93d a1e5 c5be
000002a0: fbe4 fd3d f627 aabd a1da 4dbe c572 923d
000002b0: 0fac 943e 1e02 76be bd70 0dbe f44c 0a3e
000002c0: 97f0 b1be 814e 153d 1845 85be 6a43 d2bc
000002d0: fe51 aabe efd1 623e d7b9 aa3b ef93 383d
000002e0: 0fe2 5c3e 8471 2ebf fde8 203e ef8a 8abe
000002f0: e70a 83be 391c 3fbe 9d40 6cbe d28a 073e
00000300: 8f83 58be 5bf0 f2be 460c e7be e7dd 513e
00000310: 61ac 2cbe dc39 51be c7d0 92be 0fc9 05bf
00000320: 3920 8abe b7d0 02be d3f2 a2be dd19 99be
00000330: f493 0dbf 7098 27be 60a0 1abf 7144 03bf
00000340: 350e bebe ae1a 29bf 9330 dfbe 43dc 10be
00000350: f88f 98be 0978 4b3e 170c 8cbe 4184 15bf
00000360: b5ab 14be 8d71 9cbe 36a2 b3be 4ea7 aebe
00000370: 86b2 b0bd 793b 94be 8581 a8be a365 37be
00000380: 53af 27bf b8a4 1abe f289 293e a748 1e3e
00000390: ca0c e13c 8bd7 04bf a478 1f3e 2682 5bbe
000003a0: 81a5 073d 4565 753d d161 fdbd 4a08 0c3e
000003b0: 36c1 863e d60c fcbd d450 f53c c05e 4c3e
000003c0: 8a03 c5bc a5f2 783e 3118 fb3d a8c8 813d
000003d0: 943b 163e 9705 a83d 2ac1 683e 9c27 013e
000003e0: 8488 883d 4f59 e83d c689 64bc d06f c63d
000003f0: 9749 95bc f25e ff3c 3830 743e fb62 24bd
-0.113157675 0.395001 0.10754828 0.38507104 -0.45971125 0.56864977 0.08544392 0.45903975
0.21005191 -0.029138178 -0.0029977416 -0.026918765 0.04347136 -0.18977824 0.0023789525 0.09650255
0.15323712 -0.08720283 0.075955845 -0.042360034 0.15250278 -0.13432935 -0.23803784 0.046337385
0.06443056 0.04645092 0.087109335 0.09739872 -0.012697984 0.088911556 -0.10684126 -0.13653262
-0.059004374 0.27214065 -0.05566348 -0.029400753 0.28242236 0.30688506 0.15289149 0.24676952
-0.6143734 0.424411 0.40562215 0.413423 0.2844111 0.107270084 0.23307805 0.24552861
0.22113407 -0.055466227 0.07993358 0.25578567 0.14384787 0.18476835 0.36193493 0.29380396
0.1777171 0.30256635 -0.16729283 0.30844483 0.34869656 0.29472396 0.20965883 0.16226558
0.35958374 0.090318955 0.20728885 -0.15954141 0.3946782 0.3474286 0.21401721 0.38768262
0.079447106 0.11102459 -0.074965134 0.073785946 0.3737392 0.039646346 -0.03398429 0.032744773
-0.061101336 -0.055375997 0.067258194 0.037617926 0.025184145 0.5202841 -0.010152669 -0.02440908
0.08737778 0.11374152 -0.055481426 0.11087863 0.0026650457 0.043479584 0.5027286 0.0476388
-0.09519629 0.032539766 0.05247725 -0.068865605 0.100242324 0.018847939 0.11969578 0.40510604
0.034684006 -0.103370726 0.1065552 0.056855317 0.0033289336 -0.20967992 0.11751231 -0.18493517
-0.21570298 -0.00043177756 0.015284032 -0.27503967 0.06637482 -0.046640355 -0.0020813688 -0.11514711
-0.050387178 0.17494754 -0.03843853 -0.0055634878 0.13819733 0.07263226 0.21358977 -0.022467805
-0.010301934 0.063859574 0.15521234 -0.093435764 0.0049342266 -0.06443328 -0.01324749 -0.11294597
0.006231216 -0.15213718 0.0050235484 0.0186059 0.12971334 0.1301104 -0.00088743767 0.11558366
-0.050564434 0.03740725 0.031984814 0.21687266 -0.052170973 0.1542965 0.040851567 0.033113413
-7.455887e-05 -0.107080646 0.10376613 0.028711794 -0.28939372 -0.53899676 0.31544125 -0.002603809
0.0048937146 0.0049481136 -0.15957133 0.26101264 -0.18709569 -0.15763822 0.12172831 -0.38651755
0.1239719 -0.08308403 -0.20102932 0.07150797 0.2903752 -0.24024245 -0.13812537 0.13505918
-0.34753868 0.03645182 -0.26029277 -0.025666911 -0.3326568 0.22150396 0.005210142 0.045062955
0.2157061 -0.6814196 0.15713878 -0.27059123 -0.25594255 -0.1866311 -0.23071523 0.1323655
-0.21143936 -0.47449002 -0.4512655 0.20494805 -0.16862632 -0.20432228 -0.2867491 -0.52259916
-0.2697771 -0.12774931 -0.31825885 -0.29902545 -0.55303884 -0.16366744 -0.6040096 -0.5127631
-0.37120214 -0.66056335 -0.43591747 -0.14146523 -0.2979734 0.19870009 -0.27352974 -0.5840493
-0.14518626 -0.30555382 -0.35084695 -0.34112018 -0.08627801 -0.28951624 -0.32911316 -0.17909865
-0.655019 -0.15101898 0.16556528 0.15457402 0.027471919 -0.5189139 0.15573364 -0.21436366
0.03311682 0.05991103 -0.123721726 0.13675037 0.26319283 -0.12307136 0.029945768 0.1995802
-0.02404954 0.24311312 0.122604735 0.063371 0.14671165 0.08204191 0.22729936 0.12612766
0.06666663 0.11345159 -0.013948863 0.09689295 -0.018223567 0.031173203 0.23846519 -0.040133458

conv0.conv.bias f4 [32]
00000000: 0981 1d3c 7e91 173a ee66 20bd 86bc 0339
00000010: f7af 10bc 5092 633b 26c3 ef3c 1820 1a3b
00000020: aefa e23c 85a7 5339 bcc1 1c3b 1f51 1b3c
00000030: 96f9 6a3c 27f3 bc3a e7bc 87ba 0f5f 653b
00000040: 6946 07ba d2a4 52bd 15ef 9839 330d 783a
00000050: 573e 933b 5b2d 033d 743e a43c fa50 edba
00000060: 2fd8 093c 518f 04bb 51e9 95b9 d936 063d
00000070: 3822 65bc 844a 5cbc f244 843b 6b68 e9b9
0.009613284 0.0005781873 -0.03916066 0.00012563364 -0.008831016 0.003472466 0.029267859 0.0023517665
0.027707424 0.00020184934 0.0023919186 0.00947979 0.0143417325 0.0014415727 -0.001035598 0.0034999286
-0.0005160333 -0.051426716 0.0002916983 0.0009462416 0.0044935155 0.032025676 0.020049311 -0.0018105798
0.008413359 -0.0020227025 -0.0002859333 0.03276715 -0.013985209 -0.0134455 0.0040365392 -0.0004451902

conv0.bn.weight f4 [32]
00000000: cfbb 673f 2839 2e3f 2a46 233f e4f1 3c3f
00000010: d642 393f 81ba 103f 3c00 2a3f d962 403f
00000020: 7e07 673f 81f0 5c3f 9d43 3b3f 4470 0d3f
00000030: 9c1c 2f3f 094e 693f dd6e 2f3f 1300 5e3f
00000040: 1e18 343f 90e8 a83f dfdd 523f c8e2 363f
00000050: 9aed 3b3f 5d48 6a3f 15be 513f 1dda 253f
00000060: bbe8 5c3f ab93 453f e36c 483f 1a73 393f
00000070: 27cb 783f 7bb6 1b3f c1d8 283f 1580 123f
0.9052095 0.68055964 0.63778937 0.73806596 0.7236761 0.5653458 0.6640661 0.7515083
0.9024581 0.8630448 0.73150045 0.5524943 0.6840303 0.911347 0.6852854 0.86718863
0.703493 1.3195972 0.823698 0.7143979 0.73409426 0.9151667 0.8193067 0.6478594
0.8629262 0.7717845 0.7829115 0.72441256 0.97184986 0.6082532 0.6595574 0.5722669

conv0.bn.bias f4 [32]
00000000: f73d 10bf 9379 94bd 9e6c 1ebe 013d d8be
00000010: 5d7e 3bbe a1b4 91bd 9cc0 673d 70cc 9fbe
00000020: e9ac 68be 9961 d8be f471 83be 3198 103e
00000030: b7e8 40be f998 b6be c6ac a7be cfb2 a7bd
00000040: b6a5 453c f028 42be d967 86be 5777 67be
00000050: 1160 02be aaa7 f6bb 4a40 bdbe 658c b5be
00000060: aeac 30be 8e4d ccbe c7c5 cbbe 01cb 2fbe
00000070: f20b 0ebe 1bb9 f33e 330b 96be 42ad 86bd
-0.5634455 -0.07249751 -0.15471122 -0.42234042 -0.18309923 -0.0711453 0.05658017 -0.3121066
-0.2272221 -0.4226196 -0.25672877 0.14120556 -0.18838774 -0.35663584 -0.32749003 -0.08188402
0.012063434 -0.18960929 -0.26251104 -0.22604118 -0.12731959 -0.0075273113 -0.3696311 -0.35458675
-0.17253372 -0.3990292 -0.3979933 -0.17167284 -0.13871744 0.47602162 -0.2930542 -0.06576015

conv0.bn.running_mean f4 [32]
00000000: 5647 a03e b6f8 373d 277e 58be 04da 23be
00000010: 513e 98bd 4551 93bd 7727 89be 63c3 b03e
00000020: 3e01 5fbe 7b6a 12be 84de d5bc 0688 4cbc
00000030: e377 a7bd 1843 11bd 7c18 963d 450d 933e
00000040: 01df 3e3e 3d56 8fbe bdd7 60be 8e6e d2bd
00000050: 1969 283c 0a7d 9cbd 3183 39be 71f8 a83d
00000060: 2db8 d2bd dedb efbd 061b d3bd 07f0 75bd
00000070: 8220 833e 29db dc3d eece ebbd 2dab 7a3e
0.31304425 0.044914924 -0.21141873 -0.16001135 -0.07433761 -0.07193235 -0.26787922 0.34524068
-0.21777818 -0.14298432 -0.02610708 -0.012483602 -0.081771635 -0.035464376 0.07328889 0.2872106
0.18639757 -0.27995482 -0.21957298 -0.10274993 0.0102789635 -0.07641037 -0.18116452 0.082505114
-0.10289035 -0.11711858 -0.10307889 -0.06004336 0.2561074 0.10783989 -0.11514078 0.24479361

conv0.bn.running_var f4 [32]
00000000: f116 ec3d 8903 1f3e 2e31 5f3e 54ef 223e
00000010: 5019 483e dd10 313e c03f 993e b808 093e
00000020: 02f5 573e 0fd3 2c3e f8d8 143e aaca 283e
00000030: 744b 113e 2203 d23d bf84 1e3e 9964 0a3e
00000040: 0455 e63d c5a2 3a3e 0621 4c3e 6fc5 163e
00000050: 484a 883e 36fa 223e affd 153e 4bab 193e
00000060: 930a 093e 9393 343e 4b8d 093e 8128 013e
00000070: 7538 223e 75ac ea3d 109d 253e 730a 383e
0.11527813 0.15528692 0.21796104 0.15911609 0.19540906 0.17291589 0.2993145 0.13382232
0.21089557 0.16877387 0.14535892 0.1648356 0.1418894 0.10254504 0.15480326 0.13514937
0.11246684 0.18226154 0.19934472 0.14723752 0.26619172 0.1591576 0.14647554 0.1500675
0.1338294 0.1763442 0.13432805 0.12613107 0.15841849 0.11458675 0.16173196 0.17972736

blocks.0.conv.weight f4 [32, 32, 3, 3]
00000000: a6d3 3d3e 5d45 13be 7375 2c3e 2d63 d0be
00000010: 0ab8 fb3d f457 72be d680 3a3e 4c5d 8cbc
00000020: 33d9 093e 7e5d af3d 25f7 debc 6209 c2be
00000030: a568 1abe 333e adbd 9fb3 0c3e bdc7 b33c
00000040: 6260 babd 3539 12be 06b7 083e da82 eabd
00000050: b87d 1b3e 73a7 813d 90bb 5dbe eba3 bbbd
00000060: 36f8 283e efcb a73d 0876 d43d 8e48 423e
00000070: 5f57 f43d 48b7 e83c d20b b1bd 3956 0e3e
00000080: 2c20 89bd f4aa 42bd 7c9b a0be 855f 8b3e
00000090: bf6d c4bc 0d36 993e cf73 18be dd8f e33c
000000a0: b0b9 083e 42a5 dabd 3267 0cbe 1f03 e83d
000000b0: 0070 74be f1e0 983d 6519 66be 1cd6 363e
000000c0: b3cc 1d3c 229b 1fbe 1554 c23d 003a 053e
000000d0: fd7d 5f3e 036e 803e 1a63 a73d b647 11be
000000e0: fec4 febb 6728 81bd e1a9 843d 1620 a4be
000000f0: f806 723d 206e 323d b960 92be 0a39 8d3e
00000100: f8a1 8e3e 8df4 973e 1d22 2f3d eefd 873e
00000110: e668 633c c972 813d 3dac 103e ce94 143e
00000120: 9b6d 143d 38bd 1dbf c9d7 2d3d d9f3 bebd
00000130: 39c5 8b3e 52eb 383e 99ec ca3d 78a6 a53e
00000140: e29d 333d 23fa b1bd c28c bdbd 47bc 81bc
00000150: e643 2abd 7406 fb3e 2aca e03d 68de 013d
00000160: cf5b 28bd 38cc c93c 3367 c33c df96 9dba
00000170: f234 353d 5271 f6bd 296d 8e3d 71bd 4fbe
00000180: 33a4 5a3e ebaa 403e 450c 0c3e 6a39 283e
00000190: 7996 cc3c b699 b03e 97be 99be 8c2c 993d
000001a0: 1f52 2d3d a5cd 6f3e fb85 80be aec7 8cbd
000001b0: 39cd e9be 6ae2 12bd a693 8d3d 0716 013e
000001c0: aa0f fc3d 7e41 123e 05ff 14bd cd33 ad3e
000001d0: 97f3 1abb bc06 dabd c74b 22be 193b c6be
000001e0: c36e d53d 4835 03bf 0dc6 99be b010 bbbc
000001f0: 0576 28be 0992 1c3e a95a 1fbe c2e5 143e
00000200: b57f b7be d727 433d d196 e7bd 4ae7 99bd
00000210: 3bd9 46bd 89e3 0ebe c521 a73b 7d7d 763e
00000220: afb3 f23d 5dc0 193e af2a 2f3e cd08 89bb
00000230: cd2b 173d efea 4c3d b42c de3d 275e e33d
00000240: e3d8 a13d f98a 0b3e 6090 54bc f716 3d3e
00000250: e6fa 48be 1f0f de3d 27b5 903d 5c47 243e
00000260: df61 043e 947b afbd 5d50 393e deff 833d
00000270: a395 2f3e 7373 babf f6a6 873e 02c9 4d3e
00000280: f7c5 31bd 55ce a43d 53f6 c2bd d962 9abe
00000290: 37a1 ad3e 9f22 aa3e 7a9b a7be 2cfd 19bc
000002a0: 8eac 09bf c3d5 803e c0fe f83d d73b ee3d
000002b0: 5f13 52be 0d6d bebd 0e38 66bd 8684 0abe
000002c0: e120 1fbc 596e dcbd ade2 1fbe 0fcb 9dbd
000002d0: 43db c33b 14ac e1bd aa2b 45bc bea4 f73d
000002e0: d742 aabe e129 b1bd de87 3cbd 5272 01be
000002f0: dcc7 dabd 3695 c13d 278e d13d 62bb 633d
00000300: e098 4e3d c848 7dbe 3a70 943e 0912 4e3e
00000310: 1a9a 4a3e 2f41 a83d 0aaa cb3c 5f0a 89bd
00000320: 30e0 943d c6ff 69be d9b8 ce3e 7c2e 903e
00000330: 0e13 783d 8171 fbbe 2f47 8cbd 3108 073e
00000340: 7c11 5fbd eaad fd3d 0c97 48bd c7f9 cdbd
00000350: d2df 353e ebec 15be 46e8 2e3d b28e a63e
00000360: d3fe 473e 4566 91bb f7ca a53d 2bdf 6f3d
00000370: c29b 3e3b 4f24 01bd 9953 b93d 1746 f33d
00000380: bd32 0f3e 7816 fd3d eecb fdbb c9fd ab3d
00000390: c747 4b3c 7156 413e 322c 96be d7d1 6ebe
000003a0: 41d3 babb 9d70 043e 5cab c83a 4b33 babd
000003b0: 7103 c13d e8b2 3fbe 44e1 b4be 141c 763d
000003c0: d57a 213d c35c f63e 56d8 5cbe 3da6 3b3e
000003d0: 4661 51be 5f53 b9bd dec1 003e 5b90 fbbd
000003e0: f1ff 55be d8be 153e 4adc b93d 86b4 8a3d
000003f0: 5f30 373e fb4e 6ebe f0f1 a03d eb86 2abe
0.18537769 -0.14381929 0.16841678 -0.40700665 0.12290962 -0.23666364 0.1821321 -0.017134331
0.13461761 0.08562754 -0.027217457 -0.37897784 -0.15078981 -0.08459129 0.13740395 0.021945829
-0.09100415 -0.14279635 0.13351068 -0.11450739 0.15184677 0.063307665 -0.2165358 -0.09162124
0.16500935 0.08193194 0.10374075 0.1897299 0.11930727 0.028407708 -0.08644833 0.13900079
-0.066955894 -0.047526315 -0.31368625 0.27221313 -0.023978112 0.2992405 -0.14887927 0.02777856
0.13352084 -0.10676052 -0.13711241 0.1132872 -0.2387085 0.07464779 -0.22470625 0.17855114
0.009631324 -0.15586522 0.094886936 0.13010406 0.21825404 0.25083932 0.08173199 -0.14187512
-0.007774948 -0.06306534 0.06477714 -0.3205573 0.059088677 0.043562055 -0.2858942 0.2758258
0.27857947 0.29678765 0.042757142 0.2656092 0.01387999 0.06320722 0.14128204 0.1450989
0.03623734 -0.6161685 0.042442117 -0.09323854 0.27298906 0.18058518 0.09908409 0.32353568
0.04385174 -0.08690288 -0.09255363 -0.015836848 -0.04156866 0.4902836 0.1097606 0.031706244
-0.04110318 0.024633512 0.02385292 -0.0012023113 0.044239946 -0.12033333 0.069544144 -0.2028711
0.213517 0.188152 0.13676555 0.16428152 0.024974095 0.34492272 -0.3002822 0.074792
0.042314645 0.23418291 -0.2510222 -0.068740234 -0.45664385 -0.035860457 0.06912927 0.12606059
0.12307675 0.14282796 -0.036376018 0.33828583 -0.0023643726 -0.10645816 -0.1584922 -0.38716963
0.10421517 -0.51253176 -0.30033913 -0.022835106 -0.16451271 0.15290083 -0.15561928 0.1454077
-0.3583962 0.047645416 -0.11308063 -0.07514818 -0.04854701 -0.13953985 0.005100461 0.24071307
0.11850678 0.15014787 0.17106126 -0.0041819573 0.036907006 0.050028738 0.1084837 0.111019425
0.07902696 0.13627233 -0.012973875 0.18465792 -0.1962696 0.10842728 0.07065802 0.16042846
0.1292796 -0.085684925 0.18097062 0.06445287 0.17146926 -1.4566482 0.2649457 0.2009621
-0.043401685 0.08047167 -0.09519639 -0.3015354 0.3391206 0.3322954 -0.32735807 -0.00939874
-0.5377892 0.25163087 0.12157965 0.11632507 -0.20515202 -0.092981435 -0.0562058 -0.13527116
-0.009712429 -0.10763235 -0.15613814 -0.07704746 0.005977066 -0.110191494 -0.012034336 0.12091969
-0.3325412 -0.08650566 -0.04602801 -0.12641266 -0.106826514 0.09452288 0.102321915 0.055598624
0.05043876 -0.24734795 0.28991872 0.20124067 0.19785348 0.08215558 0.024861354 -0.06691431
0.07269323 -0.22851476 0.40375403 0.28160465 0.060565047 -0.49110034 -0.06849515 0.13186719
-0.054460034 0.12386687 -0.048972175 -0.10057407 0.17761162 -0.14641158 0.042701982 0.32530743
0.19530801 -0.0044372403 0.08095353 0.05856244 0.0029084538 -0.031528767 0.09049148 0.11878603
0.13984199 0.12357801 -0.0077452576 0.08398015 0.01240725 0.18880631 -0.29330593 -0.23322235
-0.005701453 0.12933584 0.0015309858 -0.090918146 0.094244845 -0.18720591 -0.35328114 0.06008537
0.039423782 0.48117647 -0.215669 0.18325134 -0.20447263 -0.09049105 0.12573954 -0.12283393
-0.20898415 0.14623582 0.0907522 0.06772713 0.17889546 -0.23272316 0.07858646 -0.1665303

blocks.0.conv.bias f4 [32]
00000000: 6758 373b c4c4 c23b eff6 a5ba 34c8 88ba
00000010: ebb1 8bbc 0685 183c da53 f23b 4b6f 803b
00000020: efb9 fb38 a4ef 903b 31b7 8abb 0a15 00ba
00000030: 502f 8aba c2d4 56ba b6dd 9b39 9a20 25bb
00000040: a51c dfba f1dd 113c f1a2 3d3b ddd0 75ba
00000050: fed0 dd39 1699 a03c 87bd 6b3b a798 b23a
00000060: 9016 41bc 04da ffba 4351 0dbc e7d3 1c3a
00000070: 8861 25ba 4ea1 613a 4ce9 48bb 09a3 9a3c
0.0027976276 0.0059438664 -0.0012662093 -0.0010435642 -0.017052611 0.009309059 0.00739525 0.003919517
0.000120032455 0.0044230986 -0.004233264 -0.00048859476 -0.0010542665 -0.00081951555 0.0002972909 -0.0025196434
-0.0017022087 0.008903013 0.0028936232 -0.00093771314 0.00042308116 0.019604247 0.0035971121 0.0013625816
-0.0117851645 -0.001951993 -0.008625331 0.00059825036 -0.0006308784 0.0008607105 -0.0030656634 0.01887657

blocks.0.bn.weight f4 [32]
00000000: e46e 5a3f 7d62 4f3f 5954 4d3f 12ea 7c3f
00000010: 0e23 8d3f fe55 363f 4e88 453f 9ffa 583f
00000020: de8b 683f b027 8a3f 0225 583f bbe3 753f
00000030: e45c 6e3f 1e5c 523f db4d 4c3f 0ef1 4f3f
00000040: 6019 903f d878 863f 3fa0 683f 2661 833f
00000050: d8df 643f c60b 3f3f 321d 873f 082e 5f3f
00000060: 99e1 583f 5f4c 613f efff 873f c226 9c3f
00000070: 1f3e 2b3f 02e0 323f ad64 243f ec7c 703f
0.85325456 0.81009656 0.8020683 0.9879466 1.1026323 0.71224964 0.7716111 0.8475742
0.9083842 1.0793362 0.8443147 0.96050614 0.9311049 0.8217181 0.798063 0.81227195
1.1257744 1.0505629 0.90869516 1.0264022 0.8940406 0.7462734 1.0555785 0.87179613
0.84719235 0.8800716 1.062498 1.2199328 0.66891664 0.6987306 0.6421612 0.93940616

blocks.0.bn.bias f4 [32]
00000000: 6c36 03bf b796 e7be 709d df3c f0f4 07be
00000010: 2898 b1be a5f1 60be 1ff2 7ebe 4dfb a1be
00000020: f249 c4be e7bc 92be cfb2 01bf dff2 19bf
00000030: 438c 06bf 61c1 0abf 7fd2 2fbe 6263 13bf
00000040: 6fb0 dfbe f3ee a0be df3f 6cbe eaff 14bf
00000050: 4c52 c8be b83d 79be 631a 3cbf eae2 bdbe
00000060: 84c8 ddbc 63c0 e9be 365f b9be e5b1 0abf
00000070: 04de 11bf 56ea a5be 13a6 64bd 1429 4cbf
-0.51254916 -0.45232174 0.027296752 -0.1327703 -0.34686399 -0.2196718 -0.2489705 -0.3163704
-0.38337666 -0.28659746 -0.50663465 -0.60136217 -0.5255777 -0.5420132 -0.17170142 -0.5757352
-0.43689296 -0.31432304 -0.2307124 -0.58202994 -0.39125288 -0.2433995 -0.7347776 -0.37087184
-0.027073152 -0.45654592 -0.36205453 -0.54177696 -0.56979394 -0.32405347 -0.055822443 -0.7975018

blocks.0.bn.running_mean f4 [32]
00000000: 2039 263f 23db 6fc0 d2a6 0040 8916 3cbe
00000010: 326f 92bf a31a 64c0 085a 0ec0 e340 c3bf
00000020: 4006 413f 111f f3bf 5c44 ebbf abb2 cabf
00000030: 8f52 f8bf f943 9a3f 720c cf3f c427 2abe
00000040: f973 25be 218e c2bf bbf1 d93f d8ea 10bf
00000050: 9478 50be 85af 72bf 50d7 96bf 8e9a 643f
00000060: 47d7 bfbf 1ce0 86bf f322 3fbe 3b2a 87bf
00000070: 3416 59c0 bcc5 01bd 3f7c c13e d556 43c0
0.64930916 -3.74775 2.010182 -0.18367971 -1.1440184 -3.5641258 -2.224245 -1.5254177
0.7540016 -1.8993856 -1.8380237 -1.5835775 -1.9400195 1.2051994 1.6175673 -0.16616732
-0.16157521 -1.5199624 1.7026895 -0.56608343 -0.20358497 -0.9479907 -1.1784458 0.8929833
-1.4987572 -1.0537143 -0.18665676 -1.0559763 -3.3919802 -0.031682715 0.37790105 -3.0521748

blocks.0.bn.running_var f4 [32]
00000000: 285e 1040 7afe 5f40 de32 c340 67c4 3840
00000010: 684a ba40 8352 d140 ca18 c840 d196 2740
00000020: c246 1b40 f8b9 0f40 1673 3840 7f73 3f40
00000030: 1ea5 1d40 5fba 2e40 1a1c b740 ff7e 1240
00000040: 3751 2a40 4b5d b440 4d1d 0d40 dfb4 1140
00000050: 44e6 0840 ad15 8440 bd62 3640 fd03 4940
00000060: 4bb1 cd40 41bc 2640 d2fa 1c40 03bc 5c40
00000070: 2673 c440 1d69 1440 4363 4e40 3d29 4440
2.2557468 3.499907 6.0999594 2.8869874 5.821583 6.541322 6.253026 2.61858
2.4261937 2.2457256 2.8820243 2.9914243 2.463203 2.7301252 5.7221804 2.2890012
2.661207 5.6363883 2.2049134 2.2766645 2.1390543 4.127646 2.8497765 3.1408684
6.427892 2.60524 2.4528089 3.4489753 6.139056 2.3189156 3.2248085 3.065017

blocks.1.conv.weight f4 [32, 32, 3, 3]
00000000: f42f 2a3d 0979 cd3d 4a5f a43d 5307 f4be
00000010: 87ae 3f3e c2f3 cbbd f09f bf3d 9667 d6be
00000020: 5946 ac3d 3c64 c63d d400 4a3e c1e0 adbe
00000030: 75cb 31be 0f46 a63c 2686 e3bd d992 f4bd
00000040: 6270 0a3e e02b 083e a98e ebbc 6eed b2be
00000050: e74c 3b3e f38e 93be 71dc 38bf 4d2d 37be
00000060: 6196 92bb 1d7c 803e b36b 1a3e a4e6 ab3e
00000070: abf5 2ebc df8f f0bc bfec b1be 740f 863e
00000080: 2b2c 4ebe 917c 64be 26db 14bf 4953 6ebe
00000090: 9845 7b3b ecb9 0f3e 70aa 87be b067 173e
000000a0: dd1d 12bd 5674 19bb bf3e 963d c93d ebbd
000000b0: 257a e43d 17b8 6cbe 9a4b c3bd 23eb 4e3e
000000c0: 449c bb3c e54d 6b3d 2da3 023e 13e6 8f3d
000000d0: d396 dd3c 7a45 a83e 9009 55be 0e73 9b3d
000000e0: 0856 43be 73b2 91be 5bf3 51bc 9e4f a2be
000000f0: 0dc3 91bd 2516 b03d a607 1bbd e790 89bc
00000100: 15eb 29bf 9729 d7bb 27c5 88bd c281 083e
00000110: 16b6 debe 9090 0f3d a682 00be d1ce 433d
00000120: 837a 373e 0267 46be 02c4 38be 696e 883d
00000130: a230 4e3d 8690 ebbc 8b24 96be 7804 92be
00000140: e7e0 ac3e 2c46 50bd 7a63 74bd be05 a2be
00000150: b2a0 d63e 12a4 873d 8eef a0be 27aa 0b3d
00000160: 5630 72be a6e8 a7bd 0ffc d73c ae26 47be
00000170: 58a4 cabc e12d fa3b 5d2d 03bd 7788 803d
00000180: 5e56 6d3e 4325 213c 0ab9 87bc c407 703d
00000190: a3f9 b33d 673a b3bd d750 8bbe 9dfe f3bd
000001a0: 622a bbbd 5565 eabb 4a24 f4be 36fc bbbd
000001b0: dd88 87bd c1ee 5a3e a37d 4ebe 0d9f 9d3d
000001c0: 14d4 d83e ba37 4cbd c3d2 c7bd 3a18 81bd
000001d0: daa4 9c3e 84cc 68be 2de8 cbbe a531 73be
000001e0: d2a0 4fbe 8cd4 e5be bb22 ba3d 05b6 cdbd
000001f0: 597c 233e 4549 7ebd 4127 7b3e 62a9 36be
00000200: 36d0 29be 0e6d 5f3e c1b8 55be c966 4c3e
00000210: 0018 6c3c 8145 58be f8f9 d13c ccdd e5bd
00000220: 2803 51bd a3f2 db3d 4154 1ebe ea40 103e
00000230: baaf 32be 1acc 52bc 307e 37be 8660 1f3d
00000240: 68ac b73e 6fe3 e0be 5f69 c73c f968 ccbc
00000250: 6119 76be 9b63 33bc 957c 1f3e 118f 75bd
00000260: f443 fdbc c8ea 7e3d d7e9 22be ec4d debd
00000270: 793c b3be e2fd 66bf 591c 3ebd 4bbe dd3d
00000280: d3ce a7be 5a19 f3bd 1513 bb3d 869a c73d
00000290: df34 1e3e 1531 ba3d f8cd fb3b 0a6c 003c
000002a0: 99e5 dbbb e857 523e 2da2 4fbd 53e5 6fbe
000002b0: 16e8 00be 58e6 92ba a6e9 dfbd c5ab 1e3e
000002c0: 8d55 633e 9cd7 08bf 8804 58be 3574 c9be
000002d0: 524a 833d dedf aebe 7c53 243e 37ec 1cbe
000002e0: ef43 82be 9dc8 853e 55c2 70bd 13b3 f73b
000002f0: 3d23 c7bd 6a77 8b3d 0536 403d 467a b0be
00000300: 041d 85bb 579a 8abe 82c7 b6bd 40c4 f2bd
00000310: 457f f53c 2e01 52be f813 343d 057b 74be
00000320: eaf4 503e 5d8a 083d 45ef e5bd cccc cd3d
00000330: e34e cbbd 4c92 6abe 5fbf 283d 41ee cfbd
00000340: 7d10 1bbe f0aa ca3d 9d4f 81be eb66 f8be
00000350: 12c8 09bd a395 563d 48a9 6fbe 4c8e b8be
00000360: 4c70 f43d ee32 7ab9 35b0 84be 0962 84bd
00000370: e5e7 45be 5749 4bbe 40c1 7e3d df5a 6c3e
00000380: 73bb 0cbe ab13 f5bd eb15 033d f415 1f3e
00000390: 0e05 55be e3f0 fcbd 9a61 59be 5d63 93be
000003a0: 5e2d 323e ad28 3dbd db32 913d 877f c23d
000003b0: 5ad4 923e 24f1 82be 4ee9 55be 43b1 d3bd
000003c0: 1fe3 90be bf08 d5ba c434 62be ac61 243e
000003d0: 9fca c53c a3cc 82bd 7fe3 d1bd 210e 80be
000003e0: f54d bc3e 02b8 793d 5248 263b 22f0 81bd
000003f0: 3087 27be 553d 2bbd 0c7a 343e a049 ccbe
0.041549638 0.10032851 0.080259874 -0.47661838 0.1871892 -0.099586025 0.093566775 -0.41875905
0.08411855 0.09687087 0.19726878 -0.33960536 -0.17362769 0.020297078 -0.11109571 -0.119420715
0.13519433 0.13297987 -0.02875455 -0.3494677 0.18291055 -0.2882 -0.72211367 -0.17888375
-0.004473493 0.2509469 0.15080146 0.33574402 -0.010678689 -0.029365478 -0.34750935 0.26183665
-0.20134036 -0.22313143 -0.58146894 -0.23273958 0.0038341042 0.14035767 -0.2649722 0.14785647
-0.03567301 -0.002341529 0.073361866 -0.11486394 0.1115611 -0.231171 -0.09535904 0.20206885
0.022901662 0.057447333 0.12757559 0.07026305 0.027049458 0.32865506 -0.20804429 0.07590304
-0.19075787 -0.28456458 -0.012814368 -0.31701368 -0.07117281 0.08597974 -0.03784909 -0.016792728
-0.6637433 -0.006566237 -0.06678229 0.13330749 -0.43498296 0.035049975 -0.12549838 0.047804657
0.17917828 -0.19375232 -0.18043521 0.06661684 0.05033935 -0.028755438 -0.29324755 -0.28519034
0.33765337 -0.05084817 -0.05966518 -0.31645006 0.41919476 0.06623091 -0.31432766 0.034097817
-0.23651251 -0.08198671 0.026365308 -0.19448349 -0.024736568 0.0076348637 -0.032025684 0.062760286
0.23177478 0.009835544 -0.016567726 0.058601156 0.08787849 -0.08751374 -0.27210113 -0.11913798
-0.09138943 -0.007153193 -0.47683936 -0.09178965 -0.066179015 0.2138014 -0.20165114 0.07696352
0.42349303 -0.049857832 -0.097569965 -0.06303449 0.30594522 -0.22734267 -0.39825574 -0.23749407
-0.20276192 -0.44888723 0.090886556 -0.10044483 0.15965404 -0.062081594 0.24526693 -0.17838052
-0.16583332 0.21818945 -0.2087126 0.19961084 0.014410019 -0.21120264 0.02563189 -0.11223945
-0.0510284 0.10739639 -0.15461828 0.14087263 -0.17449847 -0.012866044 -0.1791923 0.03891041
0.35873723 -0.43923518 0.024342237 -0.024952399 -0.24033119 -0.010949041 0.15574868 -0.059950892
-0.030916192 0.062235624 -0.15909515 -0.10854706 -0.35007074 -0.90231144 -0.046413753 0.10827311
-0.32774982 -0.1187007 0.09134499 0.0974627 0.15449856 0.09091393 0.0076844655 0.0078382585
-0.00671072 0.20541346 -0.050691772 -0.23427324 -0.12588534 -0.0011207564 -0.10933237 0.15495212
0.22200604 -0.53453994 -0.21095479 -0.3934647 0.0641066 -0.34155172 0.16047472 -0.15324484
-0.25442454 0.26129618 -0.05877908 0.007559189 -0.09723518 0.06809886 0.046926517 -0.34468287
-0.004062297 -0.27070877 -0.08924772 -0.11853838 0.029967913 -0.20508263 0.043964356 -0.23875053
0.20405927 0.03333508 -0.11227278 0.100488275 -0.09927156 -0.2290737 0.04119813 -0.10152865
-0.15143009 0.09895885 -0.25256053 -0.4851602 -0.033638068 0.0523888 -0.2340442 -0.36046064
0.119354814 -0.0002386083 -0.25915685 -0.06464011 -0.19326742 -0.19852196 0.062196016 0.2308154
-0.13743381 -0.11966642 0.032003324 0.15535718 -0.2080271 -0.12350633 -0.21228638 -0.28786746
0.17400119 -0.04618137 0.07089778 0.0949698 0.28677636 -0.255746 -0.2088978 -0.10336544
-0.2829828 -0.0016253217 -0.22090441 0.16052884 0.024144469 -0.063866876 -0.102484696 -0.2501078
0.36778226 0.0609665 0.0025372696 -0.0634463 -0.16360164 -0.041806538 0.17624682 -0.3989992

blocks.1.conv.bias f4 [32]
00000000: 64d1 09bb 1fb7 22ba e56c 02ba 1799 5d3c
00000010: b486 f83b 51cf 0039 db3f 19bc 3e67 d8b9
00000020: beac 9abb ff96 22ba 4c0f c03a 11ed 0cb9
00000030: 548f 2b3b 6b72 913a 89b7 99bc 9e91 e6b9
00000040: a20f 52bb 7b31 a93a 3110 12ba ac33 3cba
00000050: a31f cf3b fbb1 dbbb 4394 55ba e762 95ba
00000060: a1d4 b3bb 8669 08ba 3d7e 733c 6cfa ad3b
00000070: fdfa 1f3a f28b 9539 6a61 da38 fee3 9fb9
-0.0021029348 -0.0006207097 -0.0004975333 0.013525269 0.0075844172 0.00012284263 -0.009353603 -0.00041275652
-0.0047202995 -0.000620231 0.0014652996 -0.00013439755 0.002617796 0.0011096721 -0.018764274 -0.00043977512
-0.0032052775 0.0012908423 -0.0005571871 -0.00071793306 0.00632091 -0.0067045665 -0.0008147398 -0.0011397273
-0.005487994 -0.00052037125 0.0148616405 0.0053093936 0.0006102769 0.00028523762 0.00010413195 -0.0003049671

blocks.1.bn.weight f4 [32]
00000000: 6af3 2e3f adfe 6c3f e6c6 3b3f f75c 683f
00000010: 59f2 813f d602 543f d83a 363f de44 433f
00000020: bf84 833f 1a8e 693f 5453 793f 273c 793f
00000030: b6fa 983f 6773 563f 17c9 8e3f 2780 693f
00000040: bd98 993f dfd1 503f 88aa 603f 09e8 5e3f
00000050: c343 683f 1cb7 4d3f 26e3 943f ca8f 8b3f
00000060: 5be1 573f de53 8c3f dc3b 883f d8c7 593f
00000070: ffbe 4c3f 3ada 493f fd76 023f a2ce 963f
0.6834017 0.92576104 0.7335037 0.90766853 1.0152084 0.8281683 0.7118354 0.7627696
1.0274886 0.91232455 0.97392774 0.9735741 1.1951511 0.8376984 1.1155118 0.9121117
1.1999737 0.8157024 0.8776021 0.8707281 0.90728396 0.8035753 1.163182 1.0903256
0.8432824 1.0963094 1.0643268 0.8507056 0.79978937 0.7884861 0.5096281 1.1781809

blocks.1.bn.bias f4 [32]
00000000: 80a9 7ebe e860 d4be 8d47 91bd 5a42 b0be
00000010: 9577 3fbe f7b6 59be 1f23 b1be 01bf f2be
00000020: cb58 f7be 0238 98be c6a4 fbbe 0728 2fbf
00000030: f872 f4be e45a abbe ac36 c1be 249d ccbe
00000040: cd4a 0ebf b35b e3be f912 fdbe ac1f 12bf
00000050: 6d36 1cbf d8b2 efbe d75f 1cbf fb0a 5bbe
00000060: 6d11 48bf ddbc 06be 5d0b aebe fabc aabe
00000070: 421c 8ebe 281f 32bf 498e c9bd d6a6 c0be
-0.24869347 -0.41480184 -0.07093725 -0.34425622 -0.1869796 -0.21261202 -0.34597108 -0.4741135
-0.4830993 -0.2973023 -0.4914915 -0.6842045 -0.47743964 -0.33467782 -0.37737024 -0.3996364
-0.55582887 -0.44405898 -0.49428537 -0.5707958 -0.6102055 -0.46816134 -0.6108374 -0.21390907
-0.7815159 -0.13157983 -0.33993044 -0.33347303 -0.27755934 -0.6957879 -0.09841592 -0.37627286

blocks.1.bn.running_mean f4 [32]
00000000: a4ef adc0 6ba6 25c0 0602 4bbf eeb5 68c0
00000010: 2cf5 33c0 289c 11be e0c7 2540 89c1 06c0
00000020: 44b1 69c0 5dde 79be c8b3 ac3d a0c2 4f3f
00000030: 999b 9cbf 0e4b 9c3f e652 eabf 32a4 35c0
00000040: b0bc 28c0 a596 353f 2267 30c0 9b04 fbbf
00000050: 6404 adbf 4f00 a2bf 5ff4 0cc0 c60a fbbf
00000060: 5b07 fdbf ed2a ad3e e790 b3bf 9a42 17c0
00000070: 43d0 513f 2027 e5bf f0c8 f03f e798 a7bf
-5.435503 -2.5882823 -0.7929996 -3.636104 -2.811839 -0.14219725 2.5903244 -2.1055624
-3.6514444 -0.24401231 0.08432728 0.8115635 -1.2234985 1.2210405 -1.8306549 -2.8381467
-2.6365166 0.7093299 -2.7562947 -1.961078 -1.3516965 -1.2656344 -2.2024152 -1.9612663
-1.976787 0.33821812 -1.4028596 -2.36344 0.8195841 -1.7902565 1.8811321 -1.3093537

blocks.1.bn.running_var f4 [32]
00000000: 1556 ee40 7636 f940 a741 c340 5123 4141
00000010: 222f 8f41 40dc 1441 a4ab e340 611c 9f40
00000020: dc13 3141 16a9 e240 3037 e640 335d b140
00000030: d444 0941 5fd8 de40 40aa 0941 ab16 fa40
00000040: 47cb c340 059a 0741 d938 ba40 e872 b940
00000050: 3a4a de40 395e f240 de0a f140 6e84 1441
00000060: 937f 9640 b99e f040 2fca cf40 bbeb 2441
00000070: 3a28 ae41 1b93 e140 0fa1 4f41 336d 9d40
7.448008 7.787898 6.101764 12.071122 17.898014 9.303772 7.114702 4.972214
11.0673485 7.0831404 7.1942368 5.542627 8.579304 6.9639125 8.604065 7.815267
6.118564 8.475102 5.8194394 5.7952766 6.946561 7.574002 7.5325766 9.282331
4.703073 7.5193753 6.4934306 10.307551 21.769642 7.049207 12.976821 4.91958

blocks.2.conv.weight f4 [32, 32, 3, 3]
00000000: f0ab 973d 5090 2d3e 92db 93bd 26a9 d2bc
00000010: eb43 8abc dcf0 26be 8618 84be a920 4abe
00000020: 32dc 11bd b7e2 28be 000a f9bc 0685 bdbe
00000030: 2da4 a5be 0951 4ebd 0e99 3abe 2f7a 1e3d
00000040: 3e13 34be a503 cb3d 645c 06be 88e6 953c
00000050: 3f01 243e 04ab 5b3c 6e8c 2cbe 503c 97bc
00000060: 3a87 de3d 1cb0 4cbc 19db a1be a908 493e
00000070: b917 d3bd e248 063e 8970 153e 2ef1 6bbe
00000080: 4391 89bd 7e6a 8b3d 9725 843e 4cca c13e
00000090: 3ce2 563d 0968 f33c f7ec 013f afc5 243d
000000a0: 9875 803e eec7 a63e 2466 2d3d fcb3 813e
000000b0: b028 cc3e 8722 34be 251c cc3d 3736 9b3e
000000c0: 68d3 fa3d d012 833e 4e6e 723e 1f63 62bc
000000d0: 9269 69be 0481 4cbe ce46 0ebe a92f e73d
000000e0: ca3d 403e 7003 09be 31fa dbbc f770 9ebd
000000f0: 1d8e 2cbe 8ca7 013e 3d5d 0bbe c0c2 a6bb
00000100: 0d3d 08bf 750e a93d 285b d1bd eaf0 26be
00000110: d54c 92be e261 a1be 1889 debd 54c0 8e3d
00000120: 4e00 aa3d 1819 a3bd df19 e63d aae9 7d3e
00000130: 829a 1c3e d77f b93d 250a e93e f645 babe
00000140: bb0b f7bd 97f1 06bd ee98 553e fbfc a1be
00000150: c3e0 c0bd e389 2abe baeb d3be 2e0b 9abe
00000160: 22ba 87be 69f0 94bd 36ae b4be 178e dcbe
00000170: dfe5 c73d b542 30be a558 04bd 982a 39bd
00000180: 5ef7 1a3e 7fcd c83d 9cde 4ebe cb35 c83d
00000190: 4de4 6c3d 4ab6 243e 4fec 773d 8669 8f3e
000001a0: d193 57be ea39 033e d709 9dbe d0a6 823e
000001b0: 3cac 35bd a5a3 87be 65fb 56bd 1255 453e
000001c0: 571f 8c3e 0c8e f9bd 7774 343d 5d98 213e
000001d0: 46b8 463e 743b 88bd d37e 9cbe 1fdd 38be
000001e0: 8c57 76be 263d ffbd c6f2 523d 04b9 81be
000001f0: d53f 94be 3316 36bd 4417 80be 8526 55be
00000200: ccd1 efbe 23bb 0cbe 2ec7 32be cf89 32bd
00000210: 43f4 8fbe b293 ce3e b3da 3dbe 61fa 17be
00000220: d756 22be 6174 1fbd 49f9 c3bc 2929 c0bc
00000230: 1f6d 3ebe 3ae6 103e 5470 38be b833 973e
00000240: e78d a6bd 7eed bd3d 5cf2 abbd 91e8 fdbd
00000250: 8c5f 63be 471e f83c bfc9 bf3e 7cb3 6ebd
00000260: d0ae 6e3e 33ef bbbd 613a e53d 3edb f2bc
00000270: e3c1 22bd 49be dcbd d3d2 633e fada 25be
00000280: 4c54 9ebe 34e4 603c 1a9e 7fbd 1f44 c93e
00000290: 952d d33d b040 d53d 9399 783e 9dbd 113e
000002a0: d31c 4bbc bc00 4a3e d7e3 09bd bdad 34be
000002b0: 816f 8fbe d99b b73d d41d 1dbe 7879 fa3c
000002c0: 574e 243e a86a 82be 7102 a7bd 83bf 66be
000002d0: 3c94 8fbd 93b6 243d fe0b ea3e 29c1 f53d
000002e0: b24c abbc 3534 db3d c782 253e 818d 473e
000002f0: 2f52 9abe f610 cd3d d47e 5c3d 0060 8e3b
00000300: 3078 9b3e 2562 ea3d 90db 70be 253d 75bd
00000310: c66f 053e da70 6d3d b9ac 2d3e 7e28 97bd
00000320: 3072 85be 7e73 0fbe 7da5 af3e 5957 c8be
00000330: 73b0 d6be a1af 73bd 2b04 14bf dffd dabd
00000340: cc38 2a3e b08f 313e b971 98be a71e 26be
00000350: dc6f f3bc 8001 aabe 2503 81be fdd0 76bd
00000360: 2c1d 193e f08e cf3d 5836 87be 9199 7fbc
00000370: aa38 c33e 159d ac3a 84bb e4bd 0bbb 59be
00000380: 2752 d63b dc06 7d3d 1f41 2a3e 5cec 5ebe
00000390: fb7a 8d3e f40e fe3d 931a 27be d799 c43e
000003a0: 65b5 d53d f2f3 2fbd 6cfc 33be 26a3 7e3d
000003b0: 3be1 863c 734e 04be 7fa1 883c 39d9 09bd
000003c0: efa0 fa3e 8512 563d 8969 183e c9fe d2bd
000003d0: 328f 473c a949 8c3e 3468 9bbd 450c 96bd
000003e0: 7d34 60bd 429d 27be c5f8 86ba 6838 df3d
000003f0: 67eb e13d 4698 8cbd db84 883c b69b 6ebe
0.07405841 0.16949582 -0.07219614 -0.025715422 -0.016878089 -0.16302818 -0.2579996 -0.19739021
-0.035610385 -0.16492735 -0.030400276 -0.3701555 -0.3235182 -0.05037025 -0.18222448 0.038690742
-0.17585465 0.099128045 -0.13121182 0.018298402 0.160161 0.0134074725 -0.16850445 -0.018461376
0.10865636 -0.01249316 -0.3161247 0.1963221 -0.10307259 0.1311374 0.1459371 -0.23041221
-0.067171596 0.06807421 0.2580993 0.37849653 0.052461848 0.029712694 0.50752205 0.04022759
0.25089717 0.3257441 0.042333737 0.2533263 0.39874792 -0.17591296 0.09966306 0.303148
0.12247354 0.2560029 0.2367489 -0.013817578 -0.22794178 -0.1997109 -0.13894197 0.11288387
0.1877357 -0.13380218 -0.026852699 -0.0773639 -0.16851087 0.1266157 -0.13609786 -0.005089134
-0.53218156 0.082547106 -0.10222465 -0.16302839 -0.28574243 -0.3151999 -0.10865992 0.069702774
0.08300839 -0.07963771 0.11235403 0.24796167 0.15293315 0.09057587 0.45515552 -0.363815
-0.12062784 -0.03294524 0.2085912 -0.3163832 -0.0941787 -0.16654162 -0.41390783 -0.30086654
-0.26509196 -0.07272417 -0.35289162 -0.43077156 0.09760641 -0.17212947 -0.0323111 -0.045206636
0.15133426 0.0980482 -0.20202106 0.09775885 0.057834912 0.16085163 0.060528096 0.28010195
-0.21052481 0.12815061 -0.3067157 0.25517893 -0.04435371 -0.26492038 -0.052485842 0.19270733
0.2736766 -0.121852964 0.044056382 0.15780778 0.19406232 -0.06651965 -0.3056551 -0.18053101
-0.24056834 -0.12462835 0.051501058 -0.25336468 -0.2895495 -0.044454765 -0.2501775 -0.20815475
-0.4683975 -0.13743262 -0.17458794 -0.043588456 -0.28116044 0.40347058 -0.18540458 -0.14841606
-0.1585344 -0.038929347 -0.02392258 -0.023457127 -0.18596314 0.14150324 -0.180116 0.29531646
-0.081325345 0.09273814 -0.08395836 -0.12397874 -0.22204417 0.030287875 0.37458608 -0.05827664
0.23308873 -0.09176483 0.111927755 -0.029645558 -0.039735686 -0.107784815 0.22248392 -0.16196814
-0.30923688 0.013726283 -0.062406637 0.39309785 0.103114285 0.10412729 0.24277334 0.14232488
-0.012397009 0.19726843 -0.03366455 -0.17644401 -0.28014758 0.089652725 -0.1534341 0.030575499
0.1604551 -0.25471997 -0.081547625 -0.22533993 -0.07010695 0.04021318 0.45712274 0.11999733
-0.020910595 0.10703317 0.16163169 0.19487573 -0.30140826 0.10013001 0.05383189 0.00434494
0.30365133 0.11444501 -0.23521256 -0.059872765 0.1303092 0.05796895 0.1696042 -0.0738077
-0.2606368 -0.140089 0.34305945 -0.3912914 -0.41931495 -0.059493665 -0.5781886 -0.10692953
0.16623229 0.17339969 -0.29774264 -0.1622263 -0.029716425 -0.3320427 -0.25197712 -0.0602579
0.14952534 0.10134685 -0.26408648 -0.015600578 0.3812917 0.0013169373 -0.11168578 -0.21262757
0.006540555 0.06177412 0.16626404 -0.21769851 0.2763289 0.12405196 -0.16318731 0.3839862
0.10434989 -0.042957254 -0.1757676 0.06216731 0.01646482 -0.12920551 0.01667857 -0.033654425
0.48950908 0.052263755 0.14884008 -0.10302503 0.0121801365 0.27399948 -0.075882345 -0.07326559
-0.054737557 -0.16368583 -0.0010297528 0.108994305 0.110312276 -0.06864981 0.016664913 -0.23301587

blocks.2.conv.bias f4 [32]
00000000: 0649 0ab7 8ba5 debb bb21 343a e5f1 57bc
00000010: c69b a1b9 1f2a 94bb fb4d 323c 3d18 8b39
00000020: a54c ccb8 88a1 0e3b f068 85ba c70d 18bb
00000030: 8803 3a3a 3358 853b 29b0 b9ba e416 2939
00000040: ba89 baba 72f6 90bb a63b 39ba 1adc 7cbc
00000050: 7a50 d8b9 b740 0b39 3d40 d1b9 e193 173c
00000060: 1ad9 1cba b721 3cb9 570f b238 aeaa cc37
00000070: 23b2 e53b 77f8 72bb 08ee 6a39 4210 77ba
-8.242443e-06 -0.0067946366 0.00068714813 -0.013180231 -0.00030824373 -0.004521623 0.01088285 0.00026530205
-9.741754e-05 0.002176376 -0.0010178369 -0.0023201571 0.0007095863 0.004069352 -0.001416688 0.00016125623
-0.001423172 -0.00442391 -0.0007066078 -0.015433336 -0.0004125869 0.00013280181 -0.00039911448 0.009251566
-0.00059832784 -0.00017941637 8.490559e-05 2.4398174e-05 0.007009761 -0.0037074366 0.00022404653 -0.0009424725

blocks.2.bn.weight f4 [32]
00000000: d551 653f e906 613f 417c 233f beeb 4d3f
00000010: 8136 433f 2bd4 303f e433 863f c27e 8c3f
00000020: c588 293f 3b61 853f ef2f 4a3f b32b 803f
00000030: c1b5 603f 5563 513f 332b 533f 95db 903f
00000040: 4485 9f3f 39da 803f 0c96 413f e702 5e3f
00000050: ce80 723f ca1c 803f 129b 703f a2da 853f
00000060: 08ea 953f b227 793f f955 833f 12ff 263f
00000070: e214 0a3f 8117 7b3f 0b6b c93e 8b50 4e3f
0.8957799 0.8790117 0.6386147 0.8043784 0.7625504 0.6907374 1.0484586 1.0976183
0.6622432 1.0420297 0.7897939 1.0013336 0.87777334 0.81792194 0.8248779 1.1317011
1.2462544 1.0066596 0.7561958 0.8672318 0.9472779 1.0008786 0.9398662 1.0457346
1.1712046 0.97326195 1.0260612 0.65232956 0.53938115 0.9808274 0.3933948 0.8059165

blocks.2.bn.bias f4 [32]
00000000: 565f 8ebe 3ab3 02bf 85a9 3fbe ffab 9bbe
00000010: b7b2 12bf 9cb8 7bbe 8baf 73be ff9f 23bf
00000020: 2043 0cbf 17eb c8be 69ac 15bf 1313 d6be
00000030: 7916 0cbf 47bf 98be 5c68 d9be f70f 29bf
00000040: c77b cabe eba3 09bf ba86 cebe c5fc 9dbe
00000050: e7d3 1fbf 3e9a 3bbf 7124 c0be 0d21 00bf
00000060: 1f99 27bf c908 eebe 9500 16bf 2514 8ebe
00000070: 17d8 71bb f217 c6be f006 933e 7785 1fbf
-0.2780711 -0.5105473 -0.1871701 -0.3040466 -0.5730395 -0.24582142 -0.23797433 -0.6391601
-0.54789925 -0.3924186 -0.584662 -0.41811427 -0.5472179 -0.29833433 -0.42462432 -0.66039985
-0.3954756 -0.53765744 -0.40337163 -0.3085691 -0.6243271 -0.7328223 -0.37527803 -0.5005043
-0.6546802 -0.46491078 -0.5859464 -0.27749744 -0.0036902481 -0.38690144 0.2871623 -0.62313026

blocks.2.bn.running_mean f4 [32]
00000000: 2f03 8fbf f53d 8fc0 757b 1fc0 299b 46be
00000010: 463b 8ac0 3f45 4240 148d 6cbf ffc9 cfbf
00000020: 0603 6cbf bf48 74bf 35f5 37bf 4a4a dbbf
00000030: 1e4b 0440 8f46 6ac0 4800 25c0 ddef 83c0
00000040: 32f6 08bf 4acc a43e 5d82 debf 3d10 e1bf
00000050: e066 0fc0 7f8e 673e 3518 8bbf 5634 bfbf
00000060: 8920 96be 1aec 48bf 8055 1ac0 657d 6f3d
00000070: 4e89 a0bf 0cb9 41c0 637c 5f3f d5f8 99bf
-1.1172847 -4.476313 -2.4919102 -0.19395126 -4.3197355 3.0354764 -0.9240277 -1.6233519
-0.92192113 -0.954235 -0.7185853 -1.7132046 2.0670848 -3.6605566 -2.5781422 -4.12303
-0.53500664 0.3218711 -1.7383534 -1.758308 -2.240654 0.22612952 -1.0866762 -1.4937847
-0.29321697 -0.7848526 -2.4114685 0.058469195 -1.2541902 -3.0269194 0.87299174 -1.2029063

blocks.2.bn.running_var f4 [32]
00000000: 23e3 8341 97dd 3b41 aa9d 8541 f604 e840
00000010: 541d 1841 24e2 2b41 2d5d 9241 f44f f740
00000020: 4ae6 d440 8935 3141 2e98 c240 0bb0 2841
00000030: f933 a240 8026 9d41 a125 c141 9b7a cd40
00000040: 7559 b340 9731 e740 7e19 dc40 acca 0641
00000050: 2115 c240 69bb ec40 dbc7 f440 4b03 2b41
00000060: 22c5 bb40 2223 e440 6a64 c640 b36e ab41
00000070: 2a4e 3741 539c 9541 aeac 9141 67b4 0941
16.485907 11.741599 16.701984 7.2506056 9.50716 10.74271 18.295496 7.72851
6.6531115 11.07557 6.0810766 10.542979 5.0688443 19.643799 24.143373 6.4212165
5.60467 7.2248034 6.878112 8.42448 6.065079 7.397877 7.6493964 10.688304
5.867814 7.1292887 6.1997576 21.429052 11.456583 18.70133 18.209316 8.606544

blocks.3.conv.weight f4 [32, 32, 3, 3]
00000000: f418 9cbe fa92 80bc a2a7 36be f2d1 22bd
00000010: c244 14bf 9dc1 84be f665 92be 2fc5 88be
00000020: 82e6 45bd 889c 583d d663 a43d 7b45 90be
00000030: 71fe e73d a8a9 263e e55c e23c a72a 283e
00000040: 9a49 173e dcc3 693e bb9b b7bd 62a3 b93d
00000050: 1744 a7bc 476d 963d b863 223e 6ece bfba
00000060: 5254 64be 3850 40bd 3a80 b7bc 9672 85bd
00000070: 21a2 0c3c 0e1d 523d 4b70 70bd ed63 24bf
00000080: 6645 97be 6a89 4f3e 3359 723e d571 2cbe
00000090: f206 34be ae44 e3bd a299 ed3b 6f79 3fbe
000000a0: 1ac8 f13d e5db afbe 54a9 a2bd 0a76 ed3a
000000b0: dacd f0be c74c 1c3e 9fcd 5dbd 3720 1e3e
000000c0: bc6f a9be 12f4 e23d 5dd1 f63d 2c4c 773e
000000d0: 5d97 41bd 8256 ea3d 1159 f03e f742 2b3d
000000e0: cf35 153d 5f0b a93e 646a 383e 507d f53d
000000f0: 03d6 683e 508d b1bd 4e82 27bd 2eb1 6abd
00000100: 88f4 d83d 3aa2 7d3e d6a2 623e 302f 4a3d
00000110: 96bd be3c 38d8 b73e 50c9 5dbd 7e70 afbe
00000120: db01 a3bd c14c 253d 3897 1f3e 93ec 953e
00000130: 8343 7a3c a144 b83e 7001 17be 9f44 e2bc
00000140: fd08 39bd e1bc 86bd 5467 483e 1cd5 b93e
00000150: e1d7 fa3d e515 fb3d 9a92 6d3d c78c bbbd
00000160: e9c1 913e 5916 793e acb3 15be 86e6 b0bc
00000170: 3937 3b3e bdcf d23e af4e 20be a2ba 75bd
00000180: f22f adbd 04b7 cb3c f61a 073e a0af 82bd
00000190: 21c3 14bd d4e7 613e a374 07be dfa5 8f3d
000001a0: b9f5 94bc 89e1 02bf b57c 3abe 46bf 163e
000001b0: 4644 37be e7f5 06be 0544 b9bc 2984 c9bd
000001c0: 464d b8bc 644a fa3c d775 703e 4218 18be
000001d0: 5d7a 223e dd3a d53b bffd 113e 0956 db3d
000001e0: 5b5a 323e 4257 053e d351 b43e ef98 cf3c
000001f0: 5f6d fabd 081f d9bd 5497 5cbe a7e6 27be
00000200: bf28 5cbe 7842 b1be 9fa0 efbc 8b2d fbbd
00000210: e672 4dbe 25ba f23d d717 0abf 044e 8fbe
00000220: b337 7e3d 5f40 2ebd b63e 9fbe 0c26 3f3d
00000230: 8546 703d 5b02 91be fac9 b0bd ec7b 6a3e
00000240: 2624 e7bd 4622 66be 5ee9 0fbe f64b 47bb
00000250: c517 d5bd 1dc4 e73d 99b5 cd3e 79fb 903d
00000260: 7350 00bf 4474 8e3d 3cd5 3c3e 7cb6 d33d
00000270: b397 0fbe abb0 c53d 950b ec3d cb91 643e
00000280: bf4d 15bc 6744 b6bc adf7 af3d 321e 37be
00000290: 8d0c 813e 1e2e 9a3c f00e df3d 94dc a9bd
000002a0: eb78 fd3d f00a 2c3c 2c5e 703e 9eba 03be
000002b0: 1bfa 9cbd 9295 5cbe 94a7 e63e 0f3c 99bd
000002c0: d824 f53d 8640 e33d e428 98be 5c9e 73be
000002d0: 5bd3 ecbd b550 463d c98b e23d df44 cd3d
000002e0: 74c2 33be 7cd3 0bbd 4cab 793e a1cb 053e
000002f0: 5b5c ce3c 7a3d b53e a0de c23c 246e 403e
00000300: 70cf f63a 659b 2e3e 5e11 5c3d 1270 1abe
00000310: 27b7 3a3e 6102 5b3d ecfc 073d b3fe 02be
00000320: fc18 8bbd 067b 89bd 52ed a53d 56e4 00bf
00000330: bb31 51be 5399 c7bd 534c b1be 9148 40bd
00000340: 3693 3a3b 7c21 9c3e 162a ccbe 93f3 fabe
00000350: f7bf 35be f2b7 4f3e 6bd2 3c3e fee8 303e
00000360: fc5d 24bd d2ad 113e ab14 febd d6c0 c6bd
00000370: c3be a63e 92bb d6be 3d96 89bc f888 42be
00000380: 7251 1dbe 696f cd3d 6ad8 44bc 1b10 83be
00000390: bd48 8c3d 18da 8fbd 3618 9abc 6ae0 8d3e
000003a0: d33f 883e 4896 06bd b98d 313d acd5 8abe
000003b0: 25b2 23be b716 c9bd 9bd9 32be 4fa3 f33d
000003c0: dea3 d13e c19e f4bd efef ccbe 3e0e ca3d
000003d0: 098e 1bbd 1563 b73e 9808 b13d 11f5 213e
000003e0: aa3d 38bc 757d a53b d25c d0bd 6009 013e
000003f0: 2fc6 22bd 4a60 943e b828 e6bd 406b 82be
-0.30487788 -0.015695084 -0.17837384 -0.039751 -0.57917416 -0.25928965 -0.28593415 -0.2671294
-0.048315533 0.052883655 0.08026855 -0.2817801 0.11327828 0.16275656 0.027632186 0.1642252
0.1477417 0.2282862 -0.0896525 0.09064366 -0.02041821 0.07345062 0.15858352 -0.0014633664
-0.2229779 -0.046951503 -0.02240001 -0.06515996 0.008583576 0.05129724 -0.05870084 -0.64214975
-0.29545134 0.20267263 0.2366684 -0.16840298 -0.17580774 -0.11097084 0.0072509805 -0.18698667
0.118057445 -0.34347454 -0.07942453 0.0018116843 -0.47032052 0.15263663 -0.054151174 0.15441976
-0.3309306 0.11081709 0.120516516 0.24150151 -0.047263492 0.11442281 0.46942952 0.04181191
0.03642827 0.33016488 0.18009335 0.11986792 0.22737889 -0.08669531 -0.040895753 -0.057297878
0.10593516 0.24768916 0.2213243 0.049361408 0.023283761 0.3590715 -0.054147065 -0.34265512
-0.07959338 0.0403564 0.15585029 0.29282054 0.015274885 0.3598986 -0.14746642 -0.027620612
-0.045174588 -0.065789945 0.19570667 0.36295402 0.12248207 0.122600354 0.05800114 -0.091577105
0.28468254 0.24324931 -0.1461932 -0.021594297 0.18282785 0.41174117 -0.15655015 -0.05999244
-0.084564105 0.024867542 0.13193879 -0.06381154 -0.036318902 0.22061092 -0.13228087 0.07014059
-0.018183576 -0.5112539 -0.18211634 0.14721403 -0.17897138 -0.13179742 -0.022615442 -0.09839661
-0.022497784 0.03055305 0.23482452 -0.14853004 0.1586699 0.006507261 0.14256953 0.10709769
0.1741728 0.13021567 0.35218677 0.02534148 -0.12227892 -0.10601622 -0.21542102 -0.1639658
-0.21499918 -0.34621024 -0.029251395 -0.12264546 -0.20063362 0.118519105 -0.53942627 -0.2798921
0.062064838 -0.042541858 -0.31102532 0.046667144 0.058661003 -0.2832211 -0.08632274 0.22898835
-0.11286192 -0.22474012 -0.14053866 -0.0030410266 -0.10404924 0.113167025 0.4017761 0.070792146
-0.50122756 0.0695577 0.18440717 0.103375405 -0.14022712 0.09652837 0.115256466 0.2232124
-0.009112774 -0.022249414 0.08592162 -0.17882612 0.25204888 0.018820819 0.10891521 -0.08294025
0.12376579 0.010500655 0.23473424 -0.12864158 -0.07664891 -0.21541432 0.45049727 -0.074821584
0.11969918 0.11096291 -0.29718697 -0.23790878 -0.1156375 0.048416812 0.11061818 0.10022902
-0.17554647 -0.034137234 0.24381751 0.1306596 0.025190523 0.35398465 0.023787796 0.18792015
0.0018830132 0.17051466 0.0537275 -0.15081814 0.1823393 0.053469066 0.03320019 -0.12792473
-0.06791875 -0.06712918 0.08101906 -0.50348413 -0.20429127 -0.09746041 -0.34628543 -0.046944205
0.0028469092 0.30494297 -0.3987586 -0.49013957 -0.1774901 0.20285013 0.18439643 0.1727638
-0.040128693 0.14226463 -0.12406286 -0.09704749 0.32567415 -0.4193998 -0.016795272 -0.18997562
-0.153631 0.100310154 -0.012014488 -0.25598225 0.06849811 -0.0702402 -0.018810373 0.27710277
0.26611194 -0.032858163 0.043348048 -0.27116144 -0.15985925 -0.09818786 -0.17465822 0.11896383
0.40945333 -0.119443424 -0.40026805 0.09865998 -0.037977252 0.3581778 0.08644217 0.15816142
-0.011245171 0.005050356 -0.10173954 0.12601233 -0.039739784 0.28979713 -0.11238235 -0.2547245

blocks.3.conv.bias f4 [32]
00000000: f214 98bb d121 8e3a 5ead 36ba 4995 6dba
00000010: 92ff e3bb edd9 043a fed3 9c3b bf69 33ba
00000020: 819e 08ba 8667 c3ba 7a6c bbb9 aa1e 873a
00000030: b747 d4ba 1cfa 92bb aee8 02ba 82de 923b
00000040: df17 dc3a 5b48 323c ca3b 69bb 3b1f a0bb
00000050: 641f 5c3a 65ee c0ba c730 793a 8941 9639
00000060: 1e19 69bb 56c1 01bb 89c2 f8bb 088b 8dba
00000070: 2ea7 1bbb fbf6 1dbb a76a 1bb9 6507 96ba
-0.0046411688 0.0010843818 -0.0006968583 -0.0009063078 -0.0069579566 0.0005067874 0.0047860136 -0.00068440655
-0.0005211607 -0.0014908172 -0.0003574824 0.0010308821 -0.0016195689 -0.0044853818 -0.00049937784 0.0044820914
0.0016791782 0.010881509 -0.0035588616 -0.0048865355 0.00083970116 -0.0014719485 0.00095058646 0.00028659057
-0.003556795 -0.0019799075 -0.00759155 -0.0010798881 -0.002375077 -0.002410351 -0.00014821683 -0.0011446296

blocks.3.bn.weight f4 [32]
00000000: 0d88 743f d7d5 603f c394 6d3f be6b 223f
00000010: 44d0 6a3f 2b38 273f aacd 653f ac23 5f3f
00000020: 30b9 613f 009e 5e3f f28d 3d3f cf1a 663f
00000030: 0f63 7d3f d7ff 5c3f 5d5a 733f 1522 943f
00000040: cca1 8f3f 798f 823f 0dc0 5b3f 8528 603f
00000050: f085 813f 7da3 943f 54f8 593f 83b9 763f
00000060: 8d94 883f 6759 723f 4cfc 7f3f fe56 243f
00000070: f25d 273f d338 603f cfa9 e83e f888 783f
0.95520097 0.87826294 0.9280512 0.6344565 0.9172404 0.6532008 0.89766943 0.87163806
0.881732 0.8695984 0.74044716 0.89884657 0.98979276 0.8632788 0.9505976 1.1572901
1.1221251 1.0200034 0.8583992 0.8756183 1.0119 1.1612393 0.85144544 0.9637682
1.0670334 0.9466767 0.9999435 0.6419524 0.65377724 0.87586707 0.45442054 0.97084

blocks.3.bn.bias f4 [32]
00000000: fc29 c0be 40ba b0be 5919 c8be 1d83 5fbe
00000010: b3c9 f1be dc23 88bd 29fa 51bf 06e3 f9be
00000020: ce1f 0dbf 70ed 31bf 2465 e8be 4b91 16bd
00000030: 7fce fabe a43f edbe dfd4 26bf 77de d3be
00000040: 17dd 19bf ee0a 53bf 0480 e4be 623e c7be
00000050: d8f1 e1be 32d4 4abf 294c 2dbf 57ed 1cbf
00000060: 380a 0abf 633d 26bf 77c4 febe f826 b3be
00000070: 9298 babc 41e0 d9be 576d 873e 96bb f2be
-0.37532032 -0.34517097 -0.3908184 -0.2182736 -0.47224197 -0.06647465 -0.8202234 -0.48806018
-0.55126655 -0.69502926 -0.45389664 -0.036759656 -0.4898567 -0.46337616 -0.65168566 -0.41380665
-0.6010298 -0.8243855 -0.44628918 -0.38914782 -0.44129825 -0.79230034 -0.67694336 -0.6129965
-0.5392184 -0.6493742 -0.49759266 -0.34990668 -0.02277783 -0.42553905 0.26450607 -0.47408742

blocks.3.bn.running_mean f4 [32]
00000000: 2402 f1bf 0cb1 7ebf a924 61c0 7e16 afbf
00000010: 7350 d8bf 8c2f 6f3e d815 83bf 2334 86bf
00000020: dc94 ab3f 0e45 4ac0 b9bd 3740 4387 803e
00000030: b2cc 943e 6ec2 10c0 5295 bbbf b9df d0bf
00000040: 6c11 0bc0 6a86 c9bf f4e6 ebbf 2024 3bbe
00000050: 0f97 01c0 8cf4 863e ee67 b03f 98d0 94c0
00000060: 9fc7 3a3f eab0 37be 0e12 08c0 0067 89bf
00000070: 45f5 4d40 24df 66c0 bef5 31bf fb8e e7be
-1.8828778 -0.994889 -3.5178626 -1.3678739 -1.6899551 0.23357981 -1.0241041 -1.0484661
1.3404803 -3.1604648 2.8709548 0.25103197 0.2906242 -2.261867 -1.4654944 -1.6318275
-2.1729383 -1.5744145 -1.8429856 -0.182755 -2.024845 0.2635845 1.3781717 -4.650463
0.7296085 -0.17938581 -2.126102 -1.0734558 3.218095 -3.6073694 -0.695156 -0.45226273

blocks.3.bn.running_var f4 [32]
00000000: d71b 0241 e861 0f41 71bc 9541 65b5 e540
00000010: ee04 0541 e65b 2a41 8916 c140 5ed2 d540
00000020: 0ac8 f440 4257 a340 9523 9941 166b a640
00000030: 1e23 b240 fd83 b940 54bf 1341 6b5c 3141
00000040: 3118 d840 fbac d640 0a6b 0b41 54cb d840
00000050: 082a aa40 7f36 8a40 c123 0241 18f4 d140
00000060: 1843 da40 68d6 d440 de8f 5241 9739 2041
00000070: 7eef 1041 8810 4f41 fe3a 0541 c98b c140
8.131797 8.961403 18.717012 7.178393 8.313704 10.647436 6.034001 6.6819296
7.649419 5.1044016 19.142374 5.200572 5.566787 5.797362 9.234211 11.085063
6.752953 6.708616 8.713633 6.7748203 5.317631 4.3191524 8.133729 6.5610466
6.82069 6.6511726 13.160124 10.01406 9.05847 12.941536 8.326902 6.0483136
