models/199.pth (torch, 501905 bytes, 80 tensors)

conv0.conv.weight f4 [32, 17, 3, 3]
000000 e3 d9 f8 bd 84 89 c5 3e 76 5d 0c 3e db 46 b9 3e
       -0.121509336 0.3858148 0.13707528 0.3618687
000010 6b b8 e6 be e1 62 13 3f 9d 19 b3 3d 83 cb f1 3e
       -0.45062575 0.5757275 0.0874512 0.4722558
000020 98 00 51 3e a8 c1 1f bd f2 da d7 3c 7a 1f 3b bd
       0.20410383 -0.039003044 0.026349518 -0.045684315
000030 be fe 86 3b 3e 83 2e be 2b 2e 16 3a 9d 2d 70 3d
       0.004119723 -0.17042252 0.00057289255 0.05863725
000040 82 08 0b 3e 06 72 9a bd 74 7a 85 3d 99 2a ee bc
       0.13577464 -0.075412795 0.06517497 -0.029073047
000050 6c 91 bf 3d d2 c0 ee bd 21 c5 86 be 02 1f 9a 3c
       0.09353909 -0.11657871 -0.26322272 0.018813614
000060 3e e6 51 3d 0e 38 8a 3d ee b8 a9 3d 89 b4 eb 3d
       0.051244967 0.06748973 0.08287226 0.11509044
000070 61 41 5b bd 56 43 b1 3d 46 e4 69 bd 2c 76 1c be
       -0.053529147 0.086554214 -0.057102464 -0.15279454
000080 ec 92 32 bd 5e f8 65 3e 81 c9 0f bd ae 64 92 3c
       -0.043597147 0.22458026 -0.03510428 0.017870273
000090 7d e3 91 3e cc 6b a8 3e 2d da 04 3e 7d 23 8c 3e
       0.28493872 0.32894742 0.12973852 0.27370825
0000a0 20 6f 1a bf 5d ef d2 3e 18 23 c2 3e 31 3b ca 3e
       -0.60325813 0.41198245 0.379174 0.39498284
0000b0 f1 34 85 3e 3a 23 85 3d 01 0d 65 3e 60 48 9e 3e
       0.26016954 0.065008596 0.22368242 0.30914593
0000c0 42 3e 51 3e 69 e5 96 bd 35 50 09 3e 69 44 77 3e
       0.20433906 -0.07367975 0.13409503 0.2414719
0000d0 fa a0 36 3e ef 58 3f 3e eb ed c4 3e 86 88 7f 3e
       0.17834845 0.18686269 0.38462767 0.24954423
0000e0 01 b8 45 3e 04 65 a7 3e 2e ad 3d be 7a 6d a8 3e
       0.19308473 0.32694256 -0.18523094 0.32896024
0000f0 87 b3 a6 3e c8 15 9d 3e d0 dd 67 3e c7 7a 43 3e
       0.32558843 0.3068068 0.22643209 0.19089805
000100 58 48 c1 3e de 34 c4 3d cd 26 80 3e a0 18 14 be
       0.37750506 0.09580396 0.25029603 -0.14462519
000110 ce db c7 3e 8e 8a cb 3e 5b a2 56 3e 12 ab d4 3e
       0.39034885 0.39754146 0.20960371 0.41536766
000120 00 6e 52 3d f2 63 0a 3e ae 93 55 bd d7 ac 9a 3d
       0.051374435 0.13514689 -0.05214279 0.07552498
000130 08 75 c0 3e 8a d3 2e 3d a8 9c 5a bd 8d 19 38 3d
       0.37589288 0.042682208 -0.053372055 0.044946242
000140 c4 c5 4a bd 5a 6e 3c bd 05 4e 58 3d 69 92 9e 3d
       -0.04950501 -0.046003677 0.05280878 0.07742769
000150 e5 39 77 3c 0b 01 03 3f 4e aa b5 bb f6 28 cb b9
       0.015089487 0.51173466 -0.0055439835 -0.00038749696
000160 63 49 b4 3d 19 26 f7 3d 75 d7 2e bd 40 8e e6 3d
       0.0880306 0.120678134 -0.042685945 0.11257601
000170 72 77 55 bc 7e fd 9f 3d 58 5e 00 3f 00 28 60 3d
       -0.013028966 0.07812022 0.5014396 0.054725647
000180 79 dd a6 bd e5 06 0a 3d 8f 1f 36 3d 5c a0 11 bd
       -0.08147711 0.03369798 0.04446369 -0.03555332
000190 e9 78 ca 3d f7 94 b3 3c 86 14 0f 3e c8 64 d4 3e
       0.09886343 0.021921618 0.13972673 0.4148314
0001a0 b3 ad 5c 3d 6c d7 af bd 42 e1 cd 3d f9 13 86 3d
       0.05387659 -0.0858601 0.1005273 0.06546778
0001b0 cf cf 9c bc 01 2e 4e be b4 b4 04 3e 0c 11 3a be
       -0.01914206 -0.20134737 0.12959558 -0.18170565
0001c0 2e e4 76 be 49 d4 c1 bc 71 a3 71 3c 54 e8 94 be
       -0.24110481 -0.023660796 0.01474844 -0.29083502
0001d0 7c 9c cb 3d 50 f5 49 bd 68 fe ce bc b3 1f 98 bd
       0.099419564 -0.049306214 -0.025267795 -0.07427921
0001e0 ce 50 af bd fe da 0a 3e 15 a5 aa 3b 3f 0c 15 3d
       -0.08560334 0.13560101 0.0052076676 0.036388632
0001f0 47 75 cb 3d d6 af 47 3d e7 f6 40 3e 8a 6b 7d b9
       0.09934478 0.048751675 0.18844186 -0.00024168022
000200 fe d7 97 bc 15 17 1c 3d e6 41 10 3e 89 09 c0 bd
       -0.01853561 0.03810795 0.14087638 -0.09376819
000210 8c 74 92 3c c6 d5 d9 bd 88 48 50 bc 4f 37 ab bd
       0.01787784 -0.10636477 -0.012712605 -0.08360159
000220 57 01 85 3b 88 9e 26 be bd 3e 29 bd 08 33 73 3d
       0.0040589976 -0.16271412 -0.041319598 0.05937484
000230 bb df 25 3e c2 0d 03 3e fe a9 e7 3c 28 c0 f9 3d
       0.16198628 0.12798217 0.0282793 0.12194854
000240 ae d0 aa bd 19 de 43 3d d8 3a d5 3c 30 f9 7c 3e
       -0.08340584 0.04781923 0.026029035 0.24704432
000250 49 7a 05 bd dc 7c 24 3e 61 64 5d 3c dc 43 8a 3c
       -0.032587323 0.16063255 0.013512702 0.016878061
000260 24 ac 0a bd 96 a0 15 be 3b 0b fa 3d ae d8 56 3d
       -0.033855572 -0.1461204 0.12209173 0.052452736
000270 7e 5e 90 be 19 31 12 bf a9 70 9e 3e 93 c1 0b bb
       -0.28197092 -0.5710617 0.30945328 -0.0021325096
000280 c9 55 05 bc 92 2b d6 3c a2 1a 15 be e9 2d 7f 3e
       -0.008138129 0.026143823 -0.14560941 0.24919857
000290 76 4c 1c be 7a ca 29 be 90 88 c9 3d 6d 4a cd be
       -0.15263543 -0.16581145 0.098405 -0.40095845
0002a0 30 17 ed 3d 9f 51 44 bd 09 c8 5a be 16 e6 27 3d
       0.11576688 -0.047929402 -0.2136537 0.04099091
0002b0 52 5b 8b 3e ac 55 81 be 04 c1 e1 bd 36 57 05 3e
       0.2721811 -0.25260675 -0.11023143 0.1302155
0002c0 a6 e4 b8 be 0e b2 53 3c 49 b3 82 be c7 23 fa bc
       -0.36111945 0.0129208695 -0.2552741 -0.030534638
0002d0 b3 3c af be 31 99 6a 3e 21 5b 07 bc 2f 7e 2c 3d
       -0.34225997 0.2291 -0.008261473 0.042112526
0002e0 7c 25 78 3e f0 a0 2b bf 4f da 26 3e 9a 3e 91 be
       0.24233049 -0.67042446 0.16294216 -0.28368074
0002f0 24 ce 8c be 10 87 56 be 84 c6 7b be 60 40 fb 3d
       -0.27501023 -0.2094996 -0.24587446 0.12268138
000300 3d 3a 5c be 40 91 f0 be 35 53 ed be cd a8 53 3e
       -0.21506591 -0.46985817 -0.46352544 0.20669861
000310 e9 98 08 be 0b ec 6a be a0 35 94 be ed 28 0b bf
       -0.1333958 -0.22941606 -0.28947163 -0.5435932
000320 6a ee 96 be 81 30 36 be 9b 47 a1 be c6 6a 9a be
       -0.2947877 -0.1779194 -0.31499943 -0.30159587
000330 50 e3 15 bf 69 56 2a be cc c6 22 bf 8c 18 0d bf
       -0.58549976 -0.16634525 -0.6358459 -0.5511558
000340 3d dd b0 be d9 b8 23 bf 78 45 ef be b6 16 08 be
       -0.3454379 -0.6395393 -0.46732688 -0.13289914
000350 7b 19 93 be e5 f5 6c 3e bd de 90 be ae a8 1c bf
       -0.28730378 0.23140676 -0.28294936 -0.61194885
000360 d2 c1 17 be ce 53 97 be ed e4 ac be f1 57 9d be
       -0.1482003 -0.29556125 -0.33768407 -0.30731156
000370 50 79 0e be b0 ca 98 be 41 84 a4 be 69 ec 40 be
       -0.13913465 -0.29842138 -0.32132152 -0.18840183
000380 07 03 25 bf 17 69 13 be 9c 37 46 3e 04 37 27 3e
       -0.64457744 -0.14395557 0.19357151 0.1632958
000390 68 6d 76 3c 5c f1 0a bf ca 68 28 3e 2e 63 37 be
       0.015040733 -0.54274535 0.16446224 -0.17908928
0003a0 36 69 06 3c 9b 50 88 3d 7f 9f f3 bd 4b 94 e9 3d
       0.008203795 0.06655999 -0.11895656 0.11405238
0003b0 c0 28 68 3e e4 c6 18 be cd 6c 9a 3c c1 1f 2a 3e
       0.22671795 -0.14919621 0.018850708 0.16613676
0003c0 94 6e e1 bc 86 8c 76 3e 18 06 c8 3d 6b 09 57 3d
       -0.027518548 0.24077043 0.09766787 0.052499216
0003d0 0c b3 28 3e fe 3e b9 3d 1c 2e 4f 3e 2e 18 01 3e
       0.16474551 0.09045218 0.20232433 0.1260688
0003e0 26 19 91 3d 4a 38 dc 3d dc 28 19 bc 1d 24 04 3e
       0.07084875 0.10752924 -0.009348121 0.12904401
0003f0 28 37 45 bc 82 42 6e 3d d3 76 84 3e 05 8d e9 bc
       -0.012037076 0.058168896 0.25871906 -0.028509626

conv0.conv.bias f4 [32]
000000 82 93 61 3b 63 fb 14 3a 93 fb 05 bd 18 15 3c ba
       0.0034420197 0.00056832115 -0.032710623 -0.0007174774
000010 68 75 b8 ba d9 bc 3b 3c 1c 37 4f 3d bb 8d ba 3b
       -0.0014073076 0.011458599 0.050589666 0.005693165
000020 2e 57 2a 3c 68 60 1f 3b 2e 5c 18 bc 31 12 ed 3b
       0.010396762 0.0024318937 -0.009299321 0.0072348346
000030 43 92 fc 3b 6f 27 42 3b 19 53 f5 ba fb db 57 bb
       0.0077078654 0.0029625555 -0.0018716782 -0.0032937515
000040 35 c1 2a b8 fa ed 8c bd 77 1a 44 3c c7 c1 b5 3b
       -4.0711097e-05 -0.06881328 0.0119692 0.0055467817
000050 8a 73 f2 ba 90 a1 0f 3d 88 43 a2 3c 14 ef 5e 39
       -0.0018497568 0.035066187 0.019807592 0.00021260633
000060 54 c3 4e bc e4 06 5f 3b 84 75 65 bb 35 7a af 3b
       -0.012619812 0.0034031207 -0.0035012672 0.0053551444
000070 0d e9 d6 3a b5 88 16 bc 0e 0d d6 3b 16 35 a9 bb
       0.0016396359 -0.009187867 0.006532318 -0.005163799

conv0.bn.weight f4 [32]
000000 2d 33 66 3f fd 04 29 3f 8d 51 1e 3f 96 3b 38 3f
       0.8992184 0.66023237 0.61843187 0.7196592
000010 7e 9d 33 3f eb 95 11 3f 5b a0 26 3f f5 be 44 3f
       0.7016219 0.5686938 0.65088433 0.7685388
000020 93 3e 61 3f af c0 5d 3f e3 9c 3c 3f e2 a4 09 3f
       0.87986106 0.86622137 0.7367689 0.53767216
000030 da 00 30 3f 9d 5a 66 3f 42 76 2c 3f 17 2e 5c 3f
       0.687513 0.89982015 0.6736795 0.8600783
000040 4b d2 31 3f e5 12 aa 3f 13 81 49 3f 19 90 31 3f
       0.69461507 1.3287016 0.78712577 0.693605
000050 36 d3 3f 3f 71 28 68 3f 77 d9 4e 3f 65 45 22 3f
       0.7493166 0.9068671 0.80800575 0.6338714
000060 02 8b 5b 3f e7 de 47 3f de b8 49 3f ed df 3d 3f
       0.85758984 0.78074497 0.7879771 0.7416981
000070 3a 23 7b 3f 27 5e 16 3f 67 65 2b 3f 74 51 13 3f
       0.98100626 0.58737415 0.669516 0.5754616

conv0.bn.bias f4 [32]
000000 07 43 10 bf ac 3d a9 bd 64 b0 32 be 54 40 e4 be
       -0.56352276 -0.08263716 -0.174501 -0.44580328
000010 ae 19 47 be 23 f5 49 bd c7 31 e3 3c a1 86 9b be
       -0.1944339 -0.049306046 0.027733697 -0.3037615
000020 e5 a3 6b be e5 06 d7 be 33 9a 85 be 03 1e 22 3e
       -0.2301174 -0.41997448 -0.26094207 0.15831761
000030 62 df 35 be 03 04 c2 be 2d 71 a4 be 20 05 a5 bd
       -0.17760995 -0.37893686 -0.32117596 -0.08057618
000040 cc 74 de 3b 38 6c 47 be 60 81 93 be ea 71 7e be
       0.0067888256 -0.19474876 -0.28809643 -0.24848142
000050 91 a3 d8 bd bc ca a6 bc 09 35 b5 be d9 c8 b6 be
       -0.10578073 -0.020360343 -0.35392025 -0.3570011
000060 ff 2b 35 be af 2e d6 be b8 5f d0 be e0 08 25 be
       -0.17692564 -0.41832492 -0.40698028 -0.16116667
000070 9f da 06 be f1 7c f9 3e f3 08 97 be 00 8f 8a bd
       -0.13169335 0.48728135 -0.29499015 -0.06765556

conv0.bn.running_mean f4 [32]
000000 38 08 aa 3e 85 0a 16 3d 9a 10 60 be fd 73 36 be
       0.33209395 0.036631126 -0.21881333 -0.17817684
000010 f9 da cd bd 34 61 5c bd 04 72 7d be 07 3b b7 3e
       -0.10051531 -0.053803638 -0.24750525 0.35787222
000020 7f c1 83 be 59 90 10 be 6b cc d4 bc 75 5e 80 bc
       -0.25733563 -0.14117564 -0.02597638 -0.01567004
000030 e8 8d a4 bd 8b bc 38 bd 62 9d 81 3d 21 4c 97 3e
       -0.08034879 -0.045101684 0.063288465 0.2955027
000040 51 92 3a 3e c3 28 9d be 56 3a 5b be d8 31 d3 bd
       0.18219878 -0.3069516 -0.21408972 -0.10312241
000050 63 86 99 3c b7 12 a7 bd 12 10 4b be c2 31 bc 3d
       0.018740838 -0.081578664 -0.19830349 0.09189178
000060 89 ca e4 bd 13 c4 e8 bd 08 3b b9 bd 96 c9 b7 bd
       -0.11171443 -0.11365523 -0.090444624 -0.08973996
000070 61 5e 8b 3e d6 99 f9 3d c6 c4 db bd 21 25 7c 3e
       0.27220443 0.12187545 -0.10730891 0.24623539

conv0.bn.running_var f4 [32]
000000 ae d2 f8 3d 61 09 23 3e be f8 75 3e d0 ac 22 3e
       0.12149559 0.15921547 0.24020669 0.15886235
000010 c6 b3 5a 3e 18 31 39 3e 01 38 9b 3e a6 d2 0c 3e
       0.2135764 0.18085134 0.30316165 0.13752231
000020 9a 33 63 3e 55 13 30 3e 56 da 12 3e d7 da 23 3e
       0.22187653 0.17194875 0.14341101 0.1600145
000030 42 d5 13 3e 7d 6d e1 3d 55 d2 23 3e 88 30 10 3e
       0.1443682 0.11007211 0.15998204 0.14081013
000040 9f 8d e8 3d 14 c5 3f 3e 7d 3f 56 3e a5 ed 19 3e
       0.11355137 0.18727523 0.20922656 0.1503206
000050 2a 67 8b 3e 59 8d 24 3e 6a 18 21 3e 10 9c 1e 3e
       0.27227145 0.16069545 0.1573197 0.1548922
000060 4f 00 0e 3e 3e 36 35 3e 1d a1 0b 3e df d9 03 3e
       0.13867305 0.17696473 0.13635679 0.1287608
000070 bc 64 24 3e 56 8e ed 3d 59 40 24 3e a4 46 38 3e
       0.16054052 0.11599414 0.16040172 0.17995697

blocks.0.conv.weight f4 [32, 32, 3, 3]
000000 f0 a9 3d 3e 44 ff 08 be 92 57 48 3e 70 02 bc be
       0.18521857 -0.13378626 0.19564655 -0.3672061
000010 a8 5a f2 3d 8a 8e 57 be b7 4a 43 3e 98 49 94 bb
       0.118336976 -0.21050468 0.1907147 -0.0045253746
000020 cf 1b 07 3e 30 30 c0 3d 4f 65 16 bd 2c a9 bf be
       0.13194202 0.09384191 -0.03671771 -0.37433755
000030 09 86 0b be 1c f5 ab bd 75 9b bc 3d c1 f3 a2 bb
       -0.13625349 -0.0839636 0.092093386 -0.0049729054
000040 f7 d1 bb bd 44 8a 12 be 26 48 28 3e c3 46 b6 bd
       -0.09170907 -0.14310557 0.16433772 -0.089002155
000050 5d 73 03 3e 0b df 3f 3d fc 85 62 be 78 ff e1 bd
       0.12836976 0.04684357 -0.22121423 -0.11035055
000060 38 c4 17 3e 65 2d ae 3d f3 d5 b4 3d 62 2b 36 3e
       0.14820945 0.08504752 0.0882987 0.17789987
000070 fc 79 db 3d d2 b2 38 3d cf da fd bd 1d 6b 1d 3e
       0.10716626 0.04509241 -0.1239525 0.15372892
000080 fe 98 6f bd 51 85 98 bd 53 66 9b be 7c 2a 85 3e
       -0.058495514 -0.07447303 -0.30351505 0.26008976
000090 24 5a a1 bc 34 f7 94 3e 87 2d fa bd c8 22 04 3d
       -0.019696303 0.2909485 -0.12215715 0.032259732
0000a0 d6 5b 0a 3e a1 39 9a bd 0a a2 26 be 6e 43 df 3d
       0.13511595 -0.07530523 -0.1627275 0.10901533
0000b0 fe 38 3c be 37 a0 13 3d 67 c6 63 be d6 69 2d 3e
       -0.18381116 0.036041465 -0.22243653 0.16934904
0000c0 1c 50 81 bc 56 fa 12 be 79 60 dc 3d f8 d1 be 3d
       -0.01578527 -0.14353308 0.10760588 0.09317392
0000d0 44 ac 65 3e b9 6f 72 3e b9 d9 b1 3d 4c 5b 06 be
       0.22428995 0.23675431 0.086841054 -0.13120764
0000e0 b3 5c 0f bd 60 42 87 bd b6 63 8c 3d 54 12 99 be
       -0.035000514 -0.06604457 0.06854956 -0.29896796
0000f0 d1 93 16 3d cf fc 46 3d d7 32 8f be 05 5e 8b 3e
       0.036762062 0.04858094 -0.27968475 0.2722017
000100 10 89 9d 3e 8c 19 a0 3e fe 05 b4 3d 9d 20 95 3e
       0.30768633 0.3126949 0.087902054 0.29126444
000110 ec 34 ae 3b d0 62 8c 3d dc 32 19 3e b7 90 19 3e
       0.0053163674 0.068547845 0.14960808 0.1499661
000120 59 a9 01 3d 2c 92 21 bf 41 13 82 3d 61 a8 9d bd
       0.031655643 -0.63113666 0.06351329 -0.07698131
000130 99 e2 8e 3e 61 3e 4e 3e 5a 06 b4 3d 26 3e a1 3e
       0.27907255 0.20140983 0.08790274 0.31492728
000140 88 8c fc bb 62 35 da bd f4 aa 8b bd 6c ff 10 bc
       -0.0077071823 -0.10654713 -0.06819716 -0.00884996
000150 0a 12 8d bd 7c 84 04 3f 4b 49 a8 3d e9 58 17 3d
       -0.06888206 0.51764655 0.082171045 0.036950026
000160 7d e2 43 bd bb fe ce bc 5a fa 96 3b 17 bc 9d 3c
       -0.047823418 -0.02526795 0.004607481 0.019254727
000170 99 6d 58 3d c8 64 19 be b3 5a 86 3d 32 1a 6d be
       0.052838895 -0.14979851 0.06560268 -0.23154524
000180 9a 05 67 3e 9d 07 6d 3e 6b 80 03 3e 8c 71 2a 3e
       0.2256073 0.23147435 0.12841956 0.16644877
000190 fd 85 d6 3c 3e 79 af 3e 24 e7 9c be 99 ca 9f 3d
       0.026186937 0.34272188 -0.30645096 0.07802314
0001a0 74 c3 83 3d 5a 8d 65 3e 07 a8 7a be 02 98 95 bd
       0.06433764 0.22417203 -0.2447816 -0.07304384
0001b0 3e 73 fa be ff 61 83 bd ec 6c 16 3d 6b dd e9 3d
       -0.48916048 -0.06415176 0.03672497 0.11419185
0001c0 e1 85 dc 3d 3b 70 20 3e eb d2 6f bd 23 22 af 3e
       0.10767723 0.15667813 -0.058550756 0.34205732
0001d0 f1 76 76 3c f9 c9 ca bd 77 35 12 be 06 53 bd be
       0.015043006 -0.099018045 -0.14278208 -0.36977404
0001e0 67 a4 bc 3d be c8 05 bf d2 d8 94 be cc 81 e0 bc
       0.09211045 -0.52259433 -0.2907167 -0.027405642
0001f0 08 b5 07 be dc a3 1a 3e f5 3f 26 be 5e 95 1a 3e
       -0.13252652 0.1510157 -0.16235335 0.15096042
000200 71 96 bc be a9 99 a1 3c 1b cf 0b be c6 b5 9c bd
       -0.36833528 0.019726591 -0.13653223 -0.07651858
000210 74 71 bc bc ff d1 f5 bd 55 49 7e 3c ac a6 6e 3e
       -0.023003317 -0.12002944 0.015520413 0.23305768
000220 4f d8 fe 3d b7 2b 04 3e a4 fc 31 3e db c2 47 bc
       0.12443601 0.12907301 0.17381531 -0.012192453
000230 b8 9f 08 3d 23 f6 a4 3d b9 b7 e0 3d 07 1e e0 3d
       0.033355445 0.08054759 0.10972542 0.10943227
000240 e5 c4 6d 3d 56 c9 0d 3e 0b f6 2b 3c f1 fd 4a 3e
       0.0580491 0.13846335 0.010495673 0.19823433
000250 23 9a 5c be 30 8c cd 3d c9 a4 b6 3d 56 7f 38 3e
       -0.21543173 0.10036504 0.08918149 0.18017325
000260 42 f3 13 3e b0 99 9d bd a0 3b 39 3e 9c 58 1a 3d
       0.14448264 -0.07695329 0.18089151 0.03768216
000270 1c ae 32 3e 1c af bb bf fa 19 91 3e c9 2e 4a 3e
       0.1744923 -1.4662814 0.2834013 0.1974441
000280 b6 ff 8f bc 83 f7 db 3d 26 a9 bc bd 5d bf 93 be
       -0.017577987 0.107405685 -0.0921195 -0.28856936
000290 fd ad ab 3e f4 2e a3 3e 52 cf 98 be a7 50 bf 39
       0.3353118 0.3187176 -0.29845673 0.0003649045
0002a0 a4 5d 09 bf 4f 54 70 3e bb ee 07 3e ac d2 d9 3d
       -0.5365851 0.23469661 0.13274662 0.106358856
0002b0 dc 1b 59 be 1e 7e 9c bd d8 2c f9 bc f9 33 0b be
       -0.21202034 -0.076412424 -0.030416891 -0.13594045
0002c0 c1 60 55 bc c0 9f c3 bd 9a d8 45 be 8f ba 90 bd
       -0.013023556 -0.09551954 -0.19320908 -0.07066833
0002d0 e6 69 e6 bb 23 4f c6 bd d0 84 58 3c 71 5f 02 3e
       -0.007031667 -0.09683063 0.013215259 0.1273172
0002e0 34 90 ab be 55 97 e7 bd 73 2f 82 bd c9 f4 20 be
       -0.33508456 -0.11308161 -0.063567065 -0.15718378
0002f0 2e aa f7 bd f9 1d a6 3d 0d c5 d6 3d 38 df 7b 3d
       -0.12093006 0.081111856 0.10486803 0.061492175
000300 99 27 80 3d 04 d3 79 be cf 8f 8b 3e 90 9b 63 3e
       0.06257553 -0.24396902 0.27258155 0.22227311
000310 ae d1 55 3e bf 58 d4 3d 50 b3 95 3c 6a 2c 28 bd
       0.20880768 0.103684895 0.01827398 -0.04105798
000320 59 68 a1 3d 6e 21 82 be e3 ee db 3e 72 f3 a2 3e
       0.07881231 -0.2541613 0.42955694 0.3182636
000330 f1 67 8c 3d a5 b3 f1 be 88 46 8c bd 85 b4 f4 3d
       0.06855763 -0.4720737 -0.0684939 0.11948494
000340 36 fe 2f bd 44 37 00 3e 2b dd a0 bd d5 4e b6 bd
       -0.042967044 0.12521082 -0.078546844 -0.08901755
000350 3d 84 3f 3e b3 07 0d be f5 d2 9d 3c ee a5 99 3e
       0.18702789 -0.13772468 0.019265631 0.30009407
000360 8d 64 4d 3e 08 5a cd bc 50 cf a3 3d 24 e4 4e 3d
       0.20057888 -0.025067344 0.07998526 0.05051054
000370 8a f4 e2 bc c2 27 50 bd c0 ef fb 3d fc 6c db 3d
       -0.027704496 -0.050819166 0.12301588 0.107141465
000380 77 15 13 3e a5 ca 20 3e 8e f3 53 bd 7b 8e c1 3d
       0.14363657 0.15702303 -0.051745944 0.09451004
000390 96 bf 03 3c 0e bd 47 3e 77 c8 9b be 7b 7b 79 be
       0.008041283 0.19505712 -0.3042638 -0.2436351
0003a0 b3 f2 c9 bc bb 6e 24 3e 8e 12 5b 3d 89 38 a6 bd
       -0.02465186 0.16057865 0.053484492 -0.08116252
0003b0 ff 01 98 3d d3 9f 5f be 72 2d a1 be ba e9 7d 3d
       0.07422256 -0.21838312 -0.31479985 0.061990477
0003c0 11 89 1a 3d ff be fb 3e 09 d0 6b be a5 e0 53 3e
       0.037728373 0.49169156 -0.23028578 0.20691164
0003d0 2d 1a 4d be 8c d8 7b bd c1 d8 00 3e 05 ee 11 be
       -0.20029517 -0.061485812 0.12582685 -0.14250953
0003e0 41 7a 45 be 2f a7 f7 3d ff 0d d3 3d c1 4c 71 3d
       -0.19284917 0.120924346 0.10305404 0.05891109
0003f0 e1 f6 3a 3e 4b a9 66 be 1b 5e 64 3d df da 33 be
       0.1825824 -0.22525518 0.05575381 -0.17563961

blocks.0.conv.bias f4 [32]
000000 be c2 e7 3a 7d 03 35 bb 67 9f ff b9 1e a7 61 b9
       0.0017681939 -0.0027620487 -0.00048756154 -0.00021519928
000010 46 e3 9a b9 f1 b4 21 bb 0d 50 5a bb 07 d6 55 bb
       -0.000295425 -0.00246745 -0.0033311874 -0.003262879
000020 94 6f 00 39 2b 21 5e 3b c6 29 0e 3c 93 ac ca 39
       0.00012248597 0.0033894281 0.008676952 0.0003865702
000030 06 16 db 39 62 8c 6b b8 07 23 d8 38 a0 a6 47 ba
       0.00041787344 -5.6159108e-05 0.00010306207 -0.00076160766
000040 b9 c7 55 3a 63 8b 60 3c 29 33 4b b9 36 38 c0 39
       0.0008155066 0.013705107 -0.00019378647 0.00036662974
000050 06 a5 d3 ba ff 93 dc 3a ed 7a ad 39 21 1d ad 38
       -0.0016147203 0.0016828774 0.00033088718 8.2547085e-05
000060 7b 9c ab 3b 67 ed 67 39 1a e7 bd b8 23 88 a4 3c
       0.00523716 0.00022118316 -9.055268e-05 0.020084446
000070 8c 42 c3 39 b1 6b 59 39 a5 f1 0d 3b 5e ec 5a 3b
       0.0003724288 0.00020734851 0.0021658924 0.0033405046

blocks.0.bn.weight f4 [32]
000000 1f 07 5b 3f 92 85 59 3f 98 a2 49 3f ed 08 7e 3f
       0.8555774 0.8496944 0.78763723 0.9923237
000010 87 a6 8d 3f 3a 25 35 3f df 16 3f 3f 03 eb 54 3f
       1.1066445 0.7075993 0.74644274 0.831711
000020 12 5c 68 3f 47 c1 89 3f dd 27 55 3f 74 d0 75 3f
       0.9076549 1.0762109 0.8326395 0.960212
000030 ad 0c 6b 3f e2 50 57 3f df 76 48 3f d7 63 55 3f
       0.91816217 0.8410779 0.7830638 0.8335547
000040 48 a5 8d 3f 15 33 89 3f d5 38 68 3f 95 18 86 3f
       1.1066065 1.0718714 0.9071172 1.0476252
000050 bc 92 64 3f 90 9e 46 3f eb 97 84 3f 6f c4 5d 3f
       0.892864 0.775857 1.0358862 0.8662786
000060 12 f6 59 3f 24 a2 59 3f f4 b7 85 3f c3 a6 9b 3f
       0.851411 0.8501303 1.0446763 1.2160267
000070 5c ed 29 3f 5d ec 36 3f 9a e0 25 3f 91 ce 73 3f
       0.66377807 0.7145441 0.6479584 0.9523707

blocks.0.bn.bias f4 [32]
000000 03 74 07 bf d4 11 db be e7 92 a5 3c dc a3 ef bd
       -0.52911395 -0.4278704 0.02021165 -0.117011756
000010 12 5e b0 be ce c2 6c be 51 e4 8e be 4a 5a 9e be
       -0.3444677 -0.23121187 -0.27908567 -0.3092826
000020 4c a1 c9 be 55 56 9c be b7 91 02 bf f0 d7 1a bf
       -0.39380872 -0.30534616 -0.51003593 -0.60485744
000030 53 c2 05 bf 0b f3 0c bf ae d0 3f be e7 5b 12 bf
       -0.5224964 -0.55058354 -0.18731949 -0.5717148
000040 8b 8d e3 be 02 c7 a3 be 94 ec 61 be 6f 5c 16 bf
       -0.44443926 -0.31987768 -0.22062904 -0.5873479
000050 2f fe ca be 8f ab 59 be d7 f9 41 bf 1d 7a c0 be
       -0.39647052 -0.2125685 -0.7577185 -0.37593165
000060 62 37 17 bd d1 c3 f4 be 23 54 b6 be 5e c1 0d bf
       -0.03691805 -0.47805646 -0.35611066 -0.5537318
000070 47 95 10 bf 36 94 9b be 9d 3d ec bc 07 0d 49 bf
       -0.5647778 -0.30386513 -0.028837973 -0.78535503

blocks.0.bn.running_mean f4 [32]
000000 16 20 36 3f 20 75 69 c0 6e 85 05 40 8d 8d 3d be
       0.7114271 -3.6477737 2.086269 -0.18511029
000010 3e d9 62 bf ae ae 6a c0 68 75 1d c0 8e d0 ba bf
       -0.88612735 -3.6669116 -2.460291 -1.4594896
000020 05 ab 4a 3f e1 58 f0 bf c9 a6 03 c0 d6 76 d4 bf
       0.79167205 -1.8777124 -2.0570548 -1.6598766
000030 5c 25 fa bf 34 2f 96 3f 2c 8c da 3f f9 2d a9 be
       -1.9542651 1.1733155 1.7074027 -0.33042887
000040 31 b6 94 3c 1c be a1 bf e4 eb de 3f 9b 81 d7 be
       0.018153282 -1.2636142 1.7415738 -0.4209107
000050 c7 ca 97 bd 30 f8 a4 bf b4 1b a4 bf 31 2a 6d 3f
       -0.074117236 -1.2888241 -1.2820954 0.92642504
000060 5f 55 aa bf 54 51 ab bf 67 5f 14 3d dc 9b 8b bf
       -1.3307303 -1.3384194 0.036223795 -1.090694
000070 0b fb 57 c0 bb f2 e3 bc dc b0 dc 3e e6 c4 4f c0
       -3.3746974 -0.027825704 0.43103683 -3.2463927

blocks.0.bn.running_var f4 [32]
000000 af ec 10 40 2c 08 58 40 03 55 c7 40 0a 5f 41 40
       2.264446 3.3754988 6.2291274 3.0214257
000010 d1 2d a6 40 49 56 ce 40 7e 44 da 40 40 4c 29 40
       5.193093 6.448033 6.820861 2.645279
000020 f5 61 19 40 96 5f 0b 40 39 8c 3f 40 63 a4 41 40
       2.3966038 2.177709 2.9929335 3.0256584
000030 93 b8 1c 40 cb 5e 2a 40 eb d4 ae 40 8a 45 10 40
       2.4487655 2.6620357 5.463491 2.2542443
000040 04 1c 25 40 db 07 ad 40 62 23 13 40 94 1a 14 40
       2.579835 5.407209 2.2990346 2.3141222
000050 cf 3b 05 40 3e 6d 84 40 f9 93 47 40 db 7a 4b 40
       2.0817754 4.138335 3.1184065 3.1793735
000060 f8 4a bf 40 2d 1b 28 40 9a e4 20 40 7e a1 58 40
       5.9779015 2.6266587 2.5139527 3.3848567
000070 b0 2f b7 40 c3 94 03 40 de e2 46 40 cd d9 48 40
       5.724571 2.0559547 3.1075969 3.1382935

blocks.1.conv.weight f4 [32, 32, 3, 3]
000000 38 41 f8 3c c9 6a 89 3d b6 77 d9 3d 67 83 e9 be
       0.030304536 0.06709821 0.10618536 -0.45608065
000010 4c 2c 2f 3e c5 7a ca bd 02 53 76 3d 7b 03 db be
       0.17106742 -0.09886698 0.060137756 -0.42776093
000020 b6 f0 a6 3d 9d 04 e6 3d ac 51 2e 3e 94 8b b1 be
       0.08151381 0.11231349 0.17023343 -0.34676802
000030 37 6c 11 be cd 95 87 3d ac 6f 26 be 54 6f 1b be
       -0.14201437 0.06620369 -0.16253537 -0.15179187
000040 55 bf 3c 3e 4d 86 0b 3e a4 fd 13 bd b6 3e b2 be
       0.18432362 0.1362545 -0.036130562 -0.3481347
000050 63 df 2b 3e 4c ba 9d be 4f 30 37 bf 3a 39 39 be
       0.16784434 -0.30806196 -0.7155809 -0.18088236
000060 64 b8 4f bc 3b f3 77 3e b5 75 2c 3e 96 b8 b7 3e
       -0.0126782395 0.24213879 0.16841777 0.35883015
000070 5b 31 0f bd 28 18 9b bc 70 4f c3 be a9 a6 8b 3e
       -0.03495918 -0.018932417 -0.38146544 0.2727559
000080 8e fc 40 be 36 a1 8b be e7 b9 12 bf f6 f6 6d be
       -0.18846342 -0.27271432 -0.57314914 -0.2323874
000090 9b 56 14 3d 81 05 16 3e 39 e8 63 be 05 25 20 3e
       0.036215406 0.14650537 -0.22256555 0.15639122
0000a0 51 19 08 bd 78 6d ab bc a0 5c 4e 3d 50 a0 cf bd
       -0.03322727 -0.020926222 0.050381303 -0.10137999
0000b0 19 80 e4 3d f5 bb 73 be d0 9b a5 bd e2 4b 42 3e
       0.11157245 -0.23802169 -0.080863595 0.1897426
0000c0 43 78 ca 3c de de 9f 3d 0a f0 1b 3e 27 bf a2 3d
       0.024715548 0.078061804 0.15228286 0.07946616
0000d0 b2 00 8b 3d 47 b7 c8 3e ce 74 3e be 3e 84 ad 3d
       0.06787242 0.3920233 -0.18599245 0.08472489
0000e0 0c a5 38 be 56 d7 8a be 0c 2b 2e 3b bf 23 98 be
       -0.1803171 -0.27117413 0.002657595 -0.29714772
0000f0 2d 00 38 bd e0 28 0e 3e 6a 69 c0 bc 30 2a 00 bd
       -0.044922043 0.1388278 -0.023487765 -0.031290233
000100 25 4d 2c bf 80 f8 93 ba 04 b3 90 bd 7c 48 0b 3e
       -0.67305213 -0.0011289269 -0.070653945 0.1360187
000110 6d ef d5 be 16 18 53 3c fa 7d 22 be ec 8b 31 3d
       -0.4178423 0.0128841605 -0.15868369 0.04334633
000120 29 8d 4c 3e 32 0e 28 be 0a d3 4b be 9d 12 5c 3d
       0.19975723 -0.16411665 -0.19904724 0.05372869
000130 9b 54 89 3c 8b 90 e8 bc ea 17 97 be 2a 5b 95 be
       0.016763976 -0.028389236 -0.29510432 -0.29171115
000140 77 ee a8 3e 26 e9 32 bd 0f 50 6e bd 55 6a 9c be
       0.32994434 -0.04367938 -0.05818182 -0.30549875
000150 ea 0a e8 3e 7f 80 cf 3d a7 2f a2 be 1c 02 56 3d
       0.45320827 0.101319306 -0.3167698 0.052248105
000160 b1 83 45 be 94 c1 4d bd 9e 57 9a bc 40 f5 2b be
       -0.19288518 -0.05023344 -0.018840607 -0.16792774
000170 52 42 8a bc 3b 94 6a 3b ac 70 17 bd 42 20 a4 3d
       -0.016877327 0.0035793919 -0.036972687 0.08013965
000180 53 58 76 3e 3d d1 c3 3c d4 9c 4c bd 82 4e 15 3d
       0.2405713 0.023903484 -0.04995425 0.036451824
000190 24 f0 ca 3d 68 b1 d2 bd 40 cc 82 be 19 5b d5 bd
       0.099090844 -0.10287744 -0.25546455 -0.10417766
0001a0 26 97 d0 bd 1d 6e b1 bc 24 d2 e7 be 99 32 95 bd
       -0.10185079 -0.021658951 -0.45277512 -0.07285041
0001b0 b1 c7 7a bd e1 a7 80 3e 53 83 38 be cd e8 8b 3d
       -0.061225597 0.2512808 -0.18018846 0.068315126
0001c0 2b e2 cf 3e ba ea c1 bd b0 6b f1 bd 90 ad 95 bd
       0.4060224 -0.09468599 -0.11788118 -0.07308495
0001d0 b1 1e 98 3e 87 01 66 be 1b f1 db be 29 a4 5c be
       0.29710916 -0.2246152 -0.42957386 -0.21546997
0001e0 7e a1 6b be 02 f3 e7 be 23 74 d9 3d 2d 36 e4 bd
       -0.23010823 -0.45302588 0.106178544 -0.11143146
0001f0 d0 25 34 3e 60 62 95 bd 59 e1 75 3e 8e 2d 37 be
       0.1759255 -0.07294154 0.24011745 -0.17888471
000200 46 69 45 be 83 23 5e 3e 1e 54 6b be 46 55 48 3e
       -0.1927844 0.21693234 -0.22981307 0.19563779
000210 02 99 6d 3c e6 84 53 be 4c a2 01 3d 75 24 16 be
       0.014501812 -0.20656165 0.03164892 -0.14662345
000220 ca ce 25 bd 92 78 09 3e 82 96 47 be 28 56 0c 3e
       -0.040480413 0.134249 -0.19491008 0.13704741
000230 a4 92 e6 bd 36 de 22 bd b2 96 1e be f7 a7 5a 3d
       -0.11258438 -0.039762698 -0.15487173 0.05338284
000240 fc 0f b5 3e 79 89 dd be ab 50 00 3d 2e 15 4b bd
       0.35363758 -0.43268946 0.03132693 -0.049580745
000250 53 1c 87 be 33 f0 11 3c b9 48 0e 3e d1 04 8a bd
       -0.26388797 0.008907366 0.13894929 -0.067392
000260 aa 0d 39 bd f2 d7 a7 3d 2e 5b 12 be fb 94 e6 bd
       -0.045179047 0.08195485 -0.14292595 -0.112588845
000270 99 4e aa be 29 0d 65 bf 7f a8 e8 bc ef c5 00 3e
       -0.3326309 -0.89473206 -0.028400658 0.12575506
000280 0e 93 9a be 89 d8 fd bd 05 77 c0 3d f0 43 75 3d
       -0.3019032 -0.123948164 0.09397701 0.059879243
000290 9e e3 06 3e 1f d6 90 3d 0f 29 0a 3a 26 7a c6 3c
       0.13172767 0.0707209 0.00052704004 0.024228167
0002a0 17 bc e6 bb 2c 1c 3e 3e 13 53 eb bb a7 a1 6b be
       -0.007041465 0.18565434 -0.007181534 -0.23010884
0002b0 83 a9 06 be 19 71 c2 bc 33 30 dc bd 79 68 1b 3e
       -0.13150601 -0.02373557 -0.10751381 0.15176572
0002c0 f0 d3 4c 3e f7 47 05 bf 2f 0d 65 be 2a 1a eb be
       0.20002723 -0.52062935 -0.2236831 -0.459184
0002d0 08 91 30 3d a9 cf b4 be ed d8 1f 3e 81 f9 22 be
       0.043107063 -0.35314682 0.15610094 -0.1591549
0002e0 68 60 72 be c4 75 81 3e c9 12 2d bc dc 6b b3 bc
       -0.23669589 0.2528516 -0.010563561 -0.021902017
0002f0 bf 64 13 be 18 74 97 3d 9b 59 0f 3d 36 bc ae be
       -0.143939 0.0739519 0.034997564 -0.3412797
000300 b6 97 85 3b 21 66 9a be 71 08 bd bd 0c d1 b5 bd
       0.0040769232 -0.30156043 -0.09230126 -0.08877763
000310 cc e5 93 3c 5b 39 5a be b2 6d 3e 3d cb c9 76 be
       0.018053912 -0.21310942 0.046491332 -0.24100415
000320 4b 1a 5c 3e 95 03 62 3d 16 4c 09 be 2b f1 ca 3d
       0.21494405 0.055179197 -0.1340793 0.099092804
000330 80 3f b8 bd 1c 57 78 be 90 4c 3d 3d 6e 2b ca bd
       -0.08996487 -0.2425198 0.046215594 -0.09871565
000340 b6 53 fb bd f3 1d b9 3d af 97 98 be cc 7b f5 be
       -0.12271826 0.090389155 -0.29803225 -0.47946012
000350 c1 97 de bc c8 6a 44 3d b1 62 80 be e0 13 b4 be
       -0.027171971 0.047953397 -0.25075296 -0.35171413
000360 07 e2 02 3e 92 97 22 3c 8b 7e 8d be 66 57 7c bd
       0.12781535 0.0099238325 -0.27635607 -0.061606787
000370 02 6a 4b be fd 15 4d be 16 26 98 3d 0d e5 85 3e
       -0.19864658 -0.20027919 0.07429139 0.26151314
000380 59 22 b4 bd 82 d3 f7 bd fa 4c b8 3c f0 9a 25 3e
       -0.08795614 -0.12100889 0.022497643 0.16172385
000390 9c 00 74 be b1 63 d7 bd 76 0e 3a be dc 29 96 be
       -0.23828357 -0.105170615 -0.18169579 -0.2932881
0003a0 c4 c8 2b 3e 63 e5 0e bd 2f 41 b8 3d 73 0d de 3d
       0.16775805 -0.03488673 0.08996808 0.10842409
0003b0 fd 30 a6 3e 8a 2e 90 be a4 ac 48 be f7 7f 96 bd
       0.3245925 -0.28160506 -0.19597107 -0.07348626
0003c0 c9 77 85 be ac 7b 1c bd 15 89 62 be 5b 95 2e 3e
       -0.2606795 -0.03820388 -0.22122605 0.17049162
0003d0 70 f7 68 3d 57 64 d8 bd 76 98 04 be f3 1b 80 be
       0.0568766 -0.10566013 -0.12948784 -0.25021324
0003e0 81 67 ca 3e 36 4b 9d 3d 5c 9e 9a 3b d6 25 4e bd
       0.39532092 0.07680361 0.004718585 -0.050329052
0003f0 17 d9 2b be 7c d1 2f bd 73 4a 2e 3e 03 37 d2 be
       -0.16782032 -0.04292439 0.17020588 -0.41057596

blocks.1.conv.bias f4 [32]
000000 5f a3 e8 3b 5f ac d0 b9 bf 27 ae 3a 45 09 a2 bb
       0.0070995535 -0.00039801278 0.0013286992 -0.0049449527
000010 1e 94 95 bb 59 df 08 3b ba 32 c2 b9 32 0b 28 b9
       -0.004564776 0.0020885079 -0.00037040358 -0.00016025899
000020 d4 ca 90 3a 28 55 a5 39 ac 6c 4c ba ef 6e cf 39
       0.0011046776 0.000315347 -0.0007798176 0.0003956477
000030 c9 03 81 bb 69 42 2f 3a c4 70 0c 3c fe 9a a6 3b
       -0.003937219 0.0006685616 0.008571807 0.0050843945
000040 db 48 e6 38 55 23 a1 3a a5 e6 3b 3a 35 85 14 39
       0.00010980825 0.0012293855 0.00071678526 0.00014164003
000050 cd 62 cd bb 43 34 9f 3b 3b 6d d2 3a 2f f6 c5 3a
       -0.0062678815 0.004858525 0.0016054282 0.0015103276
000060 f5 9e a6 3b 0e 1e 82 ba 1b dc 44 3c bb 65 2a 3b
       0.005084867 -0.000992717 0.012015368 0.0026000577
000070 63 af 7b b9 d8 3b d6 ba 1c 6f 85 ba 98 b8 d6 39
       -0.00024002562 -0.0016344739 -0.0010180208 0.00040954794

blocks.1.bn.weight f4 [32]
000000 bd 52 2c 3f 16 f3 6a 3f 3c bb 36 3f 41 18 6b 3f
       0.6731375 0.9177717 0.71379447 0.91833884
000010 5a ce 81 3f 7a e5 56 3f 75 8f 39 3f 02 e9 43 3f
       1.0141098 0.83943903 0.72484523 0.76527417
000020 f4 0e 84 3f cd 02 62 3f 13 4b 7a 3f 30 b5 79 3f
       1.0317063 0.88285524 0.97770804 0.97542095
000030 12 f2 95 3f 7c 63 58 3f 4a 0e 92 3f df c7 6a 3f
       1.1714499 0.845268 1.1410611 0.9171123
000040 cb de 95 3f 04 2c 52 3f 09 a6 5c 3f fd 1f 5f 3f
       1.1708616 0.8209841 0.8619085 0.87158185
000050 f8 40 64 3f a4 83 56 3f fa b4 97 3f 8a 06 8c 3f
       0.89161634 0.8379462 1.1852105 1.0939496
000060 6e ce 54 3f 37 d4 8d 3f 99 cb 86 3f 59 aa 56 3f
       0.83127487 1.1080388 1.0530883 0.8385368
000070 16 6b 4e 3f 6c e7 51 3f bb 48 05 3f 29 bd 96 3f
       0.8063215 0.81993747 0.520641 1.1776477

blocks.1.bn.bias f4 [32]
000000 b8 bb 81 be ec c0 d2 be f8 e7 9c bd 8a 73 aa be
       -0.2533853 -0.41162813 -0.07661432 -0.33291274
000010 0f 81 1e be 5e 04 5a be 58 08 bb be 4d e5 ef be
       -0.1547892 -0.21290728 -0.36529803 -0.4685463
000020 94 39 f6 be 4b ed 9c be 92 2b f4 be 5c 31 2c bf
       -0.48090804 -0.3064979 -0.47689492 -0.67262816
000030 41 58 fd be d6 91 b5 be a5 8b b3 be e5 d1 ca be
       -0.49481395 -0.35462826 -0.35067478 -0.39613262
000040 d3 e3 14 bf b7 1d dc be 26 bf 02 bf c1 3b 11 bf
       -0.5816013 -0.4299142 -0.5107292 -0.567318
000050 86 f9 20 bf a7 20 db be 46 94 1a bf f0 be 52 be
       -0.6288074 -0.4279835 -0.603825 -0.2058065
000060 79 1a 48 bf 91 80 0a be f9 81 af be c2 6c af be
       -0.78165394 -0.13525607 -0.3427885 -0.34262663
000070 af 85 8d be 6c 83 29 bf 9d 5c a3 bd 84 34 c0 be
       -0.27641055 -0.6621616 -0.07976649 -0.37540066

blocks.1.bn.running_mean f4 [32]
000000 34 1f a8 c0 22 5d 15 c0 c4 27 4a bf fc 1a 56 c0
       -5.253809 -2.3338094 -0.7896693 -3.345397
000010 b5 35 21 c0 92 04 5e be bd 75 31 40 b0 9d 0d c0
       -2.518903 -0.21681431 2.7728112 -2.2127495
000020 0d 89 6b c0 9c c8 aa be 68 74 0e 3e 6d ae 3e 3f
       -3.68024 -0.33356178 0.13911593 0.744849
000030 46 b9 92 bf 50 10 83 3f da 76 c3 bf 70 f3 39 c0
       -1.1462791 1.0239353 -1.5270646 -2.9054832
000040 19 b5 22 c0 bc 0a 32 3f 0c 8c 31 c0 87 74 e2 bf
       -2.5423033 0.6954763 -2.7741728 -1.7691811
000050 12 2d f9 bf e7 83 aa bf 70 7a 20 c0 54 2b 07 c0
       -1.9466879 -1.3321503 -2.507473 -2.1120195
000060 c0 4f e9 bf 33 9a 32 3e d3 7f b6 bf 5d c6 27 c0
       -1.8227463 0.17441635 -1.4257759 -2.6214821
000070 67 af 94 3f e3 8d c7 bf 8d 37 e7 3f 41 69 bd bf
       1.1616029 -1.5590175 1.8063828 -1.4797746

blocks.1.bn.running_var f4 [32]
000000 47 7c 07 41 e8 20 ff 40 b6 83 be 40 b3 f7 32 41
       8.467841 7.972767 5.953578 11.185473
000010 71 e2 82 41 eb e7 08 41 8c 28 ed 40 d7 d3 a4 40
       16.360567 8.556621 7.4111996 5.1508594
000020 75 9f 33 41 3e 86 d6 40 26 db 04 41 30 16 a8 40
       11.22643 6.703887 8.303503 5.2527084
000030 fe 76 0b 41 a1 32 db 40 cb 7d 08 41 aa d9 f9 40
       8.716551 6.8499303 8.530711 7.8078203
000040 c4 46 bf 40 e6 f9 04 41 0d c7 bc 40 93 d1 b1 40
       5.9773884 8.31101 5.899298 5.556833
000050 a0 6b fb 40 c2 2f e8 40 c3 2a e7 40 e4 95 1b 41
       7.856888 7.25583 7.22397 9.724094
000060 d6 da 94 40 a6 ee ed 40 71 1e cf 40 5b 51 1b 41
       4.6517134 7.435382 6.472466 9.707362
000070 10 86 bb 41 ab 38 d0 40 6e 76 5d 41 6a 9d a8 40
       23.44046 6.5069175 13.8414135 5.2692156

blocks.2.conv.weight f4 [32, 32, 3, 3]
000000 81 8c 69 3d 47 1c 22 3e 02 7e 92 bd a4 c1 dd bc
       0.05701876 0.158311 -0.0715294 -0.027069874
000010 bb 03 1b bd ed 39 2d be 03 0b 87 be 75 0e 42 be
       -0.037845355 -0.16916628 -0.2637559 -0.18950827
000020 96 9c d2 bc b0 43 0f be 2f 1d 30 bd c5 18 bb be
       -0.025709432 -0.13990664 -0.04299658 -0.36542335
000030 0b 14 a1 be bb 79 1a bd 0e ca 57 be 68 23 00 3d
       -0.31460604 -0.037713747 -0.21073171 0.031283766
000040 f0 66 f9 bd ea 03 f0 3d 03 4c eb bd e3 7f a6 3c
       -0.12177837 0.117194965 -0.114891075 0.020324653
000050 c5 66 12 3e 5b 80 c6 3b 92 57 43 be ad 81 02 bd
       0.14297016 0.0060577816 -0.19076374 -0.03186195
000060 54 ee e1 3d 36 64 36 bd 9e 8c 95 be 8e 43 5a 3e
       0.110317856 -0.044529162 -0.29208845 0.21314833
000070 08 aa 99 bd 5c 66 20 3e 1f 81 17 3e cc 21 57 be
       -0.07503134 0.15664047 0.1479535 -0.21008986
000080 62 13 68 bd a4 6c 3c 3d ee 22 96 3e 57 f7 d0 3e
       -0.05665911 0.046002045 0.29323524 0.40813705
000090 01 16 62 3d 96 97 ff 3c 8d 12 07 3f d8 90 43 3d
       0.055196766 0.031200211 0.5276268 0.047745556
0000a0 c3 11 8a 3e 2a b5 a3 3e 6e f5 82 3d 39 4b 88 3e
       0.26966676 0.31974155 0.06394468 0.2661989
0000b0 1a 65 d6 3e 62 b8 38 be 21 ee e2 3d b8 2e a5 3e
       0.4187401 -0.18039086 0.11080576 0.32262206
0000c0 07 d4 ff 3d 5a 5d 74 3e cd 04 6d 3e 08 76 56 bb
       0.12491613 0.23863736 0.23146363 -0.003272416
0000d0 69 e5 5a be 29 5d 42 be a2 b2 13 be 18 7b cb 3d
       -0.21376576 -0.1898085 -0.14423612 0.09935588
0000e0 63 da 34 3e 20 52 04 be a7 93 ad bc 85 6f af bd
       0.17661433 -0.12921953 -0.02118857 -0.085661925
0000f0 c6 47 30 be 38 31 0c 3e d0 b5 14 be 0d 60 e0 bc
       -0.1721488 0.1369065 -0.14522481 -0.02738955
000100 54 12 08 bf 07 15 ee 3d 47 d3 b8 bd 15 8a 35 be
       -0.53152966 0.116251044 -0.09024673 -0.17728455
000110 af ac 95 be 3a 6e 98 be b8 03 23 be 05 a0 ae 3d
       -0.2923331 -0.29771596 -0.15919387 0.08526615
000120 d3 7d a5 3d 8f d8 64 bd 1b 52 ca 3d 3e e5 4a 3e
       0.0808064 -0.05587059 0.098789416 0.19814011
000130 60 31 0c 3e 3f ec b1 3d ac 9a f7 3e 4b 28 af be
       0.1369071 0.086876385 0.48360193 -0.3421043
000140 37 b7 fb bd e5 9b f8 bc f6 c1 73 3e 4b 35 ac be
       -0.12290805 -0.030347774 0.23804459 -0.3363441
000150 6a 6a 62 bd 38 97 15 be 5f 15 cd be 67 87 a2 be
       -0.055277266 -0.14608467 -0.40055367 -0.3174393
000160 18 35 81 be f9 e0 d5 bc 2d 8b b0 be 54 a5 d4 be
       -0.2523582 -0.026108252 -0.34481183 -0.41532385
000170 1f 9d c8 3d ab d7 4d be f1 d9 c7 bc a8 06 3a 3c
       0.097955935 -0.20101802 -0.024395915 0.011354126
000180 95 58 0d 3e ff f9 83 3d 50 74 6c be 7c 60 c3 3d
       0.13803323 0.06444167 -0.23091245 0.09539887
000190 96 65 d2 3d 90 a4 1b 3e fd 74 99 3d 31 73 94 3e
       0.10273282 0.15199494 0.07493017 0.28994134
0001a0 5d 63 65 be 75 47 09 3e 10 c2 a9 be 1c 31 79 3e
       -0.22401185 0.13406165 -0.3315587 0.2433514
0001b0 46 64 0b bd 09 77 81 be 82 93 3e bd 85 26 65 3e
       -0.034031175 -0.2528613 -0.046527393 0.22377975
0001c0 bc 8a 91 3e fb 74 c1 bd 0c d9 3e 3d 18 68 11 3e
       0.28426158 -0.094461404 0.04659371 0.14199865
0001d0 f5 3b 60 3e f2 2b af bd d5 be 95 be 9c 21 0c be
       0.21897872 -0.08553304 -0.29247156 -0.13684696
0001e0 c2 30 5f be 1a eb f1 bd cd 5c 91 3d b4 0c 77 be
       -0.21795943 -0.1181242 0.070977785 -0.2412594
0001f0 5b c0 8d be 1d 6b 03 bd e5 c1 98 be 4a 92 78 be
       -0.27685818 -0.032084573 -0.2983543 -0.24274555
000200 c2 8c ea be 17 6f ff bd a8 04 19 be 18 0e 1d bc
       -0.45810515 -0.124723606 -0.14943182 -0.00958588
000210 c7 c9 90 be da 1e d9 3e f7 ae 50 be 27 7d 31 be
       -0.28278944 0.4240635 -0.20379244 -0.17332898
000220 3b c1 f0 bd 71 f9 df bc 5d 92 07 bd 0d c8 27 bd
       -0.11755606 -0.027340623 -0.033098567 -0.040962268
000230 1c ca 3f be 0a 00 16 3e 85 17 2d be 82 9e 92 3e
       -0.18729442 0.14648452 -0.16903503 0.28636557
000240 32 8f aa bd 43 be b1 3d 42 41 2e bd 0c df d9 bd
       -0.083280936 0.08678868 -0.042542703 -0.10638246
000250 b0 01 60 be 6c ed 04 3d d2 d4 b5 3e fa 81 39 bd
       -0.21875644 0.032452986 0.35513932 -0.04528997
000260 d8 d6 34 3e 94 c7 94 bd a3 6d b9 3d 76 82 20 bd
       0.17660081 -0.07264629 0.09054115 -0.039186917
000270 92 d5 51 bd 41 52 b6 bd a1 bf 7d 3e df c3 3d be
       -0.051229067 -0.089024074 0.24780132 -0.1853175
000280 99 dd a4 be ea 83 4d bc 37 0b 78 bd 3a 17 c2 3e
       -0.32200316 -0.012543658 -0.06055757 0.37908345
000290 72 82 a1 3d 68 24 bf 3d 09 65 97 3e 31 9e 45 3e
       0.078862086 0.09333116 0.2956927 0.19298626
0002a0 9b 81 d9 bb f8 58 24 3e 8e d9 1e bb 3e d7 14 be
       -0.0066377646 0.16049564 -0.002423856 -0.14535233
0002b0 b7 be 95 be 5b b7 d3 3d 24 cc 19 be b1 d3 bf bb
       -0.29247066 0.10337707 -0.1501928 -0.005854093
0002c0 99 6e 2a 3e cb c6 78 be 52 b2 b5 bd d3 32 7d be
       0.16643752 -0.24294583 -0.088719025 -0.24726419
0002d0 0d 69 81 bd cd 9c 3b 3d 86 57 ec 3e e5 a7 fa 3d
       -0.06318865 0.045803834 0.46160525 0.122390546
0002e0 f6 14 2e 3b 05 36 ed 3d 10 f6 67 3e 9d a6 48 3e
       0.0026562787 0.11582569 0.22652459 0.19594808
0002f0 17 83 a8 be cf 9c a4 3d be 57 58 3d b2 47 79 3c
       -0.32912514 0.08037721 0.052818052 0.015214847
000300 39 d9 a2 3e 81 b7 d5 3d a8 66 66 be f5 47 29 bd
       0.31806353 0.10435391 -0.22500098 -0.04132839
000310 bf b3 18 3e 33 80 4d 3d 35 db 3b 3e 71 77 a3 bd
       0.14912318 0.05017109 0.1834534 -0.07981766
000320 0b d3 61 be d8 c9 17 be 62 3d a0 3e 58 37 d0 be
       -0.22053163 -0.14823091 0.3129683 -0.40667224
000330 a0 f3 e4 be 5d ff 17 bd 8f cf 0d bf 9d 18 0e be
       -0.4471712 -0.037108768 -0.55394834 -0.13876577
000340 cf fb 4a 3e c7 0a 3d 3e 25 e2 a0 be 65 88 1f be
       0.1982262 0.18461142 -0.31422535 -0.15579374
000350 0d 79 95 bb 80 7a af be 8b 8d 80 be e7 7d 86 bd
       -0.0045615495 -0.34273148 -0.2510799 -0.06566983
000360 64 44 0f 3e 0f bf b8 3d 9e 82 81 be 40 8f 9b bc
       0.13990933 0.090208165 -0.25294966 -0.018989205
000370 12 ca be 3e 37 3c 01 bc b8 95 21 be 3f cc 46 be
       0.37263542 -0.0078878915 -0.1577977 -0.19413851
000380 25 f7 47 bb 7b 14 61 3d 93 3f 2d 3e b8 58 81 be
       -0.00305123 0.054951172 0.16918783 -0.25263
000390 8c e4 7c 3e 1c aa eb 3d 87 7a 0b be 06 75 cd 3e
       0.24696559 0.11507055 -0.13620959 0.40128344
0003a0 39 b2 d0 3d 34 c5 89 bd 73 aa 29 be f6 32 b7 3d
       0.10190243 -0.06727067 -0.16568927 0.08945267
0003b0 b7 74 68 3d 9b dd 03 be 0e f8 68 bb 56 e5 19 bd
       0.056751933 -0.12877505 -0.0035548243 -0.037572227
0003c0 8d 42 fd 3e 3e 4e 8d 3d 59 d6 33 3e 3a af 9a bd
       0.49464837 0.06899689 0.17562236 -0.07552953
0003d0 cf c1 3f 3c 71 0d 90 3e 26 0e ba bd c4 fb 0f bd
       0.011703922 0.28135255 -0.0908473 -0.03515221
0003e0 b7 a7 3c bc a1 86 34 be 4b 19 73 3c d1 a4 07 3e
       -0.011514596 -0.17629482 0.014837573 0.13246466
0003f0 28 00 fb 3d ed cf 6b bd 9f 1a 1c 3b d9 42 6f be
       0.12255889 -0.05757134 0.0023819578 -0.23365344

blocks.2.conv.bias f4 [32]
000000 42 55 cf bb db 22 ad 3a 4c 28 3e 3a 31 93 71 bc
       -0.006327302 0.001320924 0.00072539295 -0.014744566
000010 36 28 ae 3b f5 d4 46 bb e3 e5 9a bb 6d 0d c4 39
       0.005314852 -0.0030339335 -0.0047271117 0.00037394036
000020 e7 36 68 39 a2 d7 59 3b 31 1b 9d 39 b2 a0 16 bb
       0.00022145697 0.00332401 0.00029965633 -0.0022983965
000030 00 0a 02 b9 f3 56 ac bb d6 54 9b bb 98 8c 08 ba
       -0.00012401491 -0.0052593886 -0.004740338 -0.00052089384
000040 6d f6 98 3c 6a 33 8d bb d5 5c 52 b8 cc 25 50 3b
       0.018672192 -0.0043091075 -5.0154358e-05 0.003176081
000050 01 39 90 ba e4 1d 75 39 44 d3 78 ba f4 9b 0a bb
       -0.0011003317 0.00023376156 -0.000949193 -0.0021150084
000060 ea a2 44 3a 7b b0 6b bb ad 88 19 3a 58 71 51 38
       0.0007501083 -0.0035963345 0.0005856853 4.9935043e-05
000070 97 f7 1d bc cb 9b 4c bb 40 17 0b ba bf 85 29 ba
       -0.00964155 -0.003122079 -0.0005305894 -0.0006466768

blocks.2.bn.weight f4 [32]
000000 67 6e 66 3f df 2b 61 3f d4 87 22 3f cf da 56 3f
       0.9001221 0.87957567 0.6348851 0.83927625
000010 72 62 42 3f 94 fc 32 3f 5f d8 84 3f 9b ee 90 3f
       0.75931466 0.69916654 1.0378531 1.1322817
000020 87 7a 23 3f 04 12 86 3f c7 7b 4a 3f c8 b1 81 3f
       0.63858837 1.0474248 0.7909512 1.013238
000030 06 2f 5f 3f 83 98 50 3f fb 57 56 3f 90 39 8e 3f
       0.8718113 0.81482714 0.83728 1.1111317
000040 96 69 9f 3f f9 b0 80 3f c7 7b 42 3f de a8 58 3f
       1.2454097 1.0054008 0.7597012 0.8463267
000050 67 f4 75 3f 2a c2 82 3f 55 8f 67 3f ea ac 87 3f
       0.96076053 1.0215504 0.9045308 1.0599644
000060 6d 02 99 3f 87 32 76 3f c2 b7 7e 3f 4e 90 26 3f
       1.1953865 0.9617085 0.9949914 0.6506394
000070 3f d3 07 3f e4 ac 7b 3f fc ed c9 3e ee 26 4a 3f
       0.5305671 0.98310685 0.3943938 0.7896565

blocks.2.bn.bias f4 [32]
000000 55 6f 8b be c8 1d 04 bf 68 63 4c be e8 63 8d be
       -0.27233377 -0.5160794 -0.19959795 -0.27615285
000010 f4 4c 10 bf 18 5f 65 be e8 d7 7b be a2 b8 18 bf
       -0.5636742 -0.22399557 -0.2459408 -0.5965673
000020 41 c5 13 bf c1 e3 c8 be 74 42 0e bf af 15 d3 be
       -0.5772286 -0.39236262 -0.5557015 -0.4122748
000030 7b a5 09 bf 44 0f a5 be a2 f6 d0 be 44 9e 2c bf
       -0.5376813 -0.3223821 -0.40813166 -0.67428994
000040 10 06 cc be bc 88 05 bf 94 a5 d2 be 0a 59 b0 be
       -0.39848375 -0.52161765 -0.4114195 -0.3444293
000050 eb 1b 21 bf 30 10 36 bf d1 48 b7 be 03 34 03 bf
       -0.62933224 -0.7111845 -0.35797742 -0.5125124
000060 5c e3 27 bf 78 79 e6 be 5e a1 1d bf 63 a0 9b be
       -0.655813 -0.45014548 -0.6157435 -0.30395803
000070 ec 86 bc 3b 2b cc c6 be 06 8c 9a 3e 20 5b 26 bf
       0.0057533886 -0.38827643 0.30184954 -0.64982796

blocks.2.bn.running_mean f4 [32]
000000 56 c2 2e bf c5 67 8c c0 d6 0a 20 c0 04 a4 c2 3a
       -0.68265283 -4.387667 -2.5006614 0.0014849906
000010 c4 ad 8d c0 20 7c 34 40 97 ea e8 be b0 a8 cc bf
       -4.4274616 2.820076 -0.45491478 -1.5988979
000020 1d da 66 bf d9 87 12 bf 4a 4c b7 be 36 a5 ce bf
       -0.90176564 -0.5723854 -0.3580039 -1.6144168
000030 53 55 0a 40 40 c0 5d c0 58 71 1a c0 24 65 80 c0
       2.1614578 -3.464859 -2.413168 -4.0123463
000040 e6 5c 42 bf 1c c5 53 3c 2c d7 f1 bf eb 6f e7 bf
       -0.75923 0.0129254125 -1.889379 -1.808103
000050 a6 b1 14 c0 04 2c a9 3e 5a 19 a2 bf 5a 5c f5 bf
       -2.3233428 0.33041394 -1.2663987 -1.9168808
000060 38 43 91 be 58 78 54 bf 25 bf 21 c0 60 08 ca 3e
       -0.28371596 -0.8299613 -2.5272915 0.39459515
000070 ac c5 93 bf 3b 96 35 c0 1f 7f 54 3f 7f 64 93 bf
       -1.15447 -2.8372943 0.8300647 -1.1515044

blocks.2.bn.running_var f4 [32]
000000 a9 11 86 41 ca ca 66 41 3a be 8b 41 15 7f db 40
       16.758623 14.424509 17.467884 6.859263
000010 ab 44 21 41 36 12 1b 41 ea df 8c 41 5a 96 0b 41
       10.079265 9.691946 17.609333 8.724207
000020 e2 67 d0 40 08 cf 27 41 7a 3d bd 40 14 01 27 41
       6.512681 10.488045 5.9137545 10.437763
000030 4c 64 b6 40 59 33 98 41 ae c2 b3 41 44 af d3 40
       5.6997433 19.025072 22.470058 6.6151447
000040 85 87 c9 40 9e 65 0e 41 e5 c0 e3 40 ba 1b 00 41
       6.297793 8.899809 7.1172967 8.006769
000050 26 59 c5 40 83 c0 e6 40 52 a7 0c 41 28 3c 2a 41
       6.1671324 7.211 8.79085 10.639687
000060 41 3c ae 40 65 2b ea 40 4a 3f cc 40 eb 77 bc 41
       5.444855 7.317797 6.3827257 23.558554
000070 49 62 31 41 bf a1 96 41 a6 af 9d 41 5b 0e 0d 41
       11.086495 18.828978 19.710766 8.816005
