models/200.pth (torch, 501905 bytes, 80 tensors)

conv0.conv.weight f4 [32, 17, 3, 3]
-0.10643503 0.3798617 0.13778591 0.36874744 -0.45588362 0.59919465 0.07534037 0.4512398
0.20295623 -0.06612462 -0.000555386 -0.035563104 -0.02697047 -0.15023929 0.007268265 0.05671498
0.15754654 -0.09201897 0.08515995 -0.0112707745 0.07643104 -0.10019311 -0.27007028 0.04334794
0.043307133 0.059492107 0.077701055 0.12847896 -0.05830941 0.09037199 -0.049706265 -0.15245175
-0.040804483 0.2123866 -0.07174566 0.04852477 0.29122308 0.33561307 0.13404714 0.2631411
-0.5930946 0.42816716 0.3926386 0.40876105 0.24429855 0.06649187 0.23500128 0.30298364
0.21126619 -0.104416534 0.12137918 0.23375744 0.2192395 0.18805717 0.3849335 0.2618852
0.19216588 0.31166464 -0.1825327 0.32639012 0.32401565 0.31028947 0.21613096 0.19259645
0.37788633 0.104476444 0.24775456 -0.12150144 0.3825653 0.38936973 0.21022716 0.41662455
0.059837367 0.13574368 -0.05158322 0.080980934 0.37982374 0.049246866 -0.0432986 0.051943235
-0.04928241 -0.03504513 0.050486803 0.07621991 0.021828422 0.520087 -0.003971703 -0.0039267363
0.10000534 0.1064716 -0.045250926 0.099947974 -0.017740915 0.08799092 0.49837753 0.059477672
-0.08216055 0.021329205 0.048511762 -0.057162084 0.09439452 0.02766909 0.10330235 0.39969265
0.0530084 -0.1068575 0.09577855 0.060706276 -0.023176707 -0.20558088 0.1415316 -0.20648453
-0.23906927 -0.028353801 0.029437512 -0.27865508 0.111763045 -0.073550396 -0.025539873 -0.072729655
-0.10008578 0.1372047 0.027483571 0.01597059 0.0969116 0.030423827 0.1839786 0.023285495
-0.014376317 0.048706073 0.13082528 -0.10509275 0.01538429 -0.11910119 0.00093231135 -0.08545835
-0.025892204 -0.16889581 -0.07213775 0.07493175 0.18802425 0.15038854 0.025326055 0.10559103
-0.05879631 0.044065107 0.028461128 0.24066584 -0.031660948 0.16018793 0.0038489925 0.032160293
-0.0053535523 -0.16349381 0.10280368 0.0540699 -0.25681996 -0.58507866 0.2962957 0.0020982919
-0.0020748386 0.03587365 -0.14201942 0.26111427 -0.17552955 -0.14171259 0.10134112 -0.40585682
0.10471473 -0.04206358 -0.20683658 0.053165596 0.27798492 -0.22221836 -0.122260466 0.13233598
-0.3749877 0.008823028 -0.24624918 -0.029519163 -0.35484794 0.2416161 -0.011638234 0.029464794
0.2421148 -0.6987779 0.1528651 -0.27837825 -0.2626521 -0.2184919 -0.2648359 0.13507868
-0.20229517 -0.47759387 -0.46941283 0.18914086 -0.14588912 -0.2340738 -0.27939004 -0.56048703
-0.2800388 -0.1414779 -0.30532798 -0.30871397 -0.581174 -0.15772066 -0.66351426 -0.5626118
-0.3432964 -0.6376697 -0.46971843 -0.13531083 -0.2763944 0.2034302 -0.29104972 -0.6155652
-0.14621906 -0.2951786 -0.32911766 -0.31798393 -0.11136347 -0.2932652 -0.3272314 -0.1990126
-0.65362626 -0.14844608 0.19564405 0.17011495 0.015291257 -0.54649717 0.1624986 -0.17478624
0.010086205 0.07854459 -0.12095378 0.11116206 0.22906215 -0.12862371 0.026654309 0.15631478
-0.022005215 0.23802416 0.071824364 0.061020203 0.16102661 0.08379313 0.20646061 0.13511123
0.077264495 0.10974197 0.010259985 0.14016946 -0.026839836 0.05141049 0.2644627 -0.047915924
00000000: 9cfa d9bd 3c7d c23e c017 0d3e 77cc bc3e
00000010: 9469 e9be d264 193f 0d4c 9a3d e708 e73e
00000020: c2d3 4f3e 586c 87bd 5397 11ba 9eaa 11bd
00000030: 2df1 dcbc 54d8 19be a02a ee3b f84d 683d
00000040: e153 213e 7174 bcbd 5768 ae3d 0ea9 38bc
00000050: e187 9c3d 0c32 cdbd a746 8abe 9c8d 313d
00000060: d262 313d ffad 733d bb21 9f3d fd8f 033e
00000070: d9d5 6ebd f314 b93d cc98 4bbd 501c 1cbe
00000080: 9a22 27bd df7b 593e 63ef 92bd e9c1 463d
00000090: 311b 953e 7ad5 ab3e a743 093e 6eba 863e
000000a0: 0cd5 17bf ba38 db3e ed07 c93e 2149 d13e
000000b0: 6629 7a3e e42c 883d 2da4 703e ac20 9b3e
000000c0: 2a56 583e 56d8 d5bd a695 f83d 1c5e 6f3e
000000d0: 5280 603e 0f92 403e 0116 c53e d115 863e
000000e0: 22c7 443e 8292 9f3e dae9 3abe 9b1c a73e
000000f0: 61e5 a53e 43de 9e3e 6f51 5d3e 0138 453e
00000100: 517a c13e bff7 d53d 5fb3 7d3e bfd5 f8bd
00000110: 99df c33e 785b c73e ca45 573e d04f d53e
00000120: 0718 753d 6400 0b3e ed48 53bd 55d9 a53d
00000130: 4278 c23e 15b7 493d df59 31bd 6ec2 543d
00000140: 5adc 49bd 7b8b 0fbd 40cb 4e3d 2f19 9c3d
00000150: 85d1 b23c 6c24 053f 0f25 82bb daab 80bb
00000160: 9acf cc3d c80d da3d 0959 39bd 86b1 cc3d
00000170: 6555 91bc 9534 b43d 572b ff3e dc9e 733d
00000180: ca43 a8bd 96ba ae3c 45b4 463d ca22 6abd
00000190: ea51 c13d 4aaa e23c 2f90 d33d 84a4 cc3e
000001a0: 561f 593d 1bd8 dabd 8b27 c43d 25a7 783d
000001b0: 14dd bdbc cb83 52be a9ed 103e ae70 53be
000001c0: 93ce 74be 3b46 e8bc f026 f13c e1ab 8ebe
000001d0: 06e4 e43d 97a1 96bd ff38 d1bc 49f3 94bd
000001e0: c6f9 ccbd 647f 0c3e 3a25 e13c c1d4 823c
000001f0: 9779 c63d 643b f93c e364 3c3e 39c1 be3c
00000200: a58a 6bbc 0580 473d 10f7 053e de3a d7bd
00000210: 640e 7c3c 53eb f3bd 5b66 743a ca04 afbd
00000220: e31b d4bc 06f3 2cbe f5bc 93bd d175 993d
00000230: 6e89 403e 74ff 193e 9678 cf3c 1c40 d83d
00000240: 66d4 70bd 9d7d 343d 5027 e93c 1b71 763e
00000250: e9ae 01bd 4e08 243e 613f 7c3b 83ba 033d
00000260: da6c afbb ec6a 27be bc8a d23d 6678 5d3d
00000270: e87d 83be b7c7 15bf 12b4 973e 7f83 093b
00000280: 04fa 07bb 40f0 123d 8a6d 11be c5b0 853e
00000290: 05be 33be 1b1d 11be ef8b cf3d 77cc cfbe
000002a0: ad74 d63d dc4a 2cbd f8cc 53be 2bc4 593d
000002b0: 0a54 8e3e 368d 63be b263 fabd 1583 073e
000002c0: 63fe bfbe 768e 103c bf28 7cbe 2cd2 f1bc
000002d0: a1ae b5be 366a 773e 4bae 3ebc 2760 f13c
000002e0: f1ec 773e 1ce3 32bf ab88 1c3e 9887 8ebe
000002f0: 567a 86be 57bc 5fbe 9298 87be 1152 0a3e
00000300: 7726 4fbe 2f87 f4be e156 f0be 24ae 413e
00000310: f563 15be 0bb1 6fbe 360c 8fbe 147c 0fbf
00000320: 3f61 8fbe 95df 10be f353 9cbe c20f 9ebe
00000330: d2c7 14bf 8681 21be 12dc 29bf 5407 10bf
00000340: 8cc4 afbe 523e 23bf ef7e f0be ec8e 0abe
00000350: 9183 8dbe 0250 503e 7804 95be ae95 1dbf
00000360: 73ba 15be a621 97be 1c82 a8be cace a2be
00000370: 8812 e4bd db26 96be e08a a7be f6c9 4bbe
00000380: 0d54 27bf 4002 18be ea56 483e 9d32 2e3e
00000390: 2e88 7a3c 3de7 0bbf 0866 263e 2afb 32be
000003a0: 9c40 253c fcdb a03d 9eb6 f7bd efa8 e33d
000003b0: 458f 6a3e efb5 03be 235a da3c fb10 203e
000003c0: 4844 b4bc 9bbc 733e a718 933d 52f0 793d
000003d0: 29e4 243e bc9b ab3d 696a 533e 995a 0a3e
000003e0: d93c 9e3d 66c0 e03d 7f19 283c 9588 0f3e
000003f0: 37df dbbc ce93 523d a867 873e 7d43 44bd

conv0.conv.bias f4 [32]
0.0035142845 0.004556522 -0.019727318 -0.00038666665 -0.001861517 -0.0021586856 0.04398769 -0.0053784666
0.011321015 -0.00035740458 0.0018769018 -0.00082876947 0.0053725094 -0.0056805606 -0.00027664733 -0.0041238554
-0.003922213 -0.040830187 0.034893196 0.0017797572 -0.0007248521 0.04864932 0.032596383 -0.005944135
-0.0066922684 -0.0027004802 0.006276785 0.0076324707 0.008614006 -0.01001942 -0.002827441 0.0022012466
00000000: e94f 663b e04e 953b 2f9b a1bc 85b9 cab9
00000010: 25fe f3ba bc78 0dbb 702c 343d d93d b0bb
00000020: c77b 393c 0862 bbb9 6002 f63a c741 59ba
00000030: e00b b03b ff23 babb fa0a 91b9 6821 87bb
00000040: e885 80bb 8e3d 27bd 2bec 0e3d be46 e93a
00000050: 0004 3eba 8244 473d c983 053d 05c7 c2bb
00000060: d14a dbbb 8afa 30bb 7dad cd3b ce19 fa3b
00000070: c321 0d3c 7e28 24bc 974c 39bb ca42 103b

conv0.bn.weight f4 [32]
0.89787614 0.64974225 0.6334782 0.7304189 0.6769602 0.55209243 0.6640437 0.7623643
0.88472456 0.8550244 0.72505873 0.5098488 0.68631023 0.90136915 0.686088 0.8479946
0.7002901 1.325337 0.7861481 0.70653254 0.7455921 0.90758437 0.8176175 0.631872
0.8528675 0.79179186 0.7861579 0.74722403 0.98016137 0.57817715 0.6756125 0.5678363
00000000: 36db 653f 8255 263f a12b 223f bcfc 3a3f
00000010: 434d 2d3f ee55 0d3f c5fe 293f 4f2a 433f
00000020: 4f7d 623f e1e2 5a3f 739d 393f 7385 023f
00000030: 07b2 2f3f 21c0 663f 77a3 2f3f 2d16 593f
00000040: 3646 333f a5a4 a93f 0041 493f 51df 343f
00000050: 20df 3e3f 7357 683f 614f 513f 5dc2 213f
00000060: 8655 5a3f dfb2 4a3f a541 493f 134a 3f3f
00000070: dbeb 7a3f 6b03 143f f1f4 2c3f b85d 113f

conv0.bn.bias f4 [32]
-0.5703189 -0.077559635 -0.16995057 -0.43754897 -0.20760876 -0.061447345 0.016412484 -0.30923164
-0.22471239 -0.42451844 -0.27085787 0.16580689 -0.1767279 -0.37205565 -0.31608164 -0.09745534
0.019555597 -0.21399292 -0.29522792 -0.25454253 -0.10119555 -0.016594574 -0.35704237 -0.35943723
-0.1911051 -0.40889898 -0.40852684 -0.15592305 -0.13276331 0.4843822 -0.29636037 -0.0781214
00000000: 6b00 12bf 96d7 9ebd 8607 2ebe 6b06 e0be
00000010: 6497 54be 36b0 7bbd 7973 863c 9c53 9ebe
00000020: 011b 66be 7b5a d9be e2ad 8abe 48c9 293e
00000030: 29f8 34be 147e bebe 74d5 a1be aa96 c7bd
00000040: 0f33 a03c f620 5bbe 1d28 97be 6653 82be
00000050: 9d3f cfbd 58f1 87bc 42ce b6be 2808 b8be
00000060: 0eb1 43be 355b d1be 6e2a d1be 4baa 1fbe
00000070: 1bf3 07be f200 f83e 8cbc 97be 1dfe 9fbd

conv0.bn.running_mean f4 [32]
0.333294 0.042730078 -0.19266158 -0.16569602 -0.110985264 -0.073652714 -0.25998378 0.36501682
-0.2663327 -0.13298452 -0.03326059 -0.01805405 -0.08025854 -0.050193116 0.06173632 0.30566335
0.18083717 -0.2866306 -0.19865505 -0.09828151 0.012532294 -0.07855191 -0.1974332 0.088814445
-0.10754122 -0.1161328 -0.08186144 -0.09098131 0.28192434 0.12314082 -0.11138601 0.27173293
00000000: 83a5 aa3e bc05 2f3d 1449 45be 38ac 29be
00000010: 3e4c e3bd 3cd7 96bd 981c 85be 7ce3 ba3e
00000020: c25c 88be 182d 08be 423c 08bd 16e6 93bc
00000030: 975e a4bd 4c97 4dbd 39df 7c3d e87f 9c3e
00000040: 612d 393e 3fc1 92be 3b6c 4bbe d147 c9bd
00000050: 4054 4d3c d3df a0bd ee2b 4abe 59e4 b53d
00000060: 923e dcbd 09d7 edbd f8a6 a7bd 6954 babd
00000070: 6358 903e 4131 fc3d 591e e4bd 9420 8b3e

conv0.bn.running_var f4 [32]
0.12171212 0.16280983 0.23980892 0.1528145 0.2187294 0.19152948 0.30177808 0.14012319
0.22202374 0.17133816 0.14574629 0.16592853 0.14625277 0.111033335 0.16194446 0.14402239
0.11459229 0.1876994 0.21634245 0.14916581 0.27773717 0.16313046 0.15816247 0.15758118
0.13981242 0.17898998 0.13722381 0.13420236 0.16172165 0.11767804 0.15763648 0.1828024
00000000: 3444 f93d 9fb7 263e 7890 753e 677b 1c3e
00000010: 9afa 5f3e 4e20 443e a882 9a3e 747c 0f3e
00000020: 315a 633e 4573 2f3e 843e 153e 2be9 293e
00000030: 49c3 153e 7265 e33d c5d4 253e 9b7a 133e
00000040: 5daf ea3d 4634 403e e088 5d3e ecbe 183e
00000050: 9133 8e3e ac0b 273e 58f5 213e f65c 213e
00000060: fd2a 0f3e 2649 373e 6684 0c3e 586c 093e
00000070: 5c9a 253e 2f01 f13d 756b 213e 8d30 3b3e

blocks.0.conv.weight f4 [32, 32, 3, 3]
0.1886987 -0.14025003 0.21222384 -0.38990352 0.11278362 -0.23191535 0.16782205 -0.014781565
0.12845366 0.08456089 -0.036290407 -0.38130406 -0.13670926 -0.08778176 0.05719906 -0.0106680915
-0.090974644 -0.17043206 0.185491 -0.09375116 0.11436367 0.051195163 -0.23532915 -0.10215862
0.12388336 0.08945136 0.0804048 0.18434796 0.10056568 0.03752656 -0.11339654 0.16214317
-0.057786196 -0.08273339 -0.30210945 0.26192445 -0.011719603 0.2851009 -0.12343335 0.021914868
0.124746814 -0.07681482 -0.1550514 0.09086078 -0.17678605 0.016946131 -0.22270444 0.16723582
-0.015572484 -0.122311674 0.11103531 0.08427064 0.23469119 0.23613396 0.106823266 -0.12786129
-0.03851092 -0.05335915 0.08008227 -0.29854196 0.048069958 0.05238313 -0.30545098 0.27133614
0.3126285 0.3224881 0.085853614 0.3014719 0.001594643 0.04481908 0.14090385 0.15216276
0.061694786 -0.62661976 0.07656699 -0.09362282 0.2813204 0.1999836 0.0832042 0.33151582
-0.0006375705 -0.13085519 -0.057790264 -0.01799741 -0.074642286 0.51637846 0.090470694 0.025749687
-0.059524335 -0.01868541 0.0025977038 -0.000522305 0.030848235 -0.13491617 0.060298633 -0.23639122
0.22709148 0.22633578 0.1197302 0.17430925 0.021747047 0.34811664 -0.33383885 0.0842299
0.07554344 0.22125836 -0.24104182 -0.07302861 -0.48276758 -0.05535089 0.031698003 0.11991552
0.11071371 0.17004775 -0.071545765 0.3519485 0.019309059 -0.12197631 -0.15206732 -0.37058055
0.10252079 -0.51125944 -0.28935853 -0.033249147 -0.121807694 0.14297552 -0.1400088 0.13600424
-0.35120258 -0.00168424 -0.13028319 -0.07585462 -0.04141397 -0.120946616 0.029766718 0.21901356
0.1170676 0.13751213 0.16947953 -0.0049017416 0.03919937 0.067475155 0.09764636 0.124424115
0.052550904 0.13656525 0.021308742 0.19193189 -0.20751159 0.10766878 0.07480042 0.18409464
0.13504566 -0.050485544 0.18316993 0.049172934 0.17459087 -1.4627105 0.29982573 0.2002108
-0.040401716 0.09743447 -0.10716217 -0.28184435 0.33612496 0.31864712 -0.2886751 0.002448358
-0.5403974 0.22278126 0.15748672 0.11395418 -0.2122859 -0.08394084 -0.05190477 -0.11910085
-0.0017062345 -0.09007912 -0.23211181 -0.07375895 -0.018368954 -0.08182644 -0.0019465422 0.12293728
-0.31596467 -0.09751168 -0.069753505 -0.15281647 -0.107725546 0.10412445 0.1052091 0.079382025
0.061748948 -0.23961781 0.283788 0.2177937 0.19635873 0.10354971 0.025915869 -0.057962958
0.08865851 -0.26377174 0.45642292 0.32816884 0.07216963 -0.4573175 -0.07591018 0.12501803
-0.044145487 0.119557425 -0.08137095 -0.08547293 0.18798158 -0.13620242 0.031970974 0.30269653
0.18691684 5.456802e-06 0.07062813 0.039414264 -0.016732762 -0.061857324 0.11825253 0.094914205
0.117808685 0.14969422 -0.064468145 0.09513426 0.0020744994 0.18517013 -0.30490822 -0.23520538
-0.043057483 0.18242678 0.038608223 -0.1012675 0.07681376 -0.21332198 -0.31648234 0.06536035
0.02364381 0.48207 -0.23405015 0.19293551 -0.21408696 -0.05811645 0.11298119 -0.14699538
-0.19857071 0.12422585 0.08486619 0.06095038 0.18584207 -0.2224667 0.044661447 -0.18866508
00000000: 3b3a 413e b49d 0fbe 3551 593e 6fa1 c7be
00000010: 19fb e63d 387b 6dbe 8bd9 2b3e 612e 72bc
00000020: 5b89 033e 432e ad3d 40a5 14bd 493a c3be
00000030: 83fd 0bbe ecc6 b3bd 9049 6a3d 38c9 2ebc
00000040: ea50 babd be85 2ebe 5af1 3d3e 9c00 c0bd
00000050: 8037 ea3d 05b2 513d 20fa 70be 8a38 d1bd
00000060: 8fb6 fd3d 4632 b73d 46ab a43d b6c5 3c3e
00000070: 61f5 cd3d 73b5 193d 723c e8bd dc08 263e
00000080: 38b1 6cbd 2070 a9bd 17ae 9abe f61a 863e
00000090: 9403 40bc bff8 913e a0ca fcbd cf86 b33c
000000a0: 427b ff3d 1751 9dbd cbc5 1ebe 3715 ba3d
000000b0: 6707 35be 9dd2 8a3c a20c 64be de3f 2b3e
000000c0: bb23 7fbc 8b7e fabd 7b66 e33d 1696 ac3d
000000d0: e352 703e 1acd 713e 28c6 da3d 12ee 02be
000000e0: a0bd 1dbd 208f 5abd 2c02 a43d 7eda 98be
000000f0: 01e5 443d b18f 563d 1264 9cbe 92ec 8a3e
00000100: d810 a03e 291d a53e 05d4 af3d 865a 9a3e
00000110: 5703 d13a 3694 373d 1949 103e 8ed0 1b3e
00000120: acb3 7c3d 276a 20bf 27cf 9c3d 52bd bfbd
00000130: 3a09 903e 80c8 4c3e f766 aa3d 71bc a93e
00000140: a222 27ba e7fe 05be 7cb5 6cbd 4e6f 93bc
00000150: 0ede 98bd 6131 043f b348 b93d 02f1 d23c
00000160: cacf 73bd 2512 99bc 3d3e 2a3b 4ceb 08ba
00000170: 70b5 fc3c 7727 0abe b3fb 763d 8a10 72be
00000180: ab8a 683e 91c4 673e 1b35 f53d 207e 323e
00000190: dd26 b23c 583c b23e edec aabe ba80 ac3d
000001a0: 85b6 9a3d 8d91 623e abd3 76be 0690 95bd
000001b0: 502d f7be 9db7 62bd c4d5 013d 4596 f53d
000001c0: dfbd e23d ff20 2e3e 9686 92bd 9832 b43e
000001d0: 082e 9e3c b7ce f9bd 89b7 1bbe bcbc bdbe
000001e0: 6cf6 d13d e6e1 02bf cd26 94be 4230 08bd
000001f0: 5076 f9bd 2d68 123e 785e 0fbe b244 0b3e
00000200: d3d0 b3be b7c1 dcba f568 05be ab59 9bbd
00000210: b2a1 29bd dcb2 f7bd 55d9 f33c 1745 603e
00000220: 23c1 ef3d fbcf 0c3e 0b8c 2d3e ca9e a0bb
00000230: 858f 203d 6a30 8a3d d1fa c73d 12d2 fe3d
00000240: 9e3f 573d c3d7 0b3e ac8f ae3c cb89 443e
00000250: eb7d 54be 7381 dc3d f630 993d 4e83 3c3e
00000260: 6949 0a3e eec9 4ebd e690 3b3e 8f69 493d
00000270: f3c7 323e 193a bbbf c282 993e 0f04 4d3e
00000280: 457c 25bd b98b c73d d777 dbbd e74d 90be
00000290: 9218 ac3e b725 a33e 39cd 93be a274 203b
000002a0: 7c57 0abf c520 643e 3344 213e cf60 e93d
000002b0: 7a61 59be 2de9 abbd 199a 54bd 25eb f3bd
000002c0: bba3 dfba 677b b8bd b8ae 6dbe ef0e 97bd
000002d0: 7d7a 96bc 9f94 a7bd 1e23 ffba 8ac6 fb3d
000002e0: 1fc6 a1be 34b4 c7bd edda 8ebd ec7b 1cbe
000002f0: 369f dcbd 333f d53d de77 d73d 0b93 a23d
00000300: 77ec 7c3d 5f5e 75be a94c 913e 5005 5f3e
00000310: 4312 493e df11 d43d 844d d43c 916a 6dbd
00000320: 9892 b53d 170d 87be 44b0 e93e bf05 a83e
00000330: accd 933d 8525 eabe cc76 9bbd ba04 003e
00000340: e6d1 34bd 86da f43d d0a5 a6bd 6e0c afbd
00000350: 3e7e 403e a678 0bbe fff3 023d 0afb 9a3e
00000360: 2167 3f3e 9219 b736 7ba5 903d da70 213d
00000370: 2513 89bc 1b5e 7dbd 622e f23d 6162 c23d
00000380: ae45 f13d 7149 193e e007 84bd c0d5 c23d
00000390: 53f4 073b 3d9d 3d3e ee1c 9cbe aed9 70be
000003a0: 0b5d 30bd 16ce 3a3e a823 1e3d 5665 cfbd
000003b0: 8850 9d3d 1471 5abe f909 a2be a6db 853d
000003c0: aab0 c13c e1d1 f63e d8aa 6fbe e390 453e
000003d0: 9d39 5bbe 840b 6ebd af62 e73d f585 16be
000003e0: 1f56 4bbe 1f6a fe3d 53ce ad3d 1ba7 793d
000003f0: 624d 3e3e 50ce 63be ecee 363d 6b31 41be

blocks.0.conv.bias f4 [32]
0.0017348293 0.015145516 0.00088602415 0.0005361025 0.0027531015 0.0068246606 -0.0060344357 0.00754483
-1.0363134e-05 0.009889783 -0.002180316 0.0010577621 0.0004310091 -0.00043072933 -3.7156973e-05 -0.0012432899
0.001383462 0.010851005 -0.0010383396 -7.334801e-05 -0.0019575679 -8.6575994e-05 -0.0006530229 -0.00034504946
0.01206456 0.0016517522 0.0009014896 0.005940927 -0.0012006668 -0.00061250705 -0.0077819303 -0.0067847096
00000000: 3663 e33a e624 783c 1344 683a 3b89 0c3a
00000010: 616d 343b 67a1 df3b 84bc c5bb 9f3a f73b
00000020: 52dd 2db7 c208 223c a2e3 0ebb 9ba4 8a3a
00000030: 10f9 e139 83d3 e1b9 ffd8 1bb8 e3f5 a2ba
00000040: 4855 b53a 6ac8 313c e518 88ba 6ad2 99b8
00000050: 8a4a 00bb 2290 b5b8 a02f 2bba c1e7 b4b9
00000060: 6faa 453c 9b7f d83a f151 6c3a 1cac c23b
00000070: b15f 9dba a790 20ba 90ff febb 4552 debb

blocks.0.bn.weight f4 [32]
0.84719783 0.8382187 0.7928853 0.985482 1.1085465 0.6959397 0.756521 0.8445355
0.9103481 1.0967418 0.8325142 0.96618605 0.915072 0.8529357 0.79852176 0.82910526
1.1030765 1.0625395 0.9130268 1.047076 0.89805037 0.78445 1.0327469 0.8774245
0.8616322 0.83699214 1.0236512 1.2164388 0.66554755 0.69560295 0.62757397 0.9328614
00000000: f5e1 583f 8095 563f 88fa 4a3f 8c48 7c3f
00000010: dae4 8d3f 1b29 323f 5cab 413f 7b33 583f
00000020: 930c 693f 0962 8c3f a71f 553f f857 773f
00000030: 2942 6a3f fe59 5a3f ec6b 4c3f 3e40 543f
00000040: 9c31 8d3f 4b01 883f 20bc 693f 9606 863f
00000050: a1e6 653f b7d1 483f 0d31 843f e49e 603f
00000060: ee93 5c3f 1e45 563f 0107 833f 44b4 9b3f
00000070: 5361 2a3f 0913 323f b0a8 203f 01d0 6e3f

blocks.0.bn.bias f4 [32]
-0.54014283 -0.43669897 0.02462658 -0.11003784 -0.35336745 -0.2412779 -0.25880823 -0.32027802
-0.4027932 -0.30171493 -0.5081739 -0.5977625 -0.5246889 -0.5447484 -0.17406121 -0.5762778
-0.45377824 -0.33156732 -0.21416837 -0.58885574 -0.40785664 -0.19937249 -0.74855846 -0.37497512
-0.018031714 -0.47886857 -0.37371442 -0.5621877 -0.56977147 -0.30510604 -0.043727025 -0.80740136
00000000: cd46 0abf 0297 dfbe aebd c93c 855b e1bd
00000010: 94ec b4be 8e11 77be 8382 84be 7bfb a3be
00000020: e93a cebe 617a 9abe af17 02bf f706 19bf
00000030: 0352 06bf a274 0bbf 1a3d 32be f186 13bf
00000040: 9f55 e8be 31c3 a9be f44e 5bbe 40bf 16bf
00000050: 96d2 d0be 4d28 4cbe 87a1 3fbf bdfc bfbe
00000060: 3fb7 93bc 432e f5be 7f57 bfbe 88eb 0fbf
00000070: 8bdc 11bf dc36 9cbe 1c1b 33bd dbb1 4ebf

blocks.0.bn.running_mean f4 [32]
0.6391787 -3.5300057 2.034692 -0.010440983 -1.0284791 -3.6742756 -2.5015893 -1.5177201
0.6840773 -1.8438388 -1.982652 -1.6454198 -2.0661025 1.156362 1.6744212 -0.09953106
0.091090895 -1.3004208 1.6620712 -0.437458 -0.032943025 -1.2861221 -1.1461123 0.9993299
-1.4226161 -1.1636738 -0.092199944 -0.99148244 -3.274278 -0.112146504 0.4321157 -3.2299013
00000000: 37a1 233f 9deb 61c0 6538 0240 a810 2bbc
00000010: 34a5 83bf 5527 6bc0 0a1a 20c0 a744 c2bf
00000020: b11f 2f3f e902 ecbf 8ac7 fdbf 1e9d d2bf
00000030: 063b 04c0 ac03 943f 6f53 d63f f1d6 cbbd
00000040: dd8d ba3d 3074 a6bf c0be d43f 7ffa dfbe
00000050: 44ef 06bd a69f a4bf cfb3 92bf 16d4 7f3f
00000060: 4918 b6bf 43f3 94bf 53d3 bcbd cbd1 7dbf
00000070: c58d 51c0 11ad e5bd 453e dd3e b4b6 4ec0

blocks.0.bn.running_var f4 [32]
2.1737847 3.2153516 6.334088 2.961065 5.1446 6.3362994 6.7774324 2.620078
2.4152853 2.1401532 2.863611 3.01334 2.4857726 2.6411295 5.434893 2.1897922
2.5092087 5.288869 2.262729 2.331542 2.0350664 4.19332 3.0444107 3.1820273
5.9574513 2.7387834 2.5028331 3.4129567 5.4620495 2.1410995 3.1694672 3.089713
00000000: 4a1f 0b40 52c8 4d40 d9b0 ca40 1782 3d40
00000010: 90a0 a440 f7c2 ca40 bae0 d840 5caf 2740
00000020: 0994 1a40 45f8 0840 6745 3740 90da 4040
00000030: e616 1f40 4408 2940 a5ea ad40 8e25 0c40
00000040: e096 2040 6a3e a940 8dd0 1040 fc37 1540
00000050: 873e 0240 ad2f 8640 a0d7 4240 56a6 4b40
00000060: 71a3 be40 3a48 2f40 6b2e 2040 e26d 5a40
00000070: 1cc9 ae40 c607 0940 8dd8 4a40 dcbd 4540

blocks.1.conv.weight f4 [32, 32, 3, 3]
0.034140743 0.061915435 0.10982023 -0.45272425 0.16988973 -0.1066392 0.04658138 -0.41196027
0.073456906 0.11249859 0.14944012 -0.34119183 -0.12096914 0.057272773 -0.1883164 -0.15962103
0.19531275 0.11703119 -0.023987157 -0.34089932 0.15870006 -0.29937902 -0.7308515 -0.17845508
-0.012220182 0.24454844 0.17842303 0.355674 -0.01875462 -0.018120507 -0.3983215 0.28057215
-0.17134067 -0.26477513 -0.57078946 -0.2015619 0.033949215 0.1639744 -0.20193881 0.15471894
-0.03645927 -0.0004590415 0.06268981 -0.10280431 0.10140462 -0.24488302 -0.09039561 0.19091913
0.0063291416 0.081335336 0.16320261 0.07764767 0.060741182 0.39900932 -0.19006303 0.075173266
-0.1876178 -0.2736209 -0.0044982824 -0.2969785 -0.049323846 0.12567823 -0.03517454 -0.04000005
-0.6747943 -0.006971194 -0.07868736 0.15538342 -0.42299214 0.010574565 -0.13966757 0.055273253
0.19779032 -0.1727925 -0.18751529 0.046154607 0.020546755 0.0018805511 -0.2868784 -0.2983988
0.3401985 -0.031233706 -0.065190196 -0.31436965 0.47200128 0.08558687 -0.30507416 0.07351451
-0.1739294 -0.042017404 -0.010979879 -0.1726322 -0.01962405 0.013844459 -0.066421784 0.09663971
0.23559123 -0.0025165912 -0.0303547 0.047396637 0.08789802 -0.09791774 -0.24359414 -0.07523377
-0.08009405 -0.0010425335 -0.43957806 -0.058036797 -0.06292657 0.26662526 -0.17612672 0.059468642
0.41109118 -0.079238966 -0.112755485 -0.06947426 0.27820143 -0.23966734 -0.44249228 -0.20962611
-0.20936415 -0.458365 0.093883194 -0.11540376 0.1846015 -0.0780746 0.24878351 -0.18860835
-0.18944214 0.21264519 -0.23525591 0.19004458 0.017678566 -0.20121475 0.04412255 -0.14678884
-0.039340723 0.13027999 -0.21224327 0.12911096 -0.122692406 -0.050032154 -0.15937641 0.047302507
0.362154 -0.430621 0.006485157 -0.046690263 -0.26595443 0.0037193066 0.106034935 -0.069496244
-0.0432858 0.11361248 -0.12967587 -0.12110314 -0.33682826 -0.8974216 -0.020804433 0.11716352
-0.3247303 -0.1388466 0.06775407 0.07365887 0.13693114 0.06975236 0.01467107 0.030696467
0.024955021 0.17946324 0.00472734 -0.2257108 -0.14167964 -0.027121197 -0.12043431 0.16754074
0.19489083 -0.5349326 -0.21170343 -0.43963608 0.05510948 -0.35715252 0.18921612 -0.1525729
-0.23100388 0.2562347 0.016475841 -0.02266219 -0.10620625 0.09178757 0.024439147 -0.32007474
0.00067975285 -0.29899427 -0.08098677 -0.096918784 0.007328497 -0.20440891 0.05524776 -0.23995277
0.21995553 0.08573176 -0.1369863 0.09893573 -0.10576489 -0.242622 0.035904802 -0.09294869
-0.116635196 0.08394965 -0.3101379 -0.48256862 -0.025203574 0.037188523 -0.24896078 -0.35126275
0.102701426 0.027374776 -0.2907175 -0.060028102 -0.19555117 -0.20569652 0.076592244 0.23938403
-0.097088836 -0.115092315 0.028344918 0.1596649 -0.2462062 -0.115937464 -0.19424911 -0.2797521
0.15309311 -0.022337755 0.098021954 0.10977103 0.33625448 -0.30333874 -0.18768747 -0.062187985
-0.2601947 -0.044713207 -0.20964453 0.16940035 0.08007634 -0.09104107 -0.12999925 -0.2398269
0.41841096 0.08627152 0.006569724 -0.034646332 -0.16110499 -0.034939535 0.16075349 -0.41213313
00000000: 2ad7 0b3d 0a9b 7d3d 6ee9 e03d 79cb e7be
00000010: 93f7 2d3e a765 dabd 1ecc 3e3d 75ec d2be
00000020: 9370 963d a965 e63d d506 193e b2b0 aebe
00000030: abbe f7bd db96 6a3d 04d6 40be b273 23be
00000040: 1100 483e 0cae ef3d b780 c4bc 5b8a aebe
00000050: 4582 223e 3548 99be 1519 3bbf eebc 36be
00000060: 2937 48bc e86a 7a3e 87b4 363e e71a b63e
00000070: 4aa3 99bc 7571 94bc ccf0 cbbe 27a7 8f3e
00000080: ee73 2fbe 9b90 87be 421f 12bf 3e66 4ebe
00000090: 550e 0b3d e8e8 273e 0cc9 4ebe a46e 1e3e
000000a0: 5156 15bd 82ab f0b9 8463 803d 118b d2bd
000000b0: 3aad cf3d 9dc2 7abe 5521 b9bd 4e80 433e
000000c0: b064 cf3b 2493 a63d 961e 273e be05 9f3d
000000d0: bfcb 783d f34a cc3e e29f 42be 71f4 993d
000000e0: e11e 40be 0a18 8cbe 5466 93bb 910d 98be
000000f0: cd07 4abd cbb1 003e 2e13 10bd 18d7 23bd
00000100: 52bf 2cbf 9d6e e4bb d726 a1bd d51c 1f3e
00000110: 6d92 d8be f140 2d3c 0405 0fbe 3566 623d
00000120: 8c89 4a3e 84f0 30be 0204 40be 9d0c 3d3d
00000130: ab51 a83c d37c f63a bae1 92be bac7 98be
00000140: 7f2e ae3e d4dd ffbc 7082 85bd 0ff5 a0be
00000150: 27aa f13e 2b48 af3d ae32 9cbe c78e 963d
00000160: 8c1a 32be 711a 2cbd f3e4 33bc 7fc6 30be
00000170: 9ec2 a0bc dfd3 623c 2508 88bd 0aeb c53d
00000180: d43e 713e 65ed 24bb 6baa f8bc fa22 423d
00000190: e103 b43d 1989 c8bd be70 79be 2a14 9abd
000001a0: 5908 a4bd 9fa5 88ba 6010 e1be feb7 6dbd
000001b0: a5df 80bd 1b83 883e 905a 34be 6495 733d
000001c0: 8b7a d23e 0a48 a2bd 59ec e6bd 8548 8ebd
000001d0: 6b70 8e3e 5b6b 75be 598e e2be 3aa8 56be
000001e0: 8e63 56be d1ae eabe d545 c03d ce58 ecbd
000001f0: 2d08 3d3e 93e5 9fbd 1bc1 7e3e 8c22 41be
00000200: 1ffd 41be a9bf 593e ede6 70be 0c9b 423e
00000210: a4d2 903c 3d0b 4ebe d9b9 343d d04f 16be
00000220: bd23 21bd 1e68 053e 4d56 59be aa35 043e
00000230: 2846 fbbd 84ee 4cbd 9233 23be 46c0 413d
00000240: 406c b93e 5b7a dcbe 7181 d43b 4a3e 3fbd
00000250: 2e2b 88be 9cbf 733b d828 d93d 0c54 8ebd
00000260: 734c 31bd a9ad e83d c0c9 04be ec04 f8bd
00000270: c174 acbe 6cbd 65bf 0f6e aabc 6df3 ef3d
00000280: 0d43 a6be ce2d 0ebe a5c2 8a3d 76da 963d
00000290: ad37 0c3e 53da 8e3d ed5e 703c 2877 fb3c
000002a0: 796e cc3c 36c5 373e cde7 9a3b bb20 67be
000002b0: 7814 11be 462d debc 43a6 f6bd cd8f 2b3e
000002c0: 7691 473e 58f1 08bf c9c8 58be fb17 e1be
000002d0: 7aba 613d b2dc b6be dfc1 413e 123c 1cbe
000002e0: 488c 6cbe 3231 833e 58f8 863c 0fa6 b9bc
000002f0: aa82 d9bd 1ffb bb3d 9b34 c83c d6e0 a3be
00000300: 7131 323a c715 99be 64dc a5bd 5b7d c6bd
00000310: e323 f03b 9250 51be 7a4b 623d 2eb6 75be
00000320: 063c 613e 2294 af3d 2346 0cbe d19e ca3d
00000330: 439b d8bd e771 78be ea10 133d e25b bebd
00000340: 6fde eebd cbed ab3d 65ca 9ebe 3c13 f7be
00000350: ba77 cebc fe52 183d 93ef 7ebe b6d8 b3be
00000360: 2055 d23d 1141 e03c edd8 94be 07e0 75bd
00000370: 913e 48be 1ca2 52be 65dc 9c3d 1621 753e
00000380: 83d6 c6bd 85b5 ebbd 9a33 e83c 327f 233e
00000390: 7a1d 7cbe 9f70 edbd 3de9 46be ab3b 8fbe
000003a0: 71c4 1c3e abfd b6bc bcbf c83d a2cf e03d
000003b0: 8c29 ac3e 374f 9bbe 2531 40be d4b8 7ebd
000003c0: 3d38 85be 3225 37bd 0ead 56be 4977 2d3e
000003d0: 10ff a33d be73 babd 861e 05be 2f95 75be
000003e0: f639 d63e 1faf b03d d746 d73b 50e9 0dbd
000003f0: b5f8 24be c21c 0fbd 909c 243e 1d03 d3be

blocks.1.conv.bias f4 [32]
0.00452743 0.0010506385 -0.0004182823 -0.011645917 0.00982907 0.008260687 2.939333e-05 0.00036652395
-0.01190552 0.0008001736 0.0012496368 0.00034964646 -0.006508153 0.00055780425 0.0044463607 -0.0030933728
-9.497087e-05 -0.0008583835 0.0012706997 -0.014683291 -0.0034793522 -0.000110088666 -0.00035697295 -0.00029766222
-0.005543256 -0.009557206 -0.006779784 -0.011741716 -1.7048815e-05 0.0015671476 -0.00047877492 0.00032370427
00000000: d65a 943b 94b5 893a e64c dbb9 84ce 3ebc
00000010: 1c0a 213c d557 073c b291 f637 032a c039
00000020: 5f0f 43bc bec2 513a daca a33a c150 b739
00000030: 5842 d5bb 9c39 123a c7b2 913b 2fba 4abb
00000040: 192b c7b8 2405 61ba 9b8d a63a 3092 70bc
00000050: d805 64bb 67df e6b8 1928 bbb9 8c0f 9cb9
00000060: 34a4 b5bb d495 1cbc f328 debb 5460 40bc
00000070: 0d04 8fb7 bf68 cd3a 1504 fbb9 dab6 a939

blocks.1.bn.weight f4 [32]
0.6902863 0.9281306 0.7144676 0.9078601 1.0229654 0.8241979 0.7353333 0.75037473
1.0311093 0.87672395 0.97606164 0.9710445 1.157094 0.85360646 1.1155955 0.9136825
1.181866 0.81796825 0.8747484 0.8838236 0.8880473 0.83813566 1.166681 1.1082877
0.83864856 1.1064233 1.0505427 0.82982874 0.80559516 0.81610525 0.51953804 1.1760654
00000000: 9ab6 303f f899 6d3f 59e7 363f 8569 683f
00000010: 88f0 823f a2fe 523f ce3e 3c3f 8f18 403f
00000020: 64fb 833f fb70 603f 2ddf 793f 5f96 783f
00000030: a81b 943f f485 5a3f d5cb 8e3f 19e7 693f
00000040: 6347 973f 5e66 513f 83ef 5f3f 4342 623f
00000050: 1157 633f 0f90 563f ce55 953f 5fdc 8d3f
00000060: acb1 563f 479f 8d3f 2f78 863f a86f 543f
00000070: 7c3b 4e3f 46ec 503f 7200 053f 5089 963f

blocks.1.bn.bias f4 [32]
-0.25345707 -0.4123793 -0.06437687 -0.33518612 -0.16279988 -0.23408236 -0.34081957 -0.4850437
-0.49220258 -0.31586954 -0.46506792 -0.66878116 -0.5061483 -0.3427314 -0.36960566 -0.40062872
-0.5807658 -0.44164824 -0.49963436 -0.5582889 -0.63124394 -0.42860886 -0.6261442 -0.20213942
-0.7763505 -0.15028405 -0.34732214 -0.35223076 -0.27898905 -0.66769314 -0.09647935 -0.3797263
00000000: 20c5 81be 6123 d3be 05d8 83bd 849d abbe
00000010: 03b5 26be 49b3 6fbe e77f aebe a657 f8be
00000020: fa01 fcbe a7b9 a1be 621d eebe 3e35 2bbf
00000030: ef92 01bf 7d7a afbe f43c bdbe 351f cdbe
00000040: 11ad 14bf b81f e2be 13d0 ffbe 05ec 0ebf
00000050: 3499 21bf 9f72 dbbe fc4a 20bf a3fd 4ebe
00000060: e8be 46bf 10e4 19be 35d4 b1be 9757 b4be
00000070: a7d7 8ebe f0ed 2abf f796 c5bd 7c6b c2be

blocks.1.bn.running_mean f4 [32]
-5.1879387 -2.2081168 -0.7362035 -3.425385 -2.5831187 -0.38363716 2.9928331 -2.0525146
-3.6352394 -0.15707454 0.3115265 0.7233318 -1.2241583 0.91909546 -1.7087547 -2.8682907
-2.6082265 0.77293694 -2.6436172 -1.9092778 -1.9161882 -1.1630377 -2.620286 -1.9766175
-1.7346121 0.16031136 -1.6451534 -2.7162197 1.2687098 -1.8824825 1.801169 -1.3516331
00000000: 9803 a6c0 c951 0dc0 d577 3cbf 8239 5bc0
00000010: d151 25c0 176c c4be 948a 3f40 665c 03c0
00000020: c3a7 68c0 26d8 20be 6780 9f3e 462c 393f
00000030: 38b1 9cbf d749 6b3f 79b8 dabf 1392 37c0
00000040: 2fed 26c0 32df 453f 0631 29c0 3763 f4bf
00000050: a845 f5bf 6bde 94bf c4b2 27c0 cd01 fdbf
00000060: c507 debf a928 243e 6394 d2bf 8bd6 2dc0
00000070: 1565 a23f 30f5 f0bf b58c e63f 5002 adbf

blocks.1.bn.running_var f4 [32]
7.9605026 7.948495 6.161673 12.199998 16.71857 8.959787 7.803347 5.474758
10.4674835 6.8691053 8.818022 5.7158146 8.7293005 6.5721726 8.579325 8.081851
6.078427 8.2206545 5.7972994 6.0305085 8.085859 7.1465206 6.910722 9.592423
4.6522703 7.559849 6.5594068 10.124002 22.840015 7.174505 13.621529 5.161499
00000000: 70bc fe40 125a fe40 6d2c c540 3133 4341
00000010: a2bf 8541 4a5b 0f41 05b5 f940 3831 af40
00000020: d07a 2741 b6cf db40 9e16 0d41 f4e7 b640
00000030: 37ab 0b41 3d4f d240 ea44 0941 434f 0141
00000040: 7982 c240 cd87 0341 7a83 b940 edf9 c040
00000050: ae5f 0141 4cb0 e440 a224 dd40 917a 1941
00000060: 66df 9440 48ea f140 a9e6 d140 eafb 2141
00000070: 5ab8 b641 8c95 e540 c8f1 5941 002b a540

blocks.2.conv.weight f4 [32, 32, 3, 3]
0.05802757 0.16708785 -0.06720523 -0.022194427 -0.042610303 -0.17352694 -0.29844657 -0.18566462
-0.024312226 -0.1318824 -0.06301516 -0.37297845 -0.26731145 -0.042143766 -0.2482555 0.028657438
-0.105009355 0.10820089 -0.113150984 0.024592793 0.1225133 0.023117581 -0.20035185 -0.032007657
0.116417214 -0.07217763 -0.2965917 0.1999438 -0.052408945 0.15853344 0.13937372 -0.20151637
-0.037408043 0.050190974 0.2964677 0.43569586 0.03497701 0.023003515 0.550076 0.031648744
0.25064394 0.36351237 0.068267316 0.26227042 0.43150285 -0.1717975 0.112260744 0.3484686
0.12577347 0.23635666 0.2530223 0.008899706 -0.2023251 -0.16355292 -0.16791108 0.09521205
0.15171033 -0.13059594 -0.016158352 -0.08568237 -0.17510419 0.15437919 -0.15811212 -0.018719923
-0.5283392 0.105334125 -0.08927556 -0.16408823 -0.30069935 -0.31297946 -0.13077444 0.087677024
0.08318142 -0.050035205 0.117161885 0.16158435 0.12948482 0.09153426 0.48412406 -0.34520495
-0.107308686 -0.012396662 0.25412288 -0.34096965 -0.029434796 -0.15048154 -0.40260223 -0.31398782
-0.23303446 -0.03613801 -0.3615931 -0.40467402 0.0711651 -0.19459574 -0.024472259 0.010721347
0.15251404 0.044703983 -0.23890892 0.07598772 0.0813432 0.14065222 0.068272024 0.30557314
-0.20316981 0.14898859 -0.34132314 0.25585607 -0.03705724 -0.27404833 -0.032215565 0.20909312
0.27505955 -0.08533953 0.03211181 0.14039035 0.19660169 -0.09360984 -0.2937423 -0.12898946
-0.18454656 -0.13141184 0.062133417 -0.24937159 -0.26942405 -0.033997536 -0.26759258 -0.2661746
-0.44779342 -0.1211408 -0.14867087 -0.013635269 -0.2694684 0.43492258 -0.22394942 -0.20006514
-0.12965724 -0.052699585 -0.02821848 -0.045259435 -0.1846475 0.15271273 -0.16890877 0.28454128
-0.05404515 0.08568992 -0.045324784 -0.10031778 -0.20410399 0.032422587 0.34531724 -0.04884939
0.17014755 -0.041770652 0.097954355 -0.05634132 -0.070856065 -0.09993213 0.24521427 -0.17974937
-0.32741225 -0.023273142 -0.07084856 0.4149408 0.0601849 0.078023374 0.32892784 0.20260283
0.014043954 0.17081732 0.024420623 -0.14396662 -0.30057684 0.107391484 -0.1690198 0.008009044
0.14887878 -0.2509858 -0.084064804 -0.244134 -0.055824675 0.044395432 0.48178202 0.11004286
-0.009714896 0.105567895 0.2292654 0.19711395 -0.30602422 0.07208694 0.03351963 0.022988236
0.29925427 0.0956628 -0.2211839 -0.07064592 0.13706693 0.061105255 0.19686565 -0.11026428
-0.21842404 -0.15367354 0.28717247 -0.38890427 -0.44602895 -0.05811827 -0.5588295 -0.15904322
0.1861921 0.15694357 -0.31183043 -0.16693743 -0.00790587 -0.32339224 -0.24463287 -0.052263368
0.15376809 0.107621975 -0.24588701 -0.011334356 0.39314967 -0.0176826 -0.15437445 -0.1987299
-0.016436601 0.058686864 0.16844021 -0.25334832 0.23918293 0.105088875 -0.14456601 0.37587234
0.09108755 -0.063315265 -0.1579546 0.093641676 0.05855834 -0.12274 -0.00079219474 -0.038419947
0.5008317 0.08791089 0.19516437 -0.07646382 0.027385153 0.27977714 -0.06413289 -0.038678583
-0.0077106054 -0.17222375 0.018418258 0.14573304 0.13296434 -0.033829123 -0.005133696 -0.2230746
00000000: 51ae 6d3d 1419 2b3e e5a2 89bd 16d1 b5bc
00000010: 2488 2ebd 0cb1 31be fdcd 98be de1e 3ebe
00000020: 6f2a c7bc 2e0c 07be 180e 81bd 08f7 bebe
00000030: 0cdd 88be f19e 2cbd b136 7ebe 01c3 ea3c
00000040: 250f d7bd 6e98 dd3d b4bb e7bd d376 c93c
00000050: 41e8 fa3d 1561 bd3c 0929 4dbe 761a 03bd
00000060: 266c ee3d ded1 93bd deda 97be 11be 4c3e
00000070: c3aa 56bd 9756 223e fcb7 0e3e 4f5a 4ebe
00000080: 2d39 19bd 0d95 4d3d 9dca 973e 8713 df3e
00000090: 0e44 0f3d de71 bc3c c8d1 0c3f 1da2 013d
000000a0: 6754 803e 4b1e ba3e bccf 8b3d 4f48 863e
000000b0: f1ed dc3e afeb 2fbe f6e8 e53d 7a6a b23e
000000c0: c3ca 003e 7b07 723e 248c 813e 13d0 113c
000000d0: 502e 4fbe 6b7a 27be e2f0 2bbe 89fe c23d
000000e0: f459 1b3e f1ba 05be 855e 84bc 3d7a afbd
000000f0: 834e 33be 9415 1e3e 25e8 21be 865a 99bc
00000100: 3d41 07bf 6bb9 d73d 1bd6 b6bd bf06 28be
00000110: 44f5 99be d83e a0be bce9 05be 0390 b33d
00000120: 055b aa3d b7f1 4cbd 92f2 ef3d 5e76 253e
00000130: ab97 043e 5076 bb3d 1cdf f73e b4be b0be
00000140: a8c4 dbbd 5e1b 4bbc 651c 823e 9393 aebe
00000150: 3e21 f1bc d517 1abe e121 cebe 03c3 a0be
00000160: 96a0 6ebe 7305 14bd bb22 b9be 6f31 cfbe
00000170: 02bf 913d 1b44 47be 0c7a c8bc 97a8 2f3c
00000180: a42c 1c3e 861b 373d 8aa4 74be 739f 9b3d
00000190: 4397 a63d 2307 103e 34d2 8b3d 1574 9c3e
000001a0: bf0b 50be 7790 183e e8c1 aebe 91ff 823e
000001b0: 55c9 17bd 1050 8cbe 78f4 03bd 821c 563e
000001c0: 9bd4 8c3e 7ec6 aebd ac87 033d 7dc2 0f3e
000001d0: f451 493e 84b6 bfbd 6465 96be d015 04be
000001e0: c6f9 3cbe d390 06be 9c7f 7e3d 445b 7fbe
000001f0: f3f1 89be 0041 0bbd e501 89be 0a48 88be
00000200: 2e45 e5be ab18 f8bd 2d3d 18be 7766 5fbc
00000210: c3f7 89be 2cae de3e ff52 65be e0dd 4cbe
00000220: dec4 04be 85db 57bd 712a e7bc f561 39bd
00000230: 3c14 3dbe ba60 1c3e 6cf6 2cbe 65af 913e
00000240: 725e 5dbd 327e af3d 7ba6 39bd 6973 cdbd
00000250: a300 51be 8ccd 043d 6ccd b03e 4c16 48bd
00000260: 293b 2e3e b417 2bbd 4b9c c83d 28c6 66bd
00000270: fc1c 91bd 37a9 ccbd 7319 7b3e 3810 38be
00000280: 94a2 a7be 51a7 bebc 0d19 91bd 1f73 d43e
00000290: 7184 763d b8ca 9f3d 3b69 a83e 1e77 4f3e
000002a0: 9d18 663c bcea 2e3e c20d c83c fc6b 13be
000002b0: 35e5 99be 11f0 db3d 8713 2dbe 5e38 033c
000002c0: ae73 183e 3681 80be 2b2a acbd 43fe 79be
000002d0: 6aa8 64bd fcd7 353d 22ac f63e 275e e13d
000002e0: 3a2b 1fbc fb33 d83d 8dc4 6a3e 3dd8 493e
000002f0: 35af 9cbe 51a2 933d e14b 093d d351 bc3c
00000300: db37 993e dcea c33d 087e 62be cfae 90bd
00000310: 465b 0c3e 8149 7a3d 2697 493e 3dd2 e1bd
00000320: 8daa 5fbe 995c 1dbe 4508 933e 761e c7be
00000330: e85d e4be 6c0d 6ebd 730f 0fbf 3adc 22be
00000340: 24a9 3e3e d1b5 203e 3da8 9fbe a5f1 2abe
00000350: 9f87 01bc ab93 a5be 0a81 7abe 1d12 56bd
00000360: 6275 1d3e e968 dc3d cec9 7bbe bcb3 39bc
00000370: ea4a c93e 1adb 90bc 5614 1ebe da7f 4bbe
00000380: 0da6 86bc a361 703d 977b 2c3e dfb6 81be
00000390: 5fec 743e d638 d73d 1d09 14be 5772 c03e
000003a0: 1c8c ba3d 6fab 81bd dabe 21be 35c7 bf3d
000003b0: dfda 6f3d 1c5f fbbd 4aab 4fba 3c5e 1dbd
000003c0: 8236 003f a00a b43d 2bd9 473e 1099 9cbd
000003d0: d456 e03c f33e 8f3e 1b58 83bd 6f6d 1ebd
000003e0: 3fa9 fcbb 6c5b 30be e3e1 963c 0b3b 153e
000003f0: ce27 083e 6890 0abd 9038 a8bb ab6d 64be

blocks.2.conv.bias f4 [32]
0.0060468824 -0.010709637 -0.00044506593 0.011285846 0.003012651 -0.010497843 -0.0069868946 0.00011815333
-3.8797214e-05 0.006242298 -0.0008145687 0.00848887 0.0016020349 0.009726384 0.009409741 0.00019617676
-0.004375109 0.006394882 -0.0028307522 0.0009817586 -0.00040014696 0.00083935715 0.0002433875 0.004938237
-0.00014122105 0.013534555 -0.0004123489 -6.172842e-06 0.0101717515 -0.0001263542 -0.00062867015 0.00031760332
00000000: ed24 c63b 7977 2fbc bd57 e9b9 45e8 383c
00000010: e66f 453b 25ff 2bbc 52f2 e4bb 16c9 f738
00000020: 31ba 22b8 318c cc3b c888 55ba e714 0b3c
00000030: 5ffb d13a 695b 1f3c 502b 1a3c ccb4 4d39
00000040: 135d 8fbb 298c d13b 2484 39bb 5aae 803a
00000050: d1ca d1b9 4e08 5c3a d635 7f39 efd0 a13b
00000060: bd14 14b9 0ac0 5d3c 8830 d8b9 4f20 cfb6
00000070: 6ba7 263c f37d 04b9 57cd 24ba ff83 a639

blocks.2.bn.weight f4 [32]
0.8973187 0.87317324 0.64302826 0.8451428 0.75341344 0.7052264 1.0473963 1.1207362
0.6448557 1.0338789 0.8007737 1.0108538 0.8717377 0.8171396 0.83831906 1.1222706
1.2479553 1.0157287 0.7550651 0.84216636 0.96378905 1.0170028 0.8870925 1.0522153
1.1864051 0.9445022 1.0033532 0.65177655 0.5351607 0.96267474 0.39056405 0.78726304
00000000: aeb6 653f 4888 5f3f 809d 243f 475b 583f
00000010: b4df 403f b889 343f 1511 863f 4974 8f3f
00000020: 4315 253f 2556 843f 81ff 4c3f a863 813f
00000030: 342a 5f3f 1030 513f 149c 563f 90a6 8f3f
00000040: 00bd 9f3f 6603 823f f24b 413f 3798 573f
00000050: e1ba 763f 262d 823f 7e18 633f feae 863f
00000060: 1fdc 973f e5ca 713f e16d 803f d4da 263f
00000070: 4b00 093f da71 763f 03f8 c73e 128a 493f

blocks.2.bn.bias f4 [32]
-0.283875 -0.5292641 -0.18525268 -0.27176267 -0.5646543 -0.22724946 -0.22838928 -0.61155486
-0.57653487 -0.39374182 -0.55253536 -0.41091433 -0.55286026 -0.3213272 -0.4064307 -0.6712345
-0.38635284 -0.5108691 -0.4195297 -0.3388764 -0.6312785 -0.7213254 -0.37652484 -0.52138543
-0.6558442 -0.4615405 -0.62958866 -0.30945012 0.012770071 -0.3993885 0.2892337 -0.66213614
00000000: 1058 91be da7d 07bf e1b2 3dbe 7a24 8bbe
00000010: 2f8d 10bf 15b4 68be e1de 69be dc8e 1cbf
00000020: ca97 13bf 8798 c9be f572 0dbf 5d63 d2be
00000030: 4088 0dbf 0085 a4be af17 d0be 06d6 2bbf
00000040: 0ad0 c5be 51c8 02bf 99cc d6be 3581 adbe
00000050: 789b 21bf c8a8 38bf ddc7 c0be 8479 05bf
00000060: 68e5 27bf 094f ecbe b92c 21bf 3f70 9ebe
00000070: 8f39 513c a67c ccbe 7116 943e c181 29bf

blocks.2.bn.running_mean f4 [32]
-0.60136014 -4.374763 -2.4433858 0.09141995 -4.558001 2.563304 -0.3179646 -1.4723244
-0.7382175 -0.8011054 -0.4963864 -1.7757845 2.0511513 -3.764776 -2.4645472 -3.8403015
-0.8722803 -0.0028733762 -1.8613524 -1.8507626 -2.011292 0.23187923 -1.1573975 -2.0869427
0.03416651 -0.96822524 -2.706965 0.28307983 -1.1336291 -3.1206763 0.81293374 -0.90097505
00000000: bdf2 19bf 0ffe 8bc0 6f60 1cc0 623a bb3d
00000010: 25db 91c0 2c0d 2440 42cc a2be 2075 bcbf
00000020: d2fb 3cbf 3e15 4dbf 5c26 febe e84c e3bf
00000030: 1046 0340 17f2 70c0 24bb 1dc0 80c7 75c0
00000040: c34d 5fbf 414f 3cbb cc40 eebf cae5 ecbf
00000050: 02b9 00c0 c071 6d3e 9a25 94bf 7890 05c0
00000060: 2ff2 0b3d 9cdd 77bf ea3e 2dc0 d7ef 903e
00000070: c21a 91bf 29b9 47c0 6d1c 503f 4da6 66bf

blocks.2.bn.running_var f4 [32]
16.863178 13.365274 18.557226 6.89241 10.794012 9.212826 17.72408 9.802273
6.472262 11.131891 5.797865 11.172671 5.3477063 18.587004 22.340502 6.445925
6.167031 8.605355 7.5515084 8.0159 6.0957637 7.406862 8.916654 11.192909
5.6734285 7.4552674 6.365646 23.524546 10.836873 20.964243 19.577467 8.546881
00000000: cae7 8641 2ad8 5541 3375 9441 9f8e dc40
00000010: 46b4 2c41 bc67 1341 eaca 8d41 1cd6 1c41
00000020: c51c cf40 3a1c 3241 1c88 b940 43c3 3241
00000030: 6920 ab40 2fb2 9441 59b9 b241 0545 ce40
00000040: 5158 c540 89af 0941 f5a5 f140 2041 0041
00000050: 7f10 c340 0305 ed40 9daa 0e41 2816 3341
00000060: ba8c b540 8d91 ee40 5fb3 cb40 4532 bc41
00000070: d563 2d41 c5b6 a741 a79e 9c41 06c0 0841

blocks.3.conv.weight f4 [32, 32, 3, 3]
-0.318967 0.008423554 -0.19076931 -0.014653082 -0.60835016 -0.33064955 -0.26909015 -0.2507299
-0.028512599 0.053960692 0.08974417 -0.26327428 0.14061892 0.14998621 -0.008518828 0.12157208
0.15027831 0.23354802 -0.08396394 0.119253285 -0.01904326 0.08527126 0.15429947 0.0069543454
-0.2344286 -0.058812156 -0.007103169 -0.042479325 0.03563236 0.04938127 -0.030555392 -0.61973405
-0.31740457 0.19404222 0.22742018 -0.17130923 -0.1769912 -0.0725569 -0.017488124 -0.17409061
0.12365847 -0.3288794 -0.057900686 0.041243806 -0.48085144 0.16276167 -0.0495958 0.17002821
-0.29477546 0.08802034 0.10521594 0.26112586 -0.07886527 0.1295762 0.46101335 0.021493273
-0.0017611803 0.29933602 0.1932254 0.113229044 0.2112677 -0.06499508 -0.048706714 -0.01912251
0.11156335 0.25231397 0.2350653 0.074827634 0.03052482 0.38140523 -0.0654505 -0.328771
-0.06212715 0.0631202 0.1964261 0.27686948 0.06364409 0.35062754 -0.14150064 -0.017974658
-0.058239665 -0.047107603 0.18926352 0.36216977 0.14859495 0.14010724 0.07875594 -0.066046275
0.325356 0.2394256 -0.13937166 -0.013622565 0.19004753 0.44777724 -0.14806591 -0.045368917
-0.066204555 0.036384232 0.11970352 -0.057452563 -0.10449036 0.2037631 -0.12326622 0.08148631
0.02174586 -0.4666869 -0.15114745 0.13786042 -0.17937079 -0.11230928 -0.05908537 -0.106518276
-0.043493442 0.09653074 0.22525036 -0.109039865 0.17331024 0.004309403 0.18133895 0.15872942
0.15224683 0.14970726 0.36992827 0.040280767 -0.13830829 -0.11405088 -0.23284934 -0.23016667
-0.210521 -0.34611604 0.0008502427 -0.13497205 -0.16789757 0.1221005 -0.5527997 -0.28479198
0.07147062 -0.062177084 -0.36636424 0.028142337 0.029166386 -0.30030757 -0.07885875 0.19781147
-0.10531072 -0.23213027 -0.14314662 0.0070672124 -0.10459978 0.07855531 0.3458101 0.059495974
-0.48638168 0.08016032 0.16937777 0.10449201 -0.12764384 0.1149747 0.12734805 0.21833846
-0.018375525 -0.0032265072 0.10039014 -0.15807214 0.24263239 0.02341168 0.1219521 -0.05548061
0.13564602 0.0130314585 0.27160427 -0.17753863 -0.056813754 -0.1771444 0.42847025 -0.08340042
0.12424077 0.104495786 -0.32176495 -0.2750511 -0.10163854 0.032861903 0.07667042 0.14097989
-0.15825815 -0.007016158 0.2931871 0.14922091 0.012583239 0.36415538 0.019596329 0.18419825
0.005136387 0.17105207 0.0650214 -0.13225824 0.20628797 0.11264237 0.022321511 -0.14529629
-0.055977628 -0.038136385 0.062220864 -0.5356414 -0.21355437 -0.101809435 -0.36126414 -0.057299268
0.039473984 0.30587712 -0.4326571 -0.4830263 -0.18657763 0.1753913 0.21441057 0.20581836
-5.882729e-05 0.14578351 -0.16152528 -0.054145418 0.3212436 -0.4255796 -0.027636422 -0.1651662
-0.17949495 0.0874323 -0.005500811 -0.25416332 0.07392491 -0.10300526 -0.04308836 0.24719782
0.19361094 -0.06289587 0.012883563 -0.28907198 -0.14401336 -0.058664802 -0.20884675 0.08752986
0.4089578 -0.1106089 -0.36042327 0.094493575 -0.035066508 0.36589935 0.07675061 0.16326898
-0.00019412408 0.022601822 -0.072740875 0.10833233 -0.017131729 0.31297573 -0.09866912 -0.24157031
00000000: a54f a3be f202 0a3c 0859 43be 7b13 70bc
00000010: d6bc 1bbf e64a a9be 2fc6 89be ab5f 80be
00000020: 4193 e9bc e305 5d3d cbcb b73d e3cb 86be
00000030: 68fe 0f3e fc95 193e 8e92 0bbc c8fa f83d
00000040: 8fe2 193e 3627 6f3e 49f5 abbd 113b f43d
00000050: 9c00 9cbc b3a2 ae3d ae00 1e3e 47e1 e33b
00000060: 0d0e 70be 04e5 70bd b3c1 e8bb cdfe 2dbd
00000070: 3df3 113d 0444 4a3d 4d4f fabc e4a6 1ebf
00000080: da82 a2be 01b3 463e d6e0 683e b06b 2fbe
00000090: 2e3d 35be b698 94bd 4143 8fbc cf44 32be
000000a0: a740 fd3d e162 a8be 4529 6dbd 44ef 283d
000000b0: 2932 f6be ffaa 263e f724 4bbd e01b 2e3e
000000c0: cfec 96be 0244 b43d 747b d73d 4ab2 853e
000000d0: 1d84 a1bd a0af 043e f109 ec3e a912 b03c
000000e0: 68d7 e6ba 9242 993e e1dc 453e a1e4 e73d
000000f0: 8f56 583e 241c 85bd b180 47bd cfa6 9cbc
00000100: 537b e43d 4c2f 813e f5b4 703e 3b3f 993d
00000110: 300f fa3c 8c47 c33e e90a 86bd ac54 a8be
00000120: 0a79 7ebd 2a45 813d ec23 493e d6c1 8d3e
00000130: d557 823d 7485 b33e 8be5 10be 973f 93bc
00000140: b78c 6ebd e7f3 40bd 4cce 413e 516e b93e
00000150: 4629 183e 4678 0f3e cb4a a13d 4543 87bd
00000160: 1095 a63e fc2b 753e 72b7 0ebe 2e31 5fbc
00000170: d29b 423e 0f43 e53e 979e 17be c2d4 39bd
00000180: 4196 87bd a207 153d 1e27 f53d 6153 6bbd
00000190: 0bff d5bd 46a7 503e 0073 fcbd 4be2 a63d
000001a0: 6024 b23c 96f1 eebe 66c6 1abe 482b 0d3e
000001b0: faac 37be 6802 e6bd 8003 72bd 4126 dabd
000001c0: 2e26 32bd e9b1 c53d 08a8 663e 4b50 dfbd
000001d0: 3d78 313e e435 8d3b ebb0 393e f789 223e
000001e0: 98e6 1b3e dc4c 193e 3d67 bd3e 72fd 243d
000001f0: b0a0 0dbe 8293 e9bd 0f70 6ebe d0b0 6bbe
00000200: d192 57be 1f36 b1be d2e2 5e3a 1d36 0abe
00000210: 57ed 2bbe d40f fa3d 4884 0dbf 41d0 91be
00000220: 305f 923d 66ad 7ebd 1894 bbbe c28a e63c
00000230: 58ee ee3c eac1 99be b280 a1bd 178f 4a3e
00000240: 26ad d7bd 8fb3 6dbe 0795 12be 1394 e73b
00000250: 6938 d6bd 9be1 a03d 050e b13e 0db2 733d
00000260: 0507 f9be 182b a43d 5e71 2d3e e8ff d53d
00000270: 11b5 02be db77 eb3d 8767 023e 1e94 5f3e
00000280: 4588 96bc cf73 53bb 5999 cd3d aadd 21be
00000290: a074 783e dac9 bf3c 06c2 f93d a33f 63bd
000002a0: cae6 0a3e e681 553c b70f 8b3e b0cc 35be
000002b0: 8ab5 68bd 5765 35be 7460 db3e d7cd aabd
000002c0: f271 fe3d e301 d63d 60be a4be 7fd3 8cbe
000002d0: de27 d0bd 349a 063d 6205 9d3d 085d 103e
000002e0: 6d0e 22be cde7 e5bb 9f1c 963e 5ecd 183e
000002f0: ee29 4e3c 9372 ba3e 7b88 a03c 779e 3c3e
00000300: 234f a83b 4628 2f3e f129 853d b46e 07be
00000310: 273d 533e 0bb1 e63d 9adb b63c 8dc8 14be
00000320: cc48 65bd e634 1cbd 4edb 7e3d cb1f 09bf
00000330: ffad 5abe 7781 d0bd 9df7 b8be a3b2 6abd
00000340: 79af 213d ed9b 9c3e 3b85 ddbe 394f f7be
00000350: 350e 3fbe c799 333e 728e 5b3e 0cc2 523e
00000360: 52bd 76b8 4648 153e e266 25be 96c7 5dbd
00000370: 0b7a a43e 92e5 d9be c765 e2bc 5421 29be
00000380: 86cd 37be b50f b33d 2640 b4bb b221 82be
00000390: f165 973d 6cf4 d2bd 6c7d 30bd 6d21 7d3e
000003a0: f241 463e 8dcf 80bd 9415 533c 3e01 94be
000003b0: 3d78 13be 814a 70bd ecdb 55be db42 b33d
000003c0: eb62 d13e eb86 e2bd 6689 b8be d985 c13d
000003d0: e6a1 0fbd 2957 bb3e 6c2f 9d3d fc2f 273e
000003e0: c98d 4bb9 7527 b93c 2bf9 94bd 57dd dd3d
000003f0: d757 8cbc 5b3e a03e 0913 cabd 355e 77be

blocks.3.conv.bias f4 [32]
0.0005484398 0.00026806464 0.0041026003 0.0031039163 -0.0011344954 -0.00056685595 0.0050901943 -0.001024304
-0.00048270513 -0.00017384136 3.9128594e-05 0.00066163356 5.289123e-05 0.001376106 -0.00028356625 0.0068059145
-0.00087080506 -0.0015715 -0.00045519706 0.0013682658 -0.0018149972 -0.0009306938 -0.00030707946 -4.4327982e-05
-0.0003848043 -0.012914666 -0.007709221 -0.0011774575 -0.0033316996 -0.0069876392 0.0003527542 -0.00027230478
00000000: 2cc5 0f3a 078b 8c39 1b6f 863b 136b 4b3b
00000010: 59b3 94ba 0f99 14ba a5cb a63b f041 86ba
00000020: 9613 fdb9 2f49 36b9 021e 2438 7a71 2d3a
00000030: 87d7 5d38 755e b43a 9eab 94b9 2604 df3b
00000040: bd46 64ba cafa cdba 84a7 eeb9 6257 b33a
00000050: 33e5 edba cef9 73ba 82ff a0b9 cfec 39b8
00000060: 8fbf c9b9 0998 53bc a29d fcbb eb54 9aba
00000070: a558 5abb 91f8 e4bb def1 b839 21c4 8eb9

blocks.3.bn.weight f4 [32]
0.99393797 0.856651 0.9280972 0.65857416 0.92421454 0.6762096 0.9263847 0.92411995
0.8720175 0.8659289 0.7564956 0.88114154 1.03545 0.84820265 0.94585764 1.1572626
1.1238353 1.0263664 0.8590672 0.8468267 0.9852235 1.1431442 0.8598827 0.9633905
1.06054 0.94762754 1.0103122 0.6476065 0.6452517 0.8740708 0.43409848 0.95857877
00000000: b872 7e3f 7b4d 5b3f c797 6d3f 5198 283f
00000010: 5399 6c3f 131c 2d3f 8c27 6d3f 2093 6c3f
00000020: 8a3c 5f3f 84ad 5d3f b2a9 413f 7e92 613f
00000030: a089 843f cf23 593f ba23 723f 2e21 943f
00000040: d6d9 8f3f f95f 833f d4eb 5b3f a2c9 583f
00000050: 9b37 7c3f 8d52 923f 4621 5c3f c3a0 763f
00000060: c6bf 873f b897 723f e951 813f 8ac9 253f
00000070: 372f 253f 1bc3 5f3f 2842 de3e 6b65 753f

blocks.3.bn.bias f4 [32]
-0.35985857 -0.33227217 -0.3811496 -0.22240184 -0.46961483 -0.043117322 -0.81132174 -0.4887449
-0.5414373 -0.7040614 -0.41132832 -0.036757365 -0.47726104 -0.48100942 -0.6545048 -0.42066598
-0.59812355 -0.8144373 -0.46215132 -0.42369652 -0.45584378 -0.76427066 -0.6593229 -0.6068598
-0.5327114 -0.6531911 -0.5081547 -0.360849 -0.03656636 -0.4411575 0.27060348 -0.49788952
00000000: 623f b8be 941f aabe 0a26 c3be 4fbd 63be
00000010: 5b71 f0be ca9b 30bd c8b2 4fbf c63c fabe
00000020: a39b 0abf 5e3d 34bf a099 d2be e48e 16bd
00000030: 8f5b f4be de46 f6be a08d 27bf 8861 d7be
00000040: a01e 19bf f77e 50bf 199f ecbe c0ee d8be
00000050: 5b64 e9be 3ea7 43bf 63c9 28bf 2a5b 1bbf
00000060: c65f 08bf 8837 27bf 6d16 02bf 33c1 b8be
00000070: 9cc6 15bd 65df e1be 8a8c 8a3e 60eb febe

blocks.3.bn.running_mean f4 [32]
-1.6307257 -0.80126077 -3.7901497 -1.1300224 -1.9704024 0.2629577 -0.86232126 -0.92010754
1.4980924 -3.3793411 2.6548553 -0.21349648 0.148244 -2.1685913 -1.9552686 -1.5644616
-2.580489 -1.7889686 -1.6491512 0.07962813 -2.263377 0.12501425 1.544076 -5.1273403
0.6754959 0.108016536 -2.057756 -1.5555054 3.217827 -3.496854 -0.29905635 -0.6872215
00000000: 9fbb d0bf 6d1f 4dbf d091 72c0 93a4 90bf
00000010: 2536 fcbf 64a2 863e 16c1 5cbf 2b8c 6bbf
00000020: 7ec1 bf3f 2047 58c0 26e9 2940 d29e 5abe
00000030: 46cd 173e 33ca 0ac0 3e46 fabf 4740 c8bf
00000040: bb26 25c0 ecfc e4bf 6317 d3bf 1314 a33d
00000050: 2bdb 10c0 bc03 003e 48a4 c53f 2c13 a4c0
00000060: 4ded 2c3f c637 dd3d 46b2 03c0 cd1a c7bf
00000070: e1f0 4d40 75cc 5fc0 ea1d 99be c0ed 2fbf

blocks.3.bn.running_var f4 [32]
8.630008 10.678053 16.546148 7.2222934 8.67148 10.466976 6.280024 5.8761797
8.635412 5.5932627 20.056288 5.571404 5.604298 6.0794497 9.747875 12.431862
6.662642 6.8422103 7.6301837 8.089823 5.842862 4.947066 7.5544534 7.438503
6.8046556 6.792075 12.209158 10.715196 9.338823 14.308249 9.580854 6.4190063
00000000: 8314 0a41 4ed9 2a41 835e 8441 071d e740
00000010: 62be 0a41 bc78 2741 f5f5 c840 aa09 bc40
00000020: a62a 0a41 02fc b240 4773 a041 f148 b240
00000030: 6956 b340 da8a c240 4cf7 1b41 e8e8 4641
00000040: 5d34 d540 63f3 da40 772a f440 ea6f 0141
00000050: baf8 ba40 5d4e 9e40 15be f140 3708 ee40
00000060: bdbf d940 ae58 d940 b658 4341 7171 2b41
00000070: d26b 1541 97ee 6441 2e4b 1941 8068 cd40
