models/211.pth (torch, 501905 bytes, 80 tensors)

conv0.conv.weight f4 [32, 17, 3, 3]
-0.07286207 0.4032823 0.24582307 0.38171813 -0.47336847 0.6193606 0.030437909 0.452071
0.16019975 -0.08662348 0.025862345 -0.04743264 -0.011913098 -0.15592468 0.014962473 0.100345284
0.20993336 -0.09663583 0.025520496 -0.11707177 0.022407066 -0.067551926 -0.2064809 0.017706418
0.087189056 0.038952842 0.013997405 0.19563624 -0.10452915 0.046521194 -0.0017697461 -0.17089564
-0.08033134 0.2102709 -0.10303353 -0.030535582 0.23817658 0.29274467 0.13702607 0.24731813
-0.56443715 0.4700229 0.42869052 0.358846 0.20879436 0.0030239094 0.30695674 0.24580885
0.21327995 -0.0593009 0.17487238 0.22360161 0.18550843 0.23290475 0.3725164 0.27287263
0.07360292 0.27993134 -0.180552 0.34181446 0.30383354 0.3381644 0.17241344 0.21176884
0.3481298 0.12828574 0.33507517 -0.11031644 0.34117776 0.36704913 0.2571968 0.3408218
0.035838246 0.102521025 -0.06818502 0.12173127 0.40727556 0.07275163 -0.031276766 0.11646465
-0.05387608 -0.05251618 0.036186095 0.046141732 0.06710775 0.5541501 -0.0048371293 -0.02389469
0.11349868 0.1162137 -0.009505887 0.10033234 -0.044319432 0.09308096 0.51172686 0.09396648
-0.066021435 0.040643025 0.043730296 -0.023717789 0.073306575 0.083998434 0.16616917 0.42340818
0.06771528 -0.06437553 0.15143225 0.054611932 -0.016580444 -0.2299758 0.14404655 -0.2686201
-0.2847108 -0.015745394 0.025279373 -0.3518158 0.13135658 -0.012226672 0.02114221 0.03179636
-0.06428145 0.17257868 0.020485887 0.08740472 0.104717456 0.009148301 0.20240296 0.033980466
-0.050434202 0.08075011 0.17433351 -0.14156403 0.06173487 -0.06932426 -0.10992325 -0.002588995
0.028786698 -0.06588496 -0.027064394 0.038483147 0.18307197 0.10004 -0.024958245 0.10813376
-0.024521567 0.08228845 0.062509485 0.21946149 -0.0033931716 0.14855327 0.018945357 0.09372832
-0.022434404 -0.16623789 0.13287102 0.06790816 -0.23749018 -0.6046841 0.28129613 -0.0701729
-0.025669537 0.058561206 -0.15921482 0.23760855 -0.26545936 -0.01874002 0.13277417 -0.5133353
0.0016844616 -0.071291685 -0.12752658 -0.021555105 0.2968976 -0.22511068 -0.16419965 0.07684865
-0.39174148 0.090797186 -0.28264546 -0.099073246 -0.35821158 0.31801248 -0.020901345 0.070525624
0.29869893 -0.7638827 0.24483816 -0.26575062 -0.23046906 -0.30434188 -0.25591537 0.19862051
-0.19349097 -0.4438388 -0.41683155 0.20227066 -0.103632905 -0.25159806 -0.31379372 -0.48613957
-0.27870244 -0.047989238 -0.3177977 -0.2846184 -0.6027881 -0.1229869 -0.5920562 -0.52105105
-0.40775725 -0.7395704 -0.48919642 -0.13304526 -0.3699553 0.2120986 -0.321187 -0.5954734
-0.12640645 -0.31424358 -0.38096052 -0.2974171 -0.15355371 -0.20114914 -0.32696384 -0.29470444
-0.7272713 -0.15407683 0.20242809 0.18766543 0.0068957442 -0.53595215 0.20303418 -0.17425728
-0.02249141 0.09938214 -0.16116633 0.15660478 0.2514574 -0.05660211 0.06566773 0.13187362
-0.0039874907 0.26175216 0.11887488 0.09978423 0.13629025 0.108988725 0.15499741 0.14752519
0.04654854 0.048021838 0.020669289 0.10579705 0.036032595 0.0009558081 0.27069363 -0.019297749
00000000: b538 95bd 057b ce3e 0bb9 7b3e 8f70 c33e
00000010: 5a5d f2be 6b8e 1e3f ec58 f93c da75 e73e
00000020: 670b 243e a767 b1bd 45dd d33c ba48 42bd
00000030: 282f 43bc b8aa 1fbe 2925 753c d481 cd3d
00000040: c5f8 563e 02e9 c5bd 5c10 d13c 53c3 efbd
00000050: 068f b73c aa58 8abd bb6f 53be 0d0d 913c
00000060: 2d90 b23d 048d 1f3d 5f55 653c de54 483e
00000070: 6113 d6bd 028d 3e3d d3f6 e7ba 44ff 2ebe
00000080: c284 a4bd 4151 573e 3e03 d3bd c225 fabc
00000090: 90e4 733e a1e2 953e 9050 0c3e f740 7d3e
000000a0: f47e 10bf d7a6 f03e 537d db3e aaba b73e
000000b0: 30ce 553e c82c 463b 6f29 9d3e 51b5 7b3e
000000c0: 0f66 5a3e 80e5 72bd bf11 333e d2f7 643e
000000d0: ecf5 3d3e 957e 6e3e 78ba be3e f6b5 8b3e
000000e0: 21bd 963d 2953 8f3e a0e2 38be 4e02 af3e
000000f0: 1290 9b3e e223 ad3e 268d 303e eed9 583e
00000100: 123e b23e 565d 033e f98e ab3e 96ed e1bd
00000110: daae ae3e dded bb3e 4daf 833e 3280 ae3e
00000120: 20cb 123d 8bf6 d13d 96a4 8bbd 3e4e f93d
00000130: 6c86 d03e cefe 943d 111c 00bd 0585 ee3d
00000140: 2aad 5cbd 351b 57bd df37 143d 1dff 3c3d
00000150: ca6f 893d c8dc 0d3f c880 9ebb ccbe c3bc
00000160: ff71 e83d 7301 ee3d 94be 1bbc 0b7b cd3d
00000170: 4b88 35bd 3ba1 be3d 8800 033f 7f71 c03d
00000180: 3f36 87bd 4d79 263d 8a1e 333d cf4b c2bc
00000190: c221 963d 5f07 ac3d 4028 2a3e f5c8 d83e
000001a0: 4fae 8a3d 51d7 83bd 0e11 1b3e c3b0 5f3d
000001b0: b6d3 87bc c77e 6bbe f080 133e 9388 89be
000001c0: 9dc5 91be 7cfc 80bc b016 cf3c 3321 b4be
000001d0: 5782 063e 6152 48bc 6e32 ad3c e63c 023d
000001e0: fea5 83bd 77b8 303e 05d2 a73c 3f01 b33d
000001f0: 1b76 d63d c1e2 153c b942 4f3e 1a2f 0b3d
00000200: 1894 4ebd 5060 a53d 7c84 323e 29f6 10be
00000210: b4dd 7c3d e1f9 8dbd 711f e1bd 21ac 29bb
00000220: 15d2 eb3c b2ee 86bd 26b6 ddbc 81a0 1d3d
00000230: 3877 3b3e c6e1 cc3d 3c75 ccbc 3c75 dd3d
00000240: 74e1 c8bc d986 a83d f904 803d 83ba 603e
00000250: f95f 5ebb 591e 183e 4b33 9b3c a2f4 bf3d
00000260: 5bc8 b7bc 443a 2abe 570f 083e 6f13 8b3d
00000270: a030 73be 94cc 1abf 0c06 903e cfb6 8fbd
00000280: ec48 d2bc e0dd 6f3d 3609 23be a84f 733e
00000290: 4aea 87be ac84 99bc f4f5 073e f169 03bf
000002a0: 27c9 dc3a 6001 92bd 5496 02be 5594 b0bc
000002b0: f602 983e 6a83 66be f423 28be d362 9d3d
000002c0: 5792 c8be e0f3 b93d e8b6 90be eae6 cabd
000002d0: 8267 b7be 88d2 a23e 4c39 abbc bd6f 903d
000002e0: 11ef 983e d18d 43bf dbb6 7a3e 7710 88be
000002f0: 1500 6cbe b3d2 9bbe 5707 83be 2d63 4b3e
00000300: 7f22 46be d73e e3be f26a d5be 0a20 4f3e
00000310: 7d3d d4bd 76d1 80be 92a9 a0be 49e7 f8be
00000320: 16b2 8ebe 5d90 44bd 61b6 a2be 81b9 91be
00000330: 5250 1abf 8ee0 fbbd ff90 17bf 9a63 05bf
00000340: 8fc5 d0be 7c54 3dbf f477 fabe 043d 08be
00000350: c86a bdbe 6030 593e 9f72 a4be f270 18bf
00000360: b170 01be 89e4 a0be 420d c3be 0e47 98be
00000370: 2f3d 1dbe 0afa 4dbe ce67 a7be 80e3 96be
00000380: 742e 3abf 51c6 1dbe 4f49 4f3e 5e2b 403e
00000390: b2f5 e13b 2934 09bf 31e8 4f3e 8070 32be
000003a0: e83f b8bc dd88 cb3d c908 25be 015d 203e
000003b0: 06bf 803e 9dd7 67bd ce7c 863d e109 073e
000003c0: 7fa9 82bb 6104 863e ac74 f33d ad5b cc3d
000003d0: ac8f 0b3e 7b35 df3d a4b7 1e3e d810 173e
000003e0: afa9 3e3d 8cb2 443d a452 a93c 20ac d83d
000003f0: ea96 133d 328f 7a3a 5b98 8a3e 5016 9ebc

conv0.conv.bias f4 [32]
0.0012967772 -0.0068207714 -0.04189731 -0.00071650563 0.0022280007 0.0023071244 0.044450026 -0.0032233207
-0.012668369 -2.3687391e-05 -0.002975347 -0.0029944547 0.000540123 -0.003474288 0.00089506654 -0.0070472467
0.0034666876 -0.005631873 0.0208863 -0.0001004773 0.008562961 0.033529434 0.015431008 -0.002961684
0.000576507 0.0018914371 -0.001704016 -0.017260626 -0.00371628 0.027843997 -0.0005338203 0.0036787333
00000000: 9ff8 a93a c780 dfbb 849c 2bbd e1d3 3bba
00000010: a603 123b 2033 173b 3b11 363d 593e 53bb
00000020: fe8e 4fbc 49b4 c6b7 0afe 42bb 9d3e 44bb
00000030: 0a97 0d3a e1b0 63bb e6a2 6a3a 97ec e6bb
00000040: 5e31 633b 938b b8bb bf19 ab3c 57b7 d2b8
00000050: a94b 0c3c 2956 093d 57d2 7c3c d018 42bb
00000060: bb20 173a 19ea f73a 4a59 dfba 2866 8dbc
00000070: d58c 73bb 1819 e43c 13f0 0bba e716 713b

conv0.bn.weight f4 [32]
0.89579177 0.6506702 0.6401251 0.7261593 0.70175785 0.52629465 0.6629673 0.7722852
0.8898209 0.86978126 0.7289851 0.48113942 0.66766626 0.9050345 0.7147576 0.8754411
0.6502431 1.3419917 0.75697106 0.74288344 0.7292765 0.9324723 0.7817386 0.5928682
0.8483846 0.7397782 0.80526835 0.73789406 1.0027725 0.58357775 0.6462012 0.5705232
00000000: 9c52 653f 5292 263f 3ddf 233f 93e5 393f
00000010: 67a6 333f 3fbb 063f 3ab8 293f 7cb4 453f
00000020: 4dcb 633f fca9 5e3f c49e 3a3f e857 f63e
00000030: 2dec 2a3f 57b0 673f 5bfa 363f e81c 603f
00000040: 5576 263f 62c6 ab3f dbc8 413f 9c2d 3e3f
00000050: ddb1 3a3f 81b6 6e3f 0520 483f 36c6 173f
00000060: bc2f 593f 1b62 3d3f 1126 4e3f a0e6 3c3f
00000070: d95a 803f 5a65 153f 716d 253f cf0d 123f

conv0.bn.bias f4 [32]
-0.5795933 -0.07995051 -0.17454968 -0.4590065 -0.20162906 -0.07422774 0.07057792 -0.33752567
-0.24595861 -0.37600234 -0.23051834 0.25512826 -0.17985767 -0.33607846 -0.26480585 -0.08842882
0.020606637 -0.20153734 -0.33442193 -0.22554292 -0.11893097 0.05478288 -0.3942901 -0.33147973
-0.23443462 -0.4720589 -0.36309123 -0.17519881 -0.11436369 0.54800314 -0.30276814 -0.015929965
00000000: 3a60 14bf 18bd a3bd 27bd 32be e602 ebbe
00000010: d977 4ebe b704 98bd 288b 903d 2ad0 acbe
00000020: 93dc 7bbe 6183 c0be 000d 6cbe 2ca0 823e
00000030: 9c2c 38be 7a12 acbe a294 87be 2b1a b5bd
00000040: 40cf a83c ce5f 4ebe 5a39 abbe b9f4 66be
00000050: 1592 f3bd 0364 603d 64e0 c9be b6b7 a9be
00000060: a10f 70be b4b1 f1be 18e7 b9be 5167 33be
00000070: 8337 eabd ef49 0c3f 6d04 9bbe 8f7f 82bc

conv0.bn.running_mean f4 [32]
0.37165046 0.05651647 -0.223479 -0.13769776 -0.106407985 -0.08284576 -0.29106498 0.3632205
-0.30442482 -0.16334753 -0.078476414 -0.04030555 -0.08841877 -0.054394495 0.09263934 0.3147807
0.19868004 -0.24248528 -0.22638196 -0.09677665 0.034206275 -0.06055633 -0.20694774 0.110521466
-0.100075275 -0.1926436 -0.08472207 -0.14581639 0.29539984 0.15323384 -0.10964475 0.251729
00000000: f848 be3e d07d 673d aed7 64be a400 0dbe
00000010: 6eec d9bd 0aab a9bd 7806 95be 0af8 b93e
00000020: 92dd 9bbe 9344 27be 3eb8 a0bd 6f17 25bd
00000030: e614 b5bd c3cc 5ebd b2b9 bd3d f02a a13e
00000040: c872 4b3e 104e 78be acd0 67be d632 c6bd
00000050: e11b 0c3d ea09 78bd 1cea 53be 1459 e23d
00000060: 44f4 ccbd 5d44 45be c482 adbd e450 15be
00000070: a63e 973e 55e9 1c3e 6d8d e0bd a0e2 803e

conv0.bn.running_var f4 [32]
0.14220116 0.17127618 0.2649457 0.15688398 0.20501462 0.2087704 0.33450103 0.14194226
0.23505448 0.20275193 0.1556453 0.19310002 0.163069 0.115726024 0.18274476 0.15261823
0.11866867 0.19058926 0.22821835 0.13879725 0.25899693 0.1688574 0.15683979 0.15757495
0.13772522 0.21360531 0.15536827 0.13886796 0.17374533 0.12433685 0.17163515 0.18788655
00000000: 2e9d 113e 0663 2f3e f6a6 873e 32a6 203e
00000010: 5aef 513e e8c7 553e b843 ab3e 5059 113e
00000020: 1fb2 703e 349e 4f3e 7b61 1f3e 03bc 453e
00000030: 8ffb 263e c401 ed3d 7121 3b3e f447 1c3e
00000040: 8f08 f33d d529 433e 12b2 693e de20 0e3e
00000050: 3f9b 843e f4e8 2c3e 9c9a 203e 545b 213e
00000060: d707 0d3e 5abb 5a3e dc18 1f3e 6733 0e3e
00000070: 4cea 313e 52a4 fe3d 20c1 2f3e 5565 403e

blocks.0.conv.weight f4 [32, 32, 3, 3]
0.17797372 -0.085708156 0.24977586 -0.37850583 0.15433829 -0.256164 0.13290703 -0.05454455
0.11168662 0.13478518 0.0025814984 -0.4903148 -0.07097766 -0.055947836 0.10673351 0.03456857
-0.08720009 -0.1223744 0.11292466 -0.22005552 0.020509765 0.05129713 -0.28036395 -0.11358268
0.08982564 0.086095445 0.029210228 0.14915971 0.04440183 0.103291035 -0.10939384 0.22076958
-0.031872816 -0.13261908 -0.27894184 0.26156592 0.03385007 0.27679032 -0.056766704 0.08157321
0.14990349 -0.16563517 -0.08968412 0.072245285 -0.14643444 -0.04472105 -0.24925153 0.11342293
-0.015220608 -0.12537841 0.13511512 0.120258726 0.24945438 0.15830445 0.14555515 -0.013962798
-0.04815522 -0.08759301 0.06787677 -0.32390893 0.028448228 -0.017675633 -0.31927845 0.3125941
0.3313693 0.31272677 0.03160209 0.3798365 0.013866851 0.12724961 0.18921344 0.17560424
0.11897348 -0.6069912 0.13941836 -0.034859363 0.3229338 0.2086183 0.10104235 0.28694832
0.0697714 -0.13510601 -0.05797477 -0.053385884 -0.1376519 0.56014055 0.009077817 0.077305265
-0.09806746 0.009494064 -0.03018125 0.05770349 0.040473916 -0.101984814 0.08973499 -0.20678131
0.15236804 0.26534787 0.039793022 0.14860345 -0.0038741373 0.370201 -0.31684786 0.06464929
0.07784925 0.16898265 -0.22190228 -0.074934244 -0.53696 -0.10648041 0.08901608 0.10164786
0.06281918 0.13008654 -0.064884104 0.41612664 0.03634817 -0.1526844 -0.2119786 -0.33952144
0.10009893 -0.5513936 -0.28885874 -0.009127016 -0.12412647 0.07059601 -0.20038007 0.17093779
-0.3421031 -0.008585667 -0.14629436 -0.10500433 -0.09418944 -0.2647529 0.09466368 0.21426827
0.076749526 0.12251237 0.2216491 0.036480043 -0.020872258 0.0053610136 0.073586196 0.16748197
-0.040573873 0.10652737 0.031828806 0.13594179 -0.23078974 0.096778154 0.077357024 0.14406613
0.09333034 -0.019172056 0.27955794 0.06628757 0.2594454 -1.5074102 0.28018236 0.16591175
-0.025119502 0.184835 -0.104298 -0.23934926 0.3975117 0.31873915 -0.26499447 0.013940119
-0.40274128 0.25504825 0.17436978 0.18055531 -0.23307614 -0.25088558 -0.04206722 -0.10119977
-0.058305267 0.026344601 -0.24596937 -0.04346585 -0.07280261 -0.055942677 0.14126861 0.08744458
-0.23920414 -0.05063699 -0.06489219 -0.107066125 -0.08505592 0.16082545 0.13774876 0.07512776
0.09838774 -0.14171685 0.28016105 0.20744511 0.17335452 0.13561113 -0.07198834 -0.10213645
0.07899897 -0.20432112 0.48799658 0.20009077 0.05457266 -0.3785706 -0.077299155 0.064542
-0.07657632 0.13105866 -0.097823195 -0.06787191 0.119166225 -0.15903609 0.008971134 0.29745647
0.23970306 0.024693452 0.08626717 0.122344464 0.035805233 -0.047295038 0.14567614 0.12115118
0.04529203 0.11095124 0.0019312734 0.06641534 0.010329692 0.1882619 -0.34435984 -0.29043546
-0.050349433 0.18373562 0.03455049 0.001693972 0.1059937 -0.19261259 -0.27288136 0.0711168
0.047237717 0.55610114 -0.13990766 0.24185617 -0.27777916 -0.13755648 0.066546515 -0.10534746
-0.2556489 0.14575139 0.10111466 0.09597687 0.19590144 -0.19149563 0.0040411423 -0.17287786
00000000: be3e 363e c287 afbd 3ec5 7f3e 84cb c1be
00000010: db0a 1e3e ee27 83be c818 083e 1b6a 5fbd
00000020: f4bb e43d 2005 0a3e 5b2e 293b 8b0a fbbe
00000030: bc5c 91bd 8f29 65bd 1997 da3d c697 0d3d
00000040: f695 b2bd 6e9f fabd 0b45 e73d 3c56 61be
00000050: 1804 a83c f01c 523d dd8b 8fbe 099e e8bd
00000060: 81f6 b73d cf52 b03d 4a4a ef3c 53bd 183e
00000070: b1de 353d 408a d33d e109 e0bd 6c11 623e
00000080: 128d 02bd 4ccd 07be 77d1 8ebe f8eb 853e
00000090: 5fa6 0a3d 76b7 8d3e 3484 68bd db0f a73d
000000a0: 4d80 193e 449c 29be 4fac b7bd 56f5 933d
000000b0: e9f2 15be 6b2d 37bd cb3b 7fbe 484a e83d
000000c0: db5f 79bc 3363 00be 9e5b 0a3e 354a f63d
000000d0: f870 7f3e 901a 223e 690c 153e 38c4 64bc
000000e0: 683e 45bd f763 b3bd fa02 8b3d 64d7 a5be
000000f0: 420c e93c 7dcc 90bc 7778 a3be 550c a03e
00000100: 3da9 a93e b91d a03e 3171 013d ee79 c23e
00000110: ca31 633c b94d 023e 2bc1 413e 99d1 333e
00000120: 5ea8 f33d c663 1bbf b0c3 0e3e b1c8 0ebd
00000130: 9457 a53e 09a0 553e 4bef ce3d e4ea 923e
00000140: 4fe4 8e3d 3b59 0abe f476 6dbd 28ab 5abd
00000150: 9ff4 0cbe 5f65 0f3f 20bb 143c 3952 9e3d
00000160: 98d7 c8bd fe8c 1b3c ab3e f7bc 7f5a 6c3d
00000170: fac7 253d 6add d0bd fac6 b73d 7bbe 53be
00000180: 5e06 1c3e addb 873e 02fe 223d 812b 183e
00000190: 3de5 7dbb fc8a bd3e e239 a2be d966 843d
000001a0: 6d6f 9f3d ca09 2d3e 5a3a 63be 2077 99bd
000001b0: 3676 09bf 6712 dabd 104e b63d c12c d03d
000001c0: 58a7 803d 6835 053e f5e1 84bd 8d0e d53e
000001d0: d2e1 143d 4d59 1cbe eb10 59be c1d5 adbe
000001e0: ab00 cd3d 2228 0dbf 4be5 93be 7b89 15bc
000001f0: 0536 febd a494 903d 6f30 4dbe 510a 2f3e
00000200: 2328 afbe e6aa 0cbc 30ce 15be 830c d7bd
00000210: 65e6 c0bd b18d 87be 08df c13d 2469 5b3e
00000220: db2e 9d3d c4e7 fa3d fbf7 623e 196c 153d
00000230: 4cfc aabc 71ab af3b 5cb4 963d 6580 2b3e
00000240: ca30 26bd 062b da3d ec5e 023d 5334 0b3e
00000250: 2554 6cbe a033 c63d 5c6d 9e3d 1286 133e
00000260: fa23 bf3d b70e 9dbc 3822 8f3e c7c1 873d
00000270: 07d6 843e d1f2 c0bf 1074 8f3e c5e4 293e
00000280: 6ac7 cdbc 6345 3d3e 319a d5bd f917 75be
00000290: a786 cb3e c731 a33e 5bad 87be 1965 643c
000002a0: 1b34 cebe af95 823e fe8d 323e 7ee3 383e
000002b0: 83ab 6ebe 1374 80be ad4e 2cbd d341 cfbd
000002c0: 81d1 6ebd a2d0 d73c 65df 7bbe 3f09 32bd
000002d0: 8919 95bd 2624 65bd b8a8 103e 2516 b33d
000002e0: eef1 74be bc68 4fbd 32e6 84bd 7c45 dbbd
000002f0: cc31 aebd 6daf 243e 030e 0d3e 95dc 993d
00000300: 837f c93d 391e 11be 4571 8f3e 7e6c 543e
00000310: d983 313e a5dd 0a3e 9f6e 93bd ea2c d1bd
00000320: 36ca a13d 8e39 51be b0da f93e 98e4 4c3e
00000330: 9587 5f3d 01d4 c1be 054f 9ebd 992e 843d
00000340: 0cd4 9cbd 3e34 063e 8757 c8bd 6e00 8bbd
00000350: 6c0d f43d 5bda 22be aafb 123c 374c 983e
00000360: b874 753e ec49 ca3c d8ac b03d bc8f fa3d
00000370: 82a8 123d 71b8 41bd 202c 153e 1c1e f83d
00000380: 2384 393d 673a e33d c822 fd3a c404 883d
00000390: de3d 293c bac7 403e ef4f b0be f5b3 94be
000003a0: 353b 4ebd 3125 3c3e d184 0d3d 4508 de3a
000003b0: 3a13 d93d 3c3c 45be 1bb7 8bbe afa5 913d
000003c0: 567c 413d a55c 0e3f f443 0fbe 25a9 773e
000003d0: 1239 8ebe 9bdb 0cbe 8a49 883d 69c0 d7bd
000003e0: 6ae4 82be da3f 153e 3415 cf3d 858f c43d
000003f0: 639a 483e 6e17 44be 8f6b 843b e506 31be

blocks.0.conv.bias f4 [32]
0.00027881953 -0.012106938 -0.001214938 0.0046055457 0.0077686985 0.014267358 0.00232856 -0.0050174096
0.0003221298 -0.01988633 0.0035476924 2.1293126e-05 -0.00011909725 0.00056185387 0.0013803694 -0.0021478948
-0.0013405285 0.00087281794 0.0014643255 -0.00028598757 -0.0010485079 0.018356586 -0.00059135753 -0.0005192132
-0.009121666 0.0001596769 0.00050842157 0.0001775003 0.00065962225 -0.00029698582 -0.017318975 -0.006402161
00000000: 862e 9239 2e5c 46bc 8e3e 9fba 1eea 963b
00000010: 9190 fe3b a3c1 693c c19a 183b 1569 a4bb
00000020: 88e3 a839 a8e8 a2bc 6780 683b a49e b237
00000030: d9c3 f9b8 6049 133a 83ed b43a b2c3 0cbb
00000040: acb4 afba d2cd 643a 9cee bf3a 9af0 95b9
00000050: 166e 89ba 8d60 963c 5505 1bba cf1b 08ba
00000060: 0a73 15bc f16e 2739 9847 053a 601f 3a39
00000070: 80ea 2c3a c3b4 9bb9 86e0 8dbc 38c9 d1bb

blocks.0.bn.weight f4 [32]
0.8518952 0.89073515 0.788458 0.98886484 1.1070167 0.7278087 0.7329774 0.8503768
0.8709023 1.1085131 0.8136787 1.0114243 0.96146864 0.8551749 0.8839764 0.7633331
1.1257185 1.0550678 0.8950746 1.0428346 0.8359159 0.7453083 1.0607215 0.8803397
0.84300125 0.7522038 0.9867563 1.2293594 0.6610971 0.6547161 0.5835742 0.94759536
00000000: ce15 5a3f 3807 643f 62d8 493f 3f26 7d3f
00000010: b9b2 8d3f ac51 3a3f 68a4 3b3f 4bb2 593f
00000020: 74f3 5e3f c2e3 8d3f 3f4d 503f 5a76 813f
00000030: cf22 763f beec 5a3f 474c 623f cc69 433f
00000040: 8b17 903f 760c 873f 9c23 653f 9b7b 853f
00000050: 96fe 553f 86cc 3e3f b9c5 873f f15d 613f
00000060: eece 573f 6e90 403f 109c 7c3f a65b 9d3f
00000070: a93d 293f 799b 273f 1e65 153f 9c95 723f

blocks.0.bn.bias f4 [32]
-0.5790044 -0.44563046 -0.0022317043 -0.15217495 -0.37938258 -0.23210676 -0.24653688 -0.33094895
-0.39081365 -0.34526923 -0.4590446 -0.55057424 -0.49495542 -0.5740273 -0.16425912 -0.5986629
-0.49123782 -0.34148815 -0.22561347 -0.58451957 -0.48272732 -0.1898862 -0.72505677 -0.3511922
0.051922772 -0.49296626 -0.4153925 -0.6014356 -0.55339533 -0.24519606 -0.045301147 -0.81538826
00000000: a239 14bf ad29 e4be c941 12bb c0d3 1bbe
00000010: 6f3e c2be 65ad 6dbe 2a74 7cbe 2472 a9be
00000020: ba18 c8be 21c7 b0be e507 ebbe 6ff2 0cbf
00000030: cc6a fdbe 74f3 12bf 8b33 28be f941 19bf
00000040: 8683 fbbe 89d7 aebe 3807 67be 13a3 15bf
00000050: 0928 f7be 8771 42be 529d 39bf 77cf b3be
00000060: f9ac 543d 1366 fcbe 53ae d4be aff7 19bf
00000070: 51ab 0dbf ad14 7bbe b28d 39bd 49bd 50bf

blocks.0.bn.running_mean f4 [32]
0.6170579 -3.8255928 1.9389924 0.1832682 -1.0336951 -3.891647 -2.7039113 -1.6903521
0.9271149 -2.0675647 -1.9740103 -1.3489127 -1.3908134 1.566649 1.2113041 -0.33681232
0.37670434 -1.7583108 2.4734669 -0.74114436 0.35259217 -1.3150772 -1.6442094 0.92219406
-1.386417 -1.3349571 0.0129503235 -0.91780514 -2.9784153 0.14348264 0.46317014 -3.2297714
00000000: 82f7 1d3f 83d6 74c0 e730 f83f a9aa 3b3e
00000010: 1f50 84bf bf10 79c0 e20c 2dc0 755d d8bf
00000020: 6757 6d3f fb52 04c0 5fac fcbf 2ca9 acbf
00000030: 2c06 b2bf f487 c83f 030c 9b3f aa72 acbe
00000040: 64df c03e 5410 e1bf 484d 1e40 a3bb 3dbf
00000050: f686 b43e 7354 a8bf 7475 d2bf e914 6c3f
00000060: 1d76 b1bf e0df aabf 982d 543c 47f5 6abf
00000070: 5b9e 3ec0 1ded 123e a324 ed3e 93b4 4ec0

blocks.0.bn.running_var f4 [32]
2.3555508 3.7709594 6.308173 3.3526673 5.6138196 6.2195525 6.972509 2.699061
2.571534 2.5469296 2.6466012 3.1624408 2.6041806 3.1283746 4.424524 2.4511366
2.45178 6.5980406 2.5522845 2.5965393 2.6858745 4.828481 2.910359 3.5731254
6.7677765 3.00612 2.8380663 3.7965453 6.1209383 2.7879744 3.6018457 3.2434304
00000000: 58c1 1640 6657 7140 8edc c940 1a92 5640
00000010: 69a4 b340 9306 c740 cb1e df40 6abd 2c40
00000020: 0394 2440 e500 2340 ea61 2940 6e65 4a40
00000030: e5aa 2640 4a37 4840 b395 8d40 6cdf 1c40
00000040: f7e9 1c40 2623 d340 a158 2340 b32d 2640
00000050: 5ee5 2b40 eb82 9a40 5243 3a40 16ae 6440
00000060: a091 d840 4564 4040 e1a2 3540 99fa 7240
00000070: bade c340 2c6e 3240 a484 6640 5d94 4f40

blocks.1.conv.weight f4 [32, 32, 3, 3]
0.1049687 0.039713714 0.08913663 -0.41103825 0.22337353 -0.080497 0.17974775 -0.38468635
0.027968768 0.20553671 0.23672338 -0.3592901 -0.11336135 0.07480202 -0.22104074 -0.16602463
0.19507223 0.055391986 -0.0023016166 -0.3413719 0.0810787 -0.2828847 -0.74605703 -0.1659737
-0.08378602 0.20655406 0.103432946 0.31366438 -0.090923086 0.029398002 -0.3708691 0.22227247
-0.12615542 -0.11701284 -0.6010401 -0.1251251 0.098597236 0.16840015 -0.18441038 0.114598095
-0.11704233 -0.07948262 0.048102126 -0.13722529 0.02655118 -0.27138233 -0.005371908 0.24819282
0.010552916 0.10787737 0.22464299 -0.004794783 0.05862162 0.49781623 -0.17237844 0.14649801
-0.14846705 -0.29170606 -0.11120481 -0.27524197 -0.07712943 0.14440759 -0.008945214 0.035946544
-0.59622055 -0.0027699517 0.0030324978 0.261528 -0.36813945 0.024052339 -0.10080361 0.14366698
0.18027504 -0.25894067 -0.22019055 0.07003205 0.023873895 -0.027041005 -0.22889023 -0.3176054
0.38356867 -0.10175381 -0.0996157 -0.2903895 0.43275625 0.0013724309 -0.36027312 0.080859475
-0.20003855 -0.068757646 -0.016752163 -0.07843421 0.021951692 0.03522322 -0.13825713 0.1203639
0.21251144 0.0391961 -0.00094460964 0.16978452 0.029815806 -0.08064806 -0.29851007 -0.06671399
-0.15132847 0.004466651 -0.4607779 -0.07334818 -0.06872381 0.3450015 -0.17881225 0.043497413
0.4655182 -0.12254137 -0.08496388 -0.023748096 0.20564821 -0.21923712 -0.43711853 -0.29984063
-0.16035883 -0.51748466 0.09432515 -0.15907331 0.18240184 -0.034479603 0.28151867 -0.15896377
-0.17246692 0.23026252 -0.28001648 0.15126672 -0.050877605 -0.26001626 -0.0071591837 -0.15662193
-0.028182678 0.13588612 -0.15358926 0.14600135 -0.06712345 -0.13781166 -0.20625153 0.09842869
0.41785672 -0.36912593 -0.002751932 -0.12200267 -0.31271735 -0.020144211 0.0838977 -0.038261637
0.03007913 0.19146177 -0.070568815 -0.06902593 -0.31374303 -0.92717785 -0.049812164 0.09596367
-0.32498977 -0.085228756 0.057338096 0.044453256 0.08733357 0.08563824 -0.03498749 0.0031670716
0.03816727 0.13787055 0.019498857 -0.29250425 -0.1165793 -0.05333093 -0.052573025 0.18984997
0.1936726 -0.40766138 -0.27650586 -0.5833294 0.03851675 -0.33893043 0.13145658 -0.16917126
-0.23408216 0.205549 0.116424866 -0.01762834 -0.024551036 0.06507989 0.05123362 -0.27900797
-0.036366854 -0.2798244 -0.040291823 -0.12907849 -0.061001208 -0.16912062 -0.038591985 -0.27615595
0.26478884 0.081368364 -0.18553296 0.07619376 -0.19104335 -0.14794758 -0.09088652 -0.16605368
-0.09867475 0.041945536 -0.44251996 -0.45983508 -0.05497161 0.08475601 -0.22768871 -0.35608318
0.09334234 -0.027781827 -0.2838686 -0.087581046 -0.25271195 -0.19905484 0.053883646 0.26199162
-0.17446008 -0.104612745 0.10738628 0.090648144 -0.3132793 -0.13342613 -0.17968158 -0.32763907
0.19551978 0.03562242 0.09379817 0.07710942 0.3780302 -0.2748482 -0.33933032 -0.09949308
-0.27407393 -0.0016835218 -0.26371396 0.1377648 -0.018120602 -0.104586676 -0.15387943 -0.24563403
0.4487899 0.14094518 0.07221973 -0.060653962 -0.110360816 -0.019978518 0.1859472 -0.4135379
00000000: d4f9 d63d d9aa 223d 448d b63d 9b73 d2be
00000010: 08bc 643e 9cdb a4bd cb0f 383e 9cf5 c4be
00000020: c21e e53c 3778 523e 9d67 723e dff4 b7be
00000030: ff29 e8bd cd31 993d 8158 62be 5c02 2abe
00000040: 04c1 473e b5e2 623d b8d6 16bb 4cc8 aebe
00000050: 970c a63d 43d6 90be 98fd 3ebf 02f5 29be
00000060: 0198 abbd e882 533e a7d4 d33d 9e98 a03e
00000070: e235 babd 14d4 f03c 8ee2 bdbe 659b 633e
00000080: e32e 01be 6ea4 efbd c4dd 19bf cb20 00be
00000090: 59ed c93d 1771 2c3e 13d6 3cbe 68b2 ea3d
000000a0: e4b3 efbd c9c7 a2bd bc06 453d c984 0cbe
000000b0: dc81 d93c a0f2 8abe d506 b0bb 4226 7e3e
000000c0: 23e6 2c3c d0ee dc3d d008 663e 8e1d 9dbb
000000d0: 391d 703d c5e1 fe3e f983 30be 9303 163e
000000e0: bf07 18be 7f5a 95be 59bf e3bd 84ec 8cbe
000000f0: 09f6 9dbd 95df 133e f28e 12bc af3c 133d
00000100: e9a1 18bf 1488 35bb dfbc 463b ffe6 853e
00000110: c67c bcbe 6909 c53c 2072 cebd 701d 133e
00000120: 059a 383e df93 84be a279 61be f76c 8f3d
00000130: 3093 c33c 1985 ddbc 3362 6abe 2d9d a2be
00000140: 1d63 c43e 4d64 d0bd 5103 ccbd efad 94be
00000150: 3a92 dd3e 24e3 b33a b875 b8be a799 a53d
00000160: e8d6 4cbe cfd0 8cbd d53b 89bc 1da2 a0bd
00000170: 09d4 b33c 3946 103d 4793 0dbe 5981 f63d
00000180: 999c 593e 178c 203d ae9f 77ba fedb 2d3e
00000190: 4740 f43c cf2a a5bd 50d6 98be 58a1 88bd
000001a0: daf5 1abe fc5c 923b 15eb ebbe 9237 96bd
000001b0: 12bf 8cbd 09a4 b03e 8f1a 37be 582a 323d
000001c0: 6758 ee3e f8f6 fabd 8b01 aebd 5e8b c2bc
000001d0: 7295 523e b27f 60be 00ce dfbe b684 99be
000001e0: 1b35 24be e079 04bf 8b2d c13d 1de4 22be
000001f0: 8cc7 3a3e 7c3a 0dbd 3723 903e 66c7 22be
00000200: 2b9b 30be f0c9 6b3e 525e 8fbe aae5 1a3e
00000210: 0965 50bd da20 85be 9697 eabb 8061 20be
00000220: 5cdf e6bc bb25 0b3e 8146 1dbe 6181 153e
00000230: 0578 89bd 801e 0dbe 9a33 53be fb94 c93d
00000240: 51f1 d53e 13fe bcbe c259 34bb 89dc f9bd
00000250: 7d1c a0be 7905 a5bc 8fd2 ab3d 3cb8 1cbd
00000260: 8268 f63c 8e0e 443e 6286 90bd 775d 8dbd
00000270: eda2 a0be 875b 6dbf d707 4cbd 9a88 c43d
00000280: 0f65 a6be 6a8c aebd 5adb 6a3d 9e14 363d
00000290: f1db b23d 1a63 af3d 0b4f 0fbd a58e 4f3b
000002a0: 4955 1c3d f02d 0d3e 11bc 9f3c 1ec3 95be
000002b0: 21c1 eebd 8971 5abd d056 57bd 0868 423e
000002c0: 1c52 463e feb8 d0be 2d92 8dbe 1355 15bf
000002d0: bdc3 1d3d 4a88 adbe 8e9c 063e 3b3b 2dbe
000002e0: 3cb3 6fbe 707b 523e 2970 ee3d 4f69 90bc
000002f0: 411f c9bc 9b48 853d 58da 513d 22da 8ebe
00000300: 69f5 14bd 2545 8fbe 0a09 25bd 272d 04be
00000310: 67dc 79bd f52d 2dbe a112 1ebd 5064 8dbe
00000320: 6792 873e 75a4 a63d 5afc 3dbe 790b 9c3d
00000330: dea0 43be 927f 17be b622 babd fa09 2abe
00000340: fd15 cabd 15cf 2b3d fa91 e2be 816f ebbe
00000350: e929 61bd 8f94 ad3d 3b27 69be 8950 b6be
00000360: 452a bf3d b796 e3bc 3a57 91be b15d b3bd
00000370: 7663 81be 08d5 4bbe 19b5 5c3d c423 863e
00000380: aaa5 32be 353f d6bd 57ed db3d bca5 b93d
00000390: 2566 a0be dca0 08be 73fe 37be 4fc0 a7be
000003a0: 5636 483e d1e8 113d 4119 c03d 8beb 9d3d
000003b0: 2d8d c13e e7b8 8cbe b4bc adbe 07c3 cbbd
000003c0: 6b53 8cbe 9ea9 dcba 8405 87be 3712 0d3e
000003d0: a871 94bc 8a31 d6bd 9292 1dbe 7d87 7bbe
000003e0: cac7 e53e ef53 103e f0e7 933d 4a70 78bd
000003f0: da04 e2bd fda9 a3bc f168 3e3e 3dbb d3be

blocks.1.conv.bias f4 [32]
-0.006721164 -0.0006057505 0.0002968487 -0.0024742752 0.0030377302 0.00022603 0.02295082 0.00063131686
0.0037262049 -0.0004117128 -0.0011265904 0.010084798 0.0021123213 0.0006004094 -0.0064996197 -0.0022025784
-0.0004446688 0.0002818828 -0.0010474267 -0.004856619 0.0027525562 -0.006567778 -0.0011728092 2.00305e-05
0.00786278 -0.008034845 0.0003215108 -0.011190916 0.0007879558 0.00026973954 -0.0010825014 -0.00066960877
00000000: 363d dcbb 3acb 1eba 5ca2 9b39 7327 22bb
00000010: a814 473b 7702 6d39 5c03 bc3c f57e 253a
00000020: 5833 743b 28db d7b9 1aaa 93ba b53a 253c
00000030: df6e 0a3b cb64 1d3a c3fa d4bb 2259 10bb
00000040: 7022 e9b9 abc9 9339 cf49 89ba 4624 9fbb
00000050: 3b64 343b 8436 d7bb f2b8 99ba 2c07 a837
00000060: e4d2 003c 95a4 03bc 7390 a839 1b5a 37bc
00000070: d28e 4e3a d46b 8d39 b8e2 8dba af88 2fba

blocks.1.bn.weight f4 [32]
0.683395 0.87140256 0.73602086 0.8643803 1.0570004 0.78859186 0.7218145 0.740636
1.045784 0.8848301 0.953806 1.0301381 1.1091175 0.8496772 1.133375 0.91487247
1.1738545 0.8037351 0.9089445 0.8630742 0.86761945 0.832016 1.1881248 1.1295685
0.8542756 1.0855175 1.0422587 0.83358556 0.7798284 0.7913364 0.5711885 1.1570358
00000000: faf2 2e3f 3d14 5f3f dd6b 3c3f 0748 5d3f
00000010: ca4b 873f 28e1 493f d6c8 383f 529a 3d3f
00000020: 40dc 853f 3a84 623f a12c 743f 91db 833f
00000030: 90f7 8d3f 7284 593f 6f12 913f 1535 6a3f
00000040: dd40 963f 95c1 4d3f 96b0 683f 6ef2 5c3f
00000050: 4f1c 5e3f 00ff 543f 7914 983f b395 903f
00000060: ceb1 5a3f 3df2 8a3f bc68 853f dd65 553f
00000070: d6a2 473f 0695 4a3f 6939 123f c019 943f

blocks.1.bn.bias f4 [32]
-0.28436944 -0.4598219 -0.02527901 -0.429779 -0.14432041 -0.22076558 -0.33993164 -0.4962677
-0.5346135 -0.36725047 -0.46601632 -0.59661084 -0.5592508 -0.3620375 -0.3555841 -0.4308567
-0.60267085 -0.4428013 -0.5035875 -0.50039 -0.71669406 -0.41001216 -0.62108403 -0.17546947
-0.7468746 -0.13649017 -0.37738758 -0.3539937 -0.27301678 -0.6571412 -0.06555583 -0.4030958
00000000: df98 91be c76d ebbe ed15 cfbc fe0b dcbe
00000010: bbc8 13be 5f10 62be 850b aebe cd16 febe
00000020: 6edc 08bf 4108 bcbe b199 eebe 7dbb 18bf
00000030: 0f2b 0fbf fb5c b9be 1f0f b6be 4099 dcbe
00000040: a348 1abf dab6 e2be 1ceb 00bf 8f19 00bf
00000050: 4379 37bf 1ded d1be 5dff 1ebf 45ae 33be
00000060: 2c33 3fbf 14c4 0bbe f238 c1be aa3e b5be
00000070: dbc8 8bbe 683a 28bf 2342 86bd 9362 cebe

blocks.1.bn.running_mean f4 [32]
-5.6269817 -2.7502942 -0.5396159 -3.3983595 -2.4655745 -0.7224832 3.0483031 -1.8538119
-4.1772895 -0.5756808 -0.17711692 0.67933595 -1.1043183 1.4594781 -2.1645572 -3.105275
-2.2958293 0.7323304 -2.8057027 -1.991784 -2.400441 -1.1228858 -2.4277446 -2.3313527
-2.15095 0.2647331 -2.3494878 -2.6086774 1.7456722 -2.2683082 2.1473103 -1.2307563
00000000: 3c10 b4c0 d204 30c0 4524 0abf b97e 59c0
00000010: f9cb 1dc0 a9f4 38bf 6617 4340 b549 edbf
00000020: 5bac 85c0 d15f 13bf 235e 35be f6e8 2d3f
00000030: 4d5a 8dbf 2ed0 ba3f 1b88 0ac0 d3bc 46c0
00000040: deee 12c0 017a 3b3f a290 33c0 c7f2 febf
00000050: d3a0 19c0 b9ba 8fbf 2b60 1bc0 e234 15c0
00000060: 2aa9 09c0 198b 873e 025e 16c0 92f4 26c0
00000070: 3072 df3f f62b 11c0 886d 0940 6c89 9dbf

blocks.1.bn.running_var f4 [32]
10.003103 6.8723364 7.1845827 13.027509 18.632345 9.640681 7.3858237 6.1748095
12.888815 6.623507 8.666881 6.9294305 8.882051 6.9643354 10.484071 12.4441595
6.492437 9.695546 6.9992685 6.9826064 9.506291 7.5538125 7.1555195 10.158775
5.4607143 8.428583 7.747154 9.078627 24.262623 11.4841795 16.699701 6.1425066
00000000: b60c 2041 2eea db40 1ae8 e540 ad70 5041
00000010: 0b0f 9541 3b40 1a41 ab58 ec40 0a98 c540
00000020: 9638 4e41 c5f3 d340 8bab 0a41 e5bd dd40
00000030: e21c 0e41 d6db de40 c1be 2741 471b 4741
00000040: 0bc2 cf40 f520 1b41 02fa df40 8371 df40
00000050: c519 1841 d5b8 f140 04fa e440 588a 2241
00000060: 2cbe ae40 7adb 0641 b0e8 f740 0e42 1141
00000070: da19 c241 33bf 3741 fd98 8541 6a8f c440

blocks.2.conv.weight f4 [32, 32, 3, 3]
0.055764996 0.16261864 -0.08654422 0.023746066 0.0024165642 -0.18309425 -0.21264708 -0.11971782
-0.08012133 -0.05657894 -0.04347569 -0.41699263 -0.278185 -0.121173956 -0.33274475 0.029375033
-0.1137333 -0.020653374 -0.033121925 -0.06540983 0.06751136 -0.011041566 -0.20353752 -0.06725016
0.1410665 -0.09392299 -0.42538327 0.12723793 -0.12056591 0.24217138 0.1640482 -0.17222136
-0.040056895 0.08787273 0.2844116 0.4981318 0.08924837 0.048887033 0.61702824 0.041488238
0.25627947 0.37957346 0.087858975 0.31718606 0.34204748 -0.1939967 0.12050054 0.36678648
0.051222637 0.21941742 0.23491928 -0.10066291 -0.21468252 -0.10481681 -0.21681492 0.12867987
0.17950985 -0.17460148 -0.046797104 -0.014189157 -0.19687212 0.18029365 -0.094448544 0.025719263
-0.5302728 0.19993712 -0.046344806 -0.104835406 -0.2114762 -0.27955648 -0.1246616 0.11199188
0.10234041 -0.08596931 0.10950526 0.12254214 0.206874 0.030154798 0.5129835 -0.3717206
-0.08625305 -0.16348687 0.28464133 -0.3491243 -0.10109145 -0.11550796 -0.36663324 -0.34598377
-0.22332457 -0.009307846 -0.33857682 -0.3798185 0.026279112 -0.17097615 -0.15640976 0.0485551
0.20742555 0.030998293 -0.23829824 0.162576 0.07440847 0.13242559 0.0723238 0.34089005
-0.19262162 0.20915383 -0.3353824 0.32524577 -0.049838472 -0.20063959 0.027302168 0.25634867
0.3369477 -0.05939984 0.07252126 0.051778976 0.1322471 -0.081376836 -0.380678 -0.13268112
-0.20862131 -0.16604753 0.1530939 -0.24070771 -0.25412372 -0.0005760313 -0.2345807 -0.34107524
-0.44756135 -0.012362794 -0.23127869 -0.08586051 -0.30933052 0.43678063 -0.313176 -0.19807409
-0.17539497 -0.10301084 0.043865513 -0.08868658 -0.10948735 0.10902455 -0.19757867 0.3312577
-0.09723469 0.048769426 -0.081639774 -0.07384255 -0.110010356 -0.017497038 0.3074462 -0.025004473
0.20509411 0.038598124 0.21234128 0.009803658 -0.11337507 -0.001980349 0.2399587 -0.18082811
-0.34199744 0.0062304786 -0.17794067 0.40150633 0.06891139 -0.011169675 0.34542155 0.17599875
0.029386263 0.11824743 -0.0013627082 -0.13658735 -0.20451015 0.12575603 -0.095816955 -0.0030367
0.14400533 -0.22682299 -0.15574284 -0.20491691 -0.058276772 0.03058224 0.47899413 0.17476228
0.07187342 -0.040795594 0.2212177 0.19621585 -0.21176897 0.051131837 0.021757174 -0.019610675
0.26269755 0.14859289 -0.20001636 -0.007321527 0.18971343 0.112655856 0.08326647 -0.21845795
-0.24516392 -0.3266474 0.22402397 -0.396421 -0.46912456 -0.04365085 -0.51898646 -0.22365564
0.08489499 0.08577382 -0.3993266 -0.1869324 -0.099522606 -0.3523548 -0.29153585 -0.0696936
0.17784773 0.077876076 -0.2791848 -0.12032605 0.37245837 -0.033789027 -0.2177257 -0.20466483
-0.029881243 -0.051767375 0.13364896 -0.33402997 0.1957874 0.14471176 -0.05879423 0.42520612
0.13325547 0.025520565 -0.16525121 0.042662304 0.09832119 -0.14734219 -0.08857948 0.053114586
0.48553744 0.05280483 0.07639794 -0.17127718 -0.009003217 0.21967621 -0.120984204 0.00897386
-0.07471465 -0.17951125 0.0169472 0.13022271 0.12483725 -0.09244803 -0.0494619 -0.20478137
00000000: d669 643d 8085 263e 193e b1bd 1c87 c23c
00000010: 385f 1e3b 0f7d 3bbe 28c0 59be 9e2e f5bd
00000020: a716 a4bd 52bf 67bd 9113 32bd 0f80 d5be
00000030: 446e 8ebe 0d2a f8bd 855d aabe e9a3 f03c
00000040: 01ed e8bd 4431 a9bc dbaa 07bd 97f5 85bd
00000050: 6543 8a3d afe7 34bc 246c 50be 74ba 89bd
00000060: bd73 103e b25a c0bd d6cb d9be a94a 023e
00000070: 43eb f6bd c6fb 773e 40fc 273e cc5a 30be
00000080: b312 24bd 9ef6 b33d 669e 913e 220b ff3e
00000090: d9c7 b63d c53d 483d 90f5 1d3f 92ef 293d
000000a0: 1037 833e 7457 c23e 68ef b33d 3666 a23e
000000b0: d920 af3e 12a7 46be fdc8 f63d 70cb bb3e
000000c0: d4ce 513d f6ae 603e ae8e 703e 5b28 cebd
000000d0: bcd5 5bbe 32aa d6bd bb04 5ebe a8c4 033e
000000e0: 6ed1 373e bbca 32be 52ae 3fbd a379 68bc
000000f0: d898 49be e69e 383e 3d6e c1bd 34b1 d23c
00000100: f5bf 07bf 51bc 4c3e 0dd4 3dbd f2b3 d6bd
00000110: 388d 58be 0722 8fbe 954e ffbd 005c e53d
00000120: d997 d13d ad10 b0bd 4b44 e03d 60f7 fa3d
00000130: c7d6 533e 3207 f73c e352 033f 2a52 bebe
00000140: 70a5 b0bd 1a69 27be 82bc 913e 6cc0 b2be
00000150: 0909 cfbd 708f ecbd 5ab7 bbbe c924 b1be
00000160: 32af 64be f07f 18bc f159 adbe 9277 c2be
00000170: 4b47 d73c 5f14 2fbe e129 20be b6e1 463d
00000180: 5d67 543e 22f0 fd3c 7404 74be 537a 263e
00000190: 7863 983d 939a 073e 801e 943d 2489 ae3e
000001a0: 9a3e 45be 6c2c 563e 3eb7 abbe 9d86 a63e
000001b0: 6d23 4cbd 7774 4dbe cca8 df3c 2240 833e
000001c0: 6984 ac3e 3f4d 73bd 0786 943d 3116 543d
000001d0: c96b 073e e6a8 a6bd 3ae8 c2be 8fdd 07be
000001e0: d3a0 55be 5d08 2abe a6c4 1c3e 157c 76be
000001f0: 811c 82be ce00 17ba ec35 70be 6aa1 aebe
00000200: c326 e5be 518d 4abc 52d4 6cbe a3d7 afbd
00000210: 9260 9ebe b6a1 df3e 9b58 a0be efd3 4abe
00000220: bd9a 33be 59f7 d2bd 53ac 333d 4fa1 b5bd
00000230: e73a e0bd 4348 df3d 1052 4abe 9c9a a93e
00000240: fb22 c7bd 73c2 473d c132 a7bd c33a 97bd
00000250: 1c4d e1bd f355 8fbc 9769 9d3e 2ed6 ccbc
00000260: 3104 523e 1119 1e3d fe6f 593e 869f 203c
00000270: 3031 e8bd bec8 01bb bcb7 753e 012b 39be
00000280: 4a1a afbe 0b29 cc3b 1436 36be 3d92 cd3e
00000290: 6a21 8d3d 0301 37bc 18db b03e 0439 343e
000002a0: 76bb f03c b52b f23d e69c b2ba 8edd 0bbe
000002b0: 1c6b 51be 30c6 003e ae3b c4bd 5f03 47bb
000002c0: 2276 133e 4944 68be 0d7b 1fbe bdd5 51be
000002d0: a0b3 6ebd 9b87 fa3c b83e f53e e2f4 323e
000002e0: 5f32 933d 4819 27bd e586 623e cfec 483e
000002f0: f7d9 58be 9e6f 513d 1a3c b23c 91a6 a0bc
00000300: 4b80 863e bc28 183e 17d1 4cbe 6ce9 efbb
00000310: 3d44 423e 1db8 e63d 9c87 aa3d 71b3 5fbe
00000320: 400c 7bbe 543e a7be 8a66 653e b1f7 cabe
00000330: 1831 f0be 3ccb 32bd 4cdc 04bf fc05 65be
00000340: 6ddd ad3d 2faa af3d 8974 ccbe 356b 3fbe
00000350: 82d2 cbbd d967 b4be 3044 95be 85bb 8ebd
00000360: b71d 363e 7e7d 9f3d 4ff1 8ebe 816d f6bd
00000370: ddb2 be3e 5d66 0abd 7cf3 5ebe a893 51be
00000380: 82c9 f4bc 070a 54bd 46db 083e fa05 abbe
00000390: 7e7c 483e 522f 143e 38d2 70bd 9eb4 d93e
000003a0: 1f74 083e 8110 d13c 9d37 29be abbe 2e3d
000003b0: 9f5c c93d dfe0 16be 2969 b5bd ae8e 593d
000003c0: 5d98 f83e e149 583d 8676 9c3d 4963 2fbe
000003d0: 3b82 13bc cdf2 603e 91c6 f7bd 1907 133c
000003e0: ff03 99bd ccd1 37be dbd4 8a3c 1a59 053e
000003f0: acaa ff3d 6555 bdbd 9098 4abd 35b2 51be

blocks.2.conv.bias f4 [32]
-0.007894219 -0.0068332586 0.00052290765 -0.00019936463 -0.010205975 -0.0005785063 0.0023388912 0.0025793782
-0.00028195357 -0.009803542 6.688003e-05 -0.0002757813 0.0002665741 0.0034424686 -0.0016217122 0.00035529566
0.006907479 -0.001725294 -0.00068859203 0.0008595851 -0.000365774 -0.00021632438 0.00032423442 0.003604202
0.00019402355 0.0038333128 -0.00023802102 4.015229e-05 -0.009614946 0.0012475738 0.0012899112 5.1768617e-05
00000000: c156 01bc 87e9 dfbb bd13 093a 890c 51b9
00000010: f636 27bc e7a6 17ba 1548 193b c90a 293b
00000020: 2bd3 93b9 099f 20bc f141 8c38 bd96 90b9
00000030: f8c2 8b39 0a9b 613b a28f d4ba fa46 ba39
00000040: 2258 e23b 4323 e2ba a182 34ba c855 613a
00000050: 5bc5 bfb9 22d5 62b9 02fe a939 7a34 6c3b
00000060: cd72 4b39 5138 7b3b 4895 79b9 3169 2838
00000070: 0288 1dbc a185 a33a 3d12 a93a 2122 5938

blocks.2.bn.weight f4 [32]
0.8590004 0.8635467 0.6522673 0.81925774 0.750147 0.7064862 1.0279881 1.1087574
0.636303 0.97617024 0.83383137 0.93970674 0.8331904 0.8212573 0.88732475 1.1313682
1.268217 0.9987059 0.75912404 0.85246736 0.9559601 0.9900439 0.8840734 1.0580504
1.2012498 0.9604109 1.0132262 0.68614656 0.5528796 0.9435216 0.3843907 0.7908322
00000000: 73e7 5b3f 6611 5d3f fdfa 263f e0ba 513f
00000010: a209 403f 48dc 343f 1d95 833f c3eb 8d3f
00000020: c1e4 223f 4be6 793f f975 553f 9f90 703f
00000030: f74b 553f eb3d 523f b727 633f acd0 903f
00000040: ef54 a23f 31ab 7f3f f455 423f 4d3b 5a3f
00000050: cdb9 743f 8473 7d3f a252 623f 326e 873f
00000060: 8ec2 993f 7ddd 753f 65b1 813f 4da7 2f3f
00000070: 8489 0d3f a28a 713f dcce c43e fb73 4a3f

blocks.2.bn.bias f4 [32]
-0.23914342 -0.48949438 -0.18678068 -0.2709881 -0.55770457 -0.26052782 -0.20650905 -0.595885
-0.5853171 -0.40703875 -0.5243713 -0.45733687 -0.5862328 -0.30891687 -0.3539747 -0.66413254
-0.40021777 -0.46261898 -0.40255776 -0.3422861 -0.6402275 -0.78674173 -0.3772187 -0.5094407
-0.712516 -0.50349075 -0.60863537 -0.27832624 0.048604418 -0.42351526 0.30783194 -0.7202998
00000000: 03e2 74be 029f fabe 6f43 3fbe f4be 8abe
00000010: bac5 0ebf e763 85be 1c77 53be eb8b 18bf
00000020: 57d7 15bf 6267 d0be 333d 06bf 0f28 eabe
00000030: 5a13 16bf 5a2a 9ebe 2c3c b5be 9704 2abf
00000040: 58e9 ccbe 65dc ecbe 0d1c cebe 2040 afbe
00000050: f3e5 23bf e867 49bf cf22 c1be b56a 02bf
00000060: 7367 36bf c5e4 00bf 87cf 1bbf c780 8ebe
00000070: 6d15 473d fed6 d8be 269c 9d3e 9165 38bf

blocks.2.bn.running_mean f4 [32]
-1.4028796 -4.698076 -1.9848969 -0.2811408 -4.4103603 2.0666916 -0.5466857 -1.1355089
-1.0970987 -2.2546394 -1.0280516 -1.2960209 2.2231 -4.026799 -2.627955 -2.3245888
-0.94137865 -0.61148316 -2.0700417 -2.105782 -2.1919982 0.8723502 -0.7474616 -2.435315
-0.16628528 -0.5356008 -2.27673 0.12652609 -1.0199912 -2.426844 0.92102975 -0.96381354
00000000: 8f91 b3bf a356 96c0 1a11 febf b0f1 8fbe
00000010: ac21 8dc0 ad44 0440 98f3 0bbf 5b58 91bf
00000020: bb6d 8cbf 034c 10c0 3297 83bf 03e4 a5bf
00000030: 4547 0e40 8adb 80c0 6a30 28c0 10c6 14c0
00000040: 31fe 70bf 298a 1cbf 907b 04c0 22c5 06c0
00000050: b349 0cc0 5852 5f3f a559 3fbf 33dc 1bc0
00000060: b046 2abe 221d 09bf f2b5 11c0 0e90 013e
00000070: 128f 82bf 6951 1bc0 9bc8 6b3f 7cbc 76bf

blocks.2.bn.running_var f4 [32]
19.37714 18.201641 21.545177 7.335221 12.180944 10.777823 19.222319 7.689999
6.5597334 18.044445 7.5966506 11.331821 6.723095 19.239285 23.680668 7.512021
7.1757774 11.116852 8.7573185 8.651767 7.216555 8.568798 9.687028 10.782659
5.975974 6.642493 7.5785565 20.419912 11.601256 19.0112 21.56357 9.168145
00000000: 6204 9b41 f69c 9141 865c ac41 21ba ea40
00000010: 26e5 4241 f771 2c41 4fc7 9941 7914 f640
00000020: 56e9 d140 065b 9041 c317 f340 244f 3541
00000030: 9823 d740 0eea 9941 0272 bd41 7a62 f040
00000040: f89f e540 a0de 3141 fa1d 0c41 a36d 0a41
00000050: 05ee e640 cc19 0941 11fe 1a41 c585 2c41
00000060: 2e3b bf40 4d8f d440 8983 f240 fb5b a341
00000070: bf9e 3941 f016 9841 3182 ac41 b9b0 1241

blocks.3.conv.weight f4 [32, 32, 3, 3]
-0.21154216 -0.08019564 -0.20925276 0.023317559 -0.6046075 -0.36468136 -0.31281966 -0.20937951
-0.10397653 0.15355125 0.17803268 -0.25852865 0.21436132 0.19646947 0.08105454 0.16180083
0.22478032 0.2674897 -0.04669526 0.07888113 -0.04213744 0.120964624 0.1575283 0.020071097
-0.23477282 -0.023087218 -0.004665699 -0.034768485 0.06839896 0.06189923 -0.035287317 -0.58386934
-0.3215624 0.22051492 0.1897166 -0.11868726 -0.2073389 -0.106101714 -0.021478128 -0.24204136
0.10232913 -0.33472085 -0.11892496 0.075478755 -0.5129432 0.1740018 -0.00863512 0.16220808
-0.3130475 0.07776988 0.05771811 0.27508062 -0.10237271 0.15011181 0.48360494 0.047031723
-0.035106555 0.31697637 0.16046908 0.15360984 0.23649828 -0.1224276 -0.05523452 -0.096109055
0.09968753 0.29711944 0.08661008 0.015761187 -0.007737911 0.36372733 -0.07811913 -0.35057405
0.033222623 0.09417308 0.09360983 0.2731777 0.08770882 0.34977716 -0.07624528 -0.0017290435
-0.05137417 -0.070427425 0.09175038 0.41294608 0.111900024 0.19502273 0.09379936 -0.1345465
0.34793693 0.27435043 -0.14018707 0.048798572 0.18683544 0.5075159 -0.14934905 0.034270093
-0.056027576 -0.016685195 0.107747205 0.025048038 -0.13970898 0.23674516 -0.16434893 0.085912846
-0.039420076 -0.4737827 -0.26359436 0.12910533 -0.21629469 -0.13449664 -0.036281783 -0.16728005
-0.1505208 0.09691959 0.22367752 -0.10081283 0.15494879 0.09597801 0.22079827 0.1274408
0.1578947 0.16077556 0.3985259 0.025168963 -0.06740807 -0.089047685 -0.24402195 -0.3293352
-0.224226 -0.355066 -0.09935927 -0.16731028 -0.2151648 0.07663899 -0.53254664 -0.29316363
0.07940785 -0.08902248 -0.2988302 0.027758922 0.060759887 -0.28456023 -0.05693722 0.20172559
-0.111995965 -0.25216612 -0.18968111 -0.046609428 -0.16156992 -0.04964997 0.33058557 -0.03102938
-0.55928046 0.07145288 0.19213584 0.0965989 -0.1616016 0.054906413 0.12325348 0.1920667
-0.056020234 -0.05126109 0.12229201 -0.17549871 0.12564056 -0.020948626 0.13869779 -0.067643054
0.14408036 0.04094421 0.27029502 -0.25885758 -0.08847921 -0.23818143 0.45517156 -0.06840891
0.14367825 0.1205994 -0.31837705 -0.23928756 -0.1777201 0.00026338556 0.014677196 0.09178183
-0.09183871 -0.070736475 0.24334219 0.14010206 0.072727926 0.39414257 0.022264784 0.17236257
0.045682628 0.2558 0.08639913 -0.07098052 0.19555096 0.07591832 -0.0927837 -0.2064839
-0.07139675 -0.070611075 0.031982537 -0.60852814 -0.21639088 -0.03101626 -0.34069854 -0.04754009
0.05739518 0.38028148 -0.4016357 -0.36001262 -0.10845605 0.11553735 0.21094988 0.17020208
-0.018515024 0.027411297 -0.17831105 -0.122752115 0.1636087 -0.50195956 0.003320188 -0.27899462
-0.15985067 -0.00980285 -0.07276224 -0.27979124 0.10005235 -0.078464955 -0.040829785 0.27604267
0.23325829 -0.07924073 -0.06680765 -0.3158805 -0.18394914 -0.060465395 -0.2528394 0.103465155
0.45153272 -0.030400008 -0.3616356 0.0032385727 0.040124647 0.34963515 0.19330518 0.19403659
0.040542778 -0.009269248 -0.031697497 0.15630905 -0.05967405 0.2648982 -0.1434349 -0.19833727
00000000: 829e 58be 9d3d a4bd 5b46 56be 7704 bf3c
00000010: 8fc7 1abf 84b7 babe e629 a0be 9567 56be
00000020: a6f1 d4bd 8a3c 1d3e 334e 363e de5d 84be
00000030: 8981 5b3e 4b2f 493e ecff a53d 1eaf 253e
00000040: d02c 663e 69f4 883e 8743 3fbd 6e8c a13d
00000050: 4f98 2cbd 4dbc f73d 194f 213e 246c a43c
00000060: 4968 70be 6821 bdbc b8e2 98bb 6669 0ebd
00000070: c114 8c3d 0c8a 7d3d 6f89 10bd 7678 15bf
00000080: d4a3 a4be aace 613e 1245 423e 4e12 f3bd
00000090: a650 54be db4b d9bd e6f2 afbc b1d9 77be
000000a0: ef91 d13d 8860 abbe ee8e f3bd 9b94 9a3d
000000b0: 3f50 03bf 872d 323e 517a 0dbc e019 263e
000000c0: c347 a0be d145 9f3d d369 6c3d 5ed7 8c3e
000000d0: c9a8 d1bd e9b6 193e 119b f73e 56a4 403d
000000e0: e4cb 0fbd ba4a a23e 0252 243e e64b 1d3e
000000f0: 9b2c 723e 52bb fabd 983d 62bd d3d4 c4bd
00000100: fa28 cc3d 0a20 983e a060 b13d 9b1d 813c
00000110: 4d8e fdbb 783a ba3e ecfc 9fbd 717e b3be
00000120: 7214 083d d1dd c03d 83b6 bf3d f3dd 8b3e
00000130: afa0 b33d fe15 b33e 7c26 9cbd 13a1 e2ba
00000140: b96d 52bd 413c 90bd a0e7 bb3d ab6d d33e
00000150: d72b e53d 0ab4 473e e119 c03d 8fc6 09be
00000160: ca24 b23e a977 8c3e 338d 0fbe 03e1 473d
00000170: ca51 3f3e 90ec 013f f5ee 18be cc5e 0c3d
00000180: 2c7d 65bd 64af 88bc 91aa dc3d 8b31 cd3c
00000190: df0f 0fbe 536d 723e 164b 28be 13f3 af3d
000001a0: f276 21bd a593 f2be d7f5 86be 3034 043e
000001b0: 5b7c 5dbe 7db9 09be 359c 14bd 764b 2bbe
000001c0: 2022 1abe c77d c63d b80b 653e f576 cebd
000001d0: e5aa 1e3e 1e90 c43d f118 623e d77f 023e
000001e0: 26af 213e 59a2 243e 960b cc3e 242f ce3c
000001f0: 3e0d 8abd a25e b6bd e4e0 79be a09e a8be
00000200: 809b 65be 36cb b5be df7c cbbd 6353 2bbe
00000210: 2954 5cbe e7f4 9c3d fa54 08bf 8b19 96be
00000220: 95a0 a23d 6b51 b6bd 4600 99be ae66 e33c
00000230: 5cdf 783d e1b1 91be 0137 69bd 2791 4e3e
00000240: 245e e5bd eb1b 81be c43b 42be 87e9 3ebd
00000250: 9672 25be c45d 4bbd 8342 a93e 5431 febc
00000260: 012d 0fbf e355 923d 42bf 443e a5d5 c53d
00000270: e47a 25be 8ce5 603d 526c fc3d 22ad 443e
00000280: 7975 65bd 26f7 51bd 3c74 fa3d efb5 33be
00000290: eba7 003e 749c abbc cb06 0e3e 7188 8abd
000002a0: cd89 133e 1eb5 273d 1c64 8a3e fb88 84be
000002b0: 9734 b5bd d5e5 73be 3f0c e93e f819 8cbd
000002c0: 6420 133e d1fc f63d 5102 a3be cc07 75be
000002d0: 42fc 35be 0317 8a39 9f78 703c 1df8 bb3d
000002e0: ef15 bcbd 49de 90bd b22e 793e ea76 0f3e
000002f0: 61f2 943d 0ecd c93e a364 b63c d07f 303e
00000300: b51d 3b3d 38f8 823e 07f2 b03d 3c5e 91bd
00000310: 833e 483e 107b 9b3d 6105 bebd 8470 53be
00000320: 7638 92bd 8a9c 90bd 1f00 033d 80c8 1bbf
00000330: 9295 5dbe d015 febc 0a70 aebe 66b9 42bd
00000340: 3517 6b3d 41b4 c23e 32a3 cdbe 9353 b8be
00000350: 351e debd d99e ec3d 3f03 583e 7449 2e3e
00000360: d2ac 97bc a88d e03c 2c97 36be 7665 fbbd
00000370: 0a89 273e 6c80 00bf 8397 593b 62d8 8ebe
00000380: e5af 23be 229c 20bc 5f04 95bd cc40 8fbe
00000390: 3fe8 cc3d 3cb2 a0bd 223d 27bd 7755 8d3e
000003a0: 43db 6e3e f748 a2bd 73d2 88bd 17bb a1be
000003b0: 2a5d 3cbe 90aa 77bd 2a74 81be 8ae5 d33d
000003c0: 4c2f e73e 7009 f9bc 4d28 b9be 3c3e 543b
000003d0: be59 243d 6103 b33e cbf1 453e 87b1 463e
000003e0: 2f10 263d 0bde 17bc 3cd5 01bd 7b0f 203e
000003f0: c76c 74bd bda0 873e 99e0 12be ed18 4bbe

blocks.3.conv.bias f4 [32]
-0.0017409975 -0.00068597955 0.0056540356 0.00721089 0.01695551 -9.645205e-05 0.00029748073 -0.00054563937
-0.0006199694 0.0013763006 0.0010220864 0.00082321966 2.0393047e-05 0.0015511167 0.0004009065 -0.001995587
0.0003003853 0.0011652012 0.007192214 -0.004914699 -0.013318312 -0.00015839156 0.00027088032 -0.005355708
0.0001593155 3.8548613e-05 -0.0016326595 2.747513e-05 -0.0013420833 0.0010211163 0.0010123536 -0.0006006108
00000000: 2f32 e4ba 4fd3 33ba 7d45 b93b 5449 ec3b
00000010: 48e6 8a3c 4d46 cab8 30f7 9b39 3d09 0fba
00000020: 7185 22ba fc64 b43a 87f7 853a 56cd 573a
00000030: bc11 ab37 d74e cb3a c230 d239 65c8 02bb
00000040: 087d 9d39 aab9 983a aaac eb3b 7c0b a1bb
00000050: 0d35 5abc e915 26b9 f104 8e39 ef7e afbb
00000060: ee0d 2739 42af 2138 f6fe d5ba 647a e637
00000070: d8e8 afba fad6 853a f3b0 843a 4f72 1dba

blocks.3.bn.weight f4 [32]
0.97737414 0.8577682 0.86783165 0.61800826 0.95991445 0.6733453 0.9367641 0.94228464
0.9386376 0.91983414 0.7566091 0.9186439 1.0806313 0.84525365 0.94600594 1.1650293
1.0856329 1.0610008 0.8243572 0.82786447 1.0005751 1.1621009 0.8643101 0.9159167
1.0704721 0.90744203 1.0170597 0.6837783 0.6744155 0.90245575 0.46296996 0.9486453
00000000: 3135 7a3f b296 5b3f 372a 5e3f ca35 1e3f
00000010: f4bc 753f 5c60 2c3f c6cf 6f3f 9139 713f
00000020: 8e4a 703f 407a 6b3f 22b1 413f 3f2c 6b3f
00000030: 2052 8a3f 8b62 583f 722d 723f ae1f 953f
00000040: 05f6 8a3f e0ce 873f 1309 533f edee 533f
00000050: d812 803f b9bf 943f 6d43 5d3f 8479 6a3f
00000060: 3b05 893f 1f4e 683f 032f 823f 180c 2f3f
00000070: 7fa6 2c3f 5707 673f 660a ed3e 6bda 723f

blocks.3.bn.bias f4 [32]
-0.29356936 -0.30576298 -0.36460492 -0.26464733 -0.41129535 0.00869167 -0.81972694 -0.52607006
-0.53102416 -0.6799044 -0.3693293 -0.08235082 -0.52437496 -0.50173056 -0.65156066 -0.38580412
-0.6049721 -0.7986495 -0.41602156 -0.43978295 -0.42730066 -0.7332363 -0.694324 -0.6360386
-0.542306 -0.7318131 -0.4985881 -0.34369522 -0.0045041894 -0.44612297 0.33322674 -0.51445943
00000000: b94e 96be f78c 9cbe 7fad babe db7f 87be
00000010: 4e95 d2be 8267 0e3c a0d9 51bf 87ac 06bf
00000020: 33f1 07bf 370e 2ebf bb18 bdbe 8ca7 a8bd
00000030: 703d 06bf 6a71 00bf aecc 26bf 1e88 c5be
00000040: 74df 1abf 4b74 4cbf c700 d5be 3b2b e1be
00000050: 27c7 dabe 60b5 3bbf 38bf 31bf 6dd3 22bf
00000060: 91d4 0abf 1a58 3bbf f046 ffbe d2f8 afbe
00000070: e197 93bb 3b6a e4be b29c aa3e 9db3 03bf

blocks.3.bn.running_mean f4 [32]
-2.3575664 -1.6341718 -4.0285697 -1.446353 -2.3307514 -0.42904097 -1.1433308 -0.42758295
1.7863069 -3.4373665 2.7891705 0.34867516 -0.5456552 -3.443836 -1.748938 -1.1944375
-3.295698 -1.9550133 -2.1042907 -0.52327526 -2.2410154 0.30345982 1.7051239 -4.225281
1.5284715 0.18939742 -2.4076889 -1.567578 3.8813043 -2.3932335 -0.2295353 -0.45146593
00000000: 5ee2 16c0 8b2c d1bf 0bea 80c0 1822 b9bf
00000010: 082b 15c0 42ab dbbe aa58 92bf 27ec dabe
00000020: b4a5 e43f d0fd 5bc0 c581 3240 8d85 b23e
00000030: 0fb0 0bbf cf67 5cc0 33dd dfbf 54e3 98bf
00000040: b7ec 52c0 e03d fabf b3ac 06c0 5ef5 05bf
00000050: cc6c 0fc0 165f 9b3e 8041 da3f 8035 87c0
00000060: f4a4 c33f 66f1 413e 9317 1ac0 65a6 c8bf
00000070: 4a67 7840 bd2a 19c0 4d0b 6bbe 8b26 e7be

blocks.3.bn.running_var f4 [32]
10.850621 12.234728 19.585798 8.353213 11.558157 12.970035 7.083582 5.966421
8.030981 5.4049206 18.955118 5.9048357 6.77142 7.1743536 10.902862 13.066908
7.5172033 6.0156417 8.722396 8.969855 7.36519 5.2965355 8.285487 8.25001
7.7066493 7.5805364 11.281975 10.6421795 12.734835 12.752458 9.694446 8.227409
00000000: 259c 2d41 72c1 4341 b7af 9c41 c3a6 0541
00000010: 36ee 3841 4385 4f41 b4ac e240 ecec be40
00000020: e67e 0041 1cf5 ac40 15a4 9741 6af4 bc40
00000030: 79af d840 4e94 e540 1f72 2e41 0e12 5141
00000040: ee8c f040 2380 c040 ef8e 0b41 8784 0f41
00000050: a3af eb40 387d a940 5b91 0441 0a00 0441
00000060: df9c f640 c193 f240 f882 3441 5e46 2a41
00000070: e2c1 4b41 110a 4c41 731c 1b41 78a3 0341
