models/22.pth (torch, 501905 bytes, 80 tensors)

conv0.conv.weight f4 [32, 17, 3, 3]
0	0xbd583dff	-0.0527935
1	0x3d41d43f	0.047321554
2	0xbdd3f14f	-0.1034876
3	0xbda2d67b	-0.07951065
4	0xbd01f08a	-0.031723537
5	0xbd97fc69	-0.0742119
6	0xbdafe740	-0.08589029
7	0x3c3cc7df	0.011522262
8	0x3d66a329	0.056307945
9	0x3d15fec1	0.036619905
10	0x3c967411	0.018365892
11	0x3d803bce	0.06261407
12	0x3d6f48e2	0.058419116
13	0x3bde5efd	0.006786226
14	0xbd89b786	-0.067244574
15	0xbd2c2aae	-0.04203289
16	0xbcadfb8c	-0.021238111
17	0x3c2436af	0.010022803
18	0x3d34825b	0.04406963
19	0xbd745ad6	-0.05965694
20	0x3d9d8f47	0.076933436
21	0xbc69482d	-0.014238399
22	0x3d016b00	0.031596184
23	0x3d4cb08c	0.049973056
24	0xbd1aa226	-0.037752293
25	0xbd2ff8c8	-0.042961866
26	0x3d602f2a	0.05473248
27	0xbd87662a	-0.06611283
28	0x3d81e981	0.063433655
29	0xbcb64152	-0.022247944
30	0x3d3dc112	0.046326704
31	0x3d314c5f	0.043285724
32	0x3d2b82e5	0.041872878
33	0xbceddafa	-0.02903508
34	0x3cb196b7	0.021678312
35	0x3c09836e	0.008393152
36	0xbcef6dcc	-0.02922716
37	0xbd747dc8	-0.059690267
38	0xbd83cb00	-0.064352036
39	0x3d8a1cba	0.067437604
40	0xbd19221f	-0.037386056
41	0x3d4eebad	0.050517727
42	0xbc8bb4fb	-0.017054072
43	0x3d4446b2	0.047918983
44	0x3da3e353	0.08002343
45	0x3b839b71	0.004016333
46	0x3c9e0f74	0.019294478
47	0xbd5dda29	-0.054163132
48	0xbc48f898	-0.012266301
49	0x3ba92a0d	0.0051624835
50	0x3cf7d0f4	0.030251004
51	0x3ce605c6	0.028078925
52	0xbd29acca	-0.04142455
53	0xbcd8b9c9	-0.026455777
54	0x3da5d835	0.08097879
55	0x3d4875e3	0.04894055
56	0x3d2b79bb	0.041864138
57	0x3de9461f	0.11390328
58	0x3c93491e	0.0179792
59	0xbd0f1b98	-0.034938425
60	0x3c3043ed	0.010758382
61	0xbd5ef82a	-0.054435886
62	0xbbed738e	-0.007246441
63	0x3cb824ee	0.022478547
64	0xbcf40a9d	-0.029790217
65	0xbd9ebdee	-0.0775107
66	0x3d581284	0.052752033
67	0x3cdf7a2c	0.027279936
68	0x3d4b61d6	0.04965385
69	0x3d037333	0.032092284
70	0xbd7f7539	-0.06236765
71	0x3c161179	0.009159439
72	0x3d9b2466	0.07575302
73	0x3d17dec9	0.0370777
74	0xbde09260	-0.10965419
75	0x3d4618d0	0.048363507
76	0x3c4e1b45	0.012579744
77	0xbd9c04db	-0.076181136
78	0xbd3a2bec	-0.045452043
79	0x3d2fbd73	0.042905282
80	0xbd61af36	-0.055098735
81	0x3c5dcbed	0.013537389
82	0x3d5f84de	0.05457007
83	0x3d21642a	0.039402165
84	0x3bb0086e	0.0053720986
85	0x3d9040a4	0.07043579
86	0xbc76cdea	-0.015063742
87	0xbcbeff97	-0.023315234
88	0xbd1bca8d	-0.038034964
89	0x3d562e23	0.052290093
90	0xbcad2888	-0.02113749
91	0x3db46a3d	0.08809326
92	0xbd4d00c0	-0.050049543
93	0xbca90e82	-0.0206368
94	0x3dc98aee	0.09840952
95	0x3d25912f	0.04042166
96	0xba39ef07	-0.0007092808
97	0x3d2e08f6	0.042489015
98	0xbb3f6764	-0.0029205913
99	0xbdac6942	-0.08418514
100	0x3d5639f7	0.052301373
101	0xbd684e16	-0.056715094
102	0x3cb03de5	0.021513889
103	0xbbfc44a4	-0.0076986123
104	0x3db03b6a	0.08605082
105	0xbd5673ec	-0.052356645
106	0x3d0ef1aa	0.034898438
107	0x3d24314d	0.04008608
108	0xbdbe2d8e	-0.092860326
109	0xbd7b5975	-0.06136461
110	0xbda69008	-0.081329405
111	0x3cf45fad	0.029830778
112	0xbb81dd65	-0.00396316
113	0x3b83ce51	0.0040223976
114	0x3d7d6246	0.0618613
115	0x3d61d52a	0.05513493
116	0x3bd75fa3	0.00657268
117	0x3d91704c	0.07101497
118	0xbc1d5253	-0.009602147
119	0x3dc2f085	0.09518532
120	0x3c8f6441	0.01750386
121	0xbcadc485	-0.021211872
122	0x3cec8415	0.028871575
123	0x3bcf8d42	0.006333978
124	0x3c64d119	0.013965868
125	0x3bf36a03	0.007428409
126	0xbc55e0cc	-0.013054084
127	0xbda18089	-0.07885844
128	0x3d8eec6f	0.0697869
129	0x3d938344	0.07202771
130	0x3c004ec8	0.007831283
131	0x3bfd4c47	0.0077300402
132	0x3905327a	0.00012702672
133	0x3bee1538	0.007265713
134	0x3d309c6e	0.043117933
135	0xbcd21600	-0.025645256
136	0x3d662988	0.05619195
137	0xba9a04d7	-0.001175071
138	0x3d8ccbf2	0.06874837
139	0x3d90d36a	0.07071574
140	0x3bdfcb2e	0.006829641
141	0xbcc813a5	-0.02442343
142	0xbc7f487e	-0.015581248
143	0x3d9cb677	0.0765199
144	0x3d1f2aa2	0.038859017
145	0x3cab4cef	0.020910708
146	0x3d2941ad	0.0413224
147	0x3d01ed20	0.03172028
148	0xbbdaf200	-0.0066816807
149	0xbcf90732	-0.030398939
150	0x3c6604b2	0.014039205
151	0x3d002cbe	0.03129267
152	0x3d53bc65	0.05169334
153	0x3dc50f7e	0.096220955
154	0x3cec32ba	0.028832782
155	0x3d838778	0.06422323
156	0xbd687214	-0.05674942
157	0xbd9012bc	-0.07034823
158	0x3d9dc4fb	0.07703587
159	0x3d0f0053	0.03491242
160	0xbc739060	-0.014865965
161	0xbd983256	-0.07431476
162	0x3d6e55e3	0.058187377
163	0x3d9c6fe9	0.07638533
164	0x3d113c71	0.035458032
165	0xbca07bcd	-0.019590283
166	0x3ce588da	0.028019357
167	0x3d4af8d3	0.049553704
168	0xbd5b29ad	-0.053506542
169	0x3c2f17eb	0.010686855
170	0x3c60cda2	0.013720902
171	0xbc3bb438	-0.011456542
172	0x3d2ca515	0.042149622
173	0xbd6023ef	-0.05472177
174	0xbd418d44	-0.047253862
175	0xbcf630cc	-0.030052565
176	0xbc614047	-0.013748235
177	0xbd4428f8	-0.047890633
178	0xbd3ec733	-0.04657669
179	0xbd4ea329	-0.05044857
180	0xbdae026a	-0.08496554
181	0x3c7837bf	0.01515001
182	0x3c6372b8	0.013882332
183	0xbd2166df	-0.039404746
184	0x3d4b8ee2	0.04969681
185	0x3d34051d	0.04395019
186	0xbbcaddbe	-0.0061909845
187	0xbd34afa3	-0.044112813
188	0xbd59d4e0	-0.05318153
189	0x3d8ae09e	0.067811236
190	0xbd1686fd	-0.03674983
191	0xbd2853ab	-0.041095417
192	0xbc0fbd8f	-0.008773222
193	0xbd62fa3c	-0.055414423
194	0xbc051961	-0.008123727
195	0xbd613136	-0.05497857
196	0x3d33a6ea	0.043860354
197	0xbbd6bcc4	-0.0065532643
198	0x3c0680a5	0.008209382
199	0x3d732911	0.059365336
200	0xbd138f32	-0.036025234
201	0x3cc29b35	0.02375565
202	0x3cebd859	0.028789686
203	0xbd95fe25	-0.07323865
204	0xbcc2beab	-0.023772558
205	0xbd3697d3	-0.044578385
206	0xbcaa5e82	-0.020797018
207	0xbcd41a36	-0.025891405
208	0x3da83862	0.08213879
209	0xbda8b59f	-0.082377665
210	0xbc3b5400	-0.011433601
211	0xbd8148e2	-0.063127294
212	0x3d5f50f3	0.05452056
213	0xbd3bbff3	-0.045837354
214	0xbcf061a2	-0.02934343
215	0x3d8e110a	0.06936844
216	0x3b35731e	0.0027687023
217	0x3d32cc3b	0.0436518
218	0xbd3318da	-0.043724872
219	0x3d20ebcb	0.03928737
220	0xbd95a988	-0.07307726
221	0xbdac4bf3	-0.08412924
222	0x3d093c09	0.03350452
223	0x3d808f1c	0.06277296
224	0x3cae194b	0.021252295
225	0xbd3a2564	-0.045445815
226	0xbd70ca28	-0.05878654
227	0x3d2b2cce	0.041790776
228	0x3d146662	0.036230452
229	0xbd986d28	-0.07442695
230	0x3d9e89cf	0.07741129
231	0xbdc6a56c	-0.096995205
232	0xbda4a5a4	-0.08039406
233	0x3d4c7ac1	0.049921755
234	0x3d966c3c	0.07344863
235	0x3c5871b3	0.013210702
236	0xbd005fcd	-0.031341363
237	0x3bb3e3e7	0.0054898146
238	0x3d7a0ba7	0.06104627
239	0x3d21ce32	0.039503284
240	0x3d9a60da	0.07538004
241	0x3be63b7b	0.0070261336
242	0x3c62cfb9	0.01384347
243	0x3dbee735	0.09321443
244	0xbcd70f81	-0.02625251
245	0x3d8fa522	0.070139185
246	0x3d834188	0.064089835
247	0xbd0e97d1	-0.034812752
248	0xbd006ab9	-0.03135178
249	0x3d14ce15	0.036329348
250	0x3d306c8d	0.043072272
251	0x3aac4092	0.0013141802
252	0x3db6163e	0.08890961
253	0x3d19009b	0.037354093
254	0x3d4fa3e9	0.050693426
255	0xbc9d56b1	-0.019206377

conv0.conv.bias f4 [32]
0	0xba96d117	-0.0011506405
1	0xba8c58d6	-0.0010707628
2	0x3beda3b8	0.007252183
3	0xbb2654c4	-0.0025380114
4	0x3a83e037	0.0010061328
5	0x3b5b5441	0.0033466967
6	0x3b338a2f	0.0027395596
7	0xbae0a08d	-0.0017137692
8	0x3cb5b5ff	0.022181509
9	0xbbe7eaab	-0.007077535
10	0xba8067e0	-0.0009796582
11	0x3ae263b2	0.0017272143
12	0xba4026f2	-0.0007330022
13	0xb9835f04	-0.0002505706
14	0x3969c6dc	0.00022294692
15	0xbae2fc6f	-0.0017317663
16	0x3b312fd7	0.0027036571
17	0x3cc5bba2	0.024137322
18	0x3c32749a	0.010892058
19	0x3cdd6e5a	0.027030159
20	0x3c5ff1b2	0.0136684645
21	0xbbb7cccf	-0.005609132
22	0x3baaf0fd	0.0052167163
23	0xbb0648dc	-0.0020490205
24	0xbcd8a4cb	-0.026445767
25	0x38d1adc8	9.998266e-05
26	0x3ab050ad	0.0013451778
27	0x3c59ffc2	0.013305606
28	0x3c3935f4	0.011304367
29	0x3957a6a7	0.0002056608
30	0xbb2faef3	-0.0026807159
31	0xbc944005	-0.018096933

conv0.bn.weight f4 [32]
0	0x3f7b1722	0.9808217
1	0x3f803125	1.0014998
2	0x3f779e06	0.967255
3	0x3f7b7fc5	0.98241836
4	0x3f77aec9	0.96751076
5	0x3f7a97dc	0.9788797
6	0x3f7e167b	0.9925305
7	0x3f7f7b97	0.9979796
8	0x3f79776b	0.9744784
9	0x3f7c1c02	0.98480237
10	0x3f7c0bea	0.9845568
11	0x3f80573b	1.0026621
12	0x3f80c883	1.0061191
13	0x3f777cfd	0.9667509
14	0x3f7afe95	0.9804471
15	0x3f78ceea	0.97190726
16	0x3f803701	1.0016786
17	0x3f7dd0ad	0.9914654
18	0x3f793e89	0.97361046
19	0x3f75c9ab	0.96010846
20	0x3f81a93d	1.0129772
21	0x3f7734f7	0.9656519
22	0x3f7d8267	0.99027103
23	0x3f80c548	1.0060205
24	0x3f826bf5	1.0189196
25	0x3f7ab7bc	0.97936606
26	0x3f7c56fa	0.98570216
27	0x3f7bcd8d	0.9836052
28	0x3f7ea1f7	0.9946589
29	0x3f7dc398	0.9912658
30	0x3f7987b1	0.97472674
31	0x3f7f627f	0.9975967

conv0.bn.bias f4 [32]
0	0xbbb4f251	-0.0055220504
1	0x399f981d	0.00030440176
2	0x3b82dbe9	0.0039935005
3	0xbcbe186c	-0.023205005
4	0x3c458d43	0.012057605
5	0xbc8c653b	-0.017138114
6	0xbb52ac04	-0.0032145986
7	0xbb58fe89	-0.00331107
8	0xbc341b65	-0.0109928595
9	0xbd30e9b2	-0.04319162
10	0x3c70fad3	0.014708239
11	0x3d0028f8	0.03128907
12	0x3bd946a4	0.0066307355
13	0xbc8961b6	-0.016770225
14	0xbd2201b9	-0.039552424
15	0xbceb71b3	-0.02874074
16	0x3abe65d0	0.0014526192
17	0x3c46f4b3	0.012143302
18	0x3c16a410	0.009194389
19	0xbcb7c701	-0.02243376
20	0x3cb9cf57	0.022681875
21	0x3c56076a	0.013063291
22	0x3cf9a97b	0.030476322
23	0x3c860802	0.01636124
24	0x3d3bafe7	0.04582205
25	0x3b038daa	0.0020073452
26	0xbbc14578	-0.005898174
27	0x3d66099b	0.056161504
28	0x3cf9b098	0.030479714
29	0x3c6656f4	0.014058817
30	0x3b2a5b4d	0.002599436
31	0x3c654525	0.013993536

conv0.bn.running_mean f4 [32]
0	0x3abe0be6	0.0014499396
1	0xba1482c0	-0.0005665235
2	0x3c16d6aa	0.009206453
3	0xbc0eb204	-0.008709434
4	0x3b00b016	0.0019636205
5	0x3bb87096	0.0056286557
6	0x3b8eff32	0.0043639177
7	0xbab028df	-0.0013439915
8	0x3cb48212	0.022034679
9	0xbbed1031	-0.007234596
10	0x35ef844b	1.784539e-06
11	0x3b517b11	0.0031964222
12	0xb82b636d	-4.0862175e-05
13	0x3a94f96e	0.001136584
14	0x3af297b1	0.0018508342
15	0xbb19535d	-0.0023395636
16	0x3bc01c04	0.0058627147
17	0x3cae2d57	0.021261854
18	0x3c0deac3	0.008661929
19	0x3cc53c3b	0.024076572
20	0x3c61fcbd	0.013793168
21	0xbc0534d2	-0.008130269
22	0x3b893c6d	0.0041881115
23	0x3a419ff6	0.0007386202
24	0xbcd91487	-0.026499046
25	0xb83990e9	-4.4242395e-05
26	0x3b89e576	0.004208262
27	0x3c6f50f8	0.014606707
28	0x3c68279f	0.014169603
29	0x3b7c27c7	0.0038475858
30	0xbb099a5b	-0.0020996544
31	0xbc9a5cbe	-0.018843051

conv0.bn.running_var f4 [32]
0	0x3a89c1fd	0.0010510084
1	0x3a2a6e78	0.00065014465
2	0x3a435a2d	0.0007452097
3	0x3a515757	0.0007985732
4	0x3a679778	0.0008834521
5	0x3a6ea458	0.00091034686
6	0x3a42d5d8	0.0007432378
7	0x3a2e82c5	0.00066570594
8	0x3a973560	0.0011536293
9	0x3a75cd5c	0.0009376609
10	0x3a687f59	0.0008869074
11	0x3a714044	0.0009202997
12	0x3a50ccdd	0.00079650973
13	0x3a77cfef	0.0009453287
14	0x3a820e8a	0.0009922546
15	0x3a65792c	0.0008753713
16	0x3a33fc46	0.00068659
17	0x3a6ae403	0.0008960368
18	0x3a86605c	0.0010252106
19	0x3a85f2cf	0.0010219457
20	0x3a360de8	0.0006944821
21	0x3a80ed13	0.0009836279
22	0x3a5a60d9	0.00083304715
23	0x3a63ca1a	0.0008689478
24	0x3a264370	0.00063424464
25	0x3a54c463	0.0008116422
26	0x3a624cf6	0.0008632684
27	0x3a6ea507	0.00091035705
28	0x3a500a7c	0.00079361326
29	0x3a723d7e	0.00092407304
30	0x3a58eb86	0.0008274842
31	0x3a327fbc	0.0006809195

blocks.0.conv.weight f4 [32, 32, 3, 3]
0	0xbc60ba7d	-0.013716337
1	0x3b7bb2e0	0.0038406178
2	0x3c4b1137	0.012394241
3	0xbd2fc854	-0.042915657
4	0xbc62a357	-0.013832889
5	0x3d62347a	0.055225827
6	0xbd0d05f9	-0.034429524
7	0x3ca4cac2	0.020116214
8	0xbd3c7e66	-0.04601898
9	0x3c2e325c	0.010632124
10	0xbc904994	-0.01761321
11	0xbc8f52cc	-0.017495535
12	0xbcb18cbc	-0.021673553
13	0x3d0c95bf	0.034322497
14	0x3c8d89cb	0.017277619
15	0x3d2a4672	0.041571088
16	0xbd648081	-0.055786613
17	0x3bcaa480	0.0061841607
18	0x3d1ea170	0.038728178
19	0xbbbda4cd	-0.005787468
20	0xbd21fb68	-0.0395464
21	0xbd45097f	-0.04810476
22	0x3d0c7f80	0.03430128
23	0x3d13aad8	0.0360516
24	0xbbccef3a	-0.006254104
25	0x3d87bfca	0.06628378
26	0x3ca8f12b	0.02062281
27	0xbd081422	-0.033222325
28	0xbc4090b8	-0.011753254
29	0xbce688fe	-0.028141495
30	0xbc1eff92	-0.009704487
31	0xbd5972c9	-0.053087983
32	0x3d374bf1	0.044750158
33	0xbc877a6f	-0.016537873
34	0xbcf2f7e6	-0.029659223
35	0x3d68046a	0.056644835
36	0xbd1c3227	-0.038133767
37	0x3d38fc9e	0.04516279
38	0x3c9d339c	0.019189648
39	0x3caf15ef	0.021372763
40	0xbd073a47	-0.033014562
41	0x3d759b61	0.059962634
42	0xbd87fe8c	-0.06640348
43	0xbd8bccbb	-0.068261586
44	0xbcfe228e	-0.031022336
45	0xbce7e01c	-0.028305106
46	0x3d549416	0.05189904
47	0x3c1b7436	0.009488156
48	0xb8c7af92	-9.521762e-05
49	0xbd14b43b	-0.036304694
50	0x3cd5023a	0.026002038
51	0x3a6430fd	0.00087048096
52	0x3ced9cf9	0.029005514
53	0xbbbcc948	-0.0057612993
54	0x3b31f367	0.0027153136
55	0x3ca4a998	0.0201004
56	0x3d11e3e3	0.03561772
57	0x3c963d89	0.01833989
58	0xbcaf7f8a	-0.02142312
59	0x3b6f2ffc	0.0036497107
60	0x3d7bb116	0.06144818
61	0x3c97814b	0.018494269
62	0xbd657195	-0.056016523
63	0x3d1dedba	0.03855679
64	0xbabfa09b	-0.0014620008
65	0xbc7d8719	-0.015474104
66	0x3c8974be	0.0167793
67	0xbd84f24a	-0.064915255
68	0x3b9b9564	0.0047480334
69	0xbd5c9fce	-0.05386334
70	0xbc61a40f	-0.013772025
71	0xbcba99d6	-0.022778433
72	0x3c85428a	0.01626708
73	0x3d309082	0.043106563
74	0x3c891b0c	0.01673653
75	0xbc645cf9	-0.013938182
76	0xbd1025da	-0.035192348
77	0x3cafb737	0.021449668
78	0x3d312adf	0.043253776
79	0x3c056a4e	0.008143021
80	0xbce98b6a	-0.02850886
81	0xbd164a75	-0.0366921
82	0x3c90bd93	0.017668521
83	0x3cbaab88	0.02278687
84	0x3d4fc4a3	0.050724637
85	0x3d894970	0.0670346
86	0xbd2dc398	-0.04242286
87	0xbce4b747	-0.027919425
88	0x3cbaac99	0.02278738
89	0xbb0b34b6	-0.0021241135
90	0x3d37a465	0.044834513
91	0xbcc7af70	-0.024375647
92	0xbd256011	-0.04037482
93	0x3c1453c6	0.009053176
94	0x3c9f38f1	0.019436331
95	0x3c8309c3	0.015995866
96	0xbbb0a6bd	-0.0053909705
97	0xbd743e43	-0.05962969
98	0xbd198232	-0.03747768
99	0x3c8b5fb1	0.017013403
100	0x3d0879f9	0.033319447
101	0x3db6d5e1	0.08927513
102	0x3bccffbc	0.006256072
103	0x3d165c18	0.03670892
104	0x3ccc9340	0.024972558
105	0x3bd7fcbc	0.0065914076
106	0x3d21da44	0.039514795
107	0x3d604bed	0.05475991
108	0xbcc8d9d8	-0.024517938
109	0xbd67956b	-0.05653898
110	0xbd2ad4a8	-0.04170671
111	0x3c5183cf	0.012787773
112	0xbc83bd98	-0.016081616
113	0x3ba88d8e	0.0051438278
114	0x3c8daf8b	0.01729562
115	0xbd7bb799	-0.06145439
116	0x3c986ed2	0.01860753
117	0xbd24a2fa	-0.04019449
118	0xbd57c31c	-0.052676305
119	0xbcf79f93	-0.030227458
120	0xbd1daeb9	-0.038496707
121	0xbd532301	-0.051547054
122	0xbd3aa561	-0.045567874
123	0xbc135f86	-0.0089949425
124	0x3c776eb4	0.015102077
125	0x3d7d601c	0.061859235
126	0xbc870bd8	-0.01648514
127	0x3cd6f799	0.02624111
128	0xbcc5e444	-0.024156697
129	0x3d3e1db5	0.04641505
130	0x3d82cf6f	0.06387221
131	0xbd11bb9f	-0.03557932
132	0x3b03086b	0.0019994031
133	0xbae7e219	-0.0017691284
134	0x3d404587	0.046941306
135	0x3c9c9c1b	0.019117406
136	0x3cf8c15e	0.030365642
137	0xbb68086c	-0.003540541
138	0x3d4cdcb5	0.05001517
139	0x3d38f5cd	0.04515629
140	0xbd8c2c3f	-0.06844377
141	0xbc85304f	-0.016258387
142	0x3c840dc7	0.01611985
143	0xbd114615	-0.035467226
144	0x3d02e47f	0.031956192
145	0x3d312899	0.043251608
146	0xbce8cf53	-0.028419172
147	0x3d1f97f2	0.038963266
148	0xbc2f93f2	-0.010716425
149	0xbc93961a	-0.01801591
150	0x3d875bbe	0.06609295
151	0x3ccb70e8	0.024834111
152	0x3ce0bd9b	0.027434161
153	0x3c139b4d	0.009009195
154	0x3d3de950	0.046365082
155	0xbcbdb88b	-0.023159286
156	0xbd432412	-0.04764182
157	0xbd97b3fb	-0.074073754
158	0x3cc95d37	0.024580581
159	0x3d12c1b7	0.035829272
160	0x3cff9d2b	0.031202873
161	0x3d73e9da	0.05954919
162	0x3c70ad95	0.014689823
163	0x3d13baba	0.03606675
164	0x3cfa9083	0.030586487
165	0x3d2615de	0.040548198
166	0xbd2a439e	-0.04156839
167	0xbd36eaba	-0.044657446
168	0xbc7575e9	-0.014981725
169	0xbd379354	-0.044818237
170	0x3c9922b1	0.0186933
171	0x3ca3c3bb	0.019990792
172	0x3d845648	0.06461769
173	0xbbda4edb	-0.0066622323
174	0x3c9d3c03	0.019193655
175	0x3d1f68d5	0.038918335
176	0x3b3868bc	0.0028138598
177	0x3b9c1ac0	0.004763931
178	0x3d37d3d2	0.044879742
179	0x3d282980	0.041055202
180	0x3cdf13b2	0.027231071
181	0xbc4622ee	-0.012093289
182	0x3d02d5b4	0.031942084
183	0x3d334822	0.043769963
184	0x3ca42d79	0.020041214
185	0x3c3d3d8e	0.01155032
186	0xbd66bdfe	-0.056333534
187	0x3a10ae11	0.0005519102
188	0xbd43769d	-0.04772054
189	0xba9ffb7a	-0.0012205683
190	0xbcda1568	-0.026621535
191	0x3d35961f	0.04433262
192	0x3d071cf4	0.032986596
193	0xbca7299e	-0.020405587
194	0xbd1dd0bc	-0.038529143
195	0xbba69958	-0.005084198
196	0x3cf75370	0.030191153
197	0xbcf371d0	-0.029717356
198	0x3c0750c0	0.008258998
199	0x3d2aa70d	0.04166322
200	0xbc85e0e5	-0.01634259
201	0xbb27e309	-0.0025617501
202	0xb9b36ca0	-0.00034222472
203	0x3d3135c9	0.043264184
204	0x3d4fa8db	0.050698142
205	0xbd4706cd	-0.04859047
206	0xbcf95585	-0.030436287
207	0x3d557cdc	0.05212103
208	0xbcf7017e	-0.030152079
209	0x3d3b4a11	0.045724932
210	0x3b98323c	0.0046446603
211	0xbbc11bb0	-0.005893193
212	0xbbaa8801	-0.005204201
213	0xbd4d5515	-0.05012997
214	0x3d145ac8	0.03621939
215	0x3d2f584c	0.042808816
216	0xbd84d42c	-0.06485781
217	0x3d9e55c3	0.077312015
218	0xbcfbe6e4	-0.030749746
219	0xbcc68b5d	-0.024236375
220	0x3d2de6c0	0.04245639
221	0x3dacffec	0.08447251
222	0x3b2c223a	0.0026265518
223	0xbca43a88	-0.020047441
224	0xbd85d798	-0.06535262
225	0xbd8295e3	-0.06376245
226	0xbc7de4cb	-0.015496443
227	0x3c27cbaa	0.010241428
228	0xbba23497	-0.004950117
229	0xbd2020d1	-0.039093796
230	0x3c09ffe8	0.008422829
231	0xbc3150a4	-0.010822449
232	0x3d4fbe1e	0.05071842
233	0xbcf1733d	-0.029473895
234	0x3ca78057	0.02044694
235	0x3ced70b5	0.028984407
236	0x3adec978	0.0016997298
237	0x3d45d98f	0.048303183
238	0x3d2a413a	0.04156611
239	0x3c8c5b12	0.01713327
240	0xbd6f9552	-0.058492012
241	0xbc1b7192	-0.0094875265
242	0xbc022f20	-0.007945806
243	0xbcff93c9	-0.0311984
244	0xbbe36f2b	-0.0069407425
245	0x3d931079	0.07180876
246	0xbd401b08	-0.04690078
247	0xbc0d47bd	-0.008623061
248	0xbd43d313	-0.047808718
249	0x3d4526da	0.048132755
250	0x3c897181	0.016777756
251	0x3c2afd70	0.010436401
252	0x3d281137	0.041032042
253	0xbd0f795f	-0.035027858
254	0x3d67def7	0.05660912
255	0xbc95fb8a	-0.01830842

blocks.0.conv.bias f4 [32]
0	0xba055eb8	-0.00050876616
1	0x392166af	0.00015392409
2	0x38f68168	0.00011754298
3	0xb8e4a559	-0.000109026856
4	0xba41bc8c	-0.00073904614
5	0x388de766	6.766505e-05
6	0xba264ba0	-0.00063436665
7	0xbabcb8d2	-0.0014398342
8	0x38a8d7ed	8.0510836e-05
9	0x398afb01	0.00026508424
10	0xb63da98e	-2.8261888e-06
11	0x3a0f0c1f	0.0005456823
12	0x3b4a0998	0.0030828472
13	0xbb588664	-0.0033039087
14	0x39d16ab8	0.00039943098
15	0xb85a75f7	-5.2085114e-05
16	0xb9c59d71	-0.0003769207
17	0xba79bc1c	-0.00095266267
18	0xb9a78c73	-0.00031957365
19	0x3a55e20a	0.00081589876
20	0x3af86ba7	0.0018952981
21	0x387c512e	6.0157086e-05
22	0xbb096bda	-0.0020968826
23	0x38bc2d85	8.973017e-05
24	0xb90f1c68	-0.00013648125
25	0xba4242b9	-0.0007410455
26	0x3ad35028	0.0016121911
27	0xb8cedf28	-9.8644115e-05
28	0x3a32b457	0.0006817034
29	0xbb3e0620	-0.002899535
30	0x392a680e	0.00016251227
31	0x39a4cac2	0.00031431584

blocks.0.bn.weight f4 [32]
0	0x3f7b1c8c	0.98090434
1	0x3f7ad2fd	0.9797819
2	0x3f7e7b63	0.99407023
3	0x3f78a385	0.9712451
4	0x3f80cb90	1.0062122
5	0x3f7f0b6b	0.996268
6	0x3f768bf6	0.96307313
7	0x3f7a7338	0.9783206
8	0x3f7e38dd	0.99305516
9	0x3f7cae41	0.9870339
10	0x3f7bd65e	0.98373973
11	0x3f811fde	1.008785
12	0x3f801047	1.0004967
13	0x3f79c634	0.9756806
14	0x3f78071b	0.9688584
15	0x3f7a7516	0.9783491
16	0x3f7f0af5	0.99626094
17	0x3f80358b	1.001634
18	0x3f7bea26	0.9840416
19	0x3f858c18	1.0433378
20	0x3f7e4bd3	0.9933445
21	0x3f779b6b	0.96721524
22	0x3f7d5fb0	0.9897413
23	0x3f7d4937	0.9893984
24	0x3f75c442	0.9600259
25	0x3f7b1062	0.98071873
26	0x3f7c0514	0.9844525
27	0x3f7a72f6	0.97831666
28	0x3f7caf1a	0.98704684
29	0x3f809f73	1.004866
30	0x3f7e856d	0.9942234
31	0x3f801fe3	1.0009731

blocks.0.bn.bias f4 [32]
0	0x3ca01768	0.019542411
1	0x3b37a4c7	0.00280218
2	0x3cdfa299	0.027299212
3	0x3bce9605	0.006304505
4	0x3cb7b138	0.022423372
5	0x3ca4a02f	0.020095913
6	0xbcf40094	-0.029785432
7	0x3c261c5b	0.010138596
8	0xbc1132b1	-0.008862183
9	0xbb0a158f	-0.0021069979
10	0x3c2e9421	0.010655434
11	0x3cbceb92	0.023061547
12	0xbb113495	-0.0022156585
13	0xbce8265c	-0.028338604
14	0xbcead853	-0.028667605
15	0xbc5c4875	-0.0134450095
16	0x3b59527e	0.0033160741
17	0x3c96a31d	0.018388325
18	0xbcbd93b9	-0.023141729
19	0xbc94a545	-0.018145213
20	0x3c4be5a8	0.012444891
21	0xbc9abb2c	-0.018888079
22	0xbc89df7b	-0.016830197
23	0xbabe854b	-0.0014535574
24	0x3c30d00b	0.010791789
25	0xbd1126df	-0.03543746
26	0xbba58396	-0.0050510867
27	0x3caaff9c	0.020873837
28	0xbc85bf92	-0.0163267
29	0x3c945074	0.01810477
30	0x3c306a87	0.010767586
31	0x3b8dd236	0.0043280376

blocks.0.bn.running_mean f4 [32]
0	0x3dc88e4b	0.09792765
1	0x3d88780b	0.066635214
2	0x3da792b8	0.08182281
3	0x3dd1e616	0.102489635
4	0xbe4d966e	-0.20076916
5	0x3b2b5b6f	0.0026147028
6	0xbdacd7a9	-0.084395714
7	0xbe494782	-0.19656184
8	0xbe7e746e	-0.24849102
9	0xbe94ffee	-0.2910151
10	0x3bddbc53	0.0067668348
11	0xbe3d43ef	-0.18482946
12	0xbdcad8dc	-0.09904644
13	0xbdb4d679	-0.0882997
14	0x3e954f7a	0.29162198
15	0x3e03b411	0.12861659
16	0x3d2e9010	0.042617857
17	0xbdac9aed	-0.08427987
18	0x3d97e302	0.07416345
19	0xbdc1d84f	-0.09465086
20	0xbc87f197	-0.016594691
21	0x3e03d174	0.12872869
22	0xbe840609	-0.25785854
23	0x3d2efd4d	0.042722035
24	0x3e08edd9	0.13371982
25	0xbd526caf	-0.05137318
26	0xbe0fe9a7	-0.14053975
27	0xbe1b83d7	-0.15187012
28	0xbded27ed	-0.11579881
29	0x3bc4428f	0.0059893797
30	0x3e4d0b48	0.20023835
31	0xbe0ecbdf	-0.13944958

blocks.0.bn.running_var f4 [32]
0	0x3e67fd42	0.22655204
1	0x3e726b63	0.23673777
2	0x3eb6d54b	0.35709605
3	0x3ea000a7	0.31250498
4	0x3f13d068	0.5773988
5	0x3e399860	0.18124533
6	0x3e8cbb47	0.2748663
7	0x3e9b06ef	0.30278727
8	0x3f2574b6	0.6463121
9	0x3f3f523e	0.74734867
10	0x3e739330	0.23786616
11	0x3ef75fa0	0.48315144
12	0x3e99a7cb	0.30010828
13	0x3e8616fe	0.26189417
14	0x3f0e4716	0.5557722
15	0x3e81da65	0.25361934
16	0x3e6367e9	0.22207607
17	0x3e85b1c3	0.26112184
18	0x3e8e9504	0.27848065
19	0x3e6d5e6e	0.23180553
20	0x3e4d673c	0.20058912
21	0x3e9ed555	0.31022134
22	0x3f22c5d9	0.6358314
23	0x3e72a78c	0.23696727
24	0x3e6537e2	0.22384599
25	0x3e7ff9ad	0.24997588
26	0x3e95f282	0.2928658
27	0x3eabb5d5	0.33537164
28	0x3e692a51	0.22770049
29	0x3e5de10e	0.21667883
30	0x3f081ec4	0.53171945
31	0x3eb1076a	0.3457597

blocks.1.conv.weight f4 [32, 32, 3, 3]
0	0xbd1aeee8	-0.037825495
1	0x3cce2faf	0.025169222
2	0xbc4008e4	-0.01172087
3	0x3d207289	0.03917173
4	0x3c17187c	0.009222146
5	0x3d1fb26c	0.038988516
6	0x3bac85cd	0.0052649737
7	0x3ce62c8b	0.028097412
8	0xbd398e61	-0.0453018
9	0xbbec8fa5	-0.007219272
10	0x3d0b4823	0.03400434
11	0xbc2e06cc	-0.010621738
12	0xbd540db7	-0.051770892
13	0xbcc79294	-0.024361886
14	0xbd51b239	-0.051195357
15	0xbd891ebd	-0.06695316
16	0xbd1ad638	-0.03780195
17	0xbd6f8c40	-0.058483362
18	0x3d438a53	0.047739338
19	0x3d3d84e7	0.046269324
20	0xbd14c2c5	-0.03631856
21	0xbd6d9236	-0.058000766
22	0xbd8a9441	-0.067665584
23	0xbd67edc8	-0.05662325
24	0xbd5a9479	-0.05336425
25	0xbd2fff6a	-0.04296819
26	0x3d0a54c9	0.033772264
27	0x3c34f18e	0.011043919
28	0x3cba8a26	0.022770952
29	0x3d06ee07	0.032941844
30	0xbd188a9a	-0.037241556
31	0x3c9c4c31	0.0190793
32	0xbc450d49	-0.012027093
33	0x3ca0fb62	0.019651119
34	0xbca72340	-0.02040255
35	0xbd85a4bf	-0.065255634
36	0x3c8e1067	0.017341806
37	0x3d1e103f	0.038589712
38	0xbc5312b2	-0.012882875
39	0x3bb49d79	0.0055119363
40	0xbc22bba2	-0.00993243
41	0x3cb19a26	0.021679949
42	0xbb49cd73	-0.0030792623
43	0x3c7e49fb	0.015520568
44	0xbd2d08fb	-0.042244893
45	0xbd1c1e7c	-0.03811501
46	0xbcc52988	-0.024067655
47	0x3ca58f35	0.020209888
48	0x3d4ca7c2	0.049964674
49	0x3c50c47d	0.012742159
50	0xbd73ba0b	-0.059503596
51	0xbd393ee6	-0.045226
52	0x3b80fedf	0.003936633
53	0x3c70f7af	0.01470749
54	0x3d0b6a83	0.034037124
55	0x3c7d3c32	0.015456246
56	0xbd00aaac	-0.031412765
57	0xbc168549	-0.009187051
58	0xbd5559a6	-0.05208745
59	0xbd621aa1	-0.055201177
60	0xbd216099	-0.039398763
61	0x3b0bb009	0.0021314642
62	0x3c27dd90	0.010245696
63	0xbd0c7491	-0.034290854
64	0xbc920c89	-0.017828243
65	0xbd42e4a1	-0.04758132
66	0xbd3c932d	-0.046038795
67	0xbc815a1c	-0.015790038
68	0xbd87bd7b	-0.066279374
69	0x3ce09ced	0.027418578
70	0x3d3d6d78	0.046246976
71	0xbcc44647	-0.023959292
72	0x3d0c9073	0.034317445
73	0x3d055fad	0.032561947
74	0xbbe1c313	-0.0068897097
75	0xbbac95bd	-0.0052668736
76	0x3d1cabee	0.038249902
77	0xbc800083	-0.015625244
78	0x3d5eae36	0.05436536
79	0x3c9f5cb4	0.019453384
80	0xbcae9e9c	-0.021315865
81	0xbd4c8c4d	-0.04993849
82	0xbc0df6dc	-0.008664813
83	0xbcbb7b39	-0.022885906
84	0xbb1d0e33	-0.0023964762
85	0xbd1c94a1	-0.03822768
86	0x3ca7d634	0.020487882
87	0xbcd16293	-0.0255597
88	0x3d230917	0.03980359
89	0xbd8c41fa	-0.068485215
90	0x3d20782d	0.03917711
91	0x3c258e5f	0.010104745
92	0xbcbd980c	-0.02314379
93	0x3cc28f1d	0.023749882
94	0xbd75fb33	-0.060054015
95	0xbc2653b9	-0.010151797
96	0xbc2fb691	-0.01072468
97	0xbd2ff94a	-0.04296235
98	0x3c8bf81f	0.017086087
99	0xbd224553	-0.039616894
100	0x3d2cbe1c	0.04217349
101	0xbcac32ea	-0.021020371
102	0xbcff6726	-0.031177115
103	0x3d5087b1	0.050910655
104	0xbc5383ea	-0.012909869
105	0x3d2144eb	0.039372366
106	0x3d676b21	0.05649865
107	0xbd824054	-0.06359926
108	0x3cd4e2bc	0.025987022
109	0xbc1046d3	-0.008805948
110	0xbd232978	-0.03983447
111	0xbd412c53	-0.04716141
112	0xbc240b6e	-0.010012491
113	0xbc0f1279	-0.008732432
114	0xbd5fd983	-0.054650795
115	0xbc85e7a7	-0.016345812
116	0x3c627206	0.013821131
117	0xbd604195	-0.054750044
118	0xbd193e33	-0.037412833
119	0xbd99a5ec	-0.0750235
120	0xbc74a2cf	-0.014931395
121	0xbc08645a	-0.008324707
122	0x3cdddaf2	0.02708194
123	0x3cb22e4a	0.021750588
124	0x3bb3c780	0.0054864287
125	0xbd2f5818	-0.042808622
126	0xbc759a5e	-0.014990417
127	0x3d1cb595	0.038259108
128	0xbd464b41	-0.04841161
129	0xbd973893	-0.073838376
130	0x3c932753	0.017963087
131	0x3c59a968	0.0132850185
132	0xbcc766ef	-0.024341075
133	0xbcdb9cf4	-0.02680824
134	0xbd7a4952	-0.06110508
135	0x3c67f98e	0.01415862
136	0xbcc403ac	-0.023927532
137	0xbc919790	-0.017772466
138	0x3d1da572	0.03848786
139	0xbcaefe75	-0.021361569
140	0xbd39783c	-0.04528068
141	0xbc9b9424	-0.018991537
142	0xbd29a7c0	-0.041419744
143	0xbd492a43	-0.04911257
144	0x3d1319bf	0.035913225
145	0xbcd336de	-0.025782999
146	0xbd05b189	-0.032640014
147	0xbd222524	-0.0395862
148	0xbd28d66a	-0.041220106
149	0x3d1c58e2	0.038170703
150	0x3d31a716	0.043372236
151	0x3cfe6b21	0.031056942
152	0x3ce38fc0	0.027778506
153	0x3ceb54e6	0.028727006
154	0xbb4c9e32	-0.0031222221
155	0xbd01dbe0	-0.03170383
156	0x3cae895b	0.02130573
157	0xbd2e0f00	-0.042494774
158	0x3b32b61e	0.0027269195
159	0xbd3ba41b	-0.0458108
160	0xbd2b8e3b	-0.04188369
161	0x3d3cf376	0.04613062
162	0x3c523099	0.012828969
163	0xbd84ebf1	-0.06490315
164	0xbd7bf213	-0.061510157
165	0xbd1c8714	-0.038214758
166	0xbd930235	-0.07178155
167	0x3ca27ef5	0.019835928
168	0x3b2c44a2	0.0026286026
169	0x3c19187c	0.009344216
170	0xbd67fb94	-0.056636408
171	0xbcf3ec1d	-0.029775674
172	0x3ce2a6bc	0.027667396
173	0x3c370e7a	0.011172885
174	0x3d612ce0	0.054974437
175	0xbd2b02dc	-0.041750774
176	0xbcf9bda3	-0.030485934
177	0xbd9ffa53	-0.078114174
178	0xbcb10a83	-0.021611458
179	0xbd635835	-0.055504043
180	0x3a8dfe55	0.0010833243
181	0xbd734d4c	-0.059399888
182	0x3c9862df	0.018601833
183	0x3d3394d6	0.043843113
184	0xbda35ea6	-0.07977037
185	0xbca285c8	-0.019839182
186	0xbd3cc5fc	-0.04608725
187	0x3c2d26ed	0.010568363
188	0xbd49466a	-0.049139418
189	0x3d5465ce	0.0518549
190	0xbd3e9300	-0.04652691
191	0xbcaf4ddb	-0.021399429
192	0xbc481c72	-0.012213813
193	0x3c0b7f3d	0.008514223
194	0x3c52456a	0.012833932
195	0x3c74947a	0.014927978
196	0xbd5237e2	-0.051322825
197	0xbcb03ac3	-0.021512395
198	0x3b8c3c5e	0.0042796573
199	0x3ceb3ee1	0.028716506
200	0x3c19a49c	0.009377625
201	0xbd5404a2	-0.05176223
202	0xbd32aae2	-0.043619998
203	0xbc99dad9	-0.018781113
204	0xbc33ac1e	-0.010966329
205	0x3d181c1f	0.037136193
206	0x3d1ec835	0.03876515
207	0x3d1c50be	0.03816294
208	0xbd2f1ab2	-0.042750068
209	0xb8e37c24	-0.000108473265
210	0x3bf2fbb1	0.007415258
211	0xbd7e9e71	-0.06216282
212	0xbd991ab5	-0.07475797
213	0xbd3f786e	-0.04674571
214	0xbd362401	-0.04446793
215	0xbd83ec93	-0.06441607
216	0x3d07fcf0	0.033200204
217	0x3cf91f0f	0.030410318
218	0x3ca49dbb	0.020094743
219	0xba892904	-0.0010464494
220	0x3c23f9fa	0.0100083295
221	0xbc05161c	-0.008122947
222	0xbd4ac09d	-0.049500097
223	0x3d5951a7	0.053056385
224	0x3c7febb9	0.0156201655
225	0x3ce36554	0.027758278
226	0x3cc9944e	0.02460685
227	0x3d0d8954	0.034554794
228	0xbd640d5c	-0.055676803
229	0xbd26e10b	-0.04074196
230	0x3d16819f	0.03674471
231	0xbcabcaa5	-0.020970652
232	0x3c9a3a9f	0.01882678
233	0xbc980b02	-0.018559936
234	0x3c806485	0.015672931
235	0x3c88219b	0.016617587
236	0xbd596f8f	-0.053084906
237	0x3bff1f5e	0.0077857217
238	0xbd10f2f5	-0.035387952
239	0x3a98a83f	0.0011646821
240	0xbd1f8fe6	-0.03895559
241	0x3ac18c88	0.0014766613
242	0xbd54da66	-0.051966093
243	0x3d009796	0.031394564
244	0xbca39a40	-0.019971013
245	0x3c2761c3	0.010216179
246	0x3cb27f7a	0.021789301
247	0xbbfe1e42	-0.007755072
248	0x3ce778aa	0.02825578
249	0xbd5b8506	-0.053593658
250	0x3c657568	0.014005043
251	0xbd533c2b	-0.051571053
252	0x3bdfde51	0.006831922
253	0xbd16b07c	-0.036789402
254	0x3ba51378	0.0050377212
255	0xbd5488ee	-0.0518884

blocks.1.conv.bias f4 [32]
0	0xba0b67ae	-0.00053178787
1	0xb6de0a2d	-6.6173e-06
2	0xb846e592	-4.7420683e-05
3	0x3a70b60e	0.00091824017
4	0xba1777e1	-0.0005778056
5	0x3bb439ff	0.0055000777
6	0xb6deae9b	-6.6364423e-06
7	0xba32d571	-0.00068219664
8	0x39b0d852	0.00033730507
9	0x3abdd7f2	0.0014483912
10	0xb95d1b95	-0.00021086477
11	0x3a91aac5	0.0011113515
12	0x3a06513f	0.0005123801
13	0x3b100408	0.002197506
14	0x39a743aa	0.00031903136
15	0x3a7eeec8	0.0009724912
16	0x3adc8ee4	0.0016827253
17	0x3924a840	0.00015702937
18	0xba63f8f8	-0.0008696462
19	0xba9a4def	-0.0011772494
20	0xbaae9893	-0.0013320617
21	0x3a318016	0.00067711005
22	0x3a652acb	0.00087420334
23	0xbae93bc2	-0.0017794298
24	0x3ac2d138	0.0014863377
25	0x39f0db59	0.00045939794
26	0x3892d7a1	7.0019865e-05
27	0xba970a16	-0.0011523392
28	0x3a75d9f9	0.0009378489
29	0xba55f49d	-0.00081617554
30	0xb9463556	-0.0001890262
31	0x3834234f	4.2948228e-05

blocks.1.bn.weight f4 [32]
0	0x3f7d9390	0.9905329
1	0x3f7da916	0.9908613
2	0x3f7d8075	0.99024135
3	0x3f7dc975	0.99135524
4	0x3f826a21	1.0188638
5	0x3f79b9be	0.97549045
6	0x3f7cd2f2	0.98759377
7	0x3f7cac75	0.9870065
8	0x3f7e6606	0.99374425
9	0x3f780909	0.96888787
10	0x3f7b7ad3	0.9823429
11	0x3f7e5477	0.99347633
12	0x3f7c8247	0.9863629
13	0x3f7bbf25	0.9833854
14	0x3f7b4c38	0.98163176
15	0x3f7cb251	0.9870959
16	0x3f820727	1.0158433
17	0x3f7a5bde	0.9779643
18	0x3f850cae	1.0394495
19	0x3f831345	1.0240256
20	0x3f782ed0	0.9694643
21	0x3f7db8d2	0.9911014
22	0x3f7b1479	0.98078114
23	0x3f7ed70c	0.99546885
24	0x3f83c947	1.02958
25	0x3f7c327b	0.9851453
26	0x3f7b5d83	0.9818956
27	0x3f7a5498	0.9778533
28	0x3f7f4b17	0.99723953
29	0x3f7d1e2c	0.98874164
30	0x3f78486a	0.96985495
31	0x3f770524	0.9649222

blocks.1.bn.bias f4 [32]
0	0xbc08bb83	-0.0083454875
1	0xbb1d8173	-0.0024033457
2	0x3c97bbea	0.018522222
3	0x3c407d43	0.011748615
4	0x3c1eb30a	0.009686241
5	0x3c9e5610	0.019328147
6	0xbbaff727	-0.005370039
7	0xbc911940	-0.017712235
8	0xbccc3821	-0.024929108
9	0x3d1f8fbb	0.03895543
10	0x3cf69e3b	0.030104747
11	0x3c75c026	0.014999425
12	0x3a415892	0.0007375564
13	0xbd046fec	-0.0323333
14	0xbd3ad10c	-0.04560952
15	0xbd0e8356	-0.03479322
16	0xbc54862f	-0.012971445
17	0x3c87311d	0.016502911
18	0xbca56c4e	-0.020193245
19	0xbc0898ed	-0.008337242
20	0xbc78d409	-0.015187272
21	0xbd7ac01e	-0.061218373
22	0x3a71c0de	0.000922216
23	0x3bbe3cba	0.005805579
24	0xbc303dd1	-0.010756926
25	0xbc7f9916	-0.015600463
26	0xbb4b556e	-0.0031026262
27	0x3cbe794b	0.023251196
28	0xbcbc7f9c	-0.023010068
29	0xbc912ec1	-0.01772249
30	0x3c7acb91	0.015307323
31	0xbc60665c	-0.013696279

blocks.1.bn.running_mean f4 [32]
0	0xbf497547	-0.78694576
1	0x3d0b8559	0.034062717
2	0x3d6c3b4b	0.057673734
3	0xbf2e9509	-0.6819616
4	0xbf40c682	-0.753029
5	0xbe59c907	-0.21268092
6	0x3e0577b8	0.1303395
7	0xbec47be2	-0.38375765
8	0xbf23aaaf	-0.6393232
9	0x3f1ea546	0.6197094
10	0x3f17b8ea	0.5926653
11	0xbe13e07d	-0.14441104
12	0xbeeaf856	-0.4589259
13	0x3d694baf	0.056956943
14	0xbe1dd555	-0.15413411
15	0xbf39b5ac	-0.72542834
16	0xbe5886d3	-0.21145181
17	0x3e5564a4	0.20839173
18	0xbe302e40	-0.17205143
19	0xbecb82ea	-0.39748317
20	0x3e03fc43	0.12889199
21	0xbf59de58	-0.85104895
22	0xbef5eb90	-0.48031282
23	0xbd0280c4	-0.03186108
24	0xbf0a17bd	-0.5394247
25	0xbd9cb36b	-0.07651409
26	0x3ed7459d	0.42045298
27	0x3f204e32	0.62619317
28	0xbea6a6ea	-0.3254922
29	0xbf182d3e	-0.59444034
30	0x3f2066bc	0.6265676
31	0x3f305235	0.6887544

blocks.1.bn.running_var f4 [32]
0	0x4032d9fd	2.794555
1	0x3ea13423	0.3148509
2	0x3ed10dfc	0.40830982
3	0x4010b7d3	2.2612197
4	0x4015790b	2.3355129
5	0x3ee8c84b	0.4546531
6	0x3f1a3c52	0.6024829
7	0x3f76e4c6	0.9644283
8	0x3fe5816f	1.7930125
9	0x3fc4bca2	1.5370066
10	0x3fb84ebc	1.4399028
11	0x3eaa27f1	0.33233598
12	0x3ff0cf2e	1.8813226
13	0x3e960892	0.29303414
14	0x3eee6e43	0.46568498
15	0x40344240	2.8165436
16	0x3f287fc6	0.65819967
17	0x3f08c682	0.534279
18	0x3eaa6784	0.332821
19	0x3f934957	1.1506757
20	0x3ed7405c	0.4204129
21	0x401c2286	2.4396071
22	0x3f8fb487	1.1226968
23	0x3ecfc3c1	0.40579036
24	0x3fcbf757	1.5934857
25	0x3eb02cf3	0.34409294
26	0x3fbaaf2d	1.458471
27	0x40220773	2.5317047
28	0x3f2ab8dc	0.66688323
29	0x3fce905d	1.6137806
30	0x3fd538dc	1.6657977
31	0x400094f7	2.009092

blocks.2.conv.weight f4 [32, 32, 3, 3]
0	0xbc16dd7e	-0.009208081
1	0xbd1d61bf	-0.038423296
2	0xbd4f9834	-0.05068226
3	0x3c8b7b65	0.017026613
4	0xbd401025	-0.046890397
5	0x3d0b164c	0.03395681
6	0x3c5d63c2	0.013512554
7	0xbd6d825f	-0.05798566
8	0x3d46894d	0.048470784
9	0xbd177e80	-0.036985874
10	0x3c94c48a	0.018160123
11	0xbd84d524	-0.06485966
12	0x3b885e6a	0.0041616457
13	0x3d2c54bd	0.042073
14	0xbd528026	-0.051391743
15	0xbc47e543	-0.012200656
16	0xbd4c0afe	-0.04981517
17	0xbda882d2	-0.08228077
18	0x3c33242f	0.01093392
19	0x3d144e6a	0.036207594
20	0xbd01e89b	-0.03171597
21	0xbcb5e12b	-0.022202095
22	0x3c4861ba	0.012230331
23	0x3b82b9af	0.0039894204
24	0x3c989f4f	0.018630652
25	0xbd5c0f44	-0.053725496
26	0x3d3ddd8d	0.046353865
27	0xbbed65fd	-0.007244824
28	0xbcb66740	-0.02226603
29	0x3d0f9741	0.035056356
30	0x3ce71612	0.028208766
31	0xbc2c3d3b	-0.010512645
32	0x3d095d4d	0.033536244
33	0xbd3195ed	-0.04335587
34	0x3c01d11b	0.00792339
35	0xbc1de9c9	-0.009638258
36	0xbd7bcc59	-0.061474178
37	0xbd075de7	-0.033048537
38	0x3ae883fa	0.0017739527
39	0xbd0faa3f	-0.03507447
40	0x3d8bf0fa	0.06833072
41	0x3d887e39	0.066647
42	0x3d2028d5	0.03910144
43	0x3cf73645	0.030177245
44	0x3ce077ef	0.027400939
45	0xbd26f051	-0.040756527
46	0xbbde1f3c	-0.006778626
47	0x3c442066	0.011970615
48	0x3bbb9118	0.0057240836
49	0x3d472e0f	0.04862791
50	0x3d1fb535	0.038991172
51	0x3d01557c	0.031575665
52	0xbd589f6a	-0.052886404
53	0xbd82108d	-0.06350813
54	0xbd923096	-0.07138173
55	0xba418a0a	-0.0007382935
56	0x3c7ba95b	0.015360202
57	0x3cd3ef21	0.025870861
58	0xbc5c78ef	-0.013456567
59	0x3a5677c1	0.0008181297
60	0x3c25d1c8	0.0101208165
61	0x3b7ce366	0.0038587688
62	0xbd8a786d	-0.06761251
63	0xbd2e16de	-0.042502277
64	0x3c8f1d94	0.017470159
65	0xbcc60b04	-0.024175175
66	0xbc699b38	-0.014258198
67	0xbd110892	-0.035408564
68	0xbbc4170e	-0.0059841936
69	0xbbe22d6e	-0.0069023883
70	0xbc909e43	-0.01765359
71	0x3cd1d570	0.02561447
72	0xbc7194e3	-0.01474497
73	0xbd334d81	-0.043775085
74	0xbc90cace	-0.01767483
75	0x3d605495	0.054768164
76	0xbb16b948	-0.002299862
77	0xbd241e9a	-0.040068246
78	0x3c2af22b	0.010433714
79	0xbd702ef6	-0.058638535
80	0xbc3b394b	-0.011427234
81	0xbd7f3534	-0.062306598
82	0xbbaff202	-0.0053694258
83	0xbd8a9ec1	-0.06768561
84	0xbd545b74	-0.05184503
85	0xbd6424d7	-0.055699196
86	0xbd87bbd6	-0.06627624
87	0xbc869082	-0.016426329
88	0xbcbe425c	-0.023225002
89	0xbda0ed65	-0.078577794
90	0xbcac8e03	-0.02106381
91	0xbbe7dd5b	-0.007075948
92	0x3d03ec68	0.032207876
93	0xbd716488	-0.058933765
94	0xbd3ed504	-0.046589866
95	0xbc6d8454	-0.0144968815
96	0xbd96ee01	-0.073696144
97	0xbd1a3efd	-0.037657727
98	0xbc376a96	-0.011194846
99	0x3b180dde	0.0023201625
100	0xbca24a02	-0.01981068
101	0xba07e97d	-0.0005184634
102	0xbca2de34	-0.019881345
103	0x3ce7ae99	0.028281497
104	0xbd4f2e92	-0.050581522
105	0x3bd55bdc	0.0065111946
106	0x3cd50c5e	0.026006874
107	0x3d22a201	0.03970528
108	0x3cba1a55	0.022717634
109	0xbd3e6386	-0.04648163
110	0xbd74fb9a	-0.05981026
111	0x3d785fa8	0.0606381
112	0x3b92b90c	0.0044776257
113	0xbd55ecd3	-0.052227806
114	0xbd63002f	-0.055420097
115	0x3d2ba973	0.041909646
116	0xbc540986	-0.012941724
117	0xbd0d12fc	-0.034441933
118	0x3b3130ea	0.0027037212
119	0xbd713508	-0.058888465
120	0x3c19a194	0.009376902
121	0xbc8c9c6c	-0.017164432
122	0x3c3034de	0.010754792
123	0xbcf0f5ae	-0.029414024
124	0x3d1caf63	0.0382532
125	0x3c47eb5f	0.012202113
126	0x3cf902e1	0.03039688
127	0xbd737f78	-0.059447736
128	0xbcc5842b	-0.024110874
129	0xbc92e594	-0.017931737
130	0x3b926848	0.0044679977
131	0xbc94e238	-0.018174276
132	0xbc72cafa	-0.014818901
133	0x3ce50566	0.027956676
134	0xbd403477	-0.046925034
135	0xbd81b612	-0.06333555
136	0x3d25647e	0.04037904
137	0x3cccdba9	0.025007086
138	0xbd162abc	-0.03666185
139	0x3caad4fa	0.020853508
140	0xbd40d568	-0.04707852
141	0x3d5614c7	0.05226591
142	0xbbf9a49e	-0.007618501
143	0xbcf1f2c7	-0.02953471
144	0xbd142e8e	-0.03617721
145	0x3c9867a7	0.018604113
146	0xbcd1e922	-0.025623862
147	0xbc7acb97	-0.015307329
148	0x3d0922ea	0.033480562
149	0x3d0439d8	0.032281727
150	0x3c49921d	0.0123029025
151	0x3b568269	0.003273154
152	0x3d23f282	0.040026195
153	0xbd2352b8	-0.03987381
154	0xbd835fe5	-0.06414775
155	0xbd7b966c	-0.06142275
156	0x3c5a1d32	0.013312625
157	0x3bbe0dc6	0.0057999818
158	0x3ce19ae2	0.027539674
159	0xbd201cfa	-0.039090134
160	0xbccafbfc	-0.024778359
161	0x3d17fbc6	0.037105344
162	0xbc4b32cc	-0.012402248
163	0x3d3ecb18	0.046580404
164	0x3a69a6cb	0.0008913099
165	0xbc998c05	-0.018743524
166	0xbd081a6d	-0.033228327
167	0xbd045198	-0.032304376
168	0x3d276213	0.040865015
169	0xbcd8a1a9	-0.026444273
170	0xbd4a3032	-0.04936237
171	0x3d32d282	0.043657787
172	0x3d7426d5	0.059607346
173	0x3d55b475	0.05217405
174	0x3ca020ca	0.019546885
175	0x3c1e06cc	0.009645175
176	0x3c3eab44	0.011637513
177	0xbd250fe3	-0.040298354
178	0x3b6e5f6e	0.0036372798
179	0x3c7dd0b0	0.0154916495
180	0xbd873299	-0.066014476
181	0xbd65e6d4	-0.056128338
182	0xbc386121	-0.011253626
183	0xbcc9f20f	-0.024651555
184	0x3d054301	0.032534603
185	0xbc9be558	-0.019030258
186	0x3cacc697	0.021090789
187	0x3d291388	0.041278392
188	0xbcb9d74d	-0.022685671
189	0xbcce0d97	-0.025152965
190	0xbbec1236	-0.0072043194
191	0xbd487df8	-0.04894826
192	0x3d267bd4	0.040645435
193	0x3d565dfb	0.05233572
194	0xbd190973	-0.037362527
195	0xbd1e321b	-0.038622003
196	0x3d0333dd	0.032031883
197	0xbbc1f7a1	-0.0059194122
198	0x39af308f	0.0003341478
199	0xbd56f0fc	-0.052475914
200	0xbcb38596	-0.021914285
201	0xbd04aa96	-0.032389246
202	0xbaf73668	-0.0018860819
203	0xbbf5aedd	-0.007497652
204	0xbbb3fd8b	-0.005492871
205	0x3d06fcef	0.03295606
206	0x3cf3becf	0.02975407
207	0xbd7119de	-0.05886256
208	0xbd815657	-0.06315296
209	0xbc25b1c6	-0.010113185
210	0xbbf59c63	-0.0074954494
211	0x3c8bc695	0.017062465
212	0xbd0f31f4	-0.03495975
213	0xbc616bb8	-0.013758592
214	0xbc94d9ee	-0.018170323
215	0x3d516e2a	0.05113045
216	0xbcce58ba	-0.025188792
217	0x3d6bbc11	0.0575524
218	0x3db0727b	0.086155854
219	0x3d30150f	0.042988833
220	0x3d8a777c	0.06761071
221	0x3d076bb0	0.033061683
222	0x3d3745de	0.044744365
223	0xbc7eb70a	-0.01554657
224	0xbd225b66	-0.039637946
225	0xbd1b534f	-0.037921246
226	0x3c74f557	0.014951072
227	0x3c890cfe	0.016729828
228	0xbd684e05	-0.05671503
229	0xbc5f2ba2	-0.013621243
230	0xbc15467f	-0.009111046
231	0x3b8eb862	0.0043554762
232	0x3cadd6c7	0.021220578
233	0xbd83e18e	-0.064395055
234	0xbd643585	-0.055715103
235	0xbd2c9e5f	-0.042143222
236	0xb97b1061	-0.00023943327
237	0xbc8984a7	-0.016786886
238	0x3cb1dabd	0.021710748
239	0xbb83b483	-0.0040193214
240	0x3cc576b4	0.024104454
241	0xbd4af20b	-0.049547236
242	0x3cf5f26d	0.030022824
243	0xbd3d0deb	-0.04615585
244	0xbcf22fb3	-0.02956376
245	0xbc133c34	-0.0089865215
246	0x3d0783ef	0.033084806
247	0xbd37e049	-0.04489163
248	0xbd0c0d1b	-0.034192186
249	0x3d1253af	0.03572434
250	0x3cdd46cf	0.027011303
251	0x3d516aec	0.05112736
252	0x3d0e4ccb	0.034741204
253	0xbd0df60a	-0.03465847
254	0xbc7c87b2	-0.015413212
255	0x3d0df30a	0.03465561

blocks.2.conv.bias f4 [32]
0	0xb97ed49e	-0.00024302534
1	0x3b160634	0.002289188
2	0x39751afc	0.00023375073
3	0x3a93b2a6	0.0011268451
4	0x388a14cf	6.584229e-05
5	0x39bf0d8c	0.00036440452
6	0x3990080b	0.00027471813
7	0x378bfaa2	1.6686801e-05
8	0x381a1ad7	3.6741458e-05
9	0x39201ef2	0.00015270317
10	0xb85bd845	-5.2415086e-05
11	0x3a147add	0.000566406
12	0xba895864	-0.0010478613
13	0xb990e89a	-0.00027639122
14	0x39ea664c	0.00044708175
15	0x3a769d2c	0.00094075757
16	0x384fd414	4.955016e-05
17	0x3a832255	0.0010004739
18	0x365749ee	3.208053e-06
19	0xb9be4297	-0.00036289237
20	0xba763462	-0.0009391961
21	0xba1720b0	-0.00057650637
22	0x3a9c64ab	0.0011931857
23	0x3a07630c	0.00051646004
24	0x3820871b	3.82728e-05
25	0xba08427f	-0.0005197897
26	0xba0b2337	-0.00053076766
27	0xb7d96208	-2.5914065e-05
28	0x38c4ed20	9.390176e-05
29	0x39143694	0.00014134712
30	0x38a06da4	7.649817e-05
31	0xbae6fbf4	-0.0017622695

blocks.2.bn.weight f4 [32]
0	0x3f81f102	1.0151675
1	0x3f77d5ef	0.9681081
2	0x3f80008f	1.000017
3	0x3f7c2633	0.9849579
4	0x3f8049e1	1.0022546
5	0x3f7c2131	0.98488146
6	0x3f782745	0.9693492
7	0x3f7ca382	0.98686993
8	0x3f7a406b	0.97754544
9	0x3f802e42	1.0014117
10	0x3f7be64e	0.9839829
11	0x3f78d6cd	0.9720276
12	0x3f7e668c	0.99375224
13	0x3f77acb1	0.9674788
14	0x3f802a66	1.0012939
15	0x3f7e2caa	0.992869
16	0x3f7acfdc	0.9797342
17	0x3f819bb3	1.0125641
18	0x3f7ca4cf	0.9868898
19	0x3f823b5c	1.0174365
20	0x3f7be6fa	0.9839932
21	0x3f8003b8	1.0001135
22	0x3f817869	1.0114871
23	0x3f816538	1.0109015
24	0x3f82a15d	1.0205494
25	0x3f8052b9	1.0025245
26	0x3f80e09c	1.0068545
27	0x3f7ce3a4	0.9878485
28	0x3f807ea5	1.0038649
29	0x3f7d63e3	0.9898054
30	0x3f7a25ae	0.97713745
31	0x3f811600	1.0084839

blocks.2.bn.bias f4 [32]
0	0xbca07876	-0.01958869
1	0xbcbca86f	-0.023029534
2	0x3c5839fc	0.013197418
3	0x3c4d4bf3	0.012530315
4	0x3b9d8592	0.0048071826
5	0x3cc69dbd	0.024245137
6	0xbd3f3639	-0.04668257
7	0xbca7b84f	-0.020473627
8	0xbc9688ae	-0.01837572
9	0x3cb6c2c9	0.022309678
10	0x3cc5da8f	0.024152068
11	0x3b64db55	0.003492077
12	0xbbc37c4f	-0.0059657465
13	0xbd1cf1ea	-0.038316645
14	0xbd3edab5	-0.046595294
15	0xbc9090c7	-0.01764716
16	0xbcd5d84a	-0.026104111
17	0xbcca3e65	-0.024687955
18	0xbd0995cb	-0.03359012
19	0xbc3e92d9	-0.011631691
20	0xbcced411	-0.025247606
21	0xbd1654ea	-0.036702074
22	0xbbe37b60	-0.0069421977
23	0xbc7349e1	-0.014849157
24	0xbc93e65f	-0.018054185
25	0xbc4d3b66	-0.012526369
26	0xbbe056c1	-0.0068462794
27	0x3c8eb56a	0.01742049
28	0xbce50e82	-0.02796102
29	0xbc84b685	-0.016200313
30	0x3ca75f8d	0.020431304
31	0xbc447000	-0.0119895935

blocks.2.bn.running_mean f4 [32]
0	0xbf6c84c1	-0.92390066
1	0x3c8a6c06	0.016897213
2	0x3f74d2b7	0.95634025
3	0x3e92f2cc	0.28700864
4	0xbf0ed6ac	-0.55796313
5	0x3ebc88cf	0.36823127
6	0xbf3f7c08	-0.7479863
7	0xbf3459e5	-0.7044967
8	0xbf113136	-0.56715715
9	0xbdf1bfdd	-0.11804173
10	0xbdf41e9a	-0.11919899
11	0xbe98e58f	-0.2986264
12	0x3e9c8f28	0.3057797
13	0xbf1a7140	-0.60329056
14	0xbe4fbf79	-0.20287885
15	0xbe70ee6d	-0.23528452
16	0x3e9fdd20	0.31223392
17	0xbf0292af	-0.5100507
18	0x3a2ec3bc	0.000666674
19	0xbf7130b0	-0.94214916
20	0xbf22605e	-0.63428295
21	0xbefc8a9f	-0.4932451
22	0x3e9f8514	0.31156218
23	0xbe97f765	-0.29680935
24	0x3ce8a6a1	0.028399767
25	0xbe1c96bb	-0.15291874
26	0xbf2a1c16	-0.66449106
27	0x3e1df394	0.15424949
28	0xbf2e57d1	-0.6810275
29	0xbf624182	-0.88381207
30	0x3f538219	0.8262039
31	0xbf5f4ec5	-0.8722957

blocks.2.bn.running_var f4 [32]
0	0x40670bec	3.6101027
1	0x3f1ff2c4	0.62479806
2	0x40da129b	6.814771
3	0x40623f93	3.5351303
4	0x403dff1e	2.968696
5	0x3fb391d8	1.4028883
6	0x40884847	4.258823
7	0x40051ca4	2.079873
8	0x3fdcfff4	1.7265611
9	0x3f29867c	0.6622083
10	0x3fa60528	1.2970324
11	0x40088733	2.133252
12	0x3f612ccf	0.87959
13	0x3f1b07c9	0.60558754
14	0x3f33f56e	0.7029637
15	0x3f0fa526	0.5611137
16	0x3fb03773	1.3766922
17	0x3ea4f3d5	0.3221728
18	0x3f6fcc84	0.9367144
19	0x403e0ff0	2.9697227
20	0x3f73b3f0	0.9519644
21	0x40043c58	2.066183
22	0x3fc43e0b	1.5331434
23	0x3f360ae5	0.71110374
24	0x3f1d0257	0.61331695
25	0x3fc88849	1.5666591
26	0x3fedd9b9	1.8582069
27	0x3fe660b7	1.7998265
28	0x401f0f46	2.4853072
29	0x403c650a	2.943667
30	0x40b59d11	5.675423
31	0x3ffcc896	1.9748714
