models/246.pth (torch, 501904 bytes, 80 tensors)

conv0.conv.weight f4 [32, 17, 3, 3]
0	0x3d3bafe1	0.045822028
1	0x3ef94383	0.4868432
2	0x3e5ce3ad	0.21571226
3	0x3ecbdfac	0.39819086
4	0xbef8714e	-0.48523945
5	0x3f2518ad	0.6449078
6	0x3e522c17	0.20524631
7	0x3f03b921	0.5145436
8	0x3ea55570	0.32291746
9	0xbd9932bd	-0.07480381
10	0x3df6f145	0.12057737
11	0xbe075734	-0.13216859
12	0xbdbb26ae	-0.09138237
13	0xbea3f506	-0.32022876
14	0xbb4b1dbb	-0.0030993063
15	0x3e5951ba	0.21222582
16	0x3de9cc6c	0.114159435
17	0x3daabef4	0.08337203
18	0xbda67137	-0.08127063
19	0xbd8a4627	-0.06751662
20	0x3e4eea38	0.20206535
21	0xbd07833e	-0.033084147
22	0xbe9c2788	-0.3049891
23	0xbd82db19	-0.06389446
24	0xbc448838	-0.011995368
25	0x3d2a8b6e	0.041636877
26	0xbd128852	-0.035774536
27	0x3dfff45b	0.12497779
28	0x3d969955	0.073534645
29	0xbb8842c1	-0.0041583483
30	0x3d2704dc	0.04077612
31	0xbdf8e678	-0.121533334
32	0xbdd19ddb	-0.10235187
33	0x3e73c7bd	0.23806663
34	0x3c8ff1eb	0.01757141
35	0xbe1dfffb	-0.1542968
36	0x3ec6e5cb	0.38847193
37	0x3e859692	0.2609144
38	0x3f003fe5	0.50097495
39	0x3e9c3d16	0.30515355
40	0xbee5de28	-0.44896054
41	0x3edb0d97	0.42783806
42	0x3eca097d	0.39460364
43	0x3ec3f658	0.38273883
44	0x3e011873	0.12606983
45	0x3e1168bc	0.14200109
46	0x3ea6ea2a	0.32600528
47	0x3e718553	0.23586015
48	0x3e10515c	0.14093536
49	0xbe3f8997	-0.1870483
50	0x3e6a9292	0.22907475
51	0x3e7fa126	0.24963817
52	0x3eb4b77c	0.35296237
53	0x3e33eebd	0.1757154
54	0x3ecee214	0.4040686
55	0x3e5af138	0.2138108
56	0x3c5447e8	0.012956597
57	0x3e92acf0	0.28647566
58	0xbdd5a419	-0.1043169
59	0x3eada2d7	0.339133
60	0x3e995470	0.29947233
61	0x3ea50f85	0.32238403
62	0x3e5d3d46	0.21605405
63	0x3e8f10f4	0.27942622
64	0x3ede6f5d	0.43444338
65	0x3e12d372	0.14338472
66	0x3e758b37	0.23978887
67	0xbe230073	-0.1591814
68	0x3eb6c216	0.3569495
69	0x3eb9b827	0.3627331
70	0x3eaba657	0.33525345
71	0x3ecd509b	0.4010056
72	0x3d923287	0.071385436
73	0x3df632ee	0.12021433
74	0xbc188de5	-0.009311174
75	0x3e133e96	0.14379343
76	0x3ee27b68	0.44234776
77	0x3cc11044	0.023567326
78	0xbd3c0883	-0.045906555
79	0x3deca65b	0.11555167
80	0xbca4041b	-0.020021489
81	0xbc5662a8	-0.013085045
82	0x3deebe11	0.11657346
83	0x3c545fd6	0.012962302
84	0x3db3f419	0.08786792
85	0x3f1b79b3	0.60732573
86	0x3cd12c96	0.025533956
87	0x3ac521f9	0.0015040032
88	0x3da4f394	0.08054271
89	0x3dae5976	0.08513157
90	0xbd64667a	-0.05576179
91	0x3d52c160	0.051453948
92	0x3cca6ecf	0.02471104
93	0x3daa3c0d	0.08312235
94	0x3f01154e	0.50423133
95	0x3d6635e4	0.056203738
96	0xbd41ef18	-0.04734716
97	0x3da0f5c7	0.07859378
98	0x3d42af24	0.04753031
99	0xbd812e42	-0.06307651
100	0x3d6fa9ed	0.058511663
101	0x3d8b88d6	0.06813209
102	0x3d9245e7	0.07142239
103	0x3ee903fe	0.45510858
104	0x3da212bc	0.079137295
105	0xbdbe4c31	-0.09291876
106	0x3df0714e	0.11740361
107	0x3a258d64	0.00063153193
108	0x3d48d7e7	0.049034026
109	0xbe88219d	-0.26588145
110	0x3e077085	0.13226517
111	0xbe6b38a3	-0.22970824
112	0xbebad28c	-0.3648876
113	0xbdaf5141	-0.0856042
114	0x3d85fc97	0.06542318
115	0xbeb15c5e	-0.34640783
116	0x3daa5580	0.08317089
117	0x3cc2805c	0.023742847
118	0xbd80b8e4	-0.06285265
119	0xbd45a5a5	-0.048253674
120	0x3ca5debc	0.02024781
121	0x3e0cbc10	0.13743615
122	0x3cc49af3	0.023999667
123	0x3afb5b6e	0.0019177028
124	0x3e1a522f	0.15070413
125	0x3dc60177	0.09668248
126	0x3e900b73	0.28133735
127	0x3d9a452b	0.07532724
128	0x3d379751	0.04482204
129	0x3e0c10a8	0.13678229
130	0x3e3a187d	0.18173404
131	0xbd1c2a1b	-0.038126092
132	0x3cfdf9ac	0.031002842
133	0xbe7e7ff3	-0.24853496
134	0x3dd3622a	0.10321458
135	0xbcf49fd8	-0.029861376
136	0x3d8a2ee4	0.06747225
137	0xbc3972f1	-0.011318908
138	0xbd3d36fb	-0.04619501
139	0x3df8861f	0.121349566
140	0x3df645e4	0.12025049
141	0x3de891f8	0.11355966
142	0xbdec2368	-0.11530191
143	0x3e0bf9e3	0.13669543
144	0x3b059f7b	0.0020389247
145	0x3d7b5ce5	0.061367888
146	0x3e03a2c9	0.12855066
147	0x3ecd93a5	0.40151706
148	0xbd685b74	-0.05672784
149	0x3e432b22	0.19059423
150	0xbca8bd14	-0.020597972
151	0x3dbe8478	0.0930261
152	0xbda74421	-0.081672914
153	0xbe94f1e8	-0.2909081
154	0x3da345e4	0.07972315
155	0x3d6798e3	0.05654229
156	0xbe5e8a67	-0.21732484
157	0xbf0fe4ae	-0.5620831
158	0x3ecf0302	0.40431982
159	0x3e0583ce	0.13038561
160	0xbd3dc500	-0.046330452
161	0xbc75ad50	-0.014994934
162	0xbe79c915	-0.24393113
163	0x3e946df8	0.2899015
164	0xbea4f0fb	-0.32215104
165	0xbcd5b559	-0.02608745
166	0x3e36f82b	0.17868106
167	0xbf36dfda	-0.7143532
168	0x3e076ecc	0.1322586
169	0xbd8f7a9a	-0.07005806
170	0xbe78ef23	-0.24309973
171	0x3c2c723c	0.0105252825
172	0x3eca5f43	0.39525804
173	0xbe48ff01	-0.19628526
174	0xbb910778	-0.004425939
175	0x3e1afd7b	0.15135758
176	0xbf2852b2	-0.65751183
177	0x3ddd18d6	0.10795753
178	0xbe987f11	-0.29784444
179	0xbe3bc74f	-0.18337749
180	0xbebeaebb	-0.37242684
181	0x3eb7878f	0.3584561
182	0xbc5bc660	-0.0134139955
183	0x3ded7e8f	0.11596405
184	0x3e85edf3	0.26158103
185	0xbf56d155	-0.83913165
186	0x3e14c8c0	0.14529705
187	0xbea89563	-0.32926473
188	0xbe875478	-0.26431632
189	0xbed1c724	-0.40972245
190	0xbec87f3f	-0.3915958
191	0x3e8a0eb8	0.26964355
192	0xbec5ac5e	-0.38608068
193	0xbeef5c92	-0.46750313
194	0xbf189b13	-0.59611624
195	0x3e3b2e28	0.18279326
196	0x3d830a85	0.06398491
197	0xbe828326	-0.25490683
198	0xbe4786e0	-0.19485044
199	0xbf2246f0	-0.6338949
200	0xbe90424e	-0.28175586
201	0x3de19466	0.11014633
202	0xbe758ab4	-0.23978692
203	0xbe60ba07	-0.21945964
204	0xbf23db88	-0.64006853
205	0xbe845cca	-0.25852042
206	0xbf35fcf6	-0.7108911
207	0xbeedaaf9	-0.46419504
208	0xbec60acf	-0.3868012
209	0xbf62f796	-0.88659036
210	0xbf0fce94	-0.5617459
211	0xbe59206b	-0.21203773
212	0xbebf8075	-0.37402692
213	0x3e7960b6	0.24353299
214	0xbf0c6729	-0.5484491
215	0xbf2e2950	-0.6803179
216	0xbeb93ef8	-0.36180854
217	0xbe4c7dc9	-0.19969858
218	0xbf11f5bb	-0.5701558
219	0xbea35960	-0.31904125
220	0xbe73cf7e	-0.2380962
221	0xbe88036a	-0.26565105
222	0xbe92364b	-0.28557047
223	0xbe79824b	-0.24366109
224	0xbf21c7c0	-0.6319542
225	0xbe774131	-0.24145962
226	0x3e004371	0.12525727
227	0x3e2f3e29	0.17113556
228	0x3d2851ad	0.041093517
229	0xbee81e3e	-0.45335573
230	0x3e854bdb	0.26034436
231	0xbd0615c5	-0.032735605
232	0xbd7b4b21	-0.061350945
233	0x3cebc992	0.02878264
234	0xbdf4a6db	-0.11945888
235	0x3e627498	0.2211479
236	0x3e7c3ffe	0.24633786
237	0xbd1723ec	-0.036899492
238	0x3b4cd4c6	0.0031254753
239	0x3e27c45f	0.16383503
240	0x3d5fd2da	0.054644443
241	0x3e2fe9ef	0.17179082
242	0x3e4aa58c	0.19789714
243	0xbc71c848	-0.014757223
244	0x3e498a81	0.19681741
245	0x3e12faaa	0.14353433
246	0x3d7a4f3b	0.061110716
247	0x3e188fd6	0.14898619
248	0x3e406fed	0.18792696
249	0x3cd9f590	0.026606351
250	0x3d69f023	0.057113778
251	0x3e332d0c	0.17497653
252	0x3cdd9862	0.0270502
253	0x3dd01021	0.10159326
254	0x3ed34baf	0.4126868
255	0xbd844275	-0.06457988

conv0.conv.bias f4 [32]
0	0xbc0d3bfe	-0.00862026
1	0x38ada5a1	8.2801336e-05
2	0xb8791008	-5.9381156e-05
3	0xbb0d0d6c	-0.0021522893
4	0xb9a19ea2	-0.00030826504
5	0xbb617207	-0.003440024
6	0xbc5f8dd0	-0.013644651
7	0x3beaae89	0.0071619195
8	0x3cf31e33	0.029677486
9	0x3b82c0cd	0.003990269
10	0x3b5d599f	0.0033775342
11	0x3cd76544	0.026293404
12	0x3aa43b54	0.0012529888
13	0x3b0ec9a3	0.0021787665
14	0x3bd76033	0.006572747
15	0xba5aa2c9	-0.0008340297
16	0x3ac2d172	0.0014863445
17	0xbc9a9e11	-0.0188742
18	0x3cb84549	0.022493975
19	0xba3ad38f	-0.00071268616
20	0x3b43dded	0.0029886917
21	0xbd0c9cec	-0.03432934
22	0xbbb500f9	-0.0055237976
23	0x39aa957e	0.00032536307
24	0x3a191ca6	0.0005840756
25	0xbb735d21	-0.0037134367
26	0x3ae159a5	0.0017192854
27	0x3c588d03	0.013217214
28	0xbc22cbb8	-0.009936266
29	0x3b8985ec	0.004196873
30	0xbb3f3e5e	-0.002918146
31	0x3b61849b	0.0034411314

conv0.bn.weight f4 [32]
0	0x3f6769be	0.90395725
1	0x3f2a4c79	0.6652294
2	0x3f193ef7	0.598617
3	0x3f3a6345	0.72807723
4	0x3f2c0dc6	0.67208517
5	0x3f17e990	0.59340763
6	0x3f277b22	0.6542226
7	0x3f451b95	0.7699521
8	0x3f66c163	0.90138835
9	0x3f4b97b4	0.79528356
10	0x3f2de1bb	0.6792256
11	0x3ed384e8	0.41312337
12	0x3f22d4c2	0.6360589
13	0x3f79e4fa	0.97615016
14	0x3f25f896	0.6483244
15	0x3f5a3062	0.85230076
16	0x3f2b9769	0.6702791
17	0x3fb34ae5	1.4007231
18	0x3f59cae6	0.85075223
19	0x3f35a657	0.7095694
20	0x3f33fcc8	0.7030759
21	0x3f764f6e	0.9621495
22	0x3f417c7a	0.7558056
23	0x3f1acd5e	0.60469615
24	0x3f4d81a6	0.8027595
25	0x3f2b9543	0.6702463
26	0x3f5b3e66	0.8564209
27	0x3f3e52e8	0.74345255
28	0x3f7f68a7	0.9976906
29	0x3f12503c	0.5715368
30	0x3f20be23	0.62790126
31	0x3efa696c	0.48908556

conv0.bn.bias f4 [32]
0	0xbf18f26b	-0.597449
1	0xbcb3cb7b	-0.021947613
2	0xbe500338	-0.20313728
3	0xbed34cd8	-0.41269565
4	0xbe66a558	-0.22524011
5	0x3d84cd19	0.06484432
6	0x3d929839	0.071579404
7	0xbeca5724	-0.39519608
8	0xbe2d3ffc	-0.1691894
9	0xbedd2c84	-0.43198025
10	0xbe945e69	-0.2897828
11	0x3e9c29fb	0.3050078
12	0xbe7ad25a	-0.24494305
13	0xbec4587d	-0.3834876
14	0xbe9be32b	-0.30446753
15	0xbdd6809b	-0.10473748
16	0x3c901f18	0.017592952
17	0xbe3c2186	-0.18372163
18	0xbea8384b	-0.32855448
19	0xbe89ca49	-0.26912144
20	0xbe242424	-0.16029412
21	0x3db1871e	0.0866835
22	0xbec2fb8f	-0.3808255
23	0xbe9fa93b	-0.311838
24	0xbe743627	-0.23848782
25	0xbf0170da	-0.5056282
26	0xbeb225ff	-0.34794614
27	0xbdc9ecef	-0.098596446
28	0xbdda11c0	-0.10647917
29	0x3f1e90bd	0.61939603
30	0xbe531710	-0.20614266
31	0x3c7946b8	0.015214615

conv0.bn.running_mean f4 [32]
0	0x3ec8aed1	0.39195874
1	0x3d7180a1	0.05896056
2	0xbe1694cc	-0.14705199
3	0xbe554679	-0.20827664
4	0xbdaa9b34	-0.08330384
5	0x3b237843	0.0024943508
6	0xbec1425a	-0.37745935
7	0x3ebe687a	0.37189084
8	0xbe8aa2a2	-0.27077204
9	0xbe17f033	-0.14837722
10	0xbdb205a1	-0.0869248
11	0x3cf27325	0.02959592
12	0xbdc9e3d1	-0.09857906
13	0xbd83473a	-0.0641007
14	0x3ddb74cd	0.10715637
15	0x3ea3add4	0.31968558
16	0x3e78baab	0.24289958
17	0xbe897eb6	-0.26854485
18	0xbe6608de	-0.2246432
19	0xbd886ea9	-0.06661732
20	0x3d27645b	0.04086719
21	0xbdc6500a	-0.09683235
22	0xbe9448ee	-0.2896189
23	0x3e857443	0.26065263
24	0xbdedb4b7	-0.11606734
25	0xbe7255c1	-0.23665525
26	0xbd25a5a8	-0.040441185
27	0xbe005c3e	-0.12535188
28	0x3e999a1a	0.30000383
29	0x3e2c35b8	0.16817367
30	0xbdd3305f	-0.103119604
31	0x3e92dea1	0.28685477

conv0.bn.running_var f4 [32]
0	0x3e22ae0e	0.15886709
1	0x3e3c6068	0.18396151
2	0x3eaed7f0	0.34149122
3	0x3e77ba47	0.24192153
4	0x3e542223	0.20716147
5	0x3e4d7ce5	0.20067175
6	0x3ebe5321	0.37172797
7	0x3e232bf4	0.15934736
8	0x3e96c435	0.2944657
9	0x3e83bfe2	0.25732332
10	0x3e2da8db	0.16958944
11	0x3e6d71b1	0.23187901
12	0x3e3f0cda	0.18657246
13	0x3e0546e4	0.13015324
14	0x3e3eab4c	0.18620032
15	0x3e312b3f	0.17301653
16	0x3e1ac81c	0.15115398
17	0x3e68a33a	0.22718516
18	0x3e80f144	0.2518407
19	0x3e3b9056	0.18316779
20	0x3e9a8a01	0.30183414
21	0x3e4fe2f1	0.20301415
22	0x3e38f3ba	0.18061724
23	0x3e39e5c0	0.18154049
24	0x3e2deb55	0.16984303
25	0x3e7c95e3	0.24666552
26	0x3e4f22c8	0.20228112
27	0x3e188414	0.14894134
28	0x3e526d94	0.20549613
29	0x3e0f4ba6	0.13993701
30	0x3e49b012	0.19696072
31	0x3e509e00	0.20372772

blocks.0.conv.weight f4 [32, 32, 3, 3]
0	0x3e843801	0.25823978
1	0xbdc4b9f0	-0.09605777
2	0x3eb23077	0.348026
3	0xbebf1a7c	-0.37324893
4	0x3e3e1ff9	0.18566884
5	0xbe568d13	-0.20952253
6	0x3e1bbf97	0.15209804
7	0xbe0f7f59	-0.14013423
8	0x3e926cb0	0.28598547
9	0x3da5bd05	0.08092693
10	0x3b9e3341	0.0048278873
11	0xbed92f82	-0.42419058
12	0xbd09d29a	-0.03364811
13	0xbd2e4e69	-0.042555247
14	0x3dee6495	0.11640278
15	0x3c34369b	0.010999347
16	0xbd75fe78	-0.060057133
17	0xbe0498e9	-0.12948956
18	0x3e3acfc2	0.18243316
19	0xbe7a4fd6	-0.24444517
20	0x3da20f1b	0.079130374
21	0x3d4e07f3	0.05030055
22	0xbdf60208	-0.12012106
23	0x3d93923c	0.07205626
24	0x3df29904	0.11845592
25	0x3d898bd2	0.06716122
26	0xbc8e7599	-0.01739006
27	0x3dc56be3	0.096397184
28	0x3e071bb9	0.13194169
29	0x3dc49be7	0.096000485
30	0x3d29d0a1	0.04145873
31	0x3e5b71f9	0.21430196
32	0xbd8a89e8	-0.06764585
33	0xbe8c8427	-0.27444574
34	0xbe87f83f	-0.26556584
35	0x3e340a46	0.17582044
36	0x3c3960f0	0.011314616
37	0x3e342978	0.17593944
38	0xbdf9e7cf	-0.12202417
39	0x3d1d008f	0.03833061
40	0x3e4bbd09	0.1989633
41	0xbdc30d8c	-0.09524068
42	0xbd53601c	-0.05160533
43	0x3e30281e	0.17202803
44	0xbd0f575b	-0.034995418
45	0x3cefcaa2	0.029271428
46	0xbe6d5e81	-0.23180582
47	0x3da60227	0.08105879
48	0xbde80766	-0.11329536
49	0xbe12c86d	-0.14334269
50	0x3e7a64db	0.24452536
51	0x3e2526a5	0.16128023
52	0x3e81eec7	0.25377485
53	0x3e6e3f70	0.23266387
54	0x3e3e525b	0.18586104
55	0xbbde08fe	-0.0067759743
56	0xbd28ac54	-0.04117997
57	0xbe2aca06	-0.16678628
58	0x3dde1f2a	0.10845788
59	0xbe82f89d	-0.25580302
60	0xbb294a7b	-0.0025831747
61	0xbca4f035	-0.02013407
62	0xbe91a043	-0.28442582
63	0x3ebc6f11	0.36803487
64	0x3ed7bb7c	0.42135227
65	0x3ed0c7fd	0.4077758
66	0xbe0f4568	-0.1399132
67	0x3ed104be	0.4082393
68	0x3e171e57	0.14757667
69	0x3e7493ba	0.23884478
70	0x3e2a5bd6	0.16636595
71	0x3e880291	0.26564458
72	0x3e1a4eea	0.15069166
73	0xbf011bfa	-0.50433314
74	0x3e18b903	0.14914326
75	0xbc5952a6	-0.013264334
76	0x3eb700a6	0.35742682
77	0x3e1430b9	0.14471711
78	0x3da882e5	0.08228091
79	0x3eca5591	0.39518407
80	0xbd9a3f5d	-0.07531617
81	0xbe41abd5	-0.18913205
82	0xbd607118	-0.054795355
83	0xbe0f0259	-0.1396574
84	0xbdf452f0	-0.119298816
85	0x3ed1ea97	0.4099929
86	0xbd890bac	-0.06691679
87	0x3d9470e6	0.07248096
88	0xbe0f98f2	-0.14023188
89	0xbdd85ac4	-0.10564187
90	0xbb481bac	-0.0030534072
91	0x3cac933a	0.021066297
92	0xbdbd26f9	-0.09235949
93	0xbc3b4603	-0.011430266
94	0x3d6b8c95	0.057507116
95	0xbde9f79e	-0.11424182
96	0x3e1240a2	0.14282468
97	0x3e7749cc	0.24149245
98	0x3da7095f	0.08156084
99	0x3e04bc71	0.1296251
100	0xbbd5e6e9	-0.006527771
101	0x3ece3949	0.4027808
102	0xbe9014fe	-0.28141016
103	0x3dba408a	0.09094341
104	0x3da5e142	0.08099605
105	0x3e55de0d	0.20885487
106	0xbdfe6eba	-0.12423463
107	0x3dc0d2a4	0.094151765
108	0xbec9c2e9	-0.39406517
109	0xbda86f11	-0.08224309
110	0x3eabf2f8	0.33583808
111	0x3da16683	0.07880881
112	0x3bd7cb42	0.0065855095
113	0x3e2af6d3	0.16695718
114	0xbd8e6705	-0.06953243
115	0x3ee259cc	0.44209135
116	0x3e0d28b2	0.13785055
117	0xbe0085f3	-0.12551098
118	0xbebee056	-0.3728053
119	0xbea3f17a	-0.3202017
120	0xbc52e6e6	-0.012872433
121	0xbf10d7ee	-0.5657948
122	0xbe4bb370	-0.19892669
123	0xbd340564	-0.043950453
124	0xbda9ddf4	-0.08294287
125	0x3de2a475	0.11066524
126	0xbe31ba55	-0.17356236
127	0x3e481897	0.1954063
128	0xbee5d1b4	-0.44886553
129	0x3e527d13	0.20555525
130	0xbe256c0a	-0.16154495
131	0xbd76dcc3	-0.06026913
132	0xbd2d3a34	-0.042291835
133	0xbe94a15a	-0.2902935
134	0x3d82da9e	0.06389354
135	0x3e8e22fa	0.2776106
136	0x3e500afe	0.20316693
137	0x3dea22e1	0.11432434
138	0x3e33e532	0.175679
139	0x3cc90e67	0.024543
140	0x3c071404	0.008244518
141	0x3d0494aa	0.03236834
142	0x3d3b6b7e	0.04575681
143	0x3e17c236	0.1482018
144	0xbc7c4129	-0.015396395
145	0x3de0bf8a	0.10974033
146	0x3cae0db2	0.021246765
147	0x3df76d65	0.12081412
148	0xbe3f7301	-0.18696214
149	0x3db575fe	0.08860396
150	0xbc6a5b18	-0.014303945
151	0x3e5547e6	0.20828208
152	0x3e1a524d	0.15070458
153	0xbd2ae5ea	-0.04172317
154	0x3e9ef7a9	0.31048325
155	0x3d987462	0.07444073
156	0x3e8511bd	0.25990096
157	0xbfe09ed3	-1.7548469
158	0x3e880db7	0.26572964
159	0x3e87ee02	0.26548773
160	0x3e0322a6	0.12806186
161	0x3dfa2167	0.12213402
162	0x3d2895c2	0.041158445
163	0xbe7ae7ae	-0.24502441
164	0x3f0874a0	0.53302956
165	0x3ea7958c	0.32731283
166	0xbe92bc4d	-0.28659287
167	0xbdaf97a0	-0.08573842
168	0xbee1249a	-0.43973237
169	0x3e994e4c	0.29942548
170	0x3d28efe7	0.041244414
171	0x3d935b32	0.071951285
172	0xbe9e5cb6	-0.30930108
173	0xbea11c29	-0.31466797
174	0xbe0989e4	-0.13431507
175	0xbe298641	-0.1655512
176	0xbc366fc7	-0.011135048
177	0xbc9114c4	-0.017710097
178	0xbe8fe636	-0.28105325
179	0x3da142a4	0.07874039
180	0x3d583d57	0.052792873
181	0xbce3dbbd	-0.02781474
182	0x3db8a26a	0.09015353
183	0x3e51064f	0.20412563
184	0xbe96636e	-0.29372734
185	0xbd935fb5	-0.07195989
186	0xbb17d334	-0.0023166658
187	0xbe3371cd	-0.1752388
188	0xbd888cb3	-0.06667461
189	0x3dc32a10	0.09529507
190	0x3e77d7fe	0.24203488
191	0x3bb610a3	0.0055561825
192	0x3e025ba0	0.12730265
193	0xbe8a6153	-0.27027377
194	0x3e90b7ab	0.28265128
195	0x3e828f14	0.25499785
196	0x3ecfa559	0.40555838
197	0x3deac075	0.114624895
198	0xbcc9a3e8	-0.02461429
199	0x3dcf9c72	0.101372615
200	0xbbad0fd6	-0.005281429
201	0xbebbad41	-0.3665562
202	0x3ec81acc	0.39082944
203	0x3d5ef71f	0.05443489
204	0x3e169b2c	0.14707631
205	0xbedf3ee7	-0.43602678
206	0xbd6ad945	-0.05733611
207	0x3d99a030	0.075012565
208	0x3c267fff	0.010162353
209	0x3dd85af6	0.105642244
210	0xbdd78aa8	-0.105244935
211	0xbe3ad7cd	-0.18246384
212	0x3e1588a6	0.14602908
213	0xbe39ffe8	-0.18164027
214	0x3cf06e9b	0.029349616
215	0x3e34e1f5	0.17664321
216	0x3e15dcd1	0.14635016
217	0x3d01d5e1	0.03169811
218	0x3e4266b3	0.18984489
219	0x3e1a6375	0.15077002
220	0x3d63af0f	0.05558687
221	0x3b58e660	0.0033096299
222	0x3e322565	0.17397077
223	0x3dd612a5	0.10452775
224	0x3e022a4b	0.12711446
225	0x3ce330e6	0.027733278
226	0xb96c9cf8	-0.0002256519
227	0x3b445ea5	0.002996364
228	0x3d72a532	0.059239574
229	0x3e565213	0.20929746
230	0xbee5674d	-0.44805375
231	0xbed6a5fc	-0.4192351
232	0xbe5be58e	-0.21474287
233	0x3dc7d8c8	0.097581446
234	0x3df80dda	0.12112017
235	0x3c1f9729	0.009740629
236	0x3d647f68	0.055785567
237	0xbde397a3	-0.11112907
238	0xbe85376c	-0.26018846
239	0x3c49b0ae	0.01231019
240	0x3cb9bb8b	0.022672435
241	0x3f15b47f	0.5847854
242	0xbe89131f	-0.267724
243	0x3e357899	0.17721786
244	0xbe7eb4d8	-0.24873674
245	0xbe0b28e3	-0.13589816
246	0x3db97ece	0.09057389
247	0xbe1aeb6f	-0.15128873
248	0xbe54f36b	-0.20795982
249	0x3c8ecd81	0.017431976
250	0x3cf3429d	0.02969485
251	0x3dccd45b	0.10001441
252	0x3dcd0980	0.100115776
253	0xbe066ce6	-0.13127479
254	0x3d76e744	0.060279146
255	0xbe23d317	-0.15998493

blocks.0.conv.bias f4 [32]
0	0xba923c7b	-0.0011156941
1	0xba4f7f15	-0.000791536
2	0x3a3152c4	0.0006764347
3	0x3787fb19	1.621018e-05
4	0xba6e2820	-0.00090849586
5	0xbc39cf16	-0.011340877
6	0x3b867c2c	0.004104158
7	0xbc2c9623	-0.010533842
8	0xbc2de727	-0.010614193
9	0x3cf67303	0.030084139
10	0xbc617f92	-0.013763325
11	0x3c1b9f6f	0.009498461
12	0x3a1dd66d	0.00060210266
13	0x3a44922b	0.00074985874
14	0x3b1352ed	0.0022479848
15	0xbb0e82b7	-0.0021745393
16	0xba4d9433	-0.0007842213
17	0x3a2cf8d3	0.0006598357
18	0x38e10185	0.00010729119
19	0x3922a87a	0.00015512286
20	0xbb032fd6	-0.0020017526
21	0xbb90ca4f	-0.0044186483
22	0xb9e3e136	-0.0004346461
23	0x39dddc03	0.00042316326
24	0x3bd1d691	0.006403752
25	0x3ac23db0	0.001481941
26	0xba613c01	-0.000859201
27	0xba8a20ed	-0.0010538377
28	0xb8f2fe76	-0.00011586856
29	0x3a1134a8	0.00055391574
30	0xbc5be65e	-0.013421623
31	0xb9d67d51	-0.0004091063

blocks.0.bn.weight f4 [32]
0	0x3f6357fa	0.88806117
1	0x3f5d51d9	0.86453015
2	0x3f404a99	0.75113827
3	0x3f6ac820	0.91711617
4	0x3f8d6740	1.1047134
5	0x3f3fb42c	0.74884295
6	0x3f30eb8e	0.6910943
7	0x3f5644fa	0.83699
8	0x3f65611e	0.89601314
9	0x3f80eaaa	1.0071614
10	0x3f518e35	0.81857616
11	0x3f8706f4	1.0548997
12	0x3f556dae	0.8337048
13	0x3f436a79	0.7633434
14	0x3f4bf608	0.7967229
15	0x3f4328a5	0.76233894
16	0x3f852e2c	1.0404716
17	0x3f7d3cd6	0.98920953
18	0x3f4a5975	0.7904275
19	0x3f83f287	1.0308388
20	0x3f599803	0.84997576
21	0x3f3d575e	0.73961437
22	0x3f73c743	0.95225924
23	0x3f6b4311	0.9189921
24	0x3f61c092	0.88184464
25	0x3f4926c2	0.78574765
26	0x3f83bc97	1.0291928
27	0x3f9b4539	1.21305
28	0x3f319835	0.69372874
29	0x3f325589	0.69661766
30	0x3f157a82	0.5839006
31	0x3f78927d	0.97098523

blocks.0.bn.bias f4 [32]
0	0xbf1fe3dc	-0.6245706
1	0xbedda848	-0.4329245
2	0x3dd19fb6	0.102355406
3	0xbe497cfe	-0.19676587
4	0xbeb42aee	-0.35189003
5	0xbe364bd7	-0.17802368
6	0xbe7e74c0	-0.24849224
7	0xbe8e444d	-0.27786484
8	0xbec80d06	-0.39072436
9	0xbe82bd96	-0.25535268
10	0xbeeb00a7	-0.45898935
11	0xbf0f5051	-0.5598193
12	0xbf0fa9ca	-0.5611845
13	0xbf1f36b0	-0.6219282
14	0xbe21ffe1	-0.15820266
15	0xbf1c5ace	-0.61076057
16	0xbf0b005a	-0.5429741
17	0xbe992558	-0.29911304
18	0xbe5403fe	-0.20704648
19	0xbf222211	-0.6333323
20	0xbf05f21d	-0.5232256
21	0xbea02802	-0.31280524
22	0xbf56786a	-0.8377749
23	0xbebff255	-0.37489572
24	0xbc059ad5	-0.008154591
25	0xbeffc313	-0.49953517
26	0xbee31425	-0.44351307
27	0xbf31ac01	-0.6940308
28	0xbf07ea2f	-0.5309171
29	0xbe7e92e1	-0.24860717
30	0xbba91768	-0.005160261
31	0xbf547a9a	-0.82999575

blocks.0.bn.running_mean f4 [32]
0	0x3fbc0405	1.4688727
1	0xc087a70c	-4.2391415
2	0x4024f1d0	2.577259
3	0xbe105e8d	-0.14098568
4	0xbfd46ff6	-1.6596668
5	0xc088834a	-4.2660265
6	0xc00fcd03	-2.246888
7	0xbff33e44	-1.9003377
8	0x3f13a43b	0.5767247
9	0xbfe4d62e	-1.7877862
10	0xc011c9d7	-2.2779443
11	0xbfbf5141	-1.4946672
12	0xbfebfcd4	-1.8436532
13	0x3fe2dc75	1.7723528
14	0x3fce7b36	1.6131351
15	0xbe600bda	-0.21879521
16	0x3e8b92ba	0.2726038
17	0xbfe41296	-1.7818172
18	0x4042c161	3.043053
19	0xc006311c	-2.0967474
20	0x3e8d18f0	0.27558088
21	0xc013f13e	-2.3115993
22	0xbfb38aa6	-1.4026687
23	0x3f27e68e	0.65586174
24	0xbfa78790	-1.3088245
25	0xbffc67f7	-1.9719228
26	0x3f507611	0.81430155
27	0xbfaf51fd	-1.3696896
28	0xc087198f	-4.22187
29	0x3f17cf62	0.59300816
30	0x3f90d78f	1.1315783
31	0xc06b46d6	-3.6761985

blocks.0.bn.running_var f4 [32]
0	0x4059fa1a	3.40589
1	0x40943676	4.631648
2	0x40f15cec	7.542593
3	0x4086ed41	4.2164617
4	0x410c30b0	8.761887
5	0x40ce3840	6.4443665
6	0x40c96157	6.2931323
7	0x4071328e	3.7687106
8	0x4049eee5	3.155206
9	0x4035f7c0	2.8432465
10	0x406dce18	3.715704
11	0x408ec9e8	4.4621468
12	0x405b25e7	3.4241884
13	0x408ddb39	4.4330106
14	0x40b680e4	5.7032337
15	0x404be83d	3.1860497
16	0x4053dfc8	3.3105335
17	0x411d4794	9.829975
18	0x40506b0d	3.2565339
19	0x40633580	3.5501404
20	0x401bc55c	2.4339209
21	0x40c63a75	6.194636
22	0x406584fd	3.586242
23	0x40821d43	4.066072
24	0x410aa469	8.665139
25	0x4060fd57	3.5154626
26	0x408286ab	4.078939
27	0x409fbcb6	4.991786
28	0x40f344ec	7.6021633
29	0x406ac549	3.6682913
30	0x4095b369	4.6781507
31	0x4084d396	4.1508284

blocks.1.conv.weight f4 [32, 32, 3, 3]
0	0x3e48f3d9	0.1962427
1	0x3ce43f81	0.027862312
2	0x3e236721	0.1595731
3	0xbecb0f3c	-0.3966006
4	0x3e8b6476	0.27225083
5	0xbc2c36a4	-0.010511074
6	0x3e645516	0.22298083
7	0xbf170ef4	-0.5900719
8	0x3e3fbc36	0.1872414
9	0x3daacd2f	0.08339917
10	0x3e6ed9a7	0.23325215
11	0xbe6f2213	-0.23352842
12	0xbcd645dd	-0.02615636
13	0x3d846562	0.0646465
14	0xbe4e8d1e	-0.2017102
15	0xbe5f80d2	-0.21826485
16	0x3ea2b89a	0.31781465
17	0x3da6b4a3	0.081399225
18	0x3d333f32	0.04376144
19	0xbe7afa3c	-0.2450952
20	0x3db8914a	0.09012087
21	0xbe842aec	-0.25813997
22	0xbf354088	-0.7080159
23	0xbdf90994	-0.1216003
24	0xbdb34a2d	-0.08754382
25	0x3e35f935	0.17770846
26	0x3de89d14	0.11358085
27	0x3e919630	0.28434896
28	0xbde45ec6	-0.11150889
29	0x3e207c85	0.156725
30	0xbe3096e9	-0.17245068
31	0x3eac6b19	0.3367546
32	0xbe1ac0ab	-0.1511256
33	0xbd82f6a7	-0.063947015
34	0xbf052b20	-0.5201893
35	0xbe43eac4	-0.19132525
36	0x3dc53139	0.09628529
37	0x3e2b57f6	0.16732773
38	0xbeb593f6	-0.35464448
39	0x3d81e987	0.0634337
40	0xbe38f707	-0.18062983
41	0xbe4758fb	-0.19467537
42	0x3dce7b1c	0.10082075
43	0xbdec45b6	-0.11536734
44	0xbdb564c5	-0.08857111
45	0xbe823bb3	-0.25436172
46	0xbca87052	-0.020561371
47	0x3ebfad92	0.3743711
48	0xbc1202fc	-0.008911844
49	0x3e2cf20c	0.16889209
50	0x3e48cb38	0.19608772
51	0x3d800dbe	0.06252621
52	0x3deeb10b	0.11654862
53	0x3f0a5b6b	0.5404574
54	0xbe05cbf1	-0.13066079
55	0x3e043e16	0.12914309
56	0xbe825dd2	-0.25462204
57	0xbe7356b6	-0.23763546
58	0xbd8d67f9	-0.06904597
59	0xbe59e270	-0.21277785
60	0x3c02b7d0	0.007978395
61	0x3e7b3764	0.24532849
62	0xbae37f19	-0.0017356604
63	0x3d925810	0.07145703
64	0xbf4c6431	-0.7984038
65	0xbdcca83b	-0.09993025
66	0xbd387c1a	-0.045040227
67	0x3e5dd87f	0.21664618
68	0xbef5d5f0	-0.48014784
69	0xbac21e35	-0.0014810028
70	0xbe00b286	-0.12568101
71	0x3db380c0	0.087647915
72	0x3decd24a	0.11563547
73	0xbe31efed	-0.1737668
74	0xbde77f40	-0.11303568
75	0xbd835e17	-0.064144306
76	0x3d41b6e1	0.047293548
77	0xbccfd88a	-0.025371809
78	0xbc9bf69c	-0.019038491
79	0xbe6c8dbb	-0.23100941
80	0x3e8df66d	0.2772707
81	0xbd881e7d	-0.0664644
82	0xbe53e0d0	-0.20691228
83	0xbeb56009	-0.35424832
84	0x3f010bdb	0.50408715
85	0x3e025053	0.12725954
86	0xbeb8a704	-0.36064923
87	0x3d0c02bc	0.034182295
88	0xbd011f4a	-0.03152398
89	0xbd62b8be	-0.055351965
90	0x3d1fae5b	0.038984638
91	0xbd1f320a	-0.03886608
92	0x3d5e11c3	0.054216158
93	0x3cb584f4	0.022158124
94	0xbe5302cb	-0.20606534
95	0x3e1c4836	0.15261921
96	0x3e0ee080	0.13952827
97	0x3c92aa00	0.017903328
98	0x3c5033b2	0.012707638
99	0x3e123cf0	0.14281058
100	0x3cc07575	0.023493508
101	0x3d8b4987	0.068011336
102	0xbe8aa66f	-0.27080104
103	0x3cc829be	0.024433967
104	0xbd9e8395	-0.07739941
105	0xbe03ca26	-0.12870082
106	0xbf00d922	-0.5033132
107	0x3cdcd266	0.026955795
108	0xbe5411b7	-0.20709883
109	0x3ebe6c40	0.37191963
110	0x3b583d05	0.0032995355
111	0xbd5b80ce	-0.053589635
112	0x3e997241	0.2996998
113	0xbdaa0a7a	-0.083027795
114	0xbe38e56b	-0.18056266
115	0xbcb709df	-0.022343574
116	0x3e768e25	0.24077661
117	0xbdd81699	-0.10551185
118	0xbf103667	-0.5633301
119	0xbe61cb32	-0.22050169
120	0xbe4c9d26	-0.19981822
121	0xbf16718e	-0.5876702
122	0x3dd1ea17	0.10249727
123	0xbd5390a4	-0.051651612
124	0x3e8bbabf	0.27290913
125	0x3d892da5	0.06698159
126	0x3ecd4dd6	0.40098447
127	0xbe218b41	-0.15775777
128	0xbe1a6250	-0.15076566
129	0x3e9501d6	0.29102963
130	0xbe986cab	-0.29770407
131	0x3e3b913c	0.18317121
132	0x3c275888	0.010213979
133	0xbe79d4c7	-0.24397574
134	0xbc97cfa2	-0.018531624
135	0xbdfc6a53	-0.12324967
136	0x3de3b53f	0.11118554
137	0x3daecc99	0.08535118
138	0xbe7d40e3	-0.24731784
139	0x3e131705	0.1436425
140	0xbd4055e0	-0.046956897
141	0xbe1622ea	-0.14661756
142	0xbe2824d0	-0.16420293
143	0x3e0ca8ca	0.13736263
144	0x3e90baf1	0.28267625
145	0xbee45e47	-0.44603178
146	0x3dfdaa33	0.123859785
147	0xbcf187f3	-0.029483771
148	0xbe905800	-0.2819214
149	0x3d9c8fd7	0.07644623
150	0xbd058fdf	-0.03260791
151	0xbddea820	-0.10871911
152	0xbe34ddf5	-0.17662795
153	0x3e0a64ba	0.13514987
154	0xbdde22e0	-0.10846496
155	0xbe349212	-0.17633846
156	0xbecc06d3	-0.39848956
157	0xbf8a7341	-1.0816423
158	0xbdab28a8	-0.08357364
159	0x3d4faed4	0.05070384
160	0xbe9c5766	-0.3053543
161	0xbdd36a1c	-0.10322973
162	0x3d51dddf	0.051236983
163	0x3e39f6c6	0.18160543
164	0xbc416087	-0.011802799
165	0x3dd52b37	0.10408633
166	0xbcd933fa	-0.026514042
167	0x3e358fd7	0.17730652
168	0x3db38854	0.08766237
169	0x3e0d2408	0.13783276
170	0xbd9e8993	-0.07741084
171	0xbe44ff20	-0.19237947
172	0xbe0f3221	-0.13983966
173	0xbe09a5ed	-0.13442202
174	0xbd3626e8	-0.044470698
175	0x3e366e52	0.17815521
176	0x3e189627	0.14901029
177	0xbeebde70	-0.46068144
178	0xbe80e577	-0.25175068
179	0xbf22bb7b	-0.6356732
180	0x3de799d5	0.11308638
181	0xbea67189	-0.32508495
182	0x3e3adc71	0.18248154
183	0x3dc2c345	0.09509901
184	0xbe1ecfed	-0.15509005
185	0x3e6b0b50	0.22953534
186	0xbce8adfc	-0.028403275
187	0xbd80d6f9	-0.06291003
188	0xbd81299e	-0.06306766
189	0xbd4089ec	-0.047006533
190	0x3ccb7602	0.024836544
191	0xbea2b61b	-0.3177956
192	0xbd1ae8a0	-0.037819505
193	0xbead2b37	-0.33822033
194	0xbe0c66fc	-0.1371116
195	0xbdc55802	-0.09635927
196	0x3de5d34b	0.112219416
197	0xbe53b60d	-0.20674916
198	0xbca50c31	-0.020147415
199	0xbdf94b34	-0.12172547
200	0x3ebf632b	0.37380347
201	0x3e0bcf1c	0.13653225
202	0xbde3811f	-0.11108612
203	0xbe32ad6e	-0.1744897
204	0xbde8bbb4	-0.113639265
205	0xbd3f8f4f	-0.04676753
206	0xbdaceae2	-0.08443238
207	0xbe18ffce	-0.14941332
208	0xba6acb83	-0.0008956717
209	0x3e3cf223	0.18451743
210	0xbef16e43	-0.47154436
211	0xbf055843	-0.520878
212	0x39ef8095	0.00045681433
213	0x3de5d8b1	0.11222971
214	0xbe8a2c78	-0.26987052
215	0xbeae75fb	-0.34074387
216	0x3d0cd55b	0.03438316
217	0xbd98f465	-0.074684896
218	0xbe9e206e	-0.30884117
219	0xbd9694b1	-0.073525794
220	0xbe7a4391	-0.24439837
221	0xbe93e248	-0.28883576
222	0x3e2561f1	0.16150643
223	0x3e850366	0.25979155
224	0xbe6de845	-0.23233135
225	0xbdf11043	-0.1177068
226	0x3db55691	0.08854402
227	0xbc7b6f61	-0.015346379
228	0xbe8d26c0	-0.27568626
229	0xbd8a266a	-0.06745608
230	0xbe357a8e	-0.17722532
231	0xbebb48ee	-0.36579078
232	0x3dcb73cf	0.09934198
233	0xbd911833	-0.07084694
234	0x3e6bab38	0.23014534
235	0x3e21b6f5	0.15792449
236	0x3ef1720b	0.4715732
237	0xbe23a24d	-0.15979882
238	0xbeccae35	-0.3997666
239	0xbde0cda3	-0.10976722
240	0xbea6a814	-0.32550108
241	0xbe03af44	-0.12859827
242	0xbe9d4a4f	-0.30720755
243	0x3dd13da4	0.10216835
244	0xbe520ab1	-0.20511891
245	0xbd57a4c6	-0.052647375
246	0xbdf758b0	-0.12077463
247	0xbeae2ba4	-0.3401767
248	0x3eaa3dba	0.3325022
249	0x3d4422a0	0.047884583
250	0xbd82aa60	-0.06380153
251	0x3db657e8	0.089034855
252	0xbdd4acfc	-0.10384557
253	0xbc925175	-0.017861107
254	0x3e4fa4da	0.2027773
255	0xbf04cfa0	-0.5187931

blocks.1.conv.bias f4 [32]
0	0xbc127352	-0.008938627
1	0x3936c90b	0.00017431767
2	0xba79944b	-0.00095206936
3	0xb8bff404	-9.153041e-05
4	0x3b836047	0.00400928
5	0xbc089872	-0.008337127
6	0xbbde847a	-0.006790695
7	0xbc328de3	-0.010898086
8	0x3a9424d4	0.001130248
9	0xb908e33d	-0.00013054624
10	0xba0b9821	-0.0005325098
11	0xb928b0d5	-0.00016087604
12	0x3c6d9b51	0.014502362
13	0xba91b979	-0.0011117897
14	0x39d266c2	0.00040130882
15	0xba6fdbf3	-0.00091499015
16	0x390dcbbe	0.00013522708
17	0x3921d067	0.00015431792
18	0xba95f031	-0.001143938
19	0xbba00dbb	-0.0048844493
20	0xb9e7d9e6	-0.000442221
21	0x3baa67b4	0.0052003507
22	0x396d14af	0.00022609787
23	0x39db04fa	0.00041774643
24	0xbc62b7d2	-0.0138377715
25	0x3c12f1c0	0.0089687705
26	0xbc833f08	-0.016021267
27	0x3ca05043	0.019569522
28	0xbab4e324	-0.0013800603
29	0xba0375f2	-0.00050148286
30	0x39a8055b	0.00032047447
31	0xba0354d1	-0.0005009892

blocks.1.bn.weight f4 [32]
0	0x3f254dd4	0.6457188
1	0x3f6a9932	0.9164001
2	0x3f2ae29c	0.6675203
3	0x3f63b247	0.88943905
4	0x3f875436	1.0572574
5	0x3f3a6996	0.7281736
6	0x3f320c82	0.69550335
7	0x3f46e088	0.7768636
8	0x3f86d2ee	1.0533121
9	0x3f59e60b	0.8511664
10	0x3f65dbe9	0.8978868
11	0x3f7af48d	0.98029405
12	0x3f929848	1.1452723
13	0x3f560b42	0.8361093
14	0x3f8f7333	1.1207031
15	0x3f69fd5e	0.9140223
16	0x3f91f109	1.1401683
17	0x3f3697f7	0.7132563
18	0x3f6c76d6	0.9236883
19	0x3f68d9f9	0.909576
20	0x3f6a7c6b	0.91596097
21	0x3f43e2e3	0.76518077
22	0x3f9f1f6b	1.2431463
23	0x3f8e740d	1.1129166
24	0x3f807d48	1.0038233
25	0x3f971a07	1.1804818
26	0x3f794499	0.97370297
27	0x3f52ea89	0.8238912
28	0x3f4601d6	0.7734655
29	0x3f481b66	0.78166807
30	0x3efee972	0.4978748
31	0x3f8cc89b	1.099872

blocks.1.bn.bias f4 [32]
0	0xbe6140e4	-0.2199741
1	0xbef8b45d	-0.48575106
2	0x3d5ca139	0.05386469
3	0xbef3f976	-0.4765126
4	0xbda40d76	-0.0801038
5	0xbe67b2a0	-0.22626734
6	0xbec4b2d3	-0.38417682
7	0xbf065138	-0.5246768
8	0xbf0807a0	-0.53136635
9	0xbebdaa74	-0.37044108
10	0xbf01109a	-0.50415957
11	0xbf1a45e3	-0.6026289
12	0xbf027270	-0.5095587
13	0xbec5b9a6	-0.386182
14	0xbed70300	-0.41994476
15	0xbeb7acab	-0.35873923
16	0xbf15b968	-0.5848603
17	0xbef36c39	-0.47543505
18	0xbef071db	-0.46961865
19	0xbee26c38	-0.4422319
20	0xbf47ca4f	-0.78043073
21	0xbedccb4c	-0.43123853
22	0xbf1b2c45	-0.60614425
23	0xbda047b2	-0.07826175
24	0xbf39ee80	-0.7262955
25	0xbe1da29c	-0.15394062
26	0xbea4fc78	-0.32223868
27	0xbebc7da2	-0.368146
28	0xbe8cded0	-0.27513742
29	0xbf276400	-0.6538696
30	0xbdc43781	-0.09580899
31	0xbedea35b	-0.43484005

blocks.1.bn.running_mean f4 [32]
0	0xc0a3c28d	-5.117499
1	0xc028f9d5	-2.6402485
2	0xbd662d87	-0.056195762
3	0xc036e48c	-2.8576994
4	0xc05ad674	-3.4193392
5	0xbf01f937	-0.50770897
6	0x4005766c	2.085353
7	0xc0567567	-3.3509157
8	0xc080958f	-4.0182567
9	0xbf36827d	-0.7129286
10	0x3e376998	0.17911375
11	0x3f0d5144	0.55202127
12	0xc01ba0af	-2.4316823
13	0x3fdd4c21	1.7288858
14	0xbf7b7829	-0.98230225
15	0xc006751f	-2.1008985
16	0xbff04170	-1.876997
17	0x3d49d7c8	0.04927805
18	0xc05b8f9c	-3.4306402
19	0xc03e08fb	-2.9692981
20	0xbf4b1179	-0.79323536
21	0xc0154019	-2.3320372
22	0xbfce6499	-1.612445
23	0xc0068f0d	-2.1024811
24	0xc021c284	-2.5274973
25	0x3cdcd6a2	0.026957814
26	0xbfbda682	-1.4816439
27	0xc0537582	-3.304047
28	0x3f6a4b0b	0.91520756
29	0xc0225f62	-2.5370717
30	0x3fd49b6d	1.6609932
31	0xc00f4cbc	-2.2390585

blocks.1.bn.running_var f4 [32]
0	0x4112cace	9.174513
1	0x40fdbdd0	7.9294205
2	0x41312716	11.072042
3	0x410c8de4	8.784641
4	0x41e24ae8	28.286575
5	0x415bd10d	13.738538
6	0x40f30aaf	7.595054
7	0x40d7ffff	6.7499995
8	0x415ae62f	13.681197
9	0x40b0423f	5.5080867
10	0x41028b65	8.159032
11	0x40d6324f	6.693641
12	0x4161b9e0	14.10788
13	0x410874c7	8.52851
14	0x413bfc65	11.74912
15	0x4119044e	9.563551
16	0x4114060a	9.251474
17	0x415d74c0	13.841003
18	0x410598b2	8.349779
19	0x4110c6ee	9.048567
20	0x40d7538b	6.728948
21	0x418060d1	16.047274
22	0x41104ca7	9.018714
23	0x416bffb2	14.749926
24	0x40cdf4c7	6.43613
25	0x410b8ae7	8.721412
26	0x412c99c5	10.787541
27	0x4146bf7e	12.421751
28	0x41ca971d	25.323786
29	0x4170851f	15.0325
30	0x4191fbc1	18.247927
31	0x40d753d6	6.728984

blocks.2.conv.weight f4 [32, 32, 3, 3]
0	0x3def610b	0.11688431
1	0x3d8b412b	0.06799539
2	0xbdadb0c6	-0.084809825
3	0xbdf851ec	-0.12125
4	0xbcb8323f	-0.022484897
5	0xbe3297a0	-0.17440653
6	0xbe667dda	-0.22508946
7	0xbe807e8f	-0.25096557
8	0xbcdb8152	-0.026795063
9	0xbe107a54	-0.14109164
10	0xbe133cc8	-0.14378655
11	0xbedffc10	-0.43746996
12	0x3dd96b5f	0.106161825
13	0xbd64807f	-0.055786606
14	0xbeb5c642	-0.3550282
15	0xbda061c2	-0.07831146
16	0xbe7dd59d	-0.24788518
17	0xbdc9d6ad	-0.09855399
18	0x3b9afd6e	0.004729918
19	0x3e105014	0.14093047
20	0x3e45c419	0.19313087
21	0x3d16f23a	0.0368521
22	0xbc38ef71	-0.011287556
23	0xbc997f6b	-0.018737515
24	0x3e92e445	0.2868978
25	0xbdf93adb	-0.12169429
26	0xbee3ca88	-0.44490457
27	0x3e1e3e91	0.15453555
28	0xbdaa9d3d	-0.08330772
29	0x3ebb7638	0.3661363
30	0x3e4f15b7	0.20223127
31	0xbe2cba29	-0.1686789
32	0xbe5393c6	-0.2066184
33	0xbd85ae60	-0.065274
34	0x3e526fa0	0.20550394
35	0x3ea28ca5	0.31747928
36	0x3dec2bf0	0.11531818
37	0x3dcd14d8	0.10013741
38	0x3f0d428c	0.5517967
39	0x3d70f9cd	0.05883198
40	0x3eab0742	0.33403975
41	0x3ec070a3	0.37585935
42	0x3e71775d	0.2358069
43	0x3ec4c333	0.38430175
44	0x3ea60113	0.32422695
45	0xbe2e6011	-0.17028834
46	0x3e2849b2	0.16434363
47	0x3eddd978	0.43329978
48	0x3de913be	0.11380719
49	0x3e8b7d5e	0.27244085
50	0x3e32f712	0.17477062
51	0xbd42476a	-0.047431387
52	0xbe03dd62	-0.1287742
53	0xbce613ec	-0.028085671
54	0xbdfaee9e	-0.12252544
55	0x3e01571f	0.1263089
56	0x3e08ea32	0.13370588
57	0xbd6aa3f4	-0.057285264
58	0x3d94b7e2	0.07261635
59	0x3c0de60a	0.008660803
60	0xbe55da1a	-0.2088398
61	0x3e32e477	0.17469965
62	0xbdd0091f	-0.1015799
63	0x3deb0fa7	0.11477595
64	0xbf136bc9	-0.5758634
65	0x3cb997ca	0.022655386
66	0xbd6a5296	-0.057207666
67	0xbd2f3ac4	-0.042780653
68	0xbe613444	-0.21992594
69	0xbe853df6	-0.26023835
70	0xbdfd5775	-0.12370197
71	0x3e181d78	0.14854991
72	0x3e07aa96	0.13248667
73	0x3d2a0060	0.041504264
74	0x3e22dcd9	0.15904559
75	0x3d414cd6	0.047192417
76	0x3e88ea2c	0.2674116
77	0x3cc1861e	0.023623522
78	0x3f0d91c8	0.5530057
79	0xbee32b82	-0.4436913
80	0xbd3cf7ae	-0.046134643
81	0xbdf6db2d	-0.12053523
82	0x3e52d040	0.20587254
83	0xbf095cdc	-0.5365732
84	0x3d891b7e	0.06694697
85	0xbdc99ee0	-0.09844756
86	0xbebdd919	-0.37079695
87	0xbed21187	-0.41028997
88	0xbd970652	-0.073742524
89	0x3d5fd8f4	0.054650262
90	0xbd5ef5f3	-0.054433774
91	0xbea05a45	-0.3131887
92	0x3d2d0d83	0.042249214
93	0xbe80f1af	-0.2518439
94	0xbe56d607	-0.20980082
95	0x3dec015d	0.115236975
96	0x3e3477cc	0.17623824
97	0xbb387b89	-0.0028149805
98	0xbe620a28	-0.22074187
99	0xbc171f76	-0.0092238095
100	0x3e09ee9a	0.13469926
101	0x3d12150e	0.03566461
102	0x3e410011	0.18847682
103	0x3ea2a2ef	0.31764933
104	0xbe079de2	-0.13243821
105	0x3e5bd8dc	0.21469444
106	0xbe8ea008	-0.2785647
107	0x3eb7b67c	0.35881412
108	0xbe22f325	-0.15913065
109	0xbe87ca4b	-0.26521525
110	0x3d88f88c	0.066880316
111	0x3e8c5021	0.27404884
112	0x3ec04d0f	0.3755879
113	0x3d07e276	0.033174954
114	0x3d9e2133	0.07721176
115	0x3d625e6e	0.055265836
116	0x3d9662e2	0.07343079
117	0xbd19c773	-0.037543725
118	0xbeb9f703	-0.36321267
119	0xbd9883ea	-0.074470356
120	0xbe2fff0a	-0.17187133
121	0xbe89c010	-0.26904345
122	0x3e5123d6	0.20423827
123	0xbe383291	-0.1798804
124	0xbeaa0d51	-0.33213285
125	0xb9327e4c	-0.00017022452
126	0xbdcc7185	-0.0998259
127	0xbe9c671c	-0.30547416
128	0xbee7213f	-0.45142552
129	0x3c5cf173	0.0134853
130	0xbe4f7613	-0.20259885
131	0x3d8390ac	0.06424078
132	0xbeb4e9b3	-0.35334548
133	0x3e93074e	0.2871651
134	0xbe8daabe	-0.27669328
135	0xbdb4a2ce	-0.08820115
136	0xbe0f323e	-0.1398401
137	0xbe2a6f33	-0.16643982
138	0x3c0946f6	0.008378735
139	0xbe4805a7	-0.19533406
140	0x3d3e007b	0.046387177
141	0x3df2c8b3	0.118546866
142	0xbe266b99	-0.16251983
143	0x3ed6614b	0.41871104
144	0xbdfceca9	-0.12349827
145	0xbbf0b4da	-0.007345778
146	0xbe2e6d1e	-0.17033812
147	0xbcd2b981	-0.02572322
148	0xbe6e25b4	-0.2325657
149	0x3de31bf9	0.1108932
150	0x3ea06d03	0.3133317
151	0xbd9d68a0	-0.07685971
152	0x3da04b1d	0.07826827
153	0xbdc0eefd	-0.094205834
154	0x3e43d945	0.1912585
155	0x3dac3236	0.084080145
156	0xbdf60aa2	-0.12013747
157	0xbdf94618	-0.121715724
158	0x3ebbe917	0.3670127
159	0xbe34942c	-0.17634648
160	0xbe8e13ec	-0.27749574
161	0x3e46479d	0.19363256
162	0xbbfe0e5e	-0.0077531775
163	0x3edcc3e2	0.43118197
164	0xbe5d80bf	-0.21631144
165	0xbd6e731f	-0.058215257
166	0x3eab14ef	0.3341441
167	0x3e0ea8a3	0.13931517
168	0xbd79bbde	-0.06097018
169	0x3e265f21	0.16247226
170	0xbe057d49	-0.13036074
171	0x3e046e41	0.12932684
172	0xbe2cd04c	-0.16876334
173	0x3e1b1dc9	0.15148081
174	0xbe145a90	-0.14487672
175	0x3c9b8b8f	0.018987445
176	0x3d95d85f	0.0731666
177	0xbe90dc6d	-0.28293172
178	0x3a1f1c48	0.0006069583
179	0xbe697178	-0.22797191
180	0x3c10e86d	0.008844477
181	0x3e6f6f15	0.23382218
182	0x3efd1444	0.49429524
183	0x3e97436f	0.29543635
184	0x3e009736	0.12557682
185	0xbca4064a	-0.02002253
186	0x3e11ac22	0.1422582
187	0x3d7f420c	0.062318847
188	0xbdc26a9c	-0.094929904
189	0x3c579ec9	0.013160416
190	0x3c52dff9	0.012870782
191	0x3d02a45e	0.031895034
192	0x3eaee919	0.34162214
193	0x3e369bb7	0.17832838
194	0xbe20b422	-0.15693715
195	0x3d147b4a	0.03625039
196	0x3dfc6685	0.123242415
197	0x3e86c20b	0.26319918
198	0x3e766aec	0.24064225
199	0xbeb23bfd	-0.34811392
200	0xbe924c51	-0.2857385
201	0xbe3dd1b5	-0.18537028
202	0x3e076ded	0.13225527
203	0xbf03db7f	-0.515068
204	0xbeb0a757	-0.3450267
205	0xbdedcef6	-0.1161174
206	0xbf2cef8c	-0.6755302
207	0xbe558fa8	-0.20855582
208	0x3e247ade	0.16062495
209	0x3dd7cf3a	0.10537572
210	0xbebc0cfe	-0.36728662
211	0xbe851470	-0.25992155
212	0xbddbacb9	-0.107263036
213	0xbeff68b6	-0.49884576
214	0xbe74627b	-0.23865692
215	0xbd8c3011	-0.068451054
216	0x3e290a4c	0.16507834
217	0x3d327846	0.043571733
218	0xbec38760	-0.3818922
219	0x3d8788de	0.06617902
220	0x3ef2ef9c	0.47448432
221	0xbdaf96be	-0.08573674
222	0xbe7583be	-0.23976037
223	0xbe087773	-0.13326816
224	0x3d7710bb	0.06031869
225	0xba85cbd8	-0.0010207845
226	0x3e864e4e	0.26231617
227	0xbee437b7	-0.44573757
228	0x3e0d1bda	0.13780156
229	0x3e1c05a7	0.15236531
230	0xbe120980	-0.14261436
231	0x3f069895	0.5257657
232	0x3e4b6baa	0.1986529
233	0x3c9d883f	0.019230006
234	0xbc99537c	-0.018716566
235	0xbcd81672	-0.02637789
236	0xbd5a56b5	-0.053305347
237	0xbe76a138	-0.24084938
238	0xbe5be9ba	-0.21475878
239	0xbd901d61	-0.070368536
240	0x3ed6f179	0.41981104
241	0x3c5c0678	0.013429277
242	0x3cef7f95	0.02923564
243	0xbdcf3980	-0.10118389
244	0x3cd3f9cb	0.025875947
245	0x3eaf2746	0.3420965
246	0xbea5d0ad	-0.3238577
247	0x3dc02576	0.09382145
248	0xbe70373a	-0.23458567
249	0xbe51392b	-0.20431964
250	0xbd21d669	-0.039511118
251	0x3e8de96b	0.27717146
252	0x3e8aab0f	0.27083632
253	0x3b4a2393	0.0030843958
254	0xbda45595	-0.08024136
255	0xbec5f55b	-0.38663754

blocks.2.conv.bias f4 [32]
0	0xbbb1c6eb	-0.005425324
1	0xbc9bd102	-0.019020561
2	0x3a9a390f	0.0011766272
3	0xb9627aa7	-0.00021598731
4	0x3c48bd9f	0.01225224
5	0xbb6c2e8d	-0.0036038489
6	0x3c5df08c	0.01354612
7	0xba9cc406	-0.0011960275
8	0xb9d8dcc1	-0.00041363205
9	0xbc531d63	-0.012885424
10	0xbab75b8a	-0.0013989073
11	0xb9f3908b	-0.00046456265
12	0x3a6d3c31	0.0009049802
13	0x3adb76e1	0.0016743803
14	0xbafb1dd6	-0.0019158672
15	0x3990aa6e	0.000275928
16	0x3ab8c70a	0.0014097404
17	0x3bfecba0	0.007775739
18	0x394efd9a	0.00019740165
19	0xbb839f55	-0.0040167966
20	0xba656923	-0.00087513233
21	0x3a892324	0.0010462743
22	0xba389b2f	-0.0007042167
23	0x3ac03c9b	0.0014666499
24	0xba4d6114	-0.0007834595
25	0xbc1d3ebf	-0.009597479
26	0x3a01af7a	0.00049471075
27	0xb8d656b9	-0.000102204685
28	0x3b524ed4	0.0032090442
29	0xbc7ac0d6	-0.015304765
30	0x39dc501d	0.0004202136
31	0x37d3501c	2.5190464e-05

blocks.2.bn.weight f4 [32]
0	0x3f4f276d	0.80919534
1	0x3f524690	0.8213892
2	0x3f288e8b	0.65842503
3	0x3f3daefa	0.7409512
4	0x3f2f5412	0.68487656
5	0x3f374927	0.71595997
6	0x3f7bd71e	0.9837512
7	0x3f915e4d	1.1356903
8	0x3f3de105	0.7417148
9	0x3f84ddc0	1.0380173
10	0x3f3b849e	0.7324923
11	0x3f63b044	0.88940835
12	0x3f5974db	0.8494393
13	0x3f620db3	0.88302153
14	0x3f5f5bb0	0.8724928
15	0x3f978b7d	1.1839443
16	0x3f9fb648	1.2477503
17	0x3f881390	1.063097
18	0x3f491c4e	0.78558815
19	0x3f715788	0.9427419
20	0x3f84aa69	1.0364505
21	0x3f80148d	1.0006272
22	0x3f4e4bb7	0.8058428
23	0x3f7fbd08	0.99897814
24	0x3f9be9da	1.2180741
25	0x3f820479	1.0157615
26	0x3f81dca5	1.014546
27	0x3f39356e	0.7234715
28	0x3f066975	0.52504665
29	0x3f74ad8a	0.955773
30	0x3ec0d2cf	0.37660834
31	0x3f51c30a	0.8193823

blocks.2.bn.bias f4 [32]
0	0xbe55634e	-0.20838663
1	0xbf0d3e47	-0.5517315
2	0xbe3ddd88	-0.18541539
3	0xbe8cf9eb	-0.27534422
4	0xbf0ff15b	-0.56227654
5	0xbeb4faa6	-0.3534748
6	0xbe480b33	-0.19535522
7	0xbf1e00d9	-0.61720043
8	0xbf0cbbee	-0.5497426
9	0xbee619a5	-0.4494144
10	0xbf062b9a	-0.5241028
11	0xbed21578	-0.41032004
12	0xbf0c2bc1	-0.54754263
13	0xbeb35fa3	-0.35033903
14	0xbec26a5f	-0.3797178
15	0xbf13bc00	-0.5770874
16	0xbee20e5c	-0.4415158
17	0xbef65049	-0.48108128
18	0xbed508da	-0.41608316
19	0xbeab60ee	-0.3347239
20	0xbf1d8d08	-0.6154332
21	0xbf514897	-0.8175139
22	0xbec5a360	-0.38601208
23	0xbefa0d0d	-0.48838082
24	0xbf3ddabc	-0.7416189
25	0xbf0bad3e	-0.5456122
26	0xbf1da773	-0.6158363
27	0xbe939342	-0.28823286
28	0xbc913f32	-0.01773033
29	0xbed078cb	-0.40717158
30	0x3ea4a071	0.32153657
31	0xbf1c56c5	-0.610699

blocks.2.bn.running_mean f4 [32]
0	0xbe5509ec	-0.20804566
1	0xc000a7c5	-2.0102398
2	0xc018f3ae	-2.389873
3	0xbf00ceff	-0.5031585
4	0xc0a9a058	-5.300823
5	0x4005ab20	2.0885696
6	0xbf8ece5b	-1.1156725
7	0xbf02ea6e	-0.5113896
8	0x3e56c4d0	0.20973516
9	0xc00b920c	-2.180789
10	0xbe35a57b	-0.17738907
11	0xbf884887	-1.0647134
12	0x3fc47bfe	1.535034
13	0xc093ff06	-4.624881
14	0xc00ae5cb	-2.1702754
15	0xc001737c	-2.0226736
16	0xbff179a6	-1.8865249
17	0xbf6d85fc	-0.9278257
18	0xc0081df3	-2.126828
19	0xbffccdec	-1.9750342
20	0xbfa2a8fb	-1.2707819
21	0xbe1e800e	-0.15478536
22	0xbfaeffb1	-1.3671781
23	0xc0288a9a	-2.6334596
24	0xbfea22af	-1.8291835
25	0xc00c2090	-2.1894875
26	0xc0547c95	-3.320104
27	0xbf383f6e	-0.71971786
28	0xbfd67202	-1.6753542
29	0xc00a7229	-2.1632178
30	0xbe543605	-0.20723732
31	0xbe2fc2f3	-0.17164211

blocks.2.bn.running_var f4 [32]
0	0x41aa4cfd	21.287592
1	0x416d9a4f	14.850173
2	0x4179384e	15.576246
3	0x412029b6	10.010183
4	0x416267f7	14.150382
5	0x4131fe71	11.1246195
6	0x41baf463	23.36933
7	0x41041d21	8.257112
8	0x412283ff	10.157226
9	0x41903688	18.026627
10	0x4138ebff	11.557616
11	0x41502d04	13.01099
12	0x40f38168	7.6095467
13	0x41dd6926	27.676342
14	0x41de2dd5	27.772379
15	0x412335b7	10.200614
16	0x413abdfe	11.671385
17	0x415e1a9d	13.881497
18	0x411c8451	9.782304
19	0x411e55a7	9.895911
20	0x41194ac8	9.580757
21	0x41254b45	10.330876
22	0x41360b3a	11.377741
23	0x4165479a	14.329981
24	0x410db7e0	8.857391
25	0x410b291c	8.697536
26	0x4146add0	12.417435
27	0x4192d8f7	18.35594
28	0x41733ad1	15.201859
29	0x417c1a27	15.756385
30	0x4197522b	18.915121
31	0x41155d2b	9.335246

blocks.3.conv.weight f4 [32, 32, 3, 3]
0	0xbe67d085	-0.22638138
1	0xbdb4f619	-0.08836002
2	0xbe8d819e	-0.27637953
3	0x3d8d63f7	0.069038324
4	0xbf277604	-0.6541445
5	0xbee95f83	-0.45580682
6	0xbe8d840f	-0.27639815
7	0xbe757f00	-0.23974228
8	0xbda5a990	-0.08088982
9	0x3d4090d2	0.04701311
10	0x3e2b507d	0.16729923
11	0xbeac3774	-0.33636057
12	0x3e9d6f33	0.307489
13	0x3dc2cf17	0.095121555
14	0xbc144922	-0.009050639
15	0x3e2dc6f4	0.16970426
16	0x3e2b5d47	0.16734801
17	0x3d447700	0.04796505
18	0xbb52de7c	-0.0032176068
19	0x3e2c2b66	0.1681343
20	0xbd96c38a	-0.07361515
21	0x3dde72e5	0.10861758
22	0x3e683c1a	0.22679177
23	0x3df944a5	0.12171296
24	0xbe610bd0	-0.21977162
25	0x3d3c8f10	0.046034873
26	0x3d95d914	0.07316795
27	0xbbc50511	-0.006012567
28	0x3e35ad2f	0.17741846
29	0x3e1933ed	0.14961214
30	0xbc728375	-0.01480185
31	0xbf21a145	-0.631367
32	0xbe73fea7	-0.23827611
33	0x3e5ece80	0.21758461
34	0x3e94ab76	0.29037064
35	0xbdaa6386	-0.08319764
36	0xbe8cf751	-0.27532437
37	0xbe7af1e7	-0.24506341
38	0xbe91510f	-0.28382155
39	0xbe401c1f	-0.18760727
40	0x3e3a06fc	0.18166727
41	0xbea65825	-0.32489124
42	0xbcae0398	-0.021241948
43	0x3e1bb616	0.15206179
44	0xbf0d7d7b	-0.55269593
45	0x3e3a62ed	0.182018
46	0x3d32702f	0.043564018
47	0x3e3dd7e4	0.18539387
48	0xbec13201	-0.37733462
49	0x3e2fdf67	0.17175065
50	0x3ccea99c	0.02522736
51	0x3ebb7887	0.36615393
52	0xbe376468	-0.17909396
53	0x3ddcc2b4	0.10779324
54	0x3f03d42b	0.5149562
55	0x3d3a5e8d	0.045500327
56	0xbdd5edca	-0.10445745
57	0x3eb99db8	0.36253142
58	0x3e9122f3	0.28346977
59	0x3d906a02	0.070514694
60	0x3e915cba	0.28391057
61	0xbd287f38	-0.04113695
62	0xbe2f23ba	-0.17103472
63	0xbd82c6a1	-0.06385542
64	0x3db4ac8e	0.08821975
65	0x3e908d66	0.28232878
66	0xbce9af87	-0.02852608
67	0xbd0f5f1a	-0.035002805
68	0x3cf87d62	0.030333225
69	0x3efb0ac6	0.49031657
70	0x3cadf7ad	0.021236265
71	0xbee65683	-0.44987878
72	0xbe08d66c	-0.13363045
73	0x3ccad381	0.024759056
74	0x3e7123eb	0.23548858
75	0x3e6c36ca	0.23067775
76	0x3d2c5dfa	0.04208181
77	0x3eb05b38	0.34444594
78	0xbda935c3	-0.08262207
79	0xbd125e2c	-0.03573434
80	0xbdce61f7	-0.10077279
81	0xbe4f92f8	-0.20270908
82	0x3cbef225	0.023308823
83	0x3ed49309	0.4151843
84	0x3e0d24f1	0.13783623
85	0x3def12d1	0.11673511
86	0x3d9069ef	0.07051455
87	0x3b97972f	0.004626177
88	0x3e9c6764	0.3054763
89	0x3e306724	0.17226845
90	0xbe82e4f5	-0.25565305
91	0x3dfdf379	0.12399954
92	0x3e92c7a8	0.2866795
93	0x3ef3d54e	0.47623676
94	0xbe8756d3	-0.2643343
95	0x3c957637	0.018244846
96	0x3d390c62	0.045177825
97	0x3cd3f46f	0.025873391
98	0x3e0dacf8	0.13835514
99	0xbd3348ef	-0.043770727
100	0xbd9b557f	-0.075846665
101	0x3e92666a	0.2859376
102	0xbe479784	-0.19491392
103	0x3c9efadf	0.019406734
104	0xbdca79a5	-0.09886483
105	0xbeb8d4a0	-0.3609972
106	0xbe64a93f	-0.22330187
107	0x3dfb7607	0.12278371
108	0xbeb6ca83	-0.3570138
109	0xbdacf210	-0.08444607
110	0x3b1c3bff	0.0023839471
111	0xbe06b726	-0.13155803
112	0xbbccad25	-0.0062462264
113	0x3e9fe6b4	0.312307
114	0x3dd36a93	0.10323062
115	0xbd56ebce	-0.052470975
116	0x3e3ae6f4	0.18252164
117	0x3e3cebb6	0.18449292
118	0x3e32eeea	0.17473951
119	0x3e323cb7	0.17405973
120	0x3e5eaa19	0.21744575
121	0x3e250cb9	0.16118135
122	0x3efec8fa	0.49762708
123	0x3c4dbae1	0.012556762
124	0xbe09d56c	-0.1346032
125	0xbe23e32f	-0.16004632
126	0xbe40b180	-0.18817711
127	0xbecd0f40	-0.40050697
128	0xbebc8ada	-0.36824685
129	0xbea53cb1	-0.32272866
130	0xbe2554ec	-0.16145676
131	0xbe2d8e58	-0.16948831
132	0xbe9e6817	-0.3093879
133	0xbda179ff	-0.07884597
134	0xbededd78	-0.43528342
135	0xbe9ccce4	-0.3062507
136	0x3d91bf71	0.07116593
137	0xbe10aae7	-0.14127694
138	0xbe6257fa	-0.22103873
139	0x3ccb201d	0.024795586
140	0x3e5917bb	0.21200459
141	0xbed17dd7	-0.4091632
142	0x3d6b3dc6	0.05743196
143	0x3e53033c	0.20606703
144	0xbd8de563	-0.06928518
145	0xbeb43733	-0.35198364
146	0xbe975531	-0.29557183
147	0xbe418987	-0.18900119
148	0xbe1b43e7	-0.15162621
149	0x3d6ac43b	0.057316046
150	0x3ec394e7	0.3819954
151	0xbc90afa5	-0.017661879
152	0xbec857b0	-0.391294
153	0x3e16ae39	0.14714898
154	0x3e5eddfa	0.21764365
155	0xbd83d772	-0.06437577
156	0xbdc317dc	-0.09526035
157	0x3dd7b947	0.10533386
158	0x3e4ae459	0.1981367
159	0x3e9b5e70	0.30345488
160	0xbdf01800	-0.11723328
161	0xbb1fc61f	-0.0024379564
162	0x3e02168c	0.12703913
163	0xbeb985a0	-0.3623476
164	0x3d88d972	0.066820994
165	0x3d2e90fa	0.04261873
166	0x3d2f5acc	0.0428112
167	0xbd14530a	-0.036212005
168	0x3e26b475	0.16279776
169	0xbda5841d	-0.08081839
170	0x3e401373	0.1875742
171	0xbdde201c	-0.10845968
172	0xbbd84983	-0.00660056
173	0xbddb028e	-0.10693847
174	0x3ec9e2d6	0.39430875
175	0xbce37ed3	-0.027770435
176	0x3e2c8dfc	0.16851038
177	0x3e30e247	0.17273818
178	0xbea43822	-0.32074076
179	0xbe88f1d0	-0.26746988
180	0xbea24707	-0.31694815
181	0x3b8297b2	0.0039853686
182	0x3b66160b	0.0035108353
183	0x3ddcdcb4	0.10784283
184	0xbd97b5a8	-0.07407695
185	0x3e01da18	0.12680852
186	0x3de2a759	0.11067075
187	0x3dd23756	0.10264461
188	0x3dce9c14	0.10088363
189	0x3ebe13ec	0.37124574
190	0xbe25d724	-0.16195351
191	0x3e88789a	0.26654512
192	0x3d5b5035	0.05354329
193	0x3eb8c55c	0.36088073
194	0x3de398cb	0.11113127
195	0xbc0da417	-0.008645079
196	0x3e92d471	0.28677705
197	0x3ccb6890	0.024830133
198	0xbdb908b1	-0.09034861
199	0xbe3afd56	-0.18260702
200	0x3c741e93	0.014899868
201	0xbda1da14	-0.07902923
202	0xbd3fd243	-0.04683138
203	0xbf27aaff	-0.65495294
204	0xbe9c0d23	-0.30478773
205	0x3dd38e37	0.1032986
206	0xbe091791	-0.13387896
207	0xbe29e67e	-0.16591832
208	0x3df5aeaf	0.11996209
209	0x3eda78b2	0.42670208
210	0xbebca6ed	-0.36846104
211	0xbebb2a1e	-0.3655557
212	0xbe255a36	-0.16147694
213	0x3dc2cd1e	0.09511779
214	0x3e5ee1dc	0.21765846
215	0x3e4736c2	0.19454482
216	0x3d62cf58	0.05537352
217	0x3cbfb1a4	0.023400135
218	0xbe861fc2	-0.26196104
219	0xbd889c99	-0.06670494
220	0x3e33fe47	0.17577468
221	0xbe93c530	-0.2886138
222	0xbe8eef35	-0.27916875
223	0xbe90c98a	-0.28278762
224	0xbd5a8d42	-0.05335737
225	0xbe573f00	-0.21020126
226	0xba163d17	-0.0005731149
227	0xbe8f6dc2	-0.28013426
228	0x3da4a957	0.080401115
229	0xbe907c64	-0.28219903
230	0x3db99f4b	0.09063586
231	0x3e43130c	0.19050235
232	0x3e5c1380	0.21491814
233	0x3de7c8fe	0.11317633
234	0x3c67670b	0.014123688
235	0xbeabc4d8	-0.33548617
236	0xbe6f4124	-0.23364693
237	0xbd557bcc	-0.052120015
238	0xbee4e61b	-0.44706807
239	0x3e3d6cf2	0.1849859
240	0x3ed8e88c	0.4236492
241	0x3de017b2	0.109420195
242	0xbebca12f	-0.36841723
243	0x3c358217	0.011078379
244	0xbd8eafe7	-0.069671445
245	0x3ec6a6a6	0.38799018
246	0x3dc3e87a	0.09565826
247	0x3e35b9b9	0.17746629
248	0xbe063722	-0.13106969
249	0xbe22f267	-0.15912782
250	0xbd0dff78	-0.034667462
251	0x3dcb8674	0.09937754
252	0xbdec8bd1	-0.11550105
253	0x3eb974df	0.36221978
254	0xbe3c33ee	-0.18379185
255	0xbe9f6a62	-0.3113585
