models/247.pth (torch, 501905 bytes, 80 tensors)

conv0.conv.weight f4 [32, 17, 3, 3]
0.024020655 0.4731742 0.20905694 0.41726816 -0.5090696 0.65665096 0.20361553 0.5085585
0.32106933 -0.09188386 0.13651302 -0.093538195 -0.06527371 -0.32250166 -0.008169789 0.19826128
0.12639812 0.080178894 -0.058018822 -0.07009144 0.20811667 -0.047888618 -0.30569103 -0.065361604
-0.01959945 0.031027745 -0.03944197 0.12197386 0.08043132 -0.013595661 0.02834165 -0.12690274
-0.10938295 0.24399601 0.028864456 -0.15723227 0.3736764 0.29194573 0.51568335 0.31750798
-0.4389877 0.41986248 0.393804 0.37554908 0.1316739 0.14035293 0.332853 0.22801766
0.14227082 -0.19048245 0.2558108 0.24033514 0.37050346 0.17853124 0.38397023 0.22482608
0.032689475 0.27028424 -0.120384514 0.34687185 0.30261394 0.3253609 0.19915871 0.2768406
0.4146992 0.16857277 0.21346405 -0.15945464 0.34492934 0.35397243 0.34953496 0.4017141
0.06032913 0.11564313 -0.019983435 0.14801918 0.43659824 0.03177882 -0.046125006 0.109215476
-0.028874656 -0.01520596 0.12165332 0.03991481 0.08094399 0.606079 0.029621614 -0.012409638
0.09453974 0.10725923 -0.05949376 0.06268324 0.050948035 0.08045628 0.51575375 0.0704278
-0.050792452 0.07898557 0.034565147 -0.044730343 0.061770983 0.06257825 0.059483696 0.45489472
0.07907796 -0.09868534 0.1208725 0.0074400036 0.06524592 -0.24722421 0.09161674 -0.23641688
-0.36036274 -0.08736031 0.041942686 -0.37318403 0.09404825 0.040445704 -0.066138566 -0.029561052
0.023234637 0.15305255 0.024777485 0.00797178 0.14204104 0.09178078 0.26808697 0.07980754
0.027554365 0.12804027 0.17700247 -0.016748415 0.008522186 -0.24234232 0.09763693 -0.026428942
0.06467067 -0.0033304403 -0.05350287 0.114505164 0.12382298 0.10002941 -0.13997468 0.11670359
0.021308266 0.0723508 0.10797981 0.40493035 -0.044180606 0.22240855 -0.013594354 0.104752965
-0.059861 -0.3053757 0.089343145 0.05858726 -0.20987715 -0.54864854 0.42091066 0.16984375
-0.0466032 -0.021618899 -0.23203592 0.29337367 -0.3496756 -0.03718285 0.16872916 -0.72591525
0.12590382 -0.0898025 -0.23674677 0.0005190492 0.38357288 -0.17799419 -0.019813307 0.17564486
-0.6526595 0.08328188 -0.31339657 -0.19542006 -0.37334386 0.3665966 -0.0067727054 0.104524165
0.26283997 -0.8588161 0.15190096 -0.3260116 -0.2682673 -0.39798304 -0.39432696 0.27309352
-0.36692217 -0.4312137 -0.58477396 0.16937259 0.08008094 -0.28272137 -0.20169361 -0.64177704
-0.33106384 0.10352312 -0.25818592 -0.2051017 -0.638496 -0.28143668 -0.7087572 -0.46170855
-0.4007163 -0.8886698 -0.5592824 -0.19882606 -0.39354318 0.24811235 -0.5590739 -0.6834933
-0.3551002 -0.21275976 -0.54946065 -0.31011343 -0.23586404 -0.2504366 -0.27315626 -0.25821954
-0.6111709 -0.23485182 0.12289638 0.18352759 0.041568745 -0.41781366 0.2786425 -0.01855983
-0.05409719 0.025463985 -0.12645738 0.21492669 0.20652647 -0.06261736 -0.01774916 0.14581437
0.058738228 0.15991251 0.19027537 0.014007791 0.19029032 0.14522691 0.085968286 0.15291037
0.18533681 0.03165437 0.06750957 0.18824457 0.017235959 0.1085288 0.4252597 -0.047642957
00000000: f7c6 c43c e443 f23e 0613 563e 2ca4 d53e
00000010: 6352 02bf 471a 283f 9780 503e e430 023f
00000020: 3363 a43e 9b2d bcbd 12ca 0b3e f490 bfbd
00000030: 39ae 85bd f01e a5be 94da 05bc 0105 4b3e
00000040: 826e 013e d534 a43d 25a5 6dbd 1a8c 8fbd
00000050: 891c 553e db26 44bd 8983 9cbe 4edc 85bd
00000060: 078f a0bc e62d fe3c e78d 21bd 6ecd f93d
00000070: 2db9 a43d 56c0 5ebc bf2c e83c cbf2 01be
00000080: 2b04 e0bd 17da 793e 2775 ec3c 7f01 21be
00000090: 8352 bf3e e979 953e d303 043f 6890 a23e
000000a0: ffc2 e0be 37f8 d63e aea0 c93e f847 c03e
000000b0: 86d5 063e aeb8 0f3e b56b aa3e 767d 693e
000000c0: 71af 113e d50d 43be a2f9 823e 6a1a 763e
000000d0: a1b2 bd3e e5d0 363e bf97 c43e cf38 663e
000000e0: 66e5 053d b262 8a3e 288c f6bd 3099 b13e
000000f0: 37f0 9a3e b495 a63e 43f0 4b3e 0dbe 8d3e
00000100: 7453 d43e 579e 2c3e 5296 5a3e 1448 23be
00000110: 949a b03e e03b b53e 3ff6 b23e 78ad cd3e
00000120: ae1b 773d 4ed6 ec3d 4db4 a3bc 5792 173e
00000130: ce89 df3e 822a 023d 93ed 3cbd 5dac df3d
00000140: 8b8a ecbc 6b22 79bc 6025 f93d b67d 233d
00000150: f6c5 a53d fe27 1b3f 07a9 f23c cb51 4bbc
00000160: 0d9e c13d baaa db3d bbaf 73bd 1260 803d
00000170: e3ae 503d 43c6 a43d 7008 043f 733c 903d
00000180: bf0b 50bd 30c3 a13d 2f94 0d3d 2a37 37bd
00000190: 9203 7d3d 0729 803d 2da5 733d f6e7 e83e
000001a0: a0f3 a13d 8a1b cabd 008c f73d 46cb f33b
000001b0: a79f 853d 5828 7dbe 8fa1 bb3d 4417 72be
000001c0: 7781 b8be f6e9 b2bd 18cc 2b3d fa11 bfbe
000001d0: 5e9c c03d 65aa 253d a873 87bd 052a f2bc
000001e0: 9156 be3c cfb9 1c3e 27fa ca3c 129c 023c
000001f0: 3573 113e 90f7 bb3d b242 893e 2372 a33d
00000200: b1b9 e13c fd1c 033e 2340 353e f933 89bc
00000210: a4a0 0b3c 9628 78be dff5 c73d 8281 d8bc
00000220: 0e72 843d 8443 5abb d325 5bbd af81 ea3d
00000230: e796 fd3d 38dc cc3d 8655 0fbe 4b02 ef3d
00000240: ac8e ae3c a82c 943d 8524 dd3d 0853 cf3e
00000250: b9f6 34bd 11bf 633e daba 5ebc b988 d63d
00000260: cf30 75bd 345a 9cbe 8af9 b63d 32f9 6f3d
00000270: 09ea 56be 3b74 0cbf 9a81 d73e 85eb 2d3e
00000280: ffe2 3ebd 1e1a b1bc d39a 6dbe 1335 963e
00000290: ae08 b3be 0b4d 18bd 56c7 2c3e 95d5 39bf
000002a0: eeec 003e 60ea b7bd bf6d 72be cd10 083a
000002b0: aa63 c43e 1c44 36be 844f a2bc 3fdc 333e
000002c0: b114 27bf b18f aa3d 8475 a0be 321c 48be
000002d0: ed26 bfbe 8db2 bb3e 92ed ddbb c410 d63d
000002e0: f692 863e 5fdb 5bbf ed8b 1b3e feea a6be
000002f0: 555a 89be 6fc4 cbbe 39e5 c9be ead2 8b3e
00000300: 39dd bbbe 0bc8 dcbe bfb3 15bf 0270 2d3e
00000310: 7a01 a43d dbc0 90be c588 4ebe 804b 24bf
00000320: 3381 a9be ee03 d43d f230 84be 2e06 52be
00000330: 7974 23bf 7818 90be 1d71 35bf 1065 ecbe
00000340: b02a cdbe dd7f 63bf 222d 0fbf 0f99 4bbe
00000350: 7e7e c9be 2a11 7e3e 781f 0fbf 6bf9 2ebf
00000360: b2cf b5be b2dd 59be 74a9 0cbf 30c7 9ebe
00000370: 5886 71be 3a39 80be 23db 8bbe 5a35 84be
00000380: b275 1cbf ff7c 70be 19b1 fb3d a8ee 3b3e
00000390: fd43 2a3d aceb d5be 3baa 8e3e c90a 98bc
000003a0: 0495 5dbd d999 d03c 0b7e 01be be15 5c3e
000003b0: ad7b 533e 883d 80bd b066 91bc 5d50 153e
000003c0: 7f97 703d 1bc0 233e 8cd7 423e ef80 653c
000003d0: 77db 423e 5db6 143e 2410 b03d 8994 1c3e
000003e0: efc8 3d3e 03a8 013d 7542 8a3d 2fc3 403e
000003f0: 6d32 8d3c 5944 de3d a4bb d93e 4325 43bd

conv0.conv.bias f4 [32]
-0.000607672 -0.0027480265 0.00039755716 -0.0020051415 0.0026930028 -0.004193556 -0.0085792625 0.0048835403
0.017587906 -0.007331078 0.0041579846 0.017308973 -0.00042036822 0.0010783058 -0.00023540773 -0.005809964
-0.0011997274 -0.0042595826 0.023064371 -0.0054227565 -0.000198826 -0.01468582 -0.006898798 0.0005774258
-0.0043179225 0.0025599468 -0.00029087896 0.022462638 0.0061323945 0.0318448 -0.001983178 0.0028221854
00000000: 2d4c 1fba 3c18 34bb 386f d039 b168 03bb
00000010: 177d 303b 196a 89bb 0990 0cbc 1b06 a03b
00000020: 8314 903c 8a39 f0bb b43f 883b 8ccb 8d3c
00000030: de64 dcb9 f055 8d3a c8d7 76b9 8361 bebb
00000040: 2c40 9dba f893 8bbb 7ef1 bc3c 61b1 b1bb
00000050: f37b 50b9 cb9c 70bc 500f e2bb 645e 173a
00000060: 5c7d 8dbb c8c4 273b 1d81 98b9 9103 b83c
00000070: 41f2 c83b b16f 023d 35f8 01bb 6af4 383b

conv0.bn.weight f4 [32]
0.90072095 0.6797422 0.58931637 0.7142633 0.6749965 0.5761733 0.66121227 0.7657692
0.88905174 0.8062551 0.6820585 0.4028924 0.6216432 0.9808252 0.64589983 0.86714506
0.66360223 1.4044946 0.8569414 0.710681 0.71679103 0.9617997 0.7374503 0.60492957
0.7999713 0.67604834 0.84979063 0.73230463 1.0104738 0.5793491 0.6465291 0.4958434
00000000: a695 663f 9603 2e3f 70dd 163f f6d9 363f
00000010: 92cc 2c3f 1880 133f 3545 293f 7309 443f
00000020: e598 633f bc66 4e3f 639b 2e3f ea47 ce3e
00000030: 0224 1f3f 5c17 7b3f b159 253f 38fd 5d3f
00000040: d6e1 293f 7bc6 b33f 8360 5b3f 31ef 353f
00000050: 9e7f 373f 8138 763f 8bc9 3c3f aadc 1a3f
00000060: ebca 4c3f 8111 2d3f e18b 593f 5178 3b3f
00000070: 3557 813f 3950 143f ee82 253f 30df fd3e

conv0.bn.bias f4 [32]
-0.6032235 -0.027795332 -0.20534623 -0.41508898 -0.21749008 0.065520704 0.06177064 -0.3896657
-0.1789131 -0.42675433 -0.26339146 0.29547033 -0.25993475 -0.36857587 -0.30487978 -0.08406998
0.021387562 -0.19554396 -0.32458243 -0.2600728 -0.15263364 0.08347509 -0.3923593 -0.31139433
-0.2308481 -0.4938821 -0.34872174 -0.107170455 -0.09677726 0.6313559 -0.18383113 0.019566054
00000000: db6c 1abf 09b3 e3bc 4846 52be 8b86 d4be
00000010: b8b5 5ebe b82f 863d 3603 7d3d 4382 c7be
00000020: ff34 37be 8b7f dabe 3fdb 86be e347 973e
00000030: 2b16 85be fab5 bcbe 3419 9cbe e22c acbd
00000040: f834 af3c ad3c 48be ab2f a6be 4328 85be
00000050: fe4b 1cbe fdf4 aa3d 51e3 c8be 146f 9fbe
00000060: 7263 6cbe 1dde fcbe a88b b2be 2f7c dbbd
00000070: 2833 c6bd 8aa0 213f 3a3e 3cbe fd48 a03c

conv0.bn.running_mean f4 [32]
0.4035692 0.06911083 -0.15228103 -0.2063425 -0.08080015 -0.007212192 -0.359881 0.36618382
-0.28507906 -0.13757715 -0.078985535 0.014372717 -0.10676756 -0.058348954 0.095451884 0.31810328
0.23825799 -0.25686896 -0.2268443 -0.07495827 0.03427821 -0.08756 -0.29377317 0.26121122
-0.12954623 -0.23148017 -0.046732318 -0.10476832 0.32125235 0.19157921 -0.08628069 0.29656768
00000000: 9fa0 ce3e fb89 8d3d 8fef 1bbe 734b 53be
00000010: 8d7a a5bd 4054 ecbb 5342 b8be 727c bb3e
00000020: e2f5 91be 06e1 0cbe 2bc3 a1bd 8b7b 6b3c
00000030: f3a8 dabd 50ff 6ebd 477c c33d 6fde a23e
00000040: e7f9 733e 5484 83be df49 68be b983 99bd
00000050: 4f67 0c3d a852 b3bd 7069 96be 7abd 853e
00000060: c4a7 04be 2309 6dbe 636a 3fbd c690 d6bd
00000070: 307b a43e 572d 443e eeb3 b0bd b8d7 973e

conv0.bn.running_var f4 [32]
0.16106422 0.1746831 0.3579429 0.24440175 0.209604 0.2127567 0.37272707 0.15950361
0.2997291 0.24701765 0.17349494 0.23817246 0.18548004 0.13340631 0.19443084 0.17327206
0.15319327 0.23375927 0.25475967 0.18281536 0.29978317 0.204411 0.1807917 0.18440226
0.17049755 0.24438722 0.20460689 0.14560233 0.20882218 0.14348228 0.1918406 0.20293324
00000000: 05ee 243e 20e0 323e 4b44 b73e 7444 7a3e
00000010: 6ea2 563e e4dc 593e 15d6 be3e ea54 233e
00000020: 1876 993e 32f2 7c3e a8a8 313e 7be3 733e
00000030: 7bee 3d3e aa9b 083e e118 473e 3b6e 313e
00000040: b2de 1c3e 975e 6f3e dc6f 823e f333 3b3e
00000050: 2e7d 993e 1e51 513e 7621 393e f2d3 3c3e
00000060: e996 2e3e a540 7a3e 7884 513e c718 153e
00000070: 7bd5 553e 05ed 123e dd71 443e bbcd 4f3e

blocks.0.conv.weight f4 [32, 32, 3, 3]
0.26893014 -0.09201041 0.35298854 -0.38044378 0.17130122 -0.20803095 0.14835231 -0.14084472
0.30080888 0.09167942 0.0041803243 -0.41762972 -0.04689372 -0.042992767 0.1309679 0.011722618
-0.05789364 -0.12223257 0.17871009 -0.24968821 0.06849969 0.04848445 -0.137421 0.06899427
0.109267086 0.068351425 -0.03635072 0.09396224 0.14580011 0.08179524 0.05673014 0.21552527
-0.057536274 -0.26651344 -0.27549595 0.16860685 -0.0020309314 0.18438612 -0.12519637 0.06512497
0.20001346 -0.10826311 -0.057027195 0.19263704 0.0013331632 0.0463381 -0.24403664 0.07521393
-0.09851178 -0.1357129 0.21246701 0.16479243 0.24579065 0.23476486 0.1694758 -0.01619769
-0.043762762 -0.16269581 0.09957125 -0.26513442 -0.00013259286 -0.025112795 -0.28594062 0.36804405
0.42194712 0.42652076 -0.14771585 0.41934916 0.15316205 0.24002336 0.18035503 0.28162363
0.15053225 -0.49062374 0.14343338 -0.03153869 0.35893008 0.14192414 0.081926726 0.40153888
-0.06801438 -0.17199308 -0.061494164 -0.1275789 -0.13840301 0.39664862 -0.08410448 0.06956863
-0.13153334 -0.08339763 0.009504017 0.017855268 -0.10993737 -5.36852e-05 0.049820106 -0.081068225
0.09560428 0.21001707 0.07480258 0.12600395 -0.033434335 0.38923165 -0.28589913 0.087793514
0.09097206 0.19106472 -0.10161458 0.104963236 -0.40657786 -0.09327749 0.33947107 0.0754302
0.012176148 0.18139844 -0.07961229 0.45341435 0.1364146 -0.12989883 -0.35640448 -0.34104902
-0.0024643962 -0.5384431 -0.20600767 -0.033697397 -0.09427173 0.097040825 -0.17750415 0.19784346
-0.4469081 0.21037209 -0.13892624 -0.04766079 -0.05672226 -0.30137655 0.054446295 0.27767882
0.20260604 0.10973499 0.1700501 0.007582133 0.004364413 0.026795954 0.03949828 0.14038904
-0.042098667 0.102777585 0.017204717 0.11370372 -0.16993111 0.06844648 -0.031447567 0.21047033
0.1549097 -0.059642415 0.27912867 0.06910134 0.26289818 -1.7703675 0.2556855 0.26578036
0.14004423 0.13151279 0.06003764 -0.22524521 0.5596429 0.32534978 -0.27954555 -0.086555764
-0.4427046 0.2965649 0.04178933 0.065615945 -0.30878434 -0.31309187 -0.11945053 -0.16628157
0.007404889 -0.010891072 -0.2710404 0.07598331 0.057511333 -0.033448875 0.109091915 0.18906009
-0.29621765 -0.083057486 -0.013699607 -0.18635353 -0.06620698 0.06927306 0.23021838 0.0061825397
0.1157206 -0.27431592 0.2774829 0.23004441 0.41982073 0.12169617 -0.036021773 0.094021864
0.020874122 -0.37734643 0.39565593 0.07747312 0.16087192 -0.42584777 -0.04211798 0.07535312
0.014430053 0.11791618 -0.10331158 -0.17847389 0.13160314 -0.18759906 0.04477112 0.18513003
0.14746644 0.05225438 0.21217231 0.16397443 0.043565094 -0.011191534 0.17138977 0.11817268
0.16158682 0.025340058 -0.027059343 -0.023214849 0.06625014 0.20439231 -0.44470108 -0.40835264
-0.20824897 0.11884318 0.1142795 0.01779633 0.054293808 -0.13036768 -0.25566182 0.016412698
0.01902457 0.56909496 -0.28041106 0.2139438 -0.23394953 -0.13330118 0.122894235 -0.12620544
-0.17384988 0.02565013 0.0144108655 0.10494399 0.113540575 -0.11149053 0.06116033 -0.17003013
00000000: 36b1 893e f46f bcbd eaba b43e 87c9 c2be
00000010: 9669 2f3e 1106 55be abe9 173e 9939 10be
00000020: 9f03 9a3e 6bc2 bb3d 1afb 883b 90d3 d5be
00000030: a113 40bd 2f19 30bd 731c 063e 3910 403c
00000040: e221 6dbd 1255 fabd c7ff 363e 44ae 7fbe
00000050: 9149 8c3d a197 463d 17b8 0cbe de4c 8d3d
00000060: 6cc7 df3d d5fb 8b3d 7ee4 14bd 466f c03d
00000070: a04c 153e 4384 a73d dd5d 683d a8b2 5c3e
00000080: 28ab 6bbd 7374 88be ce0d 8dbe 46a7 2c3e
00000090: 6019 05bb b7cf 3c3e 7a33 00be 3e60 853d
000000a0: 54d0 4c3e 0db9 ddbd 5995 69bd a542 453e
000000b0: 89bd ae3a 05cd 3d3d bee4 79be c309 9a3d
000000c0: 8bc0 c9bd 53f8 0abe f490 593e 59bf 283e
000000d0: 8bb0 7b3e 3366 703e 108b 2d3e 05b1 84bc
000000e0: 9540 33bd bb99 26be 03ec cb3d b3bf 87be
000000f0: a008 0bb9 59b9 cdbc cf66 92be 4570 bc3e
00000100: 7409 d83e ee60 da3e d342 17be efb4 d63e
00000110: 83d6 1c3e afc8 753e fdae 383e f930 903e
00000120: 2025 1a3e 0933 fbbe 33e0 123e b72e 01bd
00000130: afc5 b73e 9054 113e 33c9 a73d 8196 cd3e
00000140: 204b 8bbd f41e 30be 4ee1 7bbd 0ba4 02be
00000150: 85b9 0dbe 8715 cb3e f83e acbd ff79 8e3d
00000160: adb0 06be 60cc aabd bdb6 1b3c 3645 923c
00000170: d826 e1bd 0b2c 61b8 2b10 4c3d 1907 a6bd
00000180: 2dcc c33d b70e 573e 1832 993d 2e07 013e
00000190: 71f2 08bd 5f49 c73e 5f61 92be 16cd b33d
000001a0: 8f4f ba3d 78a6 433e 4e1b d0bd f7f6 d63d
000001b0: f92a d0be 4508 bfbd 27cf ad3e 267b 9a3d
000001c0: 777e 473c 83c0 393e c50b a3bd ed25 e83e
000001d0: 45b0 0b3e 3304 05be a67a b6be fa9d aebe
000001e0: b581 21bb 68d7 09bf adf3 52be 4806 0abd
000001f0: 8911 c1bd 57bd c63d a6c3 35be 7a97 4a3e
00000200: 23d1 e4be c86b 573e ae42 0ebe f637 43bd
00000210: 9a55 68bd 074e 9abe 1403 5f3d eb2b 8e3e
00000220: f577 4f3e bdbc e03d 9d21 2e3e 8b73 f83b
00000230: 5a03 8f3b 3083 db3c f3c8 213d 25c2 0f3e
00000240: a76f 2cbd 0e7d d23d e8f0 8c3c 7fdd e83d
00000250: 6c02 2ebe ab2d 8c3d 2acf 00bd 8985 573e
00000260: a6a0 1e3e 9b4b 74bd f4e9 8e3e 0185 8d3d
00000270: 979a 863e 679b e2bf 36e9 823e 5d14 883e
00000280: c167 0f3e 4aab 063e 07ea 753d aea6 66be
00000290: c244 0f3f 3f94 a63e 9820 8fbe 2644 b1bd
000002a0: 2daa e2be 5bd7 973e 4a2b 2b3d a761 863d
000002b0: fb18 9ebe 944d a0be 7ba2 f4bd b745 2abe
000002c0: b6a4 f23b 7870 32bc cfc5 8abe 239d 9b3d
000002d0: 0191 6b3d b001 09bd 956b df3d f898 413e
000002e0: d7a9 97be 0b1a aabd 5174 60bc 76d3 3ebe
000002f0: 8697 87bd 09df 8d3d 5ebe 6b3e e796 ca3b
00000300: ecfe ec3d 2373 8cbe 3d12 8e3e c390 6b3e
00000310: bef2 d63e d73b f93d 918b 13bd 898e c03d
00000320: 3500 ab3c 8d33 c1be 6a93 ca3e 3aaa 9e3d
00000330: 9cbb 243e b808 dabe e783 2cbd bd52 9a3d
00000340: 076c 6c3c 0a7e f13d 0695 d3bd dcc1 36be
00000350: f9c2 063e f819 40be ec61 373d ba92 3d3e
00000360: 7101 173e b008 563d b343 593e eae8 273e
00000370: 5071 323d b25c 37bc cd80 2f3e 8504 f23d
00000380: 0477 253e f495 cf3c 8eab ddbc 112d bebc
00000390: 27ae 873d 384c 513e dcaf e3be 9913 d1be
000003a0: 383f 55be 0e64 f33d 5f0b ea3d 9cc9 913c
000003b0: 2f63 5e3d 1b7f 05be 1be6 82be ec73 863c
000003c0: 6ad9 9b3c 35b0 113f 0a92 8fbe 1514 5b3e
000003d0: 7790 6fbe 1b80 08be f9af fb3d 003c 01be
000003e0: b405 32be 3920 d23c 8d1b 6c3c e0ec d63d
000003f0: f687 e83d 2655 e4bd 4183 7a3d 611c 2ebe

blocks.0.conv.bias f4 [32]
0.00039243128 0.0044232775 7.349077e-05 -6.5470317e-06 0.0051226784 -0.029611481 0.00010085814 0.0077360356
-0.011837299 -0.004912056 0.0096211145 -0.03093286 0.0002430896 0.0015993702 0.0021881051 -0.0010940739
0.0011097299 -0.011895368 -0.0025378757 0.0006377453 -0.000783919 -0.006396355 0.00023357042 -0.000105624786
0.0143345045 -0.00064127945 -0.00013971301 7.120671e-05 -0.0021144634 0.0012051985 -0.018199354 -0.001538434
00000000: 3cbf cd39 24f1 903b 0f1f 9a38 93ae dbb6
00000010: 24dc a73b c793 f2bc cd83 d338 927e fd3b
00000020: 3bf1 41bc 50f5 a0bb e1a1 1d3c e966 fdbc
00000030: dee5 7e39 f5a1 d13a 5066 0f3b 0767 8fba
00000040: 5b74 913a cae4 42bc 7d52 26bb 5d2e 273a
00000050: ea7f 4dba 8498 d1bb 95ea 7439 e082 ddb8
00000060: 45db 6a3c 891b 28ba ed7f 12b9 d054 9538
00000070: cf92 0abb c0f7 9d3a d016 95bc 47a5 c9ba

blocks.0.bn.weight f4 [32]
0.9001071 0.86358815 0.7560899 0.92716175 1.1187661 0.7498138 0.6875537 0.8522303
0.9025308 0.99614877 0.82741463 1.0661502 0.82998675 0.77286446 0.802034 0.75093436
1.0204399 0.99358654 0.79035056 1.004084 0.85366195 0.7413825 0.9642997 0.9179249
0.8890306 0.77771246 1.018305 1.2005874 0.6930016 0.70242995 0.5729552 0.9547097
00000000: 6b6d 663f 1d14 5d3f 1c8f 413f 795a 6d3f
00000010: ba33 8f3f ccf3 3f3f 8503 303f c42b 5a3f
00000020: 420c 673f 9b03 7f3f 72d1 533f 9c77 883f
00000030: 037a 543f 72da 453f 1a52 4d3f 3c3d 403f
00000040: c69d 823f b05b 7e3f 6a54 4a3f d385 803f
00000050: 9789 5a3f 3ecb 3d3f 58dc 763f 20fd 6a3f
00000060: 8297 633f 2a18 473f d157 823f d9ac 993f
00000070: 8e68 313f 73d2 333f 31ad 123f db67 743f

blocks.0.bn.bias f4 [32]
-0.6162734 -0.4328279 0.091051094 -0.2003087 -0.3452178 -0.16669413 -0.24791284 -0.26889408
-0.38063157 -0.25552735 -0.44853866 -0.56060773 -0.562869 -0.61181706 -0.14249806 -0.59944314
-0.5524013 -0.3025131 -0.19241175 -0.645469 -0.5044531 -0.32006314 -0.8373921 -0.3604492
-0.0021210506 -0.5114853 -0.45940623 -0.7010839 -0.51486844 -0.2248042 -0.004563734 -0.84994406
00000000: 18c4 1dbf 9e9b ddbe ff78 ba3d b91d 4dbe
00000010: 63c0 b0be deb1 2abe dddc 7dbe 7cac 89be
00000020: 24e2 c2be 7bd4 82be dca6 e5be fd83 0fbf
00000030: 2f18 10bf 0ba0 1cbf 03eb 11be 1b75 19bf
00000040: 2c6a 0dbf ffe2 9abe 9607 45be 753d 25bf
00000050: d723 01bf 51df a3be 545f 56bf cc8c b8be
00000060: 5301 0bbb b3f0 02bf 4b37 ebbe 3c7a 33bf
00000070: 6bce 03bf 1233 66be 608b 95bb ef95 59bf

blocks.0.bn.running_mean f4 [32]
1.4937384 -4.10977 2.7651331 -0.04890284 -1.6632099 -4.1638317 -2.302993 -1.923765
0.40130928 -2.020665 -2.222444 -1.6893287 -1.8667735 1.8863271 1.8158568 -0.22440062
0.3422378 -1.8320692 3.1838152 -2.0926998 0.279093 -2.223224 -1.6081376 0.73127174
-1.2922244 -1.7965671 0.58486295 -1.3563405 -4.203263 0.56043905 1.1173656 -4.0623865
00000000: d232 bf3f 3c83 83c0 f1f7 3040 584e 48bd
00000010: 10e4 d4bf 1c3e 85c0 3d64 13c0 ee3d f6bf
00000020: 6978 cd3e 9352 01c0 863c 0ec0 ec3b d8bf
00000030: 6ff2 eebf 2b73 f13f ff6d e83f 47c9 65be
00000040: cb39 af3e 3e81 eabf a1c3 4b40 cbee 05c0
00000050: 47e5 8e3e 4d49 0ec0 74d7 cdbf a034 3b3f
00000060: 9c67 a5bf e9f5 e5bf 94b9 153f 919c adbf
00000070: 2181 86c0 ef78 0f3f d605 8f3f 12ff 81c0

blocks.0.bn.running_var f4 [32]
3.2510548 4.4272304 7.908905 4.268939 9.181584 6.081917 6.718013 3.6733415
3.159753 2.9238877 3.8293402 4.6168585 3.545328 4.59916 5.8882723 3.218562
3.352511 10.09105 3.4167666 3.603674 2.4202724 6.124341 3.5482461 4.252753
9.037322 3.4495282 4.1954966 5.1160064 7.7286386 3.6751575 4.7567043 4.4058414
00000000: 4811 5040 dfab 8d40 c015 fd40 269b 8840
00000010: c5e7 1241 109f c240 f6f9 d640 0718 6b40
00000020: 6539 4a40 fa20 3b40 e913 7540 4ebd 9340
00000030: a7e6 6240 522c 9340 ba6c bc40 ebfc 4d40
00000040: 8a8f 5640 f174 2141 4eac 5a40 98a2 6640
00000050: bee5 1a40 9afa c340 7716 6340 8d16 8840
00000060: df98 1041 12c5 5c40 8241 8640 53b6 a340
00000070: 0251 f740 c835 6b40 ec36 9840 a7fc 8c40

blocks.1.conv.weight f4 [32, 32, 3, 3]
0.18828705 0.028084312 0.14768912 -0.40131375 0.27034405 -0.01391798 0.22332002 -0.60803074
0.18235683 0.07710461 0.2297643 -0.22884984 -0.039987937 0.055176113 -0.20307772 -0.21283604
0.33690673 0.050519556 0.05293582 -0.24046674 0.09336458 -0.25965643 -0.7262624 -0.13047549
-0.09330071 0.17100377 0.11023901 0.28555885 -0.10166721 0.1635933 -0.1852376 0.3457709
-0.13855574 -0.05048058 -0.5313676 -0.18426174 0.09039643 0.17079659 -0.3556463 0.055807047
-0.18128806 -0.18988442 0.09221642 -0.129506 -0.07478732 -0.26189476 -0.011444549 0.38510725
0.0093437545 0.17409407 0.19922379 0.045697846 0.13917299 0.5662617 -0.13692816 0.12906155
-0.24850272 -0.2120075 -0.060048845 -0.18678772 0.03470751 0.25051665 0.021836134 0.075622074
-0.77705073 -0.08483391 -0.028749013 0.23302498 -0.48614228 0.00415075 -0.13918793 0.08867619
0.111583464 -0.16814946 -0.13707832 -0.06962361 0.04284569 -0.041910555 -0.008445738 -0.24970153
0.29158032 -0.068091914 -0.21746676 -0.3455832 0.48917404 0.13020374 -0.37372747 0.016839294
-0.035338715 -0.07580336 0.039458767 -0.04162733 0.07310561 0.025866626 -0.18966419 0.17404968
0.13790998 0.009682834 -0.008084926 0.16175541 0.02398319 0.08009579 -0.23368323 0.04687662
-0.06790712 -0.14985248 -0.48730177 0.03898537 -0.20957716 0.32987806 0.004933201 -0.06288282
0.2569701 -0.086514845 -0.17887442 0.00035305708 0.22710145 -0.090082586 -0.54745895 -0.23743293
-0.21657583 -0.5966152 0.10780129 -0.060466427 0.26034966 0.07106184 0.40665993 -0.15604658
-0.16075598 0.29928127 -0.30582818 0.17436254 0.002493556 -0.24004222 -0.027027324 -0.10192707
0.13908252 0.08038443 -0.23856746 0.14311087 -0.049569122 -0.14917184 -0.15580131 0.1332052
0.27950233 -0.4479575 0.11193249 -0.040729266 -0.26978445 0.06800825 -0.056823965 -0.098393634
-0.19130309 0.119539775 -0.13317673 -0.17897718 -0.4003212 -1.0887051 -0.075576 0.052704837
-0.2975019 -0.0956827 0.057626076 0.17723763 -0.027618978 0.10723203 -0.03966366 0.17079732
0.09010272 0.1325946 -0.05799457 -0.20490997 -0.13585286 -0.14153433 -0.052204307 0.1852621
0.175043 -0.4559044 -0.2526116 -0.6364807 0.11613776 -0.3354392 0.17242976 0.07867996
-0.1868506 0.23088863 -0.031146914 -0.05884172 -0.066919036 -0.067024074 0.0257911 -0.31849584
-0.061802503 -0.3661868 -0.13815664 -0.11450943 0.1084236 -0.22966687 -0.0033818614 -0.1210635
0.37386915 0.14257748 -0.10990877 -0.18583582 -0.116222836 -0.055512875 -0.07800122 -0.161169
-0.014920154 0.1831393 -0.45918873 -0.5219386 -0.009171165 0.122028984 -0.2627453 -0.35080636
0.044323817 -0.071277 -0.29731604 -0.07108657 -0.24021545 -0.30646923 0.1536392 0.26656157
-0.21284182 -0.109015815 0.08318968 -0.024697784 -0.2882097 -0.07884303 -0.16791953 -0.36533
0.09535691 -0.05312704 0.22275084 0.14735028 0.4587212 -0.16025455 -0.406499 -0.13630515
-0.34624922 -0.13231307 -0.33365425 0.13528876 -0.18987715 -0.04659073 -0.10053772 -0.33810294
0.34123048 0.052203625 -0.065819666 0.112532966 -0.103082344 -0.012075932 0.2067863 -0.5115515
00000000: 52ce 403e 1211 e63c d13b 173e ff78 cdbe
00000010: 896a 8a3e 3d08 64bc 01ae 643e e7a7 1bbf
00000020: c0bb 3a3e 06e9 9d3d 5547 6b3e 9d57 6abe
00000030: 64ca 23bd 5900 623d 9bf3 4fbe b1f1 59be
00000040: 0a7f ac3e 98ed 4e3d 3bd3 583d ea3c 76be
00000050: ee35 bf3d b0f1 84be 55ec 39bf 5e9b 05be
00000060: 7114 bfbd 9d1b 2f3e fdc4 e13d c534 923e
00000070: e636 d0bd 0185 273e edae 3dbe e208 b13e
00000080: 8ee1 0dbe bac4 4ebd b507 08bf 1caf 3cbe
00000090: c321 b93d 4de5 2e3e 4617 b6be ee95 643d
000000a0: 94a3 39be 1071 42be f6db bc3d 399d 04be
000000b0: 182a 99bd 1217 86be eb81 3bbc c72c c53e
000000c0: 8c16 193c b745 323e 5201 4c3e aa2d 3b3d
000000d0: 5d83 0e3e 87f6 103f e536 0cbe b628 043e
000000e0: 7f77 7ebe 7e18 59be c7f5 75bd 4845 3fbe
000000f0: 7629 0e3d b843 803e b1e1 b23c bfdf 9a3d
00000100: ccec 46bf 67bd adbd 0d83 ebbc 1a9e 6e3e
00000110: a4e7 f8be 0403 883b 4887 0ebe dd9b b53d
00000120: df85 e43d 5f2f 2cbe 425e 0cbe d396 8ebd
00000130: f67e 2f3d 67aa 2bbd fe5f 0abc c2b1 7fbe
00000140: 044a 953e c673 8bbd 9baf 5ebe 48f0 b0be
00000150: 0575 fa3e 2154 053e 3559 bfbe 8ff2 893c
00000160: 54bf 10bd cb3e 9bbd 849f 213d 6b81 2abd
00000170: 65b8 953d 3fe6 d33c 5437 42be 143a 323e
00000180: 4638 0d3e c0a4 1e3c a376 04bc 36a3 253e
00000190: 6578 c43c 4309 a43d a84a 6fbe b301 403d
000001a0: e312 8bbd ee72 19be 9e7f f9be 20af 1f3d
000001b0: 659b 56be c7e5 a83e b0a6 a13b b5c8 80bd
000001c0: 9691 833e b22e b1bd db2a 37be 851a b939
000001d0: 488d 683e 387d b8bd 4526 0cbf 9e21 73be
000001e0: 0ec6 5dbe c6bb 18bf ecc6 dc3d a5ab 77bd
000001f0: 8d4c 853e df88 913d bb35 d03e adca 1fbe
00000200: 379d 24be 653b 993e 8395 9cbe 188c 323e
00000210: ed6a 233b a1cd 75be 6868 ddbc 24bf d0bd
00000220: a66b 0e3e 98a0 a43d 074b 74be a88b 123e
00000230: fe08 4bbd 81c0 18be 618a 1fbe f266 083e
00000240: ee1a 8f3e af5a e5be dc3c e53d bbd3 26bd
00000250: 3021 8abe e947 8b3d 3fc0 68bd 9a82 c9bd
00000260: f5e4 43be 45d1 f43d 7b5f 08be cb45 37be
00000270: e6f6 ccbe b05a 8bbf 97c7 9abd 07e1 573d
00000280: 2b52 98be 4bf5 c3bd 5209 6c3d c87d 353e
00000290: 3241 e2bc 779c db3d 5d76 22bd 7ee5 2e3e
000002a0: c687 b83d e1c6 073e b78b 6dbd ebd3 51be
000002b0: 031d 0bbe 60ee 10be 2fd4 55bd 59b5 3d3e
000002c0: 793e 333e 4d6c e9be 4f56 81be 66f0 22bf
000002d0: a2d9 ed3d b0be abbe 6d91 303e f522 a13d
000002e0: c455 3fbe 126e 6c3e d027 ffbc 0404 71bd
000002f0: d90c 89bd eb43 89bd db47 d33c e311 a3be
00000300: 9f24 7dbd d67c bbbe ef78 0dbe ec83 eabd
00000310: 310d de3d cb2d 6bbe 38a2 5dbb 24f0 f7bd
00000320: c76b bf3e d5ff 113e d917 e1bd bf4b 3ebe
00000330: 3d06 eebd 7861 63bd 1bbf 9fbd 7d09 25be
00000340: a973 74bc de88 3b3e c91a ebbe c59d 05bf
00000350: a742 16bc 55ea f93d 8d86 86be e49c b3be
00000360: e48c 353d adf9 91bd cf39 98be d695 91bd
00000370: 0afb 75be 89e9 9cbe 9853 1d3e c27a 883e
00000380: 35f3 59be af43 dfbd 5a5f aa3d 0253 cabc
00000390: 3990 93be 7478 a1bd 19f3 2bbe 890c bbbe
000003a0: 7c4a c33d bd9b 59bd cc18 643e fee2 163e
000003b0: 81dd ea3e c519 24be a320 d0be 9493 0bbe
000003c0: 9447 b1be 147d 07be bbd4 aabe 2389 0a3e
000003d0: 286f 42be ecd5 3ebd b8e6 cdbd d41b adbe
000003e0: c3b5 ae3e 78d3 553d 76cc 86bd af77 e63d
000003f0: d61c d3bd 21da 45bc cabf 533e 0af5 02bf

blocks.1.conv.bias f4 [32]
-0.009296589 -0.00019903136 0.0019057143 0.006010877 -0.0029292614 -0.0066527636 0.007078092 0.006587421
-0.003096446 0.0010714746 -0.0008101467 -0.0008167583 0.0060297754 0.00026015684 -9.150597e-05 -0.0078627905
0.00012937856 0.0016224921 0.00011724299 -0.0045361225 -0.00023940204 0.0009202552 0.00062084413 0.001763452
0.0047584265 -0.0082495585 -0.0021010768 0.00026491995 -8.411239e-05 0.00043946828 0.00033980078 0.00038862246
00000000: b850 18bc 13b3 50b9 29c9 f93a e4f6 c43b
00000010: daf8 3fbb 6dff d9bb 57ef e73b 4bdb d73b
00000020: beed 4abb b970 8c3a 0660 54ba b91b 56ba
00000030: 6c95 c53b a965 8839 e5e6 bfb8 efd2 00bc
00000040: cba9 0739 cda9 d43a 5ae0 f538 c1a3 94bb
00000050: ff07 7bb9 483d 713a 25c0 223a a123 e73a
00000060: 93ec 9b3b 2829 07bc 38b2 09bb f4e4 8a39
00000070: 7f65 b0b8 6f68 e639 4a27 b239 06c0 cb39

blocks.1.bn.weight f4 [32]
0.63253516 0.9031186 0.6587079 0.89657885 1.0647625 0.73702675 0.6934556 0.7775954
1.0422461 0.84293264 0.88668853 0.9684853 1.1442162 0.833446 1.0966572 0.9270242
1.1603081 0.69562566 0.9274284 0.909996 0.9143017 0.77606714 1.2535496 1.1210573
1.0157388 1.1834213 0.9913561 0.8292834 0.77506745 0.7814189 0.50492626 1.1045437
00000000: d3ed 213f c832 673f 15a1 283f 3186 653f
00000010: 234a 883f c9ad 3c3f 4e86 313f 7e10 473f
00000020: 5268 853f 6fca 573f 05fe 623f a7ee 773f
00000030: ad75 923f b85c 553f 435f 8c3f 7551 6d3f
00000040: fa84 943f 8614 323f f36b 6d3f 7ff5 683f
00000050: ad0f 6a3f 56ac 463f 5074 a03f ce7e 8f3f
00000060: bb03 823f 597a 973f 83c9 7d3f eb4b 543f
00000070: d26a 463f 120b 483f d942 013f b061 8d3f

blocks.1.bn.bias f4 [32]
-0.23387334 -0.47865275 0.04136455 -0.46537253 -0.07079899 -0.21767789 -0.3856911 -0.5187605
-0.52455074 -0.37842122 -0.49798355 -0.5994384 -0.5111575 -0.38926432 -0.42350727 -0.3542657
-0.57405275 -0.49502832 -0.469858 -0.4484855 -0.7875375 -0.42519632 -0.5889024 -0.06659489
-0.7158752 -0.1444985 -0.31920198 -0.3625887 -0.2721489 -0.6448804 -0.097535335 -0.43936846
00000000: 7e7c 6fbe f911 f5be e06d 293d 4f45 eebe
00000010: 10ff 90bd f4e6 5ebe 4e79 c5be 7dcd 04bf
00000020: f548 06bf 6dc0 c1be b3f7 febe cc74 19bf
00000030: 38db 02bf a74d c7be f2d5 d8be 5062 b5be
00000040: 1ff5 12bf 5a74 fdbe 3a91 f0be e49f e5be
00000050: 0f9c 49bf 55b3 d9be 4fc2 16bf e762 88bd
00000060: 9943 37bf 6af7 13be 716e a3be 3aa5 b9be
00000070: 1a57 8bbe e216 25bf 9bc0 c7bd e7f4 e0be

blocks.1.bn.running_mean f4 [32]
-5.1954246 -2.6217885 0.041339435 -2.6450398 -3.3526886 -0.39862657 2.15239 -3.3504543
-4.1809926 -0.9204599 0.23057841 0.43543202 -2.5406718 1.8556848 -1.0322502 -2.150314
-1.7399586 0.044585854 -3.478233 -3.2864037 -1.0924609 -2.3704944 -1.6970451 -1.9148635
-2.585542 0.016491279 -1.409723 -3.1942194 0.86603165 -2.6163988 1.5714103 -2.3317811
00000000: eb40 a6c0 62cb 27c0 8a53 293d 5548 29c0
00000010: 7392 56c0 c818 ccbe c2c0 0940 d86d 56c0
00000020: b1ca 85c0 43a3 6bbf bf1c 6c3e f2f0 de3e
00000030: 5e9a 22c0 1487 ed3f c620 84bf bf9e 09c0
00000040: f7b6 debf a89f 363d 5f9b 5ec0 7054 52c0
00000050: c2d5 8bbf 2eb6 17c0 c638 d9bf 3f1a f5bf
00000060: 8579 25c0 b818 873c ce71 b4bf 176e 4cc0
00000070: 40b4 5d3f 1473 27c0 f923 c93f e73b 15c0

blocks.1.bn.running_var f4 [32]
9.074053 8.519842 11.206415 8.52416 28.684195 13.759498 7.7241545 6.811555
14.219049 5.7807035 8.149883 7.5194683 14.2558565 9.07722 11.824146 9.603921
9.328758 14.560987 8.961973 9.798523 6.630113 16.391384 8.948739 15.190895
6.442769 8.676308 10.182947 11.594605 25.433636 15.849099 16.895287 7.164212
00000000: 522f 1141 4651 0841 7a4d 3341 f662 0841
00000010: 3b79 e541 e726 5c41 462c f740 42f8 d940
00000020: 3a81 6341 86fb b840 ec65 0241 7c9f f040
00000030: fd17 6441 4b3c 1141 b42f 3d41 a9a9 1941
00000040: 9842 1541 cef9 6841 3e64 0f41 c0c6 1c41
00000050: e329 d440 8e21 8341 092e 0f41 e80d 7341
00000060: 2a2b ce40 28d2 0a41 5aed 2241 8183 3941
00000070: 1678 cb41 e995 7d41 8c29 8741 3a41 e540

blocks.2.conv.weight f4 [32, 32, 3, 3]
0.09924587 0.06713963 -0.09488614 -0.119432434 -0.021563685 -0.163527 -0.22191297 -0.24477832
-0.008051793 -0.14156246 -0.1772485 -0.45448261 0.08532899 -0.06344372 -0.36095396 -0.09445944
-0.24129619 -0.09555162 -0.0075007924 0.11502962 0.16718093 0.026048213 -0.054130036 -0.054527707
0.28983894 -0.13485982 -0.46851075 0.16978732 -0.10085926 0.37910134 0.20207833 -0.15109326
-0.21285607 -0.062607944 0.18599956 0.33738497 0.1183525 0.115706496 0.5726694 0.060966443
0.31589207 0.38249874 0.23068602 0.37318113 0.31078687 -0.14920557 0.18102193 0.43345082
0.11780453 0.30337507 0.18283829 -0.04138459 -0.10643072 -0.0068384437 -0.13223054 0.1282978
0.14283186 -0.049683776 0.061852425 0.026193287 -0.20805506 0.1564782 -0.09408667 0.121088065
-0.55800664 0.03486203 -0.0384979 -0.035911184 -0.23293954 -0.26088727 -0.12704001 0.15337655
0.14765416 0.03851413 0.1592092 0.023668746 0.26705682 0.02535894 0.5616065 -0.4617879
-0.047653746 -0.1199277 0.18225464 -0.5655418 0.074487135 -0.12162758 -0.3915028 -0.40918386
-0.07035963 0.054318745 -0.07111021 -0.34711885 0.019554067 -0.24481063 -0.20802303 0.1242556
0.1829994 0.0019764092 -0.25836924 -0.0058307084 0.12710537 0.045315027 0.2132402 0.33845738
-0.12764338 0.20687878 -0.25814474 0.3648782 -0.15329704 -0.2788634 0.07780558 0.26680258
0.3391813 0.04069976 0.07317158 0.062361967 0.07252412 -0.028054448 -0.36802214 -0.100003906
-0.16982208 -0.26558912 0.18945883 -0.15197706 -0.32576826 0.007202124 -0.101612985 -0.30669865
-0.47282806 0.009202004 -0.19782495 0.07346379 -0.34383288 0.3157818 -0.27418616 -0.07137013
-0.12632851 -0.16204832 0.020547133 -0.1776253 0.06562626 0.1324291 -0.14232656 0.4352296
-0.12987767 -0.003586855 -0.17182095 -0.024027526 -0.22415173 0.075185545 0.30143836 -0.053365503
0.06890272 -0.08308341 0.17571746 0.094208285 -0.12226668 -0.14007041 0.3574511 -0.18596561
-0.29426077 0.1783587 0.007971793 0.4324061 -0.22589746 -0.028863337 0.33134234 0.14161499
-0.052838765 0.163842 -0.13145728 0.112305485 -0.18532528 0.1451731 -0.16752112 0.0076197847
0.06853312 -0.29306462 0.003181346 -0.22202909 -0.0069613606 0.2149828 0.48682964 0.29567868
0.10156946 -0.04340625 0.15392636 0.037016384 -0.10242509 0.014898396 0.0042463257 0.044028055
0.3218905 0.1789902 -0.15210465 0.029710883 0.1213383 0.25744832 0.23839898 -0.3530802
-0.29283005 -0.20489585 0.10877817 -0.5467022 -0.3406658 -0.118646674 -0.6714051 -0.19630088
0.14858349 0.08707438 -0.36400554 -0.27631003 -0.118886314 -0.50451905 -0.2455174 -0.09381929
0.190827 0.051096857 -0.3691752 0.07273136 0.45887405 -0.08948286 -0.23411898 -0.13421887
0.051436637 0.028865457 0.26884514 -0.42813915 0.13567151 0.1675254 -0.12169212 0.5275468
0.19728392 0.025902133 -0.0087249465 -0.03271502 -0.056144003 -0.22560179 -0.23310024 -0.085792944
0.40550703 0.031052813 0.046148773 -0.09401868 0.024681555 0.33063632 -0.31220576 0.102433644
-0.23525342 -0.21488005 -0.023700086 0.28038305 0.24691935 0.0038737867 -0.08934229 -0.39190456
00000000: 6b41 cb3d 8180 893d aa53 c2bd fe98 f4bd
00000010: 53a6 b0bc 9f73 27be 273d 63be 2ba7 7abe
00000020: abeb 03bc c0f5 10be a180 35be f2b1 e8be
00000030: f7c0 ae3d c8ee 81bd f5ce b8be f373 c1bd
00000040: 5916 77be 91b0 c3bd 35c9 f5bb a694 eb3d
00000050: 7a31 2b3e 1063 d53c 75b7 5dbd 7258 5fbd
00000060: c565 943e b118 0abe a4e0 efbe badc 2d3e
00000070: 4d8f cebd 9219 c23e 9fed 4e3e 31b8 1abe
00000080: f1f6 59be 9838 80bd ab76 3e3e b9bd ac3e
00000090: cc62 f23d 87f7 ec3d 769a 123f f3b7 793d
000000a0: 9bbc a13e e0d6 c33e f538 6c3e 9911 bf3e
000000b0: 751f 9f3e 58c9 18be d05d 393e 44ed dd3e
000000c0: 8043 f13d fa53 9b3e f639 3b3e e382 29bd
000000d0: 59f8 d9bd 0615 e0bb 7167 07be 8060 033e
000000e0: 8442 123e 3781 4bbd f858 7d3d 4e93 d63c
000000f0: 630c 55be d23b 203e 83b0 c0bd 05fd f73d
00000100: 86d9 0ebf 7dcb 0e3d f9af 1dbd 9b17 13bd
00000110: b487 6ebe 0493 85be c716 02be be0e 1d3e
00000120: a732 173e fec0 1d3d bd07 233e f5e4 c13c
00000130: acbb 883e 8dbd cf3c 72c5 0f3f 776f ecbe
00000140: 9330 43bd a79c f5bd f6a0 3a3e 59c7 10bf
00000150: b68c 983d e117 f9bd 0e73 c8be 8c80 d1be
00000160: b618 90bd 557d 5e3d 3ba2 91bd 90b9 b1be
00000170: da2f a03c a3af 7abe fd03 55be b879 fe3d
00000180: 3264 3b3e a586 013b f948 84be 870f bfbb
00000190: e927 023e 409c 393d a45b 5a3e 494a ad3e
000001a0: f2b4 02be 08d8 533e 8c2b 84be 51d1 ba3e
000001b0: e6f9 1cbe 2fc7 8ebe 8858 9f3d 599a 883e
000001c0: 2ca9 ad3e cbb4 263d fbda 953d 436f 7f3d
000001d0: 8787 943d 71d2 e5bc 666d bcbe d9ce ccbd
000001e0: d7e5 2dbe 4cfb 87be 7f01 423e e09f 1bbe
000001f0: 19cb a6be ccff eb3b 781a d0bd 9b07 9dbe
00000200: 8516 f2be 01c4 163c a092 4abe 2f74 963d
00000210: dd0a b0be 27ae a13e 2162 8cbe 812a 92bd
00000220: 435c 01be ffef 25be 7652 a83c 68e3 35be
00000230: 1067 863d 7e9b 073e 0ebe 11be 6ad6 de3e
00000240: a7fe 04be 7111 6bbb d5f1 2fbe 60d5 c4bc
00000250: 0888 65be e1fa 993d 2156 9a3e c995 5abd
00000260: df1c 8d3d a327 aabd 47ef 333e 46f0 c03d
00000270: f466 fabd 9e6e 0fbe d503 b73e c56d 3ebe
00000280: 59a9 96be aaa3 363e 209c 023c 5564 dd3e
00000290: aa51 67be ce72 ecbc b4a5 a93e 8503 113e
000002a0: 766d 58bd 32c6 273e bd9c 06be 6b00 e63d
000002b0: e9c5 3dbe 42a8 143e a88a 2bbe 63af f93b
000002c0: 185b 8c3d 910c 96be 217e 503b 985b 63be
000002d0: 201c e4bb 7324 5c3e bc41 f93e 3263 973e
000002e0: a603 d03d c1ca 31bd df9e 1d3e 7e9e 173d
000002f0: 3fc4 d1bd 6718 743c c324 8b3b c356 343d
00000300: d5ce a43e 3549 373e 52c1 1bbe 3d64 f33c
00000310: 3780 f83d 44d0 833e dd1e 743e eec6 b4be
00000320: d2ed 95be 38d0 51be 17c7 de3d adf4 0bbf
00000330: bf6b aebe 07fd f2bd 34e1 2bbf 1903 49be
00000340: 4526 183e 0d54 b23d ef5e babe 8278 8dbe
00000350: ab7a f3bd 2928 01bf ea68 7bbe 5424 c0bd
00000360: 2768 433e f04a 513d 8804 bdbe 2ef4 943d
00000370: 8af1 ea3e ca42 b7bd e3bc 6fbe ac70 09be
00000380: 39af 523d 4077 ec3c 12a6 893e 0e35 dbbe
00000390: 79ed 0a3e c78b 2b3e b839 f9bd 4f0d 073f
000003a0: cc04 4a3e b630 d43c 14f3 0ebc 2f00 06bd
000003b0: 41f7 65bd 2804 67be d4b1 6ebe 36b4 afbd
000003c0: 9e9e cf3e 7862 fe3c 7f06 3d3d de8c c0bd
000003d0: f930 ca3c 2a49 a93e 6fd9 9fbe bbc8 d13d
000003e0: 46e6 70be 8409 5cbe af26 c2bc 5e8e 8f3e
000003f0: 6dd8 7c3e 5bdf 7d3b 17f9 b6bd b7a7 c8be

blocks.2.conv.bias f4 [32]
-0.009068986 -0.007417356 -0.000761612 6.6855886e-05 -0.003806773 -0.00568367 -0.0022776811 3.790637e-06
0.00015471785 0.0068057254 -0.0014557827 -0.0028691774 -0.0016761058 -0.007294429 0.00067569345 0.00046647937
0.0028537665 0.0025060154 -0.0001093006 0.0030298033 0.0014981243 0.00080884685 0.00014702589 -0.006789385
-0.0005091914 -0.008949857 -0.0001761269 0.00079760497 -0.0014671397 0.0023471292 -0.00056282396 -0.00019261995
00000000: 1696 14bc 4b0d f3bb eba6 47ba fb34 8c38
00000010: 0e7b 79bb 143e babb 2645 15bb a662 7e36
00000020: c23b 2239 9002 df3b f6cf beba cf08 3cbb
00000030: c7b0 dbba 1b06 efbb 0521 313a cd91 f439
00000040: 4206 3b3b f63b 243b 5038 e5b8 aa8f 463b
00000050: b65c c43a cb08 543a f62a 1a39 7d79 debb
00000060: 427b 05ba 6ca2 12bc b4ae 38b9 5d16 513a
00000070: 0a4d c0ba 4bd2 193b 7a8a 13ba 06fa 49b9

blocks.2.bn.weight f4 [32]
0.7872702 0.8237506 0.6626949 0.745964 0.6860497 0.7095612 0.9743811 1.138827
0.73050976 1.0424832 0.73795336 0.90808505 0.85007685 0.886347 0.8593663 1.210407
1.267747 1.0502503 0.79105544 0.9518523 1.0219672 0.98667747 0.8204603 0.9859187
1.2268717 1.0130783 1.0135608 0.72740126 0.5198134 0.9720942 0.37550545 0.82158154
00000000: 8a8a 493f 52e1 523f 5fa6 293f 7ff7 3e3f
00000010: f4a0 2f3f cea5 353f 0a71 793f 15c5 913f
00000020: b002 3b3f 1770 853f 83ea 3c3f 4378 683f
00000030: a39e 593f a3e7 623f 6eff 5b3f 9eee 9a3f
00000040: 8945 a23f 9a6e 863f 9c82 4a3f 98ac 733f
00000050: d2cf 823f e596 7c3f b009 523f 2b65 7c3f
00000060: 220a 9d3f 8dac 813f 5cbc 813f f836 3a3f
00000070: 7e12 053f 2adb 783f 4042 c03e 2b53 523f

blocks.2.bn.bias f4 [32]
-0.21879663 -0.5578668 -0.19579303 -0.2698854 -0.55509615 -0.34718025 -0.20031852 -0.60744977
-0.5831113 -0.4402732 -0.5331776 -0.40113986 -0.5557645 -0.33067372 -0.39277607 -0.5528661
-0.4343639 -0.50205487 -0.42581743 -0.33480206 -0.63361335 -0.814911 -0.3601809 -0.47771424
-0.7322511 -0.5334232 -0.60260963 -0.28604713 -0.022957856 -0.39271235 0.3084971 -0.6043467
00000000: 390c 60be 5cd0 0ebf f87d 48be 6b2e 8abe
00000010: c81a 0ebf 9cc1 b1be 4c20 4dbe d481 1bbf
00000020: c846 15bf 7d6b e1be 547e 08bf 3462 cdbe
00000030: 9546 0ebf 114e a9be f219 c9be a288 0dbf
00000040: f264 debe ab86 00bf be04 dabe 2d6b abbe
00000050: 7c34 22bf 029e 50bf a269 b8be f696 f4be
00000060: cf74 3bbf 6c8e 08bf a044 1abf c574 92be
00000070: 1d12 bcbc 9811 c9be 55f3 9d3e 77b6 1abf

blocks.2.bn.running_mean f4 [32]
-0.47570565 -1.8245804 -2.2155619 -0.4790919 -5.3783827 1.9550755 -1.0514299 -0.727872
0.10133028 -2.0372334 -0.054174457 -1.0808153 1.30248 -4.7955856 -2.4062538 -2.000901
-1.5950587 -0.9322518 -1.9644719 -2.071204 -1.2546768 -0.105152674 -1.6947168 -2.8955314
-1.9060175 -2.3708897 -3.5365186 -0.6830311 -1.6957198 -2.0180285 -0.46070856 -0.27546275
00000000: b18f f3be da8b e9bf c4cb 0dc0 894b f5be
00000010: b61b acc0 ea3f fa3f 4195 86bf d255 3abf
00000020: 4086 cf3d 0862 02c0 09e6 5dbd 2858 8abf
00000030: aab7 a63f 7075 99c0 1000 1ac0 c30e 00c0
00000040: e22a ccbf 0ea8 6ebf d173 fbbf 9b8e 04c0
00000050: 4099 a0bf 495a d7bd 7bec d8bf 6350 39c0
00000060: 62f8 f3bf a8bc 17c0 5256 62c0 20db 2ebf
00000070: 590d d9bf 6127 01c0 fee1 ebbe 7409 8dbe

blocks.2.bn.running_var f4 [32]
25.465395 14.150018 15.632281 10.239303 15.094076 12.077763 25.94006 8.704827
11.325756 17.760897 11.261632 12.750387 7.10937 27.413485 30.489178 10.750243
10.6714945 14.7438 9.961074 9.523972 9.907105 10.831636 11.136351 14.614893
9.09864 8.754511 12.374401 19.2434 15.637178 18.213968 20.601822 8.957251
00000000: 21b9 cb41 7966 6241 d31d 7a41 2fd4 2341
00000010: 5681 7141 843e 4141 3e85 cf41 f946 0b41
00000020: 4c36 3541 5116 8e41 a52f 3441 9601 4c41
00000030: f67f e340 d14e db41 d6e9 f341 ff00 2c41
00000040: 71be 2a41 9be6 6b41 8f60 1f41 3062 1841
00000050: 8183 1e41 624e 2d41 7e2e 3241 9ad6 6941
00000060: 0894 1141 7a12 0c41 8cfd 4541 7cf2 9941
00000070: e231 7a41 35b6 9141 88d0 a441 e650 0f41

blocks.3.conv.weight f4 [32, 32, 3, 3]
-0.20343067 -0.09259473 -0.27396637 0.08142755 -0.6445243 -0.43279108 -0.26843804 -0.22414678
-0.064506724 0.0569145 0.14604002 -0.34814262 0.30489948 0.085983485 -0.011517716 0.16091806
0.17826165 0.05025447 -0.044046327 0.14291361 -0.08270791 0.08919835 0.20112555 0.12433671
-0.22618832 0.051112626 0.074955486 -0.034908406 0.16982359 0.1571597 -0.037891056 -0.6297551
-0.22705211 0.22400871 0.27916005 -0.06593026 -0.28732368 -0.22289017 -0.2589965 -0.20825411
0.15288085 -0.32762226 -0.06260476 0.12301885 -0.580619 0.20402472 0.042741627 0.16617025
-0.35667792 0.18624225 0.032591883 0.3770763 -0.17178135 0.104829706 0.53117305 0.068998545
-0.0972245 0.37828097 0.27933937 0.055669434 0.2822802 -0.05211252 -0.1733525 -0.06710279
0.075342946 0.2604611 -0.040818643 -0.047008567 0.018279877 0.4829107 0.00797908 -0.47120172
-0.14486744 -0.010734072 0.26875824 0.22702631 0.026429655 0.34778082 -0.08592972 -0.038051296
-0.103831716 -0.18248752 0.005727501 0.41238144 0.13411552 0.14412656 0.07436014 -0.006498358
0.30923966 0.1735223 -0.24127303 0.105928764 0.27299643 0.51969546 -0.25219 0.040993277
0.08540418 0.025081957 0.12724663 -0.06606959 -0.06616263 0.26789904 -0.15286668 0.05014649
-0.0939759 -0.36182013 -0.20259629 0.12186493 -0.38699758 -0.08788721 -0.03166697 -0.14284062
-0.04377233 0.30733365 0.09022705 -0.037669413 0.16205512 0.20136249 0.16553286 0.18471564
0.23637448 0.15658927 0.49101147 0.029798673 -0.115707844 -0.13293661 -0.1776235 -0.39025146
-0.3654232 -0.32255143 -0.16182736 -0.1582103 -0.3036247 -0.075742096 -0.46015513 -0.31001326
0.039803226 -0.14955582 -0.22633703 0.02079057 0.20879228 -0.40698215 0.04917311 0.21502353
-0.051734984 -0.34862503 -0.26809427 -0.18547483 -0.17197722 0.04875007 0.38342637 -0.012370661
-0.3714065 0.15608463 0.21702547 -0.048087075 -0.10585562 0.078267545 0.1918515 0.28121775
-0.1137025 -0.0011430151 0.17054175 -0.37035263 0.07799567 0.070183784 0.04051923 -0.037713893
0.16106331 -0.07140871 0.19691177 -0.08318001 -0.0051661925 -0.09561918 0.42751655 -0.01751149
0.1708639 0.16573624 -0.2989912 -0.24567777 -0.35336652 -0.0016179885 -0.02183317 0.09459788
-0.110221796 0.13704085 0.07572811 0.110746674 0.083885886 0.34037355 -0.16083552 0.284433
0.03029956 0.36801827 0.10582403 -0.046756584 0.29810655 0.023778206 -0.11985252 -0.21852455
0.010307202 -0.11236226 -0.066170484 -0.67332673 -0.34840477 0.11076626 -0.09889481 -0.17242816
0.10085288 0.43439215 -0.38423383 -0.3684876 -0.15341538 0.090567954 0.19150703 0.18548216
0.024246963 0.022082804 -0.25254238 -0.08861357 0.1875578 -0.28537956 -0.26887056 -0.2536949
-0.06666003 -0.21591763 -0.022634769 -0.2819319 0.07172474 -0.27315754 0.091708735 0.20407769
0.21753578 0.11941811 0.0011683933 -0.35205778 -0.24211964 -0.054102123 -0.447405 0.20563568
0.40588754 0.14018638 -0.34083378 0.014074642 -0.07788874 0.406319 0.103200436 0.19337648
-0.13437589 -0.16106716 -0.044513915 0.10988035 -0.10766289 0.3829048 -0.20334135 -0.2770213
00000000: 2150 50be 4ea2 bdbd 5245 8cbe 7dc3 a63d
00000010: 8bff 24bf cb96 ddbe b670 89be bc86 65be
00000020: 1a1c 84bd 2e1f 693d 848b 153e c03f b2be
00000030: c91b 9c3e 1c18 b03d cdb4 3cbc b4c7 243e
00000040: 398a 363e a2d7 4d3d ec69 34bd f257 123e
00000050: c462 a9bd a0ad b63d dbf3 4d3e 3fa4 fe3d
00000060: e99d 67be 795b 513d 4382 993d 1efc 0ebd
00000070: 3ce6 2d3e 79ee 203e a733 1bbd a137 21bf
00000080: 5980 68be 8a62 653e 11ee 8e3e 7206 87bd
00000090: 171c 93be 523d 64be 309b 84be 9140 55be
000000a0: cc8c 1c3e 1bbe a7be ed36 80bd 4ff1 fb3d
000000b0: 72a3 14bf dbeb 503e d811 2f3d 8928 2a3e
000000c0: 7d9e b6be 4ab6 3e3e 117f 053d 2510 c13e
000000d0: 73e7 2fbe f5b0 d63d f5fa 073f 1c4f 8d3d
000000e0: a31d c7bd 0bae c13e 9205 8f3e a205 643d
000000f0: 0887 903e f073 55bd 5183 31be 306d 89bd
00000100: 674d 9a3d 285b 853e 7331 27bd 0e8c 40bd
00000110: aebf 953c 1240 f73e b0ba 023c 5a41 f1be
00000120: 2158 14be f6dd 2fbc ae9a 893e 9679 683e
00000130: 0183 d83c 5410 b23e ecfb afbd addb 1bbd
00000140: b9a5 d4bd 02de 3abe c3ad bb3b a923 d33e
00000150: 9455 093e ea95 133e 214a 983d 2ef0 d4bb
00000160: a954 9e3e d4af 313e 4710 77be 2ef1 d83d
00000170: 30c6 8b3e c30a 053f 0c1f 81be 91e8 273d
00000180: 63e8 ae3d ad78 cd3c f14c 023e 7e4f 87bd
00000190: 4680 87bd 102a 893e 1589 1cbe 6866 4d3d
000001a0: 7076 c0bd 7d40 b9be 6775 4fbe 5294 f93d
000001b0: 8c24 c6be 36fe b3bd 3ab5 01bd d044 12be
000001c0: 9d4a 33bd d65a 9d3e f6c8 b83d 3e4b 1abd
000001d0: c7f1 253e f831 4e3e 7281 293e 1926 3d3e
000001e0: 270c 723e f058 203e db65 fb3e 591c f43c
000001f0: 3cf8 ecbd 8920 08be efe2 35be 0acf c7be
00000200: c018 bbbe 7625 a5be 12b6 25be e201 22be
00000210: b274 9bbe ac1e 9bbd 7499 ebbe 0fba 9ebe
00000220: b508 233d 2925 19be e5c4 67be fc50 aa3c
00000230: a5cd 553e f75f d0be be69 493d 212f 5c3e
00000240: 10e8 53bd fb7e b2be a743 89be 1ded 3dbe
00000250: cc1a 30be 27ae 473d 7650 c43e 50ae 4abc
00000260: fe28 bebe a6d4 1f3e ed3b 5e3e f4f6 44bd
00000270: d5ca d8bd bc4a a03d b874 443e c6fb 8f3e
00000280: dbdc e8bd 39d1 95ba 7fa2 2e3e dc9e bdbe
00000290: 32bc 9f3d 84bc 8f3d 7ef7 253d e279 1abd
000002a0: c8ed 243e bb3e 92bd 3da3 493e 485a aabd
000002b0: 2a49 a9bb fdd3 c3bd 73e3 da3e 4274 8fbc
000002c0: f2f6 2e3e c3b6 293e 6015 99be f492 7bbe
000002d0: 75ec b4be af12 d4ba 7adb b2bc 89bc c13d
000002e0: f7bb e1bd 7054 0c3e 5717 9b3d 27cf e23d
000002f0: 5dcc ab3d 7145 ae3e 11b2 24be 34a1 913e
00000300: c836 f83c e46c bc3e 45ba d83d d583 3fbd
00000310: 6ca1 983e 83ca c23c 3d75 f5bd e6c4 5fbe
00000320: 8adf 283c 2f1e e6bd 6484 87bd 245f 2cbf
00000330: 1c62 b2be 6cd9 e23d 5d89 cabd 0291 30be
00000340: f48b ce3d a668 de3e 4cba c4be 68aa bcbe
00000350: ec18 1dbe b17b b93d 6b1a 443e 09ef 3d3e
00000360: 91a1 c63c ffe6 b43c 3c4d 81be 087b b5bd
00000370: 270f 403e 451d 92be 67a9 89be 4ce4 81be
00000380: 0e85 88bd 8319 5dbe 8d6c b9bc 6159 90be
00000390: 6ce4 923d 4edb 8bbe cad1 bb3d bef9 503e
000003a0: b3c1 5e3e 7b91 f43d c624 993a eb40 b4be
000003b0: 36ee 77be 309a 5dbd 4512 e5be 2992 523e
000003c0: 7ed0 cf3e 058d 0f3e c481 aebe 5499 663c
000003d0: 2284 9fbd 0b09 d03e c05a d33d 7c04 463e
000003e0: d599 09be caee 24be 3954 36bd f308 e13d
000003f0: 5c7e dcbd 190c c43e b738 50be bcd5 8dbe

blocks.3.conv.bias f4 [32]
0.004261242 -0.00017028309 0.0017488647 -0.0036355124 -0.00065003557 -0.0007663561 -0.007492236 0.0001916656
0.00037382604 -0.00017022567 -0.00025612224 0.0003661188 -0.00034529602 -0.0061381445 -0.00054429553 0.0051230034
6.0657403e-05 -0.00020655322 8.90551e-05 -0.011855798 0.0046706507 0.0008731066 -1.0670053e-05 -0.0005094979
-0.01118998 -1.5745813e-05 0.009891489 -0.00015678063 0.007539355 -0.0014656085 -0.0005398325 -0.000103286206
00000000: e4a1 8b3b 058e 32b9 293a e53a c741 6ebb
00000010: 2667 2aba 4ae5 48ba 6e81 f5bb d8f9 4839
00000020: 15fe c339 9b7e 32b9 2548 86b9 a2f3 bf39
00000030: d908 b5b9 7d22 c9bb 0eaf 0eba dede a73b
00000040: 646a 7e38 3596 58b9 18c3 ba38 d23e 42bc
00000050: 420c 993b 31e1 643a 8703 33b7 d38f 05ba
00000060: 2e56 37bc e015 84b7 e90f 223c 7b65 24b9
00000070: b20c f73b a919 c0ba 8c83 0dba 5c9b d8b8

blocks.3.bn.weight f4 [32]
1.055192 0.7488773 0.81564236 0.70724857 0.8729135 0.7079911 0.9352846 0.9144159
0.91497236 0.95136356 0.7371272 0.9565748 1.0326871 0.93628246 0.9062912 1.1996042
1.0779471 1.0471833 0.82936686 0.9247329 0.99850136 1.2063154 0.80831295 0.909101
1.0157336 0.6767966 1.1294178 0.6579895 0.71430355 0.8492999 0.45529187 0.9020032
00000000: 8810 873f 6cb6 3f3f f0cd 503f 3e0e 353f
00000010: 4277 5f3f e83e 353f d06e 6f3f 2917 6a3f
00000020: a13b 6a3f 908c 733f 5eb4 3c3f 16e2 743f
00000030: 172f 843f 35b0 6f3f b302 683f a18c 993f
00000040: 2cfa 893f 1a0a 863f 6351 543f 4cbb 6c3f
00000050: c99d 7f3f 8b68 9a3f 99ed 4e3f d8ba 683f
00000060: 8f03 823f 8b42 2d3f c390 903f 0072 283f
00000070: 99dc 363f b86b 593f 041c e93e afe9 663f

blocks.3.bn.bias f4 [32]
-0.24950023 -0.3398654 -0.44116396 -0.14217672 -0.39316562 0.0153298965 -0.88871187 -0.572645
-0.5926275 -0.6526551 -0.4136723 -0.072159775 -0.5133544 -0.49588966 -0.6593801 -0.3301836
-0.6305836 -0.90449274 -0.4619246 -0.44411692 -0.41604826 -0.67089695 -0.76008654 -0.6722337
-0.5269235 -0.88721955 -0.4607463 -0.31365672 -0.07935254 -0.46621206 0.36696917 -0.46963966
00000000: fd7c 7fbe d602 aebe 3ee0 e1be c696 11be
00000010: 014d c9be 3f2a 7b3c 9f82 63bf dd98 12bf
00000020: 70b6 17bf 6814 27bf dbcc d3be 81c8 93bd
00000030: 326b 03bf 40e5 fdbe 22cd 28bf d30d a9be
00000040: ed6d 21bf d68c 67bf 6281 ecbe 4b63 e3be
00000050: 4704 d5be e7bf 2bbf 0895 42bf 8217 2cbf
00000060: 75e4 06bf d220 63bf f0e6 ebbe 9d97 a0be
00000070: 9683 a2bd 59b3 eebe 62e3 bb3e 9c74 f0be

blocks.3.bn.running_mean f4 [32]
-2.4024844 -0.88533604 -4.7077804 -1.7072488 -3.6153293 -0.35189876 0.20468764 -1.6583463
2.4727418 -2.7233932 3.589037 -0.46526602 -1.0129577 -4.460463 -1.4369277 -1.5053271
-4.9390073 -1.7068672 -1.1799314 0.13511686 -3.0965233 0.7464422 -0.4842524 -4.703713
1.5504273 -1.0623089 -1.2220312 -1.018915 3.3969574 -2.9596503 -0.41493717 -1.3450072
00000000: 4ec2 19c0 62a5 62bf 23a6 96c0 2187 dabf
00000010: 8e61 67c0 132c b4be a399 513e b144 d4bf
00000020: 6741 1e40 134c 2ec0 c8b2 6540 5937 eebe
00000030: 99a8 81bf 1dbc 8ec0 3fed b7bf 8fae c0bf
00000040: 590c 9ec0 a07a dabf fe07 97bf 135c 0a3e
00000050: 702d 46c0 d616 3f3f eeef f7be d184 96c0
00000060: 6774 c63f bdf9 87bf 856b 9cbf cf6b 82bf
00000070: c067 5940 e96a 3dc0 a572 d4be 3229 acbf

blocks.3.bn.running_var f4 [32]
12.291511 14.667335 29.140934 9.504422 25.25307 18.186085 9.628997 8.185138
11.167713 6.966553 19.28276 8.586233 7.866894 8.887419 12.556083 22.144526
10.758839 6.1061196 9.67611 9.217737 9.086752 6.1666813 13.855207 10.78425
10.747698 8.7451935 17.162483 14.392706 12.622444 18.375956 12.399328 10.152337
00000000: 07aa 4441 67ad 6a41 a220 e941 1d12 1841
00000010: 4a06 ca41 1a7d 9141 5f10 1a41 53f6 0241
00000020: f4ae 3241 01ee de40 1843 9a41 3661 0941
00000030: 98bd fb40 de32 0e41 b7e5 4841 fd27 b141
00000040: 3424 2c41 5565 c340 59d1 1a41 da7b 1341
00000050: 5663 1141 7455 c540 eeae 5d41 4a8c 2c41
00000060: 92f6 2b41 50ec 0b41 c44c 8941 8648 6641
00000070: 88f5 4941 f501 9341 a663 4641 f96f 2241
