models/250.pth (torch, 501905 bytes, 80 tensors)

conv0.conv.weight f4 [32, 17, 3, 3]
0.02965899 0.4643721 0.24210021 0.44152173 -0.49949205 0.644452 0.20375077 0.521181
0.27882722 -0.08862468 0.13616645 -0.095785625 -0.07599392 -0.28786314 0.016976245 0.18721423
0.13026841 0.07099521 -0.044288266 -0.05439484 0.19908832 -0.055539373 -0.29967988 -0.08384353
0.0017533429 0.04546298 -0.110666014 0.085635215 0.046421144 -0.012790154 0.050692387 -0.14123891
-0.107786104 0.2699497 0.011575943 -0.14001387 0.37359843 0.32744157 0.5068579 0.34592283
-0.408943 0.42269942 0.41460806 0.38765788 0.14445214 0.12388251 0.30590212 0.24943954
0.1477014 -0.24358636 0.26199627 0.24100143 0.39099482 0.20897374 0.33686432 0.22323123
0.02392951 0.29105797 -0.12602615 0.35089174 0.29661947 0.29082274 0.19009389 0.30874854
0.42980886 0.19335592 0.22559913 -0.16651542 0.35725337 0.3469124 0.33120364 0.41078258
0.051190175 0.12454785 -0.017664328 0.14952625 0.4322717 0.030228937 -0.037787188 0.119642064
-0.0426855 -0.025894545 0.105440244 0.0058587566 0.074694894 0.60010016 0.023789555 -0.03839803
0.08360139 0.102964595 -0.041386366 0.08145275 0.03437545 0.09586878 0.51158303 0.06300045
-0.032700285 0.059248358 0.011016729 -0.0584437 0.067367926 0.0692229 0.06948818 0.4717972
0.09408329 -0.053571373 0.1512559 0.012018869 0.0659967 -0.19529052 0.105715305 -0.2414753
-0.3665104 -0.12654045 0.044354327 -0.42403534 0.08935367 0.038721908 -0.045160025 -0.028404552
0.016766485 0.1455558 0.019575883 0.003646844 0.1357836 0.10387677 0.29839388 0.09957627
0.027696716 0.13430114 0.20008084 -0.022515135 0.009920979 -0.23419136 0.087625965 -0.06424743
0.03643547 0.03355498 -0.050946042 0.10083109 0.09663247 0.120251216 -0.13124017 0.05900325
0.017448515 0.06028478 0.07997213 0.43030843 -0.07654589 0.22015712 0.0035036837 0.071005106
-0.05205769 -0.35739905 0.081016466 0.06910813 -0.24024948 -0.5797393 0.432933 0.15275133
-0.032574117 -0.026705367 -0.20649433 0.27721614 -0.3564693 -0.034489904 0.14517139 -0.759239
0.14094983 -0.11879818 -0.25223285 0.049529184 0.38415623 -0.20783643 -0.059616808 0.187924
-0.65852225 0.08983932 -0.28749844 -0.14550044 -0.38346598 0.37319112 0.020014321 0.13664399
0.30819255 -0.8451433 0.117234364 -0.3325458 -0.25419953 -0.3902043 -0.43052995 0.24972115
-0.3658702 -0.40540457 -0.50369227 0.16079901 0.13229479 -0.27257395 -0.20758046 -0.61766195
-0.369117 0.100781046 -0.28216746 -0.17819728 -0.6016522 -0.29586324 -0.7107776 -0.39738393
-0.40679806 -0.85937166 -0.57167685 -0.16277483 -0.40044945 0.24531284 -0.6058989 -0.69811255
-0.3649198 -0.18706633 -0.562042 -0.29484895 -0.24695772 -0.21655136 -0.27769333 -0.27518693
-0.5677407 -0.253257 0.07815155 0.17703018 0.028930385 -0.42885897 0.29571092 -0.067586206
-0.05987665 0.019515995 -0.15489542 0.22742894 0.24083921 -0.060271587 0.0154931545 0.15865919
0.07717052 0.19180287 0.20115569 0.025074959 0.1944638 0.14239062 0.06911896 0.15746665
0.15039939 0.0465059 0.07602585 0.20829664 0.013190503 0.12379241 0.40171558 -0.06045212
00000000: 69f7 f23c 2ec2 ed3e 1ee9 773e 230f e23e
00000010: 6cbd ffbe cefa 243f 0ba4 503e 1e6c 053f
00000020: 71c2 8e3e db80 b5bd 386f 0b3e 412b c4bd
00000030: b3a2 9bbd cc62 93be c411 8b3c 16b5 3f3e
00000040: 1565 053e f065 913d 9d67 35bd 20cd 5ebd
00000050: cfdd 4b3e 417d 63bd a46f 99be 28b6 abbd
00000060: 6dd0 e53a 6437 3a3d dda4 e2bd 8461 af3d
00000070: 1924 3e3d cb8d 51bc d2a2 4f3d efa0 10be
00000080: f6be dcbd d936 8a3e 06a9 3d3c cc5f 0fbe
00000090: 4b48 bf3e 6ca6 a73e 70c1 013f cc1c b13e
000000a0: fa60 d1be 0f6c d83e 8247 d43e 187b c63e
000000b0: 43eb 133e 1db6 fd3d 349f 9c3e 146d 7f3e
000000c0: 093f 173e b46e 79be 6024 863e 14c9 763e
000000d0: 7930 c83e 36fd 553e 7b79 ac3e ba96 643e
000000e0: d207 c43c 8d05 953e 000d 01be 15a8 b33e
000000f0: 82de 973e b8e6 943e f9a7 423e 4a14 9e3e
00000100: e80f dc3e 18ff 453e 7503 673e 0583 2abe
00000110: eae9 b63e 819e b13e 8693 a93e 1852 d23e
00000120: caac 513d f112 ff3d c8b4 90bc 691d 193e
00000130: b752 dd3e ada2 f73c bdc6 1abd e606 f53d
00000140: fed6 2ebd cc20 d4bc 0ef1 d73d d0fa bf3b
00000150: a3f9 983d 2aa0 193f 50e2 c23c 4147 1dbd
00000160: 3537 ab3d 1adf d23d c084 29bd b3d0 a63d
00000170: 46cd 0c3d da56 c43d 1bf7 023f 6106 813d
00000180: bcf0 05bd 68ae 723d 837f 343c a962 6fbd
00000190: 32f8 893d bcc4 8d3d d24f 8e3d 678f f13e
000001a0: bdae c03d a86d 5bbd d4e2 1a3e caea 443c
000001b0: 4729 873d 3dfa 47be 4481 d83d 4d45 77be
000001c0: 40a7 bbbe d293 01be e2ac 353d 291b d9be
000001d0: 0fff b63d dd9a 1e3d b8f9 38bd aab0 e8bc
000001e0: de59 893c 940c 153e 9a5d a03c e4ff 6e3b
000001f0: db0a 0b3e 58bd d43d 15c7 983e a5ee cb3d
00000200: 39e4 e23c 3d86 093e fee1 4c3e a971 b8bc
00000210: 9a8b 223c dccf 6fbe 3e75 b33d 2894 83bd
00000220: 5c3d 153d f270 093d ccac 50bd 8880 ce3d
00000230: 3fe7 c53d 4546 f63d d363 06be 64ad 713d
00000240: 30f0 8e3c 2ced 763d 6ec8 a33d 6351 dc3e
00000250: 17c4 9cbd de70 613e 0f9e 653b 206b 913d
00000260: 723a 55bd 02fd b6be f6eb a53d 9088 8d3d
00000270: f603 76be cb69 14bf 65a9 dd3e d86a 1c3e
00000280: 706c 05bd 37c5 dabc 4073 53be 46ef 8d3e
00000290: 2583 b6be 4945 0dbd cfa7 143e 7d5d 42bf
000002a0: 2755 103e 764c f3bd aa24 81be 1ddf 4a3d
000002b0: 20b0 c43e 13d3 54be c130 74bd 266f 403e
000002c0: ea94 28bf adfd b73d ff32 93be 11fe 14be
000002d0: a755 c4be e812 bf3e 13f5 a33c 67ec 0b3e
000002e0: 6acb 9d3e 505b 58bf 9218 f03d 7143 aabe
000002f0: 7126 82be dcc8 c7be 6c6e dcbe e7b6 7f3e
00000300: 5753 bbbe 3091 cfbe faf1 00bf 7fa8 243e
00000310: 4978 073e d08e 8bbe f98f 54be 181f 1ebf
00000320: e7fc bcbe 4b66 ce3d 4178 90be 5979 36be
00000330: e105 1abf 637b 97be 85f5 35bf e875 cbbe
00000340: d647 d0be c8ff 5bbf 6a59 12bf 72ae 26be
00000350: b607 cdbe 4a33 7b3e 311c 1bbf 81b7 32bf
00000360: c5d6 babe 518e 3fbe fce1 0fbf 71f6 96be
00000370: 7ce2 7cbe a4bf 5dbe d22d 8ebe 4de5 8cbe
00000380: 7457 11bf e7aa 81be eb0d a03d 6647 353e
00000390: 6aff ec3c 6793 dbbe 6c67 973e a36a 8abd
000003a0: 3841 75bd 02e0 9f3c e89c 1ebe 22e3 683e
000003b0: 8e9e 763e 57df 76bd 00d7 7d3c 8e77 223e
000003c0: 940b 9e3d f967 443e c2fb 4d3e 006a cd3c
000003d0: 8521 473e d9ce 113e 3e8e 8d3d f03e 213e
000003e0: 4c02 1a3e f87c 3e3d 71b3 9b3d b74b 553e
000003f0: fb1c 583c e086 fd3d aaad cd3e a49c 77bd

conv0.conv.bias f4 [32]
-0.0015543117 0.002234919 0.0006896968 -0.0011583233 0.0018422807 -0.0002931215 0.011866481 0.00013736263
-0.012968852 0.0017437699 -0.0010285242 -0.0018567933 0.0024444752 0.0033888225 0.0025375488 -0.0014397596
-0.00013404131 -0.014480275 0.03934523 -0.0005234627 -0.0014928288 -0.022743355 -0.01150398 -0.0024018474
0.010460576 0.0002246679 -0.0022161154 0.03266919 -0.007424022 0.038024094 0.0010809107 -1.4944236e-05
00000000: 0cba cbba b877 123b c5cc 343a e1d2 97ba
00000010: af78 f13a 1aae 99b9 a16b 423c 0009 1039
00000020: 4f7b 54bc 358f e43a 8ccf 86ba a55f f3ba
00000030: 7d33 203b 0217 5e3b 014d 263b 51b6 bcba
00000040: 718d 0cb9 ad3e 6dbc 7728 213d fd38 09ba
00000050: 06ab c3ba 4650 babc 307b 3cbc 5068 1dbb
00000060: d662 2b3c d594 6b39 3f3c 11bb 21d0 053d
00000070: 3645 f3bb 27bf 1b3d 58ad 8d3a 01b9 7ab7

conv0.bn.weight f4 [32]
0.9024606 0.66038716 0.59305245 0.71697026 0.6894411 0.58593285 0.6782852 0.78000754
0.8837121 0.8279973 0.6611091 0.3902386 0.63243794 0.97855985 0.6510887 0.867887
0.6544304 1.3788061 0.8541684 0.7124686 0.713443 0.9438524 0.7434563 0.59472847
0.78857464 0.68857884 0.8515334 0.7041013 1.0150055 0.57978153 0.6443682 0.47784853
00000000: a807 673f 220f 293f 49d2 173f 5d8b 373f
00000010: 367f 303f b2ff 153f 19a4 2d3f 93ae 473f
00000020: f53a 623f a2f7 533f 723e 293f 5bcd c73e
00000030: 74e7 213f e682 7a3f c0ad 263f d82d 5e3f
00000040: c088 273f b87c b03f c8aa 5a3f 5864 363f
00000050: 33a4 363f 50a0 713f 2753 3e3f 2040 183f
00000060: 07e0 493f b446 303f 18fe 593f fc3f 343f
00000070: b3eb 813f 906c 143f 50f5 243f 90a8 f43e

conv0.bn.bias f4 [32]
-0.61371166 -0.036672562 -0.17688085 -0.43274793 -0.19288535 0.06202287 0.070627436 -0.38826108
-0.21563113 -0.4045536 -0.2486613 0.2848918 -0.22914234 -0.36102173 -0.3344949 -0.084162086
0.028748773 -0.22420184 -0.3177966 -0.25379997 -0.15351774 0.07812225 -0.4006245 -0.32631505
-0.22682218 -0.48184386 -0.3676273 -0.14624561 -0.10530589 0.6073912 -0.16929334 -0.0005309424
00000000: 351c 1dbf f835 16bd 4120 35be 2391 ddbe
00000010: bd83 45be b10b 7e3d 1ea5 903d 28ca c6be
00000020: 68ce 5cbe a621 cfbe 11a1 7ebe 57dd 913e
00000030: 4aa4 6abe d7d7 b8be ea42 abbe 2c5d acbd
00000040: 8c82 eb3c 2b95 65be 3cb6 a2be 12f2 81be
00000050: c133 1dbe 8ffe 9f3d a81e cdbe c412 a7be
00000060: 1344 68be 3db4 f6be a539 bcbe 69c1 15be
00000070: 9daa d7bd fd7d 1b3f 3c5b 2dbe f12e 0bba

conv0.bn.running_mean f4 [32]
0.40760484 0.065020405 -0.16860273 -0.20921193 -0.077124536 -0.0088327555 -0.36043194 0.37175152
-0.33852607 -0.11008748 -0.10740087 -0.009388723 -0.09509652 -0.08140957 0.098805375 0.30705896
0.2506075 -0.26842973 -0.22762133 -0.08888106 0.038595535 -0.08626402 -0.30363965 0.26827753
-0.12606965 -0.22659831 -0.057509053 -0.10196738 0.3300102 0.21094833 -0.07502125 0.28826955
00000000: 95b1 d03e 6b29 853d 32a6 2cbe a73b 56be
00000010: 78f3 9dbd 43b7 10bc 898a b8be 3756 be3e
00000020: 4a53 adbe 8b75 e1bd fdf4 dbbd 29d3 19bc
00000030: f7c1 c2bd 10ba a6bd 795a ca3d d536 9d3e
00000040: a04f 803e 9f6f 89be 9115 69be 4607 b6bd
00000050: 5a16 1e3d 31ab b0bd a876 9bbe ac5b 893e
00000060: 6718 01be 6309 68be 9d8e 6bbd 46d4 d0bd
00000070: 19f7 a83e d702 583e bea4 99bd 1198 933e

conv0.bn.running_var f4 [32]
0.1642388 0.18572061 0.36539334 0.23535383 0.21983787 0.2241699 0.39695928 0.15938422
0.3088451 0.22496872 0.18235818 0.24221727 0.19203411 0.13926572 0.20720679 0.168965
0.15348631 0.2343432 0.25135246 0.19258983 0.3103726 0.20982628 0.18625493 0.19009906
0.18322308 0.25226837 0.20856315 0.15157034 0.21188271 0.14756659 0.19380969 0.20800115
00000000: 372e 283e 8b2d 3e3e d614 bb3e 9800 713e
00000010: 2e1d 613e cb8c 653e 3f3e cb3e 9e35 233e
00000020: f220 9e3e 335e 663e 1abc 3a3e ce07 783e
00000030: 97a4 443e ac9b 0e3e 042e 543e 2905 2d3e
00000040: 842b 1d3e aaf7 6f3e 45b1 803e 4536 453e
00000050: 28e9 9e3e b3dc 563e 9db9 3e3e 54a9 423e
00000060: d59e 3b3e 5229 813e 9491 553e 4135 1b3e
00000070: c8f7 583e b21b 173e 0c76 463e 41fe 543e

blocks.0.conv.weight f4 [32, 32, 3, 3]
0.26737696 -0.09154106 0.30598634 -0.37733436 0.1830732 -0.25714293 0.1757931 -0.11606188
0.27095914 0.08171957 0.001617802 -0.4063337 -0.06975415 -0.048576877 0.12358058 0.04131636
-0.08933116 -0.121336594 0.23214959 -0.24599935 0.059869897 0.04701769 -0.13748549 0.04129502
0.100210726 0.050510123 -0.033191446 0.124507785 0.13041179 0.05545279 0.057189822 0.24526139
-0.08337377 -0.24937762 -0.29203513 0.16319343 0.0024391985 0.18918838 -0.13363163 0.07087257
0.25230289 -0.14202818 -0.07768631 0.20449632 -0.018413158 0.046746086 -0.22658208 0.055353586
-0.13004532 -0.12465423 0.16792288 0.2030215 0.22789088 0.19454317 0.15411495 -0.012685785
-0.044926327 -0.16722684 0.08253504 -0.2553624 -0.0236117 -0.039918818 -0.291354 0.39710572
0.4639944 0.40969574 -0.13277483 0.4402137 0.105931744 0.22628748 0.1445539 0.2994906
0.1380385 -0.47908247 0.17831683 -0.04473615 0.36250502 0.15094978 0.105814196 0.4171299
-0.06944265 -0.18607725 -0.09473443 -0.0696996 -0.21518433 0.4447194 -0.089408174 0.087835625
-0.13131447 -0.07797101 0.02989252 0.027191238 -0.11944654 0.02090483 0.07960413 -0.08190291
0.09737591 0.22711322 0.05550338 0.12042631 -0.036655013 0.40313956 -0.2562071 0.06661937
0.09336262 0.18666406 -0.106327556 0.12425928 -0.38749778 -0.10597137 0.29854953 0.054714918
0.00047275782 0.17620324 -0.050915834 0.45222688 0.13323766 -0.12436638 -0.3641653 -0.35255256
-0.025756652 -0.5518933 -0.18698192 -0.045095563 -0.11057103 0.09940969 -0.18385935 0.1761858
-0.41719386 0.18994093 -0.12909663 -0.030397937 -0.053792905 -0.29482496 0.027955983 0.29018387
0.19993919 0.09547046 0.18624866 0.008873456 0.0033730704 -0.002131432 0.029704029 0.15166676
-0.045380343 0.0890239 -0.0036138452 0.10494285 -0.1987665 0.07139023 -0.0113230925 0.20072208
0.16753532 -0.069691025 0.29456753 0.100598395 0.26050806 -1.7761484 0.22656547 0.29420146
0.12563384 0.09732025 0.043840084 -0.23564412 0.5458148 0.2824308 -0.27507204 -0.13015689
-0.4389148 0.29255533 0.038803693 0.06386182 -0.27781555 -0.32192317 -0.11180904 -0.16890593
-0.0082064 -0.03166476 -0.29162136 0.017347662 0.027856143 -0.07366657 0.124330595 0.14162119
-0.28978693 -0.061488587 -0.006203457 -0.2055745 -0.07979308 0.05694745 0.21193184 0.017113669
0.1208545 -0.2630204 0.2500896 0.24455385 0.41008458 0.124501064 -0.07371376 0.13079716
0.014866398 -0.36353347 0.4072978 0.0681127 0.1690931 -0.4503385 -0.055120282 0.07933085
0.0428116 0.12965637 -0.11504081 -0.19840585 0.14299046 -0.20730071 0.057502277 0.19826458
0.12070166 0.064184844 0.22761959 0.16119061 0.071396224 -0.03325289 0.16198781 0.11289628
0.13984025 0.038642947 0.004447757 0.024087941 0.12508449 0.22312605 -0.42384192 -0.41358137
-0.1960788 0.13599996 0.13789283 0.064217776 0.060055587 -0.119758084 -0.26734084 0.049852632
0.051677577 0.5306209 -0.27306494 0.22446816 -0.2378667 -0.13857114 0.12532993 -0.13188429
-0.16270275 0.01963066 0.013681894 0.13165957 0.12794176 -0.14402102 0.030840676 -0.1571122
00000000: a2e5 883e e179 bbbd 3eaa 9c3e f831 c1be
00000010: 8a77 3b3e 3da8 83be 1b03 343e dab1 edbd
00000020: 28bb 8a3e 975c a73d 6d0c d43a f90a d0be
00000030: 44db 8ebd 8cf8 46bd d117 fd3d 583b 293d
00000040: 41f3 b6bd 527f f8bd 9fb8 6d3e 41e7 7bbe
00000050: 233a 753d 9f95 403d ffc8 0cbe f824 293d
00000060: 483b cd3d b4e3 4e3d c1f3 07bd f0fd fe3d
00000070: ab8a 053e 7722 633d e03f 6a3d cd25 7b3e
00000080: debf aabd d95c 7fbe a185 95be 2e1c 273e
00000090: f6da 1f3b 99ba 413e bbd6 08be a325 913d
000000a0: d82d 813e d66f 11be 001a 9fbd 7c67 513e
000000b0: 31d7 96bc d378 3f3d 2205 68be 71ba 623d
000000c0: 9a2a 05be b84a ffbd faf3 2b3e dee4 4f3e
000000d0: 3a5c 693e 5336 473e 4fd0 1d3e 0ad8 4fbc
000000e0: ab04 38bd 833d 2bbe 2208 a93d dcbe 82be
000000f0: 536d c1bc ea81 23bd 5a2c 95be 7151 cb3e
00000100: ad90 ed3e a4c3 d13e 20f6 07be b163 e13e
00000110: bef2 d83d e8b7 673e f005 143e d556 993e
00000120: f759 0d3e 4c4a f5be b098 363e 413d 37bd
00000130: 429a b93e 9492 1a3e 1db5 d83d 0d92 d53e
00000140: f337 8ebd 098b 3ebe 2004 c2bd aabe 8ebd
00000150: 4859 5cbe 43b2 e33e a21b b7bd 2ae3 b33d
00000160: 4d77 06be 44af 9fbd 28e1 f43c 29c0 de3c
00000170: 63a0 f4bd 9b40 ab3c 7d07 a33d b6bc a7bd
00000180: 056d c73d 5e90 683e 8357 633d 12a2 f63d
00000190: 9123 16bd 4f68 ce3e 942d 83be bc6f 883d
000001a0: e734 bf3d dd24 3f3e 43c2 d9bd a67b fe3d
000001b0: 1c66 c6be 8507 d9bd 7cdb 983e c01c 603d
000001c0: 7bdc f739 9f6e 343e 1f8d 50bd 488a e73e
000001d0: 746f 083e cdb3 febd e073 babe c581 b4be
000001e0: 9dff d2bc e148 0dbf 3078 3fbe 20b6 38bd
000001f0: 1073 e2bd 4f97 cb3d a045 3cbe 0d6a 343e
00000200: 6f9a d5be e07f 423e e831 04be 1805 f9bc
00000210: f355 5cbd 4cf3 96be f203 e53c fb92 943e
00000220: dcbc 4c3e 0486 c33d f8b7 3e3e f961 113c
00000230: bb0e 5d3b 7faf 0bbb dd55 f33c 884e 1b3e
00000240: bde0 39bd 2a52 b63d 43d6 6cbb 47ec d63d
00000250: 7289 4bbe 0a35 923d 7e84 39bc 178a 4d3e
00000260: 618e 2b3e 2bba 8ebd 8ed1 963e 8806 ce3d
00000270: 5061 853e d558 e3bf c700 683e 93a1 963e
00000280: 28a6 003e d74f c73d a991 333d b14c 71be
00000290: 85ba 0b3f c59a 903e 3ed6 8cbe d947 05be
000002a0: 71b9 e0be d0c9 953e 9ff0 1e3d fcc9 823d
000002b0: d73d 8ebe 1dd3 a4be 23fc e4bd adf5 2cbe
000002c0: 2374 06bc e8b2 01bd 654f 95be af1c 8e3c
000002d0: 9132 e43c 80de 96bd 0aa1 fe3d 2505 113e
000002e0: f45e 94be 75db 7bbd 5e46 cbbb 1f82 52be
000002f0: 8e6a a3bd bb41 693d a904 593e f731 8c3c
00000300: 9082 f73d 9caa 86be be0b 803e 536c 7a3e
00000310: 9bf6 d13e 6afa fe3d 3df7 96bd b1ef 053e
00000320: 3192 733c 0f21 babe 5689 d03e ac7e 8b3d
00000330: be26 2d3e c592 e6be cec5 61bd 3678 a23d
00000340: 375b 2f3d a4c4 043e 849a ebbd e72a 4bbe
00000350: 176c 123e a346 54be 8287 6b3d df05 4b3e
00000360: 6f32 f73d 5873 833d 1c15 693e 270f 253e
00000370: 2f38 923d 2f34 08bd 22e0 253e 2a36 e73d
00000380: 4832 0f3e 1148 1e3d 7dbe 913b 1354 c53c
00000390: 2616 003e 287b 643e cf01 d9be f0c0 d3be
000003a0: e2c8 48be 9343 0b3e c733 0d3e 9c84 833d
000003b0: d9fc 753d ba43 f5bd e6e0 88be 4632 4c3d
000003c0: deab 533d c5d6 073f 2bcf 8bbe fbda 653e
000003d0: 5493 73be 98e5 0dbe 7d56 003e ad0c 07be
000003e0: 8d9b 26be 7ad0 a03c 062a 603c c4d1 063e
000003f0: 2a03 033e 3f7a 13be 96a5 fc3c 05e2 20be

blocks.0.conv.bias f4 [32]
0.00097397756 0.0071198926 0.0002887748 0.0053119403 0.004502162 0.001969611 0.009913109 0.002632438
-0.0006685883 -0.012779567 0.003785191 -0.013022478 -2.7830927e-05 0.00063887297 0.001648587 0.00038719812
-0.000999637 -0.0045015397 -0.0001411382 0.0012179412 0.0013337253 8.781566e-05 0.00044123703 0.0010919558
-0.0054593235 -0.0003014499 -4.0520703e-05 0.000286272 0.0025205184 -0.00034638 -0.0062783523 0.008379147
00000000: 8752 7f3a fd4d e93b b366 9739 c90f ae3b
00000010: df86 933b 9714 013b 986a 223c fb84 2c3b
00000020: 3444 2fba 6461 51bc f810 783b 3b5c 55bc
00000030: 7676 e9b7 0a7a 273a 6615 d83a da00 cb39
00000040: 4006 83ba a781 93bb 7ffe 13b9 53a3 9f3a
00000050: 65d0 ae3a ac29 b838 d555 e739 f51f 8f3a
00000060: 20e4 b2bb ec0b 9eb9 c6f4 29b8 c716 9639
00000070: 482f 253b 569a b5b9 a3ba cdbb b148 093c

blocks.0.bn.weight f4 [32]
0.8971563 0.85751593 0.7462348 0.9227688 1.1017199 0.72671765 0.6815465 0.8595947
0.90959173 0.9885525 0.80035233 1.0552126 0.8536439 0.8176095 0.8058123 0.7421878
1.0406133 1.0015643 0.773315 0.983142 0.8702561 0.7528953 0.98492074 0.9076334
0.8924783 0.78542995 1.0331689 1.2158339 0.69447166 0.71377945 0.5832072 0.9792553
00000000: 09ac 653f 2a86 5b3f 3e09 3f3f 933a 6c3f
00000010: 2805 8d3f 2b0a 3a3f d579 2e3f 660e 5c3f
00000020: 01db 683f c711 7d3f e4e3 4c3f 3511 873f
00000030: 6888 5a3f db4e 513f b749 4e3f 0500 3e3f
00000040: d132 853f 4233 803f f9f7 453f 32af 7b3f
00000050: 1bc9 5e3f bfbd 403f c423 7c3f aa5a 683f
00000060: 7579 643f f011 493f e13e 843f 72a0 9b3f
00000070: e5c8 313f 40ba 363f 114d 153f 7ab0 7a3f

blocks.0.bn.bias f4 [32]
-0.62645257 -0.42634645 0.086382225 -0.22485872 -0.3716324 -0.16404624 -0.2688693 -0.2606389
-0.39036453 -0.25015232 -0.4820646 -0.5773528 -0.55484736 -0.5900043 -0.14506842 -0.6095618
-0.5473359 -0.33074665 -0.18730353 -0.6440449 -0.5081852 -0.30039185 -0.84137696 -0.3589976
-0.029832052 -0.51709694 -0.45163116 -0.6881023 -0.51775426 -0.2402677 -0.008480792 -0.84106344
00000000: 325f 20bf 154a dabe 2ae9 b03d 5d41 66be
00000010: 9a46 bebe bdfb 27be 3da9 89be 7672 85be
00000020: dcdd c7be f713 80be 2cd1 f6be 65cd 13bf
00000030: 7a0a 0ebf 860a 17bf d18c 14be 3e0c 1cbf
00000040: 351e 0cbf a057 a9be 7fcc 3fbe 20e0 24bf
00000050: 6d18 02bf f6cc 99be 7b64 57bf 89ce b7be
00000060: 5962 f4bc 7760 04bf 333c e7be 7927 30bf
00000070: 8b8b 04bf bc08 76be 05f3 0abc ef4f 57bf

blocks.0.bn.running_mean f4 [32]
1.3872635 -4.4060388 2.645296 -0.1376229 -1.8610305 -4.257278 -2.3283622 -1.9445336
0.7124565 -2.093591 -2.4249163 -1.7985302 -1.8174124 1.7375947 1.5723687 -0.401881
0.17420422 -1.8568902 3.210932 -2.0244508 0.0846353 -1.9787421 -1.5454247 0.77821904
-0.95411783 -1.7563936 0.47378463 -1.2744743 -4.066879 0.5066712 1.4098743 -4.167377
00000000: da91 b13f 45fe 8cc0 884c 2940 04ed 0cbe
00000010: 3f36 eebf 9f3b 88c0 e303 15c0 7ae6 f8bf
00000020: 8d63 363f 65fd 05c0 d431 1bc0 3d36 e6bf
00000030: f8a0 e8bf 8169 de3f 6143 c93f 59c3 cdbe
00000040: 9762 323e 94ae edbf e97f 4d40 9a90 01c0
00000050: 4655 ad3d 6c47 fdbf 7ad0 c5bf 5d39 473f
00000060: 1141 74bf 81d1 e0bf e693 f23e f921 a3bf
00000070: df23 82c0 34b5 013f c376 b43f 275b 85c0

blocks.0.bn.running_var f4 [32]
3.2682867 4.665068 8.136791 4.213176 9.334538 6.8761353 7.3073826 3.9200432
3.2555258 2.8343866 3.9056253 4.7516174 3.568916 4.474562 5.753504 3.2920303
3.241195 9.706147 3.5916626 3.6107342 2.4531562 5.5372767 3.491236 4.2443643
8.757048 3.2480721 4.095672 5.179048 7.515996 3.627253 4.6383195 4.6136746
00000000: 9c2b 5140 3d48 9540 4c30 0241 56d2 8640
00000010: 455a 1541 4d09 dc40 14d6 e940 fde1 7a40
00000020: 895a 5040 9766 3540 c4f5 7940 400d 9840
00000030: 1f69 6440 9d2f 8f40 b41c b840 a0b0 5240
00000040: bd6f 4f40 614c 1b41 cddd 6540 4516 6740
00000050: 8300 1d40 5f31 b140 6970 5f40 d5d1 8740
00000060: de1c 0c41 6ae0 4f40 bf0f 8340 c3ba a540
00000070: 0a83 f040 ea24 6840 1d6d 9440 39a3 9340

blocks.1.conv.weight f4 [32, 32, 3, 3]
0.17448157 0.029826364 0.12074523 -0.4080922 0.2739284 -0.054482505 0.20918635 -0.6043896
0.16494344 0.0505917 0.23686567 -0.19621466 -0.051352285 0.065982744 -0.16552083 -0.20326605
0.3325164 0.07223081 0.060519937 -0.23107098 0.106044106 -0.2703503 -0.71983576 -0.15575594
-0.113284834 0.13045597 0.10449218 0.3065159 -0.092080764 0.18245651 -0.1824413 0.37319517
-0.14364807 -0.051118895 -0.55662495 -0.1903019 0.086176865 0.2206324 -0.35899684 0.03459944
-0.16198546 -0.19452354 0.08420972 -0.12814027 -0.07725108 -0.2726208 -0.0057159467 0.39680412
-0.005690541 0.20343153 0.21507446 0.07454488 0.1212853 0.58132005 -0.14610049 0.11113345
-0.25318956 -0.21275537 -0.063785106 -0.17240429 0.042147133 0.2831089 0.024528753 0.05069495
-0.7636278 -0.102146216 -0.027162334 0.25371143 -0.49077192 -0.005756116 -0.13066596 0.07359858
0.1004716 -0.15910402 -0.09875286 -0.05999173 0.0006800213 -0.06599984 -0.007985889 -0.24724784
0.30286476 -0.08307413 -0.21065013 -0.28285152 0.4873851 0.17309734 -0.3301669 0.03196911
-0.023762885 -0.086592175 0.050223596 -0.026343537 0.06618966 0.039758116 -0.18367153 0.19898987
0.13797909 0.04078375 -0.021490904 0.13722298 0.017670484 0.104158394 -0.18993 0.028405853
-0.06424911 -0.13223228 -0.47323272 0.03655569 -0.216826 0.3257713 -0.034387987 -0.1137079
0.26386738 -0.09177308 -0.14472833 0.02508135 0.19245279 -0.075812966 -0.51678175 -0.24122916
-0.24139348 -0.6151378 0.13036251 -0.046896193 0.22520581 0.079214595 0.376557 -0.1720229
-0.1422714 0.25683147 -0.35202798 0.17700027 -0.04274209 -0.25962433 -0.042462196 -0.12364525
0.14182468 0.099414885 -0.24141477 0.14675005 -0.035064805 -0.16325976 -0.15087423 0.10676002
0.26201987 -0.41421852 0.09521192 -0.01548105 -0.27231824 0.061285324 -0.08371404 -0.09249837
-0.1944944 0.1296673 -0.11440944 -0.16054612 -0.40810934 -1.0727973 -0.07541901 0.039398123
-0.31916705 -0.11800195 0.06957207 0.19179471 -0.022642171 0.10589801 -0.040016226 0.14177881
0.07230308 0.13361892 -0.088443555 -0.2343024 -0.12748705 -0.19782002 -0.038341388 0.18868496
0.17347856 -0.49308118 -0.24838087 -0.66913164 0.09843687 -0.4026843 0.18569341 0.078837685
-0.14934555 0.21373828 -0.018890468 -0.09207769 -0.078144856 -0.105175406 -0.011148946 -0.31726265
-0.08909736 -0.38801527 -0.16126181 -0.14304389 0.1006841 -0.22712968 -0.013986293 -0.14829919
0.43398795 0.16465975 -0.08612927 -0.17569737 -0.15380202 -0.092561275 -0.058303624 -0.17572865
-0.036653824 0.19672143 -0.5014371 -0.5410431 0.0146997385 0.10310908 -0.26971635 -0.35218227
0.035554927 -0.065877125 -0.29940116 -0.07789003 -0.23323883 -0.33653522 0.12726846 0.23506021
-0.23426552 -0.12648296 0.0884234 -0.0035644572 -0.27456948 -0.09195739 -0.15708368 -0.36800608
0.08262323 -0.046460837 0.24854486 0.1503768 0.47001183 -0.1818124 -0.3875602 -0.10173366
-0.30532685 -0.123843275 -0.33035403 0.14986905 -0.15543412 -0.081270434 -0.074817136 -0.31959555
0.3162917 0.09573171 -0.07986256 0.12874912 -0.109914504 -0.054130107 0.1913834 -0.5048928
00000000: 4cab 323e 6b56 f43c 4649 f73d 76f1 d0be
00000010: 5840 8c3e 0c29 5fbd f234 563e 47b9 1abf
00000020: efe6 283e 3e39 4f3d ea8c 723e 7fec 48be
00000030: c656 52bd f621 873d 4b7e 29be fa24 50be
00000040: 973f aa3e bfed 933d c1e3 773d df9d 6cbe
00000050: a72d d93d 5b6b 8abe 2847 38bf 7c7e 1fbe
00000060: e101 e8bd 4096 053e ffff d53d a7ef 9c3e
00000070: d794 bcbd e1d5 3a3e e4d1 3abe 7013 bf3e
00000080: 7b18 13be 0c62 51bd f97e 0ebf 80de 42be
00000090: 7f7d b03d 76ed 613e 6fce b7be 24b8 0d3d
000000a0: 84df 25be 2e31 47be 2576 ac3d 3437 03be
000000b0: d035 9ebd f494 8bbe d64c bbbb e929 cb3e
000000c0: b877 babb 5b50 503e 7b3c 5c3e fcaa 983d
000000d0: 6d64 f83d 64d1 143f 5e9b 15be ef99 e33d
000000e0: 10a2 81be 8bdc 59be c4a1 82bd c08a 30be
000000f0: 79a2 2c3d a6f3 903e 86f0 c83c 82a5 4f3d
00000100: 1d7d 43bf 0932 d1bd 8b83 debc 77e6 813e
00000110: 7546 fbbe cd9d bcbb 4ccd 05be daba 963d
00000120: 0ec4 cd3d 2aec 22be f13e cabd e3b9 75bd
00000130: 7543 323a ed2a 87bd 3fd7 02bc 8a2e 7dbe
00000140: 1711 9b3e c522 aabd abb4 57be ead1 90be
00000150: 8a8a f93e 6e40 313e a30b a9be 0bf2 023d
00000160: 62aa c2bc 3d57 b1bd 42b7 4d3d 67ce d7bc
00000170: 728e 873d 68d9 223d 6414 3cbe 00c4 4b3e
00000180: 644a 0d3e dd0c 273d b10d b0bc 2e84 0c3e
00000190: b1c1 903c ff50 d53d 037d 42be 64b3 e83c
000001a0: 0a95 83bd e667 07be 8f4b f2be 6bbb 153d
000001b0: a307 5ebe 7fcb a63e 6bda 0cbd b0df e8bd
000001c0: a019 873e 86f3 bbbd aa33 14be 6777 cd3c
000001d0: 5812 453e d443 9bbd cf4b 04bf c704 77be
000001e0: da2f 77be ac79 1dbf c07d 053e 3916 40bd
000001f0: 5a9c 663e 433b a23d 14cc c03e c526 30be
00000200: 98af 11be 6a7f 833e 033d b4be 8f3f 353e
00000210: 5412 2fbd 7bed 84be d7ec 2dbd b939 fdbd
00000220: 7d3a 113e 089a cb3d 6f35 77be a545 163e
00000230: 1da0 0fbd 912d 27be c67e 1abe ffa4 da3d
00000240: 7827 863e 7314 d4be 78fe c23d 3ba4 7dbc
00000250: 4c6d 8bbe 5206 7b3d 4472 abbd c96f bdbd
00000260: 8a29 47be 81c7 043e 7f4f eabd 3466 24be
00000270: b5f3 d0be 6c51 89bf 4875 9abd ed5f 213d
00000280: dd69 a3be 02ab f1bd cd7b 8e3d d565 443e
00000290: 137c b9bc 0ee1 d83d 0ee8 23bd 772e 113e
000002a0: a313 943d 66d3 083e e521 b5bd f8ec 6fbe
000002b0: f78b 02be 5591 4abe dc0b 1dbd a136 413e
000002c0: 5da4 313e 2375 fcbe 8e57 7ebe 364c 2bbf
000002d0: 4599 c93d a32c cebe 6a26 3e3e a775 a13d
000002e0: 0aee 18be 35de 5a3e 2fc0 9abc 3a93 bcbd
000002f0: 690a a0bd 3466 d7bd 12aa 36bc 4070 a2be
00000300: ad78 b6bd f0a9 c6be d121 25be 197a 12be
00000310: 7733 ce3d af94 68be c426 65bc bedb 17be
00000320: ab33 de3e 919c 283e 8b64 b0bd 03ea 33be
00000330: 477e 1dbe c490 bdbd c8cf 6ebd 36f2 33be
00000340: 5222 16bd 5871 493e 2f5e 00bf cd81 0abf
00000350: 2cd7 703c da2a d33d 4318 8abe 3c51 b4be
00000360: 0ba2 113d 96ea 86bd 1c4b 99be cf84 9fbd
00000370: 29d6 6ebe 584e acbe aa52 023e a0b3 703e
00000380: 4de3 6fbe c084 01be 5417 b53d ab99 69bb
00000390: 5f94 8cbe 2854 bcbd 8bda 20be 4b6b bcbe
000003a0: 5e36 a93d b84d 3ebd 8b82 7e3e 60fc 193e
000003b0: 64a5 f03e 082d 3abe 4a6e c6be bd59 d0bd
000003c0: cd53 9cbe 8ba1 fdbd 2a24 a9be 4677 193e
000003d0: 1f2a 1fbe 1d71 a6bd ba39 99bd 07a2 a3be
000003e0: fcf0 a13e fd0e c43d fb8e a3bd cfd6 033e
000003f0: db1a e1bd 88b7 5dbd 03fa 433e a840 01bf

blocks.1.conv.bias f4 [32]
0.0007707719 0.0003610761 0.0005208523 -0.013538827 0.006872373 0.009471738 0.008679428 0.0076749595
0.007276863 -0.0015277377 0.0006654252 0.004197654 -0.008284391 0.000107342305 -7.417224e-05 -0.007915936
4.6291272e-05 -0.0007318435 0.00074175734 0.012359774 0.000319008 -0.0018275317 -0.00094260543 0.00087220146
0.005351201 -0.0014416999 0.015984815 0.0011037274 0.000812437 0.00013313099 0.0010673613 0.0007850921
00000000: a00d 4a3a d04e bd39 ce89 083a f5d1 5dbc
00000010: a531 e13b 592f 1b3c 2934 0e3c 3a7e fb3b
00000020: c072 ee3b 5f3e c8ba ee6f 2e3a 798c 893b
00000030: 41bb 07bc f61c e138 eb8c 9bb8 d8b1 01bc
00000040: e028 4238 30d9 3fba 7e72 423a a680 4a3c
00000050: 8740 a739 ca89 efba 2e19 77ba 73a4 643a
00000060: 2159 af3b 6cf7 bcba 96f2 823c f2aa 903a
00000070: b9f9 543a 1499 0b39 b4e6 8b3a a4ce 4d3a

blocks.1.bn.weight f4 [32]
0.61597747 0.8813011 0.65945065 0.9092507 1.0466319 0.7289558 0.73266447 0.7419143
1.010438 0.86103445 0.890053 0.9833755 1.1726186 0.8423269 1.0703207 0.9299578
1.1714525 0.71789336 0.90649384 0.90077776 0.9349219 0.78240144 1.2674305 1.12737
1.0102155 1.2046309 1.0141945 0.80642474 0.7799904 0.7874073 0.50880635 1.1110084
00000000: b3b0 1d3f f39c 613f c2d1 283f a7c4 683f
00000010: 09f8 853f d99c 3a3f e68f 3b3f 18ee 3d3f
00000020: 0856 813f c16c 5c3f 83da 633f 7fbe 7b3f
00000030: 5e18 963f bca2 573f 4500 893f b711 6e3f
00000040: 28f2 953f dcc7 373f fb0f 683f 5f99 663f
00000050: 0b57 6f3f 764b 483f 2a3b a23f a94d 903f
00000060: be4e 813f 5831 9a3f 20d1 813f da71 4e3f
00000070: 73ad 473f 8693 493f 2241 023f 8635 8e3f

blocks.1.bn.bias f4 [32]
-0.24380691 -0.4739126 0.035009407 -0.48594382 -0.103065185 -0.20873852 -0.37703586 -0.5232436
-0.57774556 -0.3935841 -0.53508914 -0.59848934 -0.48174402 -0.36613956 -0.4367163 -0.37686443
-0.5476312 -0.49414364 -0.47275084 -0.47464633 -0.77375585 -0.41354445 -0.57398325 -0.07921069
-0.73113066 -0.14189827 -0.31521758 -0.37866643 -0.26619485 -0.6265613 -0.0852996 -0.42941085
00000000: 85a8 79be aca4 f2be 0666 0f3d a1cd f8be
00000010: d713 d3bd 8dbf 55be d80a c1be 4bf3 05bf
00000020: 22e7 13bf db83 c9be 9afb 08bf 9936 19bf
00000030: 27a7 f6be a576 bbbe 4799 dfbe 60f4 c0be
00000040: 8f31 0cbf 6500 fdbe 660c f2be d804 f3be
00000050: dd14 46bf 19bc d3be 91f0 12bf 3739 a2bd
00000060: 612b 3bbf c84d 11be 3364 a1be 91e0 c1be
00000070: b14a 88be 5266 20bf 8fb1 aebd bddb dbbe

blocks.1.bn.running_mean f4 [32]
-5.281373 -2.508805 0.019579453 -2.689364 -3.4924483 0.022581827 2.3154905 -3.1701965
-3.7787058 -1.06528 0.15740927 0.5812634 -2.20236 2.0150516 -0.7279324 -2.5195217
-1.6774784 0.036270436 -3.6212623 -3.380702 -1.0720279 -2.433773 -1.9246864 -1.6334046
-2.305818 0.18536663 -1.4629837 -2.989856 1.0565509 -2.425491 1.7593776 -2.1551266
00000000: 0201 a9c0 4390 20c0 1765 a03c 8a1e 2cc0
00000010: 4684 5fc0 86fd b83c ff30 1440 80e4 4ac0
00000020: 51d6 71c0 185b 88bf e52f 213e aecd 143f
00000030: 77f3 0cc0 9bf6 0040 c759 3abf d83f 21c0
00000040: 9db7 d6bf 4f90 143d c3c2 67c0 6c5d 58c0
00000050: 3638 89bf f0c2 1bc0 205c f6bf 6713 d1bf
00000060: 8692 13c0 c0d0 3d3e 0d43 bbbf cd59 3fc0
00000070: 0f3d 873f 3f3b 1bc0 4933 e13f 98ed 09c0

blocks.1.bn.running_var f4 [32]
9.547612 8.998721 11.4698925 8.002003 30.574162 13.097814 8.268598 7.442734
12.175035 5.291351 7.9193196 6.999427 13.117284 10.15325 10.588299 9.795526
9.441164 14.267799 9.813394 10.418786 6.6932764 15.94436 8.4243765 15.042322
6.4180155 8.30974 10.422808 11.876846 24.546091 15.095974 17.649511 6.9151664
00000000: 05c3 1841 c3fa 0f41 ae84 3741 3408 0041
00000010: e297 f441 a590 5141 2d4c 0441 e02a ee40
00000020: f2cc 4241 bf52 a940 116b fd40 4efb df40
00000030: 65e0 5141 b673 2241 ac69 2941 79ba 1c41
00000040: 020f 1741 e848 6441 a903 1d41 59b3 2641
00000050: 522f d640 191c 7f41 3fca 0641 5aad 7041
00000060: 6260 cd40 b2f4 0441 d2c3 2641 9007 3e41
00000070: 655e c441 1c89 7141 3332 8d41 0b49 dd40

blocks.2.conv.weight f4 [32, 32, 3, 3]
0.10682563 0.061757274 -0.103372194 -0.15173672 -0.017075274 -0.18689767 -0.22201917 -0.24509467
-0.030016322 -0.121515125 -0.19032282 -0.43745664 0.07232099 -0.094196424 -0.3493656 -0.09145454
-0.24755031 -0.08193578 -0.03270764 0.10559875 0.17537455 0.013695593 -0.060031254 -0.051380664
0.28698936 -0.17654768 -0.4805132 0.1689512 -0.11759569 0.3837704 0.20224372 -0.1355957
-0.23094855 -0.06604073 0.15886329 0.3726784 0.11868698 0.13129705 0.5623815 0.05891811
0.29977807 0.3914605 0.24355187 0.39618564 0.32038465 -0.14802799 0.14212535 0.44616222
0.09888026 0.34338555 0.18183804 -0.019280745 -0.1276771 0.037129708 -0.13920301 0.16420682
0.15655385 -0.018120905 0.08461632 0.042384822 -0.18860485 0.16837922 -0.08477292 0.13527568
-0.56539524 0.038678627 -0.033463154 -0.05061962 -0.25635287 -0.25937852 -0.12912127 0.14634001
0.103266366 0.045480296 0.17955096 0.023100933 0.27599004 0.06669045 0.5362829 -0.4709766
-0.016062861 -0.1478089 0.16178936 -0.53421164 0.070742525 -0.15548095 -0.37660676 -0.40236005
-0.09034533 0.044626486 -0.081594445 -0.3081627 -0.003268717 -0.24091603 -0.22846232 0.10687131
0.19331507 0.01807384 -0.29303902 -0.036449287 0.12655042 0.05993363 0.21450347 0.332995
-0.1366624 0.18755339 -0.23810321 0.3871755 -0.14943857 -0.30658078 0.062999345 0.24841611
0.32442507 0.04979231 0.09014564 0.06293245 0.094732344 0.0037933267 -0.36292312 -0.087563075
-0.15754801 -0.25062764 0.18729335 -0.14113124 -0.3404973 0.006386685 -0.10305267 -0.30622467
-0.4751016 0.0027780868 -0.1855397 0.0732232 -0.34687695 0.27326375 -0.27891925 -0.10305042
-0.09200811 -0.12533382 0.054945305 -0.1258509 0.09190147 0.110946335 -0.13826856 0.4160389
-0.15221597 0.018792097 -0.1840129 -0.01770331 -0.2469304 0.043361228 0.30916008 -0.017607337
0.07512777 -0.0959467 0.15788668 0.08226489 -0.10912836 -0.12445639 0.35956973 -0.19136855
-0.30243143 0.17323041 -0.0076797623 0.451891 -0.23150334 -0.004791111 0.31763634 0.16244327
-0.06729809 0.17311008 -0.122318536 0.12757331 -0.18391827 0.11984875 -0.15482771 -0.0022593027
0.032474644 -0.34443933 -0.025346205 -0.24101736 -0.00038678802 0.16199425 0.47835022 0.3314801
0.102085255 -0.0008377903 0.11834046 0.019993901 -0.101473294 0.03760381 -0.021250479 0.063392706
0.31941923 0.21283375 -0.15723892 0.04090715 0.11527551 0.27309373 0.23687693 -0.3550737
-0.2893956 -0.16890194 0.105076 -0.5383933 -0.34405082 -0.12907527 -0.66044873 -0.20548095
0.10877028 0.09363859 -0.38917324 -0.28266892 -0.110794336 -0.5351795 -0.25849247 -0.096245855
0.18582012 0.05224923 -0.35423237 0.01237931 0.4528843 -0.09628213 -0.19498941 -0.13070038
0.044770353 0.012247087 0.24141371 -0.39257514 0.1352363 0.18350735 -0.09398375 0.49408486
0.17772028 0.09043166 -0.0039747297 -0.055877604 -0.03180938 -0.27681205 -0.26246238 -0.059036195
0.42439273 0.016589707 0.026941895 -0.09528932 0.068634324 0.33697018 -0.29256153 0.09246605
-0.24284554 -0.20826842 -0.025663389 0.2987129 0.25830665 0.0025722093 -0.102294095 -0.39093733
00000000: 65c7 da3d 32f5 7c3d cdb4 d3bd df60 1bbe
00000010: 72e1 8bbc 1a62 3fbe fe58 63be 19fa 7abe
00000020: cae4 f5bc ecdc f8bd fce3 42be 51fa dfbe
00000030: 071d 943d 0eea c0bd 0ce0 b2be 854c bbbd
00000040: d47d 7dbe f2cd a7bd 72f8 05bd 2844 d83d
00000050: 6395 333e 7b63 603c 55e3 75bd 8874 52bd
00000060: 45f0 923e eac8 34be d305 f6be 8b01 2d3e
00000070: 02d6 f0bd 8e7d c43e fa18 4f3e 99d9 0abe
00000080: c77d 6cbe 5d40 87bd 0fad 223e b4cf be3e
00000090: 2912 f33d bc72 063e 3cf8 0f3f 1e54 713d
000000a0: 837c 993e 836d c83e a965 793e d8d8 ca3e
000000b0: 7509 a43e a694 17be 4f89 113e 606f e43e
000000c0: bc81 ca3d 3bd0 af3e c033 3a3e a7f2 9dbc
000000d0: c9bd 02be 5215 183d 3c8b 0ebe d525 283e
000000e0: a74f 203e 4b72 94bc 524b ad3d b59b 2d3d
000000f0: a121 41be 9a6b 2c3e 6d9d adbd b585 0a3e
00000100: bebd 10bf 7b6d 1e3d a910 09bd 8556 4fbd
00000110: af40 83be 43cd 84be 5e38 04be 28da 153e
00000120: 517d d33d 8c49 3a3d 35dc 373e 2b3e bd3c
00000130: 914e 8d3e 0195 883d d649 093f d823 f1be
00000140: 4396 83bc 375b 17be 1cac 253e 18c2 08bf
00000150: 75e1 903d 6636 1fbe 9ad2 c0be 2302 cebe
00000160: f906 b9bd 43ca 363d fd1a a7bd 80c7 9dbe
00000170: f937 56bb b1b2 76be 07f2 69be 58df da3d
00000180: 63f4 453e 970f 943c 3609 96be d94b 15bd
00000190: 6f96 013e f77c 753d cca6 5b3e 527e aa3e
000001a0: 3af1 0bbe ff0d 403e 54d1 73be de3b c63e
000001b0: 6d06 19be 28f8 9cbe cd05 813d cb60 7e3e
000001c0: 0b1b a63e 05f3 4b3d 479e b83d bae2 803d
000001d0: 0803 c23d 7699 783b 0fd1 b9be 4554 b3bd
000001e0: 4454 21be 4452 80be d4c9 3f3e b584 10be
000001f0: a955 aebe 6647 d13b 470d d3bd 7bc9 9cbe
00000200: 8440 f3be 9010 363b 1efe 3dbe 0cf6 953d
00000210: db99 b1be 3ae9 8b3e 81ce 8ebe 190c d3bd
00000220: bf6e bcbd 8257 00be 540e 613d 0fdf 00be
00000230: d736 bc3d d537 e33d 4696 0dbe 0d03 d53e
00000240: 81de 1bbe e2f1 993c e16d 3cbe 8806 91bc
00000250: 53db 7cbe 8b9b 313d 3b4a 9e3e 433d 90bc
00000260: 97dc 993d b47f c4bd 0cad 213e 7f7a a83d
00000270: b17e dfbd fee2 febd 8619 b83e 1ef6 43be
00000280: 4bd8 9abe 5063 313e 84a6 fbbb 425e e73e
00000290: 360f 6dbe c1fe 9cbb 3ba1 a23e 8757 263e
000002a0: 95d3 89bd c543 313e 2482 fabd 94a2 023e
000002b0: 1255 3cbe 4373 f53d 288b 1ebe cf10 14bb
000002c0: 2204 053d 5a5a b0be d8a2 cfbc 41cd 76be
000002d0: cfc9 cab9 d2e1 253e 52ea f43e c2b7 a93e
000002e0: 1312 d13d 289f 5bba 7c5c f23d 40ca a33c
000002f0: 3bd1 cfbd 7406 1a3d 7c15 aebc 09d4 813d
00000300: eb8a a33e 17f1 593e 3d03 21be 418e 273d
00000310: 9115 ec3d f1d2 8b3e de8f 723e 38cc b5be
00000320: a92b 94be a1f4 2cbe 1632 d73d 25d4 09bf
00000330: 6e27 b0be 4f2c 04be 2b13 29bf 9969 52be
00000340: f4c2 de3d 97c5 bf3d b741 c7be fbb9 90be
00000350: 24e8 e2bd 8601 09bf 2059 84be 8c1c c5bd
00000360: a147 3e3e 4a03 563d f25d b5be 97d2 4a3c
00000370: 73e0 e73e 912f c5bd 4eab 47be 52d6 05be
00000380: 1e61 373d 02a8 483c 2835 773e 9cff c8be
00000390: 627b 0a3e 5ae9 3b3e 8d7a c0bd b1f8 fc3e
000003a0: 4efc 353e 3c34 b93d 733e 82bb eadf 64bd
000003b0: 8d4a 02bd 4fba 8dbe 7861 86be f0cf 71bd
000003c0: 014a d93e 23e7 873c 40b5 dc3c 0c27 c3bd
000003d0: 2790 8c3d 5b87 ac3e a0ca 95be d75e bd3d
000003e0: 80ac 78be 5144 55be 073c d2bc e6f0 983e
000003f0: c540 843e 8392 283b 917f d1bd f028 c8be

blocks.2.conv.bias f4 [32]
0.001838186 0.0050534555 -0.0004945084 0.00015670761 -0.0014568508 0.0051158904 -0.0013381282 -0.00020032897
-0.0006988386 -0.010858356 -0.0008413378 -0.0032882781 0.00025124202 -0.0032820813 0.003139005 3.41074e-05
-0.005582607 -0.00084028067 0.0002137557 0.004107504 0.00061046117 5.317758e-05 -0.0005443001 0.008263708
-0.00029861066 -0.0027064718 -4.954254e-05 -0.00011587989 0.0123182675 -0.0041194605 0.00047993028 0.0002988184
00000000: 4aef f03a 7597 a53b e6a1 01ba e151 2439
00000010: cdf3 beba 33a3 a73b 2264 afba 660f 52b9
00000020: 4432 37ba 3fe7 31bc 398d 5cba 2780 57bb
00000030: 22b9 8339 3018 57bb c4b7 4d3b 8b0e 0f38
00000040: 4dee b6bb 4846 5cba 9c23 6039 3e98 863b
00000050: 5b07 203a fe0a 5f38 5daf 0eba 8164 073c
00000060: d88e 9cb9 105f 31bb e6cb 4fb8 8b04 f3b8
00000070: 8fd2 493c 8afc 86bb 279f fb39 baaa 9c39

blocks.2.bn.weight f4 [32]
0.7838142 0.85126996 0.65718424 0.7163894 0.67998844 0.70757633 0.9916086 1.12898
0.7262326 0.999061 0.7434886 0.89837533 0.84912235 0.8797007 0.8598771 1.2002848
1.2348326 1.0523964 0.78171474 1.035554 1.0185658 1.0280883 0.80573237 0.99940175
1.2307451 1.0111942 1.0191723 0.72301716 0.5150041 0.9794372 0.39511073 0.8067512
00000000: 0ca8 483f d4ec 593f 3a3d 283f 4c65 373f
00000010: b913 2e3f b923 353f 10da 7d3f 6b82 903f
00000020: 61ea 393f 76c2 7f3f 4555 3e3f edfb 653f
00000030: 1560 593f 1134 613f e820 5c3f efa2 993f
00000040: ff0e 9e3f edb4 863f 751e 483f 098d 843f
00000050: 5d60 823f 6698 833f 7a44 4e3f cbd8 7f3f
00000060: 0e89 9d3f d06e 813f 3d74 823f a717 393f
00000070: 4fd7 033f 65bc 7a3f f44b ca3e 3f87 4e3f

blocks.2.bn.bias f4 [32]
-0.21953514 -0.56384265 -0.1931194 -0.30578753 -0.5996702 -0.35128358 -0.19034222 -0.5963884
-0.58295786 -0.4461126 -0.56239384 -0.38801023 -0.5487433 -0.30949423 -0.40731558 -0.5849436
-0.45456704 -0.50629085 -0.42993543 -0.30133864 -0.627633 -0.7927305 -0.36573327 -0.48583445
-0.7478478 -0.5390111 -0.59051144 -0.29207823 -0.0032654426 -0.384487 0.2982079 -0.58486915
00000000: d2cd 60be fe57 10bf 18c1 45be 2f90 9cbe
00000010: fc83 19bf 71db b3be 12e9 42be e9ac 18bf
00000020: ba3c 15bf df68 e4be 0bf9 0fbf 47a9 c6be
00000030: 717a 0cbf 0776 9ebe ab8b d0be ddbe 15bf
00000040: 03bd e8be 479c 01bf 7f20 dcbe 0f49 9abe
00000050: 8eac 20bf 63f0 4abf 6441 bbbe 4bbf f8be
00000060: f472 3fbf a2fc 09bf c22b 17bf 478b 95be
00000070: 0901 56bb 7bdb c4be b5ae 983e fcb9 15bf

blocks.2.bn.running_mean f4 [32]
-0.6070043 -1.6454419 -2.3543963 -0.42103606 -5.411842 1.9778582 -1.0506971 -0.8900282
0.01914936 -2.017023 -0.29930612 -0.7635938 1.6355449 -4.7234645 -2.6694133 -1.9893352
-1.6037744 -0.8221403 -2.600083 -1.8679245 -1.311423 0.020551153 -1.4345522 -3.2038908
-2.3651083 -2.558191 -3.3376193 -0.39875194 -1.6692966 -2.3562531 -0.6345636 -0.6004106
00000000: a264 1bbf d79d d2bf 6eae 16c0 0a92 d7be
00000010: cf2d adc0 752a fd3f 3e7d 86bf e3d8 63bf
00000020: 1edf 9c3c e816 01c0 a73e 99be e27a 43bf
00000030: 8959 d13f 9f26 97c0 abd7 2ac0 89a2 febf
00000040: 7b48 cdbf c977 52bf c367 26c0 2618 efbf
00000050: b5dc a7bf e45a a83c 689f b7bf 8c0c 4dc0
00000060: ef5d 17c0 67b9 23c0 8e9b 55c0 3729 ccbe
00000070: 83ab d5bf dacc 16c0 c372 22bf 82b4 19bf

blocks.2.bn.running_var f4 [32]
27.022772 13.320432 16.479631 10.734062 16.006598 11.485772 23.77058 9.057461
10.389283 21.822851 11.537512 13.243821 7.044457 25.266712 32.686073 10.371164
10.506615 12.959938 9.311688 8.75724 10.215208 10.056022 12.520912 13.676664
9.282699 8.655496 11.857826 20.52633 16.905128 17.41373 18.529562 9.72705
00000000: a32e d841 7d20 5541 49d6 8341 b8be 2b41
00000010: 830d 8041 b9c5 3741 262a be41 5ceb 1041
00000020: 813a 2641 3395 ae41 a699 3841 b1e6 5341
00000030: 316c e140 3a22 ca41 8abe 0242 4af0 2541
00000040: 181b 2841 e85b 4f41 adfc 1441 a81d 0c41
00000050: 7e71 2341 77e5 2041 a855 4841 9ed3 5a41
00000060: ef85 1441 e97c 0a41 a8b9 3d41 ed35 a441
00000070: b43d 8741 524f 8b41 8b3c 9441 ffa1 1b41

blocks.3.conv.weight f4 [32, 32, 3, 3]
-0.1643261 -0.1135982 -0.27297106 0.056478992 -0.6515653 -0.44694623 -0.25961912 -0.23799413
-0.04786607 0.065551326 0.11803624 -0.3043068 0.27235132 0.0849798 -0.018300278 0.19153269
0.18143839 0.07728633 -0.049642913 0.15700218 -0.070645064 0.09309084 0.19427179 0.12795985
-0.23067895 0.062108614 0.08411316 -0.028792879 0.1759118 0.20159125 -0.03465184 -0.6090714
-0.2229358 0.24950856 0.25096342 -0.015415209 -0.28972074 -0.21629553 -0.25939825 -0.22061795
0.1477072 -0.32187346 -0.046998788 0.11563182 -0.56780756 0.15824196 0.033003874 0.19560795
-0.34055638 0.20910917 -0.012484533 0.3685365 -0.16386609 0.10865923 0.528096 0.06563667
-0.10524755 0.35515833 0.26893768 0.029829817 0.30845702 -0.053524785 -0.17282964 -0.0348567
0.09170375 0.30566567 -0.04160127 -0.053162307 0.030513352 0.46151486 0.005444107 -0.4556626
-0.14779367 0.0016562134 0.2028675 0.24992366 -0.024402855 0.34745353 -0.08958261 0.02623046
-0.1188636 -0.21672994 -0.00289688 0.44785142 0.14320539 0.12549326 0.099690504 0.03346967
0.31818885 0.17111796 -0.2484048 0.10112166 0.2500345 0.5415091 -0.26276052 0.0598205
0.10519977 0.066790305 0.11980724 -0.05954184 -0.06312932 0.26644123 -0.12377273 0.069873154
-0.08183692 -0.35950115 -0.19046763 0.12015924 -0.3562982 -0.070701584 -0.030014286 -0.13995536
-0.043446098 0.3184709 0.10223519 -0.02661443 0.14081648 0.19815977 0.16139503 0.21982273
0.24513221 0.16410019 0.50589406 0.024744434 -0.11255029 -0.12669721 -0.18689103 -0.42998654
-0.36310914 -0.31088254 -0.12846372 -0.13356227 -0.29726037 -0.08116158 -0.46136183 -0.32563365
0.049170233 -0.14347582 -0.21077791 0.028333316 0.23923759 -0.41751206 0.06957072 0.2291482
-0.017107658 -0.33921713 -0.2697502 -0.19247901 -0.21715033 0.054864604 0.3712359 -0.042110268
-0.36019367 0.16261773 0.20676793 -0.045131985 -0.078043744 0.074963704 0.18139032 0.28015882
-0.12692502 -0.032770485 0.14537844 -0.38682717 0.08509688 0.07896053 0.009338886 -0.04791031
0.12677948 -0.078574225 0.18005677 -0.05838364 -0.010669986 -0.10650057 0.45487887 -0.012174702
0.15312766 0.2069267 -0.27032366 -0.27587423 -0.3713774 -0.016151704 -0.02520276 0.11225872
-0.11899379 0.16487268 0.030892309 0.100098565 0.039996386 0.31367058 -0.13851504 0.3519281
0.03114038 0.40899444 0.10250297 -0.087286934 0.28823143 0.014094411 -0.11404165 -0.21244405
0.033396244 -0.077070795 -0.08179021 -0.714555 -0.35295388 0.13916771 -0.09517622 -0.169345
0.05899863 0.41553977 -0.38307783 -0.36388156 -0.18073212 0.08046376 0.18872505 0.18900819
0.023666028 0.016913882 -0.23398872 -0.111049406 0.21689874 -0.3232443 -0.31610763 -0.31001046
-0.06645181 -0.24571414 -0.06348876 -0.22638834 0.066491656 -0.28847605 0.09867287 0.21236537
0.16858406 0.13860057 0.021011159 -0.32523087 -0.23051424 -0.03061927 -0.46832404 0.21537374
0.42331877 0.11370966 -0.3408096 -0.004214512 -0.07986597 0.38765267 0.09520277 0.1714563
-0.12142893 -0.16716282 -0.034905307 0.11149918 -0.099302344 0.38562477 -0.20727098 -0.28409135
00000000: 1a45 28be 2ca6 e8bd ddc2 8bbe 8456 673d
00000010: fccc 26bf 23d6 e4be ccec 84be bcb4 73be
00000020: 360f 44bd c63f 863d fcbc f13d 1ace 9bbe
00000030: a271 8b3e e409 ae3d 77ea 95bc 2521 443e
00000040: fcca 393e 4c48 9e3d 5e56 4bbd 2ec5 203e
00000050: 5cae 90bd 69a6 be3d 2fef 463e e807 033e
00000060: 1a37 6cbe 9a65 7e3d 8543 ac3d 0bdf ebbc
00000070: 3922 343e f06d 4e3e 16ef 0dbd 1aec 1bbf
00000080: 4849 64be 2c7f 7f3e 477e 803e 1390 7cbc
00000090: 4756 94be 937c 5dbe d9cf 84be ace9 61be
000000a0: 8e40 173e 99cc a4be cd81 40bd 60d0 ec3d
000000b0: d65b 11bf 2e0a 223e 122f 073d 734d 483e
000000c0: 685d aebe b720 563e ed8b 4cbc d1b0 bc3e
000000d0: 83cc 27be bb88 de3d 4d31 073f 856c 863d
000000e0: 078c d7bd 50d7 b53e 33b2 893e a95d f43c
000000f0: 14ee 9d3e ce3c 5bbd 41fa 30be e6c5 0ebd
00000100: 2dcf bb3d 3680 9c3e 1866 2abd b8c0 59bd
00000110: 23f7 f93c ad4b ec3e 7b64 b23b 9c4c e9be
00000120: 3957 17be 4d15 d93a 7fbc 4f3e fdeb 7f3e
00000130: 7fe8 c7bc 6ee5 b13e 1677 b7bd 43e1 d63c
00000140: c26e f3bd 74ee 5dbe 95d9 3dbb c84c e53e
00000150: 6fa4 123e 4e81 003e 892a cc3d 7e17 093d
00000160: a6e9 a23e 8c39 2f3e d45d 7ebe df18 cf3d
00000170: 8604 803e 57a0 0a3f 8c88 86be 5706 753d
00000180: fa72 d73d 5bc9 883d 805d f53d 25e2 73bd
00000190: f249 81bd fc6a 883e 8f7c fdbd a819 8f3d
000001a0: 1d9a a7bd 8910 b8be f209 43be 0c16 f63d
000001b0: b86c b6be fecb 90bd 85e0 f5bc 7550 0fbe
000001c0: 89f4 31bd 9e0e a33e af60 d13d 8106 dabc
000001d0: 3232 103e 65ea 4a3e bd44 253e 3619 613e
000001e0: f003 7b3e e109 283e 4682 013f d7b4 ca3c
000001f0: c480 e6bd eabc 01be 5d60 3fbe 3227 dcbe
00000200: 71e9 b9be ff2b 9fbe fe8b 03be 8cc4 08be
00000210: 8332 98be 0b38 a6bd 9e37 ecbe 74b9 a6be
00000220: ba66 493d 53eb 12be 2ad6 57be 451b e83c
00000230: b3fa 743e 24c4 d5be 187b 8e3d d3a5 6a3e
00000240: 5c25 8cbc dead adbe b31c 8abe 3819 45be
00000250: a85c 5ebe b5b9 603d a212 be3e d17b 2cbd
00000260: 4e6b b8be 4385 263e f9ba 533e 51dc 38bd
00000270: 66d5 9fbd 9286 993d 62be 393e fa70 8f3e
00000280: a2f8 01be 583a 06bd 16de 143e 360e c6be
00000290: 4647 ae3d 0fb6 a13d 2002 193c 9a3d 44bd
000002a0: 7bd2 013e 86eb a0bd cd60 383e af23 6fbd
000002b0: 2ad1 2ebc f91c dabd e2e5 e83e 6778 47bc
000002c0: 7fcd 1c3e 98e4 533e dd67 8abe 633f 8dbe
000002d0: 2e25 bebe 9450 84bc 0576 cebc e6e7 e53d
000002e0: 04b3 f3bd 62d4 283e de11 fd3c 7a00 cd3d
000002f0: 40d3 233d 6e99 a03e e3d6 0dbe ec2f b43e
00000300: 1c1a ff3c b867 d13e 14ed d13d 7ec3 b2bd
00000310: 1293 933e 3fec 663c ab8e e9bd ef8a 59be
00000320: 80ca 083d 4bd7 9dbd a081 a7bd 14ed 36bf
00000330: 5fb6 b4be fb81 0e3e c0eb c2bd c768 2dbe
00000340: 8ca8 713d a1c1 d43e c722 c4be af4e babe
00000350: d711 39be 2fca a43d 2441 413e 5d8b 413e
00000360: 42df c13c fb8e 8a3c bd9a 6fbe df6d e3bd
00000370: b41a 5e3e 4780 a5be dcd8 a1be b1b9 9ebe
00000380: e317 88bd 7d9c 7bbe 6506 82bd 58d2 67be
00000390: c72c 883d 22b3 93be 0015 ca3d 4f76 593e
000003a0: 4da1 2c3e 4fed 0d3e 981f ac3c a984 a6be
000003b0: ed0b 6cbe 43d5 fabc 2bc8 efbe ef8a 5c3e
000003c0: 3dbd d83e 9ce0 e83d 997e aebe e419 8abb
000003d0: c590 a3bd 697a c63e abf9 c23d 3e92 2f3e
000003e0: bbaf f8bd bb2c 2bbe def8 0ebd af59 e43d
000003f0: 075f cbbd 9c70 c53e d83e 54be 6c74 91be

blocks.3.conv.bias f4 [32]
0.007897796 -0.00016770343 0.0016501962 -0.0033243014 -0.00053339946 0.00032921368 -0.004570857 0.00038220154
0.00020554969 -0.00017831086 -0.00036574202 -0.0018086649 -0.0005813868 0.006796173 0.0003934314 -0.007788675
0.0006606107 7.332278e-05 -9.165709e-05 -0.004431021 0.0012857652 -0.00023937851 0.0019053614 0.0005469809
-0.008567225 0.00029896494 -0.0073018013 -0.000132367 -0.00227324 -0.0012134374 -4.021542e-05 0.00038002976
00000000: c265 013c 8cd9 2fb9 654b d83a 86dc 59bb
00000010: d5d3 0bba 509a ac39 21c7 95bb 3962 c839
00000020: d388 5739 f5f8 3ab9 10c1 bfb9 b910 edba
00000030: 3568 18ba 6eb2 de3b 7845 ce39 2438 ffbb
00000040: d52c 2d3a dec4 9938 0738 c0b8 1932 91bb
00000050: 1f87 a83a ae01 7bb9 52bd f93a 4463 0f3a
00000060: 8c5d 0cbc 65be 9c39 f343 efbb ffcb 0ab9
00000070: a3fa 14bb 340c 9fba faac 28b8 bb3e c739

blocks.3.bn.weight f4 [32]
1.040071 0.7513149 0.82802016 0.70382607 0.8533589 0.714124 0.9731553 0.9165039
0.8949678 0.9576441 0.7089875 0.9542739 1.0201063 0.9129573 0.9016245 1.1984463
1.0941195 1.035546 0.8221431 0.91392875 0.99144286 1.1898041 0.80891675 0.91776127
1.0174562 0.66586167 1.1405091 0.65907073 0.7068268 0.8459917 0.45550796 0.8748895
00000000: 0c21 853f 2c56 403f 21f9 533f f22d 343f
00000010: bb75 5a3f d5d0 363f b520 793f 00a0 6a3f
00000020: 9c1c 653f 2a28 753f 3480 353f 4b4b 743f
00000030: d892 823f 92b7 693f ddd0 663f b066 993f
00000040: 1c0c 8c3f c58c 843f f877 523f 3cf7 693f
00000050: 33cf 7d3f 804b 983f 2b15 4f3f 67f2 6a3f
00000060: 013c 823f e975 2a3f 34fc 913f dcb8 283f
00000070: 9af2 343f e992 583f 5738 e93e c2f8 5f3f

blocks.3.bn.bias f4 [32]
-0.27592897 -0.30395824 -0.42409334 -0.15508662 -0.3933377 0.007179339 -0.8559118 -0.5300184
-0.606921 -0.65606046 -0.42112386 -0.048406616 -0.5389386 -0.49959114 -0.6627794 -0.36174613
-0.6381914 -0.9181811 -0.4505266 -0.4140355 -0.39302176 -0.66647285 -0.7319564 -0.67264456
-0.5198216 -0.903057 -0.4628162 -0.29520315 -0.06737422 -0.46521464 0.35187292 -0.4657831
00000000: 9046 8dbe 6aa0 9bbe c322 d9be 07cf 1ebe
00000010: 8f63 c9be a940 eb3b 091d 5bbf 49af 07bf
00000020: 2d5f 1bbf 94f3 27bf 8c9d d7be 0446 46bd
00000030: e1f7 09bf 69ca ffbe e9ab 29bf ca36 b9be
00000040: 8360 23bf eb0d 6bbf 6cab e6be 76fc d3be
00000050: 263a c9be f79d 2abf 7f61 3bbf 6f32 2cbf
00000060: 0713 05bf be2e 67bf 3ff6 ecbe de24 97be
00000070: 7ffb 89bd 9d30 eebe b028 b43e 1f7b eebe

blocks.3.bn.running_mean f4 [32]
-2.1204917 -1.3057045 -4.475683 -1.2883794 -3.2295778 -0.4449337 0.31470168 -1.3386174
2.547257 -2.6230378 3.9742022 -0.47251782 -0.982559 -4.4769187 -1.5475788 -1.8286932
-4.8685236 -0.9490095 -1.5972562 -0.102695026 -3.5317147 0.4377784 -0.3336159 -4.554175
1.6898917 -1.2814403 -1.3415598 -0.69734925 3.180713 -2.755696 -0.11661541 -1.8783689
00000000: 23b6 07c0 5321 a7bf cc38 8fc0 9ee9 a4bf
00000010: 67b1 4ec0 5ace e3be 9420 a13e d157 abbf
00000020: 4206 2340 dadf 27c0 5459 7e40 dbed f1be
00000030: fd88 7bbf eb42 8fc0 1017 c6bf 9e12 eabf
00000040: f2ca 9bc0 49f2 72bf e472 ccbf c551 d2bd
00000050: 9d07 62c0 7e24 e03e b4cf aabe cdbb 91c0
00000060: 5f4e d83f 3c06 a4bf 3bb8 abbf 7b85 32bf
00000070: cd90 4b40 535d 30c0 0fd4 eebd 646e f0bf

blocks.3.bn.running_var f4 [32]
12.050693 11.892857 26.405968 9.492701 25.612732 18.140083 8.481666 7.656938
10.846898 7.331474 20.948732 8.333503 7.5565157 9.235621 12.205666 20.10649
10.18866 5.896484 9.96477 10.971616 9.660125 6.203323 14.110991 11.255942
10.159326 8.902297 16.823103 14.160838 14.149163 17.043411 11.834188 11.128947
00000000: a3cf 4041 2449 3e41 6c3f d341 1ae2 1741
00000010: e0e6 cc41 e41e 9141 e7b4 0741 a305 f540
00000020: e58c 2d41 6f9b ea40 0197 a741 0756 0541
00000030: face f140 1bc5 1341 684a 4341 17da a041
00000040: c004 2341 ffaf bc40 b36f 1f41 bd8b 2f41
00000050: df8f 1a41 9f81 c640 9ec6 6141 5718 3441
00000060: 998c 2241 cf6f 0e41 b795 8641 cb92 6241
00000070: f962 6241 e858 8841 d658 3d41 2b10 3241
