models/282.pth (torch, 501905 bytes, 80 tensors)

conv0.conv.weight f4 [32, 17, 3, 3]
-0.064866915 0.6457391 0.31979468 0.4301892 -0.517881 0.73345685 0.1757126 0.52131283
0.27738038 -0.03807841 0.05930811 -0.015321312 -0.10399482 -0.30538824 -0.045676947 0.16870522
0.13585386 -0.0323459 -0.05943757 -0.04875228 0.18928519 0.055919837 -0.25821778 -0.09045285
-0.07864419 0.07352497 -0.0075673386 -0.09094958 0.09980318 0.13065995 0.031386495 -0.18292898
-0.09728611 0.17403777 -0.019197792 -0.2727258 0.4320953 0.37694907 0.44469023 0.41905716
-0.6157608 0.43402368 0.4623366 0.39387947 0.15127277 0.17315285 0.39435127 0.19380227
0.2376585 -0.21012303 0.2959276 0.15203756 0.45694914 0.2023856 0.5067063 0.32765847
0.066788636 0.29505983 -0.1634871 0.36426628 0.32658786 0.32642087 0.36468735 0.33555177
0.4047027 0.2153422 0.25242656 -0.219804 0.27036875 0.25812197 0.34559348 0.44475898
-0.017940799 0.14292079 -0.11794685 0.15754981 0.4579136 0.050981797 -0.014540365 0.11359903
-0.033444364 -0.061227012 0.06989475 0.014486487 0.056157053 0.5891602 0.013434562 -0.012668919
0.018438378 0.09011702 -0.027513867 0.12226202 -0.04313885 0.059618093 0.5316786 0.050350066
-0.019146394 0.069662504 0.018102247 0.013683366 0.10690612 -0.01040209 0.08019602 0.48504445
0.10932335 -0.037943214 0.14312758 -0.053040486 0.019338712 -0.123838365 0.05985537 -0.28933895
-0.4018408 -0.15764537 -0.026919946 -0.5173523 0.1260328 -0.084223144 0.07694259 -0.085035816
0.03885311 0.054937467 -0.031072913 -0.089549474 0.14102499 0.12406142 0.28019848 0.089849666
-0.006577911 0.004534354 0.26305017 -0.09456516 0.020012144 -0.28927448 -0.0033421163 0.087064594
-0.008890791 -0.038740303 -0.18294844 0.10205442 0.08819349 0.16950223 -0.13776281 -0.09775999
-0.1560303 0.14932956 0.18183668 0.36885363 -0.011596737 0.1055456 0.056680232 0.13577382
-0.017608859 -0.3011333 0.020710438 0.049457874 -0.27062285 -0.54092175 0.47308308 0.083966
-0.014602304 -0.03384997 -0.04230443 0.27622348 -0.46850634 -0.05815774 0.20696704 -0.8930933
0.09080955 -0.22569428 -0.31192845 0.1232985 0.48256478 -0.2344334 -0.043069 0.16473094
-0.75298536 0.22704017 -0.27081242 -0.14485788 -0.4460415 0.31828618 0.032316428 0.16627121
0.4780264 -1.0509553 -0.046470895 -0.46918383 -0.19589385 -0.23371206 -0.43888098 0.17105968
-0.2599863 -0.5273597 -0.46794584 0.07466084 0.14900514 -0.18319671 -0.25053644 -0.49746025
-0.32006246 -0.037086908 -0.2696674 -0.21152115 -0.66528183 -0.5618698 -0.70141065 -0.5548812
-0.4361012 -0.5136744 -0.69450057 -0.2642614 -0.6125303 0.18340898 -0.45705914 -0.5615289
-0.40472955 -0.27128768 -0.6623711 -0.29972157 -0.2638555 -0.079108566 -0.3822189 -0.23459241
-0.2872642 -0.27648038 0.07727114 0.19640747 0.08963656 -0.43591204 0.2883806 -0.14483617
-0.085285634 -0.04750984 -0.04997122 0.28759167 0.1915941 0.015808228 -0.025767542 0.30152932
0.13026 0.09968828 0.16205224 0.06741212 0.23027942 0.23628548 0.15935516 0.14357021
0.08742307 0.042028595 0.050540686 0.164604 -0.026220972 0.15819708 0.30233923 -0.061615437
00000000: f2d8 84bd 284f 253f 21bc a33e c241 dc3e
00000010: d993 04bf d4c3 3b3f 01ee 333e c274 053f
00000020: cd04 8e3e 1bf8 1bbd 10ed 723d 3d06 7bbc
00000030: 3cfb d4bd d95b 9cbe c017 3bbd 10c1 2c3e
00000040: 461d 0b3e 227d 04bd cf74 73bd 79b0 47bd
00000050: fad3 413e 330c 653d 1f35 84be 583f b9bd
00000060: 3510 a1bd 4294 963d 70f7 f7bb c643 babd
00000070: 9c65 cc3d b9cb 053e 208f 003d bc51 3bbe
00000080: f13d c7bd f536 323e b044 9dbc b7a2 8bbe
00000090: 983b dd3e 78ff c03e 70ae e33e a98e d63e
000000a0: 80a2 1dbf 5a38 de3e 62b7 ec3e 92aa c93e
000000b0: 40e7 1a3e fb4e 313e 69e8 c93e 1a74 463e
000000c0: c05c 733e 7e2a 57be d383 973e bcaf 1b3e
000000d0: 3df5 e93e 2c3e 4f3e 81b7 013f dac2 a73e
000000e0: 7bc8 883d 1512 973e 2a69 27be 1c81 ba3e
000000f0: 8636 a73e a320 a73e 4db8 ba3e 71cd ab3e
00000100: 3135 cf3e aa82 5c3e 0e3e 813e 4d14 61be
00000110: c66d 8a3e 9028 843e a1f1 b03e 73b7 e33e
00000120: 95f8 92bc d459 123e 1e8e f1bd bd54 213e
00000130: a773 ea3e 4ad2 503d b63a 6ebc 9ca6 e83d
00000140: f5fc 08bd 2dc9 7abd fb24 8f3d bb58 6d3c
00000150: f004 663d 34d3 163f a31c 5c3c 4c91 4fbc
00000160: 150c 973c 468f b83d c364 e1bc 8364 fa3d
00000170: 5db2 30bd 1a32 743d 171c 083f df3b 4e3d
00000180: e6d8 9cbc 37ab 8e3d 2a4b 943c 3230 603c
00000190: 99f1 da3d 876d 2abc d03d a43d bf57 f83e
000001a0: ece4 df3d 586a 1bbd 0990 123e fb40 59bd
000001b0: 386c 9e3c f89e fdbd e82a 753d 3c24 94be
000001c0: 14be cdbe ca6d 21be 3887 dcbc 3371 04bf
000001d0: be0e 013e 2f7d acbd 1494 9d3d 4227 aebd
000001e0: 7024 1f3d 1c06 613d 9f8c febc b765 b7bd
000001f0: db68 103e ea13 fe3d 2d76 8f3e 1a03 b83d
00000200: 848b d7bb eb94 943b 83ae 863e 61ab c1bd
00000210: 82f0 a33c c91b 94be 6807 5bbb ec4e b23d
00000220: aeaa 11bc 27ae 1ebd d656 3bbe e801 d13d
00000230: ca9e b43d fe91 2d3e b211 0dbe 6436 c8bd
00000240: 68c6 1fbe d9e9 183e 6533 3a3e 62da bc3e
00000250: 3e00 3ebc 4b28 d83d 8829 683d 4b08 0b3e
00000260: 7440 90bc 252e 9abe f0a8 a93c 5794 4a3d
00000270: 148f 8abe d979 0abf f237 f23e 5ef6 ab3d
00000280: 813e 6fbc 44a6 0abd 6947 2dbd 2a6d 8d3e
00000290: 10e0 efbe cf36 6ebd 2bef 533e c3a1 64bf
000002a0: 5bfa b93d 671c 67be 16b5 9fbe ed83 fc3d
000002b0: bb12 f73e 4f0f 70be 1f69 30bd 3aaf 283e
000002c0: a6c3 40bf 387d 683e eda7 8abe a055 14be
000002d0: 8d5f e4be 68f6 a23e 3b5e 043d 0043 2a3e
000002e0: e0bf f43e b485 86bf 4458 3ebd dd38 f0be
000002f0: 6698 48be 3752 6fbe 02b5 e0be 452a 2f3e
00000300: ed1c 85be 0c01 07bf 9996 efbe c8e7 983d
00000310: ce94 183e eb97 3bbe 5046 80be 1cb3 febe
00000320: 3adf a3be 71e8 17bd d811 8abe 0099 58be
00000330: e94f 2abf b3d6 0fbf a68f 33bf b20c 0ebf
00000340: a848 dfbe 2a80 03bf caca 31bf 454d 87be
00000350: c9ce 1cbf 90cf 3b3e a803 eabe 5cc0 0fbf
00000360: b638 cfbe 38e6 8abe 2791 29bf 1b75 99be
00000370: 1118 87be ac03 a2bd 32b2 c3be fe38 70be
00000380: 4b14 93be d68e 8dbe 5540 9e3d 0a1f 493e
00000390: 5f93 b73d dd2f dfbe 9fa6 933e ef4f 14be
000003a0: 3caa aebd ae99 42bd 9fae 4cbd 373f 933e
000003b0: 3e31 443e 4280 813c 7416 d3bc 0d62 9a3e
000003c0: e162 053e 5e29 cc3d 06f1 253e 5e0f 8a3d
000003d0: 5ece 6b3e d2f4 713e 002e 233e 1204 133e
000003e0: de0a b33d 2d26 2c3d c003 4f3d f38d 283e
000003f0: 5dcd d6bc 6afe 213e 35cc 9a3e 7860 7cbd

conv0.conv.bias f4 [32]
-0.00710965 -0.00040669538 -0.031376623 0.0032874478 -0.0020574278 -0.02272247 -0.014538507 -0.0018810101
-0.014284308 0.0027973247 -0.0031175746 -0.020632174 0.0027543204 0.0040731644 -0.0021074202 0.0019138053
0.004411054 0.013078769 -0.004560788 0.0034452076 0.005630926 -0.023636406 0.021692898 -0.004201555
-0.03635537 0.0005387099 0.00022547257 0.04520858 0.003811055 -0.011516631 -0.00557893 0.0029275224
00000000: 11f8 e8bb bb39 d5b9 c684 00bd 3972 573b
00000010: e9d5 06bb 7924 babc eb32 6ebc 3a8c f6ba
00000020: bb08 6abc 5253 373b 3950 4cbb ce04 a9bc
00000030: d481 343b 2e78 853b a51c 0abb a6d8 fa3a
00000040: 9a8a 903b 5548 563c aa72 95bb fec8 613b
00000050: a283 b83b 23a1 c1bc 4eb5 b13c 33ad 89bb
00000060: 5ee9 14bd 3638 0d3a d56c 6c39 a22c 393d
00000070: e5c2 793b 40b0 3cbc 75cf b6bb addb 3f3b

conv0.bn.weight f4 [32]
0.91820794 0.63764554 0.57209027 0.6792475 0.6399926 0.52402055 0.61618507 0.7629031
0.97064155 0.7512602 0.5777542 0.36182436 0.6041716 0.9818471 0.6759696 0.90554214
0.6539202 1.3487223 0.7854321 0.66965187 0.6796373 0.97321224 0.8591517 0.6053004
0.79378766 0.6939449 0.7551145 0.7463563 1.0444984 0.51785326 0.5181888 0.5129504
00000000: ad0f 6b3f bd3c 233f 8274 123f 2ae3 2d3f
00000010: 8ed6 233f 3626 063f 4ebe 1d3f 9e4d 433f
00000020: f77b 783f 9752 403f b3e7 133f 0b41 b93e
00000030: fdaa 1a3f 555a 7b3f 580c 2d3f 9cd1 673f
00000040: 5067 273f efa2 ac3f 1412 493f 4e6e 2b3f
00000050: b6fc 2d3f 7024 793f 5ef1 5b3f f8f4 1a3f
00000060: ab35 4b3f 5fa6 313f 2f4f 413f 3511 3f3f
00000070: 20b2 853f 0892 043f 05a8 043f b850 033f

conv0.bn.bias f4 [32]
-0.6027947 0.0069792415 -0.14675048 -0.46072993 -0.24538659 0.030903365 0.036090553 -0.51156944
-0.14716011 -0.4484174 -0.34324554 0.34844837 -0.27224573 -0.41603342 -0.3116423 -0.03770502
0.009414284 -0.26832458 -0.35250404 -0.26174626 -0.24901822 0.11980458 -0.29051057 -0.22850351
-0.17732646 -0.4955936 -0.36221945 -0.07115184 -0.1338241 0.6369646 -0.17631336 0.07406585
00000000: c150 1abf 1fb2 e43b c245 16be cbe4 ebbe
00000010: 9f46 7bbe 0e29 fd3c b0d3 133d 37f6 02bf
00000020: 24b1 16be f796 e5be e1bd afbe d367 b23e
00000030: cb63 8bbe 5502 d5be 948f 9fbe 9470 1abd
00000040: 5e3e 1a3c d761 89be 697b b4be 9b03 86be
00000050: a2fe 7ebe 1b5c f53d cdbd 94be d3fc 69be
00000060: 1195 35be 72be fdbe d474 b9be 0eb8 91bd
00000070: 2f09 09be 1d10 233f 7d8b 34be d6af 973d

conv0.bn.running_mean f4 [32]
0.38090885 0.095200606 -0.22054513 -0.17226595 -0.157879 -0.029637385 -0.4177783 0.40491518
-0.3303104 -0.1835944 -0.088286065 -0.0047619473 -0.13446987 -0.0711832 0.10055634 0.4001042
0.27227697 -0.23326893 -0.27323255 -0.09046172 0.05181671 -0.09167675 -0.19156538 0.26327854
-0.19564857 -0.16244654 -0.11500021 -0.060771156 0.33746642 0.18226671 -0.110184625 0.3232573
00000000: 7c06 c33e 89f8 c23d 95d6 61be 7c66 30be
00000010: 08ab 21be 1aca f2bc 0ae7 d5be 0b51 cf3e
00000020: 721e a9be 2c00 3cbe 53cf b4bd 1c0a 9cbb
00000030: 78b2 09be 7fc8 91bd 7bf0 cd3d 75da cc3e
00000040: e367 8b3e 0dde 6ebe 23e5 8bbe ff43 b9bd
00000050: c23d 543d 05c1 bbbd b729 44be 72cc 863e
00000060: 1958 48be 6358 26be 3b85 ebbd 2deb 78bd
00000070: 66c8 ac3e 20a4 3a3e 7aa8 e1bd fb81 a53e

conv0.bn.running_var f4 [32]
0.16694349 0.22326916 0.38449934 0.2984968 0.26152015 0.2642612 0.4020478 0.18483913
0.35982582 0.28314906 0.21770279 0.24308573 0.237029 0.16056319 0.22019139 0.21359628
0.16292983 0.24031188 0.2853275 0.23031227 0.32112005 0.24323459 0.19233915 0.21966298
0.19696546 0.2983763 0.2521076 0.17701812 0.23070909 0.17390563 0.23748936 0.24063921
00000000: 3cf3 2a3e aca0 643e 19dd c43e 93d4 983e
00000010: f8e5 853e 3e4d 873e 36d9 cd3e 7846 3d3e
00000020: 173b b83e eaf8 903e 7bed 5e3e 77eb 783e
00000030: bbb7 723e ad6a 243e da79 613e fcb8 5a3e
00000040: 14d7 263e 5114 763e 7216 923e fbd6 6b3e
00000050: d969 a43e 7d12 793e 8ef4 443e 55ef 603e
00000060: 50b1 493e c7c4 983e 3f14 813e 3d44 353e
00000070: 013f 6c3e 5114 323e 6930 733e 206a 763e

blocks.0.conv.weight f4 [32, 32, 3, 3]
0.32858193 -0.15350012 0.32703784 -0.33090273 0.20030315 -0.21983477 0.23363513 -0.15564062
0.20352814 0.08995317 0.04766367 -0.32977295 -0.11590445 -0.107555285 0.12492743 0.06546587
-0.078462824 -0.21552047 0.20680292 -0.40936258 -0.05001615 0.1753945 -0.11826917 0.081500426
0.21678662 -0.07016331 -0.05194369 0.14438489 0.111229464 0.07469632 0.04483894 0.3688583
0.024774699 -0.10822611 -0.30425748 0.104406126 0.045357626 0.1331239 -0.0770844 -0.005413607
0.2883615 -0.20339967 -0.07498942 0.33001673 0.0044990373 -0.06336676 -0.15356515 0.108261965
-0.036663502 -0.06571367 0.16263463 0.18180898 0.29311988 0.11777131 0.21572615 0.06434552
-0.09338224 -0.07103973 0.15260066 -0.17675355 0.11221922 -0.025773823 -0.36569488 0.312651
0.54960936 0.4749225 -0.13369004 0.42138466 0.08363829 0.26448193 0.08445498 0.43611613
0.23362623 -0.4908723 0.049404517 0.016944267 0.37702826 0.23926167 0.1419856 0.37673354
-0.25681219 -0.095112495 -0.10251953 -0.2703467 -0.07375081 0.4157431 -0.2035636 0.24735631
-0.07502578 -0.17709295 0.14545113 0.14376694 -0.1417859 -0.17965999 0.2696048 -0.09616391
0.062904224 0.120089635 0.08334194 0.12151842 -0.05062177 0.36403647 -0.42047945 0.0027688793
-0.0066978796 0.16504055 0.010252013 0.069330774 -0.38793522 -0.11683012 0.3176458 0.15963475
0.071164034 0.14030884 -0.09480439 0.36617973 0.086050905 -0.17198128 -0.30351394 -0.31383646
0.053584546 -0.529837 -0.21916349 0.011766738 -0.2328364 0.1697525 -0.27763453 0.20314662
-0.5081564 0.22771743 -0.22862065 -0.09966801 -0.09479288 -0.29475182 0.076238774 0.2679278
0.18350995 0.21470237 0.26421845 -0.038483005 0.0005548134 -0.000859658 0.019397875 0.23713319
-0.09745553 0.141752 0.15444368 0.12112512 -0.09679324 0.025927357 -0.03966569 0.08714082
0.178505 -0.08064649 0.28097305 0.13808732 0.25744027 -1.9077954 0.29362324 0.33372575
0.13806497 -0.0150809 0.12057427 -0.32711932 0.50535744 0.3350286 -0.3696877 -0.044485655
-0.5232374 0.25750983 0.10867757 0.16197531 -0.26855892 -0.2722238 0.011067736 -0.18709195
-0.045305595 0.04850536 -0.33099878 -0.0016758573 -0.056256115 -0.0009815714 0.20932844 0.06797869
-0.37431642 0.0040796637 0.013773111 -0.007932703 -0.061740212 0.104810335 0.28216925 0.04716304
0.20406182 -0.32986304 0.3065052 0.29282868 0.43545145 0.13314177 -0.031468224 0.22251968
0.08464545 -0.49974653 0.44021693 0.102208085 0.09809992 -0.5170315 -0.012730627 0.0710337
0.055339072 0.13873307 -0.11199814 -0.13410842 0.02489521 -0.13170247 0.16973194 0.13562907
0.13709728 0.039774697 0.23202777 0.2249579 0.11978939 0.12353167 0.082573675 0.04206095
0.13012965 0.05062709 -0.20520854 -0.012975709 0.01765655 0.10981527 -0.38006684 -0.5003164
-0.36226606 0.17245892 0.11091279 0.06584069 0.14147115 -0.12917095 -0.28241795 0.07196628
0.11007368 0.5334138 -0.2524074 0.16543464 -0.17367344 -0.06627362 0.13377827 -0.29600835
-0.050951045 0.10611948 0.07338645 0.09449611 0.07062415 -0.2412646 0.07793296 -0.17699544
00000000: e43b a83e 232f 1dbe 8171 a73e 156c a9be
00000010: 451c 4d3e 5e1c 61be 0c3e 6f3e 4160 1fbe
00000020: ae69 503e 5e39 b83d fb3a 433d 00d8 a8be
00000030: 505f edbd f245 dcbd f4d9 ff3d f812 863d
00000040: 1eb1 a0bd 66b1 5cbe 25c4 533e f997 d1be
00000050: bcdd 4cbd 9e9a 333e 1b37 f2bd b2e9 a63d
00000060: 50fd 5d3e c8b1 8fbd e8c2 54bd a2d9 133e
00000070: 46cc e33d 62fa 983d 09a9 373d ffda bc3e
00000080: 4ff4 ca3c a7a5 ddbd a3c7 9bbe e1d2 d53d
00000090: ebc8 393d a251 083e 6dde 9dbd a164 b1bb
000000a0: 1ea4 933e 0148 50be 0e94 99bd f4f7 a83e
000000b0: a96c 933b 6fc6 81bd 2f40 1dbe 73b8 dd3d
000000c0: 782c 16bd e394 86bd b189 263e 222c 3a3e
000000d0: cf13 963e 1632 f13d 51e7 5c3e 96c7 833d
000000e0: 303f bfbd 477d 91bd 5943 1c3e e2fe 34be
000000f0: 31d3 e53d a023 d3bc 5c3c bbbe cb13 a03e
00000100: 33b3 0c3f 0b29 f33e 0be6 08be bbbf d73e
00000110: 8d4a ab3d 2d6a 873e bcf6 ac3d 9d4a df3e
00000120: b73b 6f3e 9d53 fbbe 645c 4a3d b4ce 8a3c
00000130: d909 c13e 0301 753e ac64 113e 38e3 c03e
00000140: e37c 83be 57ca c2bd c2f5 d1bd e26a 8abe
00000150: aa0a 97bd 48dc d43e fa72 50be f94a 7d3e
00000160: 1ea7 99bd db57 35be 24f1 143e a437 133e
00000170: 5330 11be caf8 37be a409 8a3e 96f1 c4bd
00000180: eed3 803d 8ef1 f53d 2eaf aa3d a6de f83d
00000190: c658 4fbd fd62 ba3e 1549 d7be 1676 353b
000001a0: e379 dbbb 6400 293e 0ff8 273c 4bfd 8d3d
000001b0: 729f c6be a144 efbd 78a2 a23e 4b77 233e
000001c0: 73be 913d 1fad 0f3e ce28 c2bd e97b bb3e
000001d0: 753b b03d dc1b 30be 2e66 9bbe 2caf a0be
000001e0: 787b 5b3d 66a3 07bf 656c 60be 47c9 403c
000001f0: aa6c 6ebe 99d3 2d3e 1d26 8ebe ab05 503e
00000200: 8a16 02bf c22e 693e 881b 6abe be1e ccbd
00000210: c522 c2bd b6e9 96be 1323 9c3d d52d 893e
00000220: 08ea 3b3e f0da 5b3e a447 873e 5ba0 1dbd
00000230: e670 113a ac5a 61ba 4be8 9e3c 0bd3 723e
00000240: c496 c7bd 7027 113e 7c26 1e3e 7210 f83d
00000250: 893b c6bd 9c65 d43c 7e78 22bd e376 b23d
00000260: 04ca 363e fd29 a5bd b3db 8f3e c366 0d3e
00000270: 36cf 833e a432 f4bf c955 963e 1ade aa3e
00000280: e760 0d3e e115 77bc a5ef f63d 2f7c a7be
00000290: 1b5f 013f de88 ab3e b547 bdbe 9736 36bd
000002a0: e3f2 05bf 54d8 833e 5992 de3d dbdc 253e
000002b0: 8e80 89be eb60 8bbe 7355 353c 0895 3fbe
000002c0: 5c92 39bd 8ead 463d ac78 a9be 71a8 dbba
000002d0: d06c 66bd 12a8 80ba 325a 563e 6938 8b3d
000002e0: 67a6 bfbe b3ae 853b 9da8 613c 2bf8 01bc
000002f0: 4ee3 7cbd cda6 d63d 7d78 903e 082e 413d
00000300: 95f5 503e cfe3 a8be 40ee 9c3e a4ed 953e
00000310: 7ef3 de3e 5156 083e d3e4 00bd 33dc 633e
00000320: 985a ad3d c7de ffbe 1d64 e13e 7952 d13d
00000330: 9ce8 c83d 2d5c 04bf 1f94 50bc 1e7a 913d
00000340: 39ab 623d 0b10 0e3e 485f e5bd b853 09be
00000350: 0af1 cb3c 03dd 06be 36ce 2d3e 59e2 0a3e
00000360: 3b63 0c3e cbea 223d b098 6d3e 5d5b 663e
00000370: 2454 f53d 2cfe fc3d 631c a93d 1a48 2c3d
00000380: b540 053e 5a5e 4f3d 3022 52be 1198 54bc
00000390: 78a4 903c d4e6 e03d 1f98 c2be bc14 00bf
000003a0: f07a b9be 1299 303e 3f26 e33d 7cd7 863d
000003b0: d0dd 103e 6445 04be 1699 90be 0f63 933d
000003c0: 4f6e e13d cf8d 083f 8b3b 81be b367 293e
000003d0: 73d7 31be 77ba 87bd 2cfd 083e 688e 97be
000003e0: 0bb2 50bd 2c55 d93d a34b 963d 2d87 c13d
000003f0: 65a3 903d 110e 77be 519b 9f3d 4b3e 35be

blocks.0.conv.bias f4 [32]
0.00038247573 -0.010008712 2.925131e-06 0.001378369 0.0014110716 -0.0059095942 -0.004676308 0.0074209794
-0.00028403223 0.007515046 -0.00026501724 0.0014779206 -5.5943685e-05 -0.0008227606 0.0010559891 0.00062455144
-0.00016526865 -0.0044542872 0.0006807262 0.0008238086 -0.0009823298 0.018716251 0.0004897984 0.001179476
0.012889219 0.0001350301 -5.6656474e-05 0.0008925318 0.00019500304 0.0033079907 0.007282563 -0.00039662892
00000000: 0687 c839 95fb 23bc 5e4d 4436 64aa b43a
00000010: b5f3 b83a 45a5 c1bb b73b 99bb b02b f33b
00000020: 29ea 94b9 c640 f63b 03f2 8ab9 c9b6 c13a
00000030: 13a5 6ab8 87ae 57ba 1d69 8a3a f0b8 233a
00000040: f74b 2db9 45f5 91bb c372 323a dcf4 573a
00000050: 85c1 80ba d352 993c d065 003a a698 9a3a
00000060: 4e2d 533c de96 0d39 6da2 6db8 ccf8 693a
00000070: bb79 4c39 e0ca 583b 91a2 ee3b a2f2 cfb9

blocks.0.bn.weight f4 [32]
0.86168635 0.79375905 0.72331333 1.0001416 1.1206855 0.76038074 0.67052305 0.8500445
0.81450915 0.9661979 0.85692567 1.0471793 0.85068184 0.8079368 0.7689413 0.7545183
1.0311408 1.0509298 0.7828012 1.019702 0.83630395 0.6606581 0.9701805 0.9447639
0.80426085 0.8740375 0.9629801 1.1729698 0.70179665 0.6350473 0.6023692 0.97058743
00000000: 7a97 5c3f cb33 4b3f 102b 393f a404 803f
00000010: 9f72 8f3f 50a8 423f 66a7 2b3f 849c 593f
00000020: ac83 503f bf58 773f 7b5f 5b3f f909 863f
00000030: 49c6 593f f2d4 4e3f 56d9 443f 1c28 413f
00000040: 6cfc 833f de84 863f a965 483f 9885 823f
00000050: 0418 563f e420 293f c05d 783f 0cdc 713f
00000060: 0ae4 4d3f ecc0 5f3f dd85 763f e023 963f
00000070: f2a8 333f 7692 223f de34 1a3f 6b78 783f

blocks.0.bn.bias f4 [32]
-0.68977493 -0.43051085 0.14605407 -0.22461957 -0.3743214 -0.19432196 -0.21624123 -0.28969657
-0.45334354 -0.25428545 -0.5611407 -0.5297939 -0.5143296 -0.6413035 -0.141541 -0.6869507
-0.50024176 -0.34130654 -0.26414096 -0.590014 -0.5186637 -0.29965532 -0.84801805 -0.33097562
-0.005118497 -0.49328366 -0.48055416 -0.6488206 -0.56147134 -0.28148073 0.016882768 -0.8651229
00000000: 1795 30bf eb6b dcbe 338f 153e ac02 66be
00000010: 0ea7 bfbe 56fc 46be 576e 5dbe 1c53 94be
00000020: a51c e8be b431 82be eba6 0fbf 93a0 07bf
00000030: 1bab 03bf 772c 24bf 20f0 10be 00dc 2fbf
00000040: d80f 00bf bbbf aebe 7c3d 87be 280b 17bf
00000050: 25c7 04bf 6c6c 99be b617 59bf a375 a9be
00000060: 11b9 a7bb ad8f fcbe 320b f6be 1b19 26bf
00000070: 96bc 0fbf 3e1e 90be bb4d 8a3c b278 5dbf

blocks.0.bn.running_mean f4 [32]
1.7674589 -4.322895 2.7737093 0.469597 -2.1448228 -4.8858833 -2.996978 -1.8950347
1.6318579 -2.393145 -2.269047 -1.495529 -2.354007 1.1283071 2.1768978 -1.3337681
-0.15763931 -1.3170341 2.7987585 -2.011666 0.15484151 -2.1261623 -1.7254305 0.9357237
-1.5558515 -1.583172 -0.24922535 -0.33244067 -3.993548 1.3029346 0.55150616 -5.2558017
00000000: 183c e23f 2855 8ac0 7484 3140 056f f03e
00000010: c744 09c0 2859 9cc0 7dce 3fc0 7f90 f2bf
00000020: b8e0 d03f 4a29 19c0 1138 11c0 7f6d bfbf
00000030: 0da8 16c0 5e6c 903f 4b52 0b40 eab8 aabf
00000040: 336c 21be 9394 a8bf dc1e 3340 23bf 00c0
00000050: c68e 1e3e 0b13 08c0 e8da dcbf 978b 6f3f
00000060: 2426 c7bf 61a5 cabf ee34 7fbe aa35 aabe
00000070: 4a96 7fc0 90c6 a63f 822f 0d3f 872f a8c0

blocks.0.bn.running_var f4 [32]
3.6237004 5.240637 7.423536 4.7089095 10.981646 7.7474103 6.7957954 3.861665
3.982089 3.936848 4.052969 5.8220577 4.2293334 4.9836206 6.268617 4.009341
3.7420762 8.060792 3.545435 4.2675543 2.9829886 7.2394 3.941221 5.006801
12.214101 3.852412 4.7686524 5.9615254 7.94705 4.259797 5.5087824 5.6827526
00000000: b5ea 6740 4cb3 a740 9b8d ed40 63af 9640
00000010: d2b4 2f41 c9ea f740 2877 d940 8525 7740
00000020: 8cda 7e40 51f5 7b40 ecb1 8140 4c4e ba40
00000030: b356 8740 d279 9f40 8398 c840 854c 8040
00000040: 2d7e 6f40 01f9 0041 68e8 6240 ce8f 8840
00000050: 49e9 3e40 2aa9 e740 f73c 7c40 b737 a040
00000060: f56c 4341 eb8d 7640 cd98 9840 d1c4 be40
00000070: 3c4e fe40 4250 8840 f247 b040 1cd9 b540

blocks.1.conv.weight f4 [32, 32, 3, 3]
0.1505468 0.015303006 0.060147647 -0.44140002 0.31287926 -0.14217891 0.10573385 -0.5291181
0.09414421 0.04950571 0.34142554 -0.15275426 -0.013665853 0.044486646 -0.063190825 -0.19821635
0.42548347 0.03764881 0.009865344 -0.20920911 0.12646705 -0.24693936 -0.70264095 -0.0666449
-0.019059693 0.14712529 0.18340097 0.2491071 -0.1714867 0.18509741 -0.04361165 0.55109376
-0.13780223 0.009952469 -0.5815719 -0.22377221 0.17100826 0.23782927 -0.39663276 0.025822168
-0.2586551 -0.24914154 0.08337939 -0.019835321 -0.07113573 -0.30824727 -0.019347556 0.3952835
0.0037447666 0.26641414 0.15846464 0.1346766 0.13372174 0.37258935 -0.064376675 0.14039525
-0.43114495 -0.13654391 -0.04088692 -0.1978297 0.07730941 0.238558 -0.0786446 -0.060024064
-0.76369536 0.042656735 -0.00974541 0.13300341 -0.46997008 -0.10233216 -0.33879453 0.19212922
-0.037984695 -0.1442079 -0.08342645 0.01270884 -0.00069748977 -0.17060786 0.05656995 -0.17678754
0.268222 -0.035170283 -0.1103465 -0.18124133 0.54421693 0.16386196 -0.2660506 0.13668406
-0.09774576 -0.017128805 0.08140436 -0.11044474 0.05474201 -0.0331751 -0.17322206 0.08911686
0.15406977 -0.021482602 -0.19755913 0.17543103 -0.04396815 0.1840837 -0.08586398 0.15390323
0.04349103 -0.12160327 -0.45333228 0.1117985 -0.27122805 0.27752122 -0.027712729 -0.22063361
0.20506169 0.0016030436 -0.092553265 -0.025107155 0.20030795 -0.09866587 -0.34948742 -0.30204445
-0.16527398 -0.62980956 0.13226858 -0.04123649 0.2038439 0.13643236 0.2574918 -0.1544497
-0.14363681 0.08087278 -0.4560537 0.255214 -0.06442925 -0.29507905 0.097873 -0.14065814
0.17991368 0.20674397 -0.21650225 0.18429081 0.007429199 -0.26557028 -0.18641035 0.09240385
0.27247527 -0.5563215 0.19444536 -0.07144522 -0.32351717 0.047655232 -0.28623334 -0.018428493
-0.14301623 0.25972897 -0.025156144 -0.18674037 -0.45335984 -1.1414427 -0.08083029 0.10632327
-0.33344436 -0.15470327 0.11115977 0.29665875 -0.14141726 0.10362203 0.07826876 0.102753475
-0.069313996 0.22310133 -0.1197704 -0.15549475 -0.072036326 -0.21729569 -0.02369485 0.14525418
0.11955107 -0.5386342 -0.37674293 -0.6577081 0.1417764 -0.34497878 0.13886648 -0.017340168
-0.116546676 0.33392853 -0.12407564 -0.05074024 0.049703564 -0.045384806 0.0016493896 -0.25464758
-0.07682156 -0.55115366 -0.08437431 -0.10986743 0.00012392091 -0.23566881 -0.08164707 -0.24083142
0.37085804 0.002886964 -0.15430635 -0.43778944 -0.079942666 -0.20245445 -0.09123609 -0.28096676
-0.06794794 0.23393379 -0.5660608 -0.48162538 0.052251365 0.0774717 -0.33413857 -0.24872312
0.16262154 -0.080590054 -0.25650263 -0.069756866 -0.2895411 -0.36908773 -0.051075637 0.20642053
-0.32111123 -0.091417186 0.023223083 -0.109667934 -0.21693003 0.012831224 -0.06337178 -0.5453613
0.14639226 0.005870837 0.2746644 0.25526866 0.4783446 0.0064704777 -0.4285607 -0.16790046
-0.3062992 0.12154499 -0.33830288 0.20374817 -0.017890641 -0.21204536 -0.18650198 -0.3717818
0.36222544 0.25561997 -0.073387586 0.11098085 -0.15809473 -0.13238151 0.23899114 -0.55576915
00000000: f128 1a3e 76b9 7a3c 615d 763d 2fff e1be
00000010: b631 a03e 5997 11be fd8a d83d 4974 07bf
00000020: aece c03d 80c6 4a3d 54cf ae3e 9d6b 1cbe
00000030: bee6 5fbc a137 363d 316a 81bd 3af9 4abe
00000040: f8d8 d93e a335 1a3d 40a2 213c ea3a 56be
00000050: 9480 013e acdd 7cbe 47e0 33bf 1f7d 88bd
00000060: 1323 9cbc 03a8 163e 77cd 3b3e ee15 7f3e
00000070: 369a 2fbe 2d8a 3d3e 21a2 32bd 7b14 0d3f
00000080: 071c 0dbe ae0f 233c e5e1 14bf 8b24 65be
00000090: ca1c 2f3e 8489 733e 7313 cbbe 0389 d33c
000000a0: 716e 84be f61e 7fbe d0c2 aa3d af7d a2bc
000000b0: 9caf 91bd 96d2 9dbe c47e 9ebc 9962 ca3e
000000c0: c26a 753b 6f67 883e 8e44 223e aae8 093e
000000d0: 5aee 083e 08c4 be3e ebd7 83bd c6c3 0f3e
000000e0: 08bf dcbe 2bd2 0bbe 0b79 27bd de93 4abe
000000f0: 6554 9e3d 8c48 743e 6c10 a1bd cbdb 75bd
00000100: 8a81 43bf d4b8 2e3d 36ab 1fbc 0c32 083e
00000110: eb9f f0be 8693 d1bd 7a76 adbe 86bd 443e
00000120: d795 1bbd 3cab 13be 7ddb aabd bd38 503c
00000130: bfd7 36ba d4b3 2ebe e4b5 673d cb07 35be
00000140: 6554 893e b70e 10bd 59fd e1bd 5497 39be
00000150: cd51 0b3f 6ecb 273e c937 88be e8f6 0b3e
00000160: ee2e c8bd b551 8cbc 54b7 a63d da30 e2bd
00000170: 2839 603d 9de2 07bd 2061 31be e682 b63d
00000180: 77c4 1d3e 48fc afbc f14c 4abe 31a4 333e
00000190: f217 34bd 7080 3c3e 74d9 afbd cf98 1d3e
000001a0: a623 323d 230b f9bd 2b1b e8be 9df6 e43d
000001b0: 67de 8abe 4317 8e3e ce05 e3bc c7ed 61be
000001c0: b1fb 513e 381d d23a 918c bdbd 85ad cdbc
000001d0: 871d 4d3e 5511 cabd 04f0 b2be 92a5 9abe
000001e0: 953d 29be 333b 21bf 6a71 073e 98e7 28bd
000001f0: 75bc 503e edb4 0b3e f7d5 833e 1028 1ebe
00000200: 8715 13be a1a0 a53d df7f e9be 69ab 823e
00000210: 7cf3 83bd 9a14 97be a471 c83d b008 10be
00000220: 4b3b 383e b1b4 533e c4b2 5dbe bbb6 3c3e
00000230: a370 f33b d4f8 87be 5be2 3ebe 3b3e bd3d
00000240: e181 8b3e 166b 0ebf af1c 473e df51 92bd
00000250: 0ba4 a5be 2232 433d 2d8d 92be 5af7 96bc
00000260: d972 12be 32fb 843e 4214 cebc de38 3fbe
00000270: c81e e8be cb1a 92bf 5a8a a5bd 04c0 d93d
00000280: 38b9 aabe 896a 1ebe bca7 e33d a8e3 973e
00000290: b0cf 10be c937 d43d 5f4b a03d 6a70 d23d
000002a0: 7ff4 8dbd ad74 643e 2f4a f5bd 043a 1fbe
000002b0: c887 93bd c382 5ebe b41b c2bc 83bd 143e
000002c0: 31d7 f43d eee3 09bf 73e4 c0be 8f5f 28bf
000002d0: d52d 113e 0fa1 b0be 0433 0e3e f80c 8ebc
000002e0: 06b0 eebd aef8 aa3e 5f1b febd ffd4 4fbd
000002f0: f795 4b3d 6be5 39bd 5530 d83a 2b61 82be
00000300: 9f54 9dbd 6818 0dbf 70cc acbd 2d02 e1bd
00000310: c4f0 0139 2a53 71be 9436 a7bd 839c 76be
00000320: 1be1 bd3e 3833 3d3b 7c02 1ebe f025 e0be
00000330: fbb8 a3bd 3850 4fbe fdd9 babd e0da 8fbe
00000340: 4a28 8bbd 578c 6f3e 5ce9 10bf 9a97 f6be
00000350: 8705 563d 7ca9 9e3d 3614 abbe 46b1 7ebe
00000360: 4386 263e 660c a5bd 5054 83be b0dc 8ebd
00000370: bb3e 94be 11f9 bcbe b034 51bd e75f 533e
00000380: b168 a4be ef38 bbbd 563e be3c 9599 e0bd
00000390: e822 5ebe 0e3a 523c 10c9 81bd cc9c 0bbf
000003a0: dae7 153e 2660 c03b d0a0 8c3e 93b2 823e
000003b0: 95e9 f43e 4d06 d43b 4f6c dbbe 19ee 2bbe
000003c0: 40d3 9cbe 94ec f83d 0936 adbe 5ca3 503e
000003d0: 658f 92bc 6b22 59be 60fa 3ebe 2f5a bebe
000003e0: 9d75 b93e 9fe0 823e 3b4c 96bd ee49 e33d
000003f0: 96e3 21be 058f 07be 18ba 743e e346 0ebf

blocks.1.conv.bias f4 [32]
0.005186564 -8.204013e-05 -0.00035034172 -0.016834056 0.023359615 0.0038457222 -0.0070886537 -0.00012889758
0.007826075 0.0001754799 0.00026198334 0.008037315 0.00017141446 -0.00036247057 -0.003885778 0.009466116
0.00017985384 -0.0023329624 0.00053119124 -0.0051404843 -0.00027805901 -0.006220994 0.000585436 -0.00030977908
-0.0035917761 0.0011054735 0.002123957 0.0031681445 -0.000806923 0.00036018362 0.00063958956 0.00069644686
00000000: 0df4 a93b f60c acb8 12ae b7b9 93e7 89bc
00000010: aa5c bf3c 8308 7c3b f047 e8bb ae28 07b9
00000020: f038 003c 0701 3839 cf5a 8939 f1ae 033c
00000030: b8bd 3339 fa09 beb9 89a8 7ebb c517 1b3c
00000040: 2697 3c39 9de4 18bb a43f 0b3a 8271 a8bb
00000050: 73c8 91b9 7bd9 cbbb f277 193a d869 a2b9
00000060: 0164 6bbb 89e5 903a 1632 0b3b a5a0 4f3b
00000070: b087 53ba 07d7 bc39 21aa 273a c291 363a

blocks.1.bn.weight f4 [32]
0.65707445 0.90027404 0.6319547 0.9951125 1.0083792 0.7233529 0.6432334 0.7924356
0.99817455 0.90263 0.8550749 0.9723448 1.192166 0.9115977 1.0601507 1.0397122
1.117224 0.80876845 0.88411564 0.8705898 0.9858043 0.8704386 1.2205845 1.193676
0.8830796 1.2390734 1.0450807 0.87218076 0.7691287 0.7508789 0.56050235 1.1545352
00000000: 0836 283f 5c78 663f c9c7 213f b1bf 7e3f
00000010: 9212 813f a82d 393f f2aa 243f 0fdd 4a3f
00000020: 5e88 7f3f c212 673f 30e6 5a3f 97eb 783f
00000030: e598 983f 785e 693f 05b3 873f 4a15 853f
00000040: 3201 8f3f 730b 4f3f 6755 623f f9de 5e3f
00000050: ac5d 7c3f 10d5 5e3f 1d3c 9c3f 60ca 983f
00000060: 8111 623f f599 9e3f 34c5 853f 3d47 5f3f
00000070: 9ee5 443f 9939 403f 157d 0f3f cfc7 933f

blocks.1.bn.bias f4 [32]
-0.20480677 -0.5078751 0.110784814 -0.4148225 -0.13496247 -0.28546268 -0.3710887 -0.5192034
-0.60452616 -0.3694308 -0.5952621 -0.6110792 -0.5772637 -0.37833384 -0.3816488 -0.3531654
-0.6204581 -0.39691755 -0.42210662 -0.4866816 -0.7717834 -0.466759 -0.7571298 -0.124725275
-0.74111557 -0.07421298 -0.34686625 -0.36514843 -0.26688632 -0.64095557 -0.08964443 -0.39562175
00000000: deb8 51be 1a04 02bf 26e3 e23d 9d63 d4be
00000010: 9a33 0abe 2a28 92be 57ff bdbe 84ea 04bf
00000020: 3ac2 1abf 0926 bdbe 1963 18bf b06f 1cbf
00000030: 8ec7 13bf f9b4 c1be 7967 c3be 18d2 b4be
00000040: 58d6 1ebf c738 cbbe 5c1e d8be 552e f9be
00000050: 9993 45bf 09fb eebe 42d3 41bf f76f ffbd
00000060: c0b9 3dbf fafc 97bd 7498 b1be bcf4 babe
00000070: 53a5 88be aa15 24bf 8097 b7bd ef8e cabe

blocks.1.bn.running_mean f4 [32]
-5.071678 -3.8206503 -0.099178396 -1.3355646 -3.9432392 -0.91697097 2.3312669 -1.4504564
-4.2152276 -0.4556156 -0.16814367 1.2808651 -1.8122971 1.9087386 -2.0538733 -3.7862172
-1.776552 0.11571814 -1.996325 -4.3748703 -1.1390576 -2.784505 -2.6631973 -2.0433307
-2.3679519 0.24506967 -2.1460168 -3.343785 2.4524395 -2.6957211 1.2315973 -2.523677
00000000: 304b a2c0 8985 74c0 0b1e cbbd c8f3 aabf
00000010: 085e 7cc0 9cbe 6abf 7a33 1540 8ea8 b9bf
00000020: 25e3 86c0 7346 e9be db2d 2cbe 63f3 a33f
00000030: 5af9 e7bf 8c51 f43f a972 03c0 6251 72c0
00000040: 0e66 e3bf a2fd ec3d 9487 ffbf f0fe 8bc0
00000050: a4cc 91bf 5435 32c0 d371 2ac0 eec5 02c0
00000060: 868c 17c0 8bf3 7a3e 5758 09c0 9300 56c0
00000070: c5f4 1c40 b286 2cc0 fba4 9d3f ed83 21c0

blocks.1.bn.running_var f4 [32]
10.930082 6.7102847 9.200092 10.56495 31.850216 15.298587 9.001411 7.3391438
18.043764 6.9882183 10.10539 6.7014885 11.325021 10.711499 18.285954 12.925984
8.005586 12.095562 9.443135 13.310163 7.2692037 15.177306 9.853612 13.198005
7.481012 8.118884 13.785434 16.424799 29.038496 15.684354 17.495275 7.0870867
00000000: 9ee1 2e41 a7ba d640 9433 1341 090a 2941
00000010: 3ecd fe41 03c7 7441 c805 1041 44da ea40
00000020: a159 9041 7c9f df40 adaf 2141 9872 d640
00000030: 4933 3541 4d62 2b41 a249 9241 d5d0 4e41
00000040: e116 0041 6c87 4141 1517 1741 6df6 5441
00000050: 519d e840 3fd6 7241 65a8 1d41 072b 5341
00000060: 7364 ef40 f3e6 0141 2391 5c41 fd65 8341
00000070: d74e e841 1df3 7a41 53f6 8b41 6ac9 e240

blocks.2.conv.weight f4 [32, 32, 3, 3]
0.11104856 0.07981853 -0.11791542 -0.14334156 0.014609555 -0.328009 -0.19677831 -0.18768255
-0.11923079 -0.10655067 -0.11472401 -0.24859019 0.083709545 -0.28505817 -0.24678601 -0.06940287
-0.22874133 -0.12252356 -0.113430455 0.06420633 0.27328488 0.023511728 0.054165345 0.040750153
0.3517101 -0.16559659 -0.38575622 0.08692748 -0.24447675 0.42343134 0.22525525 -0.074181676
-0.18139328 -0.099813715 0.09160672 0.16225588 0.16314259 0.2234989 0.528846 0.12042438
0.32434228 0.49380305 0.143426 0.46583942 0.32346207 -0.16715088 0.16297163 0.48910615
0.1009449 0.40896654 0.07990542 -0.1125992 -0.2063747 0.0074998825 -0.057982124 0.3117447
0.11252421 0.036854498 0.07168674 0.112352036 -0.14936706 0.07833087 -0.25409096 0.08313959
-0.5879379 0.032448474 0.054800496 -0.032429468 -0.29699156 -0.13931762 -0.17295335 0.26210633
0.13579239 0.03860275 0.124900736 0.092709325 0.3830607 0.047612686 0.5895945 -0.31294644
-0.10984892 -0.33544686 0.1297599 -0.48637944 0.043017622 -0.1272061 -0.37974316 -0.44564208
-0.19981597 0.1641287 -0.07375401 -0.30119142 -0.015979907 -0.21814016 -0.32127392 0.05204551
0.15765058 0.0041333884 -0.3286959 -0.07691734 -0.015594224 -0.038073633 0.17351225 0.4256617
-0.042754415 0.2324312 -0.17091833 0.44789088 -0.03978978 -0.41895667 0.05585593 0.15935671
0.15708055 0.08530664 -0.06048596 0.16778134 0.09446561 0.058649138 -0.2725466 -0.15887989
-0.29006836 -0.28810054 0.2564113 -0.07495311 -0.3413265 -0.01279072 -0.22029965 -0.3459975
-0.5164197 -0.07642422 -0.30580413 0.01698307 -0.3290192 0.22881348 -0.08866306 -0.26723516
-0.07160216 -0.13236517 0.037137754 -0.22248808 0.124514185 0.019524489 -0.16297393 0.4240309
-0.24017553 0.14820018 -0.23974371 -0.057244077 -0.1976961 0.037103686 0.2585749 -0.0425867
0.091845825 -0.111288585 0.21810606 0.13629913 -0.05261586 -0.082467936 0.37495708 -0.1658967
-0.36034968 0.097197235 0.026338702 0.4620468 -0.2658154 0.065554745 0.44204572 0.1785226
-0.0828471 0.24765408 -0.08886497 0.17706095 -0.13885628 0.20304154 -0.29309043 -0.11283243
0.0054803607 -0.31296396 0.05699613 -0.26430577 0.074153304 0.3151514 0.47526637 0.41433236
0.20773043 0.20309167 0.1021494 0.031269364 0.010425456 0.182838 -0.022176052 0.12288363
0.33577827 0.16062215 -0.0782277 0.022009207 0.061861534 0.43052584 0.17172167 -0.32878673
-0.358864 -0.21470068 0.19394375 -0.58264965 -0.19454171 -0.16666038 -0.42854327 -0.30600172
0.123045675 0.10351395 -0.5446911 -0.27560252 -0.002409647 -0.5538712 -0.2781464 -0.07290368
0.27855784 0.08396722 -0.25926578 -0.05682589 0.43156102 -0.16985795 -0.158395 -0.20893107
0.065852396 0.054753862 0.25360432 -0.28295675 0.08721473 0.20800556 -0.06794018 0.50184715
0.15926026 0.03379063 0.035670932 -0.033481892 0.005882467 -0.30587834 -0.21118854 -0.0786655
0.26305756 -0.06685058 -0.028206214 -0.1316723 0.05534636 0.28181672 -0.28016916 0.066498816
-0.34272802 -0.34348235 -0.07426072 0.24387026 0.33742577 -0.05607528 -0.11921789 -0.415079
00000000: 6d6d e33d e677 a33d a47d f1bd 21c8 12be
00000010: ea5c 6f3c ccf0 a7be 4180 49be db2f 40be
00000020: 462f f4bd 3d37 dabd 6cf4 eabd 6d8e 7ebe
00000030: e96f ab3d 25f3 91be 79b5 7cbe 1823 8ebd
00000040: 2b3b 6abe a2ed fabd 3a4e e8bd 9c7e 833d
00000050: ffeb 8b3e ab9b c03c 7bdc 5d3d a2e9 263d
00000060: 5913 b43e 2792 29be d781 c5be 0907 b23d
00000070: 1d58 7abe fecb d83e 50a9 663e 90ec 97bd
00000080: 29bf 39be 226b ccbd 4e9c bb3d 6826 263e
00000090: da0e 273e e5dc 643e 7462 073f 0fa1 f63d
000000a0: 3110 a63e c1d3 fc3e 44de 123e 8182 ee3e
000000b0: d29c a53e 9a29 2bbe 09e2 263e 1f6c fa3e
000000c0: 33bc ce3d 1064 d13e 74a5 a33d 699a e6bd
000000d0: e453 53be 93c1 f53b aa7e 6dbd 009d 9f3e
000000e0: 1873 e63d bef4 163d 7fd0 923d d318 e63d
000000f0: aef3 18be ef6b a03d 3618 82be 1745 aa3d
00000100: 1983 16bf b1e8 043d 7c76 603d c3d4 04bd
00000110: 470f 98be 47a9 0ebe af1a 31be cd32 863e
00000120: 290d 0b3e eb1d 1e3d f5cb ff3d 63de bd3d
00000130: 8820 c43e 8505 433d aaef 163f 843a a0be
00000140: 78f8 e0bd b1bf abbe c7df 043e ba06 f9be
00000150: 3f33 303d 5142 02be b26d c2be 332b e4be
00000160: 8f9c 4cbe 5b11 283e 580c 97bd c335 9abe
00000170: 4be8 82bc 2260 5fbe 047e a4be ac2d 553d
00000180: 276f 213e 6071 873b d44a a8be d786 9dbd
00000190: eb7e 7fbc 19f3 1bbd 32ad 313e 55f0 d93e
000001a0: 411f 2fbd 7202 6e3e 3705 2fbe f451 e53e
000001b0: 9cfa 22bd 7d81 d6be 30c9 643d 682e 233e
000001c0: b9d9 203e 3fb5 ae3d 20c0 77bd dfce 2b3e
000001d0: 3077 c13d 143a 703d 3a8b 8bbe 69b1 22be
000001e0: d783 94be ea81 93be 5848 833e 0481 99bd
000001f0: 59c2 aebe 2b90 51bc 3b96 61be 9626 b1be
00000200: 1534 04bf 4d84 9cbd 5c92 9cbe 1420 8b3c
00000210: 3475 a8be 154e 6a3e fa94 b5bd 0cd3 88be
00000220: 27a4 92bd bc8a 07be c21d 183d ead3 63be
00000230: 4b01 ff3d d2f1 9f3c a3e2 26be 941a d93e
00000240: 93f0 75be cac1 173e 607f 75be c478 6abd
00000250: d970 4abe 09fa 173d ee63 843e 646f 2ebd
00000260: aa19 bc3d 45eb e3bd 3257 5f3e 0092 0b3e
00000270: ba83 57bd f3e4 a8bd 60fa bf3e d3e0 29be
00000280: c17f b8be 580f c73d 43c4 d73c 6691 ec3e
00000290: f518 88be 9141 863d d153 e23e a1ce 363e
000002a0: beab a9bd 0899 7d3e d6fe b5bd 774f 353e
000002b0: 5730 0ebe 1fea 4f3e f30f 96be b014 e7bd
000002c0: 9994 b33b d03c a0be c674 693d 1653 87be
000002d0: b0dd 973d 865b a13e 1d56 f33e 5f23 d43e
000002e0: 49b7 543e 43f7 4f3e b433 d13d 4e14 003d
000002f0: 88cf 2a3c e239 3b3e 8daa b5bc 6aaa fb3d
00000300: 21eb ab3e 227a 243e d835 a0bd a74c b43c
00000310: 8562 7d3d e26d dc3e ced7 2f3e bc56 a8be
00000320: 06bd b7be 7fda 5bbe 3199 463e 8728 15bf
00000330: f135 47be 05a9 2abe 066a dbbe 42ac 9cbe
00000340: 5fff fb3d 1fff d33d e070 0bbf c61b 8dbe
00000350: 2beb 1dbb 81ca 0dbf 3469 8ebe 864e 95bd
00000360: 229f 8e3e 01f7 ab3d 7cbe 84be 44c2 68bd
00000370: 91f5 dc3e 3eef 2dbe 4d32 22be 07f2 55be
00000380: 9fdd 863d 9645 603d 6dd8 813e b5df 90be
00000390: a39d b23d 69ff 543e 3924 8bbd 0e79 003f
000003a0: 1f15 233e 0b68 0a3d af1b 123d 4f24 09bd
000003b0: b6c1 c03b 169c 9cbe cf41 58be 611b a1bd
000003c0: 7baf 863e f5e8 88bd b810 e7bc 1ad5 06be
000003d0: ddb2 623d 484a 903e 5572 8fbe 8830 883d
000003e0: 0c7a afbe ebdc afbe 0116 98bd 20b9 793e
000003f0: 12c3 ac3e 31af 65bd 8228 f4bd 3c85 d4be

blocks.2.conv.bias f4 [32]
0.0007331947 -0.0001200215 0.0002825094 -0.00088272 -0.0027855816 -0.005503338 0.0056674974 0.000587565
-0.000654361 0.00030906106 -9.558871e-05 0.00041223093 -0.00014272057 0.0023123154 -0.0031106775 0.0008699147
-4.116476e-05 0.0022852863 0.0021767274 0.00924531 0.0009097985 0.0005584196 -0.0004909006 0.0031655815
0.0020225907 0.0052187545 -0.00026284717 -0.0003025909 0.0033799198 0.002581449 -0.0009138534 4.4386004e-05
00000000: dd33 403a 0db4 fbb8 c51d 9439 5666 67ba
00000010: 4e8e 36bb 5855 b4bb 6ab6 b93b d206 1a3a
00000020: 6c89 2bba 7909 a239 cc76 c8b8 b320 d839
00000030: 43a7 15b9 378a 173b 82dc 4bbb fd0a 643a
00000040: 53a8 2cb8 bec4 153b 6da7 0e3b a479 173c
00000050: 8b7f 6e3a e862 123a c8af 00ba a575 4f3b
00000060: 718d 043b 1602 ab3b c0ce 89b9 10a5 9eb9
00000070: a581 5d3b 872d 293b aa8f 6fba 1c2b 3a38

blocks.2.bn.weight f4 [32]
0.7603417 0.80834675 0.61743194 0.7033099 0.6727791 0.67015874 1.0065042 1.1312277
0.690163 0.95373297 0.7545718 0.86077017 0.71984965 0.8498532 0.8461145 1.2228521
1.1932319 1.0017849 0.74466133 1.0448595 1.0367615 0.98781884 0.89912087 0.9944263
1.3025775 1.0085053 1.0740848 0.6872224 0.47465885 0.96660393 0.35009798 0.84552264
00000000: c1a5 423f d0ef 4e3f 0510 1e3f 1e0c 343f
00000010: 403b 2c3f 868f 2b3f 21d5 803f 12cc 903f
00000020: 86ae 303f d827 743f 9e2b 413f 6f5b 5c3f
00000030: 1148 383f fb8f 593f f69a 583f 6b86 9c3f
00000040: d3bb 983f 7d3a 803f 20a2 3e3f f5bd 853f
00000050: 9ab4 843f b2e1 7c3f c92c 663f b992 7e3f
00000060: dcba a63f b416 813f 9c7b 893f cfed 2f3f
00000070: 7c06 f33e 5b73 773f 0b40 b33e 2c74 583f

blocks.2.bn.bias f4 [32]
-0.140105 -0.50655234 -0.17215846 -0.2676417 -0.61050373 -0.32884872 -0.23464936 -0.6070667
-0.5953491 -0.5167613 -0.5680397 -0.4087601 -0.735321 -0.38445476 -0.34819347 -0.57425255
-0.4908389 -0.5619326 -0.37575498 -0.31870505 -0.5897374 -0.82002467 -0.37760743 -0.49183333
-0.6631312 -0.5308848 -0.6377551 -0.2552225 -0.00020908397 -0.37097204 0.25617638 -0.5830268
00000000: af77 0fbe 6aad 01bf 4f4a 30be 5508 89be
00000010: f949 1cbf dc5e a8be ec47 70be b968 1bbf
00000020: cc68 18bf 784a 04bf 0d6b 11bf 0149 d1be
00000030: ff3d 3cbf 41d7 c4be 6a46 b2be 3702 13bf
00000040: 3c4f fbbe d1da 0fbf f562 c0be 4f2d a3be
00000050: 08f9 16bf 23ed 51bf c355 c1be 94d1 fbbe
00000060: f7c2 29bf 11e8 07bf eb43 23bf 86ac 82be
00000070: 8d3d 5bb9 0cf0 bdbe 8d29 833e 3f41 15bf

blocks.2.bn.running_mean f4 [32]
-0.4030385 -2.974318 -2.611422 -0.7098535 -5.617256 2.324638 -0.96926755 -0.77103895
-0.8504195 -2.0431921 -0.50129503 -0.535 0.4420942 -4.2825646 -3.3497224 -2.9609554
-0.57400614 -1.2791833 -4.122373 -0.46245655 -1.5048347 -0.3571457 -2.2326024 -3.7782688
-2.1983473 -3.6143076 -3.0978265 -0.60512537 -1.8716005 -3.6032858 0.3264998 -1.1569864
00000000: 105b cebe 3a5b 3ec0 8a21 27c0 f5b8 35bf
00000010: 90c0 b3c0 dec6 1440 eb21 78bf cf62 45bf
00000020: 18b5 59bf a9c3 02c0 df54 00bf c3f5 08bf
00000030: 2c5a e23e c50a 89c0 da61 56c0 4b80 3dc0
00000040: 11f2 12bf 47bc a3bf 7bea 83c0 1bc7 ecbe
00000050: 6c9e c0bf cddb b6be f5e2 0ec0 28cf 71c0
00000060: b9b1 0cc0 d150 67c0 ca42 46c0 7fe9 1abf
00000070: 9b90 efbf 3c9c 66c0 fb2a a73e 2118 94bf

blocks.2.bn.running_var f4 [32]
22.720724 18.610826 19.509115 12.850671 17.234394 17.218786 21.042395 11.618585
11.911237 17.23382 8.207759 13.79568 7.2847004 29.808699 29.332205 10.424961
7.64409 20.405127 10.635181 10.012333 12.424791 13.744087 14.540196 19.258867
10.406294 10.830223 9.694459 19.93116 19.436506 18.074389 23.740875 12.029243
00000000: 0bc4 b541 f9e2 9441 ab12 9c41 599c 4d41
00000010: 0ae0 8941 13c0 8941 d356 a841 b9e5 3941
00000020: 6d94 3e41 ddde 8941 fb52 0341 1bbb 5c41
00000030: 441c e940 3778 ee41 5ba8 ea41 a4cc 2641
00000040: 639c f440 b33d a341 b429 2a41 8432 2041
00000050: f2cb 4641 c8e7 5b41 a5a4 6841 2912 9a41
00000060: 2e80 2641 9848 2d41 811c 1b41 0473 9f41
00000070: f77d 9b41 5998 9041 50ed bd41 c877 4041

blocks.3.conv.weight f4 [32, 32, 3, 3]
-0.11607147 -0.10559222 -0.4384361 0.0841396 -0.7703453 -0.5354305 -0.25054497 -0.063298665
-0.1427578 0.13915701 0.1322864 -0.20607507 0.38394505 -0.02952183 0.007596591 0.27674404
0.18671578 -0.0018929875 -0.082812525 0.117410965 -0.15782021 0.1324901 0.1979921 0.14332208
-0.17564373 0.017646499 0.02155528 0.05785549 0.061812554 0.095434956 -0.035982527 -0.7789034
-0.17383948 0.17303653 0.21698174 0.0076176575 -0.21922415 -0.12937798 -0.40040994 -0.20097394
0.22503647 -0.2270742 -0.070697494 0.25266925 -0.5919334 0.108519256 0.06418646 0.25845152
-0.30408224 0.23968361 -0.096130535 0.26414505 -0.3717271 -0.034056026 0.5595619 0.11879298
-0.32652098 0.3544576 0.26997328 0.017026179 0.31288004 -0.020260112 -0.16349068 0.054493614
0.20547561 0.30419356 -0.10078838 -0.079386584 0.078762606 0.567553 -0.05640827 -0.46859264
0.010198544 -0.10948183 0.41195333 0.08944721 0.04804178 0.23121518 -0.09037369 0.05236577
-0.07280297 -0.16595393 -0.06038568 0.4392072 0.043379225 0.24372175 0.00045182407 -0.15129957
0.19497702 0.18583415 -0.23086557 0.13556378 0.17626147 0.54408467 -0.20784745 0.11369959
0.11323841 -0.13776077 0.14377147 -0.05269772 -0.10629029 0.21195327 -0.051524956 0.061837927
-0.21768852 -0.43279058 -0.07402194 0.10816006 -0.33401075 -0.108770296 -0.06296797 -0.08326049
-0.057508595 0.27125213 0.07951384 -0.020192303 0.15761577 0.16481033 0.15224442 0.06860496
0.1785813 0.1791965 0.5928909 -0.04012256 -0.1609341 -0.26904744 -0.36706313 -0.4787961
-0.45448783 -0.2544412 -0.28517744 -0.06966546 -0.31295747 -0.08674797 -0.36227077 -0.4425185
0.018911138 -0.03734277 -0.30496025 0.16856183 0.12124803 -0.47465387 0.04235867 0.27287322
0.1323031 -0.16101971 -0.35496745 0.030978385 -0.22155465 0.09783958 0.30967537 0.20492524
-0.3233589 0.085901216 0.07609479 -0.2379956 0.06594252 0.048801728 0.16872135 0.37280607
-0.218588 -0.059016805 0.070074804 -0.31121957 0.14744587 0.16781875 0.1849701 -0.0340533
0.11948495 -0.0140728615 0.15093894 -0.07249085 -0.14203192 -0.17096916 0.52436453 0.04437118
0.22898288 0.27545458 -0.1418358 -0.32446197 -0.54296637 -0.10337034 -0.15820897 0.042677764
-0.17341499 0.22680971 -0.1729671 0.051816422 0.11752176 0.29645753 -0.12911353 0.29476473
0.0336788 0.4185792 0.068709545 -0.26171812 0.2500842 -0.12532163 -0.12667777 -0.06671725
0.05235964 -0.12967932 -0.16074161 -0.74995905 -0.4178195 0.15038037 -0.12122455 -0.3431999
0.06804765 0.36439857 -0.26013651 -0.40953633 -0.2658213 -0.098533265 0.04579537 0.15720926
0.03971 -0.0517658 -0.29518196 -0.104530364 0.2526571 -0.4411925 -0.24061547 -0.2956502
0.029918412 -0.14361383 0.08034075 -0.17994153 0.10382675 -0.21056281 0.13901792 0.38671544
0.19228838 -0.03337159 0.12878829 -0.2849805 -0.02705443 -0.040014338 -0.39483225 0.30691186
0.36539924 0.11319863 -0.2829778 0.02994306 -0.20387818 0.43222862 0.006076494 0.046739455
-0.1329328 -0.19994435 -0.14654653 0.007323232 -0.07767048 0.35985652 -0.2554333 -0.38944393
00000000: e1b6 edbd bc40 d8bd b27a e0be 6251 ac3d
00000010: 5935 45bf f911 09bf 6e47 80be bba2 81bd
00000020: 1a2f 12be 2d7f 0e3e 1676 073e 5805 53be
00000030: 7294 c43e c4d7 f1bc d3ec f83b 65b1 8d3e
00000040: 6c32 3f3e 1f1e f8ba 9d99 a9bd 2975 f03d
00000050: 9f9b 21be 7cab 073e 71be 4a3e 06c3 123e
00000060: f3db 33be 648f 903c b394 b03c e1f9 6c3d
00000070: 292f 7d3d 6773 c33d 6a62 13bd 3766 47bf
00000080: fa02 32be 7d30 313e 7630 5e3e 8b9d f93b
00000090: 4c7c 60be a97b 04be 8802 cdbe 1dcc 4dbe
000000a0: f66f 663e 2486 68be d9c9 90bd dd5d 813e
000000b0: f388 17bf 583f de3d 3174 833d c253 843e
000000c0: abb0 9bbe 9f6f 753e 16e0 c4bd 053e 873e
000000d0: 0453 bebe 557e 0bbd 733f 0f3f bc49 f33d
000000e0: c22d a7be 777b b53e f039 8a3e 7c7a 8b3c
000000f0: d031 a03e 89f8 a5bc 1a6a 27be b234 5f3d
00000100: 3368 523e 42bf 9b3e 236a cebd 6f95 a2bd
00000110: 4a4e a13d 274b 113f 5c0c 67bd 60eb efbe
00000120: cb17 273c 0238 e0bd 8ceb d23e 1930 b73d
00000130: 75c7 443d acc3 6c3e d715 b9bd 7d7d 563d
00000140: b919 95bd d4ef 29be fa56 77bd c4df e03e
00000150: 6aae 313d 3292 793e cde2 ec39 46ee 1abe
00000160: 0ea8 473e 4f4b 3e3e 0668 6cbe 3bd1 0a3e
00000170: e37d 343e 2249 0b3f f6d5 54be 55db e83d
00000180: 8ae9 e73d 2911 0dbe d438 133e 90d9 57bd
00000190: b9ae d9bd 470a 593e d50b 53bd c449 7d3d
000001a0: bde9 5ebe ba96 ddbe d198 97bd 0683 dd3d
000001b0: 7503 abbe f6c2 debd 5af5 80bd 7a84 aabd
000001c0: 228e 6bbd 8fe1 8a3e 27d8 a23d 546a a5bc
000001d0: 0766 213e 0ac4 283e f6e5 1b3e c280 8c3d
000001e0: 04de 363e 4a7f 373e b3c7 173f 8e57 24bd
000001f0: e9cb 24be 96c0 89be b3ef bbbe c324 f5be
00000200: a1b2 e8be 1e46 82be c702 92be c4ac 8ebd
00000210: f63b a0be eba8 b1bd 8e7b b9be c991 e2be
00000220: 88eb 9a3c bbf4 18bd c023 9cbe 799b 2c3e
00000230: e350 f83d d505 f3be 4980 2d3d 0ab6 8b3e
00000240: 777a 073e 5ae2 24be 4bbe b5be 62c6 fd3c
00000250: 39df 62be 1e60 c83d c58d 9e3e ecd7 513e
00000260: 4c8f a5be faec af3d 96d7 9b3d 1eb5 73be
00000270: df0c 873d 52e4 473d 4ac5 2c3e 70e0 be3e
00000280: 88d5 5fbe 9bbb 71bd 6183 8f3d 2c58 9fbe
00000290: 0dfc 163e aed8 2b3e cd68 3d3e 797b 0bbd
000002a0: 87b4 f43d dc91 66bc bd8f 1a3e 1576 94bd
000002b0: d170 11be 8a12 2fbe c13c 063f 8ebe 353d
000002c0: 7d7a 6a3e 6208 8d3e 673d 11be e11f a6be
000002d0: d8ff 0abf d4b3 d3bd 8801 22be e1ce 2e3d
000002e0: b393 31be ce40 683e 4a1e 31be 753d 543d
000002f0: 40af f03d 48c9 973e 5636 04be 67eb 963e
00000300: c8f2 093d 0350 d63e 97b7 8c3d ebff 85be
00000310: 090b 803e 5054 00be d1b7 01be 0ea3 88bd
00000320: 1077 563d a8ca 04be 7399 24be 51fd 3fbf
00000330: 70ec d5be 50fd 193e 9444 f8bd e6b7 afbe
00000340: 915c 8b3d 7392 ba3e 9d30 85be bfae d1be
00000350: bb19 88be cfcb c9bd ed93 3b3d 77fb 203e
00000360: f4a6 223d 6008 54bd 1722 97be 0414 d6bd
00000370: 455c 813e fce3 e1be e763 76be 775f 97be
00000380: 7517 f53c 810f 13be b189 a43d 9842 38be
00000390: 1ea3 d43d c79d 57be b75a 0e3e 91ff c53e
000003a0: 3fe7 443e a6b0 08bd 14e1 033e f7e8 91be
000003b0: 41a1 ddbc 13e6 23bd 7427 cabe 8d23 9d3e
000003c0: 9c15 bb3e afd4 e73d 77e2 90be 264b f53c
000003d0: 71c5 50be 124d dd3e 541d c73b df71 3f3d
000003e0: 891f 08be 36be 4cbe 4b10 16be b9f7 ef3b
000003f0: b311 9fbd 1d3f b83e 27c8 82be 3265 c7be

blocks.3.conv.bias f4 [32]
-0.0011441866 0.00078278634 0.0021394112 -0.010638472 0.006029585 0.0016242594 0.0064871684 -0.00072928146
0.0008252179 0.00018421891 0.00022130033 5.794418e-05 0.0008492764 0.006167224 0.00011800839 -0.0071086246
-0.00020922863 0.00026990706 7.301368e-05 0.0036643236 0.0007197343 -0.010276755 -0.00025414844 0.00033599057
-0.0076693366 0.00047309702 -0.0029745584 0.0009679532 -0.0015434223 0.0077576763 0.00015207367 -0.0015268776
00000000: 88f8 95ba e733 4d3a 5d35 0c3b fc4c 2ebc
00000010: d393 c53b 1ae5 d43a 5092 d43b 402d 3fba
00000020: 7053 583a e32a 4139 db0c 6839 1709 7338
00000030: f9a1 5e3a 6d16 ca3b 467b f738 77ef e8bb
00000040: 6264 5bb9 5082 8d39 ec1e 9938 2625 703b
00000050: 8dac 3c3a d65f 28bc 3a3f 85b9 e427 b039
00000060: 0f4f fbbb 020a f839 cff0 42bb 3dbe 7d3a
00000070: a94c caba 1b34 fe3b f775 1f39 8321 c8ba

blocks.3.bn.weight f4 [32]
1.0575175 0.80153424 0.7571975 0.7433961 0.78154963 0.80237806 1.0280192 0.9201091
0.91065335 1.0144973 0.70246685 0.9105198 1.0228553 0.79979044 0.9224666 1.2110654
1.0258162 1.0995866 0.7688427 0.9242213 1.0163469 1.1006583 0.81143993 0.8685591
1.0070242 0.76745915 1.1120051 0.6307366 0.72330076 0.82721037 0.41518784 0.9054425
00000000: bc5c 873f 5931 4d3f b2d7 413f 354f 3e3f
00000010: a313 483f a668 4d3f 2296 833f 458c 6b3f
00000020: 9420 693f 0cdb 813f ded4 333f d317 693f
00000030: ecec 823f 11bf 4c3f c526 6c3f 3104 9b3f
00000040: f24d 833f 41bf 8c3f e0d2 443f c499 6c3f
00000050: a817 823f 5fe2 8c3f 87ba 4f3f e459 5e3f
00000060: 2be6 803f 3478 443f 2f56 8e3f f477 213f
00000070: 3d2a 393f 0fc4 533f 8093 d43e 14cb 673f

blocks.3.bn.bias f4 [32]
-0.31912735 -0.38061595 -0.4422917 -0.095441684 -0.42655727 -0.002042303 -0.9191303 -0.5969788
-0.57725483 -0.79459083 -0.43302965 -0.021141367 -0.56053203 -0.45880598 -0.6202634 -0.3615485
-0.6821226 -0.8843446 -0.47512612 -0.38291377 -0.34444726 -0.6641182 -0.7284731 -0.78059524
-0.55683833 -0.9161305 -0.52236587 -0.2854763 -0.12744285 -0.47961384 0.38333553 -0.46183938
00000000: a964 a3be 18e0 c2be 0f74 e2be ee76 c3bd
00000010: b765 dabe 29d8 05bb 204c 6bbf 9ad3 18bf
00000020: f9c6 13bf 4e6a 4bbf 10b6 ddbe a930 adbc
00000030: 077f 0fbf 9ee8 eabe 95c9 1ebf e31c b9be
00000040: 969f 2ebf 6864 62bf bb43 f3be 460d c4be
00000050: 645b b0be a603 2abf 377d 3abf 17d5 47bf
00000060: f58c 0ebf 8787 6abf c5b9 05bf f329 92be
00000070: 6180 02be f28f f5be 8e44 c43e 3676 ecbe

blocks.3.bn.running_mean f4 [32]
-3.6056166 -0.75648075 -4.5432396 -1.9648931 -2.9784622 0.00033265844 -0.28402653 -1.1942644
1.9550291 -2.6897182 3.7446377 0.46867424 -1.1434911 -5.3707905 -3.3262727 -1.3450428
-4.0791783 -1.1120594 -1.5902519 -0.6172816 -3.5189354 -0.21343231 -0.08900098 -5.6154327
1.2688918 -2.8106499 -1.2522867 -1.6612684 3.2059245 -2.7020793 0.1935276 -1.0206553
00000000: 6cc2 66c0 b9a8 41bf 3862 91c0 9e81 fbbf
00000010: 209f 3ec0 a968 ae39 ed6b 91be a8dd 98bf
00000020: 653e fa3f 5824 2cc0 25a8 6f40 12f6 ef3e
00000030: eb5d 92bf 84dd abc0 a7e1 54c0 5d2a acbf
00000040: a188 82c0 f657 8ebf 608d cbbf 2b06 1ebf
00000050: 3d36 61c0 008e 5abe 2546 b6bd a0b1 b3c0
00000060: 0c6b a23f b0e1 33c0 ee4a a0bf 71a4 d4bf
00000070: de2d 4d40 deee 2cc0 192c 463e d5a4 82bf

blocks.3.bn.running_var f4 [32]
10.680074 11.66115 24.467226 10.954741 24.200985 16.29417 11.430367 8.483809
12.612806 6.7015553 21.332264 7.42653 9.848194 9.817331 12.037302 21.220533
12.166118 6.808131 10.347229 13.058156 7.296626 8.909715 14.073069 13.283786
8.649854 10.166477 16.97504 15.630844 13.979773 18.803251 14.318486 9.386484
00000000: 95e1 2a41 1294 3a41 e1bc c341 9e46 2f41
00000010: 9e9b c141 765a 8241 c9e2 3641 afbd 0741
00000020: 0ece 4941 2473 d640 7aa8 aa41 22a6 ed40
00000030: 3492 1d41 ca13 1d41 ca98 4041 a7c3 a941
00000040: 6ba8 4241 36dc d940 408e 2541 35ee 5041
00000050: f67d e940 318e 0e41 4a2b 6141 638a 5441
00000060: cd65 0a41 e4a9 2241 e2cc 8741 f017 7a41
00000070: 26ad 5f41 0f6d 9641 8518 6541 0a2f 1641
