models/283.pth (torch, 501905 bytes, 80 tensors)

conv0.conv.weight f4 [32, 17, 3, 3]
000000 52 f1 69 bd e5 e6 1e 3f 88 f7 a1 3e 3b 6c ea 3e
       -0.057114907 0.6207107 0.31634164 0.45785698
000010 b9 53 03 bf a2 86 3e 3f 78 8b 33 3e 35 ea 03 3f
       -0.51299626 0.74424183 0.17533672 0.51529247
000020 2c 47 8d 3e 15 95 dd bc 19 7e af 3d e5 39 5a bc
       0.27593362 -0.027048627 0.08568973 -0.013319467
000030 07 99 ca bd ec 74 a0 be fe 73 37 bd 98 87 21 3e
       -0.09892469 -0.31339204 -0.044788353 0.15774381
000040 d9 d4 f0 3d c9 29 39 bc 33 ed b3 bc 50 65 4a bd
       0.117593475 -0.011301466 -0.021963691 -0.049413025
000050 e8 7e 2e 3e 83 a9 65 3d 8e 89 84 be 92 a8 bd bd
       0.17040598 0.056069862 -0.25886196 -0.09260668
000060 41 d9 ab bd 76 c3 99 3d 46 ea b6 3b 91 ae 89 bd
       -0.08391047 0.07507984 0.005582127 -0.06722749
000070 68 99 b8 3d 4e f1 16 3e 6c 37 b6 bb 75 05 2e be
       0.09013635 0.14740488 -0.005560806 -0.16994269
000080 81 25 dc bd 5e d2 23 3e f1 16 f5 bc ab f0 8f be
       -0.10749341 0.15998217 -0.029918166 -0.28113303
000090 ae a2 e1 3e 91 15 c6 3e f2 c5 e9 3e 41 26 d1 3e
       0.44069427 0.3868833 0.45658833 0.40849498
0000a0 1f 11 1d bf 3c a6 de 3e f6 c2 e4 3e b7 3b c6 3e
       -0.6135425 0.43486202 0.44679993 0.38717434
0000b0 11 20 28 3e 1c 25 2a 3e 19 22 c7 3e e2 48 4a 3e
       0.16418482 0.16615719 0.38893202 0.19754365
0000c0 ac 7c 64 3e a6 5f 4f be 82 ac 9e 3e 7a ab 12 3e
       0.22313184 -0.2025133 0.30990988 0.14323226
0000d0 60 0b e6 3e 82 a7 6b 3e ba 34 04 3f 98 dd a6 3e
       0.44930553 0.23013118 0.51642954 0.32590938
0000e0 be dc 8c 3d 1b d5 92 3e c3 06 22 be 88 21 b7 3e
       0.06878041 0.28678212 -0.15822892 0.3576777
0000f0 d2 c2 a9 3e 43 70 9d 3e a8 c5 bb 3e 7c c4 a1 3e
       0.3315645 0.3074971 0.36674237 0.31595218
000100 92 38 d1 3e ac 39 5e 3e 24 c7 84 3e fc 86 59 be
       0.40863472 0.21701688 0.25933182 -0.21242899
000110 b4 2d a0 3e 90 4c 79 3e bc 20 bd 3e 72 f9 dd 3e
       0.3128487 0.24345613 0.36939037 0.43354374
000120 16 66 36 bc ff f4 10 3e c5 ff ee bd 7a 5e 2b 3e
       -0.011132738 0.14155959 -0.11669878 0.16735259
000130 7e ce ed 3e cf 9e 65 3d fe f6 89 bb 7b bd 01 3e
       0.46446604 0.056059655 -0.004210352 0.12669937
000140 db 22 30 bd 5b ea 59 bd 47 c9 b2 3d d5 a9 63 3c
       -0.04300199 -0.053202014 0.08729797 0.013895472
000150 d9 26 6f 3d 9e 83 17 3f e5 e2 83 3c fc f1 97 bc
       0.058386657 0.59185207 0.016099403 -0.018548004
000160 91 16 f0 3b 4f 67 cf 3d b7 53 d4 bc c0 0c f5 3d
       0.007326909 0.101271264 -0.025918825 0.119653225
000170 e3 ef 86 bd 2a 96 45 3d 7f 70 07 3f 58 87 35 3d
       -0.065887235 0.04823891 0.5290603 0.044318527
000180 64 23 79 bc 47 fa 70 3d dc f2 b3 3c a7 d2 4b 3c
       -0.015206192 0.058832433 0.02196639 0.01244036
000190 7e 10 d4 3d d6 d0 81 3b 29 aa 90 3d f0 cf f5 3e
       0.10354708 0.0039616628 0.070637055 0.48010206
0001a0 3d 1a e9 3d 0a dd 19 bd 19 ac 19 3e 04 45 37 bd
       0.11381958 -0.037564315 0.15007056 -0.044743553
0001b0 4d 75 82 3c 08 67 db bd 44 ec 43 3d 1f a9 96 be
       0.015925074 -0.10713011 0.047832742 -0.29425904
0001c0 ff da d0 be 85 54 21 be 86 fa 5d bc c0 a3 03 bf
       -0.4079208 -0.15754898 -0.013548499 -0.5142174
0001d0 ff bd 02 3e 14 54 bd bd ba 71 bf 3d ef 05 9c bd
       0.1276779 -0.09244552 0.093478635 -0.07618319
0001e0 91 44 24 3d 72 b0 61 3d b3 89 e0 bc 9a 31 b7 bd
       0.040104453 0.055099912 -0.02740941 -0.089450076
0001f0 73 3a 13 3e d7 14 02 3e 09 94 8e 3e c1 58 b1 3d
       0.14377765 0.12703262 0.27847317 0.086595066
000200 68 92 53 bc 8e 40 06 3c 7b 94 88 3e a3 d4 e5 bd
       -0.012913324 0.008194102 0.26675782 -0.11222198
000210 fe 06 35 3c ad 9d 8e be 2a 38 20 bc b0 a0 5a 3d
       0.01104903 -0.27854672 -0.009779016 0.0533759
000220 bc aa 1e bc 30 6f 0f bd 20 11 2a be 54 3b b8 3d
       -0.009684261 -0.035018146 -0.16608095 0.08995691
000230 07 cd d0 3d c0 34 2d 3e e4 ba 0a be d9 1d d8 bd
       0.10195356 0.16914654 -0.13547856 -0.10552568
000240 e1 84 1c be d0 e9 0c 3e 03 3c 46 3e 93 09 bf 3e
       -0.15285064 0.13761067 0.1935883 0.37311992
000250 8b 51 40 bc b2 db e8 3d 7c a1 9e 3d 36 9b e5 3d
       -0.011738191 0.113700286 0.077456445 0.11211245
000260 01 a5 05 bc 85 bb 9d be 62 21 ff 3c 9f c9 83 3d
       -0.008157016 -0.3080713 0.031143848 0.064349405
000270 d3 99 80 be cf 62 0c bf 28 db f0 3e 85 5c ca 3d
       -0.2511736 -0.5483827 0.47042203 0.09880928
000280 33 b2 8d bc 03 70 a7 bc 5e 04 07 bd 4e a4 82 3e
       -0.017296886 -0.020439154 -0.03296315 0.2551598
000290 68 dd ed be ad a2 33 bd fc 8a 47 3e 56 42 63 bf
       -0.46457982 -0.04385631 0.19486612 -0.88773096
0002a0 eb 93 e3 3d df d1 6d be 41 a8 a1 be 30 91 ec 3d
       0.111121975 -0.2322459 -0.3157368 0.1155113
0002b0 52 74 f5 3e 2e 1f 59 be 37 7d 3b bd 21 a9 26 3e
       0.47940308 -0.212033 -0.04577371 0.16275455
0002c0 5c e0 40 bf 71 10 76 3e 7c bd 91 be a0 c0 17 be
       -0.75342345 0.2402971 -0.28464878 -0.14819574
0002d0 dc 1c de be 3c c6 a6 3e e9 a8 0f 3d 16 e8 27 3e
       -0.43381393 0.32573116 0.035073195 0.16397128
0002e0 83 02 f6 3e 8d 89 88 bf ef 26 28 bd 0c bb f6 be
       0.4804879 -1.0666977 -0.041052755 -0.4818958
0002f0 bf 90 4a be ed 2d 7b be 60 a1 df be 29 02 32 3e
       -0.19781779 -0.24529238 -0.43677807 0.17383637
000300 fb 3c 80 be b2 1d 04 bf 9f 2e ec be f2 8e 9f 3d
       -0.25046524 -0.5160781 -0.4612932 0.077909365
000310 39 0d 0c 3e bb cd 3d be 2f a3 74 be a1 7e ef be
       0.13676919 -0.18535511 -0.23890375 -0.46776298
000320 ae 23 a7 be 8e 43 cf bc 2b 39 89 be af 48 57 be
       -0.3264441 -0.025300767 -0.26801428 -0.2102382
000330 3b 92 29 bf 98 fe 11 bf 81 8c 36 bf dc cf 10 bf
       -0.66238755 -0.57029104 -0.7130814 -0.5656717
000340 55 75 dc be 6d 89 08 bf 0e 09 30 bf d8 19 88 be
       -0.43058267 -0.53334695 -0.68763816 -0.26582217
000350 cd 68 1e bf fa ad 48 3e 94 d8 e0 be 66 82 11 bf
       -0.61878663 0.19597617 -0.43915236 -0.568396
000360 c7 2a c6 be 0e 3f 8e be 80 f9 29 bf a9 c6 92 be
       -0.38704512 -0.27782482 -0.6639633 -0.2866719
000370 4c f4 89 be 4d 7c a5 bd d3 05 c4 be f3 8b 73 be
       -0.26944196 -0.08080349 -0.38285694 -0.23783855
000380 8d 25 96 be b6 e1 8f be 04 4c 98 3d 67 ee 50 3e
       -0.29325524 -0.2810189 0.07436374 0.20403443
000390 b1 ba bf 3d 29 ac e4 be b1 99 9a 3e e4 cd 19 be
       0.093617804 -0.44662598 0.30195382 -0.15019947
0003a0 37 56 9f bd df d7 c9 bc 87 3e 5b bd c2 59 95 3e
       -0.07780116 -0.024639068 -0.053526428 0.29170042
0003b0 8e 21 46 3e 61 74 b3 3c 07 75 bf bc e8 54 9b 3e
       0.19348738 0.02190608 -0.023371233 0.30338216
0003c0 2e 19 0f 3e 3a 0d c5 3d 66 61 21 3e 96 04 66 3d
       0.13974449 0.096216634 0.15759811 0.056156717
0003d0 bb 1c 77 3e b3 f4 75 3e f1 f0 1d 3e 47 de 1a 3e
       0.24132054 0.24019127 0.15423943 0.15123855
0003e0 a7 4c bc 3d 23 a5 da 3c 06 50 26 3d 97 b4 2d 3e
       0.09194308 0.026690071 0.04060366 0.16963421
0003f0 bd 5a bf bc dd d6 1e 3e 71 62 93 3e 45 94 65 bd
       -0.023358697 0.15511651 0.28786042 -0.056049604

conv0.conv.bias f4 [32]
000000 18 59 e1 3b 91 f6 d0 3b 7f a2 5c bd 13 e2 dc 39
       0.006877076 0.0063770493 -0.053865906 0.00042130108
000010 93 b2 3a ba 9f a5 9d bc 87 58 03 bd b0 e2 5b 3b
       -0.00071219465 -0.019244013 -0.032066848 0.0033551864
000020 d2 6f 80 bc eb f2 53 3b bd 8d 47 3b de 78 59 bc
       -0.01567832 0.0032340835 0.0030449473 -0.013273446
000030 15 99 35 3b bf 40 20 bb b9 94 de ba 65 a4 d5 ba
       0.0027709652 -0.0024452654 -0.0016981579 -0.0016299604
000040 f6 f7 6f ba 61 2d 02 3c 40 10 d9 3b 0d 63 80 3b
       -0.00091540755 0.0079453895 0.0066242516 0.003918058
000050 5a 3f 93 3b 7e e7 21 bd fa 03 a0 3c 9f 32 7e bb
       0.004493636 -0.03952741 0.019533146 -0.0038787497
000060 22 c0 06 bd 0a 62 61 3a 57 6b 65 bb df ae 46 3d
       -0.032898076 0.0008597678 -0.0035006606 0.048506614
000070 04 4d 98 3b f8 7d 22 bc 43 f7 db 3a ee 79 77 bb
       0.004647853 -0.009917729 0.0016782064 -0.0037761885

conv0.bn.weight f4 [32]
000000 f4 a1 69 3f a7 59 21 3f cf 12 15 3f 22 55 2d 3f
       0.91262746 0.63027424 0.58231825 0.6770803
000010 78 b8 22 3f 2c 5f 03 3f 8a ff 20 3f e5 8b 44 3f
       0.63562727 0.51317096 0.6288992 0.7677596
000020 c1 84 79 3f af 9b 3d 3f 02 99 17 3f e5 52 be 3e
       0.9746819 0.7406568 0.59217846 0.37172619
000030 db 24 19 3f bb 42 78 3f 20 e3 2b 3f b6 7a 65 3f
       0.5982186 0.9697682 0.6714344 0.8964037
000040 a8 8a 26 3f 77 cc ac 3f 7c 8f 4c 3f 5f 4a 2a 3f
       0.6505532 1.3499898 0.7990644 0.6651973
000050 eb 83 30 3f f0 6b 78 3f 7c b2 5a 3f f8 c2 1c 3f
       0.6895129 0.970397 0.85428596 0.61235
000060 80 40 46 3f 0f 3b 32 3f a8 5c 40 3f b8 9d 3f 3f
       0.7744217 0.69621366 0.7514138 0.74850035
000070 dc 86 84 3f 9a bc 03 3f d7 61 06 3f cb bd 06 3f
       1.0353656 0.5145966 0.5249304 0.5263335

conv0.bn.bias f4 [32]
000000 3e 35 1a bf 29 ca d2 3b a7 4c 1a be e6 fd ee be
       -0.6023749 0.006432791 -0.15068303 -0.46678084
000010 f5 2e 77 be 1d f6 d7 3c 96 4b 34 3d 8e 77 01 bf
       -0.24139006 0.026362473 0.044017397 -0.5057305
000020 1f 46 1a be 20 d2 e9 be 77 cc aa be 36 aa b7 3e
       -0.15065812 -0.45668125 -0.3335912 0.35872048
000030 25 cc 8b be 3b f2 d4 be f3 71 a0 be ee b8 04 bd
       -0.27304187 -0.41591057 -0.31336936 -0.032402925
000040 9a 32 61 3b 25 48 86 be 19 e5 ad be a3 04 86 be
       0.0034362436 -0.26226917 -0.3396385 -0.26175413
000050 d1 af 7d be 7a e1 ff 3d 15 02 9c be 64 1d 70 be
       -0.247741 0.12494178 -0.30470338 -0.23448712
000060 66 08 45 be ec 4a fb be 10 7f bf be ae 7f 70 bd
       -0.19241485 -0.49080598 -0.37401628 -0.058715515
000070 b3 e4 0b be 94 ce 29 3f b1 2e 2e be 39 5a ae 3d
       -0.1366146 0.6633084 -0.17009999 0.08513302

conv0.bn.running_mean f4 [32]
000000 f9 cc cb 3e f6 8f d7 3d db e4 76 be 0a 29 34 be
       0.3980482 0.10525505 -0.24110739 -0.1759378
000010 89 0b 2a be 1a b2 24 bd ef 85 df be ab 7b d2 3e
       -0.16605963 -0.040208913 -0.4365687 0.41109976
000020 99 d7 a9 be 08 6b 45 be e8 c6 a2 bd 98 84 9c 3b
       -0.331723 -0.1927911 -0.079480946 0.0047765486
000030 65 2e 19 be 83 d2 b6 bd 1a 94 d2 3d d3 60 cd 3e
       -0.14959104 -0.08926871 0.102821544 0.40112934
000040 07 ba 89 3e 67 6c 77 be 15 01 8d be 7b c4 ce bd
       0.2689974 -0.24162446 -0.27539888 -0.100960694
000050 5a 81 45 3d 94 5b e2 bd 56 a2 4a be 5d ff 87 3e
       0.048219062 -0.110526234 -0.19788489 0.26562014
000060 87 30 4d be e7 21 29 be e2 c1 e8 bd 7c e5 7a bd
       -0.20038043 -0.16516839 -0.11365105 -0.06125401
000070 d7 d1 b2 3e 13 29 45 3e 70 db cc bd 32 d6 a9 3e
       0.3492572 0.1925395 -0.10002792 0.3317123

conv0.bn.running_var f4 [32]
000000 2c aa 2c 3e 0c ff 67 3e db 35 c2 3e 2e 2a 97 3e
       0.1686179 0.22655886 0.37931713 0.29524368
000010 ac b7 8b 3e 37 68 89 3e 85 e5 d1 3e bf be 3b 3e
       0.27288568 0.26837322 0.40995422 0.18334483
000020 78 14 b9 3e e3 05 93 3e 5a 0d 59 3e 34 a9 80 3e
       0.3614843 0.2871543 0.211965 0.25129092
000030 0b 31 79 3e 6a 12 29 3e 15 88 67 3e 16 41 5c 3e
       0.24335115 0.1651093 0.22610505 0.21509203
000040 18 cf 26 3e 7f fe 7b 3e e0 b6 94 3e c0 82 72 3e
       0.16289937 0.24608801 0.29045773 0.2368269
000050 d3 81 a6 3e f3 e7 7c 3e 44 1c 48 3e 73 c6 5d 3e
       0.32520923 0.24697857 0.19542032 0.21657734
000060 7d 87 4d 3e 9b 8f 9a 3e 62 36 82 3e 25 fc 37 3e
       0.20071216 0.30187687 0.25432116 0.1796728
000070 6c ce 73 3e 8f b3 37 3e 60 a7 72 3e d4 60 79 3e
       0.23809212 0.1793959 0.23696661 0.24353343

blocks.0.conv.weight f4 [32, 32, 3, 3]
000000 fa 35 9e 3e 17 94 04 be 22 e1 a9 3e 5e d5 ab be
       0.30900556 -0.12947117 0.33179575 -0.33561224
000010 40 91 44 3e ba 4f 61 be f1 71 81 3e aa 7c 15 be
       0.19196033 -0.2200307 0.25282243 -0.14598337
000020 50 f6 51 3e 02 13 8f 3d 40 ec 4d 3d ca 9f a8 be
       0.20504117 0.06986047 0.050274134 -0.3293441
000030 f5 2e 0c be 9c 56 f7 bd 16 f8 eb 3d 1d 81 3f 3d
       -0.13689788 -0.12077066 0.11521928 0.04675399
000040 92 82 be bd e1 e8 63 be d5 b3 59 3e 25 a4 d2 be
       -0.09302248 -0.22256805 0.21260007 -0.41140857
000050 16 c0 60 bd a3 d6 22 3e 64 89 f7 bd 0c 13 73 3d
       -0.054870687 0.1590219 -0.12086752 0.059344336
000060 f4 73 51 3e 71 57 94 bd 6e 89 67 bd de d1 1f 3e
       0.20454389 -0.072432406 -0.056527548 0.15607402
000070 94 d9 d1 3d 59 fc 92 3d e5 0c 83 3d e4 e9 b4 3e
       0.10246578 0.07177038 0.06398944 0.35334694
000080 33 8b 28 3d 40 04 f6 bd 0f b0 a4 be 60 18 cf 3d
       0.041148376 -0.120125294 -0.32165572 0.10112071
000090 37 19 46 3d 7b 28 10 3e 5d 7e bd bd cb 9b d4 bb
       0.04836389 0.14077942 -0.092526175 -0.0064882985
0000a0 3a 38 97 3e d3 83 5b be e8 fb ad bd 1c d7 ac 3e
       0.29535085 -0.21437006 -0.08495313 0.33757865
0000b0 1e 7b 40 3c 02 54 79 bd e8 45 20 be d3 e6 d6 3d
       0.011748103 -0.06087113 -0.15651667 0.10493245
0000c0 cc df 10 bd 6c d8 99 bd a1 8f 27 3e c6 1c 43 3e
       -0.03536968 -0.07511982 0.16363384 0.19053945
0000d0 76 50 9b 3e 84 05 e4 3d 66 bf 62 3e a5 05 a6 3d
       0.30334824 0.111338645 0.22143325 0.08106545
0000e0 3b d0 ca bd 60 11 89 bd fa c8 1b 3e cf 3e 37 be
       -0.09902998 -0.06692767 0.15213385 -0.17895053
0000f0 03 6d 06 3e 92 02 b6 bc 10 fa ba be 1c 3b 9b 3e
       0.13127522 -0.022218022 -0.36518908 0.30318534
000100 7a b8 14 3f ee 4e ef 3e 9d 1a 09 be 55 5d d8 3e
       0.5809399 0.46739906 -0.13389058 0.42258707
000110 95 b5 99 3d a3 86 86 3e 84 ad a9 3d ea 19 de 3e
       0.07505337 0.26274595 0.082850486 0.43379146
000120 46 ac 6c 3e 70 9a fb be 53 82 4a 3d b3 6a f6 38
       0.23112592 -0.49141264 0.049440693 0.000117500684
000130 e7 37 bf 3e ba da 6d 3e d9 3a 0a 3e 9b 9f c0 3e
       0.37347338 0.23227969 0.13499011 0.3762177
000140 7c 39 85 be e4 3b bd bd bc 24 fa bd e4 94 83 be
       -0.2602042 -0.09239939 -0.12214038 -0.25699532
000150 6b 35 89 bd 18 e5 cf 3e 7a 92 4f be 85 75 71 3e
       -0.06699642 0.40604472 -0.2027072 0.23579986
000160 82 2c ae bd 52 6a 3a be 52 93 05 3e 53 1d 23 3e
       -0.08504583 -0.1820462 0.1304448 0.15929155
000170 c4 b5 11 be 32 bc 4c be f3 f5 89 3e ac c0 c7 bd
       -0.14229494 -0.19993666 0.26945457 -0.09753546
000180 8a 8b 8c 3d e0 2a 14 3e a7 7c a5 3d 28 2b f2 3d
       0.068625525 0.1446948 0.08080416 0.11824638
000190 1d 19 27 bd 5c ad b8 3e 93 5b d6 be b6 06 97 3a
       -0.040795434 0.36069763 -0.4186674 0.0011522386
0001a0 e0 18 c2 3a d4 16 17 3e 31 57 8b bb 6c 66 5c 3d
       0.0014808439 0.14754802 -0.0042523374 0.053808615
0001b0 99 32 c2 be 6d 7f ec bd b4 ec 9e 3e 29 a0 18 3e
       -0.37929228 -0.11547742 0.31039965 0.14904846
0001c0 cc 14 af 3d 65 ac 08 3e f1 32 c2 bd 1a 2d c1 3e
       0.085488886 0.13347013 -0.094823726 0.37729722
0001d0 2c 93 cd 3d 21 f8 28 be e4 92 8b be 7a 39 a0 be
       0.100378364 -0.16500904 -0.27260506 -0.3129385
0001e0 0b 09 75 3d 4e 79 0a bf d7 08 5d be 51 8f 9a b9
       0.059823077 -0.54091346 -0.21585403 -0.00029479948
0001f0 7f 67 70 be 06 3e 25 3e 1f d6 95 be 18 3e 56 3e
       -0.2347698 0.16136941 -0.29264924 0.20922124
000200 23 d9 05 bf f8 40 60 3e 55 65 6b be c9 27 b3 bd
       -0.5228445 0.21899784 -0.22987874 -0.08747823
000210 28 f0 b8 bd b2 9d 9b be 7f e5 9e 3d 32 a1 83 3e
       -0.09030181 -0.3039375 0.07758617 0.2570892
000220 01 ad 35 3e 24 68 51 3e e6 6d 8c 3e ce b5 18 bd
       0.17741777 0.20449883 0.27427596 -0.037282757
000230 a6 97 8b bb e5 0c 65 bb d6 e5 81 3c d5 7e 66 3e
       -0.0042600213 -0.0034950313 0.015856665 0.2250932
000240 a6 0a e4 bd 41 57 1a 3e b9 3c 18 3e 01 45 08 3e
       -0.111348435 0.15072347 0.14866914 0.13307573
000250 d6 39 c7 bd bb 7c 80 3c 85 81 44 bd 5e f0 98 3d
       -0.09727828 0.015684476 -0.047975082 0.074677214
000260 9f b6 26 3e 29 eb a8 bd b2 9e 9c 3e 71 9a 14 3e
       0.16280602 -0.08247978 0.30589825 0.1451204
000270 99 31 84 3e 5f 8e f5 bf 70 71 97 3e d6 f7 a8 3e
       0.2581909 -1.9184073 0.29578733 0.33001584
000280 8f ed 0a 3e 94 e8 c4 b9 be 24 f2 3d 22 78 a6 be
       0.13567184 -0.00037557317 0.11823414 -0.3251353
000290 f5 a9 01 3f f1 21 ac 3e 8e 83 bc be d9 f0 58 bd
       0.5064996 0.33619645 -0.36819118 -0.052964065
0002a0 b4 1e 04 bf 52 b9 80 3e f8 bd f4 3d dd 99 3d 3e
       -0.5160935 0.25141388 0.11950296 0.18515725
0002b0 41 82 89 be 98 61 92 be 26 e3 ae 3c ac 99 2d be
       -0.26857188 -0.28590083 0.021348547 -0.16953152
0002c0 99 0d 59 bd ed df 83 3d 76 c4 a4 be 64 2d 9b bb
       -0.052991483 0.06439195 -0.32181138 -0.0047356356
0002d0 18 b0 6e bd 71 9a 1e bc c6 bf 52 3e 5f de 6b 3d
       -0.058273405 -0.009680376 0.20580968 0.057585116
0002e0 d1 c2 be be 41 b6 66 3c 6b d3 24 3c 5a 41 b1 bc
       -0.37258008 0.014081539 0.010060172 -0.021637607
0002f0 75 2f 92 bd 54 0f d3 3d 75 fb 93 3e b9 b6 22 3d
       -0.07137958 0.10305658 0.28902784 0.03972504
000300 3d 79 45 3e e9 4d a8 be 64 19 98 3e 5a a7 97 3e
       0.1928453 -0.3287194 0.29706872 0.29619867
000310 29 0a e1 3e d5 b4 1c 3e ff c9 b6 bc 58 79 77 3e
       0.43953064 0.15303357 -0.022313116 0.24167383
000320 f4 54 a5 3d ff ce 00 bf d2 ba d8 3e 91 03 fe 3d
       0.08072844 -0.5031585 0.42330033 0.12403024
000330 6f 9c d0 3d a5 7a 02 bf cc 53 44 bc 53 ea 9a 3d
       0.10186087 -0.5096839 -0.011982869 0.07564225
000340 37 17 0a 3d 38 35 0b 3e bf e0 e5 bd cf 15 11 be
       0.033713546 0.1359452 -0.112245075 -0.14168476
000350 9e f2 06 3d 78 e6 ef bd a6 40 1f 3e c4 6c 1a 3e
       0.03294622 -0.1171388 0.15552005 0.15080553
000360 09 21 fe 3d 99 b6 da 3c 77 ad 5a 3e 0a 1d 69 3e
       0.12408645 0.026698397 0.21355234 0.22764984
000370 52 e1 f7 3d 4b a1 01 3e 07 93 93 3d 1b e2 58 3d
       0.12103523 0.12659185 0.072057776 0.052950006
000380 85 cc fd 3d 04 6f 74 3c e9 8b 61 be ba 6e 22 3c
       0.12392525 0.014919046 -0.22026028 0.009914095
000390 25 46 c7 3c c5 67 c8 3d 1a 29 bd be c1 fe 03 bf
       0.02432544 0.097854175 -0.3694542 -0.515606
0003a0 3c d1 c4 be 22 28 29 3e 35 df c8 3d e4 0a a4 3d
       -0.38440883 0.16519216 0.09808198 0.0800989
0003b0 e9 5a 1a 3e 09 38 f1 bd 57 11 8f be 15 8e 88 3d
       0.15073742 -0.11778266 -0.27942917 0.06667725
0003c0 06 7c e0 3d 34 ae 06 3f b5 6b 82 be aa 25 37 3e
       0.109611556 0.5260956 -0.254728 0.17885461
0003d0 b4 98 3b be aa 1b a8 bd 80 24 06 3e c8 37 99 be
       -0.1831997 -0.082084015 0.13099861 -0.2992537
0003e0 a3 97 a2 bd 23 dc bb 3d d2 44 ad 3d 07 98 95 3d
       -0.07939079 0.09172847 0.08460392 0.073043875
0003f0 6c 72 79 3d a9 34 79 be ec ec 83 3d 45 4f 34 be
       0.060900137 -0.24336495 0.06441674 -0.17608364

blocks.0.conv.bias f4 [32]
000000 81 24 87 ba 06 a3 96 3b 4c a4 f4 ba 79 6e 1a ba
       -0.0010310562 0.0045970706 -0.0018664687 -0.00058910955
000010 fe d5 93 bc ff f3 06 3b dd c4 11 bb fc c1 6a 3c
       -0.018046375 0.002059221 -0.0022242584 0.014328476
000020 0f 78 81 ba e5 f8 a9 3b 8a 1c ae 37 b2 a9 55 3b
       -0.0009877699 0.0051871412 2.0755706e-05 0.0032602367
000030 36 02 aa 39 6c 7c 65 b9 6d 71 01 ba b6 53 9a ba
       0.00032426574 -0.00021885493 -0.0004937861 -0.0011774215
000040 63 7f 1c 38 4d 18 fa bb bb 5c 36 3b 6a ca 89 3a
       3.7311936e-05 -0.0076322914 0.0027826268 0.0010512595
000050 21 15 22 38 68 0d 90 3b 8b e9 92 b9 3c 39 e3 b8
       3.8643488e-05 0.0043961294 -0.00028021293 -0.00010834864
000060 2e 9c 83 3b 70 ae 6d 3a 17 44 45 39 01 73 a4 39
       0.004016421 0.0009066826 0.0001881275 0.00031366202
000070 e9 5e fe ba 6b c3 04 3a 51 db e2 39 c8 0d 54 bb
       -0.0019406948 0.000506452 0.00043269483 -0.0032356847

blocks.0.bn.weight f4 [32]
000000 f7 92 5c 3f 37 bd 4a 3f 5d a7 3c 3f 0c a2 80 3f
       0.8616175 0.7919497 0.73692876 1.0049453
000010 a0 f7 8e 3f cd 72 40 3f 04 17 2c 3f e8 b8 5a 3f
       1.1169319 0.7517517 0.6722262 0.85438395
000020 d7 df 50 3f f0 82 79 3f 13 30 5b 3f a8 ce 85 3f
       0.8159155 0.9746542 0.8562023 1.0453691
000030 e0 ab 59 3f e7 32 50 3f ed d5 41 3f 0d 32 3b 3f
       0.85027885 0.8132767 0.7571705 0.73123246
000040 9d 8e 82 3f 98 1f 85 3f a9 01 44 3f ca 18 83 3f
       1.0199772 1.0400267 0.76565033 1.024194
000050 5b 80 52 3f 54 1e 27 3f fd 4c 73 3f 82 0c 73 3f
       0.82227105 0.6528065 0.9503935 0.9494096
000060 06 e3 52 3f d0 9d 62 3f 9f f8 73 3f 2e af 97 3f
       0.8237766 0.8852205 0.9530124 1.1850336
000070 24 3e 36 3f 58 d3 24 3f fd 8d 19 3f eb 28 78 3f
       0.7118857 0.64384985 0.5998228 0.96937436

blocks.0.bn.bias f4 [32]
000000 ce 63 2e bf 54 72 dd be c3 f2 1b 3e 66 3a 62 be
       -0.6812104 -0.43251288 0.15229325 -0.2209259
000010 4d 31 c1 be 57 33 4a be 51 99 62 be e9 4d 91 be
       -0.37732926 -0.19746147 -0.22128798 -0.28379753
000020 26 01 e9 be bd ec 75 be 00 48 10 bf 37 1e 07 bf
       -0.4550869 -0.2401609 -0.56359863 -0.5278048
000030 72 7a 04 bf 41 10 24 bf 1e 43 1c be 03 4c 35 bf
       -0.51749337 -0.640873 -0.15259978 -0.7081911
000040 3e 9c 01 bf 40 b9 b5 be e0 46 88 be d6 59 16 bf
       -0.5062903 -0.35492897 -0.26616573 -0.5873083
000050 96 15 06 bf cf 29 9a be fd 45 5b bf e8 e3 a8 be
       -0.5237669 -0.30110022 -0.8565367 -0.3298638
000060 73 ff 81 bc 2e c9 f8 be be 23 f8 be 57 2c 25 bf
       -0.015868878 -0.48590988 -0.4846477 -0.6452078
000070 24 75 10 bf f3 59 85 be 64 a1 a6 3c 1b f9 5b bf
       -0.5642874 -0.26045188 0.020340629 -0.8592698

blocks.0.bn.running_mean f4 [32]
000000 48 5c d3 3f bd 3b 8c c0 d0 ae 31 40 03 7a c3 3e
       1.6512537 -4.3822923 2.7762947 0.38179025
000010 5a 48 0c c0 df 4b 9f c0 5b e1 3e c0 77 6a db bf
       -2.191916 -4.9780116 -2.9825046 -1.7141865
000020 7b 58 c5 3f 40 70 13 c0 6c bc 0d c0 11 fa d0 bf
       1.5417627 -2.3037262 -2.2146254 -1.6326314
000030 30 de 15 c0 91 03 94 3f 3b a5 0e 40 36 1e c3 bf
       -2.3416862 1.1563588 2.2288349 -1.5243595
000040 92 e3 13 be 1f 83 b8 bf e7 df 33 40 20 bc fc bf
       -0.1444228 -1.4415015 2.810541 -1.9744911
000050 53 98 7f 3e 77 42 0e c0 45 13 cd bf ac 3f 4b 3f
       0.24960451 -2.2228067 -1.6021506 0.7939403
000060 81 9d b7 bf f5 84 ae bf 7f 72 92 be 1a 0a d0 be
       -1.4344941 -1.3634325 -0.2860298 -0.40632707
000070 5d 0e 81 c0 eb e1 ac 3f d2 45 0a 3f 7f da a9 c0
       -4.0330033 1.3506445 0.5401279 -5.307922

blocks.0.bn.running_var f4 [32]
000000 9d 27 64 40 67 e0 a7 40 22 5e ed 40 c4 20 99 40
       3.5649178 5.246143 7.417741 4.7852497
000010 f3 be 34 41 5d f7 f4 40 7b f3 dc 40 ab 0d 77 40
       11.296618 7.6551957 6.9047217 3.8602092
000020 41 a4 77 40 28 50 6d 40 d7 2c 80 40 ea 52 be 40
       3.8694003 3.7080173 4.0054736 5.9476213
000030 7b b6 87 40 44 07 a1 40 c3 9b cd 40 38 f7 81 40
       4.2410254 5.032137 6.425264 4.061428
000040 48 b7 73 40 46 e1 06 41 77 e5 65 40 fb 90 88 40
       3.8080616 8.429998 3.5921304 4.267698
000050 db a6 46 40 84 c7 ea 40 07 8b 81 40 b1 63 9a 40
       3.103934 7.336855 4.048221 4.8246694
000060 82 5f 43 41 4a 5e 70 40 bd 43 9b 40 9c 4a c1 40
       12.210817 3.755755 4.852019 6.0403576
000070 18 ed fb 40 88 f6 87 40 48 95 ab 40 7e ca b5 40
       7.872692 4.248844 5.361973 5.6809683

blocks.1.conv.weight f4 [32, 32, 3, 3]
000000 e0 9d 1b 3e d4 49 89 3c 2d 3b 62 3d d3 da e2 be
       0.15196943 0.016758837 0.055232216 -0.44307575
000010 07 6c a0 3e af 83 14 be 7c 3d dd 3d b2 cf 03 bf
       0.31332418 -0.14503358 0.10802743 -0.5148879
000020 fe ab a6 3d e1 8d 1d 3d 82 ba ab 3e 9c 46 20 be
       0.08138274 0.038465384 0.33540732 -0.15651935
000030 2f 85 73 bc c7 70 1b 3d 73 cb 96 bd 7c 2c 51 be
       -0.014863296 0.03794935 -0.073630236 -0.20427126
000040 b2 2e dd 3e 10 d1 22 3d 7b 8c c5 3b 87 35 4d be
       0.43199688 0.03975016 0.0060287095 -0.2003995
000050 2b 0b ef 3d 00 2a 90 be 3a ba 39 bf d1 7c a2 bd
       0.11672052 -0.28157043 -0.72549784 -0.07933963
000060 96 7f 27 bd dd cf 0d 3e 37 8a 3d 3e c5 9b 88 3e
       -0.04089316 0.13848825 0.18509756 0.26681343
000070 a0 94 26 be 34 1a 33 3e 77 d6 19 bd a4 07 0c 3f
       -0.16267633 0.17490464 -0.037558045 0.5469916
000080 cd f4 14 be ba 32 2f bc 28 d9 1c bf 42 22 67 be
       -0.14546509 -0.0106932465 -0.61268854 -0.22571662
000090 4a 2f 2b 3e 14 7e 7a 3e 61 6d cc be 98 79 5e 3c
       0.16717258 0.24462157 -0.399272 0.013578795
0000a0 65 b5 78 be 9f 18 86 be fd 43 a9 3d fa d8 8e bc
       -0.24287947 -0.2619066 0.08264921 -0.017437447
0000b0 98 4f 7b bd fa 77 9f be c2 91 b4 bb c6 6f c5 3e
       -0.061355203 -0.31146222 -0.0055105397 0.3856184
0000c0 28 f0 af 3c 74 b9 8a 3e 15 13 2f 3e 0b e1 11 3e
       0.02147682 0.27094615 0.17097123 0.14246003
0000d0 2f 38 0f 3e 4e d4 c0 3e 7f c7 60 bd b2 b3 20 3e
       0.13986276 0.37661976 -0.054877754 0.15693548
0000e0 24 bd e0 be 4d b9 fa bd 6b fc 15 bd 19 3b 44 be
       -0.43894303 -0.122423746 -0.036617678 -0.19163169
0000f0 b2 e0 a9 3d d7 22 7b 3e f6 c6 b0 bd 4e e3 25 bd
       0.0829481 0.24525009 -0.08631699 -0.040499978
000100 0a 79 44 bf 34 46 8e 3d 72 1a 7a bc 3e 04 02 3e
       -0.7674719 0.06946984 -0.015265094 0.12696931
000110 25 8e f1 be 42 47 c7 bd 17 11 b4 be 0b d8 39 3e
       -0.4717876 -0.09730388 -0.3516929 0.1814882
000120 d2 13 fa bc 2c 9a 0e be 98 51 bf bd bf b2 34 3c
       -0.03052703 -0.13926 -0.09341735 0.0110289445
000130 c7 4a b7 bb 5d 23 36 be e0 0a 3d 3d 08 84 42 be
       -0.005593631 -0.17786928 0.04615295 -0.18995678
000140 1b 91 77 3e 9e a3 9a bc ba 76 e3 bd 36 5d 42 be
       0.24176447 -0.018876847 -0.1110663 -0.1898087
000150 f1 04 08 3f 5a 12 2e 3e 1d f2 82 be dd ed eb 3d
       0.5313254 0.16999188 -0.25575343 0.11519978
000160 fe 40 ba bd 84 97 4a 3c 24 99 b5 3d f8 be c4 bd
       -0.090944275 0.012365226 0.088671 -0.09606737
000170 d5 d1 50 3d 09 cd d6 bc 2d 34 34 be f9 44 c0 3d
       0.05098136 -0.026220815 -0.17598028 0.093881555
000180 ad 1c 1d 3e 8c 1f 9f bc ff 42 4a be 52 68 3e 3e
       0.1534297 -0.019424222 -0.1975212 0.18594483
000190 e6 31 62 bd a1 68 46 3e 00 c0 ad bd 01 5d 15 3e
       -0.055223368 0.1937585 -0.08483887 0.1458626
0001a0 e5 39 26 3d 8e 52 0f be 78 71 e6 be 52 92 f6 3d
       0.040582556 -0.13996336 -0.45008445 0.12039627
0001b0 47 fa 8e be 98 43 8b 3e fe 6a c1 bc b8 40 6a be
       -0.2792532 0.27200007 -0.023610588 -0.2287625
0001c0 b7 24 6e 3e 8b c8 a7 3b 9c 27 bd bd fe 10 09 bc
       0.23256193 0.005120342 -0.092360705 -0.008365868
0001d0 b7 24 4c 3e 2d 2c c4 bd 43 35 ab be df e2 9b be
       0.1993588 -0.09578738 -0.33439073 -0.30446526
0001e0 c2 be 2f be c1 76 25 bf a4 45 f9 3d 2a 04 82 bd
       -0.17162612 -0.6463433 0.12171486 -0.063484505
0001f0 2f ed 38 3e 3f 27 0a 3e 28 85 7d 3e fd 9b 1a be
       0.18059228 0.13491534 0.24757826 -0.15098567
000200 f5 b2 12 be 2e 27 85 3d 4b 18 e9 be a5 a4 7f 3e
       -0.14326079 0.065016136 -0.45526347 0.2496515
000210 02 5a 8b bd 73 b8 9c be 9c 01 cf 3d 30 79 09 be
       -0.06804277 -0.30609474 0.10107729 -0.13425136
000220 67 79 2a 3e 12 90 49 3e 12 93 66 be 14 c3 37 3e
       0.16647874 0.19683865 -0.2251704 0.1794551
000230 4d 48 96 bb 57 a9 82 be 71 58 33 be c7 38 cb 3d
       -0.0045862556 -0.2551982 -0.17514206 0.09922939
000240 2c 88 92 3e fb 70 0f bf 41 2d 41 3e aa b2 9c bd
       0.28619516 -0.5603177 0.18864919 -0.07651265
000250 48 7f a9 be d6 a3 2c 3d 02 54 93 be bb 16 b7 bc
       -0.3310492 0.042148434 -0.2877503 -0.022349706
000260 fc 37 25 be 62 6f 80 3e fc b8 81 bc 64 06 36 be
       -0.16134638 0.25084978 -0.015835278 -0.17775875
000270 2e 33 e5 be 8a 9d 91 bf 5f 79 76 bd c3 8a cb 3d
       -0.4476561 -1.1376202 -0.060174342 0.09938576
000280 b2 45 a1 be 41 1d fa bd 7d 03 f4 3d bf 00 94 3e
       -0.31498486 -0.12212611 0.11914728 0.2890682
000290 60 de 14 be 6b f4 b4 3d 78 0a 83 3d dd ce ca 3d
       -0.14537954 0.088356815 0.06398481 0.09902737
0002a0 5c db 95 bd f7 c0 67 3e 4d 0e d5 bd f8 fb 1e be
       -0.0731723 0.22632204 -0.10403118 -0.15525806
0002b0 ce ff 8e bd a2 69 6e be a4 d0 a1 bc ae 71 15 3e
       -0.069823846 -0.23282483 -0.019752808 0.14594147
0002c0 1a a5 f4 3d d9 c9 0a bf 34 5a bb be c9 cd 26 bf
       0.11945553 -0.54214245 -0.36592257 -0.65157753
0002d0 a0 73 21 3e cf 93 b4 be 9d 6d 09 3e c1 39 14 bd
       0.15766764 -0.3526902 0.1342072 -0.03618789
0002e0 61 98 fe bd 49 89 a9 3e 24 8d 00 be 4f e1 84 bd
       -0.12431408 0.33112553 -0.12553841 -0.06488287
0002f0 49 cb 25 3d dc 68 84 bd 35 57 33 bb d0 ac 8a be
       0.04047707 -0.06465313 -0.0027365212 -0.2708497
000300 22 05 c4 bd bf c6 0f bf 88 f0 c9 bd 93 c6 da bd
       -0.095712915 -0.5616264 -0.09860331 -0.10682406
000310 c6 80 08 3b 75 1e 64 be fd c8 bf bd 97 c5 72 be
       0.0020828708 -0.22277243 -0.09364507 -0.23708187
000320 01 71 b4 3e 24 03 25 bb 72 93 25 be 80 2c e0 be
       0.35242465 -0.0025178874 -0.16169527 -0.4378395
000330 ad 47 b0 bd 45 ef 5d be c6 02 c6 bd 9c 4f 90 be
       -0.08607421 -0.21673305 -0.09668498 -0.28185737
000340 aa c4 99 bd 31 de 71 3e 0a cb 0d bf 61 ea f6 be
       -0.07508214 0.23619916 -0.5538794 -0.48225692
000350 ef 6a 49 3d b7 1b 61 3d 3f 48 b4 be 15 02 68 be
       0.049174245 0.05495807 -0.3521137 -0.22657044
000360 31 14 19 3e f2 0e bc bd 85 6d 8b be 22 d4 78 bd
       0.14949109 -0.09182538 -0.27231994 -0.06074918
000370 f2 e6 90 be 1c 00 bc be 56 19 72 bd f8 21 62 3e
       -0.28301197 -0.36718833 -0.059106193 0.2208327
000380 43 6f a2 be 0c 64 c1 bd b6 98 d7 3c 42 25 fc bd
       -0.3172551 -0.094429106 0.026317935 -0.12311794
000390 40 81 50 be e6 60 b1 3c 96 e6 82 bd a1 df 06 bf
       -0.20361805 0.02165265 -0.06391637 -0.5268498
0003a0 6a 2d 2f 3e 2b 59 97 3c 97 e9 8f 3e d9 0d 89 3e
       0.17107168 0.018475136 0.28107902 0.26768377
0003b0 27 b1 fc 3e 37 67 d1 3c 57 62 dd be a7 96 2f be
       0.49353907 0.025561912 -0.4323909 -0.17147313
0003c0 aa 8b 9d be 30 0a d6 3d 62 88 ad be 10 9a 50 3e
       -0.30770618 0.10451162 -0.33893114 0.2037127
0003d0 08 47 2b bd 95 28 61 be ed ab 46 be 07 a0 c7 be
       -0.041815788 -0.21988137 -0.19401522 -0.3898928
0003e0 21 42 b8 3e f8 47 7e 3e ff 1f af bd b0 f8 ca 3d
       0.35987952 0.24832141 -0.08551025 0.099107146
0003f0 97 a4 22 be b5 f6 0a be 88 30 6f 3e f7 0f 0d bf
       -0.15883099 -0.13570674 0.23358357 -0.55102485

blocks.1.conv.bias f4 [32]
000000 af 4e ec 3b 87 7f 2b 3a 4e d4 c6 38 76 1a 3d bc
       0.0072115283 0.00065421354 9.4809206e-05 -0.011541953
000010 5d b4 3d bb e6 dd e4 ba 2a f0 21 3c 0b f3 1f b9
       -0.0028946616 -0.001746115 0.00988392 -0.00015253962
000020 af 22 49 3c 2d 0d 1e ba 5a 7b 59 3a 00 24 66 3a
       0.012276336 -0.0006029185 0.0008296274 0.0008779168
000030 dc 6d 6b bb 00 2d 37 b9 7b 79 9b 3a c7 0d 98 bb
       -0.0035923636 -0.00017469004 0.0011861766 -0.0046403143
000040 98 2c 13 ba 1b 31 5e ba 33 0f b2 b9 66 56 3f 3b
       -0.000561425 -0.0008475945 -0.0003396213 0.0029195785
000050 5f e8 97 b9 7f 8e 88 bc 94 9b 18 38 57 4c 00 3b
       -0.00028974094 -0.01666951 3.6384517e-05 0.0019576752
000060 db 4f 37 38 1d d2 e8 3a 0a 90 dc 39 e9 ca f1 bb
       4.370497e-05 0.0017762814 0.00042068987 -0.007378925
000070 88 88 9d b9 16 e9 0e 3a 74 7b 33 ba 23 32 7c 35
       -0.00030047097 0.00054516026 -0.0006846704 9.3950274e-07

blocks.1.bn.weight f4 [32]
000000 0e 28 25 3f 08 6c 65 3f ba 4a 20 3f 87 70 80 3f
       0.64514244 0.8961797 0.62614024 1.0034341
000010 9b 59 7f 3f 65 fe 3d 3f 9d 08 2a 3f a4 16 48 3f
       0.997461 0.742163 0.6641939 0.78159547
000020 86 1b 7b 3f f9 ad 68 3f 4c 0b 57 3f 84 64 74 3f
       0.9808887 0.9089046 0.8400161 0.95465875
000030 fe 35 99 3f 12 bf 65 3f 46 41 88 3f 89 2a 86 3f
       1.1969602 0.89744675 1.064492 1.0481731
000040 78 cc 8e 3f c8 d6 4f 3f 2b 84 64 3f 42 be 59 3f
       1.1156149 0.81187105 0.8926417 0.85055935
000050 2b c4 7c 3f 1c cd 61 3f 89 5d 9b 3f 85 08 99 3f
       0.9873683 0.882036 1.213792 1.1955725
000060 b1 58 5d 3f a4 ab 9d 3f c8 ad 87 3f 61 51 5e 3f
       0.8646346 1.2318006 1.0599909 0.86842924
000070 4e ed 42 3f ef 85 3f 3f 6a a4 12 3f 8c 83 93 3f
       0.7614335 0.7481374 0.57282126 1.152452

blocks.1.bn.bias f4 [32]
000000 cd 69 44 be b6 ce fd be fd 3d e4 3d 56 cf d4 be
       -0.19180985 -0.4957177 0.11144636 -0.41564435
000010 71 41 15 be 14 06 8c be d2 90 b8 be 84 53 05 bf
       -0.14575745 -0.27348387 -0.3604799 -0.5208056
000020 67 ef 1f bf 68 fa b2 be 6f 32 1a bf 7d 4c 21 bf
       -0.62474674 -0.3495667 -0.60233206 -0.63007337
000030 9c 24 13 bf 88 98 c8 be 6a 4d c1 be 91 0d b0 be
       -0.57477736 -0.39178872 -0.37754375 -0.3438535
000040 63 e9 1f bf e7 d3 c8 be 19 ab d5 be 17 96 fb be
       -0.62465495 -0.3922417 -0.417321 -0.49137947
000050 68 f4 45 bf d1 f9 f1 be 7d db 43 bf 98 34 05 be
       -0.7732606 -0.47260907 -0.7650679 -0.13008344
000060 50 51 40 bf 16 c1 9e bd a7 c2 b2 be 5b 9f ba be
       -0.75124073 -0.07751672 -0.34914133 -0.36449704
000070 e4 72 86 be f3 ad 24 bf ef e0 a0 bd 4d 6f cb be
       -0.2625953 -0.64327925 -0.07855403 -0.39733353

blocks.1.bn.running_mean f4 [32]
000000 37 fa a8 c0 05 a9 73 c0 b4 ae 16 be 64 5f a6 bf
       -5.280544 -3.8071911 -0.14715081 -1.2997861
000010 29 5c 83 c0 3f 8e 1a bf 39 f1 0a 40 b0 41 9e bf
       -4.105 -0.603733 2.170973 -1.2363796
000020 2e a5 8b c0 82 65 b1 be e8 c8 15 be 88 b7 9a 3f
       -4.3639135 -0.34647757 -0.14627421 1.2087259
000030 73 13 e1 bf 58 a1 f9 3f 98 5d 1c c0 c9 91 6c c0
       -1.758406 1.9502363 -2.4432125 -3.696398
000040 f3 a4 da bf 96 68 f0 3d cb 08 f6 bf 45 31 8a c0
       -1.7081589 0.11738698 -1.9221433 -4.3185143
000050 61 fc 96 bf 40 7b 1f c0 32 0f 2b c0 aa ab 01 c0
       -1.179577 -2.4918976 -2.6728024 -2.0261025
000060 97 b3 11 c0 bb 92 3d 3e 4a f9 01 c0 f5 41 4f c0
       -2.2765863 0.18513004 -2.0308404 -3.2384007
000070 0f 45 22 40 92 fe 2c c0 72 cc 8b 3f c9 65 14 c0
       2.535465 -2.7030377 1.0921767 -2.3187125

blocks.1.bn.running_var f4 [32]
000000 da 03 3b 41 ae 8c df 40 66 6a 1d 41 fa 1f 23 41
       11.68844 6.985923 9.838476 10.195307
000010 36 58 00 42 29 12 5e 41 6f 53 01 41 7b d7 ef 40
       32.086143 13.879434 8.08287 7.495054
000020 ef 74 a0 41 5e 77 e5 40 67 85 30 41 ec e4 e4 40
       20.057096 7.170821 11.032569 7.1529446
000030 2e eb 32 41 dc 80 29 41 93 b6 9f 41 ef f5 38 41
       11.182417 10.59396 19.964148 11.560042
000040 c3 8d 00 41 09 f2 49 41 57 8d 1a 41 ae 19 52 41
       8.03461 12.621591 9.659507 13.131269
000050 6e 54 fe 40 c0 c0 6a 41 9f 4d 1e 41 49 fc 59 41
       7.9478064 14.672058 9.89395 13.624093
000060 b5 a7 f0 40 48 96 08 41 09 db 59 41 64 83 84 41
       7.520472 8.53669 13.615975 16.564156
000070 be 35 f4 41 03 1d 74 41 f4 dd 80 41 b7 a0 e0 40
       30.526241 15.257083 16.108376 7.0196185

blocks.2.conv.weight f4 [32, 32, 3, 3]
000000 5e 11 f4 3d 2e 77 ab 3d da 31 08 be d3 6d 1f be
       0.11917375 0.08372341 -0.13300267 -0.15569238
000010 bf b3 81 3b 76 d6 ab be 03 2f 4f be 5f 47 3c be
       0.003958195 -0.33562058 -0.20232777 -0.18386601
000020 fa 60 03 be b8 10 06 be 2b 74 01 be 25 a6 7d be
       -0.12829962 -0.13092315 -0.12641971 -0.2477041
000030 9b fd ba 3d 4f ac 94 be 03 2e 8b be ba 93 bd bd
       0.09130403 -0.2903771 -0.27183542 -0.09256692
000040 2d 26 67 be 5d 2d 04 be 79 2c f2 bd a8 6a a6 3d
       -0.22573157 -0.1290793 -0.11824889 0.08125812
000050 69 1d 8b 3e da 49 e5 3b 6f 0a 40 3d ff 74 e3 3c
       0.27170876 0.006997329 0.04688495 0.027765749
000060 29 b2 a0 3e 22 1c 37 be f8 e6 c9 be 68 e9 c2 3d
       0.31385925 -0.17881826 -0.39434028 0.09517175
000070 25 e0 7a be ab 25 e0 3e 3a c6 6c 3e 8a e8 6c bd
       -0.24499567 0.43778738 0.23122492 -0.057838954
000080 d2 00 3f be da f3 00 be 8c 75 ab 3d 73 64 21 3e
       -0.18652657 -0.12593022 0.0837203 0.15760975
000090 fa 1c 23 3e 4e 7b 65 3e f1 6c 0b 3f a8 1c fe 3d
       0.15929022 0.22410318 0.54463106 0.124078095
0000a0 0c fe b3 3e 43 af f8 3e 2d e1 1f 3e 16 ab ef 3e
       0.3515476 0.48571214 0.15613241 0.46810216
0000b0 12 b7 a6 3e 43 5c 2e be f1 8a 2c 3e 6e fd f7 3e
       0.32561547 -0.17027383 0.16849877 0.4843554
0000c0 a2 62 e1 3d e8 de d1 3e 51 b5 c1 3d bf e3 d5 bd
       0.11005141 0.40990376 0.094584115 -0.1044383
0000d0 22 5a 47 be 6b 44 5a 3c e9 a0 46 bd b3 3c a4 3e
       -0.19467977 0.013321976 -0.0484933 0.3207756
0000e0 26 e4 d2 3d 43 ca c0 3c ac dc 84 3d fe 55 d7 3d
       0.10297422 0.023533946 0.06487402 0.105144486
0000f0 d8 fe 15 be aa 51 a4 3d f0 90 88 be f0 d2 90 3d
       -0.14647996 0.08023389 -0.2667308 0.07071483
000100 7d a2 17 bf b7 cf 05 3d 39 6d 1c 3d f7 ef 22 bd
       -0.5923231 0.032668795 0.0381901 -0.03977963
000110 3d d4 92 be 77 30 0e be 40 71 31 be 84 a5 7d 3e
       -0.2867755 -0.13885675 -0.17328358 0.2477017
000120 aa 87 18 3e c7 fa 76 3d eb 41 01 3e fe 94 cc 3d
       0.14895502 0.060297754 0.12622802 0.099893555
000130 a1 f4 c2 3e 88 87 32 3d c3 63 11 3f 35 7d 9b be
       0.38077262 0.043586284 0.5679285 -0.30368963
000140 10 d0 e3 bd 38 23 a9 be 6e 24 e3 3d 46 5b f5 be
       -0.11123669 -0.33034682 0.11090933 -0.479212
000150 6d 8e 39 3c 6b cf f8 bd ab 4a bb be 5b d8 e1 be
       0.011325461 -0.12148937 -0.36580405 -0.4411038
000160 dc df 56 be 7f ab 2c 3e 7d 15 84 bd d6 b6 98 be
       -0.20983833 0.16862296 -0.06449411 -0.29826993
000170 cd 79 b4 bc ff 94 59 be ca 70 ae be a8 3b 2e 3d
       -0.022030735 -0.21248244 -0.34070426 0.04253736
000180 d0 43 0d 3e f5 be 41 bc d8 34 a4 be 17 30 85 bd
       0.137954 -0.011825313 -0.32071567 -0.06503313
000190 46 bc 9f 3a 81 65 2d bd c2 85 32 3e 56 00 d1 3e
       0.0012186847 -0.04233313 0.17433837 0.4082057
0001a0 a0 db 1f bd 83 5b 64 3e 7a a4 27 be a2 44 eb 3e
       -0.03902781 0.22300534 -0.16371337 0.459508
0001b0 3e b7 3c bd 0d d7 d2 be 04 21 63 3d 9e c0 2f 3e
       -0.04607319 -0.41179696 0.055451408 0.17163321
0001c0 d4 a8 29 3e b7 75 ca 3d 04 44 51 bd b3 43 34 3e
       0.16568309 0.098857336 -0.051090255 0.1760395
0001d0 da 5f b7 3d b5 14 8a 3d 1b 45 89 be f4 49 17 be
       0.08953829 0.06742231 -0.26810536 -0.14774305
0001e0 2e d1 92 be a1 eb 97 be 1d c6 82 3e 92 07 ae bd
       -0.28675216 -0.29671958 0.25541773 -0.08497538
0001f0 a1 8c b1 be 11 10 25 bc da 14 5e be 1b 26 a9 be
       -0.34677604 -0.010074631 -0.21687642 -0.33036885
000200 5b 7e 01 bf be 5f 88 bd e1 f1 a1 be 18 d1 85 3c
       -0.5058343 -0.066588864 -0.3162985 0.016335055
000210 77 cf a1 be 1f 08 65 3e 15 a0 b0 bd 87 d8 85 be
       -0.31603596 0.22366379 -0.08624283 -0.2614176
000220 90 84 b9 bd dd 6c 11 be c8 5c d0 3c a4 08 70 be
       -0.090584874 -0.14201684 0.025434867 -0.23440796
000230 17 07 03 3e d4 6c d2 3c b0 43 1e be 3d 16 d9 3e
       0.12795673 0.025686659 -0.15455508 0.4239978
000240 fa 1d 69 be 8b b3 0a 3e b0 cd 80 be 76 8e 7c bd
       -0.22765341 0.13545053 -0.25156927 -0.0616593
000250 9f e3 52 be 55 53 57 3d cc a4 85 3e a8 5a 6c bd
       -0.20594643 0.052569706 0.26102293 -0.057703644
000260 84 a2 9e 3d f3 50 e7 bd 28 2f 6a 3e 68 ea 0f 3e
       0.07745841 -0.11294737 0.22869551 0.14054263
000270 31 e0 61 bd 20 f6 a1 bd 46 b5 c4 3e cd 11 46 be
       -0.055145446 -0.07908273 0.3841955 -0.19342728
000280 61 82 b6 be 5f 4e c9 3d e1 10 e8 3c dd b9 ef 3e
       -0.35646346 0.09829401 0.028328361 0.4682149
000290 21 1f 82 be 99 1f 76 3d f8 99 df 3e b5 e2 25 3e
       -0.25414374 0.060088728 0.43672156 0.16199763
0002a0 92 d4 b1 bd 37 0e 79 3e d0 e3 a1 bd 44 8e 4d 3e
       -0.08683123 0.24321829 -0.0790478 0.20073801
0002b0 23 4f 0a be 37 b5 3e 3e 90 f2 97 be 04 ac f9 bd
       -0.13506751 0.18623815 -0.29677248 -0.121910125
0002c0 b4 75 05 3b 65 82 a6 be 21 ce 96 3d 3c 97 7f be
       0.0020364346 -0.32521358 0.07363535 -0.24960035
0002d0 7f b0 a1 3d 66 d3 a2 3e 36 ad ef 3e 72 a5 cc 3e
       0.07894992 0.3180191 0.46811837 0.39969975
0002e0 11 a9 5b 3e 91 46 35 3e 05 f1 c9 3d 7c 00 be 3c
       0.21451212 0.177027 0.09860424 0.02319359
0002f0 25 c1 31 bb ba 9d 2c 3e f1 3b c0 bc 2c bf e1 3d
       -0.002712318 0.16857043 -0.023466082 0.11022791
000300 a1 14 a9 3e e5 a7 1a 3e fa 44 b0 bd 91 af 19 3d
       0.3302355 0.15103109 -0.08606906 0.03752095
000310 5c 4c 7e 3d ab 03 dd 3e 70 16 2e 3e 79 85 a2 be
       0.06208454 0.4316686 0.17000747 -0.31742457
000320 d4 ef c0 be 94 3b 4d be cc f4 4a 3e b5 d7 13 bf
       -0.37682974 -0.20042259 0.19819945 -0.5775102
000330 c0 42 60 be 91 c8 18 be 51 a5 d8 be d1 35 9e be
       -0.21900463 -0.1492026 -0.42313626 -0.30900434
000340 a3 e2 1a 3e ce cc f2 3d df 9f 0a bf 1a 18 8d be
       0.15125518 0.1185547 -0.54150194 -0.2755745
000350 df a8 74 3c b3 85 10 bf ed 65 8e be 9c bb 94 bd
       0.01493284 -0.5645401 -0.27812138 -0.07262346
000360 3a 4a 85 3e e2 5b a6 3d 5c 1d 8a be 83 93 56 bd
       0.26033193 0.08122994 -0.26975524 -0.052386772
000370 ef 8c e2 3e af 07 26 be ae 08 2e be d8 e7 5c be
       0.4424815 -0.16213869 -0.16995499 -0.21572816
000380 cf 85 80 3d 69 01 81 3d fb 0b 83 3e a9 28 97 be
       0.06275522 0.06299097 0.25595078 -0.2952321
000390 6a 01 e4 3d 7c b6 4d 3e b7 ea 5e bd 6b 3f 01 3f
       0.11133082 0.20089144 -0.05442306 0.50487393
0003a0 80 73 3b 3e c0 fd 1a 3d b1 46 0b 3d 5c 09 22 bc
       0.18305779 0.03783965 0.034002963 -0.009889927
0003b0 28 68 04 3c 92 a4 90 be eb 65 43 be f6 f5 70 bd
       0.008081473 -0.28250557 -0.19081847 -0.058828317
0003c0 10 f8 87 3e ea 12 aa bd ba 5d 0d bd 08 a4 0c be
       0.26556444 -0.08304389 -0.034513213 -0.13734448
0003d0 12 79 fc 3c 43 4b 96 3e ee e6 8f be 3e 90 51 3d
       0.03081945 0.29354295 -0.28105873 0.05116295
0003e0 05 85 b2 be 72 d1 b3 be c0 1b 82 bd 11 6f 7f 3e
       -0.3486711 -0.35120732 -0.06352949 0.24944712
0003f0 d0 2e ae 3e 14 58 68 bd 25 02 09 be ee 9d da be
       0.3402009 -0.056724623 -0.13379724 -0.42698616

blocks.2.conv.bias f4 [32]
000000 d4 78 87 ba b8 52 61 b8 de 86 a0 b9 60 b3 50 39
       -0.0010335692 -5.3721218e-05 -0.00030618062 0.00019903248
000010 42 e1 16 bb d1 39 45 3a b0 8e c7 3b b2 5d 85 b9
       -0.0023022448 0.0007523569 0.0060900077 -0.00025437545
000020 c6 f1 c0 b9 9f 84 7a 3b 26 75 97 b9 0d e0 eb bb
       -0.0003680123 0.003822602 -0.00028888247 -0.00719834
000030 8e ad 44 b9 96 ab 7c 3b ee 77 b7 bb 27 aa 5f bb
       -0.00018756671 0.0038554422 -0.0055990135 -0.0034128518
000040 d0 55 d6 b8 df 8b 8b bb dd 3a 8d bb 64 51 08 bb
       -0.00010220299 -0.0042586173 -0.0043099956 -0.0020800466
000050 e3 51 af ba a0 d3 db b9 87 77 8e ba 56 e8 1a bc
       -0.0013375845 -0.00041928608 -0.0010869362 -0.009454807
000060 8f 33 bc 3a e9 0e 1c 3c 34 3e ad 38 77 0b 87 3a
       0.0014358627 0.009525039 8.260869e-05 0.0010303099
000070 43 5c e0 ba 02 f3 a2 bb b3 80 00 b7 89 8c 76 39
       -0.001711734 -0.0049728164 -7.65936e-06 0.00023512742

blocks.2.bn.weight f4 [32]
000000 2f 03 42 3f 0f 28 50 3f d5 a3 1c 3f 02 3a 34 3f
       0.7578611 0.81311125 0.6118749 0.7040101
000010 60 0b 2b 3f 47 14 2a 3f 30 db 81 3f 5a 26 91 3f
       0.6681423 0.6643719 1.0145016 1.1339829
000020 92 8d 32 3f 59 1f 74 3f bf 7e 42 3f 9f 17 59 3f
       0.6974727 0.9536033 0.7597465 0.8480167
000030 8a 5c 3c 3f 88 dd 57 3f 2d c0 5b 3f ab 79 9c 3f
       0.73578703 0.84322405 0.8584011 1.222463
000040 36 16 98 3f b1 86 80 3f c7 2a 45 3f aa fb 83 3f
       1.1881778 1.0041105 0.770184 1.0311177
000050 4f 0f 86 3f a3 12 7b 3f a6 b2 5f 3f 47 3e 7b 3f
       1.0473422 0.9807531 0.8738197 0.981419
000060 c8 21 a6 3f a4 e2 81 3f 8a 86 8a 3f f0 2e 31 3f
       1.2979059 1.014729 1.0822308 0.69212246
000070 5d 65 ec 3e ee f2 77 3f 31 6e ad 3e 62 f3 58 3f
       0.46171084 0.96855056 0.33873132 0.8474637

blocks.2.bn.bias f4 [32]
000000 fc 41 10 be 9c 75 fd be 58 2c 2d be 9c af 87 be
       -0.14087671 -0.4950379 -0.16911447 -0.26501167
000010 17 22 1f bf 77 49 ab be fb 91 6e be ee 17 22 bf
       -0.6216139 -0.33454487 -0.23297875 -0.63317764
000020 a7 fe 15 bf ab 52 01 bf a6 c8 10 bf 80 9e cf be
       -0.58591694 -0.50516766 -0.56556165 -0.40550613
000030 1f 30 3a bf 21 66 c8 be 71 e8 af be 63 3f 12 bf
       -0.72729677 -0.39140418 -0.34357026 -0.5712797
000040 05 38 fd be bf b6 0d bf d3 6b bb be ca 7f a6 be
       -0.49456802 -0.55356973 -0.366057 -0.3251937
000050 1c a8 17 bf 90 9c 50 bf 06 ad d0 be de 2b 02 bf
       -0.5924089 -0.81488895 -0.40757006 -0.50848186
000060 59 76 2f bf 88 9a 06 bf ca 22 21 bf 36 b6 83 be
       -0.6853996 -0.52579546 -0.6294371 -0.25724953
000070 b1 2e ce 3a ed e0 b9 be 1e 83 86 3e 05 3d 14 bf
       0.0015730468 -0.36304417 0.2627191 -0.5790561

blocks.2.bn.running_mean f4 [32]
000000 09 7e 02 bf c9 4f 31 c0 10 92 28 c0 53 2a 42 bf
       -0.50973564 -2.7704947 -2.633915 -0.7584583
000010 a4 ff b2 c0 05 8d 13 40 2d 7d 6e bf 9a a1 64 bf
       -5.593706 2.3054821 -0.93159753 -0.89309084
000020 5e f9 41 bf 92 d0 e8 bf ef fe 84 be fb c2 36 bf
       -0.7577113 -1.8188651 -0.2597575 -0.71391267
000030 f1 5a 1e 3f 24 99 86 c0 32 95 54 c0 d4 15 46 c0
       0.61857516 -4.206194 -3.3216062 -3.0950823
000040 62 68 a1 be bb 77 95 bf 5c 9b 78 c0 3a 1c c8 be
       -0.3152495 -1.1677164 -3.8844824 -0.39084035
000050 fd 0d ba bf d7 35 09 bf 17 dd 11 c0 e4 8c 7b c0
       -1.4535519 -0.5359778 -2.2791193 -3.9304743
000060 3d 1f 1e c0 58 05 70 c0 81 21 41 c0 23 40 ba be
       -2.4706566 -3.7503262 -3.01767 -0.36377057
000070 cc af 03 c0 4f c2 79 c0 27 7c e4 3e 37 05 9d bf
       -2.0576048 -3.9024847 0.4462597 -1.2267216

blocks.2.bn.running_var f4 [32]
000000 d1 30 bb 41 f9 04 8c 41 97 63 99 41 2b 9d 50 41
       23.398836 17.502428 19.173628 13.038371
000010 5b d5 89 41 2f 49 83 41 c1 99 a7 41 80 88 42 41
       17.229177 16.410734 20.950075 12.158325
000020 bb d6 3c 41 f9 34 84 41 c6 ff 06 41 7f 0a 6a 41
       11.802424 16.525866 8.437445 14.6275625
000030 ce 94 e6 40 72 a7 f5 41 6b 1a db 41 e2 be 24 41
       7.2056646 30.70676 27.3879 10.296602
000040 18 ed ec 40 85 60 9c 41 22 01 25 41 fc 99 25 41
       7.403942 19.547129 10.312777 10.350094
000050 33 ba 4f 41 af 81 5b 41 81 68 5b 41 ae 85 a7 41
       12.982959 13.719161 13.713014 20.940273
000060 9c be 2c 41 67 25 30 41 55 71 1e 41 3a d0 a2 41
       10.7965355 11.009131 9.902669 20.351673
000070 95 7d a2 41 6f b9 91 41 90 05 c2 41 b4 7e 49 41
       20.31132 18.215544 24.252716 12.593433
