models/284.pth (torch, 501905 bytes, 80 tensors)

conv0.conv.weight f4 [32, 17, 3, 3]
00000000: e390 64bd d846 1d3f 8cbd a33e ec03 f03e
00000010: db0b febe 7045 3d3f 79d6 2a3e 02a4 073f
00000020: 91f6 853e abd1 26bd 28d8 823d 4fc4 d7bc
00000030: 86cb 9fbd 0fa1 9fbe d85e 38bd 6acf 1c3e
00000040: d66e d13d 70f5 25ba d8f9 b7bc ca00 85bd
00000050: 9f5c 343e ff9d 7c3d 3bc8 86be 478f dcbd
00000060: 72da c4bd 0884 6f3d 0ae2 5dbc 67a4 83bd
00000070: 242a bc3d ae4d 133e 1b70 b3bb b91f 32be
00000080: 0cd9 c9bd 40a1 2b3e 6dea aabb ae0b 90be
00000090: 7739 d73e 67a9 be3e 0c32 e83e 3ffe c93e
000000a0: 5c4b 1bbf 138d e13e 0a3a e33e b97c c53e
000000b0: 2262 2b3e ca39 383e 2731 c23e 2df7 563e
000000c0: b3d2 5d3e bb46 40be bfb2 a13e 87a2 213e
000000d0: 0bd8 ea3e d323 763e 7d43 053f 154c 9d3e
000000e0: 6dbf b03d e171 8f3e f2d5 1bbe aa72 b93e
000000f0: 1280 ac3e a080 963e 2f27 b93e 2093 a83e
00000100: 1e0a cd3e 3142 653e c9cb 863e 6016 6cbe
00000110: 0591 a33e aead 713e 56d8 c33e 653c eb3e
00000120: a2ab b1bc eb94 143e 181a eabd 2a9b 283e
00000130: 17da f23e 88b4 6a3d dfc7 243b 7fce 0d3e
00000140: 6dce 41bd 4109 4ebd d5cc a83d 066c 403c
00000150: 86a8 753d 9b1e 1a3f c161 b23c 2942 3fbc
00000160: cf3d 4f3c 6e69 cf3d 29fc 3fbc 2279 f03d
00000170: d8b5 6ebd d97b 4e3d 6836 073f c649 133d
00000180: 3e29 44bc 6a82 583d 3317 133c f941 29bb
00000190: 6fc5 d73d 8039 aa3b 86e8 8d3d 916c f43e
000001a0: 6d07 013e 309c 22bd 37d8 223e 3868 39bc
000001b0: d4b7 893c d717 e8bd 66ab d93c 2fc4 8cbe
000001c0: fcbc cfbe b60a 31be 7452 7cbc 9f88 02bf
000001d0: d999 0a3e e04f d3bd c616 a53d 0470 d6bd
000001e0: 7cf9 623d cf56 573d 328e 46bd 31a4 8dbd
000001f0: 5edb 093e 834c fd3d 64f3 8d3e 4fcd a13d
00000200: 6dd7 c9bc 4128 abbb 0799 823e 33f7 01be
00000210: 009c b0bb 6f27 8dbe 81ce 23bc 5c16 013d
00000220: 1feb 76bc 9da0 20bd ecc4 03be 4ccb bb3d
00000230: d27d c43d 4473 383e a3c2 eabd 8800 cebd
00000240: 4923 fcbd f0c2 0a3e 567c 423e 55f5 bd3e
00000250: 7582 cfbc 5373 d43d 68f9 d63d f11a f13d
00000260: 8802 1cbc 5585 a6be 7a8a 883c af1f 063d
00000270: 790f 69be cf79 0ebf ebb3 fa3e 1ba2 e73d
00000280: d0af 11bd add5 d5bb bb69 80bd 3b55 8b3e
00000290: 705b f0be 69ef 50bd 44fa 3c3e bf0c 5dbf
000002a0: 97ce e03d d02d 64be 3ca6 a5be ab75 003e
000002b0: f59c f63e cab9 4bbe 2e22 26bd 0256 283e
000002c0: b454 43bf b2ae 6a3e 5400 87be f113 f7bd
000002d0: 4fb0 dcbe d290 a83e 4c38 0a3d 4c98 2b3e
000002e0: b3df f43e 3c2a 8abf 1a65 63bd a706 00bf
000002f0: 2234 3ebe 3bd4 84be bef0 e1be 8785 233e
00000300: f0d7 72be 0919 03bf 6786 ebbe e35f 883d
00000310: 7ed8 123e bc3f 37be a0a6 87be 7fef f2be
00000320: 230b 9cbe 309c c8bc d6cb 7fbe 128a 3dbe
00000330: 6fbb 2bbf 95eb 0ebf 9d0c 33bf 100f 0dbf
00000340: 9731 d9be 815e 0cbf 8445 2cbf 4f65 91be
00000350: ff45 1ebf dfae 4d3e ed45 e0be d86d 0ebf
00000360: 5dce b9be cc42 8bbe 067f 2abf 1ed5 7cbe
00000370: e308 8ebe 6739 f9bd dc74 c7be 7431 75be
00000380: 88a1 8ebe 03ef 90be 8405 a93d ca6f 343e
00000390: fe74 ae3d 85ac dabe 5c5a a33e efc0 26be
000003a0: cc9c 94bd c318 d2bb d8a1 65bd d60c 9a3e
000003b0: ee44 4a3e f07d 073c d8ef b1bc 32b4 9e3e
000003c0: dd40 0b3e 888d df3d 1433 333e 0d01 923d
000003d0: cdea 693e 677e 673e 26a1 2e3e 0b39 193e
000003e0: aa97 a23d 504b 1a3d 57bb 273d b91b 383e
000003f0: 49cf c3bb 8354 363e dd5e 933e 29f3 65bd
-0.055802237 0.61436224 0.3198055 0.46877992 -0.4961842 0.7393408 0.16683377 0.5298463
0.26164678 -0.0407273 0.06388885 -0.026338724 -0.07802491 -0.31177565 -0.045012325 0.15313497
0.102262184 -0.00063308235 -0.022458002 -0.06494291 0.17613457 0.061674114 -0.2632464 -0.107695155
-0.09611978 0.058475524 -0.013542661 -0.06427842 0.09187725 0.14385101 -0.0054760105 -0.17394914
-0.098558515 0.1676073 -0.005215934 -0.2813391 0.4203603 0.3723862 0.45350683 0.39451787
-0.60661864 0.44052944 0.44380218 0.38571718 0.16736653 0.17990795 0.37928125 0.20992728
0.21662407 -0.18776982 0.31581685 0.15784656 0.45867953 0.24037103 0.52056104 0.30722108
0.086302616 0.2801657 -0.15218332 0.36220294 0.3369146 0.29395008 0.36162707 0.32924747
0.4004678 0.22388531 0.2632735 -0.2305541 0.3194658 0.2360141 0.3825099 0.45944515
-0.021688286 0.14509933 -0.11430758 0.1646544 0.47432014 0.057301074 0.0025143547 0.13848303
-0.047316004 -0.050301794 0.082421936 0.011744505 0.05997517 0.6020295 0.021775128 -0.011673489
0.012649014 0.10127531 -0.0117178345 0.11741854 -0.05827889 0.05041108 0.5281739 0.035959028
-0.0119727235 0.052858748 0.008977699 -0.0025826676 0.10535704 0.005194843 0.06929116 0.4773908
0.12600489 -0.039699733 0.15902792 -0.011316352 0.016811289 -0.11332672 0.026570987 -0.27493426
-0.4057387 -0.17289242 -0.015400518 -0.5098972 0.1353525 -0.10317969 0.08060984 -0.10470584
0.055413708 0.05257302 -0.04847545 -0.06916083 0.13462588 0.12368109 0.27724755 0.07900488
-0.024638856 -0.0052233045 0.25507376 -0.12691955 -0.0053896904 -0.27569148 -0.009997965 0.031515464
-0.015070706 -0.039215673 -0.12868088 0.09169635 0.09594311 0.1801272 -0.11462905 -0.10058695
-0.123114176 0.13550925 0.18992743 0.37101236 -0.025330761 0.10373559 0.10496789 0.11772717
-0.009522088 -0.325236 0.016667593 0.03274506 -0.22759809 -0.55654615 0.48965392 0.11310216
-0.03556806 -0.0065257163 -0.062701665 0.27213463 -0.4694476 -0.05100957 0.18454844 -0.86347574
0.10976904 -0.22283101 -0.3235339 0.12544887 0.48166624 -0.19895092 -0.04055994 0.1643906
-0.7630112 0.22918203 -0.26367438 -0.120643504 -0.43103263 0.3292299 0.033745095 0.16757315
0.4782692 -1.0794139 -0.05551634 -0.5001015 -0.18574575 -0.2594317 -0.44128984 0.15968905
-0.23715186 -0.51210076 -0.46000978 0.06658914 0.14340398 -0.17895406 -0.26494312 -0.47448346
-0.30477247 -0.024488539 -0.24980101 -0.18509701 -0.67082876 -0.5582822 -0.6994112 -0.5510111
-0.42420647 -0.548317 -0.6729357 -0.28397605 -0.61825556 0.2008624 -0.4380335 -0.5563636
-0.36290255 -0.271994 -0.6660007 -0.24690673 -0.27741155 -0.12169152 -0.38956344 -0.23944646
-0.27857614 -0.2830735 0.08253005 0.17620769 0.08518408 -0.42709747 0.31904876 -0.16284536
-0.07256469 -0.0064116432 -0.05606255 0.30087918 0.19752857 0.008269772 -0.021720812 0.30996853
0.13598962 0.10915667 0.17499954 0.07129107 0.22843476 0.22606812 0.17053661 0.14963166
0.07939084 0.03766948 0.040950146 0.17979325 -0.005975638 0.17805676 0.28783312 -0.0561401

conv0.conv.bias f4 [32]
00000000: a32f b4bb 3bcb 583b e0dd 42bd 0904 82ba
00000010: 72a6 5dba 99d8 aaba 2d16 f8bc 4603 08bb
00000020: 9cf4 a5bb 5177 afba 78ba cbba 5148 deb8
00000030: a1f3 9c3a 5a03 9abb 557e c93a 7343 083c
00000040: c24c c13b 41a9 1c3c 65fd 963c 50f4 66bb
00000050: 8f81 e4ba 9318 49bd a5b0 903b 0b24 053a
00000060: 5f26 d7bc b7a5 153b 8806 99b5 0c42 c03c
00000070: ae12 a73a 3d1c f2b9 13d2 dbb9 950e 9abb
-0.005498843 0.003308012 -0.047574878 -0.0009919415 -0.0008455283 -0.0013034522 -0.030284012 -0.0020753904
-0.00506456 -0.0013387 -0.0015543243 -0.00010599255 0.0011974463 -0.0047001066 0.0015372733 0.008316862
0.005899043 0.009561838 0.018431375 -0.0035240836 -0.0017433631 -0.0490957 0.004415589 0.0005078918
-0.026263414 0.002283437 -1.1401289e-06 0.023468994 0.0012746656 -0.00046178876 -0.00041927453 -0.0047014453

conv0.bn.weight f4 [32]
00000000: 45b7 673f 1d01 253f 7e9c 153f 5f6c 313f
00000010: 5da7 243f 3ead fd3e 9bac 203f 5185 453f
00000020: 8cbf 793f 5838 403f 2f36 133f d1b5 c03e
00000030: c382 183f cbbc 783f 33a3 2d3f 73ed 653f
00000040: db27 263f 2ee5 aa3f f382 4c3f 3ab6 263f
00000050: ee7e 2e3f 9f7f 753f f76c 583f 396d 1f3f
00000060: e5e4 443f bd9a 333f 6534 403f 6e01 3d3f
00000070: 6117 863f 700d 073f e3ae 0a3f a9e0 093f
0.9051402 0.64454824 0.58441913 0.69305986 0.64317876 0.49546236 0.62763375 0.7715655
0.975579 0.75085974 0.5750455 0.37638715 0.59574527 0.97163075 0.6782715 0.89815444
0.64904565 1.335119 0.7988731 0.65121806 0.6816243 0.9589786 0.8454127 0.62276036
0.76911765 0.70157987 0.7507995 0.73830307 1.0475885 0.5275488 0.54173106 0.5385843

conv0.bn.bias f4 [32]
00000000: adae 1cbf bb69 cd3c 4766 1fbe 212c e6be
00000010: 2ac5 6bbe 8bfc 6e3c 2478 183d e787 febe
00000020: 8b8d 14be 1e41 eabe 1c21 bbbe 32fa ac3e
00000030: 9015 8bbe 6e17 d4be c201 9abe 2ba8 08bd
00000040: 845b 3abb 5fc7 87be be76 acbe 98e4 91be
00000050: 2644 82be 4585 f53d 8c36 9fbe 73d3 65be
00000060: 9e98 4abe 5155 f8be 0c5d c1be 6bbd 58bd
00000070: 2b2d fdbd 7cbd 2a3f 707f 26be e33e b83d
-0.61204034 0.02507483 -0.1556636 -0.44955543 -0.23024431 0.014586578 0.03722395 -0.4971306
-0.1450712 -0.45752805 -0.36548698 0.33784634 -0.27164888 -0.41424125 -0.30079466 -0.033363502
-0.0028435895 -0.26519296 -0.33684343 -0.28494716 -0.25442618 0.1198831 -0.31096303 -0.22443943
-0.19784781 -0.4850259 -0.37766302 -0.052915018 -0.12362131 0.6669538 -0.16259551 0.0899637

conv0.bn.running_mean f4 [32]
00000000: 1c78 cc3e 53a0 e63d 260e 61be 58bc 22be
00000010: 8c3a 1bbe 027c 11bd b8d4 dbbe 04ba d03e
00000020: c7ab a2be 3526 39be c807 b5bd 1810 37bb
00000030: 4eed 1fbe b96e babd ede8 cc3d c59b cc3e
00000040: ef20 8c3e 69f4 7cbe f8c3 88be 9d43 f6bd
00000050: 8d5d 773d 6210 efbd 129a 6abe 68df 913e
00000060: 3778 48be 07ba 24be d26c dfbd 280e b0bd
00000070: 7aa2 b13e 30b8 553e b298 c1bd 4d88 ab3e
0.39935386 0.11261048 -0.21978053 -0.1589216 -0.15159053 -0.035518654 -0.4293573 0.4076692
-0.3177168 -0.18080981 -0.08839375 -0.0027933177 -0.15617868 -0.0910315 0.100053646 0.39962593
0.27368876 -0.2470261 -0.26712012 -0.12024615 0.06039195 -0.11673047 -0.22910336 0.28490758
-0.19577108 -0.16086589 -0.10909428 -0.0859645 0.34694272 0.20871043 -0.094529524 0.33502427

conv0.bn.running_var f4 [32]
00000000: 7498 2f3e 3be6 693e f9b8 bb3e 48f1 903e
00000010: 929c 893e e94e 8a3e eb98 cf3e 90ee 3b3e
00000020: 2918 ba3e 88e2 923e 4971 583e a8f2 863e
00000030: 3127 7e3e 92e2 2a3e b499 6b3e 9928 593e
00000040: fd6e 283e 130e 7e3e 08d4 973e af03 793e
00000050: 2cc0 a83e fd7a 803e 9d39 523e 5e41 603e
00000060: b9ab 4b3e ca49 9f3e e639 813e a9a0 383e
00000070: 8898 733e 5416 383e 16d9 723e d353 7b3e
0.17148 0.22841732 0.3666456 0.28309083 0.26877266 0.2701333 0.40546355 0.18352723
0.36346558 0.28688455 0.21136965 0.26357007 0.24819638 0.16687992 0.23007852 0.21206893
0.16448589 0.24810056 0.29653955 0.24317811 0.32959116 0.25093833 0.2052979 0.21899936
0.19889726 0.31110984 0.25239486 0.18030037 0.23788655 0.17977268 0.23715624 0.24543695

blocks.0.conv.weight f4 [32, 32, 3, 3]
00000000: e0b5 a43e f0ea 11be a370 a73e 53b6 b1be
00000010: 0818 3b3e dc6c 55be 8420 8a3e 4069 17be
00000020: f5de 603e 2ff5 943d 6537 4f3d 7447 aabe
00000030: 98b6 11be 41d1 0cbe 1111 e03d 7d34 7e3d
00000040: 981b d9bd 4676 67be f6be 693e 310f debe
00000050: bbc1 26bd 6e3c 1c3e 0f60 01be 186c 563d
00000060: a3c5 513e e308 aebd 6f74 58bd ed44 123e
00000070: 684d 9d3d c273 9e3d 6e38 703d 6f6c a53e
00000080: 3322 2e3d b479 04be 3d02 a3be b7ee bd3d
00000090: aae9 2b3d b456 193e e9a0 c5bd 5376 96bc
000000a0: 3232 953e e29a 4bbe ba3a 9fbd e648 af3e
000000b0: 3222 e53b abae 59bd f4b3 1dbe efc7 d53d
000000c0: d4f9 15bd 0d0a d0bd be9b 273e 2081 403e
000000d0: e9f6 963e d93e c53d 67c4 573e 0af4 c03d
000000e0: 0d18 cebd 0b65 86bd 9cad 243e 5f8b 2dbe
000000f0: eb44 013e fa13 adbc 738c babe 531d 9c3e
00000100: 8859 153f c179 ec3e 7fdb 0fbe 3acd d83e
00000110: d31e 983d 530e 943e 3c9c 943d 7771 d53e
00000120: 7a84 5f3e 17ee f1be 4b38 563d 1b98 09bc
00000130: d46d ba3e 1a57 703e b36b ec3d 1ed3 bb3e
00000140: 3c56 89be bdcb c4bd 6fd4 1bbe d9b3 8cbe
00000150: d2de 72bd e05e c83e 4c23 3cbe 5dd6 6d3e
00000160: e52b c1bd f09a 48be bc32 f83d 63f2 1f3e
00000170: 9974 15be c255 49be 6c7e 8c3e 2581 cabd
00000180: 7de4 913d d50a 063e 070c a93d d269 023e
00000190: 49b6 2abd 7915 bc3e f188 e3be 82cc b93b
000001a0: c1c5 91bb 9653 183e 80b4 7d3b 1dc8 8c3d
000001b0: 9265 bdbe ac14 e5bd 85aa 923e 0bc2 103e
000001c0: 6359 d03d 60d1 033e 0827 ecbd ad25 c93e
000001d0: 04f3 cf3d 7c3f 3abe df9f 92be b1b7 9ebe
000001e0: f1cf 833d d7e9 08bf ee3c 4ebe df3c 613c
000001f0: a9c2 57be 0c20 1e3e 84b5 97be 54ac 4b3e
00000200: f93b 02bf 2c63 5d3e 7a5a 63be dcc2 c2bd
00000210: db88 95bd f866 9abe 3448 853d 6ff4 883e
00000220: cffb 3b3e fbfe 483e ef00 933e 1516 f4bc
00000230: 9281 49bc 84fe f939 d8c5 073d 74fe 573e
00000240: f722 e1bd fd1d 153e 0137 263e d514 093e
00000250: 39a9 dcbd ffdb bb3b ebed 3abd 9a45 9b3d
00000260: d72e 253e 6904 87bd 6ecd 9e3e 33ee 263e
00000270: 4161 823e 8202 f6bf 5b68 903e f464 a83e
00000280: 8cad e23d abbd 913b 0baa d63d c358 a7be
00000290: 2aae fc3e 301b ae3e 8c7b babe a494 87bd
000002a0: 808b 04bf c636 743e dbfa ec3d 8d2c 2c3e
000002b0: de8e 77be d7e3 91be fa36 1c3c 2f1d 2bbe
000002c0: 84bc 4abd a716 5c3d 8345 b3be 5caf b4bc
000002d0: 1a4e acbd 81d7 12bd 24e8 453e 7c80 243d
000002e0: 069f c1be 525b 273c 3329 963b a2ce 7cbc
000002f0: e2b7 9bbd 3bbd e33d 4b4f 943e 0139 243d
00000300: cb8c 383e 75e7 adbe cbcc 943e d08d 993e
00000310: e082 db3e a42b 1f3e 3830 b0bc 8b12 7e3e
00000320: 5caa ae3d 4aea f6be 2bf1 e13e 3447 fb3d
00000330: 5fc0 cb3d e2b3 03bf 97d6 efbb 35cc 983d
00000340: d94b 1a3d ec50 123e c8d1 f8bd 20aa 23be
00000350: cb0b e33c 2bf0 edbd 1fa9 1c3e 9edf 1a3e
00000360: ea87 e13d af83 823c 10cb 673e a677 6b3e
00000370: 261b d53d 941a ee3d 5e93 993d f2c7 3b3d
00000380: 22fa de3d 6668 ad3c b1ed 77be 1fe5 873c
00000390: d5fd f13c 0ab3 e23d d7f5 bdbe ce22 04bf
000003a0: 1965 ccbe 9846 1f3e de40 c43d 094f a73d
000003b0: a780 263e 498b f6bd 146a 8fbe 2dd9 5e3d
000003c0: ced4 ff3d b13c 053f a9e6 82be 08b4 3b3e
000003d0: 00df 4cbe b157 a8bd dbb4 eb3d 9b03 9fbe
000003e0: 8c4a c3bd 888c ad3d 23a0 b03d ea29 7b3d
000003f0: bc5b 8a3d 6155 7ebe b5c2 853d 66e6 37be
0.3217001 -0.14249778 0.32703122 -0.34709415 0.18270886 -0.20842308 0.26977932 -0.14786243
0.21960051 0.072733276 0.050589938 -0.3325764 -0.1422981 -0.13751699 0.10940755 0.062061775
-0.10600966 -0.22603711 0.22826752 -0.43370965 -0.0407121 0.15257427 -0.126343 0.05234918
0.20485549 -0.08497789 -0.052845415 0.14284106 0.0768078 0.07736923 0.058647566 0.3230929
0.042513084 -0.12937051 -0.31837645 0.09274047 0.041970886 0.14974481 -0.09649832 -0.018366968
0.29139858 -0.19883302 -0.07774873 0.34235305 0.006992602 -0.053145092 -0.15400678 0.10438525
-0.036615208 -0.10158167 0.16368005 0.18799257 0.29485252 0.09631128 0.21071015 0.09421547
-0.10063181 -0.06562241 0.16081852 -0.16947697 0.12623946 -0.02112769 -0.3643528 0.30491123
0.5833974 0.4618664 -0.14048575 0.42344075 0.07427754 0.2891718 0.07256362 0.4168813
0.2182788 -0.4725196 0.05229978 -0.008398081 0.36411917 0.23470727 0.115439795 0.36684507
-0.26823604 -0.096091725 -0.15217756 -0.27480963 -0.05929453 0.39134884 -0.1837284 0.23226304
-0.094322 -0.19590354 0.12119052 0.15619807 -0.1459526 -0.1966162 0.27440202 -0.098879136
0.07123659 0.1309007 0.08254247 0.1273568 -0.041677747 0.36735132 -0.44440416 0.005670131
-0.004448623 0.14875636 0.0038712323 0.06874106 -0.36991554 -0.111855835 0.2864572 0.14136522
0.10173299 0.12872839 -0.11530882 0.39286557 0.101537734 -0.1818828 -0.28637597 -0.3099952
0.06436146 -0.5348181 -0.2014043 0.013747423 -0.2107035 0.15441912 -0.29630673 0.19889957
-0.5087276 0.21619862 -0.22202483 -0.09509823 -0.07301494 -0.30156684 0.06507912 0.26748988
0.18357776 0.19628517 0.2871165 -0.029795686 -0.012298958 0.0004768261 0.033147663 0.2109316
-0.10992997 0.14562221 0.1623192 0.13386853 -0.10774464 0.0057330127 -0.045637053 0.07581635
0.16131149 -0.06592638 0.31016105 0.16301803 0.25464824 -1.9219515 0.28204617 0.3288952
0.11068258 0.004447659 0.10481652 -0.32684907 0.49351627 0.34005117 -0.36422384 -0.06620148
-0.5177536 0.2384902 0.115712844 0.1681387 -0.24175593 -0.2849414 0.009534592 -0.16710351
-0.04949619 0.05373254 -0.3501397 -0.022056274 -0.08413334 -0.03585005 0.19326836 0.040161595
-0.37816638 0.010214644 0.004582548 -0.0154301245 -0.07603432 0.11120077 0.28966746 0.040093426
0.18022458 -0.3396565 0.29062495 0.29991007 0.42873287 0.15543991 -0.021507367 0.24811761
0.08528587 -0.48225623 0.4412931 0.1226944 0.09948801 -0.51446354 -0.0073192823 0.074608244
0.03766999 0.14288682 -0.121493876 -0.15982866 0.027715584 -0.11618074 0.1529889 0.15124366
0.11012252 0.015931932 0.22636056 0.22994861 0.10405569 0.11626163 0.07498811 0.04584498
0.10887553 0.021167945 -0.24211766 0.016588746 0.029539982 0.11069305 -0.37101623 -0.5161561
-0.3992088 0.15554273 0.09582685 0.08169372 0.16260014 -0.12038285 -0.2801062 0.054406334
0.12491761 0.5204573 -0.25566605 0.18330395 -0.20006943 -0.08219851 0.11509105 -0.31057438
-0.09535703 0.0847407 0.08624294 0.06131927 0.06755778 -0.24837257 0.06531278 -0.17958984

blocks.0.conv.bias f4 [32]
00000000: 07cc 17bb 5086 6dbb 47e3 493a eaf7 9b3a
00000010: 704f 5bbc 9ee0 9c3b d3a2 7bbb 0ee3 e9bb
00000020: cbfe 883a 4463 76bb 0cb1 83b6 2a57 ff39
00000030: aafb f239 88ac df38 dee5 c3ba 5020 dbb9
00000040: cb23 8dbc 1b92 0a3c b02b d9b9 0df3 b2b8
00000050: bc0d 79b9 6843 063b b1fa 6aba e047 90ba
00000060: fec0 153c 7662 a838 6b5d 8638 f603 7639
00000070: 4036 69ba 5a3c 49ba 0a25 17bc 6585 243c
-0.0023162381 -0.0036243387 0.00077014085 0.0011899446 -0.013385639 0.0047875186 -0.0038396611 -0.0071376627
0.0010451911 -0.0037595788 -3.924715e-06 0.00048702332 0.0004634534 0.00010665605 -0.0014945825 -0.0004179501
-0.017228981 0.008457686 -0.00041422015 -8.532973e-05 -0.00023751607 0.0020486955 -0.00089637475 -0.0011007749
0.009140251 8.029204e-05 6.4070184e-05 0.00023461864 -0.00088963285 -0.00076765346 -0.009225139 0.010041569

blocks.0.bn.weight f4 [32]
00000000: 008c 5d3f 9510 4e3f d0d3 3a3f befd 7f3f
00000010: fff5 8e3f ebf4 413f 7b20 2a3f 1152 583f
00000020: f195 4a3f 669e 793f aacb 5d3f 456e 843f
00000030: 1385 5b3f d6f3 523f 8648 443f fa8f 393f
00000040: 1a27 813f a702 853f 9301 473f e066 833f
00000050: e6a0 503f ff35 283f c97f 793f 6efb 703f
00000060: f8db 4c3f 1f14 613f 383e 763f 4724 963f
00000070: cf3a 363f 9b0e 253f 2a92 173f d14f 773f
0.8654175 0.8049405 0.7297945 0.99996555 1.1168822 0.7576434 0.6645581 0.84500223
0.7913504 0.9750732 0.8663889 1.0346152 0.8574993 0.82403314 0.7667316 0.72485316
1.0090058 1.0391434 0.7773678 1.026577 0.8149551 0.6570739 0.9746061 0.9413365
0.80023146 0.8792133 0.9618869 1.1729821 0.71183485 0.6447541 0.59207404 0.96606165

blocks.0.bn.bias f4 [32]
00000000: 0362 2ebf ff14 d9be 2868 1b3e 054c 60be
00000010: f73f bebe 9e7d 4bbe 7f0c 6abe a9bb 8fbe
00000020: 9e99 f2be 51db 71be cbfc 0ebf 6862 0abf
00000030: f080 06bf d77a 21bf cf4f 2abe 7de3 35bf
00000040: c2ba 02bf 54c7 babe 9a18 89be 8a9c 17bf
00000050: 5ebf 05bf cffe 9dbe e7fb 58bf f9eb aabe
00000060: 62b3 c6bc 33a7 f6be 5fb2 f8be 68ac 26bf
00000070: 8126 0fbf bd37 84be 2398 cb3c adcc 5bbf
-0.68118304 -0.4239883 0.15176451 -0.21903999 -0.37158176 -0.19872138 -0.2285633 -0.2807286
-0.47382826 -0.23618819 -0.5585448 -0.54056406 -0.52540493 -0.63078064 -0.16632007 -0.71050245
-0.5106622 -0.364802 -0.26776582 -0.59223235 -0.5224513 -0.30858466 -0.8475937 -0.33383158
-0.024255458 -0.48174438 -0.48573586 -0.6510682 -0.5591813 -0.25823775 0.024852818 -0.85859185

blocks.0.bn.running_mean f4 [32]
00000000: 0c91 bf3f dba7 86c0 67bb 3840 5457 973e
00000010: 7fa8 10c0 a51d 9ec0 79b0 44c0 ee6c e1bf
00000020: 6a3c ca3f 208b 17c0 5e1b 04c0 d647 bcbf
00000030: e2ec 0ac0 c5be 9d3f 02e4 0e40 04ed d1bf
00000040: 0e22 3dbe d6f7 b5bf 4e4a 3240 de8f eebf
00000050: 08ae f03e b22c febf c057 b4bf 427d 6a3f
00000060: b8d7 bcbf de0d a1bf 24d7 8bbe f0b7 aebe
00000070: d09e 84c0 7936 b93f 589a fc3e 0960 a9c0
1.496614 -4.20799 2.8864381 0.29558814 -2.2602842 -4.9411187 -3.073271 -1.7611368
1.5799687 -2.3678665 -2.0641704 -1.4709423 -2.1707082 1.2323843 2.2326665 -1.6400456
-0.18470022 -1.4216259 2.7857852 -1.8637655 0.47007775 -1.985739 -1.4089279 0.9159738
-1.4753332 -1.2582357 -0.27312577 -0.34124708 -4.1443863 1.4469749 0.49336505 -5.292973

blocks.0.bn.running_var f4 [32]
00000000: 89e1 6140 c090 a240 96b1 fa40 6054 9b40
00000010: 6ae7 3641 c826 0141 dc71 e940 6345 6e40
00000020: b25b 8040 926a 7140 2a3f 7d40 6dbf c640
00000030: 0ec1 8040 532b a640 6019 c740 61fd 8640
00000040: cf03 7f40 0fd4 0441 e8bf 5f40 2dfe 8740
00000050: 8dfb 4d40 ecd6 ed40 cf30 8040 2a51 9b40
00000060: 763f 4341 7349 6e40 829a 9740 e3e4 c740
00000070: bbad fa40 da31 8b40 ee77 ae40 b2d7 b440
3.5293906 5.0801697 7.834178 4.8540497 11.431498 8.071968 7.295149 3.722985
4.0111933 3.7721295 3.9569802 6.2108674 4.0235662 5.1927886 6.2218475 4.21843
3.9846075 8.301772 3.496088 4.2497773 3.2184784 7.4324856 4.005958 4.8536577
12.202993 3.723233 4.737611 6.2466903 7.8337073 4.3498354 5.45214 5.65133

blocks.1.conv.weight f4 [32, 32, 3, 3]
00000000: fcd3 213e 180d 4a3c 85d3 113d 1e37 debe
00000010: 1200 a43e 07ee 08be 1003 073e 1d28 02bf
00000020: e72b 9d3d 5c66 043d 7457 ae3e ff84 05be
00000030: dc43 98bc b52f 933c 46d9 b2bd 6ee7 35be
00000040: f464 d73e 299d ea3c 3079 493c 1411 53be
00000050: 46e6 0c3e fb58 8cbe 3b94 36bf 0382 87bd
00000060: 0443 b7bc 3175 113e 5dd9 453e b9c1 893e
00000070: 3b14 2dbe ffca 283e 5f06 04bd 75f6 083f
00000080: bc7f 22be 03a1 81bc 52a9 15bf 509c 65be
00000090: 9c91 223e 839a 7e3e 9963 c8be 4bdf ae3a
000000a0: 3f1b 7dbe 1041 88be 8043 913d 20ac bebc
000000b0: 2e9f 82bd 684d 9fbe cda4 31bc 2358 cb3e
000000c0: 901f f83c d320 853e 2a26 283e 2484 173e
000000d0: 7c74 103e fd9b bf3e 80da 73bd 27fc 1c3e
000000e0: 7e9b e4be 8d67 00be 8dbf ccbc a01b 39be
000000f0: 5cb0 813d 5674 7b3e 5b2c a8bd a233 55bd
00000100: c5ec 44bf f34e a13d ebcd f8bb 3244 fd3d
00000110: 5971 e9be d816 c1bd c978 b4be 6a00 223e
00000120: 38b0 64bc 9e11 22be f401 ccbd c25e 813c
00000130: 162a e5bb 2ce1 3abe 9b10 253d bb4b 51be
00000140: 0fdf 733e 5031 efbc babc f4bd e46a 35be
00000150: 76f8 093f 8afd 133e 68d4 77be 98eb e43d
00000160: 7923 dbbd 8940 023d 6dfb b63d 6b06 d2bd
00000170: 4813 113d ebc6 f33a 1c46 24be 947d d23d
00000180: 5493 1f3e ec15 a2bc 51ce 40be 3a4e 4e3e
00000190: 453c 48bd 6e54 4a3e 4613 b2bd f867 323e
000001a0: 19f7 203d 2a11 0abe dfab dfbe 534d 1b3e
000001b0: 7590 8ebe ae37 8a3e a886 02bd e534 67be
000001c0: 6eb3 6d3e cdcf 073c 3a1f d9bd 9c80 4abc
000001d0: b627 403e 8604 dbbd 9f34 adbe 1f28 a1be
000001e0: c57f 24be 71d6 25bf 83c9 f43d 879c 3dbd
000001f0: 2ffa 403e fa47 053e f4a2 7e3e 727e 1bbe
00000200: 0333 09be 86d8 8d3d ac6f e2be 307a 813e
00000210: 0691 32bd 5e35 96be 9950 ea3d 8214 04be
00000220: c1e2 2d3e 7836 433e 6a98 6fbe ee0c 353e
00000230: 2a64 e3bb 8d0f 7bbe cbf6 1ebe 362f d93d
00000240: 2ddf 963e be1d 0fbf 12c9 343e e770 70bd
00000250: fb0b b3be b492 783c 72ac 92be 32d4 a5bc
00000260: edf2 2cbe 5604 843e 8628 08bc 82b7 2dbe
00000270: 86fe eabe a724 93bf 0aa8 6ebd a050 a53d
00000280: 0e79 acbe 5ac4 e2bd badd eb3d 4b30 933e
00000290: 23a1 1fbe 489f c33d 6d00 8c3d 0ffa ce3d
000002a0: 43f1 73bd 6dbd 693e d3b3 cdbd ffe3 2ebe
000002b0: fdd7 85bd 733a 83be 1f86 0d39 df20 263e
000002c0: 9ced ee3d bb2b 0abf f96b bebe 636e 25bf
000002d0: b817 163e 3b0c bbbe a7a6 113e ef67 08bd
000002e0: 2812 01be a12f af3e 84b4 06be dc36 6ebd
000002f0: 55fa 1a3d 4299 5dbd 01ba d83a 4bda 83be
00000300: fd74 e3bd bbcd 13bf b8f1 afbd e02d ddbd
00000310: b410 89bc 30e7 62be 902a c5bd 1071 80be
00000320: 3d0a b63e cdc7 403c 3b1f 2abe fa11 e3be
00000330: dab8 cabd c592 60be db3e dfbd ccce 8cbe
00000340: 1d15 abbd cddc 753e 1a32 0dbf 05d2 fabe
00000350: 7475 513d 84f6 9b3d ce83 afbe c8f3 57be
00000360: c1bb 0f3e 5c81 d6bd 4aec 88be ea35 a5bd
00000370: 6fc6 94be 601a bdbe 150c 92bd 479b 563e
00000380: cbc6 9fbe b736 c6bd 61cb 233c add6 20be
00000390: cb78 50be cd99 a83c 1529 43bd 3803 08bf
000003a0: d5ad 3b3e 69b9 1f3d 2ab8 8a3e 9bf9 853e
000003b0: 7b9d 013f 43be c13c 7ffe e1be 9018 38be
000003c0: 046e 92be c6d6 d13d b39e acbe 3f75 5c3e
000003d0: d2f0 79bd 1404 58be f414 57be 47de c0be
000003e0: fd77 b33e 9c59 753e dd00 babd 4ae4 eb3d
000003f0: 3132 1ebe ebee 13be 2797 683e e445 0bbf
0.15803522 0.012332223 0.03560211 -0.43401426 0.32031304 -0.1337205 0.13184762 -0.5084246
0.07674389 0.03232418 0.34051096 -0.13039015 -0.018587045 0.017967084 -0.08732848 -0.17764065
0.4206921 0.028639393 0.01229696 -0.20611984 0.13759717 -0.27411637 -0.7131993 -0.06616595
-0.022370823 0.14204861 0.19321199 0.2690561 -0.16902249 0.16483687 -0.03223264 0.53501064
-0.1586904 -0.015823847 -0.5846149 -0.2242291 0.15875858 0.24863629 -0.39138487 0.0013341693
-0.24717425 -0.2661214 0.07092953 -0.023275435 -0.06378017 -0.31113744 -0.010842514 0.3971568
0.030288488 0.26001605 0.16420808 0.14796501 0.14106935 0.37423697 -0.05953455 0.15330563
-0.4464988 -0.12539501 -0.024993682 -0.18076944 0.06332466 0.24556097 -0.08211585 -0.052051194
-0.7692378 0.078763865 -0.0075929067 0.12366523 -0.4559429 -0.09428185 -0.35248402 0.1582047
-0.013958029 -0.15827033 -0.0996131 0.015792254 -0.0069935424 -0.18249959 0.04029904 -0.20439045
0.23815559 -0.029198319 -0.11950059 -0.17716557 0.53894746 0.14452186 -0.2420212 0.111777484
-0.10700125 0.031799827 0.089346744 -0.102551304 0.03541878 0.0018598711 -0.1604237 0.102778584
0.15583545 -0.019785844 -0.18828703 0.20147029 -0.048885603 0.1975877 -0.08695082 0.17422473
0.03929815 -0.1348311 -0.43685815 0.15166216 -0.27844587 0.26995605 -0.0318667 -0.22578771
0.23212978 0.00828929 -0.10601659 -0.012359764 0.18765149 -0.10694222 -0.3382921 -0.31475922
-0.16064365 -0.64780337 0.11952498 -0.046291854 0.18845437 0.13015738 0.24866849 -0.15184954
-0.13398366 0.06926064 -0.44225824 0.25288534 -0.043595336 -0.2933759 0.11441154 -0.12898448
0.16981031 0.19063747 -0.23397985 0.17680714 -0.0069394307 -0.24517651 -0.15523832 0.10604708
0.29467145 -0.5590476 0.17654827 -0.058701422 -0.34970078 0.0151716955 -0.2864719 -0.020242784
-0.16889544 0.25784558 -0.008310443 -0.16964534 -0.4589731 -1.149556 -0.058265723 0.080720186
-0.33686107 -0.11072607 0.115169 0.28747782 -0.15588813 0.09551865 0.06836019 0.10106289
-0.059556257 0.22826166 -0.100440644 -0.17079161 -0.06535337 -0.2563053 0.00013496772 0.16223477
0.11666414 -0.5397298 -0.37191752 -0.6462156 0.14657485 -0.3653277 0.14223729 -0.033302244
-0.12604582 0.34216025 -0.13154799 -0.058157787 0.03783639 -0.054101236 0.0016534926 -0.25752482
-0.11106298 -0.57735795 -0.08591026 -0.107997656 -0.016731597 -0.22158504 -0.09627259 -0.2508626
0.35554686 0.011766386 -0.16613476 -0.44349653 -0.09898539 -0.21930988 -0.109006606 -0.27501523
-0.083536364 0.2401001 -0.55154574 -0.48988357 0.051137403 0.076153785 -0.34280246 -0.21089089
0.14036466 -0.10473892 -0.26742774 -0.08066924 -0.29057643 -0.36934185 -0.07131211 0.20957671
-0.31206354 -0.09678405 0.00999722 -0.15706892 -0.20358579 0.02058115 -0.0476466 -0.5312991
0.1832803 0.03899518 0.2709363 0.26166996 0.5063092 0.023650294 -0.44139478 -0.1797812
-0.2859956 0.10246043 -0.33714828 0.21529101 -0.06102068 -0.21095306 -0.21004087 -0.37669584
0.3505248 0.23959965 -0.09082196 0.11518152 -0.15448834 -0.14446609 0.2271391 -0.5440352

blocks.1.conv.bias f4 [32]
00000000: e9c8 ccbb 68c2 0ab9 5e20 6eba 4552 2c3b
00000010: f651 b23b 6927 a4b9 813f 033c 350f 21b9
00000020: b240 9a3a 370d 00ba e303 6e3a 0100 9a37
00000030: d0fe b03b 2b65 cb3a 6163 13bc 224f c5ba
00000040: 59ed 213a 1172 64b8 d99c 9bb9 4304 1f3c
00000050: 9612 5eb9 d089 023b 927d 69b9 2050 4aba
00000060: a33a e83b d0b5 b33b 2f55 363b 98f7 6b3b
00000070: 60b9 57b9 49fc 9cb8 282a 9b3a f9d0 2bb8
-0.0062495363 -0.00013233128 -0.00090838026 0.0026294154 0.0054418994 -0.0003130988 0.008010746 -0.00015359822
0.0011768548 -0.00048847817 0.00090795587 1.8358232e-05 0.0054014698 0.0015517821 -0.008995862 -0.0015053491
0.000617703 -5.446567e-05 -0.00029680764 0.009705606 -0.00021178494 0.0019918568 -0.0002226739 -0.0007717628
0.007087068 0.00548432 0.002782177 0.0036005732 -0.00020573055 -7.4856514e-05 0.0011838125 -4.0964198e-05

blocks.1.bn.weight f4 [32]
00000000: 2dfb 263f 1c14 6c3f dab0 1e3f c1f4 813f
00000010: 0998 7d3f 0ab8 3e3f 415f 2a3f 5d6c 4c3f
00000020: 7abb 793f becc 663f 46dc 583f 526d 703f
00000030: bbb8 973f 11cf 643f 7c90 873f eed5 833f
00000040: 508e 8f3f 5b0b 4e3f 19c0 653f f543 5d3f
00000050: 63aa 803f dd50 5f3f d045 9c3f a5cb 9a3f
00000060: 9b9c 603f b2b4 9b3f b2f9 873f 5d24 5d3f
00000070: 508c 433f ff12 423f 1bb9 113f 9ff2 8f3f
0.65227014 0.92218184 0.61988604 1.0152818 0.9906011 0.7449957 0.66551596 0.7985285
0.9755169 0.9015616 0.8471111 0.9391681 1.185325 0.8937846 1.0590968 1.0299661
1.1215305 0.8048608 0.8974624 0.8643182 1.0051998 0.8723276 1.2208805 1.2093397
0.8773896 1.2164519 1.0623076 0.8638361 0.76385975 0.75810236 0.56923074 1.1245917

blocks.1.bn.bias f4 [32]
00000000: 5069 3bbe 59ca f3be 3323 ec3d f310 d8be
00000010: b5b8 0fbe f306 8ebe 75e2 b9be 1639 04bf
00000020: 1394 24bf 0a69 afbe a7b5 18bf 8eff 21bf
00000030: 179b 14bf 26a0 c6be 1d37 c4be 3337 aebe
00000040: 551d 1ebf abf9 cebe 72f4 cebe d43f f4be
00000050: b17f 46bf 47c9 f6be e824 43bf 3005 1cbe
00000060: 100c 42bf 4882 b1bd df7e b2be cc2a bbbe
00000070: 5176 83be 84f1 24bf e968 b1bd 23a5 d2be
-0.18301892 -0.47615317 0.11530151 -0.4220043 -0.14035304 -0.27739677 -0.36305586 -0.51649606
-0.64288443 -0.34259826 -0.5965218 -0.6328057 -0.5804915 -0.3879406 -0.38323298 -0.3402649
-0.6176351 -0.40424857 -0.40420872 -0.47704947 -0.7753859 -0.48200437 -0.7622819 -0.15236354
-0.75799656 -0.08667427 -0.3486242 -0.3655609 -0.25676206 -0.64431024 -0.08662588 -0.41141614

blocks.1.bn.running_mean f4 [32]
00000000: 9ccf a6c0 3439 6dc0 6ed7 34be d0a4 b8bf
00000010: 846b 87c0 62b7 b5be c3dd 1040 9abc 8fbf
00000020: ef25 90c0 d429 adbd 414e 80be 00e0 a73f
00000030: ded7 efbf bd22 f63f fd10 16c0 df09 66c0
00000040: 58ea d2bf eff5 a23e a733 ecbf ce94 86c0
00000050: 0698 95bf 0923 20c0 219f 2ac0 9dfd f2bf
00000060: 6516 0cc0 0cb1 283e 0bd9 f4bf 4aa2 51c0
00000070: e8a0 1d40 252b 1fc0 e90e 7c3f d863 14c0
-5.212843 -3.7066164 -0.17660305 -1.4425297 -4.2318745 -0.35491472 2.2635353 -1.1229432
-4.5046306 -0.08455244 -0.25059703 1.3115234 -1.8737752 1.9229351 -2.344787 -3.5943525
-1.6477766 0.31828257 -1.8453263 -4.2056646 -1.1687019 -2.5021384 -2.6659625 -1.8983647
-2.1888669 0.16473788 -1.9128736 -3.2755303 2.462946 -2.4870083 0.9846025 -2.318594

blocks.1.bn.running_var f4 [32]
00000000: 79ea 3141 e21a d840 d648 2641 f11a 2741
00000010: d26b 0542 e762 5341 39cf 0641 cb2e f240
00000020: 512a a841 0345 0041 feed 1c41 37dd e440
00000030: 08a1 3f41 651b 2c41 8a09 9d41 688c 3341
00000040: 4347 f040 2a24 6341 2133 2341 efba 4a41
00000050: 722d f540 208f 6441 f6e6 1841 324d 5841
00000060: da99 f140 c84b 0841 6335 4941 bff4 8a41
00000070: 31f8 e741 713c 6e41 5a58 6841 5c21 ed40
11.119744 6.7532816 10.392782 10.4440775 33.355293 13.211646 8.425591 7.568212
21.020662 8.016849 9.808104 7.152004 11.976814 10.756688 19.629658 11.221779
7.508699 14.196329 10.199983 12.670638 7.6617975 14.284943 9.556387 13.5188465
7.5500307 8.518501 12.575534 17.369505 28.996187 14.889756 14.52157 7.410322

blocks.2.conv.weight f4 [32, 32, 3, 3]
00000000: d967 063e 3f1f ac3d 61d6 0dbe b950 23be
00000010: 95c9 a03c 6d11 aabe 6062 44be c037 48be
00000020: 2a1a 00be 5e1e 09be 56d4 01be a592 64be
00000030: afc5 d53d 3f4d 97be 5e62 8ebe b4cd a2bd
00000040: 8f47 65be c19f 08be 3765 d4bd 8bf1 a13d
00000050: c004 993e 3710 993b e315 1e3d 8343 3f3c
00000060: 5aa4 a93e 611f 37be 76c7 c9be ea3b b23d
00000070: 6dc9 7abe 19cb e13e bd53 683e dc19 85bd
00000080: 3ec6 33be b1d8 eebd 08ff bc3d 3189 1a3e
00000090: 3969 0d3e cde8 703e 413b 0b3f d09c d53d
000000a0: 63e0 af3e e08f f43e 8ccb 0e3e 5e6c ee3e
000000b0: 3977 a13e f0e2 31be 22cc 2e3e 4ecf 023f
000000c0: acca d93d 9ab1 d13e 65b9 ad3d 51d9 e0bd
000000d0: 266c 40be 167b 123c af03 83bd ab41 a53e
000000e0: 0db2 ba3d 3034 d53c 3835 a43d 3276 c53d
000000f0: 57f3 17be 7774 b83d 3bc0 86be 9424 613d
00000100: feda 1bbf 0482 383d fab0 3a3d 07a5 20bd
00000110: 701b 80be 423c ddbd ba49 32be 2469 803e
00000120: a858 293e 019b 273d fc0a d93d edcc ca3d
00000130: e002 c03e 4a92 263d 7c1d 0d3f a2fa 9bbe
00000140: 2f95 01be 68d8 babe 736c c73d 5201 e7be
00000150: ce56 073c 597d e5bd 9be2 aabe 7df4 e8be
00000160: 5b42 48be 7538 503e b5da 7cbd fc3c 9dbe
00000170: 44f7 f0bc 1226 5dbe c6c1 b4be 67f5 7a3d
00000180: 97ac 1a3e c285 8abc 2981 9dbe fc7a 7cbd
00000190: 9a92 06bb 73c3 5dbd 9ebc 333e 57ee c83e
000001a0: 2dbd 49bd 3095 663e c338 28be 4f7b f33e
000001b0: c3cf 1ebd f67c c9be f00c 623d 8046 493e
000001c0: ca6d 1f3e 30d6 d83d 5f9d 39bd 2420 3b3e
000001d0: 2482 bd3d 3d51 843d 5613 8ebe e620 13be
000001e0: ed82 93be 7a16 9cbe 56b6 813e 2f96 90bd
000001f0: 47ee a8be b301 ec3a 4bd0 5fbe 0493 a5be
00000200: d208 06bf 74bb 8fbd d735 adbe 645f 01bb
00000210: 3222 9cbe edf6 5c3e c516 c5bd 70ea 8dbe
00000220: 126c c2bd cdda 27be 6163 d43c 3488 70be
00000230: 6092 fc3d 18a8 143d 5ab7 13be 8bdc d73e
00000240: 9b73 5ebe 7cea 023e eae2 86be ba12 83bd
00000250: ba87 64be 7b90 583d 8e06 803e 75c5 88bd
00000260: 9a9e a43d 1c6a ecbd b464 733e f605 1f3e
00000270: d6a5 4abd 9d24 a7bd 532b c03e 8043 5cbe
00000280: c69d bdbe 79da a63d aac8 eb3c 12eb eb3e
00000290: c2cc 93be 80da 5e3d 97a0 de3e decc 0f3e
000002a0: 8a96 cabd 7a7f 703e 2546 c6bd 86b9 4c3e
000002b0: 2808 02be 566d 483e bd35 96be 1e31 d8bd
000002c0: 0d9d 4f3c 9264 9abe 0aaf 7b3d 78a8 77be
000002d0: 560e 843d 8474 913e 0ee3 fb3e 16fd ce3e
000002e0: 6e62 543e 03b4 283e c26f d63d 0a63 be3c
000002f0: 1786 81bc 6ea1 4d3e c35f edbc 21d6 e33d
00000300: 9c2d a53e a3fc 143e c942 b4bd f1ab 113d
00000310: 59c5 603d c389 d63e 3cf9 1d3e a096 b1be
00000320: 9562 bebe a564 4abe ecd3 3b3e 2dd3 17bf
00000330: 744d 66be 4367 17be 7d1c dbbe 5b66 9cbe
00000340: c401 0b3e 2766 fb3d 72bc 0dbf 9793 92be
00000350: e134 773c d086 0dbf 1dde 8dbe 625c 89bd
00000360: ae8d 823e 9b80 993d 2a1c 8ebe 0a88 3dbd
00000370: cd69 e53e 5231 2bbe f591 30be 8d7b 6dbe
00000380: ca90 883d c1d9 433d f822 613e ccde a8be
00000390: 053c af3d f3e0 423e b441 7bbd 0836 003f
000003a0: 75ff 2a3e f985 cc3c c28a bb3c 8943 0cbd
000003b0: 48d1 d03b a9e7 93be 836e 3abe 924e 6fbd
000003c0: bc48 843e a147 9abd 8f27 20bd 284f 05be
000003d0: afd4 0f3d 7478 9b3e 59b3 82be cc50 363d
000003e0: 4324 aabe 62f8 b2be 5981 4fbd 0c29 843e
000003f0: 2685 b03e d95b 67bd 7c6a 11be 7f9d d8be
0.13125552 0.08404397 -0.1385131 -0.15948762 0.019627372 -0.3321642 -0.19178152 -0.19552517
-0.12509981 -0.1339049 -0.12678656 -0.22321565 0.10438096 -0.29551122 -0.27809423 -0.07949391
-0.22390579 -0.13342191 -0.10370868 0.07907399 0.29886436 0.0046711224 0.03859509 0.011673811
0.33133203 -0.17883064 -0.3940999 0.08702834 -0.244909 0.44100264 0.22688194 -0.06499073
-0.17556092 -0.11662424 0.09228331 0.15091397 0.1380967 0.23526306 0.5438729 0.104303
0.3435088 0.47766018 0.13944834 0.46567053 0.31536272 -0.17371726 0.17070058 0.5109757
0.1063436 0.40955812 0.08482627 -0.1097895 -0.18791255 0.008940479 -0.06397187 0.32276663
0.09115992 0.026025862 0.08017963 0.096416846 -0.1483892 0.09006589 -0.26318535 0.054966524
-0.6088103 0.045045868 0.045578934 -0.039219882 -0.25020933 -0.10802509 -0.17410937 0.25080216
0.16537726 0.040919308 0.10597798 0.09902368 0.37502193 0.040666856 0.55123115 -0.30464655
-0.12654565 -0.3649323 0.09737482 -0.45118195 0.008260442 -0.11205549 -0.3337601 -0.4549903
-0.19556563 0.20334037 -0.061732013 -0.3071059 -0.02941478 -0.21596554 -0.35304087 0.06126919
0.151049 -0.016909484 -0.30762604 -0.061640725 -0.0020534159 -0.054141473 0.1755242 0.3924434
-0.049252678 0.22517848 -0.16427903 0.47555014 -0.038772356 -0.3935315 0.05518812 0.196558
0.15569225 0.10587728 -0.045316096 0.1827398 0.09253338 0.064608075 -0.27749127 -0.14368019
-0.28810826 -0.30485898 0.25334424 -0.07059895 -0.3299429 0.0018005878 -0.21856801 -0.32338727
-0.5235721 -0.07018176 -0.3383014 -0.0019740695 -0.3049484 0.2157857 -0.096234836 -0.27717924
-0.09493269 -0.1639206 0.025926294 -0.23489457 0.12332606 0.03629312 -0.14425412 0.42160448
-0.21723787 0.12784761 -0.26344997 -0.06400056 -0.223174 0.052872162 0.25005 -0.06678287
0.08038063 -0.11543676 0.23768884 0.15529618 -0.04947456 -0.0816128 0.37533054 -0.21510124
-0.37034434 0.08147139 0.028782208 0.46077782 -0.28867155 0.054407597 0.43481895 0.14042994
-0.09891994 0.23486128 -0.09681348 0.19992647 -0.12698424 0.19572958 -0.29337874 -0.10556243
0.012671721 -0.30154854 0.061446227 -0.2418536 0.06448047 0.28409207 0.49196666 0.40427464
0.20740673 0.16474919 0.10470535 0.023240585 -0.01581101 0.20081112 -0.028976327 0.11124826
0.3226136 0.14549498 -0.08801801 0.035564367 0.054875705 0.4190198 0.15427107 -0.3468523
-0.37184587 -0.19764955 0.1834256 -0.59306604 -0.22490484 -0.14785485 -0.42795172 -0.3054684
0.13574892 0.122753434 -0.5536567 -0.28628227 0.015088291 -0.5528383 -0.2770852 -0.06707074
0.25498718 0.07495233 -0.27755862 -0.046272315 0.44807282 -0.16718033 -0.17243178 -0.23191662
0.06668241 0.04781509 0.21985996 -0.3298248 0.0855637 0.19031124 -0.061341956 0.50082445
0.16699012 0.024966227 0.022893313 -0.034244094 0.0063726045 -0.2888768 -0.1820622 -0.05842454
0.25836742 -0.075331934 -0.039100226 -0.13018477 0.03511494 0.30365336 -0.25527456 0.044510648
-0.3323079 -0.34955126 -0.050660465 0.25812566 0.34476584 -0.056484077 -0.14200777 -0.4230766

blocks.2.conv.bias f4 [32]
00000000: f81b e4ba 199a 32bc cffa 6239 9f8d 8339
00000010: a36a aabb 2ecc eb3b c109 77bb c5f2 ca3a
00000020: 8ade 71ba 608d 40ba d6f9 ab39 dc1c 81bb
00000030: 52fb 5739 49c0 1aba 562e 9ebb ac0c 28ba
00000040: 9122 7b39 ff18 4e3a 7da8 b3bb 891d 7bbc
00000050: a5b4 58b9 157f 9e39 6d88 96b8 8e4b 90bb
00000060: cd6a fdba e952 343c bde9 a4b9 f806 ad39
00000070: db36 b33b cdba 9bbb 5c8a 4db9 e77f 2a39
-0.0017403355 -0.010900998 0.00021646473 0.00025091783 -0.0052007004 0.007195971 -0.0037695023 0.0015483728
-0.00092265813 -0.0007345285 0.00032801804 -0.003940208 0.00020597622 -0.00059032865 -0.004827301 -0.00064105797
0.00023950102 0.0007862001 -0.005482732 -0.015326866 -0.0002066666 0.00030230792 -7.177969e-05 -0.004403538
-0.0019334197 0.011006095 -0.00031454666 0.00033002323 0.0054691858 -0.004752493 -0.00019601866 0.0001626011

blocks.2.bn.weight f4 [32]
00000000: 5718 3d3f 1fc8 503f 8063 1b3f df6e 343f
00000010: f545 273f 28a5 243f 96fe 803f 3b4d 903f
00000020: 3080 323f cd51 773f ac1d 433f cd2b 553f
00000030: a145 3c3f 44e7 583f 5725 573f 5765 9f3f
00000040: 00b4 993f ad06 833f 6aa4 473f e162 853f
00000050: 6bc0 843f 6c46 7d3f 13ed 603f 5244 7e3f
00000060: edd7 a53f a770 813f ffc1 8d3f 8232 2e3f
00000070: 4977 ef3e 6a64 793f c4fd a13e ef8d 5e3f
0.73865265 0.8155536 0.606987 0.70481676 0.6534112 0.6431451 1.0077693 1.1273569
0.6972685 0.96609193 0.7621715 0.8326996 0.73543745 0.84727883 0.8404135 1.2452801
1.2008057 1.0236412 0.7798525 1.04208 1.0371221 0.9893558 0.87861747 0.99323
1.295652 1.0112504 1.1074828 0.6804582 0.46770695 0.97418845 0.3163892 0.86935323

blocks.2.bn.bias f4 [32]
00000000: 8b21 14be c5c9 f9be 8824 27be 9f6b 83be
00000010: a89b 1fbf cbd9 b0be ed88 74be ceee 25bf
00000020: a8d3 18bf 8188 f2be 2131 10bf 9e7c d5be
00000030: 38ad 3abf 183c c0be 025a b3be 3b85 10bf
00000040: 0b1d fcbe 35df 0ebf 971c bcbe 397c 9ebe
00000050: 2b06 1abf c897 4cbf 6d05 cfbe 51a3 04bf
00000060: 54ab 34bf bc83 05bf 95ca 1fbf c441 89be
00000070: ac96 143c 8233 babe 4645 803e ff15 13bf
-0.1446592 -0.4878675 -0.1632253 -0.25668046 -0.6234689 -0.34541163 -0.23880358 -0.6481751
-0.5969796 -0.4736977 -0.56324965 -0.41696638 -0.7292056 -0.37545848 -0.35029608 -0.56453294
-0.49240908 -0.55809337 -0.36740562 -0.3095415 -0.6016566 -0.799191 -0.40433827 -0.518117
-0.70573926 -0.52154136 -0.6241849 -0.26807988 0.009069126 -0.36367422 0.2505285 -0.5745544

blocks.2.bn.running_mean f4 [32]
00000000: c5a1 53bf 9b57 2fc0 79bc 2ac0 de4c 74bf
00000010: 684e b4c0 dfc4 1340 d4b8 76bf 2a4a 34bf
00000020: 339e 5cbf 3a9c c0bf 59cd 8bbd 78cf 32bf
00000030: e3ca 4a3f b678 89c0 9f13 54c0 ca59 3bc0
00000040: 42a8 b9be 95c8 80bf 386b 74c0 473c a7be
00000050: d066 a2bf a361 08bf e528 0ac0 e92a 74c0
00000060: f27b 10c0 8762 66c0 f0f7 3cc0 4196 c8be
00000070: 8640 f4bf dbe0 76c0 9d16 163f 13e8 b5bf
-0.82668716 -2.739722 -2.6677535 -0.9542979 -5.634571 2.308891 -0.96375775 -0.70425665
-0.8617889 -1.5047677 -0.06826276 -0.6984782 0.7921583 -4.295985 -3.3136976 -2.9273553
-0.36261183 -1.0061213 -3.819044 -0.32663175 -1.2687626 -0.5327398 -2.158746 -3.815119
-2.257565 -3.5997636 -2.952633 -0.39177135 -1.9082191 -3.857474 0.58628255 -1.4211448

blocks.2.bn.running_var f4 [32]
00000000: 9dfa c441 7d07 8441 7871 9841 24bc 5641
00000010: a058 8b41 daa5 7d41 8782 a941 c5e2 4641
00000020: 4a87 2d41 7118 5741 c62e 0c41 9eff 7441
00000030: 1b80 f040 6295 ea41 a91a d841 901a 2641
00000040: 87de ef40 466f 8b41 f706 2b41 0dbb 2041
00000050: 618b 5e41 b0e9 4341 4354 5d41 299b a341
00000060: 6535 2441 eee9 2f41 7dd5 1b41 f35f a841
00000070: 5d15 ab41 0d44 9541 ec31 ca41 21e2 3c41
24.62237 16.503656 19.055405 13.420933 17.418274 15.852991 21.188734 12.430364
10.84553 13.443467 8.761419 15.312407 7.515638 29.32294 27.013018 10.381485
7.495914 17.429333 10.6892 10.045667 13.909028 12.244553 13.833072 20.450762
10.263036 10.994612 9.739621 21.04685 21.385431 18.658228 25.274376 11.805207

blocks.3.conv.weight f4 [32, 32, 3, 3]
00000000: 851a d6bd 8dea e0bd a43b e6be 1a3c c93d
00000010: 88f1 40bf 9b60 10bf b021 73be bc7c 8ebd
00000020: fe6b 13be 3472 1a3e d9ee 0f3e 67fb 57be
00000030: f937 cf3e 1de1 82bd d56d 613c 2be6 923e
00000040: 950d 4d3e 0243 a63c 3aa5 9fbd efaf eb3d
00000050: d3db 08be 328f 073e 81d2 413e da49 0c3e
00000060: f6c3 2ebe a110 443c a511 a83c e7f5 853d
00000070: 49c2 2d3d e83a a03d 9f06 01bd 5d87 40bf
00000080: c372 24be 696d 273e 98f1 4f3e 3757 2fbc
00000090: b85e 7bbe a91a 00be 5868 cdbe d440 5abe
000000a0: ecca 6f3e b8f3 58be 5d5b 4cbd 2dfa 853e
000000b0: 77f4 14bf efc5 f23d 10be ae3d 63ed 913e
000000c0: dc55 9bbe d054 813e a4f3 86bd ef7c 813e
000000d0: 73bd b2be 882a c0bc ccd5 0e3f da21 073e
000000e0: 913b a8be a973 bd3e 0fc8 893e afcd 663c
000000f0: 8bae a93e 0dcf 84bc 0a4e 3abe 2572 303d
00000100: 62d2 4b3e 8eb9 973e 493e e3bd ba30 bcbd
00000110: 64cc cc3d 94f3 143f ef8d b7bd f468 f2be
00000120: d5c5 753c cbe3 e1bd 9cbe c73e b8ae a83d
00000130: 4048 533d fecf 573e 4dbc f4bd dcb5 5f3d
00000140: 508c b7bd 67af 1cbe b1e3 98bd 5310 e93e
00000150: 8398 5f3d 6fe6 7a3e 32bc f23c 9d0b 1dbe
00000160: a453 4c3e e46b 443e 5793 71be 10e2 1a3e
00000170: 9099 483e 0c25 0e3f 20c3 58be 7c82 f83d
00000180: 24c6 d03d f90e 10be 05fc 323e bec3 82bd
00000190: 863c 93bd b5ec 713e d52e c1bd 0320 6e3d
000001a0: 6f97 67be 3669 dbbe 6829 d5bd 365b da3d
000001b0: 5a4b c2be 8ab3 d4bd ba15 87bd 981e b6bd
000001c0: 4d08 aabd 3e51 863e a365 a43d 44d6 94b9
000001d0: 449f 323e 4f44 483e 6e09 403e eebc c53d
000001e0: 4f4a 4b3e c198 3d3e 8a30 163f f17b 03bd
000001f0: 0d15 06be 4b67 91be 76a6 aabe 93d0 dcbe
00000200: 722b efbe 4bc1 74be 32be 9cbe 54b2 81bd
00000210: 0e93 9abe 6193 cabd 5969 c6be 2d93 e0be
00000220: dad2 1dba 361c 11bd 0aee 9dbe bfc4 3c3e
00000230: 8f14 103e 554d f5be c59f d73c 644e 893e
00000240: eb66 113e 6fb0 20be feb8 b5be fa49 913d
00000250: 31ff 57be 8e6e db3d 1db5 a23e 7e5e 3a3e
00000260: 5a76 9abe 31f0 a63d edd6 a53d 0fbd 52be
00000270: 024f 783d f0f2 7d3d b0e1 3c3e 0669 bf3e
00000280: 2fab 3ebe 5082 f2bc 7095 c13d a0dc 9cbe
00000290: 0023 323e 8f8a 483e b7b3 343e c98f 27bd
000002a0: 1289 fc3d 43bb 0ebc 1a2f 123e a7f5 b0bd
000002b0: 43e7 03be 6501 10be 1db2 063f d4cb 513d
000002c0: a0e7 7c3e 3ead 993e b0ea d7bd 1d3a 96be
000002d0: 1787 04bf 1721 9ebd 45c0 1abe 2448 1c3d
000002e0: cc45 17be ce83 7e3e b61f 13be 1cf8 3b3d
000002f0: bb56 023e 33f3 a33e 97ff 12be 75df 9b3e
00000300: a39d 643b 809a dd3e 0c30 9a3d cee9 8bbe
00000310: 5dc2 793e c279 e4bd 77c0 9bbd 43a8 83bd
00000320: 206d 8f3d 1e0a d2bd 1d0b 11be b31e 3dbf
00000330: 5e88 d7be 34c7 313e a769 efbd 6b1f a9be
00000340: a3e3 bb3d fc0b b93e 79b9 60be 085d d2be
00000350: 4c3b 81be ed1c dabd 2bed 9f3d 25d6 023e
00000360: 37a8 113d a903 b9bd fe18 8fbe 3175 ccbd
00000370: 6eec 8c3e 704d ddbe ce9c 7abe db96 9fbe
00000380: 7bc2 033d 2b94 30be f41c 513d fdb6 42be
00000390: d0cf a03d ca41 5fbe ed6f 1d3e 1cbd cd3e
000003a0: 9d04 633e b551 edbb 4c1e fd3d 090f 93be
000003b0: 74be 5fbd 7d7b 9fbc b6cd b9be cbfe a53e
000003c0: 7bdb bf3e ced1 143e 3f35 93be 8af9 303d
000003d0: 1ac4 52be 35f5 e63e de71 9cba c4ae 5f3d
000003e0: ede0 0bbe 6ef3 53be 5f84 39be e410 b7b9
000003f0: 5077 aebd e305 ae3e 004e 89be 9580 bcbe
-0.10454277 -0.10982237 -0.44967377 0.098259166 -0.7536855 -0.5639741 -0.2374332 -0.06957385
-0.14396665 0.15082628 0.14055957 -0.21091996 0.4047239 -0.06390593 0.013759096 0.2869123
0.20024712 0.020295624 -0.07795186 0.11508166 -0.13365106 0.13238218 0.18927957 0.13700047
-0.1706694 0.011966855 0.020516226 0.06541043 0.042421613 0.078237355 -0.031500455 -0.7520655
-0.16059403 0.1635033 0.20307004 -0.010701946 -0.24547851 -0.1251017 -0.4011867 -0.21313792
0.23417252 -0.21186721 -0.04989182 0.2616743 -0.58185524 0.11854159 0.08532345 0.28501424
-0.30338943 0.2526002 -0.065894395 0.2529063 -0.34910163 -0.02345778 0.5579498 0.13196507
-0.32857946 0.37002304 0.26910445 0.014087125 0.33140978 -0.01621201 -0.18193832 0.043077607
0.19904473 0.29633754 -0.11095864 -0.09188981 0.09999922 0.5818417 -0.089626186 -0.47345698
0.01500078 -0.11029776 0.3901261 0.0823645 0.051582575 0.21075436 -0.11949978 0.054616794
-0.08962309 -0.15301286 -0.07465304 0.45520267 0.054588806 0.24501966 0.029630754 -0.15336461
0.19953781 0.19181782 -0.23591362 0.15125299 0.1958983 0.5552528 -0.21168184 0.12134263
0.10194042 -0.14068212 0.1747895 -0.06384991 -0.07189278 0.23625453 -0.094327606 0.058135998
-0.22616361 -0.42853707 -0.10408288 0.10661928 -0.37948114 -0.10385807 -0.06595941 -0.08892554
-0.083023645 0.26233858 0.08027198 -0.000283884 0.17443568 0.19557308 0.18753597 0.09655176
0.19852565 0.18515302 0.58667815 -0.03210062 -0.13093968 -0.2839912 -0.33330125 -0.4312788
-0.46712834 -0.2390186 -0.30613858 -0.063328415 -0.3019032 -0.098913915 -0.3875225 -0.43862286
-0.0006020494 -0.035427295 -0.30845672 0.18434428 0.14070342 -0.47910562 0.026321301 0.2681762
0.14199416 -0.15692304 -0.354927 0.07094188 -0.21093442 0.10714446 0.31778803 0.18200108
-0.3016842 0.081512816 0.080976345 -0.20579933 0.060622223 0.06199926 0.18445468 0.37384814
-0.18619989 -0.029603153 0.09452331 -0.30637074 0.17396164 0.19584106 0.17646681 -0.04090861
0.123308316 -0.008711639 0.1427578 -0.086406045 -0.12881188 -0.14063032 0.5261553 0.051219776
0.24697733 0.30014986 -0.1054281 -0.29341212 -0.5176863 -0.07721155 -0.15112408 0.038154736
-0.14772719 0.24854967 -0.14367566 0.045890912 0.12728398 0.32021484 -0.14355312 0.30443922
0.0034883998 0.43281937 0.075286955 -0.27326816 0.2439055 -0.11156036 -0.07605069 -0.06428578
0.07003236 -0.10255836 -0.14164396 -0.7387497 -0.42096227 0.17361146 -0.116900735 -0.33031783
0.09174278 0.36141956 -0.21945752 -0.41086602 -0.25240552 -0.106500484 0.07808908 0.12777002
0.035560813 -0.09033901 -0.27948755 -0.0998329 0.27524132 -0.43223143 -0.24473879 -0.3116978
0.032167893 -0.17244022 0.051053002 -0.19015117 0.07852137 -0.2180244 0.15374728 0.40183342
0.22169729 -0.0072424063 0.12359294 -0.28722408 -0.05462499 -0.019468063 -0.36289757 0.32420954
0.37472138 0.14533159 -0.2875156 0.04320673 -0.2058262 0.45108953 -0.001193579 0.05461003
-0.13660021 -0.2069833 -0.18116902 -0.00034917064 -0.08518851 0.33988866 -0.26817322 -0.3681685

blocks.3.conv.bias f4 [32]
00000000: 70a9 1d3b 152c 6fb9 5b62 70bb f73f 14ba
00000010: e40d b33a 64eb 4f3a a0c7 bbbb 5bd9 09b9
00000020: e4d2 86b9 084a 99b9 100c d237 fe48 e9b8
00000030: e601 1b3a 5480 80bb 2cea 5c37 d05c f7b9
00000040: aa12 163a 0e5b 95b9 052d 3339 b187 39ba
00000050: b188 65ba 0f95 743b da7a 47b8 cc83 6037
00000060: 771d 55b9 a6c4 02b9 e308 cf3b 0713 55ba
00000070: a1ff ef3b ca9e 7b3b 3e7c 1739 ed7b e1b9
0.0024057291 -0.00022809238 -0.0036679718 -0.00056552835 0.0013660756 0.0007931499 -0.0057305843 -0.0001314631
-0.00025715597 -0.00029237592 2.5039568e-05 -0.00011123902 0.00059130637 -0.003921548 1.3167544e-05 -0.00047180662
0.0005724827 -0.00028487336 0.00017087541 -0.00070774095 -0.00087560253 0.003732029 -4.755971e-05 1.3382127e-05
-0.0002032424 -0.00012471023 0.006318198 -0.00081281405 0.0073241745 0.0038394206 0.00014446766 -0.00043007676

blocks.3.bn.weight f4 [32]
00000000: 6c1e 883f da83 4e3f d901 483f e890 3e3f
00000010: 3cd0 483f d544 503f 55ac 823f 5d14 6a3f
00000020: 8ffc 673f 162a 803f 4534 323f 4fbb 653f
00000030: 2de6 823f 6752 4a3f d74d 6a3f b2c1 9b3f
00000040: fb22 843f 4dad 8c3f da7a 493f 6a21 6a3f
00000050: db2f 813f d09a 8c3f 5625 533f f4dc 613f
00000060: 88fd 803f ca4c 443f 92b8 8d3f c1f2 1c3f
00000070: 5ee2 383f f68d 523f c57f ce3e d38e 633f
1.0634284 0.8066994 0.7812782 0.7443986 0.7844274 0.8135503 1.0208842 0.9143732
0.9061975 1.0012844 0.69611007 0.89738935 1.0226494 0.79031986 0.91525024 1.2168486
1.0323175 1.0990387 0.7870308 0.91457236 1.0092729 1.0984745 0.82478845 0.8822777
1.0077372 0.7667967 1.1071951 0.61307913 0.7222041 0.82247865 0.40331855 0.8888981

blocks.3.bn.bias f4 [32]
00000000: 6f26 9dbe 8d26 bdbe 1e87 d4be 5fc9 c5bd
00000010: 7dec e2be 4613 2a3a a443 6abf f4af 20bf
00000020: f379 13bf 7b3c 46bf 8b60 e0be 3acc 00bd
00000030: 742a 13bf b2b6 eabe 1f9e 20bf 936f b4be
00000040: ab63 31bf cdfc 63bf 103a f1be ffad c6be
00000050: f133 bebe 17b1 26bf 5385 39bf 7cca 48bf
00000060: 8345 12bf 9741 6dbf a149 04bf a552 96be
00000070: ef0a 01be 24eb f0be 15f8 c53e 01b7 efbe
-0.30693385 -0.36943474 -0.41509336 -0.09657549 -0.4432105 0.00064878573 -0.9150946 -0.62768483
-0.57607955 -0.77436036 -0.43823656 -0.031444766 -0.57486653 -0.4584251 -0.62741274 -0.35241374
-0.69292706 -0.8905762 -0.4711461 -0.38804623 -0.37149003 -0.6511397 -0.7246906 -0.78433967
-0.57137316 -0.9267821 -0.5167485 -0.29359928 -0.12601827 -0.47054398 0.38665834 -0.46819308

blocks.3.bn.running_mean f4 [32]
00000000: 1309 3ac0 2ee3 7cbf be3e 91c0 b356 e9bf
00000010: a9eb 3bc0 ef20 9fbe 5e71 0dbf bb8d 8ebf
00000020: 415e da3f 0b5c 1fc0 7606 7040 d570 be3e
00000030: 4394 82bf b283 aac0 45b2 42c0 3722 a5bf
00000040: ac49 7fc0 b422 37bf 400a e1bf 6b36 71bf
00000050: 5de4 60c0 483b b6be 6266 f03d 4f42 9bc0
00000060: 50f0 d63f c000 20c0 ca22 a2bf b7e9 9dbf
00000070: ba02 4440 44af 4dc0 4267 0b3e b3d0 91bf
-2.9068038 -0.9878415 -4.538909 -1.8229584 -2.9362586 -0.31079814 -0.5525111 -1.1137003
1.7060014 -2.4899929 3.7503943 0.3719546 -1.0201496 -5.328576 -3.0421307 -1.2901067
-3.9888716 -0.7153733 -1.7581253 -0.9422366 -3.5139382 -0.35592103 0.11738278 -4.8518443
1.6792088 -2.5000458 -1.2666867 -1.2336949 3.0626664 -3.2138224 0.13613608 -1.1391815

blocks.3.bn.running_var f4 [32]
00000000: afe1 2941 b537 3741 65e6 be41 854f 2641
00000010: 7354 ab41 870e 8441 d72b 4841 afe6 0141
00000020: 26f7 3d41 6441 eb40 d947 9941 ecb8 f540
00000030: 94f3 1f41 a6db 1e41 1cf3 4741 4259 b241
00000040: a47c 4541 d400 e240 3ae9 2b41 5e0a 6441
00000050: a98d eb40 8329 0a41 1faa 5b41 27b6 5241
00000060: 71f9 0b41 43d1 2c41 99ff 9b41 317c 8141
00000070: 86da 5f41 66ca 9941 4833 6341 a632 1941
10.617599 11.4511 23.862497 10.394414 21.416235 16.507093 12.510703 8.118819
11.872839 7.3517323 19.160082 7.6788235 9.996967 9.928625 12.496853 22.293583
12.34293 7.062601 10.74444 14.252531 7.3610425 8.635135 13.729033 13.169471
8.748399 10.801089 19.499804 16.18564 13.99085 19.223827 14.20002 9.574865
