models/288.pth (torch, 501905 bytes, 80 tensors)

conv0.conv.weight f4 [32, 17, 3, 3]
000000 e0 04 9c bd c1 8b 16 3f 49 e6 96 3e 53 37 eb 3e
       -0.07618117 0.58807 0.2947257 0.45940647
000010 19 a9 08 bf c7 60 40 3f ad c1 37 3e 81 7f 06 3f
       -0.5338302 0.7514767 0.17944975 0.52538306
000020 97 02 97 3e 78 a9 31 bd c0 48 53 3d bf c3 1e bd
       0.29494163 -0.04337451 0.05158305 -0.038760897
000030 0f 79 01 bd 8d 0f 7e be 31 8e 9d 3b d7 84 1a 3e
       -0.03160959 -0.2481062 0.0048082103 0.15089737
000040 05 53 0a 3e 8f 28 3f bb 6c 8a 58 bd da 30 7e bd
       0.13508232 -0.0029168462 -0.052866384 -0.062058307
000050 b2 a8 1f 3e b5 59 94 3d 60 c2 6e be ad 28 ee bd
       0.15591696 0.07243673 -0.23316336 -0.11628852
000060 72 04 f7 bd 32 cd 38 3d 5a 64 cd bc ce aa 56 bd
       -0.12061395 0.045117564 -0.025072265 -0.052408986
000070 a4 8a f2 3d 49 88 0c 3e 5d ca ef 3c 32 17 61 be
       0.1184285 0.13723864 0.029271299 -0.21981505
000080 f8 6a bb bd 6b 7e eb 3d f7 8f d6 3c a2 00 a0 be
       -0.09151262 0.11498722 0.026191695 -0.31250483
000090 06 8a cf 3e b6 05 c8 3e d8 05 de 3e 47 00 d6 3e
       0.4053499 0.39066857 0.43363833 0.41797087
0000a0 2b 7e 0e bf be 8f e5 3e c8 02 d1 3e a8 f3 bf 3e
       -0.5566127 0.4483623 0.40822434 0.37490582
0000b0 78 a0 61 3e 3e c8 1c 3e 18 96 c7 3e 66 0b 45 3e
       0.2203387 0.15310761 0.389817 0.1924263
0000c0 a7 6e 73 3e 18 8e 5b be 40 a1 9d 3e 0b 54 46 3e
       0.2377268 -0.21440923 0.30787086 0.19367997
0000d0 86 ff e4 3e e1 87 8d 3e af 8b fa 3e 9e 20 a8 3e
       0.447262 0.2764273 0.48934695 0.32837385
0000e0 7c af 20 3d 0d da 82 3e 96 d0 16 be 99 ab cf 3e
       0.039229855 0.25556985 -0.14728007 0.40560606
0000f0 58 b1 ba 3e fe 2c a1 3e cb d9 bf 3e 56 2c a1 3e
       0.36463428 0.3147964 0.3747085 0.31479138
000100 b1 46 c3 3e bf cd 4f 3e 7e 3a 72 3e 04 49 51 be
       0.3813987 0.2029333 0.23655125 -0.2043801
000110 16 6b a5 3e 13 1e 5c 3e ec 47 a6 3e dd 2e e7 3e
       0.32308263 0.21495847 0.32476747 0.4515294
000120 18 8b 80 3b b4 c1 12 3e 28 b0 d7 bd 44 62 21 3e
       0.0039228313 0.14331704 -0.10531646 0.15760142
000130 0a 33 ee 3e d2 78 6d 3d c1 dc b0 bb de 27 07 3e
       0.46523315 0.05797655 -0.0053974097 0.13198802
000140 38 59 f0 bc cf 73 76 bd 51 ba 99 3d b8 3e de ba
       -0.029339418 -0.060169037 0.0750624 -0.0016955948
000150 90 08 5c 3d 3c 77 1d 3f 44 42 18 3d 02 47 8e 3d
       0.053719103 0.6151006 0.03717257 0.069471374
000160 82 60 f9 3c a0 c2 fb 3d 65 91 42 bd c4 fd 06 3e
       0.030441526 0.12292981 -0.04750194 0.13182741
000170 e7 2b 0c bd 98 dd 3a 3d ce 2f 0e 3f 77 d1 35 3d
       -0.034221556 0.045621485 0.55541694 0.044389214
000180 b4 f5 ba bc ec 82 9e 3d 9e f8 88 3b c4 65 20 3c
       -0.022822239 0.07739815 0.004180028 0.009789888
000190 7b 88 05 3e c0 21 6d 3c 8e b7 c6 3d df bf f7 3e
       0.13040344 0.014473379 0.09702979 0.48388574
0001a0 fc 8f f1 3d e0 0c 48 bd c5 f0 0b 3e 02 e6 12 bd
       0.11795041 -0.048840404 0.13666065 -0.035863884
0001b0 f4 30 92 bc a3 a5 14 be 47 e8 23 3d 8e 55 96 be
       -0.017845608 -0.1451631 0.04001644 -0.29362148
0001c0 0e 52 e5 be e7 ff 09 be 0a 7c c3 3b f8 a3 f7 be
       -0.44789165 -0.13476525 0.0059657143 -0.48367286
0001d0 d7 d9 09 3e 86 45 f4 bd b0 5b 6c 3d 30 1b b1 bd
       0.13462006 -0.11927323 0.057704628 -0.08647764
0001e0 eb 60 8c 3d c7 79 45 3d 0f 49 ae bd 8a ad c0 3c
       0.06854423 0.04821184 -0.085100286 0.02352025
0001f0 6d bc 3c 3e 48 20 1f 3e 7f 55 8e 3e fd db ed 3d
       0.18431254 0.15539658 0.27799603 0.11614225
000200 6f 53 c4 3c 77 9a 05 bd ca 6b 87 3e c3 60 fc bd
       0.023965565 -0.032618012 0.26449424 -0.12323143
000210 2d ee 35 3c 84 f8 7c be c8 ff 76 bd f8 bc 1c bd
       0.011104149 -0.24704176 -0.060302526 -0.038266152
000220 25 f3 a5 bc 23 38 79 bc 15 93 25 be 19 f0 e6 3d
       -0.020257542 -0.015211138 -0.16169389 0.11276264
000230 12 3a 6e 3d 69 e2 7d 3e bf f0 2f be b4 dd 07 be
       0.05816085 0.247934 -0.17181681 -0.13268167
000240 23 d1 18 be 95 6d 5b 3e 21 c4 33 3e 77 91 aa 3e
       -0.1492353 0.21428521 0.17555286 0.33314106
000250 ae ac 43 3d a8 0e cd 3d d8 f7 c7 3d c7 e5 12 3e
       0.047772102 0.10012561 0.09764069 0.14345466
000260 67 30 8d bc f2 ed b2 be 54 46 b7 bc a0 44 61 3c
       -0.017234994 -0.34947163 -0.022372402 0.013749272
000270 b3 f3 4e be cd e5 04 bf e2 f7 f8 3e 52 31 01 3e
       -0.20210151 -0.5191315 0.4862662 0.1261647
000280 65 fd 5a bd 31 fa 54 3d 6e 1e be bc 39 6f 88 3e
       -0.053464312 0.051996414 -0.02320787 0.26647356
000290 f8 7d 01 bf 9d de 54 bd 6f 9e 41 3e f1 f9 6b bf
       -0.5058284 -0.051970113 0.18908094 -0.92178255
0002a0 b1 d4 18 3e f9 0c 6b be 51 aa 88 be 3e 0a 11 3e
       0.14924885 -0.22954167 -0.2669244 0.14164063
0002b0 00 52 df 3e 7a 6f 3a be 6b 36 94 39 15 6f 31 3e
       0.4361725 -0.18206587 0.00028269304 0.1732753
0002c0 e2 0a 48 bf 9a 6f 84 3e 3b 09 69 be 24 1a ed bd
       -0.78141606 0.25866395 -0.22757427 -0.115772516
0002d0 9a 2d b3 be 63 8b 9d 3e 8f a1 12 3d bf 51 35 3e
       -0.3499573 0.30770406 0.035798606 0.17706965
0002e0 0e 3c 03 3f cd f0 8d bf 9e 9d 9e bd 69 5d 01 bf
       0.5126351 -1.1089112 -0.07744907 -0.5053316
0002f0 f9 64 58 be e5 37 88 be 24 fc e7 be 3b 20 18 3e
       -0.21132268 -0.26605144 -0.45309556 0.14856045
000300 ab fa 8b be 24 65 0a bf 7d f3 f2 be ad 23 77 3d
       -0.27339682 -0.5406058 -0.47451392 0.060336757
000310 70 e6 e8 3d 03 bd 45 be 06 cb 8e be 0b 8b fb be
       0.113720775 -0.19310383 -0.2788927 -0.4912952
000320 76 f4 a0 be fd 83 30 bd 43 2d 4c be d8 36 14 be
       -0.3143651 -0.043094624 -0.19939141 -0.14474046
000330 bb fe 29 bf c0 72 17 bf d6 3e 31 bf 11 4a 03 bf
       -0.6640431 -0.5915947 -0.69236505 -0.5128489
000340 28 d2 cd be b8 0e 0e bf 98 fa 33 bf a8 6c 81 be
       -0.401994 -0.5549121 -0.7030425 -0.2527821
000350 12 07 1c bf 72 4e 58 3e 10 04 d8 be 83 f6 0c bf
       -0.6094829 0.21123675 -0.421906 -0.5506365
000360 1a e9 bb be ec cf 8d be 5e b7 29 bf 50 28 6d be
       -0.3670128 -0.27697694 -0.6629542 -0.23159909
000370 06 20 90 be 05 4f 09 be ae 9b e5 be 8f 17 60 be
       -0.28149432 -0.1340905 -0.44845337 -0.21883987
000380 a5 fc 8b be 7a 96 9d be 2a 43 96 3d cb 0d 28 3e
       -0.2734119 -0.30778867 0.07337029 0.16411512
000390 a9 e8 c5 3d 77 f3 d2 be 78 4b a7 3e c7 4a f6 bd
       0.09663517 -0.41201374 0.32674766 -0.120259814
0003a0 70 20 2c bd b6 f5 8b b9 5a f5 58 bd 77 a5 98 3e
       -0.042023122 -0.00026695215 -0.05296836 0.2981374
0003b0 d1 ff 53 3e 31 01 91 3c 8c 6e 5a bc 2e 44 92 3e
       0.20703055 0.017700763 -0.0133320205 0.28567642
0003c0 1d 9c 05 3e 82 22 56 3d f9 7d 28 3e 49 16 c0 3d
       0.13047834 0.052279003 0.16454305 0.093792506
0003d0 bb e3 70 3e 19 26 68 3e e2 bd 45 3e c4 cb 3e 3e
       0.23524372 0.22670783 0.19310716 0.18632418
0003e0 6a 9e b6 3d 7f 97 e7 3c ff 71 4e 3d 5e ca 53 3e
       0.08916934 0.028270481 0.050401684 0.20682666
0003f0 e9 53 cb bc ab f8 37 3e 35 d8 7e 3e fd 3d 9d bd
       -0.024820285 0.17965953 0.24887164 -0.07677839

conv0.conv.bias f4 [32]
000000 e5 12 ca bb b1 72 61 bb ee 78 89 bb 21 f3 38 39
       -0.006166803 -0.0034400637 -0.004195324 0.0001763818
000010 05 0c d8 ba 23 77 12 3c 01 c6 2a bb f5 aa 4d bb
       -0.0016483074 0.008939537 -0.002605796 -0.0031382416
000020 71 db 09 3c 6f 31 01 3b 20 26 f4 3a 2a 11 00 3d
       0.008414135 0.0019713303 0.0018627085 0.03126637
000030 ac ac ef ba 7d c9 1e 3b 7c ab cd 3a 24 b3 d0 3a
       -0.0018285713 0.0024228983 0.0015691365 0.0015922529
000040 b5 b1 a3 3a 13 bc e7 bc b2 7b f1 ba b0 77 b3 ba
       0.0012488874 -0.028287923 -0.0018423705 -0.0013692286
000050 a7 01 8f 3b 0b 8b 56 bd 6b 80 9e bb 5a ac 6b bb
       0.0043642106 -0.052378695 -0.004837086 -0.0035960884
000060 d2 0b 54 bc 21 a5 43 3a 23 e0 79 3b 73 81 88 bc
       -0.012942271 0.0007463266 0.003812798 -0.016663289
000070 b8 8a a8 bb 82 5d 06 3b 69 c4 b4 bb 30 35 89 3b
       -0.0051434897 0.0020502512 -0.005516578 0.0041872486

conv0.bn.weight f4 [32]
000000 29 6e 63 3f ea 56 19 3f 61 1e 13 3f 52 87 2d 3f
       0.88839966 0.59898245 0.5746823 0.6778461
000010 5c fd 24 3f e2 26 04 3f ff 11 24 3f 21 ec 42 3f
       0.64449096 0.5162183 0.6408996 0.76141554
000020 61 63 76 3f d5 53 3a 3f bd a3 14 3f 51 84 d2 3e
       0.9624539 0.7278417 0.58062345 0.41116574
000030 e9 ae 14 3f cb a0 76 3f 51 45 30 3f 57 83 63 3f
       0.5807939 0.963391 0.6885577 0.88872284
000040 5b 03 24 3f 10 5a aa 3f 3f 13 4f 3f bc 41 2a 3f
       0.6406762 1.3308735 0.8088874 0.6650655
000050 61 60 2b 3f 4d 05 7d 3f da 37 51 3f c4 2d 20 3f
       0.6694394 0.98836213 0.8172585 0.6256983
000060 4e 0d 49 3f 39 05 2f 3f d3 3c 49 3f 02 6c 33 3f
       0.78535926 0.68367344 0.78608435 0.7008668
000070 da e9 86 3f 67 01 07 3f 16 fd 0b 3f d6 24 05 3f
       1.0540116 0.52736515 0.54683053 0.5200933

conv0.bn.bias f4 [32]
000000 58 21 20 bf 71 8c 46 3c fd d2 2d be f1 b6 ea be
       -0.6255088 0.012118445 -0.16975017 -0.45842698
000010 fe f0 66 be 8d c1 a4 3c 5b 90 10 3c 90 44 fe be
       -0.22552869 0.020111823 0.0088234795 -0.49661684
000020 5c 70 04 be db 82 ea be 99 1b c5 be 2a 7f a2 3e
       -0.12933487 -0.4580296 -0.38497618 0.31737643
000030 1a 0c 8e be bd e2 da be 89 12 98 be 06 93 11 bd
       -0.27743608 -0.42751113 -0.2970164 -0.035540603
000040 ed 8a 9c bc 6a d5 8a be 79 f3 ab be 91 c6 87 be
       -0.019109214 -0.27115947 -0.33584192 -0.26518682
000050 f2 97 8c be 78 07 06 3e 84 45 a8 be 8f 43 6d be
       -0.27459675 0.13088787 -0.32865536 -0.23170303
000060 da 32 32 be d9 73 01 bf 30 70 b6 be b3 2a 3a bd
       -0.17402211 -0.50567394 -0.35632467 -0.045450877
000070 79 fc 09 be 56 58 2c 3f f9 63 33 be a8 4d b9 3d
       -0.13475217 0.6732229 -0.17518605 0.09048015

conv0.bn.running_mean f4 [32]
000000 81 ea d8 3e 1f 35 f0 3d 99 05 2c be 03 3f 31 be
       0.42366412 0.11728882 -0.1679901 -0.17309193
000010 5d 5b 22 be bd 14 8d bc 36 62 da be 22 f3 db 3e
       -0.15855165 -0.017221803 -0.42653054 0.42958933
000020 81 b1 9a be 46 83 3b be 09 58 ca bd c4 ba 60 3d
       -0.3021355 -0.18311796 -0.098800726 0.054865614
000030 41 72 38 be e0 12 8f bd 0b 3e e1 3d 40 a3 d0 3e
       -0.18012334 -0.06986022 0.10998162 0.4074955
000040 e4 4a 92 3e 05 bd 93 be 43 76 88 be 5c b7 d9 bd
       0.28572762 -0.28855148 -0.26652727 -0.10630676
000050 36 ba 72 3d 2e fa da bd c6 45 8e be 3b 13 9d 3e
       0.059259616 -0.10692249 -0.27787608 0.30678734
000060 47 76 38 be cb 43 24 be 54 05 be bd 0b ca 09 be
       -0.18013869 -0.16041486 -0.0927836 -0.1345598
000070 94 80 a4 3e 2c ef 79 3e 5f 3b ba bd e8 2e ba 3e
       0.32129347 0.24407643 -0.090933554 0.36363912

conv0.bn.running_var f4 [32]
000000 9a 8a 38 3e 9f 07 73 3e 18 0f bc 3e f7 99 97 3e
       0.18021622 0.23733376 0.36730266 0.29609653
000010 c8 49 8e 3e df b4 8a 3e 08 0d d4 3e 56 ab 40 3e
       0.27790666 0.2709112 0.41416192 0.1881536
000020 77 38 bb 3e 20 a2 97 3e 15 d9 62 3e 13 19 85 3e
       0.36566517 0.2961588 0.22153123 0.25995693
000030 bc a0 7f 3e e0 b7 2a 3e a1 07 6d 3e 6d 2a 5e 3e
       0.24963659 0.16671705 0.23147441 0.21695872
000040 88 0a 35 3e 2e 01 85 3e a0 c2 99 3e 91 10 75 3e
       0.17679799 0.25977463 0.300313 0.23932101
000050 93 21 a7 3e ea 54 7d 3e ee d4 60 3e e0 0e 66 3e
       0.32642803 0.24739423 0.21956226 0.22466612
000060 53 a4 4c 3e 99 07 a3 3e 9e 06 79 3e 99 f1 40 3e
       0.1998456 0.31841734 0.2431893 0.18842162
000070 d2 56 72 3e 95 8f 3c 3e 9d 32 74 3e 78 22 87 3e
       0.23665932 0.18414147 0.23847432 0.26393485

blocks.0.conv.weight f4 [32, 32, 3, 3]
000000 bc 99 a1 3e a5 f9 0f be 80 6a b7 3e 8d 2d cb be
       0.31562603 -0.14060076 0.3582344 -0.3968319
000010 ff 89 13 3e c2 f3 40 be a4 52 8b 3e 67 95 f9 bd
       0.1440811 -0.18842986 0.27211487 -0.12186699
000020 cc c8 95 3e ff 43 2a 3d 13 02 df 3d f7 3d bb be
       0.29254758 0.041568752 0.108890675 -0.36570713
000030 ea ff 54 be cf 59 1c be 29 6a fc 3d d8 65 06 3d
       -0.20800748 -0.15268634 0.12324936 0.03281197
000040 36 8e 15 be 13 ae 68 be fd 41 76 3e 1a 79 e3 be
       -0.1460503 -0.22722654 0.2404861 -0.4442833
000050 c4 f2 9a bb ef 09 dd 3d 10 24 24 be 98 fb 8e 3d
       -0.004728647 0.1079291 -0.16029382 0.069815814
000060 56 f8 44 3e b8 49 ac bd 0f c3 27 bd 23 8c 29 3e
       0.19235358 -0.08412498 -0.040957507 0.16557364
000070 d4 b1 b3 3d 36 9f 8f 3d 4a e1 2c 3d 23 ea a5 3e
       0.087741524 0.07012789 0.04220704 0.32405195
000080 7f 29 8a 3d cd e4 39 be 71 77 9b be 32 01 3d 3d
       0.06746196 -0.18153687 -0.30364564 0.046143718
000090 f7 cf 2d 3d d1 32 03 3e b8 09 dd bd 71 33 27 bd
       0.04243466 0.12812354 -0.10792869 -0.040820543
0000a0 32 ae a0 3e 47 f7 4e be 62 a9 56 bd be f3 bb 3e
       0.313829 -0.20211516 -0.05240763 0.36709398
0000b0 56 c9 49 bc 37 c9 30 bd 41 ef 04 be 90 7b bb 3d
       -0.012316069 -0.043160643 -0.12981893 0.09154427
0000c0 5c 94 57 bc 2e 62 c8 bd 18 e3 1b 3e 3a 64 5d 3e
       -0.01315793 -0.09784351 0.15223348 0.21620265
0000d0 53 41 95 3e 3c c1 cb 3d 9d fa 51 3e 43 3b df 3d
       0.291514 0.09948966 0.20505758 0.10899975
0000e0 ce c6 a9 bd 0c c5 2d bd d4 18 3e 3e 18 d3 fd bd
       -0.08289872 -0.042424247 0.18564159 -0.123937786
0000f0 5e bf 20 3e 13 82 63 ba 67 2c b4 be 1f 53 93 3e
       0.15698001 -0.00086787454 -0.35190126 0.28774354
000100 d6 7e 17 3f 97 5f de 3e 33 57 2e be e7 91 d9 3e
       0.5917791 0.43432304 -0.17025451 0.42494127
000110 a2 76 c6 3d e2 67 91 3e 1d 93 f0 3d c1 93 cd 3e
       0.09690596 0.2839957 0.1174681 0.4015179
000120 49 19 61 3e d3 c8 df be 1e b2 c6 3d 24 c0 b2 bb
       0.21982302 -0.43707904 0.09701942 -0.005455034
000130 eb bc c6 3e 82 e5 71 3e b4 23 88 3d 07 09 c5 3e
       0.38816008 0.23622707 0.06647435 0.3848345
000140 d2 46 9b be 94 ce bc bd 2b 5d 09 be 93 db 6d be
       -0.3032747 -0.09219089 -0.13414447 -0.23228292
000150 3f a7 94 bd 11 71 be 3e 6d 5e 38 be 79 f8 7e 3e
       -0.07258462 0.37195638 -0.1800477 0.24899472
000160 00 bb 8b bd 4b 79 09 be 03 54 9c 3d e7 0d 51 3e
       -0.06822777 -0.13425176 0.076332115 0.2041546
000170 1b dc 2c be 1a 46 48 be 4d 76 87 3e 0c bd a9 bd
       -0.16880839 -0.19557992 0.26457444 -0.08288011
000180 f2 5e 91 3d 4a ea 16 3e cd 29 aa 3d fa e8 30 3e
       0.070981875 0.14737812 0.08308754 0.17276374
000190 66 5b fd bc 98 ea b3 3e f7 a6 f5 be d9 e8 4a bc
       -0.030927371 0.35139918 -0.47978947 -0.012384617
0001a0 b8 d7 40 bc 98 41 f3 3d 35 68 9e bc cc e9 80 3d
       -0.011770181 0.118777454 -0.0193368 0.06294593
0001b0 0e 7e b7 be 70 d9 17 be a3 bd 81 3e b9 ed 14 3e
       -0.3583836 -0.1482904 0.25339994 0.14543809
0001c0 3c 07 bf 3d 6f 92 c5 3d da 71 18 be 26 fa f3 3e
       0.09327552 0.096470706 -0.14887181 0.47651786
0001d0 79 37 e0 3d 70 d7 13 be e1 c1 7d be 92 66 a2 be
       0.109480806 -0.14437652 -0.2478099 -0.3171888
0001e0 3d 4d 1e 3d cc f5 01 bf fc 49 5c be e9 4c 3a 3d
       0.03864788 -0.5076568 -0.21512598 0.045483503
0001f0 5c 2b 52 be b0 88 c5 3d 04 73 9b be f8 bc 4e 3e
       -0.20524353 0.09645212 -0.30361187 0.20189273
000200 9d fb 02 bf e0 0c 56 3e c7 f1 4b be 3b 3f d7 bc
       -0.5116518 0.20903349 -0.1991645 -0.026275268
000210 fa e2 81 bd c2 5a 95 be 9b 82 b7 3d b2 2d 89 3e
       -0.063421205 -0.29170805 0.08960458 0.26792675
000220 fb 17 38 3e da 88 4c 3e 47 b1 85 3e 4d 26 0d bd
       0.17977898 0.1997408 0.26111814 -0.034460355
000230 1c 54 f6 3a 18 0a 40 bd e8 c5 60 3d d4 42 6f 3e
       0.0018793377 -0.046884626 0.054876238 0.23365337
000240 4a 4c cb bd 25 39 26 3e d8 8f 53 3e 2c b9 99 3d
       -0.0992666 0.16232736 0.20660341 0.07506022
000250 cc c6 24 be ec f4 a9 3c 17 5f 48 bd e8 10 a1 3d
       -0.1609146 0.02074667 -0.04891881 0.07864553
000260 d1 04 31 3e c0 ca b8 bd f6 7f b1 3e 95 98 1e 3e
       0.17286994 -0.090230465 0.3466794 0.15487893
000270 52 3f 88 3e d4 c6 f0 bf d4 04 a8 3e 9e c2 a8 3e
       0.2661081 -1.8810678 0.32816184 0.3296098
000280 86 1f e0 3d 34 91 0a 3d 71 f5 ed 3d d8 2c a6 be
       0.109435126 0.033829883 0.1161908 -0.32456088
000290 45 57 0a 3f f5 d5 c1 3e db 94 b3 be 02 e8 49 bd
       0.5403941 0.3785855 -0.35074505 -0.049293526
0002a0 09 fb fa be 9b 07 69 3e 86 21 98 3d b8 9c 40 3e
       -0.4901965 0.22756808 0.07428269 0.18809783
0002b0 7a b8 75 be c7 03 ab be 27 90 80 bc 54 cc 32 be
       -0.23996153 -0.3340132 -0.015693737 -0.17460757
0002c0 76 ae e1 bb c9 03 52 3d f2 a3 ba be 6f 1c a1 bd
       -0.0068872524 0.05127314 -0.36453205 -0.078667514
0002d0 69 13 a9 bd 49 4e 82 bd b9 e0 25 3e 61 45 33 3d
       -0.08255655 -0.06362588 0.16199006 0.043767337
0002e0 e3 25 c2 be c2 5a 45 3a ae 07 3f 3c b9 77 83 bc
       -0.3791953 0.00075284776 0.011659546 -0.0160483
0002f0 c1 cd f8 bd bb 7b b0 3d 45 7a 8d 3e d1 ad 07 3c
       -0.121486194 0.0861735 0.27632347 0.008281187
000300 ab a7 4d 3e c7 a8 a9 be d1 2d 9f 3e 29 c8 94 3e
       0.20083492 -0.3313658 0.31089643 0.2905896
000310 1d af ed 3e 0b 9e 1f 3e 9b 6c 92 bc 6e 43 53 3e
       0.46422663 0.15587632 -0.017874053 0.20631191
000320 11 4d 32 3d 5d cd e3 be da 76 ee 3e 5c 96 28 3e
       0.043530528 -0.44492617 0.46575052 0.16463608
000330 df 30 0d 3e 43 90 0a bf e1 59 54 3d 4e a2 a7 3d
       0.13788174 -0.54126376 0.051843528 0.08185254
000340 ce d7 a2 3d 06 30 2a 3e e8 d0 17 be 1a 57 1a be
       0.07951318 0.16619882 -0.14825785 -0.15072289
000350 01 34 d7 3c e4 69 28 be 0f 9f f3 3d 5d 65 d7 3d
       0.026269915 -0.16446644 0.118955724 0.105173804
000360 d6 7d db 3d b2 7c 24 bd e7 7d 66 3e 99 4c 87 3e
       0.10717361 -0.04015798 0.22508965 0.26425627
000370 34 27 d6 3d 6f 09 d3 3d fd b4 53 3d 64 17 13 3d
       0.10456696 0.10304534 0.051686276 0.03591098
000380 a4 a5 ee 3d 90 62 a1 3b b8 0c 86 be 07 f5 be 3c
       0.11652687 0.0049250796 -0.2618158 0.023310198
000390 01 ec 97 3c 3e f3 c0 3d e2 92 c0 be b8 a5 08 bf
       0.018545153 0.09421395 -0.37612063 -0.53377867
0003a0 50 9a cb be 9f c9 34 3e 5a 06 89 3d b2 4d f1 3d
       -0.3976617 0.17655037 0.066906646 0.11782397
0003b0 c6 9c 2b 3e 0d c4 f4 bd 1f a0 8b be da bc ac 3d
       0.16759023 -0.11951456 -0.272706 0.08434458
0003c0 30 02 b3 3d 4a f1 04 3f ea b1 77 be 09 1d 3c 3e
       0.087406516 0.5193068 -0.24188963 0.18370451
0003d0 e1 5b 43 be 1b b1 ba bd 24 63 02 3e 40 a5 9f be
       -0.19078018 -0.091158114 0.12733132 -0.31180763
0003e0 2a 28 9c bd 39 4f d7 3d b4 91 8c 3d 85 67 0a 3d
       -0.07624848 0.105131574 0.06863728 0.03379013
0003f0 0c 41 8d 3d e8 37 69 be 1b 0e 40 3d 35 c1 49 be
       0.06897172 -0.22775233 0.046888452 -0.19702609

blocks.0.conv.bias f4 [32]
000000 62 90 a5 b9 6b ed aa bb 82 dd 1f 3b bf 5a 86 b9
       -0.00031578826 -0.0052162907 0.0024393504 -0.00025626083
000010 81 bd 42 3c 73 5a e2 3b ca 1c 40 3a 57 aa ec 3b
       0.011886002 0.006907755 0.00073285087 0.0072224545
000020 69 30 43 3a bc 8d e6 3a 6b dc 0c ba 69 b0 03 ba
       0.00074458733 0.0017589848 -0.0005373421 -0.00050235406
000030 87 50 3b b9 d7 6e 5a 3a 18 76 07 ba 4b c9 20 ba
       -0.00017863708 0.00083325565 -0.00051674386 -0.00061335106
000040 5a fc 91 3a bf 1a de ba 07 5d 3f bb ed ad 93 3a
       0.0011137829 -0.0016945227 -0.0029199736 0.0011267044
000050 2f 1d 77 39 e6 4c b2 3b 94 02 05 3a 74 2e 41 bb
       0.00023566627 0.005441296 0.00050739315 -0.002947715
000060 0e 08 08 bc 00 ca a2 ba 79 df 95 3a 46 1f 81 3a
       -0.008302702 -0.001241982 0.0011434398 0.0009851239
000070 e6 27 ff 3a bf f0 43 3a bf c0 5c 3b fa ca f2 bb
       0.0019466847 0.00074745336 0.0033684222 -0.0074094506

blocks.0.bn.weight f4 [32]
000000 cb 25 5c 3f f0 e7 4d 3f 8e a2 3b 3f 8f 96 81 3f
       0.8599517 0.80432034 0.73294914 1.0124072
000010 89 40 8e 3f 13 89 3d 3f 72 b2 2d 3f 89 f2 54 3f
       1.1113445 0.74037284 0.6785041 0.8318258
000020 76 74 45 3f 9f 83 7b 3f 1d a5 58 3f 8e 25 83 3f
       0.7713083 0.9824771 0.8462694 1.0245836
000030 dc b5 5a 3f 2a f9 51 3f 0c 0e 45 3f 4f 48 37 3f
       0.85433745 0.8202082 0.7697456 0.7159471
000040 1b 61 81 3f d6 65 86 3f 0d b3 44 3f 6c ee 84 3f
       1.0107759 1.0499828 0.7683571 1.038526
000050 6d 0f 53 3f 2c b3 26 3f 4f 70 6d 3f 91 47 67 3f
       0.8244541 0.65117145 0.92749494 0.90343577
000060 69 6c 51 3f 66 de 60 3f 5b 5b 7d 3f 99 d7 97 3f
       0.81806046 0.87839353 0.9896752 1.186267
000070 43 9d 31 3f ec 3b 1d 3f 86 33 13 3f 10 df 7b 3f
       0.6938059 0.6141956 0.57500494 0.9838724

blocks.0.bn.bias f4 [32]
000000 d4 5a 2e bf 46 b7 dc be c4 07 18 3e ed 97 76 be
       -0.6810734 -0.43108577 0.14846712 -0.24081393
000010 9e 7b b1 be e3 6e 52 be 72 fa 72 be cb 71 9b be
       -0.34664625 -0.20550112 -0.2372835 -0.30360255
000020 82 41 ef be 30 5c 74 be d8 9f 14 bf b9 ed 0e bf
       -0.46729666 -0.23863292 -0.580564 -0.55831486
000030 bd 31 09 bf 25 cc 20 bf dc c0 19 be af 22 3b bf
       -0.5359152 -0.628115 -0.15014976 -0.730998
000040 d5 f4 00 bf fe 59 c8 be b3 27 85 be 15 57 1a bf
       -0.50373584 -0.3913116 -0.2600685 -0.60289127
000050 e1 04 fe be 16 bd 92 be c2 af 64 bf 1c 35 b9 be
       -0.49613097 -0.28659886 -0.89330685 -0.36173332
000060 d3 96 87 bc 58 aa ee be 66 00 eb be b8 31 25 bf
       -0.01655141 -0.46614337 -0.4589874 -0.6452899
000070 11 48 13 bf c4 c6 95 be a7 eb f0 3c 00 7b 59 bf
       -0.5753184 -0.2925321 0.029409243 -0.8495331

blocks.0.bn.running_mean f4 [32]
000000 3f 63 c3 3f f9 af 81 c0 2c a7 37 40 54 50 2b 3f
       1.5264663 -4.052731 2.8695784 0.66919446
000010 72 1e 0b c0 63 20 a3 c0 5e 35 3c c0 21 b6 06 c0
       -2.1737332 -5.0977035 -2.9407573 -2.1048663
000020 56 16 8e 3f 30 44 14 c0 f2 e4 02 c0 d6 4a b3 bf
       1.1100566 -2.3166618 -2.0452237 -1.4007213
000030 9b 77 03 c0 8d 83 b2 3f e5 b0 0d 40 b0 69 da bf
       -2.0541751 1.3946396 2.2139218 -1.7063503
000040 99 a3 31 be 68 fa d8 bf 01 41 45 40 0e bb d2 bf
       -0.17347564 -1.6951418 3.0820925 -1.6463335
000050 85 80 33 3f a7 aa fb bf e3 08 b5 bf b8 14 43 3f
       0.7011798 -1.9661454 -1.4143337 0.7620349
000060 4f 81 bb bf f1 a3 d2 bf 3d 57 48 be 5c 28 b8 be
       -1.4648837 -1.6456281 -0.19564529 -0.35968292
000070 80 1d 93 c0 d1 1d ac 3f 42 01 09 3f 7b f9 a1 c0
       -4.597351 1.3446599 0.53517544 -5.061704

blocks.0.bn.running_var f4 [32]
000000 a8 7d 5c 40 88 89 a2 40 09 ad ed 40 a3 76 9f 40
       3.4451694 5.0792885 7.4273725 4.983232
000010 57 7e 2c 41 c9 a3 06 41 80 c1 d3 40 03 05 84 40
       10.780845 8.414987 6.6173706 4.125612
000020 db cd 81 40 61 73 5f 40 16 42 75 40 b5 b8 c9 40
       4.056379 3.4914172 3.8321586 6.3037972
000030 74 78 6f 40 f1 76 a0 40 36 3a b3 40 79 20 8d 40
       3.7417269 5.014519 5.600856 4.410214
000040 d4 87 85 40 4b 4e 08 41 b6 ea 6d 40 de c2 86 40
       4.1728306 8.5191145 3.7174506 4.2112875
000050 5e f8 51 40 d0 af ee 40 1c 35 8e 40 06 e8 99 40
       3.2807841 7.4589615 4.443983 4.809573
000060 fe 43 49 41 d8 f3 74 40 73 ea 9d 40 72 24 bc 40
       12.5791 3.827383 4.9348693 5.879449
000070 7a 9d 07 41 f1 b3 8e 40 c0 46 b5 40 1d 82 b8 40
       8.475946 4.4594655 5.6648865 5.765883

blocks.1.conv.weight f4 [32, 32, 3, 3]
000000 61 96 1a 3e 02 bf 66 bc 9a 39 6a 3d d6 9c f2 be
       0.15096428 -0.014083626 0.05718384 -0.4738528
000010 89 a0 96 3e 22 0a 1d be 11 30 f6 3d d4 83 fe be
       0.29419354 -0.15335897 0.12020887 -0.49709952
000020 ea c0 09 3e 90 0c 68 bb e4 13 b4 3e fb d6 2f be
       0.13452497 -0.0035407878 0.35171425 -0.17171852
000030 8e 93 80 bd 7e 98 00 3d 19 87 b4 bd 89 1a 4a be
       -0.06278144 0.031395428 -0.0881483 -0.19736685
000040 60 72 d4 3e 73 a5 84 3d cc 11 79 3c 6f 80 29 be
       0.4149351 0.064768694 0.015201997 -0.165529
000050 17 80 1e 3e 76 dc 90 be ee 0e 32 bf 2e 8a 56 bd
       0.1547855 -0.28293198 -0.6955403 -0.052377872
000060 0f 69 98 bd 8e 53 0b 3e c8 f9 43 3e 22 02 9b 3e
       -0.07441913 0.13606092 0.19138253 0.30275065
000070 9a 42 0e be 86 58 0d 3e 7c bd cc bc 9a f2 07 3f
       -0.13892594 0.138033 -0.024992697 0.53104556
000080 a6 67 17 be 1d 19 fc bc 42 33 26 bf e3 de 5d be
       -0.14785632 -0.030773694 -0.64921963 -0.21667056
000090 8b 31 4c 3e 5c 7a 6e 3e ef 66 ce be d9 9b 38 3c
       0.19940774 0.23288864 -0.40312907 0.011267626
0000a0 ec 4c 50 be 22 e5 86 be b6 ef 90 3d 3e 1a 38 bd
       -0.20341843 -0.2634669 0.07076971 -0.0449469
0000b0 31 8d e8 bd 96 e2 aa be 4b de 1d 3c a9 c3 c5 3e
       -0.11355055 -0.33375996 0.009635518 0.3862584
0000c0 b2 09 2d 3d e3 b6 70 3e 75 08 22 3e 7e e2 3a 3e
       0.042245574 0.23507266 0.15823539 0.18250462
0000d0 e1 83 d8 3d f9 24 bf 3e ad ec 53 bd 6b 8a 12 3e
       0.10572029 0.37332895 -0.051739383 0.14310615
0000e0 4b 75 e0 be 51 db 09 be 3b 04 db bc 53 55 3c be
       -0.43839487 -0.13462569 -0.026735416 -0.18391924
0000f0 32 bb a1 3d a3 6e 80 3e 33 a2 fd bd c5 ac a6 bd
       0.07897033 0.2508441 -0.12384453 -0.08138422
000100 47 29 44 bf 07 ef c8 3d 03 2e 67 bd 73 26 0a 3e
       -0.76625484 0.09811216 -0.056440365 0.1349123
000110 32 d5 d7 be 0f b3 e7 bd b1 47 ad be 22 51 21 3e
       -0.42154843 -0.113134496 -0.3384376 0.15753606
000120 83 18 93 bc a9 38 01 be 9a 87 80 bd 27 b2 b6 3c
       -0.017956024 -0.1261927 -0.06275864 0.022301747
000130 f1 f7 38 3d 1a 69 07 be 4c f6 4e 3c cc 8e 36 be
       0.04515833 -0.13223687 0.012631964 -0.1782791
000140 47 40 47 3e 72 8c 24 bd ce 56 d8 bd c0 f5 3b be
       0.19458114 -0.040173 -0.10563432 -0.18355465
000150 10 ff 0c 3f c0 ae 14 3e db 15 7c be be a9 ba 3d
       0.55076694 0.14519787 -0.24617712 0.09114407
000160 96 db 17 be 55 06 04 3d 9e b6 4b 3d b2 4e d1 bd
       -0.14829859 0.0322326 0.049734704 -0.10220088
000170 ce c0 a8 3d 92 99 c8 3c 3a 7f 2a be a1 83 a0 3d
       0.082398996 0.02448729 -0.16650096 0.07837606
000180 e3 4d 06 3e f4 99 eb bc 16 6e 4c be af 8f 81 3e
       0.13115649 -0.028759934 -0.1996387 0.25304934
000190 5c 54 88 bd d1 18 65 3e d1 46 61 bd 1d 15 3c 3e
       -0.06656715 0.22372748 -0.054999176 0.18367429
0001a0 8d d8 ac 3d bf 95 0c be 0b 0e ec be 16 8d 0c 3e
       0.08439741 -0.13728999 -0.46104464 0.13725695
0001b0 c3 59 86 be fb de 59 3e 5e b6 83 bd c9 e8 6b be
       -0.26240358 0.21276467 -0.06431268 -0.23038019
0001c0 28 3a 54 3e e8 ae 85 3c 3c c9 ae bd 26 dc ef 39
       0.2072531 0.016318753 -0.08534476 0.00045749656
0001d0 87 87 3b 3e e8 32 ee bd cc 80 82 be 33 a8 8f be
       0.18313418 -0.11630803 -0.2548889 -0.28058013
0001e0 9a 12 37 be 1e c5 19 bf 4c bc 10 3e 61 5b 50 bd
       -0.1787819 -0.600664 0.1413433 -0.050868396
0001f0 02 f8 48 3e 7a 2a ff 3d 46 72 83 3e f2 67 04 be
       0.19625857 0.12459274 0.2567312 -0.12930277
000200 6c a2 c9 bd bb 1d 86 3d 10 0f c7 be ea 2a 9a 3e
       -0.09845433 0.065486394 -0.3887868 0.30110866
000210 44 1d 91 bd 11 ed 8c be ff d2 20 3e bd 4d d4 bd
       -0.0708566 -0.27524617 0.15705489 -0.1036639
000220 ed 28 3c 3e d0 6a 46 3e 7c d4 79 be 89 8e 4f 3e
       0.18374987 0.19376683 -0.24397463 0.20269217
000230 b3 49 c6 3c b6 0a 87 be 14 20 12 be 1e 49 c0 3d
       0.024205064 -0.2637536 -0.1427005 0.09388946
000240 ef 75 8c 3e 64 12 17 bf f6 4c 41 3e 38 c3 a9 bd
       0.27433726 -0.59012437 0.18877015 -0.08289188
000250 1c f4 d5 be 97 f4 1f bb be 59 a0 be 8a 44 2e bc
       -0.41787803 -0.0024407262 -0.31318468 -0.010636458
000260 77 1d fe bd db cd 82 3e e8 5a 09 bd 64 a7 40 be
       -0.12407964 0.2554768 -0.03353396 -0.18813854
000270 4f 00 f1 be d6 d1 8f bf 4b 6a 30 bd f8 42 92 3d
       -0.47070548 -1.1235912 -0.04307012 0.071416795
000280 87 65 b8 be 3a 31 07 be 9d a0 d9 3d d8 9c 99 3e
       -0.3601496 -0.13202372 0.10626338 0.30002475
000290 7b d9 0d be 08 ac f2 3d 2d 03 f5 3d 33 d1 d8 3d
       -0.13852493 0.118492186 0.11963496 0.105867766
0002a0 11 c4 ae bc d7 1a 8a 3e da 44 cb bd d1 12 58 be
       -0.021333726 0.26973602 -0.09925242 -0.21100928
0002b0 dc 59 8a bd ca cf 8b be c9 66 85 bc c4 f5 0c 3e
       -0.067554206 -0.27306968 -0.016284363 0.13765627
0002c0 6c e3 1d 3e e3 1f 01 bf de 3d c0 be 67 7a 29 bf
       0.15418786 -0.5043928 -0.375472 -0.66202396
0002d0 d1 da f6 3d e1 d3 bf be 6c 4b ff 3d cb 49 80 bd
       0.12053455 -0.37466338 0.124655575 -0.06264075
0002e0 08 2f f9 bd 4c 5c ca 3e ee 91 3b be 25 af 05 be
       -0.121671736 0.39523542 -0.18317387 -0.13055094
0002f0 0d 54 5d 3d ea f5 81 bd 72 d9 a2 3b da 78 88 be
       0.054035235 -0.063457325 0.004969769 -0.26654702
000300 c7 32 a6 bd 3a c9 13 bf 06 8f 47 bd 1b f3 b7 bd
       -0.08115154 -0.5772892 -0.048720382 -0.089819156
000310 6c 81 b5 ba 40 1e 4c be 0d e9 1a be f4 0a 86 be
       -0.0013847775 -0.19933414 -0.15127964 -0.26180232
000320 66 91 c7 3e 7f d6 08 b8 fe a9 36 be 3d ff e0 be
       0.38978118 -3.262469e-05 -0.17838284 -0.4394473
000330 46 52 0c be 44 f6 71 be 1c dd b5 bd 1f 7e 6d be
       -0.1370326 -0.23629099 -0.08880064 -0.23192643
000340 57 77 d8 bd 2c 11 72 3e 27 08 13 bf 26 c1 ed be
       -0.10569637 0.23639363 -0.57434314 -0.46436423
000350 b9 a3 82 3d 37 51 5f 3d 20 d4 ab be 0a c9 48 be
       0.06378884 0.054520812 -0.33560276 -0.1960794
000360 07 70 30 3e ff 20 f6 bd 95 37 8b be 15 cd 5f bd
       0.17230235 -0.12018012 -0.27190843 -0.05463894
000370 37 89 92 be ef b1 cb be c3 96 8f bd 94 1e 4b 3e
       -0.28620312 -0.3978419 -0.070111774 0.19835883
000380 65 a3 b1 be d6 b6 be bd 52 eb da bc 16 d1 ee bd
       -0.34694973 -0.09312217 -0.026723538 -0.11660974
000390 53 05 1b be 69 98 35 ba ba af c5 bc c3 bb 01 bf
       -0.1513875 -0.0006927313 -0.024131645 -0.50677127
0003a0 70 c3 33 3e 80 77 88 3d e9 17 8f 3e e5 92 97 3e
       0.17555022 0.06663418 0.2794793 0.2960426
0003b0 73 09 01 3f 82 4f bc 3c b5 d7 d7 be b9 0b 4b be
       0.50405043 0.022987131 -0.4215676 -0.1982869
0003c0 83 d0 8e be d0 ec 85 3d 4a 8b 99 be 77 92 73 3e
       -0.27893457 0.06539309 -0.29989082 0.2378634
0003d0 ab ef c8 bc a8 d4 50 be 0b 30 5c be bc ad bd be
       -0.024528345 -0.20393622 -0.21502702 -0.3704661
0003e0 fe d8 a0 3e 32 bb 7e 3e 35 ad 1d be 51 99 e9 3d
       0.31415552 0.24876097 -0.15398104 0.11406196
0003f0 4b 08 10 be ae 32 2f be c7 0e 69 3e 94 63 09 bf
       -0.14065664 -0.17109177 0.22759543 -0.5366757

blocks.1.conv.bias f4 [32]
000000 b0 91 80 3c 6a b0 21 3b 48 73 e3 38 91 cd 49 bb
       0.01569447 0.0024671801 0.00010845676 -0.0030792693
000010 6a b4 18 3a 02 a7 60 3b a4 11 dd ba 46 6a 05 bb
       0.00058252236 0.0034279232 -0.0016866219 -0.0020357533
000020 60 03 c0 bb fb 8b a8 ba 06 f4 53 3a 7b e8 56 b9
       -0.0058597773 -0.00128591 0.00080853736 -0.00020495236
000030 13 17 1c 3b 79 5f 41 3a 2c df e9 39 a6 79 89 3a
       0.0023817464 0.0007376592 0.000446075 0.0010488525
000040 4d c3 bc 39 59 13 ae ba 0a 1a ae 38 66 4f a4 3a
       0.00036003665 -0.0013280913 8.301817e-05 0.001253587
000050 dc af fd b6 7f 35 07 3b e5 b2 15 b9 5b cb 92 3a
       -7.5604603e-06 0.0020631251 -0.0001427639 0.0011199521
000060 ba 50 f4 bb f6 3d 43 bb 8b 7e 90 ba d4 07 7f 3c
       -0.0074559124 -0.002979157 -0.0011024041 0.015565831
000070 16 49 17 bb 0b 44 40 ba 61 c1 2b ba 77 4a ae 39
       -0.0023084334 -0.0007334358 -0.0006551948 0.00033243347

blocks.1.bn.weight f4 [32]
000000 50 7e 24 3f d4 b5 6b 3f 78 a2 23 3f af bf 77 3f
       0.6425524 0.9207432 0.6391978 0.9677686
000010 f3 ad 80 3f 0f 40 3f 3f 7e 52 2a 3f d7 41 50 3f
       1.0053085 0.7470712 0.66532123 0.81350464
000020 75 93 80 3f 8c c2 66 3f 59 d1 57 3f 82 20 73 3f
       1.0045 0.90140605 0.84303814 0.9497148
000030 ae f9 96 3f 5c ac 6a 3f 77 75 87 3f 98 c2 86 3f
       1.1794946 0.9166925 1.0582722 1.0528135
000040 9d 30 90 3f 13 39 4a 3f 55 ee 67 3f ce e3 5f 3f
       1.1264836 0.7899334 0.9059804 0.8745698
000050 4c 47 79 3f 24 1c 62 3f c1 17 9e 3f 3f 79 96 3f
       0.97374415 0.8832419 1.2350999 1.1755751
000060 bb 81 60 3f 7a 0e 9c 3f 48 da 8c 3f 55 f8 61 3f
       0.87697953 1.2191918 1.1004114 0.8826955
000070 91 da 42 3f 28 8c 3c 3f 9a 96 0e 3f f6 ff 88 3f
       0.76114756 0.7365136 0.5569855 1.0703113

blocks.1.bn.bias f4 [32]
000000 82 20 4f be e2 2a f5 be 23 32 e7 3d 55 f6 e9 be
       -0.20227244 -0.4788428 0.1128886 -0.4569575
000010 74 0f fd bd 1e ca 91 be 2c 11 c9 be 4a 05 09 bf
       -0.12356463 -0.28474516 -0.39270914 -0.53523695
000020 5d 3a 1e bf 93 55 bb be 56 44 1c bf 83 b1 24 bf
       -0.61807805 -0.36588725 -0.6104177 -0.6433336
000030 e3 80 17 bf 29 f0 c8 be 69 f9 c2 be 3c 80 b1 be
       -0.5918104 -0.39245728 -0.3808091 -0.34668148
000040 35 b1 1f bf 74 e1 d3 be 0c 54 cd be fb 95 ee be
       -0.6237977 -0.41382945 -0.40103185 -0.465988
000050 c5 db 4c bf a5 00 e1 be fe 06 4b bf 0f 97 2f be
       -0.8002284 -0.43945804 -0.79307544 -0.17147468
000060 43 40 4a bf f1 eb bc bd dd f4 a5 be 16 17 b1 be
       -0.79004306 -0.0922469 -0.32413378 -0.34587926
000070 80 cd 8f be dd 7f 26 bf 3d 6d 99 bd 6b a3 e1 be
       -0.28086472 -0.65038854 -0.07491539 -0.4406999

blocks.1.bn.running_mean f4 [32]
000000 7b cb a2 c0 e2 c1 62 c0 00 db 8b be de a3 d6 bf
       -5.087339 -3.5430837 -0.2731552 -1.6768758
000010 ff 33 82 c0 1d 53 f5 be b4 c3 1e 40 30 b6 91 bf
       -4.068847 -0.47914973 2.4806948 -1.1383724
000020 bf 52 8a c0 ea 2b 91 3d 9f 59 06 bf 0f 46 9e 3f
       -4.322601 0.07088454 -0.524805 1.236513
000030 2b 5e ef bf 35 18 07 40 15 f1 15 c0 6b b7 4c c0
       -1.8700613 2.1108525 -2.3428395 -3.198695
000040 35 e7 0b c0 94 29 d0 3e 6f 0f b8 bf 05 5f 68 c0
       -2.1859868 0.40656722 -1.437971 -3.6307995
000050 ff 92 cd bf 02 8b 01 c0 83 bf 2b c0 cb 60 cd bf
       -1.6060485 -2.0241094 -2.683564 -1.6045164
000060 ab 2f ef bf 9d d6 8e 3e c7 53 c9 bf 57 61 45 c0
       -1.8686422 0.27898112 -1.5728692 -3.0840662
000070 3d 2c 12 40 d5 b3 21 c0 47 99 66 3f 7b a6 0f c0
       2.28395 -2.526601 0.9007763 -2.2445362

blocks.1.bn.running_var f4 [32]
000000 f0 9b 1f 41 96 28 e0 40 b8 7a 21 41 22 68 49 41
       9.975571 7.0049543 10.092461 12.587923
000010 4b cf fe 41 7d 1b 58 41 8b e6 01 41 d9 36 fd 40
       31.851217 13.506711 8.118785 7.9129453
000020 ac 37 97 41 3a b8 01 41 3b 4e 21 41 b9 5d d6 40
       18.902184 8.107477 10.081599 6.6989408
000030 51 c2 32 41 f6 aa 1a 41 ad da 9c 41 6e 68 2f 41
       11.172441 9.6667385 19.606775 10.962996
000040 db 6f f1 40 35 60 60 41 48 22 0c 41 c4 b0 25 41
       7.544904 14.023488 8.758369 10.355656
000050 3d 25 0e 41 21 8f 3a 41 0c 9d 1d 41 ab ff 5e 41
       8.884091 11.659944 9.8508415 13.937419
000060 bd 48 e1 40 81 b2 09 41 81 55 2d 41 67 ce 88 41
       7.040129 8.60608 10.833375 17.100782
000070 98 22 ca 41 50 8d 84 41 ba f1 73 41 bd ee fc 40
       25.266891 16.569 15.246515 7.904143

blocks.2.conv.weight f4 [32, 32, 3, 3]
000000 e6 a7 09 3e b2 9b 6a 3d d0 c3 06 be dc 7c 4f be
       0.13442954 0.05727739 -0.13160634 -0.20262474
000010 43 d0 1d 3c e3 5f cd be 31 be 71 be 87 6e 3c be
       0.009632173 -0.40112218 -0.23607709 -0.18401538
000020 69 cf bd bd 87 bb 17 be 9e 08 04 be 22 c8 90 be
       -0.09268076 -0.1481763 -0.12893912 -0.2827769
000030 d2 09 37 3d dd 53 a6 be 6f f6 9d be 75 fd 19 be
       0.0446871 -0.32485858 -0.30852076 -0.15038092
000040 53 94 5f be 69 97 b4 bd d9 d0 62 bd 8d a6 f2 3d
       -0.21833925 -0.08817942 -0.055374954 0.11848173
000050 c6 3d a9 3e d0 ab d3 3c af f8 7b 3d 27 91 e8 3c
       0.33054942 0.025838763 0.06151646 0.028389527
000060 d5 06 a5 3e 51 c1 33 be c2 4e c9 be e3 6a 06 3e
       0.32231775 -0.17554213 -0.393179 0.13126712
000070 d7 28 98 be 76 13 d7 3e 2c 6c 52 3e 21 2a 99 bd
       -0.29718658 0.42007035 0.20549077 -0.074787386
000080 29 93 1b be 0f 0d 29 be b4 58 00 3e 23 b0 d3 3d
       -0.15192856 -0.16508888 0.12533838 0.1033633
000090 fa af 41 3e ba c4 4e 3e 7a 71 00 3f f2 65 05 3e
       0.18914786 0.20192233 0.5017315 0.1302717
0000a0 66 f0 a7 3e 75 88 e2 3e aa a7 3c 3e d1 49 d5 3e
       0.32800597 0.44244733 0.18423334 0.4165788
0000b0 71 ce 8d 3e 68 31 54 be 3d 3a 4d 3e 2d f2 06 3f
       0.27696565 -0.20721972 0.20041747 0.5271328
0000c0 2a 0b e1 3d d7 5f b8 3e bb db 94 3d 23 1b ec bd
       0.109884575 0.3601062 0.07268473 -0.115286134
0000d0 f6 c1 54 be a1 32 e0 bc 80 51 c6 bc cf 55 a9 3e
       -0.20777115 -0.027367892 -0.024208784 0.3307328
0000e0 17 c3 b6 3d c1 74 4d 3d ff ac e6 3d 0d 10 22 3e
       0.08923929 0.050160173 0.11263465 0.15826435
0000f0 45 3b 0b be d2 0e da 3d a8 67 95 be b5 98 b2 3d
       -0.13596828 0.10647358 -0.29180646 0.08720533
000100 3b bc 16 bf 63 41 a5 3d 96 58 9c 3d 9a c7 ec bc
       -0.58880967 0.08069112 0.07634084 -0.028903771
000110 2a 94 91 be 01 e7 05 be 50 47 62 be d5 1a 77 3e
       -0.28433353 -0.13076402 -0.22097516 0.2413133
000120 89 59 23 3e 53 4c dc 3c ad 6a 9a 3d 86 fd a1 3d
       0.15952124 0.026891863 0.07539878 0.07909684
000130 ef c3 bd 3e 54 44 78 3b 5c 43 0c 3f 79 e7 b2 be
       0.37063548 0.0037882524 0.5479028 -0.34942225
000140 1f 66 7a bd 87 29 be be 3e 81 6e 3d f5 a0 e1 be
       -0.061132547 -0.37141058 0.058228724 -0.44068113
000150 f2 a3 3d 3d 49 84 80 bd e5 c1 ae be 1e da e3 be
       0.04629893 -0.062752314 -0.34132305 -0.44502348
000160 08 9b 65 be e0 9e 51 3e 99 05 2e bd 2d dc 90 be
       -0.22422421 0.20470762 -0.042485807 -0.2829298
000170 7e 4c 3a 3d c5 f3 6c be 04 e3 a2 be 3f 3d d5 3d
       0.045483105 -0.23139866 -0.31813824 0.104120724
000180 82 d8 17 3e 9d 13 43 3c 78 36 ac be 30 4f 86 bb
       0.14828685 0.011906532 -0.33635306 -0.0040987954
000190 55 01 c4 3c 19 3a b1 bc 10 90 75 3e 3b 19 cc 3e
       0.023926416 -0.021634148 0.23980737 0.39863
0001a0 9a 7f 2e bd 87 d4 87 3e 1c 9c 07 be df 90 f4 3e
       -0.04260216 0.26529333 -0.13243145 0.47766778
0001b0 cb 2c 4a bc b9 04 e5 be c3 4e 3a 3d 3c 70 2a 3e
       -0.012339781 -0.44730166 0.04548527 0.16644377
0001c0 65 bf 38 3e b6 e1 cf 3d f1 80 03 bd 05 d7 35 3e
       0.18041761 0.10150473 -0.03210539 0.17757805
0001d0 45 2b ad 3d a9 c6 d5 3d 7c 57 6c be 95 81 02 be
       0.08455519 0.10438282 -0.23080248 -0.12744744
0001e0 17 72 8a be 2e 0e 90 be ef e2 79 3e e1 fb b1 bd
       -0.2704017 -0.28135818 0.24402975 -0.0869062
0001f0 2d fc a7 be b6 23 4c 3a c9 a9 69 be ba e5 99 be
       -0.32809582 0.0007787304 -0.22818674 -0.3005808
000200 47 a6 03 bf 00 45 7a bd 8e 4d af be d9 6b c0 bc
       -0.51425594 -0.06110096 -0.34238857 -0.023488926
000210 ef 2f bd be e7 04 40 3e 5f 96 20 be 12 bc a5 be
       -0.36950633 0.1875187 -0.15682362 -0.3237005
000220 d9 08 00 be 58 47 60 be 84 77 ad 3c 05 13 95 be
       -0.12503375 -0.21902215 0.021175154 -0.29116073
000230 20 60 b8 3d b0 42 87 ba 98 b3 21 be 68 6b c5 3e
       0.090027094 -0.0010319557 -0.15791166 0.38558507
000240 93 a5 7e be 87 29 07 3e 3d 08 65 be 16 ae 77 bd
       -0.24867849 0.13199435 -0.22366424 -0.060468756
000250 f9 57 79 be 42 22 81 3d df 11 6f 3e 7b 8a 67 bd
       -0.24349965 0.06305362 0.23346661 -0.05652855
000260 91 bf ae 3d 94 24 e4 bd 50 4c 66 3e c4 78 2f 3e
       0.08532632 -0.11139789 0.22490048 0.17135912
000270 d2 25 55 bd 3b e5 93 bd 04 f1 c9 3e 53 1e 79 be
       -0.05203802 -0.072214566 0.39441693 -0.24327974
000280 ed b6 dd be e9 d5 47 3d 22 a4 90 bb 8a 31 ea 3e
       -0.43303624 0.048787985 -0.0044140974 0.4574092
000290 00 be 6d be c4 72 30 3d 9d fa fd 3e 16 4b 0a 3e
       -0.2321701 0.0430782 0.49605265 0.13505206
0002a0 7f 2a 85 bd 02 29 6a 3e 73 76 c6 bd b3 08 3f 3e
       -0.06502246 0.22867206 -0.09690561 0.18655662
0002b0 0f 54 9f bd a1 7a 30 3e 8d 6e a6 be 81 81 f3 bd
       -0.07779705 0.17234279 -0.3250622 -0.11889935
0002c0 30 33 7e 3d af ff 67 be 2e bd 99 3d 93 a0 70 be
       0.062060535 -0.2265613 0.07506786 -0.23498754
0002d0 04 78 d0 3d 3f 23 8a 3e 55 c2 06 3f 7d 98 de 3e
       0.10179141 0.26980016 0.5264028 0.43475714
0002e0 31 1e 33 3e fd be 68 3e 0f 1b 2f 3e c1 5e b6 bb
       0.17491986 0.22729106 0.17100166 -0.0055654948
0002f0 13 76 f7 3c 72 de 1b 3e 1d 74 99 bc 32 ff d4 3d
       0.03020767 0.15221575 -0.018732125 0.10400237
000300 d6 20 a5 3e 56 a2 1b 3e 88 f6 6b bd 8d 3f 67 3d
       0.32251614 0.15198645 -0.057608157 0.05645709
000310 4a 93 1f bc d9 16 d7 3e 91 a9 26 3e 7c 3f 9d be
       -0.009739706 0.4200962 0.16275622 -0.30712497
000320 22 03 b5 be d5 85 40 be 39 be 5b 3e 84 b7 1d bf
       -0.35353953 -0.18801053 0.21459283 -0.6160815
000330 4d d6 3b be 19 5c 0e be a7 87 d0 be 3b a6 65 be
       -0.18343468 -0.1390232 -0.40728495 -0.22426693
000340 c5 40 35 3e c8 9e c3 3d e6 1e 0b bf f4 e1 8d be
       0.17700489 0.095517695 -0.5434402 -0.2771145
000350 35 87 07 3d 74 3e 1e bf ef b3 83 be 41 41 d4 bd
       0.033087928 -0.61814046 -0.25723216 -0.10364009
000360 66 ff 80 3e 53 b3 a9 3c 22 03 8a be 0f 90 9f bd
       0.25194854 0.020715391 -0.26955515 -0.07791149
000370 de c0 c8 3e e5 e7 23 be 1c 31 42 be f2 d2 91 be
       0.39209646 -0.1600643 -0.18964046 -0.2848125
000380 6e 80 68 3c c9 ba e3 3c a8 ec 1d 3e 2c b8 bc be
       0.014190776 0.027799027 0.15422308 -0.36859262
000390 03 b5 77 3d 87 48 1c 3e 3b 5f ba bd 1c e2 ef 3e
       0.06047536 0.15262042 -0.09100195 0.46852195
0003a0 6d 9a 31 3e 03 3c 58 3d 5e 8a 5c bc c2 86 02 bd
       0.17344065 0.052791607 -0.013460724 -0.031866796
0003b0 c5 5f 7c 3d 64 3b 95 be 73 02 65 be 27 87 c8 bd
       0.06161477 -0.29146874 -0.22364216 -0.09791403
0003c0 bb b5 65 3e d0 b8 aa bd 14 a8 08 bd 7f e5 0a be
       0.22432606 -0.083360314 -0.033363417 -0.13564108
0003d0 5e 8e 4d 3d 89 27 92 3e 00 4d 72 be 3c e6 93 3d
       0.0501846 0.28545788 -0.23662186 0.07221648
0003e0 96 dc a6 be ab 95 a8 be ae 30 fc bc 3f b5 73 3e
       -0.3259017 -0.32926688 -0.030784931 0.23799609
0003f0 a0 fc a9 3e aa 39 a8 bd 26 2a fa bd 33 4c d8 be
       0.3320055 -0.082141235 -0.122150704 -0.42245635

blocks.2.conv.bias f4 [32]
000000 e9 68 8f 3b c4 f4 26 bb 83 98 42 b9 88 98 11 3a
       0.00437652 -0.0025475482 -0.00018558097 0.000555404
000010 3a 81 07 3b 73 bb cd bb 00 c6 84 bb aa f9 89 ba
       0.002067639 -0.006278449 -0.0040519238 -0.0010526676
000020 9c 30 d1 b8 f6 22 1a 3c 12 dd 0f ba 24 41 47 3b
       -9.974951e-05 0.009407749 -0.0005487959 0.0030403817
000030 65 4a 21 3b cf c1 30 b9 b3 39 0f ba 87 5a df b9
       0.0024610993 -0.00016856867 -0.0005463615 -0.00042601323
000040 4d 1a 14 b9 f5 76 89 3b 52 b5 87 3b 48 ac 4d ba
       -0.00014124178 0.004195089 0.004141488 -0.00078458013
000050 a8 3e 5d ba 31 aa fa 38 78 4f 18 ba fa f1 00 3c
       -0.00084398175 0.000119526296 -0.00058101816 0.007870192
000060 5c 09 71 3a 4d 6d 98 bb 42 c9 2a ba d4 84 0e ba
       0.0009194815 -0.0046517015 -0.0006514975 -0.0005436663
000070 c3 ca 8a 3b e0 59 1e bc f3 9e 24 37 f8 ea 09 3b
       0.004235597 -0.009664983 9.81217e-06 0.0021044593

blocks.2.bn.weight f4 [32]
000000 ec b6 47 3f 83 ac 51 3f 30 19 1b 3f 30 37 2c 3f
       0.7801349 0.81903857 0.6058531 0.6727171
000010 01 e8 28 3f 68 cf 2d 3f 67 fb 81 3f 2b eb 8e 3f
       0.6597901 0.678946 1.0154847 1.1165518
000020 4c b3 2b 3f 1c f1 7d 3f ce 54 4e 3f 38 9e 56 3f
       0.6707046 0.9919603 0.8059815 0.8383517
000030 6c 24 45 3f e9 cb 55 3f 90 05 55 3f f3 1f 9f 3f
       0.770087 0.8351427 0.8321161 1.2431625
000040 2a ee 9a 3f 0e 05 82 3f 8a 14 42 3f 56 24 78 3f
       1.2103932 1.0157793 0.7581259 0.96930444
000050 6d 51 84 3f e3 d6 7d 3f 48 ed 5f 3f f6 a3 7f 3f
       1.0337349 0.99156016 0.8747144 0.9985956
000060 83 57 a8 3f 7f 35 81 3f 46 28 8e 3f 57 a3 2f 3f
       1.3151706 1.0094451 1.110604 0.6860861
000070 66 df f0 3e 09 85 78 3f 04 27 aa 3e af 1c 5f 3f
       0.4704544 0.97077996 0.33232892 0.8715314

blocks.2.bn.bias f4 [32]
000000 30 34 10 be 28 04 04 bf 5a e7 10 be bf 90 92 be
       -0.14082408 -0.5156884 -0.14150754 -0.28626058
000010 b8 25 1b bf c5 4b ac be 7a ae 8c be 4f 33 25 bf
       -0.6060443 -0.33651558 -0.27476865 -0.64531416
000020 03 6b 1b bf 81 3d f7 be 39 35 06 bf 95 15 c9 be
       -0.6071016 -0.4828911 -0.5242496 -0.39274278
000030 4e d5 38 bf 3e ee cd be 75 a8 be be ef f3 13 bf
       -0.7220048 -0.40220827 -0.37237898 -0.5779409
000040 23 98 fb be d4 af 0c bf fc f0 c2 be 8a 41 aa be
       -0.4913951 -0.5495579 -0.3807448 -0.33253127
000050 36 1a 1c bf 2a 9f 4a bf 62 51 c7 be 96 f3 0c bf
       -0.60977495 -0.79149115 -0.38929278 -0.5505918
000060 32 68 3c bf cb 4c fe be 09 be 18 bf 90 eb 87 be
       -0.7359649 -0.49667963 -0.5966497 -0.26546907
000070 46 2d d2 bc 96 ac c5 be b8 ee 87 3e b0 58 16 bf
       -0.025656354 -0.38608235 0.26549315 -0.58729076

blocks.2.bn.running_mean f4 [32]
000000 de e3 48 bf 2d d0 22 c0 bc 2c 24 c0 35 0f be bf
       -0.784727 -2.543956 -2.5652304 -1.4848391
000010 9a a9 af c0 29 95 02 40 6b 96 69 bf 95 92 4c bf
       -5.4894533 2.040354 -0.91245145 -0.79911166
000020 ba 75 a6 bf ea cd 4f bf cc 13 ff bb eb fb 3f bf
       -1.3004677 -0.81173575 -0.0077843424 -0.7499377
000030 a1 73 10 3f 24 db 5b c0 65 61 36 c0 3e fc 2b c0
       0.56426436 -3.4352503 -2.8496945 -2.6872706
000040 f2 4d a1 be 0a 4b b5 bf 9d 11 78 c0 55 ec 8b bf
       -0.3150478 -1.4163525 -3.876075 -1.0931498
000050 36 05 7f bf 7c 05 5a bf da 53 dd bf a3 a4 57 c0
       -0.99617326 -0.8516462 -1.7291214 -3.3694236
000060 00 84 e9 bf a9 e5 74 c0 08 b4 3f c0 59 24 2d 3c
       -1.8243408 -3.8265173 -2.9953632 0.010567748
000070 04 75 0c c0 74 fa 62 c0 c2 2b cf 3e db 55 90 bf
       -2.194642 -3.5465364 0.40463072 -1.1276201

blocks.2.bn.running_var f4 [32]
000000 3c 5d a0 41 5c ec 6b 41 1a 26 93 41 7e c0 49 41
       20.045525 14.745205 18.393604 12.609495
000010 67 e0 90 41 54 00 56 41 55 7f 90 41 e6 b4 44 41
       18.109571 13.37508 18.062174 12.294165
000020 1a 53 2a 41 2a f7 4a 41 e6 60 1a 41 8a 87 81 41
       10.645288 12.685343 9.648657 16.191181
000030 a0 6b e3 40 1f c7 eb 41 c7 6f c6 41 e5 71 2b 41
       7.106888 29.472227 24.804579 10.715306
000040 24 8b f0 40 7d d9 8f 41 61 3d 3f 41 41 e0 2f 41
       7.516985 17.981195 11.952485 10.9922495
000050 61 9a 47 41 3e 69 42 41 3f e5 50 41 62 4b a8 41
       12.47519 12.150694 13.055968 21.036808
000060 d7 6f 1a 41 49 69 28 41 53 71 13 41 85 87 ba 41
       9.652305 10.525704 9.215167 23.316172
000070 bf c6 99 41 fa 19 91 41 44 82 b2 41 2d d4 54 41
       19.222044 18.137684 22.313606 13.301801
