models/295.pth (torch, 501905 bytes, 80 tensors)

conv0.conv.weight f4 [32, 17, 3, 3]
000000 65 f1 d4 bd 2c 23 15 3f c3 eb 77 3e 3e d9 f7 3e
       -0.10397605 0.58256793 0.2421103 0.4840793
000010 58 74 0a bf ca b2 41 3f d2 c6 4f 3e 04 1c 0e 3f
       -0.54083776 0.75663435 0.20290688 0.555115
000020 39 d5 c0 3e 3d 49 93 bd d2 c6 3b 3a c8 a0 7d bd
       0.37662676 -0.071917035 0.00071631104 -0.06192091
000030 93 8f 94 bc 48 87 88 be 81 25 14 bc 69 a2 c5 3d
       -0.018134868 -0.2666571 -0.009042145 0.09650118
000040 ee bf 1f 3e c1 09 5e bd 61 26 af bd cc 9e a7 bd
       0.15600559 -0.05420852 -0.08552242 -0.08184585
000050 ac 40 37 3e 70 34 05 3d ad f8 46 be dd b1 f7 bd
       0.17895764 0.03252071 -0.194308 -0.120944716
000060 24 08 c6 bd 1d 6a fc 3d 3a 6d 19 3c 44 67 fa bd
       -0.096695215 0.12324927 0.009364421 -0.122267276
000070 fa b4 14 3e 03 8b 3a 3e ca df ca 3c e7 64 58 be
       0.14522162 0.18217091 0.024764914 -0.21132241
000080 b1 2e 92 bd 9b 57 19 3e c0 e9 2d 3c 96 13 9a be
       -0.07137812 0.14974825 0.010614812 -0.30093068
000090 82 6b d0 3e be 0f ce 3e fb 22 e8 3e be e5 d9 3e
       0.40707022 0.40246385 0.45339188 0.42558092
0000a0 0d 09 21 bf 9b 58 e2 3e 2c 40 ca 3e 0a 40 bb 3e
       -0.62904435 0.44208226 0.39502084 0.36572295
0000b0 98 e7 82 3e 60 34 23 3e 2b 36 c5 3e cb ce 58 3e
       0.25567317 0.15937948 0.3851789 0.21172635
0000c0 fb c7 67 3e 61 34 3a be 0e ce aa 3e b8 0a 4a 3e
       0.2263488 -0.18184043 0.33360332 0.19730651
0000d0 b5 98 c2 3e 20 7e 5e 3e 2e cf e6 3e ff 84 9f 3e
       0.3800713 0.217278 0.4507994 0.31156155
0000e0 49 3d 2c 3d f4 5c 8f 3e f2 86 f8 bd f6 02 c1 3e
       0.042050634 0.28000605 -0.12135114 0.37697572
0000f0 f3 22 dc 3e 09 04 a5 3e d9 55 c5 3e 66 88 b5 3e
       0.42995414 0.3222964 0.3854206 0.35455626
000100 48 f5 a9 3e 50 b7 62 3e 25 6a 93 3e b2 c0 2e be
       0.33194947 0.2214024 0.2879192 -0.17065695
000110 a8 44 af 3e d3 1b 81 3e b4 43 ad 3e f9 cc e6 3e
       0.34232068 0.2521654 0.33840716 0.45078257
000120 0c cf 64 bc 09 2f 2d 3e a4 88 04 be 05 19 31 3e
       -0.013965379 0.16912474 -0.1294275 0.172947
000130 d2 f9 ef 3e 84 7e 3c 3d 81 1b 37 bc a8 32 0c 3e
       0.46870285 0.046019092 -0.011175991 0.13691199
000140 2d ce 7e 3a be 6d 4f bb 1e eb 85 3d bc ba 8c bc
       0.00097200536 -0.0031651105 0.06538986 -0.017178886
000150 82 84 96 3d 72 c8 1b 3f db fc 0e 3d 71 f7 7b 3d
       0.073494926 0.6085273 0.03490911 0.061515275
000160 d5 4b 0c 3c d9 c3 b2 3d b2 dd 9e bd 48 8d d8 3d
       0.008563002 0.08728761 -0.07757129 0.10573822
000170 71 a8 62 bd 0d 66 ca 3d 3b 3f 18 3f 79 b7 0e bc
       -0.05533642 0.09882746 0.5947148 -0.0087107355
000180 e5 46 ca 38 b2 52 d8 3d dc 43 20 bd 99 63 5e 3d
       9.645316e-05 0.10562648 -0.039127216 0.054294202
000190 5e 24 00 3e 1d 65 39 3d 1f 23 c5 3d 7f 5c f7 3e
       0.12513873 0.045262445 0.096258394 0.48312756
0001a0 bf fa 02 3e 68 bb 05 bd f6 28 e5 3d 05 da 6d bd
       0.12790965 -0.032649428 0.11189453 -0.058069248
0001b0 ec 59 42 bd d9 8d 24 be ea 5b 1e 3d e3 ea 85 be
       -0.047449037 -0.16069736 0.038661875 -0.26155767
0001c0 37 5b e3 be 13 0d 07 be f1 e6 f4 3c 60 0c dd be
       -0.4440553 -0.13188581 0.029895278 -0.43173504
0001d0 fc 5a b0 3d 2e 8b 69 bd e5 7e d1 3d 1c 07 c8 bd
       0.08611104 -0.057017498 0.10229281 -0.09766981
0001e0 20 fc 03 3c d6 cc a0 3c bf 57 2a be 3a b9 b1 3d
       0.008055717 0.019628923 -0.16635035 0.08677907
0001f0 c8 9e 25 3e 2d e5 0a 3e d3 6c 7c 3e c7 b9 b4 3d
       0.16173851 0.13563986 0.24650888 0.08824497
000200 c8 89 ba 3d 89 24 52 bd 79 38 82 3e 8e c1 02 be
       0.09108311 -0.051304374 0.2543371 -0.12769148
000210 50 69 47 3d 17 16 2e be 90 60 a3 bd 16 d3 5d bd
       0.04868442 -0.17000614 -0.07977402 -0.054156385
000220 5e 58 fb bc f4 4d 40 bc 79 31 41 be 00 55 0a 3e
       -0.030681785 -0.0117373355 -0.18866529 0.13508987
000230 f8 d4 f2 3c cf 43 78 3e 78 0d 48 be 62 31 15 be
       0.029642567 0.24244617 -0.19536388 -0.1456962
000240 4f 89 b6 bd b1 14 5b 3e 55 b0 2d 3e d8 ed a0 3e
       -0.08912908 0.21394612 0.16961797 0.3143146
000250 04 57 05 3d 6c 95 bc 3d 05 d8 de 3d e5 21 0a 3e
       0.032553688 0.092081875 0.10881046 0.13489492
000260 85 70 98 bc 18 a3 c3 be 1b 01 03 3d c8 b8 58 3d
       -0.018608341 -0.38210368 0.031983476 0.052910596
000270 bd 3e 3f be fc e3 fb be f4 6a fa 3e ba 32 d8 3d
       -0.18676277 -0.49197376 0.48909724 0.1055655
000280 fe 85 80 bd 93 69 92 3d 7b ec 03 3c ee 11 82 3e
       -0.06275557 0.07149043 0.008051987 0.25404304
000290 7b 2f ed be 1b 51 22 bd 4a 11 91 3e 27 b5 72 bf
       -0.46325287 -0.03962813 0.28333503 -0.94807667
0002a0 da 36 0f 3e fc 93 7f be 0a e3 7f be db 85 01 3e
       0.13985768 -0.24958795 -0.24988952 0.12648718
0002b0 d7 42 d9 3e b2 58 3a be 71 2e 0d bd 1f 26 f9 3d
       0.42433807 -0.18197897 -0.034468118 0.12165474
0002c0 c2 ba 4b bf f9 cb 3e 3e cb 99 5d be 7f 5b f8 bc
       -0.79581845 0.18632497 -0.21640699 -0.030317066
0002d0 de 0a b7 be 70 d2 8b 3e 3c 23 a4 3c 98 4b e8 3d
       -0.35750479 0.2730899 0.020036332 0.11342543
0002e0 17 85 f2 3e 3f 28 91 bf 93 06 a5 bd ab 4d ff be
       0.47367164 -1.1340407 -0.080578946 -0.49863943
0002f0 40 4f 82 be 2e eb 52 be db ca fb be a9 8d c2 3d
       -0.25451088 -0.20597526 -0.49178204 0.09499676
000300 df b4 5f be 1e 8e 08 bf ac 44 d9 be bd 9d 7a 3c
       -0.2184634 -0.53341854 -0.42435205 0.015296397
000310 1b ef 55 3d e5 89 21 be a3 e4 b1 be 85 ef 02 bf
       0.052229982 -0.15775259 -0.34744748 -0.5114673
000320 80 ac c8 be c2 36 42 bd ec 50 4d be 7c 66 1d be
       -0.39194107 -0.047415502 -0.200504 -0.15371126
000330 5c 95 26 bf 07 7c 13 bf 26 1c 2c bf 1a 3b eb be
       -0.65071654 -0.57611126 -0.6723045 -0.45943528
000340 bb e2 d0 be cb e2 14 bf 5f dd 2d bf 4e f8 36 be
       -0.40797982 -0.5815856 -0.6791591 -0.17868158
000350 53 d9 27 bf b9 61 52 3e b0 ce ce be 35 c3 07 bf
       -0.65565985 0.2054509 -0.40392065 -0.5303224
000360 18 0f c5 be 34 83 8f be 96 74 19 bf 67 e9 16 be
       -0.38488078 -0.28029788 -0.5994352 -0.14737473
000370 07 e5 97 be 61 1d 2e be ad 8f 02 bf 4f ce 35 be
       -0.29666921 -0.17003395 -0.5100048 -0.17754482
000380 ea 3b b0 be 1f d0 b0 be 27 49 9d 3d 42 2a 3a 3e
       -0.3442071 -0.34533784 0.07679968 0.18180183
000390 f8 c1 91 3d 24 d6 c7 be 9b c6 b9 3e 88 fa fb bd
       0.07117075 -0.39030564 0.36284336 -0.123036444
0003a0 79 88 8a bd 50 83 2f bc ee 1d 31 bd 47 77 a0 3e
       -0.06764311 -0.01071246 -0.043241434 0.31341
0003b0 35 43 3e 3e 09 f8 64 bc 0e 5b 8c bc a2 b1 95 3e
       0.18580325 -0.013975152 -0.017133262 0.29237086
0003c0 76 6d 0b 3e fa b1 71 3d ee d2 13 3e a0 0b d5 3d
       0.13615975 0.059007622 0.14435932 0.10402608
0003d0 e4 72 77 3e 05 7b 6b 3e 06 8f 43 3e 07 55 49 3e
       0.24164921 0.22996147 0.19097528 0.19661342
0003e0 e7 1f ba 3d d1 7a a9 3c 04 6c 5e 3d a2 bd 89 3e
       0.09088116 0.020688446 0.05430223 0.2690249
0003f0 85 51 ba 3a 86 0b 57 3e d6 d7 84 3e 0b 3c 9d bc
       0.0014214969 0.2100049 0.2594592 -0.01919367

conv0.conv.bias f4 [32]
000000 7a 3c 0a bc 24 0c 28 3c 2c ab 29 b9 fd af 1c 3a
       -0.00843727 0.010256801 -0.00016180862 0.0005977152
000010 9d 02 1b 3b 62 d3 93 3c 16 39 4d bc 2d 44 45 bb
       0.002365268 0.018045131 -0.012525817 -0.003010045
000020 21 71 08 bc f1 ca f2 ba 39 07 d1 3a bc 8f 95 bc
       -0.008327753 -0.0018523616 0.0015947587 -0.018257014
000030 e4 68 c9 ba 30 5e 3b bb ed 4a bc 39 1b 18 81 bb
       -0.0015366343 -0.0028590076 0.00035913978 -0.003939641
000040 59 0c b5 ba 06 0e 18 bd 71 75 02 3c a5 79 5e bb
       -0.0013812884 -0.03712275 0.0079625705 -0.0033947018
000050 59 0d 94 bb 60 45 e7 3b d0 6c 35 bd a2 9e a2 39
       -0.0045181927 0.0070578307 -0.044293225 0.00031017239
000060 25 b5 75 3c 25 e3 8b ba b5 c7 c0 3b 50 21 77 3c
       0.0149968015 -0.0010672553 0.005883182 0.015083626
000070 ca 76 c6 ba 53 fb d9 bc 4a 53 4d 3b 82 97 1b 38
       -0.0015141603 -0.026609099 0.0031330162 3.7095982e-05

conv0.bn.weight f4 [32]
000000 0d 79 62 3f 1a 06 1c 3f 84 8d 13 3f 33 e5 2f 3f
       0.8846596 0.6094681 0.5763781 0.68709105
000010 62 50 28 3f ea cf fc 3e 67 6c 28 3f 68 35 4a 3f
       0.65747654 0.49377376 0.6579041 0.7898774
000020 27 2d 71 3f ff 0e 48 3f ba bb 0b 3f b2 b7 d9 3e
       0.9420952 0.7814788 0.54583323 0.4252296
000030 26 9a 10 3f 29 64 77 3f 7e b7 22 3f 7b 3f 5f 3f
       0.5648521 0.9663721 0.63561237 0.8720624
000040 8a c6 2b 3f 69 ee ab 3f 35 da 4d 3f 93 7b 2f 3f
       0.6709982 1.3432132 0.8041108 0.68547934
000050 3a 8f 27 3f 8c 40 80 3f 37 32 46 3f 2a 2a 13 3f
       0.6545292 1.0019698 0.7742037 0.5748621
000060 5c ab 49 3f 4d cf 38 3f 39 99 45 3f 10 a6 38 3f
       0.787771 0.72191316 0.77186924 0.7212839
000070 e8 09 8a 3f 0d e7 09 3f 6a a0 00 3f 97 c6 05 3f
       1.0784273 0.5386818 0.5024477 0.5225615

conv0.bn.bias f4 [32]
000000 d4 1f 1f bf 8e 12 d2 3c f2 eb 29 be fd 71 da be
       -0.6215794 0.025643613 -0.16593912 -0.4266509
000010 48 b3 5d be 77 88 20 bd a5 7b a4 3c 8c f7 f4 be
       -0.21650422 -0.039192643 0.02007849 -0.47845113
000020 ac 62 09 be 52 59 da be 0f 0a d4 be 0d 75 b0 3e
       -0.13416547 -0.4264627 -0.41413924 0.34464303
000030 8f 56 92 be 3d eb d0 be 30 a1 ac be aa 33 81 bd
       -0.28581664 -0.40804473 -0.33716726 -0.06308682
000040 ec 7e 83 ba 28 89 8f be f4 1a aa be 19 69 7e be
       -0.0010032333 -0.2803433 -0.3322369 -0.24844779
000050 15 6b 97 be 79 7e c9 3d 54 40 aa be 98 4c 93 be
       -0.29573885 0.09838576 -0.33252203 -0.28769374
000060 e6 1d 1a be 08 92 f4 be be 11 b7 be b3 93 fd bc
       -0.15050468 -0.47767663 -0.35755724 -0.030954218
000070 76 11 d2 bd a3 3a 2d 3f 76 ee 5d be 63 5a f7 3d
       -0.10257237 0.676676 -0.21672997 0.12077787

conv0.bn.running_mean f4 [32]
000000 8e e0 d2 3e 70 d0 04 3e 8e d4 1a be d2 55 38 be
       0.41186947 0.12970138 -0.15120146 -0.18001488
000010 34 39 29 be 5b a8 a4 bc e8 49 e0 be 80 70 d5 3e
       -0.16525728 -0.02009981 -0.43806386 0.41687393
000020 f3 f5 ab be fa da 29 be 3c ce ad bd 98 ba a6 3b
       -0.33586082 -0.16587439 -0.08486602 0.0050881617
000030 36 5a 54 be 53 54 a0 bd 52 46 07 3e 35 4a d0 3e
       -0.20737538 -0.078285836 0.13210419 0.40681615
000040 8a 4a 8a 3e e6 de 89 be 5c 30 85 be 91 0c a4 bd
       0.27009994 -0.2692787 -0.26013458 -0.08010209
000050 91 cb 12 3d 19 83 42 bd 67 91 a9 be cf f4 94 3e
       0.035838667 -0.047488306 -0.33118746 0.29093024
000060 af ad 17 be ad 77 0b be 73 f2 a0 bd 42 ba a0 bd
       -0.14812349 -0.13619871 -0.078587435 -0.07848026
000070 58 bd b0 3e ea b4 4b 3e fa 97 b9 bd 78 dd bb 3e
       0.34519458 0.19893232 -0.0906219 0.36692405

conv0.bn.running_var f4 [32]
000000 d2 24 3a 3e 31 ce 77 3e e3 4f b5 3e 1f 5a a0 3e
       0.18178108 0.2419975 0.3541251 0.31318757
000010 a5 34 94 3e af 64 85 3e 6d ee df 3e 6d 6f 40 3e
       0.28946415 0.26053378 0.43736592 0.18792506
000020 88 ba c6 3e 19 f9 82 3e de dd 5f 3e 2d 33 81 3e
       0.38814187 0.2558067 0.2186198 0.25234357
000030 b1 24 86 3e ad 72 35 3e 70 51 7c 3e 10 2f 66 3e
       0.26199868 0.17719527 0.24640441 0.2247889
000040 f5 d1 37 3e df 4b 83 3e f6 0c 98 3e 93 44 6e 3e
       0.17951186 0.25643823 0.29697388 0.23268346
000050 0a 84 a3 3e 37 35 7d 3e 9f 17 70 3e 14 69 64 3e
       0.31936675 0.24727331 0.2344651 0.22305709
000060 1c f1 58 3e 28 86 95 3e e5 fd 80 3e 0d 8d 41 3e
       0.21185726 0.29203916 0.25193706 0.18901463
000070 10 9a 7c 3e 4c be 49 3e 32 74 7c 3e cc b7 88 3e
       0.24668145 0.19701499 0.246537 0.26702726

blocks.0.conv.weight f4 [32, 32, 3, 3]
000000 ac c6 a2 3e 27 98 db bd 2a 2d b6 3e 98 b2 c7 be
       0.317922 -0.1072238 0.35581332 -0.39003444
000010 1f 15 1e 3e 2c 8b 46 be 2a 8c 85 3e db fe e2 bd
       0.15437745 -0.19389027 0.260835 -0.11083766
000020 01 db a0 3e 48 e5 7d 3d 53 c1 8e 3d 42 6b af be
       0.31417087 0.061986238 0.069704674 -0.3426152
000030 7e 3f 53 be 57 56 07 be 10 c1 08 3e b5 38 95 3c
       -0.20629689 -0.1321653 0.13354897 0.018215517
000040 72 d7 40 be f8 ed 8e be 7f 3e 39 3e f5 4e dc be
       -0.18832186 -0.2791593 0.18090247 -0.4302899
000050 03 f7 1d 3d 9a 75 1b 3e 0a 80 48 be 2d 58 11 3e
       0.038565647 0.1518158 -0.19580093 0.14193793
000060 ff 16 34 3e 82 0b a5 bd 53 90 ca bd e7 e9 9f 3d
       0.17586897 -0.080588356 -0.09890809 0.07808285
000070 aa fa 04 3e 37 f9 c0 3d f2 57 5a 3d e5 5a aa 3e
       0.12986246 0.09422534 0.053306527 0.33272472
000080 8d fc f6 3d 02 89 1d be d5 24 b9 be 13 48 9f 3d
       0.12059889 -0.15384296 -0.36160913 0.07777419
000090 60 f8 d3 bc 80 e7 10 3e 76 51 26 be 05 d0 89 bd
       -0.02587527 0.1415081 -0.16242012 -0.0672913
0000a0 ad 5f 8e 3e 37 5d 1a be 47 d3 b8 bd ad 48 98 3e
       0.2780737 -0.15074621 -0.09024673 0.29742947
0000b0 15 46 c9 3c 73 fa a4 bc 90 43 f8 bd 54 db e8 3d
       0.02456955 -0.020138955 -0.121222615 0.113699585
0000c0 d3 0d 17 3c db a6 c3 bd 0b c4 6a 3e 20 a6 7e 3e
       0.009219605 -0.095533095 0.22926347 0.24868059
0000d0 67 3a a0 3e de ad 35 3e fd 07 8d 3e c4 f0 c6 3d
       0.31294557 0.17742106 0.27545157 0.09713891
0000e0 1e 04 51 bd a0 19 42 bc de e8 4a 3e f6 23 20 be
       -0.051029317 -0.01184693 0.19815394 -0.15638718
0000f0 82 6b 09 3e 6a f7 07 3d 94 28 bb be b1 ff 87 3e
       0.13419917 0.033194937 -0.36554396 0.26562265
000100 39 2e 18 3f db dd e7 3e 57 93 d6 bd b9 60 ed 3e
       0.5944553 0.4528645 -0.104773216 0.46362856
000110 2d c8 0b 3e 26 4d 83 3e 44 92 c3 3d cf 93 bc 3e
       0.1365058 0.25644797 0.09549382 0.3683152
000120 17 94 4f 3e b2 32 ea be 5a a1 37 3e 9c da bf bc
       0.20271336 -0.45741802 0.17932644 -0.02341967
000130 5a 2b e1 3e 27 0f 85 3e 9d 9e 9a 3d 1d 53 d8 3e
       0.43978387 0.25988123 0.07549784 0.4225091
000140 11 f4 7a be af 7d dd bd cc 84 0f be 48 2b 40 be
       -0.24507166 -0.10814988 -0.14015502 -0.1876651
000150 0d cf a5 bd 88 ab c2 3e 35 12 35 be 09 b3 a0 3e
       -0.080961324 0.38021493 -0.17682727 0.31386593
000160 e0 7b b2 bd 62 40 fe bd f4 d9 ce 3d 9b d5 56 3e
       -0.087150335 -0.12414624 0.10100165 0.20979922
000170 b3 7a 54 be bf e2 35 be 0b 5d 7e 3e ab 69 6a bb
       -0.20749931 -0.17762278 0.2484018 -0.003576855
000180 80 45 f9 3d 31 ab 34 3e 75 46 b3 3d 91 06 58 3e
       0.12171459 0.1764343 0.08753673 0.21096255
000190 1c f2 91 bd 14 8d b3 3e 8a bf 07 bf 0d e2 26 bb
       -0.07126257 0.35068572 -0.5302664 -0.0025464327
0001a0 7b a6 50 3d fb 0e 8e 3d 9c fb 8b bd 90 d9 b2 3d
       0.05094002 0.06936451 -0.068351 0.08732903
0001b0 22 51 be be 24 13 3d be 83 2d 6b 3e c2 f6 11 3e
       -0.37171274 -0.18464333 0.2296658 0.14254287
0001c0 f3 da 01 3e 53 b4 e0 3d 96 57 25 be 17 cd 05 3f
       0.12681179 0.10971894 -0.16146693 0.5226607
0001d0 f2 47 73 3d 34 2e 13 be 3e 98 8c be 0e 5f 79 be
       0.059394784 -0.14373094 -0.27459902 -0.24352667
0001e0 00 9b da 3c bc 59 fb be 00 b9 6b be eb 59 0e 3c
       0.026685238 -0.490919 -0.2301979 0.00868843
0001f0 77 79 6f be 45 bd 62 3c e9 c9 a3 be be 52 1b 3e
       -0.23386179 0.013839071 -0.31989983 0.15168282
000200 41 3b f6 be 96 d7 75 3e fc b0 3c be d8 79 66 bd
       -0.48092082 0.24008021 -0.18426889 -0.056268543
000210 19 f4 ca bd f1 1a 7a be a1 19 06 3e bb b2 7c 3e
       -0.09909839 -0.2442434 0.13095714 0.24677555
000220 96 42 41 3e 51 b8 84 3e 4f 2d 92 3e d4 ec 52 3c
       0.18873057 0.25921872 0.28550193 0.012873847
000230 67 ff 73 bc 6b 66 03 bd c9 d2 7d 3d 04 c8 82 3e
       -0.014892436 -0.032080095 0.0619686 0.25543225
000240 47 6e 03 be e7 66 1f 3e 27 2f 82 3e 3b 8e 09 3e
       -0.12835036 0.15566598 0.254266 0.13433163
000250 63 54 0f be 64 26 8c 3d 26 8a c3 bd 4a d3 d1 3d
       -0.13997035 0.0684326 -0.09547834 0.10245378
000260 f8 24 e3 3d f9 a9 97 bd fd 77 a2 3e 22 27 f9 3d
       0.110910356 -0.074054666 0.3173217 0.12165667
000270 71 43 82 3e 89 8d f1 bf 75 cf b6 3e ad f8 a4 3e
       0.2544208 -1.8871318 0.35705152 0.32220975
000280 d2 c3 03 3e 39 e6 87 3d e3 02 a5 3d 27 58 9b be
       0.12867668 0.06635708 0.08057191 -0.30340692
000290 c8 df 03 3f 69 59 c5 3e 86 45 a9 be 26 09 d9 bc
       0.5151334 0.38544777 -0.33060855 -0.02649362
0002a0 51 6d 06 bf ea e7 44 3e c1 13 cf 3d d5 24 38 3e
       -0.52510554 0.19229093 0.1011119 0.179828
0002b0 24 22 28 be 2d 59 ae be 96 c8 67 bc 06 32 08 be
       -0.16419274 -0.3405241 -0.0141469445 -0.13300332
0002c0 38 4a dd 3d cb 12 cc 3c 8b 68 ac be 6b 09 11 be
       0.10805172 0.024911305 -0.3367351 -0.14163749
0002d0 65 0b 18 bd c7 4f 8e bd 6d bf 37 3e 50 08 5a 3d
       -0.03712024 -0.0694881 0.17944117 0.053230584
0002e0 d7 ea c3 be 0c 98 28 bd 66 66 95 3c 3f 60 c9 bc
       -0.38265106 -0.04116063 0.018237304 -0.024582027
0002f0 66 ba d8 bd 93 fc ea 3d c3 67 79 3e eb 2d 78 bc
       -0.10582428 0.11473956 0.24355988 -0.015147666
000300 af 27 4c 3e e2 a2 9d be 21 89 ae 3e c0 e9 84 3e
       0.19937013 -0.30788332 0.34088996 0.25959587
000310 59 74 fb 3e b4 2a 3d 3e 09 ed a1 bd 27 d2 3f 3e
       0.49112204 0.18473321 -0.07906539 0.1873251
000320 18 a4 36 3d 33 c6 d2 be ea 47 f7 3e 84 79 eb 3d
       0.044590086 -0.4116684 0.48297054 0.11497787
000330 58 0b c7 3d cc b6 17 bf e1 0f 87 3d b6 bd f4 3d
       0.097189605 -0.592633 0.065948255 0.11950247
000340 65 59 b1 3d bc d0 50 3e 98 28 22 be eb 8d d4 bd
       0.08659629 0.20392126 -0.15835798 -0.10378631
000350 07 00 46 3d 4e 2c 39 be 8e 89 62 3d 38 f6 78 3d
       0.04833987 -0.18083307 0.055306964 0.060781687
000360 3b 43 8b 3d 45 a7 01 3d 04 f2 72 3e 79 39 73 3e
       0.067999326 0.03165366 0.23725134 0.23752393
000370 a9 f1 74 3d ff ed d4 3d b4 dc 04 3d 41 97 74 3c
       0.059800778 0.10396957 0.03243704 0.01492864
000380 58 7d 9b 3d bd 54 3b bd 62 70 8b be 1f f3 44 3d
       0.07592267 -0.04573511 -0.2723418 0.04808342
000390 ad 54 09 bd c4 53 bb 3d 58 da ab be cf 66 17 bf
       -0.03352802 0.091468364 -0.3356502 -0.5914125
0003a0 d5 47 a8 be 10 78 7c 3e 05 26 bb 3d f9 7f 79 3d
       -0.32867303 0.24655175 0.09138111 0.06091306
0003b0 49 02 4e 3e a6 32 9b bd 9c 30 8b be c2 0d cf 3d
       0.20118059 -0.0757802 -0.27185524 0.10110046
0003c0 64 40 35 3d 29 a6 ff 3e 93 66 40 be 8e 94 43 3e
       0.04425086 0.49931458 -0.18789129 0.19099638
0003d0 64 a6 38 be fa 7b d5 bd b4 4b c4 3d 68 49 a8 be
       -0.18032223 -0.10424037 0.09584752 -0.32868505
0003e0 cb 79 67 bd 95 64 ea 3d 1b 5c e2 3c a3 fb 85 3d
       -0.056512635 0.11444966 0.02763181 0.065421365
0003f0 5b c2 bb 3d c0 a5 6b be d5 ac bf 3d 49 32 43 be
       0.0916793 -0.23012447 0.09359137 -0.19062151

blocks.0.conv.bias f4 [32]
000000 60 45 77 ba 1c c4 b0 b9 65 0b 04 bb bb 8a 49 3a
       -0.000943264 -0.0003371545 -0.0020148393 0.0007688214
000010 32 57 86 3c e2 c8 09 ba fb f8 5e b9 a9 c4 1c 3c
       0.016399 -0.0005256069 -0.00021264322 0.009568372
000020 06 5a 6a b9 db 42 dd 3b 45 39 40 b9 1b 00 6c bc
       -0.00022349515 0.0067523546 -0.00018331881 -0.014404322
000030 ce aa aa 39 7b 02 37 ba 08 2f c3 3a 0d 86 89 ba
       0.00032552186 -0.00069812656 0.0014891336 -0.0010492221
000040 ba da d2 bc 00 7e 1f 3d 30 26 52 ba 89 68 9d ba
       -0.025739063 0.038938522 -0.00080165546 -0.0012009303
000050 84 85 f2 ba 67 e8 0d ba f4 bb 83 3a 95 28 83 b9
       -0.0018502926 -0.0005413354 0.0010050521 -0.00025016503
000060 2f b8 80 3b fb 7d 24 b9 96 eb fb b9 56 a4 fc b9
       0.0039282064 -0.0001568719 -0.00048049976 -0.00048187625
000070 99 96 0e 3a c9 ed 57 b8 cd 75 34 b9 32 5a a5 bc
       0.0005439311 -5.148145e-05 -0.00017210022 -0.02018461

blocks.0.bn.weight f4 [32]
000000 33 5f 55 3f 61 7c 48 3f 7c dd 3a 3f 3a 16 82 3f
       0.8334839 0.7831479 0.7299421 1.0163033
000010 7d 36 8b 3f 7e f2 32 3f 62 7b 23 3f d0 60 5c 3f
       1.0876004 0.69901264 0.6386014 0.86085224
000020 d2 47 56 3f 04 5f 80 3f d4 0a 59 3f 2d ec 7e 3f
       0.8370334 1.0028996 0.8478215 0.99579126
000030 94 0b 5d 3f 29 ac 51 3f fa 44 42 3f b2 6a 41 3f
       0.8634579 0.8190332 0.758865 0.7555343
000040 56 2c 7e 3f b2 ab 84 3f 5a a1 4e 3f 44 25 85 3f
       0.992864 1.0364897 0.8071495 1.0401998
000050 9b 4d 54 3f 40 52 2b 3f 39 ea 68 3f 0d b9 68 3f
       0.82930917 0.6692238 0.90982395 0.90907365
000060 a6 4e 51 3f 13 9d 66 3f 0a 54 81 3f 88 25 99 3f
       0.81760633 0.90083426 1.0103772 1.1964579
000070 e6 b1 2c 3f 4b 1c 19 3f 5d 63 0f 3f 8d a8 77 3f
       0.6745895 0.59808797 0.5601099 0.96741563

blocks.0.bn.bias f4 [32]
000000 c7 6c 2a bf 4e c0 d7 be de b9 2e 3e f9 31 72 be
       -0.6657223 -0.42138904 0.1706309 -0.23651876
000010 08 86 b3 be ee 73 1c be d4 e6 74 be da 55 97 be
       -0.35063195 -0.15278599 -0.23916179 -0.29557687
000020 d0 cd d4 be f0 08 69 be e5 50 17 bf c5 5d 0d bf
       -0.41563272 -0.22757316 -0.5910781 -0.55221206
000030 b8 fc 08 bf 2f 2b 1d bf 15 0e 21 be 49 6c 39 bf
       -0.5351062 -0.6139402 -0.15728028 -0.72430855
000040 e6 10 ed be 88 2f c0 be 30 93 70 be 83 f9 15 bf
       -0.46301955 -0.37536263 -0.23493648 -0.5858385
000050 e7 74 07 bf aa ea a0 be fb 9c 6e bf f4 02 b9 be
       -0.52912754 -0.31429034 -0.93208283 -0.36135066
000060 51 d1 a5 bc ff 07 f2 be 7c fb ef be 1a 45 2a bf
       -0.020241411 -0.47271726 -0.46871555 -0.6651169
000070 26 70 0a bf 68 b8 72 be 7b 12 7e bb 49 11 5f bf
       -0.54077375 -0.23703158 -0.003876834 -0.8713575

blocks.0.bn.running_mean f4 [32]
000000 fe eb cd 3f 06 26 80 c0 58 c9 2e 40 0e c9 a4 3e
       1.6087644 -4.0046415 2.731039 0.32184643
000010 01 67 0e c0 7a df af c0 69 85 60 c0 ed f5 0f c0
       -2.2250369 -5.49603 -3.5081427 -2.249385
000020 7b c3 99 3f 86 e1 e9 bf 64 a3 15 c0 1d 30 07 c0
       1.2012781 -1.8271949 -2.3380976 -2.1123116
000030 97 e0 1f c0 3d 52 a8 3f 30 e7 24 40 48 1e 9f bf
       -2.4980829 1.3150097 2.5766106 -1.2431116
000040 eb 05 04 bf 8c 47 e7 bf ab ba 46 40 79 b8 a8 bf
       -0.5157153 -1.8068709 3.1051433 -1.3181297
000050 2b 54 15 3f 22 34 f6 bf ac 3a da bf be 99 db 3e
       0.58331555 -1.923466 -1.7049155 0.42890733
000060 0c 45 c1 bf 2f ff ae bf 0e 44 d1 3e 46 26 fe be
       -1.5099196 -1.3671626 0.40872234 -0.49638575
000070 d6 59 8f c0 e3 b6 b2 3f 90 05 7f 3e 18 6d 9f c0
       -4.4797163 1.3962063 0.24904466 -4.982067

blocks.0.bn.running_var f4 [32]
000000 67 16 69 40 1d 7e a6 40 ac 12 01 41 6e 3e ac 40
       3.6419923 5.2028947 8.067059 5.382621
000010 8f a0 32 41 be f9 32 41 63 15 f6 40 c3 48 8e 40
       11.164199 11.185972 7.6901107 4.446382
000020 91 b3 89 40 13 a6 54 40 f3 f8 8a 40 7f 88 d7 40
       4.3031697 3.3226364 4.3428893 6.735412
000030 88 15 7a 40 82 8e a8 40 62 74 d9 40 f7 c0 7d 40
       3.9075642 5.267396 6.795457 3.9649026
000040 d1 cf 8a 40 fa 3c 1f 41 ab 1b 78 40 00 a3 93 40
       4.337868 9.952387 3.8766887 4.6136475
000050 72 84 69 40 45 3a ff 40 27 ad 8e 40 63 5d 93 40
       3.6487088 7.975863 4.4586368 4.6051497
000060 bc 9a 4a 41 e9 0a 81 40 f3 2f 9a 40 1b f8 c3 40
       12.662777 4.032582 4.818353 6.1240363
000070 db 64 0f 41 e8 26 97 40 58 d1 c7 40 24 5d be 40
       8.962123 4.7234993 6.2443047 5.9488697

blocks.1.conv.weight f4 [32, 32, 3, 3]
000000 82 b7 23 3e 7e 14 b5 3c 11 40 a4 3d 97 d2 f9 be
       0.15987971 0.022104498 0.08020032 -0.4879348
000010 3d 93 90 3e b5 c7 57 be a7 8a 30 3e 54 14 05 bf
       0.28237334 -0.21072276 0.17240392 -0.51984143
000020 83 0a 32 3e c4 26 45 bb 1a e2 c6 3e bf 1f 23 be
       0.17386822 -0.003008292 0.38844377 -0.15930079
000030 82 62 a4 bd c5 e7 60 3d 96 65 d1 bc f8 f3 84 be
       -0.080266014 0.054908533 -0.025561135 -0.25967383
000040 a2 21 c4 3e 55 c7 ee 3c 23 8b 16 bd ee fb 36 be
       0.3830691 0.029147783 -0.036753785 -0.17869541
000050 1e a2 31 3e 8c 89 8b be 5e 21 34 bf ad ac 3e bd
       0.17346999 -0.27253377 -0.70363414 -0.046551395
000060 48 c0 ae bd 4f ac 61 3e 3d e5 7f 3e 52 ac aa 3e
       -0.085327685 0.22038387 0.24989791 0.33334595
000070 d8 8b 3f be 28 04 bd 3d ca e4 6d bd e2 45 00 3f
       -0.1870569 0.09229308 -0.05807952 0.5010663
000080 b7 25 3e be de 0b a8 bd ef 75 2f bf a1 43 4e be
       -0.18569075 -0.082053885 -0.6853933 -0.20142986
000090 0c 89 51 3e 96 27 93 3e 9b b2 c4 be c8 85 28 3d
       0.20462435 0.2874114 -0.38417515 0.04114321
0000a0 f8 06 0d be 4f 43 86 be 7b 79 16 3d cf 86 d2 bc
       -0.1377219 -0.26223227 0.036736947 -0.025699047
0000b0 92 dc b1 bd 69 0e aa be 4c 16 15 3c 6a c2 bd 3e
       -0.086846486 -0.3321412 0.009099554 0.3706239
0000c0 c9 cd 40 3d 04 0a 8a 3e 74 4a 71 3e c0 37 3b 3e
       0.047071252 0.26960766 0.23563558 0.18282986
0000d0 f8 80 bc 3d d0 44 cd 3e b9 0a ff 3c b9 dc fa 3d
       0.09204286 0.40091562 0.031133043 0.12249131
0000e0 3f 9f e1 be 5c 4b d1 bd 2e 52 57 bd 7a d7 20 be
       -0.44066808 -0.10219452 -0.052568607 -0.15707198
0000f0 ef dd b5 3d 13 11 6e 3e 6e c1 f3 bd 01 32 df bd
       0.08880221 0.23248701 -0.11902128 -0.10898209
000100 a9 84 42 bf cc 69 16 3e a3 50 45 bd 0a d5 0e 3e
       -0.75983673 0.14688796 -0.048172604 0.13948455
000110 68 1e c4 be e5 fd e9 bd f2 e3 be be 1a a6 14 3e
       -0.38304448 -0.1142538 -0.37283283 0.14516488
000120 11 d1 c0 bc d0 28 59 bd 0d 6e 86 bd a3 a9 19 bc
       -0.02353719 -0.053017437 -0.06563959 -0.009378823
000130 05 4a 45 3d d6 f1 fd bd a8 36 4e bd a9 5f 25 be
       0.048166294 -0.12399642 -0.050345093 -0.16149773
000140 9a fb 79 3e 57 23 dc bd 59 88 c0 bd 79 9e 71 be
       0.24412385 -0.10748928 -0.09401006 -0.23595609
000150 e1 5a 0c 3f cd 14 30 3e 1c e8 79 be 8a ba 06 3e
       0.5482617 0.17195435 -0.24404949 0.13157097
000160 96 18 3d bd e8 4d 19 3e d0 78 3c 3d 4c fb 97 bd
       -0.046166025 0.14971125 0.046013653 -0.07420978
000170 06 b4 97 3d f4 a4 85 3d f5 52 43 be be a0 b5 3d
       0.074073836 0.06525603 -0.19074614 0.0886855
000180 75 39 2c 3e 0e b5 d7 3c 79 d1 7c be 65 b6 a2 3e
       0.16818793 0.02633145 -0.24689282 0.3177978
000190 5b 40 b3 bd 79 46 19 3e 21 49 d0 bd 2e a6 43 3e
       -0.08752509 0.1496829 -0.10170198 0.19106361
0001a0 7f ab 01 3d e8 db bd bd ea 54 d7 be c5 01 1b 3e
       0.031657692 -0.092704594 -0.42056972 0.15137394
0001b0 52 7a 8b be 48 42 43 3e f3 20 25 bd c3 f1 5d be
       -0.2724176 0.19068253 -0.040314626 -0.21674256
0001c0 43 76 81 3e 68 61 90 3d df a8 05 be 5e 28 3f 3d
       0.2528554 0.07049829 -0.130527 0.046669357
0001d0 1c 0e 71 3e 36 50 23 be 2b 91 a1 be 46 a4 9f be
       0.23540539 -0.15948567 -0.31556067 -0.31180018
0001e0 75 a0 44 be 0d cf 13 bf 43 36 1d 3e f4 b2 56 bd
       -0.19201834 -0.5773781 0.1535273 -0.052416757
0001f0 9b df 53 3e 4e bb f0 3d a4 ca 79 3e ba cf 46 be
       0.20690767 0.117544755 0.24393708 -0.19415179
000200 a4 aa de bd 0a e2 a4 3d 66 59 de be f1 b2 9a 3e
       -0.10872391 0.08050926 -0.4342758 0.30214646
000210 80 5d 24 be 97 8e 64 be 78 4a 62 3e 40 ac b8 bd
       -0.16051292 -0.22320019 0.2209872 -0.09017229
000220 4f 93 44 3e 6a d4 57 3e 46 da 6b be 3c 5c 61 3e
       0.19196819 0.21077123 -0.23032483 0.22007841
000230 d6 fa b9 3b 6a 8f 7a be 52 2c 28 be a4 e7 e6 3d
       0.005675654 -0.2446877 -0.16423157 0.11274651
000240 42 27 70 3e a2 35 1e bf fd 64 42 3e d5 e3 b7 bd
       0.23452476 -0.6180059 0.18983836 -0.089790024
000250 10 40 c3 be c8 54 40 3b 63 e5 a5 be 26 0a a1 3d
       -0.38134813 0.0029347409 -0.3240157 0.07863264
000260 5d fd 23 be cf 20 33 3e ec 87 14 bd ad e0 76 be
       -0.16014619 0.17492984 -0.036262438 -0.24109145
000270 f9 6b 0d bf a1 66 87 bf 52 10 fa 3b 5c 7e 88 3d
       -0.5524288 -1.0578195 0.00763134 0.06664726
000280 61 26 b8 be 63 61 1a be b1 91 85 3d dd 61 99 3e
       -0.3596678 -0.15076213 0.06521929 0.29957476
000290 19 b5 b6 bd 87 3c f8 3d 67 9f 14 3e 0a d9 24 3e
       -0.089212604 0.1212092 0.14513932 0.16098419
0002a0 66 81 0d bd 3a e5 4a 3e 85 ec 82 bd 8f 9c 58 be
       -0.034547232 0.19814005 -0.06392769 -0.21153472
0002b0 0b 18 3f bd e6 80 80 be fa a1 72 bd 03 bb e1 3d
       -0.04665379 -0.25098342 -0.059236504 0.11021998
0002c0 dc f9 51 3e b5 e6 f4 be 6e 28 a8 be 00 5f 37 bf
       0.2050547 -0.47832265 -0.32843345 -0.71629333
0002d0 71 4b 28 3e 06 bc df be 1e 48 cb 3d 1b 05 85 bd
       0.16435029 -0.43698138 0.09925865 -0.064951144
0002e0 34 31 41 be 78 aa b5 3e 87 d2 0e be d6 5f c9 bd
       -0.18866426 0.3548162 -0.13947497 -0.098327324
0002f0 50 62 32 3e 6b bb 35 bd f6 62 cf 3c c3 08 89 be
       0.17420316 -0.04436819 0.025315743 -0.26764497
000300 cb 53 00 bd b4 28 07 bf 0b 78 c6 3c 61 3d 91 bd
       -0.03132991 -0.52796483 0.024227163 -0.07091785
000310 42 d5 1d 3c 86 7e 47 be ec 57 36 be f2 1e 89 be
       0.009633364 -0.19481859 -0.17806977 -0.26781422
000320 c3 b5 b3 3e 6c 05 23 bd 0a 49 17 be 05 91 e5 be
       0.3509961 -0.039800093 -0.14773956 -0.44837204
000330 20 89 29 be b7 52 54 be 68 49 08 be 3a b9 83 be
       -0.16556215 -0.20734678 -0.13309252 -0.25727254
000340 0b e7 f8 bd 8e bc 57 3e ab 27 19 bf 63 8b f1 be
       -0.12153443 0.21068022 -0.59826154 -0.47176656
000350 8f bb 74 3d 77 26 6a 3c 6c b4 b3 be dd f1 8c be
       0.059749182 0.014291397 -0.35098588 -0.27528277
000360 d6 7f 55 3e a7 29 82 bd 42 6a 96 be 68 0a 2c bd
       0.20849547 -0.06355601 -0.29377943 -0.04200211
000370 cf ce 99 be c5 21 bb be 1c a1 eb bd a2 f5 d7 3d
       -0.30040595 -0.36549202 -0.115053385 0.105448976
000380 b3 b8 ae be 00 eb 2d bc 31 ab 33 3d 9f f0 c0 bc
       -0.3412529 -0.01061511 0.043864433 -0.023552237
000390 1c 08 4a be 10 e6 6e bc 92 f4 8e bb f8 94 f4 be
       -0.19729656 -0.014581218 -0.004362651 -0.47769904
0003a0 0d 7b 07 3e 4e f1 d3 3d a1 31 8f 3e 54 95 61 3e
       0.13230534 0.103487596 0.2796755 0.2202962
0003b0 50 02 df 3e e7 39 e6 ba 1e fb 02 bf d3 ce 73 be
       0.43556452 -0.0017564864 -0.51164424 -0.23809366
0003c0 90 29 77 be 4b 1d 58 3d a9 df 91 be 5c c7 6a 3e
       -0.24136949 0.05276231 -0.28490952 0.22927612
0003d0 f8 6b cb bd 66 68 8d be 47 06 88 be 6a 98 b3 be
       -0.09932703 -0.27618712 -0.2656729 -0.3507722
0003e0 c7 73 8b 3e 78 e2 5b 3e c4 ea 52 be c8 75 0b 3e
       0.2723677 0.2147311 -0.20597368 0.13619149
0003f0 e1 3e e7 bd fe 14 16 be f6 9a 5f 3e 51 0b 0a bf
       -0.1129129 -0.14656445 0.21836457 -0.5392352

blocks.1.conv.bias f4 [32]
000000 71 48 04 bc 19 5d 53 b9 e6 ab e0 39 0b 1f 03 3b
       -0.008073912 -0.0002015721 0.00042852684 0.0020007517
000010 77 2e ab 3a a4 32 83 bc cc 3a 20 bb 2f df 1c 38
       0.0013060112 -0.016015358 -0.0024449108 3.7401154e-05
000020 a0 d3 19 bc d2 83 cc 38 d3 64 2f b9 0b b5 4c bb
       -0.009388834 9.7520315e-05 -0.0001672686 -0.003123584
000030 b3 2a 12 3c fa 9b 36 3a e1 ad e4 3b fd c3 21 ba
       0.008921313 0.00069659913 0.006978736 -0.0006170867
000040 a1 26 e8 39 05 c1 9f b9 af b8 91 3a c5 65 ce 39
       0.0004427927 -0.00030470654 0.0011117662 0.00039367206
000050 bb 57 fa 39 b9 47 7a 3b c3 ff 24 ba 4c f3 38 ba
       0.0004774908 0.0038189723 -0.0006294215 -0.0007055297
000060 ed f8 f0 3a c2 32 d4 3b 6b 2a 75 3b 04 17 2c ba
       0.0018384733 0.0064757774 0.0037409316 -0.0006564709
000070 76 d1 95 ba 24 59 45 ba d8 ee 4d 3a 64 84 a8 b9
       -0.0011430222 -0.00075282366 0.000785572 -0.00032142096

blocks.1.bn.weight f4 [32]
000000 64 b0 21 3f 6c 8f 64 3f f0 c5 24 3f 59 64 7a 3f
       0.63159776 0.89281344 0.6436453 0.9780937
000010 92 14 83 3f 02 32 41 3f a3 62 2b 3f da 1c 4e 3f
       1.0240653 0.7546693 0.6694738 0.80512774
000020 08 41 7c 3f 76 7b 62 3f 0d 15 59 3f 25 c5 7a 3f
       0.9853673 0.88469636 0.84797746 0.9795707
000030 fc f6 97 3f e9 c5 65 3f 0d fb 86 3f e9 8d 87 3f
       1.1872249 0.8975511 1.0545365 1.0590183
000040 16 fa 89 3f e7 f0 53 3f 3d 4c 72 3f bb 1d 6c 3f
       1.0779445 0.8278946 0.9464758 0.92232865
000050 de eb 7f 3f 75 d1 68 3f 5e 6a 9b 3f df 6c 96 3f
       0.9996928 0.90944606 1.2141836 1.1751975
000060 b0 22 54 3f 49 fa 9d 3f 88 13 85 3f c7 0a 59 3f
       0.8286543 1.2342006 1.0396585 0.8478207
000070 90 b0 49 3f da fe 3f 3f 10 5f 0d 3f 92 78 87 3f
       0.7878504 0.7499825 0.5522318 1.058367

blocks.1.bn.bias f4 [32]
000000 ea eb 51 be 13 fc f3 be 5b 4e ed 3d 53 f5 f3 be
       -0.2050015 -0.47653255 0.11587211 -0.47648105
000010 0f 70 02 be 06 47 7e be 37 f8 d1 be af ce 0e bf
       -0.1273806 -0.24831781 -0.41009685 -0.55784124
000020 9d 80 12 bf 49 6a ba be 59 ac 1c bf c9 13 11 bf
       -0.572275 -0.36409214 -0.6120048 -0.56670815
000030 e5 d5 13 bf df f6 d4 be b6 32 b8 be 47 e0 bd be
       -0.5774825 -0.41594598 -0.3597619 -0.37085173
000040 1c aa 2b bf 9e 71 c8 be 91 9c b9 be c4 66 ee be
       -0.6705644 -0.39149183 -0.36252263 -0.4656278
000050 c4 63 43 bf 9c c8 da be b8 5c 55 bf aa 9c 3f be
       -0.76324105 -0.42731178 -0.833446 -0.18712106
000060 29 d0 53 bf 83 4f 6a bd 4c 28 bf be a0 50 c2 be
       -0.827395 -0.057204735 -0.37335432 -0.37952137
000070 84 df 89 be a1 48 1b bf d0 5d bc bd 39 60 fd be
       -0.2692834 -0.606577 -0.09197581 -0.49487475

blocks.1.bn.running_mean f4 [32]
000000 51 50 a3 c0 57 28 81 c0 6a c9 07 bf 26 31 d8 bf
       -5.1035542 -4.0361743 -0.5304171 -1.6889999
000010 c3 d9 54 c0 27 e5 81 be e0 de 11 40 da 99 be bf
       -3.3257911 -0.25370142 2.2792282 -1.4890702
000020 fc f3 82 c0 ac 51 ca 3e d9 ba 05 bf fe 76 93 3f
       -4.0922832 0.39515436 -0.5223823 1.1520689
000030 bb 23 fc bf c2 28 0a 40 07 49 0c c0 07 42 49 c0
       -1.9698404 2.1587377 -2.1919572 -3.144655
000040 11 b2 eb bf e3 ec 53 3f 31 86 a6 bf cd bb 5d c0
       -1.8413717 0.82783335 -1.3009702 -3.4645875
000050 39 db b2 bf d7 59 11 c0 2d f7 28 c0 f9 51 b6 bf
       -1.3973151 -2.2711084 -2.6400864 -1.4243766
000060 9e e3 2b c0 d7 73 f0 3e ab 4b d4 bf ef 30 58 c0
       -2.6857677 0.4696338 -1.6585592 -3.3779867
000070 0a 06 19 40 43 e2 28 c0 aa ca 80 3f f3 5e 15 c0
       2.3909936 -2.63881 1.0061848 -2.3339202

blocks.1.bn.running_var f4 [32]
000000 c1 8e 22 41 56 4d ee 40 a5 d2 37 41 af f9 2b 41
       10.159852 7.4469404 11.488927 10.748458
000010 d1 d6 dd 41 20 10 82 41 71 e1 00 41 e0 3e fb 40
       27.72989 16.257874 8.055039 7.851425
000020 82 82 83 41 b9 1d 11 41 4d 50 29 41 f0 b7 de 40
       16.438725 9.0697565 10.582105 6.9599533
000030 72 49 2e 41 0e e5 2b 41 7f 9b a4 41 e4 3b 1b 41
       10.892931 10.743422 20.575926 9.702122
000040 37 c8 0f 41 b9 2a 7e 41 2f b8 08 41 b4 ab 18 41
       8.986381 15.88543 8.544967 9.54192
000050 a0 5a 08 41 da b9 64 41 19 33 2a 41 c1 a0 69 41
       8.522125 14.295374 10.637475 14.601747
000060 ba b1 0d 41 60 22 0a 41 76 5d 33 41 83 d7 90 41
       8.85589 8.633392 11.210318 18.10523
000070 e8 d5 d0 41 ca 72 8d 41 c6 2d 86 41 e6 bc 14 41
       26.104446 17.68105 16.77235 9.296118

blocks.2.conv.weight f4 [32, 32, 3, 3]
000000 8e 02 aa 3d d1 b0 8b 3d 33 39 0a be f9 07 44 be
       0.083012685 0.068208344 -0.13498382 -0.19143666
000010 ad 3e 98 bb a2 ef e8 be 2f 08 69 be 05 0c 61 be
       -0.0046461434 -0.45495325 -0.22757028 -0.21977241
000020 7d 63 55 bd 5a 25 44 be a0 65 88 bd 93 c1 9e be
       -0.052096833 -0.19154873 -0.066600084 -0.3100706
000030 fa 6f 8a 3d 66 5b c6 be 3d 39 9c be 31 be 4b be
       0.06759639 -0.38741606 -0.3051242 -0.19896771
000040 87 23 75 be d9 85 a0 bd 42 54 9d bd 34 7c 01 3e
       -0.23939334 -0.078380294 -0.076820865 0.12645036
000050 d4 fb a3 3e 61 11 c5 bc 53 88 71 3d 1a 2f 7c 3d
       0.32028067 -0.024056138 0.0589679 0.061568357
000060 45 1f 6a 3e 1f 5a 2f be ad 81 b4 be 28 58 35 3e
       0.22863491 -0.17124222 -0.35255185 0.1770941
000070 34 34 c2 be 8b 89 e8 3e 5f ad 3b 3e 65 03 f0 bd
       -0.37930453 0.45417437 0.18327855 -0.117193975
000080 49 c2 33 be 69 6d d7 bd e7 7c 25 3e 94 73 1d 3e
       -0.17554583 -0.10518915 0.16160928 0.15376121
000090 97 12 0c 3e 00 e9 82 3e 0e d1 08 3f 86 50 e8 3d
       0.13678966 0.2556839 0.5344399 0.113434836
0000a0 18 80 af 3e 10 a4 ed 3e 78 7d 52 3e 36 66 02 3f
       0.34277415 0.46414232 0.20555675 0.5093721
0000b0 b3 21 65 3e 70 eb 2a be 95 1f 43 3e 21 8f f9 3e
       0.22376136 -0.16691375 0.19055016 0.4874201
0000c0 86 64 12 3e 41 be c5 3e f8 4f 45 3d a9 30 b7 bd
       0.14296159 0.38621715 0.048171967 -0.08944828
0000d0 58 e0 17 be 5f c8 91 bc ac 3c 58 3d 7b 5c b3 3e
       -0.14831674 -0.01779574 0.052792236 0.35031494
0000e0 71 ee 94 3d d6 18 a5 3d d3 d9 d0 3d 94 32 cd 3d
       0.072720416 0.08061378 0.10197797 0.10019413
0000f0 4e d0 dd bd 76 e4 f2 3d c1 92 90 be 38 11 fc 3c
       -0.108307466 0.11859982 -0.28236964 0.03076993
000100 b6 36 0a bf ee 84 ae 3d 08 b5 d0 3d 43 83 0e bd
       -0.5398973 0.08521448 0.10190779 -0.03479315
000110 2f 92 88 be 21 4d 00 be 0d b6 70 be 68 d6 81 3e
       -0.2667403 -0.12529422 -0.23506947 0.2535889
000120 0a ff 61 3e 4d 06 15 3e 99 0f c7 3d 57 5c e2 3c
       0.22069946 0.14553185 0.09719772 0.027631922
000130 fd a5 cd 3e 11 76 56 3d 94 46 0a 3f 07 68 a1 be
       0.40165702 0.05235869 0.54013944 -0.3152468
000140 42 d0 da 3c 51 69 cf be bb bb 17 3d 1b 27 de be
       0.026710633 -0.40510038 0.037044268 -0.4338921
000150 02 a0 05 bd 59 e9 4c bd d5 9e b5 be 17 19 fc be
       -0.0326233 -0.050027225 -0.35472742 -0.49237892
000160 c7 dd 50 be fa 33 69 3e 18 da 0c bd c7 8b 67 be
       -0.20397101 0.22773734 -0.034387678 -0.22611915
000170 3d fc 8c 3d f7 79 69 be 3f 98 98 be 05 5c 1a 3e
       0.06884048 -0.22800432 -0.29803655 0.15074165
000180 10 69 f3 3d 48 19 7d 3d 51 44 b6 be 9d cd 3d 3d
       0.118852735 0.06179169 -0.35598996 0.046338666
000190 bc 54 32 3d cd 5e 3f 3c 7c d0 82 3e 0c 75 ba 3e
       0.04353784 0.011680317 0.25549686 0.36417425
0001a0 d0 83 88 bd b2 3d a3 3e da c2 b1 bd 25 53 e4 3e
       -0.06665766 0.31883007 -0.08679743 0.44594684
0001b0 2a 28 11 bd 2b 43 d9 be c8 c7 b5 3d 4f 1f 4e 3e
       -0.035438694 -0.42434058 0.08875996 0.20129131
0001c0 94 ff 07 3e 9b 0a 16 3e f6 26 24 3d 6b 69 25 3e
       0.13281089 0.14652483 0.04007622 0.16153495
0001d0 f8 c7 a1 3d f5 d8 d7 3d d9 7f 3f be f6 25 2f be
       0.07899469 0.10539428 -0.18701114 -0.17104325
0001e0 c1 73 95 be 74 8a 77 be eb 98 8c 3e 2b 2f ab bd
       -0.29189876 -0.2417391 0.27460417 -0.08358606
0001f0 05 e9 98 be 0e a7 3f 3d a4 4d 72 be 92 dd 90 be
       -0.2986528 0.046790175 -0.2366243 -0.28294045
000200 01 b0 ea be 1d d6 d8 bd 03 c9 a5 be 8b d2 12 bd
       -0.45837405 -0.10587714 -0.32379922 -0.03584532
000210 89 9d dc be d7 2c 1a 3e c3 88 2e be be 61 a7 be
       -0.4308894 0.15056168 -0.17044358 -0.3269176
000220 68 0f c6 bd 8a 79 4e be 2a 6d 33 3c 0d 6d 9d be
       -0.09670907 -0.20163551 0.01095132 -0.30747262
000230 b2 f3 45 3d ec 34 98 3b f4 15 19 be 3c 8f cd 3e
       0.04832811 0.0046449807 -0.1494978 0.40148342
000240 e4 4b 5f be 4a 96 b6 3d 1e c9 70 be 1f c2 fd bd
       -0.21806294 0.08915384 -0.2351422 -0.12390541
000250 b4 9b 96 be e6 65 d2 3d 23 60 4e 3e 83 87 7f bc
       -0.29415667 0.10273342 0.20153861 -0.015596273
000260 d3 83 ef 3d 52 2b 26 be 8c 2a 25 3e 2b 18 fb 3d
       0.11695065 -0.16227463 0.16129512 0.12260469
000270 ac cb 9a bd c9 c9 bc bd d8 5d c7 3e fd c2 72 be
       -0.075583786 -0.09218175 0.38938785 -0.23707195
000280 71 69 e2 be 6f a0 94 3c ec d4 0e bb d1 36 d5 3e
       -0.4422107 0.018142907 -0.0021794392 0.41643384
000290 44 3d 34 be c2 80 39 3d b6 4d 09 3f 38 f6 5b 3e
       -0.17601496 0.04528881 0.536342 0.21480644
0002a0 cb c9 92 bd 21 18 74 3e ff d7 21 be 44 ed 4e 3e
       -0.07167395 0.2383733 -0.15805052 0.20207697
0002b0 e7 cf c4 bd e9 85 4e 3e 8a 46 c7 be 91 8c ed bd
       -0.09609967 0.2016827 -0.38921005 -0.115990765
0002c0 eb 0c fd 3d be 4e 66 be ca dd fe 3d 0c d4 94 be
       0.123559795 -0.22490975 0.12444647 -0.2906803
0002d0 a8 7b bb 3d c4 a6 53 3e f4 a1 05 3f ec cc d9 3e
       0.09154445 0.20669085 0.52200246 0.42539155
0002e0 ac 1f 92 3d a7 ad 38 3e 4e 27 66 3e 08 af 4a 3d
       0.07134947 0.18034993 0.22475931 0.04948333
0002f0 4c 48 e1 3d c4 b7 37 3e 4f da ac 3a 24 2a e0 3d
       0.11000118 0.17941195 0.001318762 0.10945538
000300 fe 2a a8 3e fe 73 1e 3e 24 0a 5c 3b 99 35 48 3d
       0.328453 0.15473935 0.003357538 0.04887924
000310 6e c6 16 bd 79 78 dd 3e 19 b8 10 3e f5 41 9f be
       -0.03681033 0.43255976 0.14132728 -0.3110501
000320 dc 22 e5 be 98 c7 20 be bb 7d 6f 3e a2 2d 16 bf
       -0.44753158 -0.15701139 0.23387806 -0.5866338
000330 d4 ef 16 be 46 76 7b bd b7 5f ea be d9 46 42 be
       -0.14739925 -0.06139209 -0.4577615 -0.18972339
000340 82 1b 0e 3e 8d e1 62 3d e7 c3 0d bf 03 bc 6e be
       0.13877681 0.055390883 -0.5537705 -0.23313908
000350 f4 d3 c0 bc ec 27 1c bf 7a bf 44 be 66 56 f0 bd
       -0.023538567 -0.60998416 -0.19213668 -0.11735229
000360 ce 02 70 3e 4d 31 97 3d fe 15 a6 be 37 19 9d bd
       0.2343857 0.0738245 -0.32438654 -0.07670825
000370 fd 5a d5 3e 99 f7 53 be 2e 21 4a be 90 05 74 be
       0.4167098 -0.2069992 -0.1973922 -0.23830247
000380 c7 bd e4 ba 35 23 a7 3d 7b ad 2e 3e aa 93 bc be
       -0.0017451578 0.08161012 0.17058365 -0.3683141
000390 c6 86 97 3d 8a 21 a2 3d e6 77 f3 bd 6e bc f6 3e
       0.07398753 0.07916553 -0.11888103 0.48190635
0003a0 d5 0d ed 3d 16 a1 05 3d 8f ee 12 3d 55 1c 36 3d
       0.11574904 0.032624327 0.03587204 0.044460613
0003b0 55 69 d6 3c 0c 58 a1 be af ba 2f be a7 4d c8 bd
       0.026173273 -0.31512487 -0.17161058 -0.09780436
0003c0 dc 09 8b 3e b7 d3 ab bd c4 f7 19 3d 61 3a ff bd
       0.2715596 -0.08389991 0.037589803 -0.12462307
0003d0 1c 13 01 3d b8 a1 b7 3e 7a 3e 1e be 14 5b 84 3d
       0.031512365 0.3586557 -0.1545352 0.06462684
0003e0 96 a5 a8 be ff 0d a7 be d1 24 ce bd 30 f2 84 3e
       -0.32938832 -0.32627866 -0.10065616 0.25966024
0003f0 85 b5 b0 3e ea 4a 59 bd de 1a 19 be 07 24 e6 be
       0.34513488 -0.05304996 -0.14951655 -0.44949362

blocks.2.conv.bias f4 [32]
000000 25 6b 9c bb 8e 48 f9 ba dd c7 b5 38 c2 44 cf 39
       -0.004773515 -0.0019018815 8.66798e-05 0.00039533345
000010 0e 0a 7e bb 6a 5f a5 ba 6e 8e 03 bb bf df 0e ba
       -0.0038763317 -0.0012616937 -0.0020073908 -0.0005450211
000020 4e 3a cf ba b2 5c 27 3c e3 38 bb 38 d4 20 84 ba
       -0.0015810223 0.010214971 8.927451e-05 -0.0010080584
000030 3a 61 91 b9 1e b8 73 ba bf 4d b5 ba 39 85 c2 3a
       -0.00027728995 -0.000929715 -0.0013832374 0.0014840729
000040 47 b2 86 b7 0f ac c0 bb 70 66 84 bb 20 ea 8c 3b
       -1.6057062e-05 -0.005879886 -0.004040532 0.004300371
000050 ab 4a 78 ba 1d fc e9 39 32 0f 18 39 8d 78 d0 3b
       -0.00094715756 0.00044629062 0.0001450151 0.006362027
000060 a1 b3 69 b9 43 5d 46 3b 1c 7d 88 ba 94 87 cb 38
       -0.00022287529 0.003026799 -0.0010413262 9.705048e-05
000070 3f 7a ad 3a 8b c5 00 3b 47 a7 03 3a 8e 1c 86 3c
       0.0013235285 0.0019648995 0.00050221797 0.016371038

blocks.2.bn.weight f4 [32]
000000 75 48 45 3f aa f0 4a 3f 81 e9 14 3f eb 71 29 3f
       0.77063686 0.79273474 0.581688 0.6618945
000010 36 b9 22 3f f6 a9 20 3f 8b 73 7c 3f 93 9a 84 3f
       0.6356386 0.6275934 0.98613805 1.0359672
000020 4e aa 3f 3f 5a 48 80 3f 3d 33 45 3f 22 40 4f 3f
       0.7486924 1.002208 0.7703131 0.80957234
000030 e2 93 50 3f 2b 45 5d 3f 4a a0 52 3f 16 4a 9d 3f
       0.8147565 0.86433667 0.8227583 1.2288234
000040 64 b5 9c 3f af a2 80 3f c2 49 46 3f 66 85 76 3f
       1.2242856 1.0049647 0.77456295 0.962973
000050 a6 7a 84 3f aa 27 7a 3f 69 25 5a 3f b2 57 84 3f
       1.0349929 0.9771677 0.85213333 1.0339262
000060 88 78 a4 3f c0 ed 80 3f 25 96 8a 3f 05 76 35 3f
       1.2849283 1.0072556 1.082707 0.7088321
000070 60 d5 e7 3e 2e 60 7a 3f 0f 06 ab 3e c5 fe 64 3f
       0.4527998 0.9780301 0.3340306 0.8945125

blocks.2.bn.bias f4 [32]
000000 9e 9a 3b be 2e d7 0d bf c5 81 1d be 20 41 97 be
       -0.183207 -0.55406463 -0.15381534 -0.29541874
000010 28 d6 1e bf 17 bf 9d be de a9 8b be cd c4 2d bf
       -0.62045527 -0.30809852 -0.27278036 -0.6787842
000020 9b 96 02 bf 1d 6c f4 be 76 2d 12 bf bf 6d b5 be
       -0.51011056 -0.47738734 -0.5710062 -0.35435292
000030 11 04 2d bf 12 11 c2 be 44 46 b5 be 2b a9 18 bf
       -0.6758433 -0.3790365 -0.3540517 -0.5963313
000040 30 a9 f7 be 51 f9 11 bf 91 29 b4 be 8f 59 b0 be
       -0.48371267 -0.5702105 -0.35187963 -0.34443328
000050 e8 49 18 bf ef e0 4d bf df 71 c6 be c0 7d 10 bf
       -0.5948777 -0.80421346 -0.38758752 -0.5644188
000060 d4 c8 3b bf 0c 33 01 bf cc ae 1a bf 03 de 8a be
       -0.73353314 -0.50468516 -0.6042297 -0.27122506
000070 f4 84 bc bc 87 75 c6 be 42 0a 87 3e 00 78 1b bf
       -0.023012616 -0.3876154 0.26375014 -0.6072998

blocks.2.bn.running_mean f4 [32]
000000 f7 d9 97 be be 42 55 c0 e9 45 44 c0 a1 93 a3 bf
       -0.2965848 -3.3321986 -3.066767 -1.2779428
000010 5b 45 a4 c0 95 9a 1c 40 0e 0f 49 bf 05 1a fd be
       -5.1334662 2.446935 -0.78538597 -0.49433914
000020 67 ec db bf 26 98 94 bf a8 6e fc 3e 38 5f 18 bf
       -1.7181519 -1.1608932 0.49303174 -0.5952029
000030 6d d2 8c 3f 55 38 64 c0 ad dc 11 c0 bd cd 34 c0
       1.1001717 -3.5659382 -2.279094 -2.8250573
000040 5f e7 d6 be a8 fc 6d bf 44 75 86 c0 40 75 c0 bf
       -0.41973397 -0.9296365 -4.2018147 -1.5035782
000050 b2 4a 61 bf 7d 96 24 bf 43 c4 cc bf 3e 02 3f c0
       -0.880046 -0.64292127 -1.5997394 -2.9845119
000060 66 78 96 bf 28 2e 77 c0 bd d5 62 c0 14 84 1f bf
       -1.1755493 -3.8621922 -3.5442955 -0.6231091
000070 74 ff 0b c0 89 3d 7c c0 bb 4e 77 3f 56 55 60 bf
       -2.1874666 -3.9412558 0.9660451 -0.8763021

blocks.2.bn.running_var f4 [32]
000000 37 31 a5 41 9a c2 a3 41 a9 ae 91 41 09 11 49 41
       20.64903 20.47002 18.210283 12.566659
000010 43 b0 9d 41 0f c7 48 41 90 28 cf 41 75 31 55 41
       19.711065 12.548598 25.894806 13.324574
000020 4e 37 55 41 91 3c 5f 41 60 ac 38 41 cc 3d 84 41
       13.326002 13.952287 11.542084 16.530174
000030 75 0a ec 40 ae e9 e5 41 8b 6d b7 41 9c 69 20 41
       7.3762765 28.739101 22.928488 10.025784
000040 1f 29 d7 40 12 f9 77 41 3e f9 4e 41 49 86 5a 41
       6.7237697 15.498308 12.93585 13.657784
000050 8c 66 4a 41 ea 1b 4f 41 1a bd 6b 41 bf d2 a3 41
       12.650036 12.944315 14.733667 20.477903
000060 4e 7e 1e 41 49 f7 22 41 c4 92 24 41 53 b2 8e 41
       9.905836 10.185372 10.285831 17.837072
000070 8c b0 8d 41 d1 c0 a6 41 0f 65 d2 41 64 30 75 41
       17.711205 20.844149 26.299345 15.324314
