models/311.pth (torch, 501905 bytes, 80 tensors)

conv0.conv.weight f4 [32, 17, 3, 3]
000000 b3 7a af bd 50 84 1b 3f a1 fa 42 3e 98 1b 09 3f
       -0.08568325 0.6074877 0.1904092 0.5355773
000010 cc 1a f1 be 3f e4 48 3f ef 14 78 3e 53 44 06 3f
       -0.47090757 0.78473276 0.24226736 0.52448004
000020 10 74 d0 3e 55 52 b5 bd 97 e2 af 3c a7 af 34 be
       0.4071355 -0.08853594 0.021470351 -0.17645131
000030 94 d5 a9 3a 7c 10 ab be 61 20 9b 3d ef b5 c7 3c
       0.0012957328 -0.33411014 0.07574535 0.024378745
000040 93 ad 16 3e 69 f3 fe bd 87 7b 13 be 2f 37 2e bd
       0.14714651 -0.124487706 -0.1440259 -0.042533096
000050 a1 48 32 3e 35 0a 45 bd 19 2a 80 be 30 cd 10 be
       0.17410518 -0.048105437 -0.25032118 -0.14140773
000060 ba da be bd 70 56 e6 3d 65 c2 51 3c d5 3c e4 bd
       -0.093190625 0.112469554 0.012802695 -0.11144415
000070 5b 00 5c 3d 2e 5a 0c 3e 11 e0 5a 3d bb d1 70 be
       0.053711277 0.13706276 0.053436343 -0.23517506
000080 6a 71 89 bd 68 2f 25 3e f1 74 59 3d 6e b5 73 be
       -0.06711085 0.16131365 0.05309004 -0.23799679
000090 16 d7 d0 3e 02 2a ca 3e 7b 6c 09 3f b3 ff ed 3e
       0.40789098 0.39485174 0.53681153 0.46484146
0000a0 3f 71 23 bf 4c 03 f6 3e 9b d3 b5 3e 52 52 cd 3e
       -0.63844675 0.4804939 0.35513005 0.40101868
0000b0 64 bf 8e 3e 17 5a 03 3e ba f6 b3 3e db 74 21 3e
       0.27880394 0.12827335 0.35149175 0.15767233
0000c0 ec 7f 75 3e ef 54 4e be 32 ae b4 3e d0 07 38 3e
       0.2397458 -0.20149587 0.3528915 0.1797173
0000d0 7b 47 b9 3e 63 59 5e 3e f1 58 ee 3e 95 eb aa 3e
       0.36187348 0.21713786 0.46552232 0.3338286
0000e0 a6 12 c3 3d 77 aa b0 3e 8e e2 fc bd 05 0c d4 3e
       0.09525041 0.34505054 -0.123478994 0.4141542
0000f0 a6 79 e7 3e 14 2a d3 3e 83 b5 b9 3e 91 65 bb 3e
       0.45209998 0.4124304 0.36271295 0.36600927
000100 ae ce cd 3e 41 f9 b0 3d 40 30 89 3e 8b 89 7c be
       0.40196747 0.086412914 0.26794624 -0.24661843
000110 13 0b a7 3e 46 e1 8f 3e 6b 60 bd 3e 42 b7 f6 3e
       0.32625636 0.28101557 0.36987624 0.4818669
000120 e5 3f f8 bc 25 80 23 3e c8 c8 a1 bd 5b 25 03 3e
       -0.030303905 0.15966852 -0.07899624 0.12807219
000130 88 87 f0 3e 73 de 34 3d 38 58 42 bd d1 f1 0e 3e
       0.46978402 0.044157457 -0.047447413 0.13959433
000140 6e 93 6a bd 8b 47 30 3d 39 47 95 3d dd a3 71 bd
       -0.057269506 0.04303698 0.07288975 -0.058994163
000150 15 51 c1 3d 7a d6 1d 3f 84 93 1f 3d 14 21 95 3d
       0.09439293 0.6165539 0.03895904 0.072817
000160 48 e4 86 bc ff 9f 59 3d 7d 6e 85 bd a6 0a d3 3d
       -0.016466275 0.0531311 -0.065152146 0.103047654
000170 01 5e 83 bd 3d 28 e6 3d 3e 50 1e 3f 03 4b 2d 3d
       -0.06414414 0.112381436 0.6184119 0.042307865
000180 a8 8e 43 bb f4 df 24 3e 49 1f 37 3c a7 65 42 3d
       -0.0029839668 0.16101056 0.011176893 0.047460224
000190 e0 00 01 3e e6 d6 32 3d 08 82 15 3e 16 15 fb 3e
       0.1259799 0.043661974 0.14600384 0.49039525
0001a0 d5 06 f4 3d 00 9f 1a 3d db 49 18 3e 99 16 8c bc
       0.119153656 0.03774929 0.14871924 -0.01710062
0001b0 54 a7 3f 3b e5 15 1a be 26 59 2f 3d 6d 0e 1f be
       0.0029244022 -0.15047415 0.042809628 -0.15532847
0001c0 df d2 ec be c8 02 00 be 9d d9 70 3d b4 63 a6 be
       -0.46254632 -0.12501061 0.058801282 -0.32497942
0001d0 43 01 1b 3d aa d3 80 bb 02 62 f9 3d b2 22 0e be
       0.037843 -0.0039314823 0.12176897 -0.13880423
0001e0 f4 f5 2e 3d 55 35 a9 bb 07 60 55 be f4 2e 45 3d
       0.042715028 -0.0051638284 -0.20837413 0.04814048
0001f0 81 75 08 3d 48 ec 2e 3e d2 d7 4a 3e 4e 7d 20 3d
       0.033315185 0.17082322 0.19808891 0.039182
000200 4b d0 c3 3d b9 d0 b8 bc e9 e6 6a 3e ed 7c 91 bd
       0.09561213 -0.022560464 0.22939648 -0.07103906
000210 b9 ac 09 3e 08 df 51 be f4 ee 86 bb 34 2e 8b bd
       0.13444795 -0.20495236 -0.004117841 -0.06795922
000220 4f 33 b6 3c d8 89 a7 bd 59 84 29 be e5 d3 64 3d
       0.022241263 -0.081805885 -0.16554393 0.05586614
000230 32 2a 59 bc ff 12 82 3e 0b b4 f5 bd 04 86 2a be
       -0.013254689 0.25405118 -0.11997231 -0.16652685
000240 8d a4 79 bc d4 e2 97 3e d8 be df 3d cf a8 8e 3e
       -0.015236986 0.29665244 0.109250724 0.27863166
000250 0e d3 82 3d 04 83 e2 3d cb 2c bb 3d d5 85 0b 3e
       0.06387912 0.110601455 0.09139403 0.13625272
000260 b9 46 06 bd 3e 6c ca be 94 72 9c 3b cc 50 e6 3d
       -0.03278229 -0.39535707 0.004774401 0.112458795
000270 79 8c 37 be c1 26 e3 be 76 a5 f4 3e 42 2e 4d 3e
       -0.1792468 -0.44365504 0.47782487 0.20037177
000280 84 ca a5 bd 4d 4e ac bb b7 d1 8d bd 92 4b 35 3e
       -0.080952674 -0.0052583576 -0.069247656 0.17704609
000290 e0 4d f0 be ba ac b1 ba ca 41 7b 3e 62 46 77 bf
       -0.46934414 -0.0013555505 0.24536815 -0.9659177
0002a0 b4 d1 2c 3e 23 ae 64 be d5 e6 74 be ad 18 35 3e
       0.1687687 -0.22332053 -0.2391618 0.17685194
0002b0 cc ac e0 3e d4 32 1d be 0d a2 ad 3b 98 29 62 3e
       0.43881834 -0.1535142 0.005298859 0.2208618
0002c0 f5 87 63 bf 9f 6a 55 3e 77 a3 59 be b7 b0 b2 bd
       -0.8887933 0.20841454 -0.21253763 -0.08725112
0002d0 26 0d d6 be 11 d1 9f 3e 3b ac 0c 3e a3 b0 97 3d
       -0.41806906 0.31214193 0.13737576 0.07406738
0002e0 76 10 ca 3e 0e 5b 9c bf b9 89 a8 bd 58 08 c7 be
       0.39465684 -1.2215288 -0.082293935 -0.38873553
0002f0 4b 61 8b be 85 99 00 be 70 aa ee be 65 fb 6e 3b
       -0.27222666 -0.12558563 -0.46614408 0.003646576
000300 9b 79 6c be d4 51 14 bf 83 f9 b1 be e0 29 62 bc
       -0.23093264 -0.5793736 -0.34760675 -0.013803929
000310 41 44 92 3c 8c 15 86 be aa 13 94 be e9 ee 23 bf
       0.017854812 -0.26188314 -0.28921252 -0.6403642
000320 a4 52 d8 be fd 63 26 3a b0 51 90 be a2 d9 84 be
       -0.4225055 0.0006347297 -0.28187323 -0.2594729
000330 c8 91 3d bf 15 84 0b bf cf 8c 18 bf 3d dd e3 be
       -0.7405057 -0.54498416 -0.59589857 -0.4450473
000340 a4 43 0a bf 78 b4 21 bf 27 56 32 bf 33 71 85 be
       -0.5400946 -0.63166 -0.6966271 -0.26062927
000350 2b db 1a bf 0d 29 7c 3e 4e fc c2 be 06 56 1a bf
       -0.60490674 0.24625035 -0.38083118 -0.6028751
000360 19 64 e3 be b5 4b a1 be dc 4d 24 bf 2a 76 a1 bd
       -0.44412306 -0.31503072 -0.64181304 -0.07883866
000370 a3 0f 86 be 61 f6 42 be 85 fd 0d bf 12 a1 60 be
       -0.26183805 -0.19039299 -0.55464965 -0.21936443
000380 ed f1 ba be a6 40 b8 be ec 34 64 3d ab a2 1d 3e
       -0.365127 -0.35986823 0.055714533 0.15394084
000390 25 42 85 3b 7b 85 d4 be 79 48 9e 3e ab 8d 03 be
       0.004066723 -0.41508088 0.30914667 -0.12847011
0003a0 7e c1 4a bd dc 8a 36 3c c9 cb 83 bd a6 6b 89 3e
       -0.049500935 0.011141505 -0.06435353 0.26839942
0003b0 5e 57 1b 3e 8d 85 bf 3c cb 85 68 bc 6e 21 75 3e
       0.15170047 0.023379112 -0.014192055 0.23938534
0003c0 88 df 29 3e a5 80 23 3e 94 e6 65 3e bf 1b 62 3d
       0.16589177 0.15967043 0.2245124 0.055202242
0003d0 de 40 71 3e d6 53 8f 3e 0f 1d 16 3e 4a 8d 7f 3e
       0.23559901 0.2799365 0.14659522 0.24956241
0003e0 16 27 13 3e 4a 83 8d 3c 71 17 2a 3d e4 12 9c 3e
       0.14370379 0.017274518 0.04152626 0.30483162
0003f0 b5 b5 6c bc 76 8e 6f 3e a6 ee 98 3e 29 e7 0a bd
       -0.014447619 0.23394188 0.29869574 -0.033911858

conv0.conv.bias f4 [32]
000000 5f 3f 8e 3a f4 c5 a6 3b ca ab dc 39 06 62 46 3b
       0.0010852626 0.005089516 0.00042089663 0.003027083
000010 fe 9b 91 3a a1 d5 e5 bb 0e 7c 8b 3c 8f 8c 1b bb
       0.0011109111 -0.007013992 0.017026927 -0.0023734902
000020 5a 93 cf bb b0 c5 d1 39 62 63 40 3a da ca b3 bc
       -0.0063347043 0.00040010875 0.0007339028 -0.021947313
000030 cd 0e e4 39 67 e7 c6 3b 3c f3 e9 ba c9 5c 4c bc
       0.00043498576 0.006070066 -0.0017848979 -0.012473294
000040 b8 39 53 3b 08 dd f9 3a c5 3e a3 bb b2 08 8d bb
       0.0032230448 0.0019063065 -0.004981848 -0.004304015
000050 d0 88 4d bb 69 13 c2 3c ce 03 0b 3c 1f b8 19 39
       -0.0031362064 0.023690896 0.008484794 0.00014659807
000060 d9 dc 04 bb d7 8c 89 ba 75 38 af 3a fc c8 bb 3c
       -0.0020273237 -0.0010494244 0.0013368266 0.022922985
000070 75 08 f3 ba 21 40 3f bc 27 7f 01 bb b7 19 38 3b
       -0.0018541949 -0.011673004 -0.0019759627 0.00280915

conv0.bn.weight f4 [32]
000000 70 10 63 3f cc 7c 16 3f 61 e2 04 3f 7c e9 29 3f
       0.88696957 0.58784175 0.51907927 0.66371894
000010 17 d0 27 3f 28 ef f8 3e a8 35 1f 3f ec f2 48 3f
       0.65551895 0.48619962 0.6219125 0.7849567
000020 bb 4a 6d 3f a2 e4 35 3f 6b c1 05 3f e7 43 d5 3e
       0.92692155 0.7105199 0.5224826 0.41653368
000030 01 2a 18 3f 5e 22 77 3f 34 5e 15 3f 95 73 5e 3f
       0.5943909 0.96536815 0.5834687 0.86895114
000040 19 7a 2d 3f c5 39 af 3f be 65 4d 3f c7 a8 2c 3f
       0.6776443 1.3689505 0.8023337 0.67445034
000050 d0 ee 19 3f 8a d0 76 3f 28 56 47 3f bb 8e 05 3f
       0.60130024 0.96411955 0.7786584 0.52170914
000060 3c 9d 49 3f ce 60 3b 3f 1d e4 42 3f 62 b4 33 3f
       0.78755546 0.7319459 0.76129323 0.7019712
000070 db 9d 8c 3f 6b 21 08 3f b3 45 fe 3e 84 66 ee 3e
       1.0985674 0.5317599 0.4966255 0.46562588

conv0.bn.bias f4 [32]
000000 d5 98 26 bf 70 4e 62 bb 9a d0 2e be 48 49 01 bf
       -0.65076953 -0.0034531616 -0.17071763 -0.50502443
000010 1c e3 66 be 55 84 ef bc d7 99 fb 3b c8 09 05 bf
       -0.22547573 -0.029237906 0.0076782512 -0.5196805
000020 0d 80 33 be 8a 39 14 bf 65 31 ce be 13 c4 a3 3e
       -0.17529316 -0.579003 -0.4027206 0.3198553
000030 3d 70 83 be 18 25 ed be ca 07 bc be a2 fe 9f bd
       -0.2567157 -0.46317363 -0.36724693 -0.07812239
000040 ae 17 b8 3c 2b 25 87 be 07 3b af be 78 4c 66 be
       0.022472229 -0.26395544 -0.34224722 -0.22490108
000050 a7 c4 b3 be 98 bb f0 3d bb bb ba be 21 c7 ac be
       -0.3511097 0.11754531 -0.36471352 -0.33745673
000060 c1 73 43 be 66 2b f6 be a8 89 c5 be 0c 96 42 bd
       -0.19087125 -0.48079985 -0.38581586 -0.047506377
000070 d4 f8 05 be b5 b9 40 3f 7e 47 6e be e7 7e 0a 3e
       -0.13083202 0.75283366 -0.2326946 0.13524972

conv0.bn.running_mean f4 [32]
000000 3e ab e6 3e f4 86 e9 3d 0f df 00 be 2e 32 25 be
       0.45052522 0.114026934 -0.1258509 -0.16132423
000010 c1 71 2d be 80 e7 81 bd e8 4c c6 be 44 06 df 3e
       -0.16937925 -0.06342983 -0.3873055 0.43559468
000020 39 3c 9c be d5 b6 47 be 65 15 bf bc f2 8b 99 bc
       -0.30514696 -0.19503339 -0.023325631 -0.018743489
000030 c8 87 5d be 3f 0b 98 bd 1c 5c 0f 3e b5 bd d7 3e
       -0.21633828 -0.0742402 0.1399998 0.42136922
000040 ab 20 97 3e 85 7f 84 be 96 b0 62 be 65 cc 28 bd
       0.2951711 -0.2587854 -0.22137675 -0.04121055
000050 13 4b 65 3d e5 c2 60 bd 98 44 74 be 77 09 97 3e
       0.0559798 -0.054873366 -0.23854291 0.2949941
000060 ae 0d 32 be 93 cb 03 be 46 59 57 bd 44 57 d1 bd
       -0.17388031 -0.12870626 -0.052575372 -0.10221723
000070 03 02 b7 3e ae ee 69 3e 26 e2 c6 bd 2a 99 d0 3e
       0.35743722 0.22844955 -0.09711103 0.40741855

conv0.bn.running_var f4 [32]
000000 c0 91 45 3e ad de 88 3e bd 9b b8 3e 15 e7 9f 3e
       0.1929388 0.26732388 0.3605632 0.3123099
000010 28 c0 9a 3e 79 94 8c 3e 33 77 ec 3e e2 67 4c 3e
       0.3022473 0.27457026 0.46184692 0.19961503
000020 47 6b c7 3e 94 c9 8a 3e 64 34 67 3e 02 cf 87 3e
       0.38949034 0.27106917 0.22578579 0.26525122
000030 6e 9e 8e 3e bc db 47 3e a1 fb 84 3e 32 d0 70 3e
       0.27855247 0.19517416 0.25973228 0.2351692
000040 74 05 49 3e cf c7 92 3e 19 1b 99 3e df 1f 88 3e
       0.19630986 0.28668067 0.29903486 0.26586816
000050 06 59 b4 3e 36 51 91 3e 37 f1 69 3e b6 a3 7b 3e
       0.3522417 0.28382272 0.22845922 0.2457417
000060 e1 66 6e 3e 01 33 91 3e 12 70 7f 3e 07 51 5b 3e
       0.23281433 0.28359225 0.24945095 0.21417628
000070 3d c6 82 3e 87 ff 50 3e ee d9 81 3e 14 3f 96 3e
       0.2554187 0.20409976 0.2536158 0.29345

blocks.0.conv.weight f4 [32, 32, 3, 3]
000000 3f f2 97 3e 1a 30 26 be 2c d2 b9 3e 38 cd aa be
       0.29677007 -0.16229287 0.3629316 -0.33359694
000010 f8 27 4a 3e bd 95 24 be f8 fc 92 3e c2 54 52 be
       0.1974181 -0.16072746 0.28708625 -0.20540145
000020 9c 40 ac 3e f2 d4 58 3d 32 6e f7 3d 9e 64 bb be
       0.33643043 0.052937455 0.12081565 -0.36600202
000030 6c e6 62 be 7b 8f 1d be 92 91 db 3d f6 1c c7 3c
       -0.22158211 -0.15386765 0.10721125 0.024305802
000040 88 b9 21 be 0a c4 9a be 03 47 2a 3e 55 2b c7 be
       -0.15793431 -0.3022769 0.16628651 -0.38900247
000050 f6 ec 4b bd 9f 7b ed 3d 55 85 40 be 5e c3 0b 3e
       -0.04978653 0.115958445 -0.18800862 0.13648745
000060 1b 98 29 3e ee f7 f3 bd 24 81 74 bc b8 d8 7c 3d
       0.1656193 -0.11912523 -0.014923368 0.061730117
000070 0b c4 a1 3d 24 43 96 3d 4c c1 d1 3d aa 61 aa 3e
       0.0789872 0.07337025 0.102419466 0.33277637
000080 83 00 30 3e 42 e4 1c be 69 9e b5 be f0 96 f9 3d
       0.17187695 -0.15321448 -0.3547242 0.12186992
000090 31 65 78 3c f5 f4 9e 3d ae 44 fa bd d6 30 81 bd
       0.015160845 0.077615656 -0.12220131 -0.06308143
0000a0 72 a3 3d 3e 73 2c 65 be f1 db 48 bd 5d 56 68 3e
       0.1851938 -0.22380237 -0.049037877 0.22689195
0000b0 2b 7a a4 bc c9 f1 52 bd 29 db 00 be e1 ef 27 3e
       -0.020077785 -0.051500116 -0.12583603 0.164001
0000c0 15 fe 82 3d 74 00 22 bd 23 11 87 3e f3 4a 61 3e
       0.063961186 -0.039551213 0.26380262 0.22001247
0000d0 89 4a 80 3e f2 32 d3 3d 6d 5a 93 3e b7 50 d7 3c
       0.25056866 0.103124514 0.28779927 0.026283605
0000e0 5a 51 69 bd 76 4d f4 bc 5d 83 2a 3e 9b 05 01 be
       -0.05696235 -0.029822093 0.16651674 -0.12599795
0000f0 73 e1 d9 3d 25 58 b3 3d 5d 4c 9a be b5 9b 92 3e
       0.10638704 0.087570466 -0.30136386 0.2863442
000100 4a f5 12 3f 6f b4 0f 3f d3 2c cc bd c2 bf fe 3e
       0.5740553 0.56134695 -0.09969487 0.49755675
000110 b6 e2 95 3d 63 46 bf 3e 3a ad 16 3e 86 1b b4 3e
       0.07318632 0.37358388 0.14714518 0.3517725
000120 16 22 7b 3e 8a b5 02 bf ab 87 2d 3e 6c ac b3 bc
       0.24524722 -0.51058257 0.16946284 -0.021932803
000130 1f 45 ed 3e da 67 6d 3e e4 03 a0 3d 44 7c de 3e
       0.46341798 0.23184147 0.07813242 0.43454182
000140 f6 4e 6a be 69 8e c9 bc 65 4a 17 be 29 14 80 be
       -0.22881684 -0.02460404 -0.14774473 -0.2501538
000150 b0 d7 b8 bd dd 9e a4 3e 50 80 55 be eb f3 91 3e
       -0.09025514 0.32152453 -0.20849729 0.28506407
000160 8e bf 5b be c0 c7 07 be e4 d3 04 3c c5 0b 51 3e
       -0.21459791 -0.13259792 0.008107159 0.20414646
000170 cd 16 5e be 71 8c 45 be 27 a5 99 3e 54 71 cc 3d
       -0.21688385 -0.19291855 0.30008814 0.09982553
000180 24 d7 1b 3e 39 bd 20 3e 70 13 e9 3d d7 e1 e9 3d
       0.15218788 0.15697183 0.113806605 0.11420029
000190 2a a4 b5 bd e7 b4 b9 3e 75 42 09 bf 1f dc 10 bd
       -0.088692024 0.3627083 -0.5361703 -0.035366174
0001a0 61 d7 b4 3d 9a f6 e9 3d e4 37 ab bd 98 0d 17 3d
       0.08830143 0.11423989 -0.0836027 0.0368782
0001b0 7d c1 83 be b1 34 49 be 4c 83 8a 3e 12 21 2a 3e
       -0.25733557 -0.19649006 0.27053297 0.16614178
0001c0 d3 ac 1d 3e f8 ba d7 3d bc 5b cc bd 90 6d 00 3f
       0.15397958 0.10533708 -0.099784344 0.5016718
0001d0 0f c8 e7 bc ee d3 43 be dd d5 bb be f2 87 70 be
       -0.028293638 -0.19123814 -0.36686602 -0.23489359
0001e0 3b 8e ed 3b 33 ea 05 bf 43 8e 80 be a7 ae 43 bd
       0.007249621 -0.52310485 -0.25108537 -0.047773983
0001f0 e8 62 90 be da 1c 0d 3d 3c ba be be a8 98 bc 3d
       -0.2820046 0.034451343 -0.3725146 0.09208804
000200 d1 10 d5 be 37 8c 7f 3e 3b 85 e9 bd d5 ec 51 bd
       -0.41614392 0.24955831 -0.11402365 -0.05125125
000210 f8 42 a2 bd c9 b2 74 be d5 76 ee 3d c5 4f 87 3e
       -0.079229295 -0.23896326 0.11643759 0.26428047
000220 f3 d6 5d 3e 93 32 87 3e 96 37 57 3e f6 2a 4d 3d
       0.21664028 0.26405773 0.21017298 0.0500898
000230 be fc a1 bd e9 a7 1c bc 78 75 da 3d 11 32 93 3e
       -0.07909535 -0.009561517 0.10666937 0.28749135
000240 20 e3 2e be 7a 63 89 3d ce 88 7b 3e a0 26 a5 3d
       -0.17078829 0.06708427 0.24563906 0.08064008
000250 c8 93 64 be ae d1 cd 3d 47 a4 2d be 24 3d 11 3e
       -0.22321999 0.10049759 -0.16957198 0.1418348
000260 88 91 ab 3d a2 d1 de bd 82 c0 a9 3e d9 a0 08 3e
       0.08377367 -0.10879828 0.33154684 0.13342609
000270 5d ad 8e 3e 79 8a fa bf 1c d2 c0 3e 93 b8 c7 3e
       0.2786664 -1.9573509 0.376603 0.39008006
000280 ab 33 e5 3d 92 7f c7 3d 3c 91 87 3d 25 37 bf be
       0.111914955 0.09741129 0.06619498 -0.3734676
000290 c7 82 aa 3e e8 82 c5 3e b6 69 dd be 4a a0 ef bd
       0.333029 0.38576436 -0.43244714 -0.117004946
0002a0 96 12 14 bf 57 e1 fb 3d ad bc 1b 3e 9c 7d aa 3d
       -0.5784086 0.122988395 0.15208693 0.08324739
0002b0 06 66 ef bd 8c 14 a8 be 30 47 0e be 74 d1 ff bd
       -0.11689381 -0.32828176 -0.13894343 -0.12491122
0002c0 b7 35 3a 3d 97 9d bd 3c 9a 24 b3 be a8 9b 40 bd
       0.045461383 0.023146434 -0.34988862 -0.047023445
0002d0 f5 d9 99 bd 72 38 ab 3b 08 12 59 3e 4b 37 c1 bb
       -0.07512275 0.0052252347 0.21198285 -0.005896484
0002e0 8f 14 b1 be 54 ec 01 bd 3f 63 f8 bd 11 5a 92 bd
       -0.34585997 -0.03171952 -0.12128305 -0.07146085
0002f0 d2 fd 6a be d4 f8 ce 3d 85 9a 7d 3e 7f d1 7a bc
       -0.22948387 0.10106054 0.24765976 -0.015308737
000300 f0 5e 4c 3e 0b fb 8d be c4 36 9f 3e f6 c1 a1 3e
       0.19958091 -0.27730593 0.3109647 0.31593293
000310 20 79 e8 3e 84 80 3c 3e 6f 73 87 bd 99 73 89 3e
       0.4540491 0.184084 -0.06613814 0.26846007
000320 59 58 e6 3c b6 05 c2 be 7d fb e5 3e 80 14 8a 3d
       0.0281183 -0.37894982 0.44918433 0.06742191
000330 39 c7 b7 3d e3 e3 2c bf 52 f1 1a 3d f4 a6 c0 3d
       0.089735456 -0.6753523 0.037827797 0.09406844
000340 6d 1a 00 3e b0 fe 37 3e 02 74 3c be 41 43 1f be
       0.1251008 0.1796825 -0.18403628 -0.15552999
000350 72 96 11 3e 6e dd fe bd f9 78 bc 3d 91 29 b2 3d
       0.14217547 -0.12444578 0.09202761 0.086993344
000360 e6 1e e0 3d ab 92 85 ba 3c 52 1a 3e 29 03 69 3e
       0.109433934 -0.0010190805 0.15070432 0.22755112
000370 8c 10 46 3e 1f f0 7f 3c 39 87 7c 3d b3 cd 8a 3d
       0.1934225 0.015621214 0.061652396 0.06777515
000380 74 77 3e 3d 15 f9 b4 bd 2a e3 57 be d1 55 51 3e
       0.046500638 -0.08836571 -0.2108275 0.20442893
000390 6d 39 23 3b d9 f9 17 3d 4a c1 b9 be 94 ff 13 bf
       0.0024906055 0.037103508 -0.3628028 -0.57811856
0003a0 2a 86 cf be 2f 56 5a 3e af 42 b5 3c c3 ba 35 3d
       -0.40532047 0.21321939 0.022126524 0.044367563
0003b0 a7 ca 11 3e 54 59 05 be d5 53 97 be d1 31 3c 3d
       0.14237462 -0.13022357 -0.29556146 0.045945946
0003c0 29 cf 62 3d 76 94 f8 3e 36 3a 2e be 5e 0a 2c 3e
       0.055373345 0.48550767 -0.17014393 0.1680083
0003d0 14 6f a3 be 49 60 13 be eb 84 dd 3d c8 02 b5 be
       -0.31920683 -0.14392199 0.10816368 -0.35353684
0003e0 6e 37 b2 bc cf 84 ca 3d 11 0e a3 3d 5f 70 93 3d
       -0.021754947 0.098886125 0.07961667 0.071991675
0003f0 fe 8a 8b 3d be 1e 25 be 54 09 b2 3d 23 ab 82 be
       0.0681362 -0.16125008 0.086931854 -0.25521192

blocks.0.conv.bias f4 [32]
000000 d8 2e f9 b9 24 c2 b2 b9 79 fa ca 3a 9c 5e c0 b9
       -0.00047527882 -0.00034095452 0.0015486024 -0.00036691583
000010 3a 1f 9a bc db 2c 95 bb 77 02 37 bb a5 f2 ca 3b
       -0.018813718 -0.0045524663 -0.0027925053 0.0061934763
000020 5a 8f a5 b5 85 4e b3 bb 72 b3 e9 39 b8 aa 1e bc
       -1.2335179e-06 -0.0054720067 0.0004457492 -0.009684257
000030 d7 b3 32 3c 17 df 8e ba 56 47 97 39 91 8e cc b9
       0.010907135 -0.0010900226 0.00028854114 -0.00039016132
000040 cb e3 0d 3c a6 42 15 bb 75 1f 33 39 7b d3 3b 3a
       0.008660267 -0.0022775321 0.00017082489 0.0007164997
000050 b2 d9 cd 3a a8 79 9d 3c 8f fa 9c ba ea 83 90 b9
       0.0015705137 0.01922305 -0.0011976528 -0.00027564104
000060 37 41 ba bb a4 17 aa bb f6 43 4b 37 ef d3 05 ba
       -0.0056840437 -0.0051908065 1.2115566e-05 -0.0005105128
000070 4d ee d2 39 56 87 02 b9 64 8f 54 3a 44 a3 0d 3b
       0.0004023187 -0.00012448183 0.0008108525 0.0021612206

blocks.0.bn.weight f4 [32]
000000 e7 04 4d 3f 25 75 4d 3f 89 31 2f 3f 4d 0b 82 3f
       0.80085605 0.80256873 0.6843496 1.0159699
000010 90 81 8b 3f 32 88 32 3f 15 af 1f 3f d6 2b 61 3f
       1.0898914 0.6973907 0.6237653 0.87957513
000020 03 fa 4f 3f 1c 3c 86 3f 0f 3a 63 3f 4b 6c 7e 3f
       0.8124086 1.0487094 0.88760465 0.9938399
000030 cd 31 62 3f bd cb 5c 3f c7 13 3e 3f 61 85 4a 3f
       0.8835724 0.8624838 0.7424893 0.7910977
000040 37 d5 85 3f f8 2f 87 3f 2e 08 44 3f ab 25 82 3f
       1.0455693 1.0561514 0.7657498 1.0167745
000050 10 f3 4d 3f 1a 8b 2a 3f e3 8f 6d 3f cf 40 7a 3f
       0.8044901 0.666185 0.9279768 0.9775514
000060 3d 16 5e 3f 87 86 63 3f 55 81 77 3f 97 42 97 3f
       0.8675268 0.8887715 0.9668172 1.1817197
000070 e7 f0 2c 3f 3d 11 16 3f 83 43 18 3f 22 12 85 3f
       0.6755509 0.58620054 0.59478015 1.0396159

blocks.0.bn.bias f4 [32]
000000 3a ee 29 bf d5 9e f1 be de df 07 3e 7e 5f 4a be
       -0.6637913 -0.47191492 0.13268992 -0.1976299
000010 cd a9 b1 be 54 73 19 be 2e b9 85 be 06 7e 9d be
       -0.3469986 -0.149854 -0.26117843 -0.3076021
000020 f3 f1 e6 be cf ef 4a be f1 1e 06 bf 96 06 1b bf
       -0.45106468 -0.19818042 -0.5239096 -0.60556924
000030 db d1 f0 be e4 93 0f bf 46 0b 4b be 21 b3 2d bf
       -0.47035107 -0.5608504 -0.19828519 -0.67851454
000040 53 67 b6 be 42 92 b0 be 59 0f 8f be 83 97 2d bf
       -0.35625705 -0.34486586 -0.27941397 -0.67809314
000050 93 47 14 bf a3 16 8e be 65 b5 79 bf 96 fb aa be
       -0.57921714 -0.27751645 -0.9754241 -0.3339507
000060 15 9a 22 bb 2a 19 e1 be 79 cd 19 bf b0 fb 36 bf
       -0.0024811078 -0.4396451 -0.6007915 -0.71477795
000070 c8 c8 08 bf 11 d8 81 be 0e 75 32 3d 14 37 4f bf
       -0.5343137 -0.25360158 0.043568663 -0.8094342

blocks.0.bn.running_mean f4 [32]
000000 f7 71 95 3f fa 9b 8d c0 e4 9b 50 40 ce fd 94 3f
       1.1675404 -4.42529 3.2595148 1.1639955
000010 39 9a 19 c0 68 1e b1 c0 7c 62 60 c0 e2 06 1c c0
       -2.400038 -5.5349617 -3.506011 -2.43792
000020 6b 5d 82 3f 18 5c fd bf a5 58 06 c0 72 fc 24 c0
       1.0184759 -1.979373 -2.0991604 -2.577908
000030 cd 0c 5a c0 f4 dc 7d 3f b8 00 12 40 1f 74 a4 bf
       -3.4070313 0.9916527 2.2812939 -1.2847937
000040 3d 0c 6d bf 94 cb c9 bf c5 da 56 40 51 a8 a9 bf
       -0.925968 -1.5765252 3.3571026 -1.3254491
000050 84 f2 91 3f d9 19 20 c0 fc 0b b7 bf 19 00 3a 3f
       1.1402135 -2.5015776 -1.4300532 0.726564
000060 d3 13 8f bf 26 b2 b0 bf 92 0e 92 3e 61 c3 53 be
       -1.1177925 -1.3804367 0.2852674 -0.2068
000070 45 e2 82 c0 29 2d 9a 3f cf 12 e6 3e ca 81 89 c0
       -4.090121 1.2045032 0.44936225 -4.2970934

blocks.0.bn.running_var f4 [32]
000000 1b 08 6e 40 81 4d ab 40 e8 2b fe 40 88 a1 ab 40
       3.7192447 5.353211 7.9428596 5.363468
000010 2d d9 37 41 35 24 23 41 40 28 ba 40 e9 7d 87 40
       11.490521 10.19634 5.8174133 4.23412
000020 e7 43 99 40 9e ef 7e 40 c2 bf 88 40 d9 53 e5 40
       4.789539 3.983375 4.273408 7.1664853
000030 9c 66 93 40 45 f1 9c 40 13 ce b4 40 38 0f 88 40
       4.6062756 4.904452 5.6501555 4.2518578
000040 90 e2 95 40 a3 73 25 41 c4 f9 80 40 23 56 92 40
       4.6839066 10.340732 4.030489 4.5730147
000050 58 05 88 40 5b 5e 00 41 4e fa 8c 40 8a e1 9d 40
       4.2506523 8.023036 4.405555 4.9337816
000060 8a fc 29 41 bf d9 92 40 b2 72 95 40 d7 48 c3 40
       10.624155 4.5890803 4.670251 6.1026416
000070 67 93 03 41 33 6e a6 40 85 c4 c9 40 ad 2f b6 40
       8.223487 5.200952 6.305239 5.69332

blocks.1.conv.weight f4 [32, 32, 3, 3]
000000 74 e5 4d 3e 5e 57 72 3d 19 6d 00 3e 75 d9 e4 be
       0.2010706 0.05916535 0.12541617 -0.44697157
000010 99 ea 96 3e f7 4c 3d be 77 1c 53 3e 6b 5a 0e bf
       0.2947586 -0.18486391 0.20616327 -0.55606717
000020 c7 3d 86 3e 0e 28 07 bc bb f1 ce 3e 24 0b 02 be
       0.26219007 -0.008249296 0.404188 -0.12699562
000030 12 30 3e bd c7 19 95 3d 54 78 ba bd 01 1f 68 be
       -0.046432562 0.07280307 -0.09104982 -0.22668077
000040 51 14 d1 3e e5 bd b0 bd 5f fb fd bb d0 6a 2f be
       0.40835813 -0.086299695 -0.007750913 -0.1713059
000050 79 17 3c 3e 75 da 6b be 11 b7 35 bf 33 33 8b bc
       0.18368329 -0.23032553 -0.7098246 -0.016992187
000060 7f 15 9c bd 70 2d 46 3e 24 67 95 3e 2d 51 c9 3e
       -0.076212876 0.1935327 0.29180253 0.39319745
000070 0b 3b 40 be de 3e 46 3e ad 3f 43 bd 7f d3 f9 3e
       -0.18772523 0.1935992 -0.047668148 0.4879417
000080 0f b1 7f be 3c a0 f5 bd a6 1b 26 bf d8 5f 57 be
       -0.24969886 -0.11993453 -0.6488594 -0.21032655
000090 73 96 4f 3e 1f f0 8d 3e db 39 e2 be f5 69 a9 3d
       0.20272236 0.2772226 -0.44184765 0.08272163
0000a0 e0 cf 1a be 2a a5 a2 be a7 3a 58 3d 53 69 b7 bb
       -0.1511836 -0.31766635 0.05279031 -0.0055972724
0000b0 90 d7 8d be 2e fb c6 be a3 59 f7 3c 2a 81 9b 3e
       -0.27703524 -0.3886351 0.03019411 0.30371982
0000c0 ce 55 bb 3d 2a c2 74 3e 17 43 8e 3e ad 0e ba 3d
       0.09147225 0.23902193 0.2778556 0.090848304
0000d0 19 ac cc 3b a1 84 b4 3e bd 8f 0b bd 01 e3 28 3d
       0.0062461016 0.35257438 -0.034072626 0.041232113
0000e0 bc 7c e1 be 56 8a db bd 3b 2a 51 bd c3 1e 34 be
       -0.44040477 -0.10719745 -0.051065665 -0.1758986
0000f0 e6 fd 4a 3d 23 c7 4e 3e 2c 29 f5 bd 2f 83 87 bd
       0.049558543 0.20193152 -0.119707435 -0.06616818
000100 ad 11 3b bf 97 1b 4b 3e 1b 25 88 bd 8e 0f 52 3e
       -0.73073846 0.19834743 -0.06647702 0.20513746
000110 c4 a1 c3 be a4 70 a3 bc fc d3 ac be e9 ed 1d 3e
       -0.38209355 -0.019951172 -0.3375548 0.15422787
000120 c1 8e a0 3d 0e 90 a4 bd d9 24 15 be eb 09 1f bd
       0.07839728 -0.08035289 -0.14564838 -0.038827818
000130 79 d7 54 bc 1c 13 cb bd 6c 30 c3 3c 73 36 fa bc
       -0.012990826 -0.09915754 0.0238268 -0.030543542
000140 56 3f 7d 3e 69 ea 28 bd 55 e8 ee bd 52 db b6 be
       0.24731192 -0.041239176 -0.116654076 -0.35714203
000150 9e 51 0d 3f 88 51 10 3e 97 d6 89 be e2 97 d6 3d
       0.5520266 0.14093602 -0.26921532 0.10478188
000160 77 8c 28 bd 52 d4 b9 3d 23 4f 84 3d 43 ae 9a bd
       -0.041149583 0.090737 0.06460407 -0.07552769
000170 c5 f0 7e 3d 36 26 57 3d 20 93 50 be 11 2c 0d 3e
       0.062241334 0.052526675 -0.20368624 0.13786341
000180 c4 25 81 3e 3a 30 45 3d a0 f1 b6 be 1a be 96 3e
       0.25224125 0.048141696 -0.3573122 0.2944191
000190 ab ac ee bc 92 04 5c 3e 55 14 c3 bd 6d ab 5c 3e
       -0.029135069 0.21486118 -0.095253624 0.21549769
0001a0 09 73 b4 3c f7 d0 f1 bd f0 d3 e9 be a0 12 93 3d
       0.02202751 -0.11807435 -0.45669508 0.07181287
0001b0 b9 7a 4f be 90 e6 66 3e 4e a7 78 bd ef d8 0c be
       -0.20261659 0.2254889 -0.06070643 -0.13754629
0001c0 fa b1 8c 3e 61 3d fb 3d 24 14 17 be f3 a3 44 3d
       0.27479535 0.122675665 -0.14753777 0.048007917
0001d0 f0 5c 4b 3e 0c 16 33 be c5 07 a1 be d3 05 8f be
       0.19859672 -0.17488879 -0.3145124 -0.2793413
0001e0 c2 93 44 be f1 c4 1b bf 14 0a e2 3d 11 52 9a bd
       -0.1919699 -0.60847384 0.110370785 -0.07535184
0001f0 5c ec 13 3e 15 d4 09 3e 3c f7 83 3e 90 52 30 be
       0.14445633 0.13459809 0.25774562 -0.17218995
000200 9c e2 0c 3c 12 54 06 3e 3e 10 d3 be 64 e5 a4 3e
       0.00859895 0.13118008 -0.4122333 0.3220626
000210 44 dd 46 be c9 4c 80 be de d3 0d 3e ae ef 14 be
       -0.19420344 -0.25058582 0.13850352 -0.14544556
000220 95 2c 6b 3e 0a 52 8f 3e 7e 69 91 be e4 5f 41 3e
       0.22966225 0.27992278 -0.28400797 0.18884236
000230 9e c4 98 ba 7a 03 54 be 81 c0 7a be 74 21 4c 3e
       -0.0011655276 -0.20704451 -0.24487497 0.19934636
000240 36 10 58 3e 82 79 11 bf 2c 67 38 3e e6 58 04 be
       0.21099934 -0.5682603 0.18008107 -0.12924537
000250 ab 37 d2 be 23 c4 86 bd e2 d3 71 be 17 c9 1c 3e
       -0.41058096 -0.06580379 -0.23615983 0.15311085
000260 5b 45 89 be c7 73 16 3e f2 28 ad bd ee 35 85 be
       -0.26810727 0.14692603 -0.08455075 -0.26017708
000270 d5 ac f3 be ad b0 8c bf 02 d5 47 bd 6a e4 a2 3d
       -0.47592798 -1.0991417 -0.048787124 0.07953723
000280 9c 33 c5 be 41 ad 7a be 00 2b 44 3e b5 e6 af 3e
       -0.38515937 -0.24480154 0.19157028 0.34355703
000290 7e eb 2c be f6 78 db 3d 6f 12 65 3e c8 36 3c 3e
       -0.16886708 0.10716431 0.22370313 0.18380272
0002a0 8b c3 7c bd fb 60 23 3e 95 b7 0a bd 46 44 e1 bd
       -0.06170992 0.15954964 -0.033866484 -0.1099935
0002b0 45 5d 2a 3d 19 d8 5e be e0 f2 7e bd f4 bd 2c 3e
       0.041592855 -0.21762122 -0.062243342 0.16869336
0002c0 ca b8 50 3e 6a fa cf be e9 8c a0 be 0e bf 46 bf
       0.20382991 -0.40620738 -0.31357506 -0.77635276
0002d0 69 63 8d bc 7a 62 e7 be 17 de 2f 3d 5d 24 78 bd
       -0.017259317 -0.4519232 0.04293641 -0.060581554
0002e0 a9 9f 3e be 77 a8 d5 3e f3 1f 10 be a4 4b 30 bd
       -0.18615593 0.4173009 -0.14074688 -0.043040887
0002f0 22 3d 24 3e 92 88 05 be 21 70 cc 3c 53 aa 30 be
       0.16038945 -0.13040379 0.024955811 -0.17252474
000300 b3 20 6b bb f0 30 ec be 2b 8c 6e bc 54 43 ce bc
       -0.0035877645 -0.46131086 -0.014559786 -0.025178589
000310 d3 47 89 3c 44 0b 79 be 87 de 0c be 2d c5 85 be
       0.016757881 -0.24320704 -0.13756762 -0.26126996
000320 8b dc c1 3e c7 27 b4 3d 81 12 df bd da 4e e0 be
       0.37863573 0.087966494 -0.10892201 -0.4381016
000330 50 14 17 be 50 bd 23 be f9 16 76 be 2b db 7d be
       -0.14753842 -0.15990186 -0.24032201 -0.24790637
000340 e3 fe fd bd f7 60 3f 3e 10 d3 29 bf 19 d9 1e bf
       -0.124021314 0.18689333 -0.6633768 -0.62050015
000350 78 20 b3 3d 1d ee ea bc fb 01 ba be 67 6a a3 be
       0.08746427 -0.028677994 -0.36329636 -0.31917116
000360 ef 00 57 3e 51 01 f1 bd c1 b4 cf be 9f 8c 20 bc
       0.2099645 -0.11767829 -0.40567592 -0.009799152
000370 8c 3c 4a be 95 24 e6 be 97 6f 6f bd b0 e5 c4 3d
       -0.1974966 -0.44949785 -0.05845603 0.09614122
000380 a0 1e e4 be bc 01 6b bc 14 2b 3b 3d 11 35 78 bd
       -0.44554615 -0.014343675 0.04569538 -0.060597483
000390 26 42 41 be e7 30 4f 3b 61 ad 2c bd 26 0d eb be
       -0.1887289 0.0031614841 -0.042157535 -0.4590847
0003a0 3f ba ef 3d 91 eb 27 3e 09 8f 5d 3e 2a bd 83 3e
       0.117054455 0.16398455 0.21636595 0.25730258
0003b0 4d 75 d5 3e bb 23 01 be 89 19 f0 be dc 4b 69 be
       0.41691056 -0.12611286 -0.46894482 -0.22782844
0003c0 a8 bd 71 be d3 5f 7a 3d 95 7f 9c be 42 30 80 3e
       -0.23607504 0.06112654 -0.30566087 0.25036818
0003d0 24 64 f9 bd 19 10 d8 bd 54 ac 7e be 2d 59 ad be
       -0.121773034 -0.105499454 -0.24870425 -0.33857098
0003e0 c6 4f 9b 3e d4 8b f2 3d ba 86 1b be b4 a9 fa 3d
       0.303343 0.11843076 -0.15188113 0.122393996
0003f0 2e 6c fd bd 7f 79 e2 bd 44 83 84 3e e7 50 0e bf
       -0.12374149 -0.1105833 0.25881398 -0.555922

blocks.1.conv.bias f4 [32]
000000 6d 63 dd bb 28 d3 d3 b8 e9 af 60 ba 9a 60 25 bb
       -0.0067562372 -0.00010100595 -0.00085711345 -0.002523458
000010 dd c3 2b bb 2d 15 21 3c 49 43 1e ba 58 47 de b9
       -0.0026209273 0.009831709 -0.0006037248 -0.00042396295
000020 a0 cc d0 3b c1 46 82 3a c1 9f f1 39 fe ae 1c 39
       0.0063720495 0.0009939299 0.00046086128 0.00014942509
000030 60 e1 c0 3b dd 7f 90 ba 02 ff a5 3b d5 3c e4 b9
       0.005886242 -0.0011024434 0.0050657997 -0.00043532872
000040 b7 e6 ff 38 5c 8d 51 38 13 7f 06 ba 74 df 1d 3c
       0.000122023215 4.9961134e-05 -0.000513063 0.009635795
000050 33 d9 ac ba cd a4 e5 bb 47 5d 2b b9 15 45 83 b9
       -0.0013187289 -0.007008171 -0.0001634258 -0.00025037737
000060 2b 08 34 3b 17 0f 25 bc 1a 78 d2 3a 89 41 a2 bb
       0.0027470689 -0.0100743985 0.0016057522 -0.00495166
000070 b3 4c c6 ba bd 2f c8 38 d3 e4 07 ba 63 e7 25 3a
       -0.0015129059 9.545635e-05 -0.0005183939 0.000632873

blocks.1.bn.weight f4 [32]
000000 7e 07 2a 3f d9 a0 6e 3f 47 ca 16 3f 12 bd 71 3f
       0.6641768 0.93214184 0.589024 0.94429123
000010 2c c3 85 3f 98 af 38 3f 1c ed 27 3f 01 e1 38 3f
       1.0450187 0.72142935 0.65596175 0.7221833
000020 18 24 85 3f b1 f8 5f 3f 73 40 5f 3f 2f 23 6f 3f
       1.040164 0.8748885 0.87207717 0.9341306
000030 9e fc 97 3f c2 67 74 3f 88 88 85 3f 82 f9 85 3f
       1.1873968 0.9547082 1.0432291 1.0466769
000040 7a 54 91 3f 31 c6 51 3f 74 ff 78 3f cd ef 66 3f
       1.1353905 0.8194304 0.9726479 0.90209657
000050 83 30 84 3f 77 e3 64 3f 42 c6 9e 3f 31 6d 95 3f
       1.0327305 0.89409584 1.2404253 1.1673948
000060 5f b9 45 3f b4 8e 98 3f 58 e5 8c 3f ad 32 59 3f
       0.7723598 1.191855 1.100749 0.8484295
000070 2e 82 41 3f 35 b8 47 3f 3d d2 10 3f e5 c7 8b 3f
       0.75589263 0.7801545 0.565708 1.0920378

blocks.1.bn.bias f4 [32]
000000 fa fc 7e be 22 cb 02 bf 16 36 b5 3d 73 a1 dd be
       -0.2490119 -0.51091206 0.08848207 -0.43287238
000010 0d ea 2c be 67 c0 4b be 94 99 de be c7 a9 16 bf
       -0.16886158 -0.19897614 -0.43476546 -0.5885281
000020 48 d0 0b bf 0d 6c c9 be 7c 86 1b bf de 65 19 bf
       -0.54614687 -0.3934025 -0.6075208 -0.5992106
000030 da 8e 12 bf 7d 26 b0 be 9d d0 b9 be 68 88 c5 be
       -0.57249224 -0.34404364 -0.36291972 -0.38580632
000040 2e d1 1c bf 77 0b dd be 29 c9 b7 be 4d a2 01 bf
       -0.6125668 -0.4317281 -0.3589566 -0.50638276
000050 81 d1 37 bf ee 6d bf be 10 71 47 bf 93 bc 1c be
       -0.7180405 -0.37388557 -0.77906895 -0.1530631
000060 7a e8 53 bf 5a f5 ae bd 00 7c b0 be 1f 44 cd be
       -0.82776606 -0.08542891 -0.34469604 -0.40091035
000070 db 25 8b be 46 94 13 bf 86 bc 08 be 3a c6 ee be
       -0.2717732 -0.5764812 -0.13353166 -0.4663561

blocks.1.bn.running_mean f4 [32]
000000 a5 37 b2 c0 15 13 80 c0 49 33 d8 be 73 78 c3 bf
       -5.5692925 -4.0023293 -0.42226627 -1.5271133
000010 e4 fb 6c c0 1b e7 43 be e4 d3 1e 40 ef 9b 07 c0
       -3.7028742 -0.19131128 2.4816828 -2.1188924
000020 69 5c 8a c0 23 ac 66 be 75 7f 9b bf e3 ef 82 3f
       -4.3237805 -0.22526602 -1.2148272 1.0229458
000030 91 b8 9d bf da fd dc 3f cf b6 0d c0 3d dd 7d c0
       -1.232195 1.7264969 -2.2142828 -3.9666283
000040 1f 48 05 c0 57 56 b3 bd 89 80 ea bf 33 ec 77 c0
       -2.082527 -0.087567024 -1.8320476 -3.8737915
000050 09 79 ea bf 21 5c 44 c0 fc f6 31 c0 e9 87 a1 bf
       -1.8318187 -3.068123 -2.7806997 -1.2619601
000060 ad b1 3c c0 f6 a9 f6 3e 48 f5 40 bf d2 e3 55 c0
       -2.9483445 0.48176545 -0.7537427 -3.34203
000070 15 15 40 40 b9 a6 26 c0 64 9b 99 3d 8a 1e e2 bf
       3.0012867 -2.603926 0.075003415 -1.766557

blocks.1.bn.running_var f4 [32]
000000 94 6d 1f 41 cd f1 13 41 c3 d1 35 41 92 e4 0f 41
       9.964252 9.246533 11.363711 8.993303
000010 20 2d e5 41 84 56 76 41 04 c2 28 41 2b b8 ee 40
       28.647034 15.396122 10.547367 7.4599814
000020 8a ae 84 41 c0 1d f3 40 01 da 2e 41 52 76 f5 40
       16.585224 7.5973816 10.928224 7.6706934
000030 bf 00 44 41 36 87 3e 41 e5 a2 9d 41 75 dd 1e 41
       12.250182 11.9080105 19.704538 9.929067
000040 d0 0e 2b 41 c1 96 68 41 7b 90 2e 41 26 32 37 41
       10.691116 14.536805 10.910274 11.449743
000050 98 72 1f 41 ef 95 53 41 92 51 35 41 61 7c 6d 41
       9.965477 13.224105 11.332415 14.842866
000060 21 9d 19 41 63 50 f9 40 e0 b7 1f 41 b6 11 8b 41
       9.600862 7.791063 9.982391 17.383648
000070 72 e8 d8 41 64 40 94 41 7a 93 85 41 78 60 13 41
       27.113499 18.53144 16.69701 9.211052

blocks.2.conv.weight f4 [32, 32, 3, 3]
000000 b3 32 1d 3e 06 be 98 3d 98 e8 cd bd 52 72 39 be
       0.15351371 0.07458119 -0.10054129 -0.18110016
000010 cd 08 17 3d ab 58 f9 be 53 c9 80 be 13 84 83 be
       0.036873627 -0.4870046 -0.25153598 -0.25686702
000020 51 42 03 3d 11 82 4b be 18 a2 f7 bc 4e dd b9 be
       0.032045666 -0.19873835 -0.03022866 -0.36301655
000030 41 24 7e 3d 5d 61 f1 be 2e bb 77 be d2 eb 5f be
       0.062046293 -0.47144595 -0.24192497 -0.21867302
000040 58 47 62 be 7c 35 2b be d6 9c 78 bd f4 e5 76 3d
       -0.22097528 -0.16719621 -0.060696445 0.060277894
000050 86 63 7e 3e 2b 50 e4 3c ce 90 6e 3d 0c 16 a7 3d
       0.24842653 0.027870258 0.058243565 0.08158502
000060 7c 74 81 3e d6 12 46 be a7 64 ad be 4e 2e a1 3e
       0.25284183 -0.19343123 -0.33865854 0.3148064
000070 e2 68 ba be e3 3b d8 3e b1 29 0b 3e 1d cc e7 bd
       -0.36408144 0.4223319 0.13590123 -0.113182284
000080 f6 eb 6d be f0 17 90 bd 6b 5c 3e 3e d8 a1 1d 3e
       -0.23234543 -0.07035816 0.18589942 0.1539377
000090 2c dc 10 3e f7 b1 97 3e 75 c6 f3 3e 4c 5a e1 3d
       0.14146489 0.29627964 0.47612348 0.11003551
0000a0 11 8e 9c 3e 74 01 fa 3e be 83 94 3e 0f 4a 0f 3f
       0.30577138 0.48829234 0.2900676 0.5597238
0000b0 21 1e 75 3e cd 9b 56 be ed 1e 37 3e e1 a3 e8 3e
       0.23937275 -0.20957871 0.17882891 0.4543753
0000c0 6b e5 1f 3e ef 4b b1 3e 7d 75 b0 3d 5a 0e de bd
       0.1561486 0.34628245 0.08616159 -0.10842581
0000d0 7b 06 e9 bd 9c 43 5c bd 45 6e 29 bd e4 0f 6a 3e
       -0.11378189 -0.053775415 -0.041364927 0.22857624
0000e0 79 50 01 3d 0e 60 94 3c 9c c6 c9 3c 8e 6c 87 3c
       0.031570885 0.018112209 0.024630837 0.016531255
0000f0 87 78 1c be 96 38 fc 3c ee a3 ac be 9a 32 cc 3c
       -0.15280353 0.030788701 -0.33718818 0.024926472
000100 c3 57 0c bf 58 79 4a 3d 7f f5 7c 3d 78 5f ef 3c
       -0.54821414 0.04943213 0.06175756 0.029220328
000110 a8 23 61 be 77 9d c6 bd f4 92 61 be a1 e9 53 3e
       -0.21986258 -0.09698003 -0.22028714 0.20694591
000120 2c fc 88 3e 93 84 d0 3d 05 b4 92 3c 73 76 b7 bc
       0.26754892 0.101815365 0.017908106 -0.022395348
000130 85 a5 b1 3e 44 f2 09 3d 3b e1 14 3f 62 c3 af be
       0.34696594 0.033678308 0.58156174 -0.34328753
000140 4b 5c e4 bd a5 fc b6 be 35 86 49 3d 5d e2 de be
       -0.11150416 -0.35739627 0.049200255 -0.43532076
000150 0f 6d 8d 3d fe bc ec bd de 46 78 be e3 d0 e6 be
       0.06905567 -0.11559485 -0.24245784 -0.45081243
000160 15 84 5c be b3 93 3b 3e 6e 56 ab bb 21 29 89 be
       -0.2153476 0.18318062 -0.005228809 -0.2678919
000170 58 3a 86 3d e1 46 91 be 03 9b b0 be ab 55 64 3e
       0.06554097 -0.2837439 -0.34493265 0.22298305
000180 4c b7 1b 3e d7 18 51 bb 2d 04 d9 be e7 89 3a 3d
       0.15206641 -0.0031905675 -0.42385998 0.04554167
000190 32 8b 06 3e c0 95 82 bd e9 80 88 3e 39 0d 9f 3e
       0.13139036 -0.06376219 0.2666085 0.31064776
0001a0 56 d6 a8 bd cb 7e ae 3e c7 0e a1 bd f4 0d b4 3e
       -0.08244006 0.3408111 -0.07864147 0.35166895
0001b0 e8 fb 43 3c 73 84 b8 be 41 d7 1d 3e d7 4a 4b 3e
       0.011961915 -0.3603855 0.15414144 0.19852768
0001c0 4e 57 9e 3d 05 1e 4f 3e 55 ee 82 3d 2c ad e3 3d
       0.07731496 0.20226295 0.063931145 0.11117014
0001d0 e3 61 b4 3d 4e 70 20 3d 0a 21 4e be 29 46 56 be
       0.08807733 0.039169602 -0.20129791 -0.20925201
0001e0 f6 b0 ab be 00 eb 88 be 16 00 94 3e 11 39 91 3c
       -0.33533448 -0.2674179 0.28906316 0.017727407
0001f0 05 47 91 be c3 bb 92 3d 57 47 99 be 90 6e a2 be
       -0.28374496 0.07164719 -0.2993724 -0.31724977
000200 1e 18 e0 be 45 a3 c9 bd 2b 16 b6 be 1b 5a f7 3c
       -0.437684 -0.09845594 -0.35563788 0.030194333
000210 38 40 d9 be 8e d5 39 3e d2 1f 4a be 27 36 b8 be
       -0.42431808 0.18147871 -0.19738701 -0.35978815
000220 86 2f 0d be 6a 90 71 be 67 a9 08 bd d5 3d 8c be
       -0.1378766 -0.23590246 -0.03336468 -0.27390924
000230 26 ab 11 3e fa d2 87 3d 48 4d 6a be 47 91 b7 3e
       0.14225444 0.066320375 -0.22881043 0.35853025
000240 9a 2c f8 bd 03 b8 cc 3d 3b f8 46 be 8d ca e0 bc
       -0.12117882 0.09996035 -0.1943063 -0.027440334
000250 32 c0 af be dd 0d 54 3d e1 45 6d 3e d1 57 eb bc
       -0.3432632 0.051771034 0.23171188 -0.028728398
000260 e9 40 c2 3d 1d 03 83 be 66 ba 0e 3e 06 72 28 3e
       0.09485037 -0.25588313 0.13938293 0.16449746
000270 b0 c6 24 bd 46 49 dc bd 88 47 b1 3e 86 61 91 be
       -0.040228546 -0.10756163 0.34624887 -0.28394717
000280 8a f8 ed be ce 28 81 bd 61 af 6b 3d a0 fc d8 3e
       -0.46478683 -0.06306611 0.0575403 0.42380238
000290 42 8d a4 be b9 f4 20 3d 81 a5 03 3f 5a fc 3c 3e
       -0.3213902 0.039295886 0.51424414 0.1845564
0002a0 87 fb be bd 9e 70 c2 3e 8c 5c 5d be 10 25 8f 3e
       -0.09325319 0.37976545 -0.21617335 0.27957964
0002b0 93 84 ae bd 32 f5 55 3e dd 78 8f be ad 2f b4 bd
       -0.0852138 0.20894316 -0.280219 -0.08798156
0002c0 8c 0b 8d 3d 91 20 49 be 48 de 52 3e 9a fa 9f be
       0.06886968 -0.1964133 0.20592606 -0.3124588
0002d0 53 28 27 3d d1 17 20 3e d7 92 07 3f 67 09 bb 3e
       0.04080994 0.15634085 0.52958435 0.3653061
0002e0 2b b3 ee 3c a6 64 85 3e af 5f db 3d 96 82 92 bd
       0.029138168 0.2605335 0.107116096 -0.071538135
0002f0 bb ca 0c 3d b1 f3 9a 3d ef a7 bb 3c 35 5e 93 3d
       0.034373026 0.07566012 0.022907225 0.07195703
000300 9b 30 a4 3e c9 91 ec 3d 78 4b 59 bd 48 de ad 3d
       0.32068333 0.11551244 -0.05305049 0.084896624
000310 e3 13 08 bd d5 c6 04 3f a3 21 34 3e 01 04 bb be
       -0.03322209 0.51865894 0.17590956 -0.36526492
000320 8f 62 c4 be 4c f1 29 bd 5b a3 b8 3d e9 88 28 bf
       -0.38356444 -0.041489884 0.090155326 -0.6583391
000330 e8 46 e3 bd 50 69 ee bb 69 6b f1 be 14 91 6e be
       -0.11097509 -0.007275738 -0.4715226 -0.2329753
000340 b2 82 7d 3d 08 a7 8e 3d e2 02 31 bf 8a 1e ad be
       0.06189222 0.069654524 -0.69145024 -0.33812362
000350 c5 5f a5 bd 3b 60 31 bf e9 db 8b be 1b d6 27 be
       -0.08074907 -0.6928746 -0.27316216 -0.16390269
000360 68 b1 26 3e 90 4e e2 3d bf 07 a8 be 2b cd de bd
       0.16278613 0.11050141 -0.3281841 -0.108789764
000370 60 9a 82 3e 5e a0 81 be 69 bb 6e be 12 66 57 be
       0.25508404 -0.25317663 -0.23313679 -0.2103503
000380 16 0c 57 3d ab 33 03 3e ab be 3c 3e f8 05 ea be
       0.05250176 0.12812679 0.18432109 -0.4570768
000390 17 46 92 3d 98 b7 79 3d 90 6a 05 be b8 30 fe 3e
       0.07142275 0.060966104 -0.13028932 0.49646544
0003a0 14 f9 43 3e f3 c9 fd ba 95 40 98 bc 9d 95 ac 3b
       0.19137985 -0.0019362554 -0.018585483 0.0052668587
0003b0 d1 3d 27 bc 4e de 53 be 07 df ea bd ad e9 e8 bd
       -0.010207609 -0.20690271 -0.1146832 -0.11372695
0003c0 37 6a c3 3e df 7a 35 bd 30 f2 02 bd 64 2b ff bd
       0.38166973 -0.044306632 -0.03196925 -0.12459448
0003d0 03 2e 57 bc 1f bb e3 3e ac 8b 56 be 03 f3 2e 3d
       -0.013133529 0.444787 -0.20951718 0.042712223
0003e0 27 56 bb be 46 b5 a0 be ca 25 3b bc 85 6e 4e 3e
       -0.36589167 -0.313883 -0.011422584 0.20159347
0003f0 cd f6 92 3e 2a 6f 61 bd e0 53 a7 bd 7f d1 00 bf
       0.2870392 -0.055037655 -0.08170295 -0.50319666

blocks.2.conv.bias f4 [32]
000000 9a 74 46 3c 15 b1 a3 bb eb 4d 1d b9 c0 c6 23 b9
       0.012112761 -0.004995475 -0.00015001713 -0.00015618932
000010 d4 dc 3b b9 76 70 1d bb c1 ac 0c 39 ec ff 61 ba
       -0.00017915975 -0.002402333 0.00013415796 -0.0008621204
000020 c5 80 04 3b 17 43 8c bb b5 3a b6 ba 53 2b 68 39
       0.0020218354 -0.0042804587 -0.0013902994 0.00022141384
000030 ae 3f 25 3a 10 6d 0b 3b 49 af 14 3b 41 b4 44 3a
       0.00063037395 0.0021274723 0.0022687486 0.00075036666
000040 1e 33 18 bb 8a 2b 58 3b e2 f0 7d bc 34 c6 4e ba
       -0.0023223828 0.0032984936 -0.0154993255 -0.0007887811
000050 6d 46 3b b7 08 52 b9 b9 54 05 05 b8 30 c7 c1 ba
       -1.1162466e-05 -0.00035347068 -3.1714633e-05 -0.0014784094
000060 17 a5 bd 39 c2 d9 f7 3a c6 38 f3 b9 f3 09 74 3a
       0.0003617189 0.0018909501 -0.0004639087 0.0009309344
000070 19 33 30 bc 2d ce 21 3c e5 f4 36 39 e5 10 b5 3a
       -0.01075437 0.009875816 0.00017448103 0.0013814239

blocks.2.bn.weight f4 [32]
000000 6e 8f 30 3f 7a e9 42 3f ad d7 13 3f c7 aa 18 3f
       0.68968856 0.76137507 0.5775097 0.59635586
000010 31 f6 27 3f 60 51 1b 3f 62 0e 81 3f 60 43 84 3f
       0.65610033 0.60671043 1.0082514 1.0333061
000020 ad ce 45 3f 31 71 73 3f 53 4e 49 3f 4a 0b 57 3f
       0.7726849 0.9509459 0.7863514 0.840016
000030 85 12 54 3f 03 84 63 3f 5d 2d 59 3f fd 22 a0 3f
       0.8284076 0.8887331 0.84834844 1.2510678
000040 5b af 96 3f e3 5c 88 3f 2a 2a 57 3f 77 8c 69 3f
       1.1772264 1.0653347 0.8404871 0.9122996
000050 ae 0f 7d 3f c8 68 7a 3f f4 1a 60 3f a3 e5 88 3f
       0.9885205 0.97816133 0.8754113 1.069508
000060 7b f7 9f 3f 96 68 70 3f 65 96 7b 3f 70 d8 38 3f
       1.24974 0.93909585 0.9827636 0.7220526
000070 fe d6 e5 3e af fa 7c 3f d2 6f b0 3e 8c 68 6f 3f
       0.4489059 0.9882001 0.34460312 0.935189

blocks.2.bn.bias f4 [32]
000000 e6 36 28 be 8a e4 05 bf a0 34 27 be a1 3e 90 be
       -0.16427192 -0.5230185 -0.16328669 -0.28172782
000010 74 f9 22 bf 4e 49 8b be bb aa 88 be 3f 68 2e bf
       -0.63661885 -0.27204365 -0.26692757 -0.68127817
000020 86 a7 04 bf 98 81 02 bf bc 24 12 bf b9 c3 a2 be
       -0.5181812 -0.50978994 -0.570873 -0.3178995
000030 2f 40 29 bf 45 72 cc be 1a 71 9b be 07 be 11 bf
       -0.6611356 -0.3993093 -0.30359727 -0.56930584
000040 70 3d f6 be 02 3d 0a bf 03 a6 89 be 9d 1e b7 be
       -0.48093748 -0.5399934 -0.2688447 -0.35765544
000050 fd 4b 25 bf e9 f4 3c bf bc 7e 91 be 55 c1 0f bf
       -0.64569074 -0.73811203 -0.28417003 -0.56154376
000060 04 04 49 bf 95 55 08 bf 1b ef 24 bf f2 29 75 be
       -0.7852175 -0.5325559 -0.64427346 -0.23941782
000070 28 4a 7e bc 2a a3 bf be 94 28 87 3e 3b 6c 1c bf
       -0.01552061 -0.37429172 0.26398146 -0.61102647

blocks.2.bn.running_mean f4 [32]
000000 03 b0 7f bf 38 b3 68 c0 96 d7 fc bf d5 dc 02 c0
       -0.9987795 -3.6359386 -1.9753292 -2.0447285
000010 f3 1b a2 c0 93 59 db 3f c9 ae c5 bf e4 58 96 be
       -5.065912 1.7136711 -1.5443965 -0.29364693
000020 5a 04 9f bf 4e f6 df bf 56 cd d7 3e 2f 58 9d bf
       -1.2423203 -1.7497041 0.42148846 -1.2292536
000030 28 f9 4e 3f 46 a4 7a c0 40 d5 38 c0 11 51 34 c0
       0.8084893 -3.9162765 -2.8880157 -2.817448
000040 bd 6c ac be 62 ff e5 bf ef 36 5e c0 df ec c7 bf
       -0.3367671 -1.7968562 -3.4721029 -1.5619162
000050 f3 88 7f bf 53 65 9a be 8c 1e ee bf 4c d0 6f c0
       -0.9981834 -0.3015543 -1.8603072 -3.7470884
000060 13 a7 a8 bf da ea 81 c0 a9 0a 40 c0 01 54 8a bf
       -1.3175987 -4.0599184 -3.0006506 -1.0806886
000070 02 48 a4 bf 60 43 85 c0 b0 2c b3 3f bc 1a 03 bf
       -1.2834475 -4.1644745 1.3998013 -0.5121267

blocks.2.bn.running_var f4 [32]
000000 d2 2c c8 41 e7 54 9a 41 d2 da b9 41 ef 48 43 41
       25.021885 19.291456 23.231846 12.205306
000010 bb ec a4 41 4a 52 74 41 13 6e c8 41 dd a3 35 41
       20.615591 15.27009 25.053747 11.352506
000020 65 ea 38 41 43 b4 91 41 27 af 46 41 fc a4 9c 41
       11.557225 18.213018 12.417762 19.580559
000030 fc b0 10 41 e5 ec dd 41 38 c4 c6 41 8e 93 19 41
       9.043209 27.740671 24.84581 9.598524
000040 85 82 f4 40 9a 3d af 41 d6 71 4d 41 de 32 80 41
       7.6409326 21.905079 12.840292 16.024837
000050 72 cc 45 41 4b cb 7d 41 67 da 48 41 5e cf aa 41
       12.362413 15.862132 12.553321 21.351254
000060 14 ea 35 41 f9 a7 34 41 40 05 4b 41 fd f9 ac 41
       11.369648 11.291009 12.688782 21.622065
000070 2c 14 93 41 b2 a6 a1 41 a5 71 ca 41 1a 56 3f 41
       18.38485 20.206394 25.30549 11.958521
