models/35.pth (torch, 501905 bytes, 80 tensors)

conv0.conv.weight f4 [32, 17, 3, 3]
000000 45 35 20 bd d3 c0 3c 3d c3 bd 0f be fc 94 83 bd
       -0.0391133 0.04608233 -0.14037232 -0.06424901
000010 da 1f 4b bd 19 a9 c3 bd ce 2e 8b bd 59 fe a8 3c
       -0.049590923 -0.09553737 -0.06796037 0.020629095
000020 92 88 60 3d a0 70 5f 3d 35 8d cc ba 5d 0f 5b 3d
       0.054817744 0.054550767 -0.0015606048 0.05348145
000030 13 c5 78 3d 13 f9 f8 3c dd 77 37 bd 31 8b 0d bc
       0.06073482 0.030392205 -0.044792045 -0.008639143
000040 ee 88 2e 3d 91 48 cf bc 59 b7 3e 3d 78 24 a9 bd
       0.042611055 -0.025303157 0.046561573 -0.08258909
000050 6a fa 7e 3d 21 73 e7 3c 05 c4 72 3b 3f a4 6e 3d
       0.062250532 0.02825314 0.0037043106 0.058262106
000060 b7 41 0c 3c 90 eb d7 ba c1 f5 07 3d c9 9e d9 bd
       0.0085605895 -0.0016473401 0.033193354 -0.10625989
000070 7a cc a5 3d cf e6 d3 bb d5 f5 03 3d 08 83 26 3d
       0.080956414 -0.0064667235 0.032216866 0.040652305
000080 4c 14 0e 3d 7b e7 13 3a 11 5c 2f 3d ca 44 98 3c
       0.034687325 0.0005642098 0.04281241 0.018587489
000090 9d fa 02 bc 96 47 84 bd 14 61 e6 bc e8 12 87 3d
       -0.007994321 -0.064589664 -0.028122462 0.06595403
0000a0 62 a0 9c bd 0a 33 cf 3d 32 e0 1d bb f6 98 4f 3d
       -0.07647778 0.10117157 -0.002408993 0.050682984
0000b0 85 d6 b8 3d 73 18 17 bd dd 21 06 bd f0 67 78 bd
       0.09025291 -0.03688855 -0.03274714 -0.060645998
0000c0 a7 5c d6 bb 4e 85 d3 bd 26 98 0c 3d a7 7e 62 3d
       -0.0065418067 -0.1032816 0.034324788 0.055296566
0000d0 18 3d 8b bd 66 ea 9f 3b 7b 6e 90 3d 2b 62 25 3d
       -0.06798762 0.0048802374 0.070523225 0.040376823
0000e0 b0 6e 27 3d 4e 93 9c 3d fe b0 79 bd 56 5c 8a bc
       0.040877044 0.07645284 -0.06095981 -0.016889732
0000f0 39 34 2b 3c 83 d7 96 bd c5 a6 e3 bc 1a d2 bf bc
       0.010449463 -0.07365324 -0.027789483 -0.023415614
000100 ea bf 4d bd 4e 3e 38 3c 2f 9c 8a 3c e5 a9 91 bc
       -0.05023185 0.011245323 0.016920177 -0.017781207
000110 58 8c 38 3c d0 1a 9f 3d e5 dd 33 bd 05 64 b7 3c
       0.011263929 0.07768786 -0.043912787 0.02238656
000120 86 25 bf 3d f4 6a 13 3d 04 e3 bb bd cc b1 58 3d
       0.09333329 0.03599067 -0.09174159 0.052903935
000130 4f 76 6a 3c 7e 60 48 bd f2 15 d9 bc c8 b0 38 3d
       0.0143104335 -0.048920147 -0.026499722 0.045090467
000140 2f 90 77 bd ef 8f 25 bd 55 2b 8d 3d fc 81 07 bc
       -0.06044024 -0.04042047 0.068930306 -0.008270737
000150 52 d1 64 bd 4f 47 1c 3e 17 2d 2b bd e1 77 18 bd
       -0.055863686 0.15261577 -0.041791048 -0.0372237
000160 bf 95 90 3d 67 a6 44 3d 49 ea 8a bd 02 70 d3 3d
       0.07059812 0.048010256 -0.067829676 0.10324098
000170 75 3f dc bd 5c c7 3a bc 4e c7 0e 3e 20 98 62 3d
       -0.10754291 -0.01140007 0.13943216 0.05532086
000180 a8 47 e1 b8 64 2a 58 3d e8 52 0a 3b a4 4a a8 bd
       -0.00010742183 0.0527748 0.0021106545 -0.082173616
000190 62 3b c9 3d c4 55 94 bd dc df 00 bb 61 28 57 3d
       0.098257795 -0.07242921 -0.001966468 0.052528743
0001a0 c2 da b5 3d e3 ff 89 bd 8b a4 b1 3d 9a 4e 4f 3d
       0.08879615 -0.0673826 0.08673962 0.05061207
0001b0 c9 a1 a2 bd 58 cc 0d be 3c 06 33 bd 22 17 44 3d
       -0.07941014 -0.13847482 -0.043707117 0.047873624
0001c0 d0 92 95 bc 2c 1e 79 3b 3d 68 a6 3d 28 66 4b 3d
       -0.018258482 0.0038012369 0.081253506 0.04965797
0001d0 44 82 b8 3d f6 90 0f 3d 14 fd 43 3d f6 3e 87 3d
       0.09009221 0.035050355 0.047848776 0.06603806
0001e0 2a b4 11 bd 45 ee 2b 3d a3 93 79 3c 51 ab a8 bc
       -0.03557221 0.04197528 0.015232953 -0.020589503
0001f0 f8 34 32 3c cb 68 7f 3d ed aa 35 bb 35 46 66 bd
       0.010876887 0.062355798 -0.0027720288 -0.0562193
000200 f3 83 cb 3d 99 c9 26 bd fb 11 0d 3c d7 9e 1c bd
       0.09937277 -0.040719602 0.008610244 -0.03823742
000210 9f dd e0 bc c8 6b 8c 38 95 18 9c 3b c8 ff 57 bd
       -0.027449427 6.695796e-05 0.0047636726 -0.052734166
000220 37 c7 87 3d dd dd 93 bc 5e e4 65 3b d1 13 31 3d
       0.06629794 -0.018050129 0.0035078744 0.04323179
000230 7e 9d 4f 3b 91 bb 7f bd 7f b8 1c bc 69 43 a6 3d
       0.0031679566 -0.062434737 -0.009565472 0.08118326
000240 f0 74 c2 3d 1e c3 83 bc 67 99 e4 3b 6f bf a9 bc
       0.0949496 -0.01608425 0.006976295 -0.020721165
000250 f8 38 10 bb 54 f6 2f bc d1 f7 17 3c 8f ee 55 bb
       -0.0022006612 -0.010739882 0.009275393 -0.0032643413
000260 ea 0c 89 3d 5e 79 f5 3d ed e8 88 3d 24 a9 a0 3d
       0.06691916 0.119860396 0.06685052 0.07844761
000270 a2 36 0d be 3f 15 10 be a5 76 b8 3d 01 19 be 3d
       -0.13790372 -0.14070605 0.09007005 0.09282113
000280 ec 7f 4b bc 21 b9 8c bd b1 a3 8c 3c c6 ad ae 3c
       -0.012420636 -0.06871248 0.017167898 0.021323096
000290 e8 2e 3f 3d 3f d0 21 bd ee 99 c3 3c a1 7d 4f 3d
       0.046675593 -0.03950524 0.02387711 0.05065692
0002a0 00 4b 9b bd 70 04 38 bc d1 9b 2f bd 87 39 14 bd
       -0.075826645 -0.011231527 -0.042873207 -0.036187675
0002b0 7c 8c 5f 3c b9 50 52 bd 48 14 9e bd fc 01 01 3c
       0.013644334 -0.051346514 -0.07718712 0.007874008
0002c0 77 52 cf bc 4d 18 47 bd 80 a6 a4 bd c9 96 09 bd
       -0.025307877 -0.04860716 -0.0803957 -0.033591066
0002d0 d0 de 80 bd 5a 05 29 bc ae 55 c6 bc e6 36 46 bd
       -0.06292498 -0.010316217 -0.024210777 -0.0483922
0002e0 88 af 22 3d 0a ca d9 3c 76 81 ab bc e3 73 79 bd
       0.03971818 0.026585598 -0.020935755 -0.060901534
0002f0 7f bf 01 bd 13 16 a5 3d 4b f3 b2 bd 63 7d 6f bd
       -0.031676766 0.08060851 -0.08737811 -0.058469187
000300 62 e5 82 3d b3 c4 d8 bc d4 9c f0 3b 0b 20 38 bd
       0.063914075 -0.026460981 0.007342914 -0.044952434
000310 13 b8 62 3d 75 75 28 bd 7a 1d 75 bd 4e 3d 0b bd
       0.055351328 -0.04112764 -0.059842564 -0.03399401
000320 0a 79 aa bd e6 da c8 bc 25 7f 32 bd 38 6e bc bd
       -0.083238676 -0.024518441 -0.043578286 -0.0920071
000330 7d fa 9e bd e9 a0 35 bd fc 03 f3 bc 8e c7 6b bd
       -0.077626206 -0.04434291 -0.029664986 -0.057563357
000340 e2 1a 1c 3b 09 f4 31 be a2 e4 4b bd 84 33 2c 3b
       0.0023819734 -0.17378248 -0.049778588 0.0026275823
000350 e8 76 85 3b d4 75 5e bd d9 b1 55 bd ba 1b f3 3c
       0.0040730126 -0.05431159 -0.052171562 0.029676307
000360 b1 65 0d bd a2 3a bb ba 06 02 f4 bd cd 15 64 3c
       -0.03452081 -0.0014284442 -0.119144484 0.013921213
000370 b8 ad e3 bd 7e 77 e7 bd 6b 01 a8 bc c1 3d 06 bd
       -0.111171186 -0.11302088 -0.020508489 -0.032773737
000380 b1 fb 21 bd 78 62 d7 bc 53 ec 25 bd c9 d1 3e 3d
       -0.039546672 -0.02629207 -0.04050858 0.046586785
000390 d1 bd 36 bc 12 57 d8 bd a6 84 a7 3d 65 aa 49 bd
       -0.011153654 -0.10563482 0.081795976 -0.049234767
0003a0 15 1b 90 bd d7 9c 52 3d 5a aa 45 3d cc 3a 9a 3b
       -0.070364155 0.051419105 0.048258163 0.004706716
0003b0 82 81 75 3c 32 d1 ce 3c 97 10 69 3d fd f7 99 3d
       0.01498449 0.025246236 0.056900587 0.07518003
0003c0 ff 5b bc 3d e8 41 1e 3d 10 a5 26 3d 22 c3 92 3d
       0.09197234 0.03863707 0.04068476 0.07166125
0003d0 29 15 2c bd 3f fa b1 3d 27 59 76 3d 2a 1b a1 3c
       -0.042012367 0.08690309 0.060143616 0.019666273
0003e0 fc d6 6d bd 4a da cc 3c ca c9 4e 3d 69 62 19 3d
       -0.058066353 0.025006432 0.05048541 0.037447367
0003f0 29 f8 6d 3d 5f f0 58 3d 18 3d 59 3d da b7 49 3c
       0.058097992 0.05296361 0.05303678 0.0123119

conv0.conv.bias f4 [32]
000000 6d d8 7e 39 7c 6f 2d 3a 54 b4 66 3b d9 c9 8c bc
       0.00024303953 0.0006616039 0.0035202699 -0.017186092
000010 36 06 48 bb 13 20 34 bb f7 64 b8 3b 28 44 09 38
       -0.003052128 -0.0027484938 0.0056272703 3.272682e-05
000020 e8 fb f4 3c d2 34 65 3a 8f b4 85 3a f6 13 fe 3a
       0.029905275 0.00087435276 0.0010200905 0.0019384611
000030 cc 6a 9b ba 2b 4d 0d 3d 1c 56 65 ba 85 6b 04 bb
       -0.001185739 0.03449742 -0.0008748488 -0.0020205688
000040 ff 79 04 b9 bb 86 4a bc b6 41 13 3c 22 d0 17 bc
       -0.00012633948 -0.012361224 0.008987835 -0.009265931
000050 f2 68 f5 3a 63 95 86 3c 4e 38 63 3c 4d 33 23 3b
       0.0018723293 0.016428655 0.013868405 0.0024902404
000060 ad 0d a7 bc 50 b9 d7 3c e3 55 c5 bb e3 de 69 3c
       -0.020392263 0.026333481 -0.0060222014 0.014274332
000070 85 45 8f 3a a3 79 5c 3a 7e 88 f9 bb ac cb cc 3b
       0.0010930753 0.0008410459 -0.007615148 0.0062498655

conv0.bn.weight f4 [32]
000000 49 9d 70 3f fe ec 7a 3f 16 bd 6f 3f 7a 99 78 3f
       0.9399 0.9801787 0.936479 0.97109187
000010 45 96 77 3f 46 d8 72 3f cd 57 72 3f 30 77 75 3f
       0.9671367 0.9486126 0.94665223 0.9588499
000020 92 fb 78 3f 23 a5 75 3f fa 84 76 3f 9b c3 78 3f
       0.97258866 0.95955104 0.96296656 0.9717347
000030 eb 74 77 3f 09 d5 76 3f 4e 68 6e 3f 32 32 78 3f
       0.9666278 0.96418816 0.93127906 0.9695159
000040 d9 e4 7a 3f 41 d3 81 3f f4 c6 73 3f 32 67 72 3f
       0.98005444 1.0142595 0.95225453 0.94688714
000050 7a 8b 80 3f bf 7a 81 3f 92 3a 74 3f df 75 75 3f
       1.0042565 1.0115584 0.9540187 0.9588298
000060 f3 e3 80 3f 31 d0 73 3f 06 d9 75 3f 46 20 7c 3f
       1.0069565 0.9523955 0.96034276 0.98486745
000070 b9 f0 81 3f 90 64 79 3f 47 9a 73 3f c7 d5 7a 3f
       1.0151588 0.9741907 0.95157284 0.9798245

conv0.bn.bias f4 [32]
000000 e7 6e 80 bd a3 68 2d 3d 30 99 1f bc 81 94 f1 bd
       -0.06271153 0.042336117 -0.009741113 -0.11795903
000010 0a e2 27 bd 9e 45 35 bd bc 00 59 bd 88 4c 09 bd
       -0.040987052 -0.044255845 -0.052979216 -0.03352025
000020 3b 6c 0e bd e1 89 79 bd 3f 4e 00 bd 83 86 d5 bb
       -0.034771185 -0.060922507 -0.03132462 -0.006516279
000030 40 3b ae 3c a6 cf ac bd d5 58 17 be ad 89 40 bd
       0.021268487 -0.08438043 -0.1477998 -0.047006298
000040 40 b7 94 bd 94 ec f6 3b 3e fc 4e bd 89 77 93 bd
       -0.07261515 0.0075355265 -0.050533526 -0.07200534
000050 37 f4 ae 3c d0 66 71 3c 65 62 1e bd cc 42 9d bd
       0.021356685 0.014733985 -0.038668055 -0.07678756
000060 d9 cf b6 bc a9 f0 05 bd f0 d7 bd bd 5c 00 83 3d
       -0.022315906 -0.032700215 -0.092697024 0.06396553
000070 3a f1 c0 bc 7d 4b 70 bc 83 94 14 3c 56 3d 65 3c
       -0.023552526 -0.014666435 0.009068611 0.013991674

conv0.bn.running_mean f4 [32]
000000 7c e3 d3 3c 08 a1 cf 3c 84 56 71 3c 5e c9 63 bd
       0.025865309 0.02534534 0.0147301 -0.05561196
000010 ae 86 38 3c c4 4e 0a 3c 37 e8 15 3d b2 44 34 3d
       0.011262579 0.008441631 0.03659841 0.044010825
000020 31 22 18 bb 03 3a 83 ba 74 66 0c bc 82 b3 7f 3c
       -0.002321374 -0.0010011796 -0.008569349 0.015606763
000030 ce 51 4b 3c 4d 89 a7 3c 77 f6 05 3d a2 04 28 3d
       0.0124096405 0.020451212 0.03270575 0.041020043
000040 3e c0 0c 3d 0d fd db bc 3f 02 4d bc 7f f8 81 bc
       0.034363024 -0.026854062 -0.012512743 -0.015865562
000050 fd dd ac 3b 0e 89 a5 3b 7b 83 ce 3a e2 b2 a6 3b
       0.0052754865 0.0050517386 0.0015755737 0.0050872425
000060 f3 45 ea bc 86 43 b1 3c 9c 09 43 bc 79 2c 8a bc
       -0.028597808 0.021638643 -0.0119041465 -0.01686691
000070 86 6b 82 3d ac 52 1d 3d de 96 83 bc d3 a5 55 3c
       0.06368165 0.03840892 -0.01606315 0.013040024

conv0.bn.running_var f4 [32]
000000 c0 5d 2f 3c 59 9f 0c 3c b4 f4 03 3c 0a c9 0e 3c
       0.010703504 0.008582913 0.008053947 0.008714924
000010 ee c7 06 3c fe 17 01 3c b5 72 1c 3c bb 21 e1 3b
       0.008226378 0.007879255 0.009548833 0.006870476
000020 2d ed 37 3c 63 65 07 3c 23 5c 0b 3c 81 71 2d 3c
       0.011225981 0.008263919 0.008505854 0.0105861435
000030 fe 16 2d 3c 48 a7 e0 3b af 11 2b 3c ee 3a e1 3b
       0.010564564 0.006855879 0.010441228 0.00687348
000040 3e 32 08 3c 34 98 37 3c e1 f4 29 3c a8 aa 01 3c
       0.00831276 0.011205722 0.010373325 0.007914223
000050 39 1b 0d 3c e2 1d eb 3b d5 99 cc 3b 6e 3f 09 3c
       0.008612447 0.007175193 0.006243924 0.008376939
000060 3e 52 ce 3b 61 69 f6 3b 76 83 0f 3c a5 51 24 3c
       0.006296425 0.0075198864 0.00875937 0.010029231
000070 50 40 48 3c ed 3a 28 3c ce 4c f8 3b 1c fc 05 3c
       0.012222365 0.010267955 0.007577515 0.008177783

blocks.0.conv.weight f4 [32, 32, 3, 3]
000000 78 d7 5e bc e3 f0 e2 3c fb af b7 3c b7 e5 ea bd
       -0.013601176 0.027702754 0.022422781 -0.11469596
000010 06 5b 45 bc de 94 c0 3b 30 c1 86 bc 77 59 88 3d
       -0.012045627 0.0058771214 -0.01644954 0.06657689
000020 de 2a 7a bd a6 f3 0c 3d 0b 34 67 bc 4f 31 32 bd
       -0.061076038 0.03441205 -0.014111529 -0.043504056
000030 1d e6 14 bc e4 7a a5 3a d8 e8 fa 3c c3 50 7b 3d
       -0.009088066 0.0012625125 0.030628607 0.061356317
000040 60 59 80 bd e5 7d c8 3c 1f e7 3c 3d ae c0 10 3a
       -0.06267047 0.024474094 0.04611885 0.00055218756
000050 07 21 8c bc cb 52 53 bd d2 3d 16 3d 12 5d ce 3c
       -0.017105592 -0.05159263 0.03668005 0.025190864
000060 69 85 78 3d 6a 77 ca 3d e6 33 90 3c 99 fd 4c bd
       0.060674105 0.09886058 0.017602872 -0.050046537
000070 bb 0b 83 bc c3 6c d6 bb 4d 3e 53 bd 61 4f 99 bd
       -0.015996804 -0.006543727 -0.051573087 -0.074858434
000080 66 49 35 3d d0 ad 1b 3c 7f 60 9c 3c 66 72 0b bc
       0.04425945 0.009501889 0.019088982 -0.008511161
000090 33 4a 6a bd 9e d3 87 3d a5 d5 9b bc cd 14 71 3d
       -0.05719967 0.0663216 -0.019022772 0.058857728
0000a0 3b ba 02 bd 5c c5 30 3d 2b 98 1e bd 8b 41 ed bd
       -0.031915884 0.043156967 -0.038719337 -0.11584767
0000b0 77 9d c9 bc f1 b6 6c bc db 10 c2 3c e6 12 a0 3c
       -0.024611218 -0.0144479135 0.023689678 0.019540261
0000c0 70 b2 e4 ba 1b 7a 81 bd 37 ab 13 3d de 8b b5 bc
       -0.0017448198 -0.06322118 0.036051955 -0.02216142
0000d0 a1 4c fb 38 50 f5 8f 3c 96 1d 1c 3c 57 bb b6 bc
       0.00011982886 0.017573029 0.009528538 -0.022306127
0000e0 01 29 7c 3d 00 16 bc 3c 58 6b b0 ba 11 f7 d7 bc
       0.061562542 0.02295971 -0.0013459725 -0.026362928
0000f0 a6 b7 89 3d fa c3 cd 3c a2 c8 af bb c2 c1 5d 3d
       0.06724481 0.025117863 -0.0053644935 0.05413986
000100 2c 94 89 bc 6f b7 59 bc 17 da c3 3c 80 25 db bc
       -0.016794287 -0.013288363 0.023907704 -0.02675128
000110 0f ad d3 3c c6 76 fd 3b 96 20 f5 bc b8 c1 ac bc
       0.025839357 0.007735106 -0.029922765 -0.021088466
000120 53 7c 0d bc a4 c9 08 bd de 7c 1f bc f1 81 6b bd
       -0.008635598 -0.033395424 -0.0097343605 -0.05749697
000130 9b 9d 9c bd 06 d0 c2 3d c0 e6 55 3d e4 8f 4f 3d
       -0.07647248 0.095123336 0.052222013 0.050674334
000140 7a 97 1e bd e3 b8 30 bd 5c 73 3a 3d c6 23 6e 3c
       -0.038718678 -0.04314507 0.04552017 0.014534896
000150 10 fc 57 bc 6a 2e c2 3d 24 5e 04 3d 7f d6 c0 bc
       -0.013182655 0.09481509 0.032316342 -0.02353978
000160 70 2a 77 bb 03 90 5c bc 43 cc 26 3d a1 e8 64 bd
       -0.0037714504 -0.013462069 0.040722143 -0.055885915
000170 f1 12 f4 bc 01 3a 0b 3d 77 a9 83 3d 0a cb 40 bd
       -0.029794188 0.033990864 0.06428807 -0.047068633
000180 86 d4 b1 3c e3 69 ca bd d1 2f 78 bd 72 eb 1f bc
       0.021707784 -0.098834775 -0.060592476 -0.009760724
000190 52 30 f3 3c b7 f3 fa 3d 85 11 75 ba 4e 31 91 3c
       0.029686127 0.12253516 -0.0009348619 0.017723706
0001a0 c8 7f 7a 3d d3 6e 28 3d d8 15 fa 3c 68 74 45 3d
       0.061157018 0.041121315 0.030527994 0.048206717
0001b0 0c 73 57 bd 49 1a 65 bd 2b 00 28 bd 7f 72 3b bc
       -0.05259995 -0.05593327 -0.041015785 -0.011440872
0001c0 96 40 33 bc de 69 0f bc 17 9a 2a 3d a5 ef a6 bc
       -0.010940691 -0.008753268 0.041650858 -0.020377943
0001d0 ee ec c8 3c f7 39 8e bd 55 cb 3f bd 6c 53 71 bd
       0.02452704 -0.0694465 -0.046824772 -0.058917448
0001e0 27 b9 27 bc 8d ee 7a bc a7 8c c3 bc 7c 4a ec 3c
       -0.010237015 -0.015315664 -0.02387078 0.02884411
0001f0 4d 44 7c 3d 85 61 9f 3d 6e a4 82 bc 4e 90 83 bc
       0.061588574 0.07782272 -0.015947547 -0.01606002
000200 49 ed 2c bd 53 66 c1 3d 99 be 8d 3d 2b 6e 4f bc
       -0.04221848 0.09443345 0.06921119 -0.012660543
000210 16 9b 42 3d d0 31 8e 3b 6b 7f 0b 3d 60 d0 83 bc
       0.047511183 0.004339434 0.034057062 -0.016090572
000220 a8 6e fd 3c 90 c3 8a 3c 37 bd 6a 3d f8 2f 9d 3d
       0.030936554 0.016938955 0.057309356 0.07675165
000230 aa ac bb bd b5 3c 00 bc 08 a8 24 3d cf af 80 bd
       -0.091637924 -0.007826974 0.04019931 -0.06283533
000240 97 f4 23 3d e8 82 54 3c 02 df 8e bc 25 95 49 3d
       0.04002818 0.012970664 -0.017440323 0.0492145
000250 bc dd 42 bd ed 0a 00 bc 0c 75 a9 3d 0b 33 03 3d
       -0.047574744 -0.007815105 0.08274278 0.0320311
000260 8c 83 59 3c 85 d7 19 3c 1b 4f ea 3c 18 f0 33 bd
       0.013275992 0.009389763 0.028602174 -0.043930143
000270 91 df 15 bd 80 8e fb bd 6f 54 67 bc c5 1c 68 b8
       -0.036590163 -0.12283039 -0.014119252 -5.5339904e-05
000280 df 4c 22 bd 07 00 7e 3d da 5f 6a 3c b8 53 76 3d
       -0.03962409 0.062011745 0.014305079 0.060138434
000290 e1 52 89 3d de 8d 90 3d 3a 05 3e bd 5f f6 16 bd
       0.06705261 0.07058309 -0.046391703 -0.03685605
0002a0 2b b2 18 bd 9c 65 56 bd 13 4d 4a 3d c5 b4 e1 3c
       -0.03727929 -0.052342996 0.04938991 0.027552018
0002b0 6c f7 88 3d a0 a7 2e bc b8 aa f3 bb 80 3a 76 3d
       0.06687817 -0.010660082 -0.0074361227 0.060114384
0002c0 f8 f3 1e bd d7 43 c6 3c 05 ec 78 3d 67 9a f0 3a
       -0.038806885 0.02420227 0.06077196 0.0018356562
0002d0 f3 53 24 3d f7 03 1d bd 0e ca 4c bc 8a a2 b0 3d
       0.040119123 -0.03833386 -0.0124993455 0.08624752
0002e0 a6 e7 9e 3c ed b1 80 bd 7e 26 a2 bd e7 64 36 bd
       0.019397568 -0.06283937 -0.07917498 -0.04452982
0002f0 c0 53 8e bd ab 89 24 3d 6a 2a 49 bc f9 51 87 3d
       -0.06949568 0.040170353 -0.012278179 0.06607432
000300 d5 eb 83 3b 11 3a 53 bd ef fb a8 3c 38 3d f4 bb
       0.004025916 -0.05156905 0.020627944 -0.007453587
000310 e1 46 46 3c 54 ec 85 3c 9e f0 cf bb 59 81 c8 bc
       0.01210186 0.016348042 -0.0063458225 -0.02447574
000320 33 af 88 bd 11 39 59 3c 87 1b a8 3c 38 4d be 3d
       -0.066740416 0.013258235 0.020520939 0.09292072
000330 06 db 76 3d 71 67 6b bd 50 8f 01 bd be 23 9d 3d
       0.06026747 -0.057471696 -0.031630814 0.07672833
000340 bc 3b d7 3b de c5 ed 3c 01 9d b1 ba 77 20 06 3b
       0.0065684 0.029025014 -0.0013550819 0.0020466128
000350 ec bf a0 3c 46 4b 60 bd 84 06 40 3d 20 dd 33 3d
       0.019622765 -0.054759286 0.046881214 0.043912053
000360 84 52 6d bd 5d 30 8d 3d d1 fc f4 bb 7e f5 52 bd
       -0.05794002 0.0689399 -0.007476427 -0.05150365
000370 89 37 5a 3b ad e8 66 3d 19 e3 3f 3d d6 0b 32 bd
       0.0033297262 0.05637424 0.046847437 -0.04346832
000380 2f 63 df bd b7 28 9b bd 9b 0f 8d bc ff b4 5d bb
       -0.1090759 -0.07576125 -0.017219355 -0.0033829806
000390 00 60 a4 bc 48 01 69 bd b8 88 d6 bb 81 c8 86 bc
       -0.020065308 -0.056885988 -0.00654706 -0.01645303
0003a0 19 55 09 3d 44 f7 ad 3c bb 0b ac bb 6b 15 85 3c
       0.03352842 0.02123607 -0.005250422 0.016245564
0003b0 a5 e9 43 3d 0a 8a 8e bb 9a 6a c9 3c 4c 91 32 3d
       0.047830243 -0.0043499516 0.024586964 0.043595597
0003c0 9a c5 46 3d 2e 89 45 3c 20 e5 93 3c 72 da f9 bb
       0.04852829 0.012056632 0.018053591 -0.0076249177
0003d0 ef 27 29 bd 82 27 a0 3d 60 39 66 bd 91 9c 09 bb
       -0.04129785 0.078200355 -0.05620706 -0.0020997862
0003e0 96 cc 78 bd 04 72 4f 3d 7a 33 47 3d 18 65 cd 3c
       -0.060741983 0.050645843 0.048633076 0.02507262
0003f0 36 39 59 3d a9 ee 0d bd 61 f3 65 3d e6 99 84 bc
       0.053033076 -0.034651432 0.056140307 -0.016186666

blocks.0.conv.bias f4 [32]
000000 91 46 56 b7 91 92 92 3a 05 d8 99 b9 37 b4 1e 3a
       -1.2771824e-05 0.0011182596 -0.0002934338 0.0006054076
000010 d8 8e d2 3a eb 40 ac b9 93 80 3b 39 7d 42 33 ba
       0.0016064299 -0.00032854764 0.00017881607 -0.00068382156
000020 1a eb 77 3b 4d cd bf bb 48 2c 8a 3b 85 d1 9f ba
       0.003782934 -0.005853331 0.0042167045 -0.0012193179
000030 59 8f 5d ba c3 c5 86 b9 16 fd 09 ba 30 bb 0a 3b
       -0.00084518414 -0.00025705816 -0.0005263848 0.0021168701
000040 b7 b8 fb b9 e7 dd 65 bb df 9b f1 3b ce d6 56 bb
       -0.00048012074 -0.003507489 0.0073733176 -0.0032781842
000050 f6 3e 9f 3a a6 22 fd b9 44 71 da ba ee 4a ac ba
       0.0012149501 -0.00048281736 -0.0016665836 -0.0013144889
000060 a6 db d0 bb 84 e9 5e 3a cc 09 e3 bb 3c 47 f5 3a
       -0.0063738404 0.00085034245 -0.006928658 0.0018713246
000070 e3 29 96 ba 84 c8 80 38 b1 3e 7d b9 a2 9c 59 ba
       -0.0011456575 6.1408646e-05 -0.00024151315 -0.0008301233

blocks.0.bn.weight f4 [32]
000000 fb c4 70 3f 22 f0 80 3f 49 f7 6f 3f ce 52 72 3f
       0.9405057 1.0073283 0.937367 0.946576
000010 31 12 7c 3f 1c 2b 81 3f 66 de 65 3f b0 09 74 3f
       0.9846526 1.0091281 0.8979248 0.9532728
000020 e6 6b 76 3f 3b 51 74 3f 27 36 7e 3f 76 87 80 3f
       0.9625839 0.9543645 0.9930138 1.0041339
000030 9c 8a 78 3f 8b bf 76 3f b1 f9 6f 3f 7a ee 76 3f
       0.970865 0.9638602 0.93740374 0.96457636
000040 88 e0 81 3f 77 d4 7c 3f ac bf 78 3f d0 a5 84 3f
       1.0146646 0.98761696 0.9716747 1.0363102
000050 48 70 6d 3f 29 42 78 3f f6 d5 7a 3f 24 15 74 3f
       0.9274945 0.9697595 0.9798273 0.9534476
000060 af ac 6f 3f 6b c4 69 3f e8 86 7a 3f 4c fd 80 3f
       0.9362287 0.91315335 0.978621 1.00773
000070 74 23 76 3f 8e 92 7f 3f 42 73 78 3f e4 58 80 3f
       0.9614785 0.99833 0.9705087 1.0027127

blocks.0.bn.bias f4 [32]
000000 ae 0e 04 bd e0 93 f1 bc 72 47 a4 bc 1d ac d4 bd
       -0.032240562 -0.029489458 -0.020053599 -0.103843905
000010 01 6e 6e bd 6d 44 c3 bc 3b dc 5a bd 5e 54 ce bd
       -0.058210377 -0.023836339 -0.053432684 -0.100746855
000020 3f a9 c3 bd 29 1f 84 bd 6d 97 e0 bc da 98 4a bd
       -0.095537655 -0.06451256 -0.027415955 -0.049462177
000030 93 8e 8f bd 8d 11 cf bd 64 b5 96 bd be ee be bd
       -0.07009616 -0.101107694 -0.07358816 -0.0932288
000040 04 9a 95 bd 45 a7 22 bd 27 1b b4 bd f2 ee e1 bd
       -0.07304767 -0.039710302 -0.087942414 -0.11031903
000050 7e 95 8c bd 99 0f a3 bc b5 e0 19 be fb 5a d6 bd
       -0.06864451 -0.019904898 -0.15027125 -0.10466572
000060 54 1a 51 bd 50 c1 e6 bd 47 2a fd bd d4 88 cd bc
       -0.0510505 -0.1126734 -0.123615794 -0.025089659
000070 dd 64 1a be b3 f1 e1 bd 27 ff 7e 3c 88 78 af bd
       -0.15077539 -0.110324286 0.015563763 -0.085679114

blocks.0.bn.running_mean f4 [32]
000000 02 f7 36 3e b0 28 b7 be 2c 5f 8a be c8 74 cd 3c
       0.17867664 -0.3577323 -0.27025735 0.0250801
000010 69 b3 d7 be 62 eb 5a 3d 3b 78 39 bf d6 3a 22 bf
       -0.42129067 0.053447135 -0.7244908 -0.63371027
000020 5a 5f 49 be 0e 73 13 bf f7 92 7b ba dc ae b3 be
       -0.1966528 -0.57597435 -0.00095967896 -0.35094345
000030 a1 46 ec be 02 1a 82 bc 58 48 2e 3f 7c f7 46 bd
       -0.46147636 -0.015881542 0.6807914 -0.048575863
000040 6f f3 18 be 13 cc 0c bf 70 74 3f 3d 9e 42 1d bf
       -0.14936613 -0.5499889 0.046741903 -0.61429775
000050 b8 7f 9c be 4f c3 d0 bd 98 c4 0d bf 0e 73 37 3e
       -0.30566192 -0.10193502 -0.55378103 0.17914984
000060 1b aa e0 be 89 16 55 bf 07 1c fb be 14 ff 16 bf
       -0.4387978 -0.8323751 -0.4904482 -0.5898297
000070 46 2e 7c bf 8a 6d dc 3d 53 6d f6 3e b9 d9 3c bf
       -0.9850811 0.107630804 0.48130283 -0.7376972

blocks.0.bn.running_var f4 [32]
000000 d4 40 a1 3e 9b b2 95 3e cf 98 cb 3e 53 e5 d3 3e
       0.31494772 0.29237828 0.3976502 0.41385898
000010 b0 f1 0a 3f 0b 5b ca 3e e3 db 0f 3f fc 76 c9 3e
       0.54275036 0.39522585 0.56194896 0.3934859
000020 d2 09 11 3f cd 14 e3 3e 84 3a b1 3e 76 3a a8 3e
       0.5665561 0.44351807 0.34614956 0.32857102
000030 db af 02 3f a5 25 96 3e 79 cf f5 3e 77 26 b0 3e
       0.51049584 0.29325595 0.48009852 0.34404346
000040 22 32 95 3e 36 aa 19 3f 2b fc 99 3e 7b 43 cc 3e
       0.2913981 0.60025346 0.300752 0.39895234
000050 19 ae 94 3e e5 49 9c 3e 30 cc dc 3e d0 69 7b 3e
       0.29039076 0.30525127 0.43124533 0.24552083
000060 cc 84 11 3f 72 79 27 3f 9a 6f d7 3e c8 26 0f 3f
       0.56843257 0.65419686 0.42077333 0.5591855
000070 61 99 d3 3e f7 ee b2 3e f4 6c 0e 3f f0 e1 12 3f
       0.41327956 0.3494794 0.55635 0.57376003

blocks.1.conv.weight f4 [32, 32, 3, 3]
000000 77 50 af bd 02 7d 4d 3d 7e 47 0a bc cd f5 be bb
       -0.08560269 0.050168045 -0.008439897 -0.0058276416
000010 eb 59 4e 3c fd 9e 0c 3d 2e e9 18 3b 2f 78 8c 3c
       0.01259468 0.03433131 0.0023332345 0.017147152
000020 29 4a 84 bd af d7 8a 3c b5 02 7f 3d be 68 a5 bd
       -0.064594574 0.01694855 0.06225844 -0.080766186
000030 7a 6b 97 bd 9c 56 8d bd 9b 96 8f bd 26 4b 40 bd
       -0.073935464 -0.06901285 -0.070111476 -0.046946667
000040 75 a2 38 bc 1b 14 08 be fc e1 a0 3d ad 08 a7 3d
       -0.0112692015 -0.1328892 0.07855603 0.08155952
000050 b4 f6 0a bd 2f a1 cb bd 04 7b 84 bd cc 6c 53 bd
       -0.03392668 -0.09942853 -0.06468776 -0.05161743
000060 98 e3 5d bd a2 cb 8d bd bc 06 78 3c 07 f6 12 bc
       -0.05417213 -0.069236055 0.015138324 -0.00896979
000070 c9 fa 24 3c f6 31 16 3d 95 b5 e9 bc e7 67 f8 b7
       0.010069557 0.03666874 -0.028528968 -2.9612287e-05
000080 4b b9 c5 3b 6a 93 59 3d 2c df 09 3c 57 8b 71 bd
       0.0060340515 0.0531191 0.008415025 -0.058970775
000090 0b 18 ad 3d 49 ed b4 3a 23 1e e4 bc dd 92 63 3d
       0.084518515 0.0013803627 -0.027846402 0.05555998
0000a0 56 99 79 3b 5e c3 96 ba df c3 72 3d f1 dc e0 3b
       0.003808578 -0.0011502316 0.05926883 0.006862276
0000b0 29 3f 26 bd 55 5d 18 bd c8 2f 39 bd 17 9c 58 bc
       -0.040587578 -0.037198383 -0.045211583 -0.0132208085
0000c0 64 d3 6d 3d c4 b7 af 3c 2b 92 02 bd 5e c7 85 bd
       0.058062926 0.021449931 -0.031877678 -0.06532167
0000d0 f6 66 41 bc bf 60 13 3d 11 55 5c 3c 41 f8 34 3d
       -0.011804333 0.035980936 0.013448016 0.044182066
0000e0 58 ea 45 3d 9e 12 d4 bc 89 d7 58 bd 41 35 b0 bc
       0.04831919 -0.025887784 -0.052939925 -0.021509768
0000f0 bf 69 3a bd 30 97 af 3c 9b 9d 2c 3d 47 38 d9 bc
       -0.045511004 0.021434397 0.04214249 -0.026516093
000100 a1 83 b5 bd a9 8e 9d bd 68 24 5a bd 38 a3 d5 bb
       -0.08862997 -0.07693226 -0.053257376 -0.0065197013
000110 8f fa 39 bd 49 40 6c 3d 76 f7 ab 3d 8b 96 00 3d
       -0.045404967 0.057678495 0.08396809 0.03139357
000120 e4 05 e7 3c 89 cd 0c 3d e8 9d 2f 3d 74 25 82 bd
       0.028201051 0.0343757 0.0428752 -0.063548
000130 9f 11 3d 3b d9 f0 34 3d 18 19 09 3d 5b 23 92 3d
       0.0028849614 0.044175003 0.033471197 0.0713565
000140 b4 78 16 3d 10 55 0e bd fc 60 25 3d 13 25 f8 bc
       0.036736205 -0.03474909 0.040375695 -0.030291116
000150 cc df 84 bc df c0 d5 bc 89 0e a2 3d bb e5 e1 bc
       -0.016219996 -0.026092945 0.079129286 -0.027575364
000160 af 39 12 3d 07 06 94 bd 19 a0 d3 3c 9e 9d cc 3b
       0.035699543 -0.07227712 0.025833176 0.0062443754
000170 88 e2 30 3b 38 5b 41 3c 60 91 62 bd 98 a0 04 3d
       0.0026990492 0.011801533 -0.05531442 0.032379717
000180 df 5f 1a bd 4e fa a2 bc 43 67 0a bc de 13 4d bd
       -0.037689086 -0.019894745 -0.008447471 -0.050067775
000190 4b 92 9a 3d 7d 45 ac 3c 1d 2c 55 bc 1c df 45 3d
       0.075474344 0.021029228 -0.013011006 0.048308477
0001a0 98 86 9e 3b 6f ce d6 bb 2e 78 a4 bd 2f 69 f7 bd
       0.004837822 -0.0065553705 -0.08030735 -0.12080609
0001b0 4e 99 8a 3c ec 81 32 3c 1f 46 91 3c 9b 4e 92 bd
       0.016918804 0.010895234 0.017733632 -0.07143899
0001c0 ca 21 13 3b f7 d4 87 3c 3a 2b 64 bd 67 83 e3 bb
       0.002245056 0.016581042 -0.055705287 -0.0069431546
0001d0 31 fc c8 3d 26 a6 a3 bd 1b 9a 5d bd 0c 81 0e be
       0.09813727 -0.07990675 -0.054102045 -0.13916415
0001e0 fa 6e 19 3b 79 b5 67 bc ed 8a fb bb ae eb cf 3c
       0.0023412094 -0.014142388 -0.0076764734 0.025380936
0001f0 5c 14 0b 3c 64 a7 51 bd 7e a0 4b 3d 4f 0e 12 3d
       0.008488741 -0.051185027 0.049713604 0.035658177
000200 dc 69 cb bd a4 54 30 3b 47 90 48 3d 29 b4 76 3d
       -0.099323004 0.0026905918 0.04896572 0.060230408
000210 95 79 fc 3c cd df 15 bd f0 0a b8 bd 3b 48 83 bd
       0.030819694 -0.036590386 -0.08986461 -0.06410261
000220 9a 8b 11 bd ce ee 8c bd 4c 1f 37 bc c0 9b 8d bc
       -0.035533525 -0.06881486 -0.011176895 -0.017286181
000230 ec 5b 03 be 75 87 50 bc 47 27 be bc b5 40 93 bd
       -0.12828034 -0.012727608 -0.023212088 -0.07190076
000240 0c ad 36 3d a5 fc 0e bd 09 6e 8a bb 1d a6 fa bc
       0.044598624 -0.03490891 -0.004224543 -0.030596787
000250 7a 2e b3 bd f1 ee 4d 3d c1 0e d9 3c 6e c0 a6 3c
       -0.08749099 0.0502767 0.026496293 0.02035543
000260 7c 5c 3d bd 36 16 91 3c d1 81 24 bc 1d 09 91 bd
       -0.046230778 0.017710786 -0.010040716 -0.07081816
000270 4b fa 2f 3d c1 ce 8e bd 52 69 0e bd 34 78 76 bd
       0.042963307 -0.06973029 -0.03476841 -0.06017323
000280 bd 70 f9 bd ac f5 ef 3b 96 fd e2 3b d0 87 2a bd
       -0.12179706 0.0073229875 0.0069272025 -0.041633427
000290 28 9f 86 bd 2e a2 39 bc c4 50 2c bd 74 24 a9 3c
       -0.065733254 -0.011330171 -0.04206921 0.020647265
0002a0 ea 17 a3 3c b1 c6 91 3d d1 d8 0c bd 54 fd 95 3b
       0.019908864 0.071179755 -0.03438646 0.004577318
0002b0 1b 03 1f 3c 26 39 89 bd 2a 29 8b 3d 5b 17 f0 bc
       0.00970533 -0.06700353 0.06794961 -0.029308012
0002c0 8d 43 6a bc a2 46 cf bd 12 19 b8 bc a4 c8 fb bd
       -0.014298332 -0.10120894 -0.022472892 -0.122941285
0002d0 2d ac cb bb 4b f0 1c bd ad 6d 21 3c 45 3d 2f 3d
       -0.0062155933 -0.0383151 0.009852809 0.04278304
0002e0 a4 94 c8 bd a8 02 5e 3c dd 4a 9d bd c6 c3 5a bd
       -0.09793976 0.013550438 -0.07680295 -0.05340936
0002f0 ea d3 5e bd c5 10 16 3d 67 e7 6a bd 18 87 67 bd
       -0.054401316 0.036637086 -0.05734959 -0.05652532
000300 8d 88 81 ba 6b b5 31 bc 14 96 a1 bc b2 ca ab 3c
       -0.0009882614 -0.010846476 -0.019724883 0.020970676
000310 0c 23 33 bd 8d 2b 4d bc e1 38 1a bc b1 a0 b1 3c
       -0.043734595 -0.01252259 -0.009412975 0.021683069
000320 7e 84 ee bc 5a e3 43 bd 7d 7e a6 bd c6 51 9e ba
       -0.029115912 -0.04782424 -0.081295945 -0.0012078814
000330 5f 90 01 bd bb 4c 15 3d 62 18 79 3d 3d 07 69 3d
       -0.031631824 0.03645013 0.06081427 0.05689167
000340 f2 5b b9 bc c1 1c 02 bd e7 55 bb 3c 7c 42 bf bd
       -0.02262685 -0.031765703 0.02286811 -0.09338853
000350 8d 53 ad bd d0 7a dc bc ac f3 2e bd 94 39 89 bd
       -0.08463202 -0.02691403 -0.042712852 -0.06700435
000360 71 0b 61 bc b7 af 8f 3c 92 fd b8 bc 6a de 1c bd
       -0.013735638 0.017539842 -0.02258185 -0.038298048
000370 47 81 d2 3b 11 cf 6b bd cf d5 25 bd 76 83 ad 3d
       0.0064241025 -0.05757052 -0.040487107 0.0847234
000380 1a 21 81 3a e2 18 d1 bb 4e 53 68 3c 12 df fd bc
       0.0009851784 -0.00638114 0.014180018 -0.030990157
000390 44 7c 32 bd c7 9f 27 bd ef 10 be 3c 05 f7 61 bd
       -0.04357554 -0.04092386 0.023201434 -0.055167217
0003a0 b5 dd 48 3d 98 90 22 bc 50 a3 88 bb 46 ab 6a ba
       0.04903956 -0.009922169 -0.004169859 -0.00089519133
0003b0 d9 90 78 bb e2 c4 fe bb 17 2c 0f bd 23 47 57 3d
       -0.0037928133 -0.007774935 -0.034954157 0.052558076
0003c0 36 74 a4 bc 9c a9 e4 3c 15 f2 f2 3c 90 77 ec 3c
       -0.020074945 0.027912907 0.02965645 0.028865606
0003d0 f0 50 05 bd ff 1d 9d bc e7 61 a3 3c a5 96 a2 3c
       -0.03254789 -0.019179342 0.019944144 0.019847224
0003e0 5e 3c cf 3a 16 3e 49 bd d7 ee 85 3b f5 04 3b bd
       0.0015810838 -0.049131475 0.00408731 -0.045659024
0003f0 b2 a9 e0 3c 36 53 2a bd 44 aa fb 3c 14 ac 76 bc
       0.027424667 -0.041583262 0.030720837 -0.015055675

blocks.1.conv.bias f4 [32]
000000 a6 43 60 bb f3 90 65 39 70 4f 3e 3a 6e 18 2d bb
       -0.003422001 0.0002189314 0.0007259762 -0.0026412266
000010 e7 49 e4 ba 8a 7c 20 3b e3 6d 97 ba a4 f9 5c bb
       -0.0017417044 0.0024488294 -0.0011553135 -0.0033718133
000020 4f 9d d5 ba 23 68 9f 3a d2 c3 82 b9 fe 1e 92 3b
       -0.0016297492 0.0012161772 -0.0002494143 0.004459261
000030 3e 5a 07 ba 72 9e aa 38 a5 ba 12 3b f7 fd e8 3a
       -0.00051632884 8.1357444e-05 0.002238908 0.0017775883
000040 be 8c c6 b9 46 d1 1e 39 dc 96 ba 3a 08 86 1e bb
       -0.00037870364 0.00015146015 0.0014235633 -0.0024188776
000050 03 a4 a0 bb 25 4f 33 3a d7 b5 ef 3a 0f 77 f9 b8
       -0.004902364 0.00068401016 0.0018288445 -0.000118954216
000060 83 96 ff 3b 5b 98 e8 39 27 16 2a ba 12 fa 76 ba
       0.007799925 0.00044364002 -0.00064882863 -0.00094214187
000070 c9 65 f8 ba 14 ef 89 39 14 ac 78 b9 51 31 58 ba
       -0.0018951233 0.00026308803 -0.00023715227 -0.0008247095

blocks.1.bn.weight f4 [32]
000000 cc 57 71 3f fc e7 7d 3f 14 f8 81 3f b0 e5 83 3f
       0.9427459 0.99182105 1.0153832 1.030447
000010 a6 af 81 3f 5f ce 76 3f da 0b 79 3f 4f 95 85 3f
       1.0131729 0.9640865 0.9728371 1.043619
000020 ca ad 75 3f 9c be 71 3f 06 af 76 3f 27 cf 7e 3f
       0.95968306 0.9443147 0.96360815 0.9953484
000030 b0 01 70 3f a0 ea 78 3f de e1 7f 3f 5f 90 7e 3f
       0.93752575 0.9723301 0.9995402 0.9943904
000040 c9 fd 86 3f 02 86 72 3f 9b 99 87 3f bb 28 7e 3f
       1.0546199 0.9473573 1.0593752 0.992809
000050 70 23 7d 3f a7 44 6e 3f 4d 58 80 3f fe 87 80 3f
       0.988822 0.93073505 1.0026947 1.0041502
000060 39 71 87 3f 7b 73 7f 3f d2 6b 6a 3f 02 e1 75 3f
       1.0581428 0.99785584 0.9157077 0.9604646
000070 d3 3c 7f 3f 8b 03 7a 3f ec dd 6c 3f b4 cc 7b 3f
       0.99702185 0.97661656 0.92526126 0.9835923

blocks.1.bn.bias f4 [32]
000000 e6 a9 c9 bd a4 7e f3 bc 98 2f 02 bd cc 5c 96 bd
       -0.09846859 -0.029723473 -0.03178367 -0.07341918
000010 87 55 85 bd 8f 99 be bc f8 3d 78 bd e9 4c dc bd
       -0.06510454 -0.023266582 -0.060605973 -0.10756857
000020 24 b9 00 be 7c ad 09 bd 42 97 05 3d 46 eb a1 bd
       -0.12570626 -0.033612713 0.032614954 -0.07906203
000030 fa 92 67 bd f9 e2 f4 bd 53 ae 35 be b2 6a 12 be
       -0.056536652 -0.11957354 -0.1774228 -0.14298514
000040 97 01 ef bd f8 ce 84 bd 6e 28 f5 bd 32 94 0b be
       -0.11670225 -0.06484789 -0.11970602 -0.13630751
000050 2c 78 91 bd 82 85 29 be c0 28 01 be df bf bd bd
       -0.07102999 -0.16554835 -0.12613201 -0.09265112
000060 dc 10 a3 bd 04 16 bf bd eb b7 cd bd ee e9 13 3d
       -0.079622 -0.09330371 -0.10044845 0.036111765
000070 16 c3 ea bd 5d bc f9 bd 28 82 60 3c 74 fb be bd
       -0.11462991 -0.121941306 0.013702907 -0.093253046

blocks.1.bn.running_mean f4 [32]
000000 7d 39 d1 bf e9 d5 78 bc f9 54 4f bf 6a 4e 9c bf
       -1.6345669 -0.015187719 -0.80989033 -1.221143
000010 09 3b c0 bf 47 e3 6a bf 5e 0d b0 3f a2 ad 72 bd
       -1.5018016 -0.9175305 1.3754079 -0.05924762
000020 88 81 c5 bf 70 ea ac 3f bf 9c 91 3f f7 eb 43 bf
       -1.5430155 1.3509045 1.137596 -0.7653193
000030 b0 19 d3 be 29 98 22 3f 15 84 67 bf 40 c1 8f bf
       -0.41230536 0.6351343 -0.90435916 -1.123085
000040 eb f0 25 3e c4 47 7b 3e b1 f7 b5 bf f0 94 9a be
       0.16205184 0.24539095 -1.4216214 -0.30191755
000050 6e bc 80 be af ae c8 bf 5a f0 61 be 3a ed 1c bf
       -0.2514376 -1.5678309 -0.22064343 -0.6129948
000060 b9 2b c8 be 81 53 f5 3d 0d ac 44 3f 98 7d 76 3f
       -0.39095858 0.11978818 0.7682503 0.9628539
000070 39 34 c9 bd 00 27 1f bf f7 88 c5 3f ee 17 30 3f
       -0.09824414 -0.62168884 1.5432423 0.68786514

blocks.1.bn.running_var f4 [32]
000000 e5 af a0 3f 2d 96 09 3f 79 29 70 3f e1 9f 5d 3f
       1.2553679 0.53744775 0.9381328 0.8657208
000010 ba 43 52 3f 26 b5 ac 3f 1b 67 38 3f df ff 3a 3f
       0.8213459 1.3492782 0.72032326 0.7304668
000020 b6 ad 9a 3f fd c0 6c 3f 95 94 d2 3f cf 5a 10 3f
       1.2084262 0.92481977 1.6451594 0.5638856
000030 30 b4 73 3f fc 4f fb 3e 85 92 68 3f d9 df 9b 3f
       0.9519682 0.4908446 0.9084857 1.2177688
000040 c1 d8 0b 3f f9 00 0b 3f e1 fc 17 3f 87 44 83 3f
       0.54627615 0.5429836 0.5937024 1.0255288
000050 d8 ba 20 3f 81 07 e1 3f 95 c4 22 3f 2a ad 2c 3f
       0.627851 1.7580415 0.6358121 0.6745173
000060 5c 57 57 3f 47 97 18 3f 1c d0 11 3f fc 94 b4 3f
       0.84117675 0.5960583 0.56958175 1.4107966
000070 64 71 19 3f 7c 35 77 3f 0a 66 d8 3f 8a be 33 3f
       0.59938645 0.96565986 1.690614 0.70212615

blocks.2.conv.weight f4 [32, 32, 3, 3]
000000 9f 02 4a bd d9 8b 1b bd 14 3c 65 bd f9 d9 e4 bb
       -0.049318906 -0.037975166 -0.055965498 -0.006983992
000010 b1 35 58 bd 63 89 55 3c aa 9e 52 3d 17 40 89 bd
       -0.05278558 0.013033244 0.051420845 -0.06701677
000020 62 e4 3e 3d 3a 40 56 bd f8 28 9a 3c 28 98 ad bd
       0.04660452 -0.052307345 0.018818364 -0.08476287
000030 d7 3a 56 3c 71 80 39 3c e0 91 ee bd fa 90 e6 bb
       0.013075552 0.011322127 -0.11648917 -0.0070363255
000040 b9 c9 3a bd c6 f5 3c be e4 0d 48 3d e2 7d 28 3d
       -0.045602534 -0.1845313 0.048841372 0.041135676
000050 15 a0 c9 bc bd c2 ef bc f6 34 9e 3c 2e bb 84 3c
       -0.024612466 -0.029267663 0.019312363 0.016202535
000060 8f 8a d5 3b a2 c9 44 bd c4 f0 1e 3d 68 e2 4d bd
       0.0065167616 -0.048043855 0.03880383 -0.050264746
000070 56 c4 15 bd 8e 9d 14 3d 05 6c dd 3c 0d e0 c8 bb
       -0.036564194 0.03628307 0.027029047 -0.0061302246
000080 3c c7 ca 3c 2c ed 31 3d cc 5c 58 3d 14 3a 2a bc
       0.024753205 0.043439075 0.052822873 -0.0103898235
000090 b4 28 30 bd 92 74 8b bd a1 29 b7 3d 6d 8f 57 3c
       -0.043007568 -0.068093434 0.08943487 0.013156754
0000a0 5b 11 5d 3d d4 ee a8 3d a6 86 ba 3d 95 fc 81 3c
       0.05397163 0.08248678 0.091077134 0.01586751
0000b0 99 4e 32 3d 44 9e 73 bd c0 e2 3c 3d 93 70 00 3d
       0.043531988 -0.059477106 0.046114683 0.03135736
0000c0 ba 00 bc bc 8c 07 71 3d 45 ba a3 3d ec c2 09 bc
       -0.022949565 0.058845088 0.079945125 -0.008408289
0000d0 b6 cb 88 bd af 1a 3b bc 9b 36 82 bd af f0 79 3c
       -0.0667948 -0.011419936 -0.063580714 0.015255137
0000e0 57 e0 12 3d 1b f1 a8 3b b3 9b 67 bd 81 03 0d bc
       0.03585848 0.005155695 -0.05654497 -0.008606792
0000f0 26 5f 11 bd db 01 94 bb c5 36 76 bd b9 e4 64 bd
       -0.03549113 -0.0045168228 -0.060110826 -0.05588219
000100 7c a2 25 bd 13 d9 c3 bd a3 5e b1 bc cb 1b 4a bb
       -0.04043816 -0.09562888 -0.021651572 -0.003083932
000110 26 2d 18 3d 6f 31 4f 3d d5 ba a5 bc e1 58 3a 3d
       0.037152432 0.050584253 -0.02023069 0.045494918
000120 71 ab db 3a 4e 9b 47 bc 86 07 50 3d b1 91 56 3b
       0.0016759468 -0.012183024 0.050788425 0.0032740647
000130 6f a8 af bd ea 14 a6 bc 69 4f 3b 3c ba d4 71 bd
       -0.08577048 -0.020273644 0.011432507 -0.059040762
000140 91 5f 85 bc a5 0f 2a bc 68 4b 17 3d 06 81 e7 bd
       -0.016280921 -0.0103797065 0.036937147 -0.11303906
000150 81 8e 01 bd 8f d9 cf bc f8 6a df b8 e7 87 c7 3c
       -0.031630043 -0.025372295 -0.00010653393 0.024356795
000160 95 4d a2 bc 70 43 7f bd 35 7a 1b bd 61 0d 39 bd
       -0.019812385 -0.062320173 -0.037958343 -0.045178775
000170 38 2e f3 3c c9 5a 2a bd 28 69 dd bc 6e 4d 8e 3c
       0.029685125 -0.041590486 -0.027027681 0.017370906
000180 9c 4b 97 bd 11 85 9a bc c8 4d ed bc 78 3c 86 3c
       -0.07387468 -0.01886228 -0.028967753 0.016386256
000190 bc 7d 21 3c 7b 96 08 bc 55 b9 57 3c 01 e2 4f 3d
       0.009856638 -0.008336659 0.013166745 0.050752643
0001a0 e6 05 64 bd 15 01 99 bc 6b e1 a5 bd de 6c 44 3a
       -0.055669688 -0.018677274 -0.08099636 0.0007493029
0001b0 e0 43 ef 3c a5 44 35 bc 13 3d e8 3b 98 c9 6d 3d
       0.02920717 -0.011063729 0.0070873587 0.058053583
0001c0 1c 84 24 3c 5f 78 5b 3c 4e c2 92 bd 0e ac df 3c
       0.010041263 0.013395398 -0.07165967 0.027303722
0001d0 d6 5d 22 3c dd 9d 62 bd 59 9b 88 bd 2f ad cd bd
       0.009910068 -0.05532633 -0.06670255 -0.10042798
0001e0 f3 6c cf bc 39 0f d6 bc 2c 8c 3d bd 78 8b 04 bd
       -0.025320506 -0.026130306 -0.046276256 -0.03235957
0001f0 1a 1f 90 3c fb ba 5a bd bb 46 7a 3d af f6 be bd
       0.017592955 -0.053400975 0.06110261 -0.09324395
000200 8b cd f4 bd 6f b8 99 ba 9e b8 0b 3d e1 6e c8 3c
       -0.11953267 -0.0011727939 0.03411161 0.024466934
000210 5e ff e2 3c f4 60 23 3d 32 a5 83 bd c4 64 20 be
       0.02770966 0.039887384 -0.06427993 -0.15663439
000220 a6 c6 c5 3b e6 4c a5 bc 0c 65 38 bd 46 9b 1e 3d
       0.0060356436 -0.02017827 -0.04501824 0.0387223
000230 59 19 ac bd 35 3a 7d 3d 84 0d 95 bc 93 4a 99 bc
       -0.08403272 0.06182309 -0.018194921 -0.018712318
000240 87 5a ab bb 50 fd d4 3c 43 15 50 bd c3 91 01 3d
       -0.0052292976 0.025999695 -0.050801527 0.03163315
000250 ac 82 af bb 6f 54 27 3d 15 b7 a6 3c c2 aa 9f ba
       -0.0053561535 0.040852007 0.020350972 -0.0012181627
000260 30 7a 06 3d 6d 9d 0f bd da 67 9f bd 84 e9 bc bd
       0.03283137 -0.035062242 -0.0778348 -0.09224227
000270 05 ee dc 3b 2d 14 eb 3c 1c 25 8c 3c 0a b5 61 bd
       0.0067422413 0.028696144 0.017107539 -0.055104293
000280 c1 1b 6f bd bd 36 98 3b 55 32 df 3c f6 5f a3 3d
       -0.058376078 0.004645197 0.02724568 0.079772875
000290 f6 52 44 3c 7a ed 13 3d 5d 65 28 3c d7 23 04 bd
       0.01198267 0.036115147 0.010278073 -0.032260742
0002a0 34 47 85 3d 51 97 cb 3c 0d 2f 28 bd bb 88 98 3d
       0.065077215 0.024852427 -0.041060496 0.07447954
0002b0 46 2e 49 3d e6 6a 3c 3d 24 ef d3 3c 9a 16 fb 3c
       0.049116395 0.046000384 0.025870867 0.030650426
0002c0 8a cd a2 3c 6a bc 1a bd 84 2b 3c 3c dc bd 92 3b
       0.0198734 -0.037777342 0.011484984 0.0044781994
0002d0 4c b4 8a bd 16 41 ce bc be 8f 6a 3d 17 a5 20 bd
       -0.0677267 -0.02517752 0.05726599 -0.039219942
0002e0 5c db 0b 3c e6 c8 c3 3c 77 df 2f 3c 92 0f 6b 3d
       0.008536186 0.023899507 0.0107344305 0.057387896
0002f0 e5 2a 0c 3d f8 fc 5f bd 4f 03 43 bd 02 91 81 bd
       0.034220595 -0.05468461 -0.047610577 -0.06326486
000300 75 cf ca 3c 56 60 2e 3c 54 c2 2a bb 75 40 31 bd
       0.024757126 0.010643085 -0.002605577 -0.04327436
000310 9a 0f de 3c 5a 50 09 3d 50 02 84 bb a4 ee 3a bb
       0.027107049 0.033523895 -0.004028596 -0.0028523589
000320 8c 93 42 bd fe 31 65 bd f0 6d db bc 62 34 cb bc
       -0.047503993 -0.05595588 -0.02678582 -0.024805252
000330 d3 74 b6 3b 66 49 8b 3d ba dc 82 3d 9f 5d 30 bd
       0.0055681258 0.06801109 0.063897565 -0.043058034
000340 24 55 30 bd 3d 35 10 bd 68 a9 5f 3c 13 de cd 3c
       -0.043049946 -0.035207022 0.013651229 0.025130307
000350 ad 59 49 bd 41 e1 9a 3c d1 b9 1b 3b 53 40 42 3d
       -0.049157787 0.018906238 0.0023761878 0.047424626
000360 d7 9c 20 bd 57 55 5f 3d e6 92 d6 3d af fc c5 3b
       -0.039212074 0.054524746 0.104772374 0.006042085
000370 e6 22 c2 3d 54 a3 9c bc b1 0b dd 3c 89 03 6c bd
       0.094793126 -0.01912085 0.026983114 -0.05762056
000380 a5 b2 2b bd b1 46 b6 bd 24 53 56 3d 5d f0 18 bd
       -0.041918416 -0.08900202 0.052325383 -0.037338603
000390 dd 25 7a bd a0 e4 33 3c ae 91 5b bd 9e b9 db bc
       -0.061071265 0.010979801 -0.053605728 -0.026821908
0003a0 d4 79 94 3c 09 d2 25 bd 79 e0 9f bd ff dc 37 bd
       0.018124498 -0.04048351 -0.07806487 -0.044888493
0003b0 45 73 3c 3c ec 23 77 bd 84 b2 86 3c 90 0a 61 3c
       0.011502092 -0.060336992 0.016442545 0.013735428
0003c0 49 20 d6 3c 6c c4 37 bd dd 32 20 3d 4d 92 b5 bd
       0.026138442 -0.044865057 0.039111007 -0.08865795
0003d0 54 ac a1 bd 32 b7 08 bd 88 49 2b 3d 8c d0 5e bd
       -0.07894197 -0.033377834 0.04181817 -0.054398105
0003e0 d1 5e 5f bd 8b f8 ac 3c 97 62 28 3d 7b f4 07 3d
       -0.054533783 0.021114608 0.041109648 0.03319214
0003f0 45 ba 0c 3d 60 8f 7d bd fe 35 74 bd 7e 19 b2 3d
       0.034357328 -0.06190431 -0.059621803 0.086962685

blocks.2.conv.bias f4 [32]
000000 f3 1d 01 bb 93 d5 08 bb d5 18 92 b7 46 41 63 bb
       -0.001970169 -0.0020879253 -1.741612e-05 -0.0034676357
000010 a4 64 29 bb d6 dc 14 bb c0 a8 c8 39 6e 34 e1 3a
       -0.002584734 -0.0022714636 0.000382727 0.0017181763
000020 48 e5 8a ba 69 1c ec b8 71 18 fd 39 6d d9 4e 3a
       -0.0010596896 -0.00011258649 0.0004827413 0.00078906753
000030 aa 78 55 3b 35 d4 34 bb 4b 2b a1 b9 1c 5a c5 ba
       0.0032573142 -0.0027592306 -0.0003074057 -0.0015056762
000040 d5 c4 e8 39 08 f5 5f bb a3 db 3b 39 4c 0f 0f 3b
       0.0004439714 -0.003417315 0.00017915531 0.0021829186
000050 06 dd 77 39 07 49 55 ba f7 a5 30 b9 e6 53 70 ba
       0.00023638093 -0.0008136187 -0.00016846495 -0.0009167775
000060 13 f6 41 3b ca 8c 0e 3a f9 2c 85 ba 48 88 4e 39
       0.0029596135 0.00054378493 -0.0010160498 0.0001969646
000070 9c 7b bf ba 12 32 7c bb e3 9b ad b9 92 76 a9 bb
       -0.0014608982 -0.0038481993 -0.00033113276 -0.0051716054

blocks.2.bn.weight f4 [32]
000000 3b 3d 86 3f 72 e5 76 3f 46 69 78 3f 62 42 76 3f
       1.0487436 0.96443856 0.97035635 0.9619504
000010 13 00 7b 3f 98 a8 75 3f 2b 3b 79 3f 0c ec 79 3f
       0.9804699 0.9596038 0.9735591 0.97625804
000020 ab eb 7b 3f 66 98 7b 3f 71 b6 78 3f 09 1f 81 3f
       0.98406476 0.98279417 0.97153383 1.0087596
000030 30 71 81 3f 75 49 73 3f cc 1a 84 3f 82 79 7b 3f
       1.0112667 0.9503396 1.0320678 0.9823228
000040 2b af 7c 3f a1 e8 83 3f cb 74 79 3f 62 28 80 3f
       0.98704785 1.0305368 0.97443837 1.0012324
000050 a6 a0 7f 3f ed 63 7f 3f f6 92 7c 3f ea 4f 82 3f
       0.99854505 0.9976185 0.98661745 1.0180638
000060 aa 49 87 3f 61 5a 81 3f 65 43 88 3f ef 08 75 3f
       1.0569355 1.0105706 1.0645567 0.95716757
000070 f2 11 7a 3f 18 e7 81 3f 5f cf 6f 3f 3b 72 82 3f
       0.9768363 1.0148649 0.936758 1.019111

blocks.2.bn.bias f4 [32]
000000 90 7b bf bd 82 e8 df bd 6b 73 ab 3c 5c b7 70 3c
       -0.093497396 -0.10933019 0.020929059 0.014692154
000010 7e 11 95 bd c4 3f 37 bc 0b 1e c5 bd b5 36 d2 bd
       -0.07278727 -0.0111846365 -0.09624871 -0.10264341
000020 2c 42 0c be 75 fa 09 3b dc 3c 6d 3b 2c 31 e2 bc
       -0.13697118 0.0021053825 0.0036199605 -0.027611338
000030 86 e2 36 bd 41 4b ba bd 61 5f 47 be cc bf cd bd
       -0.044649623 -0.09096385 -0.19469978 -0.10046348
000040 a6 42 ab bd 87 a8 d9 bd 97 7a ba bd b3 aa de bd
       -0.083623216 -0.10627847 -0.091054134 -0.10872402
000050 af 73 b7 bd 83 53 2c be 9a f5 f2 bd 20 44 16 be
       -0.08957612 -0.16828732 -0.11863251 -0.14674425
000060 54 48 8e bd 0b 15 c5 bd 58 d5 0c be 29 aa f4 3c
       -0.06947389 -0.09623154 -0.13753259 0.029866295
000070 10 e2 e1 bd d7 b4 e0 bd ec 41 10 3d b4 28 bc bd
       -0.11029446 -0.109719925 0.035219118 -0.09187451

blocks.2.bn.running_mean f4 [32]
000000 e6 50 b1 bf 6d 0a 2e bf 09 f6 c6 3f d4 7b a0 3f
       -1.3852813 -0.6798466 1.5543834 1.2537789
000010 fe 53 e6 bf 86 59 d9 3f 11 5a 6a bf 23 30 8c bf
       -1.7994382 1.6980445 -0.9154368 -1.095219
000020 59 6e 38 bf 83 6d 7b be b1 74 03 be 2e 7c 1f bf
       -0.7204338 -0.24553494 -0.12837483 -0.6229886
000030 89 13 5d 3f 96 ad f1 bf 05 f9 11 bf 3f 57 dd 3e
       0.86357933 -1.8881099 -0.570206 0.43230626
000040 39 6a 91 3f f3 6c 61 be ea 72 2b bf c7 b8 21 c0
       1.1360542 -0.22014217 -0.6697222 -2.526903
000050 87 c9 a2 bf 80 dd 6d bf d8 8f 6c 3e 97 8c b3 bf
       -1.2717751 -0.9291611 0.23101747 -1.402728
000060 64 ac 85 3d 1d ab 32 bf a9 29 a7 bf 09 66 20 3f
       0.065270215 -0.6979235 -1.3059589 0.62655693
000070 b4 1f bb 3e 56 c6 71 bf a2 86 a5 3f 54 1b e1 bf
       0.36547625 -0.9444326 1.2931712 -1.7586465

blocks.2.bn.running_var f4 [32]
000000 ad 06 04 40 29 0f 5f 3f 7e ee 77 40 0f a1 56 40
       2.0629075 0.8713251 3.8739314 3.3535802
000010 b2 34 83 3f d6 7d 9a 3f 0a a7 1d 40 55 ea 7e 3f
       1.0250456 1.2069652 2.4633203 0.9957631
000020 90 fc 90 3f 4c f6 24 3f 20 db 20 3f 42 5b 44 3f
       1.1327076 0.6443832 0.6283436 0.7670175
000030 ff 46 27 3f 7d 4d 11 40 09 ea 01 40 3f 6a 13 3f
       0.65342706 2.2703545 2.0299094 0.57583994
000040 74 9f 50 3f 03 a1 1b 3f 83 32 bc 3f 03 d5 29 40
       0.81493306 0.6079256 1.4702915 2.6536262
000050 f3 dc 88 3f b1 4a d0 3f 28 af 9a 3f a1 1b ba 3f
       1.0692428 1.6272794 1.2084703 1.4539682
000060 75 a0 5c 3f 06 a3 e0 3f 91 24 80 3f 57 13 27 40
       0.8618234 1.7549751 1.0011159 2.6105554
000070 9f 9f 9a 3f 27 42 ee 3f be b4 6b 40 54 74 ce 3f
       1.2079962 1.8613938 3.6829066 1.612925
