models/55.pth (torch, 501905 bytes, 80 tensors)

conv0.conv.weight f4 [32, 17, 3, 3]
00000000: a055 24bd f9d4 c33d 722e 89be 2e2c e73c
00000010: 0d86 00be 7c84 8f3d 2e96 abbd 0444 ff3c
00000020: e47c 533b 2819 c03c 1162 63bc beab 1e3c
00000030: 9196 b43d af54 54bc 1f50 353d 2c34 733b
00000040: ed88 043d 87ab 2dbd a882 e73d b4e5 a7bd
00000050: 85e1 043e d69b ed3c da8b fb3c 8aee 9e3d
00000060: 5a78 cfbc 372c eb3b c9fc 9c3c 3bc2 18bd
00000070: 7a64 933d 0695 c93c a09c 6dbd 5b18 003d
00000080: 808e 383d f56f 303b 0f25 09bd 5789 8a3d
00000090: b105 423d 1642 4d3c 76f2 9d3c bd2e 9d3d
000000a0: a713 34be 89f0 0f3e bc35 f03d aabd d03d
000000b0: 2324 fe3d a02e e23c ff29 0dbd c0ea f43c
000000c0: 0fe1 6f3d 1b2c afbd 2261 c83d a593 253e
000000d0: b5b4 23bd 8a60 063d 3d83 0c3d 1435 973d
000000e0: 1a84 be3d 9bbe 0e3e fabd 96bd abe2 cb3d
000000f0: cda8 463d 2186 e4bc a9de 8d3d ee6f 2bbd
00000100: 4806 163d 8203 913d 94f5 12bb 3aa4 1abd
00000110: 9e91 593d bf38 f43d 4e65 433d 9257 943d
00000120: 2eb2 753d 6f37 a93d 7224 6bbd f86b c33d
00000130: 7435 c93d d0ad 603d fc2d 52bd 3876 aa3d
00000140: 6099 48bb 3b41 83bd c63e 7e3d 642d bdbc
00000150: 6ec7 583b 186b 8c3e 2386 bb39 b9d8 2dbc
00000160: 0a44 d53d 906b 8b3d 96c2 7cbd 5f99 9e3d
00000170: daaa 86bd 6612 46bd e6e7 3b3e cc52 633d
00000180: bd45 73bd d743 a53d 958e 7e3b 6907 f9bc
00000190: a795 ff3d 6def a3bd 187d 0e3c 93ea 183e
000001a0: 1b05 863d 635c 9bbd e063 a63d e950 333d
000001b0: ca79 2dbd f338 2fbe ab95 ab3d 01d0 e23c
000001c0: 9a53 74bd 4eb9 29bd 25fe 1c3d 97bd 893c
000001d0: ae79 b43d dfc4 003d 045a e3bb 51e2 1d3e
000001e0: 9bb2 a8bd a344 c93d 07e8 30bd f8e8 7a3d
000001f0: f548 963c aa51 133e c8eb 8d3c e262 d33b
00000200: e703 ab3c fbc1 6abd 7903 113c c604 cb3c
00000210: 8068 55bd f3be c3bc ded4 a53c eb61 b5bc
00000220: d732 453d c9b3 23bd c94e 343b 7c68 1f3c
00000230: 614d 263d 3ad7 c0bc d6ea 1bbc 09e1 aa3d
00000240: d518 8c3d 8e31 833d 9a32 52bc 35f0 e73c
00000250: b1cf 853c 8708 873c edd7 133d 007d fbbc
00000260: 88ed 2fbc b9f0 cd3d 3ac5 ed3d 0035 ce3b
00000270: 2bcd 27be 77cf 4fbe 5831 e53d ed8a 993d
00000280: cab8 85bb c91e 56bd 6aba fb3c 6b9f 443a
00000290: 084f 12bd 0977 c8bb ab50 c9bd 6e7d 38bd
000002a0: 3a0b bcbd 8301 43bd ac23 c3bd bc20 42bd
000002b0: b7a6 a63d abec 01be 39e9 d6bd 654f 903c
000002c0: 93ea d2bd 5174 e8bd 695a bdbd 1f56 babd
000002d0: 8c0c 02be f8ff 7bbc 47ce d3bd c818 62bd
000002e0: bc44 043d 3483 09bd e0d3 db3c cb05 fabd
000002f0: 4e6b 46bd 36ba afb9 9390 43bd 5c00 18be
00000300: 38d3 523c 5881 78bd 2307 9fbc 311a 203d
00000310: 0b6d 923c 0ce9 20be e81f 8bbd cce5 66bd
00000320: 3a3b 35be 5545 fcbc f5e5 97bd ce27 40bd
00000330: 4991 30be ba98 8fbd 40a4 9ebd 10c7 e6bd
00000340: 2d1d e53b 086d 40be 1963 9cbd 820a ebbb
00000350: 9afb 25bd f89c 89bd ab21 debd e292 6ebd
00000360: 9481 c4bd 6051 cbbd 36e4 22be fcf0 f33c
00000370: 33be 03be 7834 45be c73b 95bc 8025 a0bd
00000380: 2690 07be aa43 8fbd 5cff f7bb c0f1 8b3d
00000390: 8f96 73bb e25e a3bd 49e8 e43d 0921 20bd
000003a0: 56e1 d4bc 3f9e 8e3d b2e1 f3bc 04e4 05bd
000003b0: 58a3 8f3d 339d 923d 5311 bd3c bc8c ad3d
000003c0: 379e ab3d d660 493d fc9b f23c 26cf 5e3d
000003d0: 71f6 853c 02be bc3d b2ba 903d fb4c f63c
000003e0: 7059 c63c 011e b83c 50b3 ae3d aad0 be3d
000003f0: 2261 873d 9b07 de3d 6072 8c3d 0182 5b3d
-0.04012072 0.09562106 -0.26793247 0.028219309 -0.12551136 0.07007691 -0.08378254 0.031160362
0.0032270486 0.023449495 -0.013878361 0.009684501 0.08817781 -0.012959643 0.044265863 0.0037109954
0.032357145 -0.04239991 0.113042176 -0.08198109 0.12976654 0.029004972 0.030706335 0.077603415
-0.025325943 0.0071769017 0.019163506 -0.037294608 0.07196899 0.024607193 -0.058010697 0.031273227
0.045057774 0.00269222 -0.033482607 0.06764477 0.04736871 0.012527963 0.019280653 0.0767493
-0.17585622 0.140566 0.11728999 0.101924255 0.12409236 0.027610123 -0.03446388 0.029897094
0.058564242 -0.08553334 0.097841516 0.16169603 -0.039967258 0.03280691 0.034304846 0.07383171
0.0930254 0.13939898 -0.07360454 0.09955343 0.048500825 -0.027895989 0.06927235 -0.04185479
0.036627084 0.07080747 -0.0022424208 -0.037754275 0.053117387 0.11924886 0.047704034 0.07243265
0.05998438 0.08262526 -0.057407804 0.09542078 0.098246485 0.05485326 -0.051313385 0.0832333
-0.0030608997 -0.06408926 0.062071584 -0.023092933 0.0033077854 0.27425456 0.0003576736 -0.010610753
0.10413368 0.06807625 -0.06170901 0.07744097 -0.06575556 -0.04835739 0.18350181 0.055498883
-0.05939268 0.0806958 0.003884231 -0.030399041 0.12479716 -0.08004651 0.008696817 0.14933233
0.065439425 -0.07585981 0.081245184 0.043778334 -0.042352475 -0.17111568 0.08378156 0.027687075
-0.05965004 -0.041436486 0.03832831 0.016814036 0.08812271 0.03143775 -0.006938221 0.15418364
-0.08237191 0.098275445 -0.04319003 0.061257333 0.018345335 0.14386621 0.017324343 0.0064509967
0.020875884 -0.0573139 0.008850926 0.02478255 -0.052101612 -0.023894763 0.020243105 -0.022141417
0.048144188 -0.03996638 0.002751278 0.009729501 0.040601138 -0.023540128 -0.0095164385 0.08343703
0.06840674 0.06405936 -0.012829447 0.028312782 0.016334387 0.016483558 0.036094595 -0.030699253
-0.010737784 0.1005568 0.116098836 0.006292939 -0.16386859 -0.20293985 0.11191052 0.07497201
-0.0040808665 -0.052275453 0.030728538 0.0007500562 -0.0357199 -0.0061177057 -0.09829839 -0.045041494
-0.09181829 -0.047608864 -0.09528288 -0.0473945 0.08137267 -0.12687938 -0.104937024 0.017615983
-0.10298648 -0.113503106 -0.0924576 -0.090984575 -0.12700099 -0.015380852 -0.10342079 -0.055199414
0.032292113 -0.03357239 0.026834428 -0.12208136 -0.048442177 -0.0003351734 -0.0477453 -0.14843887
0.012867741 -0.060670227 -0.019412583 0.039087478 0.017874261 -0.157139 -0.06793195 -0.056371495
-0.17698374 -0.030794779 -0.07416908 -0.04691296 -0.17242922 -0.07011552 -0.07746172 -0.11268437
0.0069920034 -0.18791592 -0.07636089 -0.0071728835 -0.04052315 -0.067193925 -0.108462654 -0.058245547
-0.095950276 -0.099276304 -0.15907368 0.029777996 -0.12865524 -0.19258296 -0.01821698 -0.078196526
-0.13238582 -0.06995328 -0.007568283 0.068332195 -0.0037168597 -0.07977082 0.111771174 -0.039094005
-0.025986355 0.06963777 -0.029770706 -0.032688156 0.07013577 0.071588896 0.02307955 0.084741086
0.083797865 0.049164616 0.029615395 0.05439677 0.016352864 0.092159286 0.07066859 0.030066004
0.024212569 0.022475244 0.08530295 0.09317143 0.066103235 0.108412944 0.06857753 0.05359078

conv0.conv.bias f4 [32]
00000000: 6436 7abb b2ab eeba 57f4 a7ba b117 a3bb
00000010: b0f0 ad38 c485 1dbc ca3c f53a 609b b8bb
00000020: 7e90 363c e145 80ba 7c63 a53a f1c3 0cbb
00000030: 41f1 ac3b 8e93 3239 0cc4 2abb 29b3 753a
00000040: d323 90ba 6558 adbb 195f 953c 1eab 75bb
00000050: a30f e038 738c bf3b c086 123c 54b4 133b
00000060: 670b 173a f795 dabc 2b10 813c 4cf1 053b
00000070: f27e 7f3b 159b bfba 0285 4b3c 17f7 9539
-0.0038179392 -0.0018209128 -0.0012813908 -0.0049771895 8.2941144e-05 -0.009614412 0.0018710133 -0.0056337565
0.011142848 -0.000978645 0.001261815 -0.0021479095 0.005277783 0.00017030371 -0.0026056794 0.0009372705
-0.0010997005 -0.0052900785 0.018233823 -0.0037486027 0.00010684065 0.0058456003 0.00894326 0.0022537904
0.0005761892 -0.026682837 0.01575478 0.0020438014 0.0038985577 -0.0014618362 0.012421848 0.0002860359

conv0.bn.weight f4 [32]
00000000: 4824 673f 9dc1 6b3f b8ea 5f3f eb47 643f
00000010: 2f91 633f 9dfc 643f 4eb9 5b3f 1f90 6b3f
00000020: 820d 6d3f 60c6 713f 873c 6b3f 45e3 6c3f
00000030: 5bdf 693f 17bf 6f3f 5391 683f 2509 813f
00000040: 1402 673f 7d5f 893f 823d 713f 3a52 6a3f
00000050: 57bd 673f b4f4 7d3f 11bf 6d3f aef9 703f
00000060: b3d5 7f3f 9e97 6a3f bf0c 703f cf44 6c3f
00000070: 276d 7d3f bad5 623f 618a 603f 6c36 733f
0.90289736 0.92092305 0.8746753 0.8917224 0.8889341 0.8944796 0.8582963 0.92016786
0.92598736 0.9444332 0.9188923 0.92534286 0.9135644 0.93650955 0.9084675 1.0080916
0.90237546 1.0732266 0.9423448 0.9153172 0.90523285 0.9920151 0.9286967 0.9413098
0.99935454 0.916376 0.9376945 0.92292494 0.9899468 0.8860737 0.8771115 0.95004916

conv0.bn.bias f4 [32]
00000000: b161 67be fae2 c8bc 41b4 80bd b631 92be
00000010: b365 0ebe 9cd8 88bd 46cf efbd 8b35 15be
00000020: 1d08 a5bd f0b6 1fbe 8cd4 39bc 05ae e93c
00000030: 9944 45bd 8243 03be 6ced 27be 2559 95bd
00000040: 46d2 e7bd ae7a 433d ad61 5dbd 3f57 97bd
00000050: 8b48 99bd 71ce 573c df05 19be bce5 d2bd
00000060: acc4 05bd a43d 8fbd 37e0 ebbd 1957 12bd
00000070: effb b6bd 0482 9a3c 09a5 90bc 9dbc 983c
-0.2259586 -0.024522293 -0.06284381 -0.2855355 -0.13905983 -0.0668194 -0.11709456 -0.14571206
-0.08058188 -0.15597129 -0.011342179 0.028525362 -0.048161123 -0.12818721 -0.16399163 -0.072923936
-0.11319403 0.04772442 -0.05404823 -0.07389688 -0.074845396 0.013171778 -0.14943646 -0.102977246
-0.032658264 -0.06994179 -0.11517375 -0.035727594 -0.08934771 0.018860824 -0.01765682 0.018644625

conv0.bn.running_mean f4 [32]
00000000: 0124 e33d f200 843d 1f04 e739 fd0e 8abd
00000010: b001 a4bb 8a97 90bc 8c1d acbc ee40 f03d
00000020: 2ee7 3bbd b902 b8bc da76 3fbc 3dd6 253d
00000030: 8621 04bc d601 8dbc 61e8 1c3d 76c6 c63d
00000040: 883a 863d 3fcc 78bd e7fb 5abd df21 09bd
00000050: 1fef 963c 5bb9 26bb eed5 bcbc 394b 153d
00000060: 9f4a 64bc 5b4a 42bd cd41 56ba 2044 d0bc
00000070: a822 0d3e a57a 683d 8608 2dbd 9802 b43c
0.110908516 0.06445493 0.00044062824 -0.0674114 -0.005005084 -0.017650384 -0.021010183 0.11731134
-0.045874767 -0.022462236 -0.011686051 0.040487517 -0.008064633 -0.01721279 0.03830755 0.09705822
0.06554133 -0.06074166 -0.05346289 -0.033479568 0.018424569 -0.002544007 -0.023051228 0.03644869
-0.013933807 -0.047434192 -0.0008173257 -0.02542311 0.13782752 0.056757588 -0.042244457 0.021973893

conv0.bn.running_var f4 [32]
00000000: 2af9 d13c 5001 963c 0ee8 a73c dc3c 7e3c
00000010: ebc3 753c f8fb a33c 0ed4 ef3c f1e1 9b3c
00000020: ec3f a93c da27 9e3c 00ca 9d3c 3e8c b63c
00000030: 6868 9c3c 1241 5d3c 7f6e c93c 91b3 863c
00000040: afcf 843c 3160 e23c a4b2 e23c 90a9 813c
00000050: b5f9 b83c eac0 8c3c 304c 7e3c 816c 563c
00000060: 46d2 553c d85c 8b3c 261d 853c 8056 7d3c
00000070: e5c0 cc3c f2d9 a03c 842e 933c 9d7b 8e3c
0.025631506 0.018311173 0.020496394 0.01551744 0.015000324 0.020017609 0.02927592 0.019028636
0.020660363 0.019306112 0.01926136 0.02228367 0.019092754 0.0135042835 0.024588821 0.016443046
0.016212313 0.027633758 0.027673073 0.015827924 0.022580007 0.017181832 0.015521094 0.013087393
0.013050621 0.017012045 0.01624925 0.015462518 0.024994323 0.019635174 0.017966516 0.017392928

blocks.0.conv.weight f4 [32, 32, 3, 3]
00000000: cfc6 273d 7cb6 9ebc a1db 5c3b e428 0bbe
00000010: 6753 363b 6d3c a13c 1023 b9bc c744 d13c
00000020: 9cd1 91bc 84b2 0b3e 7da2 0d3d 7b66 0dbd
00000030: 9a24 41bd eb35 c33c 6066 16bc 4cf3 fb3d
00000040: 033f 8dbd 4013 81bc bc37 fb3d 12b6 8a3c
00000050: 644c b6bc e3b2 d3bd 9ed5 b03c 2d23 b6bc
00000060: a229 093d e94c a73d 399a 06bd 8bb3 b8bc
00000070: 1dae 1ebd 328c 37bd 3b67 dabd b63a 91bd
00000080: 980a 463d 5033 113b d075 7c3d 987d a1bb
00000090: f2fd 8fbb be8b 003e c1c8 c8bc a64b 763c
000000a0: 7a32 01bc 0918 ee3d fa2c afbd 8fe0 03be
000000b0: b556 29bd c80b a8ba 2d63 0b3d 3bbb 95bc
000000c0: b17e 453d aa47 61bc 2b5f 84bb f1ec fbbc
000000d0: a8d6 7dbc 327a e73d 0048 573d f7f4 dfbc
000000e0: a3ac d13d 573a 0f3d c9c4 78bb 8875 4abd
000000f0: 63c2 8d3c fe7f 143c f6a6 7ebc db03 8d3c
00000100: c988 ae3c dd33 0a3e 5e13 573d 1073 da3d
00000110: e1f9 e03c 5571 a23d 62c2 5dbd 9261 79bd
00000120: 9ff7 d63c 9b89 34bd 2d19 4bbc 62f3 c1bd
00000130: 4533 b139 01be 753d 9772 063d bebc b43d
00000140: 4c80 3c3d f7fe 22bd c6ab fb3b 97de 173d
00000150: d231 3a3d 84bd 1f3e fbaa 9cbd 1a9d 383d
00000160: 3ec4 1a3c 08a9 f13b 0584 783b 5280 a9bd
00000170: d8d5 2dbc a9a6 04bd 26ef 5b3d 475e ecbd
00000180: 5b83 8abc 1ae2 babd caa5 0abe 2f99 823c
00000190: 6677 c03d c23b 543e 23a3 0e3d beb7 993d
000001a0: 8d99 e73d 2d33 9c3d 22d7 dbb9 6d48 de3c
000001b0: 32b0 bbbd 3270 bc3c d4e1 92bc 8e1f 963c
000001c0: 5509 843d 37db 30bc 484b d63c 2742 b33c
000001d0: d204 7cbd d939 cbbd 0e58 7fbd 9e32 26bd
000001e0: 8bf1 c1bd 5eb6 22ba 0dad 833c 8c59 623c
000001f0: ab44 703d f7ba 9f3d 5911 c5bd cae6 0b3d
00000200: bd3e fabd 1ee2 3a3d ad03 303c 8d0e 4abb
00000210: 30e7 1c3b 35db bcbd c5aa 8cbd 139f 25bd
00000220: 502b 953d 51e9 0b3c 0fc0 c63d 6489 0a3d
00000230: a9ad 6fbd b298 c23b 943f a53d 7142 4dbd
00000240: 6f8a c53c 1c81 d93c 5f24 b63c a9a9 9a3d
00000250: 8e77 98bd be5d 303c 7a30 d33d 9945 b83d
00000260: 3313 223d 577e 843d 968d 093d 49ef 0cbe
00000270: 25e8 cfbc de75 8abe bc7b 403d 466c cb3b
00000280: c486 afbc ca52 883d f00d f43c 7790 e03d
00000290: 6881 be3d 8562 b03d d25a d5bc f731 a13c
000002a0: 430e 9ebd 6ac5 0bbd 7a87 073e 1d98 43bd
000002b0: 8cae 4bbb 4c3d 9b3c cc03 f0bd 7ebd 5c3d
000002c0: 63ce 7abd b94e 8c3d adf6 a93d b7ac 83bd
000002d0: 929f 8fbc 9bc9 5dbd d528 ff3b e781 813d
000002e0: 8f6e 58bd 4e15 cabd f35c 3abd eba2 dabc
000002f0: 3e6b f2bd 6c2c 343c 7fe9 c83c d501 6a3d
00000300: fae0 273d 8c21 8dbd bbaa 4d3d 51ea 163d
00000310: bc4f f53c 4f69 f23d 0173 cb3c 4f72 c73b
00000320: e8be 8abc 2545 0abd 6823 9a3d 021d 913d
00000330: c56e ab3d 7baa 21bd 8b78 ad3c 23f9 81bb
00000340: fe6e 8a3d a0a6 653d 1a01 e4bc 9bb2 083d
00000350: 72d8 803d e1a3 09be faac 43bc 15d0 043e
00000360: f878 c5bd 1cc9 9c3d d2ce 9abb 1979 af3c
00000370: ac6e a53b 32b1 633d f478 f8ba 4fa8 82bc
00000380: ca51 9abc eb2b 19bd 472f 37bd bffa 69bc
00000390: 18cf cf3c 9bf2 a0bc bc17 ddbd 1ce4 c43b
000003a0: 3b20 f53b cda7 553c cb24 ddbc 67a3 9b3c
000003b0: a09b 77bd 6488 99bd 08c7 153d 9485 2d3d
000003c0: bd49 893d 5410 28bd 90c5 7abd 74cf 383c
000003d0: 5f22 e3bb 7a1f ac3d 9e82 713c 50b9 04bd
000003e0: a696 423b 5d31 293d ab5b 2e3d e299 823d
000003f0: b335 8b3c 8ff6 6fbd 8b78 c73d 7603 84bb
0.040961083 -0.019374125 0.0033700245 -0.13589817 0.0027820708 0.019682134 -0.022599727 0.02554549
-0.017800145 0.13642317 0.03457879 -0.03452156 -0.047154047 0.023829421 -0.009179682 0.123022646
-0.06896784 -0.01575625 0.1226649 0.016932521 -0.022253223 -0.10336854 0.021586236 -0.02223357
0.03348697 0.08168966 -0.032861922 -0.02254655 -0.038740266 -0.044811435 -0.10664221 -0.07091276
0.048349947 0.0022155829 0.061635792 -0.004928302 -0.0043942863 0.12553307 -0.02450979 0.015032684
-0.00788557 0.11625678 -0.085535005 -0.12878631 -0.041342456 -0.0012820894 0.03403013 -0.018277755
0.048216525 -0.013749996 -0.004039665 -0.03075263 -0.015493073 0.11302604 0.0525589 -0.027338488
0.10238006 0.034967747 -0.003795909 -0.049428493 0.017304605 0.009063719 -0.015542736 0.017213752
0.021305459 0.13496347 0.052508704 0.10666478 0.027462902 0.079317726 -0.054140456 -0.060884066
0.026241122 -0.044076543 -0.012396139 -0.0947025 0.0003379827 0.059995655 0.032824125 0.08825062
0.04602079 -0.039793935 0.007680389 0.037077513 0.04545767 0.15599638 -0.076497994 0.0450717
0.009446202 0.0073748864 0.0037920487 -0.08276428 -0.010610066 -0.032385502 0.053694867 -0.115414195
-0.016908338 -0.09125157 -0.13539806 0.015942184 0.093977734 0.20725921 0.034823548 0.07505749
0.11308584 0.076269485 -0.00041931221 0.027134145 -0.09164466 0.023002718 -0.017929949 0.018325593
0.064470924 -0.010794452 0.026158944 0.02188213 -0.061528035 -0.09923143 -0.062339835 -0.040575616
-0.09469899 -0.00062069844 0.016073728 0.013815295 0.058659237 0.077993326 -0.096224494 0.034155644
-0.12218998 0.0456258 0.010743064 -0.0030831427 0.002394151 -0.09221498 -0.06868509 -0.040434908
0.07283652 0.008539514 0.09704601 0.033822432 -0.058515225 0.005938613 0.08068767 -0.05011219
0.024113862 0.026550822 0.02223414 0.07551891 -0.07444678 0.010764537 0.103119805 0.0899765
0.03956909 0.0646941 0.033582292 -0.13763155 -0.02537925 -0.2704305 0.046993002 0.0062079756
-0.021426566 0.06656416 0.029791802 0.109650545 0.09302026 0.08612541 -0.026044283 0.019677145
-0.07717564 -0.034123816 0.13235274 -0.04775249 -0.003107938 0.018950127 -0.11719474 0.05389165
-0.061231982 0.06850953 0.08299003 -0.06429427 -0.017532144 -0.054147344 0.00778685 0.06323605
-0.052839812 -0.09867345 -0.0454988 -0.026689013 -0.11836861 0.010996919 0.024525402 0.057130653
0.04098604 -0.06891164 0.05021165 0.036844555 0.029945247 0.11836492 0.024835112 0.0060866247
-0.016936734 -0.033757348 0.075262845 0.07085611 0.08370737 -0.039469223 0.021175643 -0.003966467
0.06759451 0.05606711 -0.027832557 0.033373456 0.06291284 -0.13441421 -0.011943096 0.12970002
-0.096422136 0.07655546 -0.004724362 0.021420049 0.0050485935 0.05558891 -0.0018956945 -0.015949396
-0.018837828 -0.0373954 -0.04472282 -0.014280974 0.025367305 -0.019646933 -0.107955426 0.006008638
0.007480649 0.013040495 -0.026995083 0.018998815 -0.06045115 -0.074967176 0.036566764 0.04236372
0.067035176 -0.041031197 -0.061223567 0.011279929 -0.0069315876 0.08404441 0.014740614 -0.03240329
0.0029691844 0.041306842 0.04256789 0.06377007 0.01699338 -0.058584746 0.097397886 -0.004028733

blocks.0.conv.bias f4 [32]
00000000: db19 4cba 44cb ad3a 7d8b 21ba a7f9 37b8
00000010: 5dc1 673b 169a 91bb 7a41 98bb f38d fb3b
00000020: 74ba 40bb 92ac b13b 4c7c 8639 24b5 7f3a
00000030: e6af 5eba 659d 0d38 a001 a539 72a4 033a
00000040: 3fee a338 f862 8e3a 3b25 8736 5ede 64b9
00000050: e847 cdbb 30e6 853b bf3f e0ba 8860 673b
00000060: 297e 87bb ebc6 d03a 1f7d 21ba 2483 09ba
00000070: bded 76b9 7bf1 5abb a6ab 0aba 76a2 ea3a
-0.0007785835 0.001325943 -0.0006162448 -4.3863107e-05 0.0035363056 -0.0044434173 -0.0046464773 0.007676834
-0.002940801 0.0054221833 0.0002565108 0.000975447 -0.0008494839 3.3763605e-05 0.00031472463 0.00050217577
7.8168225e-05 0.0010863235 4.0276477e-06 -0.00021826613 -0.0062646754 0.0040862784 -0.0017108842 0.003530534
-0.0041349125 0.0015928423 -0.0006160307 -0.0005245677 -0.00023548953 -0.0033408094 -0.000528986 0.00179012

blocks.0.bn.weight f4 [32]
00000000: 6ad0 6d3f c80e 703f 89a6 703f 03eb 6e3f
00000010: 00aa 853f 1cf0 7d3f 076a 6a3f a3b6 7a3f
00000020: 2007 7c3f d5c3 753f 2092 7d3f 1cab 7b3f
00000030: b1e3 713f 1361 633f f48d 693f 1bd1 653f
00000040: dbab 813f 28bf 723f ffab 7a3f 6777 763f
00000050: d4bd 673f 3b34 6e3f 24b0 833f 1037 703f
00000060: a357 6c3f 1a7f 753f 2526 7f3f 0587 8a3f
00000070: 1876 703f 9f43 783f bb34 693f 664c 773f
0.9289614 0.93772554 0.9400411 0.9332735 1.0442505 0.991945 0.91568035 0.9793493
0.9844837 0.9600194 0.99051094 0.9830797 0.94488055 0.8882 0.9123223 0.89772195
1.0130571 0.9482293 0.97918695 0.96275944 0.9052403 0.9304845 1.0288129 0.9383402
0.92321223 0.95897067 0.9966758 1.0822455 0.93930197 0.9697818 0.91096085 0.9660095

blocks.0.bn.bias f4 [32]
00000000: 5684 23be 9ee3 28be 00ab 7abd 6e7e 2abe
00000010: 1c5b 28be 4e82 68bd b77c 04be 0ab6 14be
00000020: c655 52be 7027 49be 1a75 f5bd 9503 0cbe
00000030: 0e21 45be 6599 8fbe 5371 dfbd 4858 16be
00000040: 120f 55be 4114 22be 820d abbd 0826 6ebe
00000050: 7268 40be b5b2 dfbd 1ccf 7dbe 3b8c 3ebe
00000060: 90e4 30be 5364 81be ef14 6abe 5142 24be
00000070: 3711 88be 0eb3 43be 9ae0 0f3c 939c 72be
-0.15968451 -0.16493079 -0.061198235 -0.16649792 -0.16441005 -0.056764893 -0.129382 -0.14522567
-0.20540532 -0.1964395 -0.11985226 -0.13673241 -0.1925089 -0.28046718 -0.10910287 -0.14682114
-0.2080653 -0.15828039 -0.08352186 -0.23256695 -0.18789843 -0.109227575 -0.24786037 -0.18608181
-0.1727469 -0.25271854 -0.22859548 -0.16040923 -0.26575634 -0.19111273 0.0087815765 -0.23692541

blocks.0.bn.running_mean f4 [32]
00000000: ae2b 133f 1c90 91bf b4fa 003d bd8c 803e
00000010: 531f aabe 8a26 9ebe df99 aebf 5009 6cbf
00000020: d7a5 19bf bc8e 8fbf 775c 853e cae3 88be
00000030: 6ae9 44bf 85fc 123f 021f ad3f 87c6 cdbd
00000040: fd4e 6fbe 0bb4 31bf ee7a 0c3f 9d45 16be
00000050: d955 e5be b5b5 16bf c59f ecbe eeec 333e
00000060: d3fa a6be 60d4 6ebf a300 84bd 3c99 11bf
00000070: df33 bfbf 81ff 5bbe 131e 1b3f 026c e1bf
0.57488525 -1.1372104 0.03148909 0.25107375 -0.33227023 -0.30888778 -1.3640708 -0.9220171
-0.60018677 -1.1215434 0.26047108 -0.2673629 -0.7691866 0.57416564 1.3525088 -0.10047632
-0.23369975 -0.6941535 0.54875076 -0.14674993 -0.4479206 -0.5887101 -0.46215644 0.1757085
-0.3261324 -0.9329281 -0.06445434 -0.5687444 -1.4937705 -0.21484186 0.60592765 -1.7611086

blocks.0.bn.running_var f4 [32]
00000000: 6c36 323f fe0c 2c3f 7bf2 113f bb8d 2d3f
00000010: 603b 8e3f 671d 583f 1c53 883f e2d7 2f3f
00000020: a88f 563f 5577 143f b814 153f 9655 133f
00000030: 6f19 473f 2b73 143f e6ff 643f b1d2 243f
00000040: d0f0 c83e adf6 973f 31dc 113f 5037 213f
00000050: f77f e83e 0593 283f cbe1 e73e a1e7 dd3e
00000060: 33b2 563f 1ddd 3a3f 37ea 013f 3eb8 323f
00000070: b959 453f e7d6 113f 58e9 393f 0f38 ae3f
0.6961429 0.67207325 0.5701062 0.6779439 1.111187 0.84419864 1.0650363 0.68688786
0.8381295 0.57994586 0.5823474 0.5755247 0.77773184 0.5798823 0.8945297 0.6438399
0.39246225 1.1872154 0.5697661 0.62975025 0.4541013 0.65849334 0.45289454 0.4334078
0.8386566 0.7299364 0.5074801 0.6981238 0.7709003 0.5696854 0.7262168 1.3610858

blocks.1.conv.weight f4 [32, 32, 3, 3]
00000000: d359 8fbd 0896 cebc 2e05 6dbc a841 a7bd
00000010: 582c b53c c8a9 493d e8e2 a93c a26f 04bd
00000020: 7def bebd 0ca7 433d e15d 2e3d 0feb 0bbe
00000030: fa6c 20be 515b 42bd a664 eebd 429c c339
00000040: b24f 16bd 1b0e 2fbe 7cca a13d 9d53 2b3d
00000050: 3ac7 39bc 7505 20be aefa abbd e03f 34bd
00000060: b1c8 49bd 764d cfbd 6fe2 37bd 6842 103a
00000070: c89c 813d 0809 113d 3a1b 93bd 4d89 fc3b
00000080: 9bf6 543c b0f7 703d faf3 c7bb c9ed 8ebd
00000090: 0307 073e d29c e33d f54e f3bb 1320 a13d
000000a0: 9486 19bb 3094 183c d1bf cb3d 37af 83bc
000000b0: 7d82 9ebd 84e3 c3bd 57c7 04bd de3c 423d
000000c0: d906 0c3e 5b8e 123d 9591 fcbc 4def aabd
000000d0: 85e5 32bd eb59 913d 6644 1abd 4a35 883c
000000e0: 9e7c 613d 4ba7 853b 3967 e1bc 9faa d1bb
000000f0: d0d7 9ebd 368c 12bc 5ded 1e3d bcf6 58bd
00000100: b4d2 10be 6420 423d ffad 513d 85c5 393d
00000110: 8633 c1bd b828 823d a014 ff3d 65bc 743d
00000120: 82c3 e43c 14a0 6abc 5534 bcbb 926a 0ebe
00000130: 4b7c 8ebd f6da 59bb 78ba c4bc 3bd9 073c
00000140: 68d2 d3bc 60da 1c3d 8c59 783d 36e9 bdbc
00000150: eec1 8d3d 7158 6d3b d87d 7dbd 0c08 ffba
00000160: b4c9 00bd 2d39 0ebe f81d 793d 1a41 bbbd
00000170: dee0 453d 8500 26bd e7b5 68bd 7490 b33d
00000180: 2331 f2bc c747 b5bd ecbf 0abc fe3c 09bc
00000190: b738 e23d 081f 9b3c 5d27 4abd 6cfa 8a3d
000001a0: a508 9b3d 4a3d 09bd 3f42 c9bd b31f b6bd
000001b0: 514a 593d b083 f2bc 0500 b7bd 475f 61bd
000001c0: 0794 e13d f5fd cc3d c5e9 74bd d670 dc3b
000001d0: 86d4 373e 7791 11be 88b5 01be decc 64bd
000001e0: ef1e d6bd 098a 67bd 70de 0b3d 7d6b 80bd
000001f0: 2606 e4bd 5110 a5bd f12c ec3d 4074 8d3d
00000200: b66e eebd 8ba8 253d 0e51 d9bc ac54 8d3d
00000210: ca81 0bbd 1780 9ebd 1648 12be 9935 70bd
00000220: f59a a6bc 1ce1 91bd 9d32 65bd b91c 49bd
00000230: 527a e5bd 7484 59bd 7560 4fbd 0030 2ebd
00000240: 3898 dd3c b1f2 b8bd 710b 21bc 0a24 6bbc
00000250: 04cd f6bd 2666 943d f8d1 ae3c 9f65 bc3c
00000260: 58fe 7bbc 983f 973c 41ea 33bd caa3 85bd
00000270: 27f9 403d cb91 09be 1a3a 84ba 6aa3 8bbb
00000280: aedd a2bd 51d8 903c 570d 8fbc b7bc d3bc
00000290: 948e e3bc a5f7 703c 4e53 4bbc 3349 4c3d
000002a0: a218 a5bd 917d bf3d 1e99 86bc 557d 18bd
000002b0: bb45 9a3c 43f3 acbd 8b09 b43d 5908 1cbd
000002c0: 3ffd 0a3d b61f 00be a9fd 8fbc 1ecd 00be
000002d0: f345 5bbd 3193 9e3b 2223 05bb 1313 323d
000002e0: 171b 11be 40b8 533d c11b b1bd 1b1d c9bd
000002f0: 27ed 50bd 1bd4 2d3c 964c a2bc ad5c d1bd
00000300: a3a9 f83c b50d d4bc 1a76 70bd 638f 5e3c
00000310: 5030 aabb 6818 5dbb 51e3 083c e191 15bd
00000320: edb2 47bd a83c 83bd 1ee3 0cbe 5665 7a3c
00000330: bab2 12bd 2139 113d 69ce 0b3e 54d3 2b3c
00000340: aa92 b2bb 58fe 023d a76f 11bc 6b8e febd
00000350: 0356 2bbd e2c9 75bd 4f65 ddbd 7237 abbd
00000360: 8864 5bbd c1dd e33c cc81 c7bd 5b0b 9dbc
00000370: cb53 51bd ef8d 30bd 2697 b9bd ca78 943d
00000380: 7f7a 0d3d 9d08 7d3c c26a b43d 85f7 e6bc
00000390: bb31 b4bd 20f8 53bd d1b1 32bc f790 f8bd
000003a0: b9e6 443d a709 433d 15ee 37bd 6205 e43c
000003b0: 7c3f 583c 856c 45bd 9cec 663b 0f19 223d
000003c0: 5cab 58bc 9a3c 9b3d 29e8 803d 7ea0 693c
000003d0: 7c32 d4bb efe6 25bc dd2d 3d3d 606c c13d
000003e0: c8e3 a03d 0764 7dbd d80f 6c3d 9b66 35bd
000003f0: 17ac 04bd 8a4b 223b 9b69 0f3e 0177 1fbe
-0.069995545 -0.025218025 -0.014466567 -0.0816682 0.022115871 0.04923418 0.02073808 -0.032333024
-0.093230225 0.04776673 0.04257 -0.13663886 -0.15666571 -0.047450367 -0.11640291 0.0003730972
-0.036697097 -0.17095225 0.07899949 0.041827787 -0.011339003 -0.15627082 -0.08397423 -0.04400623
-0.04926366 -0.101221964 -0.04489368 0.00055030594 0.06328732 0.035409003 -0.071829274 0.007706797
0.012998248 0.058829963 -0.0061020823 -0.06978948 0.13186269 0.111138955 -0.007425184 0.07867446
-0.0023426162 0.009312674 0.099486955 -0.01607476 -0.077397324 -0.095648795 -0.032416668 0.04742133
0.13674487 0.035780292 -0.030831138 -0.08346424 -0.043675918 0.070972286 -0.037662886 0.016626973
0.055050485 0.0040787808 -0.02751504 -0.0063985134 -0.07756007 -0.008944562 0.038800586 -0.05296968
-0.14142877 0.04739417 0.051191326 0.045354385 -0.094336554 0.06355423 0.12455106 0.05974998
0.027925257 -0.014320392 -0.005743543 -0.13907841 -0.06957301 -0.0033242083 -0.024014696 0.008291538
-0.025857165 0.038294196 0.060632274 -0.023182493 0.06921755 0.0036216045 -0.061887592 -0.0019457354
-0.03144236 -0.13888998 0.060819596 -0.091432765 0.048310153 -0.04052784 -0.0568141 0.087677866
-0.029564446 -0.08851581 -0.008468609 -0.008376358 0.11045974 0.018935695 -0.049353946 0.067860454
0.07570008 -0.033505715 -0.098270886 -0.08892765 0.05304939 -0.02960381 -0.089355506 -0.055022504
0.11014562 0.10009376 -0.059793252 0.0067273183 0.17952165 -0.14215647 -0.12666905 -0.05585944
-0.10455119 -0.056528125 0.03414768 -0.06270502 -0.11133985 -0.08059753 0.115320094 0.069069386
-0.1164221 0.04044394 -0.026527908 0.069009155 -0.034059323 -0.07739275 -0.14285311 -0.058644865
-0.020337561 -0.07123014 -0.05595647 -0.049099658 -0.112049714 -0.053104833 -0.050629098 -0.042526245
0.027050123 -0.09030665 -0.009829388 -0.014351854 -0.120508224 0.07246046 0.021340355 0.022997675
-0.0153804645 0.018462941 -0.043924574 -0.06525381 0.04711261 -0.13434522 -0.0010088116 -0.004261424
-0.07952438 0.017681273 -0.017462416 -0.025846822 -0.027777947 0.014707481 -0.012409998 0.049874496
-0.08061339 0.09350122 -0.016430434 -0.0372289 0.018832078 -0.08444836 0.08790883 -0.0380939
0.03393292 -0.12512097 -0.01757701 -0.12578246 -0.053533506 0.004839324 -0.002031513 0.04347522
-0.1417049 0.051689386 -0.08647872 -0.098200046 -0.051007416 0.010609652 -0.01981191 -0.102227546
0.030354327 -0.025885442 -0.05870638 0.013583991 -0.0051937476 -0.003373647 0.008354978 -0.036516074
-0.04875462 -0.06408054 -0.13758513 0.015282949 -0.03581498 0.035454873 0.13652958 0.010487396
-0.0054496126 0.031980842 -0.008876718 -0.12429508 -0.041830074 -0.060006984 -0.10810339 -0.08360185
-0.05356267 0.027815701 -0.09741554 -0.019170454 -0.0511053 -0.04310411 -0.090620324 0.07249601
0.03454065 0.015443948 0.08809425 -0.028194198 -0.08798548 -0.051750302 -0.010906653 -0.12137025
0.048071597 0.047616627 -0.044904787 0.027834598 0.01319873 -0.048199195 0.0035236245 0.03957468
-0.013224449 0.07579918 0.06294281 0.014259456 -0.006475745 -0.01012586 0.046186317 0.09444499
0.07855946 -0.06186297 0.057632297 -0.044287305 -0.03239068 0.0024764263 0.14005129 -0.1557274

blocks.1.conv.bias f4 [32]
00000000: 793f 85ba c60c 263b 55df f8ba dc94 b1ba
00000010: f04a aeba 6934 f43a b3e2 16ba 6a7e e5ba
00000020: 35d0 c1ba 9b70 cfba c166 113a 293b 703b
00000030: 9218 093b bc56 9d39 7ed3 eebb 8210 fd3a
00000040: 864d f03b 3b81 21bb e954 95bb f65c 67ba
00000050: 566e 0fbb b82f 80bb 77b2 af3a b9af 71b8
00000060: 27e9 72bb 5300 e239 a650 9eb9 beb4 f2b8
00000070: 66df a739 33b5 b6ba 6cec a939 b276 e6b9
-0.0010166011 0.0025337203 -0.0018987457 -0.0013548392 -0.001329748 0.0018631342 -0.0005755827 -0.0017508988
-0.0014786782 -0.0015826406 0.00055466226 0.0036656356 0.0020919186 0.00030009996 -0.0072883954 0.0019307288
0.0073334603 -0.0024643678 -0.004557241 -0.0008825803 -0.0021885834 -0.0039119385 0.0013404627 -5.7622532e-05
-0.003706524 0.0004310632 -0.00030196196 -0.00011573125 0.00032019167 -0.00139395 0.0003241034 -0.00043957453

blocks.1.bn.weight f4 [32]
00000000: f0e2 713f ac39 743f 4c80 6a3f cd60 833f
00000010: 451f 813f 9233 703f cc6d 663f 753c 803f
00000020: 60fe 7f3f 503f 773f 397e 7b3f 8432 803f
00000030: 05d9 703f 8517 7b3f 1e7f 7d3f b8f8 7d3f
00000040: f6e5 8a3f e2cb 663f 2e67 883f dc80 773f
00000050: 4446 773f 6f4f 653f be30 893f 0e1a 883f
00000060: 3f4e 8b3f 25e8 833f 76fe 6b3f 050a 6f3f
00000070: ddd7 7d3f dce5 793f 164f 503f 9a48 833f
0.94486904 0.954005 0.91602015 1.0263916 1.0087668 0.9382869 0.90011287 1.001845
0.9999752 0.9658098 0.98239475 1.0015416 0.94081146 0.9808276 0.9902209 0.9920764
1.0851429 0.9015485 1.0656488 0.96681 0.9659159 0.8957433 1.0718 1.0632951
1.0883254 1.030522 0.9218515 0.93374664 0.99157506 0.9761636 0.81370676 1.0256531

blocks.1.bn.bias f4 [32]
00000000: 2dce 5abe 1895 14be 36e0 edbd c552 e8bd
00000010: e4b3 3ebe ed34 f9bc d92c 0dbe d831 33be
00000020: 3f62 95be d90d 16be f371 62bd 17bd 59be
00000030: 72d3 3bbe bdc0 7dbe 9754 adbe c5fd 4dbe
00000040: 39a5 9bbe e47f 53be 22e6 5fbe f944 41be
00000050: 39f0 42be b59f 8ebe 5476 85be ae15 3abe
00000060: 663f 4cbe 34b7 35be dc1f 2fbe 5512 bfbd
00000070: e8e2 47be 5c50 75be adb3 87bb 52b0 4fbe
-0.21367712 -0.1451 -0.116150305 -0.11343912 -0.1862331 -0.030420745 -0.1378664 -0.17499483
-0.29176518 -0.1465372 -0.05528445 -0.21263538 -0.18342379 -0.24780555 -0.338536 -0.20116337
-0.30399492 -0.20654255 -0.21865132 -0.18873967 -0.1903695 -0.27856222 -0.2606684 -0.18172333
-0.1994606 -0.17745668 -0.17101997 -0.093296684 -0.19520152 -0.23956436 -0.004141292 -0.20282105

blocks.1.bn.running_mean f4 [32]
00000000: 9b3f 0dc0 5055 56bf ddf8 7cbf ffbf dabf
00000010: 71ca babf a85b 8bbf 0237 df3f fdef b3bf
00000020: d69b abbf d532 173f 701b 773f 3dc7 c3bf
00000030: 116e 32bf 054c 8e3e 7991 24be 1a8f 00c0
00000040: b66a c8be 7a50 843e e3aa a6bf 5254 1cbf
00000050: da8e 6ebe c244 9cbf 838c f33e 7bc7 76bd
00000060: 0800 79bf e3d9 2a3e cb13 fd3e 1f45 7e3f
00000070: 03c4 e13e 9308 1dbf d3c3 f53f e1c6 173f
-2.2070072 -0.83723927 -0.98817235 -1.7089843 -1.459303 -1.0887346 1.7438662 -1.4057614
-1.3406932 0.5906194 0.9652624 -1.5295178 -0.696992 0.27792373 -0.16071118 -2.0087342
-0.39143914 0.2584265 -1.30209 -0.6106616 -0.23296681 -1.2208483 0.4756814 -0.060248833
-0.9726567 0.1668468 0.49429163 0.9932422 0.44094858 -0.6134121 1.9200386 0.5928784

blocks.1.bn.running_var f4 [32]
00000000: 4d46 ee3f 35e9 4b3f 57b1 683f 167b 1140
00000010: 35ad 4240 6a7d 0140 f102 953f 357f 1740
00000020: f64f f13f dcd1 623f a8aa 3640 c376 ac3f
00000030: 4c10 b83f eab6 8d3f 7df1 c53f 089f 2540
00000040: 4168 aa3f 8020 5e3f 4c39 483f 1225 bd3f
00000050: d10f a83f a761 e73f aec5 8a3f ba25 5f3f
00000060: ed85 a53f c80c d13f d732 a23f 5812 0d40
00000070: bc77 f83f f481 d03f 0577 4340 09d4 973f
1.8615204 0.7965272 0.908956 2.2731376 3.0418217 2.0232797 1.1641523 2.367139
1.8852527 0.8860147 2.854166 1.3473743 1.4379973 1.1071446 1.5464321 2.5878315
1.3313066 0.8676834 0.7821243 1.4776938 1.3129827 1.8076676 1.0841577 0.8716694
1.2931496 1.6332026 1.2671765 2.2042446 1.941154 1.6289659 3.0541394 1.1861583

blocks.2.conv.weight f4 [32, 32, 3, 3]
00000000: 1322 b53c e76b d9bd df6f 9bbd 1739 18bd
00000010: e476 4abd 096a d53c 811f 97bc cd55 51bd
00000020: 226d 71bb 490a dcbc 9724 d53c c2c6 bebd
00000030: ebf8 10bd 77e0 263c 84d8 e8bd 74ef 2e3d
00000040: 5fbd 45bd 7793 56be cf26 cd3b 9273 05bc
00000050: 3917 d83a 5676 98bc 2b7c dc3c 563d 97bc
00000060: 9f0d 02bc 14da 07be dc81 6ebc 9790 1d3d
00000070: 39c7 1f3a 3b69 573d e005 353d 6301 023d
00000080: d971 b03d e45b 933d ca51 893d e32a 0b3d
00000090: 2750 a3bd 85a5 9bbd 9932 453e 28e9 f63c
000000a0: f9a2 8b3d 4464 b33d d00c 0b3e badc ce3c
000000b0: 5de2 f23c f967 bdbd 1a9c 2d3d 9122 243d
000000c0: 324a a93d e6d9 8c3d a16b b73d 8b84 b4bc
000000d0: 6810 04be 6fe6 243c ba17 86bd b907 4e3d
000000e0: ed1d 0b3d ced5 a13c 5285 81bd 373b c0bb
000000f0: fba0 abbd 23fa 86bd d0e0 15be df7d 50bd
00000100: 4202 22bd f82a 4c3d ba20 5b3c 44f4 133d
00000110: 5d38 343d f5e0 073d 4442 8b3d 04a5 6d3d
00000120: 0834 b53c e72d a33b 4c12 943d b618 5d3d
00000130: 8277 d2bd dd62 d4bb 0e72 353d 610e b0bd
00000140: 7cf2 d8bc 6f8e 4cbd feec 043d b987 bfbd
00000150: ee83 a6ba e22e 21bd 8531 8a3c 9060 a43c
00000160: abb4 f7bd e28d 00be a7c5 e0bc 4962 06be
00000170: 99dd e63c fe55 66bd b950 bfbc f182 543c
00000180: 0faf 7abd 0688 7cbc 5653 9ebd f1ef 0d3d
00000190: 9a02 6f3c e578 363c a063 9bbc 6509 8d3d
000001a0: 192e 53bd 5de0 b73b 09e4 21bd ba2f 933d
000001b0: 13a0 c83d befa 05bd 186c 04bc 4d62 023e
000001c0: 2499 673d c3f1 a13d 047b 95bd 8ce3 bd3d
000001d0: 5b76 843d c23c c6bd e337 04be bcd3 49be
000001e0: 62dd b9bd 58a3 9cbc 3f54 71bd f1c8 89bd
000001f0: 25c0 80bd 1c76 2abe 2187 733c 2fb1 ffbd
00000200: a3f9 29be 36a5 26bd c47d a9bc 22cb c43d
00000210: fac2 25bc 9b2b aa3d bbb1 2bbd f132 09be
00000220: 2fa2 053d 2972 3ebd da3e aabc f184 74bb
00000230: dea5 b9bd 72cc 993d 0e21 18bd 2881 483d
00000240: c50c 483d 168f ed3c 4637 8cbd 5be4 0c3c
00000250: 7883 92bc 2938 be3d 4b62 d7bc 56f5 5fbc
00000260: 5fed 8f3d 83d4 5fbd 2829 cfbd dbed 9cbc
00000270: 66ae 163c 6eb6 b3bb 68bd 3e3d 156b 7bbd
00000280: 336b 51bd c250 b53d c1f7 5c39 c7c6 5c3d
00000290: 4476 b7bc f2f1 dc3d addc 95bc c61d 55bd
000002a0: ed0d b03c 6a41 763d 181e 1dbd e3dc ac3d
000002b0: 593d 9a3c 97d6 803d 7d17 ac3c 5809 043d
000002c0: 01a1 893d f69c d5bc a9d6 0c3d ce08 18bd
000002d0: e4de d6bd a9a3 5e3c 6f8d f43d b8a2 30bd
000002e0: 4cf4 fa3c ea48 2a3d 73c4 0fbc a34d 063e
000002f0: 3888 b23d 5f5b 9bbb 18c4 74bc 7a07 95bd
00000300: 03ee ea3d 2f3b ab3c edc6 4ebc 33d7 5f3d
00000310: ded2 af3d de3e 3f3d 9280 29bc f356 2e3c
00000320: 34e6 c9bd 44aa 9fbd 5e5c 053c 3ccd 3dbd
00000330: 3d13 2b3b 2010 493d 6970 293d 119d fdbb
00000340: f485 7b3c df23 35bd d883 383c 09f8 033d
00000350: cb04 dfbd 11b7 cc3c afef 40bc 4286 103d
00000360: eeaf 0dbd e194 5a3d 1ed7 88ba 9dbd 1a3c
00000370: 0e80 be3d 5a2f a2bc 699e b43c 54d2 28bd
00000380: 527f 6f3d 8d78 0dbe bc4d 2c3d 6ddc 72bd
00000390: 1660 35bd 6355 55bc b51e 03bd 6dbf 41bd
000003a0: 1a72 c33c fe30 6a3c 812d 00be 0879 febc
000003b0: 4c34 74bd 3ac3 a6bd a9d0 8ebc 91ed 22bd
000003c0: 295a ac3d a055 f7bc 172e 5d3c 7aa9 12be
000003d0: 6939 b4bd c530 6dbd e82d bcbc aa74 a6bd
000003e0: 8b49 14bb e506 06bd 2f93 a23d 234a 0bbd
000003f0: fdf7 cabc f167 31bd 2a80 e83a f83d 583d
0.022110974 -0.10616284 -0.07589697 -0.03716382 -0.04942979 0.026051538 -0.01844764 -0.051107217
-0.003683873 -0.026860373 0.026018424 -0.09315254 -0.035393637 0.0101853525 -0.11369422 0.04270883
-0.0482763 -0.20954691 0.00626073 -0.00814523 0.0016486413 -0.018611114 0.026914677 -0.018461864
-0.007937818 -0.13266784 -0.014557328 0.03846797 0.0006095055 0.05259059 0.044195056 0.031739604
0.08615465 0.07195261 0.06705053 0.033976447 -0.07974272 -0.0759993 0.19257583 0.030140474
0.06818194 0.087593585 0.13579106 0.025251735 0.029648954 -0.09248347 0.0423852 0.040072028
0.08266105 0.06877498 0.089560755 -0.022035858 -0.12896883 0.010064705 -0.06547494 0.050300334
0.033964086 0.01975527 -0.06324257 -0.005866434 -0.08380314 -0.065906785 -0.1463654 -0.05090129
-0.039552934 0.049845666 0.013374502 0.03612162 0.043999065 0.03317352 0.067997485 0.0580187
0.022119537 0.004979837 0.07230052 0.053978644 -0.102767006 -0.006481512 0.044298224 -0.085964926
-0.026482813 -0.049940523 0.032452576 -0.09352059 -0.0012704113 -0.03935135 0.016869316 0.020065576
-0.120950066 -0.12554124 -0.027437998 -0.1312343 0.028181838 -0.056234352 -0.023353921 0.012970672
-0.061202105 -0.01541329 -0.07730739 0.034652654 0.014588023 0.011137222 -0.018968403 0.068865575
-0.051557634 0.005611463 -0.039524112 0.071868375 0.09796157 -0.03270983 -0.008082412 0.12732811
0.05654253 0.079074405 -0.07298854 0.09271917 0.06467887 -0.096795574 -0.12911944 -0.19709677
-0.090754285 -0.019120857 -0.058918234 -0.0672778 -0.06286649 -0.16646618 0.01486376 -0.12484967
-0.16599135 -0.0406849 -0.020689853 0.09609057 -0.010117287 0.08309098 -0.041917544 -0.13398339
0.032625373 -0.04649559 -0.020781923 -0.0037310685 -0.0906484 0.07509698 -0.0371409 0.048951298
0.048840303 0.028998893 -0.0684648 0.008599366 -0.017884955 0.092880554 -0.026291987 -0.0136693325
0.07027697 -0.054646026 -0.10115272 -0.019156387 0.009196853 -0.005484394 0.04656735 -0.06138142
-0.051127624 0.08853294 0.0002107313 0.053900506 -0.02239526 0.10788335 -0.018293703 -0.052030347
0.021491015 0.060120977 -0.038358778 0.08440568 0.018828081 0.0629093 0.021007294 0.032235473
0.06720162 -0.026075821 0.034384403 -0.03711777 -0.10491732 0.013588824 0.11941039 -0.04312393
0.030634068 0.041573443 -0.0087748645 0.13115554 0.08717388 -0.004741117 -0.0149393305 -0.07276817
0.114711784 0.020902244 -0.01262067 0.05464859 0.085851416 0.046690814 -0.010345595 0.0106408475
-0.09858361 -0.077961475 0.008139698 -0.046338305 0.0026103996 0.049087644 0.04136697 -0.007739671
0.015351761 -0.044223662 0.011261903 0.032218967 -0.10889586 0.024989637 -0.011775895 0.03528429
-0.034591608 0.05336464 -0.0010440086 0.009444621 0.09301768 -0.01979797 0.022048192 -0.04121621
0.05847103 -0.13815518 0.04206632 -0.059292246 -0.044281088 -0.013020846 -0.032011706 -0.0473017
0.023858119 0.014293907 -0.12517358 -0.031063572 -0.059620187 -0.08142705 -0.017433481 -0.039777342
0.08415634 -0.030192196 0.013499758 -0.14322463 -0.088000126 -0.05790784 -0.022971109 -0.08127721
-0.0022626843 -0.03272142 0.07938229 -0.03400625 -0.024776453 -0.043312017 0.0017738391 0.052793473

blocks.2.conv.bias f4 [32]
00000000: abe0 693b 8dfb 1abb a7f1 abb8 bf5f 24b9
00000010: 2254 283b 8b93 4fbb 753d 6aba 6fcb 9cba
00000020: 880c cb3b 3db9 9f37 6924 723b 0adb cfb9
00000030: b473 a2ba 8dcf 4f3a d5e7 193b f8f8 fa3a
00000040: b270 373b 6f0c 99bb 6430 b838 5769 d9b9
00000050: 9708 173b b1a7 94bb 2289 ebb6 93c5 43bb
00000060: 0e14 b23b ee7a 79ba 78c3 4e3a 545a 8ab7
00000070: deef 0abb 66c4 95bb fe3a a2b8 90b1 f3ba
0.003568689 -0.002364847 -8.198927e-05 -0.00015675927 0.0025684913 -0.0031673636 -0.00089355494 -0.0011962483
0.006196562 1.9040535e-05 0.0036947972 -0.00039645314 -0.0012394101 0.0007927351 0.002348413 0.0019147685
0.0027990756 -0.0046706717 8.782817e-05 -0.0004146795 0.0023045891 -0.004536592 -7.01951e-06 -0.0029872402
0.0054345196 -0.0009516914 0.00078874035 -1.6492944e-05 -0.00212001 -0.0045705317 -7.73575e-05 -0.0018592346

blocks.2.bn.weight f4 [32]
00000000: 2177 883f d6c0 753f 2817 763f f6c9 6e3f
00000010: f801 693f 25f8 673f 8fa5 803f 7230 803f
00000020: 745b 743f ac5e 863f 1ce6 743f 090c 833f
00000030: e32b 7b3f ca24 7e3f 66d2 753f 50ea 753f
00000040: 175a 763f 5ba9 843f cc95 693f c69c 803f
00000050: eac2 803f 561b 6c3f dc60 6d3f 78b9 7e3f
00000060: e1de 843f a1c9 803f 8d1b 863f 83cd 6d3f
00000070: 0496 7c3f f06d 823f 00d8 5c3f d224 813f
1.0661355 0.9599737 0.96129084 0.9327692 0.9101863 0.90613014 1.0050524 1.0014784
0.95452046 1.0497642 0.9566362 1.0238048 0.9811384 0.99274886 0.9602417 0.9606066
0.96231216 1.0364183 0.91244197 1.0047843 1.0059483 0.9222921 0.9272592 0.9950175
1.0380517 1.0061532 1.0477158 0.9289171 0.98666406 1.01898 0.8626709 1.0089362

blocks.2.bn.bias f4 [32]
00000000: 00a3 2bbe 7ae2 7cbe 3d27 7b3c 2ddb 5e3b
00000010: b22b 5ebe 5b42 b2bd cc5e 00be 7a73 46be
00000020: 242c 9bbe 224a 80bd fc3e b0bd 04c9 09be
00000030: 1cdc 15be 4ef4 3fbe ce77 a7be e2d9 70be
00000040: 5ee4 24be 14ba 6fbe 0601 29be 8399 5dbe
00000050: 1b86 66be 715a 9dbe 9fee 72be 6f57 46be
00000060: b1bf 12be 53e8 4bbe a3f4 92be 5b80 9ebd
00000070: b9c0 0bbe ffb5 41be 7fc2 8f3d db67 59be
-0.16761398 -0.24695769 0.015329179 0.003400515 -0.21696356 -0.087040626 -0.12536162 -0.19379988
-0.30307114 -0.0626414 -0.08605763 -0.13455588 -0.14634746 -0.18745539 -0.3270859 -0.23520616
-0.1610274 -0.23410827 -0.16504297 -0.21640591 -0.22512095 -0.30733064 -0.23723839 -0.19369291
-0.14330937 -0.19912843 -0.28702268 -0.077393256 -0.13647737 -0.18917082 0.07019519 -0.21231024

blocks.2.bn.running_mean f4 [32]
00000000: 5170 98bf 9def 7ebf 25d6 8a3c 0aad ec3f
00000010: 4b01 c8bf 747e f23f b746 debe 20e0 cebf
00000020: fc4e 9ebf 9ec3 34bf 752f fd3e 8c5c 84bf
00000030: 6ead 9d3e 8296 99bf 2ece 24bf c294 f63e
00000040: c954 a63d ad0c 793d 280f 16be bab9 10bf
00000050: 3870 633f 80f8 3cbf 6a52 7f3e abba c8bf
00000060: 97e5 10bf 3ad6 0b3f e4fe 7dbf c5c7 2f3f
00000070: 7f31 4e3f 28c9 a8bf ead7 ef3e 9993 12c0
-1.1909276 -0.9958437 0.016947815 1.8490307 -1.5625395 1.894484 -0.43413326 -1.6162148
-1.2367854 -0.7061099 0.4945027 -1.0340743 0.3079638 -1.1999056 -0.64377105 0.48160368
0.0812164 0.060803104 -0.14654219 -0.56533396 0.8884311 -0.7381668 0.24933782 -1.5681967
-0.56600326 0.5462376 -0.9921706 0.686642 0.80544275 -1.3186388 0.46844417 -2.2902586

blocks.2.bn.running_var f4 [32]
00000000: 4586 7d40 22c1 1740 8ee9 6740 d423 7240
00000010: 72ed 0640 454e f73f 3c90 1340 8ced f53f
00000020: d95e 2040 c31d 7b3f 1a15 aa3f 094b e33f
00000030: 3c67 ae3f c4ea 3840 bfce 7440 2df0 9b3f
00000040: 53fb f43f 2b68 6b3f 994c 0240 3f9a 0940
00000050: 90f6 ba3f 059a e83f 8259 de3f efd1 ca3f
00000060: dec8 f93f dd37 3240 e5ae fa3f b5d7 8040
00000070: 4a3d 1840 8e02 7f40 22ae b940 6515 d83f
3.9613202 2.371163 3.62363 3.7834368 2.1082425 1.9320761 2.3056784 1.9213119
2.505789 0.9809229 1.328769 1.7757274 1.3625255 2.889329 3.8251188 1.2182671
1.9139198 0.9195582 2.0359251 2.1500394 1.4606495 1.8172003 1.7371066 1.5845317
1.9514425 2.7846596 1.9584624 4.0263314 2.3787408 3.984531 5.8025064 1.6881529

blocks.3.conv.weight f4 [32, 32, 3, 3]
00000000: 41c6 afbd 7e7c 23bc b102 66bd 29c0 87bc
00000010: 3e07 03be 1f7d a7bd ef1b 11bd 7c3e d7bd
00000020: 041a 98bd d609 da3c 5740 86bd 2c39 803c
00000030: 3d62 bc3d fe6b 9e3d 04e2 5eba c6b6 f8bc
00000040: 932d a93d 6145 803d babb 32bd bc18 c43c
00000050: 8ccf e6bc 9894 6fbd 9c04 413d 251b 923d
00000060: 4141 0fbd f8af 95bd 4c86 06bd 12fa 1fbd
00000070: aade 933d e316 1d3d 9081 bc3d 9fc3 c8bb
00000080: ccb3 233d 5123 55bc d445 93b9 ceca 79bc
00000090: 9859 c2bd 6ed0 4d3d 6bde b53d 799f efbd
000000a0: 67d7 5b3d e3a2 03bd 22c4 b9bb f7b7 e33c
000000b0: e3f1 403b acfd d23d a4c3 7a3d 380a ea3b
000000c0: 7a79 7bbd 24e2 e73c 5f70 993d 6796 a8bb
000000d0: a57d 133c 05af 913d e465 073e f8de 333d
000000e0: 114a 703d 9ff1 1f3e ee8d e33c bd16 153e
000000f0: 23ad ec3c 4045 eebb e827 7bbc 92a8 19be
00000100: c839 78b9 d605 073d d41d 903c ea70 b73b
00000110: d778 823d 30c6 823c c531 b2bc 337f 12bd
00000120: 67f7 eabb 56f7 4f3b 2452 a53d 286e 233d
00000130: 6cc8 7c3c 1c7d 1f3d 1c03 d0bc f5d5 803d
00000140: 9d62 dd3c d5f1 cbbb 2139 793c 6899 fb3d
00000150: 7e91 ccbc 3da3 b5bb c00c 0e3e a4d8 2fbd
00000160: 7a6b 823c fa77 6b3d 6253 72bd be8c 72bd
00000170: 6f63 15bc 037c 2f3c 91fc 053c c93a f2bd
00000180: 9c1d 7bbd d14d 23bd b485 9dbd e829 87bd
00000190: 1f87 173d 4143 3fbc 4cd2 a1ba de88 38bd
000001a0: 623c 4f3d 04f1 1bbe 6ea9 7cbd d2a9 dfbc
000001b0: 6ed9 8cbd 66fc babd 94ec dcbd e240 d5bc
000001c0: 5c40 fabd ee01 203a 7009 bdbc 78df 3bbd
000001d0: 6c9a 503c d6de f13d 99eb fa3d dc7c 0c3d
000001e0: d4e0 51bc 0818 b53d 812e b83d c3ce 5d3d
000001f0: 33d5 023d 01be 933d 0430 15be 9564 fcbd
00000200: 7c41 abbd 6366 b3bd 18b8 febd 397a c7bd
00000210: 9267 9bbc 5901 a33c a6c0 0fbe 7a0f 633d
00000220: b6fc 8c3d 5d9b b8bd baa4 06bd 178c f1bc
00000230: e23e 9b3c 49f9 b2bb 8d63 87bb b0bc 4f3c
00000240: 3980 923b b13a 66bc c968 293c ea05 39bd
00000250: 727a 42bc 904a 033d cc28 7b3d 2aa3 8f3d
00000260: 82ce 893c 62c5 4d3d 9361 b73d 0ebd 1a3e
00000270: d550 ea3a a266 d43d b554 6d3c a0a5 d5bc
00000280: 9470 61bd 1d0c d23c 2cc3 62bc 308b 65bd
00000290: d736 433d a50d b13d 18d3 13bd 1286 07bd
000002a0: a032 98bc 7539 303d 879f a63d 6e49 6c3d
000002b0: 23de 17bd 2b5a a6bc baf1 c73d 9e71 443c
000002c0: c263 9f3d 9ddd 023d c8c3 29bd 9817 2dbd
000002d0: c1f9 e8bd 48a7 0c3d 13dc 953d 1c47 583d
000002e0: a364 21bc 7542 e9bc 6b56 5c3a 3f78 2b3d
000002f0: e4cb 9c3c 1626 8dbc c758 8c3d 8b70 363c
00000300: 000a 68bc b87b 613d acac d93b 2a3d 2d3d
00000310: f007 973d e415 f83d d052 1bbe 49e3 77bb
00000320: 1a87 14bd 5c54 45bd 11c6 a8bb 8124 04bd
00000330: 77e8 98bd bfda 763d 9797 80bb 4e8d bfbc
00000340: e533 86bc 1be7 3c3d dd87 cfbb dad8 21be
00000350: 13bf 4dbc a0df 353e d29b db3d 8203 22bd
00000360: 8cae d7bc ffa4 963c 5a67 21bc ecc8 a1bd
00000370: 548c 86bb efd1 26be dfbe 9dbb 948c 8fbd
00000380: 2e80 dfbc e2f7 673d c006 503c ec43 bfbc
00000390: 62c1 17bc ad58 103d 2d7c dbbd aa21 2d3b
000003a0: 6026 45bd 42fb f1ba ad92 53bc 314d a0bd
000003b0: bde4 33be 24f3 03bd 796d 39bd d2f2 c0bc
000003c0: 8253 693d a72b 103c c299 f6bc 9082 4abc
000003d0: c653 da3b 99af c83d 611f 09bd ac8c a23d
000003e0: 0206 073d 0e40 58bb 0ef8 fdba f2fe d43d
000003f0: d36d cbbd 5f89 713d 7f3c acbd b1dc 09bd
-0.08582736 -0.009978412 -0.05615491 -0.016571121 -0.12795731 -0.08178162 -0.03542703 -0.10509965
-0.07426837 0.026616018 -0.065552406 0.015652262 0.09198425 0.077354416 -0.0008502307 -0.03036059
0.08260646 0.06263233 -0.04363606 0.023937576 -0.028175138 -0.05849132 0.047123536 0.07134084
-0.03497434 -0.07308954 -0.03284292 -0.039056845 0.07220204 0.038351905 0.092043996 -0.0061268355
0.03996639 -0.013008908 -0.0002809005 -0.015246106 -0.09489745 0.050247602 0.088803135 -0.11700339
0.05367222 -0.032137763 -0.005669133 0.027797682 0.002944105 0.1030229 0.061221734 0.0071423315
-0.061395146 0.028306074 0.07492136 -0.0051448825 0.009002124 0.071134605 0.13222462 0.04391381
0.058664385 0.15619515 0.027777638 0.14559455 0.028891152 -0.007271439 -0.015329339 -0.1500571
-0.00023672648 0.03296455 0.017592348 0.005598177 0.063707046 0.015963644 -0.021752248 -0.035765838
-0.007170606 0.0031733117 0.08072308 0.039899975 0.015428644 0.038937673 -0.025392108 0.06290809
0.027024562 -0.006223897 0.0152113745 0.12285119 -0.02497172 -0.005543141 0.13872051 -0.042931214
0.01592039 0.057487465 -0.05916155 -0.059216253 -0.009117945 0.010710719 0.008177892 -0.11827619
-0.061307535 -0.039869133 -0.076915175 -0.0659979 0.036994096 -0.011673749 -0.0012345999 -0.0450524
0.050594695 -0.15228659 -0.06168502 -0.027302656 -0.06877409 -0.091301724 -0.10787311 -0.026031915
-0.12219307 0.0006103803 -0.02307579 -0.045867413 0.01273213 0.11810081 0.12251968 0.034298763
-0.012809951 0.08842474 0.08993245 0.05415226 0.031941604 0.07213975 -0.14569098 -0.12323872
-0.083620995 -0.08759763 -0.12437457 -0.09740109 -0.018970285 0.019898104 -0.14038333 0.05543468
0.06884138 -0.09014008 -0.03287194 -0.029485745 0.018950883 -0.005461846 -0.0041317404 0.012679264
0.0044708517 -0.014052079 0.010339924 -0.045171656 -0.011870014 0.03205353 0.061318204 0.07013543
0.016822103 0.050237067 0.08954158 0.15111181 0.0017876873 0.10371138 0.014485528 -0.026079953
-0.055039003 0.025640542 -0.013840478 -0.056040943 0.04765972 0.086451806 -0.036089987 -0.033086844
-0.018578827 0.043023545 0.08135896 0.057687216 -0.03707708 -0.020306667 0.097629026 0.011989979
0.07782699 0.03194963 -0.041446477 -0.04225883 -0.11375762 0.03433922 0.073173665 0.05280219
-0.009850654 -0.028474072 0.0008405211 0.041862722 0.019140191 -0.017230075 0.068528704 0.011135231
-0.01416254 0.055049628 0.0066428985 0.04229466 0.07374561 0.1211355 -0.15168309 -0.0037824681
-0.036261655 -0.048176154 -0.0051505645 -0.032261375 -0.07466214 0.060267206 -0.003924321 -0.023382809
-0.016382167 0.046118837 -0.006333335 -0.15805379 -0.012557763 0.17761087 0.1072308 -0.039554127
-0.026328348 0.018389223 -0.009851301 -0.07899651 -0.004106084 -0.16291021 -0.0048140134 -0.07009235
-0.0272828 0.056632884 0.012696922 -0.023347817 -0.009262415 0.035240818 -0.10717044 0.002641777
-0.0481323 -0.0018461721 -0.012913388 -0.07827223 -0.17567725 -0.0322143 -0.045270417 -0.023553286
0.056964405 0.00879947 -0.030102614 -0.01236023 0.0066628186 0.097991176 -0.03347719 0.07936987
0.032964714 -0.0032997164 -0.0019376294 0.104001895 -0.09933057 0.058968898 -0.08409976 -0.033657733

blocks.3.conv.bias f4 [32]
00000000: 4bec 0aba 700c 3d39 95eb 7c3a b30b c139
00000010: 4fef 4db9 6c8a 3838 0aa8 19b9 d367 1f39
00000020: ff89 c8bb db3e 623b 0f14 6db9 e92b 3db9
00000030: 0c2f e1ba ffbc dbba 06d7 3d38 2fa0 a5ba
00000040: 4e0e 23bb 337a 3d3b 11c5 1e3a 9999 d4ba
00000050: 838b 1f3b f711 ae39 fe35 1f39 2820 50b9
00000060: e22a f03a 2e2b feb9 1bd9 23ba c080 8539
00000070: 9d93 603b a278 a439 cf76 95b9 d191 3b39
-0.00052994926 0.00018029078 0.00096481416 0.00036820545 -0.00019639473 4.3997934e-05 -0.00014653816 0.00015202099
-0.006119966 0.0034522328 -0.00022609554 -0.00018040802 -0.0017180159 -0.0016764699 4.5261368e-05 -0.0012636239
-0.0024880352 0.0028911948 0.0006056587 -0.0016220092 0.002434463 0.0003320125 0.00015183535 -0.00019848405
0.0018323327 -0.00048478827 -0.0006250308 0.00025463663 0.0034267672 0.00031370396 -0.00028508014 0.0001788803

blocks.3.bn.weight f4 [32]
00000000: 8db2 873f 6d80 723f 6b6a 693f 887d 663f
00000010: 9d47 7e3f 1f92 653f fb80 7a3f bc25 7c3f
00000020: e071 923f 680e 673f 23c5 673f 3ca0 6c3f
00000030: bbd7 813f 3944 893f b3e1 853f fdf2 8c3f
00000040: c0f6 893f 7d34 733f 0ab9 833f a37a 6c3f
00000050: 229c 883f ce86 813f e1e0 7e3f 79d7 793f
00000060: fdda 833f 2003 6b3f 1bec 843f c411 683f
00000070: db4f 763f 4bda 7d3f 78c5 753f 7226 703f
1.0601364 0.9472721 0.91178006 0.90035295 0.99328023 0.8967609 0.9785306 0.9849508
1.1441002 0.9025636 0.9053518 0.92432 1.0143961 1.0723945 1.0459503 1.1011654
1.0778427 0.95001966 1.0290844 0.9237463 1.0672648 1.0119264 0.9956189 0.9759441
1.0301205 0.91801643 1.0384554 0.9065211 0.962156 0.99161214 0.9600444 0.9380866

blocks.3.bn.bias f4 [32]
00000000: 0fb3 a2bd 15f7 76be 23c9 97bc 366f 653c
00000010: 95db 78be 4b2f a6bc bdf2 88be aebd 36be
00000020: 1028 4cbe a523 04be 8c19 83bd d350 56bc
00000030: 3449 bfbd 11b0 2fbe 6b32 b9be 023e 17be
00000040: 7fce 3dbe aa19 83be ae3b 62be a086 64be
00000050: c580 edbd 7e79 8ebe 4ddc 89be b726 42be
00000060: 2d9e 67be f91a 83be cf07 92be 558b 82bd
00000070: a025 06be 336e 30be 861c 683c b6b1 59be
-0.07944309 -0.24117692 -0.018528527 0.014003566 -0.24302514 -0.020286223 -0.26747695 -0.17845795
-0.19937158 -0.12904222 -0.06401357 -0.013080793 -0.09340134 -0.17157008 -0.36171278 -0.14769748
-0.18535803 -0.25605518 -0.22093078 -0.2231698 -0.115968265 -0.27827066 -0.2692589 -0.18960081
-0.22618933 -0.25606516 -0.28521582 -0.06374232 -0.1310029 -0.17229538 0.014166957 -0.21259198

blocks.3.bn.running_mean f4 [32]
00000000: 7a41 95be d252 91bf e476 cebe dda5 57bf
00000010: c1a4 503f 6f05 c73e 857e 08c0 a767 59c0
00000020: 3155 de3f 7b14 b9bf f62a 923f 4c64 9fbf
00000030: c14a 423f 1517 f73e 9394 4cbf ced4 49c0
00000040: e0a4 043d 849f e23e bfbe d8bf 0bbe 8abe
00000050: ca6b 45be e52a 013f 1bb4 69be b518 1ec0
00000060: ae99 963f 433d 763f cc2b b03e 4077 723f
00000070: fe48 fd3f 0b21 85bf 041a f8be 3bc7 b33f
-0.29151517 -1.13534 -0.4032508 -0.8423746 0.81501395 0.38871333 -2.1327221 -3.3969514
1.7369748 -1.4459375 1.1419361 -1.2452483 0.75895315 0.48259798 -0.79914206 -3.1536136
0.0323838 0.44262326 -1.6933211 -0.27098116 -0.192794 0.50456077 -0.22822611 -2.470258
1.1765649 0.9618723 0.34408414 0.9471321 1.97879 -1.0400709 -0.48457348 1.4045175
