models/73.pth (torch, 501905 bytes, 80 tensors)

conv0.conv.weight f4 [32, 17, 3, 3]
00000000: ecc1 7dbd f0eb c23d a5df 86be b468 b83d
00000010: a3da ffbd 96d6 093e 066c 0cbe 23dd b63d
00000020: f678 86bc 1b4e 98bc 1180 38bd cc98 7e3d
00000030: fc6a 3d3d e5c5 debd d4b1 fd3d 76a0 333d
00000040: db25 8fbd ae5a 543c 472c ac3d e13d 7ebd
00000050: eba7 a43d 7008 bc3c 5608 133d 8f49 263e
00000060: 5c5e 2f3d d941 3b3d 19c9 123d a810 5ebd
00000070: 9055 1cbc b820 723c 20b0 97bc 3dae 803c
00000080: 086e 6f3d 9980 3dbd ddbb ffbc e6a5 133d
00000090: 8d10 cc3d 5056 11bb 05e0 4b3d c4f9 373d
000000a0: 753b 6dbe 7f15 343e b122 2c3e ccf9 213e
000000b0: 29fd de3d 09c6 153d 2e7b 223d 7e53 ca3d
000000c0: 5dac 2e3d b678 bcbd 1e15 d53d 6630 6b3e
000000d0: 3a33 943c 28fe e33c 0daa 263d 5dc7 c83d
000000e0: 7f1e b83d 6387 263e 57f1 e2bd 0b83 cc3d
000000f0: 204f 013e 7294 bd3c c21e ea3b bed1 033d
00000100: 216e a23d ea7e 163e f8f5 a6bb b1e1 f0bb
00000110: afc0 013e 1f21 d53d 031e 993d c173 483d
00000120: 2022 883d c7ac 9f3d 090a b7bd 48fe 833d
00000130: 4ae8 0e3e fff7 823d 9433 a5bc dbf0 d43d
00000140: 0cf1 a53c 5d25 99bd 87a3 c73d 99b8 b3bc
00000150: fb3f 2dbd 846f 963e c7f8 563d f88d 29bd
00000160: 163d ae3d 7c23 26bc 8d70 afbc 649a 993d
00000170: a6dc b8bd c8a3 17bc 815b 8a3e e1a7 343d
00000180: f2db adbc a0a8 b73d 6b97 9dbc b17e 03bd
00000190: ff63 d63d 9433 8dbd e35f 3e3d 75c7 5f3e
000001a0: d9ca b13d 9f9e 68bd a2c2 a53d 2982 ed3c
000001b0: dfa2 21bb bb71 a6bd faf0 8c3d 5653 2dbc
000001c0: 6665 95bd 538e 9cbd 99f2 143d 84ea 82bd
000001d0: 33f4 883d c717 8dbd 1f61 0d3d 5f99 133e
000001e0: fb82 42bd d6da 8a3d 335a 54bc c6ac 523d
000001f0: e0ed 833d 06c7 053e 56d5 1f3d 1043 00bd
00000200: 0657 df3d 19f6 0fbd a12b b33d b87f 8b3c
00000210: dc18 33bd 592d 6fbd e46d 043d 60fa 80bd
00000220: 878f 2c3d 71f2 633d 4b11 b73b 7171 ecbc
00000230: ab65 8a3c 2a51 813c 0dca 24bc ff38 a23d
00000240: 01df 4b3d 041f 293d 1af6 ec39 3079 523c
00000250: 3f2b abbc c81a 363d a629 55bd c754 4abc
00000260: 0407 90bc 0d58 e73d e80d c33d 079e 013c
00000270: 531a 873a 3ffd 91be cebb ee3d 8532 623d
00000280: 8e13 70bd 39bc 95bd a4f8 863d dba4 463d
00000290: 9322 9cbd eb2c b5bd 8c4e 37be 6c13 d9bd
000002a0: 206f 1fbd ca59 80bd fe45 dabd 3aae f5bd
000002b0: 2d93 033e b345 0bbe 1e88 febd 3e7a 963d
000002c0: 63fb e0bd 1f7f b5bd 7ba3 0abe f7e2 e5bd
000002d0: c8cd 16bd 28f9 c63b a80a 07be 6aea a1bc
000002e0: cd83 303d 9dbf 1cbe 3ab1 f13c ae3b 33be
000002f0: e4f9 d5bd f583 8b3c ae1c 08be 2442 d1bd
00000300: 4226 74ba c53d 74bd b688 23bd 2048 843d
00000310: 2858 743d bbef a1bd a880 04be a43e 6bbd
00000320: 78cf 2dbe 9b8a 16be 1a7a b5bd 9c26 18be
00000330: 778c fdbd 56fd edbd 57fe 2dbe d3f4 afbd
00000340: 67cf 43bb 02d5 96be 09fe 8abd 672f 70bd
00000350: 4836 d5bd 0844 02be 2a1a 1cbe 8d37 0ebe
00000360: 3810 20be 4b80 ecbd 6704 74be 69dd 62bc
00000370: dc14 22be a85a 3dbe 8f03 eabd b5a7 ffbd
00000380: ea64 44be 28b0 d1bd bd2c d0bc f973 4d3d
00000390: 8c86 793c 2952 c1bd e6f8 ef3d 3b39 1f3a
000003a0: 24e2 c4bc e4e4 f83d 2342 fd3a c70f 1c3d
000003b0: c326 bd3d e165 e93c 974e 193d 876d b43d
000003c0: 4b75 a23d d5d3 453d 9c1a 503d f5c2 943d
000003d0: 4035 7b3d b5cf b93d f211 a03d 2823 293d
000003e0: 7a55 9b3c 8b25 0c3d 9eee c53d d87e 8c3d
000003f0: d819 5d3d 05f5 bb3d 1f75 683d 8663 613c
-0.061952516 0.09517658 -0.26342502 0.090043455 -0.124928735 0.13460764 -0.13713083 0.08928897
-0.0164151 -0.018591931 -0.04504401 0.062157437 0.046244606 -0.10877589 0.12387434 0.0438542
-0.06989642 0.012961073 0.08406883 -0.06207073 0.0803984 0.022953242 0.03589662 0.16238998
0.042814597 0.045717094 0.035836313 -0.054215103 -0.009541884 0.014778309 -0.0185166 0.015708083
0.058454543 -0.04626522 -0.03121751 0.036046885 0.09964094 -0.002217669 0.04977419 0.04491593
-0.23167212 0.17586325 0.16810109 0.15817946 0.1088813 0.036565814 0.039668255 0.09879206
0.042644847 -0.09202711 0.104044184 0.22967681 0.018090833 0.027831152 0.040689517 0.098036505
0.08990192 0.16262583 -0.11081188 0.09985932 0.1262784 0.023142073 0.00714478 0.032182448
0.07931162 0.14696851 -0.0050952397 -0.0073511233 0.12671159 0.10406708 0.074764274 0.048938517
0.06647134 0.077966265 -0.08937461 0.06444985 0.13955799 0.06394958 -0.020166196 0.10397502
0.020256542 -0.074778296 0.09747987 -0.021938609 -0.042297345 0.29381955 0.052483346 -0.041395158
0.08507745 -0.010140296 -0.021415973 0.07500151 -0.0902646 -0.009255357 0.27022937 0.044105414
-0.021223042 0.089677095 -0.01923724 -0.032103244 0.104682915 -0.06894603 0.046478163 0.2185343
0.08681268 -0.056791898 0.08093764 0.02899273 -0.002466373 -0.08127161 0.068819 -0.010578951
-0.07294731 -0.07644334 0.03636417 -0.063923866 0.06687202 -0.06889301 0.03451645 0.14413975
-0.047488194 0.06780021 -0.012960958 0.0514343 0.064418554 0.13064203 0.039021812 -0.031313956
0.1090527 -0.035146806 0.08748556 0.017028674 -0.04372488 -0.058392856 0.032331362 -0.06297755
0.042129066 0.055651132 0.0055867783 -0.028862687 0.016894182 0.015785772 -0.010057938 0.079210274
0.04977322 0.041289344 0.00045196788 0.012846276 -0.020894645 0.044459134 -0.052041672 -0.012349314
-0.01758147 0.11296091 0.09524137 0.007911212 0.0010307528 -0.28513524 0.11656915 0.05522396
-0.0586124 -0.07311291 0.06590393 0.048497062 -0.07623782 -0.08846458 -0.17901057 -0.105994076
-0.038924336 -0.06267126 -0.10657881 -0.11996122 0.12849112 -0.13600807 -0.12428306 0.073475346
-0.10985448 -0.08862137 -0.13538925 -0.11224931 -0.036817342 0.006072182 -0.13187659 -0.019765098
0.043094445 -0.1530747 0.029503454 -0.17503235 -0.104480535 0.017030695 -0.1329219 -0.102176934
-0.0009313562 -0.05962922 -0.0399253 0.06459069 0.059654385 -0.07907053 -0.12939703 -0.057432786
-0.16973674 -0.14701311 -0.0886118 -0.14858478 -0.12380307 -0.116205856 -0.16991554 -0.085916184
-0.002987826 -0.29459387 -0.067867346 -0.058638956 -0.10410744 -0.12721264 -0.15244356 -0.13888378
-0.15631187 -0.115479074 -0.23829804 -0.013846734 -0.1582827 -0.18491614 -0.1142646 -0.124831595
-0.1917912 -0.10238677 -0.025411958 0.05015943 0.015229832 -0.09439499 0.117173955 0.00060738967
-0.024033614 0.121530324 0.0019322078 0.038100984 0.09235909 0.028490962 0.037428465 0.08809953
0.07932528 0.048297722 0.050806627 0.072637476 0.06133008 0.0907282 0.07815923 0.041293293
0.018961657 0.03421549 0.09664653 0.06860131 0.053979725 0.09177593 0.05675232 0.013756638

conv0.conv.bias f4 [32]
00000000: 96e0 02bb eb2b a539 5e3b 76bb 9fed f63a
00000010: 3eb3 0bba 853d 683a 6c3c c4bb 2afd 6b3b
00000020: 2f95 fb3b b517 153a 9d12 b2bc ee47 493b
00000030: a478 3bbb 758a 57ba 395f 3a3b e069 40bb
00000040: 7227 1bba 07c8 6bba b16b 89bc 198b c2b9
00000050: a788 0eba 9a37 46ba 9059 0cbc e6fc aeba
00000060: 85b4 1ebc 2ecf a7bb 77b4 d83b 32e8 29b9
00000070: 077c ae3a 50b7 dd3a ee64 06bc c9e8 c8ba
-0.001997029 0.00031503974 -0.0037572007 0.0018839127 -0.00053291384 0.0008859265 -0.005988648 0.0036009052
0.007677696 0.00056874315 -0.021737391 0.003071304 -0.0028605843 -0.0008222231 0.0028438105 -0.0029359981
-0.00059186586 -0.0008994345 -0.016774984 -0.000371062 -0.0005437233 -0.0007561386 -0.008566275 -0.0013350516
-0.009686594 -0.0051211333 0.00661331 -0.00016203595 0.001331211 0.0016915593 -0.008202774 -0.0015328164

conv0.bn.weight f4 [32]
00000000: 2641 653f 1fa0 583f 6663 543f 451c 5e3f
00000010: aa3a 653f a94f 5d3f 91f5 573f 4988 653f
00000020: 3031 6f3f 5a66 653f a68b 563f 55a0 583f
00000030: c78f 5f3f 7967 6a3f cb21 613f a01b 7c3f
00000040: abe4 5f3f 9374 923f 2405 6a3f ee79 5e3f
00000050: c02b 503f 25a6 753f c6dc 643f b4fc 5b3f
00000060: 82bb 7c3f 8d22 613f 27df 6c3f cba8 583f
00000070: 5e94 783f 706b 563f 8dbc 5b3f 3551 5c3f
0.89552534 0.84619325 0.8296417 0.86761886 0.8954264 0.86449677 0.8435908 0.8966108
0.9343443 0.896093 0.83806837 0.8461965 0.8732876 0.91564137 0.8794219 0.9847965
0.87458295 1.1441826 0.91414094 0.869048 0.8131676 0.9595664 0.89399374 0.8593247
0.98723614 0.87943345 0.92528003 0.8463256 0.9710139 0.83757687 0.8583458 0.8606141

conv0.bn.bias f4 [32]
00000000: beee aebe 860d d2bd 43c5 b6bd 0d47 b5be
00000010: 607c 12be f8e2 b1bd 6d94 c9bd e5e8 13be
00000020: 63d1 32be b642 75be 0619 87bd 28df f83c
00000030: dc87 c0bd 2ef2 1dbe 959c 53be 30a5 acbd
00000040: d108 cebd 30e4 323d f1d7 a3bd a32c d5bd
00000050: 4120 fbbd 270a 963d 53df 75be e2d6 13be
00000060: edd5 aabd 754a 96bd b922 18be 513c 66bd
00000070: 7e29 14be f46c c83d 0cda 84bd 844d 1c3c
-0.3416652 -0.10256486 -0.089243434 -0.3540577 -0.14305258 -0.08685869 -0.09842763 -0.14444311
-0.17462687 -0.2395123 -0.0659657 0.030379847 -0.09400913 -0.15424415 -0.206652 -0.084299445
-0.10060275 0.043674648 -0.08000172 -0.104089044 -0.12262011 0.07326155 -0.24010973 -0.1443744
-0.08341584 -0.0733842 -0.14856996 -0.056209866 -0.14468953 0.09786406 -0.06486902 0.009539966

conv0.bn.running_mean f4 [32]
00000000: 936c 153e c0a5 933d 9f5c 3ebc ffd3 79bd
00000010: 7e63 823b 199d 65bb 356b cbbd 81e5 2d3e
00000020: 4c77 25bd 82da 05bd 9471 46bd 6b55 2c3d
00000030: 05eb 19bb 41cb 53bc 66ec 383d 062b d63d
00000040: 565d 943d 5975 9bbd 6b52 d8bd 128f 16bc
00000050: ad30 fa3c 2cbf d1bb 934c a7bd 2744 c73c
00000060: c798 3fbd da9f 45bd a953 83bc 26f8 ecbc
00000070: 6d65 1d3e d6d4 8b3d 9338 a8bd 6a14 913d
0.14592199 0.07209349 -0.011618762 -0.06099319 0.0039791455 -0.0035036264 -0.099325575 0.1698208
-0.040396973 -0.03267909 -0.04844816 0.04207365 -0.002348603 -0.0129268775 0.045147322 0.10457425
0.07244365 -0.07590742 -0.10562595 -0.009189384 0.030540789 -0.0064009633 -0.08168902 0.02432449
-0.04677656 -0.04824815 -0.016031103 -0.02892692 0.15370722 0.068277046 -0.08213916 0.07083972

conv0.bn.running_var f4 [32]
00000000: 2518 0e3d 20e2 c63c e798 da3c 1afa be3c
00000010: 5251 9f3c e9c9 e63c ea61 2d3d 56e9 de3c
00000020: 7ead e23c 3421 d33c 6666 0a3d b714 023d
00000030: c596 dc3c 100f 993c a980 073d 0382 b73c
00000040: 2d64 af3c d15a 133d b0ec 163d 967e bb3c
00000050: 8e5e 0a3d 067b d13c 6b14 c23c 7a13 af3c
00000060: 3d6b af3c 83e2 e43c 05c6 cf3c 3eca c23c
00000070: 103a 0c3d 0f21 d03c 789f f53c 605a df3c
0.034690995 0.024277747 0.026684238 0.023312617 0.019447956 0.02817245 0.042329706 0.027210873
0.027670618 0.025772668 0.03378906 0.031758036 0.026927361 0.01868394 0.033081684 0.022400862
0.021410072 0.03597528 0.036846817 0.02288751 0.03378158 0.025571357 0.023691377 0.021371592
0.02141344 0.02794004 0.025362978 0.023778077 0.03423506 0.025406389 0.029983267 0.027264774

blocks.0.conv.weight f4 [32, 32, 3, 3]
00000000: 9a1b e33d 08b9 eb39 6bc8 d9bb dff9 27be
00000010: a972 413d 6c7a b3bc 7a27 233d f467 fbbb
00000020: 1129 94bb 48d9 363e dc80 7d3d 6045 943c
00000030: e154 d8bd 4e45 89bd 8fac 973c 2338 b83d
00000040: 6e11 98bd ee86 a33c 8249 a93d 0cab 2e3c
00000050: 65f4 cb3c 5aa3 efbd c0d9 403d 9ac6 c6bd
00000060: adf4 703d f076 0c3d e323 093a b654 39bd
00000070: af80 0abd 2365 0bbd c324 9bbd d2d9 fcbc
00000080: fc32 693c 075e aabc b1eb a9bb d9c4 c93c
00000090: ab18 b63d ce99 253e e7a8 bbbc 8d5b be3d
000000a0: ee4e 7ebc 776d 9e3d 5cea 70bd 78c5 24be
000000b0: ac8a 40bd bc1c 223d 2426 153c ba0b cabb
000000c0: f78c f33b e8af bbbc f287 7d3d c6bb eabc
000000d0: abe1 ddbc 0dd6 193e 16d2 a13d 541f 11bd
000000e0: 9f13 a33d ae22 ee3c 8f62 863c fe25 a2bd
000000f0: 5623 fd3c e578 2dbd c92e 05bd 603a d13d
00000100: d9ef 3c3c 198a 313e f515 2b3d 3d46 173e
00000110: 31c2 67bc c9aa 0b3d 8b3f eabc 1d30 37bc
00000120: 162f 5e3d 4027 0ebe 0ca5 68bc 2361 ebbd
00000130: 1fa4 2f3d 0b8d 993b 0c02 feba 4045 353e
00000140: 35e2 153c e7a1 d6bd 1a8f 133d 3779 8a3d
00000150: 66e5 973c ced6 1d3e c052 a73c 80e7 133e
00000160: 7d9c 873d 2f71 063d c739 b2bd a19c 15be
00000170: 274a 4c3d 25e5 63bc 10dd 823d 4160 8abd
00000180: 1eca 653d beec 24bd a78a a4bd 12a0 c63c
00000190: 4628 fc3d 483c 423e 92cc a1bd 520d 873d
000001a0: 834a fe3d 1663 963d c21d d83c cc52 28bc
000001b0: 7aaa 14be c71a 99ba a623 ad3d b1ce ee3d
000001c0: 6093 b63d a5c4 3bbd ed8a 19bd dc2c 613c
000001d0: 48ea aabd 7619 aebd dd6b cabc da42 ccbd
000001e0: 7f81 13be 8258 b63c 2295 b4bd eecf d0bc
000001f0: 5107 963d fdb0 6d3d 3698 37be 94df 0b3e
00000200: 5298 bfbd 6a36 f73c 40e6 3cbc 8486 783a
00000210: 1c43 fd3c e18d a4bd 5e33 c3bd 8f9a c53c
00000220: b36d 313d fd94 3b3c b980 b43d 7a9a fa3b
00000230: 2073 84bd 7542 f73b 90c3 1e3e 6799 22bc
00000240: b205 e4ba 3592 683d 807c aa3c 9073 c13d
00000250: bced e3bd 3bef 3abd 07d8 9a3d fc47 373e
00000260: 6504 cf39 57c9 893d 0e33 afbc 135c 0abe
00000270: f73d a53c 9713 cabe b947 373d eb01 7e3d
00000280: 3bf5 4ebc 247d 833d e4b2 1d3d 45f5 033e
00000290: fbdc a93d 9b33 1a3e 8a00 edbc c5db adbc
000002a0: 42d7 bcbd de7e 053b afb8 cb3d 1d58 39bd
000002b0: 405d dc3d 9f92 b13d 2be3 1bbe 7b3c 4e3d
000002c0: 0061 66bd abea 493d 08c4 893d cc03 a1bd
000002d0: 0d71 adbc 1724 1cbd 3a56 593d 3709 243d
000002e0: fbbd 97bd 628f 2cbe f5bd 643d ad7a c9bc
000002f0: a6ff 31be f25d c73d 64c9 d0bc c0f4 483d
00000300: ed0f 343d 628f c9bd 3fd5 3d3d 63dd 6d3d
00000310: 506d 6d3d f0de 083e 264b 9f3c e51f abbc
00000320: 0702 95bd e69b c3bd 69d1 023e a800 483d
00000330: 1e20 b93d 5577 b3bc d7b1 193d 7d23 a53b
00000340: 96cf 27bb c5a2 dd3b 0a47 ffbc eb40 2d3d
00000350: 5c0c ab3d 84e7 23be 1bc4 193d 924d 393e
00000360: 012f 64bc 902f 863d dfc3 93bd b880 5d3d
00000370: 0ca1 523d 7216 263d 4613 35bd 28b4 4dbd
00000380: ef2c 933c d5ab 9fbd ae7c 74bc 164f a1bd
00000390: 4c6b 0cbc e14e 06bd 301e f3bd bad9 efbc
000003a0: a42a abbb 92a0 323d 7761 acbc 49be 893d
000003b0: 3193 43bd d13f 64bd 8cfa 09bc 838c ebbc
000003c0: a14b 133d 670e 5b3c de0a 13bd debf 633d
000003d0: 7187 743b f03e 143d 5ed3 0fbd b232 9fbd
000003e0: fab4 643c 15d3 8d3d b946 593d 1839 65bd
000003f0: fceb da3c b097 91bd 01f0 193e 856f 05bd
0.11089249 0.00044960552 -0.006646206 -0.16403912 0.04722849 -0.021908961 0.03983257 -0.0076723043
-0.004521497 0.17856324 0.061890468 0.018099487 -0.10563064 -0.06702672 0.0185149 0.08995082
-0.074251994 0.0199618 0.08265974 0.010660898 0.02489681 -0.11701079 0.047082663 -0.09705849
0.05882709 0.034293115 0.0005231483 -0.045246802 -0.03381413 -0.034032 -0.07575371 -0.030865584
0.014233347 -0.020796789 -0.0051855673 0.024629997 0.08891424 0.16171953 -0.022907687 0.09294806
-0.015521748 0.077357225 -0.058817253 -0.16090953 -0.047007248 0.039578184 0.009103332 -0.0061659487
0.007432576 -0.022911027 0.061897226 -0.02865399 -0.027085146 0.1502306 0.07901399 -0.035430267
0.07962727 0.029069271 0.016404418 -0.07917403 0.030900639 -0.042351622 -0.03251532 0.10216212
0.0115317935 0.17337836 0.041768987 0.14772888 -0.01414542 0.03409842 -0.028594753 -0.011180905
0.054244123 -0.1388216 -0.0141995065 -0.11493137 0.042881127 0.004686003 -0.0019379272 0.17702198
0.00914817 -0.10480099 0.036025144 0.06761401 0.018542003 0.15413973 0.0204252 0.14443779
0.06621645 0.032822784 -0.087024264 -0.1461053 0.049875405 -0.013909613 0.063898206 -0.0675664
0.056100957 -0.040264837 -0.08034258 0.02424625 0.12312369 0.18968308 -0.07900347 0.065943375
0.12416556 0.07343118 0.026381377 -0.010273647 -0.14518157 -0.0011680954 0.08454065 0.11660517
0.08914828 -0.04584183 -0.037486006 0.013743605 -0.08345467 -0.0850095 -0.024709636 -0.099736884
-0.14404868 0.022259 -0.08817507 -0.025489774 0.07325614 0.058030117 -0.17929158 0.13659507
-0.09355225 0.030177314 -0.011529505 0.00094804936 0.03091579 -0.08034874 -0.09531282 0.02412155
0.043317508 0.011449096 0.088136144 0.0076478096 -0.06467271 0.007545764 0.15504289 -0.009924269
-0.0017396717 0.05678006 0.02081132 0.0944587 -0.111293286 -0.045638304 0.07560735 0.17898554
0.0003948539 0.06727856 -0.02138665 -0.13511686 0.020171149 -0.3946807 0.044746134 0.062013548
-0.01263171 0.06420353 0.03850068 0.12886532 0.08294102 0.15058748 -0.028930921 -0.021222958
-0.09220745 0.0020369808 0.09947335 -0.045250047 0.107599735 0.08670544 -0.15223376 0.050350647
-0.05624485 0.049296062 0.06726843 -0.07862052 -0.02117207 -0.038120355 0.053060748 0.04004785
-0.07409283 -0.16851571 0.05584522 -0.02459463 -0.17382678 0.097347155 -0.025486656 0.049061537
0.0439605 -0.09841801 0.046345945 0.05807246 0.057965577 0.13366294 0.019445013 -0.020889232
-0.07275777 -0.0955122 0.12775196 0.04882875 0.09039329 -0.021907488 0.037523117 0.005039631
-0.0025605909 0.0067637884 -0.031161804 0.04229824 0.08351967 -0.16006285 0.037540536 0.18095997
-0.013927222 0.065520406 -0.07215094 0.054077834 0.051423118 0.04054875 -0.044207834 -0.05022064
0.017965762 -0.07796446 -0.014922304 -0.078764126 -0.008570503 -0.03279007 -0.11870992 -0.029278625
-0.005223589 0.043610163 -0.021042569 0.06725747 -0.047747795 -0.055724923 -0.008421551 -0.028753525
0.035960797 0.013370133 -0.035899036 0.0556029 0.0037312175 0.036192834 -0.035113685 -0.07773341
0.013959164 0.06925026 0.053045962 -0.055962652 0.026723854 -0.0710901 0.1503296 -0.032577056

blocks.0.conv.bias f4 [32]
00000000: c27e b2ba c982 ce3a 8a10 3e39 2ac5 69b9
00000010: 611a ffba afe5 803b b901 b33a 601a 563b
00000020: 6f17 87ba 2084 60bb 1ea4 6438 3963 5339
00000030: 5609 32bb 71eb 883a 1e45 073a e1a1 4ab9
00000040: 464a a7b9 7561 8dba f4e3 ed39 468d f9b9
00000050: f5c9 a438 3d76 6dbb 7d0d adbb 9591 1a3b
00000060: d048 483b 1e48 c0ba 4200 df39 0567 98bb
00000070: c3e6 11bc 05d4 8839 6869 8bba c03a 3d3b
-0.0013618099 0.001575553 0.00018125973 -0.00022294061 -0.0019462818 0.0039336304 0.001365713 0.003266953
-0.0010306666 -0.003425844 5.4512282e-05 0.00020159491 -0.002716621 0.0010446144 0.00051601406 -0.00019324526
-0.0003190806 -0.0010786491 0.00045374 -0.00047598238 7.857747e-05 -0.0036233806 -0.005281149 0.0023585309
0.0030560978 -0.001466993 0.00042534067 -0.0046509528 -0.008905116 0.00026097908 -0.0010636272 0.002887413

blocks.0.bn.weight f4 [32]
00000000: f569 683f c73c 6e3f 87cf 6c3f e966 6a3f
00000010: f3c2 863f 641f 783f 6aa3 6e3f e281 6a3f
00000020: 8e06 723f 8c50 6c3f 978f 803f 8003 783f
00000030: f48c 6a3f d01e 643f 6279 603f 7b94 633f
00000040: ff4d 7d3f be75 753f 7582 753f 9921 743f
00000050: c21e 693f de8f 6a3f df78 793f 7bac 6e3f
00000060: c801 6f3f 6902 7c3f 26a1 813f f512 8d3f
00000070: a54a 6e3f b209 6c3f 9085 603f fe9a 7b3f
0.9078668 0.9306149 0.9250416 0.9156328 1.0528244 0.969229 0.932181 0.91604435
0.9454125 0.92310405 1.004382 0.9688034 0.9162133 0.89109516 0.87685215 0.8889844
0.9894714 0.95882785 0.95902187 0.95363766 0.9106256 0.91625774 0.9745006 0.93231934
0.9336209 0.9844118 1.0127304 1.102141 0.9308265 0.92202294 0.877038 0.98283374

blocks.0.bn.bias f4 [32]
00000000: 3b12 83be 908e 85be 0afc 40bd b458 5dbe
00000010: 2542 54be eb0b 66bd ac23 0fbe c57e 36be
00000020: bb52 4ebe 272e 99be a7f7 22be 1258 75be
00000030: 2d19 7dbe b8e1 aabe 0bbe 25be cd7d 73be
00000040: bc6d 8cbe 4ba9 6bbe 1c20 95bd 2f7e a6be
00000050: 6c1f 8bbe 71e6 d5bd 2999 9cbe 7b95 50be
00000060: 13d4 75be 43eb 9cbe a08d 62be d61f 6cbe
00000070: d48f c0be d5c9 58be 1f03 443c a9b0 90be
-0.25599846 -0.2608533 -0.047115363 -0.21615869 -0.20728357 -0.05616371 -0.13978451 -0.17821796
-0.20148747 -0.29918024 -0.15914784 -0.23959377 -0.24716635 -0.33375335 -0.16185777 -0.23778458
-0.2742747 -0.23013799 -0.07281515 -0.32518145 -0.2717241 -0.10444344 -0.30585602 -0.20369522
-0.24006681 -0.3064824 -0.22124338 -0.2305902 -0.37609732 -0.21170743 0.011963635 -0.2825978

blocks.0.bn.running_mean f4 [32]
00000000: c54b 183f 3f2f 37bf f210 4d3e 702e e2bd
00000010: 15ee e0be 3220 07bf 0485 98bf 0772 92bf
00000020: 2cfe 72bf 636c 89bf 845d 03be f155 00be
00000030: aa81 95bf fb37 c23e f83e d33f 2d13 10be
00000040: 784b 1fbd 29a7 82bf b27d 353f 34e2 dabe
00000050: 8437 d8be b094 83bf 24a0 37bf 04b5 76be
00000060: cd23 afbe 7f57 9bbf 4d57 8abe 3931 ffbe
00000070: 04e7 eabf 1369 1cbe f1bf ad3e 867c e3bf
0.59490615 -0.71556467 0.20025995 -0.110440135 -0.43931642 -0.527835 -1.1915593 -1.1441048
-0.94919086 -1.0736202 -0.12828642 -0.12532784 -1.1680195 0.37933335 1.6503592 -0.14069815
-0.038890332 -1.0207263 0.7089492 -0.42750704 -0.42229855 -1.0279751 -0.7172873 -0.2409249
-0.34207 -1.2136077 -0.2701973 -0.4984224 -1.835175 -0.15274458 0.33935502 -1.7772377

blocks.0.bn.running_var f4 [32]
00000000: 9631 403f 7412 2c3f 928d 633f 302b 383f
00000010: d9d6 f33f bea6 9f3f 53c2 803f a99e 5e3f
00000020: 84a4 8a3f a6bf 263f 9f38 223f bc3d 393f
00000030: e4f6 973f d4ec 223f 827c b33f f08c 4f3f
00000040: ffc2 0e3f 5fec 0a40 d94f 4c3f 62df 4d3f
00000050: 5407 1e3f 7e4f 8f3f c434 493f 5dcd 363f
00000060: f709 c03f d176 573f c419 313f d1c2 573f
00000070: c6e2 883f 87b0 1f3f 1d09 7d3f 91eb a63f
0.7507566 0.6721566 0.88887894 0.719409 1.9049941 1.2472761 1.0059303 0.86960846
1.0831456 0.6513618 0.63367647 0.72359824 1.187222 0.6364262 1.4022372 0.8107443
0.5576629 2.170677 0.7980934 0.8041898 0.6172993 1.1196134 0.7859614 0.7140711
1.5003041 0.84165674 0.6917994 0.8428164 1.0694206 0.62378734 0.9884203 1.3040639

blocks.1.conv.weight f4 [32, 32, 3, 3]
00000000: 3f45 50bc ffd1 80bd 241a 71bd 128c cbbd
00000010: 1127 563d 4966 0cbd ad4b da3c ae93 d3bd
00000020: 0447 94bb 1fc2 623d d41f 683d 713a febd
00000030: c59a 31be b4a5 49bd 11af 32be 9d10 633c
00000040: 76a8 2fbb 45c9 fabd e09d c23d 5de0 39bd
00000050: 16d3 193b 91b2 0abe 0714 07be fdc5 97bd
00000060: 0fb1 18bb 65a7 19bd 44f6 cbbc 07f3 f33d
00000070: 7d97 963d 9b71 913d 605a 70bb 5676 753d
00000080: c9ef 3dbb a3fb 8f3d 38a2 89bd 085b e1bc
00000090: 33bf eb3d 2bc6 d23d d2e7 9f3a 02dc db3d
000000a0: 0252 183d 8eaf 383c 5ae2 063e 4025 103d
000000b0: f91d 37bd 5d43 36be 2ca0 21bd ba8a a53c
000000c0: 3c2a 853d 130a a43b 7e6e d3bc 13ef 4ebd
000000d0: 65e8 cebc 9f7b 8f3d b164 a2bd 7615 6ebd
000000e0: 5a82 b03d 91a1 edbc 4ae5 78bd 5cf7 a6bd
000000f0: ca6e adbd bd8c d3bd eb8b 00bd fa5d 863d
00000100: c28c 0bbe ef89 e63d dfc0 6c3d 5a35 ac3d
00000110: 4634 10be 6d9a f13c 79e4 f23d e309 c73d
00000120: ece3 833d 6947 6b3b c085 3c3d 0341 54be
00000130: 12c1 0a3d 9d18 533d 5b8c 4abd 7fef 913d
00000140: 8b00 8a3d 8d10 923d 2b7a 8c3d d6c9 133c
00000150: 2b10 883d ae63 ba3c 4af8 d4bd 3d5f 973d
00000160: fa60 793c cf34 4dbe 298c f13d ffac 85bd
00000170: 7750 673d 64f1 1a38 36be b1bd 88f6 cb3d
00000180: 65e2 bd3c 89b9 04be 91ee 9e3d faf7 8d3d
00000190: e88c ff3d e4d9 333d 3d78 df3a ecdf 333d
000001a0: aaff 4d3d b868 31bd fbf6 edbd 9d12 1abe
000001b0: 39e8 623d 2e1a 803d b95b 98bd 11c4 6d3c
000001c0: 0001 093e 5ed9 ce3d e8f9 803c 15b4 073d
000001d0: 99ad 1c3e 2349 4fbe cccd 05be f2b7 8abd
000001e0: ba1c abbd a2d5 82bd 8826 483c b595 debd
000001f0: e35f babc 6aa6 c3bd b298 fb3d e5a2 fa3c
00000200: dcd1 5dbe cbac db3c 4ccc e1bc cb79 ba3c
00000210: 80e6 3bbb b3dc 60bd 6b86 0cbe d6d8 7ebd
00000220: 4e3b dabb 63b3 a5bd 2e6e debd 8aba 01bd
00000230: c1ba e1bd 768b 81bd a34b 07bd 081c d8bc
00000240: 3eaa a33c 6451 e5bd 0524 c5bd aa38 8bbd
00000250: d3e1 78bd 9cc1 823d eb36 493d d576 d73c
00000260: 6860 fbbc eb1b 753d 08fb 84bd 8875 cfbd
00000270: 8450 173d ac78 69be 5493 ca3c 6be6 4bbb
00000280: 5d91 d7bd 3b87 d5bc 99d0 d3bc c507 0dbd
00000290: 9f07 f6bc c4c4 32bd d570 27b8 84ec ae3d
000002a0: 5411 753d 26cc 163e 5223 35bd 6b37 a7bd
000002b0: a601 fe3d a141 97bd 0f1e cc3d efef 02bc
000002c0: 6465 ac3d 70c9 4cbe 5a46 1abc c031 dbbd
000002d0: adac ddbd 2c0a 59bc a41f 09bd bdca 7b3d
000002e0: 301a e0bd 287b 573b 738a 8abc 0258 89bc
000002f0: 0a85 cabd 7237 9c3c 2e14 45bb a2fe 3fbe
00000300: 6ff5 b43c af44 1ebd f177 a4bd 034a eeba
00000310: da76 6ebd cf51 9cbd 8b60 003d 2ffd abbc
00000320: 3cc6 2bbd c16b d1bd 228c 05be 05a2 f5bb
00000330: a5b0 003b 0dde 47bd 2f25 113e 74e8 a23c
00000340: fb25 47bb 7b1a 333b f332 46bd 34dc edbd
00000350: 7e45 9bbd d4d9 31bd ef35 10be 742d 91bd
00000360: 8860 d4bc 9bda a93c 687c 3ebe a2e2 b13a
00000370: 29e0 85bd 8ff3 99bd 0008 01be c9bf b33c
00000380: 28d0 4b3d 930a bebc fac4 9e3d 22c3 f0bd
00000390: c531 30be 8ab0 a8bd 06e1 3cbb 9c7f fbbd
000003a0: 01e3 213e fcf8 c23c df6f cbbc fa64 173d
000003b0: 15a9 543c 398f 80bd 5b10 46bd 3557 84bd
000003c0: d2ad 0c3d 9cc6 943d 9ecd 503d 7009 70bc
000003d0: 7f49 f63b 6b79 46bd c692 4a3e b648 a33d
000003e0: 5758 153e 2cc1 5c3b 4246 753d c95a 2abd
000003f0: c801 2cbd 6faa 46bc a482 303e 1347 1abe
-0.012711822 -0.062900536 -0.05886282 -0.09938826 0.05228335 -0.034277234 0.026647413 -0.10330902
-0.0045250673 0.05536091 0.05667098 -0.124134906 -0.17344196 -0.049230292 -0.17449595 0.013858941
-0.0026803291 -0.1224542 0.095027685 -0.045379985 0.0023471764 -0.1354468 -0.13191234 -0.0741081
-0.0023298895 -0.037513155 -0.024897702 0.11911588 0.07353113 0.07101747 -0.0036674961 0.059927307
-0.0028982034 0.07030418 -0.06720394 -0.027509227 0.11511078 0.10291704 0.0012199825 0.107353225
0.037187584 0.011272324 0.13172284 0.035191774 -0.04470632 -0.17799135 -0.039459392 0.020207752
0.06502196 0.0050060838 -0.025809523 -0.050520968 -0.025257299 0.07006001 -0.079293616 -0.058125935
0.086186126 -0.029007705 -0.060765542 -0.08152649 -0.08468397 -0.10329578 -0.031383436 0.06560893
-0.13627914 0.112567775 0.057801124 0.084086135 -0.1408244 0.029492581 0.11859984 0.097186826
0.06439957 0.0035900718 0.04602599 -0.20727925 0.033875532 0.051537145 -0.04945026 0.071257584
0.06738385 0.07132063 0.06859239 0.009020289 0.06643709 0.02275261 -0.1039892 0.07391212
0.015220875 -0.20039676 0.117943116 -0.06527137 0.05647322 3.6941274e-05 -0.08678858 0.099591315
0.023179242 -0.12961401 0.07760347 0.069320634 0.124780476 0.04390897 0.0017049384 0.04391472
0.05029265 -0.04331276 -0.116193734 -0.15046163 0.055397246 0.062549934 -0.0743937 0.014512078
0.13379288 0.10100053 0.015744165 0.033130724 0.15300597 -0.20242743 -0.13066787 -0.06773366
-0.083550885 -0.063884035 0.012216218 -0.10868398 -0.0227508 -0.09553225 0.12284984 0.030595252
-0.21662086 0.026815793 -0.027563237 0.022763154 -0.0028671324 -0.054897975 -0.13723151 -0.06221851
-0.0066599017 -0.08090856 -0.10860859 -0.03167204 -0.110219486 -0.06325428 -0.033031117 -0.026380554
0.019978639 -0.11197165 -0.09626011 -0.06797917 -0.060762238 0.06384584 0.04912464 0.02630178
-0.030685619 0.059841078 -0.06493193 -0.10129839 0.03694202 -0.22799939 0.024728455 -0.0031112682
-0.10525773 -0.02606546 -0.025856303 -0.034431238 -0.03003293 -0.04364468 -3.9920986e-05 0.085412055
0.05983098 0.14726314 -0.044223137 -0.08164867 0.12402658 -0.073855646 0.09966671 -0.007991775
0.08417776 -0.19998717 -0.009416187 -0.107028484 -0.10823951 -0.013247054 -0.03347744 0.061472643
-0.10942495 0.0032879803 -0.01691172 -0.016765598 -0.098886564 0.019069407 -0.0030071842 -0.18749478
0.022089688 -0.03863972 -0.080306895 -0.0018180016 -0.058218814 -0.07632791 0.03134207 -0.02099475
-0.041937098 -0.102256306 -0.13041738 -0.007496121 0.0019636538 -0.04879575 0.1417434 0.019886233
-0.0030387628 0.0027329016 -0.048388433 -0.11614266 -0.07581614 -0.043420628 -0.14083074 -0.070887476
-0.025924936 0.020734122 -0.18602145 0.001357157 -0.06536896 -0.07517158 -0.12600708 0.021942036
0.04975906 -0.023198402 0.07752414 -0.11755969 -0.17206486 -0.08236797 -0.0028820648 -0.12280199
0.15809251 0.023800366 -0.024833618 0.036961533 0.012979765 -0.062773176 -0.04835544 -0.06461946
0.034345455 0.07264444 0.05097734 -0.014650688 0.0075160856 -0.048455637 0.19782552 0.07972853
0.1458448 0.0033684475 0.059881456 -0.041590486 -0.041993886 -0.0121255955 0.17237335 -0.15066175

blocks.1.conv.bias f4 [32]
00000000: 8b05 deb9 3df1 25b9 5d5f da38 df49 fbbb
00000010: 4ed6 243b 676a b73b b975 daba 7cdf d839
00000020: 1ce1 693b 1f4c a2b9 4091 c6b9 4271 a9b9
00000030: 2e78 f3ba 291f 113a 36c3 dbb8 b74c 363a
00000040: ef5f 92bb f592 f3b8 63ee aaba f313 9a3b
00000050: 96e0 e138 672b 5fbb 4083 3bb6 3a40 2b39
00000060: d4ee c3ba e707 bfba 6736 5238 99a3 1abb
00000070: 9f6d cdb8 99bd 5c38 dc10 8339 d4b3 07b9
-0.0004234727 -0.00015825494 0.00010412813 -0.007668718 0.002515215 0.005597401 -0.0016667164 0.0004136524
0.0035687154 -0.00030955762 -0.00037873723 -0.00032318576 -0.0018575245 0.0005535954 -0.000104790946 0.00069541804
-0.0044670026 -0.00011614516 -0.0013041015 0.004702085 0.000107706685 -0.003405297 -2.794157e-06 0.00016331757
-0.0014948496 -0.0014574499 5.0118568e-05 -0.0023596047 -9.79558e-05 5.2628664e-05 0.00024998828 -0.00012941594

blocks.1.bn.weight f4 [32]
00000000: 595b 663f 37ba 793f 24d9 5f3f bf8b 873f
00000010: cc13 833f ba80 683f ce6d 623f 3b01 7a3f
00000020: 5340 8a3f 8f4d 713f 19cf 6f3f 3620 853f
00000030: 9520 713f 968b 763f cf79 803f 6a22 763f
00000040: 04c3 843f b591 623f 368d 813f 4a1b 743f
00000050: b9c9 733f b82a 603f bd32 8b3f 4461 913f
00000060: 3613 8b3f 8a19 823f 244f 673f 661c 693f
00000070: 25c9 7b3f 7623 713f 64fd 3a3f f287 813f
0.89983135 0.97549766 0.87440705 1.0589522 1.0240417 0.9082142 0.884488 0.9765813
1.080088 0.9425897 0.9367538 1.0400455 0.9419034 0.9630674 1.0037173 0.9614626
1.0372014 0.8850358 1.0121219 0.9535414 0.9522968 0.87565184 1.0874859 1.1357808
1.0865238 1.0164044 0.90355134 0.9105896 0.983538 0.94194734 0.73042893 1.0119612

blocks.1.bn.bias f4 [32]
00000000: af8b 96be ed00 69be bd27 1abe 62e4 01be
00000010: c330 85be 1ddc 36bd 6455 4bbe ad15 83be
00000020: 21ad 99be a763 5bbe f91b 0dbe 2180 a5be
00000030: 2dc3 84be 5607 90be 48da cfbe 9c34 5bbe
00000040: 5af1 cdbe 4fd3 88be 7915 9bbe 3860 8abe
00000050: 3d2e 94be 215b 9ebe cac5 9dbe d82c 53be
00000060: fb92 abbe 965b 43be dca1 4fbe 4138 03be
00000070: 9c9f 89be 46ca b3be d785 94ba f73c 93be
-0.29403445 -0.2275426 -0.15054221 -0.12684777 -0.26013765 -0.04464351 -0.19856793 -0.25602475
-0.300149 -0.21424733 -0.13780202 -0.32324317 -0.25930157 -0.28130597 -0.40596223 -0.21406788
-0.402232 -0.26723716 -0.3028982 -0.27026534 -0.28941527 -0.309289 -0.30814964 -0.20622575
-0.33510575 -0.19077906 -0.20276588 -0.12814428 -0.26879585 -0.3511526 -0.0011331391 -0.2875745

blocks.1.bn.running_mean f4 [32]
00000000: 582c 0dc0 8258 6bbf e87d 57bf ef91 debf
00000010: 7b33 2bbf 5c45 80bf 9a4c e23f 11ef 9abf
00000020: 994e 93bf fe4a 033e 79e0 a13f 5e62 73bf
00000030: ed57 efbe 0bfe c93d f519 27bf 87c7 08c0
00000040: 23f5 2bbf 7839 063e 8f88 f1bf 8046 efbe
00000050: e194 9f3e 9c0d 6dbf da24 1f3e efa5 78be
00000060: 1daa e5be 9be4 613d 70cb 673d 3156 ef3e
00000070: ddc6 e73e 0661 d5bd 5bd1 e13f c245 0b3f
-2.2058315 -0.9193193 -0.8417649 -1.7388285 -0.6687543 -1.0021167 1.7679627 -1.2104207
-1.1508361 0.12821576 1.2646629 -0.9507197 -0.4674677 0.09862908 -0.6527398 -2.1371782
-0.67170924 0.1310786 -1.8869799 -0.46733475 0.31168273 -0.9259889 0.15541402 -0.24282049
-0.4485635 0.055149656 0.056590497 0.46745446 0.45268908 -0.104188964 1.7642015 0.54403317

blocks.1.bn.running_var f4 [32]
00000000: d853 c03f 2c25 ab3f 4bdf c83f f49e c03f
00000010: deca 3140 85d3 6b40 eed7 c03f 440f 1d40
00000020: 2538 b53f 9b5e ab3f db36 4140 ca1b 9c3f
00000030: 16a5 0b40 029b c43f 6110 0240 5333 7840
00000040: f25a ab3f 5666 bd3f 9ae8 953f 5f3e d63f
00000050: 1889 923f 025f bb3f c33a c53f 054c c73f
00000060: d579 b43f 32c7 e83f 3ff4 b73f 8ea9 0a40
00000070: ee7b 3f40 abb7 ce3f 3069 8e40 2cce c23f
1.5025587 1.3370719 1.5693144 1.5048509 2.778007 3.6847851 1.5065897 2.4540567
1.4157759 1.3388246 3.018973 1.219598 2.181951 1.5359805 2.0322497 3.8781326
1.3387129 1.4796855 1.1711609 1.6737784 1.1448088 1.4638369 1.5408558 1.5570074
1.409968 1.818579 1.4371413 2.1665988 2.991939 1.6149801 4.4503403 1.5219169

blocks.2.conv.weight f4 [32, 32, 3, 3]
00000000: 35c7 013d b946 14be 2726 c7bd 9cad 0ebd
00000010: 7e73 b7bd 81c5 09bd aab5 32bd 5fc5 febc
00000020: a4ee 873b 6d05 77bd a553 023d 0686 edbd
00000030: 4620 53bc db1c 183c 3405 9abd aa90 623d
00000040: a250 93bd f1e2 22be fe9f b4bc cb73 9939
00000050: 0e9e c93c 9f54 05bd 5922 15bd 6858 083d
00000060: c378 eabb baa0 a0bd 2044 7fbc c854 eb3d
00000070: e633 543c b4a0 833d 9ffc ce3c 1d26 043d
00000080: 6154 dd3d 698c b73c cfe2 e53d dd7f c73d
00000090: 71db 93bd cbe6 98bd 6bbd 5e3e 7f5f 3e3d
000000a0: 28cc 053e 4f13 183d 31a5 233e 0c90 b8bc
000000b0: 16a0 b13b 3f99 28be f134 ff3c c464 e23d
000000c0: 9f7c f63d 3888 483d 5a1a c23d 0e07 81bc
000000d0: 3a6c 17be 91aa 58bc dccd f8bd 2f58 833d
000000e0: 171b 0b3d 7494 ec3b 0900 7ebc 6421 d7bb
000000f0: 901e 8abd 03cb a5bd 92f2 5bbe fe18 83bd
00000100: 889a 1fbd 14f7 b73d 3228 c13b 43d8 a93c
00000110: ee45 0fbd 23b2 223d 4a08 d53d f289 9f3c
00000120: cc61 1b3d 5d95 a4bc 73f2 6a3d 6457 db3d
00000130: 240f c1bd f306 fa39 801b e03d 1e77 08be
00000140: 018b a1bc 52d5 d73c 8e59 eb3d f0e7 a2bd
00000150: 5931 363d 319f debc b173 cabc cf85 ee3b
00000160: 2f18 17be b0c3 23be 6ef3 89bd 2df5 0fbe
00000170: 4061 7fbb a7ad 91bc f04c 46bd 15a3 c7bc
00000180: c5c5 813c 1710 b23c 8975 6ebd 4c08 173e
00000190: 6c49 c23d 42d8 573d 7049 bd3d 16c6 f33d
000001a0: 86a2 81bd 3070 5abd 0c85 97bd e7a9 c13d
000001b0: 1492 243e 9bda 0e3d e95e ef3d 225b c63d
000001c0: fe1c 733d 3daa bf3d 4d59 94bd 4338 c93d
000001d0: 4cc1 9a3d 62d3 babd 317d 02be 066d 98be
000001e0: d5f8 57bd 217f 123c 7641 52bd df10 6fbd
000001f0: 2b38 0dbd 928b 37be 3954 9ebc 4ba0 54bd
00000200: 4214 4cbe 23b4 05be affc 85bd 9ee1 063e
00000210: df20 eabd f461 173e 5970 90b8 58e7 17be
00000220: c7de d3bb 268c d0bd 442d 25bd b06a a0bb
00000230: 8f5b b2bd e74f 1e3e 78c2 9abd 3be3 393d
00000240: 592e 133d 7b9c c3bc 94ea 13bd afb3 0bbd
00000250: 025d 3dbc e19a ab3d 974e 3a3c 63cf eabd
00000260: 71d0 afbc d903 d5bc c21e 9ebd e10f b4bc
00000270: 2189 13bb c237 5b3d 294f 493d 6800 00be
00000280: fa11 e7bd 327e a23d 00c9 7abc 76e6 833d
00000290: 0d27 9a3d b6e2 3e3d 5578 e53c 896a e03c
000002a0: cec9 b13d afae 663d a6af 993c 5771 4a3d
000002b0: 00b2 913c 2888 8c3d c6be 1bbd 5730 1abd
000002c0: 53fe 7f3d 94cb 24bd 774d ac3d 248b a7bc
000002d0: 5e6e c9bd 3468 4d3d 6f94 f73d 6c63 edbc
000002e0: 53bc d33c 661a 3d3d 7483 263c 70c2 423e
000002f0: ed88 8a3d 900c c43c 593f 6fbd a742 a9bd
00000300: 5419 203e 59f5 923d caaa b5bc 9233 a33c
00000310: 2266 cc3d 45b0 913c 0517 103d 379d 363d
00000320: 9b4e febd 2f97 b2bd 7db1 78bd d4ab f9bc
00000330: f004 433c 757a 2fbd 375d a6bd 5d46 acbd
00000340: 9c45 483d 0dd7 6fbd 25bb 0fbd 0c33 a33c
00000350: 957d 88bd b249 23bc ec49 333d 25d5 4ebb
00000360: a75d 5e3d 44b1 1c3d 134c b6bd 4e3f a13c
00000370: 2a9a 233e 80a9 933d 439d 4ebc 6dc4 a7bd
00000380: c196 0fbb 05e4 20be 8659 a23d 5fac 67bd
00000390: fc2c 76bd 4cd2 143c e4da 44bd 8d7b 27bd
000003a0: 6bfe 943b 61bd 083c fc98 e0bd 81b7 d9bc
000003b0: 0ff7 77bd 6c2e 36bd 455c c1bc cbe9 84bd
000003c0: 2802 003e 88ee 1eba 4477 033d 18cb 24be
000003d0: 9832 e1bd a112 21bd 8b3f 01bd 4d04 acbd
000003e0: 5f91 c83d a149 a8bd 49e9 f13d e2e1 6cbd
000003f0: 3f48 3dbc 799b 68bd 269a 71bc e8de ba3d
0.03168412 -0.14480104 -0.09724074 -0.034833536 -0.08957575 -0.03363562 -0.04363028 -0.031099973
0.004148321 -0.06030791 0.03181805 -0.115978286 -0.012886113 0.009284223 -0.07520524 0.055313744
-0.07193114 -0.15906884 -0.022048946 0.00029268707 0.0246115 -0.032551404 -0.03640971 0.033287436
-0.007155509 -0.07843156 -0.015580207 0.1149078 0.012951827 0.06427136 0.025266943 0.03226291
0.108071096 0.02240582 0.11224901 0.09741185 -0.072195895 -0.07465895 0.21751945 0.04647779
0.1306616 0.03712779 0.15980984 -0.022529624 0.005420695 -0.16464709 0.031153174 0.11054376
0.12035488 0.048958033 0.094776824 -0.015750434 -0.14787379 -0.01322426 -0.121486396 0.06413304
0.03396138 0.0072198454 -0.015502938 -0.00656526 -0.067441106 -0.08095362 -0.21479252 -0.06401251
-0.03896573 0.08982673 0.005894684 0.020733004 -0.0349788 0.039720666 0.10401972 0.019474957
0.037935063 -0.020090753 0.057360124 0.10710028 -0.09426716 0.00047688893 0.10942745 -0.1332669
-0.019719603 0.026346836 0.114916906 -0.07954395 0.044480655 -0.027175518 -0.02471337 0.007279135
-0.14755319 -0.15992618 -0.06735884 -0.14058371 -0.0038967878 -0.017783 -0.048413217 -0.024369756
0.015841374 0.021736188 -0.05821756 0.14749259 0.0948666 0.052696474 0.09242523 0.11903016
-0.06329827 -0.053329647 -0.073984236 0.094562344 0.1607135 0.034876447 0.116880246 0.09685351
0.05935382 0.09358642 -0.07243595 0.09825184 0.075564 -0.09122349 -0.12743069 -0.29770678
-0.05272754 0.008941443 -0.05133196 -0.0583657 -0.034477394 -0.17924336 -0.01932727 -0.05191068
-0.19929603 -0.13056998 -0.06542336 0.13172004 -0.11432051 0.1478346 -6.8873815e-05 -0.14834344
-0.006465766 -0.10182981 -0.04032637 -0.0048955306 -0.0870887 0.15460168 -0.07556623 0.04538272
0.035932872 -0.023878327 -0.036112383 -0.034106907 -0.011557819 0.0837915 0.011371276 -0.11465337
-0.021461697 -0.026002811 -0.0772071 -0.021980228 -0.0022512155 0.05351997 0.04914776 -0.12500155
-0.11282726 0.07934226 -0.015306711 0.06440441 0.075269796 0.046602927 0.02801148 0.02739455
0.08681069 0.056318935 0.018760514 0.049424496 0.017785072 0.06861907 -0.038023733 -0.037643757
0.0624984 -0.04023321 0.08413213 -0.02045209 -0.09835504 0.050148204 0.12088858 -0.028978072
0.025846636 0.046167754 0.010163177 0.19019485 0.06764398 0.023931772 -0.058410022 -0.08264666
0.15634662 0.071757026 -0.022176165 0.019922052 0.09980418 0.017784247 0.035178203 0.044583526
-0.124173366 -0.08720242 -0.06071614 -0.030477442 0.011903033 -0.042841394 -0.08123248 -0.08411858
0.04889451 -0.058554698 -0.035090584 0.019921802 -0.06664578 -0.009966301 0.04377167 -0.003156015
0.054288533 0.03825499 -0.08901229 0.019683506 0.15976778 0.07210064 -0.012610736 -0.08191762
-0.0021909925 -0.15711983 0.079272315 -0.05656087 -0.060101494 0.009083342 -0.048060313 -0.04088931
0.0045469305 0.008345933 -0.109666795 -0.02657676 -0.060538348 -0.044477865 -0.023603568 -0.06489905
0.12500823 -0.00060627656 0.032096162 -0.16093099 -0.10995978 -0.039324407 -0.03155474 -0.08399258
0.09793352 -0.082171686 0.11812074 -0.057832606 -0.011552869 -0.056788895 -0.0147462245 0.09124547

blocks.2.conv.bias f4 [32]
00000000: bc17 d2b9 53da 73ba 21e3 9b38 169b 17b9
00000010: 7aaa 443a 824c 053b 53d0 673b 2f34 f33a
00000020: a7ca 523a 3a9d 9eb8 fc1d 273b 1522 db39
00000030: d3af c339 c704 a83a 94f1 783b ad07 bcba
00000040: 9c64 cdb9 a0a4 033c f5bf dcb9 44a6 45ba
00000050: 2d3e 1539 86c9 8d3a 2df0 49b8 2703 1dba
00000060: 2f92 3bbb d48e 8a3b 6fe8 b0b9 06b4 4239
00000070: 70d0 df3a bdac 9eb9 723b 5ab8 56ef 55ba
-0.00040072005 -0.0009302247 7.433282e-05 -0.00014458256 0.00075022096 0.0020339792 0.0035371974 0.0018554981
0.0008041062 -7.563313e-05 0.002550005 0.00041796328 0.00037324298 0.0012818807 0.0037985789 -0.0014345549
-0.00039175607 0.008034855 -0.0004210469 -0.0007539729 0.0001423291 0.0010817505 -4.8145816e-05 -0.00059895444
-0.0028621068 0.004228452 -0.00033742512 0.00018568346 0.0017075669 -0.00030264808 -5.2030613e-05 -0.0008160969

blocks.2.bn.weight f4 [32]
00000000: a298 8c3f 9c9f 683f 9f5c 7a3f 6516 653f
00000010: c490 603f 0482 5d3f d348 7e3f 0e6d 7e3f
00000020: c15e 743f 9477 8d3f 0aa0 693f 1c55 723f
00000030: a8e5 703f f393 813f 0518 743f f70b 703f
00000040: 47d5 733f c1b5 823f 5344 643f 8c7b 723f
00000050: 14ad 753f ea9e 5b3f 4715 613f 8f77 843f
00000060: 6a9e 7b3f 7973 853f ab64 863f d060 683f
00000070: 729f 7e3f 9376 813f 3b43 423f c08e 7c3f
1.098408 0.90868545 0.9779758 0.89487296 0.87720895 0.86526513 0.9932987 0.99385154
0.95457083 1.1052117 0.91259825 0.94661117 0.9410043 1.0123276 0.9534915 0.93768257
0.9524731 1.0211717 0.89166754 0.9471977 0.9596722 0.8578936 0.8792309 1.0348986
0.98288596 1.0425864 1.0499471 0.90772724 0.99462044 1.0114311 0.75883836 0.9865532

blocks.2.bn.bias f4 [32]
00000000: 37c9 83be a335 9ebe 1233 9c3c d6f8 b1bc
00000010: c324 a8be baf1 27be a9d4 23be 322f a6be
00000020: a324 b9be c001 e2bd 1888 1ebe c34e 3bbe
00000030: 3306 7abe 697d 76be 7ed1 c6be 1970 95be
00000040: 8e41 63be 7aaa 9fbe 1441 72be b138 49be
00000050: d7c0 90be 6816 edbe 7c57 98be 3498 47be
00000060: e8a3 8fbe 471e 81be 7b5b c2be 4fbd f0bd
00000070: acc2 1bbe 4745 92be 3dea 9b3d cd98 9abe
-0.25739452 -0.30900297 0.019067321 -0.0217251 -0.32840547 -0.16400805 -0.15999092 -0.32457882
-0.36160764 -0.1103549 -0.15481603 -0.18291764 -0.24416427 -0.24071278 -0.38831705 -0.29187086
-0.22192976 -0.3118475 -0.23657638 -0.19650532 -0.28272125 -0.46306157 -0.29754245 -0.19491655
-0.28054738 -0.25218412 -0.3796042 -0.11754858 -0.1521098 -0.2856848 0.07613037 -0.30194703

blocks.2.bn.running_mean f4 [32]
00000000: bdcf 51bf 2315 96bf 1ea4 02bf baa2 ff3f
00000010: f394 cbbf d635 e13f 9473 1abe 1f92 acbf
00000020: 46ae cabf 0284 69bf 62bc db3e 56d4 2dbf
00000030: 73f4 a1be d031 96bf 6163 3fbf 881f 83be
00000040: 8b82 92be e234 e73c 76f0 d7be c7a6 e03c
00000050: 2c17 803f a1fc 85be 37d1 0f3f 6f58 d5bf
00000060: 8dd7 b1bf 45eb 503f 9ef0 b3bf 4ca6 843f
00000070: 0427 753f 72c9 dcbf 07f6 163f a694 e7bf
-0.8195761 -1.17252 -0.5103167 1.9971535 -1.5904831 1.7594554 -0.15083152 -1.3482093
-1.5834434 -0.9121705 0.42917162 -0.67902124 -0.31631812 -1.1733952 -0.74761015 -0.25609994
-0.2861522 0.028223459 -0.42175645 0.027423276 1.0007071 -0.26169303 0.5617861 -1.6667613
-1.3893906 0.8160899 -1.4057806 1.036325 0.9576266 -1.7248976 0.5896916 -1.8092239

blocks.2.bn.running_var f4 [32]
00000000: e979 6340 f5ea 4240 4db4 7d40 d30d 5140
00000010: ee37 3940 8892 1c40 ffab 7140 e811 6b40
00000020: 6c1f 7d40 e23f ec3f 0c71 2840 9db6 4740
00000030: 6937 e13f 5091 9440 5503 9d40 4f22 e43f
00000040: 3894 3640 ec41 f63f cfd0 2a40 65f3 5e40
00000050: 9b42 1d40 906e 1c40 3fae 2f40 06d6 5840
00000060: c992 0f40 4fe1 0b40 3f95 3740 33fb af40
00000070: b006 6240 5641 c940 2196 ca40 6d44 3940
3.5543158 3.0455906 3.9641297 3.2664688 2.8940387 2.4464436 3.7761228 3.672968
3.9550428 1.8456995 2.6318998 3.1205208 1.7595035 4.6427383 4.9066567 1.782297
2.8527966 1.9238868 2.6689947 3.4836056 2.4571903 2.4442482 2.7450101 3.388063
2.243334 2.1856267 2.8684843 5.499414 3.5316582 6.2892256 6.3308263 2.8948014

blocks.3.conv.weight f4 [32, 32, 3, 3]
00000000: d328 c1bd bf52 9bbd 5a86 8dbd edd2 a7bc
00000010: 331c 46be f86e cdbd dbfd 9cbd cff6 10be
00000020: b978 d3bd 5c60 b43c 3307 46bd 2613 db3c
00000030: e503 8a3d 3a3c 073e 1a79 163d abb3 343c
00000040: 26c8 903d ccad f13d 1b2e 40bd 3117 cd3c
00000050: 9a9f 4fbd 4da3 1dbe 0056 4b3d 8dc6 a33d
00000060: f57c c7bd c83f a5bd 49c8 a2bd 18b8 843c
00000070: acad 813d 6b6c e33b ab76 7d3d b99e 92bd
00000080: da21 8cbc d7c9 4ebd 18fc 943d 97bb ca3a
00000090: 3f1c bebd 1e97 2abb 6ae3 ca3c ef81 0cbe
000000a0: 82b2 b63d f920 9dbd 5af8 d03c d6e1 97b8
000000b0: 7e56 c73b f8d5 493d 8e10 aa3d 4c4e c13b
000000c0: 74e2 8bbd 3109 8b3d 2c43 133e 8019 b43c
000000d0: a515 cabb 4580 083e 3356 033e 324f bf3c
000000e0: 9013 273c ee0b 503e ab71 2c3d 63df f43d
000000f0: 7a16 563d f11c 7a3c d394 823a afcc 24be
00000100: 9471 713d bd80 6a3d f3dd 9e3d ae7c e93b
00000110: f780 b43c 27e6 183d bbe9 a13c ab0e b3bd
00000120: c512 35bd 8441 2e3d cc2d 933d 50d6 6c3d
00000130: 2ff8 00bd a766 873d 87f2 7bbd 9476 283d
00000140: afd1 273d 14e8 53bc 0f0c 01bd 7af8 e63d
00000150: 6f61 e6bc d960 66bd 70e3 d23d d864 a3bd
00000160: a038 533d 39f0 a93d 0565 98bd 5fae 4dbd
00000170: 9ac3 62bc e7e1 923d 07de abbc 8f76 3dbe
00000180: 116d 04bd f9cc 4abd 7ded c5bd d220 c4bc
00000190: d3f6 7b39 71cc 6dbb f9cd bdbc 9531 87bd
000001a0: 3504 553d 3978 3fbe cd13 bfbd e683 c0bb
000001b0: 146a 84bd 5c97 76bd 6150 abbd cde6 ffbc
000001c0: da8b 0abe 0d92 0c3c de4e e1bc bd2b 88bd
000001d0: 83c0 29bc e96a d93d 3952 be3d 707d 2bbd
000001e0: 927d 36bc c9bd f63d 3516 c43d cb88 143d
000001f0: 5a3e 4aba 04a5 a83d 43c2 36be 59f1 c7bd
00000200: bd95 f2bd 6d1a cabd 042a e2bd 4131 dbbd
00000210: edf5 d7bb 7fc5 8e3d 90fe debd 2bc2 d8bb
00000220: 22ed 77bc b823 89bd 8ad1 42bd 77a3 f4bc
00000230: 9fe7 753d 660b 203d 6484 373d 31bd 653d
00000240: e620 013d 3172 ca3c f729 ca3d d986 9e3c
00000250: 3ea1 2b39 a872 5a3d c0ad 863d e189 6c3d
00000260: 265c fbbc e8c8 063d 3131 933d b75a 3a3e
00000270: 701c cebb 7d9f 0a3e d94b bf3d 45dc 98bd
00000280: af84 5cbd f683 003e d9f1 5abc 62e7 abbd
00000290: 7e73 0e3d 1a58 48bc 66d1 113d 2236 d9bc
000002a0: 603c 2ebc 5481 b33d e0a1 ee3c 7524 583d
000002b0: 8342 e0bd 0a6c 50bd 9ae2 a33d 0620 993b
000002c0: dc47 173d 7296 743d ec74 a2bd 85c4 97bd
000002d0: 6871 3dbe 32ab c33c 6a14 e63d f8b0 33bc
000002e0: f771 62bd f5a1 e1bc 312a 28bd 9e8e 443b
000002f0: bc7d 143d 5910 d53b 39fe ac3d e7c9 c73c
00000300: 0772 e2bc 79fd 4e3d 85a2 b13c f6e6 6e3d
00000310: 1353 a33d d368 0b3e 5d2c 57be b370 a3bc
00000320: 7e25 97bd 05e3 8b3c 7659 47bc 312d 48bd
00000330: fc6f 21bc f8d4 853d f09f 60bd 45cb f1bd
00000340: a385 20bb a5ba af3d edad fdbc 74ad 5abe
00000350: 789d e4bb ef47 273e 8078 2b3e 376e 1abd
00000360: 5c9b 8c3c ec4a 7c3c 75ef e73c 6ea9 20be
00000370: f748 9ebc a65d 04be e888 b2bc d1af e3bd
00000380: dc40 12be f185 a03d dd00 17ba f58a 893c
00000390: f086 263d e004 573d f84c f0bd a7a5 d03d
000003a0: 743a 01bd 9787 84bd 3d60 ac3c 34dd acbd
000003b0: fb5f 42be 2e10 bcbc 8d89 cbbd 17ef 9bbd
000003c0: 034e 6c3d 719b 22bd 2d24 adbd 58db b9bc
000003d0: fe0d 853b 480a ae3d 9bc1 2cbd 4175 1b3d
000003e0: f377 fc3a 45bb 67bd ff21 3c3d 85cc 063e
000003f0: 7033 b1bd 2cd6 973d f5c5 00be 9809 3cbd
-0.09431615 -0.07584142 -0.06910391 -0.02048632 -0.19346695 -0.10030931 -0.076656066 -0.1415665
-0.103257604 0.022018604 -0.04834671 0.02674253 0.06739024 0.13206568 0.036736585 0.011029164
0.07069425 0.11800727 -0.04691897 0.025035473 -0.050689317 -0.15394326 0.049642563 0.07996855
-0.097406305 -0.08068806 -0.079483576 0.016201064 0.063319534 0.0069404147 0.06188075 -0.0715918
-0.017105985 -0.05048546 0.072746456 0.0015467283 -0.09282731 -0.0026030014 0.024766643 -0.1372144
0.089207664 -0.07672305 0.025509048 -7.242306e-05 0.0060833087 0.049276322 0.08303939 0.0058992263
-0.06830302 0.067888625 0.14381093 0.021984816 -0.006167131 0.13330181 0.12825851 0.023353193
0.010197535 0.20317051 0.04210059 0.1195667 0.05226753 0.015265689 0.0009962566 -0.16093706
0.058946207 0.05725168 0.07757177 0.0071254587 0.022034151 0.037328865 0.019764772 -0.08743032
-0.044207353 0.04254295 0.071864694 0.05782157 -0.031486686 0.06611376 -0.06151059 0.04112871
0.040971454 -0.01293375 -0.03150564 0.11277862 -0.028122632 -0.056244705 0.102972865 -0.07978219
0.051567674 0.08297772 -0.07441143 -0.05021512 -0.01384058 0.07171994 -0.020979894 -0.18502258
-0.032330576 -0.049511883 -0.09664438 -0.023941431 0.00024029175 -0.0036285187 -0.023169504 -0.06601254
0.052005965 -0.18698205 -0.093299486 -0.0058750985 -0.06465545 -0.06020294 -0.083649404 -0.031237984
-0.13529912 0.008579743 -0.027503427 -0.066489674 -0.01036084 0.106160946 0.092930265 -0.041867673
-0.011138337 0.120479174 0.09574548 0.03626327 -0.00077149796 0.08234599 -0.17847542 -0.0976283
-0.118449666 -0.098683216 -0.1104317 -0.10702754 -0.006590596 0.06971263 -0.10888398 -0.0066149435
-0.01513222 -0.06696266 -0.047563113 -0.029863102 0.060035344 0.03907337 0.044803992 0.05608863
0.031525515 0.024712654 0.098712854 0.01935141 0.00016367898 0.053332 0.06576109 0.05774868
-0.030683588 0.032906443 0.07187117 0.18198667 -0.006290011 0.13537402 0.09340639 -0.07463888
-0.053837474 0.12550339 -0.013363325 -0.08393742 0.03477811 -0.012228036 0.03560009 -0.02651507
-0.010634512 0.08764902 0.029129922 0.052769143 -0.10950186 -0.050884284 0.08002205 0.004673007
0.036933765 0.05971379 -0.07932457 -0.0741053 -0.18500292 0.023885343 0.112343624 -0.010967486
-0.055284467 -0.027543047 -0.04105586 0.0029992233 0.036252722 0.006502193 0.084469266 0.024388267
-0.027642263 0.0505347 0.02168394 0.05832573 0.079748295 0.13614206 -0.21013017 -0.0199512
-0.07380198 0.017076025 -0.012167325 -0.048871223 -0.009853359 0.06534761 -0.05484003 -0.11806349
-0.0024493716 0.085805215 -0.030966723 -0.2135523 -0.0069767796 0.16336034 0.16745186 -0.037702765
0.017163925 0.015398722 0.028312424 -0.15689632 -0.019321902 -0.12926349 -0.021793798 -0.11117519
-0.14282554 0.07838047 -0.00057603215 0.016789893 0.04065603 0.052494884 -0.117334306 0.10187846
-0.031549886 -0.06471174 0.021041984 -0.08440629 -0.18981926 -0.022956934 -0.09938345 -0.07613962
0.057691585 -0.03969902 -0.084541656 -0.022687599 0.004060506 0.08498055 -0.042176824 0.03795362
0.0019261822 -0.05657508 0.04593086 0.13163956 -0.08652389 0.07413897 -0.12575515 -0.045907587

blocks.3.conv.bias f4 [32]
00000000: 1f5b 05bb 465d f237 de2a e3ba c07a 19ba
00000010: 440f 35ba 3487 d437 ca4b 443b e0e9 f0ba
00000020: d409 8d3b 8eea 5ebb 1706 31b8 45c4 92ba
00000030: 17ba b93b 81e3 a73a d354 37ba d8f3 99bb
00000040: 631e a63a 96e8 8738 be92 b739 5887 3ebb
00000050: 2536 34ba 7505 00bb 2bbe 8db9 c6ba 77bb
00000060: 7c12 f6b9 2bb1 4fbb 32db 2c3b 16c5 a739
00000070: 87cd b6ba ccce 35ba 6c70 c0b5 6ffd 9d38
-0.0020348502 2.8892082e-05 -0.0017331501 -0.0005854778 -0.0006906877 2.5335328e-05 0.00299524 -0.0018380247
0.00430415 -0.0034014317 -4.220576e-05 -0.0011197409 0.0056679356 0.001280889 -0.0006993536 -0.004698258
0.0012673851 6.480624e-05 0.0003501381 -0.002907237 -0.0006874523 -0.0019534503 -0.00027035302 -0.0037800535
-0.00046934548 -0.0031691294 0.0026375768 0.00031999563 -0.001394675 -0.0006935417 -1.4337834e-06 7.533549e-05

blocks.3.bn.weight f4 [32]
00000000: c13f 883f b389 723f 3196 573f 88dc 5f3f
00000010: 628e 833f f461 513f 75a6 723f c3a3 823f
00000020: 777a 8e3f 556b 713f 0b3b 513f 1220 623f
00000030: 66bf 7b3f 1524 893f ad44 843f fccb 943f
00000040: b879 893f 401c 773f 3172 843f 87e2 653f
00000050: 6428 893f 0782 843f bb2a 833f 2171 813f
00000060: d175 843f 5df0 583f 4f21 823f 5c2e 5e3f
00000070: 24b3 693f f175 743f 4b82 5c3f b3e9 763f
1.0644456 0.9474136 0.8421355 0.8744588 1.0277827 0.8179009 0.94785243 1.0206226
1.1131123 0.943044 0.8173072 0.88330185 0.98338926 1.0714136 1.0333458 1.1624751
1.0740271 0.9652748 1.0347348 0.8979878 1.0715451 1.0352181 1.0247415 1.0112649
1.0348455 0.84741765 1.0166415 0.8678949 0.9128897 0.95492464 0.8613631 0.96450347

blocks.3.bn.bias f4 [32]
00000000: 0346 dbbd 0d7a a3be 463c 48bd 3bc8 c7bb
00000010: 6861 babe 589e 66bd 006a babe b29f 5fbe
00000020: d10d 82be 1a55 52be 8ed9 e4bd 7894 26bd
00000030: cb75 5bbe fafe 8abe 71f5 edbe abb7 2dbe
00000040: d9f2 7ebe 16fd bcbe 717a 52be 2f60 84be
00000050: bf54 17be fa8b d2be b9b5 acbe 940d 42be
00000060: 83d1 c2be 08a1 a6be b557 acbe 9783 d3bd
00000070: a4df 0ebe cb0b 85be 13c3 4d3c c9d7 9cbe
-0.10706713 -0.31929055 -0.048885606 -0.0060968674 -0.3640244 -0.056303352 -0.36408997 -0.21838263
-0.25401166 -0.20540276 -0.11174308 -0.040668935 -0.21431653 -0.27147657 -0.4647632 -0.16964595
-0.24897327 -0.3691184 -0.2055452 -0.25854632 -0.14778422 -0.4112242 -0.33732393 -0.18950492
-0.3805047 -0.32544732 -0.33660665 -0.10327833 -0.139525 -0.2598556 0.012558716 -0.3063338

blocks.3.bn.running_mean f4 [32]
00000000: 368b 9abf 77dd 78bf c762 c3be cb74 aebf
00000010: c5dd 863f 80cd 0e3e 88e4 32c0 fa36 23c0
00000020: 9059 993f 26bf aebf 23a2 9e3f 162c 68bf
00000030: d901 8a3f 4309 123f e4db 1bbf 7674 1fc0
00000040: f7a1 cbbe da7a 2f3f 6503 44c0 c2e7 5c3f
00000050: 18f3 0cbf 2822 6abf e065 a43f 2ae0 2ec0
00000060: 6225 283f 5f4f cc3f 7c51 a13f 752e 803f
00000070: 7c23 0740 52ac 26bf 264b c83d 9767 5d3f
-1.2073734 -0.9721293 -0.381613 -1.3629392 1.0536429 0.1394558 -2.7951984 -2.5502305
1.1980457 -1.3652084 1.239323 -0.9069227 1.0781814 0.5704538 -0.608824 -2.4914832
-0.39772007 0.6854683 -3.0627072 0.86291134 -0.5505843 -0.9145837 1.284359 -2.732432
0.6568204 1.5961722 1.2602992 1.0014178 2.1115408 -0.6510669 0.097799584 0.8648619
