models/75.pth (torch, 501905 bytes, 80 tensors)

conv0.conv.weight f4 [32, 17, 3, 3]
00000000: 3cc6 1bbd ddc2 d23d e846 8abe a571 b93d
00000010: 775c eabd 38ea f33d d61c 18be 75f6 bd3d
00000020: b9c2 d5bc b01d 4ebc f5e5 f7bc 8946 673d
00000030: a801 af3c c9b0 d7bd cbe6 123e 3832 1c3d
00000040: 3cbc a1bd 02c5 eeba 202b c43d 0217 80bd
00000050: f519 973d 2f69 233d 6135 fa3c 75b0 143e
00000060: 0f59 873d fd15 573d 0bae a43c 60b3 ffbc
00000070: 8031 93bb eedd 3d3c 9603 afbc 14f1 cf3b
00000080: c880 893d de50 63bc 9e08 28bd 0ec7 b83c
00000090: ce57 c63d d48a 343c f8b3 5a3d d9e2 953d
000000a0: 885f 71be 47f7 3f3e 6b96 323e 0be2 213e
000000b0: 847c e43d 0536 2f3d 712d 463d 5588 d23d
000000c0: b448 8d3d 1659 cebd 7c27 f53d 2e7d 6a3e
000000d0: 9eef fd3c 3e27 563c 2b1e 223d 94e7 be3d
000000e0: 0848 c73d 7d4a 1b3e 6751 00be 5db5 f53d
000000f0: 5b65 e53d b4eb 4e3c 6672 123d 41c7 ea3c
00000100: 1489 753d a79e 1a3e 93b9 383c 7388 e1bc
00000110: 189d 013e 014c e63d 8066 a63d ab60 983d
00000120: fdaf 673d 8d38 a03d ab96 bebd f093 813d
00000130: 5d9a 133e 19a8 423d 0724 f0bc 6f87 e23d
00000140: 0db4 e73b eee9 91bd 11fd b93d b244 9dbc
00000150: f03e 00bd 06bc 9a3e f342 903d 9a37 1abd
00000160: f6e5 bc3d c2d1 00bc ec35 ecbc 6b48 8a3d
00000170: 98e0 b7bd 2bd4 1f3b eced 8b3e f8a2 6c3d
00000180: 5bfa 51bc 5c03 a23d 4633 b4bc 2b1e b8bc
00000190: b156 dd3d 4998 8fbd 0668 713d a03e 5f3e
000001a0: c6b8 8c3d 8f1b a7bd f0ea 993d f026 0b3c
000001b0: 8058 a1bb b08e 41bd 6898 823d 9b38 aabc
000001c0: d8b5 a0bd 5b26 bbbd 0cc1 fe3c 84d0 54bd
000001d0: f146 713d e9a3 89bd fa85 0c3d 1b36 2e3e
000001e0: d680 41bd 59de 7a3d 6c7c 61bc f72e f83c
000001f0: 955c 4a3d 0e0f 033e 5d8c 343d aa03 5dbc
00000200: 5d53 d73d 73e4 3ebd ea18 dc3d ea70 9d3c
00000210: 0076 c1bc 2b27 20bd 545d 5e3c d386 adbd
00000220: 0664 4e3d 5966 273d 09be bb3c b6f7 fd3a
00000230: 83c9 4d3c 151f 8c3b 1944 08bd fd32 7b3d
00000240: af39 303d 4b2c 2e3d 0821 e23b 499e d53c
00000250: 0710 b5bc f30e 6c3d d5c6 82bd 2fa9 1aba
00000260: c81b 05bd 8a55 053e 6b05 bd3d 2502 093c
00000270: 9176 3a3c 7951 97be a280 f43d a73e 9c3d
00000280: c2b2 24bd 0851 a3bd 0147 783d 44f3 ec3c
00000290: 8660 b6bd fd4e dabd 4f84 43be 7166 c5bd
000002a0: 47ae dbbc 0709 aabd f064 c2bd 928d 11be
000002b0: eb56 d03d 38c8 e6bd 01cf 06be e0d6 8b3d
000002c0: 5985 00be 7da8 b5bd 01f8 1bbe 9452 cdbd
000002d0: 2d2a debc b05d 97ba 8776 06be aa85 25bd
000002e0: 1fa5 5d3d bcf4 15be f6d2 433d 67ff 2fbe
000002f0: 85c7 e1bd eb54 023d 441b c3bd 1cdb a7bd
00000300: 3866 4bbc 49f7 b5bd fcfd 88bc bb2f 933d
00000310: 5147 973d abd8 97bd db4d 0fbe 8ed0 e9bc
00000320: b0e6 44be 8aaa 20be 0f86 d3bd 88f5 13be
00000330: a3f4 eabd 6b09 c4bd 2a1b 3cbe 83f4 a9bd
00000340: a36f e33b 76aa a2be 26ec d5bd a8a0 acbd
00000350: d445 f9bd d489 00be 20a5 25be f61b 12be
00000360: ef5d 28be 1329 00be e8d2 6cbe a68d edbc
00000370: 1dff 21be 8b30 4dbe fa32 06be f45e 07be
00000380: e6f4 43be 562a b0bd 66f2 63bc ff35 763d
00000390: 88a9 d93c 6c88 c2bd 0be3 003e 0dc3 e03c
000003a0: 77ad 83bc 0882 e73d d991 ab3b 0e44 493d
000003b0: f771 aa3d e604 0f3d 2c0f f13c 2e25 993d
000003c0: 2a93 a83d 482a 2d3d 5aaf 6e3d 1ffe 7d3d
000003d0: 8a09 843d 2acb b03d 106a 6b3d 65e8 003d
000003e0: 6e26 983c 5b0a 053d 67ff b93d 47c4 9e3d
000003f0: cb07 3b3d f372 b83d 843d 773d 7128 5f3c
-0.038030848 0.102910735 -0.27007222 0.09054879 -0.114434175 0.11909908 -0.1485475 0.092755236
-0.026093828 -0.01258032 -0.03026102 0.056463752 0.021363094 -0.10531766 0.14345853 0.03813383
-0.07897231 -0.0018216672 0.09578538 -0.062543884 0.07377998 0.039895233 0.030543031 0.14520438
0.066087835 0.052511204 0.020102521 -0.031213462 -0.004491985 0.011588557 -0.021364015 0.0063458774
0.06714016 -0.013874261 -0.041023843 0.022555854 0.09684716 0.011019427 0.053394288 0.073186584
-0.23571599 0.18746673 0.17440192 0.15808885 0.11156562 0.042776126 0.04838318 0.102799095
0.06898633 -0.100755855 0.11970422 0.22899315 0.030998047 0.0130708795 0.03957955 0.09321514
0.09730536 0.15165134 -0.12531053 0.11997483 0.11200973 0.012629438 0.03575363 0.028659465
0.05994518 0.15099584 0.011274713 -0.027530884 0.12657583 0.11244965 0.08125019 0.07440313
0.05656432 0.07823286 -0.093060814 0.06327045 0.14414354 0.04752359 -0.029314054 0.11060988
0.0070710243 -0.07124697 0.09081472 -0.019197796 -0.031310022 0.30221575 0.070440196 -0.037650682
0.09223549 -0.00786251 -0.028834306 0.06752094 -0.08978385 0.0024387937 0.27329957 0.057772607
-0.012816037 0.07910797 -0.021997105 -0.022475323 0.10807551 -0.07011468 0.058937095 0.21801233
0.0687118 -0.08159553 0.07515514 0.00849317 -0.00492388 -0.047255218 0.063767254 -0.020778945
-0.07847184 -0.09138175 0.031097911 -0.05195667 0.058905546 -0.067207165 0.034307458 0.17012827
-0.04724201 0.061247203 -0.013762575 0.030295832 0.0494047 0.12798712 0.044079173 -0.013489643
0.10513947 -0.046604585 0.107469395 0.01921888 -0.023615837 -0.039099853 0.013572056 -0.08472981
0.05038836 0.04086909 0.022917764 0.0019376192 0.012560251 0.004276166 -0.033268068 0.061327923
0.04302376 0.04252271 0.0069009103 0.026076453 -0.022102369 0.057631444 -0.063855805 -0.0005899844
-0.032497197 0.13020912 0.09229549 0.008362328 0.0113808075 -0.29554346 0.11938597 0.076291375
-0.04020954 -0.0797444 0.06061459 0.028924592 -0.08905129 -0.10659597 -0.1909344 -0.0963868
-0.0268165 -0.08302503 -0.094919086 -0.14214161 0.10172828 -0.112686574 -0.13164903 0.068280935
-0.12550868 -0.08870027 -0.15231325 -0.10025516 -0.02711972 -0.0011548307 -0.13131152 -0.040410675
0.05411255 -0.1464414 0.04780861 -0.17187272 -0.110243835 0.031819265 -0.09526685 -0.08196089
-0.012414508 -0.088850565 -0.016722672 0.07186838 0.073866494 -0.07414373 -0.13994543 -0.02854183
-0.19228625 -0.15690055 -0.10328304 -0.14449131 -0.11472442 -0.09572109 -0.18369737 -0.0829859
0.0069407984 -0.31770676 -0.10445432 -0.0842908 -0.12171522 -0.12552577 -0.16176271 -0.14268479
-0.16442083 -0.12515669 -0.2312733 -0.028998207 -0.15819974 -0.20038049 -0.13105384 -0.13219815
-0.1913639 -0.08601825 -0.013912773 0.06011009 0.026570097 -0.09498677 0.1258661 0.027436757
-0.016073925 0.11304098 0.0052358923 0.049137168 0.08322518 0.03491678 0.02942618 0.074777946
0.08231194 0.04227665 0.058272697 0.062009927 0.06447132 0.086325005 0.057474196 0.03147163
0.018573012 0.03248058 0.09081917 0.07752281 0.04566173 0.090063 0.0603614 0.013620482

conv0.conv.bias f4 [32]
00000000: ee7f 0ebb 420f 053a 5381 513b f60b 5f3b
00000010: 3e83 773a 5d25 f739 02e6 693b 4689 bfbb
00000020: 7ef5 16bb b387 ddbc 1f4f 26bc 5562 5f3a
00000030: ec08 11ba 5b1e 82ba b791 1539 510d e53b
00000040: cbce 1a3a 7d86 6b3c cbc9 903b 97cc 013a
00000050: 0169 bf39 2c02 1dbc d3fc dabb f9d4 3fbb
00000060: 28eb 8dbc 61c9 2d3a 1abe a63c 8922 e63b
00000070: dd37 31bb b211 ceba eb18 27bc 23b0 313a
-0.0021743733 0.0005075821 0.0031967952 0.003403423 0.0009441859 0.0004713935 0.0035690074 -0.0058452217
-0.0023034508 -0.027042245 -0.0101507 0.00085214275 -0.00055326405 -0.000992726 0.0001426403 0.006990113
0.00059054483 0.014375326 0.004418587 0.0004951446 0.00036508593 -0.009583037 -0.006682971 -0.0029271229
-0.017324045 0.0006629434 0.02035432 0.00702316 -0.0027041354 -0.0015721826 -0.010198812 0.00067782606

conv0.bn.weight f4 [32]
00000000: 8efb 623f 5d58 583f ce32 503f bd1e 5e3f
00000010: 33c8 5c3f 8a82 5a3f 69dc 563f d6d4 673f
00000020: da61 6f3f 2df7 613f a3df 573f 2617 583f
00000030: 137e 5f3f 2c4e 683f b5c3 603f bc05 803f
00000040: 5feb 5a3f 6882 933f 328e 653f 6da0 5c3f
00000050: 3fed 503f bee5 753f 34f0 5e3f 26e8 5c3f
00000060: db96 7e3f e031 5f3f 1a73 693f 5f0f 5a3f
00000070: 4435 7b3f bb20 543f e7c4 583f 9ba5 5a3f
0.8866509 0.8450983 0.8132752 0.8676565 0.8624298 0.85355437 0.8393007 0.90559137
0.93508685 0.88267785 0.8432562 0.8441032 0.8730175 0.9074428 0.87798625 1.000175
0.855154 1.1524172 0.896701 0.8618229 0.8161201 0.96053684 0.8708527 0.8629173
0.9944894 0.8718548 0.91191256 0.85179704 0.9812815 0.8286244 0.8467545 0.85408944

conv0.bn.bias f4 [32]
00000000: aabd babe 3a7f b4bd 3149 d5bd 4ac2 aebe
00000010: 47ef 1ebe 33f5 a8bd 2c01 c8bd 9785 10be
00000020: bcc1 39be d448 6abe 5e6e 3fbd 2ee0 123d
00000030: 82f7 d9bd 04f1 22be aea3 41be 0230 a4bd
00000040: 3c30 d0bd ceb3 7c3d 06bb adbd 4c25 ddbd
00000050: f4a1 e1bd 00fb bf3d 10ff 7cbe 4580 16be
00000060: 8e56 b3bd ee23 98bd 70dd 1abe 73c8 25bd
00000070: 9599 12be 8f07 d83d 9c80 bbbd 5ca6 11bc
-0.36472827 -0.08813329 -0.10414351 -0.34132606 -0.15520965 -0.08249893 -0.097658485 -0.1411346
-0.1814031 -0.22879344 -0.046736114 0.035858326 -0.106429115 -0.15912253 -0.18910095 -0.08016969
-0.1016545 0.061694913 -0.084829375 -0.107981294 -0.11017218 0.09374046 -0.24706674 -0.14697368
-0.08756743 -0.07428728 -0.15123534 -0.040474366 -0.143164 0.10548317 -0.0915539 -0.008889761

conv0.bn.running_mean f4 [32]
00000000: a71f 113e ba94 9c3d 7ba7 4dbc de40 6abd
00000010: da46 f43b 77cc 39bc 8ac7 a7bd cc8c 263e
00000020: 601b 32bd efe8 a1bd c719 0ebd 8b67 2e3d
00000030: 8122 97b9 8dc0 5abc ea69 203d f3e0 f93d
00000040: 3191 a33d e897 81bd 9d1b bcbd 257f 61bc
00000050: f930 683c ee75 65bc 01ba adbd 30f0 ff3c
00000060: a7a4 5cbd 29bb 3fbd 1b68 24bb 2778 cabc
00000070: d3fe 1b3e 3d33 8e3d 829c a5bd a26b 903d
0.1417223 0.07645555 -0.0125521375 -0.05719077 0.007454735 -0.011340252 -0.08192356 0.16264647
-0.043483138 -0.07905757 -0.034692552 0.042579215 -0.00028826672 -0.013351572 0.039163508 0.12201109
0.079866774 -0.06327802 -0.09184954 -0.013763224 0.014171832 -0.014005167 -0.08482743 0.03124246
-0.053867962 -0.04680935 -0.0025086466 -0.024715496 0.15233926 0.06943367 -0.08086492 0.07051779

conv0.bn.running_var f4 [32]
00000000: 704d 0e3d fd12 c13c d605 ee3c 8411 cb3c
00000010: f5cc a63c a24a f13c 4470 333d 6790 f23c
00000020: 5119 ea3c 4422 ed3c eb06 043d 4210 003d
00000030: 635f e03c 9a28 a13c 2b39 0d3d f8ea c33c
00000040: 428d be3c 6b45 173d 4316 253d c046 bf3c
00000050: c7f9 0c3d 8cd8 d93c 6b24 d03c 12ee ad3c
00000060: 5eca b13c 4837 ee3c b188 db3c 15bf bd3c
00000070: 15d5 0d3d 6eea d93c 453e fa3c 2d41 e63c
0.03474182 0.023568625 0.029055517 0.024788626 0.020361403 0.029454533 0.043808237 0.029609872
0.028576525 0.028947003 0.03223316 0.031265505 0.027389234 0.01967268 0.034478348 0.023915753
0.023260716 0.036931437 0.040304434 0.023349166 0.034417894 0.026592515 0.02540799 0.021231685
0.021702942 0.029079095 0.026798578 0.023162404 0.03462704 0.026601043 0.03054727 0.02810725

blocks.0.conv.weight f4 [32, 32, 3, 3]
00000000: 242d 033e 14b1 fc3b 2f38 5b3c 5f57 28be
00000010: e4f5 2c3d 271f cbbc 2a9a 4e3d 925d 87bc
00000020: f76f cabc d777 3b3e 80e7 543d e51e 7d3c
00000030: 4ac6 b1bd 3ec2 9abd 0d53 033d 8301 c43d
00000040: a5a3 a2bd debb 9c3c a49c af3d 6d49 bf3c
00000050: 199a c23c 9798 e8bd ec55 5c3d 50a9 cdbd
00000060: f746 933d d7cc 113c 6603 043c 3453 9dbc
00000070: 3114 febc 2ad0 08bc b695 a1bd c4dd eabc
00000080: 47c8 243c 4bba e5bc b104 a4bc 3b62 ff3c
00000090: 6177 ae3d 0acb 253e 3f5b 04bd 4920 ce3d
000000a0: 2440 18bc 7e7c 9e3d 52c5 41bd fc98 10be
000000b0: 1baf 3dbd 5960 2f3d c7ee 603b 172e b33b
000000c0: 72dd 5bb9 4294 a8bc 009b 603d 235b 03bd
000000d0: d72d 94bc d6de 133e 7a61 763d 8ae5 2dbd
000000e0: 0e6b 6f3d ace4 033d 2f38 253c 85cc a2bd
000000f0: 1185 343d 504e b1bc ecaa cabc f034 033e
00000100: fa2b e53a 78b1 1c3e ff56 2a3d 9061 0f3e
00000110: 0888 70bc e6be 313d 3a90 4dbd b812 edbc
00000120: ef96 733d 72cc 23be 0a57 78bb e34f e5bd
00000130: 3bbc 2c3d bd32 51bb 710e e6bc 83b0 2a3e
00000140: 79db ac3c 0927 cebd b211 523d bd86 663d
00000150: 475d b13b 701f 183e fa61 ef3c a0d7 083e
00000160: 580a 8c3d 4dec 283d 69d4 91bd 1ee1 fabd
00000170: 3954 813d eaa6 17bb bc36 843d 2261 77bd
00000180: 06cc 5f3d 8f67 2cbd 00c4 b0bd 6c2a 343d
00000190: 67d5 093e efeb 5f3e 8a0c 89bd 3ebd 203d
000001a0: a357 073e ba42 913d 4290 ca3c f2a6 56bc
000001b0: 87a3 29be 8f21 073c 7c93 ca3d 339e e43d
000001c0: 4c11 cb3d 551f 32bd 4871 04bd 0e75 183d
000001d0: 05dc 92bd 1015 a7bd b114 18bd 623f bdbd
000001e0: c56e 12be bb27 743c 8f08 e7bd 73a1 2fbd
000001f0: 4e57 823d aba6 8d3d 58f4 29be ec14 f63d
00000200: cb25 b6bd 2bf0 fd3c c1c8 33bd 89dc 1fbc
00000210: f3f6 3e3d 36a8 9ebd b20c d0bd ec41 0f3d
00000220: cca2 253d 3660 a63c 2cd3 c83d 84f4 93bb
00000230: d384 8fbd ab8a 7abb 8da8 f53d fe52 8cbc
00000240: 7b12 67bb a273 133d 55aa 133c daf1 be3d
00000250: 8fcb e5bd 75a7 7bbd ded0 8e3d 21e6 373e
00000260: c26c 0e3b 39c5 5d3d b89c e7bb ad11 14be
00000270: c3ed cf3c b47a d4be ba84 3c3d d370 753d
00000280: 94a5 a2bb 5255 923d ff0a 2b3d fba5 063e
00000290: b9c1 ac3d c1c0 203e 9fe3 77bc 1ec8 16bd
000002a0: f6e3 95bd ce55 81ba 1d31 b53d a4d6 1abd
000002b0: d0c4 d73d 2e67 aa3d cccc 24be fdb1 3e3d
000002c0: ea99 6ebd 2abc 903c 2398 943d 82ce aabd
000002d0: 49b3 eabc bb03 42bd d9ea 8a3d 64c5 1c3d
000002e0: ff14 9dbd 2017 24be e504 123d ee29 99bc
000002f0: 7574 22be 584e ac3d c85c 5fbc 9b23 943d
00000300: b73b 563d dfab cfbd 2c53 7e3d 104f 8f3d
00000310: 6063 773d 631b 143e 7570 343c fd31 f3bc
00000320: 1943 69bd 39e6 b5bd 4f4e f63d cd23 193d
00000330: 781c 9f3d 7028 34bd 72d0 ea3c 7b0a adbb
00000340: ba88 083c eade f1ba 7bf1 d9bc ffc1 2c3d
00000350: 1159 c93d c760 2abe 5d33 383d 8b66 3a3e
00000360: 8fc8 84bc 577a a53d bcfd 92bd 98f0 923d
00000370: f07e 653d 691a 323d c680 6ebc db13 37bd
00000380: f4d5 be3c e171 6fbd b39a 95b8 3901 aabd
00000390: e32d bdbb 9467 dfbc 4159 18be 018d 96bc
000003a0: 43e3 78bc a1fd cf3c da28 a1bc bca5 b73d
000003b0: 1c27 71bd c442 9abd bffb 81bc afdf 26bd
000003c0: 2961 d43c 440c cdbb 6edb c1bc 62a3 363d
000003d0: fd42 a6bb 642e 893c 6e8d 05bd d06f a9bd
000003e0: 5558 473c 2186 633d 2eba 9e3d f149 4bbd
000003f0: 33fd 203d e18d 8dbd f38d 0f3e e88c 1cbd
0.12810189 0.007711539 0.013380094 -0.1643958 0.042226687 -0.024795128 0.05043999 -0.01652411
-0.024711592 0.18307434 0.051978588 0.01544926 -0.08680399 -0.0755658 0.032061625 0.09570601
-0.07941369 0.01913255 0.08574799 0.023350442 0.02375512 -0.11357229 0.05379288 -0.100420594
0.0719127 0.008898935 0.008057451 -0.019204713 -0.031015487 -0.008350411 -0.07889883 -0.0286702
0.010057515 -0.028042933 -0.020021768 0.03117477 0.085188635 0.16190735 -0.03231358 0.10064752
-0.009292636 0.07738589 -0.04730732 -0.14120859 -0.04630957 0.042816494 0.003432201 0.005468141
-0.00020967962 -0.020578507 0.05483532 -0.032069337 -0.018088264 0.14440474 0.060151555 -0.042455234
0.058451705 0.0322005 0.010084196 -0.07949165 0.044072215 -0.021643788 -0.024739705 0.12813163
0.001748442 0.15302074 0.041586872 0.14002061 -0.01468087 0.043394946 -0.050186373 -0.02893959
0.059470113 -0.15995958 -0.0037893676 -0.11196878 0.042171698 -0.0031921112 -0.028083058 0.16668896
0.021100746 -0.10066039 0.051286407 0.05628084 0.005412731 0.14855742 0.029221524 0.13363504
0.068379104 0.04124098 -0.07120592 -0.12249969 0.06314892 -0.002314026 0.06455752 -0.060395367
0.05463793 -0.04209095 -0.08631134 0.04398577 0.13460313 0.21867345 -0.06691845 0.039242975
0.13217025 0.07092805 0.02472699 -0.013101326 -0.16566287 0.008247747 0.09891412 0.111629866
0.099154085 -0.04348691 -0.032334596 0.037221007 -0.07170872 -0.08158314 -0.037129108 -0.09240605
-0.14300068 0.014902051 -0.11280929 -0.04287858 0.06364308 0.06916555 -0.16597116 0.12015709
-0.08893927 0.03099831 -0.043892626 -0.0097571695 0.046622228 -0.077469274 -0.101586714 0.034974977
0.04043846 0.020309549 0.09805903 -0.0045152325 -0.07007756 -0.0038229625 0.11995039 -0.017129418
-0.0035258818 0.035998948 0.009012778 0.09323473 -0.11220466 -0.061438996 0.06973432 0.17958881
0.0021732305 0.054143164 -0.007068243 -0.14459868 0.025381928 -0.41499865 0.046025015 0.05992205
-0.004963586 0.0714518 0.041758534 0.13149254 0.08435387 0.1569853 -0.015129953 -0.03681194
-0.07318871 -0.0009867491 0.08847258 -0.037802354 0.10535586 0.08320461 -0.16093749 0.04655646
-0.058252253 0.017667849 0.0725558 -0.083401695 -0.028649943 -0.04736684 0.06783075 0.038274184
-0.0767002 -0.16024446 0.0356492 -0.018696751 -0.15864737 0.084133804 -0.013632961 0.07233354
0.052303042 -0.10140204 0.062091038 0.06997502 0.060397506 0.14463572 0.01101314 -0.029686922
-0.056948755 -0.08881802 0.12026655 0.037387658 0.07769102 -0.043983877 0.028663848 -0.0052807904
0.008333379 -0.0018453274 -0.026604405 0.042177197 0.09831441 -0.1663848 0.04497086 0.1820318
-0.016208915 0.08079975 -0.07177302 0.07174796 0.05602926 0.043482218 -0.014557069 -0.04469667
0.02329538 -0.058458213 -7.1336886e-05 -0.083010145 -0.0057732924 -0.02727107 -0.14877798 -0.018377783
-0.015190902 0.025389494 -0.0196728 0.08967158 -0.05887519 -0.07532266 -0.015867112 -0.040740665
0.025925236 -0.0062575657 -0.023664203 0.044589408 -0.0050739036 0.016745754 -0.03260558 -0.0827328
0.012167056 0.055547837 0.07750355 -0.049631063 0.03930397 -0.06911827 0.14018993 -0.038220316

blocks.0.conv.bias f4 [32]
00000000: 16f3 c1ba 99b4 c939 19ae 8bb8 7f78 3939
00000010: aa08 153c dd2b 58bb 5b10 883b eb75 d5bb
00000020: 9c69 08bb 7d2e 233b 13c4 7539 4957 e639
00000030: 8d82 0dbb 8196 bb39 aefc 8739 7748 bb39
00000040: 7cd6 a0b9 b70c 99bb a9a7 7d39 1b6f dab9
00000050: a624 34ba 153b 85bb 571b 7f3b 73a7 58bb
00000060: 55cc b639 5202 eabb c36e df3a 16f2 533a
00000070: c2ab c63b 254e d6b8 49c2 7036 8611 9e3b
-0.0014797177 0.00038472263 -6.660465e-05 0.00017687863 0.009096304 -0.003298513 0.0041523403 -0.006514301
-0.0020814901 0.0024899535 0.00023438064 0.0004393405 -0.0021592707 0.00035779554 0.00025937468 0.0003572141
-0.0003067738 -0.004670705 0.00024190418 -0.0004166298 -0.0006871916 -0.004065881 0.0038926208 -0.0033058792
0.00034865984 -0.00714139 0.0017046559 0.0008085085 0.0060629556 -0.00010218871 3.5875876e-06 0.0048238663

blocks.0.bn.weight f4 [32]
00000000: 9eb2 683f 800a 6c3f 7801 6b3f 5e3f 6f3f
00000010: 89fe 853f 39e2 783f 65e8 6f3f a858 693f
00000020: e52d 733f 68a5 6b3f 6444 803f 6411 7a3f
00000030: c7bf 6b3f 0169 633f 1450 643f c93e 623f
00000040: 6d09 7c3f d877 763f 512d 753f f460 733f
00000050: 85c3 693f c7e4 683f 80e2 783f 03be 6b3f
00000060: b1b0 6d3f 8390 7b3f e363 833f 4371 8e3f
00000070: 6365 6b3f 4082 6a3f 3238 613f 8b84 7b3f
0.9089755 0.9220352 0.91799116 0.93456066 1.0468303 0.9722019 0.9371398 0.91150904
0.94991904 0.92049265 1.0020871 0.97682786 0.92089504 0.888321 0.8918469 0.8837705
0.9845188 0.9627662 0.9577227 0.95069814 0.91313964 0.90974087 0.9722061 0.9208681
0.92847735 0.9826738 1.0264858 1.1128315 0.9195158 0.91604996 0.8797637 0.9824912

blocks.0.bn.bias f4 [32]
00000000: b802 81be 6693 88be defa 5abd 1128 5dbe
00000010: e0a4 68be ace7 6abd 27bb 00be 9cff 2bbe
00000020: 6ed0 4abe 8c32 9ebe 3569 19be 1498 81be
00000030: 3fd1 81be edbb afbe 07d7 17be 5e81 79be
00000040: f41a 8ebe b452 6ebe f86c 96bd 0ea5 abbe
00000050: 0820 97be 2187 c7bd 3e45 a1be 0ae0 51be
00000060: 44af 6cbe 2db5 9dbe 9c10 66be 67e1 63be
00000070: f686 bfbe e76b 67be e44d 773c ad1c 94be
-0.25197387 -0.26674956 -0.0534619 -0.21597315 -0.22719145 -0.057349846 -0.12571393 -0.16796726
-0.19806072 -0.3089794 -0.1498154 -0.2531134 -0.25354955 -0.34323063 -0.1482812 -0.24365756
-0.2775494 -0.23273736 -0.07345003 -0.33524364 -0.29516625 -0.09742571 -0.3149814 -0.2049562
-0.23113734 -0.3080229 -0.22467273 -0.22253953 -0.37407655 -0.22599755 0.015094254 -0.28928128

blocks.0.bn.running_mean f4 [32]
00000000: b16e 163f 3568 6cbf 7f28 2a3e de65 8cbe
00000010: 16f8 e9be 6cf7 a2be a6fa 82bf 8556 88bf
00000020: 34c1 6cbf 7e6e 9abf 4bf2 c13d 22c6 49bd
00000030: 81e4 91bf 34e8 ec3e 9146 ca3f d707 1f3d
00000040: 079c 5b3c b043 68bf f6b7 313f 6bab 9cbe
00000050: e290 20bf a9a9 72bf 9713 43bf 0e02 5dbe
00000060: 9ad2 c9be f2ea b4bf c9f8 72be 37ab 37bf
00000070: c9ae ebbf 62f4 21be ff56 163f 2014 e9bf
0.5876265 -0.9234651 0.1661701 -0.27421468 -0.45697087 -0.31829393 -1.0232742 -1.0651404
-0.92482305 -1.206497 0.09470042 -0.04926122 -1.1397859 0.46270907 1.5802785 0.038825836
0.013403899 -0.9072828 0.6942133 -0.30599532 -0.62721074 -0.9479013 -0.76201767 -0.21582815
-0.3941849 -1.41342 -0.23727717 -0.7174563 -1.8412715 -0.15815881 0.58726496 -1.8209267

blocks.0.bn.running_var f4 [32]
00000000: 5dfe 443f 82f8 383f 3ab8 683f 894b 3b3f
00000010: 2c55 0240 a293 823f 4618 673f 44f9 733f
00000020: 9ac0 943f 3f48 313f d6d9 363f 12b0 3d3f
00000030: 22cc 943f 32bc 323f 083c b13f 2c58 563f
00000040: 04a7 103f 9bcc 0d40 5dde 4a3f 938f 4d3f
00000050: 6a7a 2f3f 80e2 8d3f 8d25 3e3f 62e7 333f
00000060: b449 c53f 226d 853f 4578 383f 9713 683f
00000070: c37f 8b3f 0f28 333f d236 893f ff06 b53f
0.7695063 0.7225419 0.9090611 0.7316213 2.0364485 1.0201304 0.90271413 0.95302224
1.1621277 0.69250864 0.7142614 0.74096787 1.1624796 0.69818413 1.3846445 0.8372829
0.56504846 2.2156131 0.7924555 0.802972 0.68546164 1.1084747 0.7427605 0.7027494
1.5413117 1.042393 0.72058517 0.9065489 1.0898365 0.69983 1.0719855 1.414276

blocks.1.conv.weight f4 [32, 32, 3, 3]
00000000: 2643 afb9 3b1b 89bd 5690 81bd 3876 d9bd
00000010: f7b2 533d 9c59 09bd 98fb 163d 7f3a c3bd
00000020: 7919 8dbc cb4c 373d 8660 313d a08f 09be
00000030: 375b 2abe 89d7 5ebd af7e 33be a9ce f03c
00000040: caca bcbb 4e11 0cbe 1684 b23d 4dce 04bd
00000050: 116f 493b cb36 13be 5660 01be 6e87 97bd
00000060: fa53 a6ba 88f9 3abd 4785 a8bb ba1b 0d3e
00000070: be20 a33d 3a7e 893d fc9b 81bc a3bc 683d
00000080: d625 2f3a 7444 ac3d 7233 80bd a155 d9bc
00000090: 0e9f 033e 9f80 ce3d 4e01 033c c3d4 073e
000000a0: e6e8 3b3d b889 d13b 0b18 1d3e d9a6 3a3d
000000b0: c81f 22bd 56bc 38be a4bb 29bd 8ec6 653c
000000c0: 2652 8b3d ebd7 94bb d1fb c2bc 9832 80bd
000000d0: 569d 1cbd c328 3d3d 15cc cabd dc97 86bd
000000e0: d0f0 a63d 17a5 e5bc 8203 83bd 9b90 a1bd
000000f0: 2583 b2bd 8fa0 b7bd 8c11 ddbb 9e2d a53d
00000100: 148d 26be 03a2 f43d 4380 763d 796a 9a3d
00000110: cfb6 f4bd 0355 1c3d 8999 db3d 9ea0 c13d
00000120: 2a6f 7e3d f408 11bc 2ec0 9e3d bc94 50be
00000130: 7d49 033d 0301 313d c035 aebd b7ce 823d
00000140: 7e9a 723d 06db 9a3d 9a6f 923d d8e2 a33c
00000150: 4d2f 533d 4128 213d de18 d4bd 36c0 c93d
00000160: 4f11 ee3c 360a 33be b3f8 153e 70d4 51bd
00000170: abaa 8e3d 43d3 33bc 1c33 c4bd 3a75 c43d
00000180: 47dc 083d 72cc e8bd 2682 7f3d e1cd 833d
00000190: 75a1 fe3d fcd1 6e3d 764c b7bb e625 873c
000001a0: 2de4 543d 205c 0fbd 1595 e5bd 0407 13be
000001b0: 2b85 423d 784a 8d3d 8169 c5bd 133b 753c
000001c0: f1e3 033e dce2 c63d dc19 b23b 8eb5 253d
000001d0: e04f 1e3e 821b 4fbe 5593 f9bd 0b1a 89bd
000001e0: d518 c6bd 07b4 83bd 136a 44bc 261e e0bd
000001f0: e294 b0bc 2813 c8bd af04 033e 2200 853c
00000200: c3e7 69be 0ca4 a93c 4f39 d4bc 5b15 063d
00000210: e480 603c 0887 0bbd 673e 04be f6f0 8bbd
00000220: c6a4 81bc 3433 acbd c585 c0bd f1ee 48bd
00000230: 6420 eebd 4ff9 6fbd 65b9 4dbd 3365 5cbd
00000240: cd4b a03c cd6f f5bd 27f9 d5bd a7bc 80bd
00000250: c66c 3cbd bf89 8b3d bf85 063d b381 273d
00000260: 95b2 88bc 4387 963d 8881 61bd c56b f2bd
00000270: 37b4 323d 0a1e 79be 5d11 b93c 9d2e 0cbc
00000280: 4cce ffbd 63e9 77bc 0090 a9bc 8fbc bcbc
00000290: d552 3ebd 7408 1bbd f78d d4bb 3a09 993d
000002a0: e114 8d3d ca2e 0f3e 4feb 73bd a8ff 8dbd
000002b0: a502 073e 8de1 7cbd 27f8 bc3d 9eab 55bc
000002c0: bbe8 843d 27a1 4bbe d1ee 39bc 5144 e7bd
000002d0: 9fea 03be c9e4 afbc ade9 dfbc 5471 553d
000002e0: 65af d1bd 9ada f1ba 6be8 babc 309d 67bc
000002f0: 7186 bdbd 042d 223c eb99 813b 2d38 32be
00000300: 49fc cb3c 25dd c9bc 1e5b 96bd 5003 fd3c
00000310: e9af 41bd b35f c0bd 9084 033d eed0 8fbc
00000320: c48b d1bb cbe0 cbbd 1d6f 16be f5f8 83bc
00000330: 0bbc 0fbc b49e 1abd 86ff 0e3e 1dbc b73c
00000340: ce9d 5bbb 5a82 73ba 260d 1abd be48 02be
00000350: 94f7 b9bd 178b 42bd 9795 0cbe 9575 95bd
00000360: 5dc3 bdbc 2f44 283d 9a77 37be aec6 dbb9
00000370: cc35 95bd 271e c5bd 7698 f7bd 56c3 af3c
00000380: a756 293d adcb a8bc e0cf 663d cd77 f6bd
00000390: 2f6c 35be 1dc6 94bd d405 85bc ead7 03be
000003a0: 2944 1d3e c60a 4e3c 77d3 efbc 831e 343d
000003b0: c3da f43c b269 62bd 115f 33bd 17d4 55bd
000003c0: 7568 393d d9c1 ae3d 7f09 113d 7230 34bc
000003d0: 0d44 3e3c 0727 87bd f016 4e3e d2cb 7e3d
000003e0: 3b4d 0e3e 41a6 a3bb cd29 3d3d d31d 33bd
000003f0: 899f 25bd 8e78 853b f01f 303e ec5c 23be
-0.0003342863 -0.06694647 -0.06326358 -0.106182516 0.051684346 -0.033532724 0.036861032 -0.095326416
-0.01722406 0.04475097 0.043304943 -0.13433695 -0.16636358 -0.05440477 -0.17528795 0.029395418
-0.005761479 -0.13678476 0.087166 -0.032423306 0.0030736367 -0.1437637 -0.12634405 -0.07398878
-0.0012689822 -0.045648128 -0.005142841 0.13780108 0.079652295 0.06713529 -0.01582145 0.056820523
0.0006681358 0.08411494 -0.062598124 -0.026530089 0.12853643 0.10083126 0.0079959165 0.13264756
0.045876406 0.006394591 0.15341203 0.045569275 -0.03958109 -0.18040594 -0.041438714 0.01402439
0.06802778 -0.004542341 -0.023801716 -0.0625965 -0.038235985 0.04618145 -0.09902207 -0.065719336
0.081514 -0.028032823 -0.063971534 -0.078889094 -0.0871642 -0.08966171 -0.0067464765 0.080653414
-0.16264755 0.11944964 0.060180914 0.07539839 -0.119489305 0.03816701 0.10722644 0.094544634
0.062117733 -0.008852232 0.07751499 -0.20369238 0.032052506 0.043213855 -0.08506346 0.06387084
0.059229366 0.07561307 0.071501926 0.020005628 0.05155878 0.03934503 -0.103563055 0.098511145
0.029060988 -0.17484364 0.14645652 -0.051227987 0.06966146 -0.010975662 -0.09580061 0.09592672
0.033413198 -0.1136712 0.06237998 0.06435753 0.12433139 0.058305725 -0.0055938317 0.016497564
0.051975418 -0.034999967 -0.11210076 -0.14358145 0.04749028 0.068989694 -0.09639264 0.014967698
0.12879921 0.09711239 0.0054352116 0.040456347 0.15460157 -0.20225337 -0.121863045 -0.066944204
-0.09672705 -0.06430822 -0.011988181 -0.1094325 -0.021555368 -0.09769279 0.12794755 0.016235415
-0.22842316 0.020708106 -0.025906233 0.03273521 0.013702605 -0.034064323 -0.1291443 -0.06833069
-0.01582564 -0.08408204 -0.094005145 -0.049055997 -0.11627272 -0.05858737 -0.050225634 -0.05380745
0.019567395 -0.11984215 -0.10447913 -0.062859826 -0.046002172 0.06813382 0.032842394 0.040895175
-0.016686717 0.07350018 -0.05505517 -0.11836962 0.043628898 -0.24327865 0.022591287 -0.008556035
-0.1249052 -0.015131327 -0.020698547 -0.02303913 -0.046465714 -0.03784986 -0.00648665 0.07472463
0.06888748 0.13982692 -0.05955058 -0.06933528 0.13184603 -0.06173854 0.09227019 -0.013041405
0.06489702 -0.19885693 -0.011348442 -0.11292327 -0.1288247 -0.021471398 -0.027333105 0.05211003
-0.10238532 -0.0018451989 -0.022815904 -0.0141365975 -0.09254158 0.009898428 0.003955116 -0.17404242
0.024900572 -0.024641583 -0.07341598 0.030885369 -0.0472869 -0.09393253 0.032108843 -0.01755568
-0.006394835 -0.09954985 -0.14690824 -0.016109923 -0.00877286 -0.037749007 0.13964662 0.022428567
-0.0033510807 -0.0009289138 -0.037610196 -0.12723061 -0.09080425 -0.047495928 -0.13728939 -0.072978176
-0.023164446 0.04108065 -0.17916718 -0.00041918963 -0.072856516 -0.09624892 -0.120896265 0.021455448
0.041342404 -0.020604933 0.05635059 -0.12034569 -0.1771705 -0.072643496 -0.01623813 -0.12875333
0.15358032 0.012575811 -0.029275639 0.04397441 0.02988947 -0.05527658 -0.043791834 -0.052204218
0.045265634 0.08533067 0.035409447 -0.010997878 0.011612904 -0.06599241 0.20125937 0.062206097
0.13896649 -0.0049941842 0.046182442 -0.043729614 -0.040435348 0.004073209 0.17199683 -0.15953416

blocks.1.conv.bias f4 [32]
00000000: 346c 673a 61f7 62b9 595a de38 a002 feb9
00000010: b6f4 743b 0cbb 6a3b 2f83 fa3a 8a0e 653b
00000020: 7795 55ba 0ef9 043a ef46 beb7 6a3c 083a
00000030: 02a8 f7b9 4486 e0b8 a171 46b9 46d4 ad3b
00000040: fa36 88ba d4c4 7039 0808 d139 480d 943b
00000050: 3be8 4438 6aed 57bb ed56 2ab9 e749 6e3a
00000060: 5fbe 2aba 8039 adba b450 a739 686e 26ba
00000070: b006 9b37 9a56 ab39 2177 ecb9 c692 8538
0.0008828074 -0.00021645195 0.000106026135 -0.0004844861 0.0037377304 0.0035817055 0.0019112582 0.0034951293
-0.0008147577 0.00050725124 -2.2682796e-05 0.00051969907 -0.00047236687 -0.00010706161 -0.00018925082 0.005304846
-0.0010392361 0.00022961508 0.0003986957 0.004518185 4.6946323e-05 -0.0032947906 -0.00016244846 0.0009089992
-0.0006513353 -0.0013215989 0.0003191285 -0.0006348849 1.8480554e-05 0.00032680185 -0.00045102186 6.369273e-05

blocks.1.bn.weight f4 [32]
00000000: ec54 683f 4f5e 763f 46b4 5d3f 8c90 883f
00000010: d743 823f d821 633f 1b87 5f3f 5dfa 793f
00000020: 4816 893f fdec 713f 4efd 6e3f 1394 863f
00000030: 8f1a 713f e42d 733f b0b7 803f 9667 723f
00000040: 4436 833f fdd2 633f e5b6 7d3f a0a6 773f
00000050: 364e 723f 8dd5 5f3f 6b52 893f 0086 923f
00000060: 0dd2 8d3f e582 823f 9196 6a3f ea59 693f
00000070: 1140 7d3f 96c0 6f3f 6f1d 3b3f 0b92 813f
0.9075458 0.96237653 0.866032 1.0669112 1.0176953 0.88723516 0.8731553 0.9764765
1.0709925 0.9450224 0.9335526 1.0513939 0.9418115 0.949919 1.0056057 0.9468931
1.0250936 0.8899382 0.991072 0.96738625 0.9465059 0.8743523 1.0728277 1.1447144
1.1079727 1.0196196 0.91635996 0.9115282 0.9892588 0.9365324 0.7309179 1.0122694

blocks.1.bn.bias f4 [32]
00000000: 5f4c 90be 5cad 73be 69ca 26be fb86 edbd
00000010: 34c6 8ebe 87fd 51bd cb02 4cbe 96ef 7cbe
00000020: 507e a2be da7d 60be 3fd4 11be ba6e a9be
00000030: f799 87be 49f6 99be 9890 ccbe 6364 5fbe
00000040: 0dc1 d6be a002 89be 2efd 9dbe 806b 8abe
00000050: d0cb 9abe f789 9abe 4981 a2be 6dcc 49be
00000060: 6abe b1be ae62 39be cf57 3ebe 4053 09be
00000070: 306f 84be e69f bcbe 30d9 b2bb e5c9 99be
-0.28183267 -0.237966 -0.16288151 -0.11598011 -0.27885592 -0.051267173 -0.1992294 -0.2470077
-0.31736994 -0.21923009 -0.14241122 -0.3309229 -0.26484653 -0.30070713 -0.39954066 -0.21815638
-0.4194416 -0.26759815 -0.30857223 -0.2703514 -0.30233622 -0.30183384 -0.31739262 -0.19706888
-0.34715587 -0.1810405 -0.18588184 -0.13410664 -0.2586608 -0.36840743 -0.0054580197 -0.30036846

blocks.1.bn.running_mean f4 [32]
00000000: 4a0a 0fc0 778e 71bf cf5e 4cbf 46d5 cdbf
00000010: 5e47 34bf 7bc0 6fbf 76f5 fd3f 57af 9ebf
00000020: 29bb a4bf da54 a13c a097 a03f 6f1e 4dbf
00000030: eb8f dabe 2108 613e f4a7 6dbf 5b13 0bc0
00000040: 2a1c 40bf 8cf7 b03a 5156 04c0 7f6c fdbe
00000050: 3daa 4b3e ca08 58bf f1a7 ba3d ea98 3fbe
00000060: 9f4c 06bf 810c 103e 2bbe 63bd c78d bb3e
00000070: db3a d23e 1096 5bbe 349b cc3f 15f1 cb3e
-2.235003 -0.9435801 -0.79832166 -1.6080711 -0.704214 -0.93653077 1.9840534 -1.239726
-1.2869617 0.01969378 1.2546272 -0.8012456 -0.42687926 0.21975757 -0.928344 -2.1730564
-0.75042975 0.0013501509 -2.0677683 -0.49496838 0.1988916 -0.8438841 0.091140635 -0.18710676
-0.52460665 0.1406727 -0.05560128 0.36631605 0.41060528 -0.21443963 1.5984864 0.39832368

blocks.1.bn.running_var f4 [32]
00000000: 63db d43f ce63 b33f 2579 dd3f ea3d db3f
00000010: 026a 5040 b9e0 6b40 c58c d93f 0f3a 1340
00000020: ab4c e43f 5fc5 ab3f 3773 5040 9eb6 a23f
00000030: 5404 f33f 5647 e03f 14cb 0f40 865e 8d40
00000040: 241d e73f 1b64 b63f 4f9d c33f 45ed dc3f
00000050: 33ee 983f d829 b93f 25cb da3f bea8 d03f
00000060: ae0c c03f 38f2 de3f e8c9 b93f 1bce 1d40
00000070: dc96 5e40 ae91 e03f 0b98 8c40 c6b6 b73f
1.6629452 1.4014833 1.7302595 1.712827 3.2564702 3.685591 1.6996084 2.3004186
1.7835897 1.3419608 3.2570322 1.271198 1.8985696 1.752177 2.24677 4.4177885
1.8055768 1.42493 1.5282382 1.7259909 1.1947693 1.4465895 1.7093245 1.6301496
1.500387 1.7417669 1.4514742 2.4657047 3.4779577 1.7544458 4.39356 1.4352653

blocks.2.conv.weight f4 [32, 32, 3, 3]
00000000: bb3a 593d 21ea 14be a592 d4bd fa81 3dbd
00000010: 5742 bbbd deac 56bc 313a 1dbd 944e 25bd
00000020: 509a b9ba 1c6c a3bd 41df 9d3c e9c2 ecbd
00000030: 4717 95bc 9e95 5b3a 260c a4bd f392 533d
00000040: 628e 93bd 0f70 2cbe 570d b9bc 9df1 be3b
00000050: fa54 0b3d 1454 2abd 1ee4 52bd c17d 0b3d
00000060: b68f 54bc 4012 bbbd 7d8f 27bb 8fba e83d
00000070: d712 313c 2920 913d b4dc 043d ba55 2a3d
00000080: 589f e23d a72a 613d 3585 d23d fd53 ff3d
00000090: df04 6cbd 6e71 a9bd 0539 613e f6b8 343d
000000a0: c514 263e 9d5d 043d 048d 2d3e fa90 79bc
000000b0: 4070 e53c e058 2cbe 7fee 213d ea44 fa3d
000000c0: 6971 0a3e 7eb1 613d cbf4 eb3d be4b a0bc
000000d0: 65a2 11be f33b 1bbc a9ec efbd 9971 9c3d
000000e0: eb6f 183d f377 9a3b ec47 93bb f127 0f3c
000000f0: f2e3 8ebd 7967 a7bd d289 55be 43ea 86bd
00000100: 845f 68bd 0273 d63d 2be7 19bb 15c5 d13c
00000110: 1813 c0bc ab68 263d 458a af3d 9fec 9c3c
00000120: 23cf 9c3b a85f 45bd 9885 753d 2d54 cd3d
00000130: 63c9 e6bd a8eb 90bc c26f f03d 4c28 05be
00000140: f0db 473c 9bf7 013d 4bc3 f43d 4a36 cebd
00000150: 14e5 e43c 752a e1bc c208 04bd e2ff 873c
00000160: 16d7 12be c7bb 30be b43f 29bd 3092 07be
00000170: ed03 72bb 8446 a4bc d2e6 4fbd 8270 e5bc
00000180: 3c4e d23b fd83 633c c013 9cbd 07cd 0b3e
00000190: cc09 933d 0775 2a3d d244 ad3d 3688 c43d
000001a0: 3705 93bd 85c3 fcbc 9011 afbd db14 db3d
000001b0: 9bf9 203e 795c 143d cd5c dd3d fb3f 043e
000001c0: c916 933d c01b d73d 79b6 5fbd 4f9f dd3d
000001d0: b8e0 b53d 9596 afbd 289f f7bd cffa 93be
000001e0: a8b5 87bd 1b67 6fba 5e69 4abd 300c 53bd
000001f0: 02e6 1abd 024f 3fbe 2101 53bc 5617 57bd
00000200: 8479 56be 1505 0dbe df99 b1bd 2b6d ed3d
00000210: c02f fbbd 8301 1e3e a54d 983c 94f7 12be
00000220: 940c 04bc 1aca c9bd 9bb8 15bd 57df 14bc
00000230: 3c78 92bd 2035 223e d631 81bd 3c15 583d
00000240: 63e9 ea3c eb83 f3bc cfa6 13bd 7fcb 81bd
00000250: 389a 80bc b8df 9c3d f546 9dba 93db eabd
00000260: ce54 963b 1b9d e2bc 6c43 8dbd 9383 22bd
00000270: 0d2b b53c 274a 473d 5e2a 9b3d 82c0 f3bd
00000280: a17b efbd 79e3 db3d c902 9dbc 2f52 603d
00000290: 73eb 543d 1807 2a3d a2f9 223d 0776 ff3b
000002a0: 0a52 ba3d b87c 153d 4820 d13b c52f 6c3d
000002b0: 20c1 103d 511f b23d 1e0b 15bd 4c22 01bc
000002c0: 6734 8d3d ac2c 58bd e766 a13d 6736 24bd
000002d0: 2fde a3bd ce61 4a3d 39f0 f53d e4c7 c4bc
000002e0: d3dd 1a3d 7be9 0c3d be39 fa3b 044c 3b3e
000002f0: fe85 a63d 3084 f73b 42aa 86bd cdd4 58bd
00000300: b272 143e 9b87 7a3d 1500 01bd b3de 0c3d
00000310: 1b3d c83d d97c b9bb fb72 053d 25ea 183d
00000320: 03b5 0fbe fb60 90bd 40ba 48bd 2f0b 1abd
00000330: 92af 0e3c fb2c 38bd aeff b4bd 9062 97bd
00000340: dd39 8a3d 024d 9abd b5d1 06bd b7d0 9e3c
00000350: 4d1d bbbd 66aa 69bc c1af fe3c afc9 04bd
00000360: ac82 633d e3a4 803d 3561 c0bd 5a5c 233c
00000370: e7d4 1c3e ffe1 863d 8d54 d6bc 691a b6bd
00000380: 1f4d c2bb 54f4 13be 02ee 9a3d 205e 6abd
00000390: a4c8 77bd 3df7 d33b c980 eabc 7bbf 77bd
000003a0: 11d8 c73a 48bf 8b3c a104 d5bd b35b 97bc
000003b0: ee53 7ebd 2e42 13bd da2f e4bc 3aab 52bd
000003c0: 2060 ee3d 1304 a6bb c907 ba3c b1e5 27be
000003d0: 5ec8 d7bd c0f0 efbc 0268 04bd fb18 a9bd
000003e0: 52b8 bd3d d8ff cfbd 0df2 dc3d 7eaf 8dbd
000003f0: dbca aa3b 7a2f 41bd fa63 e03b bb5a a83d
0.053034525 -0.14542438 -0.10379533 -0.046266533 -0.09143513 -0.013102738 -0.038385574 -0.04035814
-0.0014160369 -0.079796046 0.019271495 -0.11560614 -0.018199576 0.0008376482 -0.0801013 0.051653814
-0.07204892 -0.16839622 -0.022589369 0.0058271424 0.034016587 -0.04158409 -0.05148708 0.034055475
-0.0129737165 -0.0913434 -0.0025567703 0.11363708 0.010807714 0.07086212 0.03243704 0.04158566
0.11065549 0.054972317 0.102793135 0.12467191 -0.057621833 -0.08273588 0.21994407 0.044121705
0.1621886 0.03231584 0.16948324 -0.015232319 0.028007627 -0.16830778 0.03953409 0.122201756
0.13519825 0.05510091 0.115213 -0.019567367 -0.14222105 -0.009474742 -0.11715061 0.076388545
0.03721611 0.004714006 -0.0044946577 0.00873755 -0.06977071 -0.08174033 -0.20853356 -0.065876506
-0.056731716 0.10471155 -0.0023483734 0.025606671 -0.023446605 0.040627163 0.08571295 0.019155798
0.004785435 -0.048186928 0.059941858 0.10025821 -0.1126888 -0.017690495 0.11740066 -0.13003653
0.012198433 0.031730276 0.11951312 -0.100689486 0.027941264 -0.027486065 -0.032234915 0.016601507
-0.14339861 -0.17259131 -0.041320518 -0.1323936 -0.003692861 -0.020053156 -0.050757237 -0.02800775
0.0064180177 0.013886449 -0.076209545 0.1365243 0.07179603 0.041615512 0.08460392 0.09596293
-0.07178729 -0.03085495 -0.08548272 0.10697337 0.15720217 0.036221 0.10808716 0.12915032
0.0718208 0.1050334 -0.05461738 0.10821401 0.08880752 -0.08573643 -0.120909035 -0.2890229
-0.06626445 -0.00091324904 -0.049416892 -0.051525295 -0.03781701 -0.18682483 -0.012878687 -0.05251249
-0.20944792 -0.1377147 -0.08671927 0.11593088 -0.12264967 0.15430264 0.018591711 -0.14352256
-0.0080596395 -0.09853001 -0.036553007 -0.0090864515 -0.07151839 0.15840578 -0.063083336 0.052754626
0.02867574 -0.02972599 -0.036047753 -0.06337642 -0.015698537 0.076598585 -0.0011999296 -0.11467662
0.004587746 -0.027662804 -0.06897625 -0.03967626 0.022115255 0.0486547 0.0757644 -0.11901952
-0.11693502 0.10736746 -0.019166367 0.054765876 0.051982354 0.04151067 0.03978885 0.0077960524
0.09097679 0.036495894 0.006382022 0.057662744 0.03534043 0.086973794 -0.036387555 -0.007881712
0.068947606 -0.052776977 0.07880955 -0.040090945 -0.080013625 0.04940968 0.120087095 -0.024021097
0.037809204 0.03440235 0.007636278 0.18290716 0.08131026 0.0075536 -0.06575443 -0.052937318
0.14496878 0.06116448 -0.03149422 0.03439207 0.0977728 -0.005660635 0.032580357 0.037332673
-0.14033894 -0.070497476 -0.049005747 -0.03760832 0.008708851 -0.04496477 -0.088378295 -0.07391846
0.06749318 -0.07534219 -0.032914836 0.019386632 -0.09136448 -0.014261818 0.031089665 -0.032418903
0.05554454 0.0628145 -0.09393541 0.009970749 0.15315591 0.06586074 -0.026163364 -0.08891756
-0.0059296037 -0.14448673 0.07564928 -0.05721867 -0.06049408 0.006468682 -0.028625863 -0.060485344
0.0015246888 0.017058983 -0.104012735 -0.018476343 -0.06209176 -0.035951786 -0.027854849 -0.051432826
0.11639428 -0.0050664037 0.02270879 -0.16396214 -0.10536264 -0.029289603 -0.032325752 -0.08256718
0.09263672 -0.1015622 0.10788355 -0.06918238 0.0052121705 -0.047164418 0.0068478556 0.082204305

blocks.2.conv.bias f4 [32]
00000000: 4cb3 0cb9 c6cc 643b 66ec 14ba fc02 8a38
00000010: d6fe 9b3b 0d9d 75ba 83f8 623b ef34 25bb
00000020: 672e 243a 0260 ad3b 9a4f b0bb 1815 80bb
00000030: ca8a f739 c435 c53a a877 66bb b9ca e9bb
00000040: 247f 0fbb ab78 e83b 8744 d839 5fa7 863b
00000050: 03ee 0939 a472 0a3b 85d2 87b8 80f4 733b
00000060: cb1a 8db9 be32 3dbb f786 1f3b 64c4 3a3a
00000070: f3b3 da39 96b4 a3bb dc3d 8439 a218 4a3a
-0.00013418234 0.0034912094 -0.0005680978 6.580909e-05 0.0047606034 -0.00093694107 0.0034632988 -0.0025208553
0.0006263018 0.005290986 -0.005380583 -0.0039087646 0.00047214917 0.0015045931 -0.0035166536 -0.007134762
-0.002189585 0.007094463 0.00041249787 0.0041093077 0.00013154004 0.002112546 -6.476514e-05 0.003722459
-0.00026913578 -0.0028869356 0.002434192 0.00071246014 0.00041714273 -0.0049958928 0.0002522309 0.0007709359

blocks.2.bn.weight f4 [32]
00000000: d078 8d3f cb65 663f c051 7a3f 69e7 643f
00000010: 29cc 5e3f 9a2d 5b3f 819b 7d3f 453d 7e3f
00000020: 60bf 703f 74f3 8b3f 3182 683f b0d7 753f
00000030: 377a 6e3f 7617 813f 6239 743f 864b 703f
00000040: c890 763f 46a5 833f 050d 663f 8190 733f
00000050: 5992 763f 430f 5f3f fda4 5c3f 6eb6 853f
00000060: 5f39 793f fb63 853f 0336 873f c68c 693f
00000070: ef33 7e3f 97fc 833f 9150 433f ec30 7c3f
1.1052494 0.89999074 0.9778099 0.89415604 0.87030274 0.8561646 0.99065405 0.9931224
0.94042015 1.0933671 0.90823656 0.9603224 0.93155235 1.0085285 0.9540006 0.9386524
0.9631467 1.0284812 0.89863616 0.9514237 0.9631706 0.8713266 0.8618925 1.0446298
0.97353166 1.0421137 1.0563358 0.9123043 0.99297994 1.0311459 0.7629481 0.9851215

blocks.2.bn.bias f4 [32]
00000000: 1841 79be 2578 a2be 6cd7 953b e5af 93bc
00000010: 96c8 adbe b077 27be 0d91 27be e2c6 a4be
00000020: 21fe c0be 69ef e9bd dfc2 27be f206 57be
00000030: 266f 82be 957c 86be b0cb bebe c8bc 94be
00000040: a2ab 5bbe f57a 9ebe 77e8 73be f2e7 55be
00000050: 1f4f 9abe 33c6 ebbe eec3 96be ec0b 45be
00000060: f95a 91be c071 7bbe f1de c7be 1f60 fdbd
00000070: 8918 1bbe 25f0 94be 6ea1 9d3d b49c 9fbe
-0.24341238 -0.31732288 0.0045727994 -0.018028209 -0.33942097 -0.16354251 -0.16363926 -0.32182986
-0.37693885 -0.11422617 -0.16382931 -0.20998743 -0.25475425 -0.26266924 -0.37264776 -0.2905028
-0.21452191 -0.30953184 -0.23819147 -0.20889261 -0.3013849 -0.46049652 -0.29446357 -0.19242829
-0.2838972 -0.24555111 -0.39037278 -0.12371849 -0.15146078 -0.29089466 0.07696806 -0.31174242

blocks.2.bn.running_mean f4 [32]
00000000: 8cd9 54bf e832 b5bf 4e1e 7abf 1b24 d53f
00000010: 8c68 d2bf c922 e13f b225 08bd 6c3f c8bf
00000020: b3c8 c2bf 5f79 84bf daa7 a43e 53c8 17bf
00000030: a399 eabe bb61 a7bf 48ad 57bf f580 dabd
00000040: fe8a 18bf c9c3 46bd 06f8 f5be 353c 2dbe
00000050: 1ead 6c3f 3e7b febe 642d 0c3f 9e38 adbf
00000060: 45d5 b1bf 93c0 173f cf80 c2bf 4a8b 6e3f
00000070: 218e 1b3f 517d cbbf 710e 9d3e a730 febf
-0.8314445 -1.415616 -0.9770249 1.6651644 -1.6438155 1.758874 -0.033239074 -1.5644355
-1.5217499 -1.034954 0.3215931 -0.59290045 -0.4582034 -1.30767 -0.8424878 -0.10669128
-0.59587085 -0.04852656 -0.4804079 -0.16917498 0.92451656 -0.497034 0.5475676 -1.3532903
-1.389321 0.5927822 -1.5195559 0.9318129 0.60763747 -1.5897619 0.3067508 -1.9858598

blocks.2.bn.running_var f4 [32]
00000000: c4c5 8d40 900b 6340 0839 8c40 d150 6340
00000010: 4615 3d40 e145 5740 26ed 6f40 361b a140
00000020: 33c3 6140 0089 f73f 4cb3 1940 3c70 7640
00000030: d00a ea3f bd43 b840 46c7 a540 e45f ef3f
00000040: bed7 2b40 7e20 de3f cf35 4c40 466c 6140
00000050: 1bfa 0640 ad58 1540 0410 3e40 6cc4 1240
00000060: 0565 0940 ef1f 2940 2421 6c40 8334 c340
00000070: 28ea 7b40 8009 d540 0087 c640 f1dd 7e40
4.4303913 3.5475807 4.381962 3.5518076 2.9544234 3.36364 3.7488494 5.0345716
3.527539 1.9338684 2.4015684 3.8506002 1.828455 5.758269 5.1805754 1.8701138
2.6850429 1.7353666 3.1907842 3.5222335 2.1090152 2.3335373 2.9697275 2.2932386
2.1467907 2.642574 3.6895227 6.10016 3.9361668 6.6574097 6.2039795 3.9822962

blocks.3.conv.weight f4 [32, 32, 3, 3]
00000000: c3e9 9ebd c58e 99bd cede 92bd 8b18 eebc
00000010: a2f5 48be 15ad cebd 096a 8dbd 0ff5 19be
00000020: 6376 cdbd 93ba 223c 34da 7ebd 6ec4 5e3c
00000030: fee5 8d3d f382 ff3d 806b 5e3c 8402 c53c
00000040: c2df 853d 8ee9 e53d 8ee7 1ebd d877 3c3c
00000050: e02f 41bd fbcf 1dbe fd69 173d 1cbf b83d
00000060: 7de6 e8bd 743c cabd a3f8 aabd dd28 833c
00000070: 14b5 583d 5395 ffba 12bc 853d fd9f c3bd
00000080: c3d3 01bd dd7d 2fbd 748a 173d fce1 2dbc
00000090: 6cb3 bfbd ec11 9c3b 5855 293d a78e 13be
000000a0: e54e d23d 8d2e 95bd dfb4 1b3d 1798 1abc
000000b0: 3e66 c33c cac9 493d b43e cf3d 3a85 ed3c
000000c0: 3ef2 8ebd 1e4e 8f3d effd 1d3e b579 eeba
000000d0: df1b dc3a 6fdf 083e dfa3 023e a1d0 063d
000000e0: 5574 893c 043e 533e 9f11 4a3d f7b4 023e
000000f0: 3a28 713d b309 eb3b ddbf b63b 5478 13be
00000100: 8ad4 683d 487f 8f3d bc78 b83d 4ab1 a33a
00000110: b75e bc3c bd4a 1b3d 1fc0 6f3c 0988 b6bd
00000120: 9290 febc adfd 793d 7d37 8f3d be2b 8d3d
00000130: b5a8 21bd 0179 873d 6d21 75bd f43b 203d
00000140: 86d7 633d 7bdc 86bc d3a4 18bd 44cb d23d
00000150: b017 c2bc cfbf 6fbd 9628 b03d 5928 98bd
00000160: 746a 763d 3881 c43d 6f60 a9bd 40cf 63bd
00000170: 42f5 4abc 7839 a63d c015 07bd 6f1c 3bbe
00000180: 59d7 0ebd 8b38 7fbd 49c7 c6bd 5533 a6bc
00000190: 6b61 30bc 6258 88bc ef2f cc3a 3e73 52bd
000001a0: c283 533d c068 30be a641 a6bd 9b23 0c3b
000001b0: d607 8cbd 5953 57bd 2c8a a3bd 6874 15bc
000001c0: a5ce e6bd c225 c53c f3a2 a5bc 02a7 84bd
000001d0: b33e c1bc 0a04 d63d 22a7 cd3d 1cca 42bd
000001e0: 6146 4dbc b030 f53d 5ac7 d23d 3b19 163d
000001f0: ca91 09bc f905 8d3d 87e6 34be 0433 bdbd
00000200: 7d55 d6bd b80e e4bd 4296 cfbd 8b1e e0bd
00000210: f756 e9bb c097 b33d 2d0b aebd 4347 2bba
00000220: 33a6 59bc 271e 93bd 2e36 10bd 2c54 b8bc
00000230: 577b 873d 262d 5a3d 3f0c 813d 1aaa 6b3d
00000240: 44e4 093d b8ee ec3c f039 e53d 8e2f 973c
00000250: 9624 c23b 5e84 7f3d 8fea 883d ed43 683d
00000260: a0b3 c6bc 54ac 1b3d 21e7 d13d 353d 3e3e
00000270: affe 613c e6cb 183e d1c3 eb3d d58c 69bd
00000280: 4909 11bd b8be 143e 50d4 b8bc da37 bcbd
00000290: 1b91 223d 1ed9 6fbc ccfd b73c 9a57 12bd
000002a0: a752 c4bc 7a20 9c3d e510 603c 970d 963d
000002b0: 7184 f3bd 2cd9 2abd df2e cd3d 2b78 673c
000002c0: 5196 7b3d fdac 6f3d e51a 9dbd 08e1 92bd
000002d0: 8550 38be f6f8 173c 80f9 d63d 18d2 7ebc
000002e0: a1f0 76bd be5e 4bbd bb05 31bd 39bd 3b3c
000002f0: b5f9 213d d3f6 593c 9df1 933d 2b65 d13c
00000300: e0ac 65bc 0f85 293d 19aa 843c 74f3 743d
00000310: 345e 8d3d 8e39 123e 0c3c 50be 5803 c4bc
00000320: d21f cdbd 4f9b d73c 64dc abbc 69e9 79bd
00000330: fa43 c9bc daf6 693d b252 6dbd bb04 f2bd
00000340: 3d27 963c 3ac6 d43d 4d6e 04bd 1d2a 60be
00000350: 857f 963b 6165 1d3e ba80 2d3e 5bf2 16bd
00000360: aaf1 163d bd9d 473d ea9a 263d 8101 10be
00000370: 4ec6 81bc 726e 04be 497b 19bd 7f48 e9bd
00000380: 8315 13be 9ad4 bd3d 9c2c 133b 3ebe 1c3d
00000390: 8e41 373d f2f8 433d ab07 cbbd 7384 bb3d
000003a0: afeb 5dbc e50b 49bd 5ab3 083d daf1 99bd
000003b0: ce00 38be 9f00 333b 8705 cebd eae0 97bd
000003c0: d961 a13d 293c 4fbd a528 bcbd 9f56 0dbd
000003d0: 8b70 e6bb cab4 a93d fd14 07bd 1b80 003d
000003e0: 971e 1abc 843c 68bd f801 1b3d eeec 013e
000003f0: e00d c1bd 0bfc bb3d ea42 0ebe 31c4 42bd
-0.0775943 -0.07497934 -0.07171403 -0.029064437 -0.19624951 -0.100916065 -0.0690499 -0.15034889
-0.10032346 0.009932178 -0.062219813 0.013596637 0.06928633 0.124761485 0.013575435 0.024049051
0.06536819 0.11226188 -0.038795047 0.011503182 -0.047164798 -0.1541137 0.036966313 0.09020826
-0.11372087 -0.09874812 -0.08348205 0.016010696 0.052907065 -0.0019499458 0.06530012 -0.09552
-0.031696092 -0.042844642 0.036997274 -0.010612961 -0.09360394 0.0047628786 0.041341156 -0.14409886
0.10268954 -0.072842695 0.03801429 -0.009435675 0.023852464 0.049264707 0.101193815 0.028994191
-0.06979798 0.069973215 0.15428899 -0.001819423 0.0016792974 0.13366483 0.12757824 0.032913808
0.016779104 0.20629126 0.04933321 0.12764345 0.058876254 0.007172787 0.005577071 -0.1440137
0.056843318 0.07006699 0.09007403 0.0012488749 0.022994382 0.037913073 0.014633208 -0.089126654
-0.031074796 0.06103294 0.069930054 0.06893109 -0.039467532 0.066148765 -0.05984633 0.039119676
0.05562546 -0.016462555 -0.037266564 0.10292676 -0.023692936 -0.058532532 0.08601491 -0.07429571
0.060160115 0.09594959 -0.082703464 -0.05561757 -0.012387576 0.0811643 -0.032979727 -0.18272565
-0.03487334 -0.062309783 -0.097059794 -0.020288149 -0.010765414 -0.016643707 0.001557825 -0.051379435
0.051639326 -0.17227459 -0.0811799 0.0021383527 -0.06837432 -0.05256972 -0.079853386 -0.009121992
-0.11269883 0.024065856 -0.020219302 -0.06477167 -0.023589468 0.10449989 0.10041644 -0.047556028
-0.012528987 0.11972177 0.102919295 0.036645155 -0.008396575 0.06885905 -0.17666064 -0.09238246
-0.10465524 -0.1113562 -0.10136081 -0.109433256 -0.0071209627 0.087691784 -0.08498225 -0.0006533751
-0.013284254 -0.071834855 -0.03520792 -0.022501074 0.06615322 0.053265713 0.06301164 0.05753527
0.033664957 0.028922424 0.11192691 0.018455293 0.0059247715 0.062382095 0.066853635 0.056705404
-0.024255574 0.03800614 0.102491625 0.18578036 0.013793631 0.14921531 0.115119584 -0.057019074
-0.035409246 0.14525878 -0.022562176 -0.0919034 0.039689165 -0.014639167 0.022459887 -0.035728075
-0.023965193 0.07623382 0.013675903 0.07326811 -0.118904956 -0.041711017 0.100187056 0.014127771
0.06142265 0.058514584 -0.07671145 -0.071718276 -0.17999466 0.0092756655 0.10496807 -0.01555302
-0.060288075 -0.0496509 -0.043218356 0.011458688 0.03954478 0.013303476 0.072238185 0.025560936
-0.014018267 0.04138666 0.01619439 0.059802487 0.069027334 0.14279768 -0.20335406 -0.023927376
-0.10015835 0.026319174 -0.020979114 -0.061013613 -0.024568547 0.05712018 -0.057940193 -0.118173085
0.018329257 0.10389371 -0.032331754 -0.21891065 0.004592838 0.15370704 0.16943637 -0.036852222
0.036851563 0.048734415 0.04067508 -0.14063074 -0.01584163 -0.12932757 -0.03747109 -0.11390781
-0.14363675 0.09269066 0.002245701 0.038267367 0.044740252 0.047844835 -0.09913572 0.09156122
-0.013544961 -0.04908361 0.033374168 -0.07516833 -0.17969057 0.0027313603 -0.10059648 -0.07415946
0.07879991 -0.050594483 -0.0918744 -0.034506436 -0.007032459 0.08286436 -0.032979 0.03137217
-0.009406707 -0.056698337 0.037843674 0.12688038 -0.094264746 0.09178933 -0.13892713 -0.047550384

blocks.3.conv.bias f4 [32]
00000000: 19d9 a4bb 9225 c5b8 3239 f13a 2483 0bba
00000010: 8cac db39 7106 11b8 d2c8 cfba dce9 78bb
00000020: 1121 773a 9a63 c13a b952 1538 5870 f4b9
00000030: 94b5 19bb 4d5e beba 45e1 393a 13a0 93bb
00000040: 8c1d d03a 2bd6 bb39 523a b5b9 7d68 d8b9
00000050: 44df 50bb 4036 cd3a 78ca 0eb9 9c1c 52bb
00000060: 0d2e 4938 1fb8 17bb b285 4a3a 1caa b5b9
00000070: f2df d23a 2256 30bb 747d 1739 34fa 4b3b
-0.005030763 -9.40069e-05 0.0018403886 -0.00053219707 0.00041899492 -3.4576693e-05 -0.0015852696 -0.0037981188
0.00094272295 0.0014754415 3.560141e-05 -0.0004662301 -0.0023454176 -0.0014523953 0.0007090758 -0.0045051663
0.0015877946 0.00035826987 -0.00034566462 -0.0004127658 -0.0031871358 0.0015656427 -0.00013617601 -0.003206051
4.7965023e-05 -0.0023150516 0.00077256106 -0.00034649752 0.001608847 -0.0026906808 0.00014447217 0.0031124474

blocks.3.bn.weight f4 [32]
00000000: 2a6d 883f 24ec 6e3f 3a95 553f 860a 603f
00000010: bb03 803f dbaf 513f 5e6a 753f eea5 833f
00000020: 8237 8f3f 7f80 6c3f 444f 533f 961d 613f
00000030: 3769 793f 1a78 873f 93a5 853f aa07 953f
00000040: d485 893f 02dd 773f 2327 833f 3228 653f
00000050: 28be 893f 1670 833f cf7d 813f ca11 823f
00000060: c9ff 853f c833 5a3f c787 813f ee94 603f
00000070: 14ca 663f 869e 763f 10af 5b3f a6a0 793f
1.0658314 0.9332907 0.83430827 0.8751606 1.0001138 0.8190896 0.9586543 1.0285013
1.1188815 0.9238357 0.82542825 0.8793577 0.9742617 1.0583527 1.0441154 1.1642964
1.0743966 0.96821606 1.0246319 0.8951446 1.0761156 1.0268581 1.0116519 1.0161679
1.0468684 0.8523526 1.0119561 0.8772725 0.90152097 0.9633564 0.85814 0.97510755

blocks.3.bn.bias f4 [32]
00000000: 7276 c6bd b106 a6be 22bc 59bd 01de e739
00000010: 3eca c0be 1602 4ebd bd58 c4be 6b8b 5dbe
00000020: b745 8abe 6140 61be aea0 f5bd ea0d 0dbd
00000030: 5776 61be 6560 8dbe ae1e e8be 6218 28be
00000040: 8638 86be 24da c3be b862 5abe 8ccd 87be
00000050: 9775 20be c951 cebe e6f7 afbe 452e 47be
00000060: c56a c3be e4ba a7be 4ffc b6be 9201 e0bd
00000070: f4fd 0abe 89fb 86be b220 c83c 1133 9abe
-0.096905604 -0.3242698 -0.053157933 0.0004422516 -0.376543 -0.050294958 -0.38348952 -0.21635215
-0.27006313 -0.21997215 -0.11993538 -0.034437098 -0.220178 -0.27612606 -0.45335907 -0.16415551
-0.26215 -0.38252366 -0.2132672 -0.26524007 -0.15669857 -0.40296772 -0.3436882 -0.19451244
-0.38167396 -0.32759774 -0.3573937 -0.109377995 -0.13573438 -0.2636378 0.024429653 -0.30117086

blocks.3.bn.running_mean f4 [32]
00000000: 31c7 70bf a74e 94bf 844c cabe f80f d2bf
00000010: 7b4a 913f e610 9dbb 8d39 34c0 0dc6 1fc0
00000020: b423 7f3f 4909 cdbf 6b60 9b3f d89c 9ebf
00000030: ee13 9b3f 7547 bc3e 9f50 71bf 9fae 14c0
00000040: 5cfc 2bbf 9ee3 653f fd13 42c0 28cd 4b3f
00000050: 0a8c c0be 2efe 76bf c112 b13f 2ae1 22c0
00000060: 0b60 283f 12d3 cf3f b06f 4c3f 1036 823f
00000070: 422b 0a40 3c00 87be b816 78be 95bf 373f
-0.9405394 -1.1586503 -0.39511502 -1.6411123 1.1350855 -0.004793274 -2.8160126 -2.496463
0.99663854 -1.6018459 1.21388 -1.2391615 1.2115457 0.36773267 -0.94263643 -2.323158
-0.67181945 0.8980044 -3.03247 0.7960992 -0.3760684 -0.964816 1.3833848 -2.544993
0.6577155 1.6236289 0.7985792 1.0172749 2.1588902 -0.26367366 -0.24227417 0.71776706
