models/83.pth (torch, 501905 bytes, 80 tensors)

conv0.conv.weight f4 [32, 17, 3, 3]
-0.082012825 0.14808023 -0.25002035 0.096640736 -0.1208682 0.14546736 -0.13318463 0.105464675
-0.034225933 0.007591042 -0.065182425 0.028249124 0.047303 -0.15211774 0.13286957 0.027368736
-0.07003515 -0.05516761 0.11649477 -0.14187154 0.088895805 0.04394075 0.02365262 0.10031292
0.050942026 0.022584505 0.0644759 -0.117283836 -0.033902884 0.015150284 -0.004934645 0.002720343
0.08132607 0.0065489397 -0.06564511 -0.008672346 0.073751636 0.045804396 0.102038205 0.06236779
-0.31174806 0.20602737 0.15467262 0.19110386 0.12713726 0.0016028439 0.03599122 0.14183922
0.10813935 -0.057892818 0.14877844 0.2473155 0.02290901 0.044959188 0.03854564 0.14621703
0.05647286 0.19268239 -0.14078486 0.14312711 0.09816108 -0.017743284 0.103307225 0.10442229
0.037959285 0.12970494 0.05424946 -0.053416908 0.16718312 0.11891007 0.07262477 0.02066213
0.051655207 0.10740522 -0.08014892 0.055348236 0.1657599 0.06351785 -0.056832623 0.109267764
-0.005142369 -0.08303608 0.07593337 -0.04147162 -0.050027855 0.30358264 0.055340365 -0.019799504
0.090006456 0.0011965829 -0.008703452 0.076972894 -0.050598636 0.03257671 0.27853823 0.058726024
-0.02283391 0.060811445 -0.025349766 -0.046047576 0.060947426 -0.03938248 0.046175532 0.2221911
0.049560998 -0.050048836 0.090092905 -0.022571295 0.0096434 -0.05021326 0.054468635 -0.03621411
-0.088584386 -0.08733282 0.044559997 -0.009836037 0.058337636 -0.0677018 0.059107166 0.12931709
-0.06874114 0.04533367 -0.024589965 0.0070676915 0.045538787 0.13399175 0.0029843464 -0.012236138
0.09659078 -0.02144422 0.112254046 0.013854777 -0.031229595 0.0143515915 0.018468408 -0.06457554
0.04139867 0.053937376 0.028057527 -0.0012687681 -0.022730231 0.043048877 -0.047386557 0.0687238
0.019523961 0.04515901 -0.009455288 0.017779738 0.007833518 0.08217266 -0.021372862 0.03868636
-0.022923969 0.13726868 0.074316405 0.008346433 -0.004321997 -0.33371627 0.12130628 0.0741808
-0.034540158 -0.07882348 0.024395926 0.04921408 -0.09423828 -0.10394168 -0.22000475 -0.15408283
-0.009447696 -0.072975755 -0.06520054 -0.15732987 0.08807517 -0.14225017 -0.09441323 0.08715493
-0.19792828 -0.031030497 -0.15081453 -0.14238076 -0.0016042588 -0.011738525 -0.12494303 -0.08263879
0.038567837 -0.19699748 0.028682021 -0.19026083 -0.12785456 -0.00464739 -0.06280514 -0.11156827
0.0026573723 -0.123052366 -0.03629616 0.058850415 0.00820288 -0.09487824 -0.11137442 -0.03008294
-0.20979767 -0.16664018 -0.09522778 -0.15878826 -0.069044136 -0.1041956 -0.20511876 -0.12542215
-0.051024795 -0.35044086 -0.080748945 -0.0765428 -0.09300742 -0.093715206 -0.16545036 -0.19160539
-0.14628574 -0.15639035 -0.2999134 -0.0558595 -0.17272046 -0.23996325 -0.117797956 -0.06365788
-0.2458736 -0.0921785 -0.007530182 0.061556846 0.018514026 -0.12167673 0.0940744 0.022367902
-0.023939833 0.11555677 -0.008776703 0.072350755 0.07888171 0.044075467 0.077821665 0.08104884
0.08500317 0.049552586 0.019626986 0.023534877 0.060085956 0.07088292 0.055889416 0.049777232
0.0195083 0.051810503 0.09308157 0.086346045 0.04675953 0.10069611 0.0919285 0.027261853
00000000: 57f6 a7bd 58a2 173e ab02 80be 94eb c53d
00000010: bf89 f7bd 65f5 143e 8d61 08be ddfd d73d
00000020: 7e30 0cbd 47be f83b 5d7e 85bd b56a e73c
00000030: cac0 413d c1c4 1bbe f60e 083e 6634 e03c
00000040: 976e 8fbd 6ff7 61bd cf94 ee3d c646 11be
00000050: 010f b63d 37fb 333d 24c3 c13c dc70 cd3d
00000060: 96a8 503d 2403 b93c f10b 843d 8232 f0bd
00000070: c0dd 0abd e638 783c cdb2 a1bb c847 323b
00000080: 488e a63d 7d98 d63b f270 86bd 7516 0ebc
00000090: 190b 973d 649d 3b3d 68f9 d03d 5e75 7f3d
000000a0: 719d 9fbe d7f8 523e 8062 1e3e bbb0 433e
000000b0: 4530 023e 8416 d23a 886b 133d 4d3e 113e
000000c0: 2a78 dd3d 0521 6dbd 6059 183e 4640 7d3e
000000d0: adab bb3c 2027 383d 08e2 1d3d ebb9 153e
000000e0: 1650 673d 884e 453e e829 10be ea8f 123e
000000f0: ad08 c93d 5d5a 91bc bd92 d33d 5bdb d53d
00000100: 327b 1b3d 5fd1 043e af34 5e3d b0cb 5abd
00000110: 0d32 2b3e 1f87 f33d 4cbc 943d a143 a93c
00000120: 6994 533d 45f7 db3d 1e25 a4bd d5b4 623d
00000130: f7bc 293e a615 823d 53c9 68bd c7c7 df3d
00000140: 5181 a8bb d20e aabd f482 9b3d 25de 29bd
00000150: 02ea 4cbd 2f6f 9b3e 94ac 623d 9232 a2bc
00000160: 4e55 b83d a9d6 9c3a ec98 0ebc f7a3 9d3d
00000170: 8440 4fbd 286f 053d 909c 8e3e b38a 703d
00000180: 2e0e bbbc 6c15 793d 50aa cfbc 629c 3cbd
00000190: 02a4 793d 864f 21bd 8e22 3d3d 1086 633e
000001a0: 7900 4b3d 0200 4dbd a182 b83d 70e7 b8bc
000001b0: 5aff 1d3c 6bac 4dbd 811a 5f3d 3f55 14bd
000001c0: bb6b b5bd 8ddb b2bd 8b84 363d 5427 21bc
000001d0: 72f3 6e3d 3ea7 8abd 5b1a 723d b36b 043e
000001e0: 28c8 8cbd ccaf 393d e570 c9bc 1898 e73b
000001f0: e186 3a3d 2235 093e 0695 433b 157a 48bc
00000200: 63d1 c53d caab afbc 73e5 e53d 26ff 623c
00000210: 35d5 ffbc f022 6b3c 0f4b 973c 2e40 84bd
00000220: a791 293d 70ed 5c3d e6d8 e53c cb4c a6ba
00000230: c034 babc 0554 303d 6818 42bd 10bf 8c3d
00000240: b7f0 9f3c a7f8 383d 5aea 1abc d0a6 913c
00000250: 2858 003c 244a a83d 2416 afbc 9775 1e3d
00000260: 0ccb bbbc 2990 0c3e 3333 983d 7abf 083c
00000270: 8a9f 8dbb dcdc aabe 6d6f f83d 1aec 973d
00000280: fb79 0dbd 346e a1bd f7d9 c73c b494 493d
00000290: 0000 c1bd 60df d4bd ed48 61be e4c7 1dbe
000002a0: 82ca 1abc 5074 95bd dc87 85bd 151b 21be
000002b0: c160 b43d 07aa 11be b95b c1bd 497e b23d
000002c0: b6ad 4abe ab33 febc 206f 1abe 43cc 11be
000002d0: fe45 d2ba f152 40bc 22e2 ffbd 873e a9bd
000002e0: 4ff9 1d3d b5b9 49be 8ff6 ea3c bcd3 42be
000002f0: 4eec 02be 2249 98bb fb9f 80bd e87d e4bd
00000300: 4f27 2e3b e102 fcbd 48ab 14bd 220d 713d
00000310: 5f65 063c 864f c2bd 4618 e4bd 7f70 f6bc
00000320: 33d5 56be b9a3 2abe c806 c3bd 6499 22be
00000330: 0367 8dbd 8164 d5bd a70a 52be aa6e 00be
00000340: 60ff 50bd fc6c b3be b45f a5bd 79c2 9cbd
00000350: ad7a bebd c2ed bfbd d26b 29be 3434 44be
00000360: eecb 15be cb24 20be 408e 99be eecc 64bd
00000370: a2dd 30be edb8 75be 0e40 f1bd 105f 82bd
00000380: 4ac6 7bbe 15c8 bcbd bfbf f6bb 0823 7c3d
00000390: baaa 973c a631 f9bd 14aa c03d e43c b73c
000003a0: 781d c4bc 07a9 ec3d 29cc 0fbc a22c 943d
000003b0: bc8c a13d 7a88 343d f760 9f3d effc a53d
000003c0: 2416 ae3d a7f7 4a3d c6c8 a03c 37cc c03c
000003d0: b11c 763d 102b 913d 4dec 643d 36e3 4b3d
000003e0: dfcf 9f3c 4037 543d 8da1 be3d 32d6 b03d
000003f0: ec86 3f3d c339 ce3d 0245 bc3d 4054 df3c

conv0.conv.bias f4 [32]
-0.0035439683 -0.0040692636 0.013010504 -0.0004985039 0.0011477815 0.0016012447 -0.0045451876 0.0010224996
0.004646913 -0.00047932228 0.0022645514 0.0015253709 0.0009766957 0.0008485106 0.0015265477 0.0060611553
0.0029791603 -0.011551837 0.0077309846 -0.0028173076 -0.0011703738 -0.03538162 0.008680522 0.0020273943
0.005613385 0.00027476373 0.0032515244 0.009969452 -0.0021645308 0.0038151727 -0.0033840027 0.0006058325
00000000: ec41 68bb 7557 85bb 022a 553c 08ae 02ba
00000010: 2871 963a dbe0 d13a ccef 94bb 6505 863a
00000020: 2245 983b 8c4d fbb9 de68 143b f4ee c73a
00000030: 7804 803a 956e 5e3a 7116 c83a a89c c63b
00000040: 043e 433b eb43 3dbc 3354 fd3b 94a2 38bb
00000050: 3a67 99ba 51ec 10bd c038 0e3c 08de 043b
00000060: 7cf0 b73b 2a0e 9039 8717 553b ea56 233c
00000070: cdda 0dbb fa07 7a3b 25c6 5dbb bbd0 1e3a

conv0.bn.weight f4 [32]
0.90781534 0.8205248 0.8108432 0.8748545 0.81482774 0.85065025 0.82527715 0.88362575
0.92432356 0.85062385 0.83317256 0.80192894 0.84858906 0.92093474 0.8715713 0.99042255
0.8459926 1.1521945 0.8859963 0.8328836 0.8186271 0.9567242 0.85777974 0.84434956
0.9926796 0.85855836 0.89651287 0.8516443 0.9699341 0.8087626 0.8631741 0.84146005
00000000: 9666 683f ea0d 523f 6c93 4f3f 77f6 5f3f
00000010: 8d98 503f 37c4 593f 5d45 533f 4c35 623f
00000020: 78a0 6c3f 7cc2 593f cc4a 553f 374b 4d3f
00000030: 223d 593f 61c2 6b3f 4c1f 5f3f 558c 7d3f
00000040: f992 583f 1c7b 933f a7d0 623f dc37 553f
00000050: 8c91 513f e1eb 743f 7497 5b3f 4b27 583f
00000060: 4020 7e3f 7bca 5b3f de81 653f 5c05 5a3f
00000070: 9a4d 783f 110b 4f3f faf8 5c3f ed69 573f

conv0.bn.bias f4 [32]
-0.40220177 -0.10350773 -0.10402551 -0.35072944 -0.17564215 -0.083682984 -0.102139466 -0.19821541
-0.21462111 -0.24869181 -0.039557006 0.06453619 -0.0943841 -0.15691462 -0.20372179 -0.08927426
-0.08974472 0.025313737 -0.086021006 -0.141967 -0.11650572 0.0673937 -0.2497386 -0.15083538
-0.051426847 -0.09448825 -0.16476808 -0.07065409 -0.16669004 0.08657376 -0.0655679 0.0103075765
00000000: 64ed cdbe dcfb d3bd 540b d5bd cf92 b3be
00000010: 89db 33be fc61 abbd 7f2e d1bd fbf8 4abe
00000020: a3c5 5bbe 11a9 7ebe 8706 22bd 8d2b 843d
00000030: 734c c1bd 3aae 20be 729c 50be 6cd5 b6bd
00000040: 14cc b7bd c15e cf3c c82b b0bd cc5f 11be
00000050: 8d9a eebd b505 8a3d 7abb 7fbe 9774 1abe
00000060: f5a4 52bd 0e83 c1bd f7b8 28be 17b3 90bd
00000070: cbb0 2abe 954d b13d 7748 86bd 1ce1 283c

conv0.bn.running_mean f4 [32]
0.14333783 0.05956039 -0.007489065 -0.05809137 0.004546476 -0.006422649 -0.11351457 0.16925788
-0.040161125 -0.03823395 -0.000722117 0.04328712 0.013868829 -0.007495004 0.04449447 0.11903569
0.08715181 -0.08843696 -0.09829101 -0.048528753 0.008093774 -0.042215 -0.06721677 0.04730296
-0.0412516 -0.0576349 -0.026591884 -0.020907573 0.1523186 0.080253884 -0.07543971 0.07816591
00000000: 27c7 123e 98f5 733d d566 f5bb 37f1 6dbd
00000010: 9bfa 943b 1675 d2bb 547a e8bd f051 2d3e
00000020: fe7f 24bd 349b 1cbd 744c 3dba d64d 313d
00000030: 163a 633c a798 f5bb d53f 363d fcc8 f33d
00000040: a67c b23d 701e b5bd cc4c c9bd 16c6 46bd
00000050: c09b 043c a3e9 2cbd f2a8 89bd c0c0 413d
00000060: 70f7 28bd 9312 6cbd 39d7 d9bc 5c46 abbc
00000070: 68f9 1b3e 265c a43d 2280 9abd 7315 a03d

conv0.bn.running_var f4 [32]
0.03557239 0.026550166 0.03337523 0.026418269 0.022071661 0.029989358 0.056687765 0.031271968
0.030926814 0.030994246 0.035318032 0.034190055 0.030394442 0.021228766 0.035483092 0.026426714
0.025383677 0.04182919 0.045343105 0.026613815 0.035413336 0.030477598 0.028789613 0.025562152
0.026730163 0.032569613 0.031490166 0.025956279 0.037112325 0.030658266 0.03363059 0.032054402
00000000: 5bb4 113d bc7f d93c 77b4 083d 206b d83c
00000010: a1cf b43c 3eac f53c 6e31 683d 0917 003d
00000020: 3b5a fd3c a5e7 fd3c a4a9 103d df0a 0c3d
00000030: c4fd f83c f3e7 ad3c b856 113d d67c d83c
00000040: 6ef1 cf3c 1655 2b3d b1b9 393d 3705 da3c
00000050: 930d 113d 28ac f93c 32d8 eb3c b867 d13c
00000060: 37f9 da3c b767 053d d5fb 003d 43a2 d43c
00000070: 1803 183d 0b27 fb3c 3bc0 093d 7a4b 033d

blocks.0.conv.weight f4 [32, 32, 3, 3]
0.11877168 0.020986998 0.02736476 -0.16202185 0.08990117 -0.09757417 0.10158718 -0.04096543
-0.020323893 0.18513073 0.03768223 -0.0060785213 -0.10564824 -0.08773146 0.022675676 0.119962506
-0.07052056 -0.003915155 0.092155695 0.0031150035 0.0514038 -0.11614451 0.02227096 -0.11649597
0.04283807 -0.026309414 0.013722032 0.04578914 0.036656648 0.013142969 -0.09603064 -0.017234145
0.01034237 -0.08939898 -0.057316795 0.030945022 0.051826883 0.15920961 -0.03641887 0.09286299
0.005332281 0.03868332 -0.057997055 -0.13484804 -0.03308815 0.06908018 -0.0037880705 0.020900918
0.027849104 0.006831983 0.022590164 -0.016067198 0.0032103567 0.1281039 0.010305616 -0.038415074
0.07285499 0.02824755 0.044556476 -0.104874186 0.06576697 -0.023840154 0.02522585 0.15484524
0.013369539 0.15465838 0.02507984 0.14543898 -0.04808587 0.053618297 -0.01604936 -0.03831766
0.024123307 -0.24354304 0.02257571 -0.104621366 0.042806543 -0.014146624 -0.025768492 0.16934878
-0.037347812 -0.06093355 0.0026058746 0.0327217 0.026425932 0.15104504 0.041294362 0.10371232
0.03942557 0.026037466 -0.056541063 -0.14723842 0.06654545 0.031433295 0.07524851 -0.030297497
0.08177062 0.023862477 -0.04339305 0.013739852 0.119320296 0.26696533 -0.099242486 0.093160905
0.08164137 0.093771435 -0.003093558 0.014952557 -0.11769497 0.018419689 0.124421895 0.08420506
0.13047636 -0.00049395533 -0.01575683 0.08101516 -0.100311086 -0.07873015 -0.03906223 -0.12069362
-0.12205848 -0.049774524 -0.09302437 -0.05653758 0.03392598 0.025703128 -0.19340245 0.14468735
-0.078067556 -0.0029354473 -0.06973167 -0.022569947 0.071095966 -0.10083658 -0.123292655 0.044932976
0.02982135 0.038382765 0.10057184 -0.015945736 -0.074880846 0.007264933 0.12036891 -0.0038371647
0.009994101 0.0182533 0.048926834 0.061535496 -0.10037537 -0.022045406 0.059221745 0.16047858
0.012713145 0.070749275 -0.018651119 -0.088224694 0.022460302 -0.46734574 0.030241529 0.04598714
-0.012235929 0.0793261 0.048047267 0.12700067 0.058865026 0.18215747 -0.05540615 -0.0819911
-0.09021664 0.03925351 0.10822102 -0.01458164 0.04733188 0.036871396 -0.17880891 0.09543526
-0.083126195 0.014567601 0.10983704 -0.06271193 -0.032511704 -0.06308305 0.08380506 0.030415986
-0.11405729 -0.19337001 0.087550424 0.0019348753 -0.11237087 0.06905546 -0.042787798 0.077214
0.044640984 -0.086802 0.06720628 0.0312701 0.056629587 0.18243891 -0.010235801 0.0040640375
-0.045161363 -0.07866286 0.10686501 0.06412056 0.040522143 -0.07706846 0.014236352 -0.086861774
0.032997906 0.0186736 -0.030678965 0.037740856 0.0956258 -0.18212196 0.025392221 0.18285538
0.002586483 0.11673342 -0.07377489 0.109054804 0.06744178 0.0998006 -0.019202461 -0.04122573
0.00021540666 -0.05181425 -0.054951325 -0.089464344 -0.030734869 -0.006878967 -0.1918018 -0.020952282
-0.02234359 0.02274759 0.007793318 0.07661375 -0.048629243 -0.13642024 -0.041017145 -0.045698654
-0.030268732 -0.034514613 -0.039376378 0.024074515 -0.022440007 0.039426908 -0.036476962 -0.07157207
-0.0077268863 0.041655164 -0.0012778161 -0.04220383 0.06795174 -0.046722762 0.12609015 -0.03468621
00000000: 913e f33d edec ab3c 102c e03c 0ee9 25be
00000010: 1b1e b83d f7d4 c7bd f00c d03d 5ecb 27bd
00000020: 4b7e a6bc e992 3d3e af58 1a3d 552e c7bb
00000030: 1b5e d8bd 8dac b3bd 57c2 b93c e7ae f53d
00000040: 156d 90bd b34a 80bb 20bc bc3d 1625 4c3b
00000050: ca8c 523d 2cdd edbd 9771 b63c 7095 eebd
00000060: f976 2f3d d786 d7bc 60d2 603c 658d 3b3d
00000070: 4825 163d 9c55 573c b6ab c4bd 9f2e 8dbc
00000080: 0b73 293c d016 b7bd 04c5 6abd 6a80 fd3c
00000090: 6d48 543d d807 233e f42b 15bd f42e be3d
000000a0: 6aba ae3b 6772 1e3d 528e 6dbd 9b15 0abe
000000b0: 7187 07bd e979 8d3d 4741 78bb 6738 ab3c
000000c0: ce23 e43c d4de df3b 020f b93c 5b9f 83bc
000000d0: d964 523b ab2d 033e e3d8 283c 2059 1dbd
000000e0: ff34 953d 6867 e73c da80 363d 47c8 d6bd
000000f0: d5b0 863d 6d4c c3bc 71a6 ce3c c08f 1e3e
00000100: e90b 5b3c c45e 1e3e 3d74 cd3c f5ed 143e
00000110: b0f5 44bd dc9e 5b3d f379 83bc fbf2 1cbd
00000120: 3e9e c53c 5963 79be b2f0 b83c ba43 d6bd
00000130: ea55 2f3d 3ec7 67bc 7218 d3bc c469 2d3e
00000140: 05fa 18bd 7595 79bd 52c7 2a3b 3007 063d
00000150: 327b d83c 8dab 1a3e 4724 293d 2067 d43d
00000160: b57c 213d 864c d53c 9a97 67bd abc5 16be
00000170: fb48 883d 33c0 003d e41b 9a3d 7532 f8bc
00000180: 5b77 a73d 3e7b c33c e9bc 31bd 1e1d 613c
00000190: 335e f43d aeaf 883e a53f cbbd 25cb be3d
000001a0: 9733 a73d 3d0b c03d 4abd 4abb 92fb 743c
000001b0: 0f0a f1bd e3e4 963c e8d0 fe3d b473 ac3d
000001c0: 989b 053e c87c 01ba 7814 81bc 47eb a53d
000001d0: e66f cdbd 463d a1bd b8ff 1fbd 372e f7bd
000001e0: ccf9 f9bd 5fe0 4bbd 9083 bebd f393 67bd
000001f0: f8f5 0a3d 5e8f d23c 4b0b 46be ec28 143e
00000200: e2e1 9fbd a260 40bb 7acf 8ebd 9ce4 b8bc
00000210: c39a 913d 6983 cebd dc80 fcbd a40b 383d
00000220: e74b f43c 3f37 1d3d 9cf8 cd3d a2a0 82bc
00000230: 215b 99bd ad0e ee3b fa83 f63d f178 7bbb
00000240: 4cbe 233c f287 953c 8167 483d a50c 7c3d
00000250: 9a91 cdbd 9198 b4bc 8092 723d 7f54 243e
00000260: cc4a 503c ffe4 903d 3bca 98bc 26af b4bd
00000270: abfe b73c f147 efbe 15bd f73c 035d 3c3d
00000280: 3579 48bc b975 a23d 36cd 443d 770c 023e
00000290: 741c 713d 7d87 3a3e 8ff1 62bd f3ea a7bd
000002a0: 80c3 b8bd 4ac8 203d fba2 dd3d d5e7 6ebc
000002b0: 13df 413d 7606 173d af19 37be 9073 c33d
000002c0: 113e aabd f2ac 6e3c 3ef2 e03d 1d6f 80bd
000002d0: fe2a 05bd b031 81bd fda1 ab3d f22a f93c
000002e0: de96 e9bd ca02 46be a34d b33d a49b fd3a
000002f0: b322 e6bd f36c 8d3d 4242 2fbd 6022 9e3d
00000300: 77d9 363d 3fc5 b1bd 72a3 893d 1415 003d
00000310: 6df4 673d 44d1 3a3e 10b4 27bc 9e2b 853b
00000320: 1ffb 38bd fe19 a1bd 0bdc da3d a451 833d
00000330: 8cfa 253d 12d6 9dbd 973f 693c 96e4 b1bd
00000340: d028 073d 61f9 983c 7452 fbbc 2896 1a3d
00000350: 76d7 c33d 2e7e 3abe 5903 d03c 713e 3b3e
00000360: fc81 293b ee11 ef3d 4a17 97bd 2058 df3d
00000370: ea1e 8a3d 4264 cc3d 7b4e 9dbc 50dc 28bd
00000380: c9de 6139 2e3b 54bd a414 61bd 1539 b7bd
00000390: b1c7 fbbc f568 e1bb b167 44be 1fa4 abbc
000003a0: e809 b7bc 2759 ba3c 175f ff3b abe7 9c3d
000003b0: 752f 47bd bfb1 0bbe 9801 28bd 832e 3bbd
000003c0: 22f6 f7bc 325f 0dbd 2049 21bd eb37 c53c
000003d0: 1bd4 b7bc 1c7e 213d de68 15bd 6194 92bd
000003e0: d231 fdbb 9b9e 2a3d 657c a7ba ecdd 2cbd
000003f0: 482a 8b3d 5e60 3fbd c71d 013e 2113 0ebd

blocks.0.conv.bias f4 [32]
0.001782964 0.0005784833 5.559447e-05 -0.0010279953 0.0018589518 0.0015274634 -0.0018320896 -0.0035279386
0.005052421 0.0033654813 0.00013379093 -0.0018825354 -0.0027832112 -0.0005528048 0.00034447023 -0.00051901967
-7.536083e-05 0.0008202795 -0.000112901165 -6.413442e-05 3.1324853e-05 0.005081884 0.00018624868 -0.004617381
0.0010679998 -0.004695967 1.2698013e-05 -0.0084697185 -0.002067238 0.0002044613 -0.0017946981 6.3847133e-06
00000000: 58b2 e93a 5ba5 173a 1c2e 6938 ccbd 86ba
00000010: 12a8 f33a 2b35 c83a ba22 f0ba fd34 67bb
00000020: c78e a53b 688f 5c3b 3b4a 0c39 68bf f6ba
00000030: 8966 36bb 1aea 10ba 039a b439 d20e 08ba
00000040: 0a0b 9eb8 0708 573a 5ac5 ecb8 e87f 86b8
00000050: ce62 0338 ef85 a63b c04b 4339 664d 97bb
00000060: 20fc 8b3a a0e0 99bb 8d09 5537 93c4 0abc
00000070: 807a 07bb aa64 5639 133c ebba 453c d636

blocks.0.bn.weight f4 [32]
0.8850593 0.8910867 0.874523 0.933715 1.0610636 0.9275171 0.8904926 0.90266335
0.90864164 0.95305425 0.95834166 0.9913115 0.91661173 0.9011571 0.8988083 0.88321066
0.98319626 0.9822268 0.92339367 0.97668076 0.9448435 0.87367684 0.94475365 0.9237876
0.9199177 0.9895346 1.062184 1.1144007 0.91554904 0.89252615 0.8521491 0.99808615
00000000: 3f93 623f 421e 643f bde0 5f3f f207 6f3f
00000010: efd0 873f c371 6d3f 53f7 633f f214 673f
00000020: bd9c 683f 5dfb 733f e155 753f 97c6 7d3f
00000030: 11a7 6a3f 3bb2 663f 4d18 663f 181a 623f
00000040: c0b2 7b3f 3773 7b3f 8763 6c3f c007 7a3f
00000050: 43e1 713f 49a9 5f3f 60db 713f 587d 6c3f
00000060: ba7f 6b3f 2452 7d3f a5f5 873f afa4 8e3f
00000070: 6c61 6a3f 987c 643f 7226 5a3f 9382 7f3f

blocks.0.bn.bias f4 [32]
-0.30844942 -0.2768436 -0.09177667 -0.18895602 -0.2049126 -0.040256817 -0.13964 -0.19225232
-0.22094145 -0.29950345 -0.15406941 -0.2717712 -0.31024313 -0.3473679 -0.17959267 -0.2213925
-0.34496108 -0.25244108 -0.05589339 -0.3767658 -0.334308 -0.10946784 -0.36580923 -0.22092055
-0.21740693 -0.3151752 -0.20952684 -0.25276116 -0.40107492 -0.23239334 0.03047138 -0.26739287
00000000: 15ed 9dbe 72be 8dbe 68f5 bbbd b07d 41be
00000010: 9cd4 51be 55e4 24bd cafd 0ebe cbdd 44be
00000020: 7a3e 62be 8458 99be 5fc4 1dbe 9825 8bbe
00000030: 30d8 9ebe 35da b1be 24e7 37be b7b4 62be
00000040: bd9e b0be f53f 81be 78f0 64bd 72e7 c0be
00000050: 6b2a abbe ad30 e0bd 594b bbbe ff38 62be
00000060: ec9f 5ebe a55e a1be 348e 56be e969 81be
00000070: b159 cdbe 85f8 6dbe 1e9f f93c b8e7 88be

blocks.0.bn.running_mean f4 [32]
0.48969516 -1.0527444 0.4258707 0.26560274 -0.5882004 -0.54005957 -1.1608226 -1.136406
-1.1219515 -0.8364779 0.16753212 -0.51186454 -1.2644006 0.783603 1.3230594 0.023176374
-0.19473386 -0.69374084 0.8330644 -0.19252308 -0.21226913 -0.8033049 -0.79495007 -0.21688871
-0.3664645 -1.216892 -0.16678803 -0.731342 -1.8266916 -0.06685614 0.54088557 -1.8723378
00000000: 53b9 fa3e 54c0 86bf b90b da3e 15fd 873e
00000010: 4d94 16bf 5841 0abf d695 94bf c075 91bf
00000020: 1b9c 8fbf 6a23 56bf 8a8d 2b3e 8e09 03bf
00000030: e1d7 a1bf 359a 483f 035a a93f 61dc bd3c
00000040: 5068 47be 0099 31bf b543 553f c524 45be
00000050: 145d 59be 64a5 4dbf d981 4bbf 1318 5ebe
00000060: 3ca1 bbbe 1ec3 9bbf 7bca 2abe 3b39 3bbf
00000070: 08d1 e9bf dfeb 88bd 7a77 0a3f c4a8 efbf

blocks.0.bn.running_var f4 [32]
0.874198 0.7439135 1.0631171 0.9723585 2.4691603 1.3729492 1.0940305 0.9009252
1.1943365 0.66770154 0.8234578 0.84299606 0.9978841 0.8124302 1.1248066 0.89759403
0.64023614 1.6514434 0.97622675 0.80777943 0.579467 1.2725887 0.7739066 0.76448536
1.6900438 0.9435149 0.8936738 1.0082655 1.0800045 0.7887808 1.159645 1.296471
00000000: 71cb 5f3f 1d71 3e3f 3914 883f 7dec 783f
00000010: b906 1e40 cdbc af3f 3109 8c3f 09a3 663f
00000020: 05e0 983f 7dee 2a3f 21ce 523f 97ce 573f
00000030: 5575 7f3f 6dfb 4f3f aaf9 8f3f b9c8 653f
00000040: 84e6 233f 7f62 d33f ffe9 793f a2ca 4e3f
00000050: f357 143f 30e4 a23f be1e 463f 50b5 433f
00000060: 5b53 d83f 318a 713f cec7 643f d80e 813f
00000070: 963d 8a3f 8aed 493f 3f6f 943f c3f2 a53f

blocks.1.conv.weight f4 [32, 32, 3, 3]
-0.0070819217 -0.09942906 -0.10346329 -0.10158306 0.046244442 -0.04788139 0.047880884 -0.14853394
-0.02719456 0.038593568 0.012356892 -0.15199304 -0.1405761 -0.028718874 -0.18500677 0.09507022
-0.02178448 -0.124419734 0.06828489 -0.059891697 -0.00024809188 -0.17319033 -0.19374362 -0.10335605
-0.026864825 0.026074737 0.06223242 0.16442563 0.10650733 0.058833733 -0.075955614 0.043891214
-0.0004299054 0.044410523 -0.051933333 -0.010643589 0.1305463 0.10868831 -0.021695489 0.15860179
0.04231504 -0.017304573 0.16390623 0.07910645 -0.04106326 -0.18155509 -0.04879704 0.008816969
0.069784105 0.004061818 -0.04478121 -0.033302505 -0.036886927 0.017115701 -0.13876678 -0.07675515
0.10476158 -0.03256254 -0.085023895 -0.11777455 -0.07576408 -0.030323902 -6.504786e-05 0.12644906
-0.18782036 0.05704496 0.035206817 0.07069537 -0.083507046 0.022796454 0.10948188 0.08129997
0.06715398 -0.049996868 0.0858618 -0.15737 0.041544747 0.01609926 -0.055191014 -0.028786594
-0.021589024 0.057595335 0.07553977 0.036109906 0.10692717 0.003992212 -0.17383283 0.11424991
0.06601131 -0.17560719 0.1360154 -0.07104643 0.04152634 -0.013892255 -0.12985043 0.097252846
0.019345038 -0.102665156 0.07074881 0.06576996 0.11075926 0.042786513 0.0095423395 0.010564526
0.019445315 -0.01807419 -0.110887714 -0.14095366 0.09394923 0.12617953 -0.13627599 0.024167217
0.12472649 0.11231493 -0.0013172289 0.029824508 0.13723965 -0.24449131 -0.18185869 -0.09787912
-0.10298058 -0.12675399 -0.019421026 -0.08822016 -0.06627523 -0.11798795 0.10528544 0.0027632301
-0.18575764 0.040912323 -0.028166067 0.055830635 0.046500374 -0.016852269 -0.13081203 -0.08989614
-0.07591457 -0.10873186 -0.12900527 -0.09221085 -0.082728595 -0.047299374 -0.067627035 -0.023070442
-0.00873189 -0.089529864 -0.10209035 -0.077091336 -0.055469416 0.04839194 -0.0139232455 0.012898561
-0.01780288 0.0960769 -0.02930838 -0.101757176 0.035471186 -0.27274805 0.019975938 -0.02190841
-0.14751673 -0.039479397 0.00069821824 0.0067759966 -0.032556932 0.046439387 -0.014811998 0.03616018
0.07885573 0.1876886 -0.073752865 -0.09997966 0.111346126 -0.0797654 0.06415678 -0.04772817
0.06118947 -0.20256184 -0.0050123124 -0.07699104 -0.14250176 -0.044379756 -0.012217627 0.03255982
-0.16504888 -0.0024120538 0.034559585 -0.06630158 -0.10202869 -0.03490596 -0.015995428 -0.20607333
-0.0028928842 -0.004349813 -0.045281693 0.01777187 -0.047879063 -0.06881812 0.046219323 0.0070146495
0.031195274 -0.106767125 -0.16265154 -0.033441808 -0.06573444 -0.08515007 0.16812746 -0.034796014
0.031443555 0.10228596 -0.10271557 -0.15031517 -0.079695165 -0.049670782 -0.2010715 -0.036941495
-0.042175557 0.023323102 -0.15811653 0.03905615 -0.078262076 -0.049111694 -0.13706775 0.005694449
0.0047229533 -0.023799768 0.01771965 -0.09885078 -0.11118444 -0.04867584 -0.04430425 -0.118786365
0.107364014 0.0043612393 -0.029685622 0.011065286 0.025459269 -0.07229717 -0.021365419 -0.090569414
0.029212514 0.057770874 -0.02534003 -0.00884253 0.040737767 0.0044250274 0.20155543 -0.012928958
0.15084751 0.05449985 0.008572352 -0.020952469 -0.051708378 0.0072977333 0.12867826 -0.17083427
00000000: 770f e8bb 77a1 cbbd 90e4 d3bd c80a d0bd
00000010: d06a 3d3d 471f 44bd bf1e 443d 4819 18be
00000020: 20c7 debc 4a14 1e3d 9074 4a3c 10a4 1bbe
00000030: 2ef3 0fbe d843 ebbc 6a72 3dbe 2db4 c23d
00000040: 5e75 b2bc c6cf febd f3d8 8b3d ff50 75bd
00000050: 5412 82b9 ce58 31be ba64 46be 56ac d3bd
00000060: 9f13 dcbc b09a d53c 6ce7 7e3d 315f 283e
00000070: 8420 da3d a4fb 703d 9e8e 9bbd 46c7 333d
00000080: ed64 e1b9 cfe7 353d 0cb8 54bd 7362 2ebc
00000090: eead 053e fa97 de3d bdba b1bc 8268 223e
000000a0: 8952 2d3d 52c2 8dbc 09d7 273e 9002 a23d
000000b0: f331 28bd 94e9 39be 68df 47bd 0c75 103c
000000c0: f8ea 8e3d 0019 853b 816c 37bd 3568 08bd
000000d0: bf16 17bd 3a36 8c3c e118 0ebe ce31 9dbd
000000e0: 3d8d d63d 4c60 05bd 0221 aebd c933 f1bd
000000f0: 332a 9bbd d569 f8bc 4e6a 88b8 dd7b 013e
00000100: fb53 40be faa7 693d 0635 103d bcc8 903d
00000110: be05 abbd a1bf ba3c 0938 e03d 9980 a63d
00000120: 0788 893d 84c9 4cbd 50d8 af3d 9a25 21be
00000130: d32a 2a3d 98e2 833c f90f 62bd ddd1 ebbc
00000140: 77db b0bc 16e9 6b3d 98b4 9a3d fbe7 133d
00000150: a2fc da3d 1ad1 823b 3c01 32be dbfb e93d
00000160: f030 873d 5fd2 33be 9f47 0b3e ca80 91bd
00000170: 8617 2a3d 579c 63bc 83f7 04be 802c c73d
00000180: 7c79 9e3c 1c42 d2bd c1e4 903d 67b2 863d
00000190: c0d5 e23d e940 2f3d 7957 1c3c d516 2d3c
000001a0: c84b 9f3c 5310 94bc 1919 e3bd 2856 10be
000001b0: 7468 c03d 3535 013e ef8b 0bbe 54fa c53c
000001c0: 9a70 ff3d 5f05 e63d dea6 acba 8752 f43c
000001d0: 8d88 0c3e ee5b 7abe 2a39 3abe d974 c8bd
000001e0: 7be7 d2bd cccb 01be d818 9fbc c5ac b4bd
000001f0: 4fbb 87bd aba3 f1bd e59f d73d 4f17 353b
00000200: 4037 3ebe ae93 273d 86bc e6bc aaae 643d
00000210: 2d77 3e3d c50d 8abc 97f3 05be 781b b8bd
00000220: 1979 9bbd cfae debd f519 04be 0bd9 bcbd
00000230: 9c6d a9bd fdbc 41bd 0b80 8abd 39fe bcbc
00000240: 3310 0fbc 6f5b b7bd bf14 d1bd 10e2 9dbd
00000250: e633 63bd a036 463d 531e 64bc 7c54 533c
00000260: 58d7 91bc f7c3 c43d 2118 f0bc 1166 d0bd
00000270: 3c4a 113d a2a5 8bbe 94a4 a33c 4479 b3bc
00000280: a00e 17be 26b5 21bd a208 373a 2e09 de3b
00000290: 6b5a 05bd 3a37 3e3d 06ae 72bc b21c 143d
000002a0: 1d7f a13d 7131 403e be0b 97bd 23c2 ccbd
000002b0: 7009 e43d 0b5c a3bd a164 833d 9d7e 43bd
000002c0: cfa1 7a3d 5f6c 4fbe 533e a4bb 7aad 9dbd
000002d0: fbeb 11be 8cc7 35bd 712c 48bc 725d 053d
000002e0: 9302 29be 8c13 1ebb 5a8e 0d3d 1fc9 87bd
000002f0: 6bf4 d0bd 8df9 0ebd d808 83bc e304 53be
00000300: 8b96 3dbb e088 8ebb 4c79 39bd 5096 913c
00000310: d61c 44bd 84f0 8cbd 7950 3d3d 25db e53b
00000320: 3b8d ff3c b9a8 dabd 208e 26be 47fa 08bd
00000330: c79f 86bd 2963 aebd 9b29 2c3e 4486 0ebd
00000340: f5ca 003d 4d7b d13d 8a5c d2bd 38ec 19be
00000350: 3837 a3bd 9773 4bbd b0e5 4dbe f74f 17bd
00000360: 47c0 2cbd 1710 bf3c 4de9 21be 57f9 1f3d
00000370: de47 a0bd 5829 49bd 7d5b 0cbe 8098 ba3b
00000380: 01c3 9a3b bbf7 c2bc cd28 913c 4772 cabd
00000390: abb4 e3bd 5160 47bd 6078 35bd 4446 f3bd
000003a0: aae1 db3d bae8 8e3b 432f f3bc 2c4b 353c
000003b0: f58f d03c 8a10 94bd 8806 afbc 757c b9bd
000003c0: 154f ef3c 27a1 6c3d e595 cfbc 42e0 10bc
000003d0: a5dc 263d d2ff 903b 8c64 4e3e fbd3 53bc
000003e0: c577 1a3e 3c3b 5f3d 0d73 0c3c 83a4 abbc
000003f0: 2acc 53bd d321 ef3b 3cc4 033e 2eef 2ebe

blocks.1.conv.bias f4 [32]
0.00054829573 -0.00047034732 0.00021868835 -0.00072551466 -0.0012669442 -0.0026364212 0.0024872636 0.0018902959
-0.0035048842 0.000126772 -0.0003917228 -0.00049783965 0.0031646418 0.00044308347 2.8128969e-05 0.00038933946
-0.0035566725 -0.00049343845 0.007868405 -0.007996305 -4.5410834e-05 -0.0042565744 -0.00041881533 -0.0005035747
-0.0018938779 0.0064508463 6.0358754e-05 -0.0018842587 -4.0757943e-05 0.0002124313 1.20561745e-05 0.00011346013
00000000: 81bb 0f3a f398 f6b9 b54f 6539 7730 3eba
00000010: 980f a6ba cfc7 2cbb 5c01 233b cec3 f73a
00000020: 33b2 65bb 1aee 0439 2560 cdb9 7481 02ba
00000030: e165 4f3b a84d e839 80f6 eb37 4220 cc39
00000040: 1017 69bb 185a 01ba 7cea 003c ef02 03bc
00000050: 8377 3eb8 bc7a 8bbb 7194 dbb9 5302 04ba
00000060: ff3b f8ba 9f61 d33b b829 7d38 3bf9 f6ba
00000070: 82f3 2ab8 18c0 5e39 e044 4a37 72f1 ed38

blocks.1.bn.weight f4 [32]
0.8919704 0.93546605 0.8610136 1.0421723 1.0156991 0.87200624 0.8701164 0.95163584
1.0711418 0.94362605 0.91967785 1.0462465 0.9261944 0.96750075 1.025048 0.9439949
0.9932084 0.87581974 0.9995658 0.9616253 0.9425019 0.8284429 1.089596 1.1472242
1.1422411 1.0220296 0.92929405 0.9223711 0.97776383 0.91383135 0.74483186 1.0134338
00000000: 2c58 643f b47a 6f3f 636b 5c3f e765 853f
00000010: 6e02 823f cd3b 5f3f f3bf 5e3f 689e 733f
00000020: 2d1b 893f 7a91 713f 0270 6b3f 68eb 853f
00000030: 141b 6d3f 21ae 773f c634 833f a6a9 713f
00000040: e842 7e3f b935 603f 8be3 7f3f 132d 763f
00000050: ce47 713f d514 543f e277 8b3f 3ed8 923f
00000060: f534 923f ded1 823f 37e6 6d3f 8320 6c3f
00000070: bb4e 7a3f daf0 693f 4dad 3e3f 33b8 813f

blocks.1.bn.bias f4 [32]
-0.29205754 -0.28746837 -0.17972115 -0.09290998 -0.26922536 -0.04708987 -0.22447541 -0.26431096
-0.32300174 -0.24707961 -0.1713282 -0.32606772 -0.32730648 -0.28616342 -0.39174503 -0.21605343
-0.47726664 -0.32171467 -0.31823263 -0.3012916 -0.3640784 -0.3383312 -0.3399889 -0.21924275
-0.3640576 -0.16794683 -0.1764554 -0.1548747 -0.26388645 -0.4271924 -0.02743131 -0.32034943
00000000: 9188 95be 0e2f 93be d208 38be 9647 bebd
00000010: e8d7 89be 4fe1 40bd e2dc 65be c453 87be
00000020: 7c60 a5be 7002 7dbe a970 2fbe 59f2 a6be
00000030: b794 a7be 0384 92be ce92 c8be 1c3d 5dbe
00000040: 4b5c f4be c9b7 a4be 63ef a2be e542 9abe
00000050: 7c68 babe bf39 adbe 0613 aebe 2c81 60be
00000060: c265 babe 41fa 2bbe b9b0 34be 7997 1ebe
00000070: 201c 87be f6b8 dabe a0b7 e0bc d704 a4be

blocks.1.bn.running_mean f4 [32]
-2.5272827 -1.0190202 -0.5330242 -1.3445822 -1.456645 -0.4122282 1.692004 -1.160831
-1.7136698 0.037375484 1.1472367 -1.1512561 -0.13001625 0.7096693 -0.5566429 -2.0405593
-0.5663306 0.0709848 -2.3852434 -0.04929537 0.14420594 -1.1697648 0.104041055 -0.30544138
-0.021732815 0.10533418 0.107374385 0.11867006 0.3670273 -0.18444856 1.4696875 0.26767
00000000: 00bf 21c0 416f 82bf 4674 08bf 451b acbf
00000010: 5873 babf 930f d3be 9693 d83f 1c96 94bf
00000020: 8859 dbbf 0917 193d a7d8 923f 5c5c 93bf
00000030: fb22 05be e3ac 353f 2680 0ebf 8698 02c0
00000040: 0bfb 10bf 7b60 913d d4a7 18c0 f1e9 49bd
00000050: b9aa 133e daba 95bf 7a13 d53d d062 9cbe
00000060: 0409 b2bc 72b9 d73d 1ae7 db3d 4a09 f33d
00000070: 01eb bb3e 15e0 3cbe b81e bc3f 0b0c 893e

blocks.1.bn.running_var f4 [32]
2.2483888 1.3394183 1.6964338 1.6156281 4.3217254 2.6475043 2.0662358 2.490191
1.9302955 1.2991439 3.3371255 1.737779 1.9994873 2.1152408 2.711957 5.220245
1.7584214 1.5784261 1.6297054 1.8479105 1.557043 2.5299094 2.037118 1.9414494
1.8468843 2.100342 1.4247448 2.2430034 3.6027799 2.094461 4.223112 1.6718684
00000000: 9ae5 0f40 0f72 ab3f be24 d93f e7cc ce3f
00000010: 934b 8a40 b670 2940 353d 0440 4a5f 1f40
00000020: ec13 f73f 594a a63f 7793 5540 8b6f de3f
00000030: 33ef ff3f 1b60 0740 b490 2d40 3f0c a740
00000040: f413 e13f de09 ca3f 309a d03f 5588 ec3f
00000050: 2f4d c73f 09ea 2140 2460 0240 6a81 f83f
00000060: b466 ec3f 016c 0640 0a5e b63f 5e8d 0f40
00000070: f293 6640 a60b 0640 bc23 8740 c9ff d53f

blocks.2.conv.weight f4 [32, 32, 3, 3]
0.068752415 -0.11875097 -0.14128874 -0.024972308 -0.10911609 -0.020472541 -0.04882094 -0.076021954
-0.02572755 -0.071999446 0.00056728406 -0.09371398 -0.005303427 -0.02251755 -0.05692892 0.07265294
-0.083645925 -0.19472367 -0.05833228 -0.00956848 0.024032494 -0.0608467 -0.10792787 -0.0069441446
-0.01634229 -0.08532011 -0.00080932543 0.08786074 -0.0015526208 0.09415122 0.02714884 0.007669942
0.13705103 0.017215006 0.10797763 0.11958613 -0.049397808 -0.078581445 0.19408993 0.02951418
0.18224888 0.018070402 0.1680359 -0.022378396 0.03329116 -0.15148175 0.0054233717 0.17099597
0.17516834 0.0678762 0.12349562 -0.019580686 -0.114267275 0.005443472 -0.10584506 0.09733599
0.015473125 0.030743785 0.005766002 -0.04171989 -0.02927005 -0.07553901 -0.23145163 -0.08825127
-0.04682127 0.05862443 -0.02118443 0.02583305 -0.044208214 0.022091528 0.10028533 0.029081905
0.042421192 -0.08059212 0.07848165 0.14573725 -0.10123377 0.0017906108 0.120822795 -0.17772754
0.035729405 0.04216126 0.09504674 -0.08341762 0.04183012 -0.09457053 -0.05464944 0.008251664
-0.084480464 -0.17568582 -0.08851756 -0.16249427 -0.02987066 -0.065672174 -0.13047993 -0.059967343
-0.012251783 0.017062854 -0.06757023 0.16513562 0.057659727 0.02521957 0.100764476 0.09598855
-0.085837565 0.0013523077 -0.053771604 0.09701823 0.13862304 0.08334207 0.10755425 0.11233269
0.098576486 0.13259348 -0.07885581 0.117767565 0.09858205 -0.13022025 -0.17708208 -0.29008016
-0.10707861 -0.019827265 -0.055393968 -0.049683757 -0.079259016 -0.17548224 -0.015293247 -0.071424715
-0.22551309 -0.1390181 -0.11365675 0.09961311 -0.14362684 0.1727737 -0.026011052 -0.14779702
0.023419838 -0.11891498 -0.040221516 -0.0107251415 -0.051212102 0.16903503 -0.052714508 0.0710229
-0.005498626 -0.05282815 -0.009878395 -0.07699906 -0.008379139 0.06084659 0.05146009 -0.08890857
0.005599274 -0.015168825 -0.07248348 -0.034117956 0.04730023 0.02643514 0.0812638 -0.11290858
-0.14966552 0.05503925 -0.01670366 0.026673079 0.06561177 0.044179182 0.099891976 0.041891407
0.09753039 0.06418119 -0.023214513 0.071193725 0.042772796 0.05050496 -0.02780173 -0.080769084
0.039055485 -0.05595194 0.10577312 -0.03843081 -0.055858742 -0.0030440039 0.13834517 0.0032920178
0.039665688 0.07604012 0.004296226 0.18214367 0.07011348 0.022078983 -0.06408614 -0.027370188
0.14653409 0.073190056 -0.014406439 0.035504602 0.12515825 0.01973887 -0.0011020388 0.031798728
-0.06760323 -0.10349059 -0.025811141 -0.05065128 -0.063459285 -0.12383802 -0.08622161 -0.09598478
0.03976531 -0.07526564 -0.053974237 -0.01221368 -0.14507343 -0.06883152 -0.06050535 -0.05687374
0.04559954 0.033935167 -0.13071068 -0.016810622 0.12357047 0.10563331 -0.01735127 -0.10283411
-0.04892594 -0.13985996 0.07216631 -0.050552797 -0.061636325 0.030833295 -0.0020191574 -0.080646984
0.017481202 0.027136799 -0.10715421 -0.00019264297 -0.05794997 -0.04189016 -0.033306196 -0.032636967
0.092302695 -0.011627967 0.0036248977 -0.15623806 -0.1017192 -0.019353172 -0.014934417 -0.12082569
0.08721573 -0.09764629 0.11166166 -0.020198753 -0.0011237056 -0.005206259 0.006016719 0.06273053
00000000: 11ce 8c3d b533 f3bd ffad 10be ba92 ccbc
00000010: 4278 dfbd 08b6 a7bc 77f8 47bd 66b1 9bbd
00000020: 95c2 d2bc 7274 93bd cab5 143a 1ded bfbd
00000030: 5fc8 adbb ba76 b8bc 4d2e 69bd 11cb 943d
00000040: 8e4e abbd a465 47be d4ed 6ebd 1dc5 1cbc
00000050: cbdf c43c 643a 79bd 4909 ddbd b58b e3bb
00000060: 44e0 85bc 4fbc aebd e928 54ba 55f0 b33d
00000070: 4f81 cbba 5bd2 c03d 3e67 de3c 2354 fb3b
00000080: 1b57 0c3e 7c06 8d3c 6023 dd3d 93e9 f43d
00000090: 5b55 4abd 4fef a0bd 83bf 463e b9c7 f13c
000000a0: 739f 3a3e 6108 943c 9a11 2c3e e652 b7bc
000000b0: 505c 083d 081e 1bbe 8ab6 b13b 9119 2f3e
000000c0: 545f 333e ad02 8b3d 46eb fc3d ad67 a0bc
000000d0: f604 eabd 275f b23b 4bc5 d8bd 1758 c73d
000000e0: fd82 7d3c 64da fb3c bbf0 bc3b 7ae2 2abd
000000f0: bec7 efbc 32b4 9abd a801 6dbe 15bd b4bd
00000100: a9c7 3fbd 2c20 703d f88a adbc d59f d33c
00000110: ac13 35bd 4bf9 b43c 6562 cd3d 2d3d ee3c
00000120: d8c1 2d3d 7b0d a5bd fdba a03d 253c 153e
00000130: a753 cfbd eeb2 ea3a f171 f73d 35fe 35be
00000140: ff58 123d 49b1 2c3d dda7 c23d dbd6 aabd
00000150: 0f56 2b3d 32ae c1bd 17d8 5fbd fd31 073c
00000160: 1804 adbd fce6 33be b248 b5bd e664 26be
00000170: 50b3 f4bc 227f 86bd 889c 05be 51a0 75bd
00000180: b4bb 48bc 66c7 8b3c 4362 8abd 5019 293e
00000190: 9b2c 6c3d 4699 ce3c 9b5d ce3d a595 c43d
000001a0: 9bcb afbd eb3f b13a 9d3f 5cbd 7eb1 c63d
000001b0: 33f3 0d3e 3faf aa3d 6745 dc3d ae0e e63d
000001c0: 78e2 c93d 96c6 073e 287f a1bd 1f30 f13d
000001d0: 63e5 c93d 7558 05be 0155 35be 6385 94be
000001e0: 084c dbbd ca6c a2bc c9e4 62bd 3281 4bbd
000001f0: 8d52 a2bd 9eb1 33be 8790 7abc 1f47 92bd
00000200: e7ec 66be c35a 0ebe dfc4 e8bd f501 cc3d
00000210: ea12 13be 97eb 303e 2115 d5bc 1a58 17be
00000220: f6da bf3c b289 f3bd 51bf 24bd 81b8 2fbc
00000230: c8c3 51bd 8517 2d3e 2beb 57bd 7474 913d
00000240: d12d b4bb 5562 58bd fed8 21bc afb1 9dbd
00000250: a848 09bc 463a 793d d1c7 523d b215 b6bd
00000260: 1d7a b73b aa86 78bc 3872 94bd 45bf 0bbd
00000270: e3bd 413d 828e d83c a36d a63d 9d3c e7bd
00000280: eb41 19be d670 613d 1dd6 88bc 8081 da3c
00000290: 775f 863d 3bf5 343d 2a94 cc3d 5396 2b3d
000002a0: 03be c73d 6e71 833d 5d2c bebc 04ce 913d
000002b0: 8732 2f3d 4ade 4e3d 74c0 e3bc 436a a5bd
000002c0: a5f8 1f3d dd2d 65bd 949f d83d a069 1dbd
000002d0: 23cc 64bd e97d 47bb 5baa 0d3e e5be 573b
000002e0: 7d78 223d ecba 9b3d 5bc7 8c3b df83 3a3e
000002f0: a897 8f3d fcde b43c 983f 83bd 7237 e0bc
00000300: 080d 163e abe4 953d fc08 6cbc 466d 113d
00000310: 7c29 003e 69b3 a13c 4972 90ba 623f 023d
00000320: 9073 8abd e0f2 d3bd e371 d3bc b777 4fbd
00000330: f1f6 81bd ca9e fdbd f594 b0bd ab93 c4bd
00000340: f3e0 223d df24 9abd 1714 5dbd e31b 48bc
00000350: 218e 14be 8af7 8cbd 75d4 77bd 70f4 68bd
00000360: 95c6 3a3d 9aff 0a3d 05d9 05be 6eb6 89bc
00000370: 8412 fd3d 4756 d83d 4024 8ebc b19a d2bd
00000380: 9166 48bd 7337 0fbe eecb 933d 7310 4fbd
00000390: 5f76 7cbd 1b96 fc3c d753 04bb 3f2a a5bd
000003a0: bd34 8f3c fe4d de3c ab73 dbbd 3400 4ab9
000003b0: f35c 6dbd 0495 2bbd 146c 08bd 57ae 05bd
000003c0: 3209 bd3d 3a83 3ebc b18f 6d3b dffc 1fbe
000003d0: 2852 d0bd 8b8a 9ebc 7caf 74bc 7673 f7bd
000003e0: 299e b23d c7fa c7bd deae e43d db77 a5bc
000003f0: 4e49 93ba 4499 aabb e627 c53b dd78 803d

blocks.2.conv.bias f4 [32]
-0.0023724043 0.00034679548 -0.0009327235 -5.4201126e-05 0.0023883935 0.0019135511 -0.0024381562 -0.0044079823
-2.0967913e-05 0.0028406107 0.00018487527 -0.0021270958 0.0031822554 -0.0032888807 -0.001380998 -0.00044812186
-0.00083635526 -0.0011319887 -0.00019941745 0.003577222 7.376395e-05 -0.00047355448 5.0242008e-05 -0.00813396
0.0007430049 0.0034756474 3.4887203e-06 0.00072977063 0.0021907673 0.0033136872 0.00039191966 -0.0036378913
00000000: 577a 1bbb 1ad2 b539 0482 74ba 0456 63b8
00000010: 9886 1c3b 1fd0 fa3a 79c9 1fbb d670 90bb
00000020: 40e4 afb7 8a29 3a3b 14db 4139 bf66 0bbb
00000030: 638d 503b 438a 57bb 9a02 b5ba e6f1 eab9
00000040: da3e 5bba 3d5f 94ba b71a 51b9 d46f 6a3b
00000050: b8b1 9a38 6847 f8b9 f2ba 5238 4d44 05bc
00000060: 37c6 423a b0c7 633b c21f 6a36 144e 3f3a
00000070: fa92 0f3b 722a 593b 917a cd39 b069 6ebb

blocks.2.bn.weight f4 [32]
1.1284255 0.9008385 0.96556175 0.8766695 0.85856956 0.8548481 0.99633676 1.0107589
0.9028874 1.0991985 0.90468144 0.9879817 0.9164534 1.0098295 0.91204166 0.9476489
0.96103114 1.0142577 0.86356694 0.9557881 0.94445837 0.8672556 0.857795 1.0553204
0.9349756 1.0384104 1.0483528 0.8884722 0.97423184 1.0493171 0.7209893 0.97100997
00000000: 3f70 903f 5a9d 663f 0e2f 773f 6a6d 603f
00000010: 37cb 5b3f 53d7 5a3f ed0f 7f3f 8c60 813f
00000020: a123 673f 89b2 8c3f 3499 673f 5eec 7c3f
00000030: b19c 6a3f 1842 813f 907b 693f 1e99 723f
00000040: 2306 763f 32d3 813f b912 5d3f 87ae 743f
00000050: 06c8 713f 7704 5e3f 7498 5b3f bd14 873f
00000060: 905a 6f3f a2ea 843f 6d30 863f ea72 633f
00000070: 4267 793f 0650 863f c192 383f 1c94 783f

blocks.2.bn.bias f4 [32]
-0.2322631 -0.37085864 -0.041491684 -0.049344007 -0.334697 -0.17628399 -0.1856817 -0.36257935
-0.41413748 -0.13066506 -0.2106534 -0.21358547 -0.2984842 -0.20599546 -0.37017277 -0.32338926
-0.23211978 -0.3534611 -0.27761948 -0.19974981 -0.33774686 -0.48221284 -0.3119535 -0.20839138
-0.2866215 -0.23018911 -0.4199838 -0.116817005 -0.15525036 -0.31326094 0.06493618 -0.33111334
00000000: 61d6 6dbe 2fe1 bdbe 2ff3 29bd f11c 4abd
00000010: 685d abbe ca83 34be 5823 3ebe 00a4 b9be
00000020: d409 d4be 10cd 05be 86b5 57be 26b6 5abe
00000030: ecd2 98be 79f0 52be 4987 bdbe 4793 a5be
00000040: cfb0 6dbe daf8 b4be 2424 8ebe 378b 4cbe
00000050: 28ed acbe 9ae4 f6be 5fb8 9fbe 8d64 55be
00000060: 0ec0 92be b2b6 6bbe 1e08 d7be c13d efbd
00000070: f3f9 1ebe bd63 a0be 43fd 843d b087 a9be

blocks.2.bn.running_mean f4 [32]
-1.5912925 -2.0449214 -0.635543 2.2605593 -2.6273735 1.8278214 -0.766416 -1.8779023
-1.309286 -0.8769038 0.2516487 -1.1352082 -0.6915378 -1.3505625 -1.13551 0.39069226
-0.7875727 -0.25421083 -0.13174672 -0.2067644 0.74461055 -0.79496026 0.8692373 -1.9765645
-1.9777564 -0.03167275 -1.4720049 1.0192676 0.80596894 -1.1398883 0.35954073 -2.2655933
00000000: 79af cbbf fedf 02c0 f2b2 22bf 01ad 1040
00000010: e326 28c0 0df6 e93f d733 44bf 1a5f f0bf
00000020: af96 a7bf c47c 60bf 19d8 803e 814e 91bf
00000030: 9f08 31bf 3bdf acbf 6458 91bf d108 c83e
00000040: 5d9e 49bf ec27 82be 9de8 06be 0cba 53be
00000050: cc9e 3e3f 8482 4bbf 5686 5e3f 1100 fdbf
00000060: 1f27 fdbf 49bb 01bd a86a bcbf 5c77 823f
00000070: fb53 4e3f dce7 91bf b915 b83e 7bff 10c0

blocks.2.bn.running_var f4 [32]
7.094488 4.6539598 4.158467 3.8489165 3.927812 3.2312572 3.7426653 3.7008164
2.63076 2.2929142 2.6527286 4.587818 2.0784087 8.1329 8.893733 1.7468289
3.4883728 2.4580238 3.1744714 2.7111897 2.1150255 3.004603 2.8443136 3.3517375
2.2183232 3.7634194 3.2426531 5.368111 5.0944123 7.1006737 7.56379 4.107855
00000000: 0c06 e340 3ded 9440 2912 8540 a654 7640
00000010: 4661 7b40 ebcc 4e40 d487 6f40 2dda 6c40
00000020: 5f5e 2840 1bbf 1240 4ec6 2940 68cf 9240
00000030: a604 0540 5c20 0241 bb4c 0e41 1798 df3f
00000040: 8041 5f40 4350 1d40 8a2a 4b40 2284 2d40
00000050: 945c 0740 6a4b 4040 3c09 3640 de82 5640
00000060: 02f9 0d40 dddb 7040 a187 4f40 91c7 ab40
00000070: 6d05 a340 b838 e340 910a f240 8c73 8340

blocks.3.conv.weight f4 [32, 32, 3, 3]
-0.027839767 -0.029790996 -0.06390894 0.02273686 -0.19691011 -0.14159936 -0.056764223 -0.15772755
-0.11157638 0.0069735544 -0.036076423 0.032374945 0.04409532 0.14418918 0.010091415 0.011991383
0.105259694 0.09062436 -0.05805076 0.01739944 -0.0350734 -0.14771809 0.038604595 0.094780914
-0.12119769 -0.10040521 -0.08343587 0.0069554313 0.058114722 -0.0052488497 0.029457007 -0.12649024
-0.015029952 -0.10083597 0.026569784 -0.01061116 -0.14087182 0.029671874 0.061107427 -0.1694341
0.14143597 -0.06351793 0.035327557 -0.014767266 0.012200976 0.03933319 0.10085774 0.06433619
-0.036428098 0.06360733 0.16456415 0.020482475 0.036858775 0.15411855 0.14436385 0.051349714
0.00062631094 0.21198845 0.05266436 0.09345326 0.052094027 -0.027488561 0.057231866 -0.15444872
0.095615186 0.045597266 0.09494789 0.009643809 0.033736546 0.020062327 0.018640537 -0.052801307
0.02275945 0.087552786 0.061278947 0.10225287 -0.0370564 0.088373974 -0.0708269 0.021095369
0.0850783 0.0033570528 -0.0967593 0.07702245 -0.027656194 -0.06718842 0.09567844 -0.056568816
0.06788156 0.12631257 -0.08577171 -0.06953112 0.0031715129 0.062783614 -0.049650215 -0.17714742
-0.042650245 -0.0454739 -0.10854096 -0.061429672 -0.064169645 -0.035358053 0.009622457 -0.0821955
0.017708985 -0.16879256 -0.069665164 0.009102607 -0.07090991 -0.004499879 -0.04260474 0.023886573
-0.098300196 0.05213995 -0.044905663 -0.048403528 0.010838033 0.097735375 0.10903313 -0.0825514
-0.010235921 0.115822844 0.12317911 0.023421865 -0.04149795 0.029984381 -0.18683892 -0.09404643
-0.09642447 -0.16719858 -0.13106032 -0.13070379 -0.023271836 0.0789012 -0.1132891 -0.01122457
-0.025801115 -0.062117647 -0.07130959 -0.047683913 0.09771769 0.0367033 0.05145806 0.07357411
0.015052284 -0.0032515305 0.08943068 0.031373646 0.021165593 0.060299277 0.0893229 0.07475656
-0.024542093 0.033812054 0.12091204 0.15308002 0.04357033 0.14878573 0.10662417 -0.021104766
-0.017413601 0.1347732 -0.023267752 -0.11448296 0.09234327 -0.037048288 0.050298072 0.033179667
-0.021896504 0.08287057 0.03210101 0.068627335 -0.15220788 -0.040319674 0.08106814 -0.031100903
0.035714127 0.07515545 -0.08550049 -0.07532382 -0.18062028 -0.027903516 0.091314025 -0.0053812824
-0.082210205 -0.06686629 -0.043772478 0.04306287 0.011052422 0.0151432585 0.07148276 0.014609666
0.008320629 0.04894089 0.014180327 0.11785681 0.1353623 0.13194613 -0.19511145 3.6459303e-05
-0.082695395 0.04804397 -0.0018908548 -0.0773633 -0.034035176 0.049545724 -0.11908847 -0.122189954
0.041535195 0.09423165 -0.0028242813 -0.21290438 0.0010361114 0.17288774 0.16005944 -0.041252743
0.04674485 0.07171784 0.0896156 -0.17157248 -0.015359146 -0.12311514 -0.022585336 -0.11037705
-0.19026276 0.08600792 -0.034638032 0.036781214 0.03228648 0.03035057 -0.13586807 0.0803002
0.025939899 -0.061019108 0.06859075 -0.060828038 -0.1562571 0.024949325 -0.10478146 -0.062251456
0.11072655 -0.042781528 -0.11222934 -0.094209485 -0.034266397 0.07535698 -0.06260609 0.015934521
-0.010642467 -0.06958602 0.036655266 0.14044565 -0.09043427 0.108623706 -0.11517358 -0.050368782
00000000: 3910 e4bc 3f0c f4bc b1e2 82bd a742 ba3c
00000010: cea2 49be 6cff 10be 9a81 68bd 5583 21be
00000020: 2882 e4bd 6a82 e43b dfc4 13bd 979b 043d
00000030: 4b9d 343d 54a6 133e 7656 253c 8177 443c
00000040: 6592 d73d 4499 b93d a2c6 6dbd 4589 8e3c
00000050: 20a9 0fbd 6943 17be da1f 1e3d 7f1c c23d
00000060: 7f36 f8bd 3fa1 cdbd 6de0 aabd 63ea e33b
00000070: b409 6e3d 8bfe abbb d24f f13c a886 01be
00000080: 3040 76bc 1783 cebd e0a8 d93c 6eda 2dbc
00000090: b440 10be 6e12 f33c c84b 7a3d 2280 2dbe
000000a0: 97d4 103e b015 82bd a1b3 103d 67f2 71bc
000000b0: 9ae6 473c d71b 213d 818e ce3d b1c2 833d
000000c0: a135 15bd 8f44 823d 8183 283e ddca a73c
000000d0: 3af9 163d 41d1 1d3e 1ed4 133e 1454 523d
000000e0: 042f 243a 8013 593e 95b6 573d 6c64 bf3d
000000f0: 8c60 553d b12f e1bc f66b 6a3d ce27 1ebe
00000100: e5d1 c33d 33c4 3a3d 0a74 c23d 1101 1e3c
00000110: 552f 0a3d c059 a43c 0ab4 983c 2f46 58bd
00000120: 0772 ba3c e04e b33d a2ff 7a3d f469 d13d
00000130: 74c8 17bd 6afd b43d b20d 91bd 32d0 ac3c
00000140: 883d ae3d 0002 5c3b bd29 c6bd f2bd 9d3d
00000150: 3e8f e2bc 159a 89bd 0ff3 c33d b4b4 67bd
00000160: 7d05 8b3d 1558 013e 14a9 afbd 5566 8ebd
00000170: 28d9 4f3b b294 803d 065e 4bbd 2266 35be
00000180: 06b2 2ebd d742 3abd b94a debd ae9d 7bbd
00000190: 606b 83bd 9bd3 10bd 83a7 1d3c 1d56 a8bd
000001a0: 6f12 913c f5d7 2cbe 9cac 8ebd 1a23 153c
000001b0: 3739 91bd b973 93bb 4f82 2ebd c6ad c33c
000001c0: 9d51 c9bd b390 553d 00ef 37bd c742 46bd
000001d0: 0192 313c 7c29 c83d c34c df3d b510 a9bd
000001e0: 90b4 27bc 8734 ed3d 5445 fc3d 36df bf3c
000001f0: c1f9 29bd cea1 f53c b452 3fbe 6a9b c0bd
00000200: 317a c5bd 1b36 2bbe ad34 06be 37d7 05be
00000210: 94a4 bebc f496 a13d 1e04 e8bd 42e7 37bc
00000220: dc5c d3bc 136f 7ebd c30a 92bd 3550 43bd
00000230: 3620 c83d 3356 163d b0c5 523d 06ae 963d
00000240: db9d 763c a117 55bb 6f27 b73d a781 003d
00000250: 7763 ad3c 60fc 763d edee b63d f819 993d
00000260: 800c c9bc 827e 0a3d bba0 f73d 02c1 1c3e
00000270: cd76 323d 495b 183e c65d da3d e7e3 acbc
00000280: f8a6 8ebc fc01 0a3e 039c bebc 0b76 eabd
00000290: 781e bd3d f2bf 17bd 5a05 4e3d 67e7 073d
000002a0: 4c60 b3bc 0cb8 a93d 597c 033d 7d8c 8c3d
000002b0: 62dc 1bbe 3e26 25bd 0e07 a63d 52c7 febc
000002c0: fa48 123d 1aeb 993d e21a afbd 6043 9abd
000002d0: 86f4 38be ea95 e4bc d902 bb3d 7855 b0bb
000002e0: d35d a8bd 32f1 88bd c54a 33bd b162 303d
000002f0: 3815 353c 6e1b 783c 8e65 923d 615d 6f3c
00000300: 3f53 083c 3e76 483d 9a54 683c e95e f13d
00000310: 6a9c 0a3e e31c 073e 4ccb 47be e1eb 1838
00000320: 345c a9bd c1c9 443d 8fd6 f7ba a670 9ebd
00000330: 7868 0bbd 75f0 4a3d a8e4 f3bd ba3e fabd
00000340: cf20 2a3d 86fc c03d 9417 39bb 9b03 5abe
00000350: 21ce 873a 7c09 313e 9fe6 233e a3f8 28bd
00000360: 8777 3f3d cee0 923d 6288 b73d b2b0 2fbe
00000370: eda4 7bbc ca23 fcbd e204 b9bc 5d0d e2bd
00000380: 3ed4 42be ec24 b03d 9ce0 0dbd e6a7 163d
00000390: d43e 043d c2a1 f83c 0021 0bbe 6e74 a43d
000003a0: e97f d43c 2cef 79bd 4f79 8c3d d226 79bd
000003b0: dc01 20be 8762 cc3c a997 d6bd 62fb 7ebd
000003c0: 9ac4 e23d af3b 2fbd 7fd8 e5bd e7f0 c0bd
000003d0: ec5a 0cbd c354 9a3d 9f37 80bd 1d89 823c
000003e0: be5d 2ebc 1e83 8ebd d523 163d fcd0 0f3e
000003f0: 9a35 b9bd 1b76 de3d 20e0 ebbd 7f4f 4ebd

blocks.3.conv.bias f4 [32]
0.0018969327 0.00044688597 5.8644575e-05 0.00011235007 0.0011352964 7.4437805e-05 -0.0021323077 -0.0025347378
-0.003184613 -0.003398389 -7.0373417e-06 -0.00030887307 0.0019267006 0.0047673816 -0.00013760106 -0.0042631547
0.00017013677 0.0018814376 -0.00041054728 -0.0030741766 0.00034162597 -0.0028414375 -0.0008922222 -0.00028187074
0.0023089366 0.0042473758 0.003214709 -7.50323e-05 0.0006541619 0.0009346614 0.00050415035 0.002656813
00000000: 80a2 f83a 054c ea39 22f9 7538 7c9d eb38
00000010: 3ace 943a 7e1b 9c38 30be 0bbb d81d 26bb
00000020: f1b4 50bb 82b7 5ebb 4e22 ecb6 3ef0 a1b9
00000030: 5889 fc3a b237 9c3b 0149 10b9 efb1 8bbb
00000040: be66 3239 929a f63a b93e d7b9 2078 49bb
00000050: 431c b339 6937 3abb 05e4 69ba 0dc8 93b9
00000060: 8751 173b 922d 8b3b dead 523b a95a 9db8
00000070: 107c 2b3a 1104 753a f528 043a ed1d 2e3b

blocks.3.bn.weight f4 [32]
1.078183 0.9441355 0.884309 0.8627494 0.97665036 0.8320512 0.95930535 1.0114594
1.1208687 0.92244345 0.80237323 0.869764 0.9924844 1.0515342 1.0442636 1.167054
1.0621531 0.9564779 1.0044055 0.90111315 1.0672635 1.0269172 1.0113581 1.0092849
1.0453378 0.8764263 0.9953096 0.8761333 0.8969268 0.93803483 0.8482397 0.9434928
00000000: e701 8a3f ddb2 713f 1362 623f 25dd 5c3f
00000010: c205 7a3f 4f01 553f 0995 753f 8077 813f
00000020: a078 8f3f 4125 6c3f 5568 4d3f daa8 5e3f
00000030: 7513 7e3f ac98 863f 6eaa 853f 0762 953f
00000040: a2f4 873f bcdb 743f 5c90 803f 5aaf 663f
00000050: 179c 883f 0672 833f 2f74 813f 3f30 813f
00000060: a1cd 853f 795d 603f 9ccc 7e3f 464a 603f
00000070: ff9c 653f 0d23 703f 3d26 593f bf88 713f

blocks.3.bn.bias f4 [32]
-0.112448 -0.33732727 -0.06340609 0.0070695 -0.37313008 -0.05658674 -0.44281515 -0.24790566
-0.30044764 -0.23906611 -0.1481126 -0.038222726 -0.26089844 -0.246028 -0.4676486 -0.16163445
-0.30407614 -0.4529582 -0.24229054 -0.25922984 -0.20135331 -0.40662724 -0.3879169 -0.16102958
-0.44115937 -0.3255152 -0.4008798 -0.12844016 -0.13900249 -0.306512 0.015826605 -0.3479593
00000000: 234b e6bd 29b6 acbe 0ddb 81bd 44a7 e73b
00000010: e80a bfbe 7fc7 67bd abb8 e2be fbda 7dbe
00000020: 46d4 99be bfcd 74be d4aa 17be 6f8f 1cbd
00000030: 7b94 85be c4ee 7bbe a36f efbe 8083 25be
00000040: deaf 9bbe 23ea e7be 031b 78be c6b9 84be
00000050: 902f 4ebe 7231 d0be 0b9d c6be f0e4 24be
00000060: a4df e1be eea9 a6be 1e40 cdbe d185 03be
00000070: ab56 0ebe 24ef 9cbe cca6 813c b927 b2be

blocks.3.bn.running_mean f4 [32]
-1.1406336 -0.56264806 -0.8679087 -1.6475838 0.61165875 -0.3696398 -2.6001494 -2.566906
0.9162214 -1.9436531 1.2488891 -0.8838488 1.9896839 0.114024855 -1.2513413 -1.5930613
-0.6365931 1.613489 -2.693637 0.07850896 -1.0443175 -1.3652922 1.7915267 -2.9338048
0.85623753 1.1866012 1.5236634 0.5565824 1.6630263 0.6178657 -0.4557282 0.19060189
00000000: 4800 92bf b409 10bf 442f 5ebf 07e4 d2bf
00000010: ab95 1c3f 6e41 bdbe d968 26c0 3048 24c0
00000020: 7c8d 6a3f a0c9 f8bf 99db 9f3f ea43 62bf
00000030: f6ad fe3f dd85 e93d f42b a0bf 6fe9 cbbf
00000040: c4f7 22bf cf86 ce3f 8c64 2cc0 4ec9 a03d
00000050: 32ac 85bf e5c1 aebf bf50 e53f 75c3 3bc0
00000060: 6232 5b3f 8ce2 973f 6707 c33f 2f7c 0e3f
00000070: 0cde d43f 722c 1e3f 3555 e9be 242d 433e
